train_script/weights/GANOrigEdgeBased_model300new_gaia_mom_vel/128.pth (torch, 146217 bytes, 129 tensors)

attnN1.node_attn_maps.0.weight f4 [8, 8]
7.70746e-40 9.72147e-40 7.6438e-40 -5.49235e-40 7.15464e-40 -6.30524e-40 9.38765e-40 -8.67206e-40
-4.1057e-40 5.71873e-40 -8.94885e-40 -9.71932e-40 -3.01045e-40 6.12367e-40 -6.63038e-40 -8.97665e-40
8.53447e-40 -8.02578e-40 8.85744e-40 -7.8644e-41 -7.274e-41 8.51215e-40 5.69321e-40 3.15142e-40
-5.16598e-40 7.4998e-40 3.2501e-40 7.19109e-40 2.86e-41 5.96913e-40 7.2955e-40 -5.32003e-40
-1.80043e-40 -2.11675e-40 -6.29913e-40 4.59406e-40 7.18589e-40 4.00593e-40 -9.97115e-40 8.34072e-40
1.82892e-40 8.59484e-40 -7.97377e-40 -6.21776e-40 8.58433e-40 -3.1221e-41 7.11344e-40 -2.23022e-40
2.84423e-40 -3.3717e-40 4.11e-40 -3.09082e-40 -8.72446e-40 -5.58078e-40 9.41538e-40 -9.27166e-40
-8.75911e-40 3.38583e-40 -7.31007e-40 -9.56169e-40 -6.70732e-40 3.9558e-40 -7.75117e-40 9.2254e-41
00000000: 8764 0800 f395 0a00 c852 0800 0bfb 0580
00000010: 6cca 0700 a5dd 0680 e538 0a00 6b71 0980
00000020: 8178 0480 263a 0600 93be 0980 5a95 0a80
00000030: 3147 0380 08ab 0600 4838 0780 53c6 0980
00000040: 104b 0900 43bd 0880 18a5 0900 3adb 0080
00000050: c5ca 0080 d744 0900 0933 0600 7d6e 0300
00000060: 11a0 0580 a42a 0800 ff89 0300 95d4 0700
00000070: ba4f 0000 f37f 0600 b0f1 0700 02cb 0580
00000080: e3f5 0180 104e 0280 f1db 0680 a300 0500
00000090: 22d3 0700 b15c 0400 8ddb 0a80 0e15 0900
000000a0: d4fd 0100 e45b 0900 c3ae 0880 42c5 0680
000000b0: f658 0900 0857 0080 f0be 0700 b26d 0280
000000c0: db18 0300 e5ab 0380 b379 0400 985d 0380
000000d0: 0680 0980 b213 0680 a040 0a00 9018 0a80
000000e0: af89 0980 d5af 0300 c0f5 0780 6969 0a80
000000f0: ba4d 0780 b74e 0400 b670 0880 2b01 0100

attnN1.node_attn_maps.0.bias f4 [8]
-1.83242e-40 2.25508e-40 2.65448e-40 9.86113e-40 -1.61923e-40 -9.44243e-40 -5.0943e-40 -5.9823e-41
00000000: cefe 0180 a074 0200 f6e3 0200 e2bc 0a00
00000010: 60c3 0180 2a48 0a80 158c 0580 c3a6 0080

attnN1.node_attn_maps.1.weight f4 [8, 8]
-7.66597e-40 -7.22089e-40 7.4151e-40 -7.2643e-41 -7.28524e-40 5.70767e-40 -7.70538e-40 -7.84136e-40
8.20274e-40 3.7346e-40 9.46661e-40 -6.91349e-40 3.251e-40 6.39421e-40 9.69612e-40 -7.85076e-40
-4.17035e-40 5.9929e-40 -7.68004e-40 2.67191e-40 6.95036e-40 -6.33086e-40 -9.58453e-40 -5.43642e-40
7.3098e-40 2.61711e-40 -4.31785e-40 -5.35517e-40 -6.2156e-40 -8.45307e-40 -2.2977e-41 3.34148e-40
7.14334e-40 8.8292e-40 9.81213e-40 -1.005912e-39 4.44528e-40 -3.76336e-40 -3.0743e-41 7.12985e-40
6.23281e-40 1.49668e-40 -7.15266e-40 -7.5362e-40 6.6974e-40 3.3922e-40 6.13996e-40 4.96874e-40
-7.8035e-40 2.20982e-40 7.64012e-40 -1.007608e-39 7.8428e-40 -6.3735e-41 -1.97016e-40 8.0404e-40
5.33557e-40 4.57686e-40 1.86049e-40 1.04659e-40 2.68877e-40 9.53645e-40 1.9707e-40 -9.49104e-40
00000000: f658 0880 e4dc 0780 0713 0800 80ca 0080
00000010: d4ee 0780 1137 0600 f263 0880 da89 0880
00000020: 97ee 0800 0e11 0400 e84e 0a00 3387 0780
00000030: 3f8a 0300 72f6 0600 e28e 0a00 798c 0880
00000040: 868a 0480 9486 0600 e25c 0880 d2e8 0200
00000050: 7a91 0700 c9e4 0680 c76f 0a80 74eb 0580
00000060: adf5 0700 8bd9 0200 a4b3 0480 ced4 0580
00000070: a8c4 0680 5f34 0980 0d40 0080 78a3 0300
00000080: 46c7 0700 399d 0900 39af 0a00 13f4 0a80
00000090: 2ad7 0400 1219 0480 b355 0080 83c3 0700
000000a0: 74c9 0600 37a1 0100 dfc9 0780 c934 0880
000000b0: f64a 0700 9bb1 0300 92af 0600 1569 0500
000000c0: 4c7f 0880 0268 0200 c151 0800 cdf8 0a80
000000d0: 418a 0800 abb1 0080 3325 0280 56c1 0800
000000e0: 57cf 0500 d8fb 0400 a106 0200 bf23 0100
000000f0: 85ed 0200 6062 0a00 5a25 0200 b755 0a80

attnN1.node_attn_maps.1.bias f4 [8]
9.47332e-40 1.347965e-39 8.4012e-40 -1.241804e-39 -5.10919e-40 -5.77321e-40 1.43912e-40 1.717558e-39
00000000: c750 0a00 94ad 0e00 ea25 0900 a585 0d80
00000010: 3c90 0580 5649 0680 2b91 0100 dab3 1200

attnN1.node_attn_maps.2.weight f4 [8, 8]
7.63618e-40 4.24553e-40 7.22622e-40 -6.75496e-40 -7.19455e-40 1.006351e-39 -8.11695e-40 8.19932e-40
9.85431e-40 -2.1693e-40 6.3937e-40 -6.5194e-41 -8.11095e-40 6.73283e-40 -2.92392e-40 2.61852e-40
2.59563e-40 1.42508e-40 -7.56048e-40 5.81584e-40 5.13073e-40 -4.88683e-40 -4.27434e-40 8.61091e-40
-6.23502e-40 3.84236e-40 9.3448e-40 -6.8064e-40 9.8167e-40 -7.37938e-40 -5.48528e-40 -7.94468e-40
7.29866e-40 2.52356e-40 8.88077e-40 -8.68191e-40 5.79136e-40 8.47341e-40 -3.71685e-40 -7.58538e-40
-2.62778e-40 9.15758e-40 -1.23023e-40 2.79865e-40 -1.82565e-40 3.38257e-40 -3.82577e-40 7.33197e-40
9.13878e-40 7.94756e-40 -8.83558e-40 -5.82857e-40 1.58909e-40 2.90932e-40 -9.62776e-40 -4.58857e-40
-7.93624e-40 6.02446e-40 7.59022e-40 -9.3844e-40 7.47464e-40 9.925e-42 2.9904e-40 -8.7714e-41
00000000: a850 0800 7b9f 0400 60de 0700 025b 0780
00000010: 8cd5 0780 4cf5 0a00 add6 0880 a3ed 0800
00000020: fbba 0a00 b65c 0280 4ef6 0600 bcb5 0080
00000030: 01d5 0880 d754 0700 122f 0380 f0d9 0200
00000040: 8ed3 0200 418d 0100 8e3b 0880 3855 0600
00000050: 3d96 0500 4052 0580 83a7 0480 5f60 0900
00000060: 12ca 0680 182f 0400 f32c 0a00 5969 0780
00000070: 7fb0 0a00 1209 0880 13f9 0580 a7a6 0880
00000080: 92f2 0700 77bf 0200 99ab 0900 2a74 0980
00000090: 654e 0600 0b3a 0900 1b0c 0480 7f42 0880
000000a0: 85dc 0280 c3f8 0900 f056 0180 260c 0300
000000b0: ebfc 0180 ecae 0300 782a 0480 dbfb 0700
000000c0: 85f3 0900 75a7 0800 009f 0980 c558 0680
000000d0: f9ba 0100 002b 0300 d47b 0a80 1bff 0480
000000e0: 4da4 0880 608f 0600 d843 0800 fd37 0a80
000000f0: a023 0800 ab1b 0000 9a41 0300 83f4 0080

attnN1.node_attn_maps.2.bias f4 [8]
9.88713e-40 6.79425e-40 1.119577e-39 7.38365e-40 2.53011e-40 1.231982e-39 -8.49646e-40 8.20211e-40
00000000: 21c4 0a00 f665 0700 ed30 0c00 430a 0800
00000010: 4bc1 0200 446a 0d00 7840 0980 6aee 0800

attnN1.node_attn_maps.3.weight f4 [8, 8]
-1.002828e-39 9.76947e-40 -6.83787e-40 -8.56852e-40 7.51256e-40 9.22245e-40 -6.1004e-40 -8.60634e-40
-2.35355e-40 -1.9581e-40 -5.83289e-40 2.2913e-41 3.60436e-40 5.19147e-40 -1.12457e-40 -4.05358e-40
3.70458e-40 5.41463e-40 -7.66973e-40 7.85704e-40 -8.97104e-40 6.43894e-40 -8.52296e-40 4.25782e-40
5.40723e-40 6.81727e-40 -4.01068e-40 3.3614e-41 4.1378e-40 -7.46587e-40 -4.5462e-40 7.43512e-40
8.76435e-40 -7.20342e-40 -3.98807e-40 8.98218e-40 5.5243e-40 5.27964e-40 -7.66157e-40 1.35322e-40
-1.44174e-40 8.60544e-40 -1.20812e-40 -1.96152e-40 4.53124e-40 -9.00418e-40 5.29437e-40 4.91836e-40
1.39495e-40 3.9706e-41 -9.1389e-40 2.24841e-40 -3.90533e-40 9.50171e-40 6.0672e-41 1.81053e-40
-1.008262e-39 -5.4298e-40 -4.65332e-40 1.6171e-40 9.34997e-40 3.0768e-40 4.0953e-40 -4.70801e-40
00000000: 7aeb 0a80 55a3 0a00 1f72 0780 8e54 0980
00000010: 322e 0800 d80a 0a00 8ba4 0680 195f 0980
00000020: 1390 0280 d721 0280 f959 0680 df3f 0000
00000030: c0ec 0300 2ca7 0500 7c39 0180 f969 0480
00000040: b008 0400 61e5 0500 025a 0880 398e 0800
00000050: c3c4 0980 ea02 0700 db47 0980 e8a2 0400
00000060: 51e3 0500 616c 0700 045e 0480 b45d 0000
00000070: 7381 0400 2e21 0880 4cf3 0480 9c18 0800
00000080: 258b 0900 05d8 0780 b657 0480 dec7 0900
00000090: f303 0600 c0bf 0500 bc57 0880 3979 0100
000000a0: e691 0180 d95e 0900 c650 0180 cb22 0280
000000b0: 20ef 0400 00ce 0980 dbc3 0500 0a5b 0500
000000c0: db84 0100 af6e 0000 8ef3 0980 c472 0200
000000d0: a640 0480 b158 0a00 21a9 0000 b4f8 0100
000000e0: a0fa 0a80 9be9 0580 2811 0580 c8c2 0100
000000f0: 642e 0a00 b059 0300 9a75 0400 6720 0580

attnN1.node_attn_maps.3.bias f4 [8]
-5.34922e-40 -8.9867e-41 7.3714e-41 5.8661e-40 -4.54818e-40 3.90543e-40 -5.87476e-40 4.90003e-40
00000000: 25d3 0580 83fa 0080 7ccd 0000 3b63 0600
00000010: d9f3 0480 ad40 0400 a565 0680 ee55 0500

attnN1.edge_attn_maps.0.weight f4 [8, 8]
-0.22589128 0.30321485 0.014695114 0.13518812 0.05416855 0.059564214 -0.09163958 -0.019114757
0.2564593 -0.045355998 0.18635303 -0.14281993 -0.26609564 0.19533372 0.06159164 -0.31801522
0.07730633 -0.45605618 0.08019084 -0.2557353 -0.016334167 0.27731526 0.0693029 0.043692484
0.14773789 0.28474167 0.33784956 -0.13276163 -0.23688059 0.09563109 0.036962736 -0.21361364
-0.35850367 -0.09921357 0.2083401 0.031546313 -0.14391543 -0.18545133 -0.27205697 0.012731971
-0.23341493 -0.28292316 -0.22650099 0.011538166 -0.37115058 -0.18236336 -0.10963489 0.27215123
-0.008986422 0.13265403 -0.17717126 -0.21905246 0.14047462 -0.05938655 0.09464094 0.095486864
-0.33116043 -0.89798766 0.08121406 -0.35846367 0.17117472 0.00047949655 -0.039597 0.038771298
00000000: 0b50 67be fa3e 9b3e c7c3 703c c16e 0a3e
00000010: d7df 5d3d 9bf9 733d 88ad bbbd 8d96 9cbc
00000020: a24e 833e 36c7 39bd 54d3 3e3e 633f 12be
00000030: b03d 88be 9005 483e 8447 7c3d e4d2 a2be
00000040: c852 9e3d 3280 e9be 183b a43d bdef 82be
00000050: 3bcf 85bc 44fc 8d3e aeee 8d3d e4f6 323d
00000060: 9a48 173e a9c9 913e 9efa ac3e aaf2 07be
00000070: d390 72be 3cda c33d 3d66 173d 89bd 5abe
00000080: cb8d b7be 7c30 cbbd 1b57 553e b536 013d
00000090: 915e 13be f4e6 3dbe 0d4b 8bbe c299 503c
000000a0: 5304 6fbe 4edb 90be e0ef 67be 930a 3d3c
000000b0: 7307 bebe 76bd 3abe 4288 e0bd 6857 8b3e
000000c0: c93b 13bc 75d6 073e 626c 35be 4a4f 60be
000000d0: 94d8 0f3e 503f 73bd 1cd3 c13d 9e8e c33d
000000e0: dc8d a9be 85e2 65bf 8f53 a63d 8d88 b7be
000000f0: 6d48 2f3e f064 fb39 7730 22bd a7ce 1e3d

attnN1.edge_attn_maps.0.bias f4 [8]
0.008213265 -0.0068756305 -0.006201844 -0.0020484962 0.026896318 0.014087134 -0.050949737 -0.064533524
00000000: ee90 063c f84c e1bb d738 cbbb 1040 06bb
00000010: ab55 dc3c b9cd 663c acb0 50bd 272a 84bd

attnN1.edge_attn_maps.1.weight f4 [8, 8]
0.1461877 0.19093059 0.19496381 0.19367872 -0.33090279 0.020671645 0.009767598 0.24424073
-0.30075797 -0.21899942 0.14864947 -0.21896169 -0.21951717 0.22459233 -0.1829272 0.314665
-0.14882565 0.50990754 0.13414861 0.09620454 -0.047142744 -0.01038533 -0.07936023 0.052273966
-0.10800365 -0.4495808 -0.17019582 0.11518074 0.27457798 -0.2977621 -0.11846376 0.19046174
-0.08649183 -0.15225422 0.1713031 0.10241816 0.15912624 -0.05245707 0.021043617 -0.091527306
0.13412003 -0.039321486 0.28705305 0.29509893 -0.056191847 0.094809934 0.019835323 0.17294359
0.19846581 -0.043112352 -0.18275206 -0.13145712 -0.08545326 0.041581463 0.032977454 -0.01311791
-0.28535038 -0.23623402 0.26055753 0.043310806 -0.17854592 -0.21018536 0.0061064353 0.26201126
00000000: 3ab2 153e 4f83 433e 98a4 473e b753 463e
00000010: 176c a9be 9557 a93c 4608 203c 3e1a 7a3e
00000020: f3fc 99be 6241 60be 9137 183e 7e37 60be
00000030: 1cc9 60be 88fb 653e 4551 3bbe c51b a13e
00000040: c065 18be 4d89 023f 415e 093e e306 c53d
00000050: c018 41bd 3b27 2abc 9e87 a2bd 3a1d 563d
00000060: 0531 ddbd 742f e6be d047 2ebe e1e3 eb3d
00000070: 7c95 8c3e 4674 98be 219d f2bd 6708 433e
00000080: a122 b1bd 88e8 1bbe 146a 2f3e 9dc0 d13d
00000090: fdf1 223e 3add 56bd aa63 ac3c ab72 bbbd
000000a0: c356 093e 910f 21bd 9ef8 923e 3517 973e
000000b0: 6c29 66bd b62b c23d b07d a23c 2018 313e
000000c0: 9f3a 4b3e 9496 30bd 5b23 3bbe b29c 06be
000000d0: 1e02 afbd 5351 2a3d 5e13 073d 81ec 56bc
000000e0: 7219 92be 55e7 71be cc67 853e ac66 313d
000000f0: bed4 36be d53a 57be 7e18 c83b 5726 863e

attnN1.edge_attn_maps.1.bias f4 [8]
-0.02200624 0.012835059 -0.06165478 0.0072681177 -0.0012665999 0.022966893 0.05229618 0.0115256915
00000000: 6e46 b4bc 244a 523c b989 7cbd 6429 ee3b
00000010: 0a04 a6ba 1125 bc3c 8534 563d 41d6 3c3c

attnN1.edge_attn_maps.2.weight f4 [8, 8]
0.08580137 -0.36987135 -0.41324693 -0.31065255 0.030409882 -0.039617207 -0.022603638 0.13701504
-0.11723071 0.05985963 0.19688797 -0.29095116 0.07126379 0.016694712 -0.08280837 -0.32937357
-0.2965578 -0.33254296 -0.053628504 -0.14132185 -0.074791454 0.08637596 -0.118076965 0.17741968
-0.1628022 0.2515883 -0.08420856 -0.057540584 0.04454917 0.2982552 -0.10906189 -0.21864349
-0.1417965 -0.17236772 -0.14848255 0.25583714 0.10439244 0.009003882 0.037695196 0.08891891
-0.25128084 -0.5588861 -0.23491378 0.030706406 -0.24106689 -0.16060862 -0.12033228 -0.19746016
-0.2217492 0.007694976 0.18022835 0.35223517 0.12851445 -0.04585807 0.17273672 -0.21894287
-0.39657024 -0.19856374 -0.16696763 0.102249585 -0.22833282 0.16256736 0.2516127 -0.25013676
00000000: a1b8 af3d c75f bdbe 1a95 d3be da0d 9fbe
00000010: 251e f93c a745 22bd 442b b9bc ac4d 0c3e
00000020: a816 f0bd 5f2f 753d 009d 493e 8df7 94be
00000030: c0f2 913d 59c3 883c 6f97 a9bd a7a3 a8be
00000040: 6dd6 97be 1243 aabe 90a9 5bbd adb6 10be
00000050: 432c 99bd e1e5 b03d 56d2 f1bd 81ad 353e
00000060: 9fb5 26be 2fd0 803e 8a75 acbd adaf 6bbd
00000070: 3179 363d e8b4 983e d75b dfbd 14e4 5fbe
00000080: 1a33 11be 2a81 30be cf0b 18be 16fd 823e
00000090: b4cb d53d 0585 133c 4766 1a3d 1e1b b63d
000000a0: e2a7 80be 2913 0fbf 3d8d 70be 008c fb3c
000000b0: 3dda 76be 9676 24be c570 f6bd ff32 4abe
000000c0: 3912 63be 2326 fc3b c88d 383e 2b58 b43e
000000d0: 4b99 033e acd5 3bbd e5e1 303e 8f32 60be
000000e0: 410b cbbe 4b54 4bbe 90f9 2abe 3b68 d13d
000000f0: 14d0 69be 0f78 263e 61d3 803e ed11 80be

attnN1.edge_attn_maps.2.bias f4 [8]
-0.008643421 0.012257058 0.010732806 -0.007299996 0.12976848 0.030831875 0.014019233 0.016117796
00000000: 239d 0dbc d4d1 483c a7d8 2f3c ce34 efbb
00000010: 07e2 043e 2193 fc3c edb0 653c 7809 843c

attnN1.edge_attn_maps.3.weight f4 [8, 8]
-0.24224836 0.14372054 0.35770103 -0.34327117 0.20314692 -0.102376446 -0.017361917 0.047807753
-0.14537717 0.17443523 -0.6369957 0.28316137 0.19465783 0.20044813 -0.25143597 -0.2204661
-0.1385154 0.28092712 -0.332102 0.13426498 -0.1466394 0.06658842 0.15636097 0.08653359
-0.14981295 -0.18461336 -0.40692425 -0.41169125 -0.15640935 0.24691682 -0.10637479 0.37449965
0.1992977 -0.32240656 -0.1092218 0.24385466 -0.044708174 0.03259203 0.1673756 -0.08746803
-0.052206106 0.08003918 -0.035665765 -0.15069242 -0.25840497 0.034789436 -0.021580135 0.08437144
-0.017205363 -0.16726653 0.2008733 0.36568615 -0.13965586 -0.04516002 -0.16234273 0.1425389
-0.2077827 -0.40605572 -0.041758575 0.18369019 0.05452399 0.3512121 0.21833791 0.08218944
00000000: f40f 78be 7a2b 133e 9724 b73e 3dc1 afbe
00000010: bf05 503e beaa d1bd 943a 8ebc 10d2 433d
00000020: c1dd 14be 269f 323e 2612 23bf 87fa 903e
00000030: 6254 473e 4642 4d3e 37bc 80be dec1 61be
00000040: fbd6 0dbe aed5 8f3e 4609 aabe c27c 093e
00000050: a428 16be 825f 883d 171d 203e 8638 b13d
00000060: 9168 19be 490b 3dbe 6058 d0be 32c9 d2be
00000070: c629 20be c3d7 7c3e 07db d9bd 6bbe bf3e
00000080: b214 4c3e 7912 a5be aeaf dfbd 09b5 793e
00000090: eb1f 37bd 387f 053d 8264 2b3e 7022 b3bd
000000a0: 12d6 55bd 95eb a33d 4416 12bd 1d4f 1abe
000000b0: a84d 84be 5e7f 0e3d d3c8 b0bc efca ac3d
000000c0: 43f2 8cbc eb47 2bbe bbb1 4d3e 373b bb3e
000000d0: f201 0fbe b7f9 38bd 2c3d 26be b8f5 113e
000000e0: fdc4 54be 89e6 cfbe 0a0b 2bbd 4819 3c3e
000000f0: 8c54 5f3d 13d2 b33e f993 5f3e f052 a83d

attnN1.edge_attn_maps.3.bias f4 [8]
0.06146093 0.015798366 -0.012253063 0.011135797 0.015334529 -0.018672626 -0.0016716154 0.0050357096
00000000: 75be 7b3d 936b 813c 12c1 48bc eb72 363c
00000010: ad3d 7b3c 56f7 98bc 1b1a dbba 9802 a53b

attnN1.combinator.weight f4 [1, 16]
-3.38785e-40 -2.48546e-40 -6.53166e-40 8.13672e-40 1.15379e-40 -5.89991e-40 2.440668e-39 -7.17803e-40
0.088135354 -0.10296332 -0.0076347147 -0.12852848 0.08367956 -0.20993339 0.051404312 -0.0829961
00000000: 65b0 0380 d8b4 0280 c31c 0780 30dc 0800
00000010: a141 0100 a86c 0680 9793 1a00 f1d0 0780
00000020: 4f80 b43d 6fde d2bd a12c fabb f89c 03be
00000030: 3060 ab3d c7f8 56be 548d 523d dcf9 a9bd

convE1.self_map.weight f4 [32, 8]
0.36704317 0.5133729 0.00652621 0.05237018 -0.007341455 -0.0046060686 -0.05773376 -0.006829814
0.1144502 0.24068771 0.14410466 -0.16021542 0.12371871 0.13560657 -0.016901214 0.047781713
0.007699608 -0.11434193 -0.056866948 0.008453334 -0.049940757 0.095815666 0.18469647 0.075589314
0.023689348 0.17740135 -0.14613125 -0.0465249 0.049277328 -0.08382792 -0.14207116 0.10115969
0.1023338 0.0072580813 -0.2976416 -0.5842832 0.031249963 -0.0035163155 0.0015368345 -0.0024248962
0.23340985 0.2511218 0.05873051 -0.04291067 -0.0026116176 -0.009469587 0.03493654 -0.021267781
-0.39276028 0.26137897 0.13310552 -0.2372134 0.025953379 -0.12963419 -0.0965728 -0.018294105
-0.013085442 -0.12762587 0.15485749 -0.23030175 0.25402254 -0.07882492 0.03365331 0.045252856
0.1366811 0.18883562 -0.025375027 0.054553542 -0.1489578 -0.03236703 -0.14924225 0.08788482
0.04687805 0.24554653 -0.051984645 0.09962991 -0.18435779 -0.07173421 0.0701901 -0.1246004
0.765176 -0.06037692 -0.0061941035 -0.0097497 -0.015135787 -0.03192614 0.0013703465 -0.0027856748
0.10010893 0.21444584 0.04236167 -0.29424575 -0.20964906 -0.038938668 0.015854824 -0.1262616
-0.15985908 -0.0931552 0.13330005 -0.33847532 0.08012168 0.13616101 0.003877803 0.027488457
-0.11591515 0.44626474 -0.1438896 0.36533996 -0.0052349768 0.0662064 0.04945742 -0.0023972462
0.16125488 0.054540627 -0.13244912 -0.020221794 -0.17477793 0.061354775 -0.025604649 -0.009707088
-0.024718992 0.09294494 0.1584308 -0.31994343 -0.008080641 -0.16260579 -0.038168967 0.16754492
0.11510811 0.4394969 0.09995172 0.31714886 0.10416971 -0.081130765 0.09866908 -0.08838676
-0.0038488903 -0.028532118 -0.020028898 0.16150291 -0.016806222 0.16747728 0.035370097 -0.192131
0.08217503 0.08048598 -0.04292814 0.016622368 -0.063416764 -0.03958166 -0.06045832 -0.07941264
-0.039428793 0.1824984 -0.076295055 0.37930855 -0.09275307 -0.039400287 -0.10262939 0.12872913
-0.37107724 0.15380505 0.022720762 -0.25625685 0.030448474 0.06029581 0.025826793 0.0836321
0.17505239 -0.21548691 0.121525526 -0.061808486 -0.19032624 0.09996449 0.09724832 -0.14025371
0.04072954 -0.11762363 -0.053648226 -0.08349799 -0.098641776 -0.02279038 -0.055015057 -0.0065264623
0.29605246 -0.25316966 0.011624269 -0.25771523 -0.056041617 0.25208938 -0.013856077 -0.029372174
-0.39973783 0.09911567 -0.18585004 0.2631358 0.008942095 -0.005495741 -0.013131555 0.0087022735
-0.21631257 0.010240033 -0.22507304 -0.043970592 0.19059841 0.075103365 0.076117516 -0.13121317
-0.12155936 -0.008287656 -0.33145195 -0.2152808 -0.1297312 0.1447482 0.10556369 0.06512951
-0.7437609 -0.004255833 0.008373069 -0.012996626 -0.011038697 -0.008997979 -0.0035040656 0.0009688734
-0.13697025 0.32980227 0.010146349 -0.17416106 0.058026332 0.03800429 0.0005136059 0.035935715
0.10760282 0.039335318 0.05619423 0.11944653 0.080407165 -0.024894698 0.0065006353 -0.018703852
0.13878763 -0.36335233 0.08485475 -0.14929466 -0.06600105 -0.20156093 -0.06498329 -0.034046486
0.08119549 -0.24242617 0.35853943 0.24359243 -0.062848575 0.021111846 -0.0218243 -0.0003602875
00000000: 15ed bb3e 686c 033f d1d9 d53b 1d82 563d
00000010: 9790 f0bb 81ee 96bb 3c7a 6cbd a2cc dfbb
00000020: de64 ea3d d776 763e 2c90 133e 830f 24be
00000030: 3c60 fd3d 73dc 0a3e 6a74 8abc c2b6 433d
00000040: fe4c fc3b 1a2c eabd 51ed 68bd da7f 0a3c
00000050: ae8e 4cbd 013b c43d 1221 3d3e 92ce 9a3d
00000060: 2a10 c23c b3a8 353e 6ea3 15be e590 3ebd
00000070: 06d7 493d f9ad abbd 1a7b 11be d02c cf3d
00000080: 6294 d13d 33d5 ed3b 7b64 98be 9593 15bf
00000090: ecff ff3c fc71 66bb 9c6f c93a 02eb 1ebb
000000a0: fe02 6f3e 0993 803e 678f 703d 19c3 2fbd
000000b0: ac27 2bbb 5426 1bbc 9e19 0f3d c539 aebc
000000c0: e017 c9be 77d3 853e d04c 083e 12e8 72be
000000d0: 2e9c d43c d3be 04be f6c7 c5bd 85dd 95bc
000000e0: 5264 56bc 5bb0 02be f692 1e3e 39d4 6bbe
000000f0: 3e0f 823e f66e a1bd 0ed8 093d 0f5b 393d
00000100: 21f6 0b3e 205e 413e 4adf cfbc 8973 5f3d
00000110: 6588 18be 4a93 04bd f6d2 18be f5fc b33d
00000120: 3303 403d 8d70 7b3e daed 54bd c40a cc3d
00000130: 4ac8 3cbe 63e9 92bd d4bf 8f3d 7f2e ffbd
00000140: 93e2 433f ca4d 77bd e8f7 cabb 35bd 1fbc
00000150: 18fc 77bc fcc4 02bd 339d b33a de8f 36bb
00000160: e905 cd3d b197 5b3e 6e83 2d3d 61a7 96be
00000170: 3eae 56be 277e 1fbd fae1 813c b94a 01be
00000180: 19b2 23be 27c8 bebd cf7f 083e a34c adbe
00000190: d616 a43d cb6d 0b3e bd22 7e3b 792f e13c
000001a0: ec64 edbd d07c e43e cc57 13be d70d bb3e
000001b0: 2b8a abbb 3997 873d dd93 4a3d 1e1b 1dbb
000001c0: 0020 253e fe65 5f3d bea0 07be 2da8 a5bc
000001d0: fcf8 32be 254f 7b3d d7c0 d1bc 7a0a 1fbc
000001e0: 7c7f cabc eb59 be3d af3b 223e a0cf a3be
000001f0: aa64 04bc 2282 26be 1057 1cbd e590 2b3e
00000200: cdbd eb3d bd05 e13e 7db3 cc3d 5661 a23e
00000210: ee56 d53d e327 a6bd 0413 ca3d 1e04 b5bd
00000220: aa3d 7cbb 30bc e9bc a513 a4bc 0561 253e
00000230: 34ad 89bc 2a7f 2b3e 3ce0 103d fdbd 44be
00000240: 624b a83d d5d5 a43d 6bd5 2fbd a22b 883c
00000250: a6e0 81bd 6120 22bd 25a3 77bd 18a3 a2bd
00000260: 1680 21bd dce0 3a3e 9540 9cbd bb34 c23e
00000270: 52f5 bdbd 3262 21bd 5c2f d2bd 92d1 033e
00000280: d6fd bdbe 127f 1d3e e420 ba3c 1934 83be
00000290: 146f f93c bdf8 763d b692 d33c 4e47 ab3d
000002a0: ef40 333e 9aa8 5cbe 60e2 f83d e52a 7dbd
000002b0: e2e4 42be 2fba cc3d 212a c73d ab9e 0fbe
000002c0: 05d4 263d a8e4 f0bd 3ebe 5bbd ff00 abbd
000002d0: b304 cabd e4b2 babc 7857 61bd efdb d5bb
000002e0: 3094 973e 749f 81be b873 3e3c 40f3 83be
000002f0: e58b 65bd dc11 813e 9904 63bc ea9d f0bc
00000300: 70aa ccbe 28fd ca3d 794f 3ebe bcb9 863e
00000310: dd81 123c 9e15 b4bb bc25 57bc fb93 0e3c
00000320: 0b81 5dbe d0c5 273c 8c79 66be 821a 34bd
00000330: 3b2c 433e cbcf 993d 80e3 9b3d bf5c 06be
00000340: 1df4 f8bd f3c8 07bc 12b4 a9be 9272 5cbe
00000350: 41d8 04be df38 143e c731 d83d 9f62 853d
00000360: 1d67 3ebf 8474 8bbb 322f 093c cdef 54bc
00000370: a7db 34bc 426c 13bc 77a4 65bb fefb 7d3a
00000380: ee41 0cbe d8db a83e df3c 263c 4757 32be
00000390: 05ad 6d3d 63aa 1b3d 82a3 063a 5431 133d
000003a0: de5e dc3d 121e 213d ec2b 663d 62a0 f43d
000003b0: 83ac a43d f7ef cbbc 4803 d53b d238 99bc
000003c0: 581e 0e3e 5109 babe 54c8 ad3d b3e0 18be
000003d0: 8f2b 87bd fd65 4ebe f615 85bd 5474 0bbd
000003e0: d249 a63d 913e 78be 7b92 b73e 4b70 793e
000003f0: c1b6 80bd c0f2 ac3c e0c8 b2bc f8e4 bcb9

convE1.self_map.bias f4 [32]
-0.06960248 0.020634783 -0.058712866 0.02237558 -0.05737318 -0.05123553 -0.07937232 0.028345862
-0.06994511 -0.07241007 -0.063226745 0.04177253 0.03529073 -0.026321491 0.03412827 -0.0073523424
-0.004363039 0.02993902 0.0074370457 -0.010648764 0.00327155 0.068585835 0.3397001 -0.122052595
-0.056682535 0.027748585 0.011550669 -0.08057985 0.07187384 0.22977425 -0.06349313 0.023986062
00000000: bf8b 8ebd 470a a93c e77c 70bd fe4c b73c
00000010: 2400 6bbd 59dc 51bd f48d a2bd 9535 e83c
00000020: 623f 8fbd bb4b 94bd 067d 81bd ac19 2b3d
00000030: 038d 103d 2ba0 d7bc 16ca 0b3d ebeb f0bb
00000040: d3f7 8ebb ad42 f53c 76b2 f33b 2778 2ebc
00000050: 8067 563b bb76 8c3d 2ced ad3e b6f6 f9bd
00000060: f22b 68bd 0051 e33c 043f 3d3c 0c07 a5bd
00000070: 9832 933d f149 6b3e b008 82bd 6b7e c43c

convE1.pass_map.weight f4 [32, 64]
0.016707389 0.0028080957 -0.040119756 -0.09467323 -0.067748055 -0.059793264 -0.0572301 -0.0067791273
0.09842019 0.047863875 -0.05121942 -0.26104373 -0.037820786 -0.040354155 -0.055775166 0.15326066
-0.002364018 -0.07076302 0.029023226 -0.0060904385 -0.019801034 0.041241597 -0.049357854 -0.015416592
-0.021134118 -0.011134181 -0.036212437 0.069126524 -0.011534084 -0.022104578 -0.020353908 0.03198258
-0.047674306 0.043917533 0.035136353 -0.07348514 0.041308932 -0.016101295 0.043714765 -0.0092200795
-0.093115 -0.012640333 -0.15917028 0.099228546 0.063278906 -0.00011848494 0.028434487 -0.10512565
0.030288354 -0.011106005 0.016430384 0.041430417 -0.007972591 -0.10946982 0.06454158 0.009324984
0.010094102 -0.00063821767 0.07348109 0.057428874 -0.012153936 0.04069132 0.0019498729 -0.017164046
-0.02166117 0.12163807 0.047533214 0.08177113 0.06744517 -0.13780612 -0.071476966 -0.113987304
0.044240292 0.09507984 0.00075952813 0.12256499 -0.002590778 -0.1816796 0.0634485 0.08285674
0.25143173 -0.19208193 -0.17754698 -0.15345691 0.034858864 -0.029154982 -0.06529884 -0.032422163
-0.2191404 -0.05421272 -0.10288459 -0.21054707 -0.05815671 -0.38141602 -0.006758538 0.12334618
-0.003950122 0.02291443 -0.05358805 -0.24321091 -0.015390088 -0.052503116 -0.031809013 -0.059271615
0.09315169 0.0013696133 -0.001513313 0.06728164 -0.15606704 0.016835213 -0.07652677 -0.034380395
-0.06746318 -0.071761005 -0.001832153 0.07771187 -0.0020607961 0.080649346 -0.072348244 0.20899679
0.0068767024 0.03139024 0.123800665 -0.36704347 -0.037946954 -0.01705532 -0.024449885 -0.010172016
-0.018614283 0.02311984 -0.08512591 0.15538956 -0.09145571 -0.17141384 0.03354893 -0.06389173
-0.12350576 0.17686208 0.028991012 -0.22188973 0.08012673 -0.25520122 -0.090543 -0.0805759
0.10744034 -0.22497453 0.07477209 -0.14737086 -0.014469176 -0.15739295 -0.09204393 -0.058408957
-0.06918624 -0.012001565 -0.22332068 0.14941336 -0.10521729 0.04449219 -0.16832729 -0.01754326
-0.012800842 0.07838693 0.033764493 -0.07597617 0.097927116 -0.056261834 -0.061315957 -0.012908445
-0.09255372 0.001966533 -0.15034233 -0.32060686 0.13195333 -0.024519954 -0.047129977 -0.037813485
0.020362115 -0.10710059 0.05356146 0.03097471 -0.03779156 -0.06908137 -0.08029734 -0.059289843
-0.0076424093 -0.18312387 -0.16803874 -0.2833366 0.059019778 0.017827854 -0.09607924 -0.083650135
0.17339218 -0.2699161 0.097005956 -0.2766239 0.11121047 -0.2021371 -0.12861548 -0.06794791
-0.1237738 0.125177 0.1303456 0.12420118 -0.13063733 0.16599557 -0.05372397 -0.060367346
-0.20373659 -0.032682177 0.061738044 0.01503261 0.21606685 0.031986523 -0.0976085 -0.06260661
-0.1197958 -0.0066595315 -0.22122529 0.13982196 -0.060569778 -0.17079236 0.28754225 0.092412725
-0.16732857 0.013429833 0.012912591 -0.027305733 -0.0015115293 -0.24237466 -0.16758376 -0.22588626
-0.02671089 -0.24980733 -0.14159714 0.12838975 -0.06767841 0.20405713 -0.10628606 -0.05306332
-0.18123555 0.10526831 -0.12860188 0.1509588 -0.24264851 0.09702521 -0.11225643 -0.07423372
-0.10311743 0.07362915 -0.09933936 0.033618413 0.06293582 -0.018511469 -0.04948363 -0.027862523
00000000: efdd 883c 0708 383b 9d54 24bd 0ae4 c1bd
00000010: 7ebf 8abd c8e9 74bd 1c6a 6abd 7123 debb
00000020: 8690 c93d e90c 443d 74cb 51bd 86a7 85be
00000030: f8e9 1abd 664a 25bd 8074 64bd 5df0 1c3e
00000040: a4ed 1abb 34ec 90bd 1ec2 ed3c 4d92 c7bb
00000050: c735 a2bc f3ec 283d 762b 4abd e095 7cbc
00000060: 7521 adbc 246c 36bc 7e53 14bd 3592 8d3d
00000070: 74f9 3cbc a914 b5bc 3dbd a6bc 2a00 033d
00000080: 2246 43bd dfe2 333d 23eb 0f3d 617f 96bd
00000090: 8e33 293d dde6 83bc 410e 333d d10f 17bc
000000a0: 14b3 bebd 6619 4fbc 89fd 22be 5638 cb3d
000000b0: 5f98 813d 1e7b f8b8 71ef e83c 1e4c d7bd
000000c0: 481f f83c f6f5 35bc 0399 863c f1b2 293d
000000d0: 789f 02bc b731 e0bd 602e 843d d1c7 183c
000000e0: bb61 253c 104e 27ba 417d 963d 8a3a 6b3d
000000f0: 4d21 47bc f1ab 263d e192 ff3a 9d9b 8cbc
00000100: c472 b1bc 611d f93d 30b2 423d 9f77 a73d
00000110: b120 8a3d 0c1d 0dbe 8462 92bd 2d72 e9bd
00000120: 4f35 353d 38b9 c23d 121b 473a 5a03 fb3d
00000130: 0bca 29bb 380a 3abe 4af1 813d cbb0 a93d
00000140: a9bb 803e 20b1 44be e0ce 35be cf23 1dbe
00000150: 2bc8 0e3d 6ed6 eebc 66bb 85bd 1acd 04bd
00000160: 5766 60be 280e 5ebd 28b5 d2bd a799 57be
00000170: bb35 6ebd f648 c3be ba76 ddbb ec9c fc3d
00000180: 0670 81bb 0bb7 bb3c 257f 5bbd 480c 79be
00000190: b526 7cbc 820d 57bd 2b4a 02bd cbc6 72bd
000001a0: 50c6 be3d 9984 b33a 5c5a c6ba f5ca 893d
000001b0: 0ad0 1fbe 00ea 893c 11ba 9cbd 75d2 0cbd
000001c0: 232a 8abd 6ff7 92bd da24 f0ba 6727 9f3d
000001d0: 6c0e 07bb 7c2b a53d 512b 94bd 4103 563e
000001e0: f655 e13b 0d93 003d 348b fd3d 1fed bbbe
000001f0: 446e 1bbd 99b7 8bbc 204b c8bc 87a8 26bc
00000200: fb7c 98bc d265 bd3c 7e56 aebd 711e 1f3e
00000210: 224d bbbd 1c87 2fbe 9a6a 093d abd9 82bd
00000220: 97f0 fcbd 551b 353e 8f7e ed3c 1037 63be
00000230: 7c19 a43d bca9 82be 9c6e b9bd fa04 a5bd
00000240: ae09 dc3d b95f 66be 1c22 993d 63e8 16be
00000250: 1f10 6dbc 9e2b 21be 8781 bcbd 3b3e 6fbd
00000260: 84b1 8dbd 36a2 44bc 2dae 64be d1ff 183e
00000270: 2a7c d7bd 713d 363d fd5d 2cbe e2b6 8fbc
00000280: 9fba 51bc 5489 a03d a34c 0a3d 6599 9bbd
00000290: 038e c83d cf72 66bd 7126 7bbd f17d 53bc
000002a0: ce8c bdbd f3e0 003b 57f3 19be 9526 a4be
000002b0: c61e 073e 12de c8bc 5d0b 41bd 50e2 1abd
000002c0: 73ce a63c 8e57 dbbd 4363 5b3d adbe fd3c
000002d0: 53cb 1abd 897a 8dbd ef72 a4bd e8d9 72bd
000002e0: 2d6d fabb d384 3bbe 5912 2cbe 7f11 91be
000002f0: b9be 713d b80b 923c 31c5 c4bd c350 abbd
00000300: b88d 313e 7132 8abe 0fab c63d a6a1 8dbe
00000310: 51c2 e33d 07fd 4ebe c7b3 03be 4628 8bbd
00000320: 1e7d fdbd 662e 003e 5179 053e 305d fe3d
00000330: cbc5 05be befa 293e aa0d 5cbd c043 77bd
00000340: 53a0 50be bfdd 05bd 08e1 7c3d 564b 763c
00000350: a140 5d3e 4d04 033d f7e6 c7bd e537 80bd
00000360: 8057 f5bd 3338 dabb e288 62be 7d2d 0f3e
00000370: 0418 78bd 31e4 2ebe bd38 933e e242 bd3d
00000380: 2e58 2bbe cd08 5c3c 558f 533c 46b0 dfbc
00000390: 821e c6ba 1031 78be 149b 2bbe ba4e 67be
000003a0: ccd0 dabc 7ecd 7fbe d7fe 10be 9a78 033e
000003b0: fa9a 8abd 5af4 503e 81ac d9bd ed58 59bd
000003c0: d095 39be e996 d73d 36b0 03be f294 1a3e
000003d0: da78 78be 27b5 c63d b3e6 e5bd d907 98bd
000003e0: 3b2f d3bd e1ca 963d 6f72 cbbd 76b3 093d
000003f0: 7fe4 803d 5da5 97bc 59af 4abd f23f e4bc

convE1.pass_map.bias f4 [32]
-0.02860514 0.007120815 -0.03599415 0.022312136 0.028945528 -0.05173153 -0.070630714 0.028302882
-0.02800636 -0.0626038 -0.10584646 0.040261112 0.033693608 -0.031547863 0.03279617 0.0024152338
0.012344776 0.029657397 0.0014234469 -0.0095449975 0.0032865333 0.06434186 0.33049992 -0.12897944
-0.027607625 0.027565608 0.011564413 -0.14403804 0.06639922 0.18449698 -0.04612131 0.04214143
00000000: 5455 eabc ba55 e93b 9a6e 13bd f1c7 b63c
00000010: 2c1f ed3c 71e4 53bd d6a6 90bd 72db e73c
00000020: 986d e5bc 6c36 80bd 07c6 d8bd d6e8 243d
00000030: 4f02 0a3d 5538 01bd 4755 063d e648 1e3b
00000040: be41 4a3c 12f4 f23c f492 ba3a 9f62 1cbc
00000050: e162 573b aac5 833d 4937 a93e 3013 04be
00000060: 6329 e2bc 45d1 e13c aa78 3d3c b57e 13be
00000070: 50fc 873d c7ec 3c3e b3e9 3cbd 7e9c 2c3d

attnN2.node_attn_maps.0.weight f4 [8, 32]
5.5204842e-36 1.42552555e-36 2.2970779e-36 3.156328e-36 -9.518527e-37 -1.4649913e-36 1.7251253e-35 1.6871108e-37
1.164901e-36 1.1243969e-36 6.270758e-36 -1.7977256e-37 2.1453077e-36 1.8792907e-36 6.5933086e-36 -1.616933e-36
2.9707445e-36 1.4932635e-36 -1.5075551e-37 1.7138871e-36 6.1074533e-37 5.8189396e-37 1.496969e-36 -1.515622e-38
4.8610813e-36 3.9130757e-36 1.3837402e-36 4.242772e-38 5.744566e-36 -2.015166e-37 1.3626863e-36 -2.414719e-37
7.465304e-36 7.812248e-37 -1.3985222e-36 4.299034e-36 -1.4350114e-36 -3.062617e-36 3.7588398e-36 -3.4048814e-36
-3.7359095e-37 -2.1276744e-36 6.6364555e-36 -7.423372e-37 -8.3430055e-37 1.2186221e-37 3.9722486e-36 -2.5142955e-36
-3.7388078e-36 1.8978255e-36 -1.8177977e-36 3.6827207e-36 -8.85756e-36 -2.0292219e-37 1.524947e-36 -9.0882417e-38
5.5179354e-36 4.672544e-36 6.072224e-37 -1.0314535e-37 -4.1767124e-36 -6.1410603e-37 -3.0811993e-36 -1.0825815e-36
1.9362596e-36 -9.414148e-38 -2.3512716e-36 2.0863875e-36 -1.8257598e-36 -3.0827016e-36 -9.721569e-36 -7.920213e-36
-2.3790498e-36 -2.8800691e-36 1.741275e-36 -6.5573342e-37 -2.2515084e-36 -7.3184415e-37 -3.717182e-36 -2.9036208e-36
-6.257364e-36 1.2870169e-36 -2.3734793e-36 2.756883e-36 -1.18296266e-35 -5.063335e-37 2.4332279e-37 -2.185447e-37
-3.5934943e-36 2.6554863e-36 -1.2480461e-36 -1.0459636e-37 -8.279788e-36 -8.22395e-37 -6.182093e-36 -7.811441e-37
-4.0848813e-36 -9.947447e-37 4.2695456e-36 -4.0410524e-36 1.086588e-36 2.9916051e-36 1.1137689e-35 3.9094866e-36
2.176982e-36 2.7404634e-36 -4.0032445e-36 9.365644e-37 4.4406043e-36 2.1159664e-36 8.529763e-37 2.6347077e-36
7.387023e-36 -1.5114896e-36 2.768136e-36 -3.3195142e-36 1.4612767e-35 2.0569757e-37 -4.878097e-37 1.709034e-37
3.9335094e-37 -1.8197535e-36 4.511183e-37 1.6169533e-37 1.14484734e-35 7.656599e-37 5.318726e-36 1.3683001e-36
2.0605676e-36 3.0986962e-37 -2.5019926e-36 8.490529e-37 -1.05950155e-36 -2.6756274e-36 -1.7633237e-35 -5.033073e-36
-2.0302597e-36 -2.8327737e-36 -1.401446e-36 -7.816663e-37 -3.7415858e-36 -1.7353931e-36 -4.2200584e-36 -1.9375241e-36
-6.5639894e-36 1.0166937e-36 -3.7288532e-37 2.6603294e-36 -1.217131e-35 -4.5191517e-37 -6.15315e-37 -9.661622e-38
-6.906305e-36 5.0981875e-37 -1.4174833e-36 1.0960301e-38 -9.444035e-36 1.3835755e-37 -3.732848e-36 -1.8585961e-37
2.1626176e-36 -2.0292304e-37 4.2870567e-36 -2.5575526e-36 2.6700024e-36 3.076458e-36 2.3621602e-35 7.117354e-36
3.9252608e-36 3.2842587e-36 -1.2023504e-36 1.0985698e-36 6.7988494e-36 3.4440872e-36 8.999045e-36 3.0329505e-36
9.9390515e-36 -4.839262e-37 2.915514e-36 -2.3539558e-36 1.7238897e-35 2.296502e-37 1.5574527e-36 2.2442252e-37
1.3958208e-35 -6.8422884e-37 1.1793433e-36 1.4860602e-37 1.4768174e-35 6.2095477e-37 8.51628e-36 1.0481795e-36
-1.2856338e-36 1.8750027e-37 -4.0058543e-36 1.589334e-36 -2.245246e-36 -2.935082e-36 -2.2487375e-35 -8.554908e-36
-4.3598026e-36 -3.1463415e-36 -8.0086445e-37 -8.878123e-37 -5.295301e-36 -3.0850704e-36 -8.303253e-36 -2.8375256e-36
-9.016783e-36 9.067841e-37 -2.6653956e-36 2.5589602e-36 -1.5810976e-35 -4.4269808e-37 -8.475853e-37 -2.4740933e-37
-1.15562804e-35 1.4397573e-36 -1.984864e-36 -1.3603489e-37 -1.3401065e-35 -6.1866758e-37 -8.183903e-36 -8.073653e-37
-6.896665e-36 -8.831583e-37 1.8888047e-36 -4.8160636e-36 1.4168894e-36 2.7986654e-36 -6.312935e-36 3.294643e-36
4.4765325e-37 2.0500126e-36 -7.14882e-36 3.4776928e-37 4.099898e-37 -1.305314e-37 -3.5238134e-36 2.3284555e-36
2.8842403e-36 -2.1626474e-36 1.9897453e-36 -3.34254e-36 7.625361e-36 2.2819518e-37 -1.8238162e-36 2.1435315e-37
-6.258211e-36 -4.3778795e-36 -4.164486e-37 1.1350334e-37 4.014951e-36 9.755552e-37 3.3766143e-36 1.1246021e-36
00000000: c0d0 ea04 658a f203 ed69 4304 5e41 8604
00000010: 08f3 a183 5f41 f983 6172 b705 3ba3 6502
00000020: 9832 c603 644e bf03 415d 0505 98b1 7482
00000030: aa80 3604 54df 1f04 6339 0c05 af8d 0984
00000040: 16b9 7c04 cc10 fe03 a132 4d82 28cd 1104
00000050: 6cd3 4f03 1d02 4603 32b2 fe03 6009 a580
00000060: 7dc4 ce04 9f71 a604 636e eb03 9cff 6601
00000070: c958 f404 2525 8982 5cd9 e703 5756 a482
00000080: fbc4 1e05 24eb 8403 3cf2 ed83 56dc b604
00000090: 9027 f483 f244 8284 24e2 9f04 e0d3 9084
000000a0: b940 fe82 a500 3584 4d24 0d05 b19a 7c83
000000b0: eaf2 8d83 c8de 2502 f5f5 a804 82e4 5584
000000c0: 0308 9f84 fb72 2104 21a4 1a84 47a5 9c04
000000d0: 2561 3c85 081a 8a82 68ba 0104 cd67 f781
000000e0: ffb4 ea04 80bf c604 88a0 4e03 e964 0c82
000000f0: 5fa8 b184 2ef8 5083 4a0f 8384 1331 b883
00000100: 00b8 2404 8523 0082 2906 4884 7f7d 3104
00000110: 8751 1b84 a61f 8384 42c1 4e85 be71 2885
00000120: 1e63 4a84 5a02 7584 9d21 1404 7022 5f83
00000130: 8389 3f84 9e08 7983 871c 9e84 4303 7784
00000140: 5514 0585 7ef9 da03 cde9 4984 9887 6a04
00000150: 9d96 7b85 de4b 2c83 cf98 a502 dbbb 9482
00000160: b0d9 9884 5fe7 6104 1358 d483 835e 0e82
00000170: 7417 3085 5bec 8b83 847a 0385 a0e7 8483
00000180: 6bc0 ad84 3e3f a983 3c9b b504 2ae3 ab84
00000190: 95df b803 647f 7e04 59df 6c05 8a4a a604
000001a0: 7832 3904 0222 6904 7947 aa84 2259 9f03
000001b0: e6e1 bc04 ab01 3404 5c20 9103 da22 6004
000001c0: c71a 1d05 5495 0084 aa7c 6b04 4f32 8d84
000001d0: bc63 9b05 92fd 8b02 38fe 2583 259f 6802
000001e0: b3d9 0503 b9ce 1a84 f281 1903 9916 5c02
000001f0: 6b7b 7305 3145 8203 cc3b e204 e0cd e803
00000200: 304b 2f04 e7e2 d202 93d8 5484 7875 9003
00000210: cd43 b483 019e 6384 3d82 bb85 5015 d684
00000220: 24b7 2c84 59fc 7084 9571 ee83 5efe 8483
00000230: 4326 9f84 84a1 1384 5e80 b384 8ad3 2484
00000240: c299 0b85 42fb ac03 c9c5 fd82 d850 6204
00000250: 756d 8185 5dc7 1983 7f61 5183 d781 0382
00000260: 80e1 1285 7a7b 2d03 1b2c f183 dc58 7700
00000270: 38da 4885 9252 3c02 1ec7 9e84 9ffa 7c82
00000280: a4f9 3704 2e1a 8a82 ea59 b604 9092 5984
00000290: 8123 6304 a9db 8204 1e30 fb05 905e 1705
000002a0: 4ef6 a604 69b2 8b04 bf91 cc83 77e9 ba03
000002b0: 7598 1005 ca7e 9204 7663 3f05 e801 8104
000002c0: 5861 5305 ebab 2483 4606 7804 9e40 4884
000002d0: be50 b705 b54a 9c02 517e 0404 ebbb 9802
000002e0: db6d 9405 bdd4 6883 a5a7 c803 a445 4a02
000002f0: cb0a 9d05 ca4c 5303 0a1f 3505 a856 b203
00000300: 40bd da83 4f36 7f02 e463 aa84 a134 0704
00000310: 2101 3f84 6db0 7984 7520 ef85 59f1 3585
00000320: 0c72 b984 a0d4 8584 9142 8883 ae0d 9783
00000330: b93c e184 7139 8384 3697 3085 d663 7184
00000340: 09c4 3f85 0548 9a03 2dbf 6284 38b1 5904
00000350: 9221 a885 71a4 1683 8c35 9083 c960 a882
00000360: 60c6 7585 46f6 f403 83da 2884 3e29 3982
00000370: 2b81 8e85 8c85 5283 680d 2e85 b85d 8983
00000380: 04ad 1285 f842 9683 86ae 2004 4ada cc84
00000390: 3d12 f103 8915 6e04 e342 0685 7c23 8c04
000003a0: 1954 1803 5265 2e04 e109 1885 f4ad ec02
000003b0: 2683 0b03 8eab 3182 eee2 9584 4515 4604
000003c0: 315d 7504 4afa 3784 d144 2904 0a2d 8e84
000003d0: 6a2c 2205 354d 9b02 3327 1b84 96e1 9102
000003e0: f118 0585 e336 ba84 cab5 0d83 247e 1a02
000003f0: f2c6 aa04 6cfb a503 13a0 8f04 5457 bf03

attnN2.node_attn_maps.0.bias f4 [8]
8.754891e-38 2.1506504e-38 -9.115099e-38 6.0743413e-38 -9.895868e-38 1.7115166e-37 -1.6153823e-37 -2.1703748e-38
00000000: af54 ee01 622f ea00 f822 f881 fb5b a501
00000010: 11b2 0682 a6f5 6802 dcdf 5b82 3855 ec80

attnN2.node_attn_maps.1.weight f4 [8, 32]
-1.4849932e-35 -7.651358e-37 3.2715592e-36 -2.4360158e-36 -4.0118907e-36 -1.878079e-36 -1.4545602e-36 -1.5579438e-36
-2.2912097e-36 4.0549744e-37 -1.514638e-37 -6.6910535e-37 -3.8209665e-36 -3.2078892e-36 -1.257331e-35 -2.0629565e-36
3.191577e-36 -5.226427e-37 -7.69564e-37 -1.5338573e-36 -2.513612e-36 3.4037632e-37 -4.1887967e-36 -5.485755e-37
-2.3532781e-35 3.265373e-36 -1.0394913e-36 -1.8874246e-37 -2.678037e-36 -8.540396e-37 -8.6206726e-36 -4.4391727e-37
-2.8607233e-35 -6.7399506e-36 -9.566606e-36 -6.990869e-36 -5.8685827e-36 -1.7184879e-36 -5.566679e-35 -1.1790932e-35
-9.048533e-36 -4.0254597e-36 -5.935544e-36 -2.0153915e-36 -2.096556e-35 -1.1395687e-35 -3.4688457e-35 -2.127464e-36
-1.5370161e-35 -6.7986736e-36 -5.981534e-36 -5.353131e-36 -2.508566e-35 -1.070137e-37 -6.617322e-36 -7.926519e-37
-4.684478e-35 -4.3636637e-36 -4.22875e-36 -3.0198217e-37 -3.7699674e-35 -1.7022556e-36 -2.3503426e-35 -4.477221e-36
-5.5072158e-36 -3.1670594e-36 -1.6027473e-36 -2.5466711e-36 -5.1949434e-37 -2.4063543e-37 -3.037699e-35 -1.3295484e-36
-2.2159064e-36 -2.4837247e-36 -4.8486247e-36 -1.5093853e-36 -7.7501826e-36 -1.9295857e-36 -7.501899e-36 -9.320609e-37
-7.159209e-36 -2.4304829e-36 -3.084668e-36 4.5718306e-37 -1.23567e-35 -1.2164301e-37 -1.7911357e-36 3.6683072e-37
-1.1968449e-35 -2.6596403e-36 -1.993515e-36 3.426553e-39 -1.1824524e-35 4.814878e-38 -4.7428105e-36 -1.1426707e-36
3.1221027e-35 6.467683e-36 1.5196384e-35 7.0149986e-36 5.6867413e-36 1.8012173e-36 7.8669523e-35 1.2051295e-35
1.18976925e-35 3.305893e-36 8.750134e-36 3.1508124e-36 2.9402856e-35 1.5099238e-35 4.2954254e-35 2.1127611e-36
2.0570284e-35 8.0693196e-36 5.5562958e-36 5.8116573e-36 3.298989e-35 1.6321048e-38 8.752788e-36 1.0448342e-36
5.514649e-35 9.1276706e-36 4.9504348e-36 1.6089725e-37 5.05823e-35 1.618964e-36 2.7150912e-35 4.1817157e-36
1.0808252e-35 -4.546918e-37 -2.3011007e-36 -5.983829e-37 2.8259814e-36 4.1426804e-37 -1.0641741e-35 3.4106964e-36
2.360729e-36 -1.2441394e-36 -2.7680101e-36 -1.2598317e-36 -8.3908e-37 2.1119709e-36 9.658897e-36 9.06439e-37
-1.6853722e-36 -4.8455148e-37 2.0904726e-36 1.8258536e-36 -5.810511e-36 8.8572007e-38 4.4342343e-37 7.6817e-37
9.9788335e-36 4.176272e-37 -5.6786986e-37 1.487079e-37 -3.3072068e-36 1.1036034e-36 3.7954046e-36 -8.0397403e-38
2.4851222e-35 5.757676e-36 1.4039492e-35 5.9498532e-36 6.228934e-36 1.6230738e-36 6.600797e-35 1.6805032e-35
1.1155081e-35 4.1419915e-36 9.282351e-36 2.4286214e-36 2.3871758e-35 1.3555792e-35 3.388443e-35 1.7969195e-36
1.9000985e-35 4.7543233e-36 6.300079e-36 3.7156473e-36 2.8575786e-35 2.0393758e-37 6.0352466e-36 1.4800592e-36
4.3397742e-35 7.944271e-36 4.7782848e-36 1.3179234e-37 4.3081162e-35 6.7934237e-37 2.2800868e-35 3.544952e-36
-7.5758774e-36 -3.9052345e-36 -5.7705164e-36 -3.7619937e-36 -4.023165e-37 3.3650067e-38 -4.120765e-35 9.349824e-37
-4.2603204e-36 -1.2857244e-36 -6.518851e-36 -1.3327125e-36 -1.2113073e-35 -4.9907053e-36 -1.2950312e-35 -1.4950718e-37
-9.4721986e-36 -4.8557337e-36 -2.6427705e-36 -1.009707e-36 -1.6297177e-35 -8.6346554e-38 -2.2659205e-36 4.745064e-37
-1.7165584e-35 -5.865239e-36 -2.754338e-36 1.2838927e-37 -2.0076142e-35 2.5631664e-37 -6.431579e-36 -1.440969e-36
2.558942e-35 6.6300364e-36 8.3223e-36 6.388742e-36 4.640209e-36 2.0111443e-36 4.3789472e-35 7.295533e-36
5.6753314e-36 3.298593e-36 5.346928e-36 2.3038626e-36 1.7775715e-35 8.13746e-36 2.8246116e-35 1.5752706e-36
9.449078e-36 4.791649e-36 4.371061e-36 6.075084e-36 1.9311197e-35 2.004805e-37 4.8476827e-36 6.880849e-37
3.9089897e-35 3.9267513e-36 4.086923e-36 1.499587e-37 2.991328e-35 1.5408784e-36 1.8205464e-35 3.3481145e-36
00000000: 5ce9 9d85 5d2e 8283 2028 8b04 ba3b 4f84
00000010: 9fa5 aa84 f0c4 1f84 087b f783 0389 0484
00000020: 21ea 4284 cffb 0903 6e29 4e82 4caf 6383
00000030: a486 a284 d272 8884 ceb3 8585 377f 2f84
00000040: 32c1 8704 9ad8 3183 3def 8283 747c 0284
00000050: 9fd5 5584 eba5 e702 f52b b284 aaab 3a83
00000060: 533e fa85 c3e4 8a04 3bdc b083 9373 8082
00000070: 7bd2 6384 ac4e 9183 6857 3785 a60e 1783
00000080: 261a 1886 c857 0f85 8f75 4b85 e9ad 1485
00000090: 359f f984 5a31 1284 dbfc 9386 f1c3 7a85
000000a0: e670 4085 6039 ab84 5a78 fc84 5773 2b84
000000b0: aff1 de85 065c 7285 7b6f 3886 10fc 3484
000000c0: 8f71 a385 8097 1085 236d fe84 6fb2 e384
000000d0: d560 0586 d5a8 1182 21bc 0c85 dcdc 8683
000000e0: cf11 7986 179c b984 03df b384 b784 cd82
000000f0: 2372 4886 d8cf 1084 69ee f985 9f70 be84
00000100: 4540 ea84 39b6 8684 bf58 0884 96a5 5884
00000110: 57c6 3083 9bc4 a382 0483 2186 0036 e283
00000120: 2b82 3c84 bc4a 5384 d93c ce84 8067 0084
00000130: 02d4 2485 a826 2484 398c 1f85 fa94 9e83
00000140: 7142 1885 3bc3 4e84 0f35 8384 4392 1b03
00000150: 2366 8385 6792 2582 7b5f 1884 eda6 f902
00000160: 6f8a 7e85 d641 6284 ea96 2984 d64f 2500
00000170: d57a 7b85 cd12 8301 a2bc c984 546a c283
00000180: dcff 2506 6a8d 0905 7e98 a105 4931 1505
00000190: 21e3 f104 0a3b 1904 b423 d106 bf26 8005
000001a0: 3309 7d05 fd9d 8c04 4318 3a05 4f05 8604
000001b0: 1855 1c06 0990 a005 4d62 6406 ddbb 3304
000001c0: a4bd da05 8e9d 2b05 b456 ec04 5833 f704
000001d0: 8367 2f06 71b8 b100 b626 3a05 f3c4 b103
000001e0: c29a 9206 c41f 4205 7691 d204 8200 5b02
000001f0: 8878 8606 eab9 0904 e85b 1006 dade b104
00000200: b9dd 6505 3eb9 1a83 89c1 4384 819e 4b83
00000210: 6d68 7004 d6f7 0c03 2653 6285 3213 9104
00000220: 20d4 4804 eaad d383 ec79 6b84 6959 d683
00000230: 17c3 8e83 a7aa 3304 0a6c 4d05 fd38 9a03
00000240: 2860 0f84 63e2 2483 76d6 3104 9253 1b04
00000250: dd26 f784 ae1d f101 a1e3 1603 86b2 8203
00000260: f039 5405 761c 0e03 713c 4183 2469 4a02
00000270: 4bac 8c84 b5c4 bb03 4c70 a104 d0dc da81
00000280: bb21 0406 8ae7 f404 224b 9505 2a14 fd04
00000290: 8b79 0405 6b13 0a04 b27a af06 a6b3 b205
000002a0: 0a3e 6d05 4b2e b004 ed69 4505 b19a 4e04
000002b0: 1bd9 fd05 6026 9005 1929 3406 71dd 1804
000002c0: 9a0d ca05 ff39 ca04 e5fc 0505 d10b 9e04
000002d0: 58ef 1706 f0ca 8a02 025b 0005 acd1 fb03
000002e0: f2bd 6606 baf4 2805 ea3e cb04 ee62 3302
000002f0: 0a0f 6506 112b 6703 de75 f205 1cc9 9604
00000300: 001f 2185 3d1c a684 5c73 f584 7c04 a084
00000310: b6e6 0883 5935 3701 f218 5b86 3a14 9f03
00000320: c836 b584 32c1 da83 00a4 0a85 d1bf e283
00000330: ecce 8085 f847 d484 1ab6 8985 a67f 4b82
00000340: 8e73 4985 428a ce84 72d2 6084 f1ca ab83
00000350: 234d ad85 c40e eb81 61c3 4084 5677 2103
00000360: 2a89 b685 cc7a f984 2b50 6a84 22c1 2e02
00000370: 757c d585 a870 ae02 d9c8 0885 0d2b f583
00000380: 830e 0806 5a01 0d05 e9fe 3005 9fdf 0705
00000390: 675f c504 d816 2b04 24d3 6806 a928 1b05
000003a0: e366 f104 7f4e 8c04 e46e e304 affd 4304
000003b0: 1906 bd05 8c10 2d05 9f2e 1606 5b02 0604
000003c0: adf5 4805 70d0 cb04 a4ec b904 e733 0105
000003d0: 145a cd05 a170 8802 9732 ce04 a624 6a03
000003e0: 69d6 4f06 8906 a704 a7d6 ad04 fb1c 4c02
000003f0: d90b 1f06 5c15 0304 fd97 c105 bd69 8e04

attnN2.node_attn_maps.1.bias f4 [8]
-1.2586251e-37 -5.0347663e-37 -1.424072e-37 6.4234634e-37 5.608876e-38 5.409482e-37 -2.1404675e-37 3.9954737e-37
00000000: af50 2b82 0053 2b83 abd5 4182 4294 5a03
00000010: 29b0 9801 3c13 3803 34ac 9182 7cf5 0703

attnN2.node_attn_maps.2.weight f4 [8, 32]
3.15484e-36 2.0114291e-36 2.8720764e-36 1.8220326e-36 5.814154e-36 5.0776047e-36 1.8303515e-35 8.90739e-36
3.3241318e-36 1.4026836e-37 4.1127957e-37 -5.2199283e-37 8.647129e-36 2.064479e-37 1.0947143e-35 2.9485718e-36
6.691633e-36 2.451271e-36 1.5595113e-36 2.9270547e-37 1.239037e-35 -4.0797157e-37 3.379598e-36 4.5142267e-37
1.6405477e-35 9.799275e-37 1.1205269e-36 -2.492103e-38 1.5310042e-35 1.0155414e-36 7.0407276e-36 -6.9448383e-37
7.080523e-36 2.7264942e-36 7.397419e-36 2.708839e-36 5.471814e-36 3.626602e-36 1.3357477e-35 1.1204075e-35
1.1534929e-36 3.326981e-36 1.7441988e-37 -1.258336e-37 6.8086586e-36 -3.6453517e-37 1.1784569e-35 2.4046796e-36
6.329946e-36 7.737721e-37 1.9178173e-36 2.621486e-36 1.1199633e-35 4.1526496e-37 4.087755e-36 3.0610233e-37
1.7163459e-35 2.270711e-36 1.8675785e-36 2.3268536e-37 1.50717e-35 1.1630967e-36 5.6088074e-36 2.877482e-36
2.841897e-37 1.7214178e-36 1.4683526e-36 1.8164046e-36 -9.093197e-37 2.145998e-36 4.8031005e-36 -3.688763e-36
-6.317854e-37 1.7608054e-36 -3.2712618e-37 -3.3939716e-37 2.9356201e-36 -3.023539e-37 1.7668604e-36 1.648491e-36
2.039139e-36 2.0331717e-36 -1.0119286e-36 2.574922e-36 6.2750384e-36 1.8339626e-37 1.9207484e-36 -5.0462e-37
2.4204488e-36 2.8395284e-37 3.9686306e-38 -3.5468638e-38 6.2260025e-36 -2.1011428e-37 -1.1499667e-36 1.5249815e-36
-6.243375e-36 -1.9166665e-36 -8.518037e-36 -2.1860665e-36 -5.2370393e-36 -4.1091545e-36 7.329648e-37 -7.6548316e-36
2.9300987e-37 -4.1884344e-36 -4.5487126e-37 -1.7856767e-37 -1.8651009e-36 1.6089957e-36 -5.4749435e-36 -2.1181524e-36
-7.1664246e-37 1.695957e-36 -1.6083355e-36 -1.9395348e-36 -8.400475e-36 -1.8703912e-37 -3.743742e-36 -3.3249113e-37
-8.995086e-36 2.1925882e-37 -1.35458505e-36 -2.3584185e-37 -7.363321e-36 -1.0883904e-36 -5.236136e-36 -4.3944996e-36
-4.002364e-37 -4.4142794e-37 -1.5327054e-36 2.3290002e-37 -1.0954026e-36 2.9958837e-36 -5.2438058e-36 -8.4870656e-36
-3.7202607e-37 1.9396832e-36 1.5769027e-38 5.6463378e-37 -1.7125864e-36 -1.6945547e-37 -3.8866945e-36 2.4810827e-36
-2.6470965e-36 -1.3095831e-36 -7.973561e-37 1.2346529e-36 4.9269672e-36 2.091154e-37 8.646388e-37 -7.2950477e-37
-4.372951e-36 -1.6629023e-36 -7.663485e-37 -1.5069858e-38 -2.765179e-36 -4.888228e-37 -1.8993912e-36 7.757219e-37
-3.351758e-36 -8.866669e-37 -4.6879337e-36 -1.521032e-36 -3.31331e-36 -4.639187e-36 6.346307e-36 -1.7142891e-37
2.9919058e-37 -3.415302e-36 -7.751637e-37 -3.15626e-37 -4.2122794e-37 1.7234021e-36 1.9190164e-36 -2.8186077e-36
1.0826569e-36 1.716343e-36 -8.435332e-37 -1.7884213e-36 -6.258776e-36 -1.3749842e-38 -1.5507937e-36 -2.7572222e-37
1.8922062e-36 1.5107314e-36 -9.2861085e-37 -1.8470997e-37 -2.7124523e-36 -8.157481e-37 -1.3568698e-36 -2.2161937e-36
-5.0305866e-37 1.8891202e-36 3.522773e-36 1.5753203e-36 -1.25002235e-36 2.4616734e-36 -6.3645916e-36 -6.33843e-36
-1.70355e-36 2.3700657e-36 1.0064099e-38 3.5046919e-37 1.5845027e-36 -1.5223916e-36 -3.4182836e-36 2.1904455e-36
-2.5878701e-36 -3.021906e-37 -1.5084247e-36 2.847775e-36 2.9963103e-36 2.4420984e-37 2.183474e-36 -3.5562832e-37
-3.2599366e-36 -6.1854875e-37 -6.3991606e-37 4.288168e-38 1.5843788e-36 -3.2442295e-37 -2.7091014e-36 2.1504711e-36
-6.489407e-36 -1.2199951e-37 -3.0557666e-36 -1.8959729e-36 -6.203104e-36 -4.7227286e-36 -1.3877148e-35 -1.14055145e-35
-1.4153101e-36 -3.215397e-36 -4.9885642e-37 4.749307e-37 -5.441943e-36 6.1649814e-37 -1.19364e-35 -2.1731936e-36
-6.504095e-36 -9.775642e-37 -1.363865e-36 2.1213726e-37 -1.1187302e-35 -6.017407e-37 -4.5914943e-36 -2.0869094e-37
-1.8836314e-35 1.2109234e-38 -1.7992575e-36 -1.724123e-37 -1.3475243e-35 -1.049386e-36 -5.948091e-36 -2.1765936e-36
00000000: 2a31 8604 0c1d 2b04 4954 7404 5b00 1b04
00000010: 884e f704 38fa d704 e8a2 c205 7270 3d05
00000020: 9764 8d04 64ec 3e02 81f3 0b03 fd9f 3183
00000030: 73e7 3705 4c80 8c02 ead1 6805 35d6 7a04
00000040: b750 0e05 f487 5004 26ab 0404 7c34 c702
00000050: ccc1 8305 56d3 0a83 90c0 8f04 769c 1903
00000060: f573 ae05 ddb9 a603 d4a5 be03 d9ae 0781
00000070: e6cd a205 11c9 ac03 5ebd 1505 1352 6c83
00000080: 0996 1605 c9f1 6704 6153 1d05 4a71 6604
00000090: c7be e804 3342 9a04 830a 8e05 c948 6e05
000000a0: b441 c403 9d83 8d04 7568 6d02 9c46 2b82
000000b0: ddcd 1005 fc16 f882 4ca1 7a05 4991 4c04
000000c0: 819f 0605 87a6 8303 5d26 2304 e902 5f04
000000d0: 9a30 6e05 ae4e 0d03 b6df ad04 8c52 d002
000000e0: 6183 b605 b52b 4104 42e0 1e04 825b 9e02
000000f0: 1245 a005 02e4 c503 8192 ee04 02ca 7404
00000100: d468 c102 2971 1204 c7d3 f903 ca85 1a04
00000110: 75b6 9a83 b38f 3604 224d cc04 12e7 9c84
00000120: 45fc 5683 f2ca 1504 6ba1 de82 53fb e682
00000130: 25bc 7904 7bc5 cd82 d04e 1604 f43c 0c04
00000140: 8478 2d04 8ff6 2c04 b52b ac83 d60c 5b04
00000150: 8f74 0505 45a0 7902 3266 2304 9ab6 2b83
00000160: b5e8 4d04 903f c102 a312 5801 111c 4181
00000170: 9569 0405 12ff 8e82 1da8 c383 28bb 0104
00000180: 2bc8 0485 4d0d 2384 9b28 3585 50f8 3984
00000190: 4fc2 de84 bbc8 ae84 3d6a 7903 decc 2285
000001a0: 8569 c702 0328 b284 e0c8 1a83 c00d 7382
000001b0: 4daa 1e84 d3e0 0804 dbe0 e884 4631 3484
000001c0: 5ddc 7383 ac46 1004 72d2 0884 54ff 2484
000001d0: 89a8 3285 9f95 7e82 be3d 9f84 2048 e282
000001e0: e84d 3f85 4638 9502 8078 e683 7281 a082
000001f0: bc99 1c85 162e b983 79b8 de84 ddeb ba84
00000200: 8231 0883 cc35 1683 5e63 0284 e880 9e02
00000210: 835f ba83 92dc 7e04 fd0b df84 fb7f 3485
00000220: 1530 fd82 8f02 2504 a2b5 ab00 8a22 4003
00000230: d4b0 1184 9da6 6682 5b52 a584 3211 5304
00000240: a830 6184 64d0 de83 c2a9 8783 b810 d203
00000250: ec91 d104 0b51 8e02 551c 9303 d43c 7883
00000260: 3801 ba84 ce76 0d84 2f63 8283 a218 a480
00000270: 443c 6b84 7956 2683 1495 2184 74fb 8303
00000280: 6a91 8e84 cadb 9683 1467 c784 2565 0184
00000290: c0ee 8c84 4654 c584 95f8 0605 4256 6982
000002a0: 5a9e cb02 5845 9184 24e3 8383 cecd d682
000002b0: 2156 0f83 609c 1204 7a40 2304 d7c7 6f84
000002c0: 5c34 b803 a402 1204 0d85 8f83 5e24 1884
000002d0: 051c 0585 f7b8 9580 4ced 0384 96a5 bb82
000002e0: 9af8 2004 d184 0004 b5fe 9d83 086a 7b82
000002f0: fbbf 6684 d7ca 8a83 04dc e683 6d88 3c84
00000300: 972e 2b83 65b5 2004 9ad7 9504 7003 0604
00000310: 27ae d483 806a 5104 225c 0785 b2cd 0685
00000320: 09ec 1084 769f 4904 9d96 6d00 5884 ee02
00000330: 6acb 0604 c182 0184 d065 9184 ae57 3a04
00000340: d226 5c84 07a9 cd82 9552 0084 0c43 7204
00000350: dce5 7e04 5b33 a602 dabf 3904 3107 f282
00000360: 91a9 8a84 327b 5283 8dc0 5983 5778 6901
00000370: b7c8 0604 73ca dc82 0177 6684 1df1 3604
00000380: b103 0a85 a00e 2682 5afa 8184 a24a 2184
00000390: e9ec 0385 f6e1 c884 3191 9385 8791 7285
000003a0: 73cd f083 93c4 8884 86c0 2983 4d9c 2103
000003b0: 8379 e784 90c8 5103 f1db 7d85 f7df 3884
000003c0: a953 0a85 ed52 a683 b30c e883 865f 9002
000003d0: 77ed 6d85 02c3 4c83 f24c c384 1707 8e82
000003e0: 534d c885 9edb 8300 5c10 1984 ebac 6a82
000003f0: 1a4b 8f85 358b b283 fa00 fd84 032a 3984

attnN2.node_attn_maps.2.bias f4 [8]
2.0809807e-37 1.9528773e-37 3.029083e-38 -9.833159e-38 -6.0453445e-38 -3.947197e-39 -3.6574854e-38 -1.9820017e-37
00000000: cc9f 8d02 ece7 8402 41eb 2401 8fd7 0582
00000010: e791 a481 2efb 2a80 e821 4781 57e3 8682
