train_script/weights/GANOrigEdgeBased_model300new_gaia_mom_vel/16.pth (torch, 144559 bytes, 129 tensors)

attnN1.node_attn_maps.0.weight f4 [8, 8]
00000000: fb2a 88ad 8ee1 0688 6b26 0000 18d0 0e2d
00000010: 12e0 0680 3ef8 cc28 a349 0534 2911 e28a
00000020: 6b0e 0fa0 69c4 b6aa d8da 0700 f37c 0800
00000030: 3bb9 6730 d88a 0080 32f0 0380 3e3f 9923
00000040: f917 0080 0dde ce34 d750 2b9e 4fbb c431
00000050: 96a7 8d34 8b75 9a33 1d21 bdb0 b6ac 6bac
00000060: c265 3034 271b 02a2 abee ccb1 144f 4534
00000070: df5d 8330 dc2e 0580 21b8 a1a1 1658 2e99
00000080: 69d8 84a2 f05f d3af fbb3 cbb2 1bf3 dcb2
00000090: 4afa 19a8 9b23 471c 1f03 4788 e6d7 0200
000000a0: 1ed9 a131 1566 8ab4 a2bc cfa8 e844 2b00
000000b0: e9c1 0200 907d 0500 2b70 0080 3039 43aa
000000c0: 187f bf31 a6df 5c09 1215 0000 55d3 0400
000000d0: 16e8 f0b0 f7e1 0e0e 1354 2a8d 2561 1589
000000e0: 1862 182f 7ad6 0300 6f64 0780 2df8 ad8b
000000f0: fd6a 1435 0f26 46a8 540b 22b5 c3f7 0ab3
-1.5480497e-11 -4.0589296e-34 1.3782e-41 8.117972e-12 -6.31394e-40 2.2756208e-14 1.2413379e-07 -2.1769463e-32
-1.2117342e-19 -3.2465981e-13 7.21355e-40 7.79507e-40 8.430054e-10 -4.9808e-41 -3.61672e-40 1.6615077e-17
-8.6e-42 3.8532053e-07 -9.069382e-21 5.7256453e-09 2.6385231e-07 7.192565e-08 -1.3760971e-09 -3.3491382e-12
1.6428297e-07 -1.763266e-18 -5.964315e-09 1.8375823e-07 9.558184e-10 -4.75987e-40 -1.0958523e-18 -9.013378e-24
-3.6007805e-18 -3.8448844e-10 -2.3714156e-08 -2.5721922e-08 -8.547479e-15 6.5889596e-22 -5.9888053e-34 2.61121e-40
4.7104e-09 -2.5778778e-07 -2.3063423e-14 3.973645e-39 2.53233e-40 5.04221e-40 -4.0238e-41 -1.733932e-13
5.5732805e-09 2.6586696e-33 7.559e-42 4.43154e-40 -1.7528261e-09 1.761165e-30 -5.2486495e-31 -1.79809e-33
1.385917e-10 3.52446e-40 -6.78877e-40 -6.701059e-32 5.5289985e-07 -1.0999461e-14 -6.036619e-07 -3.2355967e-08

attnN1.node_attn_maps.0.bias f4 [8]
00000000: d5bf 342e 27f5 971c da71 101e 778a 821d
00000010: 96dd 0322 4775 bc0d 245f 4c9a 7b60 379d
4.1097643e-11 1.0055712e-21 7.6468405e-21 3.4553883e-21 1.7871117e-18 1.1614628e-30 -4.2263065e-23 -2.4269728e-21

attnN1.node_attn_maps.1.weight f4 [8, 8]
00000000: 3d3b 5f0d 6c69 0500 ecca 9b26 1626 2329
00000010: 6d00 e1b3 b002 aa2d 8946 e5ab 8664 1084
00000020: 83b2 0800 29c2 0600 9bb4 0000 d41a 0880
00000030: 0ce9 6ba5 a78b 042f a49f c70f 801e 0500
00000040: 3d95 6922 7fcc 0a30 cb08 d3b0 f931 0680
00000050: 424d 35ae 3996 0680 5e81 33a6 b08d 1b98
00000060: 9fa9 eeb4 6e5c 24af fd8b 33a7 03b2 6680
00000070: 4963 f022 df86 0280 4ff5 18b1 fb7d 0b2c
00000080: 8367 0800 8c3c 0780 7949 0780 08ff 0500
00000090: 1c1f 9931 3331 0480 356e e22d 6733 6335
000000a0: bb67 0325 73af 0380 b67e 0e2f 67dd 152b
000000b0: d29f 0196 cf06 f59e 472b 19b4 3526 51a4
000000c0: 7f62 0900 4050 0200 340b 1c18 aa81 0100
000000d0: ebda 0100 1c21 64ac 802b 7aa0 42c4 a326
000000e0: fb79 0a04 0b5e 0700 4916 0000 fb6a 0800
000000f0: 0e19 372c 8e23 cb0a 09ab 0280 4d19 0200
6.8788486e-31 4.96996e-40 1.0810288e-15 3.6226305e-14 -1.04774564e-07 1.9327956e-11 -1.6291006e-12 -1.6973277e-36
7.98722e-40 6.20665e-40 6.4789e-41 -7.44308e-40 -2.046196e-16 1.2054945e-10 1.9684406e-29 4.70119e-40
3.1656394e-18 5.0494714e-10 -1.535477e-09 -5.6894e-40 -4.1223254e-11 -6.04903e-40 -6.2278426e-16 -2.0104814e-24
-4.445437e-07 -1.4948551e-10 -2.4917128e-15 -9.431079e-39 6.5157253e-18 -2.32054e-40 -2.2258353e-09 1.9823021e-12
7.71817e-40 -6.64569e-40 -6.69205e-40 5.50665e-40 4.456423e-09 -3.84991e-40 2.5742167e-11 8.463889e-07
1.1397584e-16 -3.38446e-40 1.2959842e-10 5.324269e-13 -1.0470967e-25 -2.59432e-20 -1.426498e-07 -4.5352013e-17
8.61853e-40 2.12459e-40 2.0168184e-24 1.3835e-40 1.70368e-40 -3.2419128e-12 -2.1190217e-19 1.1363593e-15
1.6277833e-36 6.76585e-40 7.994e-42 7.73061e-40 2.6019772e-12 1.9561563e-32 -2.45027e-40 1.92747e-40

attnN1.node_attn_maps.1.bias f4 [8]
00000000: 55c0 d129 12f7 439b 9a99 5d07 5d54 081a
00000010: f564 0c23 ac4b bb91 7628 e799 3b4f 1c34
9.314829e-14 -1.6209855e-22 1.6671332e-34 2.819229e-23 7.610794e-18 -2.9550034e-28 -2.3901182e-23 1.4557456e-07

attnN1.node_attn_maps.2.weight f4 [8, 8]
00000000: f228 0a00 c216 9f31 3038 7031 a872 0480
00000010: a4be f3a9 e79a 0880 0fa6 0880 4cc0 cf34
00000020: 6c8d b229 f49e 82ad cd59 61b1 c9ec afb3
00000030: f915 0080 8169 0c17 9c25 878c 2143 091e
00000040: 9128 cb93 1fa9 0200 3391 41a6 f255 0080
00000050: 1b8b 8233 7b38 dcb4 0490 0600 61fe 7a35
00000060: e5da 24a4 e7a6 0000 f64c 4c35 128f 0080
00000070: ffb9 0680 8230 932c 1658 e433 e9a4 0880
00000080: 5b5f 73a1 c477 0480 6a31 0800 feb6 f69f
00000090: d6ec ec29 9e4f d230 ece1 fb27 dad2 4896
000000a0: 28e3 43b3 6199 7630 26d2 5230 983f 0300
000000b0: 97e4 b1b3 5099 0180 932d 0980 4aa5 0680
000000c0: 3010 0880 7162 52a9 1fc9 7eb1 1336 0500
000000d0: b71b 8db3 3c2b 7a24 214a 0500 f2a0 2584
000000e0: ad9d 0480 40d0 01a2 999a fa34 1ccb 5aac
000000f0: 91ab 0600 5c66 0080 290a 5e31 5569 7d35
9.33043e-40 4.6300963e-09 3.4956535e-09 -4.08473e-40 -1.0824439e-13 -7.90252e-40 -7.94255e-40 3.869667e-07
7.929321e-14 -1.4849878e-11 -3.2792855e-09 -8.1921435e-08 -7.882e-42 4.5369604e-25 -2.0822679e-31 7.2666015e-21
-5.1284406e-27 2.4434e-40 -6.715711e-16 -3.0831e-41 6.0789e-08 -4.1019288e-07 6.02676e-40 9.350243e-07
-3.5747242e-17 5.9873e-41 7.6107915e-07 -5.1324e-41 -6.17736e-40 4.1833767e-12 1.06331e-07 -7.93843e-40
-8.2457804e-19 -4.10306e-40 7.5241e-40 -1.0448779e-19 1.052159e-13 1.530214e-09 6.991144e-15 -1.6222404e-25
-4.5608573e-08 8.9712243e-10 7.6696194e-10 2.9832e-40 -8.283785e-08 -1.46834e-40 -8.42868e-40 -6.10308e-40
-7.40491e-40 -4.671475e-14 -3.7076189e-09 4.78576e-40 -6.5708655e-08 5.424673e-17 4.8577e-40 -1.946956e-36
-4.23905e-40 -1.7593007e-18 4.6678613e-07 -3.1092412e-12 6.1256e-40 -3.672e-41 3.2311027e-09 9.440312e-07

attnN1.node_attn_maps.2.bias f4 [8]
00000000: 8c32 3a9c e903 e7b1 17ba 5b0a a61c c634
00000010: 8e32 188d 04c8 e791 3e90 bfae 94bd 251c
-6.160757e-22 -6.7234294e-09 1.0579466e-32 3.6901218e-07 -4.689947e-31 -3.6568643e-28 -8.711297e-11 5.4838944e-22

attnN1.node_attn_maps.3.weight f4 [8, 8]
00000000: fe73 4da8 27d3 0034 c242 9db4 8cd9 0400
00000010: 3e90 0080 cdaa 0580 fd8e dbab 556c 0480
00000020: 72c3 1d35 189c 5232 107e 0880 6cca 0200
00000030: 8e7e 6534 c4eb 8532 5aba 8b2b c973 1c31
00000040: 1f56 0680 3fd7 9fac 2388 432d 3af6 0080
00000050: a160 0680 b1a8 2716 483f 02b5 e09e 4e2f
00000060: 0b47 0780 0f50 a3ae a03f 0580 2ea1 0880
00000070: 489a 1480 8010 08a5 3aa4 0300 77ef 0180
00000080: 9fc2 0600 312b 0380 5a77 cb30 c4a8 0380
00000090: e8ec 0500 708b 049e 2d5e 6523 fd98 5b28
000000a0: 842b 27ad 8c77 daac edfb ff0b aae6 892b
000000b0: 511c 0780 2f8a 8680 d35f f5a7 5ece 0580
000000c0: ed74 0500 dfa1 a529 e4a1 0780 d35f 082c
000000d0: b7d0 2218 f525 9093 db67 0300 3d6d cd2f
000000e0: 5017 8535 4015 80a2 9fa8 0380 4e6f 3127
000000f0: 8d5a ea1f 9b74 eab3 4261 6f80 7920 749f
-1.1404938e-14 1.1997746e-07 -2.9292102e-07 4.45383e-40 -5.1744e-41 -5.20449e-40 -1.5600573e-12 -4.06204e-40
5.877147e-07 1.22591e-08 -7.79907e-40 2.56286e-40 2.1373327e-07 1.5590452e-08 9.928267e-13 2.2766804e-09
-5.81907e-40 -4.542949e-12 1.1114695e-11 -8.833e-41 -5.85677e-40 1.3543382e-25 -4.852086e-07 1.8792035e-10
-6.68334e-40 -7.426603e-11 -4.82002e-40 -7.92504e-40 -1.892056e-39 -1.180171e-16 3.3442e-40 -1.77739e-40
6.2083e-40 -2.91e-40 1.4804116e-09 -3.36048e-40 5.44163e-40 -7.016857e-21 1.2434057e-17 1.2190116e-14
-9.502513e-12 -6.209205e-12 9.8601483e-32 9.798458e-13 -6.53006e-40 -1.2355527e-38 -6.8105053e-15 -5.33208e-40
5.01123e-40 7.355552e-14 -7.00924e-40 1.9379956e-12 2.1043383e-24 -3.638814e-27 3.12763e-40 3.73669e-10
9.916057e-07 -3.471697e-18 -3.35996e-40 2.4624023e-15 9.925266e-20 -1.09176845e-07 -1.022863e-38 -5.169587e-20

attnN1.node_attn_maps.3.bias f4 [8]
00000000: 40db 32a4 358c fc27 d186 ef07 07f5 2f1d
00000010: 35da 878c 0f76 d127 08a8 b031 0a1a a7a7
-3.878331e-17 7.0096063e-15 3.603996e-34 2.3287733e-21 -2.0931372e-31 5.8137152e-15 5.141377e-09 -4.6380043e-15

attnN1.edge_attn_maps.0.weight f4 [8, 8]
00000000: 6f73 69be 7c84 603e 5e73 073e 7f8f 3b3e
00000010: 9ed4 a43e 5c3c 11be 7c0e 8ebe 5874 25bc
00000020: 6396 823e a1c5 853c c1bb 8f3e 8b62 153d
00000030: b3f2 77be e28f 5e3e 1c20 373e d9a1 83be
00000040: 22c8 74bd 79b7 5abe bc32 3dbe 3af9 3dbe
00000050: 12f9 343e 668b 943e f1de 3d3d 87bd 7f3e
00000060: b2f2 883d 548e ac3d 66e9 8b3e ba5e 29be
00000070: 9c72 85be 11d6 113e 9465 5d3e 6547 8bbe
00000080: 92d9 aabe 41d1 e93d 0877 553e c14c ae3d
00000090: a94b 85be 2281 47be 00ad 9bbe 8d4c bc3b
000000a0: 977b 79be 4fa1 1abe f40c 8cbe fcba 44bd
000000b0: 7538 b3be 20d8 88be 85af 6cbd 4d24 723e
000000c0: 0b77 a53d 04ef 5d3e 0468 62be bd26 60bd
000000d0: cb14 a13e 5960 78be 0ad2 6c3e ecc6 5d3e
000000e0: 96fb 7cbe 2435 9cbe 89d4 ba3d 87b4 1ebe
000000f0: 05ff 3b3e 607b 533e e38b 64be fff2 5a3e
-0.2279794 0.21925539 0.13227603 0.18316458 0.32193464 -0.14183182 -0.27745426 -0.010098539
0.2550536 0.016329588 0.28072932 0.03647093 -0.24213676 0.21734574 0.17883343 -0.25709417
-0.059761174 -0.21359052 -0.18476385 -0.18552104 0.17673138 0.29012603 0.04635519 0.24974643
0.066869155 0.084255844 0.27326506 -0.16540042 -0.26064003 0.14241816 0.2162078 -0.27202907
-0.33369118 0.11416865 0.20846188 0.085107334 -0.26034287 -0.19482854 -0.30405426 0.0057464303
-0.24363552 -0.15100597 -0.27353632 -0.048029885 -0.3500401 -0.2672739 -0.057784576 0.2364666
0.08079346 0.21673208 -0.22109991 -0.054724444 0.31461176 -0.24255504 0.23126999 0.21657914
-0.24705347 -0.30509293 0.09122569 -0.15498553 0.18359001 0.20652533 -0.22318988 0.21381758

attnN1.edge_attn_maps.0.bias f4 [8]
00000000: 9dd4 7e3a 497f 9dbd de81 84bc 06de 28bc
00000010: 2db5 72be dc7d 073d 7849 0a3e 8ed4 6abe
0.0009721013 -0.07690293 -0.016175207 -0.010306841 -0.23701926 0.033079013 0.13504589 -0.22932646

attnN1.edge_attn_maps.1.weight f4 [8, 8]
00000000: dba1 263e 49ff 6d3e 37c9 883e aaeb c73e
00000010: b433 8cbe 39ae b23c 9c1d c0bd c395 893e
00000020: 5c14 62be 9191 11be 918f 383c 5655 41be
00000030: 80ac 45be 4119 0f3e 759e a9be 32c8 9f3e
00000040: 47d7 3abe c66a aa3e 0fe7 9bbe a83f 0d3e
00000050: 6a89 88bd 67f9 dbbc 6bdc 53be b7db ba3c
00000060: 680c 93bd 9917 a0be 1e66 aebe dea5 163e
00000070: ca76 a43e 9117 88be 68db 1dbe debc 743e
00000080: 9c2c 3f3d 65ea 07be 0625 053e 94b3 103e
00000090: 8215 223e 87fa c8bd 7353 45bc 2cc6 1bbe
000000a0: d50b 043e 2ea4 8d3d 74b7 cf3d 423a 5a3e
000000b0: 6576 2bbd 58ad a53d c437 713b 0b40 533e
000000c0: a9f2 8d3e f51c a8bd f86a b5bd bef4 4d3d
000000d0: b8db 5cbe 0899 31be 61d8 5c3e 4953 14be
000000e0: 1b1d 59be eea0 dabd b850 353d e9de 383d
000000f0: d4ef 1cbe b238 27be 710a 083d 3ed3 9e3e
0.1627268 0.23241915 0.26716015 0.39046985 -0.27383196 0.021811591 -0.093806475 0.26872072
-0.22078079 -0.14215685 0.011264698 -0.1888021 -0.19304085 0.13974477 -0.33128706 0.31207424
-0.18246184 0.33284587 -0.3044972 0.13793814 -0.06666835 -0.026852323 -0.20689552 0.022809846
-0.07180101 -0.31268004 -0.34062284 0.14711711 0.3212188 -0.2658048 -0.15415728 0.23900172
0.046673402 -0.13273008 0.13002405 0.14131004 0.15828517 -0.09813409 -0.012043822 -0.15212315
0.12895139 0.069160804 0.10142413 0.21311286 -0.041860957 0.08089703 0.003680692 0.20629899
0.27724198 -0.08208648 -0.08858293 0.050282232 -0.21568191 -0.17343533 0.21566917 -0.14484896
-0.21202509 -0.10675226 0.044266433 0.04513446 -0.15325862 -0.16330221 0.033213083 0.3102054

attnN1.edge_attn_maps.1.bias f4 [8]
00000000: 6855 30bd aebb 2d3d 6e70 04be 5660 b3bc
00000010: fef8 453e 7d4f 603b 0834 883d 792a 28bd
-0.0430502 0.042415313 -0.12933514 -0.021896522 0.19333264 0.0034227066 0.06650549 -0.04105613

attnN1.edge_attn_maps.2.weight f4 [8, 8]
00000000: 0758 173e 3f44 65be 1906 8bbe 15c2 1dbe
00000010: 7f18 173e 3402 aebd 1401 adbd 991d 633e
00000020: d2e4 45be 2c86 303e c0c3 373e a63e 53be
00000030: 51cf 583d a458 643d 90cf a8bd 0609 a4be
00000040: 4e40 70be 6df0 9cbe c1b2 eb3d 88a2 96be
00000050: c6e9 d9bd a012 e73b 4dd6 2ebe 5f93 833e
00000060: 0a5c 85be 0627 993e cf3c 04be 60c2 4b3e
00000070: b9c9 6d3d b25b 933e 472b edbd 5b49 3ebe
00000080: b400 d2bd 33b7 b0bd c591 a3be 840f 193e
00000090: a639 2c3d 88fd e23c 6b90 e93c a90e 073e
000000a0: 09a5 8bbe c54c bdbe 067b aebd 6ede ef3d
000000b0: bd57 31be 26a0 adbd 86fd b7bd 5725 80be
000000c0: f503 51be e77c b83c e612 dabb 68a3 0d3e
000000d0: 6ec4 673e da71 e2bd 62e2 723e e46c 92be
000000e0: bfb7 72be b62c 42bc b66d 363e 8bb0 433e
000000f0: 21ed 59be e6eb b93c 18c0 973e 482d 75be
0.14779674 -0.22389315 -0.2715309 -0.15406068 0.14755438 -0.08496514 -0.08447471 0.2217926
-0.1932557 0.17238683 0.17945766 -0.20629367 0.052932087 0.055748597 -0.082427144 -0.32038134
-0.2346203 -0.3065218 0.11508704 -0.29420877 -0.10640292 0.007051781 -0.17073937 0.25698373
-0.26046783 0.29912585 -0.12913822 0.19898367 0.058053706 0.28780895 -0.1158052 -0.1858267
-0.1025404 -0.086286925 -0.3194715 0.14947325 0.042047165 0.027708784 0.028511247 0.13189186
-0.2727435 -0.36972633 -0.085195586 0.11712347 -0.17318626 -0.084778115 -0.08983903 -0.25028488
-0.20411666 0.022520496 -0.006655085 0.13831866 0.22633526 -0.11056872 0.2371917 -0.28598702
-0.23702906 -0.01185148 0.17815289 0.19110315 -0.21281864 0.022695493 0.29638743 -0.23943055

attnN1.edge_attn_maps.2.bias f4 [8]
00000000: f454 7d3e 4c77 61bd 9030 8c3e b28f 893d
00000010: 1ae0 c23d 888e e93b 4cbf 24bc 8b6f 833c
0.24739438 -0.05504541 0.273808 0.06716861 0.095154 0.0071275868 -0.010055374 0.016044399

attnN1.edge_attn_maps.3.weight f4 [8, 8]
00000000: 0b2f 8fbe 0317 023e 9a56 b93e 0eef b8be
00000010: 573c 993e d5c0 05bd 6b8f 50bc a183 62bd
00000020: 371a d8bd f3c9 683e ae1f b7be 439f a23e
00000030: 5e28 8f3e deea 573e f75e 77be b1a1 19be
00000040: 71aa 53be 98e6 933d 4543 56be 149a 1e3e
00000050: 2878 b6bd 3883 9dbc c96a 463e f135 a83c
00000060: 9620 11be 4336 0dbe 7ca3 a6be 942d a4be
00000070: 244a 16be d47d 703e ce92 debd f2cc aa3e
00000080: c3ca a63e 2efc 8fbe e080 2bbe 8d1e a93e
00000090: 5fd0 33bd c776 26b9 51db a73e 2fb4 22be
000000a0: bd0f 97bd eea8 383e e9d4 ca3c 5212 aabd
000000b0: 7b8f 33be 1559 103c af29 6e3d e43d f63c
000000c0: 45e5 2a3d 5b72 96bd 5c52 813e 0b3b a33e
000000d0: 0784 1bbe c976 f0bc 3b2b 91be 9b6f 363e
000000e0: b689 2bbe e8ba 85be ef2e 6f3d 0fc6 7b3e
000000f0: 2bb3 b43d bcb2 a83e 0d8f 953e 3126 253e
-0.27965578 0.12704091 0.36198884 -0.36119884 0.29928848 -0.032654602 -0.012729506 -0.055301312
-0.10551875 0.22733288 -0.35766357 0.31762132 0.27960485 0.21085688 -0.2415732 -0.15003087
-0.20670487 0.07221717 -0.20924099 0.15488464 -0.08909637 -0.019227609 0.19376673 0.020533534
-0.14172587 -0.1379023 -0.32546604 -0.32066023 -0.1467672 0.234855 -0.108678445 0.33359486
0.3257657 -0.28122085 -0.1674838 0.3303112 -0.04389989 -0.00015875242 0.32784513 -0.15889047
-0.07376049 0.18033192 0.024759727 -0.083042756 -0.17535202 0.008810301 0.05814522 0.030058809
0.041722555 -0.0734603 0.25258148 0.31880984 -0.15187083 -0.029353516 -0.28353295 0.17816012
-0.16751751 -0.2611916 0.05839437 0.24587272 0.08823236 0.32948864 0.29210702 0.1612785

attnN1.edge_attn_maps.3.bias f4 [8]
00000000: f5ed 673e 48e8 9d3d 2cb3 d8bb af7a 3abc
00000010: 9caa 6b3e f4df 123e b2de 173e 2ee9 04bd
0.22649367 0.0771032 -0.006613156 -0.011381789 0.23014301 0.14343244 0.14831045 -0.03244894

attnN1.combinator.weight f4 [1, 16]
00000000: ac19 62aa 5b6c 57a8 0dff e492 3b7f 49a9
00000010: d5a8 6318 63ce 6a9b d43d aa26 89e1 1529
00000020: 7e6a d63d 4fd8 99bd 6c84 0bbd 96eb e1bd
00000030: 7432 0c3e 5979 5dbe dde4 813d 9f2e 88bd
-2.0081739e-13 -1.1958393e-14 -1.4451698e-27 -4.474132e-14 2.94243e-24 -1.9422713e-22 1.1812878e-15 3.3280267e-14
0.104695305 -0.07511961 -0.034061834 -0.110312626 0.13691121 -0.21628322 0.0634248 -0.06649517

convE1.self_map.weight f4 [32, 8]
00000000: 4265 c33e 5775 873e 0410 ccbc d31e 283e
00000010: 501d 9fbd b840 ecbd 68c5 89be 81d6 0e3d
00000020: 16cd 3e3e 8cab 64bd bb8c 4d3e 0c36 18be
00000030: 1eb5 5e3e d829 233e 363b 283d cf1e 8f3e
00000040: fc0b 3dbe c479 343d baf8 76be de22 da3c
00000050: 03b5 6abd e1ec 763e 2b23 8c3e cfc6 413e
00000060: 91e8 a4bd 89bc 233e a628 e4bd fef2 adbc
00000070: 6e04 1f3e 0a53 54be bb8b 82be 79c0 893e
00000080: 8369 ab3d 7758 4cbe 472c 88be 97cf bdbe
00000090: 2b7e 333e d72c 55be 0eab 07be c1e6 ea3c
000000a0: 106e 5d3e a6b7 3a3e 723c 263e 7736 08bc
000000b0: b922 523e 87c2 20be b8a1 333e 4365 03be
000000c0: 70a6 acbe 53e2 7f3e f768 253e 963d a3be
000000d0: 88bb 823d 0fe5 72be 821a 9cbe 4537 2cbe
000000e0: b53a a9ba ff61 f1bd c58a 153e bd38 84be
000000f0: 03ed 943e 777d 44be a2f8 343e 0447 833e
00000100: facd 3d3e 42f4 813e 11f9 86be bb67 403e
00000110: a4b3 73be c80c ca3c d267 88be aa85 2e3e
00000120: 23f0 613c b188 073e b463 8b3d 90bb ddbd
00000130: 80b9 8cbe f746 13be 3ba1 813e 1939 27bd
00000140: 6e61 da3e cc41 6fbd b891 0dbe d513 ca3d
00000150: 8e77 6e3e 7c0d 80be 20ce 3d3d b4d5 4ebd
00000160: a19d e73d 0846 703e 67ab 06be 7482 58be
00000170: bada 9ebe 7a02 23be d50f 223e 6100 11be
00000180: 5817 16be 5574 e33d 910b fcbc 806b f7bd
00000190: 5f36 1d3d e016 773e bcee c33d ea9d 093e
000001a0: 64a7 4bbd bd02 713e 88c3 d1bd c104 933e
000001b0: d2ad bc3c ee6f 5c3e 7445 873d 0e5a 1f3e
000001c0: e32e 963c b532 583d 0a8a 5fbd 308c 443e
000001d0: c535 9ebe 1965 cb3d 97b5 d0bd a4ea aa3d
000001e0: 8c13 c53d 1d98 acbd 56ec 2a3e d4f8 67be
000001f0: b621 793d 220c 91be 68e4 fbbd d1ad 703e
00000200: e17d e43d e05d 803e 92ef 683e ba30 9b3e
00000210: 6779 3a3e 290e 1cbd 3821 803e a8f2 18be
00000220: 37ac 533e d751 a2bb 6ac8 f6bd 086f 3d3d
00000230: 3392 8eba 3c49 983e 8ed3 443e 34c6 94be
00000240: 36a3 433d 8f96 543b 238b 47bd 7ab1 bbbd
00000250: 6c95 07be 7681 e2bd 709c 23be ec31 10be
00000260: efcd 05be 62b2 123e 7b17 2bbe b5d1 943e
00000270: 6e43 87bd 6f21 17be f699 87be 0af7 6f3e
00000280: 179a 97be 991d 363e 2d79 633e f8eb abbe
00000290: d29c 59bc 7af7 8d3d 1f9e 513e e3fd 9a3d
000002a0: 0190 9c3e ae8e 67be 5e97 7c3e 52b8 adbd
000002b0: 19af 8dbe bbf6 9b3e a948 853e c969 8ebe
000002c0: 23ea 663d 2813 7abd e4da 0ebd 609a 0bbb
000002d0: 9d2e 1dbe f537 06be d0c7 80be 49d7 00bd
000002e0: e086 943e 9600 d8bd 86ce 3d3e a517 72bd
000002f0: 7fce 6dbe 0b97 b13e 4064 bc3d f33b 83be
00000300: 2c49 cabe 3efc c4bd 5a0a 7bbe 282c 0f3e
00000310: 0d79 8fbc d09b d93c 15d8 e33d 8bc5 b6bd
00000320: a0d5 5fbe 8130 40bd 60ed 74bd 0c7d c1bd
00000330: 18b1 a13e 807b 733d f6c3 123e a6b9 0cbe
00000340: cb49 e9bd 59bd 81bd 700e 82be 7b95 a3be
00000350: 95e1 42be 2a44 673e 7a0f 4f3e da05 5d3e
00000360: 7908 e7be 3955 8abd c040 96bd 7a86 30be
00000370: 6fb4 bfbd a47e f9bd ea58 20be 5430 bc3d
00000380: b123 ecbd e206 393e 3aaa babd 8844 9dbe
00000390: b067 2b3e b44f 7e3e 29e1 053d a3eb b7bd
000003a0: 6733 fa3d 483b 31bc 905a f5bb 9555 83bd
000003b0: 0b13 0a3e bbf3 19be 8883 0c3e 177b 7dbd
000003c0: 5cff a33d ba19 4cbe 0b19 a83e fd0a 6bbe
000003d0: f2d8 1fbe bdf8 72be f1cf 8bbe 33e6 0bbe
000003e0: d768 f83d 0111 8e3d 0cdc b53e c24b 37bd
000003f0: 67b9 36be 55a4 b43d 263e 7cbe e505 073e
0.3816319 0.2645671 -0.02490998 0.16418009 -0.07769263 -0.115357816 -0.26908422 0.034872536
0.18632922 -0.055827662 0.20073216 -0.14864367 0.21748778 0.15933931 0.041072093 0.27953193
-0.18461603 0.044061437 -0.24118319 0.026627954 -0.057301532 0.241138 0.2737058 0.18923496
-0.08052171 0.15989889 -0.111405656 -0.021234032 0.15529034 -0.20734802 -0.2549723 0.26904657
0.08369734 -0.19955622 -0.2659628 -0.3707244 0.17528598 -0.20817886 -0.13248846 0.028674485
0.21624017 0.18234119 0.16233996 -0.008313767 0.20521058 -0.15699206 0.1754216 -0.12831597
-0.33720732 0.2498868 0.16153322 -0.31882924 0.06383425 -0.23720191 -0.30488974 -0.16817959
-0.0012911173 -0.117862694 0.14603718 -0.25824538 0.29087076 -0.19188486 0.17672971 0.25640118
0.18535605 0.25381666 -0.26361898 0.1878957 -0.23798996 0.024664298 -0.2664171 0.17043176
0.013790163 0.13235737 0.06806126 -0.1082679 -0.27485275 -0.1438254 0.25318322 -0.040825937
0.42652458 -0.05841236 -0.13825119 0.09867064 0.23287794 -0.25010288 0.046339154 -0.050496772
0.11309362 0.23464215 -0.13151322 -0.21143514 -0.3102625 -0.15918913 0.15826352 -0.14160301
-0.14657342 0.11106173 -0.030767234 -0.12081051 0.03838193 0.2412982 0.09567019 0.13439146
-0.049720183 0.23536201 -0.10242373 0.28714564 0.023032103 0.21527073 0.06605044 0.15561697
0.018332904 0.052782733 -0.054575004 0.19194102 -0.30900398 0.09931392 -0.101908855 0.083455354
0.09622869 -0.08427451 0.16691718 -0.22653514 0.060823165 -0.2832957 -0.122994244 0.23503806
0.11156822 0.2507162 0.22747639 0.30310613 0.18210374 -0.03809944 0.25025344 -0.14936316
0.20671163 -0.0049536037 -0.12049945 0.046248466 -0.0010877311 0.29743373 0.19221327 -0.29057467
0.047763072 0.0032438373 -0.048716675 -0.0916471 -0.13240594 -0.11059849 -0.15977645 -0.14081544
-0.13066839 0.1432586 -0.16708176 0.29066244 -0.06604658 -0.14758848 -0.2648465 0.23434082
-0.2960975 0.17784728 0.22214194 -0.33578467 -0.013282018 0.06931968 0.20470475 0.07567956
0.30578616 -0.22613022 0.24667117 -0.08482422 -0.2767265 0.30461678 0.26031998 -0.27815083
0.056375634 -0.061053425 -0.03487672 -0.0021301731 -0.15349813 -0.13107283 -0.25152445 -0.031455312
0.2900915 -0.10546987 0.18535814 -0.05910458 -0.23223303 0.3468555 0.09198809 -0.25631675
-0.3950895 -0.09618424 -0.24515668 0.13981688 -0.017513776 0.026563555 0.11125199 -0.08924397
-0.21858835 -0.046921257 -0.05979669 -0.09447679 0.31580424 0.05944395 0.14332566 -0.13742694
-0.11391028 -0.06334943 -0.2540164 -0.31949982 -0.19031365 0.22584596 0.20220748 0.21584263
-0.45123652 -0.06754536 -0.07336569 -0.17238799 -0.09360587 -0.12182358 -0.15658918 0.09188905
-0.11530245 0.18069032 -0.091144994 -0.30716348 0.16738772 0.24835092 0.032685433 -0.08980491
0.122168355 -0.010817356 -0.0074876025 -0.06412808 0.13483827 -0.15034382 0.1372205 -0.061884966
0.0800769 -0.19931689 0.32831606 -0.2295341 -0.15610102 -0.23727699 -0.27307084 -0.13662033
0.121293716 0.06936837 0.35519445 -0.044749983 -0.17844163 0.08820406 -0.24633083 0.13185842

convE1.self_map.bias f4 [32]
00000000: b07f 31bd 6e17 4a3e ff37 96be b0ce 2ebd
00000010: 5542 8dbe 0c3d 2a3e bcbf 6bbe 3f68 4dbc
00000020: 4dc5 6ebe 166e 87be 2fb9 d83d a4f2 3c3e
00000030: 3bb5 203e 6a6b 1f3e 1699 323e fbf7 c0bd
00000040: d157 18be 2417 363e 275e 583e bbe0 a1bd
00000050: 9e15 41be c910 683d 51c0 063e 97cc aa3c
00000060: 804e 10be 1d35 183e 1da7 28be 53a3 8e3d
00000070: 4c9a 253d 4c3b a33e d045 9fbe 6dd6 4fbe
-0.043334663 0.197355 -0.29339597 -0.04267758 -0.2758967 0.1662485 -0.2302236 -0.012537061
-0.23317452 -0.26451176 0.10582196 0.18451935 0.15694134 0.15568319 0.1744121 -0.094222985
-0.1487725 0.17782265 0.21129666 -0.07904192 -0.18855903 0.056656633 0.131593 0.02084951
-0.14092445 0.14864011 -0.16469999 0.069647454 0.040430352 0.31881177 -0.3110795 -0.2029664

convE1.pass_map.weight f4 [32, 64]
00000000: ceb7 283d 1d39 3a3d 6ebc fdbc b9d8 b6bd
00000010: c5cb 57bd a2c7 93bd c390 a8bd 44cd c13b
00000020: 9d0c 353d 7a64 4a3c fb17 24bd 00e7 b1bd
00000030: 029d 42bd e20d ad3b f6d4 9fbc fbfc a83d
00000040: 0cd2 1b3d 8943 67bd 28f6 753d 0449 093d
00000050: 1ebd 5b3c fbe3 18bd 451a 863d c57a 0b3d
00000060: 01bb f23c 959c 05bd 2a39 0c3c 8785 b3bd
00000070: ac7b 0abd 72f4 f6bd 5bbf 20bd 1a2e b63b
00000080: 4e96 bdbc 4e05 753d 9158 a73d 0360 9ebd
00000090: 41b0 22bd 08ab f7bc 03a0 7f3d 874b 25bd
000000a0: 5555 603d fcfa 1f3a f120 673d 092b eabc
000000b0: 6be4 ef3c 4cff e93b dbd5 ab3d fccd a3bd
000000c0: 8a9d 9a3c d1a7 feb8 4267 7a3d f11f 323d
000000d0: 1d44 3cbb 94ad 0b3d 0802 7ebb 57ec 25bd
000000e0: 91d1 6abc d67e 64bd e9d7 b03d 73cd 10bd
000000f0: 78e1 6fbd c7fe 83bd db8f 5b3b e91f 1c3d
00000100: 722b 98bd efc5 eb3c 83ea 8b3d a383 1e3d
00000110: 04df 943d cd8c 58bd 2139 91bd 4a69 86bc
00000120: 54fb 623c 5e32 b53d 30f6 8e3d cb1c 413b
00000130: 24f7 903a b3bd debd b12b 803d 20de 383e
00000140: a702 1e3e c681 70bd 6be5 93bd 5b42 aabd
00000150: e131 063d ba31 fdbc de01 5f3d 97d1 223d
00000160: 9451 52bd c6b1 39bb 9bed c4ba bf39 703c
00000170: 6ed4 cabd d847 eabd 2326 5a3c 0247 863d
00000180: bd14 67bd 5a2a aa3d f7ca 01bc 7137 aebd
00000190: 445f df3d 13da 2bbd 17f6 3b3d 8578 a0bd
000001a0: 4ae6 9cbc 7fdb fd3c 9c2b dfbc 1006 70bc
000001b0: 9c7f c1bd 289c bebc ee63 46bd 588a 84bd
000001c0: 9dce 91bd 29f9 f3bd 739b b23c 8fe0 c9bd
000001d0: 2a4c 123c 8100 713d ae8c b6bd 7d34 f53c
000001e0: 3f91 cf3d b4a7 8a3d d562 283d 2027 5ebd
000001f0: d166 183b 01c5 313a 9cdb 53bc 58a5 073d
00000200: 1df9 e1bb 45cc 493d aadf 98bd 04c8 b0bb
00000210: 7ed2 8cbd b5b8 83bd 8a7c 9b3d 8dd3 173d
00000220: 2d04 0ebe c3ba a3bd 0418 eabc 2ca2 5e3b
00000230: 8436 9abd a544 a2bd 54c2 22bd 09ff 41bd
00000240: b685 80bc 011d 013a c057 933d 0357 46bd
00000250: 4ecf bc3c 78bd e03d c2b2 4e3d e96b 0fbd
00000260: 1d75 0abe 8726 563d af00 903d b96a f53c
00000270: 0c8b 203d fea5 063e 0d7c 98bd 3819 10bd
00000280: c047 933d b918 a93d 5a4d 023d 70a1 ebbd
00000290: ba98 ad3c cabd c6bd 9e3d 0dbd 0278 69bd
000002a0: 75d1 da3c 7b2f 56bd 1e7d 94bd 6dbf 37bd
000002b0: c313 be3c eb96 64be 4663 30bd f67c 38bd
000002c0: 3d4c e03a 3d31 86bc e36e 6d3b 952e 9e3c
000002d0: dbf5 9bbd d269 d93d afde c53b 9483 0fbd
000002e0: d373 42bd 9bb1 e0bd f3dc e7bc 9cbb e7bd
000002f0: b842 0c3c 7d72 9dbd acb3 0ebc f384 c4bc
00000300: 7b06 6f3d a441 06bd b23e 01bd 053a 98bd
00000310: ca19 d43b 3839 21bd 552f c6bd 7c50 cc3c
00000320: bfd9 dcbd a995 5b3d f96b b7bd 161c 6c3d
00000330: 0129 f9bd d9c0 41bd 130a 043c 84ea 8e3d
00000340: 33a0 09be 9db2 a03d ad67 3a3d 73e2 263d
00000350: 3683 793d d312 12bc fc03 19bd 307d 133d
00000360: 688f 23be fccc 87bc a43d 82bd d046 063d
00000370: 6448 88bd a6ce debc bb45 d93c 80f3 0dbd
00000380: 5637 bebd 625c dcbd e7af 8cbd ee96 94bd
00000390: 65f9 30bc 399f eabd f346 e8bc ecbc 35bd
000003a0: 7d95 1e3d c197 f93c 48e1 953c 3881 97bc
000003b0: 2703 d03c 8a56 533c e6d3 f4bd 3df4 b03d
000003c0: 51b6 c6bc 68a2 943c 5ee3 94bd 7f45 c5bd
000003d0: 5cdf c5bd 5f57 a0bd 482d 3d3d 0a32 48bc
000003e0: 7053 fdbc 51d0 973c f028 86bd adae 533d
000003f0: 2bb6 933d 5e0b 32bd 77c9 5a3d 4ec9 9a3d
0.041190915 0.045464624 -0.03097364 -0.08928055 -0.052684564 -0.07215811 -0.08230736 0.005914362
0.044201482 0.012353057 -0.040061932 -0.08686638 -0.047513016 0.005281196 -0.019510727 0.08251377
0.038042113 -0.05646089 0.060049206 0.0335169 0.013411788 -0.037326794 0.06547979 0.03405263
0.029630186 -0.03262003 0.008558551 -0.08765703 -0.03380935 -0.12058343 -0.03924499 0.005559695
-0.02314296 0.059819512 0.081711896 -0.077331565 -0.03971887 -0.030232921 0.06240846 -0.04035523
0.05476888 0.0006102768 0.0564279 -0.028584974 0.029283723 0.0071410295 0.08390399 -0.07998273
0.018873949 -0.00012142922 0.06113363 0.043487493 -0.0028727122 0.034101084 -0.0038758535 -0.040508594
-0.014332191 -0.055785023 0.086349316 -0.03535218 -0.058564633 -0.06445079 0.0033502493 0.03811637
-0.074301615 0.028780906 0.06831839 0.038699757 0.07269099 -0.052868653 -0.070909746 -0.016407628
0.013853867 0.088474974 0.0698055 0.0029466625 0.0011059982 -0.10876026 0.062583335 0.18053484
0.154307 -0.05871751 -0.072214924 -0.083134376 0.032762412 -0.0309075 0.05444514 0.03975066
-0.05134733 -0.002833472 -0.0015024425 0.014662205 -0.09903799 -0.11439484 0.013314757 0.065565124
-0.056416262 0.08308859 -0.007921926 -0.08506668 0.10906842 -0.04195602 0.045888986 -0.07835487
-0.01915278 0.030988453 -0.027242474 -0.014649883 -0.09448168 -0.02326782 -0.048435144 -0.064716995
-0.071194865 -0.11912758 0.02180264 -0.09857284 0.008929292 0.05883837 -0.08913551 0.029932255
0.10135125 0.06770268 0.04110988 -0.05423653 0.0023254643 0.000678137 -0.012930777 0.03311667
-0.0068961517 0.049267072 -0.074645355 -0.0053949375 -0.06876086 -0.064317144 0.07592113 0.037066985
-0.1386878 -0.07994606 -0.028575905 0.0033971174 -0.07529929 -0.07923249 -0.039736107 -0.04736236
-0.015688758 0.00049252814 0.07194471 -0.048422825 0.02304807 0.10973638 0.050463445 -0.03501502
-0.13521238 0.052282836 0.070313804 0.029958116 0.039195105 0.13149258 -0.07445536 -0.0351803
0.071914196 0.082566686 0.03181205 -0.11505401 0.02119099 -0.09704168 -0.03448259 -0.056999214
0.026711205 -0.052291375 -0.07250427 -0.044860292 0.023202782 -0.22323196 -0.043063425 -0.045041047
0.0017112565 -0.0163809 0.0036229424 0.019309321 -0.076152526 0.10615887 0.006038509 -0.035037592
-0.04747374 -0.109713756 -0.028303599 -0.113150805 0.008560829 -0.076878525 -0.008709829 -0.023989176
0.05835579 -0.032777444 -0.03155393 -0.07432941 0.006472801 -0.03936121 -0.096769966 0.024940722
-0.10783719 0.053609524 -0.08956141 0.057643972 -0.12166024 -0.047303054 0.0080590425 0.06978324
-0.13440017 0.07846568 0.04550903 0.040743303 0.060916148 -0.008915621 -0.037357315 0.03600806
-0.15972674 -0.016577236 -0.06359413 0.032782376 -0.066544324 -0.027198147 0.026522508 -0.034656048
-0.09287898 -0.10759808 -0.06869488 -0.0725535 -0.010801648 -0.114561506 -0.028354144 -0.044369623
0.038716782 0.03046787 0.018295899 -0.018494233 0.025392128 0.0128990505 -0.11954479 0.08640335
-0.024256857 0.018143848 -0.07269929 -0.09632396 -0.09661743 -0.07829165 0.04618576 -0.0122189615
-0.030923575 0.01853195 -0.06550777 0.051680256 0.0721248 -0.04346787 0.053414788 0.07557927

convE1.pass_map.bias f4 [32]
00000000: 0b13 ed3d 4576 f73c 26bc b93c 2641 5dbd
00000010: 0cb3 e63d 5658 e4bd f740 0fbe c60d 0fbd
00000020: 5f80 e53c c0b0 dabb b1bc c23c f1d6 c4bd
00000030: f96c 06be cf89 a73d e918 ca3c 6d65 413c
00000040: a9c9 59bd 97e2 bdbd 2361 ea3b fff2 e03c
00000050: 9ef5 f3bd 09dd 4dbd e748 cc3d 0ffe b8bb
00000060: 2fcd d03d 37cc adbc 906a 10bd 6e8e dcbc
00000070: 1673 5b3c 87e1 d83d 8d48 d6bd a07d 033c
0.11575898 0.030207762 0.022672724 -0.05401721 0.11264619 -0.11149661 -0.13989626 -0.034925245
0.028015314 -0.0066739023 0.023771616 -0.09611309 -0.13127507 0.08180582 0.024670081 0.011803967
-0.053170834 -0.09271734 0.007152693 0.02745962 -0.11912082 -0.050259624 0.099748425 -0.0056455205
0.10195386 -0.021215541 -0.035257876 -0.026923385 0.013394138 0.10589891 -0.10463057 0.008025557

attnN2.node_attn_maps.0.weight f4 [8, 32]
00000000: a5dd bc1b 0c47 748e 5da1 938f 84b7 288e
00000010: 6fff 0b0e 5eb7 910f b1a6 249e df8e ce8f
00000020: 9370 960e 5ba6 be16 3bdc 990e 3eb7 4f8d
00000030: 0bcc e50e 04b5 760c fe3f 720e fc18 c415
00000040: ec76 1210 e495 b38d aff8 f70d f8cd 0f8e
00000050: 2e0b 910c f0a3 4d0d c531 0897 33d3 5f1b
00000060: a911 a38f dc4a 8a0e 781f f90e 45a5 f48c
00000070: ae60 280f d701 4994 4800 2d0b 313b 600f
00000080: 7488 980f 5a85 928e 8075 0c90 1183 9a99
00000090: 9aea 1b8b b309 ab8b d1b2 6390 e4a9 ed17
000000a0: 03b2 8f13 dcaa c78d 41a7 778e 1520 fb92
000000b0: 93eb ed8e 1680 408d 64fe 229c 8a49 cc0d
000000c0: b240 2f90 e9bc dc0d 70ca 940e 2d56 d08d
000000d0: 8b60 748f 5ac1 d598 176e 7d8d 15ae 480d
000000e0: cf43 2b0e 93ca d58d faf9 610d 4f2a e60d
000000f0: 3519 1e11 8d62 ab0c 3718 3c8c 9127 a70e
00000100: 4557 b00e 8529 528e ff5c f90c 1385 678d
00000110: 39b3 2d8e 99fe 730e 5259 ce9b 6eb7 848e
00000120: b8b3 458e edb6 cc0e 0f64 780e 6c42 370e
00000130: 5f25 388f 1b37 978e 06e9 5f8f dd55 650e
00000140: 612b df8f 8f1c e20d b8d0 a610 52c7 791a
00000150: cbf3 760f d63b 468c 4345 4d0e 31ef 348e
00000160: 0baa 1a8f cdfb 588e ce1e ea0e de50 c50d
00000170: 2d5a 3410 f30c 140d 971e 638e 7aae c70e
00000180: c092 970c e8eb 829a abb3 1d90 d313 440c
00000190: ef82 698e 443e 998e 487b cd0e 1d4d 8b92
000001a0: 3aec d08a 8e0d 050e 9521 588e 1bd0 1d0e
000001b0: 04a2 918e 44a1 fc19 96d0 011c 9465 aa0c
000001c0: b9a9 0e0e cad7 be93 d070 c40e 2455 1e0e
000001d0: 7e74 e10e 749d 610c 3626 880d d33c 6f8e
000001e0: 2fdd e00e 8203 4b8f b6fb b80e 4837 6c0c
000001f0: 4e7b 3695 1d72 540d 193f ec8f bbcf 4b0f
00000200: f0d9 ba23 c3c3 93a0 4e95 ada2 adff d3a0
00000210: b75c 82a1 2ff4 4320 b547 6023 8215 7821
00000220: 93c7 0222 c9e2 9122 334b e321 0a21 1a22
00000230: a91a 0222 1ebc 11a0 57b5 11a3 b49c 1c22
00000240: ac28 3123 1a56 e7a0 4666 85a2 c186 5ca1
00000250: efda 4622 c751 d720 d39b cca1 796d 7ea0
00000260: 0f97 4aa1 52c3 0922 4a68 4122 771b 8722
00000270: 627a 26a1 24cd bc1f ba5d 2623 2192 bc22
00000280: 404a d090 e940 378e a40b 5790 6330 e48d
00000290: 0505 6b8e 12a5 698f 6623 5e90 47af 2090
000002a0: 057f a48f e83f fa8e bc5c 868f 1916 000f
000002b0: 9176 938f 557a 548f be49 ba90 83c3 2d90
000002c0: 1ce0 7d90 26bc a40d e3ff 1990 707f 890e
000002d0: e370 0d90 6532 0d0e 7fc8 7197 6ea6 388d
000002e0: e20d fd0e eb8d 1f90 a2d7 888f 2481 580d
000002f0: abcb 288d bbe4 400d 23e5 8f18 48f5 cb0e
00000300: ea7d 0a25 af89 1ba3 76c9 9722 5a44 3422
00000310: 7da0 5022 10c2 33a2 eb8a 4da4 ce69 8024
00000320: d722 16a2 344e b122 f390 b722 f6c1 6322
00000330: 000f f0a3 0cb0 3222 9116 e0a3 e312 de23
00000340: 17e0 0c24 2160 1522 9f73 dda3 15a5 3d21
00000350: 6f35 cca2 44ca b89f d91a c922 7e62 f8a2
00000360: 0ffb c9a3 edde 6a22 182b 9922 362a d622
00000370: 5ccd 75a3 ba47 cfa1 2c0a 9723 c4ec 4f23
00000380: fc56 ed10 2f14 5a10 8295 ba11 93c0 1a10
00000390: 94a9 a290 87de 9790 db86 0f11 b077 7211
000003a0: a302 8890 f473 928f 3693 8792 857d c510
000003b0: e2ef 4611 b7df f80f a3b6 da11 fbd1 ff10
000003c0: 02e5 2b11 767a 3d0e 192b 0696 797c f30f
000003d0: d4c2 fc1c ec6b ff8d bf4f 0c1d 883b 181c
000003e0: ab83 e210 05cb b690 9549 7490 78fb 3890
000003f0: 98d5 dd10 1d96 7c0f 8b2f e18f b1da f990
3.1245225e-22 -3.010953e-30 -1.4557474e-29 -2.0795958e-30 1.725606e-30 1.4368734e-29 -8.716559e-21 -2.03682e-29
3.708626e-30 3.080114e-25 3.7929486e-30 -6.400737e-31 5.6649345e-30 1.9005623e-31 2.9859614e-30 7.920319e-26
2.8885037e-29 -1.1067812e-30 1.5282419e-30 -1.7725281e-30 2.2347516e-31 6.3367835e-31 -4.400679e-25 1.851437e-22
-1.6079843e-29 3.4091713e-30 6.1413542e-30 -3.769362e-31 8.301659e-30 -1.01482695e-26 3.33188e-32 1.10554525e-29
1.5040917e-29 -3.612019e-30 -2.770065e-29 -1.5976164e-23 -3.002841e-32 -6.58814e-32 -4.4905612e-29 1.5358652e-24
3.627381e-27 -1.2305455e-30 -3.052563e-30 -1.5848236e-27 -5.865186e-30 -5.9318746e-31 -5.3930096e-22 1.2590175e-30
-3.4562504e-29 1.3604025e-30 3.6679757e-30 -1.2839736e-30 -1.2048722e-29 -5.5254445e-24 -7.809416e-31 6.18393e-31
2.1110026e-30 -1.3175906e-30 6.9634376e-31 1.418503e-30 1.247177e-28 2.6406035e-31 -1.449028e-31 4.120678e-30
4.3471387e-30 -2.590449e-30 3.8420494e-31 -7.1342553e-31 -2.1410189e-30 3.0074647e-30 -3.4137563e-22 -3.271715e-30
-2.4368656e-30 5.0466034e-30 3.0616537e-30 2.2588472e-30 -9.079098e-30 -3.727744e-30 -1.10396275e-29 2.826777e-30
-2.2006207e-29 1.3935201e-30 6.579704e-29 5.1653003e-23 1.2175689e-29 -1.5271371e-31 2.530155e-30 -2.230188e-30
-7.625535e-30 -2.6745293e-30 5.7715118e-30 1.216053e-30 3.556821e-29 4.562161e-31 -2.7994639e-30 4.9225302e-30
2.3353556e-31 -5.414787e-23 -3.1101202e-29 1.5105256e-31 -2.878251e-30 -3.777737e-30 5.0655117e-30 -8.791143e-28
-2.011853e-32 1.6400042e-30 -2.6640225e-30 1.9451943e-30 -3.5901275e-30 2.6121324e-23 4.295211e-22 2.6253782e-31
1.758457e-30 -4.8175527e-27 4.8426365e-30 1.9515997e-30 5.557896e-30 1.7380751e-31 8.390846e-31 -2.948831e-30
5.5433255e-30 -1.0009348e-29 4.560189e-30 1.8197414e-31 -3.6851878e-26 6.5464903e-31 -2.3295701e-29 1.004868e-29
2.025846e-17 -2.5032313e-19 -4.7049826e-18 -3.5913982e-19 -8.833684e-19 1.6597936e-19 1.2158249e-17 8.4054134e-19
1.772394e-18 3.9542447e-18 1.5402023e-18 2.0888383e-18 1.76324e-18 -1.234422e-19 -7.898866e-18 2.12249e-18
9.603802e-18 -3.91899e-19 -3.615801e-18 -7.4717245e-19 2.6949906e-18 3.6476532e-19 -1.3864824e-18 -2.1550858e-19
-6.8640187e-19 1.8670364e-18 2.6211588e-18 3.6620903e-18 -5.640496e-19 7.9960474e-20 9.018725e-18 5.1112222e-18
-8.2155934e-29 -2.2587745e-30 -4.241024e-29 -1.4063234e-30 -2.8968403e-30 -1.1519578e-29 -4.380905e-29 -3.1689465e-29
-1.6220575e-29 -6.1691298e-30 -1.324914e-29 6.315143e-30 -1.454099e-29 -1.0475967e-29 -7.347768e-29 -3.426885e-29
-5.00681e-29 1.0152575e-30 -3.0371058e-29 3.3895825e-30 -2.7894312e-29 1.7403856e-30 -7.812436e-25 -5.689971e-31
6.2382684e-30 -3.146655e-29 -1.3493694e-29 6.6715586e-31 -5.2014153e-31 5.943989e-31 3.7196003e-24 5.027956e-30
1.2012253e-16 -8.4317225e-18 4.1141937e-18 2.4430734e-18 2.8274218e-18 -2.436176e-18 -4.4569957e-17 5.569039e-17
-2.0347235e-18 4.8058747e-18 4.975572e-18 3.0866919e-18 -2.6027205e-17 2.4216697e-18 -2.4295686e-17 2.4077287e-17
3.0547472e-17 2.0244156e-18 -2.4009835e-17 6.4254175e-19 -5.5350886e-18 -7.826165e-20 5.4509585e-18 -6.7324817e-18
-2.1898791e-17 3.183093e-18 4.151636e-18 5.804951e-18 -1.3324963e-17 -1.4045851e-18 1.637576e-17 1.12716296e-17
9.361404e-29 4.3008468e-29 2.9437767e-28 3.05195e-29 -6.415901e-29 -5.9901856e-29 1.1322266e-28 1.9127315e-28
-5.3646604e-29 -1.4441375e-29 -8.555988e-28 7.789619e-29 1.5693366e-28 2.454086e-29 3.4506894e-28 1.0090329e-28
1.356009e-28 2.3355011e-30 -1.0838033e-25 2.4009595e-29 1.6726323e-21 -1.574157e-30 1.8570073e-21 5.0369524e-22
8.934415e-29 -7.2099143e-29 -4.81772e-29 -3.6481326e-29 8.7498223e-29 1.245347e-29 -2.2205026e-29 -9.855013e-29

attnN2.node_attn_maps.0.bias f4 [8]
00000000: 24c2 5489 3318 8f8b 97e1 098c 2dec a609
00000010: 728c dd9e 5b53 b08c 0250 ad9f 79b1 9c0d
-2.5609856e-33 -5.511801e-32 -1.0621982e-31 4.0185145e-33 -2.3457372e-20 -2.7167261e-31 -7.340071e-20 9.656967e-31

attnN2.node_attn_maps.1.weight f4 [8, 32]
00000000: 3c08 0718 e3b9 018f c254 c116 a45a 170f
00000010: ccd8 a810 0ac8 c00f 4c45 e618 e36a 6e0f
00000020: 7e0f 028f 9d14 d88f 89b3 d00f 7b97 338f
00000030: 9191 8b90 e68c 428e 1fa5 5891 c98c 0890
00000040: 7365 0b0f 8ff9 a10d b3a2 8a10 1f38 648e
00000050: ec49 d10f 4206 640b 771d 0890 fe35 f10e
00000060: a883 638e 9638 470f ce9e 690f 861d b30f
00000070: c240 2511 9b12 bd8e b709 7f10 99e4 791a
00000080: fea5 0191 2807 6b1c 9c89 5d90 3307 5f8e
00000090: 84b1 4b90 7c58 670e bd3f bf97 3bdc e019
000000a0: 95fd d90f 787f 4d0e 62ff 8a0f 674c fc0e
000000b0: 93c7 a210 48c7 770e 30cc 6998 1bcb f40e
000000c0: 8554 0911 1560 548f 08d9 0011 6f35 aa8f
000000d0: 50f5 4190 b7c9 880e 5902 c20f def4 348d
000000e0: 983b 1a91 0b1f fc0f fede c58f 3194 068f
000000f0: 1c2e 4f11 752e cc0f 0a1e 5190 58a4 390e
00000100: 2717 3111 fc02 7c0e e010 9410 68f7 028f
00000110: 3731 8b8e 80b2 1b10 535e 081a 6b56 6b90
00000120: 6655 bd8f de6d a88d 69f9 3c8f 03ad 730e
00000130: 1057 8a90 15ca 5a8f 0419 8691 cae5 8f8f
00000140: 69db 3810 16f4 540f 415c fc8f decf 1a8f
00000150: acb2 e08f 9b7a e98d af0b 0d10 bb3a c48d
00000160: 41ea 9c8f 2147 9c90 5ff0 730e 3f99 e50e
00000170: 4e7e 2e91 011a 968f 5ba3 7890 926a 1310
00000180: f42d e010 af4f 2f0d a4b8 b399 7e44 810e
00000190: 646d 7790 2098 e18d a242 9711 6ff3 bd10
000001a0: f811 940f ee7d a019 46ca 898f 17a0 cc8e
000001b0: f65e dc8e 8bfd be19 ef5c 8290 bdb9 8210
000001c0: 8b84 7e8e 5071 a00e 4a15 0910 0403 710e
000001d0: 4bb0 3b90 6738 400d c848 e68f 5864 ee8e
000001e0: db7f e08f bc5c 3a8d 6a1f 2c0e 0a0a 1b8e
000001f0: 5e28 7590 4013 3b0f 4bf9 a410 93c9 d70f
00000200: 0a97 aba3 590d 9522 4c6e 9d22 38b9 8da0
00000210: 3b5e b423 eb81 b022 1fee bca3 cac6 9ea3
00000220: 3db7 9fa2 920f cfa2 2463 6aa2 4783 1a21
00000230: 5ab4 9822 d840 93a2 77de 58a4 8da1 4822
00000240: ff51 49a4 045e 8620 6edb b3a2 ff14 de22
00000250: 439c d2a3 2987 8621 e4ea 9623 690b 27a2
00000260: 25fe d922 7379 92a2 9cbe 36a2 4176 8522
00000270: d6fe d222 e7a5 5ea2 a280 13a3 e6f8 b5a1
00000280: 5473 bb91 853e ec99 4f46 e51a bc93 2f0f
00000290: 08dd c590 6156 001d 1e52 b790 3cbe 6c10
000002a0: 95c0 140e bddf 6490 1220 0917 788c b38f
000002b0: 4fb6 1091 ec7c 6a8f b74c ed91 d239 db96
000002c0: 0bb7 a291 772f 6790 ff91 5090 3e06 5992
000002d0: 7eb2 1f10 73ed 4e8d 6b39 0c12 1403 c98f
000002e0: 1350 8491 4c37 1611 3b81 ac9d b2ce 140e
000002f0: 351d 3f0e 2e01 ab90 267b b090 e241 b590
00000300: 6d33 1fa5 33a5 4b24 3ae0 86a4 ed1b c323
00000310: 7b3e a124 63cf 9822 c48c c523 ceca c225
00000320: a8d5 0623 0994 9324 becb 2224 12aa 2623
00000330: db21 a423 b456 5ca3 3bab d9a4 2304 8aa4
00000340: 4340 7c23 3103 c423 cadd 4c24 3d8c 0a25
00000350: e629 b824 c093 eca2 6595 1c25 0290 b723
00000360: ef4e 5a25 cf0e b923 4c42 ee24 f381 b122
00000370: ea8c f125 4c2a f522 3f94 8d22 f5cc 8224
00000380: c4ae 851d cde3 0191 523d f29a ae14 e98e
00000390: 2cf2 c316 e3e4 c091 f200 c596 b9f5 6b90
000003a0: 077e d090 53e2 8791 f30a d410 9ec9 e70f
000003b0: 8cb3 cf92 66f3 2d90 5dc2 5c1c 7b83 af10
000003c0: 8f33 9e91 61d3 9791 e2b3 0192 06f7 dd1b
000003d0: 806b e591 6d7c a20e 8d59 d691 891e 9d91
000003e0: 329d 4991 bd66 6091 b0c3 1516 bb9b 811c
000003f0: 1b0b 8991 cfbf a091 2fef 6499 aea7 ae90
1.7452498e-24 -6.3959915e-30 3.1234321e-25 7.4623315e-30 6.6598345e-29 1.9009714e-29 5.952358e-24 1.17548916e-29
-6.4124785e-30 -2.1307184e-29 2.0579538e-29 -8.8545555e-30 -5.5050113e-29 -2.3980186e-30 -1.7090277e-28 -2.6929728e-29
6.8727675e-30 9.98247e-31 5.468208e-29 -2.8130191e-30 2.0637465e-29 4.391591e-32 -2.684397e-29 5.946308e-30
-2.80433e-30 9.8223556e-30 1.15183716e-29 1.7662135e-29 1.303616e-28 -4.6610014e-30 5.0297367e-29 5.1676653e-23
-1.0227456e-28 7.7764227e-22 -4.3690575e-29 -2.7490338e-30 -4.0171444e-29 2.8515552e-30 -1.2359176e-24 2.3250008e-23
2.1495528e-29 2.5329575e-30 1.370622e-29 6.219637e-30 6.4205226e-29 3.0541051e-30 -3.0217633e-24 6.0346227e-30
1.0833439e-28 -1.0470912e-29 1.0164298e-28 -1.6783876e-29 -3.825152e-29 3.3720833e-30 1.9130781e-29 -5.576153e-31
-1.2166822e-28 2.4861076e-29 -1.9511593e-29 -6.635251e-30 1.6343629e-28 2.0133848e-29 -4.1241124e-29 2.288214e-30
1.3969972e-28 3.1062835e-30 5.840171e-29 -6.4571436e-30 -3.4313538e-30 3.070587e-29 2.8200335e-23 -4.6412152e-29
-1.8669733e-29 -1.0380249e-30 -9.31715e-30 3.0035365e-30 -5.4565543e-29 -1.07871494e-29 -2.115689e-28 -1.41894e-29
3.645663e-29 1.0499416e-29 -2.4884653e-29 -7.63282e-30 -2.2156927e-29 -1.438925e-30 2.7816348e-29 -1.2093571e-30
-1.5473019e-29 -6.164074e-29 3.0067797e-30 5.660043e-30 -1.37651e-28 -1.4801158e-29 -4.903522e-29 2.9072737e-29
8.8423223e-29 5.4021954e-31 -1.8582742e-23 3.186691e-30 -4.8796432e-29 -1.3903318e-30 2.3864665e-28 7.4922424e-29
1.4600848e-29 1.6594475e-23 -1.3587156e-29 -5.0444044e-30 -5.432563e-30 1.9747945e-23 -5.1419146e-29 5.1562134e-29
-3.1371734e-30 3.955216e-30 2.7034887e-29 2.9706995e-30 -3.7015058e-29 5.923246e-31 -2.2707785e-29 -5.8768157e-30
-2.2137353e-29 -5.74273e-31 2.1215762e-30 -1.9110059e-30 -4.8348828e-29 9.223519e-30 6.507069e-29 2.127828e-29
-1.8603825e-17 4.0400663e-18 4.2671717e-18 -2.4008897e-19 1.9555547e-17 4.784245e-18 -2.0483849e-17 -1.7214585e-17
-4.3291047e-18 -5.612395e-18 -3.1765398e-18 5.2350974e-19 4.1390637e-18 -3.9913086e-18 -4.702597e-17 2.7190579e-18
-4.365438e-17 2.2762697e-19 -4.8750377e-18 6.019545e-18 -2.2834425e-17 9.11597e-19 1.6362513e-17 -2.263876e-18
5.9087054e-18 -3.970197e-18 -2.4766507e-18 3.617493e-18 5.7190432e-18 -3.0174438e-18 -7.996125e-18 -1.233092e-18
-2.9574474e-28 -2.442708e-23 9.482577e-23 8.656619e-30 -7.804335e-29 1.6985316e-21 -7.2307294e-29 4.6689345e-29
1.8335133e-30 -4.5137433e-29 4.4307566e-25 -1.770487e-29 -1.1415775e-28 -1.156115e-29 -3.7439286e-28 -3.5417848e-25
-2.5671902e-28 -4.5593283e-29 -4.1133238e-29 -6.848082e-28 3.1494726e-29 -6.376447e-31 4.4246984e-28 -1.9821316e-29
-2.0875277e-28 1.1849953e-28 -4.5661642e-21 1.8341929e-30 2.355663e-30 -6.7449425e-29 -6.96095e-29 -7.149342e-29
-1.3808475e-16 4.4158537e-17 -5.849309e-17 2.115377e-17 6.9928466e-17 4.141926e-18 2.14184e-17 3.379106e-16
7.309398e-18 6.400187e-17 3.5300727e-17 9.034892e-18 1.7795254e-17 -1.1944584e-17 -9.4398824e-17 -5.985497e-17
1.3674555e-17 2.1251714e-17 4.442331e-17 1.2017107e-16 7.986826e-17 -6.4124365e-18 1.358146e-16 1.990189e-17
1.893523e-16 2.0064012e-17 1.0332836e-16 4.8113535e-18 4.1902323e-16 6.6452167e-18 3.837509e-18 5.6725724e-17
3.538551e-21 -1.0246502e-28 -1.0018792e-22 -5.745885e-30 3.165678e-25 -3.043332e-28 -3.1827663e-25 -4.6534876e-29
-8.223571e-29 -2.1438728e-28 8.3636126e-29 2.2856019e-29 -1.3107798e-27 -3.430574e-29 7.3043103e-22 6.9227907e-29
-2.495978e-28 -2.3953872e-28 -4.0926945e-28 3.6721018e-22 -3.6196081e-28 4.00559e-30 -3.3818437e-28 -2.478905e-28
-1.5904544e-28 -1.7702143e-28 1.2097872e-25 8.576759e-22 -2.1621633e-28 -2.536176e-28 -1.18356265e-23 -6.888925e-29

attnN2.node_attn_maps.1.bias f4 [8]
00000000: a5c2 268d 322d 461b e567 7f8d 0cf9 f38b
00000010: 1e20 74a0 3608 419d f996 0c22 2fce 938e
-5.1386994e-31 1.639278e-22 -7.8703e-31 -9.397492e-32 -2.067823e-19 -2.5547582e-21 1.9053462e-18 -3.6436845e-30

attnN2.node_attn_maps.2.weight f4 [8, 32]
00000000: d20c 689a a376 b08e 2070 4e8e 2a9e 778e
00000010: 85e0 e418 d416 090d 814c f912 d5a7 3f0f
00000020: 3a5b 441e 8067 d10c 4ae5 2b8e 4cbc c80a
00000030: 4780 c90e bfc2 4e0a 2f28 850f 91ad 180d
00000040: 96b6 d40d f327 508e 1c09 090f 4a87 2f0e
00000050: 6f50 1b8d 35dd f60c 2f05 148f ce05 2e0e
00000060: 0133 e70e 1c61 d78d 8d79 a30e 163f bb8e
00000070: 79ae 170f ddc7 5c0e 09f6 4d0e 1e14 008e
00000080: 89d7 1e8f 3900 fb0e 8904 210f e662 bf0e
00000090: 23c0 ba12 6f99 b98d a55e 1d0f 3329 df0e
000000a0: 669f e996 29fc f99d 631c 858e f89a 978c
000000b0: f606 761d 162f b78c ebc1 b20f ce71 9e0e
000000c0: a532 4e97 63f3 921c ea0a f00d 9c47 fb8c
000000d0: 0db5 0f0f 7055 680d 2611 1e0e a630 7f1b
000000e0: d2cd 8895 c8d5 690e 8140 1c0e 08be 9f8d
000000f0: 248c ca8c a754 be0e 4ca9 9c0d 3ace df98
00000100: c447 0d93 b2e2 969a 6c65 030d affc aa8c
00000110: 0d51 8d0e 4bed 1f8e f144 d60f 6783 c00d
00000120: b363 978d d111 588d 7438 1d8c fff9 840d
00000130: c9b8 5c9d 148f 950d 9462 640f 2857 250d
00000140: 854a 4a18 823f df11 4bf1 df0e 08aa 9a0b
00000150: b158 de0e 873a ec0b 0397 8e8d 845b 530e
00000160: e5c4 110f 2e2c ee0c 0f7b 5c97 661c eb8c
00000170: 873e b00f 509e 8399 7638 ac8d 3b56 2812
00000180: c912 6e0c c478 500c 934a 858e 4f51 7e0b
00000190: 52a6 9d8e e9ed 588d d627 cc8e c826 e00e
000001a0: ccd3 0c8e fe57 c117 de54 9e97 c43e 228e
000001b0: 16fd 5a0f 986a 8a0c 726f 680e b96c 728e
000001c0: 2a51 800e d3eb eb8c 44ba ee0d 78b6 f30e
000001d0: f2ca ad8c f357 480b 313d d90e 207a 970d
000001e0: 151a 798e eae9 350f 73ab 9599 1d89 dd8d
000001f0: be34 130e 0f41 360d 7447 518e f1c6 af19
00000200: e358 8ea2 3e44 0fa0 9ed3 3f21 3207 851c
00000210: 615b ae1f eae9 9f21 f50b 17a2 d5ab 28a2
00000220: 8911 59a1 42e0 b320 5f90 921b 67a9 b41f
00000230: 1413 1ba2 abd5 c6a0 81e1 4923 f67c 64a1
00000240: 2975 7220 3869 03a2 ddb3 0321 3220 36a1
00000250: 1d88 5e21 199e fb20 a35a f0a1 def7 9a21
00000260: 7ce2 4ca1 4853 c7a0 9ebf fb20 d2ff ae9f
00000270: 40d7 a621 efc6 0da1 2d4b 3f22 d01d 6522
00000280: 5c90 dc0e 359a 168f 66d1 438f 3ea5 fc8e
00000290: ac07 a00e cdc9 0e8f 5bed 890f 1bed 4d0e
000002a0: 84ed 9c1d 4bdb 5c0e 2e7b 018e 8cc9 0d0d
000002b0: 2643 a48f 4a83 908d b98d 2f8f b1fa 998f
000002c0: 1b03 d58e b5ad 000d 0e88 ca0e eb1c 119e
000002d0: 1fcb 788d b711 9d8d c3cf 420f be12 058e
000002e0: e576 2812 d5a4 b70e 9606 4093 e4a0 888d
000002f0: dac0 808f 6d1c c18a 65eb 5f8d dd2d 979c
00000300: b934 9f23 0ad1 ca22 6dc1 0c24 6de2 9722
00000310: 151c b2a1 9c34 1823 13b0 3024 7ec5 d423
00000320: c455 d122 67dd 6121 4842 e721 5dd6 4321
00000330: d33f c523 0290 1e21 ef9b d324 4ca6 6223
00000340: 8c28 0424 1aa8 3e22 b8bd 8422 fcfd 4022
00000350: 3f07 9923 923a df21 d919 2023 6e4c 1422
00000360: db7b 4923 b619 ac22 366b a223 6ec8 efa1
00000370: de32 6b24 8e2d 2822 4fc8 f823 68fd 8ea0
00000380: 384e a391 baf6 7a90 3bf0 5291 4e3c 9a8e
00000390: 9bc9 b190 0694 c190 1f77 b690 fa68 f290
000003a0: f27d b314 1ed0 958e 3307 530f 2d7f d88f
000003b0: 903c 6991 51a1 fb8e de4d 529b 417d 279d
000003c0: c81f 0d91 1454 7e0e b2eb 0d0f a198 fe95
000003d0: cdc4 f390 c051 5b8f d858 aa10 6165 f90c
000003e0: 6624 2390 0dad 4b10 1a1c 710f 73c2 fa0f
000003f0: 8c32 159e 4307 250e 0522 9590 2645 a910
-4.7986832e-23 -4.3501593e-30 -2.5445447e-30 -3.0521254e-30 5.9163325e-24 4.2243863e-31 1.5732969e-27 9.44935e-30
1.0395019e-20 3.226384e-31 -2.1187776e-30 1.9330129e-32 4.9673852e-30 9.955167e-33 1.313029e-29 4.704754e-31
1.3109465e-30 -2.5657214e-30 6.756376e-30 2.1635555e-30 -4.785988e-31 3.8035435e-31 -7.297962e-30 2.144995e-30
5.699501e-30 -1.3273776e-30 4.029965e-30 -4.615981e-30 7.478477e-30 2.7213324e-30 2.5386662e-30 -1.5786904e-30
-7.831512e-30 6.187649e-30 7.938786e-30 4.718037e-30 1.1785616e-27 -1.1438443e-30 7.7589255e-30 5.5013418e-30
-3.7743775e-25 -6.617048e-21 -3.2814367e-30 -2.3358502e-31 3.2561428e-21 -2.8223953e-31 1.762685e-29 3.9059597e-30
-6.662611e-25 9.724384e-22 1.4793769e-30 -3.8715772e-31 7.0853135e-30 7.159336e-31 1.948326e-30 2.1108825e-22
-5.525469e-26 2.88224e-30 1.9259542e-30 -9.84488e-31 -3.1207372e-31 4.6920133e-30 9.654999e-31 -5.7852385e-24
-1.7832085e-27 -6.240479e-23 4.0489574e-31 -2.6344726e-31 3.4837233e-30 -1.9712516e-30 2.1128584e-29 1.1864548e-30
-9.330095e-31 -6.6581585e-31 -1.2111828e-31 8.195312e-31 -2.921229e-21 9.217279e-31 1.1260253e-29 5.094946e-31
2.614551e-24 3.5222336e-28 5.52061e-30 5.9574477e-32 5.4812632e-30 9.0991956e-32 -8.78778e-31 2.6051821e-30
7.1869725e-30 3.6696296e-31 -7.1241156e-25 -3.6224575e-31 1.7379025e-29 -1.3609024e-23 -1.0613911e-30 5.311774e-28
1.8340506e-31 1.6060079e-31 -3.2858844e-30 4.897979e-32 -3.886365e-30 -6.6846513e-31 -5.0328243e-30 5.525761e-30
-1.7358309e-30 1.2494545e-24 -1.0231934e-24 -1.9998262e-30 1.07969724e-29 2.132642e-31 2.8649867e-30 -2.9881151e-30
3.1632594e-30 -3.6349414e-31 1.4712724e-30 6.0079836e-30 -2.6777014e-31 3.8584765e-32 5.3553555e-30 9.335494e-31
-3.0704178e-30 8.969039e-30 -1.5475487e-23 -1.3653185e-30 1.8144543e-30 5.616139e-31 -2.5795642e-30 1.8174928e-23
-3.858329e-18 -1.213515e-19 6.499339e-19 8.803062e-22 7.384304e-20 1.0836176e-18 -2.0470646e-18 -2.2859213e-18
-7.3545667e-19 3.047218e-19 2.4246972e-22 7.651322e-20 -2.1016517e-18 -3.3683898e-19 1.0943984e-17 -7.741479e-19
2.0536962e-19 -1.7809513e-18 4.4622574e-19 -6.170661e-19 7.539667e-19 4.2625674e-19 -1.6287024e-18 1.0501056e-18
-6.941764e-19 -3.3767022e-19 4.2647856e-19 -7.4115086e-20 1.1305574e-18 -4.8035945e-19 2.5925125e-18 3.105107e-18
5.43732e-30 -7.42527e-30 -9.654571e-30 -6.228192e-30 3.9450433e-30 -7.040006e-30 1.3600669e-29 2.5382363e-30
4.153844e-21 2.722268e-30 -1.5959786e-30 4.3691583e-31 -1.6197513e-29 -8.906292e-31 -8.655461e-30 -1.5183528e-29
-5.2511544e-30 3.9652137e-31 4.992786e-30 -7.682216e-21 -7.66654e-31 -9.680137e-31 9.604952e-30 -1.640254e-30
5.3158e-28 4.527171e-30 -2.4237054e-27 -8.42038e-31 -1.2696058e-29 -1.8595917e-32 -6.9000526e-31 -1.0004197e-21
1.7261143e-17 5.497354e-18 3.05215e-17 4.116837e-18 -1.2069182e-18 8.251077e-18 3.8313057e-17 2.3068727e-17
5.674037e-18 7.652599e-19 1.5670713e-18 6.6352277e-19 2.1385813e-17 5.3723075e-19 9.1770825e-17 1.2286699e-17
2.8657282e-17 2.5838794e-18 3.5979544e-18 2.615531e-18 1.6591362e-17 1.5126571e-18 8.679091e-18 2.0098202e-18
1.0922459e-17 4.6647916e-18 1.760948e-17 -1.6248323e-18 5.1000588e-17 2.2792362e-18 2.6973048e-17 -2.4223426e-19
-2.5765072e-28 -4.9493878e-29 -1.6640106e-28 -3.8022002e-30 -7.012481e-29 -7.6353144e-29 -7.196988e-29 -9.561391e-29
1.8124058e-26 -3.6931745e-30 1.040449e-29 -2.1348231e-29 -1.8399121e-28 -6.203162e-30 -1.7395953e-22 -2.216702e-21
-1.1132732e-28 3.13484e-30 6.99723e-30 -1.0283059e-25 -9.614982e-29 -1.0813278e-29 6.719006e-29 3.842554e-31
-3.2174122e-29 4.0168004e-29 1.18876295e-29 2.4726802e-29 -7.898447e-21 2.0341317e-30 -5.882255e-29 6.6765287e-29

attnN2.node_attn_maps.2.bias f4 [8]
00000000: faf7 3692 705a 440b c1c8 fd0b f647 7a0b
00000010: d9f6 0e1f 717b ed8b a080 9d20 328c ac8d
-5.773473e-28 3.7816265e-32 9.7754116e-32 4.8202386e-32 3.0273857e-20 -9.1474813e-32 2.6681951e-19 -1.0634069e-30
