train_script/weights/GCNEdgeBased_model100/48.pth (torch, 46347 bytes, 17 tensors)

weight f4 [32, 13]
-1.345743e-39 9.47615e-40 1.125231e-39 -6.80208e-40 3.15959e-40 -1.166996e-39 -1.290021e-39 -1.36858e-40
-7.58355e-40 -3.12075e-40 -3.6214e-41 -4.25535e-40 -5.4418e-41 -7.88121e-40 -1.6113e-40 -4.87523e-40
-9.61993e-40 4.39023e-40 1.140493e-39 1.389547e-39 -6.41492e-40 -7.86043e-40 1.769988e-39 -2.53335e-40
-7.6787e-40 1.82533e-40 -8.4809e-40 7.15719e-40 1.382137e-39 -1.219654e-39 1.88036e-40 -1.547492e-39
1.281167e-39 6.55841e-40 -1.192498e-39 -1.473932e-39 -1.94741e-40 -1.105766e-39 9.33057e-40 -7.91023e-40
1.14628e-39 4.9815e-41 -4.87454e-40 5.08639e-40 1.301621e-39 -7.4874e-41 3.75437e-40 -1.131236e-39
-5.5928e-40 -1.02831e-39 -1.097903e-39 9.70908e-40 -9.00912e-40 1.505744e-39 9.74501e-40 5.21078e-40
9.81488e-40 -2.89601e-40 6.16929e-40 -9.9796e-41 -7.22678e-40 -3.63193e-40 -7.36283e-40 -3.07142e-40
-9.10767e-40 1.232536e-39 1.626e-41 -9.28383e-40 -2.97693e-40 -5.92676e-40 -1.194792e-39 6.78867e-40
1.519487e-39 1.847315e-39 -5.57867e-40 9.71687e-40 1.052473e-39 5.45671e-40 7.89416e-40 6.33264e-40
1.677406e-39 1.408116e-39 1.18186e-40 9.21037e-40 -1.654625e-39 -1.004665e-39 6.89135e-40 -1.033228e-39
5.3445e-40 7.25732e-40 -9.57795e-40 -6.00568e-40 -8.85646e-40 -2.61503e-40 -1.0955e-39 -3.7283e-41
8.24626e-40 -1.104541e-39 -5.1788e-40 1.125292e-39 -1.58991e-39 9.59099e-40 -9.16284e-40 2.95576e-40
-3.66672e-40 9.48455e-40 -3.32906e-40 -1.091853e-39 1.286895e-39 1.375292e-39 -9.98101e-40 -9.04266e-40
1.290625e-39 -8.14925e-40 -1.025928e-39 -1.131963e-39 -9.58534e-40 1.03978e-40 -7.60799e-40 -9.77837e-40
9.75923e-40 3.2256e-41 1.37774e-40 9.72221e-40 -1.00028e-39 1.598364e-39 -1.57094e-40 -9.84729e-40
-1.868823e-39 -1.596484e-39 -7.69096e-40 -1.02139e-40 1.490808e-39 -2.70916e-40 -1.18758e-39 1.165596e-39
-1.15414e-40 3.03308e-40 1.085174e-39 1.90462e-40 1.132056e-39 1.689752e-39 -8.41124e-40 -9.95213e-40
-6.90118e-40 -2.0563e-41 1.56887e-39 -1.416753e-39 -1.31414e-40 9.80965e-40 1.157589e-39 2.41787e-40
-9.61906e-40 -1.573466e-39 1.052106e-39 1.424568e-39 8.32174e-40 1.138792e-39 -5.80359e-40 1.187743e-39
9.63911e-40 6.54209e-40 -1.77461e-39 1.014462e-39 6.93814e-40 -9.97605e-40 3.32399e-40 1.480842e-39
3.44655e-40 -1.982755e-39 1.100085e-39 -1.66281e-40 -1.024258e-39 4.94028e-40 -6.24553e-40 -3.34346e-40
-1.265968e-39 7.07333e-40 -9.33022e-40 -1.320191e-39 2.38703e-40 -9.86357e-40 1.045704e-39 6.07354e-40
9.24e-42 -3.2836e-40 -6.0238e-41 -9.0578e-40 -4.05897e-40 5.33926e-40 5.98497e-40 1.29244e-39
-1.31774e-39 -9.56877e-40 -1.005671e-39 1.086787e-39 -9.03752e-40 -1.330555e-39 -1.247994e-39 1.096285e-39
1.424326e-39 1.278123e-39 -1.048449e-39 1.06676e-39 -1.685406e-39 1.234002e-39 -5.98109e-40 -8.74056e-40
-1.16667e-40 1.497199e-39 7.8075e-40 4.27888e-40 -6.48503e-40 1.30479e-39 3.10807e-40 -1.041291e-39
-6.63593e-40 -6.93288e-40 4.84998e-40 -1.08514e-40 -7.1358e-41 -4.24361e-40 8.90283e-40 1.275909e-39
-8.1564e-41 -1.076154e-39 9.95323e-40 4.9308e-40 1.792044e-39 -1.277036e-39 7.33199e-40 -9.08097e-40
-3.12389e-40 -6.75825e-40 1.52317e-40 -2.47813e-40 4.51979e-40 1.516076e-39 -5.63451e-40 -1.027735e-39
1.172876e-39 -4.55457e-40 -3.07037e-40 4.34756e-40 -6.6357e-41 1.005074e-39 7.28777e-40 -9.3132e-41
-8.60331e-40 6.96807e-40 -8.35928e-40 1.909105e-39 -1.181592e-39 -3.58424e-40 -1.260049e-39 5.7915e-40
00000000: 62a7 0e80 9151 0a00 b040 0c00 2568 0780
00000010: c470 0300 1cb5 0c80 0e0c 0e80 817d 0180
00000020: fc41 0880 f065 0380 f364 0080 38a2 0480
00000030: b297 0080 f694 0880 2ac1 0180 044f 0580
00000040: a579 0a80 d1c7 0400 3b6b 0c00 7e21 0f00
00000050: 38fc 0680 2b8f 0880 0246 1300 32c2 0280
00000060: 825c 0880 d4fc 0100 213c 0980 22cb 0700
00000070: d60c 0f00 e647 0d80 2b0c 0200 c7d9 1080
00000080: 5ff3 0d00 3824 0700 33fc 0c80 b90c 1080
00000090: dc1e 0280 6d0a 0c80 fc28 0a00 0d9d 0880
000000a0: 5d7b 0c00 dd8a 0000 d34e 0580 e189 0500
000000b0: 642c 0e00 b8d0 0080 9116 0400 6d51 0c80
000000c0: 0c17 0680 8332 0b80 82f4 0b80 7f92 0a00
000000d0: 60cf 0980 6765 1000 839c 0a00 8eac 0500
000000e0: fdaf 0a00 4a27 0380 bfb7 0600 3116 0180
000000f0: 88de 0780 6ff4 0380 7504 0880 3058 0380
00000100: d9ea 0980 cf6b 0d00 542d 0000 f41b 0a80
00000110: d93d 0380 2474 0680 9802 0d80 6864 0700
00000120: b68b 1000 901d 1400 1b13 0680 ab94 0a00
00000130: de75 0b00 1cf1 0500 9298 0800 48e5 0600
00000140: ed43 1200 4155 0f00 7449 0100 7a07 0a00
00000150: 6c04 1280 99f0 0a80 0781 0700 3840 0b80
00000160: d4d1 0500 0ce7 0700 f16d 0a80 248a 0680
00000170: d2a4 0980 f7d8 0280 cfed 0b80 ee67 0080
00000180: b9fa 0800 0307 0c80 a4a3 0580 db40 0c00
00000190: 0650 1180 9471 0a00 3afa 0980 f237 0300
000001a0: 22fe 0380 e853 0a00 02a0 0380 a4e3 0b80
000001b0: 5703 0e00 c1f9 0e00 4dde 0a80 bad8 0980
000001c0: bd0d 0e00 aedf 0880 df2b 0b80 7453 0c80
000001d0: 0170 0a80 d921 0100 cc48 0880 d0a5 0a80
000001e0: 7aa0 0a00 eb59 0000 0f80 0100 2896 0a00
000001f0: 60e4 0a80 9767 1100 eab5 0180 06b9 0a80
00000200: 8559 1480 5962 1180 ed5f 0880 b91c 0180
00000210: c43b 1000 34f3 0280 7dee 0c80 35b1 0c00
00000220: ba41 0180 804d 0300 06d1 0b00 ee12 0200
00000230: b653 0c00 5766 1200 b628 0980 40d6 0a80
00000240: c583 0780 5239 0080 5f15 1100 556d 0f80
00000250: 546e 0180 88ae 0a00 e39a 0c00 01a2 0200
00000260: 6779 0a80 2f22 1180 d874 0b00 1e83 0f00
00000270: c30f 0900 7d66 0c00 ce51 0680 f2ee 0c00
00000280: fe7e 0a00 ab1f 0700 e452 1380 e80b 0b00
00000290: 128e 0700 ebdc 0a80 989e 0300 fc1f 1000
000002a0: c2c0 0300 1d97 1580 97fa 0b00 86cf 0180
000002b0: 3727 0b80 2661 0500 00cd 0680 05a4 0380
000002c0: 01c9 0d80 c2b3 0700 e328 0a80 2860 0e80
000002d0: 6899 0200 90bd 0a80 ff62 0b00 0e9d 0600
000002e0: c219 0000 5693 0380 eba7 0080 f2dc 0980
000002f0: 7a6b 0480 5ed0 0500 5e84 0600 cc12 0e00
00000300: 5359 0e80 626b 0a80 67f3 0a80 85d5 0b00
00000310: 4bd7 0980 0c7d 0e80 e696 0d80 ffef 0b00
00000320: 7182 0f00 e3ea 0d00 a66a 0b80 b19d 0b00
00000330: 3a5a 1280 e56f 0d00 4983 0680 8384 0980
00000340: 3845 0180 954d 1000 6a80 0800 c7a8 0400
00000350: c30f 0780 3935 0e00 6762 0300 b256 0b80
00000360: d439 0780 9b8c 0780 fa47 0500 7e2e 0180
00000370: ebc6 0080 f29e 0480 bfb1 0900 b7e4 0d00
00000380: 5ee3 0080 e1b7 0b80 8ed6 0a00 825e 0500
00000390: 7d83 1300 dbe7 0d80 dcfb 0700 68e3 0980
000003a0: d066 0380 ed5b 0780 99a8 0100 cdb2 0280
000003b0: efeb 0400 3482 1000 ac22 0680 e830 0b80
000003c0: 80c5 0c00 a1f5 0480 e557 0380 ecbb 0400
000003d0: fab8 0080 bdf1 0a00 89ef 0700 9d03 0180
000003e0: 415e 0980 6a96 0700 3a1a 0980 cfc9 1400
000003f0: ccdd 0c80 24e7 0380 81b8 0d80 6f4e 0600

bias f4 [32]
-0.12035146 0.19375606 -0.22925411 0.08602834 -0.36686835 -0.37378561 -0.16003062 0.09217408
-0.35039324 0.0123471925 0.096279435 -0.26945412 -0.1033099 -0.37972867 -0.09278006 0.0065243035
-0.2836985 -0.2316779 -0.22669815 -0.3255693 -0.30951828 0.06892662 -0.042867776 -0.25967827
-0.3231602 -0.21151878 0.03445763 -0.06402281 0.18197861 -0.3879465 -0.035359826 0.054414462
00000000: d47a f6bd fd67 463e 97c1 6abe a02f b03d
00000010: 2bd6 bbbe d460 bfbe 11df 23be c4c5 bc3d
00000020: be66 b3be e14b 4a3c 272e c53d e4f5 89be
00000030: 2494 d3bd cc6b c2be 7903 bebd d3c9 d53b
00000040: ee40 91be f93c 6dbe 8f23 68be 05b1 a6be
00000050: 2e79 9ebe 6629 8d3d 1f96 2fbd 8df4 84be
00000060: 4175 a5be 6198 58be 7223 0d3d 641e 83bd
00000070: 9a58 3a3e eca0 c6be 77d5 10bd b3e1 5e3d

weight f4 [32, 13]
-0.08388931 0.8929399 0.14635843 0.107246384 -0.113749236 -0.22316554 -0.0101297 -0.035891585
-0.22564505 -0.06333726 -0.18847047 -0.040789142 -0.01887225 0.14016733 1.0963331 0.3297434
0.4118375 -0.8352757 0.11151106 0.01736424 0.009214401 0.04130357 0.029147673 -0.091427274
0.029525487 0.24840625 0.58945686 -0.7565141 0.007404685 0.20773025 0.47594678 0.5051632
-0.10338212 0.064591885 0.013435123 -0.08589248 -0.030637577 -0.037361275 -0.108085975 0.8536308
-0.0030273006 -0.19726934 -0.058981996 -0.3622391 -0.15987843 -0.025951685 0.023679826 0.036340833
0.086949535 0.03879205 -0.018889539 0.055052206 0.21270086 -0.30024526 0.23958604 -0.19225666
0.25540957 -0.118797965 0.1835264 -0.0053542 0.24197842 0.042860966 -0.0994114 0.06966377
-0.10613665 0.112405345 -0.087448366 0.48461792 0.05763886 0.016810393 -0.17381898 -0.19418779
-0.09251275 0.3803711 0.004044675 0.092810124 -0.16551875 -0.05946014 0.6373613 -0.45355976
-0.16254745 0.11300876 -0.031406984 0.06967688 -0.22371316 -0.25275156 0.07698254 -0.0034444416
-0.052024 -0.02411906 0.0387471 0.6540003 -0.5470113 -0.49010202 -0.9064206 0.1933885
0.039248448 0.0026476295 -0.039525475 0.024921034 0.01387857 -0.025055492 0.020115986 -0.09500441
0.06744139 -0.25123426 0.5736209 0.04491744 -0.009648611 -0.20292592 0.07555727 0.25260243
-0.37884468 0.04781964 -0.0059919837 -0.0648857 -0.03790674 -0.48327777 -0.10744253 0.4541022
1.0586102 -0.8072176 -0.006946547 0.0054235556 0.029321888 0.007457804 -0.038252544 -0.22525948
-0.1071922 -0.07729218 0.2350046 -0.20451786 -0.20294772 0.5104513 0.08365352 0.034545388
0.124340735 0.019107942 0.04469966 -0.20044118 0.0911361 -0.044215433 -0.035875168 0.2907598
-0.19473058 -0.24977228 0.20304765 0.12480151 -0.11896091 0.13736397 -0.100096256 0.023427876
0.18778697 0.107809305 0.08825672 0.022567961 -0.21171154 0.38229394 -0.5815822 -0.19913946
0.02379305 -0.079909176 -0.17517 -0.003251291 -0.06588584 0.057620145 -0.025426963 -0.027051227
0.016689148 0.55587256 0.16221541 0.088278875 0.12639908 0.06965147 0.6029042 0.07750554
0.118927576 0.053892676 0.089797385 -0.05860434 0.046407443 -0.031456333 0.16796865 -0.35191754
0.025412815 0.38484073 0.3385011 0.2674221 -0.14166203 -0.035368573 -0.023627989 0.18160444
0.085570514 0.034333352 0.041732527 0.12612236 0.2701111 0.40754163 0.011146031 -0.052653633
-0.20275722 0.08185651 0.046856016 0.0809511 0.032034542 0.04476277 0.045906957 0.0027381002
0.2915056 -0.01493969 -0.19236977 -0.14045607 0.12009795 -0.17319027 0.13976039 0.25334775
0.27835217 -0.1213147 -0.02724808 -0.104665905 -0.248767 -0.11862174 0.25025523 -0.030589223
0.8284687 0.044334035 0.21959944 -0.06111937 0.084171765 0.12567642 0.021857586 -0.132164
-0.41499746 -0.033350535 0.10261583 -0.32704693 0.053072773 0.5723139 0.112260774 0.1262128
0.075102195 0.24614884 0.17139219 0.057084937 0.03474206 -0.08015291 -0.043847397 0.37508848
-0.4178817 -0.02269148 -0.14441997 0.29681277 0.13541299 0.07831855 -0.3374403 -0.15627004
00000000: 29ce abbd b697 643f fcde 153e fea3 db3d
00000010: 5cf5 e8bd 8285 64be 0bf7 25bc 0e03 13bd
00000020: 7f0f 67be f7b6 81bd 67fe 40be 8412 27bd
00000030: fa99 9abc 0688 0f3e a554 8c3f 20d4 a83e
00000040: 5ddc d23e a1d4 55bf e95f e43d 733f 8e3c
00000050: 00f8 163c ef2d 293d 1ac7 ee3c 393e bbbd
00000060: 6fdf f13c 355e 7e3e a5e6 163f e8aa 41bf
00000070: 00a3 f23b 3db7 543e 4caf f33e 6052 013f
00000080: 01ba d3bd c048 843d fd1e 5c3c 66e8 afbd
00000090: a8fb fabc 2308 19bd 2e5c ddbd 8c87 5a3f
000000a0: ad65 46bb f900 4abe 1b97 71bd 6777 b9be
000000b0: 2cb7 23be a198 d4bc 32fc c13c 20da 143d
000000c0: 9912 b23d 6ae4 1e3d 3cbe 9abc 6c7e 613d
000000d0: 41ce 593e bfb9 99be 0b56 753e eede 44be
000000e0: 0bc5 823e 594c f3bd 58ee 3b3e 4972 afbb
000000f0: 31c9 773e fb8e 2f3d 3498 cbbd e1ab 8e3d
00000100: 2c5e d9bd c634 e63d 2118 b3bd d71f f83e
00000110: ba16 6c3d f3b5 893c 9afd 31be 2ad9 46be
00000120: 5377 bdbd 00c0 c23e 3189 843b 3c13 be3d
00000130: bf7d 29be 7a8c 73bd 1c2a 233f fc38 e8be
00000140: d772 26be 2371 e73d 9ca4 00bd c1b2 8e3d
00000150: 1015 65be a768 81be 06a9 9d3d 24bc 61bb
00000160: 1e17 55bd 5695 c5bc 47b5 1e3d 906c 273f
00000170: ef08 0cbf a7ee fabe 2e0b 68bf a307 463e
00000180: fbc2 203d da83 2d3b 77e5 21bd 3227 cc3c
00000190: f162 633c 2d41 cdbc 48ca a43c ac91 c2bd
000001a0: b61e 8a3d c7a1 80be d2d8 123f 59fb 373d
000001b0: 3515 1ebc d0cb 4fbe c5bd 9a3d 1b55 813e
000001c0: eef7 c1be 87de 433d 6758 c4bb cbe2 84bd
000001d0: 1944 1bbd 2f70 f7be d40a dcbd 1580 e83e
000001e0: 8a80 873f d0a5 4ebf dc9f e3bb 15b8 b13b
000001f0: 7534 f03c 9860 f43b b3ae 1cbd 6caa 66be
00000200: 9687 dbbd 5d4b 9ebd 0ca5 703e 216d 51be
00000210: 87d1 4fbe f0ac 023f 8952 ab3d 777f 0d3d
00000220: 5ba6 fe3d 4288 9c3c fe16 373d 7440 4dbe
00000230: 90a5 ba3d 3e1b 35bd d7f1 12bd 78de 943e
00000240: 7467 47be 4ec4 7fbe b9eb 4f3e ef97 ff3d
00000250: c7a1 f3bd 24a9 0c3e 44ff ccbd d1eb bf3c
00000260: 3a4b 403e 20cb dc3d f0bf b43d 72e0 b83c
00000270: e9ca 58be 08bc c33e 92e2 14bf 37eb 4bbe
00000280: a4e9 c23c 6ca7 a3bd c45f 33be 9d13 55bb
00000290: 28ef 86bd 1a03 6c3d 354c d0bc 899a ddbc
000002a0: aeb7 883c aa4d 0e3f cc1b 263e 8ecb b43d
000002b0: c36e 013e 6ea5 8e3d ee57 1a3f 39bb 9e3d
000002c0: 4d90 f33d 91be 5c3d b1e7 b73d 1b0b 70bd
000002d0: bb15 3e3d 5bd8 00bd f9ff 2b3e 892e b4be
000002e0: 892e d03c d809 c53e 0450 ad3e 8deb 883e
000002f0: da0f 11be a3de 10bd 7c8f c1bc 84f6 393e
00000300: 983f af3d 21a1 0c3d baef 2a3d 3826 013e
00000310: 014c 8a3e 4ca9 d03e d89d 363c 56ab 57bd
00000320: 979f 4fbe 63a4 a73d 18ec 3f3d b1c9 a53d
00000330: a736 033d 2b59 373d ef08 3c3d b371 333b
00000340: 3940 953e 9ac5 74bc 95fc 44be b7d3 0fbe
00000350: eaf5 f53d ca58 31be 591d 0f3e ccb6 813e
00000360: 2d84 8e3e d773 f8bd 5e37 dfbc 145b d6bd
00000370: c7bc 7ebe f4ef f2bd 7421 803e 4096 fabc
00000380: 8616 543f 9b97 353d adde 603e 4e58 7abd
00000390: 3f62 ac3d 52b1 003e ae0e b33c 0056 07be
000003a0: 8c7a d4be 929a 08bd 4028 d23d b272 a7be
000003b0: d662 593d 2a83 123f fae8 e53d ee3d 013e
000003c0: 2ecf 993d 710e 7c3e 6f81 2f3e e5d1 693d
000003d0: b14d 0e3d 3527 a4bd 5499 33bd 990b c03e
000003e0: 97f4 d5be 7ce3 b9bc d4e2 13be d8f7 973e
000003f0: b4a9 0a3e 7a65 a03d fac4 acbe 4105 20be

bias f4 [32]
-0.17986597 0.08124878 0.19160259 -0.0946018 0.10987386 -0.16412082 -0.14987572 -0.07564323
-0.056463923 -0.023099456 -0.27653837 -0.04547842 -0.1869202 -0.41299686 -0.18834424 -0.13940215
-0.0908199 -0.105530456 -0.11796408 -0.081069686 -0.30769894 -0.1534139 -0.30245394 -0.07263147
-0.13863775 -0.2064011 0.011599479 0.24668373 -0.24275847 -0.41218922 -0.3600231 -0.15158173
00000000: c92e 38be c365 a63d 7833 443e 97be c1bd
00000010: 8c05 e13d 4a0f 28be 0579 19be d6ea 9abd
00000020: b746 67bd 123b bdbc 7096 8dbe 9447 3abd
00000030: 0268 3fbe 5374 d3be 50dd 40be 70bf 0ebe
00000040: c9ff b9bd 5a20 d8bd 2797 f1bd dd07 a6bd
00000050: b78a 9dbe 8918 1dbe 3edb 9abe cfbf 94bd
00000060: 0ef7 0dbe cf5a 53be be0b 3e3c a99a 7c3e
00000070: ad95 78be 770a d3be f354 b8be 3e38 1bbe

weight f4 [32, 13]
0.46366853 -0.47723806 1.1995775 1.2887344 -0.29637003 -0.015756251 -0.0076280804 -0.03268385
-0.047008526 0.023769071 0.09890931 0.0069999043 0.023269385 -0.24640973 -0.005028763 -0.13597086
-0.16137421 0.057579294 0.17342263 -0.5582715 -0.042629633 0.35879976 0.012262413 -0.036970202
-0.0081594875 0.058114994 -0.4899366 0.18238412 -0.3471813 0.12397782 -0.065989405 0.03170044
-0.024910167 -0.0073995246 -0.015225294 -0.014670926 -0.024624063 -0.012145284 -0.07481116 -0.1952219
-0.20260836 -0.3034545 -0.79463947 -0.002909672 0.11046612 -0.12083267 0.013453243 0.047022533
0.0029264851 -0.076079145 -0.06849398 -0.0014457766 -0.036309257 0.2900538 -0.4980295 -0.35566622
0.012653076 0.049448237 -0.035773233 -0.26091614 -0.1464195 -0.008396611 0.011239457 -0.0060169073
0.00342273 1.4445767 0.9436059 0.5136537 0.10548252 1.287985 0.10892179 -0.017633954
0.021367092 -0.04845384 0.028434357 0.03537763 0.006010974 0.078194454 0.044433985 -0.05526699
-0.10125272 0.27369282 -0.03744119 0.03694365 0.085273966 -0.104754925 0.0910186 0.04864339
0.063423894 -0.036095694 0.029344413 -0.69292367 -0.20725453 -0.18819092 0.41316628 -0.2446564
0.19076972 0.27269822 0.21979277 0.04824622 -0.021846605 0.017194144 0.0070581567 0.1491101
0.14726865 0.04428376 0.2910316 0.16625172 -0.02334058 -0.06868634 -0.040898446 -0.11283075
0.18228252 0.017079713 0.0014121935 -0.07293374 -0.044051845 0.2843325 -0.1632475 0.17788582
0.23595943 0.09784662 -0.08871073 0.28599197 -0.23341826 0.43144003 0.026904352 0.019305825
-0.021710552 0.3522352 0.24261068 0.33944637 -1.0231946 -1.1667856 0.010038804 -0.037908446
0.03381479 -0.015419687 0.0032770378 0.012494663 -0.01687569 0.004818667 -0.056590676 0.038703788
1.0385938 -0.914396 0.2409107 -0.27151126 0.048045218 -0.009194367 0.03758878 0.042418823
-0.0054727397 0.01024895 -0.013900531 0.19244222 0.58290577 -0.14880836 0.18561813 0.011103625
0.07387178 -0.058120232 -0.39622238 0.13925281 -0.39080682 -0.016533382 -0.00874445 0.009866381
-0.5860802 -0.50404024 0.2647495 -0.58367676 0.6880893 -0.117764845 0.17837448 -0.018498134
-0.032023065 -0.015918976 -0.01221085 0.07217088 0.017485728 0.07901969 0.093952 0.06220932
0.22797686 0.07563672 -0.009194496 -0.033319183 -0.030017931 -0.06399732 -0.06896801 0.2045784
0.1623183 0.030253522 0.033817414 -0.4584132 -0.22651859 -0.4838468 -0.61531574 0.028858507
0.53879154 0.028401049 -0.008921959 -0.030162584 0.0055459538 0.21028985 0.07511364 -0.10384314
0.40494636 0.059836023 0.0029919099 -0.15644255 -0.09994903 -0.026839754 0.23508982 -0.44776314
-0.30961984 0.012569235 0.009360473 -0.041489318 -0.20838533 0.13633601 -0.062668964 0.16193482
-0.4071805 0.08533481 -0.18256846 0.117110096 -0.2451651 0.15202294 0.033161927 0.012541711
-0.01475778 0.1156259 -1.3945857 -0.9525728 -0.65796405 -0.046689816 -1.3288115 -0.23690175
-0.00447232 -0.05183078 0.049596347 -0.017898053 -0.014546885 0.007947142 -0.024044165 0.46756563
-0.5158128 0.25896963 0.45419258 -0.064027764 0.061099615 -0.109073214 0.31249934 0.21001326
00000000: f665 ed3e 8c58 f4be c18b 993f 40f5 a43f
00000010: d0bd 97be 4113 81bc faf4 f9bb 80df 05bd
00000020: 038c 40bd 5bb7 c23c f790 ca3d 745f e53b
00000030: 709f be3c d552 7cbe 52c8 a4bb f23b 0bbe
00000040: 483f 25be 44d8 6b3d b495 313e e2ea 0ebf
00000050: 699c 2ebd 9ab4 b73e 4ae8 483c 116e 17bd
00000060: 5faf 05bc fd09 6e3d f8d8 fabe e7c2 3a3e
00000070: bfc1 b1be 15e8 fd3d 7425 87bd 52d8 013d
00000080: 6810 ccbc b677 f2bb 8373 79bc 535e 70bc
00000090: 67b8 c9bc 03fd 46bc 9836 99bd 40e8 47be
000000a0: 9178 4fbe 635e 9bbe 7e6d 4bbf 32b0 3ebb
000000b0: 103c e23d 1e77 f7bd fe6a 5c3c b39a 403d
000000c0: 46ca 3f3b 62cf 9bbd 9246 8cbd 3680 bdba
000000d0: 04b9 14bd ef81 943e b9fd febe e219 b6be
000000e0: d94e 4f3c 3c8a 4a3d f486 12bd cd96 85be
000000f0: feee 15be f091 09bc b325 383c 7a29 c5bb
00000100: e14f 603b e4e7 b83f 2890 713f cf7e 033f
00000110: 3807 d83d b1dc a43f 6312 df3d 1575 90bc
00000120: 0a0a af3c 8977 46bd 2bef e83c 22e8 103d
00000130: b4f7 c43b 6a24 a03d 6900 363d a45f 62bd
00000140: 965d cfbd 7721 8c3e ef5b 19bd 3a52 173d
00000150: 1ea4 ae3d c089 d6bd f667 ba3d 4b3e 473d
00000160: 63e4 813d 14d9 13bd b263 f03c 7263 31bf
00000170: 883a 54be 1fb5 40be 888a d33e 3587 7abe
00000180: 2359 433e 1a9f 8b3e 5b11 613e d49d 453d
00000190: a7f7 b2bc bcda 8c3c 1c48 e73b 51b0 183e
000001a0: 98cd 163e e362 353d 1802 953e e43d 2a3e
000001b0: be34 bfbc 6cab 8cbd 2185 27bd cf13 e7bd
000001c0: 45a8 3a3e c1ea 8b3c 5a19 b93a 495e 95bd
000001d0: b56f 34bd 0894 913e 5a2a 27be b327 363e
000001e0: 599f 713e cf63 c83d f9ad b5bd 8a6d 923e
000001f0: 3205 6fbe b5e5 dc3e 8466 dc3c 4027 9e3c
00000200: 54da b1bc 2c58 b43e ef6e 783e eacb ad3e
00000210: 0af8 82bf 3b59 95bf cc79 243c e345 1bbd
00000220: 6181 0a3d dba2 7cbc 92c3 563b 6ab6 4c3c
00000230: e33e 8abc e9e5 9d3b a0cb 67bd dd87 1e3d
00000240: a4f0 843f db15 6abf 4bb1 763e 8603 8bbe
00000250: 10cb 443d f8a3 16bc b1f6 193d 5cbf 2d3d
00000260: ab54 b3bb 36eb 273c 0ebf 63bc 930f 453e
00000270: 5039 153f 3861 18be ae12 3e3e fbeb 353c
00000280: 164a 973d 7b0f 6ebd a9dd cabe 4a98 0e3e
00000290: d517 c8be 0471 87bc e244 0fbc 9aa6 213c
000002a0: 5a09 16bf c808 01bf 3f8d 873e d76b 15bf
000002b0: 9f26 303f b22e f1bd cda7 363e 6689 97bc
000002c0: 9e2a 03bd 8368 82bc 0410 48bc 54ce 933d
000002d0: 3b3e 8f3c 13d5 a13d e869 c03d 33cf 7e3d
000002e0: c472 693e 6de7 9a3d 83a4 16bc b279 08bd
000002f0: 2ae8 f5bc 0711 83bd 1a3f 8dbd 007d 513e
00000300: c536 263e 3cd6 f73c 2184 0a3d 23b5 eabe
00000310: 7df4 67be c5ba f7be 5585 1dbf ad68 ec3c
00000320: 3eee 093f 51a9 e83c 692d 12bc 8617 f7bc
00000330: d5ba b53b 3956 573e 2ed5 993d b6ab d4bd
00000340: 2155 cf3e 9e16 753d eb13 443b 7a32 20be
00000350: 14b2 ccbd 0bdf dbbc 63bb 703e 3641 e5be
00000360: 7e86 9ebe 31ef 4d3c ab5c 193c b4f0 29bd
00000370: f762 55be ab9b 0b3e 9658 80bd 3ed2 253e
00000380: f679 d0be 04c4 ae3d 3af3 3abe 6bd7 ef3d
00000390: 8f0c 7bbe e7ab 1b3e cdd4 073d c07b 4d3c
000003a0: 9eca 71bc 46cd ec3d c981 b2bf d0db 73bf
000003b0: 5570 28bf d23d 3fbd 7f16 aabf 5f96 72be
000003c0: 8a8c 92bb 834c 54bd 8a25 4b3d f09e 92bc
000003d0: 0f56 6ebc bb34 023c 45f8 c4bc c364 ef3e
000003e0: 4f0c 04bf ab97 843e ee8b e83e fd20 83bd
000003f0: 9743 7a3d c761 dfbd eaff 9f3e b70d 573e

bias f4 [32]
-0.014231983 -0.24516758 0.15681134 -0.19477092 -0.2339651 0.019119417 -0.19792777 -0.04431355
-0.086879365 -0.20169194 -0.020280108 -0.056013677 -0.14983304 -0.06587795 -0.1266192 0.22444579
-0.26902017 -0.0891043 -0.2096159 -0.19379643 -0.24801466 -0.15573768 -0.09766355 0.041956414
-0.015582867 -0.16103122 0.00504707 -0.16244173 -0.115683004 0.08356847 -0.033202805 -0.16704787
00000000: 432d 69bc 360d 7bbe 2793 203e 0772 47be
00000010: 8c94 6fbe 53a0 9c3c 94ad 4abe 2082 35bd
00000020: cfed b1bd 5588 4ebe 7822 a6bc 996e 65bd
00000030: d56d 19be 05eb 86bd 77a8 01be 1ed5 653e
00000040: 03bd 89be 517c b6bd 8da5 56be 9272 46be
00000050: 8ef7 7dbe b379 1fbe d403 c8bd 7dda 2b3d
00000060: 484f 7fbc 5ee5 24be e461 a53b 2057 26be
00000070: 36eb ecbd f225 ab3d aaff 07bd 990e 2bbe

weight f4 [32, 64]
0.005828693 -0.087325186 -0.12973914 0.07498684 0.06225022 0.5868821 -0.08175804 0.09667736
0.057596494 -0.33095676 0.21468069 0.13354363 0.15931767 -0.039153483 0.08997842 -0.036760677
0.3134581 -0.3510636 0.13615322 0.20364845 0.44471556 0.09696457 0.26747087 0.33910897
0.3398628 0.4492617 -0.13740891 0.19450164 -0.13603531 -0.4054386 0.06858502 0.34880742
-0.035509646 -0.1009404 -0.3087949 -0.26403075 -0.030495076 -0.17335628 -0.05099006 -0.20224547
-0.15822135 0.21563818 -0.17157067 -0.007986786 -0.072244294 -0.03382485 -0.18307362 0.036947425
0.053994358 -0.28387058 -0.27574492 -0.2975238 -0.069938324 -0.07644827 -0.2103372 -0.19424602
0.0324188 0.2042628 0.032640234 0.074136935 -0.23576096 -0.58803415 0.01847266 -0.4918378
-0.009533958 -0.07170767 -0.16103895 0.14247562 0.18344247 0.14002645 0.007897547 0.09083197
-0.08200736 -0.014797955 0.15165736 -0.030984432 0.018905459 0.18809405 0.04828807 0.23498085
0.23172197 -0.011898066 0.12133444 0.2232056 -0.21928656 0.019890988 -0.09734782 0.11324785
0.18175457 -0.066504575 0.1802243 0.03562593 -0.05227385 -0.311391 0.04410019 -0.11557409
-0.19874759 0.08665971 0.13515855 0.004656091 -0.07798291 -0.030735752 0.15962301 -0.15084665
0.19624199 -0.08934897 -0.04972936 0.1009573 -0.116215475 -0.22343478 0.0066799703 -0.015377785
0.08631427 -0.078037605 -0.29860806 -0.10816811 0.16563864 -0.035803784 -0.14757088 -0.0040682
-0.07918994 0.0201142 0.018863283 0.049243167 -0.0031715997 -0.032805823 -0.052881893 -0.045139074
-0.18985651 -0.27947915 0.53425235 -0.08056629 -0.096625425 -0.40588266 0.19253892 0.23285885
-0.24120325 -0.05562876 0.09064463 -0.020961514 -0.1949977 0.47356537 0.34816647 -0.17292035
-0.12797841 0.20513198 0.07570838 0.35053733 -0.18597433 -0.05310943 0.002622075 -0.05357504
-0.16045159 -0.20501226 -0.27227286 -0.32918325 0.0707787 0.41872954 -0.28743792 -0.46137792
0.0076807137 0.08369674 0.5183956 0.18510853 0.04593496 -0.15095502 0.40473562 0.32003847
0.019050533 -0.29649994 0.19896363 0.15337487 0.064270005 0.5894216 0.39999524 -0.1438472
-0.014287584 0.039883886 0.09789089 0.47160542 -0.15181237 -0.28286296 -0.03590191 -0.2529404
-0.19012544 -0.15170819 -0.21210262 -0.19653131 -0.12552197 0.2576465 -0.25206423 -0.07199256
-0.0067231185 0.031655576 -0.2483528 -0.0706549 0.23237036 -0.032548424 -0.033302985 -0.15997657
0.01301908 0.13197954 -0.07302969 0.13800013 0.0034655046 -0.20244153 -0.007894781 0.21407253
0.18920629 -0.10632952 0.018824648 0.14883319 0.04437873 -0.07355797 0.108168274 0.01203464
0.2848513 0.3697356 0.19655778 -0.11430667 -0.2754756 -0.3509059 0.13878684 -0.017011568
-0.038137756 -0.25774786 -0.21184814 -0.10243612 -0.049156945 0.12177904 -0.07642312 -0.39251572
0.10999389 -0.18317805 0.016644381 0.0015161526 -0.052203197 -0.01398305 0.10415143 0.05787333
-0.10393358 0.019699456 0.04818617 -0.22728379 -0.116590425 0.04176629 -0.18563768 0.04993326
0.0048014224 0.08364673 -0.07335772 0.034923356 0.045088436 -0.12655379 0.010161566 -0.040069867
00000000: 9ffe be3b 8cd7 b2bd 56da 04be b392 993d
00000010: 16fa 7e3d e83d 163f c270 a7bd c8fe c53d
00000020: 4dea 6b3d 2a73 a9be 41d5 5b3e a9bf 083e
00000030: 2c24 233e 675f 20bd 9b46 b83d 5d92 16bd
00000040: 957d a03e 9cbe b3be c06b 0b3e 3889 503e
00000050: c2b1 e33e 5c95 c63d f1f1 883e b19f ad3e
00000060: 7f02 ae3e a105 e63e ecb4 0cbe 702b 473e
00000070: d74c 0bbe a695 cfbe 4e76 8c3d e396 b23e
00000080: 9072 11bd d7b9 cebd 5d1a 9ebe 0a2f 87be
00000090: cfd0 f9bc 4f84 31be f4da 50bd 7019 4fbe
000000a0: c704 22be 41d0 5c3e 39b0 2fbe 02db 02bc
000000b0: d1f4 93bd ed8b 0abd a777 3bbe 2f56 173d
000000c0: 3029 5d3d 7c57 91be 702e 8dbe 0a55 98be
000000d0: d33b 8fbd e990 9cbd a362 57be 6ee8 46be
000000e0: 93c9 043d 442a 513e c4b1 053d 1bd5 973d
000000f0: 526b 71be 6889 16bf fa53 973c 2ad2 fbbe
00000100: 5134 1cbc 79db 92bd 65e7 24be 21e5 113e
00000110: 58d8 3b3e 1863 0f3e b764 013c 1d06 ba3d
00000120: 7af3 a7bd 1f73 72bc 114c 1b3e 10d3 fdbc
00000130: 9fdf 9a3c ba9b 403e b6c9 453d d29e 703e
00000140: 8648 6d3e 1bf0 42bc 317e f83d 0290 643e
00000150: a88c 60be 6df2 a23c 4b5e c7bd 7dee e73d
00000160: df1d 3a3e 8d33 88bd b88c 383e 7fec 113d
00000170: 1b1d 56bd a46e 9fbe 67a2 343d 1cb2 ecbd
00000180: 7d84 4bbe a57a b13d 0167 0a3e 1f92 983b
00000190: 81b5 9fbd 8bc9 fbbc 3774 233e 8b77 1abe
000001a0: a9f3 483e 98fc b6bd 03b1 4bbd b3c2 ce3d
000001b0: 6102 eebd 16cc 64be a7e3 da3b 1bf3 7bbc
000001c0: 89c5 b03d 2ed2 9fbd 28e3 98be 3e87 ddbd
000001d0: 2d9d 293e fda6 12bd d21c 17be 894e 85bb
000001e0: 562e a2bd 89c6 a43c 2c87 9a3c 34b3 493d
000001f0: 9dda 4fbb 665f 06bd af9a 58bd c0e3 38bd
00000200: bf69 42be e417 8fbe c3c4 083f f0ff a4bd
00000210: 8de3 c5bd dacf cfbe ec28 453e 8d72 6e3e
00000220: fcfd 76be fcda 63bd e4a3 b93d 7bb7 abbc
00000230: 7aad 47be 2977 f23e e042 b23e 0812 31be
00000240: c60c 03be 1e0e 523e ff0c 9b3d a179 b33e
00000250: 0e70 3ebe 4689 59bd 1ed7 2b3b 8071 5bbd
00000260: 6c4d 24be bcee 51be 5967 8bbe b58a a8be
00000270: 6cf4 903d b863 d63e 102b 93be ba39 ecbe
00000280: 7fae fb3b 3269 ab3d 93b5 043f 178d 3d3e
00000290: 4c26 3c3d f493 1abe 8239 cf3e 15dc a33e
000002a0: dd0f 9c3c d7ce 97be 1fbd 4b3e 4d0e 1d3e
000002b0: fe9f 833d 55e4 163f 2dcc cc3e ae4c 13be
000002c0: 7916 6abc 495d 233d 057b c83d 4476 f13e
000002d0: b474 1bbe 6ad3 90be e20d 13bd 6781 81be
000002e0: 3eb0 42be 6459 1bbe 6e31 59be 813f 49be
000002f0: d588 00be 3eea 833e 900e 81be d670 93bd
00000300: 9b4d dcbb 47a9 013d 3250 7ebe 84b3 90bd
00000310: 7ff2 6d3e 7f51 05bd b668 08bd e6d0 23be
00000320: fb4d 553c a525 073e 9790 95bd e84f 0d3e
00000330: 851d 633b d54c 4fbe 1d59 01bc d435 5b3e
00000340: 4bbf 413e 4bc3 d9bd 2636 9a3c ba67 183e
00000350: 79c6 353d 90a5 96bd 5487 dd3d f02c 453c
00000360: 08d8 913e fc4d bd3e 7146 493e 9e19 eabd
00000370: 230b 8dbe f0a9 b3be 231e 0e3e d85b 8bbc
00000380: 5636 1cbd 87f7 83be b8ee 58be 07ca d1bd
00000390: cb58 49bd 4a67 f93d ba83 9cbd d2f7 c8be
000003a0: 7a44 e13d 0793 3bbe cc59 883c a4b9 c63a
000003b0: 05d3 55bd 2a19 65bc 584d d53d 960c 6d3d
000003c0: 21db d4bd c160 a13c dd5e 453d 15bd 68be
000003d0: f6c6 eebd 2113 2b3d ce17 3ebe d186 4c3d
000003e0: 4055 9d3b fa4e ab3d 933c 96bd cb0b 0f3d
000003f0: a7ae 383d 5197 01be b27c 263c 4d20 24bd

bias f4 [32]
-0.062430028 0.06364534 0.031791635 0.0051180255 -0.14038509 -0.09747947 -0.1681117 -0.12765437
0.016130632 0.030301714 -0.021268368 0.07507137 -0.028113417 -0.021347731 -0.26018065 0.10006559
-0.11418309 -0.083763316 0.12411717 -0.21313764 0.0427178 0.0013733117 -0.081400126 0.11569391
-0.106523395 -0.15212537 -0.05352145 0.07735569 -0.0049449718 0.0077544316 -0.04547603 0.060743153
00000000: a1b6 7fbd 7d58 823d f237 023d 1cb5 a73b
00000010: 1cc1 0fbe 51a3 c7bd 7925 2cbe d4b7 02be
00000020: 6324 843c 4d3b f83c 003b aebc 05bf 993d
00000030: 1c4e e6bc 70e1 aebc 6636 85be 30ef cc3d
00000040: d3d8 e9bd 1a8c abbd 2531 fe3d c140 5abe
00000050: dcf8 2e3d b200 b43a 1cb5 a6bd eef0 ec3d
00000060: f028 dabd c1c6 1bbe 4f39 5bbd a96c 9e3d
00000070: 6e09 a2bb e318 fe3b 1345 3abd d0cd 783d

weight f4 [32, 32]
0.041734885 -0.21080752 0.074091025 0.014262495 -0.02931693 -0.0546474 0.038940437 0.0413834
0.1404096 -0.033328563 0.02952072 0.0102073625 0.15678437 0.019313052 0.00088213355 -0.025262853
0.12588243 0.08104122 -0.024008742 -0.0032403609 0.017745972 0.012900768 0.0997642 0.026302693
0.0021340307 0.00038920942 -0.038144328 0.029616209 -0.14579484 -0.010955288 0.015787039 -0.043189973
0.12441338 0.17780295 -0.15075456 -0.083057284 0.0851972 0.0533407 0.15701653 -0.05330318
0.12589496 -0.12122552 0.034272715 0.07926673 -0.15806778 -0.23098698 -0.054806177 0.012071737
0.22295067 -0.07941251 0.09631518 0.1452303 -0.43705806 -0.15692891 -0.054863747 -0.16785917
0.24673612 0.09893808 0.09037386 -0.17757443 -0.28766313 -0.31131935 -0.058813658 -0.100146696
-0.00020858693 -0.013397032 -0.003152368 -0.0031896876 -0.0009799482 -3.117473e-05 -8.2271166e-05 -0.0004090352
0.00014925963 -0.0022161722 -0.0042038853 -0.0012870136 -0.00088414917 -0.0001292117 -0.0001360074 -0.00021401899
-0.00036295495 -5.0618802e-09 -0.0003493303 -0.0014766403 -0.0007434639 -0.0010496655 -0.0015244152 1.8471277e-05
-0.0007159632 -0.0005059879 -0.0070110587 -0.020780137 -0.0023454763 -0.0007659214 -0.0001925014 -0.0004966664
-7.737437e-18 2.042151e-08 1.04789386e-07 -1.0345653e-07 -7.2990364e-10 -1.8511548e-27 2.213762e-19 -3.676549e-10
-9.583888e-09 -2.3838445e-05 -5.337546e-07 8.198082e-11 -1.7308008e-07 2.3970867e-12 1.3747998e-12 5.3903767e-11
-9.0677556e-11 -4.649106e-39 -1.6199725e-14 1.1978644e-19 -5.2680775e-08 -8.248064e-09 -1.065105e-07 -3.5112155e-09
-4.740214e-14 -2.8869547e-11 -1.3396862e-11 -1.3587596e-05 -2.3499402e-05 4.1869233e-22 1.56605e-40 -1.9123442e-38
-0.13684091 0.3709987 0.07689736 0.19913866 -0.09422613 0.21212171 0.10554764 0.17044033
0.097947516 -0.07546249 0.04799605 0.054696742 -0.1397333 -0.21911246 0.06152973 0.018767139
-0.00082526926 -0.08264735 0.12135647 0.07097604 -0.16076747 -0.35344398 -0.078353345 -0.08693202
-0.18701777 -0.1117042 -0.18748933 0.26309693 -0.26554164 -0.32872483 -0.11418254 0.17009757
0.0036083423 0.33886978 -0.12090885 0.17912371 -0.10899283 0.18971269 0.22335787 0.050644815
0.08413923 -0.21490292 0.250372 0.16838118 0.08759877 -0.21991432 0.04994946 -0.033943158
0.11169341 0.013673134 -0.04409848 -0.18092449 -0.05784089 -0.2891764 -0.12083564 0.17001945
0.06280402 0.08315651 -0.20739755 0.11425149 -0.105087854 -0.33172736 -0.0051757093 -0.06695017
0.048784293 -0.13542427 -0.019216139 -0.114528514 0.14536206 -0.09561457 -0.16993406 -0.004035474
0.032173704 0.008651674 -0.032277033 0.017427132 -0.14967856 -0.10253935 -0.010237834 0.08714603
-0.12571567 0.06887104 -0.047435254 0.19803198 4.7237347e-05 -0.17654808 0.100332275 -0.027960531
-0.2871076 -0.08374086 -0.11638541 0.019111827 0.124502376 0.0007324337 -0.013602917 -0.120175265
-6.6273806e-16 -4.4479468e-05 3.1122104e-07 3.227495e-06 -4.1500698e-18 -7.771641e-18 4.880681e-13 -7.541876e-15
-7.1810016e-11 -7.3905747e-13 -2.0849464e-09 -3.607242e-11 -1.0351509e-07 1.3352578e-20 7.2409062e-12 -9.307738e-16
-3.1642463e-22 2.88506e-40 8.871228e-16 2.826904e-11 -2.635319e-10 -5.6685546e-27 -1.1880271e-12 -8.4489585e-14
-8.69108e-25 -2.1066554e-13 -4.1531684e-11 -2.8060067e-05 -3.2981282e-22 1.7500648e-12 6.52316e-40 -2.0674793e-23
00000000: 33f2 2a3d eddd 57be 09bd 973d 3dad 693c
00000010: 0f2a f0bc f4d5 5fbd 0280 1f3d a481 293d
00000020: 89c7 0f3e 8883 08bd 70d5 f13c c83c 273c
00000030: 158c 203e 6836 9e3c fb3e 673a 0bf4 cebc
00000040: 53e7 003e f0f8 a53d fbad c4bc 3c5c 54bb
00000050: 0060 913c be5d 533c 2c51 cc3d bf78 d73c
00000060: 18db 0b3b ce0e cc39 3a3d 1cbd b19d f23c
00000070: 3e4b 15be cf7d 33bc d253 813c f8e7 30bd
00000080: 71cc fe3d fa11 363e 675f 1abe f019 aabd
00000090: df7b ae3d c77b 5a3d f1c8 203e 6f54 5abd
000000a0: 9cea 003e 1645 f8bd 8c61 0c3d 9856 a23d
000000b0: 85dc 21be da87 6cbe 717c 60bd 89c8 453c
000000c0: 2e4d 643e 07a3 a2bd e540 c53d 40b7 143e
000000d0: 13c6 dfbe f9b1 20be cfb8 60bd 46e3 2bbe
000000e0: 65a8 7c3e 0ca0 ca3d ee15 b93d 12d6 35be
000000f0: 9548 93be 4065 9fbe 97e6 70bd b619 cdbd
00000100: 21b8 5ab9 3a7f 5bbc f597 4ebb 140a 51bb
00000110: 9b71 80ba 9dc1 02b8 ff88 acb8 c673 d6b9
00000120: 9482 1c39 333d 11bb bfc0 89bb 03b1 a8ba
00000130: 3fc6 67ba 007d 07b9 359d 0eb9 496a 60b9
00000140: fd4a beb9 c5ec adb1 5226 b7b9 d48b c1ba
00000150: 05e5 42ba ee94 89ba e3ce c7ba c4f2 9a37
00000160: 7aaf 3bba 46a4 04ba 06bd e5bb 1b3b aabc
00000170: 90b6 19bb 1dc8 48ba 33da 49b9 b832 02ba
00000180: 03bb 0ea3 606b af32 9308 e133 d42b deb3
00000190: 67a2 48b0 e1a9 1293 6dad 8220 d41e caaf
000001a0: 63a6 24b2 acf8 c7b7 5647 0fb5 1947 b42e
000001b0: e4d7 39b4 13ae 282c 627c c12b 3f12 6d2e
000001c0: ed66 c7ae d19f 3280 06ea 91a8 3b6b 0d20
000001d0: 2043 62b3 5eb3 0db2 c4ba e4b3 f549 71b1
000001e0: f27a 55a9 71f0 fdad 1aae 6bad 48f6 63b7
000001f0: 9520 c5b7 8015 fd1b 8db4 0100 603c d080
00000200: 0620 0cbe 8bf3 bd3e 5d7c 9d3d 01eb 4b3e
00000210: a1f9 c0bd 6f36 593e 5c29 d83d e987 2e3e
00000220: b598 c83d 148c 9abd 8297 443d b109 603d
00000230: 3f16 0fbe 045f 60be 9906 7c3d 8bbd 993c
00000240: e256 58ba 0443 a9bd be89 f83d e35b 913d
00000250: 3aa0 24be 9cf6 b4be b877 a0bd 6a09 b2bd
00000260: 9681 3fbe 2cc5 e4bd 34fd 3fbe a4b4 863e
00000270: 13f5 87be 9f4e a8be 89d8 e9bd 0f2e 2e3e
00000280: f079 6c3b 5780 ad3e 0f9f f7bd 356c 373e
00000290: a237 dfbd 0b44 423e edb7 643e f070 4f3d
000002a0: 3051 ac3d 830f 5cbe c230 803e 1e6c 2c3e
000002b0: fc66 b33d 3831 61be ce97 4c3d fb07 0bbd
000002c0: 84bf e43d 4805 603c 9ca0 34bd 4544 39be
000002d0: 92ea 6cbd ee0e 94be ad78 f7bd 9419 2e3e
000002e0: 659f 803d f64d aa3d 0660 54be affc e93d
000002f0: 4d38 d7bd 2bd8 a9be ff98 a9bb 2c1d 89bd
00000300: 0ad2 473d a9ac 0abe 2a6b 9dbc ed8d eabd
00000310: cbd9 143e 92d1 c3bd 3203 2ebe 023c 84bb
00000320: 93c8 033d c0bf 0d3c ec34 04bd 58c3 8e3c
00000330: 5645 19be 2700 d2bd 97bc 27bc 9e79 b23d
00000340: 9cbb 00be 430c 8d3d 784b 42bd e5c8 4a3e
00000350: b720 4638 05c9 34be 027b cd3d 7c0d e5bc
00000360: c4ff 92be 5480 abbd 795b eebd 6890 9c3c
00000370: 1afb fe3d cb00 403a c5de 5ebc 731e f6bd
00000380: 7005 3fa6 778f 3ab8 e515 a734 f197 5836
00000390: 4d1c 99a2 895c 0fa3 0361 092b c4dc 07a8
000003a0: 72e9 9dae b406 50ab c446 0fb1 efa5 1eae
000003b0: 064c deb3 1b39 7c1e 49c4 fe2c 7e23 86a6
000003c0: 5744 bf9b 3d24 0300 1cb2 7f26 38a8 f82d
000003d0: d1e0 90af f98d e093 3033 a7ab ee40 bea9
000003e0: ea7c 8697 3530 6daa 85a8 36ae 8962 ebb7
000003f0: 105c c79b bb4c f62b 641a 0700 4ff4 c799

bias f4 [32]
0.032367487 0.12472322 -0.04147514 -0.013356145 0.3399811 0.24695264 -0.021508195 -0.004220823
0.10608922 -0.22342978 0.2924277 -0.16612877 0.11039267 -0.073632 -0.042487577 -0.11464994
0.3160373 0.14767233 -0.00051558483 -0.018543802 0.03628086 -0.42515135 0.103096075 -7.660441e-06
0.35390118 0.025523856 0.2902526 0.35677752 -0.04309319 0.00347119 0.07572188 0.22376002
00000000: c593 043d e36e ff3d d6e1 29bd bbd3 5abc
00000010: 0112 ae3e 27e1 7c3e f431 b0bc d44e 8abb
00000020: 4e45 d93d c7ca 64be 15b9 953e a91d 2abe
00000030: 8d15 e23d 60cc 96bd 7407 2ebd 96cd eabd
00000040: a4cf a13e 6a37 173e 5028 07ba 2ce9 97bc
00000050: 3d9b 143d 70ad d9be 0924 d33d 5885 00b7
00000060: 8932 b53e 6817 d13c fd9b 943e 8bab b63e
00000070: 7c82 30bd e87c 633b 1314 9b3d 5921 653e

weight f4 [32, 32]
-0.25490347 0.051426932 -0.03161563 0.15598005 -0.0135799395 -0.2054713 0.015684439 -0.1460879
-0.10566412 0.07140647 -0.12928385 -0.110738754 0.07666155 -0.08541013 -0.014498855 -0.15126641
-0.0632834 0.04389475 -0.1293849 -0.07116403 0.1277564 0.027611278 -0.13054757 0.07128
0.13736832 0.097259834 -0.04635497 -0.04102699 -0.12413934 -0.06387147 -0.051620822 0.13593914
0.4991952 -0.06901511 -0.48326826 -0.015655572 0.24278021 -0.24191101 0.24767223 -0.002694439
0.064563066 0.119839564 -0.03158126 -0.008679126 0.060916148 0.14532101 0.18062502 -0.48145786
0.21732439 -0.18641874 -0.24340269 0.06377084 0.11744772 -0.015227557 -0.05603977 0.24443245
0.52716017 0.11444479 -0.28366643 -0.24298427 0.06925267 -0.3111976 -0.23197636 0.12134059
-0.0040561603 -0.0075468724 -0.0032795107 0.0018921496 -0.010820112 -0.0174711 5.468128e-05 -0.0016756926
-0.0066302856 -0.025753906 -0.013483359 -0.0051126843 -0.013084 0.0006108174 -0.0005587615 -0.0017274708
-0.020898975 -0.006874321 0.008875173 -0.012533616 -0.024887709 -0.03126716 -0.016000502 -0.009208416
-0.007026483 -0.01625652 0.009771988 -0.023389684 -0.0132468715 -0.003083126 0.022111716 -0.018281575
-9.824076e-07 -0.0014932407 -0.00032048335 -0.00023978326 -1.5203723e-05 8.5042586e-05 -2.6118439e-11 -0.0027671077
-1.6544305e-05 -0.0002500559 -3.5198704e-05 -7.533265e-07 -7.635801e-06 -0.00017270609 -3.354045e-12 -2.1018038e-11
-9.527794e-05 -3.2145617e-06 -0.014840789 -2.0684042e-06 -0.0014779748 -0.00043387033 2.8992037e-05 9.29076e-13
-8.60445e-09 -0.00051821384 -0.010838951 4.107171e-05 4.154897e-07 -0.00088347704 -0.010941094 -6.287013e-06
0.34311342 0.15061896 -0.13119024 -0.02042804 -0.04328595 -0.16817075 0.004023192 0.016538067
-0.120831884 -0.10970604 0.19888808 0.22325583 -0.059604023 -0.15788643 0.026048083 -0.15226261
-0.003141552 0.06612116 -0.2147245 0.20888974 -0.23753804 0.20516217 0.0021790147 0.14063397
-0.037754845 0.14694352 0.020936016 -0.10456288 -0.01255126 -0.2855803 -0.25237933 0.21923514
0.20207396 0.12287888 -0.4488333 0.21963732 0.041084748 -0.17775221 0.19112901 0.014699014
0.06703278 -0.11756771 0.120434836 0.05947557 -0.09431597 0.14163327 0.27178952 -0.30769917
0.0900667 -0.23909816 -0.2466873 0.07601194 0.16494709 0.14160621 0.0049594543 0.0054605096
0.310695 0.07168463 -0.14385764 -0.48230353 0.07229114 -0.3688354 -0.31766555 -0.06229101
-0.1317089 -0.2563982 0.060583156 -0.13097717 -0.15402438 -0.31119755 -0.010231247 0.09691665
-0.11451271 0.22748578 -0.14704964 -0.22039801 -0.069031216 -0.1669045 -0.080305524 -0.14154117
0.06518503 0.04174953 0.06747684 -0.1465557 0.24975501 -0.18082932 -0.100417204 -0.13509536
0.1883675 -0.1730339 -0.11298995 -0.030212015 -0.14389327 0.11359087 0.05811594 0.033698153
-8.724721e-07 -0.00023261299 -3.5904741e-09 -0.00049253885 -9.288953e-06 0.0003790459 -1.5784217e-18 -5.7501245e-05
8.960924e-08 -2.8883042e-06 -5.761309e-05 -5.297674e-06 1.2307129e-05 -3.7913046e-06 -1.4674644e-07 2.8857276e-25
-2.2931627e-06 -5.8170976e-08 -0.00278773 -1.8487246e-08 -1.9163335e-05 -9.367869e-06 -0.0002601942 1.1773483e-08
-3.0327536e-15 -2.1263773e-05 -0.00032820433 0.00014419608 5.7187277e-05 -1.2788896e-06 -0.0004168318 7.28934e-06
00000000: b582 82be 0ca5 523d 647f 01bd 3cb9 1f3e
00000010: 657e 5ebc 1267 52be a77c 803c 1198 15be
00000020: 6e66 d8bd 8e3d 923d fc62 04be 00cb e2bd
00000030: bb00 9d3d 82eb aebd 9b8c 6dbc 95e5 1abe
00000040: ba9a 81bd fbca 333d 7a7d 04be 72be 91bd
00000050: 93d2 023e 0c31 e23c 43ae 05be 40fb 913d
00000060: 48aa 0c3e 2a30 c73d b6de 3dbd eb0b 28bd
00000070: c43c febd 0ccf 82bd 5b70 53bd a133 0b3e
00000080: 8396 ff3e cb57 8dbd f06e f7be 1d40 80bc
00000090: 609b 783e 85b7 77be ca9d 7d3e 2f95 30bb
000000a0: a439 843d 726e f53d 5a5b 01bd e532 0ebc
000000b0: 3683 793d 08cf 143e c4f5 383e a581 f6be
000000c0: 498a 5e3e 8ee4 3ebe 8e3e 79be 499a 823d
000000d0: 6e88 f03d 017d 79bc f589 65bd 804c 7a3e
000000e0: f8f3 063f 0862 ea3d ba3c 91be ded0 78be
000000f0: 58d4 8d3d 4b55 9fbe 368b 6dbe 6a81 f83d
00000100: 8ae9 84bb c14b f7bb 0fed 56bb 0102 f83a
00000110: d746 31bc 8d1f 8fbc 9459 6538 eaa2 dbba
00000120: de42 d9bb dbf9 d2bc 4ee9 5cbc 4e88 a7bb
00000130: 465e 56bc 431f 203a d979 12ba 4d6c e2ba
00000140: 5434 abbc fc41 e1bb 2c69 113c cc59 4dbc
00000150: 4fe1 cbbc fe11 00bd 7c13 83bc e5de 16bc
00000160: 693e e6bb 652c 85bc b01a 203c b99b bfbc
00000170: 6809 59bc 450e 4abb a123 b53c 3ec3 95bc
00000180: 45db 83b5 d8b8 c3ba 8c06 a8b9 546e 7bb9
00000190: 7e13 7fb7 e458 b238 7fbd e5ad 5d58 35bb
000001a0: a0c8 8ab7 ef19 83b9 52a2 13b8 3438 4ab5
000001b0: 841b 00b7 7018 35b9 1a05 6cac 6ae0 b8ad
000001c0: f4cf c7b8 c0b9 57b6 c826 73bc eace 0ab6
000001d0: 9bb8 c1ba 1779 e3b9 ed33 f337 7ec1 822b
000001e0: c5d2 13b2 bed8 07ba db95 31bc 6a44 2c38
000001f0: 7810 df34 2499 67ba 4642 33bc 08f5 d2b6
00000200: 90ac af3e db3b 1a3e bc56 06be b458 a7bc
00000210: 9c4c 31bd f434 2cbe fbd4 833b d77a 873c
00000220: b576 f7bd 8fad e0bd 51a9 4b3e 2d9d 643e
00000230: 5923 74bd fbac 21be ca62 d53c bbea 1bbe
00000240: 7fe2 4dbb 886a 873d bde0 5bbe 31e7 553e
00000250: 2c3d 73be 0816 523e cdcd 0e3b 5a02 103e
00000260: d3a4 1abd 5d78 163e 0282 ab3c 1025 d6bd
00000270: cda3 4dbc 9537 92be dd37 81be 2d7f 603e
00000280: 7aec 4e3e eca7 fb3d 7acd e5be 9be8 603e
00000290: 7b48 283d ad04 36be 53b7 433e 22d4 703c
000002a0: 7b48 893d 57c7 f0bd 8aa6 f63d a89c 733d
000002b0: bb28 c1bd 5008 113e ff27 8b3e bf8a 9dbe
000002c0: e474 b83d 26d6 74be 989b 7cbe 26ac 9b3d
000002d0: e4e7 283e 3801 113e eb82 a23b 13ee b23b
000002e0: 6a13 9f3e 64cf 923d 6b4f 13be 7df0 f6be
000002f0: 610d 943d fed7 bcbe 0fa5 a2be dc24 7fbd
00000300: b3de 06be a046 83be 0b26 783d e11e 06be
00000310: 91b8 1dbe 4955 9fbe f6a0 27bc 3d7c c63d
00000320: a485 eabd 08f2 683e 2e94 16be 04b0 61be
00000330: 3d60 8dbd 03e9 2abe 3977 a4bd 2bf0 10be
00000340: bb7f 853d 8e01 2b3d 4c31 8a3d b312 16be
00000350: c7bf 7f3e 522b 39be 89a7 cdbd 7056 0abe
00000360: 69e3 403e cc2f 31be 4667 e7bd 307f f7bc
00000370: c258 13be 54a2 e83d fb0a 6e3d 1307 0a3d
00000380: d433 6ab5 93e9 73b9 4abc 76b1 b91d 01ba
00000390: c0d7 1bb7 aeba c639 16ef e8a1 7e2d 71b8
000003a0: 336f c033 b0d4 41b6 96a5 71b8 acc2 b1b6
000003b0: b77a 4e37 1e6e 7eb6 5b91 1db4 2e9e b216
000003c0: 3ce4 19b6 aad7 79b3 59b2 36bb e2cd 9eb2
000003d0: f3c0 a0b7 b12a 1db7 ad6a 88b9 5344 4a32
000003e0: 6e88 5aa7 9b5f b2b7 d712 acb9 5733 1739
000003f0: 5fdc 6f38 50a6 abb5 388a dab9 f496 f436

bias f4 [32]
0.036821 0.29806012 -0.042297162 -0.02043398 0.30633307 0.40693513 -0.14679885 -0.0005372652
0.24434201 -0.26305524 0.36749688 -0.36615884 0.077458724 -0.095131986 -0.073813096 -0.18591024
0.33803156 0.29872248 -0.00032594416 -0.024192283 0.25818714 -0.30371752 0.12240686 2.5754116e-06
0.45533508 0.07454623 0.3372253 0.1220711 -0.017343666 -0.0041160807 -0.08091067 0.05752131
00000000: 9ed1 163d 569b 983e ca3f 2dbd 2965 a7bc
00000010: b0d7 9c3e cd59 d03e 7052 16be 42d7 0cba
00000020: cb34 7a3e 2daf 86be 8d28 bc3e 2c79 bbbe
00000030: aea2 9e3d 8fd4 c2bd 522b 97bd 415f 3ebe
00000040: 7912 ad3e 27f2 983e 7ce3 aab9 e52e c6bc
00000050: 1b31 843e dd80 9bbe 73b0 fa3d 3cd5 2c36
00000060: ae21 e93e b2ab 983d cba8 ac3e 6a00 fa3d
00000070: 4e14 8ebc 30e0 86bb 7eb4 a5bd 779b 6b3d

weight f4 [32, 32]
-0.021828 -0.057576038 0.16092555 0.043535687 -0.04226481 -0.030855807 0.0015273975 -0.02297189
0.0065478208 -0.09518313 -0.009667333 -0.0036531007 -0.09857307 -0.052863274 -0.030442698 -0.0036248344
-0.049895022 0.07220513 0.017897362 -0.022706851 -0.11603261 0.0322382 -0.032890998 -0.086820714
-0.015715819 -0.07181077 0.13845924 -0.05809557 -0.10152502 0.21260369 0.1020153 -0.017665401
-0.04436222 -0.05309992 -0.0029773077 -0.12938707 0.024887837 0.20067625 -5.3953132e-05 0.055792328
-0.1277783 -0.034123447 -0.038487118 0.092386566 -0.070179015 0.10133858 -0.08105581 -0.174184
-0.13170528 -0.026182476 0.040689386 -0.027182609 -0.15101923 0.039260197 -0.030506918 -0.08516707
-0.0581309 -0.051433764 0.09508235 0.16653721 -0.14544162 0.039156854 0.048475564 0.00067105185
-0.26695225 0.14836814 -0.8431484 -0.12901258 0.07625919 -0.37449473 0.055314135 -0.086005956
0.27687284 0.23876551 -0.35787424 -0.3327677 0.25825095 -0.3341361 0.11404466 0.0056122835
0.0030623218 0.119170465 -0.11430281 -0.27432546 0.18857786 0.113746636 -0.16180505 -0.5058539
0.1909922 -0.02528634 0.034758706 -0.06297437 0.24700908 -0.00394859 0.02523401 -0.31326216
0.15964657 -0.1192218 0.30138472 -0.0016714431 0.0280034 0.085113876 -0.087704785 0.059597418
0.09007861 0.03165796 0.14328018 0.16641109 0.069436416 0.12574911 -0.09198237 -0.09207295
0.079339534 -0.07677117 0.24420977 0.08719655 -0.093003236 0.117319226 0.14563614 0.09807569
0.026705397 0.18774366 0.22155602 0.10149306 0.053728446 0.16556682 0.19411366 0.15475228
0.00088875246 0.19013727 0.31257293 0.12958252 0.0560376 0.3034644 0.01895853 0.021430034
0.15192422 0.24928288 0.19705918 0.32939968 0.28923655 0.07102779 -0.14186573 -0.23068099
0.22208436 0.22848724 0.4768291 0.024557713 0.11708899 0.06382718 0.18203907 0.29647282
-0.1586623 0.08319248 0.272718 0.36540055 0.05620887 0.2426378 0.14594609 0.07276096
-0.03420198 -0.050195623 0.10061684 0.034122374 -0.03253246 -0.03460699 -0.011549957 -0.037191108
-0.010760956 -0.09996042 -0.050209377 -0.042814 -0.08075955 -0.015724063 -0.035689946 -0.026461886
-0.04041168 0.05272176 0.043176293 -0.038471617 -0.085440576 -0.02153264 -0.032669604 -0.09134349
0.020112282 -0.09043321 0.114611514 -0.08381284 -0.07458277 0.22860672 0.0130272815 -0.0066632926
-0.18897355 0.0002195188 -0.26776633 -0.08429712 -0.08710333 0.12242897 0.011176129 0.19583382
0.08015689 0.1033755 -0.27292633 -0.11702453 0.030232687 -0.13020848 -0.08026105 0.16057423
-0.15970406 -0.27148035 -0.032612186 -0.22695495 -0.09834883 0.0776114 -0.042598687 -0.1655449
-0.09453247 -0.22589645 0.015410315 0.19309974 0.09229532 -0.040269207 0.08224578 -0.18528138
-0.060491126 0.34582993 -0.07452006 0.18216604 0.019237101 -0.05276624 -0.012594062 0.14447019
-0.042636957 -0.13083458 -0.0227141 -0.04798328 0.12616216 0.06355511 0.16232404 -0.0018676791
0.002212469 -0.053072654 -0.29386598 0.1604395 -0.0378194 0.070361316 0.025111599 -0.11313637
-0.0061079822 0.059578784 0.10625148 -0.14969695 -0.29482853 -0.04982707 -0.050915733 0.05635427
00000000: a2d0 b2bc dad4 6bbd abc9 243e 7a52 323d
00000010: de1d 2dbd 51c5 fcbc f532 c83a 8c2f bcbc
00000020: 1a8f d63b 5fef c2bd bc63 1ebc dc68 6fbb
00000030: ade0 c9bd 2987 58bd f762 f9bc a18e 6dbb
00000040: b95e 4cbd 48e0 933d 7d9d 923c b803 babc
00000050: 81a2 edbd 340c 043d b6b8 06bd 0fcf b1bd
00000060: 76be 80bc 8611 93bd 42c8 0d3e 9ff5 6dbd
00000070: 5aec cfbd c8b4 593e 66ed d03d 08b7 90bc
00000080: 29b5 35bd 4d7f 59bd ef1e 43bb 0b7e 04be
00000090: 94e1 cb3c 137e 4d3e bc4b 62b8 7f86 643d
000000a0: 51d8 02be 07c5 0bbd aba4 1dbd 2b35 bd3d
000000b0: 04ba 8fbd 9a8a cf3d 9700 a6bd 4a5d 32be
000000c0: c0dd 06be a27c d6bc eaa9 263d 10ae debc
000000d0: c9a4 1abe 4dcf 203d a5e9 f9bc 136c aebd
000000e0: ab1a 6ebd 36ac 52bd 89ba c23d bb88 2a3e
000000f0: a6ee 14be f062 203d 508e 463d 87e9 2f3a
00000100: f7ad 88be d1ed 173e 93d8 57bf e01b 04be
00000110: c72d 9c3d c6bd bfbe 1391 623d e423 b0bd
00000120: 47c2 8d3e f27e 743e 4b3b b7be 8760 aabe
00000130: 7839 843e e313 abbe 3f90 e93d 3fe7 b73b
00000140: 3cb1 483b a50f f43d 9717 eabd 6374 8cbe
00000150: 8e1a 413e fff3 e83d 39b0 25be a47f 01bf
00000160: 7693 433e 4c25 cfbc 255f 0e3d b5f8 80bd
00000170: f3ef 7c3e 2c63 81bb 8eb7 ce3c e663 a0be
00000180: 647a 233e 8f2a f4bd 194f 9a3e 5314 dbba
00000190: 6367 e53c 2f50 ae3d 919e b3bd 6c1c 743d
000001a0: 227b b83d c7ab 013d 0ab8 123e ab67 2a3e
000001b0: ae34 8e3d 60c4 003e 4161 bcbd be90 bcbd
000001c0: c47c a23d 343a 9dbd 2012 7a3e 1b94 b23d
000001d0: 7b78 bebd 1045 f03d a421 153e e8db c83d
000001e0: 47c5 da3c e03f 403e 95df 623e 98db cf3d
000001f0: 5c12 5c3d 598a 293e bbc5 463e 6277 1e3e
00000200: 2bfb 683a 58b3 423e 8f09 a03e 48b1 043e
00000210: af87 653d b05f 9b3e eb4e 9b3c 0a8e af3c
00000220: 0692 1b3e 0344 7f3e e2c9 493e 13a7 a83e
00000230: d016 943e 0577 913d 4045 11be a337 6cbe
00000240: 156a 633e 8ff8 693e f222 f43e 422d c93c
00000250: 5acc ef3d d3b7 823d 7368 3a3e 49cb 973e
00000260: 5f78 22be d260 aa3d b2a1 8b3e c815 bb3e
00000270: 463b 663d 0b76 783e e472 153e b303 953d
00000280: 6017 0cbd ed99 4dbd 3410 ce3d e7c3 0b3d
00000290: c240 05bd 0fc0 0dbd 083c 3dbc b455 18bd
000002a0: b94e 30bc 0cb8 ccbd 59a8 4dbd bc5d 2fbd
000002b0: 4365 a5bd c0cf 80bc 9f2f 12bd 99c6 d8bc
000002c0: b886 25bd c6f2 573d a0d9 303d 6a94 1dbd
000002d0: 78fb aebd 3865 b0bc 90d0 05bd 4c12 bbbd
000002e0: 83c2 a43c 0c35 b9bd 71b9 ea3d 11a6 abbd
000002f0: dabe 98bd e117 6a3e 6170 553c c057 dabb
00000300: 4882 41be a12e 6639 ab18 89be f8a3 acbd
00000310: 3b63 b2bd 0abc fa3d 151c 373c a988 483e
00000320: 4c29 a43d 89b6 d33d 00bd 8bbe 8faa efbd
00000330: 8aaa f73c 5f55 05be e85f a4bd 926d 243e
00000340: 7689 23be 79ff 8abe 5b94 05bd e166 68be
00000350: 1d6b c9bd baf2 9e3d f67b 2ebd 9a84 29be
00000360: 3d9a c1bd 6651 67be 8c7b 7c3c f0bb 453e
00000370: 5405 bd3d 53f1 24bd 7a70 a83d 67ba 3dbe
00000380: 8bc5 77bd 9f10 b13e f99d 98bd bc89 3a3e
00000390: 2097 9d3c 6a21 58bd 5357 4ebc feef 133e
000003a0: 17a4 2ebd 80f9 05be ec12 babc 1e8a 44bd
000003b0: a730 013e 2e29 823d 4638 263e e9cc f4ba
000003c0: 12ff 103b b662 59bd 9a75 96be 414a 243e
000003d0: 84e8 1abd 9819 903d d7b6 cd3c 0bb4 e7bd
000003e0: 7825 c8bb e208 743d 609a d93d 284a 19be
000003f0: c4f3 96be 7817 4cbd 048d 50bd bcd3 663d

bias f4 [32]
-0.027997319 0.033342667 -0.047459397 0.18909982 0.17081462 0.040331796 -0.1886587 -0.10676972
-0.29234007 0.10939487 0.22685893 0.06230896 0.03038309 -0.42126682 0.31614637 0.30461973
-0.03890554 0.3412033 -0.31387442 -3.2008684e-14 -0.20257854 0.31673676 -0.5527533 0.19796291
0.38323683 0.1469303 -1.34014715e-14 0.17754431 -3.241661e-05 -0.060598843 -5.5877265e-08 0.28021398
00000000: a25a e5bc 5292 083d c964 42bd 62a3 413e
00000010: 07ea 2e3e f432 253d bf2f 41be 15aa dabd
00000020: 99ad 95be 6b0a e03d b54d 683e ae37 7f3d
00000030: f5e5 f83c 49b0 d7be f0dd a13e 1ef7 9b3e
00000040: 6a5b 1fbd 33b2 ae3e 26b4 a0be 8027 10a9
00000050: c070 4fbe 522b a23e 3e81 0dbf cab6 4a3e
00000060: 9e37 c43e e674 163e 616b 71a8 2dce 353e
00000070: 12f7 07b8 7e36 78bd b4fd 6fb3 3578 8f3e
