train_script/weights/GCNEdgeBased_model100/80.pth (torch, 46347 bytes, 17 tensors)

weight f4 [32, 13]
-6.50784e-40 -1.288752e-39 1.14671e-40 5.23402e-40 -4.6554e-40 1.180074e-39 9.40088e-40 9.58239e-40
1.5568e-39 3.19371e-40 -1.21909e-39 -8.85963e-40 -7.76678e-40 1.069985e-39 -1.626955e-39 1.642431e-39
-2.80509e-40 -3.1116e-41 -7.72253e-40 1.795002e-39 5.1723e-40 7.64321e-40 9.7035e-40 7.0596e-40
-1.763764e-39 1.854847e-39 -8.14955e-40 -1.07528e-39 -8.63022e-40 9.49538e-40 -7.13359e-40 1.209968e-39
9.9467e-40 -5.56318e-40 -1.76023e-39 8.24929e-40 1.1657e-39 -1.13346e-39 1.378911e-39 -1.916176e-39
1.839294e-39 4.60548e-40 1.549765e-39 4.00387e-40 1.443451e-39 -1.013612e-39 -8.94447e-40 1.360636e-39
6.46123e-40 2.072e-41 1.51936e-40 2.00809e-40 1.949556e-39 -2.45171e-40 -1.4103e-40 -2.742e-41
-1.071864e-39 -1.349075e-39 -1.137421e-39 6.97163e-40 8.93545e-40 -6.80591e-40 1.487637e-39 -1.25861e-39
1.608438e-39 -1.7442e-40 -1.337604e-39 5.1571e-40 3.12973e-40 7.04457e-40 -5.12502e-40 -9.41737e-40
-8.04449e-40 1.814646e-39 1.198203e-39 1.252443e-39 1.840542e-39 3.91322e-40 -8.43383e-40 1.075463e-39
-7.44139e-40 1.840087e-39 1.349696e-39 -1.629026e-39 -1.546225e-39 -1.83339e-40 -9.09218e-40 9.30748e-40
-1.042856e-39 8.8587e-40 1.83245e-40 1.72622e-40 1.732735e-39 -1.053903e-39 1.685848e-39 8.94155e-40
-6.20889e-40 -4.50901e-40 9.68136e-40 -1.296366e-39 9.13357e-40 1.00781e-39 1.301513e-39 1.3694e-39
-6.68317e-40 -1.972015e-39 -9.39903e-40 -1.07688e-39 7.91818e-40 -1.00685e-39 2.39574e-40 4.20439e-40
-4.72333e-40 6.69802e-40 -1.005416e-39 -6.16211e-40 -1.52558e-39 -8.15931e-40 3.99526e-40 1.228848e-39
-1.558066e-39 -1.18146e-39 1.087209e-39 8.81729e-40 -1.2898e-39 4.6673e-40 9.6609e-40 1.300743e-39
-1.235015e-39 -8.12041e-40 1.44631e-40 8.8074e-40 1.417696e-39 -5.55989e-40 9.53153e-40 -1.201738e-39
-1.065795e-39 -4.48748e-40 6.00899e-40 -1.205261e-39 -1.381031e-39 1.378317e-39 -1.103223e-39 -1.845366e-39
7.22516e-40 6.36478e-40 1.173309e-39 1.351705e-39 -1.068459e-39 -5.2533e-40 -7.76415e-40 1.779817e-39
-2.47496e-40 1.073208e-39 -2.036e-40 -5.11292e-40 2.92288e-40 -1.017027e-39 -5.58338e-40 -1.194489e-39
-3.53002e-40 -1.607288e-39 -7.88355e-40 1.3132e-41 5.34902e-40 -1.148577e-39 8.42905e-40 -3.76903e-40
-1.53994e-40 1.04512e-39 2.00341e-40 -6.22458e-40 -8.01787e-40 -9.18099e-40 -8.26979e-40 1.037171e-39
8.07348e-40 3.8484e-40 6.84879e-40 3.12003e-40 -1.505809e-39 -1.543874e-39 -9.54388e-40 -1.170865e-39
-4.02295e-40 -1.306952e-39 -8.72559e-40 -9.98864e-40 -9.59442e-40 -1.702726e-39 -1.873752e-39 -1.190763e-39
-3.52652e-40 2.4021e-41 -2.010206e-39 1.702854e-39 4.21754e-40 -1.804864e-39 1.50193e-39 -2.41093e-40
1.841247e-39 1.428992e-39 9.1523e-41 -1.391816e-39 6.25245e-40 3.19017e-40 -6.68397e-40 -6.76766e-40
-1.14333e-39 1.197983e-39 -1.77502e-40 3.14107e-40 7.79813e-40 -1.75366e-39 -4.24235e-40 1.476293e-39
-5.21397e-40 3.88818e-40 -8.77468e-40 6.23044e-40 -8.30365e-40 1.214504e-39 2.17745e-40 1.34439e-40
-2.75701e-40 5.63595e-40 -7.3186e-40 -1.363356e-39 -8.44909e-40 -1.244034e-39 -1.758865e-39 1.01012e-39
-1.302063e-39 1.59357e-39 -1.171963e-39 -1.748694e-39 8.30765e-40 1.057386e-39 -8.63566e-40 -1.34403e-40
6.79839e-40 1.31628e-40 -8.18078e-40 4.83458e-40 -1.000715e-39 8.7386e-41 1.712097e-39 9.85188e-40
-1.083263e-39 -1.53451e-39 9.88557e-40 -7.94682e-40 -3.28013e-40 -1.553124e-39 -6.80001e-40 1.251857e-39
00000000: 1f16 0780 8408 0e80 a83f 0100 08b3 0500
00000010: bc11 0580 91d9 0c00 953c 0a00 2e6f 0a00
00000020: baf3 1000 477a 0300 5446 0d80 b4a5 0980
00000030: 1075 0880 afa6 0b00 4ab7 1180 6ee2 1100
00000040: f20d 0380 bd56 0080 ba68 0880 bc8b 1300
00000050: d4a1 0500 9e52 0800 f190 0a00 eeaf 0700
00000060: a834 1380 8f32 1400 c3df 0880 71b5 0b80
00000070: c165 0980 ed56 0a00 8ec4 0780 e62c 0d00
00000080: bcd4 0a00 ca0e 0680 ce2a 1380 91fb 0800
00000090: 7fb1 0c00 a057 0c80 d803 0f00 85dd 1480
000000a0: 3407 1400 d203 0500 1de0 1000 1e5c 0400
000000b0: c1b7 0f00 8a09 0b80 5bbd 0980 e6d0 0e00
000000c0: 2109 0700 c239 0000 89a7 0100 c62f 0200
000000d0: 923a 1500 70ab 0280 2289 0180 704c 0080
000000e0: ecab 0b80 acb0 0e80 ab62 0c80 6897 0700
000000f0: d7ba 0900 3669 0780 ed32 1000 7eb4 0d80
00000100: ac83 1100 36e6 0180 b290 0e80 979d 0500
00000110: 7168 0300 bdab 0700 a694 0580 2e41 0a80
00000120: 7ac2 0880 7fc2 1300 1a0c 0d00 4da3 0d00
00000130: af0a 1400 d942 0400 022f 0980 f4b5 0b00
00000140: 5b1a 0880 6a09 1400 67b2 0e00 10bd 1180
00000150: 3fd6 1080 13ff 0180 88e6 0980 8c22 0a00
00000160: 0f5b 0b80 72a5 0900 d0fe 0100 33e1 0100
00000170: 29de 1200 da79 0b80 755b 1200 8abc 0900
00000180: c9c2 0680 eee8 0480 c58a 0a00 be1d 0e80
00000190: 11f2 0900 5df9 0a00 172c 0e00 54e9 0e00
000001a0: ff46 0780 2d79 1580 113c 0a80 e7b9 0b80
000001b0: 449f 0800 b0f6 0a80 d69b 0200 0394 0400
000001c0: ac24 0580 234b 0700 b1f2 0a80 bfb5 0680
000001d0: b29c 1080 7ce2 0880 b759 0400 8761 0d00
000001e0: 41f7 1080 6edd 0c80 b2d6 0b00 e799 0900
000001f0: 700b 0e80 0e15 0500 1185 0a00 f129 0e00
00000200: b872 0d80 a4d7 0880 2c93 0100 2597 0900
00000210: f66f 0f00 df0d 0680 0161 0a00 f515 0d80
00000220: 019b 0b80 ede2 0480 108b 0600 c71f 0d80
00000230: c109 0f80 3002 0f00 5603 0c80 2118 1480
00000240: 15de 0700 3eee 0600 b5c6 0c00 01b8 0e00
00000250: 6ea2 0b80 68b8 0580 5474 0880 6861 1300
00000260: ebb1 0280 abaf 0b00 8e37 0280 4691 0580
00000270: c82e 0300 0f13 0b80 6b14 0680 c001 0d80
00000280: 07d8 0380 7780 1180 9d95 0880 9b24 0000
00000290: 17d3 0500 c481 0c80 ad2d 0900 a71a 0480
000002a0: 46ad 0180 5f61 0b00 782e 0200 29c7 0680
000002b0: 0ebb 0880 49ff 0980 4801 0980 364b 0b00
000002c0: 8fca 0800 c730 0400 2a75 0700 bd65 0300
000002d0: 9565 1080 b1cf 1080 7264 0a80 e5bf 0c80
000002e0: 6f61 0480 403b 0e80 5780 0980 6de0 0a80
000002f0: 8972 0a80 828a 1280 4267 1480 5df7 0c80
00000300: 0dd7 0380 f642 0000 a3e3 1580 dd8a 1200
00000310: ae97 0400 3aa7 1380 c55a 1000 12a0 0280
00000320: a60c 1400 738f 0f00 21ff 0000 d127 0f80
00000330: eece 0600 4a79 0300 3847 0780 8c5e 0780
00000340: 2473 0c80 7d0b 0d00 ceee 0180 9a6b 0300
00000350: cd7d 0800 7e18 1380 989e 0480 4e13 1000
00000360: 71ad 0580 de3b 0400 068e 0980 cbc8 0600
00000370: b80a 0980 8b39 0d00 fc5e 0200 c376 0100
00000380: 8b00 0380 1323 0600 21f8 0780 7bd8 0e80
00000390: 4333 0980 dc8b 0d80 0027 1380 ceff 0a00
000003a0: 9f2d 0e80 3a5a 1100 f5c2 0c80 a60a 1380
000003b0: d60b 0900 9083 0b00 4567 0980 a976 0180
000003c0: 1d67 0700 ed6e 0100 78e8 0880 af43 0500
000003d0: 96e5 0a80 99f3 0000 a1a4 1200 4eba 0a00
000003e0: b2cb 0b80 97b5 1080 b2c3 0a00 40a7 0880
000003f0: 5e92 0380 7ae9 1080 9167 0780 aba1 0d00

bias f4 [32]
-0.08751488 -0.008588519 0.10803655 -0.58385366 -0.3369843 -0.30116874 -0.08427886 -0.28690845
-0.5284125 -0.33546096 -0.3848912 -0.6122755 -0.22279242 -0.47538683 -0.14544709 -0.22718835
-0.52566975 -0.30853894 -0.36408848 -0.24609981 -0.23606819 -0.30617777 -0.45064914 0.107073225
-0.3181943 -0.5138548 -0.27613598 -0.17167678 -0.18859906 -0.22371309 -0.22878383 -0.1681584
00000000: 003b b3bd dcb6 0cbc 4442 dd3d 6f77 15bf
00000010: 3589 acbe ca32 9abe 659a acbd aae5 92be
00000020: 0b46 07bf 8ac1 abbe 7610 c5be 16be 1cbf
00000030: b223 64be e765 f3be 15f0 14be 10a4 68be
00000040: 4b92 06bf d1f8 9dbe ce69 babe 9701 7cbe
00000050: dcbb 71be 55c3 9cbe 7cbb e6be 3549 db3d
00000060: 5dea a2be fd8b 03bf b261 8dbe 0acc 2fbe
00000070: 1d20 41be 0b15 65be 4f46 6abe b731 2cbe

weight f4 [32, 13]
0.5056859 -0.23151156 0.10175283 -0.8057328 -0.3149393 -0.23841663 0.081848174 -0.031661913
-0.051082987 0.04766887 -0.10912984 -0.025370859 0.07102175 -0.01440363 0.40714848 0.2878134
-0.60326666 -0.45370492 -0.106282085 -0.033055093 0.019445138 0.033477258 -0.021853572 -0.038350195
-0.00060677953 0.12715459 -0.30453458 0.5432825 0.2041924 0.09038486 -0.5014708 0.12665571
-0.011739546 0.042332076 0.024263723 0.0031895614 -0.008090699 0.02407768 0.2802819 -0.2401763
0.21309683 -0.15733607 -0.19709477 0.37850448 -0.0016687122 0.0010749748 -0.023269951 -0.012687537
0.039599553 0.04380162 0.00028819166 0.111446485 0.09813895 -0.009829341 0.034555156 -0.042963162
-0.018960042 0.060984988 -0.028183037 -0.22679204 -0.07886329 0.018282495 -0.015564979 0.042514455
-0.10214636 0.054295447 0.26634103 0.14339156 0.028811872 0.16048644 -0.13871677 -0.010264646
-0.011306879 0.005354446 0.007604674 -0.005517255 -0.017215757 -0.064781964 0.33956447 -0.10711406
0.2596621 0.7147467 -0.5007864 -0.17592892 0.040282328 -0.0011784597 0.008788526 0.010557187
0.11839418 0.006286649 0.1197182 0.431755 -0.1847537 -0.0872312 0.06251066 -0.0022218924
-0.06460882 0.017392945 -0.0014746123 -0.030352019 0.005460627 -0.015224235 0.0019887965 0.11055912
0.39310148 -0.008226605 -0.20909797 -0.15665077 -0.19932489 -0.065360375 0.10337141 0.048362948
0.04398404 -0.1413917 0.015922576 -0.0017236276 -0.6594784 -0.010972995 0.12659644 0.23461239
0.07099693 -0.34199482 -0.059164282 0.08647317 -0.02587406 -0.020522332 0.12091426 0.014336068
0.00935888 -0.05225108 0.17018932 0.084480755 -0.16169609 0.28875834 -0.10598869 -0.08596633
-0.045763418 -0.048654545 -0.121109 -0.034114502 0.055872533 -0.048931524 -0.06987437 -0.42369667
-0.41366327 0.053141464 -0.20040585 0.3126111 0.24943352 0.007323079 0.010573436 -0.01331129
0.017731445 0.023903782 -0.12654826 0.18059294 -0.64917445 -0.23289678 -0.04892939 0.0003529529
0.49883884 0.59804404 0.012352457 -0.0038473364 0.00734147 -0.0005386214 -0.013480096 -0.013035183
-0.035476156 0.05518059 -0.08573195 0.18203314 -0.09491431 -0.2674858 -0.1518802 -0.11963505
0.03409519 0.04142505 -0.02438492 -0.007058453 0.09155157 -0.0703626 -0.10734151 0.44125137
0.5187335 -0.20647049 -0.346765 -0.06599505 0.022170793 -0.019637858 -0.032571025 -0.0009917569
0.018422136 0.029561166 -0.012078123 0.047637478 -0.028291104 0.09388821 -0.09944765 0.009488189
0.044001896 -0.2239086 0.09661813 -0.20133169 0.03956308 -0.08818984 0.022815585 0.0077536944
0.22698383 -0.1797143 0.13953778 -0.03526265 0.34909385 -0.06554434 -0.06718805 -0.099948086
0.08055966 -0.07087332 0.015724521 -0.047758713 0.02157086 0.51323056 0.0063730744 -0.08340201
0.19473995 -0.22016564 -0.035564408 -0.017593319 -0.0076564974 0.037816726 0.044592597 -0.058040317
0.028525358 0.10947283 -0.43495935 -0.10584741 -0.19462354 -0.2047314 0.66665834 0.29219338
0.026946498 -0.0015400341 -0.0065364637 -0.017536674 0.06382232 0.08917319 -0.020233506 0.17670378
-0.057925053 0.5123811 0.17523748 0.04236223 -0.10888552 0.046340883 0.0064902874 0.17009012
00000000: a274 013f 5e11 6dbe ca63 d03d 8144 4ebf
00000010: b93f a1be 7d23 74be 04a0 a73d ecaf 01bd
00000020: 653c 51bd 6f40 433d 777f dfbd 8cd6 cfbc
00000030: da73 913d 34fd 6bbc c475 d03e 475c 933e
00000040: af6f 1abf 034c e8be 6caa d9bd c764 07bd
00000050: 694b 9f3c 731f 093d 4306 b3bc 1815 1dbd
00000060: 4910 1fba d034 023e f5eb 9bbe 9014 0b3f
00000070: d017 513e b31b b93d 6460 00bf 09b2 013e
00000080: 3a57 40bc 6664 2d3d b7c4 c63c f607 513b
00000090: da8e 04bc 8e3e c53c 1c81 8f3e c7f0 75be
000000a0: 0e36 5a3e b51c 21be 36d3 49be 57cb c13e
000000b0: b1b8 daba 2be6 8c3a a0a0 bebc 63df 4fbc
000000c0: 2433 223d 5469 333d 6e18 9739 0e3e e43d
000000d0: 13fd c83d 3f0b 21bc b589 0d3d 24fa 2fbd
000000e0: 1752 9bbc 65cb 793d 1de0 e6bc 2c3c 68be
000000f0: 1483 a1bd 2cc5 953c 4104 7fbc a323 2e3d
00000100: 1c32 d1bd e764 5e3d da5d 883e 3dd5 123e
00000110: e006 ec3c 8f56 243e c50b 0ebe 0c2d 28bc
00000120: 7d40 39bc 5974 af3b a130 f93b 17ca b4bb
00000130: 0f08 8dbc 68ac 84bd 65db ad3e 9e5e dbbd
00000140: 6ef2 843e a4f9 363f 8a33 00bf b626 34be
00000150: 15ff 243d 8c76 9aba c0fd 0f3c 0df8 2c3c
00000160: a678 f23d 3c00 ce3b d12e f53d fe0e dd3e
00000170: 1330 3dbe 45a6 b2bd 9705 803d 2b9d 11bb
00000180: a151 84bd a67b 8e3c c747 c1ba cca4 f8bc
00000190: 0fef b23b 126f 79bc 7856 023b d26c e23d
000001a0: 9944 c93e e2c8 06bc c71d 56be 0f69 20be
000001b0: d31b 4cbe a9db 85bd 64b4 d33d 3a18 463d
000001c0: 9c28 343d fcc8 10be 1070 823c 58eb e1ba
000001d0: 94d3 28bf 14c8 33bc 7fa2 013e 3b3e 703e
000001e0: d766 913d f219 afbe 3f56 72bd d818 b13d
000001f0: d6f5 d3bc 731e a8bc e5a1 f73d d4e1 6a3c
00000200: fd55 193c 3a05 56bd 1c46 2e3e 3f04 ad3d
00000210: a993 25be 22d8 933e 9910 d9bd 1d0f b0bd
00000220: 6c72 3bbd fd49 47bd ff07 f8bd a6bb 0bbd
00000230: 99da 643d 6c6c 48bd 4b1a 8fbd c5ee d8be
00000240: accb d3be ddaa 593d 3137 4dbe 900e a03e
00000250: 806b 7f3e 70f6 ef3b 343c 2d3c 9917 5abc
00000260: 8941 913c ddd1 c33c de95 01be 5bed 383e
00000270: 4c30 26bf 7e7c 6ebe 2f6a 48bd 890c b939
00000280: ce67 ff3e 6a19 193f f661 4a3c 9823 7cbb
00000290: b790 f03b 4532 0dba 9fdb 5cbc 8591 55bc
000002a0: 724f 11bd 0b05 623d 3c94 afbd e566 3a3e
000002b0: 6f62 c2bd e6f3 88be 7c86 1bbe 3903 f5bd
000002c0: 66a7 0b3d 50ad 293d e2c2 c7bc 984a e7bb
000002d0: 647f bb3d 441a 90bd ded5 dbbd b3eb e13e
000002e0: b8cb 043f 006d 53be 2f8b b1be 6a28 87bd
000002f0: 869f b53c 93df a0bc 3269 05bd d7fd 81ba
00000300: 05ea 963c 422a f23c 52e3 45bc 841f 433d
00000310: bfc2 e7bc 7648 c03d 36ab cbbd 5974 1b3c
00000320: 553b 343d 4c48 65be badf c53d e529 4ebe
00000330: e50c 223d e09c b4bd c0e7 ba3c b412 fe3b
00000340: 736e 683e 0707 38be fee2 0e3e 926f 10bd
00000350: 6ebc b23e 1c3c 86bd e399 89bd 95b1 ccbd
00000360: 77fc a43d 0826 91bd b6d0 803c a49e 43bd
00000370: 5fb5 b03c 1463 033f 39d5 d03b acce aabd
00000380: e969 473e 1a73 61be fcab 11bd dd1f 90bc
00000390: 5be3 fabb b6e5 1a3d baa6 363d afbb 6dbd
000003a0: 03ae e93c 4b33 e03d feb2 debe 87c6 d8bd
000003b0: 654b 47be 1ca5 51be 1faa 2a3f 5f9a 953e
000003c0: e7be dc3c f8da c9ba d52f d6bb 12a9 8fbc
000003d0: 47b5 823d 6fa0 b63d bdc0 a5bc d6f1 343e
000003e0: d242 6dbd 682b 033f 7471 333e 0584 2d3d
000003f0: 5fff debd f0cf 3d3d 7aac d43b 1b2c 2e3e

bias f4 [32]
-0.17342456 -0.014295264 0.11844164 -0.5911128 -0.3302273 -0.3002286 -0.12807462 -0.2850274
-0.51326555 -0.3298915 -0.3794692 -0.6339889 -0.22596107 -0.48878396 -0.14417328 -0.22769184
-0.52309495 -0.30410838 -0.33211836 -0.23270461 -0.24067599 -0.29941043 -0.44804734 0.10352481
-0.31408164 -0.50522816 -0.28135398 -0.17035688 -0.19914797 -0.23649773 -0.22885291 -0.16552049
00000000: 3596 31be af36 6abc 8891 f23d 2b53 17bf
00000010: 8d13 a9be 90b7 99be fe25 03be 1def 91be
00000020: 5f65 03bf 8ae7 a8be c949 c2be 194d 22bf
00000030: 5762 67be e441 fabe 29a2 13be 0d28 69be
00000040: 8de9 05bf 18b4 9bbe 6b0b aabe 1e4a 6ebe
00000050: c473 76be 534c 99be 7666 e5be d104 d43d
00000060: 4fcf a0be a256 01bf a10d 90be 0972 2ebe
00000070: 72ed 4bbe 762c 72be 6b58 6abe 347e 29be

weight f4 [32, 13]
0.22561042 0.16527648 0.35188466 0.23745874 -0.2293676 0.03961751 -0.038227968 -0.027318072
0.039644316 -0.03432959 0.019364806 -0.0039787735 0.24076986 -0.07889529 0.12539183 -0.028577277
0.18437102 0.25747553 0.07583791 0.089964986 0.13559596 0.2017835 0.013296584 -0.0029740874
0.008040615 0.17103755 0.3917907 0.014611143 0.3115118 0.069768526 0.18398336 0.12430364
-0.17403987 0.060351733 -0.07671781 -0.033267435 -0.010507232 -0.042317607 -0.37515488 -0.50086814
0.22390617 0.09660985 0.12323789 0.026019862 -0.11666957 0.03066622 -0.0164364 -0.029654898
0.021579977 0.0069313333 0.019385004 0.12849396 -0.20189312 0.08760678 -0.23299958 0.2335256
0.066191286 0.05953306 0.0310577 0.0071993903 -0.045934133 0.012699569 0.015787462 0.08685061
-0.0482186 0.45940602 0.11550822 0.11767567 -0.37603253 0.19464783 0.23979633 -0.07274257
-0.017071957 0.040166963 0.021249363 -0.17090905 0.023545254 -0.16680987 -0.4627986 0.035015505
-0.12963057 -0.02819406 -0.10559788 -0.16677572 0.0016055801 -0.024910526 0.016430434 -0.012880347
-0.0073324637 0.0037871322 -0.01736995 -0.48466283 -0.19716929 -0.13908976 0.49213338 0.021925705
0.34547144 -0.0052154223 -0.004018853 0.055897746 -0.014595678 -0.13731965 -0.03126791 -0.014482507
-0.9519552 -0.22853753 -0.066878006 0.01469026 -0.10132636 -0.009163116 0.032259997 -0.009303439
-0.0027307426 -0.00016915613 0.008524591 0.00788672 0.0038781257 0.13108094 -0.289091 -0.16727838
0.32851854 0.13080637 0.0376688 -0.0225927 0.049817618 -0.014979632 0.06832646 -0.043912467
0.014957386 -0.092901446 -0.034679394 -0.21466465 0.020578818 -0.06443361 0.039952755 0.04959458
0.01779534 -0.015155572 -0.103753775 -0.009294479 -0.05036278 0.044664152 -0.040486295 -0.074926965
-0.49211106 0.37233832 0.025959935 0.04302426 0.028832557 0.005598074 -0.013981651 0.013437331
-0.019671319 -0.0126002235 -0.0015682419 -0.06087508 0.3906347 0.276473 -0.048974447 -0.19059761
0.0982551 -0.054587662 -0.10601017 -0.19051617 -0.030373046 -0.11009154 0.04910716 -0.040767297
-0.2573808 0.43491834 -0.097414896 0.09254912 -0.43679285 -0.41092247 -0.09420254 0.16418673
-0.090311304 -0.00131303 0.0010226843 -0.015411237 0.0006727243 0.1154342 0.2680234 -0.078884594
0.21283716 0.21750261 0.10333509 -0.037590995 0.07648839 -0.07652533 -0.14952542 -0.01340671
-0.026485968 0.017923564 0.030383503 0.22402693 -0.15714775 0.009448411 -0.24941768 -0.1660853
-0.071746245 -0.17559442 0.08430929 0.089574106 0.027232297 -0.0013712334 0.0072047883 -0.078819886
-0.033856392 0.119532235 0.43810323 -0.5647821 0.20927666 -0.019583026 -0.0072636195 -0.013723685
0.04123106 0.0063045705 0.08675411 0.006056126 0.04561832 0.13085134 0.3109883 0.3097987
0.42334452 -0.13089716 0.034183208 -0.010133093 -0.02522535 -0.03136375 0.009821828 0.09408757
0.0295634 -0.06272735 0.16751394 0.450309 -0.6122416 -0.24191983 -0.2286231 -0.011935076
0.024240276 -0.037406366 -0.038666245 -0.012739734 0.015154418 0.026044898 0.24145554 -0.021085424
0.053557523 -0.051257394 -0.46472955 0.06606381 0.016263945 0.018377302 0.0060788793 0.003605931
00000000: 6b06 673e 3d3e 293e 3a2a b43e 6228 733e
00000010: 57df 6abe f845 223d ee94 1cbd 26ca dfbc
00000020: 1462 223d 2f9d 0cbd f1a2 9e3c 5f60 82bb
00000030: 608c 763e db93 a1bd b766 003e e51a eabc
00000040: c2cb 3c3e d5d3 833e e850 9b3d 903f b83d
00000050: abd9 0a3e 55a0 4e3e ead9 593c e8e8 42bb
00000060: c9bc 033c 7824 2f3e ca98 c83e 9363 6f3c
00000070: 7a7e 9f3e cde2 8e3d 2266 3c3e e892 fe3d
00000080: 8237 32be 6133 773d 3a1e 9dbd 6f43 08bd
00000090: 8626 2cbc 3a55 2dbd 4d14 c0be e538 00bf
000000a0: a947 653e 63db c53d 2664 fc3d 9b27 d53c
000000b0: 75f0 eebd b937 fb3c a1a5 86bc d4ee f2bc
000000c0: 7ec8 b03c 3d20 e33b 4dcd 9e3c ec93 033e
000000d0: 12bd 4ebe 2f6b b33d 7197 6ebe 5621 6f3e
000000e0: 4c8f 873d f0d8 733d b86c fe3c dde8 eb3b
000000f0: 6e25 3cbd da11 503c b554 813c bcde b13d
00000100: de80 45bd 4437 eb3e 938f ec3d f1ff f03d
00000110: 5687 c0be c351 473e 2b8d 753e 0efa 94bd
00000120: 7dda 8bbc 1d86 243d 2513 ae3c c802 2fbe
00000130: fae1 c03c 35d0 2abe f0f3 ecbe 6b6c 0f3d
00000140: e0bd 04be 3bf7 e6bc b443 d8bd 41c7 2abe
00000150: 5472 d23a 2911 ccbc 1e99 863c 1708 53bc
00000160: 2a45 f0bb 8931 783b 6d4b 8ebc ba25 f8be
00000170: bfe6 49be 8c6d 0ebe e8f8 fb3e 899d b33c
00000180: a2e1 b03e 22e6 aabb 95b0 83bb 09f5 643d
00000190: b622 6fbc 869d 0cbe c812 00bd 0948 6dbc
000001a0: 56b3 73bf be05 6abe 56f7 88bd 6baf 703c
000001b0: 3284 cfbd e520 16bc 0f23 043d 746d 18bc
000001c0: 42f6 32bb 815f 31b9 baaa 0b3c 4d37 013c
000001d0: 2728 7e3b 153a 063e bc03 94be 064b 2bbe
000001e0: 9533 a83e 1bf2 053e 9a4a 1a3d 5314 b9bc
000001f0: 8f0d 4c3d 216d 75bc beee 8b3d 8fdd 33bd
00000200: d30f 753c 1d43 bebd fb0b 0ebd 0dd1 5bbe
00000210: e994 a83c c5f5 83bd 80a5 233d b023 4b3d
00000220: 88c7 913c 144f 78bc dc7c d4bd df47 18bc
00000230: 3449 4ebd c2f1 363d f5d4 25bd 4f73 99bd
00000240: fbf5 fbbe 21a3 be3e eea9 d43c 353a 303d
00000250: 4132 ec3c 0c70 b73b 4b13 65bc 4028 5c3c
00000260: bf25 a1bc 2b71 4ebc 778d cdba 2658 79bd
00000270: 4501 c83e de8d 8d3e 6e99 48bd 052c 43be
00000280: f839 c93d 5097 5fbd dc1b d9bd ac16 43be
00000290: e5d0 f8bc ac77 e1bd 9724 493d 9cfb 26bd
000002a0: 6bc7 83be 9ead de3e 7681 c7bd 658a bd3d
000002b0: 50a3 dfbe 6e64 d2be 43ed c0bd 9120 283e
000002c0: 22f5 b8bd fa19 acba 970b 863a 6a7f 7cbc
000002d0: c359 303a c468 ec3d 5d3a 893e 3f8e a1bd
000002e0: fcf1 593e 01b9 5e3e 59a1 d33d 04f9 19bd
000002f0: f2a5 9c3d 50b9 9cbd 311d 19be d1a7 5bbc
00000300: 1af9 d8bc 70d4 923c d3e6 f83c 5167 653e
00000310: 57eb 20be 82cd 1a3c 5967 7fbe 4412 2abe
00000320: b2ef 92bd 06cf 33be 59aa ac3d a172 b73d
00000330: 4416 df3c f5ba b3ba 2516 ec3b 526c a1bd
00000340: 00ad 0abd 51cd f43d 114f e03e 8f95 10bf
00000350: 9f4c 563e 956c a0bc a803 eebb 4fd9 60bc
00000360: e6e1 283d 9296 ce3b 24ac b13d 7872 c63b
00000370: 47da 3a3d e5fd 053e dc39 9f3e ef9d 9e3e
00000380: 9dc0 d83e e809 06be b103 0c3d 4605 26bc
00000390: 65a5 cebc 4777 00bd bceb 203c fcb0 c03d
000003a0: f22e f23c 3277 80bd c688 2b3e e78e e63e
000003b0: debb 1cbf d5b9 77be 2d1c 6abe 568b 43bc
000003c0: 8b93 c63c 6b37 19bd 7f60 1ebd 51ba 50bc
000003d0: 3c4a 783c 1c5c d53c 1f40 773e 57bb acbc
000003e0: 225f 5b3d 46f3 51bd 08f1 edbe 764c 873d
000003f0: f73b 853c ff8b 963c 5631 c73b 7c51 6c3b

bias f4 [32]
0.43099457 -0.12108324 0.018963747 -0.013486588 -0.039589185 0.20354341 -0.10430368 -0.0025763747
-0.46834272 -0.014548953 0.030368762 0.043491323 0.16143581 -0.09808705 0.0014673215 -0.20678319
0.014024343 0.0747552 0.092436425 -0.024840102 -0.044318467 -0.07684044 -0.5455739 0.013186229
0.13027072 0.051136207 0.17626144 0.036386598 -0.25581023 0.055131283 -0.16696523 0.033345945
00000000: 52ab dc3e 7dfa f7bd dc59 9b3c daf6 5cbc
00000010: 4528 22bd af6d 503e 2b9d d5bd 65d8 28bb
00000020: 9eca efbe bb5e 6ebc e9c7 f83c f523 323d
00000030: 6e4f 253e dde1 c8bd 2453 c03a f9be 53be
00000040: 5cc6 653c 4119 993d 4f4f bd3d 787d cbbc
00000050: 4887 35bd 855e 9dbd bbaa 0bbf 0e0b 583c
00000060: b065 053e 3374 513d e17d 343e 1d0a 153d
00000070: 8ff9 82be 57d1 613d eff8 2abe c295 083d

weight f4 [32, 64]
0.20870131 0.24685487 -0.06372948 -0.122819126 0.22325918 -0.064803556 0.4146547 -0.14550325
0.16057329 -0.07252663 0.18132263 -0.3535849 -0.15437305 0.117947645 0.23660688 0.37342453
0.056126088 -0.16317478 -0.021977343 0.38936213 -0.04415579 0.39189836 -0.0033588314 0.43750855
-0.040132184 0.33402985 0.24485023 0.07570296 -0.16533926 0.5967676 -0.02748291 -0.04921519
0.05289847 -0.032340754 0.087754786 -0.1861254 -0.27661154 0.03504522 -0.26483652 -0.08829763
-0.092064075 -0.28233528 -0.34880626 -0.22852352 -0.24899936 -0.26185808 -0.03238808 -0.22438815
-0.35519335 -0.18930563 -0.22646219 -0.36511585 -0.2635721 -0.15754527 -0.26738605 -0.055921223
-0.04386378 -0.24384126 -0.19274583 -0.04021574 -0.12579028 -0.25523058 -0.22201774 -0.26692265
0.079942375 0.015858473 -0.037607927 0.0071944906 0.018642444 0.05343719 0.096367955 0.026240349
-0.055730153 0.019703833 0.09848179 -0.012117167 0.009174823 0.010458859 0.05582104 -0.0950777
0.023652857 0.054882098 -0.015659785 0.057230365 -0.05291445 -0.09374861 -0.040984042 0.034769718
0.085223384 0.091532715 0.068907574 -0.07950277 -0.016339092 -0.0338038 -0.05333238 0.10845766
-0.089390226 -0.028816087 -0.08780101 0.059693553 -0.07464636 0.09130917 -0.08619403 -0.10677853
0.043703698 -0.05594834 -0.13084298 -0.06689752 0.107327275 -0.04815595 -0.13277523 0.12551183
-0.020474296 -0.11283921 0.0031757513 -0.06542771 0.06216368 0.07150332 0.09775858 -0.04078196
0.048422184 -0.11263251 -0.04043517 0.026617061 -0.07723407 0.01773649 -0.008337081 -0.032340344
0.024789268 -0.038552828 0.10368616 -0.14637622 0.18956736 -0.104930304 -0.17776972 -0.052006334
0.032526772 0.03257607 0.15456796 -0.025792759 -0.25242668 -0.06368862 0.10805865 -0.029403342
0.25864118 -0.041405782 -0.15712303 0.058869187 -0.01984189 0.011781553 0.06271844 0.005062601
-0.03214888 0.11968951 0.18938792 -0.0043442147 -0.043368064 0.3061758 -0.12694126 0.07661767
-0.09451717 -0.05418513 -0.13814688 0.0114726 -0.3836626 -0.08738892 -0.4055376 0.05943586
-0.16704552 -0.31203413 -0.26809576 0.06704741 0.05551614 -0.21642017 -0.10674549 -0.57957476
0.09046943 -0.15838146 -0.0844152 -0.62963885 -0.31785202 -0.63929486 0.06479634 -0.051538613
-0.027189443 -0.20575237 -0.28705785 -0.02385742 -0.37594986 -0.18879361 -0.28147507 -0.09693499
-0.363268 -0.2018799 -0.08372598 -0.26776183 0.23025273 -0.05842752 -0.22946487 0.20156646
0.045757167 -0.13359788 -0.22865237 -0.21932691 0.19448623 -0.5415428 -0.15897028 -0.14193021
-0.025539607 0.2268762 -0.06501584 -0.05886084 -0.001650895 -0.22993 -0.03779788 -0.5091501
-0.30451003 -0.31096172 -0.3476894 -0.0961463 0.0088184485 -0.051940113 -0.5286092 -0.13757476
-0.35829437 0.16937487 -0.06440199 -0.30944675 0.1851004 -0.23486845 -0.17903823 0.0038379708
0.19274499 -0.25416023 -0.23127723 -0.49523932 -0.17910685 -0.54253054 -0.05316928 0.0065113865
-0.27150932 -0.10169611 -0.12637927 -0.11055435 -0.14378537 -0.31618953 -0.25428087 0.09722926
-0.12241324 -0.22580636 -0.38434026 -0.13358629 0.19690116 -0.20986469 -0.031748835 -0.3815097
00000000: ccb5 553e 86c7 7c3e 9a84 82bd 9888 fbbd
00000010: 0e9e 643e bab7 84bd 9f4d d43e cefe 14be
00000020: 536d 243e d788 94bd a4ac 393e 1409 b5be
00000030: f813 1ebe 898e f13d 1349 723e 8031 bf3e
00000040: 78e4 653d 4a17 27be d409 b4bc 795a c73e
00000050: b4dc 34bd e7a6 c83e d71f 5cbb 1f01 e03e
00000060: a561 24bd f605 ab3e 05ba 7a3e 270a 9b3d
00000070: b24e 29be c3c5 183f d723 e1bc de95 49bd
00000080: 11ac 583d bd77 04bd c8b8 b33d a897 3ebe
00000090: 07a0 8dbe 948b 0f3d a798 87be 63d5 b4bd
000000a0: 178c bcbd 408e 90be bc96 b2be 1202 6abe
000000b0: b0f9 7ebe 4312 86be 5da9 04bd 02c6 65be
000000c0: e7db b5be 56d9 41be b4e5 67be 77f0 babe
000000d0: ecf2 86be 8c53 21be d3e6 88be a70d 65bd
000000e0: 82aa 33bd 86b1 79be 2a5f 45be 43b9 24bd
000000f0: 2bcf 00be 95ad 82be 9e58 63be 16aa 88be
00000100: d4b8 a33d a1e9 813c c50a 1abd c3bf eb3b
00000110: 0ab8 983c f4e0 5a3d 905c c53d 00f6 d63c
00000120: 4d45 64bd ef69 a13c d2b0 c93d 1587 46bc
00000130: ff51 163c a25b 2b3c 9aa4 643d 19b8 c2bd
00000140: a3c3 c13c 0dcc 603d f348 80bc 636a 6a3d
00000150: d3bc 58bd 45ff bfbd e2de 27bd b16a 0e3d
00000160: 9989 ae3d 8175 bb3d 6a1f 8d3d 59d2 a2bd
00000170: 8fd9 85bc da75 0abd 0e73 5abd 0d1f de3d
00000180: 3912 b7bd b70f ecbc 04d1 b3bd 3a81 743d
00000190: 31e0 98bd 4d00 bb3d 7f86 b0bd b4ae dabd
000001a0: a602 333d 162a 65bd b4fb 05be 9101 89bd
000001b0: 67ce db3d 2c3f 45bd 3bf6 07be 2c86 003e
000001c0: b6b9 a7bc 3e18 e7bd 4420 503b f7fe 85bd
000001d0: 589f 7e3d 5570 923d a735 c83d fc0a 27bd
000001e0: 5756 463d e0ab e6bd 599f 25bd 060c da3c
000001f0: e52c 9ebd 1e4c 913c 4198 08bc 4f77 04bd
00000200: dd12 cb3c 92e9 1dbd 6959 d43d a6e3 15be
00000210: f21d 423e b3e5 d6bd 4409 36be 9804 55bd
00000220: cb3a 053d 7c6e 053d 1047 1e3e 564b d3bc
00000230: 123e 81be 2e6f 82bd da4d dd3d 47df f0bc
00000240: 9e6c 843e 1c99 29bd dce4 20be d120 713d
00000250: 768b a2bc 6a07 413c 8772 803d 2de4 a53b
00000260: 8bae 03bd c61f f53d e8ee 413e ea59 8ebb
00000270: b6a2 31bd 13c3 9c3e e4fc 01be bae9 9c3d
00000280: 3892 c1bd 3af1 5dbd 6076 0dbe 92f7 3b3c
00000290: 6d6f c4be f6f8 b2bd a0a2 cfbe 0473 733d
000002a0: fb0d 2bbe f0c2 9fbe d943 89be 2750 893d
000002b0: e464 633d 409d 5dbe 619d dabd 035f 14bf
000002c0: 0948 b93d c02e 22be e0e1 acbd 0330 21bf
000002d0: 80bd a2be d4a8 23bf f2b3 843d 271a 53bd
000002e0: 65bc debc c0b0 52be 3ff9 92be a370 c3bc
000002f0: 807c c0be 1d53 41be 801d 90be da85 c6bd
00000300: 43fe b9be 9bb9 4ebe 8778 abbd 1418 89be
00000310: 5fc7 6b3e b251 6fbd d7f8 6abe 7067 4e3e
00000320: de6b 3b3d e2cd 08be d923 6abe 3c97 60be
00000330: 6627 473e 8da2 0abf 1bc9 22be 2756 11be
00000340: 7038 d1bc 3c52 683e 0627 85bd 1018 71bd
00000350: d862 d8ba c572 6bbe f3d1 1abd a957 02bf
00000360: bde8 9bbe 6036 9fbe 5804 b2be 5ae8 c4bd
00000370: 417b 103c 28bf 54bd ef52 07bf 66e0 0cbe
00000380: 5c72 b7be 9b70 2d3e 31e5 83bd ce6f 9ebe
00000390: f68a 3d3e 5b81 70be cc55 37be 7786 7b3b
000003a0: f15e 453e 4a21 82be f0d3 6cbe 0290 fdbe
000003b0: c967 37be 48e3 0abf 08c8 59bd 785d d53b
000003c0: 4503 8bbe 0d46 d0bd 9169 01be 526a e2bd
000003d0: 793c 13be 98e3 a1be 1a31 82be 2220 c73d
000003e0: cbb3 fabd c839 67be 3fc8 c4be d8ca 08be
000003f0: 75a0 493e c5e6 56be 110b 02bd 3d55 c3be

bias f4 [32]
0.41239774 -0.12137118 0.018931298 -0.013568168 -0.03959007 0.20383695 -0.09105546 -0.0012547899
-0.4098777 -0.014546405 0.030369494 0.040644575 0.16100053 -0.1026623 0.0014675275 -0.21203265
0.014024327 0.07159046 0.09615645 -0.024401903 -0.044329237 -0.07663034 -0.58813953 0.012360773
0.14653982 0.05167047 0.17752141 0.036261108 -0.23310101 0.055128258 -0.1523829 0.033343434
00000000: cc25 d33e 7491 f8bd cf15 9b3c 054d 5ebc
00000010: 3229 22bd a2ba 503e 497b babd c377 a4ba
00000020: 7ddb d1be 0b54 6ebc 72c9 f83c ed7a 263d
00000030: 53dd 243e 9d40 d2bd 0d5a c03a 161f 59be
00000040: 4ac6 653c 059e 923d aced c43d 80e6 c7bc
00000050: 9392 35bd 5ef0 9cbd 5090 16bf d784 4a3c
00000060: 890e 163e 6aa4 533d 2cc8 353e 8786 143d
00000070: 08b2 6ebe 2bce 613d 430a 1cbe 2093 083d

weight f4 [32, 32]
-0.054833014 -0.18940444 -0.17562854 -0.09723379 0.13725552 -0.102435134 0.20671605 0.050929792
-0.08873494 0.11171108 0.23476228 -0.15411179 -0.12887558 -0.13806708 0.08354023 0.098788366
0.13397124 -0.14706928 0.026243791 0.23811758 0.119924106 0.10839153 0.0540958 -0.21125929
-0.03653675 0.003163334 0.0022242814 -0.07580351 0.02929414 -0.23248337 -0.1260189 0.2556804
-0.09233491 0.008350416 -0.036221556 -0.09710474 -0.54314244 -0.11332982 -0.31466305 0.0495072
0.033590775 -0.08256213 -0.19863592 0.07563658 -0.019928232 0.0080721155 -0.093192674 -0.4809284
-0.08713404 -0.3362932 0.039765418 -0.604561 -0.0807887 -0.035765562 0.11176131 -0.18599558
-0.042888615 -0.08343757 -0.29960337 -0.08640403 -0.0041628564 0.24511363 -0.18606725 -0.035106502
-0.0587396 0.04509938 -0.4615012 -0.42389718 -0.20770352 -0.0013881264 0.0797212 -0.2487089
-0.24980038 -0.05663673 -0.04100594 -0.15088978 -0.19946794 -0.048278287 -0.32115093 -0.02525935
0.116940275 -0.53065926 -0.21429026 -0.048827123 -0.16885272 -0.0048332047 0.06652945 -0.16965152
-0.14830354 -0.12059003 0.10800188 -0.17877138 -0.40260684 -0.16843754 -0.76734686 0.02692447
0.17995307 0.13676278 0.036279507 0.27694055 0.02518823 -0.08407839 -0.23181768 0.0054441304
-0.105788134 0.024346279 -0.1315438 -0.016498296 0.12251541 -0.1209491 0.02084635 0.20500755
-0.13838361 0.14817059 0.02264438 0.042490106 -0.014127908 0.028405607 -0.04292355 0.19561227
0.01492351 0.09645349 0.13113667 0.015133003 0.029746981 -0.037749335 -0.013050973 0.022279873
-0.042117324 -0.047277328 0.15060508 -0.12583986 0.10081207 -0.052458324 -0.07370651 0.0904446
0.08324541 -0.10397416 -0.06834461 -0.073749065 -0.07872593 0.18215883 -0.020953937 -0.0030068478
-0.02011305 0.32057306 -0.3871116 -0.005917734 0.18796583 0.0048620566 -0.15103765 -0.12227608
-0.07283187 0.12975937 -0.1636223 -0.051963132 -0.13056555 0.11054151 0.039025262 -0.11057292
-0.013631664 -0.04675401 -0.079220325 -0.01872209 -0.014405027 -0.038808025 -0.029122848 2.8709159e-05
-0.029863635 0.0132095795 -0.011642445 -0.024291795 -0.022749724 -0.015935784 -0.042751797 -0.0011221973
-0.02787786 -0.080613926 -0.022326374 -0.047385033 -0.029800007 -0.004544914 -0.01786179 -0.060088847
-0.028020514 -0.02291568 -0.005959194 -0.043359715 -0.012070268 -0.057079215 -0.03089942 -0.02057069
0.036588073 0.23452872 -0.37465832 0.15207383 0.13981904 0.07448274 0.14363667 -0.008473964
-0.21699154 0.11023164 0.031348497 -0.44891438 0.03528703 -0.2697488 0.08438155 0.077209555
-0.17243987 -0.09205193 -0.07734783 0.20324627 -0.0063085016 0.09907012 0.08586796 0.35172775
0.044860344 -0.0031876033 0.18953648 0.06980581 -0.025440978 0.18583386 0.2776134 -0.05553115
0.124343134 0.066069074 0.027744949 -0.067508675 0.15545039 -0.06262217 0.18832429 -0.010980531
0.12844123 0.11670156 -0.004795703 -0.07877287 0.11355505 0.08432705 -0.050776377 0.06241208
0.02231482 0.06822919 0.025896778 0.10681261 0.117935635 0.02380835 0.010852585 -0.024944784
0.07046274 0.078703076 0.070157826 -0.020390496 -0.11075172 0.114482306 -0.07574044 0.031367816
00000000: 9598 60bd 3df3 41be f8d7 33be 8222 c7bd
00000010: b68c 0c3e 83c9 d1bd 5fad 533e c29b 503d
00000020: aaba b5bd c7c8 e43d 8665 703e 7bcf 1dbe
00000030: f6f7 03be 7561 0dbe 2417 ab3d 8e51 ca3d
00000040: c22f 093e 5499 16be 38fd d63c 18d5 733e
00000050: c59a f53d 61fc dd3d 8f93 5d3d 5b54 58be
00000060: 8fa7 15bd f04f 4f3b 40c5 113b df3e 9bbd
00000070: 44fa ef3c 1f10 6ebe 190b 01be 8be8 823e
00000080: 161a bdbd 2fd0 083c 0e5d 14bd dade c6bd
00000090: 620b 0bbf 7719 e8bd 841b a1be 10c8 4a3d
000000a0: 7b96 093d 5616 a9bd 3767 4bbe 5ae7 9a3d
000000b0: 8840 a3bc e840 043c cddb bebd 3f3c f6be
000000c0: 5573 b2bd 9f2e acbe 10e1 223d 82c4 1abf
000000d0: 8c74 a5bd e97e 12bd 1de3 e43d a075 3ebe
000000e0: f9ab 2fbd 51e1 aabd 9d65 99be 99f4 b0bd
000000f0: 9268 88bb 11ff 7a3e 6a88 3ebe d6cb 0fbd
00000100: ef98 70bd 21ba 383d e349 ecbe 0d09 d9be
00000110: 3bb0 54be cbf1 b5ba de44 a33d 8cad 7ebe
00000120: accb 7fbe eafb 67bd d8f5 27bd da82 1abe
00000130: 5341 4cbe 74bf 45bd e56d a4be b2ec cebc
00000140: 627e ef3d 49d9 07bf e86e 5bbe f3fe 47bd
00000150: bae7 2cbe dc5f 9ebb 9840 883d 21b9 2dbe
00000160: e2dc 17be e8f7 f6bd 1730 dd3d d80f 37be
00000170: 7c22 cebe e47a 2cbe d870 44bf b590 dc3c
00000180: 9e45 383e 8b0b 0c3e d299 143d 27cb 8d3e
00000190: 8c57 ce3c 4a31 acbd 9d61 6dbe ad64 b23b
000001a0: 73a7 d8bd d971 c73c 6bb3 06be 6f27 87bc
000001b0: 5ce9 fa3d 29b4 f7bd f7c5 aa3c 80ed 513e
000001c0: 6fb4 0dbe 08ba 173e b580 b93c 1b0a 2e3d
000001d0: be78 67bc e0b2 e83c 9bd0 2fbd 954e 483e
000001e0: bd81 743c 6889 c53d b148 063e 6af0 773c
000001f0: f1af f33c 0c9f 1abd c0d3 55bc 4884 b63c
00000200: 3783 2cbd dfa5 41bd 3838 1a3e 2adc 00be
00000210: 8f76 ce3d 8ade 56bd 70f3 96bd 053b b93d
00000220: 927c aa3d 68f0 d4bd 42f8 8bbd c009 97bd
00000230: 0f3b a1bd d887 3a3e 97a7 abbc 890e 45bb
00000240: 1fc4 a4bc 2722 a43e 7e33 c6be 8de9 c1bb
00000250: 1d7a 403e e351 9f3b 9da9 1abe e26b fabd
00000260: e028 95bd a4df 043e 9b8c 27be 4bd7 54bd
00000270: fab2 05be 9663 e23d f4d8 1f3d 0e74 e2bd
00000280: 5857 5fbc 2281 3fbd 443e a2bd 125f 99bc
00000290: 1003 6cbc 2af5 1ebd 0a93 eebc 73d4 f037
000002a0: 95a4 f4bc fe6c 583c f4bf 3ebc 96ff c6bc
000002b0: a15d babc c38b 82bc 821c 2fbd b116 93ba
000002c0: 1c60 e4bc ea18 a5bd cde5 b6bc cf16 42bd
000002d0: 251f f4bc 80ed 94bb e352 92bc b91f 76bd
000002e0: 478b e5bc aab9 bbbc 5845 c3bb f599 31bd
000002f0: 60c2 45bc e5cb 69bd c820 fdbc dd83 a8bc
00000300: 60dd 153d 4c28 703e 37d3 bfbe 3eb9 1b3e
00000310: b92c 0f3e 688a 983d 7e15 133e 62d6 0abc
00000320: 0833 5ebe 20c1 e13d 4867 003d 1bd8 e5be
00000330: 2289 103d 841c 8abe 3cd0 ac3d 0b20 9e3d
00000340: 1494 30be b985 bcbd 8a68 9ebd ca1f 503e
00000350: 8cb7 cebb 46e5 ca3d 8adb af3d a915 b43e
00000360: 7bbf 373d 1ce7 50bb da15 423e 59f6 8e3d
00000370: 9969 d0bc 3b4b 3e3e 5823 8e3e a274 63bd
00000380: 9da7 fe3d 394f 873d 6049 e33c fd41 8abd
00000390: 632e 1f3e 0d40 80bd 15d8 403e afe7 33bc
000003a0: 1986 033e 3a01 ef3d 4625 9dbb ac53 a1bd
000003b0: 8d8f e83d a9b3 ac3d e4fa 4fbd cfa3 7f3d
000003c0: 92cd b63c bfbb 8b3d 7b25 d43c 92c0 da3d
000003d0: 3d88 f13d bb09 c33c 0acf 313c 0159 ccbc
000003e0: c54e 903d 142f a13d e8ae 8f3d f809 a7bc
000003f0: ccd1 e2bd b375 ea3d ce1d 9bbd 8a7b 003d

bias f4 [32]
0.15973459 -0.07552021 0.35832116 0.17434503 0.018555783 -0.010895265 0.09142516 0.908848
-0.0018193849 -1.6645965e-08 0.04942068 -0.036648948 -0.015608519 -0.008684331 0.87692773 -0.10218898
0.96867734 -0.023929846 0.10796951 -0.0017856616 0.031804815 0.018223677 0.06544056 8.3540246e-18
0.02151813 0.118775286 0.05571856 0.23412286 0.042888727 0.116808295 -1.28484e-40 0.0023727901
00000000: 7791 233e 57aa 9abd df75 b73e 8187 323e
00000010: 4c02 983c 0e82 32bc 1d3d bb3d 43aa 683f
00000020: 6d78 eeba ddfc 8eb2 576d 4a3d 351d 16bd
00000030: e0ba 7fbc b948 0ebc 567e 603f 7548 d1bd
00000040: 3dfb 773f 8608 c4bc 1e1f dd3d dc0c eaba
00000050: c445 023d d249 953c b305 863d c41a 1a23
00000060: ca46 b03c 7540 f33d 2539 643d e7bd 6f3e
00000070: 17ac 2f3d 3039 ef3d 2966 0180 d080 1b3b

weight f4 [32, 32]
-0.10771984 -0.046393316 -0.09811721 -0.049036864 0.10642774 0.06783421 -0.55482626 -0.37248594
-0.121720925 0.08459856 -0.15080513 -0.104599714 -0.07812137 0.14964488 0.1279821 -0.09892668
0.15899484 0.27334955 -0.05972815 -0.009505432 -0.037166085 0.009361534 0.13118975 -0.25522858
-0.5349321 0.038553193 -0.44237196 -0.176036 0.026080651 0.066996105 -0.03046778 -0.0842711
-0.15822838 0.06387414 0.410185 -0.07730405 -0.061468076 -0.043465655 -0.21921873 0.067680486
-0.013448034 -0.07315133 -0.28871715 -0.27131817 -0.06422868 -0.31450287 -0.026290888 0.073470175
-0.103371084 -0.15634534 -0.20175406 -0.07577054 0.06824969 -0.04521571 0.11209952 -0.14807884
0.105522506 0.29170007 0.10875895 0.013687938 0.0030142064 -0.20887886 -0.33714947 -0.11885061
0.23246895 0.20507905 -0.085225925 -0.016823918 0.08277512 -0.45631725 0.02585162 0.024663117
0.039120246 0.011680969 0.0076587093 -0.15794548 0.16900697 0.22878088 0.2484462 0.1798381
-0.6289459 0.2622774 -0.22854835 -0.3691302 -0.24762192 -0.12767695 -0.6871543 -0.39916688
-0.6300043 -0.7344486 -0.069103695 0.68150765 -0.004913003 0.46292058 0.15735985 0.38933125
0.04112477 -0.045481883 -0.14959776 -0.017298121 -0.006497527 0.51561636 -0.16566259 -0.006003759
-0.13543844 -0.044233743 -0.12105217 -0.226564 -0.0039222133 0.09578363 0.022520682 -0.069789566
-0.03642097 0.3361226 -0.095265105 -0.057587925 0.122466184 0.05696 0.056392923 0.019259155
-0.30713242 0.2189502 -0.375079 -0.01210935 -0.10253465 -0.13869736 -0.24134277 0.10536551
0.1595435 -0.02443341 -0.12756374 -0.008247104 -0.03995999 -0.28793618 -0.018752841 -0.16739939
-0.3655527 -0.082470566 -0.025920836 -0.22188894 -0.06416603 0.14135076 -0.1562599 0.043526508
-0.143263 -0.15580784 -0.29903817 -0.057462875 -0.12749015 0.036595665 0.1444101 -0.01076267
-0.49379113 -0.07422957 -0.14330842 0.1352876 0.10281493 0.09858341 0.04315398 -0.11214661
-0.009149951 -0.0192279 -0.006625914 -0.028933452 -0.011028518 0.010202147 -0.022933008 -0.023931637
-0.016625045 0.0033611148 -0.010643958 -0.008715241 -0.020450724 0.0015502856 0.04970442 -0.018314138
-0.02160742 -0.013134951 -0.010931836 -0.046813942 -0.00911771 -0.056729537 -0.038626518 -0.014465614
-0.04651811 -0.0349672 -0.021302555 0.042084087 -0.020289568 0.03924131 0.006948962 0.05077298
-0.0011010112 0.102452524 -0.1031173 0.17637289 0.18852367 0.36508024 0.018224323 -0.14803624
-0.25632274 0.060617782 -0.21036534 -0.7122421 0.08810268 0.07834307 -0.03374025 -0.11157341
0.053836897 -0.22896844 -0.45769352 -0.19744779 -0.16054948 0.11548092 -0.40371495 -0.23811376
-0.31678328 0.06368132 0.10096577 0.368609 0.034461264 0.2859282 0.20951436 -0.019951664
0.2791622 0.048269298 0.49306607 -0.45612222 0.0058087897 0.7660689 -0.45591918 -0.43328387
0.04661664 -0.24869993 0.005210297 -0.101228856 0.545287 0.08719756 0.23272382 0.06941815
-0.121159084 0.24200155 0.19802982 -0.08565714 -0.060674395 -0.12256466 -0.055901717 -0.17143749
-0.4010823 0.48219532 -0.435165 0.17895414 0.073298484 0.1688877 0.15994324 0.52793384
00000000: 389c dcbd eb06 3ebd adf1 c8bd e1da 48bd
00000010: c9f6 d93d aaec 8a3d 1809 0ebf 7ab6 bebe
00000020: d248 f9bd 0342 ad3d a96c 1abe 6038 d6bd
00000030: 19fe 9fbd 823c 193e bd0d 033e 129a cabd
00000040: 8bcf 223e 79f4 8b3e 81a5 74bd acbc 1bbc
00000050: 773b 18bd 1f61 193c 9b56 063e 52ad 82be
00000060: 4ff1 08bf f4e9 1d3d 947e e2be c842 34be
00000070: 17a7 d53c 4135 893d 9197 f9bc 5496 acbd
00000080: 9f06 22be 72d0 823d c503 d23e 9651 9ebd
00000090: f3c5 7bbd 0b09 32bd e07a 60be 119c 8a3d
000000a0: 2555 5cbc 5dd0 95bd bcd2 93be 37ea 8abe
000000b0: 548a 83bd 8506 a1be fd5f d7bc 8877 963d
000000c0: 38b4 d3bd fe18 20be 9e98 4ebe 962d 9bbd
000000d0: 7ec6 8b3d 1c34 39bd 6f94 e53d fba1 17be
000000e0: 2f1c d83d b659 953e 03bd de3d 6043 603c
000000f0: fe89 453b 57e4 55be db9e acbe f367 f3bd
00000100: 570c 6e3e 3e00 523e ee8a aebd 50d2 89bc
00000110: 0186 a93d 6aa2 e9be c7c6 d33c 4e0a ca3c
00000120: 8d3c 203d 8961 3f3c e9f5 fa3b 76bc 21be
00000130: 2a10 2d3e 8945 6a3e ae68 7e3e 7b27 383e
00000140: 9902 21bf 3949 863e 9408 6abe a2fe bcbe
00000150: 9a90 7dbe bfbd 02be 58e9 2fbf 9a5f ccbe
00000160: f647 21bf d304 3cbf 3d86 8dbd 4977 2e3f
00000170: 42fd a0bb ed03 ed3e f122 213e 6d56 c73e
00000180: 7272 283d 364b 3abd 2830 19be cab4 8dbc
00000190: 35e9 d4bb 6fff 033f 74a3 29be 2ebb c4bb
000001a0: 60b0 0abe 712e 35bd 33ea f7bd 6500 68be
000001b0: e985 80bb 352a c43d 4b7d b83c d5ed 8ebd
000001c0: 282e 15bd 4318 ac3e 5a1a c3bd 51e1 6bbd
000001d0: 8dcf fa3d e44e 693d 44fc 663d 60c5 9d3c
000001e0: 7640 9dbe 7b34 603e 5b0a c0be 4c66 46bc
000001f0: b0fd d1bd ae06 0ebe 8f22 77be dfc9 d73d
00000200: 5f5f 233e 9328 c8bc 12a0 02be dc1e 07bc
00000210: 16ad 23bd 5f6c 93be 8f9f 99bc bf6a 2bbe
00000220: b929 bbbe 54e6 a8bd ef57 d4bc db36 63be
00000230: 7b69 83bd 41be 103e 9802 20be da48 323d
00000240: 89b3 12be 178c 1fbe 881b 99be 315e 6bbd
00000250: c78c 02be 56e5 153d 3ee0 133e e955 30bc
00000260: 31d2 fcbe ac05 98bd 71bf 12be d588 0a3e
00000270: a290 d23d 19e6 c93d 3ac2 303d 1fad e5bd
00000280: ade9 15bc d483 9dbc 321e d9bb d905 edbc
00000290: f5b0 34bc e826 273c 01de bbbc 480c c4bc
000002a0: 3f31 88bc 2646 5c3b ff63 2ebc 5fca 0ebc
000002b0: 4788 a7bc f432 cb3a dd96 4b3d 8807 96bc
000002c0: 0b02 b1bc fa33 57bc 721b 33bc fabf 3fbd
000002d0: 7362 15bc 3b5d 68bd d736 1ebd 2f01 6dbc
000002e0: c689 3ebd c439 0fbd b282 aebc 5d60 2c3d
000002f0: 4f36 a6bc 7fbb 203d 1eb4 e33b 54f7 4f3d
00000300: ce4f 90ba a1d2 d13d 2a2f d3bd 189b 343e
00000310: 590c 413e cceb ba3e 2d4b 953c d096 17be
00000320: bc3c 83be 5a4a 783d 036a 57be 8055 36bf
00000330: 2e6f b43d 5572 a03d 3733 0abd 9a80 e4bd
00000340: 1484 5c3d b476 6abe ce56 eabe c12f 4abe
00000350: 1567 24be 4381 ec3d bab3 cebe 18d4 73be
00000360: 6b31 a2be 5a6b 823d 24c7 ce3d 52ba bc3e
00000370: 4127 0d3d 2e65 923e ef8a 563e ac71 a3bc
00000380: 59ee 8e3e 07b6 453d 2873 fc3e da88 e9be
00000390: a957 be3b 171d 443f 3d6e e9be 62d7 ddbe
000003a0: 17f1 3e3d 32ab 7ebe 24bb aa3b 1351 cfbd
000003b0: ee97 0b3f a294 b23d 274f 6e3e 1a2b 8e3d
000003c0: 4122 f8bd 41cf 773e 54c8 4a3e 036d afbd
000003d0: b785 78bd 2e03 fbbd 33f9 64bd 4f8d 2fbe
000003e0: a95a cdbe 4ee2 f63e f2cd debe c13f 373e
000003f0: 841d 963d e6f0 2c3e 29c8 233e ac26 073f

bias f4 [32]
0.14524946 -0.07425747 0.36410022 0.1784924 0.0154892085 -0.010983185 0.08219652 1.020209
-0.0030529634 -1.4503515e-08 0.10635516 -0.037237804 -0.017901162 -0.009677302 0.9138178 -0.10224868
0.9255971 -0.024258586 0.103557676 -0.0022869308 0.030368065 0.016520903 0.063796096 3.459023e-18
0.019965695 0.10469829 0.055344176 0.22598462 0.041707534 0.11263744 1.42826e-40 0.0030955176
00000000: 46bc 143e 4d14 98bd 586b ba3e b6c6 363e
00000010: 73c6 7d3c d1f2 33bc a656 a83d 3596 823f
00000020: 3a14 48bb 222b 79b2 bcd0 d93d ab86 18bd
00000030: 75a5 92bc 8c8d 1ebc f7ef 693f c267 d1bd
00000040: eef3 6c3f f1b9 c6bc 0c16 d43d 55e0 15bb
00000050: 73c6 f83c d856 873c 87a7 823d 193b 7f22
00000060: 198f a33c 0f6c d63d 93b0 623d 8368 673e
00000070: 85d5 2a3d 75ae e63d 248e 0100 2bde 4a3b

weight f4 [32, 32]
-0.025459709 -0.19051622 -0.1303791 0.0013605856 -0.1282892 0.10540327 0.10196344 0.08479643
-0.35708195 0.007687256 -0.076691665 -0.5787994 0.11174942 -0.33313838 -0.04688079 -0.3303473
-0.01711127 -0.030875616 -0.36994156 0.04566409 -0.2924135 -0.03579552 -0.32491106 -0.0761775
0.019306937 0.19363 0.033988427 -0.0108337235 -0.38948914 0.046738427 -0.18494946 0.28182793
-0.107905544 -0.12041802 0.057372052 0.14573255 -0.016592804 0.015990363 0.20093326 -0.019190868
-0.18995163 0.16946895 -0.0010682578 0.05286196 -0.02600915 -0.23863082 0.1824504 -0.11986691
0.023071062 -0.020914098 -0.10212442 -0.027613617 -0.04655759 0.0027056441 -0.09758758 -0.15146008
-0.060868282 0.16044052 0.049831036 -0.01672807 -0.07948306 -0.019001186 -0.12365765 0.009375598
-0.047582626 -0.044495653 -0.012901603 -0.008583502 -0.0014721756 0.0041645155 -0.0154001275 -0.013606957
-0.036104955 4.2680927e-05 0.0070271613 0.023429265 -0.0011029242 -0.02935822 -0.02362478 -0.028165795
0.015893864 0.031288546 -0.038336117 0.030309577 0.00022360726 -0.026816975 -0.07698653 -0.035577822
0.007159131 -0.0062780706 0.017180068 -0.010239763 -0.034522764 -0.000819839 -0.0442624 -0.018039446
-0.012075595 -0.014844434 -0.08087336 -0.08484461 -0.07582933 -0.048667204 0.06974762 0.017844904
-0.1657793 0.1091777 0.24917263 -0.004514194 0.07833544 -0.11605813 -0.18075141 0.0010438445
0.017273359 0.1408286 0.09189603 0.010891923 -0.013771745 0.07660342 0.0020029407 -0.6397272
-0.028672975 0.024872828 0.07316407 -0.08082411 -0.07796526 -0.05534671 -0.0037447636 0.002875903
-0.12367762 -0.0816098 0.014341784 -0.038464136 -0.05116475 -0.04346028 -0.19922702 -0.15768695
0.03076864 0.04490471 -0.09139234 0.04715172 -0.014766339 -0.119843364 -0.028047593 -0.12472913
0.074988954 0.0003809797 -0.15382756 0.015854033 -0.02924161 -0.031373855 -0.017666664 -0.020955909
-0.0013189631 -0.00021303234 0.0074018287 0.014182831 -0.046485793 -0.019276248 -0.04575404 0.017597936
-0.33454028 -0.04560028 0.027908195 -0.0052123033 0.13805571 0.20629548 -0.09426638 0.042454835
-0.27479336 -0.018455904 0.035132974 -0.15269682 -0.017774228 -0.15615469 0.07927529 -0.040728908
-0.06882151 -0.042802677 -0.089884385 0.10502621 -0.1602768 -0.094164684 -0.22220817 -0.07855315
-0.107203655 -0.005834866 -0.083921835 -0.08376057 -0.10379671 0.07928369 -0.17599314 -0.010452643
-0.10924503 -0.16533285 -0.09555689 0.0032102787 -0.0034712853 -0.056442495 2.3585337e-05 0.014722696
-0.101909146 0.005434456 -0.0024754037 -0.045571785 -0.0007973338 -0.052096456 0.01117612 0.08333418
-0.028057825 0.021808488 -0.0052762185 -0.070152596 -0.00554355 0.007917408 -0.01669362 -0.008178344
-0.032580905 0.05272067 0.02261538 -0.034392316 -0.18059717 -0.0042246785 -0.13588996 0.0015460132
-0.053833455 -0.03645734 -6.988697e-05 0.012087273 -0.0013932845 -0.035645396 -0.0048387423 -0.0002606652
-0.05460126 -8.152284e-05 -0.0065296656 0.04510136 -0.0006831688 0.013408448 -0.02708727 -0.023352014
-0.008374005 0.032346018 -0.043600712 0.019186605 -0.014195087 -0.012370757 -0.049425226 0.010707088
-0.0021113344 -0.009660763 -0.0036210227 -0.00025134036 -0.053878054 -0.0062085525 -0.0421928 -0.003271389
00000000: e190 d0bc af16 43be 1982 05be ad55 b23a
00000010: 3e5e 03be abdd d73d 35d2 d03d c0a9 ad3d
00000020: 72d3 b6be 61e5 fb3b 8510 9dbd 332c 14bf
00000030: e1dc e43d 1d91 aabe 1206 40bd 4823 a9be
00000040: ef2c 8cbc dcee fcbc fb68 bdbe 450a 3b3d
00000050: 39b7 95be 539e 12bd be5a a6be f302 9cbd
00000060: 9529 9e3c f146 463e 7337 0b3d ee7f 31bc
00000070: 1f6b c7be cb70 3f3d 6463 3dbe c04b 903e
00000080: 95fd dcbd b99d f6bd f5fe 6a3d ea3a 153e
00000090: a2ed 87bc 39fe 823c 73c1 4d3e 2b36 9dbc
000000a0: ae82 42be 4589 2d3e c904 8cba c885 583d
000000b0: 2411 d5bc a35b 74be 47d4 3a3e c87c f5bd
000000c0: 86ff bc3c 0b54 abbc 9c26 d1bd f435 e2bc
000000d0: 2cb3 3ebd 2d51 313b ffdb c7bd 5a18 1bbe
000000e0: 0551 79bd 854a 243e a11b 4c3d 4e09 89bc
000000f0: 04c8 a2bd 60a8 9bbc 3940 fdbd 1c9c 193c
00000100: 00e6 42bd 1341 36bd 3f61 53bc d1a1 0cbc
00000110: 04f6 c0ba 7d76 883b d150 7cbc b7ef 5ebc
00000120: cae2 13bd 4c04 3338 1a44 e63b bbee bf3c
00000130: ff8f 90ba a680 f0bc c188 c1bc f4bb e6bc
00000140: d933 823c 6b28 003d 5506 1dbd ca4b f83c
00000150: 1e78 6a39 46af dbbc 1dab 9dbd 0dba 11bd
00000160: 2597 ea3b 46b8 cdbb 37bd 8c3c aec4 27bc
00000170: be67 0dbd 77ea 56ba 7e4c 35bd 76c7 93bc
00000180: b7d8 45bc 1236 73bc efa0 a5bd 03c3 adbd
00000190: 684c 9bbd 4357 47bd d7d7 8e3d 7a2f 923c
000001a0: 0cc2 29be 8f98 df3d 1c27 7f3e ceeb 93bb
000001b0: 556e a03d e3af edbd e616 39be 9cd1 883a
000001c0: dc80 8d3c 5f35 103e fc33 bc3d 0974 323c
000001d0: e3a2 61bc 41e2 9c3d c543 033b 29c5 23bf
000001e0: 96e3 eabc 1ac2 cb3c 0bd7 953d 1c87 a5bd
000001f0: 40ac 9fbd 3bb3 62bd b56a 75bb a579 3c3b
00000200: b14a fdbd 0a23 a7bd cdf9 6a3c 928c 1dbd
00000210: 2192 51bd 6803 32bd 2b02 4cbe b078 21be
00000220: 840e fc3c 00ee 373d e82b bbbd 2922 413d
00000230: 84ee 71bc 7070 f5bd 11c4 e5bc fc71 ffbd
00000240: cf93 993d 3bbe c739 f984 1dbe 51e0 813c
00000250: 1a8c efbc df81 00bd aeb9 90bc baab abbc
00000260: 0fe1 acba 6f61 5fb9 0a8b f23b 1b5f 683c
00000270: e367 3ebd 39e9 9dbc 9768 3bbd 8c29 903c
00000280: dd48 abbe 5cc7 3abd ba9f e43c f8cb aabb
00000290: 7a5e 0d3e 1f3f 533e bb0e c1bd 1fe5 2d3d
000002a0: b7b1 8cbe d630 97bc 98e7 0f3d 8e5c 1cbe
000002b0: 429b 91bc 04e7 1fbe 155b a23d 5bd3 26bd
000002c0: 4bf2 8cbd dc51 2fbd 4e15 b8bd fb17 d73d
000002d0: 9a1f 24be 6ad9 c0bd 8a8a 63be 79e0 a0bd
000002e0: 978d dbbd 6732 bfbb 36df abbd a98a abbd
000002f0: 5f93 d4bd 7d5f a23d 8c37 34be 9041 2bbc
00000300: dcbb dfbd 044d 29be 55b3 c3bd 8a63 523b
00000310: 817e 63bb 3f30 67bd 20d9 c537 7637 713c
00000320: beb5 d0bd 8513 b23b 623a 22bb 7ba9 3abd
00000330: 2a04 51ba 1863 55bd 0b1c 373c 1cab aa3d
00000340: 86d9 e5bc b7a7 b23c 21e4 acbb 2aac 8fbd
00000350: aba6 b5bb 04b8 013c 0fc1 88bc 76fe 05bc
00000360: 8e73 05bd a1f1 573d e443 b93c f5de 0cbd
00000370: 77ee 38be 2c6f 8abb bd26 0bbe 98a3 ca3a
00000380: 7880 5cbd 4b54 15bd 4890 92b8 b309 463c
00000390: df9e b6ba e800 12bd 508e 9ebb e4a9 88b9
000003a0: 92a5 5fbd 3ef7 aab8 cef6 d5bb 34bc 383d
000003b0: af16 33ba 1baf 5b3c 1fe6 ddbc b94c bfbc
000003c0: 1f33 09bc 427d 043d a996 32bd 3a2d 9d3c
000003d0: 8392 68bc b7ae 4abc 1b72 4abd c86c 2f3c
000003e0: 505e 0abb 2d48 1ebc ae4e 6dbb 55c6 83b9
000003f0: 3caf 5cbd 1d71 cbbb 5cd2 2cbd cd64 56bb

bias f4 [32]
1.0895175 -0.07651662 -0.021805894 0.26316407 -0.030372158 0.2110227 -0.004595092 -0.00077313744
-0.00062875927 0.045411605 -0.14035435 0.7110189 -0.0069561633 -0.0008265798 -0.0021453097 0.00078013533
1.0581837 0.0402562 0.035209805 0.20805733 -2.393557e-05 0.069329135 -0.03519333 -0.035017524
-0.010332368 -0.09848457 -0.036844317 0.019772377 -0.0029831363 -0.0004260505 1.5915884 -0.0025430059
00000000: 4f75 8b3f bfb4 9cbd 46a2 b2bc 71bd 863e
00000010: 08cf f8bc 5616 583e 6d92 96bb 60ac 4aba
00000020: 52d3 24ba 8501 3a3d 0db9 0fbe 5605 363f
00000030: 87f0 e3bb d5ae 58ba 5398 0cbb ff81 4c3a
00000040: 9072 873f afe3 243d 2838 103d fb0c 553e
00000050: 3fc9 c8b7 6ffc 8d3d e226 10bd 896e 0fbd
00000060: 1849 29bc 47b2 c9bd 11ea 16bd aef9 a13c
00000070: b980 43bb 885f dfb9 2bb9 cb3f 8fa8 26bb
