train_script/weights/GCNEdgeBased_model100/83.pth (torch, 46347 bytes, 17 tensors)

weight f4 [32, 13]
000000 57 6d 03 00 4d 50 09 80 c8 a2 0c 80 f0 2a 03 80
       3.1473e-40 -8.55326e-40 -1.160421e-39 -2.9091e-40
000010 0c 0f 0e 00 e1 72 10 80 00 d5 0c 80 3a 7a 0a 00
       1.291095e-39 -1.510579e-39 -1.178436e-39 9.62202e-40
000020 ba 24 03 00 41 cc 05 80 60 fe 05 00 50 9c 08 00
       2.88681e-40 -5.3245e-40 5.5043e-40 7.90758e-40
000030 87 2b 0b 80 71 67 03 80 6b a9 09 00 46 6b 04 80
       -1.025805e-39 -3.12614e-40 8.87295e-40 -4.05824e-40
000040 80 da 0e 00 5f f5 0b 80 7e e2 15 00 e1 05 0a 80
       1.36408e-39 -1.098213e-39 2.009796e-39 -9.20464e-40
000050 37 31 10 80 26 5e 02 80 96 9b 0f 80 49 d0 07 00
       -1.487023e-39 -2.17445e-40 -1.433346e-39 7.17567e-40
000060 7d 56 05 80 92 9c 0b 00 7a bd 0b 00 af 07 0e 00
       -4.90204e-40 1.066357e-39 1.078162e-39 1.288453e-39
000070 1d 21 0b 80 75 37 04 00 78 8e 03 00 f6 6a 0a 00
       -1.022069e-39 3.87236e-40 3.26615e-40 9.56725e-40
000080 bc c2 14 80 e3 07 14 00 3d c3 0e 00 95 10 0c 80
       -1.906567e-39 1.839539e-39 1.355735e-39 -1.107974e-39
000090 15 f7 0a 00 7f 6c 02 00 17 f0 06 00 d0 22 08 80
       1.006991e-39 2.22592e-40 6.37141e-40 -7.47172e-40
0000a0 4c 8a 0c 00 11 17 0e 80 46 04 02 80 16 13 01 80
       1.151638e-39 -1.293972e-39 -1.85204e-40 -9.8682e-41
0000b0 bd c9 10 80 51 24 04 00 7e 4d 02 80 b0 ed 00 80
       -1.541738e-39 3.8037e-40 -2.1147e-40 -8.5266e-41
0000c0 b8 e1 0f 80 b1 d2 09 80 63 7f 0c 80 a4 f1 0b 00
       -1.458505e-39 -9.02101e-40 -1.147724e-39 1.096875e-39
0000d0 d9 03 15 80 29 03 0c 80 1c 3d 11 80 f9 3c 0f 00
       -1.929926e-39 -1.10316e-39 -1.583125e-39 1.399405e-39
0000e0 8b c1 0d 00 91 18 08 80 de c7 0a 80 ce 20 07 00
       1.263292e-39 -7.43497e-40 -9.90054e-40 6.54617e-40
0000f0 7d fa 0e 80 f5 07 07 00 a3 46 10 00 7d dd 00 80
       -1.375555e-39 6.45703e-40 1.494708e-39 -7.9455e-41
000100 17 be 13 00 ba 4a 08 00 29 d0 0f 80 47 db 04 80
       1.813066e-39 7.61491e-40 -1.452206e-39 -4.46004e-40
000110 ac c9 09 80 9c 75 01 00 66 1d 0e 00 63 57 0f 80
       -8.98866e-40 1.34026e-40 1.296243e-39 -1.408881e-39
000120 8d 22 0e 80 71 d5 0a 80 d3 c4 09 00 e3 03 05 00
       -1.298091e-39 -9.94923e-40 8.97127e-40 4.60572e-40
000130 85 8f 10 80 15 41 06 80 f7 c7 10 00 47 03 06 80
       -1.520853e-39 -5.7436e-40 1.541102e-39 -5.52189e-40
000140 bd 81 0b 00 96 c0 08 00 2a f9 0c 00 a6 7b 02 80
       1.056732e-39 8.03771e-40 1.191409e-39 -2.28028e-40
000150 3f d3 07 00 d7 87 03 80 59 36 13 80 23 e9 0a 00
       7.18629e-40 -3.24237e-40 -1.76437e-39 1.001989e-39
000160 fa 78 01 00 00 9e 10 80 cf ee 0e 00 e1 bb 04 80
       1.35234e-40 -1.526048e-39 1.371365e-39 -4.3474e-40
000170 9a 0d 08 80 d2 c3 08 80 b5 85 0c 00 98 03 08 80
       -7.39563e-40 -8.04931e-40 1.149991e-39 -7.35973e-40
000180 ca 5d 08 80 dc 62 0a 80 67 1a 0d 80 4c 6d 00 00
       -7.68329e-40 -9.53819e-40 -1.203333e-39 3.9208e-41
000190 77 90 07 80 5e 43 00 00 f8 19 0d 00 5b 56 0f 00
       -6.94673e-40 2.4167e-41 1.203177e-39 1.408511e-39
0001a0 42 b4 11 00 be 67 04 00 a2 9b 06 80 e5 ef 0c 80
       1.625868e-39 4.04558e-40 -6.06844e-40 -1.188084e-39
0001b0 36 93 02 00 7f 0f 0b 80 e4 0c 10 00 77 f4 15 80
       2.3648e-40 -1.01575e-39 1.473992e-39 -2.016243e-39
0001c0 85 4e 0c 00 08 71 07 00 6b 41 06 00 d9 df 10 80
       1.130193e-39 6.83396e-40 5.7448e-40 -1.54967e-39
0001d0 3e f7 0c 80 75 b9 10 00 53 ed 09 00 1d a1 07 00
       -1.19072e-39 1.535897e-39 9.11655e-40 7.00645e-40
0001e0 6a 85 09 00 74 4f 02 80 f7 ac 0c 00 18 d9 02 00
       8.7438e-40 -2.12173e-40 1.164074e-39 2.6155e-40
0001f0 aa 8f 0d 80 6f 6f 07 80 6d e5 06 80 99 b2 03 00
       -1.245398e-39 -6.82823e-40 -6.33315e-40 3.39575e-40
000200 5f 81 0c 80 6b ac 12 00 32 db 00 00 fb 5c 0c 00
       -1.148436e-39 1.714891e-39 7.8632e-41 1.135381e-39
000210 c2 c4 04 80 50 8a 07 00 45 22 09 80 81 99 07 00
       -4.37925e-40 6.92466e-40 -8.38813e-40 6.97915e-40
000220 0c b0 13 00 29 93 09 80 c2 60 0e 80 ae 8b 0b 80
       1.808028e-39 -8.7931e-40 -1.320407e-39 -1.060298e-39
000230 c2 00 0b 00 a1 fe 04 00 7a b5 0b 00 e5 c1 0d 00
       1.010462e-39 4.58686e-40 1.075292e-39 1.263418e-39
000240 29 41 0e 80 db 9a 0b 80 d1 8f 05 00 8b 90 0b 00
       -1.309072e-39 -1.065742e-39 5.10769e-40 1.062043e-39
000250 7f 83 11 80 3a 2e 06 00 1b f3 06 80 b1 ab 03 80
       -1.608375e-39 5.67596e-40 -6.38223e-40 -3.37098e-40
000260 a2 ad 00 80 85 2b 09 00 a7 9e 0d 80 c2 61 01 00
       -6.2288e-41 8.42131e-40 -1.250775e-39 1.26904e-40
000270 6c 93 0a 80 77 00 05 00 72 9d 0a 00 2d 7f 04 80
       -9.7124e-40 4.59344e-40 9.74836e-40 -4.12964e-40
000280 b8 90 00 80 2c 7e 00 80 02 7a 10 80 41 6f 09 80
       -5.1915e-41 -4.5262e-41 -1.513136e-39 -8.6643e-40
000290 41 77 09 00 c4 0e 0a 80 13 9c 00 00 c9 87 0f 80
       8.693e-40 -9.23652e-40 5.5989e-41 -1.426243e-39
0002a0 5a e8 0b 00 39 e9 07 00 99 97 0a 00 92 c9 10 00
       1.093542e-39 7.26513e-40 9.72738e-40 1.541678e-39
0002b0 8c fa 07 80 69 22 05 00 50 cb 15 00 df f8 0e 00
       -7.32728e-40 4.71522e-40 2.00148e-39 1.374975e-39
0002c0 5a d8 0b 00 61 87 00 00 2c 01 06 80 f9 f1 09 00
       1.087803e-39 4.8565e-41 -5.51433e-40 9.13323e-40
0002d0 74 35 15 00 92 a4 0e 80 e3 4d 00 00 68 dd 06 00
       1.947721e-39 -1.344734e-39 2.794e-41 6.30439e-40
0002e0 96 05 01 00 00 a5 00 00 76 93 07 80 93 99 03 00
       9.384e-41 5.9191e-41 -6.95747e-40 3.30599e-40
0002f0 ec 0a 10 00 fa f7 02 80 43 4a 05 00 6c b1 11 80
       1.473286e-39 -2.72628e-40 4.85818e-40 -1.62485e-39
000300 bb cd 01 00 8f 60 10 00 ec 72 0f 00 17 c3 02 00
       1.65638e-40 1.504007e-39 1.418759e-39 2.53656e-40
000310 3f 93 02 00 c8 db 05 80 d1 13 0f 00 a6 f0 02 80
       2.36493e-40 -5.3802e-40 1.384641e-39 -2.7e-40
000320 3d 55 06 80 1d f0 00 80 f1 59 0a 80 15 e6 08 00
       -5.81591e-40 -8.6136e-41 -9.5062e-40 8.17222e-40
000330 32 13 0b 80 96 70 04 80 b5 23 0c 00 1a 3b 10 00
       -1.017076e-39 -4.0773e-40 1.114835e-39 1.49057e-39
000340 5a 99 0b 80 c5 df 0c 80 07 9e 00 80 f4 b8 01 00
       -1.065203e-39 -1.1823e-39 -5.669e-41 1.58184e-40
000350 e6 5f 14 80 e6 cd 01 80 e3 96 03 00 28 c7 08 00
       -1.871112e-39 -1.65698e-40 3.29634e-40 8.06128e-40
000360 9f 4a 0d 80 83 18 0e 00 1b 47 14 80 cf 8d 13 80
       -1.22063e-39 1.29449e-39 -1.862218e-39 -1.795746e-39
000370 07 25 14 00 b9 15 05 00 83 97 05 80 2a 41 10 00
       1.849993e-39 4.6697e-40 -5.1353e-40 1.492744e-39
000380 2b a2 0c 00 ca 49 0a 80 45 b4 14 80 4d 38 09 00
       1.160201e-39 -9.44825e-40 -1.901378e-39 8.46716e-40
000390 46 2f 0d 80 92 ae 11 00 3b 63 08 80 7e f7 03 00
       -1.21082e-39 1.623827e-39 -7.70281e-40 3.6429e-40
0003a0 81 23 0e 80 e7 7e 07 00 2c c6 09 00 0f 85 01 00
       -1.298433e-39 6.88372e-40 8.9761e-40 1.39568e-40
0003b0 e1 90 0c 80 b4 b3 0c 80 ce b3 0a 80 63 04 08 00
       -1.153999e-39 -1.166491e-39 -9.82857e-40 7.36258e-40
0003c0 a1 00 0c 00 78 0d 06 00 38 61 10 80 40 45 0a 00
       1.102252e-39 5.55845e-40 -1.504243e-39 9.43197e-40
0003d0 fa 70 04 00 2a f4 03 00 19 44 0c 80 95 5a 02 80
       4.0787e-40 3.63096e-40 -1.126455e-39 -2.16166e-40
0003e0 8a a7 06 00 46 51 07 80 9f 64 05 80 23 61 03 80
       6.11115e-40 -6.72004e-40 -4.95274e-40 -3.10353e-40
0003f0 a7 94 08 00 aa 67 08 80 86 38 01 00 71 46 04 00
       7.8801e-40 -7.71872e-40 1.12112e-40 3.92612e-40

bias f4 [32]
000000 f6 9b 8e bd 1f 08 ff bc 5f e9 08 3e 7d e0 90 be
       -0.06963341 -0.031131802 0.13370274 -0.2829627
000010 25 23 fd bd 76 e8 3d bd 61 a5 7d 3d 06 5c 8b bd
       -0.12360219 -0.04636427 0.061925296 -0.068046615
000020 24 11 a2 be 58 c5 30 3c ae 01 ab 3b b7 8a 1c be
       -0.31653702 0.010789238 0.005218706 -0.1528729
000030 de 69 50 3d b5 9f 61 be ae 33 93 be 9a c4 d9 bd
       0.050882213 -0.2203358 -0.28750366 -0.10633202
000040 8a 50 85 3c a7 d4 08 3e 38 b3 ae be 45 27 05 3e
       0.016273756 0.1336237 -0.34121108 0.13003261
000050 8c cd 8d be a0 7c a5 bd 12 9d 50 be 63 be 91 be
       -0.27695882 -0.08080411 -0.20372418 -0.28465566
000060 e5 59 91 3d 4c 97 5b bd 1b 33 83 be f4 de 50 bb
       0.07097224 -0.053611085 -0.25624928 -0.0031871172
000070 22 48 9c bd c6 75 6e be fe 35 ae be 27 60 83 3e
       -0.07630946 -0.23287115 -0.34025568 0.25659296

weight f4 [32, 13]
000000 4f be 1b 3e c4 94 22 3e 65 74 bd be 66 44 09 be
       0.15209316 0.15877062 -0.37002864 -0.13404998
000010 bb 6a f1 bd 40 d0 01 bf 58 1f 68 be a8 99 f9 3d
       -0.11787935 -0.5070839 -0.22668207 0.12187511
000020 d6 fc 17 3f 27 f0 a1 3d dd 06 4b bd a3 98 bf bc
       0.5937017 0.079071335 -0.049567092 -0.023388213
000030 1b 4a aa 3e 57 b6 1b bf 23 41 11 3f 40 0b 08 3f
       0.33259663 -0.60825104 0.56740016 0.53142166
000040 09 30 04 be c7 12 05 3e 00 f1 b6 3e 2a 89 63 bd
       -0.12908949 0.12995444 0.35730743 -0.05555073
000050 ab 00 3e 3b aa b7 0e be 4c 4c 41 3d 0a 1d ad be
       0.0028992097 -0.1393725 0.047191903 -0.33811218
000060 d8 40 98 bc 21 f0 da 3d 7d 46 68 be ac aa 0b 3e
       -0.018585607 0.10690332 -0.22683139 0.13639325
000070 d9 30 29 bd 6d 55 48 bd 2b 34 a0 bf 8c 09 85 3b
       -0.04130635 -0.048909593 -1.251592 0.004059976
000080 29 c5 66 3d ac 99 f4 bc 3a bf 33 3e 14 cd d2 bd
       0.05634037 -0.029858433 0.17553416 -0.10293022
000090 cd 80 05 3d 2d 42 a0 3c 41 9d a9 3f a1 20 d0 be
       0.032593537 0.019562805 1.3251115 -0.40649894
0000a0 22 a5 d9 3e 64 76 63 3d 5e a6 06 3e 1d 13 00 3e
       0.425088 0.055532828 0.13149402 0.12507291
0000b0 90 83 a5 be 85 ff 0c 3e e6 06 9c bb 34 43 18 3f
       -0.32326937 0.13769348 -0.0047615645 0.59477544
0000c0 bd 6d 1e be 7e 31 d6 3e 53 b7 86 be f4 71 1f be
       -0.1547155 0.41834635 -0.2631174 -0.15570813
0000d0 63 b1 d3 be 86 44 1d bf c1 b9 cf be bc 53 96 3e
       -0.41346273 -0.61432683 -0.40571406 0.2936076
0000e0 60 64 53 be 44 23 3e 3e 87 58 81 be 83 7a b4 3b
       -0.20643759 0.1856814 -0.25262854 0.0055077686
0000f0 4c fd 51 be f0 ee 87 3d 6b 84 93 bd 2f e9 85 3c
       -0.20506781 0.066373706 -0.07202991 0.016346542
000100 e5 06 6c 3f 84 c6 db 3e 23 48 5c bf 4f c7 83 be
       0.9219802 0.42924893 -0.8604757 -0.25737998
000110 c1 06 85 be 63 fd fa 3d e2 84 3b be 79 47 30 3c
       -0.25981715 0.12255361 -0.1831241 0.010759228
000120 cc 41 21 3d cb b5 b0 bd 66 a5 10 3e 37 48 41 3d
       0.03936939 -0.08628424 0.14125594 0.04718801
000130 d0 4b 73 3c 94 48 7c be 31 c7 1d bf d5 37 86 3f
       0.014849618 -0.24637061 -0.61632067 1.0485789
000140 a8 b9 97 bd 08 cc a5 3c 8e f1 fd 3e 19 d9 c6 3d
       -0.07408458 0.020238891 0.49598354 0.09709377
000150 4b 98 66 3c 94 50 a4 bc c0 25 8d 3d 49 06 63 be
       0.014074395 -0.020057954 0.06891966 -0.22170366
000160 94 a7 33 bd 79 6f 21 3d 35 7b 50 bd a4 53 c4 be
       -0.043860987 0.03941295 -0.05089875 -0.38345063
000170 68 11 b3 3e 65 ba e0 bc 27 1f a3 be 69 e8 9f bd
       0.34974217 -0.02743263 -0.31859705 -0.078080006
000180 c6 29 fe 3d 83 4e 7a 3e cb 0d 3a 3d c7 0d 14 be
       0.124103114 0.24444012 0.04542331 -0.1445838
000190 27 23 85 3e 78 91 97 b9 d1 30 94 bc 7d 68 7a 3f
       0.26003382 -0.00028909347 -0.018089684 0.97815686
0001a0 bf 32 0c bf 36 74 93 bd 3b 8c e0 3e 9c 0b 02 bf
       -0.5476493 -0.071999 0.43856987 -0.50798965
0001b0 9f e5 9a 3d 77 e9 03 be f2 1d 85 bd 65 4c ca be
       0.07563328 -0.12882029 -0.06499852 -0.3951141
0001c0 47 e9 ee be d1 29 2e be c1 d7 d0 bd da 6c a0 bc
       -0.4666235 -0.17008139 -0.10197402 -0.019583154
0001d0 c0 4b 6d 3e 47 c3 af 3e e0 d1 38 be fb 55 88 be
       0.23173428 0.34328672 -0.18048811 -0.26628098
0001e0 1a 2d ff 3d 3a 3a eb be f1 1d 8f be 43 fb f6 bc
       0.12459774 -0.4594286 -0.2795253 -0.030149108
0001f0 2f 23 92 3e bc d5 0b be 05 71 c3 3c 11 7c dd bd
       0.28542468 -0.13655752 0.023857603 -0.108146794
000200 1c a2 6a 3b 75 15 c7 bf d8 4d e7 be 61 9b 4b 3f
       0.003580219 -1.5553423 -0.45176578 0.79533964
000210 59 7c 8f 3f 30 72 87 be 1f ff 24 3f 60 46 bd 3d
       1.1209823 -0.26454306 0.64451784 0.092419386
000220 31 86 9b 3d 99 61 a8 3b e6 73 77 bd ab d7 23 bd
       0.07593954 0.0051385877 -0.060413264 -0.0400006
000230 cb 45 83 bc 1d 52 28 3d 0a b3 82 bd be 76 78 be
       -0.01602449 0.041093934 -0.06381805 -0.24264047
000240 b1 3c e3 3b af a3 23 3f 2d d8 96 be 2e 0c 16 3e
       0.006934725 0.63921636 -0.29461804 0.14653084
000250 bb 27 db 3d b4 17 7b bd 08 04 b2 3e 2f a9 0c bd
       0.10700937 -0.061301902 0.347687 -0.034341034
000260 4e f4 a2 bd 5b 74 a5 3d 79 3f 8f be 68 cf 4b 3e
       -0.07956754 0.08078834 -0.27978113 0.19903338
000270 97 38 7e 3f bb 14 f4 be fc 74 1b be 2c dd b9 be
       0.993051 -0.47672066 -0.15181345 -0.36301553
000280 53 13 fe be 75 d5 54 be a2 ed 81 bc 6d 99 e3 bc
       -0.49624118 -0.20784552 -0.015860382 -0.02778312
000290 c3 74 a5 3c e3 f7 99 bc f2 1a bf 3d fd 2f a9 3c
       0.020197278 -0.01879496 0.09331311 0.020652765
0002a0 58 8c b5 3b 6d 6e af be 68 d7 43 bf f2 85 80 be
       0.005540412 -0.34263936 -0.7650056 -0.25102192
0002b0 2d e1 96 be 28 d6 bc be c5 22 87 bd a4 1f 4d be
       -0.2946867 -0.36882138 -0.06598429 -0.20031601
0002c0 4c e1 83 be 78 47 3c bc 17 49 51 3c e9 aa de bd
       -0.25757825 -0.011491649 0.012773774 -0.10872442
0002d0 09 01 f3 3c a9 19 11 bf 8c 5a 4c be 1f 85 31 3f
       0.02966358 -0.5667978 -0.19956416 0.6934375
0002e0 f3 c5 d2 3d 72 1b 55 be a4 47 ac 3e 1c 04 37 bf
       0.10291662 -0.20811251 0.33648407 -0.71490645
0002f0 37 a5 84 bb cc 34 46 bc 29 5e 53 bf 03 bc 3f 3e
       -0.0040480155 -0.012097549 -0.8256555 0.18724065
000300 7f a5 c2 3d 5b fe 32 bd aa 2b 7f bd d5 a2 56 3d
       0.09504222 -0.043699604 -0.0622975 0.052401382
000310 94 41 2a bf 83 52 4e 3e a0 ad a5 3e 40 1e 3f be
       -0.66506314 0.20148663 0.32359028 -0.18663883
000320 d8 8c bd be 0b c9 87 be c0 99 24 3f ed 26 71 3e
       -0.37021518 -0.2652057 0.64297104 0.23550005
000330 2a e6 19 be 6e 02 56 bd cc 61 e6 3c ee e5 28 3e
       -0.15029207 -0.05224841 0.028122805 0.16493961
000340 06 48 01 bf ba bf 01 3f 4e 4a 59 3e 09 7b 8c be
       -0.50500524 0.50683177 0.21219751 -0.27437618
000350 13 56 c3 be e2 4b a4 be 82 28 3e be 08 57 76 bd
       -0.38151607 -0.32089144 -0.1857014 -0.060141593
000360 43 e2 f4 3d 76 d0 6a 3e 7b 7f df 3b 4e 81 d6 bc
       0.119572185 0.22931084 0.006820617 -0.026184704
000370 5d fe 46 bf 53 16 53 3f 80 75 6f bf b7 91 83 bd
       -0.7773188 0.8245594 -0.93538666 -0.06424277
000380 c6 fe ab 3e 0b 9e 01 bd 59 c2 1b 3e a4 c8 a5 bd
       0.33592814 -0.031644862 0.15210856 -0.0809491
000390 05 42 05 bd e0 e6 67 3d 15 ad 8b 3d 5b 72 07 be
       -0.032533664 0.056616664 0.06820122 -0.13227217
0003a0 b8 cd af 3c 6e e4 ef 3c 47 cc f7 be 37 f2 54 3f
       0.021460399 0.029283728 -0.4839804 0.8318209
0003b0 b8 db a6 be 02 0e c3 3d 65 90 46 be 91 5a 1f bf
       -0.32589507 0.09524156 -0.1939102 -0.6224757
0003c0 71 6b 59 3b a3 61 cb 3d f3 c3 a9 3e 16 ef 70 be
       0.0033175612 0.09930732 0.3315731 -0.23528704
0003d0 75 1c a6 be 7b 0a 20 3d c5 97 77 3e b7 d3 52 be
       -0.32443586 0.039072495 0.24178989 -0.20588575
0003e0 c8 5f 48 3e 1f 53 9d bc bc 16 2a bf 91 c4 9f 3f
       0.19567788 -0.019204674 -0.6644094 1.2481862
0003f0 ba 32 20 be 6c 54 8e bd 8d 43 92 bd 0b 90 c1 bc
       -0.1564435 -0.06949696 -0.071417905 -0.023628255

bias f4 [32]
000000 02 b0 02 be 1e 85 13 be e7 37 90 be 30 5e 1b be
       -0.12762454 -0.14406249 -0.2816765 -0.15172648
000010 8e ae 1d be e8 c8 7e 3b 71 2a 16 be 8d 60 75 bd
       -0.15398619 0.0038877074 -0.14664628 -0.05990653
000020 3e c2 92 3d 44 71 29 be 57 66 0d bb c2 c7 22 bc
       0.07165955 -0.16547114 -0.0021575892 -0.009935321
000030 ce 9c 56 bc e9 77 ea bd 2b 7b f2 bd ea 20 41 be
       -0.013098909 -0.11448652 -0.11839899 -0.18860212
000040 42 a3 38 be cb 7c 0a be ee 30 61 bc fd 5f 97 be
       -0.18031028 -0.13524167 -0.013744576 -0.2956542
000050 bb 45 bc 3c 0b f3 48 bd 25 9d 6f bb 9f 8e d3 b9
       0.022982469 -0.04905991 -0.0036562171 -0.00040351317
000060 48 0b 28 be de 0d a5 be 0c fb 5d bd 55 9b 04 be
       -0.16410553 -0.32237142 -0.054194495 -0.1294988
000070 46 bf d1 be a6 79 02 3e c6 45 1a bd 08 18 1e be
       -0.40966243 0.12741718 -0.037664197 -0.15438855

weight f4 [32, 13]
000000 8f fa 33 3e 47 86 89 3d 26 a9 a1 bd 42 55 ae 3d
       0.1757605 0.067150645 -0.07893591 0.085123554
000010 7b d4 57 bd 83 bc 06 3d 4e 96 d2 bd 48 d1 a4 3d
       -0.05269287 0.032894623 -0.102825746 0.0804773
000020 42 55 92 3d 71 d4 a1 3e dc d1 41 bd dc 38 87 3e
       0.07145168 0.31607392 -0.047319278 0.26410568
000030 65 05 71 3e ad be c7 bf 64 75 f3 be 4e b7 b1 bd
       0.23537214 -1.5605065 -0.475505 -0.08677541
000040 a6 7d 0b bd 29 be ef be f9 27 fe bd c0 8a b0 bc
       -0.034055375 -0.46824768 -0.12409968 -0.021550536
000050 be da 96 bc 52 3f 8b 3c 1c 89 2b 3b 8f 49 2b 3c
       -0.018414851 0.016997967 0.0026174253 0.010454549
000060 ac ab b2 3a 51 59 da 3c 1c 39 49 3e 8d 3e 16 bf
       0.0013631484 0.026653918 0.19650692 -0.58689195
000070 49 e0 10 be 39 fd bf 3e 08 79 35 3f 6a aa 1f be
       -0.14148058 0.3749788 0.70887804 -0.15592352
000080 31 79 47 3e 29 1a 92 3e 3f c1 0c bd f8 2d 22 3e
       0.19479825 0.28535584 -0.03436398 0.15837848
000090 49 df bc 3c 2a 69 2e bd b4 7d ee 3f f8 37 2f bd
       0.02305569 -0.04258076 1.8632112 -0.042777985
0000a0 49 26 92 be 1c 81 d9 3c ca a6 62 3f 03 17 6d 3f
       -0.28544834 0.026550822 0.8853575 0.9261324
0000b0 e2 85 0f be 43 7e 19 3e a4 37 47 3b 4e 82 5c bd
       -0.14015916 0.14989571 0.0030398155 -0.053835206
0000c0 13 15 9e bc c1 95 16 3d a8 4c 8b 3d 56 40 dd bf
       -0.019297158 0.03676391 0.068017304 -1.7285259
0000d0 94 71 45 3e 80 ef 7e 3f 81 9b b8 3e 9a ac aa 3f
       0.19281608 0.995842 0.3605614 1.3333924
0000e0 cd 42 bc be 47 83 1c 3e 88 93 52 bd ad 0d 1f be
       -0.36769715 0.15284453 -0.051410228 -0.1553256
0000f0 40 41 ba bd f6 3a 9b bd 68 96 65 3d 65 33 86 bc
       -0.09094477 -0.07579605 0.05605164 -0.016381929
000100 8c c3 01 3f 40 5a 64 3d 58 8e 47 bd 9f 64 46 3b
       0.50689006 0.05575013 -0.048719734 0.0030272377
000110 11 af 63 be 56 af d5 3d bd b4 9f 3d 8b 2e 1d 3d
       -0.22234751 0.10433833 0.07798145 0.038374465
000120 8d da df 3d e3 8d a7 3e 8e e6 2a ba cd 1e 02 3c
       0.10930357 0.32725438 -0.00065193407 0.007941914
000130 be 0b e2 bb 44 98 c1 3e 63 aa 5c bf 9b 62 8c 3f
       -0.0068983724 0.37811482 -0.8619749 1.0967592
000140 8c e9 29 be 15 f2 b4 3d e0 1b ba bd c3 d6 6c 3e
       -0.16592997 0.08835236 -0.09087348 0.231288
000150 80 28 17 3c e9 c2 20 3d e8 a2 e3 3c 1f e4 e2 bc
       0.009225965 0.03924838 0.02778764 -0.027696667
000160 77 64 04 3b ec 3b da bc 4c 83 6f 3e 5d 0e a0 bc
       0.0020201483 -0.026639901 0.2338993 -0.019538099
000170 59 be 55 3d 0a 0e 83 be 17 b6 25 be c1 30 42 3e
       0.052183483 -0.25596648 -0.16182743 0.1896391
000180 0c f7 07 bd d1 f9 e9 3e cb 3e 99 be e1 89 31 3d
       -0.033194587 0.45698407 -0.2993072 0.043344382
000190 d2 ac 8b 3c 35 a0 83 3b 9f db 10 bd 7e 37 a4 bd
       0.01705018 0.004016901 -0.035365697 -0.08018397
0001a0 a5 5b 59 3e f2 2f cd 3e 54 80 15 3e ff 90 14 3f
       0.21226366 0.40075642 0.14599735 0.58033746
0001b0 32 02 9c bc 71 b7 82 3e 3b 7c 41 be dd 6c 82 3e
       -0.019044016 0.2553058 -0.18895046 0.2547368
0001c0 cd 33 6f 3e 2c 1a 6c 3e c1 ab 1b bd ac 9a 2f bd
       0.23359604 0.23056859 -0.038005594 -0.042872116
0001d0 54 8b b8 be ad 3c 6a 3e d2 7c a5 bd a4 9f 93 3e
       -0.360438 0.22874708 -0.08080448 0.28832734
0001e0 49 43 19 bd 13 1c 15 be ae 8e 33 be a4 4e f0 bd
       -0.037417684 -0.1456149 -0.17534897 -0.117337495
0001f0 a6 02 dc 3e a2 87 4a 3d 66 98 9f bd fa 1c fd bc
       0.4297077 0.049445756 -0.077927396 -0.030897606
000200 4b 8f 8d 3d 25 13 23 bd 2d 73 4b 3f 94 3f 9a 3e
       0.069120966 -0.03981318 0.7947262 0.3012663
000210 95 59 4b 3f e8 88 08 bf 7c e4 23 3f 97 16 25 3e
       0.79433566 -0.533339 0.64020514 0.16121899
000220 f5 47 16 be 28 8f 2e bd a7 02 81 be 08 ac 51 3d
       -0.14675887 -0.042616993 -0.25197336 0.051189452
000230 2f e9 87 3d dc f5 d4 bc 96 30 94 be ff 29 c7 3e
       0.06636273 -0.025996141 -0.28943318 0.38899228
000240 61 f0 5a bf dc ea f8 3e ce 7e 1c 3f 7d e5 83 3d
       -0.8552304 0.48616683 0.6113099 0.06440256
000250 8d 68 48 be 7d c9 8d be 2b 85 ff 3d a7 2f 1b bf
       -0.19571133 -0.27692786 0.12476572 -0.60619587
000260 43 89 10 bd 4b 47 b7 bc 3f c8 aa 3c 65 44 8c bf
       -0.035287153 -0.022372862 0.020847438 -1.0958372
000270 93 c3 a5 bf 17 31 74 be df 55 c1 bd 1d fc ec bd
       -1.295031 -0.23846851 -0.09440207 -0.11571524
000280 eb 3c 09 bf 88 2f a1 be 08 a2 63 3c 48 87 79 bb
       -0.5360858 -0.31481576 0.013893612 -0.0038075019
000290 8c 86 b0 3b 32 f2 10 bc 57 60 9a 3c e6 c4 6d 3c
       0.005387133 -0.008846806 0.018844767 0.014512276
0002a0 8f 70 a8 bd 9e 85 08 3f 0a 67 ea 3f fe 61 7b bf
       -0.08224594 0.53328884 1.8312695 -0.981964
0002b0 0e cc c0 bf ed f7 97 3e ce d7 01 3d 9d fa 79 bd
       -1.5062273 0.2968134 0.031699948 -0.06103002
0002c0 fc 3d 96 3c 98 b6 b6 3b 14 66 12 bd 36 f9 14 bc
       0.018340103 0.005575966 -0.03574188 -0.00909262
0002d0 63 db 14 bc 30 ad 9b 3e 5b 7d b8 bd f2 a8 28 bf
       -0.009085509 0.3040557 -0.09008285 -0.6588279
0002e0 cc c4 67 3d 97 bb a5 3f 2f 0d 88 bb 00 ee 48 3d
       0.056584165 1.2947873 -0.004151962 0.0490551
0002f0 9c fb 15 3c 90 06 a4 bc f9 ab 98 bd 75 1c 52 3c
       0.009154227 -0.02002266 -0.07454676 0.0128241675
000300 d4 2c e2 bd 65 2b 5f bb d3 72 71 3f e4 b7 3f 3e
       -0.110437065 -0.0034052965 0.9431583 0.18722492
000310 00 ff 4c 3c 98 56 a1 3c 43 80 89 3e b6 fa 4d bc
       0.012511969 0.019694611 0.26855668 -0.012571981
000320 e6 4a 83 bd f6 28 24 bf 7d 1e 2c bc c4 85 bb 3e
       -0.0641077 -0.64125 -0.010505316 0.36625493
000330 0c a9 16 bc 17 63 91 38 11 59 88 bb a4 d6 24 bd
       -0.009195577 6.932596e-05 -0.004161008 -0.04024376
000340 ec 14 59 bd 4b 6b a0 3e fe cc c0 be 5b 84 c0 3e
       -0.05299847 0.31331858 -0.37656397 0.3760098
000350 82 39 43 3e 4e 10 4d 3d f5 d7 e3 3d 83 cc 0c 3f
       0.19064906 0.050064377 0.11125175 0.5499956
000360 bd 3e a3 3e 35 17 ea bd 34 1f 50 bb 24 e2 fe 3c
       0.31883803 -0.11430208 -0.003175688 0.031113692
000370 17 6d 2a bf 3a 79 1f bd 80 d9 9b bf 7b be 4e 3d
       -0.6657271 -0.03893397 -1.2175751 0.050474625
000380 50 de 5d 3f c9 2e a3 3f b9 45 24 be 66 fa 10 3d
       0.86667347 1.2748653 -0.16042222 0.03539505
000390 ea 40 8d 3d 29 9e 95 bd a1 ae 3f bd 83 01 8c bd
       0.06897147 -0.07305557 -0.0467974 -0.06836226
0003a0 40 f2 a8 3b 3b b7 b1 3e e0 ef ad 3d 1c 31 0b 3e
       0.0051558316 0.34710106 0.08493018 0.13592952
0003b0 28 36 ab be 18 a0 39 be 96 2b 4f be 9a 14 f7 bd
       -0.33439755 -0.18127477 -0.2023147 -0.12064476
0003c0 63 8f 24 be 37 4d 2e bb 9f 13 2c bf db 3b 49 bd
       -0.16070323 -0.0026596317 -0.6721744 -0.04912935
0003d0 c8 8d c0 3d b8 be 66 bc f0 97 61 be 96 93 10 bf
       0.094020426 -0.014083557 -0.22030616 -0.564752
0003e0 9c 91 2b 3f 79 c7 32 be eb df 3b 3e 58 7e 32 3e
       0.6701906 -0.17458905 0.18347137 0.17431009
0003f0 d1 e2 80 3e ed 47 a9 3c 9e 80 0a bf 4c 68 db bd
       0.25173047 0.02066418 -0.54102504 -0.107132524

bias f4 [32]
000000 0e 32 84 3c 2a 3d 19 be 8b ac 3d 3c 4f 83 a7 bd
       0.01613715 -0.14964738 0.011576782 -0.08179342
000010 5c 19 23 be 2f 3d 8a bd ec 2d 0f be 56 5e 8e be
       -0.15927643 -0.06749951 -0.13982362 -0.27806348
000020 26 d6 eb ba 2d 09 0e bd 88 48 c6 be 37 49 1c 3d
       -0.0017992898 -0.03467672 -0.38727212 0.03815576
000030 29 35 20 be 4c 5a 63 bd 23 3e 94 3d ac 2b b9 bd
       -0.15645279 -0.055506036 0.07238414 -0.09041533
000040 17 80 4f be c2 78 24 bd 18 c1 5c bd 64 cf 13 be
       -0.20263706 -0.040154226 -0.053895086 -0.14434582
000050 2c 27 84 bd 16 13 a1 3d 5e eb e6 bd bb 98 db bd
       -0.06452784 0.078649685 -0.112753615 -0.107224904
000060 18 a7 6f bd 3e fa 88 be 00 49 5b be 9a 79 f0 3c
       -0.058508962 -0.2675342 -0.21414566 0.02935486
000070 f0 20 3b 3d c6 86 8e bd 9a e3 04 be d9 1e 1d 3b
       0.04568571 -0.069593 -0.12977448 0.0023974685

weight f4 [32, 64]
000000 e5 69 51 3d 4d 9e 5f 3e 09 61 cd be ca 02 96 be
       0.05112638 0.2183773 -0.40113094 -0.29299003
000010 fa 31 94 bb 17 69 8f be ab 1a 35 3d 87 dd cd bd
       -0.0045225592 -0.28009865 0.044214886 -0.100520186
000020 10 1a 33 3e 5e 67 62 be ca f5 76 3e b9 6e 62 bd
       0.17490411 -0.22109744 0.24117199 -0.055281375
000030 30 8e 4c be 75 a8 32 be 87 c0 b9 3c 4f 79 a4 bd
       -0.19976115 -0.17447074 0.022674812 -0.0803095
000040 54 3f 0f 3d 73 ff 86 be 95 03 06 3e f4 9b b3 be
       0.034972504 -0.26366767 0.13087304 -0.3507992
000050 86 fa 4c bd bd d3 c3 bc c5 0c 5d 3e 80 15 9a be
       -0.050043605 -0.023904676 0.21586902 -0.30094528
000060 5b a4 9d bb 74 a9 86 bd a7 ce 73 be 9b 2f 23 be
       -0.0048108525 -0.06575289 -0.238093 -0.15936129
000070 a6 9d 0d be ec 61 cc 3e a5 b6 18 bd b9 8f 08 bf
       -0.1382967 0.39918458 -0.03728356 -0.53344303
000080 15 05 e4 bc e0 c3 23 be 8e f4 8f be a6 31 8d bd
       -0.027834455 -0.15992689 -0.28116268 -0.06894235
000090 1e 28 74 bc 6c 4c 42 3d 24 1d 97 be 57 a7 43 be
       -0.014902143 0.047436163 -0.2951442 -0.19106804
0000a0 f2 6a 60 be 5a e0 04 bc 17 90 ee 3c 44 98 0e be
       -0.21915796 -0.00811013 0.029121442 -0.13925272
0000b0 c7 a8 bd 3e 56 9b ca bd a2 59 be bd b1 f6 91 be
       0.3704283 -0.09892909 -0.0929444 -0.28508523
0000c0 0a 4a 11 be 88 ad e5 3d b1 ea 12 bc 59 df ea be
       -0.141884 0.11214739 -0.008967088 -0.45873526
0000d0 e7 58 60 3c f8 6b b7 be ef 17 3f be 43 fc 8b be
       0.013693071 -0.3582456 -0.18661474 -0.27340898
0000e0 8f 5b ae be 49 f8 b1 be b5 ea 02 3d 90 c1 ce bd
       -0.3405423 -0.3475974 0.031962115 -0.10095513
0000f0 f8 e9 87 be 99 72 48 be b7 60 1a bc 81 02 b3 be
       -0.26545691 -0.19574966 -0.009422473 -0.34962848
000100 37 46 06 3e e4 78 a4 bd dc 52 fb 3c a8 55 d7 3a
       0.13112722 -0.080308706 0.030679159 0.0016428726
000110 fe 85 4d be 49 89 8a 3e f6 39 8c be 0d a4 57 be
       -0.20070645 0.27057865 -0.2738797 -0.21058674
000120 2f bb d5 3d 2d ff 7b bb 6b 51 e2 3d c0 14 0a be
       0.10436093 -0.0038451657 0.110506855 -0.13484478
000130 94 ae f0 3e ee e7 b5 bd 96 51 fd bd ac 68 10 3e
       0.47008193 -0.08882128 -0.12369077 0.14102429
000140 d8 34 e7 39 1c 30 70 3e 24 8f aa be d2 24 12 be
       0.00044099125 0.23455852 -0.33312333 -0.14271858
000150 cd 18 cf bd 38 ad a1 bd 43 3e a9 bd 87 51 21 be
       -0.10112152 -0.07894367 -0.082638286 -0.15753756
000160 65 a3 f2 bd c0 00 43 bd 6d 24 16 3e 4c 90 74 bc
       -0.11847571 -0.047608137 0.14662333 -0.014926981
000170 d9 61 ec 3c 7f cb 23 be c6 b7 bf bd 54 f2 a9 3d
       0.028855251 -0.15995596 -0.09361224 0.082981735
000180 b1 83 67 3d d2 a4 8f 3d ce ad c7 bc 5e 77 eb 3b
       0.056522075 0.07013859 -0.024374869 0.0071858605
000190 25 69 12 3e c4 07 7e be 07 77 5f 3e b0 62 3b 3e
       0.14297922 -0.2480765 0.21822749 0.18299365
0001a0 c9 21 b4 bc ee 8c 0e 3d 93 1a 45 bd 7e 0d 1d 3e
       -0.021988766 0.03480237 -0.048121046 0.15337178
0001b0 ed 0c ed be 91 b4 bd 3d c9 62 82 be e6 df 72 bd
       -0.46298924 0.09262956 -0.25465992 -0.059295557
0001c0 dc 40 cf bd 09 f8 97 be f0 92 34 be 2c f9 a7 3d
       -0.10119793 -0.29681423 -0.17634177 0.08201823
0001d0 3e ea 81 bd 56 e8 e0 3d 6f 58 13 3e 8f d9 02 3c
       -0.06343506 0.109818146 0.14389203 0.00798644
0001e0 0b 3e df 3d e0 0f 62 ba 7b df ba bd aa 4a 05 3d
       0.10900506 -0.00086235814 -0.09124657 0.03254191
0001f0 e9 e0 a8 bd 27 3f 17 3e e3 bc 2d bc 60 81 75 bd
       -0.08246023 0.14770184 -0.010604116 -0.059937835
000200 9c 8d 87 be 77 f5 72 be 10 ef ae be 9f 28 eb bd
       -0.26475227 -0.2372645 -0.34166765 -0.11482357
000210 5c 30 f5 be ee d6 a8 3e 9c a2 f5 be 05 87 61 3c
       -0.47888458 0.32976478 -0.47975624 0.013765101
000220 14 86 86 be 9f 81 0c 3f 82 76 3a be 34 db bd bd
       -0.26274168 0.54885286 -0.1820927 -0.09270325
000230 36 aa 5e 3e 75 44 0c be 8e 1a 6f be 72 9d 4d be
       0.21744618 -0.1369799 -0.23349974 -0.20079592
000240 c4 b6 b4 3e e8 a9 97 3e aa a5 42 be 72 e0 1c be
       0.3529569 0.29621816 -0.19008508 -0.15319994
000250 9e 51 5a be 9e e5 39 bd 50 7a 82 be 1b 25 00 be
       -0.21320197 -0.045384996 -0.25483942 -0.12514155
000260 5f 91 c0 bc eb d7 42 be fd 98 f1 be 2e c4 80 be
       -0.023506818 -0.19027679 -0.47187033 -0.25149673
000270 ef e6 72 bc ca ce e6 be 49 ac 0f be 17 94 bc be
       -0.014825567 -0.45079643 -0.14030565 -0.36831734
000280 f4 85 4e 3e c7 ed 9f bd a2 0c 04 3e ab 44 2f be
       0.20168287 -0.07809024 0.12895444 -0.17116039
000290 9c 5a fb 3e 9a c8 6a be a3 a3 1f 3f d3 7c 82 3d
       0.49092567 -0.22928086 0.62359065 0.063714646
0002a0 95 ce 52 3d 7e 28 90 be 19 0b 17 3d 95 d7 ef 3d
       0.051466543 -0.28155893 0.036875818 0.11711041
0002b0 9d de 5f be 40 0e 7f bd a6 00 8b 3b 95 38 85 3e
       -0.21862264 -0.06226945 0.0042420207 0.2601973
0002c0 2a 6a 3e be 5c d3 aa 3d 6a 25 6b 3e 0b 6c 14 bd
       -0.18595186 0.08341095 0.22963491 -0.03623585
0002d0 ca 54 6a be a0 55 20 3e f4 a9 cd 3e 62 86 84 3d
       -0.22883907 0.15657663 0.40168726 0.06470944
0002e0 49 16 f2 bc 73 66 09 be 86 67 51 3e 4f 63 20 be
       -0.029551642 -0.13417988 0.20449647 -0.15662883
0002f0 bf 5d 87 be 9a e9 07 3f b8 72 32 be 61 44 9d 3e
       -0.2643871 0.5309082 -0.17426574 0.3071623
000300 8a 11 45 3e da 70 1c be 04 a5 e8 3e 1d 9b 62 bd
       0.19244972 -0.15277424 0.45438397 -0.05532371
000310 a2 39 5f 3e d9 7a a4 3d 6b 44 09 bf 03 bb 0e 3f
       0.21799329 0.08031244 -0.5362002 0.5575411
000320 6f c3 78 3e 3c 2a 0b 3e 71 bd 04 bf 33 7e 37 3d
       0.24293302 0.1359033 -0.51851565 0.044798087
000330 37 bd e5 3c f3 1c 04 3c 30 da 1f 3d 75 58 90 3e
       0.028044326 0.008063543 0.03902644 0.28192487
000340 98 02 1a bf 79 e7 8b bd e9 05 ef bd 4c 45 ad 3e
       -0.6016021 -0.06831259 -0.11671049 0.33841932
000350 73 07 35 bd 34 8b a1 3c b0 0a ae bd 6b 43 c1 be
       -0.044196557 0.019719698 -0.08498132 -0.37746748
000360 b9 8a df be 48 be 55 be b1 01 45 3c 42 c7 9b 3e
       -0.43660524 -0.20873368 0.012024329 0.3042546
000370 51 b6 75 3e 22 2e 6e be 6f 47 2b be 7b 64 26 bf
       0.2399533 -0.23259786 -0.16726469 -0.6499707
000380 b9 0a 66 3e 2f ca 55 bd b3 14 d5 be 5b 89 96 bc
       0.22465028 -0.05219477 -0.41617355 -0.018376043
000390 48 fa d0 3c e2 85 a7 be 93 ae e3 3e 8e 33 83 bd
       0.025509968 -0.32719332 0.44469127 -0.06406318
0003a0 ff 3b b1 bc 83 4a 93 be dc 25 3f be 5f 96 46 3d
       -0.021635054 -0.28767785 -0.18666786 0.04848325
0003b0 07 29 3c be e8 5c 13 3e f7 fe 19 3d 2b 6a 8b bd
       -0.18375026 0.1439091 0.03759667 -0.06807359
0003c0 a1 ec 69 3e 3e a4 04 be 87 8f 59 3d 14 c3 96 3c
       0.22844173 -0.12953278 0.053115394 0.018403567
0003d0 3d b7 82 be 92 5c 2f 3e 52 4f cd 3e 09 bd 96 3e
       -0.25530425 0.17125157 0.4009958 0.29441097
0003e0 96 c0 d8 3e 07 8a ee 3c 8f 67 e3 3c df 44 b5 be
       0.4233443 0.029118551 0.027759342 -0.35404107
0003f0 d3 dc 1d 3e e7 41 46 3e 65 fe 52 3e 4d 31 b7 3d
       0.15416269 0.19361077 0.20604856 0.0894495

bias f4 [32]
000000 6d 4f 7d bd 40 70 f5 3d bd 97 6b be b6 eb ef bc
       -0.061843324 0.119843006 -0.23007102 -0.0292872
000010 c3 0c ee 3d 3a 86 3f be 0b 3f 14 3d 5d 61 54 be
       0.11623528 -0.18703547 0.036192935 -0.20740266
000020 96 96 e9 bd cc 2c 10 bd ba 70 80 be 89 3c 53 be
       -0.11405675 -0.03519897 -0.25086004 -0.20628561
000030 7c 76 c0 3d a8 05 75 3c 29 44 cc bd df 1b 34 be
       0.09397599 0.014954962 -0.09973938 -0.17588757
000040 d9 46 83 bd 35 77 1c ba 6a 79 71 be 77 cb 10 bc
       -0.064099975 -0.0005968691 -0.23581472 -0.008837572
000050 f6 b1 4b bd 70 29 1a be 68 8a a1 3d 81 b0 92 be
       -0.049730264 -0.1505487 0.07887727 -0.28650287
000060 46 c9 12 be 9b de 1e 3d 70 94 92 3b fe b6 6d bd
       -0.14334592 0.038786512 0.0044732615 -0.058035843
000070 a1 ce 97 bd 4f e8 2a 3d 82 46 d2 3d 91 41 eb bd
       -0.07412458 0.041725453 0.102673545 -0.11487115

weight f4 [32, 32]
000000 3d b2 9c 8a a8 85 6b 8b ce 0c 95 89 3a 2d be 0a
       -1.50893e-32 -4.5359905e-32 -3.5882487e-33 1.8313347e-32
000010 67 ec aa 8a 81 45 e0 09 1e e7 cf 8a 2d de ab 8b
       -1.6459329e-32 5.39914e-33 -2.0020312e-32 -6.6201097e-32
000020 7b 27 87 8a 88 a9 d1 8a 40 5a 37 0b 9a 3c 87 8b
       -1.3014878e-32 -2.0189738e-32 3.5312415e-32 -5.209129e-32
000030 63 0c bc 8b 97 e0 12 8b bd e3 56 09 ae c6 9c 8b
       -7.2433603e-32 -2.828754e-32 2.5866395e-33 -6.0387954e-32
000040 47 39 1f 8b 03 00 b9 8c 3e 66 98 08 6a 0b 05 0b
       -3.0665377e-32 -2.850377e-31 9.172204e-34 2.5623455e-32
000050 bc 29 ab 0b 62 3e 8a 8b 25 1f 9e 09 1f 70 d2 89
       6.59296e-32 -5.324953e-32 3.8066405e-33 -5.06611e-33
000060 fb 80 37 8c b2 e5 12 0b da 49 85 8a 0e af e7 8a
       -1.4136621e-31 2.829138e-32 -1.2835214e-32 -2.2310339e-32
000070 51 b4 14 8c ba c0 d6 8b 5a 6b 6f 8a 54 09 46 8d
       -1.1455767e-31 -8.2719784e-32 -1.1527622e-32 -6.102469e-31
000080 20 97 67 3e 44 96 1c 3e 2d d7 07 be cf 5a 3f bd
       0.22616243 0.15291697 -0.13265677 -0.04671746
000090 3f 04 ef bd 2b 9a c5 3c b4 1d 18 3e bb ef d7 bc
       -0.11670732 0.024121365 0.14855081 -0.02635943
0000a0 00 fd 3e 3d a3 7b bb bc 8c 42 32 3e 6a 11 0d bd
       0.046628 -0.022886103 0.17408198 -0.034440435
0000b0 33 86 62 be 03 ab 45 be 7a e7 aa 3d d0 98 1b be
       -0.22121505 -0.19303517 0.08344932 -0.15195012
0000c0 c9 60 c1 bb 98 2e 34 3d 70 d6 69 bd 1e f5 43 bd
       -0.0059014303 0.043989748 -0.05708927 -0.047841184
0000d0 d3 2e ab 3b e9 a8 c6 3d e7 a3 90 3e f3 bb 6e be
       0.0052240877 0.09700186 0.28250048 -0.23313884
0000e0 2f 6b 8c 3e f9 d8 3d be a5 cf ba be 2c 53 a1 bc
       0.27425525 -0.185398 -0.36486545 -0.01969298
0000f0 51 08 9f bd 1a a0 12 3e e7 3e e1 3d f3 6e 46 be
       -0.07765258 0.14318886 0.10998326 -0.19378261
000100 fa 2c 01 00 93 73 03 00 50 b0 03 80 55 e4 01 80
       1.0797e-40 3.16967e-40 -3.38755e-40 -1.73746e-40
000110 68 30 07 80 9a 4a 03 80 d6 cd 06 00 fb 99 01 80
       -6.60213e-40 -3.02268e-40 6.24853e-40 -1.47073e-40
000120 66 ac 06 80 73 08 05 80 0f 46 08 00 00 31 00 00
       -6.12858e-40 -4.62208e-40 7.59816e-40 1.7578e-41
000130 c0 6f 0a 80 a4 ec 07 80 1b f3 07 80 e4 12 04 80
       -9.58443e-40 -7.27739e-40 -7.30058e-40 -3.74119e-40
000140 d5 de 04 00 bb 9c 08 00 9f c0 00 00 6b 1c 01 80
       4.47279e-40 7.90908e-40 6.91e-41 -1.0203e-40
000150 95 7e 05 80 43 ec 03 80 8a 41 06 80 dd d2 06 80
       -5.04587e-40 -3.60261e-40 -5.74524e-40 -6.26656e-40
000160 f3 42 05 00 ee d8 00 80 56 1f 02 00 4f 17 04 00
       4.83194e-40 -7.782e-41 1.94912e-40 3.75704e-40
000170 c0 cb 02 00 ec 5a 02 80 89 7d 04 80 39 d6 04 80
       2.56763e-40 -2.16288e-40 -4.12376e-40 -4.4419e-40
000180 35 9d 35 bd c0 b4 97 bd a5 61 4e bd 88 23 91 bd
       -0.044339377 -0.07407522 -0.05038609 -0.07086855
000190 33 65 6a bd a8 27 95 bc 85 97 8e bd d2 c0 be bd
       -0.057225417 -0.018207386 -0.06962494 -0.09314121
0001a0 ff 63 7c bd 98 47 5b bb ee 8d bb bd 30 68 74 bd
       -0.0616188 -0.0033459421 -0.0915793 -0.059669673
0001b0 80 fe 6a 3c 71 69 a3 bd 8e 37 f9 bc 32 d8 ae bd
       0.014342904 -0.07979096 -0.030421998 -0.0853733
0001c0 f1 74 3c bc 3a 42 e7 bd 40 8c 07 bd 5b e9 15 bd
       -0.01150249 -0.112919286 -0.033092737 -0.0365995
0001d0 84 b5 1d be 94 81 f6 bd 11 8b 0f bd 7e 5c c7 bc
       -0.15401274 -0.12036434 -0.035044733 -0.024336096
0001e0 56 8b d7 bd eb aa 45 bd fe f8 7f bd 31 86 16 bd
       -0.10524623 -0.048258703 -0.062493317 -0.03674907
0001f0 51 b8 ad bd 35 3f 69 bd c2 a9 bd bc 74 b8 1c be
       -0.08482421 -0.056945045 -0.023152236 -0.15304738
000200 4b 6e a8 bb dd 06 4b bd a5 52 5b 3d 41 e3 1a bb
       -0.005140101 -0.049567092 0.053545613 -0.002363399
000210 cc 71 a9 3d ca 86 e2 3c d1 69 af bd 99 4b 02 3d
       0.08273658 0.027652163 -0.08565105 0.031810377
000220 34 b0 fd bb b9 5b 53 3c ae f8 62 bd 5e 48 f3 bd
       -0.0077419523 0.012900286 -0.05541294 -0.11879037
000230 1c b5 85 3c 4b de b4 3d a8 21 54 bd 9a 06 8e 3d
       0.016321711 0.088314615 -0.05178991 0.06934853
000240 44 9c 06 bc 12 43 df 3d 7b 6d 80 bc 8f 99 24 bd
       -0.008215968 0.109014645 -0.015677204 -0.040185507
000250 3e f6 74 bd 1c 64 96 3d 73 3c c6 ba 53 72 2a 3d
       -0.059805147 0.07343313 -0.0015124216 0.041612934
000260 09 14 61 3d 8c e4 e9 3c ff b8 5e 3d 5e 40 25 3d
       0.054950748 0.028551362 0.054375645 0.04034459
000270 5d bd d9 3c 8a 58 c1 3d 58 2d 4a bd fa 89 2f 3c
       0.026579553 0.094407156 -0.04935965 0.0107140485
000280 2a 08 d9 3d f7 43 4d 3e 81 64 64 3d 3a 91 54 be
       0.1059726 0.20045458 0.05575991 -0.20758525
000290 17 02 2c be d7 98 ef 3c 64 20 6b 3d b4 fe 93 be
       -0.16797672 0.029247684 0.057403937 -0.2890526
0002a0 fa fa f3 3c 7c 33 fe bd 4a ed b2 3d 0d 8d 5a be
       0.02978276 -0.124121636 0.087366655 -0.21342869
0002b0 97 25 e4 bd 06 b9 33 bd 74 5a bf 3d 7f 23 f0 bd
       -0.11139982 -0.043877624 0.093434244 -0.1172552
0002c0 c3 99 14 3c 4e 03 14 3d bb d3 1e 3d bf 7a 3c 3d
       0.009069863 0.036135964 0.03877614 0.046015497
0002d0 d6 ea 93 bd d4 e5 09 3d a5 bc c9 3d 83 fc 0e bd
       -0.07222526 0.033666447 0.09850434 -0.034908783
0002e0 8f 3f 03 be e0 cb 5f 3d d9 e1 bc bd 0a b1 79 3d
       -0.12817214 0.05463779 -0.092227645 0.060959853
0002f0 c8 69 5e be 56 50 49 3c 4e ad 48 3e 59 79 9f 3d
       -0.2172004 0.01228722 0.1959736 0.07786817
000300 e0 c7 05 80 c9 65 07 80 3f 9e 06 00 29 5a 05 80
       -5.30879e-40 -6.79362e-40 6.07781e-40 -4.91521e-40
000310 51 6f 07 80 56 39 07 80 9b 51 06 80 82 3d 05 00
       -6.82781e-40 -6.63417e-40 -5.80288e-40 4.81242e-40
000320 0f 5b 04 00 fc 4f 08 80 90 4d 03 80 c3 da 05 80
       4.00008e-40 -7.63377e-40 -3.0333e-40 -5.37654e-40
000330 41 fc bc 8b 08 07 04 80 5b fb 0d 80 47 0b 03 00
       -7.2794515e-32 -3.69864e-40 -1.284031e-39 2.79552e-40
000340 08 e8 0b 80 ba de df 14 10 81 08 80 63 8c 05 00
       -1.093428e-39 2.2605096e-26 -7.80983e-40 5.09539e-40
000350 2e e2 06 00 cd 14 02 80 0e 6d 03 80 2b e8 09 00
       6.32151e-40 -1.91133e-40 -3.14628e-40 9.09806e-40
000360 63 2f 06 80 ab 72 05 00 36 ab 05 00 75 9b 03 80
       -5.68012e-40 5.00313e-40 5.20596e-40 -3.31274e-40
000370 f4 e8 01 00 55 4a 01 80 02 b6 07 00 fc d0 06 80
       1.75403e-40 -1.18501e-40 7.0814e-40 -6.25982e-40
000380 16 95 e7 bc f0 29 9c bc fc c9 07 bd 94 c0 4b bb
       -0.028269332 -0.019062966 -0.03315161 -0.0031090127
000390 16 45 61 bd b0 fa 91 bc 71 0e 9b bc 97 b8 45 bd
       -0.054997526 -0.017819732 -0.018927785 -0.04827174
0003a0 c8 a3 39 bd 87 e2 a8 bc 77 54 a6 bc 3b 4c c7 ba
       -0.04532221 -0.02061583 -0.020303948 -0.0015205214
0003b0 4c 3a a4 3c 96 f4 5b bd 67 6b 95 bb da 53 02 bd
       0.02004733 -0.053700052 -0.0045599225 -0.03181825
0003c0 51 95 de bb 82 3d 80 bd 3f bf 39 bc 28 36 6f bc
       -0.0067927022 -0.06261732 -0.0113371005 -0.014600314
0003d0 6b cb 94 bc f3 17 76 bd 44 81 84 bd 7f ee f5 bc
       -0.018163403 -0.060081434 -0.06469968 -0.03002095
0003e0 d0 e0 82 bd ae b8 96 bc c5 6e 73 bd 1a 9c 82 bd
       -0.06390536 -0.018398609 -0.05943181 -0.0637743
0003f0 ca 47 9f bc ab 29 1a bd 6e 61 30 ba 24 db 64 bd
       -0.019443411 -0.037637394 -0.00067283853 -0.05587305

bias f4 [32]
000000 5e 8c 06 8c 6f e3 cc 3d 5d 3e 5c af 51 00 e2 3c
       -1.0365225e-31 0.10004317 -2.003104e-10 0.027588041
000010 cd f0 01 3d 5a 0d 43 be a3 bb 48 b7 11 f1 22 3d
       0.031723786 -0.19048062 -1.19646165e-05 0.03978068
000020 a3 24 07 3e 1a 69 44 3b d8 01 50 af 85 1c 86 bc
       0.1319757 0.0029969872 -1.8918145e-10 -0.016371021
000030 33 10 8c ba a6 26 77 bd 61 df 96 bc bf 7b 0f 3e
       -0.001068598 -0.060339592 -0.018417062 0.14012049
000040 75 d6 ad 3e b7 81 bc 2a ad 3c 6c 92 9d c0 cb 3c
       0.3395268 3.3485516e-13 -7.454326e-28 0.024872119
000050 bb 11 a0 bd be 8f 1c 3a 04 0f 67 3d aa 62 e6 3e
       -0.07815882 0.0005972347 0.056410804 0.4499715
000060 71 ac e4 1d dd f3 b1 99 13 cb 77 be e8 38 76 88
       6.0529398e-21 -1.8399867e-23 -0.2419856 -7.4094825e-34
000070 57 3e c1 bd 83 b0 28 3e f7 f9 d9 bc 5a de 98 bb
       -0.094357185 0.16473584 -0.02660845 -0.0046651782

weight f4 [32, 32]
000000 22 3e 33 89 a3 b4 28 8b 81 17 03 8c 22 c4 fa 89
       -2.1575556e-33 -3.249152e-32 -1.0098946e-31 -6.0369753e-33
000010 e2 fb 42 8b 9f 5c 19 8b 1a 50 49 89 42 ca 5b 8b
       -3.7552536e-32 -2.9536409e-32 -2.4232159e-33 -4.2330028e-32
000020 24 b3 ba 8b 97 f9 91 8a 98 7d fd 89 87 eb cd 8a
       -7.1914135e-32 -1.4056877e-32 -6.1025642e-33 -1.9829377e-32
000030 70 84 03 8b 2a 86 60 8c 5e ac 20 88 da 8e e2 8b
       -2.5329317e-32 -1.7296706e-31 -4.8350865e-34 -8.726697e-32
000040 08 60 20 8c 60 4a 38 8c 2f 6c 31 0a 51 50 85 8b
       -1.235485e-31 -1.4197226e-31 8.542587e-33 -5.1350583e-32
000050 96 d3 cd 8a 1c 0f 13 8b 60 5f 02 8d 1b 1b bf 8b
       -1.9820372e-32 -2.8322537e-32 -4.0174146e-31 -7.361131e-32
000060 0b 72 9c 8b f1 97 52 8c 32 8c ce 8a 56 7b ef 8a
       -6.0260607e-32 -1.6223535e-31 -1.9889814e-32 -2.3061257e-32
000070 66 16 cc 8b a0 b4 49 87 3c 67 c3 8c e4 4f 2f 8a
       -7.8611643e-32 -1.517464e-34 -3.010664e-31 -8.440969e-33
000080 26 e5 a2 3e 2b 9a 6f bc 5a 91 d6 be ce b4 27 bf
       0.3181545 -0.014624159 -0.4190777 -0.6551026
000090 36 3a 35 be 70 32 b4 bd 70 e8 3f 3e 6f fa 6d be
       -0.17697987 -0.08798683 0.18741012 -0.23240064
0000a0 43 33 26 3d b7 b7 4f 3e 48 a6 77 bd 34 86 13 bf
       0.04057623 0.20284925 -0.060461313 -0.5762665
0000b0 b5 c8 00 3d 51 ea fc be 44 e5 40 be 13 1b 37 be
       0.03144141 -0.4939752 -0.18837458 -0.17881422
0000c0 03 ef 57 bd ec 65 84 be 54 6a f4 be 21 d8 26 3e
       -0.052718174 -0.2585901 -0.47737372 0.16293384
0000d0 48 32 45 bd b1 b3 3b bf 89 25 e0 bc ed aa cc 3d
       -0.048143655 -0.7332106 -0.027361648 0.09993539
0000e0 5b 52 91 3e 91 69 2f bf 9f 34 1d bf 49 67 e9 be
       0.28383145 -0.68520457 -0.6140842 -0.45586613
0000f0 08 9f 1b bf 6f 94 c5 3e 89 e4 3f bc 85 79 17 bf
       -0.6078954 0.38589808 -0.011712202 -0.591698
000100 25 7e 06 00 4d 8f c1 2d 64 a7 00 80 d5 b2 01 00
       5.96265e-40 2.2005198e-11 -6.0048e-41 1.55988e-40
000110 18 36 01 00 77 ae 03 00 1d f3 06 80 76 79 04 00
       1.1124e-40 3.38093e-40 -6.38226e-40 4.10914e-40
000120 0d 01 02 80 c1 cc 06 00 d5 f0 00 80 05 e3 05 00
       -1.84048e-40 6.24465e-40 -8.6394e-41 5.40617e-40
000130 6c 2c 9f 2c e4 71 01 00 8f 37 01 00 4f a2 05 80
       4.5239836e-12 1.32692e-40 1.11766e-40 -5.17403e-40
000140 0b 95 05 00 a9 85 01 80 c1 1d 02 00 48 7c f0 07
       5.12644e-40 -1.39784e-40 1.94345e-40 3.6184232e-34
000150 08 bc 10 95 4c fa 06 00 07 11 07 00 eb d5 01 00
       -2.92289e-26 6.40803e-40 6.48957e-40 1.68575e-40
000160 8f b9 06 80 df ad 05 80 9f 69 08 80 f3 03 01 80
       -6.17579e-40 -5.2155e-40 -7.72574e-40 -9.3252e-41
000170 18 14 02 80 44 d5 07 80 6d 8d 05 00 00 6c 05 00
       -1.90879e-40 -7.19354e-40 5.09911e-40 4.9792e-40
000180 f3 dc 2f 3d e8 4b 49 3a ff 53 0e bd 15 2d 2b bb
       0.042935323 0.00076788524 -0.034748074 -0.00261194
000190 32 b6 e8 bd 8a e0 76 bd ab 8d a8 bb 2d 79 fe bd
       -0.11362876 -0.06027273 -0.0051438413 -0.12425456
0001a0 e8 01 7b bd a7 65 88 3c 1e 0b 8e bd a8 f6 56 bd
       -0.061281115 0.016650034 -0.06935714 -0.052481323
0001b0 ce f5 62 3b c0 64 03 be 4e fe cc bc cd 46 81 bd
       0.0034631374 -0.12831402 -0.025023606 -0.06312332
0001c0 9e 6a a7 bd 1c 12 c9 bd f0 e1 89 bd da c4 3f bd
       -0.081746325 -0.09817907 -0.06732547 -0.04681859
0001d0 2f f0 bf 3b f0 39 8b 3c 72 7c ab bd 52 52 c3 bd
       0.0058574895 0.0169954 -0.083733454 -0.09537186
0001e0 ae f3 8d bd 8e 19 57 bd a4 c1 22 bd 92 ec 4b 3c
       -0.06931244 -0.052514605 -0.03973545 0.0124465395
0001f0 5c bb 01 bd 83 24 8c 3b f3 4f 73 bd 07 8b b8 bc
       -0.03167282 0.0042768135 -0.059402417 -0.02252723
000200 5a a6 c3 bb 74 f8 1c 3d 8c 11 c1 3c eb 7c ec 3c
       -0.0059707584 0.03832288 0.023567937 0.02886816
000210 6d b1 9f 3d a3 a9 02 3d 02 87 37 3d 2e 71 a6 3d
       0.07797513 0.03190006 0.044806488 0.08127056
000220 1f e9 72 3d d4 57 de bd 19 5a 7b 3c 9a 61 1b 3d
       0.059304353 -0.10856596 0.015341305 0.037934877
000230 fa 7e 0d 3d d8 e3 ad 3c d0 55 8f 3d 1c 4f 81 3d
       0.034544922 0.021226808 0.06998789 0.06313917
000240 3f 63 16 3c 44 a5 93 3d 6e ab d2 3c 71 da 62 3d
       0.009178936 0.07209256 0.02571651 0.055384103
000250 49 c6 d0 3b 1e e6 03 3d d8 66 e5 3c 68 96 c7 3d
       0.0063712937 0.03220188 0.028003141 0.097454846
000260 e7 06 2c 3d e5 8c 82 3d e0 21 19 3c 8e b0 44 3b
       0.04199877 0.0637453 0.009346455 0.0030012461
000270 ac e3 ef 3c f5 20 5a 3d 64 92 a4 3c 6d fa 88 3c
       0.029283367 0.053254087 0.020089336 0.016720975
000280 23 35 1e bd 0d 40 aa 3c 3f 71 4b 3e 8e d1 d6 bb
       -0.038624894 0.020782495 0.19867419 -0.0065557426
000290 37 ad 98 3d 9b 13 60 3e 78 fa 85 3d c5 6b 05 3d
       0.07454913 0.21882479 0.06541914 0.03257348
0002a0 34 63 9f 3d ca ef 20 3e a3 d4 0c 3e d7 f3 d4 bd
       0.07782593 0.15716472 0.1375299 -0.10398071
0002b0 9b 14 93 3d 8e f5 7f 3d 3f 6c c7 bc 30 52 1b 39
       0.071816646 0.06249004 -0.024343608 0.00014812569
0002c0 a8 de d0 bd e6 cb d3 be 68 d2 b2 3d d3 d9 48 3d
       -0.10198718 -0.413665 0.08731538 0.04903586
0002d0 02 b0 4f be 2a 04 f8 3d 7e b8 33 3e 16 17 58 3e
       -0.20281985 0.12110169 0.17550847 0.21102557
0002e0 47 bf 36 3e c3 6f 95 3e 27 f5 c4 3d 08 0d 5a 3c
       0.17846404 0.2918683 0.096170716 0.013308771
0002f0 c4 0f 35 be fe f7 51 3e 12 92 f4 3d e1 5d 3e be
       -0.17681795 0.20504758 0.11941923 -0.185905
000300 be f4 03 00 17 66 ba a1 ec 33 06 80 3b 69 04 00
       3.63303e-40 -1.2630873e-18 -5.69639e-40 4.05092e-40
000310 33 6b 97 1a 09 3b 07 80 a5 4e 05 00 55 a6 03 80
       6.2625326e-23 -6.64026e-40 4.8739e-40 -3.35175e-40
000320 8d 36 74 9b fe 3f 02 00 1d 5e 03 80 fd 56 0b 8b
       -2.0200833e-22 2.06627e-40 -3.09268e-40 -2.683587e-32
000330 6c c6 02 9b 48 72 8c 91 cb eb 00 00 a6 6d 07 80
       -1.0817462e-22 -2.2158537e-28 8.4587e-41 -6.82183e-40
000340 92 9a 00 00 7a 68 03 27 32 04 02 80 21 f2 01 00
       5.545e-41 1.8236539e-15 -1.85176e-40 1.78695e-40
000350 11 7f 01 80 42 a0 00 00 b1 3c ca a8 b2 ab 03 80
       -1.37418e-40 5.749e-41 -2.2452826e-14 -3.37099e-40
000360 16 00 8c 9f 8c a8 21 2a e6 65 06 00 1b 59 00 80
       -5.929245e-20 1.4358149e-13 5.87567e-40 -3.1965e-41
000370 fd 8b 6a a7 86 1b 00 80 3b c7 00 80 0b 41 07 80
       -3.2549911e-15 -9.874e-42 -7.147e-41 -6.66181e-40
000380 db aa 09 3b b6 b3 03 bd 95 2b 0f bd 38 72 f5 bc
       0.0021006379 -0.032153808 -0.034953672 -0.02996169
000390 b1 4d a0 bd af 13 43 bd df 3f 97 bc b8 bb 54 bd
       -0.078273185 -0.047626194 -0.018463073 -0.051936835
0003a0 91 10 24 bd ac 30 e0 3c 7f 03 51 bd df 5c 4d bd
       -0.04005486 0.027366959 -0.051028725 -0.050137397
0003b0 e0 40 ff bc 91 de 9c bd 29 82 3a bd 3f 08 2a bd
       -0.031158864 -0.07659639 -0.045534287 -0.04151177
0003c0 c9 da e2 bc 12 e5 84 bd 95 7e 63 bd 02 1c 91 bc
       -0.027692216 -0.06489004 -0.05554064 -0.01771355
0003d0 4e c5 ac bc 2b 29 b0 3a 2d 4d 4a bd f3 4c 16 bd
       -0.021090176 0.0013440003 -0.049390007 -0.03669448
0003e0 0a 69 5a bd a1 bb 20 bd f0 cb 32 bd e1 aa 73 bc
       -0.05332283 -0.039241437 -0.04365152 -0.014872284
0003f0 ef 82 29 bd b3 86 e0 bb 42 e4 22 bd 77 8c 19 3c
       -0.041384634 -0.006851995 -0.039768465 0.009371868

bias f4 [32]
000000 6b d7 05 8c d6 6c d7 3d 1d 3d 10 b0 95 64 e3 3c
       -1.0310772e-31 0.10518806 -5.247374e-10 0.027757922
000010 04 fb 01 3d ba 3f 52 bd c9 23 99 36 2a 9b 23 3d
       0.031733528 -0.051330306 4.5639213e-06 0.039942898
000020 49 bc 4f 3e 87 f9 45 3b 1e c8 34 af 13 8a 85 bc
       0.20286669 0.0030208544 -1.6442e-10 -0.01630119
000030 26 1e 38 bd 8c 59 13 3d a0 b4 96 bc 6a 1a 30 3e
       -0.044950627 0.03597407 -0.018396676 0.17197576
000040 67 38 b6 3e 4e cd 2d ab 48 f6 2c 92 92 79 4f bd
       0.35589907 -6.1746864e-13 -5.4577195e-28 -0.050653048
000050 4b 77 2c bd df fe 1b 3a 3a 7f 36 3d d5 0a da 3e
       -0.042105954 0.00059507595 0.044554926 0.4258639
000060 2e d3 09 9e e1 b0 a9 99 f4 34 22 3d 24 8f 96 89
       -7.2963905e-21 -1.7545631e-23 0.03960128 -3.6245795e-33
000070 e1 64 21 bd 41 e7 d5 3e 75 db d9 bc c7 ac 99 bb
       -0.039402846 0.41777995 -0.026593903 -0.004689786
