train_script/weights/GCNEdgeBased_model100/83.pth (torch, 46347 bytes, 17 tensors)

weight f4 [32, 13]
-6.51705e-40 -1.29052e-39 1.14727e-40 1.784562e-39 -3.25956e-40 -1.762396e-39 9.40113e-40 9.58854e-40
1.557051e-39 3.19521e-40 -1.220451e-39 -8.87204e-40 -7.77708e-40 1.070181e-39 -1.629262e-39 1.642447e-39
-2.80676e-40 -3.1123e-41 -7.72606e-40 5.34936e-40 5.17937e-40 7.64888e-40 9.70644e-40 7.0646e-40
1.17882e-39 -1.083928e-39 -8.1557e-40 -1.077407e-39 -8.6434e-40 9.50429e-40 -7.13492e-40 1.210219e-39
9.9482e-40 -5.56698e-40 -1.760231e-39 8.25589e-40 1.166738e-39 -1.134519e-39 1.379124e-39 5.94113e-40
-1.092888e-39 4.60873e-40 1.549774e-39 4.01045e-40 1.446012e-39 -1.014368e-39 -8.95074e-40 1.362282e-39
6.46439e-40 2.0706e-41 1.51934e-40 2.00922e-40 -1.1289e-41 -2.45596e-40 -1.41132e-40 -2.7416e-41
-1.072223e-39 -1.350608e-39 -1.139019e-39 6.9735e-40 8.9366e-40 -6.80629e-40 1.067604e-39 -1.259097e-39
1.188877e-39 -1.74421e-40 -1.339634e-39 5.16627e-40 3.13419e-40 7.05289e-40 2.005349e-39 -9.42044e-40
-8.04676e-40 5.58956e-40 1.198843e-39 1.252974e-39 5.7984e-40 3.91422e-40 -8.44427e-40 1.495959e-39
-7.44224e-40 1.842258e-39 1.350958e-39 -1.629124e-39 -1.125835e-39 -1.83335e-40 -9.09269e-40 9.31038e-40
-1.043603e-39 8.8682e-40 1.83342e-40 1.72627e-40 1.734307e-39 -1.0543e-39 1.687577e-39 8.95494e-40
-6.21259e-40 -4.51165e-40 9.68401e-40 -1.296774e-39 9.137e-40 1.009163e-39 1.302119e-39 1.37064e-39
-6.68609e-40 5.48168e-40 -9.40685e-40 -1.077258e-39 7.91903e-40 -1.00826e-39 2.39835e-40 4.20532e-40
-4.7234e-40 6.70241e-40 -1.00677e-39 -1.875829e-39 -1.528073e-39 -8.17331e-40 4.00074e-40 1.230141e-39
-1.560032e-39 -1.182364e-39 1.08849e-39 8.83013e-40 -1.291833e-39 4.6697e-40 9.6711e-40 1.302126e-39
-1.236034e-39 -8.12187e-40 1.44642e-40 8.80982e-40 1.418099e-39 -1.81687e-39 9.5333e-40 -1.201864e-39
-1.06737e-39 -4.49259e-40 6.01128e-40 -1.206746e-39 -1.382737e-39 1.378518e-39 -1.103586e-39 1.086565e-39
7.23694e-40 6.37355e-40 1.174545e-39 1.352629e-39 -1.068804e-39 -1.782553e-39 -7.77607e-40 1.779879e-39
-2.47576e-40 1.073731e-39 -2.03597e-40 -5.11653e-40 2.92344e-40 -1.017459e-39 -1.816764e-39 -1.195963e-39
-3.53028e-40 -1.04999e-39 -7.88805e-40 1.3129e-41 5.35254e-40 -1.148632e-39 8.43371e-40 -3.77082e-40
-1.5408e-40 1.045533e-39 -6.38877e-40 -6.22597e-40 -8.0237e-40 -9.19524e-40 -8.27185e-40 1.037507e-39
8.08013e-40 3.84865e-40 6.85685e-40 3.12041e-40 -1.505949e-39 1.537514e-39 -9.5443e-40 -1.172971e-39
-4.02352e-40 -1.309104e-39 -8.73204e-40 -9.99395e-40 -9.59577e-40 -1.702749e-39 1.06585e-39 1.751878e-39
-3.53161e-40 -1.937353e-39 -4.8807e-41 1.703039e-39 4.22068e-40 -1.80508e-39 1.08155e-39 -2.41428e-40
1.841937e-39 1.4299e-39 9.1596e-41 -1.392696e-39 6.25683e-40 3.1958e-40 -6.68412e-40 -6.77909e-40
-1.144342e-39 1.199817e-39 -1.77507e-40 3.14143e-40 7.7986e-40 -4.93127e-40 -4.24396e-40 -1.60648e-39
-5.22292e-40 3.88911e-40 -8.78373e-40 -1.898197e-39 -8.3043e-40 1.214811e-39 2.17836e-40 1.34439e-40
-2.75759e-40 5.6455e-40 -7.32124e-40 -1.363414e-39 -8.45415e-40 -1.244227e-39 -5.05283e-40 1.010989e-39
-1.302685e-39 1.593573e-39 -1.173051e-39 -1.750452e-39 8.31126e-40 -1.880956e-39 -8.64059e-40 -1.3441e-40
6.7997e-40 1.31655e-40 -8.18388e-40 4.8369e-40 -1.002284e-39 8.7389e-41 1.713782e-39 9.8576e-40
1.855745e-39 -1.535327e-39 9.89387e-40 -7.9505e-40 -3.28424e-40 -1.133936e-39 -6.804e-40 1.253488e-39
00000000: b018 0780 720d 0e80 d03f 0100 a26e 1300
00000010: a28c 0380 d830 1380 a73c 0a00 e570 0a00
00000020: 6df4 1000 b27a 0300 1f4a 0d80 2aa9 0980
00000030: ef77 0880 3ba7 0b00 b8bd 1180 79e2 1100
00000040: 690e 0380 c256 0080 b669 0880 2fd3 0500
00000050: cca3 0500 3254 0800 c391 0a00 53b1 0700
00000060: 12d6 0c00 8dcd 0b80 7ae1 0880 5fbb 0b80
00000070: 6e69 0980 6959 0a00 edc4 0780 992d 0d00
00000080: 27d5 0a00 d90f 0680 cf2a 1380 68fd 0800
00000090: 64b4 0c00 945a 0c80 7004 0f00 2578 0600
000000a0: 87e6 0b80 ba04 0500 24e0 1000 f35d 0400
000000b0: e5be 0f00 a50b 0b80 1abf 0980 7dd5 0e00
000000c0: 020a 0700 b839 0000 88a7 0100 1730 0200
000000d0: 781f 0080 9fac 0280 6b89 0180 6d4c 0080
000000e0: ecac 0b80 f2b4 0e80 1f67 0c80 ee97 0700
000000f0: 29bb 0900 5169 0780 0ca0 0b00 dab5 0d80
00000100: 1bf2 0c00 37e6 0180 5b96 0e80 25a0 0500
00000110: af69 0300 0fae 0700 19d6 1500 0942 0a80
00000120: 1cc3 0880 2416 0600 e30d 0d00 c8a4 0d00
00000130: 5c50 0600 2043 0400 eb31 0980 204a 1000
00000140: 981a 0880 770f 1400 ecb5 0e00 56bd 1180
00000150: 5f42 0c80 10ff 0180 ace6 0980 5b23 0a00
00000160: 245d 0b80 18a8 0900 15ff 0100 37e1 0100
00000170: 8be2 1200 f67a 0b80 4760 1200 46c0 0900
00000180: d1c3 0680 aae9 0480 828b 0a00 e11e 0e80
00000190: 06f3 0900 23fd 0a00 c72d 0e00 c9ec 0e00
000001a0: cf47 0780 12f8 0500 3f3e 0a80 f5ba 0b80
000001b0: 819f 0800 9efa 0a80 909c 0200 4694 0400
000001c0: b124 0580 5c4c 0700 77f6 0a80 0c6d 1480
000001d0: a5a3 1080 63e6 0880 3e5b 0400 2265 0d00
000001e0: bcfc 1080 f3df 0c80 44da 0b00 7b9d 0900
000001f0: 1b11 0e80 b915 0500 e987 0a00 cc2d 0e00
00000200: 8f75 0d80 0cd8 0880 3493 0100 d297 0900
00000210: 1571 0f00 b2c8 1380 7f61 0a00 4f16 0d80
00000220: 659f 0b80 5ae4 0480 b38b 0600 eb23 0d80
00000230: 820e 0f80 bf02 0f00 5904 0c80 e7d4 0b00
00000240: 5de1 0700 b0f0 0600 27ca 0c00 94ba 0e00
00000250: 64a3 0b80 0869 1380 a777 0880 9461 1300
00000260: 24b2 0280 20b1 0b00 8c37 0280 4892 0580
00000270: f02e 0300 4314 0b80 66c8 1380 dc05 0d80
00000280: 19d8 0380 f26e 0b80 de96 0880 9924 0000
00000290: 12d4 0500 eb81 0c80 fa2e 0900 271b 0480
000002a0: 83ad 0180 8562 0b00 eef4 0680 8cc7 0680
000002b0: aebc 0880 4203 0a80 db01 0980 264c 0b00
000002c0: 69cc 0800 d930 0400 6977 0700 d865 0300
000002d0: f965 1080 f7bd 1000 9064 0a80 c4c5 0c80
000002e0: 9861 0480 4041 0e80 2382 0980 e8e1 0a80
000002f0: e972 0a80 928a 1280 289b 0b00 8613 1300
00000300: 78d8 0380 8d18 1580 0e88 0080 618b 1200
00000310: 8e98 0400 d4a7 1380 ecc6 0b00 01a1 0280
00000320: 920e 1400 fb91 0f00 55ff 0000 452a 0f80
00000330: 26d0 0600 dc7a 0300 4347 0780 bc61 0780
00000340: f675 0c80 9a10 0d00 d1ee 0180 b46b 0300
00000350: ef7d 0800 a35e 0580 0b9f 0480 367e 1180
00000360: f0af 0580 203c 0400 8c90 0980 67ab 1480
00000370: e70a 0980 663a 0d00 3d5f 0200 c376 0100
00000380: b400 0380 bc25 0600 ddf8 0780 a5d8 0e80
00000390: ac34 0980 668c 0d80 8680 0580 3a02 0b00
000003a0: 5b2f 0e80 3c5a 1100 fdc5 0c80 8c0f 1380
000003b0: d70c 0900 577b 1480 a568 0980 ae76 0180
000003c0: 7b67 0700 006f 0100 55e9 0880 5544 0500
000003d0: f6e9 0a80 9bf3 0000 54a9 1200 e6bb 0a00
000003e0: 1035 1400 deb7 1080 02c6 0a00 47a8 0880
000003f0: 8393 0380 f458 0c80 ae68 0780 37a6 0d00

bias f4 [32]
-0.08745027 -0.021953702 0.090865396 -0.56813645 -0.33576292 -0.29115397 -0.086135544 -0.2755327
-0.5291823 -0.32718933 -0.37297988 -0.60300434 -0.21612938 -0.47256902 -0.14334199 -0.21378562
-0.5050423 -0.2967593 -0.35371527 -0.23968771 -0.21700925 -0.29551002 -0.43451464 0.11610142
-0.28334752 -0.5080425 -0.26996607 -0.1790026 -0.19673249 -0.2277006 -0.21777959 -0.16704212
00000000: 2119 b3bd 40d8 b3bc a317 ba3d 6471 11bf
00000010: 1ee9 abbe 2212 95be d567 b0bd 9f12 8dbe
00000020: 7e78 07bf 5c85 a7be 38f7 bebe 7e5e 1abf
00000030: 0551 5dbe 91f4 f1be 3ec8 12be 9eea 5abe
00000040: 744a 01bf d6f0 97be 2b1a b5be b270 75be
00000050: ac37 5ebe 174d 97be b478 debe 95c6 ed3d
00000060: ed12 91be 130f 02bf fe38 8abe 754c 37be
00000070: 3e74 49be 592a 69be 9d01 5fbe 170d 2bbe

weight f4 [32, 13]
0.50927293 -0.23149456 0.099045396 -0.802025 -0.32689613 -0.24024014 0.07843896 -0.027518423
-0.048789617 0.04405326 -0.10637423 -0.028498853 0.072647914 -0.0034376385 0.42845488 0.28151193
-0.6020561 -0.44029924 -0.09146914 -0.037728775 0.018188644 0.027624216 -0.029511377 -0.035192423
-0.0052560135 0.13333444 -0.29095125 0.5558545 0.21673112 0.07645957 -0.4772007 0.13493507
-0.0046240035 0.027418688 0.012829743 0.014915049 -0.01617288 0.014740318 0.2382775 -0.24051666
0.2217886 -0.15017377 -0.20119527 0.40058252 0.006969896 0.011204956 -0.030737106 -0.020722678
0.05045282 0.04658966 -0.035190877 0.097854994 0.11344368 -0.007080677 0.037918992 -0.04541036
-0.00293553 0.06800942 -0.027271582 -0.22211902 -0.07479746 0.0070184553 -0.011363095 0.032777738
-0.111887634 0.049948297 0.2612779 0.13788567 0.008482877 0.16025208 -0.14644231 -0.012231935
-0.00405562 -0.002051372 -0.006264022 -0.01598243 -0.020623371 -0.05521011 0.34496716 -0.109175906
0.26418966 0.72235674 -0.5016879 -0.16705059 0.03714581 0.0062352503 0.01727009 0.010772004
0.11390201 -0.0074563688 0.11444371 0.44516945 -0.1880168 -0.10820205 0.076443754 -0.008130525
-0.056746285 0.012734497 0.020239225 -0.020946551 0.016555201 0.010440162 0.0055047413 0.09842002
0.39652905 -0.017577466 -0.21240367 -0.15448947 -0.2028057 -0.059931993 0.086292766 0.04838144
0.04213339 -0.13318996 0.028269656 -0.007863889 -0.6643764 -0.0027604362 0.12944213 0.2377814
0.05934982 -0.2998429 -0.053967938 0.083391756 -0.029897742 -0.012382361 0.12225371 0.017231664
0.00468332 -0.0892794 0.17582145 0.08311796 -0.17785442 0.29215595 -0.10321533 -0.073718764
-0.043667488 -0.039770875 -0.1198433 -0.03285047 0.059884686 -0.053966038 -0.07872432 -0.42725864
-0.42740217 0.047500886 -0.20484087 0.32462394 0.2561808 -0.0051953737 0.019565338 -0.012728372
-0.0013427535 0.03999209 -0.12365048 0.16948359 -0.65530413 -0.24478085 -0.054576878 0.0031279968
0.5311727 0.6027188 0.022007523 -0.005864372 0.012992575 -8.00204e-06 -0.015127333 -0.014205093
-0.05586375 0.05921985 -0.08494172 0.19987419 -0.08852988 -0.24887975 -0.1465668 -0.12739834
0.034537833 0.039871488 -0.019272443 0.008011924 0.1123759 -0.07690412 -0.10579664 0.45723125
0.5255429 -0.19579823 -0.30274987 -0.055739053 0.0188266 -0.008659891 -0.02996592 -0.009188716
0.016074372 0.022980567 -0.036196273 0.04933747 -0.006753739 0.09140057 -0.08903969 0.023803782
0.039921135 -0.2208797 0.0840541 -0.20494628 0.03958548 -0.07771691 0.03296661 -0.0089320885
0.22526932 -0.18913725 0.13545658 -0.034455694 0.36479336 -0.061455358 -0.0821221 -0.10038331
0.09470691 -0.081491694 0.01908152 -0.047761556 0.048147734 0.5194417 -0.0008433776 -0.10436077
0.21262275 -0.2306271 -0.03370062 -0.011967781 0.0027592701 0.043458745 0.04507661 -0.052102808
0.031002464 0.10656785 -0.44052005 -0.1095445 -0.19331737 -0.20348077 0.6657515 0.29716274
0.021611571 0.009928287 -0.0026746416 -0.010882812 0.05367703 0.07973121 -0.03146064 0.16892348
-0.07172671 0.5280361 0.16712573 0.03203547 -0.09886058 0.044609677 0.02567809 0.16347383
00000000: b65f 023f e90c 6dbe 50d8 ca3d 8351 4dbf
00000010: ee5e a7be 8301 76be 9ba4 a03d 516e e1bc
00000020: 9fd7 47bd 3171 343d bbda d9bd 6d76 e9bc
00000030: 6ec8 943d 014a 61bb 705e db3e 5522 903e
00000040: 5920 1abf e76e e1be 2c54 bbbd 7d89 1abd
00000050: 5a00 953c 2e4c e23c d8c1 f1bc ee25 10bd
00000060: a33a acbb d388 083e 90f7 94be 7b4c 0e3f
00000070: c3ee 5d3e d696 9c3d a653 f4be 6b2c 0a3e
00000080: f484 97bb 289d e03c d833 523c 405e 743c
00000090: fd7c 84bc 6081 713c 04ff 733e 004a 76be
000000a0: 8d1c 633e 27c7 19be 2206 4ebe 2719 cd3e
000000b0: ba63 e43b fe94 373c 62cc fbbc 9bc2 a9bc
000000c0: 9ea7 4e3d cdd4 3e3d 4f24 10bd 3368 c83d
000000d0: 2955 e83d 0605 e8bb f250 1b3d 3700 3abd
000000e0: 0562 40bb 8648 8b3d a768 dfbc 2b73 63be
000000f0: 692f 99bd 12fb e53b 462c 3abc f341 063d
00000100: 5825 e5bd 9696 4c3d 38c6 853e e731 0d3e
00000110: c4fb 0a3c 1f19 243e f9f4 15be 7468 48bc
00000120: 02e5 84bb 5070 06bb 6d42 cdbb 96ed 82bc
00000130: 58f2 a8bc ff23 62bd 899f b03e 9e97 dfbd
00000140: de43 873e 5fec 383f 9e6e 00bf 4f0f 2bbe
00000150: 3426 183d 1251 cc3b 017a 8d3c 0f7d 303c
00000160: 7545 e93d 8e54 f4bb 7761 ea3d 40ed e33e
00000170: 7a87 40be 0999 ddbd 8b8e 9c3d e535 05bc
00000180: cb6e 68bd 5aa4 503c bbcc a53c 1a98 abbc
00000190: c69e 873c 370d 2b3c 1e61 b43b 6f90 c93d
000001a0: db05 cb3e 9efe 8fbc 5980 59be 7d32 1ebe
000001b0: 4cac 4fbe 407b 75bd 43ba b03d 9e2b 463d
000001c0: 1094 2c3d f362 08be c495 e73c 8bd7 00bc
000001d0: 9214 2abf 6fe8 34bb 7a8c 043e f87c 733e
000001e0: cc18 733d 0285 99be 7c0d 5dbd 4cc9 aa3d
000001f0: 1cec f4bc 63df 4abc 2760 fa3d 6b29 8d3c
00000200: 8976 993b 1ed8 b6bd 8a0a 343e c039 aa3d
00000210: 781f 36be 7795 953e 8f62 d3bd ddf9 96bd
00000220: aedc 32bd c9e6 22bd 6770 f5bd 378e 06bd
00000230: a549 753d 7e0b 5dbd 373a a1bd a5c1 dabe
00000240: 75d4 dabe 4a90 423d cec1 51be 1c35 a63e
00000250: 212a 833e f43d aabb 7d47 a03c a98a 50bc
00000260: 55ff afba bfce 233d 763c fdbd 1b8d 2d3e
00000270: 03c2 27bf d5a7 7abe 018c 5fbd 14ff 4c3b
00000280: effa 073f c74b 1a3f 1f49 b43c eb29 c0bb
00000290: cfde 543c 8040 06b7 a2d8 77bc 7abc 68bc
000002a0: 63d1 64bd 8390 723d edf5 adbd d2ab 4c3e
000002b0: 274f b5bd 55da 7ebe 9b15 16be b674 02be
000002c0: 8b77 0d3d 4950 233d 3ee1 9dbc 7244 033c
000002d0: 5625 e63d e87f 9dbd e9ab d8bd 371a ea3e
000002e0: fb89 063f 557f 48be 0802 9bbe a24e 64bd
000002f0: 3e3a 9a3c 37e2 0dbc 177b f5bc 458c 16bc
00000300: 67ae 833c be41 bc3c 8b42 14bd 1616 4a3d
00000310: 784e ddbb 3930 bb3d 715a b6bd 2600 c33c
00000320: 5884 233d 4a2e 62be 8e24 ac3d 70dd 51be
00000330: 6224 223d 0b2a 9fbd ff07 073d e557 12bc
00000340: 00ad 663e 32ad 41be 21b5 0a3e 6a21 0dbd
00000350: 32c6 ba3e 9db8 7bbd a22f a8bd c495 cdbd
00000360: b2f5 c13d 1ee5 a6bd d950 9c3c 9fa1 43bd
00000370: 8f36 453d 22fa 043f 1d16 5dba 19bb d5bd
00000380: c7b9 593e 8329 6cbe a909 0abd 8314 44bc
00000390: dfd4 343b cc01 323d 40a2 383d c169 55bd
000003a0: e1f8 fd3c 3f40 da3d d88b e1be de58 e0bd
000003b0: fdf4 45be 435d 50be b16e 2a3f b725 983e
000003c0: c00a b13c 41aa 223c 0a49 2fbb d24d 32bc
000003d0: 72dc 5b3d 1e4a a33d dfdc 00bd 47fa 2c3e
000003e0: 74e5 92bd 602d 073f 0223 2b3e a037 033d
000003f0: 6a77 cabd a3b8 363d dc5a d23c af65 273e

bias f4 [32]
-0.16737896 -0.027200243 0.10022979 -0.57442766 -0.32990292 -0.29004988 -0.12655216 -0.2735032
-0.5157473 -0.3221932 -0.36804068 -0.6224632 -0.21867278 -0.4847421 -0.1421586 -0.21425459
-0.5025506 -0.29253906 -0.3244246 -0.22802441 -0.22083023 -0.2897737 -0.43179724 0.112898596
-0.279425 -0.5000502 -0.27455708 -0.17770232 -0.20558517 -0.23927921 -0.21781313 -0.16446766
00000000: 6465 2bbe 0bd3 debc 4745 cd3d b10d 13bf
00000010: 09e9 a8be 6b81 94be e496 01be 9d08 8cbe
00000020: 0408 04bf 82f6 a4be d46f bcbe c059 1fbf
00000030: c2eb 5fbe 1e30 f8be 0692 11be 8e65 5bbe
00000040: 28a7 00bf aec7 95be fb1a a6be 3b7f 69be
00000050: 5221 62be 385d 94be 8714 ddbe 6137 e73d
00000060: cb10 8fbe 4a03 00bf bf92 8cbe 99f7 35be
00000070: eb84 52be 9c05 75be 680a 5fbe 366a 28be

weight f4 [32, 13]
0.231974 0.17178446 0.3391523 0.22721814 -0.23581417 0.0276324 -0.03839182 -0.040975675
0.026433865 -0.042042203 0.008572593 -0.014430727 0.21424593 -0.073118344 0.1291719 -0.03515763
0.19071427 0.24472632 0.07457386 0.103562206 0.1429915 0.19723514 0.0077129365 0.0024388002
0.00876641 0.14595719 0.3924736 0.009596055 0.31714213 0.06598879 0.18801346 0.12151368
-0.18046638 0.066197485 -0.07972859 -0.03131782 -0.008124234 -0.039947573 -0.36906168 -0.50618964
0.23500076 0.10213779 0.14136526 0.031809077 -0.11284678 0.01995018 -0.01615364 -0.02877789
0.029416727 0.022751076 0.017630182 0.10786449 -0.1883172 0.10131812 -0.24367486 0.23275188
0.041755483 0.062713206 0.040109396 0.012823303 -0.06933221 0.01154376 0.017031103 0.08302082
-0.09557278 0.46758 0.12056279 0.11634386 -0.38263735 0.15920338 0.24522696 -0.068418264
-0.011827403 0.037235163 0.019123057 -0.17420971 0.021709671 -0.16873556 -0.46884745 0.04467082
-0.13119665 -0.020832354 -0.10874545 -0.17013156 -0.005495251 -0.035145894 0.015882146 -0.004206703
-0.010669265 0.004679207 -0.02228397 -0.4846606 -0.20108476 -0.14909375 0.4861322 0.015846072
0.3539233 0.010733329 -0.025178144 0.05586762 -0.012652006 -0.1372809 -0.04157606 -0.0209822
-0.9606025 -0.23246418 -0.07063992 0.012950387 -0.09461065 -0.0069791796 0.026650816 -0.009055682
-0.00060275296 0.002666946 0.0080597345 0.0064604613 0.000780776 0.1443697 -0.29492217 -0.16946368
0.32308573 0.1133577 0.040396556 0.004256888 0.042072207 -0.016553035 0.076352924 -0.055859756
0.01706916 -0.092173524 -0.037692763 -0.233884 0.04415966 -0.072043404 0.09585888 0.039073046
0.023593396 -0.0020213434 -0.106382675 -0.016908485 -0.046414208 0.039988153 -0.057094462 -0.06268504
-0.5115325 0.3725249 0.030953571 0.05961032 0.028349606 0.014751574 -0.010872604 0.0047053974
-0.0156083675 -0.014513975 -0.0035310048 -0.029907158 0.39964187 0.28723016 -0.05931823 -0.18915892
0.09647907 -0.04950198 -0.10629199 -0.19123283 -0.01986612 -0.10267444 0.04661407 -0.046631254
-0.25221357 0.44587827 -0.10679454 0.079693295 -0.42933956 -0.4117263 -0.092668466 0.17704129
-0.09244111 -0.008251716 0.0035456205 -0.009734108 -0.01131069 0.15745327 0.27799383 -0.09348409
0.21621144 0.22881557 0.06943836 -0.017636841 0.07767907 -0.090557426 -0.14903526 -0.019154055
-0.03368987 0.0040876484 0.00069066545 0.23871636 -0.16491057 0.012384217 -0.22583209 -0.18102744
-0.061613247 -0.17670481 0.09250301 0.099244475 0.013545491 0.00689973 0.017104054 -0.10305696
-0.03698691 0.11286199 0.44934717 -0.5673292 0.16461185 -0.020444624 -0.0044414746 -0.006118959
0.046922952 -0.008730956 0.085421 0.009102488 0.10413917 0.13483018 0.28594792 0.31507385
0.42765984 -0.14888924 0.029784676 -0.012593885 -0.021135317 -0.033582892 0.023523739 0.091519356
0.018749211 -0.046170603 0.16381046 0.4612405 -0.61062264 -0.24924496 -0.22208111 -0.008426401
0.027473414 -0.039010108 -0.036919504 -0.008920529 0.0099048745 0.014741277 0.1766945 -0.017804757
0.04183956 -0.044599704 -0.47339877 0.059902582 0.029795574 0.009280773 0.004395629 0.002437274
00000000: 988a 6d3e 44e8 2f3e 5fa5 ad3e dfab 683e
00000010: 4579 71be 585d e23c be40 1dbd 1cd6 27bd
00000020: d58b d83c 7234 2cbd 1074 0c3c db6e 6cbc
00000030: 4963 5b3e 12bf 95bd a345 043e 7201 10bd
00000040: 9a4a 433e 8999 7a3e 2eba 983d 6c18 d43d
00000050: 5d6c 123e 02f8 493e cdbc fc3b 47d4 1f3b
00000060: fda0 0f3c cd75 153e 4df2 c83e c638 1d3c
00000070: 7460 a23e 2125 873d 9a86 403e 2adc f83d
00000080: 2ecc 38be 8c92 873d be48 a3bd 1d47 00bd
00000090: 821b 05bc 11a0 23bd a7f5 bcbe a595 01bf
000000a0: 0aa4 703e 9e2d d13d 0ec2 103e 3c4a 023d
000000b0: 361c e7bd 8f6e a33c a354 84bc 9cbf ebbc
000000c0: 59fb f03c 7760 ba3c 2c6d 903c 0fe8 dc3d
000000d0: 39d6 40be e07f cf3d e785 79be 8256 6e3e
000000e0: cc07 2b3d c86f 803d c049 243d d518 523c
000000f0: 0cfe 8dbd 0a22 3d3c d084 8b3c d206 aa3d
00000100: a9bb c3bd a566 ef3e a0e9 f63d b145 ee3d
00000110: 0be9 c3be 3606 233e c71c 7b3e e01e 8cbd
00000120: b9c7 41bc e683 183d f5a7 9c3c 0864 32be
00000130: 7bd8 b13c 04c9 2cbe c60c f0be c0f8 363d
00000140: 6a58 06be 9da8 aabc efb5 debd f836 2ebe
00000150: 8211 b4bb 24f5 0fbd 461b 823c 62d8 89bb
00000160: 24ce 2ebc 0954 993b df8c b6bc 6f25 f8be
00000170: 2ae9 4dbe 08ac 18be 52e6 f83e 9fcf 813c
00000180: 6f35 b53e d8da 2f3c 6542 cebc 72d5 643d
00000190: 5c4a 4fbc 5d93 0cbe a94b 2abd dde2 abbc
000001a0: 0cea 75bf 170b 6ebe aaab 90bd dc2d 543c
000001b0: 3ac3 c1bd 9ab1 e4bb d052 da3c 495e 14bc
000001c0: 1102 1eba eec7 2e3b fa0c 043c 47b2 d33b
000001d0: feac 4c3a a7d5 133e 0a00 97be e387 2dbe
000001e0: 7e6b a53e 1528 e83d dc76 253d 5d7d 8b3b
000001f0: e853 2c3d 3b9a 87bc ec5e 9c3d 33cd 64bd
00000200: 9fd4 8b3c 79c5 bcbd ba63 1abd 4a7f 6fbe
00000210: c2e0 343d 7e8b 93bd a951 c43d 0f0b 203d
00000220: f046 c13c 8478 04bb 29df d9bd aa83 8abc
00000230: d31c 3ebd 9eca 233d e2db 69bd 0461 80bd
00000240: cbf3 02bf 95bb be3e 5892 fd3c f329 743d
00000250: 6f3d e83c 96b0 713c 0223 32bc bc2f 9a3b
00000260: 3dba 7fbc 06cc 6dbc 6e68 67bb dbff f4bc
00000270: dc9d cc3e d50f 933e acf7 72bd e0b2 41be
00000280: d296 c53d 97c2 4abd 9daf d9bd 8ad2 43be
00000290: 46be a2bc fa46 d2bd 65ee 3e3d 6a00 3fbd
000002a0: 2322 81be 284a e43e 19b7 dabd 3d36 a33d
000002b0: 65d2 dbbe cacd d2be f7c8 bdbd 504a 353e
000002c0: c451 bdbd 3532 07bc a45d 683b cf7b 1fbc
000002d0: 7950 39bc 6e3b 213e 3555 8e3e 9674 bfbd
000002e0: 8866 5d3e a14e 6a3e b335 8e3d 237b 90bc
000002f0: 3416 9f3d 2c76 b9bd b39c 18be f7e8 9cbc
00000300: 64fe 09bd aef1 853b c60d 353a 1072 743e
00000310: 51de 28be 2ce7 4a3c 8740 67be 425f 39be
00000320: 2c5e 7cbd 1bf2 34be 3872 bd3d b040 cb3d
00000330: e8ed 5d3c 2117 e23b cd1d 8c3c 870f d3bd
00000340: 967f 17bd 3024 e73d d510 e63e 7d3c 11bf
00000350: 0290 283e 7c7b a7bc ca89 91bb 8c81 c8bb
00000360: 4832 403d 490c 0fbc 35f1 ae3d 9a22 153c
00000370: eb46 d53d ec10 0a3e c467 923e 5c51 a13e
00000380: 3bf6 da3e 6c76 18be fefe f33c 9556 4ebc
00000390: f923 adbc 378e 09bd dbb4 c03c 806e bb3d
000003a0: f297 993c 631d 3dbd eebd 273e b727 ec3e
000003b0: c451 1cbf 123a 7fbe 3b69 63be e30e 0abc
000003c0: ed0f e13c 10c9 1fbd e838 17bd 6927 12bc
000003d0: 0e48 223c 6685 713c 67ef 343e 48db 91bc
000003e0: f55f 2b3d 2eae 36bd 5361 f2be 695c 753d
000003f0: d915 f43c 620e 183c 3509 903b acba 1f3b

bias f4 [32]
0.40192908 -0.10957631 0.014106688 -0.019817935 -0.037486885 0.1904903 -0.10371201 0.0058980435
-0.45613092 0.0023318834 0.02895441 0.03465738 0.15513024 -0.09518826 0.008466543 -0.20411505
0.012881628 0.06956175 0.0848938 -0.025364075 -0.049328744 -0.068975605 -0.54125816 0.009972704
0.12616076 0.05863561 0.1617081 0.030515347 -0.24640784 0.047641415 -0.15685822 0.028822742
00000000: a6c9 cd3e 8b69 e0bd bd1f 673c 3959 a2bc
00000010: d98b 19bd e40f 433e f666 d4bd 6044 c13b
00000020: fe89 e9be 83d2 183b cd31 ed3c e6f4 0d3d
00000030: 76da 1e3e 10f2 c2bd 41b7 0a3c 8903 51be
00000040: 770d 533c 6476 8e3d cddc ad3d 52c8 cfbc
00000050: f00c 4abd 1543 8dbd e58f 0abf 8d64 233c
00000060: 4930 013e e52b 703d cf96 253e 52fb f93c
00000070: 5652 7cbe a523 433d 719f 20be ac1d ec3c

weight f4 [32, 64]
0.20186174 0.24427588 -0.056862127 -0.13167134 0.21203975 -0.06718635 0.4158833 -0.13883522
0.17501578 -0.08129006 0.17815995 -0.37460968 -0.15815708 0.10530915 0.23874119 0.37890428
0.034722626 -0.16639942 -0.040246997 0.38660094 -0.03744993 0.39625987 -0.016458869 0.43241704
-0.0514704 0.3325907 0.24857602 0.06279546 -0.16794915 0.5901587 -0.02513124 -0.051945664
0.060265794 -0.02103553 0.0863837 -0.17860508 -0.27818802 0.0577899 -0.27993506 -0.070380494
-0.0768456 -0.28603923 -0.35685644 -0.24324039 -0.27181026 -0.27104878 -0.03714978 -0.22208552
-0.3738876 -0.17742382 -0.2454263 -0.38345814 -0.25724348 -0.16779383 -0.27506134 -0.053221416
-0.04419896 -0.25329328 -0.18837592 -0.027826747 -0.13970196 -0.26907492 -0.21586013 -0.28689927
0.07673329 0.016074335 -0.04438228 0.008569776 0.022718307 0.057568233 0.09406999 0.020056564
-0.062058978 0.016952353 0.097354196 -0.015051671 0.003940588 0.02212229 0.06647924 -0.09100127
0.031035261 0.058755916 -0.012784317 0.061545342 -0.055946454 -0.094097055 -0.029798454 0.024673223
0.09010187 0.08752529 0.07143727 -0.06516427 -0.010403713 -0.029385189 -0.06957673 0.105922624
-0.09362063 -0.024851957 -0.08171414 0.061998893 -0.09171039 0.09031518 -0.08481443 -0.10499681
0.04582402 -0.04709068 -0.13417126 -0.0687301 0.11403188 -0.04859162 -0.12492589 0.12485393
-0.017250853 -0.10975746 -0.0077850716 -0.062200762 0.069990166 0.068729594 0.08654713 -0.04267075
0.036128405 -0.11199234 -0.04275459 0.028584277 -0.078418896 0.022573432 -0.003910919 -0.028875696
0.02452554 -0.04900477 0.11342324 -0.14055087 0.19385614 -0.10693021 -0.17995343 -0.03947664
0.029896853 0.036313165 0.15627031 -0.03920079 -0.25994697 -0.07365453 0.104739316 -0.034679294
0.2643918 -0.017386988 -0.16817103 0.057555594 -0.015978463 0.007944171 0.06579727 0.0021139306
-0.032989625 0.117805354 0.18600799 -0.0067649167 -0.031369943 0.31434128 -0.12380011 0.078119114
-0.09627024 -0.04624109 -0.13506024 -0.0019547325 -0.40068123 -0.0885942 -0.4006421 0.055143457
-0.17331159 -0.31806883 -0.25889164 0.05832942 0.04708434 -0.2175935 -0.10517199 -0.5748728
0.08558952 -0.14964665 -0.09682184 -0.61625874 -0.3104454 -0.62956536 0.059303407 -0.06483457
-0.031839844 -0.21419357 -0.2873529 -0.020177307 -0.37549403 -0.1962587 -0.2829603 -0.11144512
-0.36260533 -0.20297621 -0.09346604 -0.29179516 0.22300778 -0.047683522 -0.24068478 0.21823762
0.05660019 -0.1450381 -0.227711 -0.23730268 0.18108945 -0.5529095 -0.16262928 -0.14147094
-0.017116085 0.23675463 -0.08944597 -0.06029837 -0.00038336468 -0.22188811 -0.045021687 -0.5381344
-0.3330254 -0.31051427 -0.34795895 -0.09280228 -0.00045910358 -0.04884902 -0.54852164 -0.1599571
-0.37227118 0.15802987 -0.050995283 -0.3227933 0.17663236 -0.2438648 -0.16906972 0.03361427
0.18739595 -0.26793084 -0.23519142 -0.51091063 -0.17945588 -0.562201 -0.046681877 0.0025675525
-0.2699432 -0.09602603 -0.121177554 -0.10795028 -0.13555478 -0.31372046 -0.24904974 0.099691235
-0.124565564 -0.23571785 -0.39354232 -0.15590541 0.19833566 -0.19731908 -0.05255874 -0.37967098
00000000: d8b4 4e3e 7523 7a3e 43e8 68bd dad4 06be
00000010: f320 593e ff98 89bd a8ee d43e d22a 0ebe
00000020: 5637 333e 677b a6bd 906f 363e d7cc bfbe
00000030: eef3 21be 53ac d73d 9278 743e beff c13e
00000040: 5039 0e3d 9c64 2abe 09da 24bd 8ff0 c53e
00000050: 1965 19bd 93e2 ca3e c0d4 86bc c465 dd3e
00000060: a0d2 52bd 5449 aa3e b68a 7e3e e89a 803d
00000070: ddfa 2bbe a414 173f 08e0 cdbc fac4 54bd
00000080: 44d9 763d b452 acbc f0e9 b03d 40e4 36be
00000090: a96e 8ebe 1ab5 6c3d a653 8fbe a623 90bd
000000a0: 3a61 9dbd bc73 92be e3b5 b6be 0214 79be
000000b0: b72a 8bbe e8c6 8abe 5e2a 18bd 636a 63be
000000c0: 326e bfbe 97ae 35be 0851 7bbe a054 c4be
000000d0: 6bb5 83be 25d2 2bbe d7d4 8cbe b3fe 59bd
000000e0: f809 35bd a8af 81be 9ee5 40be ebf4 e3bc
000000f0: 080e 0fbe 30c4 89be 700a 5dbe 76e4 92be
00000100: 5826 9d3d 53ae 833c 32ca 35bd 3f68 0c3c
00000110: be1b ba3c abcc 6b3d c4a7 c03d aa4d a43c
00000120: 8e31 7ebd a9df 8a3c a361 c73d 499b 76bc
00000130: 0c20 813b ce39 b53c 4526 883d e05e babd
00000140: a93d fe3c 0baa 703d 5075 51bc f816 7c3d
00000150: 1c28 65bd f5b5 c0bd e31b f4bc 801f ca3c
00000160: 5487 b83d 7640 b33d b44d 923d d874 85bd
00000170: 5674 2abc 35b9 f0bc 3f7e 8ebd f6ed d83d
00000180: 2cbc bfbd 5596 cbbc be59 a7bd 8df2 7d3d
00000190: a8d2 bbbd 2af7 b83d 30b3 adbd 9108 d7bd
000001a0: f8b1 3b3d 28e2 40bd 3164 09be 5ec2 8cbd
000001b0: 8c89 e93d 0208 47bd 25d9 ffbd 6bb3 ff3d
000001c0: a951 8dbc 85c8 e0bd ea19 ffbb 3ac6 7ebd
000001d0: 0157 8f3d 1ac2 8c3d 9f3f b13d 86c7 2ebd
000001e0: 61fb 133d 3d5c e5bd 701f 2fbd 9329 ea3c
000001f0: 169a a0bd ebeb b83c 2b27 80bb b98c ecbc
00000200: c9e9 c83c 3ab9 48bd 724a e83d 91ec 0fbe
00000210: 3982 463e 3afe dabd b645 38be 42b2 21bd
00000220: 3fea f43c 1dbd 143d 5305 203e 0291 20bd
00000230: c517 85be 30d8 96bd 9181 d63d e00b 0ebd
00000240: 5d5e 873e 286f 8ebc 0735 2cbe 6abf 6b3d
00000250: 44e5 82bc 4528 023c b8c0 863d df89 0a3b
00000260: 2120 07bd ef43 f13d e178 3e3e 3cac ddbb
00000270: c57d 00bd 57f1 a03e e98a fdbd eafc 9f3d
00000280: 5529 c5bd 4c67 3dbd 3b4d 0abe f81a 00bb
00000290: 1726 cdbe e070 b5bd f620 cdbe 1bde 613d
000002a0: 9878 31be ebd9 a2be 728d 84be d4ea 6e3d
000002b0: 82db 403d d5d0 5ebe 6a64 d7bd dd2a 13bf
000002c0: 8f49 af3d f93c 19be 874a c6bd 22c3 1dbf
000002d0: b3f2 9ebe 322b 21bf 21e8 723d fdc7 84bd
000002e0: 7f6a 02bd 8f55 5bbe eb1f 93be e14a a5bc
000002f0: c140 c0be 0af8 48be 2ce0 90be 573d e4bd
00000300: 68a7 b9be ffd8 4fbe 206b bfbd 2d66 95be
00000310: 275c 643e cc4f 43bd 1276 76be af79 5f3e
00000320: 9ad5 673d de84 14be 132d 69be 79ff 72be
00000330: 836f 393e 7a8b 0dbf 4a88 26be c2dd 10be
00000340: 0837 8cbc ce6f 723e 732f b7bd 6cfb 76bd
00000350: 56fe c8b9 a336 63be a968 38bd 2dc3 09bf
00000360: 4e82 aabe bafb 9ebe ad27 b2be 1f0f bebd
00000370: d7b3 f0b9 e915 48bd ea6b 0cbf cbcb 23be
00000380: 549a bebe 95d2 213e 6ee0 50bd 2a45 a5be
00000390: 1ddf 343e b2b7 79be 9d20 2dbe 1eaf 093d
000003a0: b9e4 3f3e 3b2e 89be 05d6 70be 0acb 02bf
000003b0: 48c3 37be 68ec 0fbf 7f35 3fbd 6244 283b
000003c0: ff35 8abe 4ca9 c4bd f02b f8bd 0915 ddbd
000003d0: dfce 0abe f89f a0be e506 7fbe eb2a cc3d
000003e0: 3b1c ffbd 0560 71be 617e c9be aba5 1fbe
000003f0: 8118 4b3e 030e 4abe d547 57bd 3c64 c2be

bias f4 [32]
0.3856152 -0.10982803 0.014081432 -0.01987775 -0.037487295 0.19074485 -0.09198041 0.0068642106
-0.4006818 0.0023331172 0.028954728 0.032422826 0.15479535 -0.0990789 0.0084666675 -0.20885655
0.012881613 0.06719105 0.08787366 -0.02505342 -0.04933502 -0.068840794 -0.58190465 0.009325835
0.1408469 0.0590642 0.1627186 0.030420087 -0.22591357 0.04763919 -0.1437124 0.028821079
00000000: 5b6f c53e 85ed e0bd ceb5 663c aad6 a2bc
00000010: 478c 19bd 9e52 433e 3a60 bcbd 2ced e03b
00000020: 2a26 cdbe 36e7 183b 7732 ed3c cccd 043d
00000030: ac82 1e3e e1e9 cabd c7b7 0a3c 7ede 55be
00000040: 670d 533c 769b 893d 1bf7 b33d d43c cdbc
00000050: 8513 4abd 67fc 8cbd b4f7 14bf 63cb 183c
00000060: 2b3a 103e 4ded 713d b49f 263e 8c33 f93c
00000070: e355 67be 5021 433d 5829 13be 2f1a ec3c

weight f4 [32, 32]
-0.0634022 -0.18992044 -0.1780427 -0.09470461 0.12843965 -0.15550753 0.21290506 0.046818603
-0.08473178 0.10517636 0.23086645 -0.14732973 -0.122683086 -0.12660564 0.079018556 0.105853975
0.1301057 -0.15194732 0.022839874 0.24002141 0.12784241 0.1126975 0.06243289 -0.23665538
-0.018688107 0.0022955057 -0.0091065345 -0.07519774 0.012719708 -0.21782231 -0.13848448 0.25248244
-0.06423268 0.01642681 -0.039434895 -0.05400591 -0.5459582 -0.12936693 -0.28431547 0.044801787
0.030468307 -0.08526432 -0.22674385 0.0711895 -0.027440637 0.027577536 -0.10356198 -0.46727604
-0.094872065 -0.33307236 0.03510045 -0.5728883 -0.03098336 -0.025726538 0.10185791 -0.19777858
-0.049823344 -0.088240765 -0.28089035 -0.084327236 -0.0066888067 0.24382758 -0.23768577 -0.034187242
-0.05320694 0.04878595 -0.4775398 -0.41295862 -0.23008911 -0.0011984844 0.082999006 -0.23675624
-0.24461529 -0.05904317 -0.038141456 -0.15535976 -0.18580188 -0.051185433 -0.34012598 -0.035863217
0.11471636 -0.5361669 -0.22094598 -0.04094987 -0.1525005 -0.018068556 0.06488113 -0.18883327
-0.13944963 -0.11447494 0.10018093 -0.18555328 -0.38940462 -0.16065554 -0.77657294 0.03202864
0.17401929 0.1324558 0.04460705 0.25900313 0.036564797 -0.11138599 -0.25079015 0.02528358
-0.10653018 0.03739967 -0.114822105 2.1658652e-05 0.13377215 -0.13132596 0.029573567 0.21455275
-0.12530358 0.16046101 0.02437195 0.040685434 -0.009404533 0.0451486 -0.041656338 0.19206576
0.020103121 0.10256966 0.13344944 0.010372517 0.0441842 -0.03405622 -0.020491235 0.023894701
-0.043886334 -0.049370244 0.15588723 -0.12757175 0.10087522 -0.063353635 -0.070946954 0.10144821
0.07388772 -0.10949093 -0.054615002 -0.07102677 -0.08399376 0.17141154 -0.02784749 0.007862466
-0.030425629 0.32908297 -0.37465477 -0.017097322 0.20272826 0.0028220909 -0.13885602 -0.12951058
-0.062283345 0.12941138 -0.17365241 -0.057436477 -0.12548251 0.10481305 0.04527388 -0.09917675
-0.013358645 -0.045229416 -0.07496 -0.017855104 -0.014046181 -0.03398128 -0.02859054 2.486087e-05
-0.028607976 0.01241531 -0.011394216 -0.023794502 -0.021660004 -0.015459507 -0.03954281 -0.0010916861
-0.027159795 -0.076949745 -0.02134236 -0.04547175 -0.02818995 -0.004188014 -0.01662735 -0.056695737
-0.025653714 -0.022106359 -0.0057046423 -0.040947974 -0.01121159 -0.05575817 -0.029824743 -0.018115202
0.038367223 0.25399306 -0.37120226 0.15439339 0.13968842 0.06666457 0.1438727 -0.012343024
-0.20017408 0.10471194 0.023366801 -0.4605357 0.017729213 -0.24827158 0.08064063 0.07158944
-0.17776799 -0.09660289 -0.088150956 0.2028609 -0.027039196 0.087351255 0.085626304 0.36892408
0.05082799 0.0012212499 0.19556642 0.071927994 -0.036697526 0.17516352 0.2804348 -0.07782389
0.12672599 0.07420477 0.03879526 -0.071778476 0.15371275 -0.058213506 0.18893827 -0.015780218
0.13143219 0.117457144 -0.0035828485 -0.07921576 0.118409455 0.080220506 -0.050302964 0.063637294
0.02498882 0.06909526 0.023155058 0.10677937 0.12281023 0.031604998 0.009646748 -0.030849278
0.072174974 0.07707077 0.0668 -0.013284816 -0.11149857 0.114595205 -0.086022004 0.026088914
00000000: 03d9 81bd 817a 42be d350 36be 7ef4 c1bd
00000010: af85 033e 5e3d 1fbe c903 5a3e ddc4 3f3d
00000020: db87 adbd b466 d73d 4168 6c3e 9bdd 16be
00000030: 4541 fbbd e9a4 01be 7bd4 a13d f8c9 d83d
00000040: 6e3a 053e 1498 1bbe b01a bb3c 2cc8 753e
00000050: 1fe9 023e f2cd e63d a1b9 7f3d ca55 72be
00000060: cd17 99bc 3270 163b 9333 15bc 4601 9abd
00000070: 5266 503c d00c 5fbe e0ce 0dbe 6145 813e
00000080: 6c8c 83bd 8491 863c 7c86 21bd 4d35 5dbd
00000090: ebc3 0bbf c478 04be cc91 91be 1482 373d
000000a0: ac98 f93c 0f9f aebd 8a2f 68be cdcb 913d
000000b0: 30cb e0bc 49ea e13c 4e18 d4bd ce3e efbe
000000c0: 494c c2bd 7688 aabe 7dc5 0f3d cfa8 12bf
000000d0: d1d0 fdbc 76c0 d2bc e19a d03d 7886 4abe
000000e0: 9013 4cbd 93b7 b4bd dcd0 8fbe c2b3 acbd
000000f0: c72d dbbb f0ad 793e e663 73be ec07 0cbd
00000100: 85ef 59bd c7d3 473d 1980 f4be 506f d3be
00000110: 7b9c 6bbe 7716 9dba 62fb a93d 3a70 72be
00000120: 6e7c 7abe 40d7 71bd 373a 1cbd a116 1fbe
00000130: d942 3ebe d1a7 51bd fe24 aebe 4fe5 12bd
00000140: 69f0 ea3d 3c42 09bf aa3f 62be 0dbb 27bd
00000150: 1729 1cbe 8204 94bc 66e0 843d 825d 41be
00000160: e2cb 0ebe d671 eabd a92b cd3d ae01 3ebe
00000170: 0b60 c7be e382 24be 7ccd 46bf 7730 033d
00000180: 1d32 323e 7ea2 073e e2b5 363d 0f9c 843e
00000190: f8c4 153d 571e e4bd 9167 80be 831f cf3c
000001a0: 7f2c dabd 6530 193d da27 ebbd 9aaf b537
000001b0: 91fb 083e 507a 06be 4444 f23c b7b3 5b3e
000001c0: 954f 00be e44f 243e afa7 c73c c5a5 263d
000001d0: 7815 1abc bded 383d d69f 2abd e3ac 443e
000001e0: 4daf a43c 0b10 d23d f8a6 083e 7df1 293c
000001f0: 7efa 343d 897e 0bbd 3cdd a7bc d2be c33c
00000200: 28c2 33bd 7438 4abd e7a0 1f3e 2ba2 02be
00000210: ab97 ce3d 8dbf 81bd a34c 91bd 14c4 cf3d
00000220: 7252 973d c83c e0bd fbb3 5fbd 7c76 91bd
00000230: ec04 acbd 8286 2f3e 6b20 e4bc 93d1 003c
00000240: 2b3f f9bc 907d a83e c0d2 bfbe af0f 8cbc
00000250: ff97 4f3e d4f2 383b 4630 0ebe 6c9e 04be
00000260: d21c 7fbd 6b84 043e f0d1 31be 8342 6bbd
00000270: 7d7e 00be 39a8 d63d 1b71 393d 2e1d cbbd
00000280: 38de 5abc 7b42 39bd a184 99bd de44 92bc
00000290: f421 66bc f42f 0bbd b536 eabc 508c d037
000002a0: 465b eabc 9669 4b3c ceae 3abc b0ec c2bc
000002b0: 5270 b1bc df49 7dbc a4f7 21bd e816 8fba
000002c0: 387e debc d497 9dbd 2cd6 aebc 9640 3abd
000002d0: 9cee e6bc 9c3b 89bb 1536 88bc ca39 68bd
000002e0: bd27 d2bc 6518 b5bc 02ee babb 10b9 27bd
000002f0: d1b0 37bc ae62 64bd 0553 f4bc 5566 94bc
00000300: f326 1d3d 610b 823e 390e bebe 4d19 1e3e
00000310: 7b0a 0f3e 6f87 883d 5d53 133e 653a 4abc
00000320: 6ffa 4cbe 3773 d63d bc6b bf3c 56cb ebbe
00000330: db3c 913c e83a 7ebe ea26 a53d 7c9d 923d
00000340: d008 36be bcd7 c5bd 7d88 b4bd c5ba 4f3e
00000350: 4e81 ddbc 37e5 b23d d85c af3d 9ee3 bc3e
00000360: 0331 503d 5912 a03a 9042 483e fc4e 933d
00000370: 2550 16bd 115e 333e 2695 8f3e 2262 9fbd
00000380: 75c4 013e acf8 973d c7e7 1e3d 9800 93bd
00000390: e066 1d3e 4971 6ebd 0979 413e 8445 81bc
000003a0: 2996 063e 5f8d f03d 39ce 6abb df3b a2bd
000003b0: a880 f23d a64a a43d 7b0a 4ebd 4554 823d
000003c0: 5bb5 cc3c d181 8d3d adaf bd3c 24af da3d
000003d0: ee83 fb3d 3e74 013d 650d 1e3c a0b7 fcbc
000003e0: 79d0 933d 48d7 9d3d 70ce 883d 8fa8 59bc
000003f0: 5d59 e4bd e4b0 ea3d 4e2c b0bd 6bb8 d53c

bias f4 [32]
0.14901848 -0.069324255 0.36188814 0.15452781 0.01190308 -0.005398729 0.08741557 0.9174929
0.0070240675 -6.055482e-13 0.041911688 -0.03917265 -0.029013705 -0.022282017 0.8670028 -0.0939096
0.94374377 -0.02635783 0.09562186 -0.0076059676 0.017735142 0.030047549 0.07359953 -1.7844853e-14
0.02223718 0.11634563 0.034332592 0.21921277 0.034025967 0.11248004 -8.7326e-41 0.0065663424
00000000: 4d98 183e e0f9 8dbd 6749 b93e 8a3c 1e3e
00000010: 2305 433c d2e7 b0bb ef06 b33d d1e0 6a3f
00000020: 262a e63b 5972 2aab 97ab 2b3d 8073 20bd
00000030: 26ae edbc c788 b6bc e5f3 5d3f ad53 c0bd
00000040: 3199 713f 60ec d7bc 65d5 c33d 7b3b f9bb
00000050: 4a49 913c 4726 f63c 5abb 963d 6ebb a0a8
00000060: bf2a b63c 9e46 ee3d 55a0 0c3d 5079 603e
00000070: d05e 0b3d ef5b e63d 6ef3 0080 792a d73b

weight f4 [32, 32]
-0.087385125 -0.042776752 -0.07407138 -0.018508157 0.08415145 0.06434847 -0.56995976 -0.37897214
-0.12188272 0.055790506 -0.15263464 -0.10225586 -0.09783673 0.14910994 0.11630775 -0.08419128
0.16099064 0.28902444 -0.055763897 -0.011814846 -0.042105716 0.013573975 0.13809629 -0.26955926
-0.5160753 0.057064883 -0.45033658 -0.18321499 0.028547574 0.08971021 -0.030019742 -0.08264654
-0.13601908 0.055447947 0.40443197 -0.087619215 -0.06597387 -0.03304306 -0.22881505 0.05720493
-0.0150872385 -0.08187285 -0.2741625 -0.2723534 -0.07497735 -0.28523347 -0.020281551 0.0766853
-0.09230381 -0.13278632 -0.21879846 -0.08317409 0.060380537 -0.044653017 0.11228588 -0.13777378
0.09690095 0.28030732 0.09970565 0.018143496 -0.006003799 -0.18740772 -0.33324945 -0.093726344
0.23613998 0.20792565 -0.08883072 -0.06431908 0.07036979 -0.48146945 0.017957607 0.052863702
0.030854292 0.00175554 -0.005029532 -0.16295159 0.16687301 0.23410937 0.25158447 0.17760926
-0.6768829 0.258925 -0.2394843 -0.36950585 -0.23694779 -0.12505634 -0.70011777 -0.40016994
-0.69042885 -0.7677475 -0.05934196 0.70305073 -0.004291372 0.48073032 0.15934542 0.39087868
0.048571385 -0.034210168 -0.14651273 0.004125647 0.02318832 0.54357314 -0.16632208 -0.0074962904
-0.13676858 -0.040175248 -0.105526015 -0.19238071 0.0072407476 0.0947255 0.027447077 -0.07147157
-0.06968448 0.33870044 -0.086185254 -0.059371173 0.13506512 0.053554386 0.07796286 0.031374134
-0.2790037 0.24415697 -0.3537506 -0.03508215 -0.093426965 -0.124877736 -0.22875053 0.10275072
0.15082335 -0.012972476 -0.12589747 0.002198696 -0.03858297 -0.29057422 -0.0053896103 -0.1571603
-0.3744969 -0.054756716 -0.009239823 -0.19718543 -0.081264995 0.13430609 -0.15831022 0.04758209
-0.17996764 -0.15457706 -0.2993927 -0.055340778 -0.124884576 0.043671746 0.15911572 -0.013278423
-0.47027487 -0.0643413 -0.14881979 0.12021295 0.09928224 0.0940226 0.06644535 -0.121330135
-0.008415086 -0.018735833 -0.0056683216 -0.010665536 -0.0052926037 0.008979478 -0.019834949 -0.016625114
-0.016519342 0.00015568835 -0.0090587735 -0.008457087 -0.017808542 0.001506093 0.01707778 -0.017881116
-0.016503673 -0.012536986 -0.01062624 -0.04404005 -0.007022188 -0.04973906 -0.0381827 -0.01324085
-0.044536084 -0.03171515 -0.019517941 0.021357132 -0.02002452 0.012265071 0.006787624 0.031850852
-0.010074501 0.09361299 -0.11019245 0.19289127 0.14173035 0.37983686 0.02369462 -0.17050706
-0.2617406 0.021974726 -0.21674623 -0.7530419 0.08420267 0.08005444 -0.04540066 -0.10248146
0.007876632 -0.25337926 -0.5040784 -0.1761024 -0.18800175 0.09693739 -0.40474266 -0.27988556
-0.3459785 0.036087457 0.11392638 0.35750648 0.04293878 0.27120608 0.20686115 -0.013825352
0.26635098 0.044497117 0.50195825 -0.45082805 0.021936938 0.7828209 -0.45320445 -0.43161747
0.044636454 -0.2429959 -0.0052271914 -0.10267981 0.54488355 0.08934895 0.23135123 0.067196146
-0.12244084 0.23223168 0.19349082 -0.088482 -0.042997666 -0.12701696 -0.054295707 -0.17951122
-0.39557976 0.4885735 -0.45044225 0.17067973 0.068468094 0.16113536 0.15498123 0.5355776
00000000: f9f6 b2bd ad36 2fbd bcb2 97bd 6b9e 97bc
00000010: 9857 ac3d 21c9 833d e2e8 11bf a308 c2be
00000020: a69d f9bd 9684 643d 414c 1cbe 856b d1bd
00000030: a05e c8bd 47b0 183e c232 ee3d 7a6c acbd
00000040: bbda 243e 03fb 933e af68 64bd 0e93 41bc
00000050: 0b77 2cbd 6165 5e3c 1d69 0d3e ac03 8abe
00000060: 831d 04bf debc 693d 8492 e6be b69c 3bbe
00000070: 9adc e93c fdb9 b73d f6eb f5bc 9742 a9bd
00000080: 9648 0bbe 631d 633d b511 cf3e b471 b3bd
00000090: 4f1d 87bd 2958 07bd 7e4e 6abe b74f 6a3d
000000a0: 7730 77bc f4ac a7bd 075f 8cbe e871 8bbe
000000b0: ba8d 99bd 1f0a 92be 7f25 a6bc 2f0d 9d3d
000000c0: c809 bdbd 23f9 07be b40c 60be 2d57 aabd
000000d0: 9551 773d 15e6 36bd 24f6 e53d 9214 0dbe
000000e0: 0174 c63d 7184 8f3e 7a32 cc3d aba1 943c
000000f0: 84bb c4bb cfe7 3fbe ac9f aabe 99f3 bfbd
00000100: aece 713e 76ea 543e e1ec b5bd b9b9 83bd
00000110: 091e 903d 2a83 f6be d51b 933c 9c87 583d
00000120: 24c2 fc3c 261a e63a c6ce a4bb c8dc 26be
00000130: c2e0 2a3e 5eba 6f3e aecf 803e 34df 353e
00000140: 3348 2dbf d191 843e 5f3b 75be df2f bdbe
00000150: 71a2 72be c50e 00be eb3a 33bf 13e3 ccbe
00000160: f2bf 30bf 1a8b 44bf 8e10 73bd 22fb 333f
00000170: a39e 8cbb 4922 f63e 722b 233e 4021 c83e
00000180: caf2 463d f61f 0cbd 6f07 16be 6f30 873b
00000190: 6ff5 bd3c 9c27 0b3f 5650 2abe 71a3 f5bb
000001a0: 100d 0cbe cd8e 24bd 061e d8bd 73ff 44be
000001b0: cb43 ed3b 71ff c13d b1d8 e03c b05f 92bd
000001c0: bdb6 8ebd 256a ad3e e581 b0bd 302f 73bd
000001d0: 834e 0a3e d85b 5b3d feaa 9f3d 2a82 003d
000001e0: 93d9 8ebe 4904 7a3e cc1e b5be 4db2 0fbd
000001f0: a356 bfbd e6bf ffbd 943d 6abe f86e d23d
00000200: 7071 1a3e 828a 54bc 44eb 00be ff17 103b
00000210: 2d09 1ebd 25c6 94be 549b b0bb a1ee 20be
00000220: 0fbe bfbe 9448 60bd a062 17bc faea 49be
00000230: 436e a6bd 8987 093e 131c 22be 70e5 423d
00000240: 7049 38be 7349 1ebe 004a 99be 03ad 62bd
00000250: 7cc3 ffbd 25e1 323d 3bef 223e be8d 59bc
00000260: dec7 f0be 5fc5 83bd 3764 18be 3532 f63d
00000270: 7d54 cb3d ec8e c03d 8014 883d ef7b f8bd
00000280: 6edf 09bc e47b 99bc 54bd b9bb 80be 2ebc
00000290: 946d adbb a91e 133c e77c a2bc 6431 88bc
000002a0: 9253 87bc 4640 2339 406b 14bc 988f 0abc
000002b0: 38e3 91bc 1868 c53a b3e6 8b3c 6b7b 92bc
000002c0: b632 87bc ee67 4dbc ae19 2ebc 5763 34bd
000002d0: 621a e6bb 2fbb 4bbd 7665 1cbd 26f0 58bc
000002e0: 786b 36bd bfe7 01bd 17e4 9fbc 27f5 ae3c
000002f0: 760a a4bc 70f3 483c b86a de3b 0a76 023d
00000300: 850f 25bc 2bb8 bf3d 94ac e1bd 4a85 453e
00000310: c321 113e fa79 c23e 381b c23c 6799 2ebe
00000320: dd02 86be 5704 b43c b9f2 5dbe 5bc7 40bf
00000330: 7372 ac3d 95f3 a33d 0bf6 39bd cde1 d1bd
00000340: fd0c 013c edba 81be 480b 01bf 3054 34be
00000350: 8883 40be 1c87 c63d 6e3a cfbe 294d 8fbe
00000360: 1824 b1be 71d0 133d 3c52 e93d 170b b73e
00000370: 93e0 2f3d 86db 8a3e 69d3 533e bb83 62bc
00000380: 285f 883e 9c42 363d 5680 003f efd2 e6be
00000390: 18b5 b33c f366 483f 6a0a e8be f7fc dcbe
000003a0: b7d4 363d ebd3 78be dc48 abbb cb49 d2bd
000003b0: 7d7d 0b3f 95fc b63d 56e7 6c3e 229e 893d
000003c0: 43c2 fabd 24ce 6d3e 7522 463e 0d36 b5bd
000003d0: 521e 30bd bc10 02be 2d65 5ebd cad1 37be
000003e0: 6e89 cabe 4e26 fa3e 5ea0 e6be abc6 2e3e
000003f0: 0039 8c3d ab00 253e 66b3 1e3e 9d1b 093f

bias f4 [32]
0.13563739 -0.06807108 0.36750004 0.15675679 0.008997296 -0.00540605 0.07851115 1.0249424
0.0057399035 -4.724112e-13 0.09651789 -0.03984091 -0.03064962 -0.02260333 0.90214735 -0.093857154
0.9029509 -0.026604056 0.091631144 -0.008000901 0.016359577 0.028313057 0.07186986 9.4211485e-15
0.02062406 0.10328928 0.034027163 0.21142372 0.03294291 0.1084374 -1.216728e-39 0.0071760723
00000000: 87e4 0a3e da68 8bbd f728 bc3e da84 203e
00000010: 6569 133c 3c25 b1bb 74ca a03d 5031 833f
00000020: cd15 bc3b d1f8 04ab 2cab c53d 3930 23bd
00000030: e914 fbbc 9e2a b9bc 21f3 663f 2e38 c0bd
00000040: ca27 673f c0f0 d9bc 1ca9 bb3d 3616 03bc
00000050: 8504 863c c9f0 e73c 8130 933d 61b7 2928
00000060: caf3 a83c 5489 d33d 1160 0b3d 767f 583e
00000070: 25ef 063d 6d14 de3d be3f 0d80 4225 eb3b

weight f4 [32, 32]
-0.024480565 -0.17686285 -0.16140012 0.0020225486 -0.12774655 0.10008723 0.09336832 0.042692292
-0.35655922 -0.04225326 -0.04918105 -0.6107233 0.12393577 -0.29980987 -0.047961447 -0.30071014
-0.016860303 -0.013248213 -0.37551102 0.042240776 -0.33842608 -0.06673461 -0.3194934 -0.084025644
0.011070208 0.2134693 0.053559452 0.004131695 -0.36177105 0.07347354 -0.1737751 0.26657185
-0.100050636 -0.12521584 0.09038328 0.119838856 -0.040188633 0.043825604 0.19316615 -0.0131996665
-0.18576579 0.16082221 0.0106456475 0.08593845 -0.0037934915 -0.22283536 0.20843925 -0.110268004
0.028151939 -0.017728623 -0.10144868 0.010134114 -0.034100536 0.004218018 -0.08185257 -0.12865312
-0.056551855 0.17810257 0.06158492 -0.00563045 -0.06910246 -0.0023290107 -0.09563431 0.04884974
-0.024124876 -0.042266678 -0.005096749 -0.0027859209 -0.0012795401 0.005031772 -0.012941513 -0.00756903
-0.035590556 -0.008099136 0.0031808135 0.017409425 0.0051285825 -0.027340421 -0.013402921 -0.020999115
0.004959823 0.029080559 -0.03197506 0.024627259 0.000245539 -0.015138696 -0.06750122 -0.026810676
0.006926107 -0.0016973012 0.026040167 -0.004521051 -0.03299589 -0.0002919994 -0.041465007 -0.010686872
-0.01429882 -0.02644689 -0.06458787 -0.06411215 -0.08269904 -0.0537936 0.07468416 0.01835343
-0.15525337 0.11382668 0.24879864 -0.034657355 0.066100046 -0.12272228 -0.18214007 -0.0103009185
-0.008740379 0.1337414 0.09036812 -0.0031118144 -0.021590741 0.07313897 -0.0033957146 -0.6327829
-0.028157236 0.031104444 0.068703726 -0.07171313 -0.08402284 -0.07429148 -0.019030115 -0.008515815
-0.1039887 -0.07442552 -0.0010607063 -0.04754235 -0.028206889 -0.027349597 -0.1851168 -0.14706239
0.041622575 0.027015502 -0.069403574 0.05307223 -0.020758178 -0.12875153 -0.04419146 -0.11231821
0.10185245 -0.008675868 -0.14022654 0.0166966 -0.009856378 -0.024726521 -0.024351638 -0.028847352
0.012233994 -0.0035397557 0.02219226 0.031175781 -0.044841375 -0.004300661 -0.04405948 0.0127340285
-0.3492979 -0.051516 -0.0042388355 -0.006374057 0.1310181 0.20493278 -0.09454628 -0.0014448583
-0.30842072 -0.03558145 -0.017698223 -0.13785183 -0.011058081 -0.14806445 0.08791735 -0.04403121
-0.053122822 -0.028469734 -0.11113208 0.11502655 -0.051659573 -0.058478527 -0.19400018 -0.07019308
-0.09528643 0.022686461 -0.09221795 -0.10650296 -0.107690886 0.09478609 -0.18670514 -0.031015422
-0.074953 -0.14880453 -0.06836081 0.00065016665 -0.0004190315 -0.028730616 1.1368813e-05 0.009532847
-0.08452232 0.0007361355 -0.0005036041 -0.039467733 -0.0001655093 -0.040974114 0.005012542 0.07556815
-0.017740196 0.013582789 -0.0025027455 -0.063109785 -0.002718436 0.00051099836 -0.016402546 -0.0039524087
-0.028950697 0.042526077 0.014392077 -0.024634514 -0.15652473 -0.0019213117 -0.11485954 0.0002646171
-0.028097086 -0.032725107 6.8804424e-05 0.0042346194 -0.0002521467 -0.018989276 -0.0018905968 -0.00019684668
-0.051748853 -2.1695362e-06 -0.0042077047 0.028682353 -0.000112969676 0.010908267 -0.013599899 -0.015213549
-0.0090419995 0.02215487 -0.03250016 0.014532771 -0.005487592 -0.008453903 -0.04534338 0.0044013257
-0.002168887 -0.0032511891 -0.0065063015 -0.0012851815 -0.043628033 -0.00390922 -0.03606639 -0.0037616699
00000000: 778b c8bc 891b 35be 1346 25be bc8c 043b
00000010: fecf 02be 89fa cc3d e437 bf3d 1dde 2e3d
00000020: ee8e b6be c111 2dbd 1272 49bd 5d58 1cbf
00000030: 09d2 fd3d ae80 99be 3973 44bd aef6 99be
00000040: 9e1e 8abc 080f 59bc fb42 c0be aa04 2d3d
00000050: 2f46 adbe 28ac 88bd a494 a3be a315 acbd
00000060: d15f 353c b297 5a3e 2861 5b3d 2b63 873b
00000070: 0e3a b9be 4c79 963d 1af2 31be 1b7c 883e
00000080: 59e7 ccbd 9538 00be de1a b93d 136e f53d
00000090: d69c 24bd 7a82 333d 59cd 453e 6a43 58bc
000000a0: 6339 3ebe 94ae 243e 156b 2e3c 8000 b03d
000000b0: 3a9c 78bb f42e 64be 1971 553e 31d4 e1bd
000000c0: e59e e63c 9e3b 91bc 53c4 cfbd 8e09 263c
000000d0: 01ad 0bbd 4d37 8a3b 52a2 a7bd a5bd 03be
000000e0: eba2 67bd 8560 363e 7840 7c3d a37f b8bb
000000f0: 9785 8dbd 51a2 18bb ecdb c3bd aa16 483d
00000100: 88a1 c5bc d31f 2dbd a102 a7bb ff93 36bb
00000110: 3eb6 a7ba 90e1 a43b a408 54bc a005 f8bb
00000120: 67c7 11bd 3db2 04bc 3275 503b 369e 8e3c
00000130: ab0d a83b 05f9 dfbc ed97 5bbc 5606 acbc
00000140: 0386 a23b 5a3a ee3c 48f8 02bd 1bbf c93c
00000150: b0bb 8039 4b08 78bc 143e 8abd 10a2 dbbc
00000160: 66f4 e23b fa77 deba 3052 d53c 5325 94bb
00000170: b326 07bd 7f17 99b9 36d7 29bd fd17 2fbc
00000180: 9945 6abc 26a7 d8bc a546 84bd 3b4d 83bd
00000190: 1d5e a9bd ae56 5cbd 02f4 983d ef59 963c
000001a0: bdfa 1ebe f61d e93d 12c5 7e3e dff4 0dbd
000001b0: 765f 873d d255 fbbd ed82 3abe 2fc5 28bc
000001c0: ce33 0fbc 81f3 083e ec12 b93d 95ef 4bbb
000001d0: 11df b0bc e2c9 953d a38a 5ebb 0ffe 21bf
000001e0: 01aa e6bc bfce fe3c 8ab4 8c3d 55de 92bd
000001f0: 2b14 acbd 2226 98bd 0be5 9bbc eb85 0bbc
00000200: 07f8 d4bd 686c 98bd 6607 8bba c4bb 42bd
00000210: 2212 e7bc 430c e0bc 428f 3dbe 8697 16be
00000220: 6f7c 2a3d 9d4f dd3c 7623 8ebd 4462 593d
00000230: 0e0d aabc 71d7 03be 1b02 35bd 1707 e6bd
00000240: 0498 d03d 3a25 0ebc 8c97 0fbe 4fc7 883c
00000250: a57c 21bc 468f cabc 167d c7bc 4851 ecbc
00000260: 1771 483c 3ffb 67bb 8bcc b53c 5a64 ff3c
00000270: 97ab 37bd 8fec 8cbb b777 34bd 63a2 503c
00000280: 2dd7 b2be 7102 53bd eee5 8abb 77dd d0bb
00000290: 9c29 063e e6d9 513e 7ba1 c1bd 6661 bdba
000002a0: 52e9 9dbe dbbd 11bd ddfb 90bc 0829 0dbe
000002b0: f42c 35bc 359e 17be 030e b43d 125a 34bd
000002c0: 5197 59bd 5c39 e9bc 3799 e3bd 0a93 eb3d
000002d0: fd98 53bd 2e87 6fbd fca7 46be 64c1 8fbd
000002e0: 8825 c3bd f5d8 b93c c4dc bcbd 391e dabd
000002f0: 0a8d dcbd 361f c23d a22f 3fbe 0e14 febc
00000300: f580 99bd 3760 18be c100 8cbd f26f 2a3a
00000310: 75b1 dbb9 785c ebbc aebc 3e37 a92f 1c3c
00000320: 0a1a adbd 38f9 403a 4d04 04ba eba8 21bd
00000330: 908c 2db9 79d4 27bd 4040 a43b 79c3 9a3d
00000340: e353 91bc 598a 5e3c 1a05 24bb b43f 81bd
00000350: ca27 32bb 85f4 053a a25e 86bc 3583 81bb
00000360: 032a edbc d32f 2e3d bfcc 6b3c 52ce c9bc
00000370: 0548 20be 86d4 fbba 7a3b ebbd 4ebc 8a39
00000380: dc2b e6bc c30a 06bd 184b 9038 90c2 8a3b
00000390: 8f32 84b9 668f 9bbc e7cd f7ba a168 4eb9
000003a0: 9bf6 53bd 5998 11b6 c9e0 89bb 41f7 ea3c
000003b0: 22ea ecb8 97b8 323c 1cd2 5ebc 4042 79bc
000003c0: e524 14bc 217e b53c e31e 05bd dc1a 6e3c
000003d0: 42d1 b3bb 3d82 0abc fbb9 39bd ff38 903b
000003e0: e323 0ebb e711 55bb d032 d5bb 8973 a8ba
000003f0: 4fb3 32bd ea18 80bb 5aba 13bd 5986 76bb

bias f4 [32]
1.1408118 -0.0560044 -0.007995024 0.2407962 -0.023725156 0.24251702 -0.002174392 -0.00035548827
-0.0027598618 0.040831786 -0.12651296 0.7220441 0.0039661117 0.0016579491 3.3426455e-05 -0.019828469
1.0817657 0.00616642 0.0556811 0.18506533 -8.110366e-05 0.048165392 -0.02009744 -0.030768694
-0.011196675 -0.109358855 -0.011420687 0.016854133 -0.0036022824 -0.0019453465 1.6042788 -0.053546
00000000: 1f06 923f df64 65bd 90fd 02bc 4793 763e
00000010: 425b c2bc 6256 783e 3f80 0ebb d460 bab9
00000020: ccde 34bb 3b3f 273d 9d8c 01be e2d7 383f
00000030: 28f6 813b 8a4f d93a 6233 0c38 506f a2bc
00000040: 4c77 8a3f ae0f ca3b dd11 643d c481 3d3e
00000050: 3216 aab8 1349 453d 63a3 a4bc a10e fcbc
00000060: 4272 37bc 89f7 dfbd d51d 3bbc ae11 8a3c
00000070: 4514 6cbb fffa feba 0259 cd3f 0d53 5bbd
