train_script/weights/GCNEdgeBased_model300_Aug_24/169.pth (torch, 122213 bytes, 51 tensors)

convN1.self_map.weight f4 [32, 13]
0	0x00049962	4.22365e-40
1	0x000e9178	1.337881e-39
2	0x0000e7f0	8.3203e-41
3	0x000f8134	1.423882e-39
4	0x8008662e	-7.71339e-40
5	0x80103c9c	-1.49111e-39
6	0x8001dbc0	-1.70667e-40
7	0x8001dbb1	-1.70646e-40
8	0x00020935	1.86974e-40
9	0x800cbd6d	-1.169979e-39
10	0x000c365b	1.121525e-39
11	0x0008a3e7	7.93481e-40
12	0x80057a8a	-5.03136e-40
13	0x800fa41c	-1.436404e-39
14	0x000b1cfb	1.020587e-39
15	0x000014b6	7.43e-42
16	0x800e5f54	-1.319894e-39
17	0x0006e14c	6.31834e-40
18	0x00096d5a	8.65747e-40
19	0x800b3752	-1.030036e-39
20	0x800aba52	-9.85194e-40
21	0x8005cdc3	-5.32991e-40
22	0x800db417	-1.258466e-39
23	0x8001f7e4	-1.80762e-40
24	0x00001b55	9.805e-42
25	0x00004548	2.4853e-41
26	0x80038f72	-3.26965e-40
27	0x800a91b1	-9.70619e-40
28	0x00045d73	4.00865e-40
29	0x800247a6	-2.09374e-40
30	0x800b3a3e	-1.031084e-39
31	0x0005bd60	5.27112e-40
32	0x8014d5d7	-1.913421e-39
33	0x800915b1	-8.34301e-40
34	0x80095d10	-8.59904e-40
35	0x800ef3fe	-1.373225e-39
36	0x80080638	-7.36915e-40
37	0x000950dc	8.55526e-40
38	0x00093aee	8.4766e-40
39	0x000e19ab	1.294905e-39
40	0x80042a5b	-3.82536e-40
41	0x80080d4f	-7.39458e-40
42	0x000a6f43	9.58268e-40
43	0x8014399e	-1.857379e-39
44	0x000a57d7	9.49866e-40
45	0x800327f6	-2.89842e-40
46	0x800b7b42	-1.054407e-39
47	0x800ad060	-9.93106e-40
48	0x8005a85e	-5.19576e-40
49	0x0015b1cd	1.992328e-39
50	0x8010d465	-1.545561e-39
51	0x80053400	-4.77832e-40
52	0x0010895e	1.518646e-39
53	0x80067b19	-5.95172e-40
54	0x0000b9fa	6.6716e-41
55	0x00147df5	1.881895e-39
56	0x8001d4b1	-1.68135e-40
57	0x000f7309	1.418799e-39
58	0x800353ac	-3.05522e-40
59	0x800c437d	-1.126236e-39
60	0x800cf048	-1.188223e-39
61	0x000cb208	1.165892e-39
62	0x800951de	-8.55888e-40
63	0x0008d9a8	8.12764e-40
64	0x000d9c5d	1.249954e-39
65	0x800eb3e8	-1.350235e-39
66	0x8010f432	-1.556969e-39
67	0x80093a62	-8.47463e-40
68	0x00088264	7.8146e-40
69	0x8003249f	-2.88644e-40
70	0x800f3f04	-1.400138e-39
71	0x80096943	-8.6428e-40
72	0x800eeefb	-1.371427e-39
73	0x000921c3	8.38631e-40
74	0x000b81c9	1.056749e-39
75	0x80035b82	-3.08333e-40
76	0x800501ab	-4.59776e-40
77	0x00041583	3.75059e-40
78	0x0009f78d	9.15324e-40
79	0x8006f840	-6.40068e-40
80	0x800be10c	-1.090922e-39
81	0x800a5044	-9.47149e-40
82	0x0006910c	6.03046e-40
83	0x001148f8	1.58738e-39
84	0x0013d96e	1.822874e-39
85	0x000f8d5a	1.42824e-39
86	0x8012fa9b	-1.742939e-39
87	0x0000b5f3	6.5271e-41
88	0x0007740f	6.84482e-40
89	0x8005340a	-4.77846e-40
90	0x00097133	8.67128e-40
91	0x0005ba56	5.26022e-40
92	0x000ea6ce	1.345535e-39
93	0x80061379	-5.57998e-40
94	0x0005cca8	5.32594e-40
95	0x00017d01	1.36678e-40
96	0x000dfdab	1.28486e-39
97	0x0008f817	8.23682e-40
98	0x800dedbe	-1.279147e-39
99	0x801202d8	-1.654059e-39
100	0x000cfbe8	1.192393e-39
101	0x80046253	-4.02614e-40
102	0x800525e4	-4.7277e-40
103	0x000943ad	8.50797e-40
104	0x800cbb93	-1.169315e-39
105	0x800dafdc	-1.256948e-39
106	0x800e7112	-1.326259e-39
107	0x800e0877	-1.288734e-39
108	0x800bd24e	-1.085634e-39
109	0x000b899c	1.059555e-39
110	0x8009332e	-8.44879e-40
111	0x8005d520	-5.35632e-40
112	0x800560f8	-4.93963e-40
113	0x8005b119	-5.22708e-40
114	0x0011f104	1.647664e-39
115	0x80102000	-1.480847e-39
116	0x0006d205	6.26354e-40
117	0x0008acc1	7.96656e-40
118	0x0000affc	6.3131e-41
119	0x800acfbe	-9.92879e-40
120	0x000ab2d8	9.82512e-40
121	0x800b9882	-1.0649e-39
122	0x0004faff	4.57382e-40
123	0x000d9315	1.246625e-39
124	0x800ba6fb	-1.070092e-39
125	0x000bd0f1	1.085145e-39
126	0x800a9bcc	-9.74244e-40
127	0x8004c8d4	-4.39386e-40
128	0x800f4dc3	-1.405428e-39
129	0x00050e65	4.64341e-40
130	0x8010371e	-1.48914e-39
131	0x00070b4c	6.46901e-40
132	0x8002308e	-2.01089e-40
133	0x00083e5a	7.57051e-40
134	0x80067ab1	-5.95026e-40
135	0x000a3002	9.35577e-40
136	0x80020469	-1.85253e-40
137	0x800d7ba0	-1.23821e-39
138	0x000a1659	9.26372e-40
139	0x00055857	4.90868e-40
140	0x0000a891	6.047e-41
141	0x00054f7c	4.87691e-40
142	0x800056eb	-3.118e-41
143	0x0002c95c	2.55905e-40
144	0x800acff7	-9.92959e-40
145	0x000b901f	1.061891e-39
146	0x800ff605	-1.465788e-39
147	0x000ae62f	1.000929e-39
148	0x0002ae01	2.46092e-40
149	0x0001cf26	1.66146e-40
150	0x000f81d9	1.424113e-39
151	0x00088185	7.81147e-40
152	0x800ff64c	-1.465887e-39
153	0x000af3ec	1.005858e-39
154	0x8005427a	-4.83025e-40
155	0x00094171	8.49995e-40
156	0x800e3cc6	-1.307498e-39
157	0x800a90a9	-9.70249e-40
158	0x0010718f	1.510105e-39
159	0x8004f9d5	-4.56965e-40
160	0x00070133	6.43279e-40
161	0x800a4ad0	-9.45193e-40
162	0x801099af	-1.524499e-39
163	0x800ce13a	-1.182822e-39
164	0x0001719b	1.3259e-40
165	0x00016305	1.27357e-40
166	0x000cc8e7	1.174096e-39
167	0x80154a52	-1.955207e-39
168	0x8008fe30	-8.25869e-40
169	0x800cb538	-1.167035e-39
170	0x800a0c85	-9.22846e-40
171	0x000a3ae5	9.39482e-40
172	0x800ed40a	-1.361762e-39
173	0x00116fb5	1.601276e-39
174	0x80076891	-6.8036e-40
175	0x0012ba7b	1.719936e-39
176	0x00011429	9.9068e-41
177	0x0000edcd	8.5307e-41
178	0x000a6646	9.55044e-40
179	0x00018796	1.40475e-40
180	0x000d6c67	1.232749e-39
181	0x800d7acb	-1.237911e-39
182	0x000ebf81	1.354396e-39
183	0x8000dfa1	-8.0223e-41
184	0x8005c351	-5.29244e-40
185	0x8004dcc3	-4.46536e-40
186	0x80086124	-7.69531e-40
187	0x000e1987	1.294854e-39
188	0x000d383a	1.214032e-39
189	0x8010a09d	-1.526985e-39
190	0x8002b352	-2.47999e-40
191	0x8000ddb7	-7.9536e-41
192	0x800b48be	-1.036285e-39
193	0x00057e16	5.04409e-40
194	0x800993ea	-8.79581e-40
195	0x000ac210	9.87971e-40
196	0x8012daa6	-1.731475e-39
197	0x80107b29	-1.51355e-39
198	0x000f3ae8	1.398664e-39
199	0x000cf30a	1.189212e-39
200	0x00083865	7.54915e-40
201	0x000d6d95	1.233172e-39
202	0x80100cdb	-1.47398e-39
203	0x800c3a70	-1.12299e-39
204	0x800a95e3	-9.72124e-40
205	0x000ba5a8	1.069617e-39
206	0x00058ec7	5.10396e-40
207	0x000a6ee9	9.58142e-40
208	0x8014aead	-1.899372e-39
209	0x0012cb2a	1.72592e-39
210	0x8008269a	-7.48532e-40
211	0x8005d376	-5.35035e-40
212	0x80055e5d	-4.93029e-40
213	0x00025b0a	2.1633e-40
214	0x00044ef5	3.95666e-40
215	0x8004ee32	-4.5279e-40
216	0x000f182a	1.386201e-39
217	0x8004609e	-4.02002e-40
218	0x8008903d	-7.86427e-40
219	0x000e39ad	1.306387e-39
220	0x800a6752	-9.5542e-40
221	0x800789ca	-6.92278e-40
222	0x80086d14	-7.73814e-40
223	0x80050646	-4.61428e-40
224	0x8008d700	-8.11811e-40
225	0x00130285	1.745778e-39
226	0x00066c48	5.89857e-40
227	0x00085594	7.65384e-40
228	0x800c6195	-1.137032e-39
229	0x800024ae	-1.3158e-41
230	0x80056dea	-4.98607e-40
231	0x80111a92	-1.570735e-39
232	0x8005e7ed	-5.42377e-40
233	0x000072cb	4.118e-41
234	0x000e7646	1.328125e-39
235	0x0005257a	4.72622e-40
236	0x8005ee9f	-5.44779e-40
237	0x800680d2	-5.97225e-40
238	0x801571ab	-1.969322e-39
239	0x800d1756	-1.202233e-39
240	0x800183f2	-1.39169e-40
241	0x80098d6c	-8.77252e-40
242	0x000c62ba	1.137442e-39
243	0x80054921	-4.85411e-40
244	0x800d647e	-1.229911e-39
245	0x800b6745	-1.047237e-39
246	0x0006f58f	6.39103e-40
247	0x800d31d1	-1.211732e-39
248	0x8006a5ce	-6.10492e-40
249	0x8007919c	-6.95083e-40
250	0x8008a18c	-7.92636e-40
251	0x000c4216	1.125733e-39
252	0x8009698c	-8.64383e-40
253	0x00083967	7.55276e-40
254	0x000ae22c	9.9949e-40
255	0x800a348a	-9.37202e-40

convN1.self_map.bias f4 [32]
0	0xbd32c2df	-0.043642875
1	0xbdbec916	-0.09315698
2	0xbdcbb166	-0.099459454
3	0xbdb44e7f	-0.088040344
4	0xbded26ca	-0.11579664
5	0xbd9aecbf	-0.07564687
6	0xbe27f8fa	-0.16403571
7	0xbddab214	-0.10678497
8	0xbdc27be9	-0.0949629
9	0x3c3ded23	0.011592182
10	0xbdf960f5	-0.12176696
11	0xbd558d70	-0.05213684
12	0xbdae43bc	-0.08509013
13	0xbdd7f1da	-0.105441764
14	0xbd939a15	-0.07207123
15	0xbde5b744	-0.11216596
16	0xbd506325	-0.0508758
17	0xbdd8e835	-0.10591165
18	0xbdb06ca3	-0.08614471
19	0xbda23c44	-0.07921651
20	0xbbeef37e	-0.00729221
21	0xbdf39f8d	-0.11895666
22	0xbe085b21	-0.13316013
23	0xbdb881d2	-0.09009136
24	0xbc28ae18	-0.010295413
25	0xbd12a811	-0.035804812
26	0xbd9dfb9a	-0.07714005
27	0xbdd39b86	-0.10332398
28	0xbd58e03e	-0.05294823
29	0xbd6aa2ef	-0.05728429
30	0xbdebd6fd	-0.11515615
31	0xbd9aa6a4	-0.075513154

convN1.pass_map.weight f4 [32, 13]
0	0x3d0c6f1d	0.034285653
1	0xbec4a650	-0.38408136
2	0x3d02a378	0.031894177
3	0x3d66f506	0.056386016
4	0xbc1869da	-0.009302581
5	0x3b974628	0.0046165176
6	0x3e1ab140	0.15106678
7	0xbd82723b	-0.06369444
8	0xbe6e7d92	-0.23290089
9	0xbde24e49	-0.11050088
10	0x3d12e433	0.03586216
11	0xbce4fc83	-0.027952438
12	0x3dbb8673	0.091565035
13	0x3ca02a61	0.019551458
14	0x3904f006	0.00012677917
15	0xbc8822fb	-0.016618242
16	0x3ce93042	0.028465394
17	0xbd565833	-0.052330207
18	0x3b98f22d	0.0046675415
19	0x3a2bbf06	0.0006551597
20	0x39fbb5eb	0.0004800999
21	0x3a976ef6	0.0011553455
22	0xbc06033d	-0.008179483
23	0x3c9754d9	0.018473076
24	0x3c32aa63	0.010904881
25	0x3c4d3d87	0.012526876
26	0xbdfdc44c	-0.12390956
27	0x3f17e7ae	0.5933789
28	0x3de9c8ce	0.114152536
29	0xbe79460f	-0.24343131
30	0xbea1e213	-0.31617793
31	0xbd81cb15	-0.06337563
32	0x3d4d8f07	0.05018523
33	0x3be8793a	0.0070945295
34	0x3cd1fb40	0.0256325
35	0xbcf1f7c8	-0.029537097
36	0xbc11b4f0	-0.0088932365
37	0x3cadfbab	0.021238169
38	0xbd9d0213	-0.07666411
39	0x3e15c104	0.14624411
40	0x3d8cd7c5	0.06877092
41	0xbf388a4a	-0.7208601
42	0xbd77e62f	-0.060522255
43	0xbf009026	-0.50219953
44	0xbe6b5ef3	-0.22985439
45	0xbbf50fb8	-0.0074786805
46	0x3b3034a6	0.002688685
47	0xbdb846dd	-0.08997891
48	0x3cfd13ba	0.030893195
49	0xbcff8798	-0.031192586
50	0x3d17c704	0.03705503
51	0xbdd71b8c	-0.10503301
52	0x3ec38992	0.38190895
53	0xbddeec7a	-0.10884948
54	0xbe062617	-0.13100468
55	0xbc06fe12	-0.008239286
56	0xbed4cad0	-0.41560984
57	0xbdea017a	-0.11426063
58	0xbe09d938	-0.13461769
59	0x3d7e00ae	0.062012367
60	0xbbd2a6df	-0.006428584
61	0x3dcef26a	0.101048306
62	0x3d84676a	0.06465037
63	0xbdec54a6	-0.11539583
64	0xbe80a1b9	-0.25123385
65	0xbd3f8bf4	-0.04676433
66	0x3ba494aa	0.005022605
67	0x3edf3810	0.4359746
68	0x3d885c9b	0.06658288
69	0x3e737a2a	0.2377707
70	0x3cfedba3	0.03111059
71	0xbb8947b3	-0.0041894554
72	0xbdf5571c	-0.119795054
73	0xbd069e29	-0.032865677
74	0x3c30b291	0.010784761
75	0xbd8e25f6	-0.06940834
76	0x3ccf7b33	0.0253273
77	0x3d0b42e6	0.033999346
78	0xbe07c728	-0.13259566
79	0xbee799f8	-0.45234656
80	0xbeb42b80	-0.35189438
81	0x3df36631	0.11884726
82	0x3f2e561a	0.6810013
83	0x3dd0cfaf	0.101958625
84	0x3ce7b29d	0.028283412
85	0xbc000c64	-0.007815454
86	0xbc962ab2	-0.018330906
87	0xbc9af300	-0.0189147
88	0xbccc55d2	-0.024943266
89	0xbabeb088	-0.001454846
90	0xbf25b56a	-0.6472994
91	0xbc844b22	-0.016149107
92	0x3d4f0fa1	0.050552014
93	0xbcd7daf9	-0.026349531
94	0xbebe4c40	-0.3716755
95	0x3ebd953c	0.3702792
96	0x3cd0ed9c	0.025503926
97	0xbd732a61	-0.059366588
98	0xbe314fa6	-0.1731554
99	0xbc8ac6ed	-0.016940558
100	0xbe5fa4d1	-0.21840216
101	0x3b8a0141	0.0042115753
102	0xbbd84766	-0.006600308
103	0xbea1bbca	-0.31588584
104	0xbe43905e	-0.1909804
105	0x3e24ddae	0.16100189
106	0x3d8a9988	0.06767565
107	0xbe5cad66	-0.21550521
108	0x3f188b01	0.59587103
109	0x3ca5eb0d	0.020253683
110	0x3cf0a47d	0.02937531
111	0xbcf699f4	-0.030102707
112	0xbcbab6f0	-0.02279231
113	0x3cd04d59	0.025427507
114	0x3d380d9a	0.044934846
115	0x3b886cbb	0.0041633523
116	0xbe7b4b83	-0.24540524
117	0x3dcbb19f	0.09945988
118	0xbe0b55b7	-0.13606916
119	0xbd44f884	-0.048088565
120	0xbe08bd4f	-0.13353465
121	0x3c4ce3da	0.012505496
122	0x3c9a0da4	0.018805332
123	0xbcad27e9	-0.021137195
124	0x3be178ff	0.006880879
125	0x3ec23dde	0.37937826
126	0xbdb72d6f	-0.08944213
127	0x3a84d5ce	0.001013452
128	0x3b61b297	0.0034438723
129	0x3e134060	0.14380026
130	0xbe932b7c	-0.28744113
131	0x3eab8119	0.3349693
132	0x3e18166d	0.14852305
133	0xbb038108	-0.0020065922
134	0x3f852031	1.0400449
135	0xbcc627bd	-0.02418887
136	0x3b9a7731	0.0047139158
137	0xbc24d2f1	-0.010060058
138	0x3bd0446b	0.0063558123
139	0xbc82cbd3	-0.015966332
140	0xbcf219f4	-0.029553391
141	0x3c6dd4b9	0.014516049
142	0x3f0d24f7	0.5513453
143	0xbe2db8f8	-0.16965091
144	0x3e40c1cd	0.18823929
145	0x3eac0305	0.33596054
146	0x3da4e191	0.08050836
147	0x3e9bf68b	0.30461535
148	0x3cbe4d65	0.023230264
149	0x3d8b369e	0.06797527
150	0x3e561348	0.20905793
151	0x3d0c22e2	0.034212954
152	0xbd05b462	-0.03264273
153	0x3dd1ce69	0.10244448
154	0x3c621f81	0.013801456
155	0x3e50184f	0.20321773
156	0x3f3cea3c	0.73794913
157	0xbddf8e97	-0.10915869
158	0x3d1125ae	0.035436325
159	0xbe1bd652	-0.15218475
160	0x3dac087a	0.08400054
161	0x3d8ef2ad	0.069798805
162	0xbc55211c	-0.013008382
163	0xbdaa9c57	-0.08330601
164	0xbd49f056	-0.049301468
165	0xbd66dc78	-0.0563626
166	0x3cd07478	0.025446162
167	0xbcc681ff	-0.024231909
168	0xbdc529bd	-0.096271016
169	0x3d6839b8	0.05669567
170	0x3c5248c3	0.012834731
171	0xbd938cc4	-0.07204583
172	0xbe9fa5dc	-0.31181228
173	0x3d3e70f6	0.046494447
174	0xbc65744b	-0.014004777
175	0x3d8331ab	0.06405958
176	0x3e3efadb	0.18650381
177	0xba96662e	-0.0011474544
178	0xbd229cc5	-0.03970029
179	0xbe1aefcc	-0.15130538
180	0x3bcb390d	0.0062018693
181	0xbcbbf897	-0.022945685
182	0xbd8e5e4b	-0.06951579
183	0xbd7c05c9	-0.061528955
184	0xbdcd25fd	-0.10017011
185	0xbe2f6155	-0.17126973
186	0x3e7b02d2	0.24512795
187	0x3d0b6468	0.0340313
188	0xbd26f94a	-0.040765084
189	0xbc230cfd	-0.009951827
190	0xbbf1d773	-0.00738042
191	0x3add8877	0.0016901632
192	0x3cd73019	0.026268052
193	0xbbf8bf4e	-0.0075911647
194	0x3e76e90d	0.2411234
195	0xbd8a7c46	-0.067619845
196	0x3d803635	0.06260339
197	0x3d77a6d5	0.060461838
198	0x3e9e6982	0.3093987
199	0x3dbf0150	0.09326422
200	0x3c017368	0.00790105
201	0xbc619d01	-0.013770343
202	0xbd366daf	-0.044538196
203	0xbc4d00a0	-0.012512356
204	0x3c0d15c1	0.008611144
205	0xbca16412	-0.019701038
206	0xbc68cdd6	-0.014209231
207	0x3e520d1d	0.20512815
208	0x3d81a4a3	0.0633023
209	0x3d3fef6e	0.046859197
210	0x3e30d107	0.17267238
211	0xbccf8116	-0.025330108
212	0xbdd365b9	-0.103221364
213	0xbd0a6f24	-0.0337974
214	0xbe4fce64	-0.20293576
215	0x3cf4b65a	0.029872108
216	0xbe538463	-0.2065597
217	0x3c8ac2a3	0.016938513
218	0xbc978de8	-0.018500283
219	0xbb90714e	-0.004408038
220	0xbc561b24	-0.013067994
221	0x3eb72acc	0.3577484
222	0xbee890a5	-0.45422855
223	0xbef74597	-0.4829528
224	0xbda53664	-0.08067015
225	0x3ee0e914	0.43927824
226	0x3db6384a	0.08897455
227	0xbdbc5c83	-0.09197333
228	0x3df339de	0.11876272
229	0x3cfa2759	0.03053634
230	0x3c580c91	0.01318659
231	0xbc5cd722	-0.013479026
232	0x3d4ff22f	0.050768074
233	0x3d8d1d7b	0.068903886
234	0xbee9ba53	-0.45649967
235	0xbd86eb31	-0.06587828
236	0x3eb0f214	0.3455969
237	0x3e79e77f	0.24404715
238	0x3f09a33f	0.5376472
239	0x3e9adbf5	0.3024594
240	0xbd109252	-0.035295792
241	0x3d03671f	0.032080766
242	0x3d89a439	0.06720776
243	0x3c435600	0.0119223595
244	0xbb9d1e3a	-0.004794863
245	0x3d5c55b7	0.05379268
246	0xbd998cb5	-0.07497541
247	0xbdd2f484	-0.10300544
248	0x3f17c2e9	0.59281784
249	0x3eaea1b1	0.34107736
250	0x3e51e0a8	0.20495856
251	0x3ea69ab7	0.32539913
252	0xbe504734	-0.20339662
253	0x3cef87d7	0.029239578
254	0xbc1340cd	-0.008987618
255	0x3c44f26b	0.012020688

convN1.pass_map.bias f4 [32]
0	0xbd335cad	-0.043789554
1	0xbdbdf9ec	-0.092761844
2	0xbdca61db	-0.09881946
3	0xbdb38a9b	-0.08766671
4	0xbdecad4f	-0.115564935
5	0xbd9af2e0	-0.07565856
6	0xbe275339	-0.1634034
7	0xbdda788a	-0.10667522
8	0xbdc1bdb2	-0.0946001
9	0x3c3d4dfb	0.0115542365
10	0xbdf8f1f8	-0.12155527
11	0xbd5463bf	-0.051852938
12	0xbdadbb65	-0.08483008
13	0xbdd715d9	-0.10502214
14	0xbd92ce18	-0.071682155
15	0xbde4ed7a	-0.111781076
16	0xbd50ccce	-0.050976567
17	0xbdd8b7fd	-0.10581968
18	0xbdb03bc6	-0.08605151
19	0xbda1f8fb	-0.079088174
20	0xbc013500	-0.007886171
21	0xbdf319eb	-0.11870178
22	0xbe07e30b	-0.13270204
23	0xbdb8559b	-0.09000703
24	0xbc24c6e7	-0.010057188
25	0xbd11b765	-0.03557529
26	0xbd9d6fd0	-0.07687342
27	0xbdd37e19	-0.103267856
28	0xbd57f469	-0.052723322
29	0xbd69d3fb	-0.057086926
30	0xbdebcb21	-0.11513353
31	0xbd9aae22	-0.075527444

convE1.self_map.weight f4 [32, 13]
0	0xbd26b41c	-0.04069911
1	0x3eb24a39	0.34822252
2	0x3cc2f390	0.02379778
3	0xbeee1cb8	-0.46506286
4	0xbecbd282	-0.39809042
5	0xbdf3e707	-0.11909299
6	0x3c47744b	0.0121737225
7	0x3d85cb0e	0.0653287
8	0x3c7529cf	0.014963581
9	0xbc191ad6	-0.009344777
10	0x3e892050	0.26782465
11	0x3be2ffca	0.006927465
12	0x3d183eba	0.037169196
13	0x3d935be9	0.07195265
14	0x3c66767c	0.014066335
15	0xbed60048	-0.4179709
16	0x3dae2902	0.08503915
17	0x3ddbea2f	0.10738026
18	0xbbee6162	-0.0072747925
19	0x3c54add1	0.012980894
20	0x3cfeaaf9	0.031087385
21	0xbd147065	-0.03624
22	0xbcad3de1	-0.02114767
23	0xbcc40c4f	-0.02393165
24	0xbc262945	-0.010141675
25	0x3e29110e	0.16510412
26	0xbe2af6af	-0.16695665
27	0x3e2b3b7f	0.16721915
28	0x3c1a27c9	0.0094089
29	0x3ee88044	0.4541036
30	0x3d914b0a	0.07094391
31	0xbd88aa4b	-0.06673106
32	0x3ca75c4a	0.020429749
33	0x3ba2e3f4	0.004971022
34	0xbcf3f0b9	-0.029777871
35	0x3a0b36d4	0.0005310599
36	0xbe66ca0b	-0.22538011
37	0x3cd3304f	0.025779871
38	0x3f418c53	0.7560474
39	0xbc2b1152	-0.010441141
40	0xbcf913ff	-0.030405043
41	0x3dbef959	0.09324903
42	0x3d986426	0.07440977
43	0x3dfe0285	0.12402824
44	0xbd376c96	-0.04478129
45	0xbe5a9170	-0.21344543
46	0x3d223be8	0.039607912
47	0x3d363651	0.044485394
48	0x3ca85a50	0.020550877
49	0x3cc6769d	0.024226481
50	0x3c4b2bdd	0.012400595
51	0x3d2100b9	0.03930733
52	0x3f98de9f	1.1942939
53	0x3d49862e	0.04920023
54	0xbc265332	-0.010151671
55	0x3d084ced	0.033276487
56	0x3d20478c	0.039130732
57	0x3d1ab627	0.03777137
58	0x3d2c9ddb	0.04214273
59	0x3c346839	0.011011177
60	0xbd241219	-0.04005632
61	0x3c2e6a64	0.010645483
62	0x3ba803ed	0.005127421
63	0x3c3bccbc	0.011462387
64	0xbce18b83	-0.027532345
65	0x3e9ed4c1	0.31021693
66	0x3ecd60a0	0.40112782
67	0xbdb5566d	-0.08854375
68	0x3d99b588	0.075053275
69	0xbd91f4b4	-0.071267515
70	0xbe09dfa1	-0.13464214
71	0x3d49cd52	0.049268074
72	0x3a6df4af	0.0009077293
73	0xbc155bab	-0.009116094
74	0x3ab3afd3	0.0013709016
75	0xbce0337d	-0.027368302
76	0x3c0a22c6	0.008431142
77	0x3e342295	0.17591317
78	0x3ed8d6c6	0.4235136
79	0x3d2d8012	0.042358465
80	0xbe862838	-0.2620256
81	0xbe6433ae	-0.22285339
82	0xbec71d11	-0.38889363
83	0xbd8377b1	-0.06419314
84	0x3d5f4f59	0.05451903
85	0xbe458d11	-0.19292094
86	0x3cbcee94	0.023062982
87	0x3d3fec22	0.046856053
88	0x3e0a6ebc	0.13518804
89	0x3ca9a179	0.020706879
90	0xbefde641	-0.49589732
91	0x3ef0867d	0.46977606
92	0xbea998fd	-0.33124533
93	0xbe551cda	-0.20811787
94	0x3f427d61	0.75972563
95	0x3e0849bd	0.13309379
96	0xbdc3887e	-0.09547518
97	0x3d21733f	0.039416548
98	0x3d44b1e3	0.04802121
99	0xbc379da4	-0.011207018
100	0x3c0ffe81	0.008788706
101	0xbe06703d	-0.13128753
102	0x3d267303	0.040637027
103	0x3e285de9	0.16442074
104	0x3d8d7d04	0.069086105
105	0x3d44e528	0.048070103
106	0xbde7373f	-0.11289834
107	0xbd45e068	-0.048309714
108	0x3a1c8b64	0.00059716986
109	0x3c826d7c	0.015921347
110	0xbd185e65	-0.037199397
111	0x3d98bb69	0.07457621
112	0x3d05d763	0.032676112
113	0xba584aea	-0.0008250909
114	0x3cd5b0ed	0.026085341
115	0xbbae1f27	-0.0053137722
116	0xbf35f725	-0.7108024
117	0x3e3e56e7	0.18587838
118	0x3dc75e61	0.09734798
119	0x3e8fde85	0.28099456
120	0x3ea6416f	0.32471797
121	0x3eaeae83	0.34117517
122	0x3d3ab7bb	0.045585375
123	0x3d09c3ad	0.033633877
124	0x3d8ac13d	0.067751385
125	0xbe8e9f67	-0.2785599
126	0xbcae969f	-0.021312056
127	0xbd2b2f58	-0.041793197
128	0x3cc3d1ba	0.023903716
129	0x3d14cc00	0.036327362
130	0xbf580205	-0.8437808
131	0xbe20e7b4	-0.15713388
132	0x3d1d43b7	0.038394656
133	0xbd014426	-0.031559132
134	0xbed74d51	-0.42051175
135	0x3d0602d5	0.032717545
136	0xba8a1530	-0.0010534879
137	0xbb937131	-0.0044995775
138	0xbc9fa167	-0.019486142
139	0x3bbeed77	0.005826648
140	0x3cadcbbc	0.021215312
141	0xbcbca83a	-0.023029435
142	0xbe8ba77e	-0.27276224
143	0x3d18d960	0.03731668
144	0xbc5ce5b0	-0.013482496
145	0xbcb7a816	-0.022419017
146	0xbc46ec30	-0.012141272
147	0x3ca4aeb1	0.02010283
148	0x3cce6d79	0.025198685
149	0x3d9065c6	0.07050662
150	0xbe016613	-0.12636594
151	0x3da58ea0	0.08083844
152	0x3e1db0a9	0.15399422
153	0x3c928846	0.017887246
154	0x3dd47c6f	0.10375296
155	0xbdb3f15b	-0.08786269
156	0x3edae847	0.4275534
157	0xbe80dfca	-0.25170738
158	0x3d82c6e1	0.063855894
159	0x3e9a1f01	0.3010178
160	0x3e461d02	0.19347003
161	0xbecbf52d	-0.39835492
162	0x3d875f10	0.066099286
163	0x3d7af6aa	0.061270393
164	0xbd9c704d	-0.07638607
165	0x3d08ffb0	0.033446968
166	0xbc1749c5	-0.009233897
167	0xbbee0963	-0.0072643026
168	0xbeb8d1fc	-0.36097705
169	0x3e9770ac	0.2957815
170	0xbe913af3	-0.28365287
171	0x3ee635ce	0.44962925
172	0xbf15d51b	-0.585283
173	0x3e767894	0.24069434
174	0x3d783793	0.060599875
175	0xbc32e75e	-0.01091942
176	0x3cb691ef	0.022286383
177	0xbd3453f7	-0.044025388
178	0x3cae4724	0.021274157
179	0x3d826d3d	0.06368492
180	0xba8f6e77	-0.0010942955
181	0xbf12ca86	-0.57340276
182	0x3ec19a54	0.37813056
183	0xbf866502	-1.0499575
184	0x3dd09edd	0.10186551
185	0x3ed22878	0.410465
186	0x3da2f654	0.079571396
187	0xbd8787d1	-0.06617702
188	0xbca43571	-0.020045014
189	0xbc5dd9ee	-0.013540728
190	0x3c079c0a	0.008276949
191	0xbca52e7f	-0.020163773
192	0xbd9ae242	-0.075626865
193	0xba9246aa	-0.0011159976
194	0xbd03b8d4	-0.032158688
195	0x3e84774a	0.2587226
196	0x3e6f7528	0.23384535
197	0x3b826b20	0.0039800555
198	0xbcf88556	-0.030337017
199	0x3ec3e26b	0.3825868
200	0xbd90afcd	-0.07064781
201	0xbd6b1ac2	-0.057398565
202	0xbe111825	-0.14169367
203	0xbd0c188c	-0.034203097
204	0xbd9bae1a	-0.076015666
205	0xbde9e164	-0.11419943
206	0xbde611f1	-0.11233891
207	0x3d9b3f4f	0.075804345
208	0x3ea29bef	0.31759593
209	0xbeeb839b	-0.45998845
210	0x3ec7c1bb	0.39014992
211	0x3e06abbd	0.1315145
212	0x3ee4d040	0.44690132
213	0x3decdd49	0.11565644
214	0xbe2f3ec7	-0.17113791
215	0x3d0b3034	0.033981517
216	0x3e568137	0.20947729
217	0x3d02713e	0.031846277
218	0xbc6608cc	-0.014040183
219	0x3bd913e4	0.0066246856
220	0x3ebe96a3	0.37224302
221	0xbe08db66	-0.13364944
222	0x3eab8a04	0.33503735
223	0xbdc83764	-0.0977619
224	0xbe3c8a03	-0.18412022
225	0xbd489a40	-0.04897523
226	0xbc51469e	-0.012773184
227	0xbc7c7f25	-0.015411173
228	0xbd0308e5	-0.031990904
229	0x3c7e2663	0.015512082
230	0x3c90373a	0.01760446
231	0x3c9dd700	0.019267559
232	0xbcfd480f	-0.03091815
233	0xbd4e69fe	-0.05039405
234	0x3d7f9c80	0.06240511
235	0x3e948185	0.29005066
236	0xbea74bef	-0.3267512
237	0xbec0b130	-0.37635183
238	0x3e5021ef	0.20325445
239	0x3be8cd42	0.0071045468
240	0xbe45abea	-0.19303861
241	0xbdb24e4c	-0.0870634
242	0x3e1e135d	0.15437074
243	0xbd9a2b11	-0.075277455
244	0x3ccce27b	0.025010338
245	0xbc881004	-0.0166092
246	0xbe9c0344	-0.3047124
247	0x3e05c9c5	0.1306525
248	0xbe8def40	-0.27721596
249	0x3dfa3cb2	0.12218608
250	0xbf22926b	-0.63504666
251	0xbddd6c21	-0.108116396
252	0xbd82b5c6	-0.06382327
253	0xbb664354	-0.0035135346
254	0x3c45005f	0.012024014
255	0x3db46e82	0.0881014

convE1.self_map.bias f4 [32]
0	0xba6689aa	-0.0008794317
1	0xbc9cb4f3	-0.019129252
2	0x3beebda8	0.0072857924
3	0xbcce12c3	-0.02515543
4	0xbe47523e	-0.19464967
5	0xbbebe476	-0.0071988655
6	0x3bef216b	0.007297685
7	0xbbfc6cf8	-0.00770342
8	0xbcfd5b10	-0.030927211
9	0xbc624437	-0.013810209
10	0xba85df3a	-0.0010213621
11	0xb9471277	-0.00018984998
12	0x3d574460	0.05255544
13	0x3b94171d	0.004519357
14	0xbc7d5be0	-0.015463799
15	0x3c536675	0.012902846
16	0x3a074fa0	0.00051617064
17	0xbc382eaa	-0.011241594
18	0xbd14179b	-0.036155324
19	0xbc0cccdd	-0.008593765
20	0xbc9312c0	-0.017953277
21	0xbccb3027	-0.024803234
22	0x3d2a5b6c	0.041591093
23	0xbd1cb102	-0.038254745
24	0xbd185f01	-0.037199978
25	0x3d0b8481	0.034061912
26	0xbd0a8fce	-0.03382855
27	0x3da28597	0.079356365
28	0xbe45e08f	-0.19323944
29	0xbd0a10bf	-0.033707377
30	0xbcc80d16	-0.024420302
31	0xbc379c4a	-0.011206696

convE1.pass_map.weight f4 [32, 64]
0	0x3bad0c1f	0.005280986
1	0xbb5bee90	-0.0033558942
2	0x3d9d56e9	0.076825924
3	0xbeb98a8c	-0.36238515
4	0xbeba6bc0	-0.36410332
5	0x3e18d24e	0.14923975
6	0xbe881dcf	-0.26585242
7	0x3edcc559	0.43119314
8	0xbd209f15	-0.039214212
9	0xbc892164	-0.016739555
10	0xbe90fbe3	-0.28317174
11	0xbf03c71c	-0.5147569
12	0x3e1cc733	0.15310363
13	0x3f0e0efa	0.554916
14	0xbe376349	-0.17908968
15	0xbe0d5741	-0.13802816
16	0xbe19cb5b	-0.1501898
17	0xbe643839	-0.22287072
18	0x3e7f1615	0.24910767
19	0xbdba04b5	-0.09082929
20	0xbf14a187	-0.5805897
21	0x3e96f17d	0.29481116
22	0x39a806e7	0.000320486
23	0x3e849a49	0.2589896
24	0xbe5aa7fa	-0.2135314
25	0x3d2249ee	0.039621286
26	0x3a6c35b7	0.00090106897
27	0xbdd3991f	-0.1033194
28	0x3e030f3e	0.12798783
29	0xbd288f69	-0.04115239
30	0xbe1dbbce	-0.15403673
31	0x3e5b12de	0.21393916
32	0xbee87811	-0.45404103
33	0xbd2baa91	-0.04191071
34	0xbec1a276	-0.3781926
35	0x3de7302c	0.11288485
36	0xbe9e67fb	-0.30938706
37	0xbed6384c	-0.41839826
38	0xbee3ab5a	-0.44466668
39	0xbe7c79ba	-0.2465581
40	0xbd484f38	-0.048903674
41	0xbd1914a7	-0.03737321
42	0xbd632e8a	-0.055464305
43	0xbeb453a4	-0.35220063
44	0xbee08027	-0.43847772
45	0xbdce8016	-0.10083024
46	0xbcfa307d	-0.0305407
47	0x3de58b5a	0.1120822
48	0xbed3424d	-0.4126152
49	0xbef3bc22	-0.4760447
50	0xbd245374	-0.04011865
51	0x3ea14e8d	0.31505242
52	0xbeeeee01	-0.46665958
53	0xbe982bf7	-0.29721043
54	0xbe6a640d	-0.22889729
55	0xbab5e46a	-0.0013877277
56	0x3cf3fd42	0.029783849
57	0x3d24d7c6	0.04024484
58	0xbd87ae54	-0.06625047
59	0xbe414707	-0.18874751
60	0xbd6e34cb	-0.058155816
61	0xbee228a0	-0.4417162
62	0xbd7adc0f	-0.06124502
63	0xbeb0a8ea	-0.3450387
64	0x3dd4fd9e	0.10399936
65	0xbcc42e38	-0.02394782
66	0xbe302b54	-0.17204028
67	0xbeae3a2d	-0.3402876
68	0xbd31a7d8	-0.04337296
69	0x3e000d87	0.1250516
70	0xbc589e6e	-0.013221366
71	0x3d36ed7e	0.044660084
72	0x3da4b609	0.08042533
73	0xbe20d087	-0.15704547
74	0x3e323262	0.17402032
75	0x3d58d209	0.05293468
76	0x3e095a03	0.13413243
77	0xbddab7e5	-0.10679606
78	0xbe0f9763	-0.14022593
79	0x3c91f754	0.01781813
80	0xbcf21283	-0.029549843
81	0xbebaf263	-0.3651305
82	0xbe20c26d	-0.15699168
83	0xbc7a6961	-0.015283913
84	0x3e5f2947	0.2179309
85	0x3de7f19e	0.11325382
86	0xbc911390	-0.017709523
87	0xbe900793	-0.2813078
88	0xbecfcb8f	-0.4058499
89	0xbcf3b5d5	-0.02974979
90	0x3cc97923	0.024593895
91	0x3e2ad811	0.16683985
92	0xbdcb6dce	-0.09933053
93	0xbd3e22a7	-0.046419766
94	0xbe9b4e4a	-0.30333167
95	0xbe06fc2d	-0.13182135
96	0xbe41471d	-0.18874784
97	0x3c716ab9	0.014734917
98	0xbe209c8a	-0.15684715
99	0x3eb496ec	0.35271394
100	0x3d18c059	0.037292812
101	0xbd10957b	-0.035298806
102	0xbe1475c7	-0.14498053
103	0xbd87e4d0	-0.066354394
104	0xbce27757	-0.027644796
105	0x3e151a1f	0.14560746
106	0xbead6118	-0.3386314
107	0xbd614c9d	-0.055004705
108	0xbdc40bbc	-0.09572551
109	0x3d975a6a	0.07390292
110	0x3d1dc162	0.038514502
111	0xbd9dc4ea	-0.07703574
112	0x3c95c2c2	0.018281344
113	0x3e829562	0.25504595
114	0x3dbce57d	0.09223459
115	0xbdbc74d4	-0.09201971
116	0xbe632f46	-0.22186002
117	0xbdfb8577	-0.12281316
118	0x3e03e29a	0.1287941
119	0x3e41a8a0	0.18911982
120	0x3ebff430	0.37490988
121	0xbd437d48	-0.0477269
122	0xbd803daf	-0.06261765
123	0xbe001650	-0.12508512
124	0x3e179834	0.14804155
125	0x3dad6437	0.0846638
126	0x3e4d9e2f	0.20079874
127	0x3d636aa1	0.05552161
128	0xbdf28722	-0.11842181
129	0x3c74bfbd	0.014938292
130	0xbe5ba348	-0.21449006
131	0x3daee213	0.08539214
132	0x3d0a5ffd	0.033782948
133	0xbe72baed	-0.23704119
134	0xbdb3a6c5	-0.08772043
135	0x3e2c7d2f	0.16844629
136	0xbdc5092e	-0.096208915
137	0xbd922a1f	-0.0713694
138	0xbde3362b	-0.11094316
139	0x3dd32c83	0.10311224
140	0x3f0e2f98	0.5554137
141	0xbf35c5fe	-0.7100524
142	0xbdb4f7cb	-0.08836325
143	0x3dc3e91c	0.095659465
144	0xbe848fba	-0.25890905
145	0xbe198bf1	-0.1499479
146	0x3d2f3f8d	0.042785216
147	0x3e088d1f	0.13335083
148	0xbf448274	-0.76761556
149	0xbdb401dc	-0.08789417
150	0xbcfeefc2	-0.031120185
151	0xbe32d6d9	-0.1746477
152	0xbe8a679c	-0.27032173
153	0x3c0c12b2	0.008549379
154	0x3d9b32c0	0.07578039
155	0xbd703efd	-0.05865382
156	0x3dba2d86	0.09090714
157	0xbdd6e465	-0.104927815
158	0x3e91361c	0.28361595
159	0x3dbd48d1	0.09242404
160	0xbe89bc31	-0.2690139
161	0x3bd2f4b8	0.006437864
162	0xbe27878b	-0.163603
163	0xbf00aa4d	-0.5025986
164	0xbd943201	-0.072361
165	0xbe823920	-0.25434208
166	0xbe9850d2	-0.2974916
167	0x3d3e035e	0.04638993
168	0xbe8a358d	-0.2699398
169	0xbe9c7f11	-0.30565694
170	0xbe9e8125	-0.30957904
171	0xbdbdfac0	-0.092763424
172	0xbf10163e	-0.5628394
173	0xbf08c6e2	-0.5342847
174	0xbdcbb3b6	-0.099463865
175	0x3d0898b8	0.03334877
176	0xbcaefdfd	-0.021361345
177	0xbdc778bd	-0.09739826
178	0xbcffd7e6	-0.031230878
179	0x3dd54c39	0.10414929
180	0x3d2a4c18	0.041576475
181	0xbea1bbd2	-0.31588608
182	0x3d93375e	0.07188295
183	0xbee7558a	-0.4518245
184	0xbdf25b49	-0.118338175
185	0xbe091921	-0.13388492
186	0xbdfdfcc3	-0.12401726
187	0xbd8d7f8b	-0.069090925
188	0xbf0349ae	-0.512843
189	0xbdfc5248	-0.123203814
190	0x3e3e0334	0.1855591
191	0xbe9f9bd6	-0.3117358
192	0xbdda5266	-0.106602475
193	0xb9442c36	-0.00018708486
194	0xbcf7d12f	-0.030251114
195	0x3e4feb16	0.20304522
196	0x3c747697	0.014920852
197	0x3d93eab8	0.072225034
198	0xbe24eb9e	-0.16105506
199	0x3dd1a425	0.10236386
200	0x3e515a5f	0.2044463
201	0xbe1a35cf	-0.15059589
202	0x3e41d790	0.18929887
203	0x3df18aa7	0.11794024
204	0x3c7698f0	0.015051112
205	0xbddef406	-0.108863875
206	0xbe64e86d	-0.22354288
207	0xbe7ff08d	-0.24994107
208	0x3d68e988	0.056863338
209	0x3df937b7	0.1216883
210	0x3da51316	0.08060281
211	0xbc33b68b	-0.010968815
212	0xbd705edf	-0.058684226
213	0xbd20e3bf	-0.039279696
214	0xbd6969a1	-0.0569855
215	0xbe67c03f	-0.2263193
216	0x3d0edaa5	0.034876484
217	0xbbd50dd3	-0.006501892
218	0xbe06b739	-0.13155831
219	0xbdbbcfb1	-0.09170473
220	0xbebdcf1a	-0.37072068
221	0x3d306b09	0.043070827
222	0xbe8ad351	-0.27114347
223	0x3e39e6c6	0.1815444
224	0x3db31e15	0.08745972
225	0x3db943ef	0.090461604
226	0xbe0fff66	-0.1406227
227	0xbe22916d	-0.15875788
228	0x3bb1c301	0.0054248576
229	0xbcc10b87	-0.023565067
230	0x3d203fa4	0.039123192
231	0xbdc64a6d	-0.09682164
232	0xbe7173c7	-0.23579322
233	0x3e0e104b	0.13873403
234	0xbe69c2d6	-0.2282823
235	0xbdeff748	-0.11717087
236	0x3cb10faf	0.021613924
237	0x3e0f648f	0.14003204
238	0x3dc06bc3	0.09395554
239	0x3e8358d3	0.25653705
240	0xbd779b4e	-0.060450844
241	0xbe086a9f	-0.13321923
242	0xbd5b928a	-0.053606547
243	0xbc73f831	-0.014890716
244	0x3d5375ce	0.05162602
245	0xbc9dfa6c	-0.01928445
246	0x3d0e81d8	0.034791797
247	0x3e60aa48	0.21939957
248	0x3c68154a	0.014165232
249	0x3c62dc67	0.013846493
250	0x3e1532ad	0.14570113
251	0x3d30add5	0.04313453
252	0x3ea58174	0.32325327
253	0xbd5997be	-0.05312323
254	0x3e864f63	0.26232442
255	0xbe30f093	-0.17279272

convE1.pass_map.bias f4 [32]
0	0xba6689aa	-0.0008794317
1	0xbc9cb4f3	-0.019129252
2	0x3beebda8	0.0072857924
3	0xbcce12c3	-0.02515543
4	0xbe4746bb	-0.19460575
5	0xbbebe476	-0.0071988655
6	0x3bef216b	0.007297685
7	0xbbfc6cf8	-0.00770342
8	0xbcfd5b10	-0.030927211
9	0xbc624437	-0.013810209
10	0xba85df3a	-0.0010213621
11	0xb9471277	-0.00018984998
12	0x3d574460	0.05255544
13	0x3b94171d	0.004519357
14	0xbc7d5be4	-0.015463803
15	0x3c536675	0.012902846
16	0x3a074fa0	0.00051617064
17	0xbc382eaa	-0.011241594
18	0xbd14179b	-0.036155324
19	0xbc0cccdd	-0.008593765
20	0xbc9312c0	-0.017953277
21	0xbccb3027	-0.024803234
22	0x3d2a5b6c	0.041591093
23	0xbd1cb102	-0.038254745
24	0xbd185f01	-0.037199978
25	0x3d0b8481	0.034061912
26	0xbd0a8fce	-0.03382855
27	0x3da28597	0.079356365
28	0xbe45d2c0	-0.19318676
29	0xbd0a10bf	-0.033707377
30	0xbcc80d16	-0.024420302
31	0xbc379c4a	-0.011206696

convN2.self_map.weight f4 [32, 32]
0	0x3cf5a43a	0.029985536
1	0x3d765176	0.06013628
2	0x3ca1cf9a	0.019752312
3	0x3e09e48d	0.13466091
4	0x3c985091	0.018593105
5	0xbdc08e73	-0.0940217
6	0xbda1f77a	-0.079085305
7	0xb977269d	-0.0002357014
8	0x3d138d7b	0.0360236
9	0x3d3f4e0c	0.04670529
10	0xbd1a4f11	-0.03767306
11	0x3d8b91f0	0.06814945
12	0xbeb06dd8	-0.34458804
13	0x3e174ff2	0.1477659
14	0x3d9c9646	0.0764585
15	0x39bd196e	0.00036067836
16	0x3bd9ac96	0.0066428883
17	0xbd2fe4dc	-0.042942867
18	0xbd6a7bdf	-0.05724704
19	0xbcfac4a2	-0.03061134
20	0x3db47273	0.08810892
21	0x3d9dd9de	0.077075705
22	0xbd0ec323	-0.034854066
23	0x3d7fc77e	0.06244611
24	0xbd5d233e	-0.053988688
25	0xbe094f20	-0.1340909
26	0x3dc24106	0.094850585
27	0xbd3819c4	-0.044946447
28	0xbdb6d357	-0.089270286
29	0x3df39ac7	0.11894756
30	0x3c5ca676	0.013467422
31	0xbd0e3e75	-0.034727532
32	0x3ea5842b	0.323274
33	0xbcf0dc5b	-0.029401949
34	0x3cbf413e	0.02334654
35	0x3db8b6d9	0.090192504
36	0x3e50da5e	0.203958
37	0x3de03cce	0.109490976
38	0xbe2fb89f	-0.17160271
39	0xbccf68a7	-0.025318457
40	0xbe193cd4	-0.1496461
41	0xbd8b86fb	-0.06812855
42	0xbe432ba4	-0.19059616
43	0x3e996f12	0.29967552
44	0xbd0af197	-0.033921804
45	0xbd4e0f2d	-0.05030744
46	0x3d898918	0.06715602
47	0xbe222c77	-0.15837274
48	0xbdcae927	-0.099077515
49	0xbdf6bbf9	-0.12047572
50	0x3dcce9c6	0.10005526
51	0x3e15baff	0.14622115
52	0xbc3ff707	-0.011716611
53	0xbe3125e9	-0.17299618
54	0x3dfb042e	0.122566566
55	0x3dce66f7	0.10078233
56	0xbe64cf2b	-0.22344653
57	0xbde7d6a0	-0.11320233
58	0xbcce2eff	-0.025168894
59	0xbda85604	-0.08219531
60	0x3eaa90c1	0.33313563
61	0xbe8264ff	-0.2546768
62	0xbcf332e9	-0.029687362
63	0xbe7a3d85	-0.2443753
64	0xbe0661f6	-0.13123307
65	0x3cb524a0	0.02211219
66	0xbdea4d1e	-0.1144049
67	0x3e1f94ca	0.15584102
68	0xbe388495	-0.18019326
69	0xbe0536e2	-0.13009217
70	0xbde993d4	-0.11405149
71	0x3e10733e	0.14106461
72	0xbcd9f2ba	-0.026604999
73	0x3e59e13d	0.21277328
74	0xbd585010	-0.05281073
75	0x3e55bc34	0.20872575
76	0x3bb4b98e	0.005515284
77	0x3e860b04	0.2618028
78	0xbd03781e	-0.032096975
79	0x3ddad377	0.10684865
80	0xbd9e32c1	-0.07724524
81	0xbe839c77	-0.2570531
82	0xbe236c2b	-0.15959232
83	0x3d3a8605	0.045537967
84	0x3dc5231e	0.09625839
85	0xbe6bce58	-0.23027933
86	0xbe7fd8db	-0.24985068
87	0xbd4756b2	-0.048666663
88	0x3e0ae096	0.13562235
89	0x3c828d77	0.015936596
90	0x3c13c764	0.009019706
91	0xbd34dbc4	-0.044154897
92	0x3ddf589d	0.109055735
93	0xbca368fc	-0.019947521
94	0x3d42ee9a	0.04759083
95	0x3d7265fd	0.059179295
96	0x3eb58b2b	0.3545774
97	0xbd442eec	-0.04789631
98	0xbeaf611c	-0.34253776
99	0xbe74b2ff	-0.23896407
100	0xbd7b88ab	-0.061409634
101	0xbd8a07ea	-0.06739791
102	0x3d91ec83	0.07125189
103	0x3d9d69f5	0.07686225
104	0x3d2fbf6e	0.04290717
105	0x3a104579	0.00055035163
106	0x3dad97c1	0.084762104
107	0xbec0652a	-0.37577182
108	0xbdc75e69	-0.09734804
109	0xbeb76f0e	-0.35826916
110	0xbcb6bbe5	-0.022306392
111	0xbdc1f7ed	-0.09471116
112	0xbe66282e	-0.22476265
113	0x3da65de9	0.08123381
114	0x3e53081f	0.20608567
115	0xbd2b0455	-0.04175218
116	0xbe5d060a	-0.21584335
117	0x3c6b0946	0.014345473
118	0x3d9ec68c	0.077527136
119	0xbd893749	-0.06699998
120	0x3cfe1f85	0.031020889
121	0xbe16b019	-0.14715613
122	0xbe833123	-0.25623426
123	0xbe37a5ed	-0.1793439
124	0x3e76d740	0.24105549
125	0xbd8fa37f	-0.07013606
126	0x3c72b6d0	0.014814094
127	0xbe0ee624	-0.13954979
128	0xba2e6868	-0.0006653131
129	0x00056b2c	4.97624e-40
130	0xb5d12c01	-1.558452e-06
131	0xb9d70cc0	-0.00041017495
132	0x35e04ef9	1.6712285e-06
133	0x366cb637	3.5272803e-06
134	0xba8dfe25	-0.0010833187
135	0xb4b2c7ed	-3.330055e-07
136	0xb5ccff51	-1.5273491e-06
137	0xba5d62b0	-0.00084451865
138	0xb86ec055	-5.6922745e-05
139	0xb9acc21b	-0.00032951016
140	0xb4fdc228	-4.726619e-07
141	0xb8e7685e	-0.00011034378
142	0xb4dee1cb	-4.1515008e-07
143	0xb07aa02a	-9.1177077e-10
144	0x38c01788	9.1596565e-05
145	0xb7811fad	-1.5392749e-05
146	0xb95f6ba8	-0.00021307042
147	0xb95d43a1	-0.00021101396
148	0xbb6a4013	-0.0035743758
149	0xb894ecee	-7.1013215e-05
150	0xaf3f5ff1	-1.7405434e-10
151	0xb821f970	-3.8617698e-05
152	0xba0d0785	-0.00053798436
153	0xac828014	-3.7090418e-12
154	0xb1b0f5a2	-5.1501994e-09
155	0xb9088b23	-0.00013021803
156	0xb7fa3eda	-2.983159e-05
157	0xb85de655	-5.290502e-05
158	0xabce78fa	-1.4670758e-12
159	0xb76c629f	-1.4089658e-05
160	0xbd0c07ba	-0.034187056
161	0x3a81d34f	0.0009904894
162	0xbcafd21e	-0.021462496
163	0xbb84b52c	-0.0040499177
164	0x3c282c81	0.010264517
165	0xbcd4f1ca	-0.0259942
166	0xbcabf114	-0.020988978
167	0x3b825b36	0.0039781583
168	0xba2dc4da	-0.00066287594
169	0xbc3a5321	-0.011372359
170	0xbc00510d	-0.007831824
171	0x3ab43f29	0.0013751733
172	0xbb8a5f54	-0.00422279
173	0x3b260892	0.0025334698
174	0x3a3e81bd	0.00072672573
175	0xbacbf680	-0.0015561134
176	0xbc206d3b	-0.009791668
177	0x3cad286d	0.02113744
178	0xbc14f4aa	-0.009091536
179	0xbcc88e3c	-0.024481885
180	0xbcbc7703	-0.023005968
181	0xbb472a08	-0.0030390043
182	0x3ae63fd3	0.0017566629
183	0xbc03618f	-0.008018865
184	0xbb3bedb9	-0.002867563
185	0x3b57f277	0.0032950917
186	0x3a656f4e	0.00087522424
187	0xbc225993	-0.0099090515
188	0x3b63f4cc	0.0034783361
189	0xbb4eaa66	-0.003153467
190	0xbca5c0f2	-0.020233605
191	0xbb833e29	-0.004005213
192	0x3e4d9b22	0.2007871
193	0xbd94c93d	-0.07264946
194	0x3d22f011	0.039779726
195	0xbaf15155	-0.001841108
196	0x3d23779a	0.039908983
197	0x3dac4a74	0.08412638
198	0x3ddd17a1	0.107955225
199	0xbe0656c7	-0.1311904
200	0xbd9abf64	-0.07556036
201	0xbcc72f3f	-0.02431452
202	0x3e8a8c5e	0.27060217
203	0x3cff9bbc	0.03120219
204	0xbcd366e4	-0.025805898
205	0xbe5ff79f	-0.21871804
206	0xbd223dee	-0.039609842
207	0xbdbfc2a5	-0.093632974
208	0x3e50f7ac	0.2040698
209	0x3da5eaba	0.08101411
210	0x3e48f919	0.19626273
211	0xbe16a01e	-0.14709517
212	0xbe3af847	-0.18258773
213	0x3dff23ef	0.12458026
214	0xbddac846	-0.106827304
215	0xbd980ec0	-0.07424688
216	0xbc880cbb	-0.016607633
217	0x3c9b5b8b	0.01896455
218	0x3e8169ba	0.25275975
219	0xbea32d66	-0.31870574
220	0xbee9876c	-0.4561113
221	0xbe9ffca9	-0.31247452
222	0xbe96b10f	-0.2943196
223	0xbdbd0794	-0.09229961
224	0xbd15c143	-0.03656126
225	0x3ca4613a	0.020065892
226	0x3e152716	0.14565691
227	0x3db51d5f	0.08843493
228	0x3e3b6a6c	0.18302315
229	0x3e640fcd	0.22271653
230	0x3d946168	0.07245141
231	0x3e06f708	0.13180172
232	0x3bf86ffa	0.007581708
233	0x3e6d113e	0.23151109
234	0x3e298968	0.16556323
235	0x3e177d7c	0.14793962
236	0x3d839565	0.06424979
237	0x3dfbca31	0.12294424
238	0x3d36cb0f	0.044627246
239	0xbd0d41f9	-0.034486745
240	0x3e19c6fe	0.15017316
241	0x3e01a598	0.12660825
242	0xbd0b8b2d	-0.034068275
243	0xbc566fef	-0.0130882105
244	0xbcdf67a4	-0.0272711
245	0x3dd98d57	0.106226616
246	0x3cc924c2	0.02455366
247	0xbe6eac1f	-0.23307846
248	0x3d3a3135	0.045457084
249	0xbe384ba5	-0.17997606
250	0xbdc13281	-0.09433461
251	0x3d66b06f	0.056320604
252	0x3dc73a73	0.09727945
253	0x3d2ec6d5	0.04267009
254	0xbe11275e	-0.14175174
255	0x3e06ec14	0.13175994

convN2.self_map.bias f4 [32]
0	0x3de9495c	0.11390945
1	0xbca50aee	-0.020146813
2	0x3c354f8f	0.0110663315
3	0xbcd9e6cf	-0.026599316
4	0x80003b64	-2.1305e-41
5	0x32d1d321	2.4426813e-08
6	0x3d154902	0.03644658
7	0x3d4b8c06	0.049694084
8	0xa542b697	-1.6888682e-16
9	0xbc035894	-0.008016724
10	0x3c7025cf	0.014657452
11	0x909aabb8	-6.1006864e-29
12	0xbbe078b4	-0.0068503264
13	0x3d6b0639	0.05737898
14	0x3a80cc94	0.0009826594
15	0x38c892d7	9.564094e-05
16	0x3ca43952	0.020046864
17	0x3c8471d6	0.016167562
18	0xbdb0cb88	-0.086325705
19	0xbba8a5dc	-0.005146725
20	0xbd037c88	-0.032101184
21	0x3eb128ac	0.34601343
22	0x3c901a34	0.01759062
23	0x3cf7c5b9	0.030245649
24	0xbd0398da	-0.032128192
25	0xbc0dac2e	-0.008647008
26	0x3d9af228	0.07565719
27	0xb5ee088a	-1.7734867e-06
28	0xbc90a78f	-0.017658023
29	0x3dbc54a4	0.091958314
30	0xbc5152ba	-0.012776071
31	0x3ce71756	0.02820937

convN2.pass_map.weight f4 [32, 32]
0	0xbd8c39aa	-0.06846936
1	0xbe51ce90	-0.20488954
2	0xbdf17f99	-0.117919154
3	0x3cb7dfd7	0.022445602
4	0x3e3cb9d7	0.18430267
5	0x3df85ff0	0.121276736
6	0xbe2466e9	-0.16054882
7	0xbee7fe8f	-0.453114
8	0xbebab05e	-0.36462682
9	0xbe47abcd	-0.1949913
10	0x3f7a36b7	0.9773974
11	0x3ed0714d	0.40711442
12	0x3f9843db	1.1895708
13	0xbf7917f8	-0.973022
14	0xbfca6498	-1.5811949
15	0x3f27b99f	0.6551761
16	0xbe69bbf2	-0.22825602
17	0xbe20e143	-0.1571093
18	0xbe02ae6a	-0.12761846
19	0xbe9662fc	-0.29372394
20	0xbf1317f0	-0.574584
21	0xbec5ce87	-0.3863413
22	0xbf0d2699	-0.5513702
23	0xbed486c0	-0.41509056
24	0xbdf907a3	-0.1215966
25	0xbee78ff1	-0.45227006
26	0xbd7b3a1e	-0.06133472
27	0x3f5c33e1	0.8601666
28	0xbd0aaf31	-0.03385848
29	0xbe59a201	-0.21253206
30	0x3dfade20	0.12249398
31	0x3cc81aa7	0.024426771
32	0xbdcdc1cf	-0.10046732
33	0xbec4f501	-0.38468173
34	0x3e9fb002	0.3118897
35	0x3c3e29c8	0.011606641
36	0xbd245281	-0.040117744
37	0xbe3d99a1	-0.18515636
38	0xbe9296d4	-0.28630698
39	0xbe370819	-0.17874183
40	0xbe599f39	-0.21252145
41	0xbecc365d	-0.39885226
42	0xbe1fc723	-0.15603308
43	0x3d3e6ca4	0.046490327
44	0x3d806c25	0.06270627
45	0xbdbf6ec1	-0.093472965
46	0xbdc47312	-0.095922604
47	0xbe4909b2	-0.19632605
48	0xbda672e7	-0.08127385
49	0x3cd55b5e	0.026044544
50	0x3e4a0b5e	0.19730899
51	0xbe4dd5c4	-0.20101076
52	0x3f455452	0.7708179
53	0xbeb1423c	-0.34620845
54	0xbd38b7ea	-0.04509727
55	0x3f01a833	0.50647277
56	0xbd90e351	-0.07074607
57	0xbeb48409	-0.35256985
58	0xbcd51d49	-0.02601494
59	0x3d2c36a8	0.04204431
60	0x3d532a0a	0.051553763
61	0xbda64025	-0.08117703
62	0xbdb99b1f	-0.0906279
63	0x3c06d7de	0.008230178
64	0x3dc20b35	0.09474794
65	0xbe27b9ce	-0.16379473
66	0x3eb52f10	0.35387468
67	0x3dcd0c4e	0.100121126
68	0xbe2c1e1c	-0.16808361
69	0xbd78aa8c	-0.06070952
70	0x3edc1881	0.42987445
71	0x3ee4b9f1	0.44673112
72	0xbe8bbd34	-0.27292788
73	0xbcb7f6ae	-0.022456493
74	0x3f18c2b8	0.5967212
75	0x3f006a82	0.5016252
76	0x3de1f5a5	0.11033181
77	0xbe3c2fe0	-0.18377638
78	0xbeb21b98	-0.34786677
79	0x3f26eeea	0.65208304
80	0xbdb1d517	-0.08683222
81	0xbd14e6f9	-0.036353085
82	0x3d565715	0.05232914
83	0xbf195649	-0.59897286
84	0xbe0af3d7	-0.1356958
85	0xbeca0483	-0.39456567
86	0xbf004f64	-0.5012114
87	0xbe275f13	-0.16344862
88	0xbedc8e55	-0.4307734
89	0xbd8c0bbf	-0.06838178
90	0x3e777258	0.24164712
91	0xbea7ca76	-0.32771653
92	0xbe9afd28	-0.30271268
93	0xbc42a4c7	-0.011880106
94	0x3e75a668	0.2398926
95	0x3d8f294d	0.069902994
96	0xbe4259cc	-0.18979567
97	0x3dec531b	0.115392886
98	0x3e312a46	0.17301282
99	0x3eee6b3f	0.46566197
100	0x3d228a54	0.0396827
101	0x3e02bd90	0.12767625
102	0x3b4a5b08	0.0030877013
103	0x3d96d3b8	0.07364601
104	0xbe6b0bc8	-0.22953713
105	0xbd984427	-0.07434874
106	0x3de84cad	0.1134275
107	0xbe5683ff	-0.2094879
108	0x3e2b6dc6	0.16741094
109	0xbdf56443	-0.11982014
110	0xbde52bda	-0.11190005
111	0x3eebc9d8	0.46052432
112	0x3ddf1f4d	0.10894642
113	0x3e613ccb	0.21995847
114	0x3e036e81	0.12835123
115	0xbece347f	-0.40274426
116	0x3e512a7d	0.20426364
117	0xbe7f4746	-0.24929532
118	0xbebbad2e	-0.36655563
119	0x3eb552fa	0.3541487
120	0xbd9d4d57	-0.07680767
121	0x3ecaf218	0.39637828
122	0x3eb05d48	0.34446168
123	0xbe88d2a7	-0.26723215
124	0xbe8c06da	-0.27348977
125	0xbd9e2771	-0.077223666
126	0xbcbfaf19	-0.023398923
127	0x3d5b18ef	0.053490575
128	0xb719ca0b	-9.166552e-06
129	0xb8266454	-3.9670922e-05
130	0xb99957a7	-0.0002924774
131	0xba023ae3	-0.0004967881
132	0xbbc53574	-0.006018335
133	0xa7f081b3	-6.6754e-15
134	0xb021b89c	-5.8833804e-10
135	0xb0bfdd6d	-1.3960012e-09
136	0xb1722113	-3.5234435e-09
137	0xb42dd71b	-1.6190135e-07
138	0xb8403a65	-4.583075e-05
139	0xa5aa35df	-2.9526804e-16
140	0xb9601935	-0.00021371695
141	0x2b1d744d	5.5939005e-13
142	0xbb48649a	-0.0030577541
143	0xb33e0013	-4.423789e-08
144	0xb5283f6c	-6.267717e-07
145	0x0002dc97	2.62804e-40
146	0xa9472ee3	-4.4227544e-14
147	0xb9478cb6	-0.00019030538
148	0xb848ae92	-4.7846297e-05
149	0xb63434e2	-2.6852872e-06
150	0xb6d4f6f8	-6.3468433e-06
151	0xb5f3abb0	-1.8154878e-06
152	0xbad4e08f	-0.001624124
153	0x36625134	3.372389e-06
154	0xba7ae913	-0.0009571474
155	0xb9bf84b4	-0.0003652923
156	0xbc465301	-0.012104751
157	0xb6e1cfe6	-6.729725e-06
158	0xba95a49d	-0.0011416856
159	0x80042de0	-3.83799e-40
160	0xb78015f5	-1.5269014e-05
161	0x3aaedea5	0.00133415
162	0xb828ad0f	-4.0215495e-05
163	0xbc84631c	-0.01616054
164	0xbc9c2da7	-0.019064737
165	0xb9051884	-0.00012693001
166	0xb9def953	-0.000425289
167	0xbac51320	-0.0015035607
168	0xb9ce4bdb	-0.000393479
169	0xbb16054e	-0.0022891345
170	0xb4dc19fb	-4.0997097e-07
171	0xb3d3a87d	-9.856101e-08
172	0x390b49f4	0.00013283623
173	0xbaed26ca	-0.0018093225
174	0xbd22d662	-0.039755233
175	0x389ccd6b	7.476922e-05
176	0xb9931bff	-0.00028058884
177	0xa7186ae6	-2.1152187e-15
178	0xb92f009a	-0.00016689525
179	0xba226674	-0.0006195076
180	0x38b56e36	8.651281e-05
181	0xba474a2d	-0.00076023006
182	0xbbbc61c2	-0.0057489583
183	0xbb12f3ed	-0.0022423223
184	0xbc7a4d46	-0.0152772125
185	0x3493fa24	2.7562885e-07
186	0xbc070e67	-0.00824318
187	0xb4874d6f	-2.520205e-07
188	0xbd4c99d5	-0.049951393
189	0x3ba0aecd	0.0049036504
190	0xbc291751	-0.0103205005
191	0x213240b7	6.0394395e-19
192	0x3f02ec35	0.51141673
193	0xbdd6038d	-0.10449896
194	0x3e10adb9	0.1412877
195	0xbd958604	-0.07300952
196	0xbefcfa3c	-0.49409664
197	0xbc26d79b	-0.01018324
198	0x3cec4310	0.028840572
199	0x3e84c4de	0.25931448
200	0xbe9cc4f1	-0.30619004
201	0x3ef231c0	0.4730358
202	0x3e0e34c8	0.13887322
203	0x3e2e9742	0.17049888
204	0x3e51f193	0.2050231
205	0x3d8f24d2	0.06989445
206	0xbe6595d8	-0.22420442
207	0x3e8b03f2	0.27151448
208	0x3de057bf	0.10954236
209	0xbe1cdf65	-0.15319593
210	0xbd46582c	-0.04842393
211	0x3e6d73af	0.23188661
212	0xbee474a1	-0.4462023
213	0x3e679608	0.22615826
214	0xbe79bc83	-0.24388318
215	0x3d83ee85	0.06441978
216	0x3e06c525	0.13161142
217	0x3e7c5430	0.2464149
218	0xbec9827e	-0.3935737
219	0x3e245979	0.16049756
220	0xbe26703b	-0.1625375
221	0x3f184bda	0.5949074
222	0x3e8922c0	0.26784325
223	0xbe75b36f	-0.2399423
224	0x3f0170ca	0.5056273
225	0xbe268500	-0.16261673
226	0x3f5e2f7e	0.8679122
227	0xbdaa6dab	-0.08321699
228	0xbeee8a23	-0.46589765
229	0xbecf50e0	-0.4049139
230	0x3f3de4c2	0.7417718
231	0xbf3b6e1c	-0.7321489
232	0x3dd3853c	0.10328147
233	0x3efa3927	0.4887173
234	0xbf220289	-0.6328512
235	0x3e99f1c6	0.3006727
236	0x3ef03448	0.46914887
237	0xbeea3353	-0.45742282
238	0x3d84fbfe	0.06493376
239	0x3d93d3ba	0.07218118
240	0x3f4da04d	0.80322725
241	0x3e1747b0	0.1477344
242	0xbf7f50d9	-0.9973274
243	0xbed86ea9	-0.42271927
244	0x3f45ea29	0.77310425
245	0xbed1367b	-0.40861878
246	0xbf7b6902	-0.98207104
247	0xbd9de6ca	-0.07710035
248	0x3e087eb2	0.1332958
249	0xbf4bdb4b	-0.7963149
250	0x3c3d8346	0.011566943
251	0x3e1def76	0.15423378
252	0xbeaa0c26	-0.33212394
253	0xbea05c13	-0.31320247
254	0xbdd3d0fa	-0.103425935
255	0xbe9979b9	-0.2997568

convN2.pass_map.bias f4 [32]
0	0x3de8d916	0.11369531
1	0xbca63ca1	-0.020292582
2	0x3c3fd2cc	0.011707973
3	0xbcda1f2e	-0.026626196
4	0x000137e2	1.11882e-40
5	0x32c49ed9	2.2889639e-08
6	0x3d15455b	0.036443096
7	0x3d506b29	0.050883446
8	0xa59a6b0f	-2.6787287e-16
9	0xbc062085	-0.008186464
10	0x3c735805	0.014852528
11	0x9083f239	-5.204359e-29
12	0xbbe157ed	-0.0068769366
13	0x3d6fdd45	0.05856063
14	0x3ac619f5	0.0015113937
15	0x3848d3bc	4.788091e-05
16	0x3ca6f63e	0.02038109
17	0x3c8a29c1	0.016865613
18	0xbdb198cb	-0.08671721
19	0xbb9ba18a	-0.0047494816
20	0xbd032fc5	-0.03202798
21	0x3eb10e18	0.34581065
22	0x3c8f13b3	0.017465448
23	0x3cf99b27	0.03046949
24	0xbd0438f2	-0.03228087
25	0xbc0bb849	-0.008527824
26	0x3d9a2cd2	0.0752808
27	0xb56e487d	-8.8767393e-07
28	0xbc8f7485	-0.017511616
29	0x3dbce2e4	0.092229635
30	0xbc4ef879	-0.012632483
31	0x3ce0a95e	0.02742451
