train_script/weights/GCNEdgeBased_model300_Aug_24/25.pth (torch, 120987 bytes, 51 tensors)

convN1.self_map.weight f4 [32, 13]
000000 e9 42 04 00 7e 85 0d 00 9f e8 00 00 e0 e5 0e 00
       3.91345e-40 1.24175e-39 8.3449e-41 1.36816e-39
000010 a4 3e 08 80 15 a6 06 00 91 cd 01 80 df db 01 80
       -7.57155e-40 6.10592e-40 -1.65579e-40 -1.7071e-40
000020 ab e9 0c 00 c6 99 0b 00 95 b1 0b 00 7e 90 08 00
       1.18585e-39 1.065354e-39 1.073895e-39 7.86518e-40
000030 f7 22 05 80 8f 4a 0f 80 9b e6 0a 00 f5 a5 13 80
       -4.7172e-40 -1.404279e-39 1.00108e-39 -1.804409e-39
000040 d4 8a 0d 80 56 54 11 80 52 23 09 00 0c 85 0a 80
       -1.243664e-39 -1.591457e-39 8.3919e-40 -9.66083e-40
000050 62 5d 09 80 22 2e 0d 80 08 eb 0c 80 d2 d4 01 80
       -8.60019e-40 -1.210411e-39 -1.186339e-39 -1.68181e-40
000060 ed 3c 12 00 c8 44 00 00 a8 22 03 80 59 09 0a 80
       1.674895e-39 2.4674e-41 -2.87939e-40 -9.21708e-40
000070 bb 33 01 00 c2 d2 0c 80 44 e9 00 00 f2 b9 05 00
       1.10393e-40 -1.177632e-39 8.368e-41 5.25882e-40
000080 d3 5f 05 80 47 b1 08 80 9e 62 08 80 8b d8 0e 80
       -4.93553e-40 -7.98279e-40 -7.70061e-40 -1.363378e-39
000090 e1 f9 07 80 20 31 09 00 8a d4 08 00 a0 49 0c 00
       -7.32488e-40 8.44142e-40 8.10929e-40 1.128438e-39
0000a0 e7 0d 04 80 e1 b1 01 80 19 8e 0d 00 70 62 00 80
       -3.72329e-40 -1.55646e-40 1.244836e-39 -3.5313e-41
0000b0 be fd 09 00 23 f0 02 80 43 7a 0b 80 49 9f 0a 80
       9.17545e-40 -2.69816e-40 -1.05405e-39 -9.75496e-40
0000c0 f9 ac 0f 00 fe 6f 0c 00 62 16 10 80 7e 97 06 00
       1.439583e-39 1.142201e-39 -1.477397e-39 6.05358e-40
0000d0 d3 3e 06 80 f9 55 06 80 8e b9 00 00 84 38 14 80
       -5.7355e-40 -5.81854e-40 6.6564e-41 -1.856984e-39
0000e0 f9 d4 01 80 52 02 0f 00 23 db 02 80 90 9b 02 80
       -1.68236e-40 1.378365e-39 -2.62282e-40 -2.39476e-40
0000f0 6e 24 0c 80 5d 91 0c 00 a8 ee 08 80 2b ac 08 00
       -1.115094e-39 1.154172e-39 -8.20298e-40 7.96446e-40
000100 18 3f 0d 00 d8 5e 0d 80 f4 0c 13 80 d8 d5 07 80
       1.216495e-39 -1.227885e-39 -1.749521e-39 -7.19561e-40
000110 3f db 00 00 3f e9 02 80 fb 3d 0f 80 f0 78 08 80
       7.865e-41 -2.67344e-40 -1.399767e-39 -7.78068e-40
000120 7b 9a 0e 80 95 fe 07 00 9e 7a 0b 00 4c ec 02 80
       -1.341114e-39 7.34175e-40 1.054177e-39 -2.68438e-40
000130 1d f4 04 80 21 c3 03 00 c4 6b 06 00 b0 d3 00 80
       -4.54913e-40 3.45506e-40 5.89672e-40 -7.5939e-41
000140 4e 57 0b 80 a6 40 02 80 ae a9 12 00 cd 47 05 80
       -1.04151e-39 -2.06862e-40 1.713909e-39 -4.84935e-40
000150 d3 ac 0f 00 52 85 0f 00 02 f0 12 80 76 81 12 00
       1.43953e-39 1.425359e-39 -1.739138e-39 1.699481e-39
000160 b5 78 08 80 1b 05 05 80 16 b9 0a 80 c7 91 05 00
       -7.77985e-40 -4.61009e-40 -9.84751e-40 5.11473e-40
000170 0b 5e 0e 00 8b 0b 08 80 e9 51 14 00 9f 5b 01 00
       1.319433e-39 -7.38825e-40 1.866094e-39 1.24703e-40
000180 07 93 0d 00 93 5a 08 00 42 e5 0d 80 5a 74 10 80
       1.246605e-39 7.67176e-40 -1.276104e-39 -1.511107e-39
000190 64 52 0c 00 47 27 04 80 3e e9 04 80 24 20 09 00
       1.131582e-39 -3.81432e-40 -4.51014e-40 8.3805e-40
0001a0 e0 bb 0b 80 39 b0 0c 80 c6 65 0d 80 19 96 0d 80
       -1.077587e-39 -1.165243e-39 -1.230371e-39 -1.247706e-39
0001b0 ea ad 09 00 8f 29 0b 80 d3 9b 08 80 63 51 05 80
       8.88908e-40 -1.025099e-39 -7.90583e-40 -4.88374e-40
0001c0 a4 b6 04 80 40 ae 05 80 5d 2e 11 00 3e 24 13 80
       -4.32861e-40 -5.21687e-40 1.577835e-39 -1.757876e-39
0001d0 ab 0e 16 00 43 96 08 00 61 12 13 80 b0 ba 09 80
       2.025643e-39 7.88588e-40 -1.751468e-39 -8.9349e-40
0001e0 36 20 0a 00 45 67 12 80 29 59 04 00 1f 71 0c 00
       9.2991e-40 -1.690085e-39 3.99327e-40 1.142606e-39
0001f0 2d 98 0b 80 62 35 0b 00 90 3f 0a 80 59 67 04 80
       -1.064781e-39 1.02934e-39 -9.41157e-40 -4.04416e-40
000200 9a a3 06 00 8e ec 04 00 d1 2a 10 80 15 92 0f 00
       6.09702e-40 4.52202e-40 -1.484728e-39 1.429937e-39
000210 f8 da 01 80 b9 a8 09 80 45 45 06 80 e2 97 10 00
       -1.70387e-40 -8.87046e-40 -5.75862e-40 1.523853e-39
000220 e3 69 0d 00 d0 75 0c 80 bc 99 09 00 c7 56 05 00
       1.231846e-39 -1.144289e-39 8.81669e-40 4.90307e-40
000230 1b a8 00 00 29 00 05 00 00 7e 13 00 d2 9f 02 00
       6.0305e-41 4.59235e-40 1.790075e-39 2.41004e-40
000240 9f 94 0a 80 2d 98 0f 80 73 0b 06 80 1e d4 0a 00
       -9.7167e-40 -1.432123e-39 -5.5512e-40 9.94448e-40
000250 3f 3f 02 00 1c ae 01 00 5c 33 0f 00 15 21 08 00
       2.0636e-40 1.54294e-40 1.395957e-39 7.46552e-40
000260 fd a2 14 00 8b e5 0a 00 f8 bb 04 80 db 14 09 00
       1.895179e-39 1.0007e-39 -4.34772e-40 8.34001e-40
000270 a3 4e 0d 80 b8 4f 0a 80 71 6e 10 00 5e 90 04 80
       -1.222071e-39 -9.46953e-40 1.508987e-39 -4.19131e-40
000280 57 fd 06 00 a2 f9 09 80 3c c3 0f 80 bd a9 0c 80
       6.41894e-40 -9.16071e-40 -1.44757e-39 -1.162917e-39
000290 56 71 01 00 5b 28 04 80 82 c7 0c 00 16 cd 0a 80
       1.32493e-40 -3.81819e-40 1.173596e-39 -9.91926e-40
0002a0 05 ab 08 80 da 7e 0a 00 7b e3 01 00 37 dd 09 00
       -7.96034e-40 9.63861e-40 1.7344e-40 9.05876e-40
0002b0 9a cd 0d 80 a9 0f 11 00 43 2d 07 80 5d aa 09 00
       -1.267617e-39 1.566821e-39 -6.59085e-40 8.87634e-40
0002c0 e0 97 14 00 64 ee 00 00 f5 3b 09 00 5a 8f 02 80
       1.891192e-39 8.5518e-41 8.48028e-40 -2.35096e-40
0002d0 14 fb 0c 00 3b 59 0d 80 42 b6 0e 00 e3 df 00 80
       1.192096e-39 -1.225871e-39 1.351079e-39 -8.0315e-41
0002e0 a7 78 12 80 10 c1 04 80 c5 79 07 80 6f df 0c 00
       -1.696321e-39 -4.366e-40 -6.86531e-40 1.182179e-39
0002f0 01 46 0c 00 d3 3c 0e 80 79 b0 02 80 4b de 00 80
       1.127139e-39 -1.307517e-39 -2.46977e-40 -7.9744e-41
000300 68 cc 0a 80 aa dc 04 00 c7 c4 08 80 c7 80 0a 00
       -9.91682e-40 4.46501e-40 -8.05274e-40 9.64552e-40
000310 5f 89 12 80 45 60 10 80 7e f3 0d 00 d6 3c 0c 00
       -1.702318e-39 -1.503903e-39 1.28121e-39 1.12385e-39
000320 48 b2 07 00 5b 59 0b 00 a3 58 11 80 c6 34 0c 80
       7.06804e-40 1.042245e-39 -1.593e-39 -1.120957e-39
000330 81 ed 0d 00 ef 6e 0b 00 d2 59 05 00 79 0a 0a 00
       1.279062e-39 1.049986e-39 4.91399e-40 9.22112e-40
000340 bf dc 04 80 e9 c7 12 00 81 fe 06 80 79 f3 04 80
       -4.46531e-40 1.724753e-39 -6.42312e-40 -4.54684e-40
000350 60 06 05 80 e2 85 06 80 1e 41 04 00 13 81 04 80
       -4.61464e-40 -5.99041e-40 3.90702e-40 -4.13645e-40
000360 94 09 0f 00 53 f8 0b 00 ec 80 08 80 db 9a 0d 00
       1.380968e-39 1.099272e-39 -7.80932e-40 1.249413e-39
000370 db c4 08 80 16 3f 0c 80 33 b7 07 80 65 44 0d 00
       -8.05302e-40 -1.124657e-39 -7.08568e-40 1.218397e-39
000380 cf 72 08 80 2e 47 12 00 eb c7 05 00 5e 25 08 00
       -7.7587e-40 1.678573e-39 5.30895e-40 7.48089e-40
000390 07 66 0b 00 a2 24 00 80 88 01 05 80 e7 d0 0f 80
       1.046791e-39 -1.3141e-41 -4.59727e-40 -1.452472e-39
0003a0 1b 82 05 80 ec 72 00 00 b1 1a 0e 00 0a f8 06 00
       -5.0585e-40 4.1226e-41 1.295272e-39 6.39993e-40
0003b0 4a 8c 05 80 ad 06 06 80 c5 eb 05 80 f1 bc 0b 80
       -5.09504e-40 -5.53408e-40 -5.43756e-40 -1.07797e-39
0003c0 76 b5 06 00 9a b2 08 80 86 20 0c 00 80 7a 03 00
       6.16109e-40 -7.98754e-40 1.113693e-39 3.19451e-40
0003d0 25 57 0c 80 44 18 0a 80 c7 e4 01 80 e7 23 0d 80
       -1.133288e-39 -9.2706e-40 -1.73905e-40 -1.206741e-39
0003e0 43 96 06 80 0b 6c 01 00 87 59 0a 80 f8 34 0c 00
       -6.04917e-40 1.30594e-40 -9.50471e-40 1.121028e-39
0003f0 d8 3c 09 80 62 e2 06 00 dc ba 09 00 70 f3 08 80
       -8.48346e-40 6.32224e-40 8.93552e-40 -8.22013e-40

convN1.self_map.bias f4 [32]
000000 d3 13 68 be aa fd 24 be e9 ab cb bd 98 e0 f6 bd
       -0.22663812 -0.1611239 -0.09944899 -0.120545566
000010 f4 6a 47 be ff b7 17 be b2 97 79 be 64 5f e0 bd
       -0.19474393 -0.14816283 -0.24374273 -0.10955694
000020 ab 9f 3e be b4 8f 75 be 9e 85 6f be 7e 2f 2d be
       -0.18615596 -0.239806 -0.23390815 -0.16912648
000030 99 27 f2 bd fb 18 28 be 58 0a 3d be 20 b6 2c be
       -0.11823959 -0.1641578 -0.18460977 -0.1686635
000040 dd 5f 85 be 22 c3 57 bd 3c c1 0a be 17 f2 25 be
       -0.260497 -0.052676328 -0.13550276 -0.16205631
000050 ef 37 6c be 2c 1c 9c bd 68 95 de bd 13 b9 b8 be
       -0.23068212 -0.07622561 -0.10868341 -0.360787
000060 f5 d4 6d bd ee c8 54 be e4 80 35 be 64 92 a4 be
       -0.05806442 -0.20779774 -0.17724949 -0.32142937
000070 b3 3f 85 be c1 9a 2d be df a4 b7 bd b9 26 07 be
       -0.2602516 -0.16953565 -0.089669935 -0.13198365

convN1.pass_map.weight f4 [32, 13]
000000 45 8d d8 bc bb 3c 3c be b8 87 34 bd 8b 15 8d be
       -0.02643455 -0.18382542 -0.044074744 -0.27555498
000010 27 a9 3a be be c5 62 bd 4b d7 81 3d 71 09 53 bd
       -0.18228589 -0.055364363 0.06339892 -0.051522676
000020 5e ad 65 be 03 3f 00 bd c3 1b 2d bc 96 c5 eb bc
       -0.22429416 -0.031310093 -0.010565701 -0.02878074
000030 59 f7 72 3e 97 f0 0f 3e 9b 0a 7c bc f0 ec 89 bd
       0.23727168 0.14056621 -0.015383388 -0.06734645
000040 88 bf 1c bd b3 9a b8 be c5 63 94 bd 82 2f 9c 3c
       -0.038268596 -0.36055526 -0.07245592 0.019065622
000050 0d 69 97 3c c3 25 2d ba 97 be 38 3c a9 14 8b 3c
       0.01848271 -0.0006605053 0.011275909 0.016977625
000060 ba ba 2a bc 42 f6 03 3e 1b a6 97 be e7 a0 2e 3f
       -0.010420496 0.12886909 -0.29618916 0.6821427
000070 30 d5 d7 3d f5 ad f6 3c 17 d1 50 3d c4 28 7f bc
       0.10538709 0.030112246 0.050980654 -0.015573684
000080 3c 1c fa 3c ea 00 5b 3b 0b 46 1e bc 28 f0 ef bb
       0.030531041 0.0033417293 -0.009660254 -0.00732233
000090 d3 c0 29 bc af 22 45 bc a2 ff 93 3b 3c 97 a8 3e
       -0.010360914 -0.012032195 0.004516558 0.32927883
0000a0 01 12 5b be da 67 93 be 3a 47 60 3e a8 e2 36 be
       -0.21393587 -0.2879017 0.21902171 -0.178599
0000b0 ad e9 b5 bd df 7e ac 3c 0b 83 1a ba 2e 0f e9 bd
       -0.08882461 0.02105659 -0.0005894161 -0.113798484
0000c0 7e 24 54 3d 05 8b 9f 3c cd 56 26 3d 88 cc ca bd
       0.051792614 0.01947547 0.040610123 -0.099022925
0000d0 77 2e 34 3e d3 5a b9 bd e9 9a b6 bd 29 87 b1 bc
       0.1759585 -0.090505265 -0.089162655 -0.021670895
0000e0 5d ef fb bd 52 e1 a0 bd 76 ca 72 bb 4f b5 0d 3c
       -0.12301514 -0.078554764 -0.0037046946 0.008649184
0000f0 f9 68 0f bc 86 92 bd bb 67 2f 4f 3d 3f 8c 0b be
       -0.008753055 -0.005785289 0.050582316 -0.13627718
000100 7f 1d b0 3d 42 e0 ce bc 04 4d 1f bd 33 df 4e 3e
       0.08599376 -0.025253419 -0.038891807 0.20202331
000110 05 74 44 3d ab 9f a2 3d 1f 96 54 3d 04 07 93 3c
       0.047962207 0.079406105 0.05190098 0.017947681
000120 6c e4 74 bd 9e d0 c1 bc 49 0c b0 3a b6 74 87 bd
       -0.059788153 -0.023659047 0.0013431396 -0.06614058
000130 82 0d 2e 3d 0a d5 30 3e 1d 93 de bd 5d e8 aa be
       0.04249335 0.17268768 -0.108679034 -0.33380404
000140 22 76 c2 bc 81 0a 4c 3e c6 2d 3a 3e 42 63 54 3d
       -0.02373797 0.19925882 0.18181524 0.051852472
000150 12 ea fc 3c c0 ae 3f 3c 73 3f 4f 3d 10 4a 38 3d
       0.030873332 0.0116993785 0.05059762 0.044992507
000160 fd ae 53 bd fe a2 1f 3d 8f e5 80 be 35 20 8c bd
       -0.051680554 0.0389738 -0.2517514 -0.068420805
000170 fb 82 c0 3d e4 5d 31 3d aa b9 e4 3b 7c ac ce 3e
       0.093999825 0.04330243 0.0069801407 0.4036597
000180 f2 ac e5 3c 34 90 e7 bc b6 d6 8c bd 86 0b 83 3c
       0.028036568 -0.028267004 -0.0687689 0.015996706
000190 23 b4 17 be 36 cb 60 bd 8b b5 90 bc c8 2f 9d bd
       -0.1481481 -0.054881297 -0.017664691 -0.07675129
0001a0 c3 d2 1a be d4 41 20 bc 41 03 80 3d a0 3e bc 3c
       -0.15119462 -0.00978132 0.06250621 0.02297908
0001b0 24 0c eb 3e b3 fe b5 3d 59 8e 68 bd eb 0b 91 3a
       0.459077 0.08886471 -0.05677638 0.0011066174
0001c0 3e ce 1b 3d 93 56 ca bc dd 68 78 bc 25 19 ee 3c
       0.038038485 -0.024699485 -0.01516172 0.029064724
0001d0 2c 9f 7e bc c7 33 af 3d 8b bd 03 bd d3 d2 c0 3d
       -0.015540879 0.085547976 -0.032163184 0.094152115
0001e0 78 ce 97 bd f0 45 09 bd 83 50 db bc ee 26 ce 3d
       -0.07412428 -0.033513963 -0.02677179 0.10066019
0001f0 6d cf db 3c 79 bb 6c 3e 4d da aa bd dc df 87 3c
       0.026832307 0.2311839 -0.08342419 0.016586237
000200 db 4a c1 3c 8b 43 83 3d b6 90 c9 bd bb 6e 21 3e
       0.023595264 0.06409367 -0.098420545 0.15764897
000210 7f 90 96 3d 9f 22 da 3d e2 1c 30 3f cc cf 0b 3d
       0.07351779 0.10651135 0.6879407 0.034133717
000220 e9 20 df 3b 6f dc be bc 98 3f 77 3c 7e 16 41 3c
       0.006809343 -0.02329847 0.0150908455 0.011785148
000230 cb 64 e4 bc 47 32 88 3a f8 2e c3 3e a0 9a da bd
       -0.027880093 0.001039096 0.38121772 -0.10674024
000240 e0 86 e5 3c 8c bb c0 3e 01 8b f8 bd e4 b5 e4 3d
       0.028018415 0.37643087 -0.12135888 0.111675054
000250 c5 64 12 bc ba c8 f1 bc 0a 8e c8 3d e7 4f 12 bd
       -0.008935158 -0.02951466 0.09792717 -0.035720732
000260 17 4e 8e bc 98 ee 02 3e 56 a4 0b 3d 21 72 00 bd
       -0.01737122 0.12786329 0.03409227 -0.03135884
000270 6e cc 01 3f 4c 7a 89 3c 69 ae 8e bd 13 f9 a2 be
       0.5070256 0.016781949 -0.0696686 -0.31830654
000280 c5 9f 58 be af 43 24 3d 6a 4e e3 bc 7e a9 a4 bd
       -0.21154697 0.04010361 -0.027747352 -0.080401406
000290 f2 fa 7e bd 3d 86 4d bd d2 7d 9c 3d 01 32 15 bd
       -0.06225104 -0.050176848 0.07641186 -0.03642464
0002a0 9b 96 e6 3c 19 e0 7e 3d da 62 9d bc 82 0f 35 be
       0.028147986 0.062225435 -0.019212175 -0.17681697
0002b0 14 a7 22 be d6 ef 94 3c e3 a9 cb 3c 1c 8e 61 3d
       -0.15884048 0.018180769 0.024861282 0.055067167
0002c0 27 40 85 3d 0e 4d 88 3c e2 a4 07 bd 1c 82 b5 bd
       0.06506377 0.016638305 -0.03311623 -0.08862707
0002d0 f5 b4 f6 bc 46 87 42 be bb 5f 57 bd aa 7b b0 bc
       -0.030115584 -0.18996915 -0.05258153 -0.021543343
0002e0 a9 3f 3b bd ef 21 02 be 62 f8 c6 3e c9 a8 e6 3c
       -0.045715008 -0.12708257 0.38861376 0.028156655
0002f0 b5 d2 23 3c fa e8 17 bc ca 1c a7 ba 44 8b ef bb
       0.009998967 -0.009271855 -0.0012749669 -0.007310303
000300 18 44 2d 3c 3b bd 67 bc 3c 7f 87 3e 4f f9 ca bc
       0.010575317 -0.014144237 0.2646426 -0.024777083
000310 8e 75 ed 3c ef f1 aa 3c 49 46 04 3e af 6e 82 3e
       0.028986719 0.020867316 0.12917437 0.2547507
000320 2c f8 df 3c 2b ee 23 bc f1 44 4d 3b 8e d6 02 3d
       0.027340017 -0.010005514 0.003132161 0.031942897
000330 98 50 c5 3b cb 2c 2d bd a3 c8 63 3c d3 d3 37 3c
       0.0060215704 -0.042279046 0.013902816 0.011219936
000340 5c c7 63 3d 0e 8c 72 3d b8 68 2b 3e fa 2c 9c bd
       0.055610046 0.059215598 0.16739166 -0.07625766
000350 56 20 b2 be c5 e6 b3 bd 81 c6 1c be 59 6f fb 3c
       -0.34790295 -0.0878425 -0.15310098 0.030692743
000360 16 bb 18 be 01 b5 57 bd 0e dd e4 bb 1f 2d ac 3c
       -0.14915118 -0.052662853 -0.0069843596 0.02101761
000370 17 82 aa bd 6d 7a 0f 3f 6f da 0d bf 95 8c 50 be
       -0.08325594 0.5604618 -0.5541143 -0.20366128
000380 cf ef 0a be 1f 17 cb 3d b1 88 42 bd e6 c5 80 bd
       -0.13568042 0.099165194 -0.04749364 -0.06287746
000390 ed f1 a5 3d 8f ea ea 3d cf cc 10 bd 23 9e 7e bc
       0.08102784 0.1147052 -0.03535157 -0.015540632
0003a0 b9 4e 9e 3b 50 b3 90 3d aa e6 74 be 25 af 15 be
       0.004831162 0.07065451 -0.23916116 -0.14617594
0003b0 6d b4 38 3e d8 c8 ba 3d 53 93 03 3f 5b c3 40 3e
       0.18037577 0.09120339 0.51396674 0.18824522
0003c0 32 49 b1 3b 22 0b a9 3c 27 cd 1e 3d 4b ef 93 bc
       0.005410337 0.020635191 0.038769867 -0.01805844
0003d0 28 48 83 3b e7 1f 03 bd 16 b3 ec bd 4c 2c 23 3d
       0.0040064044 -0.032012846 -0.115575954 0.039837167
0003e0 7a 43 38 3e 9d 00 8f 3d de 48 d0 bc 10 ff 1d 3e
       0.1799449 0.06982539 -0.02542537 0.1542933
0003f0 93 d2 ad bd 8d b5 c2 3b 78 e2 c7 3c d6 8b c6 bc
       -0.084874295 0.0059420527 0.02439998 -0.0242366

convN1.pass_map.bias f4 [32]
000000 4a 87 65 be 72 d7 26 be 42 95 d5 bd fc db f5 bd
       -0.2241489 -0.16293123 -0.10428859 -0.12004849
000010 f5 ff 47 be 36 63 17 be a6 ea 75 be 21 be da bd
       -0.19531234 -0.1478394 -0.24015293 -0.106807955
000020 09 c3 3f be f6 bb 70 be e1 dc 6f be f0 fb 2f be
       -0.18726744 -0.23509201 -0.23424102 -0.1718595
000030 3c d2 f3 bd 82 6d 2b be ef 35 3d be 01 69 2c be
       -0.119053334 -0.16740993 -0.18477605 -0.16836931
000040 47 53 8a be 99 a3 47 bd 5b 09 08 be 17 b7 23 be
       -0.2701666 -0.048740003 -0.13284819 -0.15987812
000050 3d de 83 be 11 f8 9b bd 40 14 dd bd fd 1d b2 be
       -0.25755492 -0.07615674 -0.10794878 -0.34788504
000060 91 9f 71 bd 53 50 54 be f4 eb 34 be d1 34 a5 be
       -0.058990065 -0.20733766 -0.17668134 -0.32266858
000070 35 89 84 be 0e 77 2c be ea e3 b9 bd e6 2a 05 be
       -0.2588593 -0.16842291 -0.09076674 -0.13004646

convE1.self_map.weight f4 [32, 13]
000000 8c 26 c5 3d be 51 99 3d 79 7f 73 3e 2d 36 25 be
       0.09626493 0.07486294 0.23779096 -0.16133948
000010 f2 0d 00 3d 83 f5 f0 3b 9c 0d 6a bd 9e e7 bb 3d
       0.0312633 0.007353486 -0.057141885 0.09175037
000020 90 29 8b 3d 26 2d c7 bd 0d 33 46 3e 2a 4c b8 3c
       0.06795037 -0.09725408 0.19355412 0.022497255
000030 37 3b a2 3d 69 18 42 3e e2 fe 19 3d 4d dc 22 bf
       0.079214506 0.18954624 0.03759659 -0.636174
000040 76 bd 64 3d 36 a2 8e be e6 52 79 bd 9a 95 51 bc
       0.055844747 -0.27858132 -0.060870074 -0.012792015
000050 46 a7 90 bc b2 f3 42 be da a6 29 bc 1f bd cd 3c
       -0.017657887 -0.19038275 -0.010354722 0.025114594
000060 81 ee 8c 3c b9 bf 87 be 5f e9 b6 bc 8d 2c 36 bd
       0.017203571 -0.2651346 -0.022328077 -0.04447608
000070 3a 91 00 bd 6f 8c fa 3e 91 d3 63 bc f2 aa ce 3a
       -0.0313885 0.48935267 -0.013905422 0.0015767498
000080 f6 05 7c bd 93 e0 c3 bc d9 1a 8f 3c 56 ae 56 bd
       -0.061529122 -0.023910796 0.017468857 -0.052412353
000090 ab 98 52 be 27 76 85 bd b1 1d 6f 3e cd f6 26 bc
       -0.2056605 -0.065166764 0.2335117 -0.010190678
0000a0 3a 8b 71 bc 39 f8 7a bc d5 a5 d6 3d dc 14 95 bd
       -0.014742667 -0.01531797 0.10480849 -0.07279369
0000b0 49 ba 59 3c 42 2e 80 be 31 9b 17 bd 75 c4 9e 3d
       0.013289043 -0.25035292 -0.037013236 0.07752315
0000c0 97 43 76 3c 74 05 ad 3c 0a 16 11 3b 50 d3 8d 3e
       0.015030763 0.021120764 0.002213838 0.2770028
0000d0 70 c2 62 3f 5f ee 42 3e 3b ba a3 3c c3 29 98 3d
       0.8857794 0.19036244 0.019986263 0.074298404
0000e0 ce 05 26 3e ba 5b 64 3d 99 e8 1b 3d 3f ad c4 bb
       0.16213152 0.05575154 0.03806362 -0.006002098
0000f0 6a d9 de bc a9 98 0f 3c b0 0e 11 bc af 01 af 39
       -0.02720328 0.008764424 -0.008853599 0.00033379855
000100 5b 80 46 3d 1a 9e 7b 3e b8 5b c1 3e fe a2 01 3c
       0.048462253 0.2457203 0.37765288 0.0079123955
000110 19 a9 39 3e 6d fb 32 be 33 7d 37 be a8 53 d6 3c
       0.18130912 -0.17478724 -0.17918853 0.026162937
000120 fa 87 50 bc d5 d9 1b bd a7 6c de 3c 24 c8 c3 bd
       -0.012727732 -0.038049538 0.027151419 -0.09559658
000130 40 ce f7 bd 58 ec 8f bd 1c b8 b7 3e cf 4e 8f bd
       -0.12099886 -0.07027501 0.35882652 -0.069974534
000140 3c 86 40 be 55 e8 1a 3d b0 2d 28 be e6 10 6d bd
       -0.18801206 0.037819225 -0.16423678 -0.057877444
000150 85 21 67 3c 9b 89 37 bc fc bb a0 bc e4 f6 99 3c
       0.014107113 -0.011202241 -0.019620888 0.018794484
000160 5d da 00 3d ed 4e 6e 3b e3 26 af bc d7 01 e7 3d
       0.031458247 0.0036362961 -0.021380847 0.11279648
000170 5d d6 bb 3d 22 36 76 3e fd 57 52 3d f1 5c 34 3e
       0.09171746 0.24044088 0.051353443 0.1761358
000180 f7 ba 0d be bc 77 8e bc 5a 74 7e 3c d4 e9 4c bb
       -0.13840853 -0.017391078 0.01553067 -0.0031267302
000190 0e 05 cc bc 8d e0 74 bb c4 7f 0d 3e 60 63 22 3b
       -0.024904754 -0.0037365288 0.1381827 0.002477847
0001a0 15 24 04 3e bc 62 09 be d9 e8 10 bd 12 37 b4 3b
       0.12904389 -0.1341657 -0.03537831 0.005499729
0001b0 04 5c 1b 3e 7b 16 c9 3c f5 22 d9 bd 99 07 d2 3d
       0.1517182 0.024546852 -0.10602371 0.102553554
0001c0 9b 3c 11 bd 00 f2 e5 bc 53 8e 67 3c 25 a8 1a 3c
       -0.03545819 -0.028069496 0.014133054 0.009439503
0001d0 71 d9 80 bf b8 fb 7f 3e a6 a6 0d 3e 55 cc c3 3e
       -1.0066358 0.24998367 0.13833103 0.3824183
0001e0 49 47 ef bc 01 78 0b 3e c8 d1 c1 3b b4 0e 08 bd
       -0.029208796 0.13619997 0.0059149005 -0.033217147
0001f0 95 e4 9c 3d 80 47 a2 bd 8a cf d8 3a 3a 46 72 bc
       0.07660786 -0.07923794 0.0016541344 -0.014787251
000200 b2 f8 1c ba 08 ca 8a 3d ab e2 be be 9b 05 25 3e
       -0.0005987986 0.06776816 -0.3728231 0.1611542
000210 c0 31 a7 3d 27 d6 4d 3d e2 04 65 be 62 fa 1e 3e
       0.08163786 0.05025306 -0.22365144 0.15525201
000220 4e 58 7f bb 45 97 89 3c 3e db d4 3c 8b b6 4b bb
       -0.0038962546 0.016795764 0.02598345 -0.0031084146
000230 4c 07 3c bd e4 8a 71 3d 8a 41 26 3e 59 94 67 3e
       -0.045905396 0.058970347 0.16235939 0.22615184
000240 79 4f d0 bd 04 d8 e7 3d 9c 87 24 be f4 00 8f bb
       -0.10171408 0.113204986 -0.16067356 -0.0043641273
000250 3b 1b 33 bd 69 82 11 3c 29 ed 8f 3b ce 68 b3 3c
       -0.04372714 0.00888119 0.0043922854 0.02190056
000260 47 d3 da 3c df ce 27 3d 6d 01 a5 3d a1 6f c9 3c
       0.026712073 0.040968772 0.080569126 0.024589362
000270 0b ef ad 3e 1d 56 80 3d 0c 94 1e 3e 47 e9 6d 3c
       0.33971438 0.06266425 0.15486163 0.01452095
000280 e3 eb 60 bd 58 2e 87 be 54 24 c5 3c 4c 50 dd bc
       -0.05491246 -0.26402545 0.024065174 -0.027015828
000290 0e d2 da bc 7a 32 fa bb 0f 09 e2 bc fe 56 56 be
       -0.02671149 -0.007635412 -0.02759221 -0.20931622
0002a0 2e e2 0d be ad 4d 91 3e ba cf c7 bb 84 7e a6 3e
       -0.13855812 0.28379574 -0.006097761 0.325184
0002b0 22 36 db be 15 a4 a5 3c 72 db 9b 3d cd d1 5f bc
       -0.42814738 0.020219842 0.07610215 -0.01366086
0002c0 65 4e ba bc 9d 9e 54 bd f9 88 6b bc 46 e9 de 3c
       -0.02274246 -0.051909078 -0.014375919 0.027210843
0002d0 16 4b ce 3c 9a 02 b1 3c 7c 4e 7a 3d fa d9 2a bf
       0.025182288 0.021607686 0.061110005 -0.66738856
0002e0 89 5b 16 3f 41 23 35 3f 0b 0c 8e 3e f9 19 7c bd
       0.5873342 0.7075692 0.27743563 -0.061548207
0002f0 78 88 99 bc fd cf cc bc e6 bc 08 bd 6c 76 03 bc
       -0.018741831 -0.02500152 -0.033383273 -0.008023839
000300 e0 a0 ac bc 89 5e fc 3b b9 f2 76 bd f3 65 9d 3d
       -0.021072805 0.007701699 -0.060290072 0.07685461
000310 31 53 80 3e b0 61 77 3e 23 bd 6f 3e ee cb a4 3e
       0.2506347 0.24158359 0.23411994 0.32186836
000320 18 01 0a be 42 df 8a bb ad 8b a3 bd 07 a8 de bc
       -0.1347698 -0.00423804 -0.079856254 -0.027179731
000330 4a 20 4e bd 7c 01 a2 bd a6 3d 7f bd 74 7b d2 bc
       -0.050323762 -0.07910439 -0.062314652 -0.025693633
000340 9f 0e 3c 3e 1c 51 ef bd de a0 69 3e cc 36 66 3d
       0.18364953 -0.11685392 0.22815272 0.056204602
000350 a2 ce 3a 3e 70 8c 10 3d 03 7b 13 bd c2 fd 0a bd
       0.18242887 0.03529018 -0.036005985 -0.03393341
000360 05 3d 1a 3e ad d0 16 3d 45 53 cd bd e6 74 82 bc
       0.1506234 0.036820102 -0.10025648 -0.015924882
000370 80 bc 1f be 9b c5 e8 3d 4d c2 97 3c b0 73 d8 bc
       -0.15599251 0.11365815 0.018525267 -0.026422352
000380 71 b0 53 be 8d e4 29 bd d8 b5 85 3c 14 df bb 3c
       -0.20672776 -0.04147773 0.016322061 0.02293352
000390 98 48 03 be 1f fd ad bc 1b b5 2d bd ae e4 32 3c
       -0.12820661 -0.021238862 -0.042409044 0.010918779
0003a0 98 ec 78 3b 8a 93 66 bc fc 19 a3 3d 37 f4 fd 3d
       0.0037982818 -0.014073262 0.079639405 0.12400096
0003b0 29 c6 c7 3c 65 5e ea bd f1 ce 3a be 89 1f 98 bd
       0.024386482 -0.114437856 -0.18243004 -0.0742789
0003c0 78 c6 c0 bc 96 7e 65 3a ed 86 b2 ba 1a 6c c3 bc
       -0.023532137 0.00087545195 -0.0013620533 -0.023855258
0003d0 b3 26 9a bc 76 2c b3 3d 05 78 d8 bd 87 ed 1e 3e
       -0.018817281 0.087487146 -0.10569767 0.15520297
0003e0 22 f7 bb be 55 ba 9c 3e 85 ea 65 bf 2f a6 72 be
       -0.36711985 0.3061091 -0.89810973 -0.23696207
0003f0 6e fa 56 bc 85 52 2e 3b a6 c9 c6 bc 1e 0c 9a bc
       -0.0131212305 0.0026599478 -0.024266075 -0.018804606

convE1.self_map.bias f4 [32]
000000 10 34 df 3c d5 a3 95 bd 0a e4 44 3d 1d 07 e0 bd
       0.027246505 -0.07306639 0.048069037 -0.10938857
000010 d4 73 d6 be 93 31 83 3b 70 ac 96 3d 18 5c 08 3c
       -0.41885245 0.0040037124 0.073571086 0.008322738
000020 d1 23 0b be 07 6b 17 3b 79 bf d3 3c 9c 6c a7 bb
       -0.13587882 0.0023104565 0.025848137 -0.005109383
000030 69 75 5b 3d c0 8e 2f 3d ab c0 38 be 8d a7 12 3d
       0.053578768 0.042860746 -0.18042247 0.03580432
000040 10 8e 68 bb e5 ff a8 bb 00 16 52 3b 0e 62 65 be
       -0.0035485066 -0.005157458 0.003205657 -0.22400686
000050 71 0c 2b bc fe 23 a1 bd e1 1c 24 bc 53 a5 1d bd
       -0.010439978 -0.07868193 -0.010016651 -0.038487744
000060 0d da 21 be c2 b0 7e 3c d4 b6 bf bc c8 76 99 3c
       -0.15805836 0.015545072 -0.023402609 0.018733397
000070 1a e9 02 bf 8b 47 60 bd c7 04 0d be 1b 56 59 bc
       -0.51136935 -0.05475573 -0.13771354 -0.013265158

convE1.pass_map.weight f4 [32, 64]
000000 8b 64 20 bd 72 15 94 bd ac 49 e9 bd 9e 96 ac 3d
       -0.039158385 -0.07230653 -0.11391005 0.084271654
000010 17 14 94 bd 6f b5 49 3e 02 a1 e2 3d d5 b4 c8 3c
       -0.07230394 0.19698118 0.11065866 0.02450029
000020 23 7e 95 3d aa ee 06 be c8 32 3d 3e eb 7e 1c be
       0.07299449 -0.1317698 0.18476403 -0.1528279
000030 47 46 9c 3d 6f 3f fa 3d 83 8c ee bb 08 2e 65 3c
       0.07630592 0.1221913 -0.007279934 0.0139880255
000040 c4 c1 d0 3c 42 d0 44 be 57 00 be 3c 51 ff 66 bd
       0.02548302 -0.19220069 0.023193521 -0.056395832
000050 ee da 26 be 65 0f 68 3e 03 43 a3 bd 30 1f 71 3c
       -0.16294453 0.22662123 -0.07971766 0.014716908
000060 ff 33 7b be c8 e0 54 3e 17 8a ff 3d 16 88 ae 3e
       -0.24531554 0.20788872 0.124775104 0.340882
000070 a8 5f 26 bd f9 cd 1a be 10 30 a3 bd b3 aa 01 bd
       -0.04061857 -0.15117635 -0.079681516 -0.031656932
000080 99 8a b1 be eb 7f 4b be 9b e1 7c bd 43 91 f0 bd
       -0.34676054 -0.19873016 -0.06173859 -0.117464565
000090 94 f1 44 be 05 58 0c be 82 31 9c be 4a bf 81 be
       -0.1923278 -0.13705452 -0.3050652 -0.25341254
0000a0 19 35 97 be 89 74 82 be 4a 81 59 be ed c6 a6 be
       -0.29532698 -0.25479534 -0.21240726 -0.32573643
0000b0 cf 7f 6b be c6 e0 5a be 8d fc 1e be d2 fd 23 be
       -0.22997974 -0.21374807 -0.15526028 -0.16014794
0000c0 63 e9 93 be 29 eb fc be fe e4 7c be 37 0e 47 bd
       -0.28888997 -0.49398163 -0.24696729 -0.04859754
0000d0 b9 7d 73 be 38 b7 ab be 9a 8d 91 be 98 d9 63 be
       -0.23778428 -0.33538222 -0.28428346 -0.22250974
0000e0 a9 66 ad be 0a 95 56 be 6d 34 7a be ec ac a7 be
       -0.33867386 -0.20955291 -0.24434061 -0.32749116
0000f0 fe 74 8b be 86 69 54 be 1e 42 0b be 38 0c 2d be
       -0.27237695 -0.20743379 -0.1359944 -0.16899192
000100 fe 99 77 3e fd 1e a1 bb f1 30 2a bc ee 42 81 bd
       0.24179837 -0.004917024 -0.010387645 -0.06311594
000110 f3 b1 39 bd 70 8a 5d 3d 1c 71 0d be cd 5e 42 3d
       -0.04533572 0.054087102 -0.13812679 0.04745369
000120 13 a4 8d bd 59 d7 dc 3d 7c cb be 3d 44 1c 1c 3e
       -0.0691606 0.10783262 0.09316155 0.15245157
000130 9f ad 5e 3d 95 55 e9 bd d2 04 af 3a a1 3a 48 bd
       0.054364797 -0.113932766 0.0013352877 -0.048884038
000140 a0 19 6e 3e db 49 9f 3b 2a a1 46 bd b3 4c bd bc
       0.23251963 0.004861099 -0.04849354 -0.023107862
000150 27 57 6e 3d 9a b0 93 bb 86 82 0c bd 20 f8 f1 3d
       0.058188584 -0.0045071365 -0.034304164 0.11814904
000160 df 6a c8 be d7 88 5b bd 7b 2b 76 3e 52 70 d7 3d
       -0.39144036 -0.053597298 0.24040024 0.1051947
000170 93 54 16 3d d4 bb da 3b 2d 38 02 be 5e fd 7b bd
       0.03670175 0.006675223 -0.12716742 -0.061520927
000180 8f cb 95 be 49 01 db bd 65 ed 38 be 58 6c 5d be
       -0.29256865 -0.106936045 -0.18059309 -0.21623361
000190 73 f5 8e bc bb 9e c5 3d 63 9d f2 3b 9c 59 a5 bc
       -0.017451024 0.09649416 0.007404016 -0.02018433
0001a0 64 ec 61 bd 69 a4 16 be 1e 23 3c 3c b8 2f 39 be
       -0.05515708 -0.14711155 0.011482982 -0.1808461
0001b0 b2 bb e9 bd 1e 6d 4e 3d 4c b2 f5 bd 12 6f db bc
       -0.11412753 0.05039703 -0.11996898 -0.02678636
0001c0 85 8d 16 be d9 c8 f8 bd 98 62 96 3d 92 15 68 bd
       -0.14702423 -0.12147684 0.07343024 -0.056661196
0001d0 7a e3 ba bd b2 92 3b bd 70 5e 8c bd 91 14 08 be
       -0.09125419 -0.045794196 -0.0685395 -0.13289095
0001e0 69 e7 fa bd 3d 07 8a bc 4f 89 13 be 01 44 8a 3d
       -0.12251169 -0.016849155 -0.14407848 0.06751252
0001f0 50 15 e7 bd d4 ae 2f be 60 c1 27 3d e0 8d ae bd
       -0.11283362 -0.17156535 0.0409559 -0.08523154
000200 53 d6 df bd 2b 90 d8 bd 98 69 08 be a8 34 71 3d
       -0.10929551 -0.10574373 -0.13321531 0.058888108
000210 93 f2 17 be 4f e0 f3 bd 58 17 71 be 82 5a 03 be
       -0.14838628 -0.11908018 -0.23544061 -0.12827495
000220 48 ab 2a be 42 1e 1e bd ac b5 00 be 2c 9d 2e 3e
       -0.16666901 -0.038603075 -0.12569302 0.17052144
000230 e1 ec 00 3e 23 0b 20 3d 3a 5c 34 be 78 14 ad bc
       0.12590362 0.03907312 -0.17613307 -0.021127924
000240 dd e1 96 be 5b 27 0d be df a8 8b bd d0 c7 d6 3d
       -0.29469195 -0.13784544 -0.06819319 0.1048733
000250 8f 42 86 be 0c b2 ad 3c b6 2c ed 3d 2c a6 7f be
       -0.26222655 0.021203063 0.115807936 -0.24965733
000260 9b 4a da bd fb a9 eb bc 93 6c 54 3d 93 fd 30 be
       -0.10658761 -0.028767576 0.051861357 -0.17284231
000270 27 33 e2 3c 02 41 1c bd 92 bf 62 bc 8b ad dd 3d
       0.027612282 -0.038147934 -0.013839619 0.10824116
000280 00 83 cf be b0 77 c2 bd 56 ca 55 3d fe 55 ac bd
       -0.40529633 -0.09495485 0.052194916 -0.08414839
000290 05 f2 80 be 42 60 4d be ad a1 aa be ab 0c 97 bd
       -0.25184646 -0.2005625 -0.33326474 -0.07375463
0002a0 85 4a c0 bd 41 a3 82 be c6 7f 68 be 70 45 79 bd
       -0.093892135 -0.25515178 -0.22704992 -0.060857236
0002b0 07 96 19 bd 9e 04 11 be dd a5 61 be 79 24 21 be
       -0.037496593 -0.14161918 -0.22035928 -0.1573657
0002c0 ea 54 a7 be 0a c4 9e be 36 da 14 be ee d7 9b 3d
       -0.32681972 -0.3100894 -0.14536366 0.07609545
0002d0 f5 cc 89 be d9 80 56 be 8a 01 71 3d b7 c5 55 be
       -0.26914182 -0.20947589 0.05883936 -0.20876203
0002e0 ee 9d 11 be 65 ff 07 be fb 2e 00 be 55 71 51 be
       -0.14220402 -0.13281019 -0.12517922 -0.20453389
0002f0 76 6f 52 be d2 32 17 be a2 a4 eb bd b3 fa 77 be
       -0.20550331 -0.1476548 -0.115060106 -0.24216728
000300 66 d3 f2 bd d8 12 2a be d3 95 13 bd 9e 5f 86 bc
       -0.11856727 -0.16608751 -0.036031555 -0.016403016
000310 7f 58 9b bd 34 7c 0d 3e 80 92 85 bd 63 71 09 3e
       -0.07585239 0.13816911 -0.06522083 0.1342216
000320 d3 6b 4b 3e 5c 47 8c 3d b0 a8 25 3d 39 94 80 3c
       0.1986535 0.06849548 0.040444076 0.015695678
000330 8f d0 74 bd d6 ed 32 3d 63 6f cf bc 2b 4c 60 3d
       -0.05976921 0.04368385 -0.025321668 0.05476014
000340 88 7a fd 3d 7d a0 1d be 36 44 40 3e d3 11 e4 bd
       0.123768866 -0.15393253 0.1877602 -0.11136212
000350 3c 45 26 3e 64 c3 fd 3c 82 4c e2 bc 09 58 30 3d
       0.16237348 0.030976959 -0.027624372 0.043052707
000360 01 51 08 3e 4d 89 b0 3c dd 86 fb bd 36 ab f7 3d
       0.1331215 0.021549845 -0.122815825 0.12093203
000370 b3 bf a7 be 38 d7 06 bd 61 37 e1 bb bf cc 2d 3e
       -0.32763442 -0.032920092 -0.0068730568 0.16972636
000380 cd 14 2d 3e 10 c8 20 3d 8b 4b 94 bd 7e 57 c9 bc
       0.16902466 0.039253294 -0.07240971 -0.024577852
000390 c1 63 80 3d bd 27 86 bd 95 e2 f0 bc b2 3c 1a be
       0.062690265 -0.06550548 -0.029404918 -0.15062216
0003a0 d7 36 5d be fd dc 2e bd 56 0b ab bd 9c b0 8d bd
       -0.21602951 -0.04269122 -0.083517715 -0.06918451
0003b0 dc fc 1c 3b 5d 45 f2 3b 8c 7d aa 3c 83 3c 5d bd
       0.0023954427 0.0073935227 0.020811819 -0.054012787
0003c0 e9 7f 03 be a3 b3 d0 3b c7 f9 2c be ee 2a f6 3d
       -0.12841763 0.0063690706 -0.16892157 0.12019907
0003d0 e7 88 33 be 05 83 8d bd f2 8f b0 bd 9a 8d ae bb
       -0.17532693 -0.069097556 -0.086212054 -0.005326939
0003e0 d2 fe 04 be a4 0d d9 bd 2e 87 94 3d 7d db 29 be
       -0.12987831 -0.10598305 0.07252346 -0.16587634
0003f0 2f 5f 8c 3e 31 e1 12 3e 77 31 80 bd 11 1f fb bd
       0.2741637 0.14343716 -0.06259435 -0.12261785

convE1.pass_map.bias f4 [32]
000000 3f 51 ce 3c 81 1a bc bd 02 1f 41 3d b7 88 c1 bd
       0.025185226 -0.09184743 0.047148712 -0.094499044
000010 07 70 b2 be 4e 69 8c 3b 34 88 98 3d fa e8 04 3c
       -0.34851095 0.0042850142 0.07447854 0.008112187
000020 18 e9 03 be 88 f7 13 3b 7b 8b df 3c f5 70 a7 bb
       -0.12881887 0.002257796 0.02728819 -0.005109901
000030 a7 11 79 3d 77 42 30 3d cd 50 61 be 32 b0 13 3d
       0.06080785 0.043032136 -0.2200348 0.036056705
000040 b2 e8 64 bb 08 27 ac bb 7f d3 52 3b 07 be 5f be
       -0.0034928736 -0.0052536763 0.0032169519 -0.21849833
000050 6f 10 2b bc 7e 5c bd bd d7 1c 24 bc f4 b4 21 bd
       -0.01044093 -0.09246157 -0.010016642 -0.03947921
000060 5f 26 15 be 59 b8 8c 3c 24 a7 bc bc 4d 6d 82 3c
       -0.14565419 0.017177748 -0.023028918 0.01592126
000070 ce f5 e5 be 04 d8 40 bd 32 8d 0a be f9 68 3a bc
       -0.44914097 -0.04708101 -0.13530424 -0.0113775665

convN2.self_map.weight f4 [32, 32]
000000 80 20 02 3e a5 3f 98 3d b1 6d 2e 3e 32 f9 a8 3b
       0.1270771 0.07434014 0.17034031 0.0051566595
000010 18 41 0d 3c 6d 84 fb 3c 4c 5d 75 3d 6f 6a 2a 3e
       0.008621477 0.030702794 0.059903428 0.16642164
000020 51 e6 25 bd 21 58 c9 3d 4b 89 94 be 39 8e 19 3e
       -0.04050285 0.098312624 -0.29010996 0.1499566
000030 84 d5 1c bf b9 0a 93 bd 23 81 64 3d 3a 76 51 3c
       -0.612633 -0.071797796 0.055787217 0.012784535
000040 14 68 d9 3d 79 0b f6 3d 04 e0 55 3e e8 a8 8a bc
       0.106155545 0.12013907 0.20886236 -0.016926244
000050 df 5b 26 3e b6 60 9f 3d c7 b0 80 bd 92 ca 7b 3e
       0.16245984 0.07782118 -0.062837176 0.24588993
000060 fc 85 b1 3c 69 72 96 bd 09 e5 2f be 9f 25 11 bf
       0.021670334 -0.07346041 -0.17177214 -0.5669803
000070 a8 12 78 bd fa 4b a3 3d c2 a7 e4 3d b1 57 a0 3d
       -0.060564667 0.07973476 0.1116481 0.07829226
000080 c9 6b 9c 3e ae 35 c2 bd 24 9d 71 bd 25 ca 2d 3e
       0.30550984 -0.09482895 -0.05898775 0.16971643
000090 1e 47 a6 3d 1c 41 8e 3d 28 64 92 bd 17 17 50 bd
       0.08119033 0.069460124 -0.071480095 -0.05080327
0000a0 e8 46 3a 3e da 4b 3a be 09 9c 8a bd 0b 9c de 3d
       0.18191111 -0.18192998 -0.067680426 0.108696066
0000b0 b6 33 62 3d af c7 9a be 18 3d 9d 3d 67 06 e0 bd
       0.055225097 -0.30230471 0.07677668 -0.10938721
0000c0 74 dd d0 bd 87 d1 50 3e bb e4 63 bd a7 70 86 3d
       -0.10198489 0.20392428 -0.055638056 0.065644555
0000d0 c9 d7 02 be 0b 1e 13 3e 06 b5 ba 3e ab d0 72 3e
       -0.12777628 0.14366929 0.36466235 0.23712413
0000e0 0c a0 c6 3d 32 eb 96 bc a3 44 2b be d9 87 99 3d
       0.09698495 -0.018422697 -0.16725402 0.07496614
0000f0 28 fd 19 3c 86 bd ca 3d 43 b5 09 be ce a9 a4 bc
       0.009398736 0.0989943 -0.13448052 -0.0201005
000100 b1 ca 05 3e 4e 97 ca bd 98 b3 02 3d a2 7a dc bc
       0.13065602 -0.0989214 0.031909555 -0.026913945
000110 32 8d 4d bd d9 4a 1a 3e c5 fe 05 ba 30 50 e7 bb
       -0.050183482 0.15067615 -0.0005111511 -0.0070591196
000120 e9 22 83 bc d1 b8 a3 bd 5b 71 6a bd 10 a4 e5 3d
       -0.016007857 -0.07994235 -0.05723701 0.11212933
000130 e0 00 35 bd bf 9b 2e 3c 78 fd d0 bb 0c 0f 0d 3d
       -0.044190288 0.01065725 -0.006377872 0.034438178
000140 09 6a f0 3b 59 02 fa 3c 03 74 0b 3d c3 cd 16 3d
       0.007336859 0.030518698 0.034046184 0.036817323
000150 cd f1 14 be 16 64 dc 3d a6 ea 43 3d 7b 16 8c 3d
       -0.14545365 0.107612774 0.0478312 0.06840225
000160 ac 9f ee bd 6e 97 c5 bc 90 a9 6d bd c1 94 0e be
       -0.11651549 -0.024120059 -0.058023036 -0.13923933
000170 28 fd 04 bc ec 19 00 3d 1a bf 86 bd 63 cd 29 3e
       -0.008116998 0.03127472 -0.065794185 0.16582255
000180 ec de a4 3d 5b 87 6f bd 3c a5 df bd b3 a0 1b be
       0.080503315 -0.058478694 -0.10920188 -0.1519802
000190 2f c7 fb bc e9 28 96 be cb b6 e0 bd 0e 82 ae 3d
       -0.030734627 -0.29328087 -0.10972365 0.085209
0001a0 9a d3 d8 3c 9d 18 30 bd 3f 38 bf 3d d0 ff a2 3c
       0.026468087 -0.042992223 0.093369 0.019897372
0001b0 0f 39 1a 3d 7f a5 8d bc 50 86 1a bd 3a d4 c8 3d
       0.03765207 -0.017290829 -0.037725747 0.09806104
0001c0 dc 2c c7 bb 7c a0 a7 3d 2e 21 56 3e 6b 02 b6 bd
       -0.0060783457 0.08184907 0.20911095 -0.0888718
0001d0 3e bd d8 bd 8e 72 1b 3e 77 f6 53 be 70 69 17 be
       -0.1058297 0.15180418 -0.20699488 -0.14786315
0001e0 4d 36 d3 3d ca fe c9 bd 0b 52 a2 bd 9e 23 5e 3d
       0.103130914 -0.0986305 -0.07925805 0.054233186
0001f0 b9 d8 c1 bd 6b 0a b3 3d 7f 9f db 3d c2 81 4f be
       -0.09465165 0.087422214 0.10723781 -0.20264342
000200 7d 6b 87 bd 44 db b0 3b 3d 30 80 bc d5 a0 81 3b
       -0.06612299 0.0053972322 -0.015648002 0.0039559403
000210 5c c3 65 bc 47 d9 27 bc 44 2d 8a bd 58 8d 29 bd
       -0.014023628 -0.010244674 -0.06746915 -0.04139456
000220 ca ed 47 bc e4 44 97 bd 3e e0 a9 bc be de 46 bd
       -0.012202689 -0.07386187 -0.02073681 -0.048552267
000230 ce 95 c0 3c 1d 49 99 bc fc b3 05 bd bc 70 03 bd
       0.023508932 -0.018711621 -0.03264235 -0.032089934
000240 e6 e5 81 bd c5 06 c3 bd 0a 60 14 bd 66 79 94 3b
       -0.06342678 -0.095227756 -0.036224402 0.0045310734
000250 b1 f3 e8 bd d6 2b e5 bd ec ab ca bc b9 07 87 bd
       -0.113746054 -0.11190002 -0.024740182 -0.0659327
000260 ed 9c 21 bc 57 d2 12 bc 45 88 72 bd e0 88 57 bd
       -0.009864074 -0.008961282 -0.059211988 -0.05262077
000270 b3 b6 95 bc 06 0b db ba 81 bc 16 3c c4 b1 0d 3d
       -0.018275594 -0.0016711659 0.009200216 0.03459336
000280 49 bb bc bd 0e b6 43 bd d7 2a 98 3d 2d 67 d5 bd
       -0.09215409 -0.047781043 0.07430046 -0.1042007
000290 fd 46 05 3e b9 d1 e7 3c 02 8e b8 bd 47 4a 87 3d
       0.13015361 0.028298246 -0.09011461 0.06605964
0002a0 85 8e 1d be 79 be d5 3c 0e 0e f3 3d 13 aa d7 3d
       -0.15386398 0.026091801 0.11867915 0.10530486
0002b0 da b2 88 bd 52 8b a9 bd c9 34 9e bc 07 96 ef bc
       -0.06674738 -0.08278526 -0.01931228 -0.029246343
0002c0 48 11 ad bc 98 99 a9 bc fa ec 1a be 0b 22 59 3e
       -0.021126404 -0.020703122 -0.15129462 0.21204393
0002d0 aa 49 d3 3d e8 6d 82 bd b4 b9 10 3d e5 a7 c0 3c
       0.10316785 -0.06368619 0.03533335 0.023517558
0002e0 ad f4 fd bd 5f 10 c1 bd 4c 5c 8f bd 3e 18 3c bd
       -0.12400184 -0.09426951 -0.07000026 -0.045921557
0002f0 88 2b e3 3d 56 52 8c 3d 95 69 8a bd 81 00 a2 bd
       0.11092287 0.06851642 -0.067584194 -0.07910252
000300 e8 f8 3b bd 0f f7 f7 3d c3 66 cc 3c 0c 7e 80 3d
       -0.045891672 0.121076696 0.024951344 0.062740415
000310 33 3a 7b 3c ea 54 b4 bc 63 93 6a be ca 8b ec bd
       0.0153337 -0.022013146 -0.22907786 -0.115501
000320 dd 62 cb bd 5a 2a 03 be 97 9e 95 3d 37 b4 82 bb
       -0.09930966 -0.12809125 0.07305639 -0.0039887684
000330 bb 08 49 be 1b fb 31 bd f0 3b 53 bd d3 13 8c 3d
       -0.19632237 -0.043452363 -0.051570833 0.06839719
000340 c3 25 2d bd f7 4b 12 be 40 87 76 bc 33 f9 73 bd
       -0.04227234 -0.14286791 -0.015046895 -0.059563827
000350 46 57 60 be 3a c4 29 bd b3 a6 bd 3d 7f c3 f4 bd
       -0.21908292 -0.0414469 0.09260311 -0.119513504
000360 34 b7 17 bc 94 9a 83 3d ce 94 61 bd 3a f8 4d 3e
       -0.009259988 0.06425968 -0.05507355 0.20114222
000370 7d 3e 1e be 33 71 b5 bc 3d 42 d5 3d bd 53 dd bc
       -0.15453525 -0.022148704 0.104130246 -0.027017469
000380 99 ea dc bd dd 70 33 3d 0e ce 05 be 1c 7d b2 3d
       -0.107869335 0.043808807 -0.13066885 0.08715269
000390 7d f9 96 bd 53 69 63 3d 97 41 b4 be 59 3a 2d bd
       -0.07371805 0.055520367 -0.3520629 -0.042291973
0003a0 39 bc 15 be 92 4e a1 3c fa e9 e6 3c f6 cd b4 3b
       -0.14622582 0.019690786 0.02818774 0.0055177165
0003b0 6a fd a3 3d 81 35 16 be f3 2c 73 bd 78 dd d8 bd
       0.08007319 -0.14668848 -0.05936904 -0.10589117
0003c0 a2 9d 0b be 61 8a a4 be 62 0d 8a bc 01 29 34 3e
       -0.13634351 -0.32136825 -0.016852085 0.17593767
0003d0 75 22 34 be ec b5 ea 3d 0e 6f 93 3d 05 88 99 be
       -0.1759127 0.1146048 0.071989164 -0.29986587
0003e0 f7 63 07 bd f8 de c7 bd c1 bc a1 be 28 e5 fc bd
       -0.03305432 -0.09759325 -0.3158932 -0.123483956
0003f0 38 d5 f6 bd 1b 64 ed 3d 3d b3 81 bd 79 5c ae 3d
       -0.12052387 0.11591359 -0.06333015 0.085137315

convN2.self_map.bias f4 [32]
000000 88 ef 98 3e 56 e9 5e bc 72 7e 83 bb 1c cc c2 bc
       0.29870248 -0.013605436 -0.004012876 -0.023778968
000010 e9 3f 65 ba fc 46 1c 3b 33 d3 6b 3c ff 6b 6f 3e
       -0.000874518 0.002384602 0.014393616 0.23381041
000020 22 ba 08 3b 50 d0 47 3c 3b 79 d4 3a 89 db 1d b9
       0.0020862897 0.012195662 0.0016210446 -0.0001505447
000030 6a 3e 0f bb a1 a2 8d 3a ab e0 52 3e ed 87 00 b7
       -0.002185727 0.0010805913 0.20593517 -7.661042e-06
000040 d1 30 14 3c 4f e6 4e 3c ef aa da bb 4a fb a5 3e
       0.009044842 0.012628152 -0.006673209 0.3241828
000050 e4 a4 90 3b 09 e1 ab 3e b5 42 2e b7 98 39 7a 3b
       0.0044141877 0.33570126 -1.038674e-05 0.0038181301
000060 3e fb fb b9 9f d4 26 3c 9e 67 90 bc 4e f4 d5 3c
       -0.0004806164 0.010182529 -0.017627534 0.02611747
000070 df c0 89 3c 79 b9 35 3e 67 59 09 bc e3 2f 0f 3f
       0.0168156 0.17746533 -0.008383132 0.55932444

convN2.pass_map.weight f4 [32, 32]
000000 73 ed 11 bd 66 8c 70 be c2 37 81 bd 3b c8 0c 3d
       -0.03562684 -0.23491058 -0.06309463 0.034370642
000010 42 14 27 be 24 93 b2 3e 1e 80 22 3d be 7e af 3e
       -0.16316321 0.34877884 0.039672963 0.34276384
000020 6d 45 87 be da d7 2a bd ed 0b da 3e ea a5 e3 3d
       -0.26420155 -0.04170976 0.42587224 0.1111563
000030 4a c6 09 3f 30 a3 15 bf 1b 8d 85 bf 10 c4 a4 3e
       0.5381819 -0.5845213 -1.0433687 0.32180834
000040 d3 dd e8 be b4 cb 07 3e 77 47 90 3e 47 56 49 bf
       -0.45481738 0.132613 0.28179523 -0.78647274
000050 dc 5b 1d bf e3 90 a2 be aa 11 d5 be 8d a6 28 3d
       -0.6146829 -0.31751165 -0.4161504 0.04117446
000060 f8 51 3b be 77 bb a9 bd 27 b2 95 3e 55 6c 93 3d
       -0.18292987 -0.08287709 0.29237482 0.07198397
000070 6b 79 ae 3c ce c1 f1 bd 76 64 31 3e bd b3 1f be
       0.021298131 -0.118045434 0.17323479 -0.15595908
000080 17 a2 37 3e 9d af 95 be 20 f2 f0 bd f4 fc 0d be
       0.17932926 -0.29235545 -0.11764932 -0.13866025
000090 c7 86 9a 3d 6e 11 b0 bd 13 49 70 3d 64 76 c2 bd
       0.07545238 -0.085970744 0.05866344 -0.094952375
0000a0 24 f9 90 3d 82 43 ad be 5b cc 83 3d bd 1e 66 3d
       0.0707877 -0.33840567 0.06435462 0.056181658
0000b0 8c d7 71 3d 7a 84 af be e5 46 a0 bd 29 34 3a be
       0.059043452 -0.3428076 -0.07826022 -0.1818396
0000c0 22 4e 3f bd f6 3a 4e be ec 25 ae bd fa 44 89 be
       -0.046705373 -0.2013968 -0.08503327 -0.26810437
0000d0 41 c2 29 3e 52 e5 88 bd 3d 7d 1d be c0 98 b3 bc
       0.16578008 -0.066843644 -0.15379806 -0.021923423
0000e0 6b cc 49 bd f0 58 58 3c 17 68 6a be ed 82 c7 bd
       -0.049267214 0.013204798 -0.2289127 -0.09741769
0000f0 b8 ed 72 3d 0c 69 77 3c 8a f2 b4 be cb fc 83 3d
       0.059308738 0.015100729 -0.35341293 0.06444701
000100 cb 96 6a 3d aa 44 86 bd 09 26 f2 3c ce f6 91 bd
       0.057272714 -0.065560654 0.029559152 -0.071271524
000110 ed a2 4b be 4a 85 08 bd 2a 33 cf bd ab 9a 43 3e
       -0.1988637 -0.03333024 -0.10117181 0.1910197
000120 eb 0c 14 be e5 bf fc bc 82 2d d7 3d 85 50 00 3d
       -0.14458053 -0.030853221 0.10506727 0.03132679
000130 0a b9 11 3e b5 0d 29 3d ba 36 9f be 2d 2f 3a 3e
       0.14230743 0.041272838 -0.3109644 0.18182059
000140 d5 16 2a 3c e2 f3 0d 3d ef 21 94 3d bc af 87 be
       0.01038142 0.034656413 0.07233035 -0.26501262
000150 4f 45 39 ba ee d0 6b be 3e 20 87 bd 1f a2 f1 bc
       -0.0007067518 -0.23028919 -0.065979466 -0.02949625
000160 a2 e2 f4 bd e6 03 73 3d 9a 46 e0 3d 47 e1 b7 bc
       -0.11957289 0.05932989 0.10950966 -0.022446288
000170 24 92 a7 bd 4e 7f 0c be 12 40 6c bd ca e3 3c be
       -0.08182171 -0.13720438 -0.05767829 -0.1844627
000180 b4 a6 43 3e 3d 2f 85 bd eb e5 55 3c 36 5a 7a 3d
       0.19106561 -0.065031506 0.013055305 0.061121188
000190 88 eb 4a bb a8 bb 06 bd a5 23 3a be dc 69 54 3b
       -0.0030963141 -0.032893807 -0.1817766 0.003241173
0001a0 36 84 3b 3e 60 c4 d3 bb 14 8f b2 3c 1c d2 91 3d
       0.18312153 -0.0064626187 0.02179674 0.07120153
0001b0 14 a8 26 be 39 56 41 bd 93 ff 16 be 44 e1 a7 bc
       -0.16275054 -0.04720137 -0.14745931 -0.020493157
0001c0 f9 ff 34 3b b7 0e 9c 3d cf 3b 9b bd ee 9a 53 be
       0.0027618392 0.07619994 -0.07579767 -0.2066457
0001d0 38 8f 71 3e e5 b5 25 be 7e ba 2c be a4 ba 88 3c
       0.2358979 -0.16182669 -0.16868016 0.01669056
0001e0 77 b3 7f bd ba fb a1 bd 6b 48 8e bd b9 ae 0d be
       -0.06242701 -0.07909341 -0.069474064 -0.13836183
0001f0 8f 6c 11 be 1d 86 2a 3d 78 2d 26 bd be b4 9a bb
       -0.14201568 0.041631807 -0.040570706 -0.004721253
000200 4b d3 bf bd 48 93 da bb 16 3c bb bc 94 be 2e bd
       -0.09366473 -0.0066703893 -0.0228558 -0.04266222
000210 b5 85 36 be 3a ea ce bc ff 51 89 3b 91 d8 6b bc
       -0.17824443 -0.025258172 0.004190683 -0.014394895
000220 4b 55 93 3b 0e 23 10 bd 0e 1d f8 3b 34 78 a0 3b
       0.0044962517 -0.03518968 0.007571823 0.004897142
000230 d7 57 ad bc 24 82 7a bc 60 05 ed bd 0b 8c 7d bc
       -0.02116005 -0.015289817 -0.11573291 -0.015475283
000240 db e3 b0 3c e3 9d 8e bd c8 e5 25 3d 41 44 d3 bb
       0.021593025 -0.06963708 0.04050234 -0.0064473455
000250 08 6b 59 bc 68 38 2c bd 5e c9 b0 3b db 69 e6 bd
       -0.013270147 -0.04204598 0.0053950986 -0.11250659
000260 72 ca b5 bd 4e 8c 37 3c c9 c2 4b bc d7 6a be bc
       -0.08876504 0.011202885 -0.012436577 -0.023244305
000270 cf c9 76 3b b0 9d 09 bd 12 7f b0 bb 46 62 88 3b
       0.0037656908 -0.03359765 -0.0053862417 0.0041621057
000280 34 fa d4 3c 3d eb 18 3d 91 e0 f7 bc 71 bc 5e bd
       0.025998212 0.037333716 -0.030258449 -0.05437893
000290 39 92 09 be 6d 31 2b bd 70 61 31 be 59 b3 93 3d
       -0.13434686 -0.041795183 -0.17322326 0.07211942
0002a0 62 4e 3f be 2a 1c fa bd 6f 8f 00 be eb e5 3e bd
       -0.18682244 -0.12212403 -0.12554716 -0.046605986
0002b0 24 a9 5f 3d b5 e1 e7 bd ee 66 b2 3b b5 23 a4 3d
       0.054604664 -0.11322347 0.005444399 0.08014623
0002c0 1e 44 41 bc 22 81 a7 3c c0 90 0d bc c7 53 83 3c
       -0.011796026 0.020447318 -0.008640468 0.01603116
0002d0 b3 ac cc 3b ad 45 a6 bd 9e b2 79 3a 5f c3 8c bd
       0.0062461733 -0.08118758 0.0009525212 -0.068732016
0002e0 0c 18 59 be 50 2d 58 bc 06 e9 38 be 45 03 19 3b
       -0.2120058 -0.013194397 -0.18057641 0.0023347896
0002f0 ea 00 74 bd e2 66 30 be cd 28 52 bb bc d3 81 bd
       -0.059571184 -0.17226747 -0.0032067776 -0.06339213
000300 c9 7d 8b bd dd 5a a0 3d e5 66 0b bd 8c 84 2b bd
       -0.06811101 0.07829831 -0.034033675 -0.041874453
000310 11 f7 ca bd 94 80 07 be f5 92 f1 bd 48 8d aa 3d
       -0.099104054 -0.13232642 -0.11795608 0.083277285
000320 cb e5 62 3d ad 2f 6a bd d9 d2 a8 bc 1b 47 0a bd
       0.05539493 -0.057174373 -0.020608352 -0.033759218
000330 e7 15 41 3d ab 96 82 bd 95 c0 5f be b2 d9 8b bc
       0.04714003 -0.06376394 -0.21850808 -0.017071579
000340 40 fb ca 3c 61 3d 22 be 90 15 85 3d cd b5 27 bd
       0.024778008 -0.15843727 0.06498253 -0.040944863
000350 01 ad 2f 3c eb 1b a7 3c 5c 2d ce bd 5d ce 67 bd
       0.0107224 0.020399055 -0.10067245 -0.056593288
000360 e5 ed a4 3d 83 72 cf bb 9b 86 4d be 17 c8 f9 bd
       0.08053187 -0.0063307895 -0.20070879 -0.12196367
000370 7f 66 c1 3c e2 04 53 3c 22 bc 03 bd 35 49 c8 3d
       0.023608444 0.012879582 -0.03216184 0.09779588
000380 8a 36 83 3e c8 68 f2 3d d1 83 29 3e 6d 55 02 3e
       0.25627548 0.11836392 0.1655419 0.127279
000390 2e 2f 1b be 28 31 93 3e 40 b4 91 3e 73 0d cf 3d
       -0.15154716 0.2874844 0.28457832 0.10109987
0003a0 06 76 0d 3d 6a 1e 3e 3e 7d ae 98 3e 4c 31 20 bd
       0.034536384 0.1856629 0.29820624 -0.039109513
0003b0 4d fc c1 3e 71 8d 05 3d bf bb 9e be 6b a6 2c 3e
       0.37887803 0.032605592 -0.31002614 0.16860358
0003c0 75 77 30 3e 9f 66 98 bd 9a a5 66 be 52 ae 0d be
       0.17233069 -0.074414484 -0.2252411 -0.13836029
0003d0 0c a7 19 3e 58 0e 49 be 28 54 ff bd 65 01 0c bd
       0.1500513 -0.19634378 -0.124672234 -0.034181017
0003e0 b7 4b 6d 3d 7e c4 1f 3e a0 46 99 3d ca 41 1b 3e
       0.057933535 0.156023 0.07484174 0.15161815
0003f0 8e d5 13 be df c2 24 3e 20 e6 ee 3d f2 a9 46 be
       -0.14436933 0.16089962 0.116649866 -0.19400766

convN2.pass_map.bias f4 [32]
000000 e8 f5 95 3e fd a6 bf bc fc 2e 86 bb e8 dd c3 bc
       0.29289174 -0.023395056 -0.0040949564 -0.023909524
000010 61 f2 62 ba cf d1 1b 3b 88 1f 64 3c 62 fe 48 3e
       -0.0008657333 0.0023776179 0.013923533 0.1962829
000020 c1 59 0b 3b d5 f8 4d 3c f3 ac c4 3a 68 b6 1d b9
       0.0021263214 0.012571533 0.0015005156 -0.00015040638
000030 c7 5a 33 bb 9f ad 5f 3a 2f c3 71 3e 68 6f b0 b6
       -0.002736734 0.00085326465 0.23609613 -5.258178e-06
000040 9f f9 13 3c 78 41 58 3c b4 41 da bb b5 90 9e 3e
       0.009031682 0.013199203 -0.0066606645 0.30969778
000050 f1 ff 90 3b 52 26 a8 3e 25 04 1d b7 15 81 6f 3b
       0.004425042 0.32841736 -9.358894e-06 0.0036545445
000060 ab 65 f7 b9 8e 87 25 3c 46 95 8f bc de af d5 3c
       -0.0004718726 0.01010312 -0.017527234 0.026084837
000070 a1 57 89 3c 35 1a 33 3e ca 9e 08 bc 91 7c 18 3f
       0.016765418 0.17490466 -0.0083386395 0.59565073
