train_script/weights/GCNEdgeBased_model300_Aug_24/255.pth (torch, 122213 bytes, 51 tensors)

convN1.self_map.weight f4 [32, 13]
000000 62 99 04 00 78 91 0e 00 f0 1c 0d 00 34 81 0f 00
       4.22365e-40 1.337881e-39 1.204242e-39 1.423882e-39
000010 32 7d 0e 00 04 e9 15 00 c0 10 0e 80 b1 10 0e 80
       1.330609e-39 2.012136e-39 -1.291706e-39 -1.291685e-39
000020 cb 2b 0a 80 53 d4 14 00 5b 01 00 00 e7 a3 08 00
       -9.34065e-40 1.912878e-39 4.86e-43 7.93481e-40
000030 6a 0e 0a 80 44 3f 07 00 65 c6 0b 80 2a b4 10 80
       -9.23526e-40 6.65544e-40 -1.081361e-39 -1.533999e-39
000040 2c f0 03 00 4c e1 06 00 5a 6d 09 00 ae 32 0d 00
       3.61664e-40 6.31834e-40 8.65747e-40 1.212042e-39
000050 4e 01 03 00 a3 61 0a 80 69 9b 04 00 e4 f7 01 80
       2.75975e-40 -9.5338e-40 4.23093e-40 -1.80762e-40
000060 35 e4 10 00 b8 ef 0b 80 2e 2c 0a 00 ef 29 03 00
       1.551233e-39 -1.096185e-39 9.34204e-40 2.9055e-40
000070 73 5d 04 00 5a ed 09 00 3e 3a 0b 80 20 92 0c 80
       4.00865e-40 9.11665e-40 -1.031084e-39 -1.154446e-39
000080 c9 4f 11 00 b1 15 09 80 50 86 0d 00 fe f3 0e 80
       1.589825e-39 -8.34301e-40 1.242044e-39 -1.373225e-39
000090 38 06 08 80 84 92 0d 80 72 a8 0d 80 d5 35 04 80
       -7.36915e-40 -1.246421e-39 -1.254288e-39 -3.86653e-40
0000a0 5b 2a 04 80 4f 0d 08 80 bd fa 0d 80 a2 72 13 00
       -3.82536e-40 -7.39458e-40 -1.28381e-39 1.785997e-39
0000b0 c9 63 03 80 f6 27 03 80 3e d4 06 00 a0 99 0d 00
       -3.11303e-40 -2.89842e-40 6.27151e-40 1.248972e-39
0000c0 42 48 14 00 f3 df 0b 80 65 d4 10 80 00 34 05 80
       1.862631e-39 -1.090528e-39 -1.545561e-39 -4.77832e-40
0000d0 42 9c 15 80 d9 6d 03 80 06 7b 0b 80 f5 7d 14 00
       -1.9846e-39 -3.14912e-40 -1.054323e-39 1.881895e-39
0000e0 b1 09 0e 80 57 70 07 80 ec 60 06 80 e3 9f 0a 00
       -1.289174e-39 -6.83148e-40 -5.85782e-40 9.75712e-40
0000f0 38 5f 05 00 58 31 0a 80 82 91 0d 00 a8 d9 08 00
       4.93336e-40 -9.36056e-40 1.24606e-39 8.12764e-40
000100 a3 cd 0a 80 e8 b3 0e 80 52 2b 00 80 82 a6 04 80
       -9.92124e-40 -1.350235e-39 -1.554e-41 -4.27074e-40
000110 64 82 08 00 9f 24 03 80 04 3f 0f 80 43 69 09 80
       7.8146e-40 -2.88644e-40 -1.400138e-39 -8.6428e-40
000120 85 60 03 00 e3 8d 04 00 37 b3 00 80 62 ef 07 80
       3.10131e-40 4.18241e-40 -6.429e-41 -7.28723e-40
000130 8b 95 09 80 83 15 04 00 73 3d 02 80 40 f8 06 80
       -8.80165e-40 3.75059e-40 -2.05715e-40 -6.40068e-40
000140 54 02 0b 00 bc e4 01 00 8c ab 0c 00 a8 dc 14 80
       1.011026e-39 1.7389e-40 1.163565e-39 -1.915866e-39
000150 6e d9 13 00 5a 8d 0f 00 9b fa 12 80 d3 7e 11 00
       1.822874e-39 1.42824e-39 -1.742939e-39 1.6067e-39
000160 0f 74 07 00 ea c7 09 80 33 71 09 00 2a 95 0c 80
       6.84482e-40 -8.98235e-40 8.67128e-40 -1.155536e-39
000170 b2 a8 03 80 87 21 06 00 28 e7 0b 00 01 7d 01 00
       -3.36023e-40 5.6304e-40 1.093114e-39 1.36678e-40
000180 b5 e5 08 80 17 f8 08 00 c2 61 04 00 d8 02 12 80
       -8.17087e-40 8.23682e-40 4.02411e-40 -1.654059e-39
000190 e8 fb 0c 00 2d ed 0d 00 c4 b9 09 80 b3 9f 0d 80
       1.192393e-39 1.278944e-39 -8.9316e-40 -1.251151e-39
0001a0 93 86 00 80 dc 7a 01 80 4e 72 08 00 77 d3 01 80
       -4.8276e-41 -1.35909e-40 7.75689e-40 -1.67695e-40
0001b0 4e d2 0b 80 e4 c5 06 80 32 b0 0d 00 00 69 0a 80
       -1.085634e-39 -6.22003e-40 1.257068e-39 -9.56022e-40
0001c0 e8 67 0b 00 67 9e 0c 00 04 f1 11 00 e0 a8 00 00
       1.047465e-39 1.15885e-39 1.647664e-39 6.0581e-41
0001d0 85 ec 0c 00 9f 36 0e 80 e4 18 10 80 22 f9 05 00
       1.186873e-39 -1.305291e-39 -1.478297e-39 5.4855e-40
0001e0 28 b7 0d 80 02 7e 05 80 df 8e 09 00 15 5e 01 00
       -1.259566e-39 -5.0438e-40 8.77772e-40 1.25586e-40
0001f0 85 a8 06 00 0f 64 00 80 14 2d 06 00 ac 86 0d 00
       6.11466e-40 -3.5894e-41 5.67184e-40 1.242173e-39
000200 c3 4d 0f 80 65 0e 05 00 1e 37 10 80 6c 77 02 00
       -1.405428e-39 4.64341e-40 -1.48914e-39 2.26511e-40
000210 8e 30 02 80 5a 3e 08 00 2f 4e 0a 00 02 30 0a 00
       -2.01089e-40 7.57051e-40 9.46402e-40 9.35577e-40
000220 69 39 0e 80 a0 46 01 80 79 82 05 00 37 ec 09 00
       -1.306292e-39 -1.17171e-40 5.05982e-40 9.11257e-40
000230 6f 8c 0b 80 5c e3 09 00 f5 71 10 00 5c c9 02 00
       -1.060569e-39 9.0808e-40 1.510248e-39 2.55905e-40
000240 17 3c 06 80 61 bf 06 80 5b ed 06 00 4f 52 06 00
       -5.72569e-40 -6.19667e-40 6.3616e-40 5.8054e-40
000250 01 ae 02 00 26 cf 01 00 a7 cd 02 80 a5 ed 03 00
       2.46092e-40 1.66146e-40 -2.57445e-40 3.60757e-40
000260 4c f6 0f 80 74 ef 0b 80 06 0d 0d 00 71 41 09 00
       -1.465887e-39 -1.09609e-39 1.198533e-39 8.49995e-40
000270 ba 12 04 00 57 d9 0d 00 8f 71 10 00 ab 55 0d 00
       3.7406e-40 1.271828e-39 1.510105e-39 1.224593e-39
000280 53 6d 02 00 30 1f 0e 00 af 99 10 80 c6 88 0b 00
       2.22889e-40 1.296885e-39 -1.524499e-39 1.059256e-39
000290 65 c3 0a 80 05 63 01 00 e7 c8 0c 00 6e 47 0c 00
       -9.8845e-40 1.27357e-40 1.174096e-39 1.12765e-39
0002a0 50 51 09 00 88 dc 14 00 7b 28 02 00 e5 3a 0a 00
       8.55689e-40 1.915822e-39 1.98193e-40 9.39482e-40
0002b0 0a d4 0e 80 b5 6f 11 00 91 68 07 80 7b ba 12 00
       -1.361762e-39 1.601276e-39 -6.8036e-40 1.719936e-39
0002c0 29 14 01 00 cd 22 0d 00 9a 62 06 80 6a ad 0a 80
       9.9068e-41 1.206346e-39 -5.86385e-40 -9.80564e-40
0002d0 67 37 01 00 35 ef 0a 00 df 23 08 80 a1 14 0d 80
       1.1171e-40 1.004166e-39 -7.47552e-40 -1.201262e-39
0002e0 d1 dd 0b 80 c3 dc 04 80 44 cd 03 80 f9 35 04 80
       -1.089763e-39 -4.46536e-40 -3.49142e-40 -3.86704e-40
0002f0 c6 31 0b 80 9d a0 10 80 52 b3 02 80 b7 12 0d 80
       -1.028046e-39 -1.526985e-39 -2.47999e-40 -1.200575e-39
000300 42 21 0d 00 f6 11 0a 00 96 bb 08 00 f0 a7 0d 80
       1.205792e-39 9.24798e-40 8.01977e-40 -1.254106e-39
000310 a6 da 12 80 29 7b 10 80 e8 3a 0f 00 56 f0 09 80
       -1.731475e-39 -1.51355e-39 1.398664e-39 -9.12736e-40
000320 65 38 08 00 eb e1 04 80 db 0c 10 80 70 3a 0c 80
       7.54915e-40 -4.48386e-40 -1.47398e-39 -1.12299e-39
000330 1d d4 0d 00 b8 3d 0b 80 a7 22 0a 00 77 74 0c 80
       1.269953e-39 -1.032331e-39 9.30786e-40 -1.143806e-39
000340 f3 76 11 00 2a cb 12 00 ba 92 03 80 6a f5 0a 00
       1.603874e-39 1.72592e-39 -3.28142e-40 1.006393e-39
000350 3d f2 09 80 76 f4 0f 80 f5 4e 04 00 12 82 09 80
       -9.13418e-40 -1.465229e-39 3.95666e-40 -8.7318e-40
000360 2a 18 0f 00 9e 60 04 80 3d 90 08 80 d3 15 04 80
       1.386201e-39 -4.02002e-40 -7.86427e-40 -3.75171e-40
000370 4e 54 03 00 ca 89 07 80 4c 76 0e 00 46 06 05 80
       3.0575e-40 -6.92278e-40 1.328134e-39 -4.61428e-40
000380 60 0c 0e 00 85 02 13 00 98 5c 0a 80 b4 c1 03 00
       1.290136e-39 1.745778e-39 -9.51571e-40 3.44994e-40
000390 2b 30 15 00 52 10 0c 00 aa 60 02 80 92 1a 11 80
       1.945825e-39 1.10788e-39 -2.18348e-40 -1.570735e-39
0003a0 cd 7b 0a 80 cb a7 0c 00 46 76 0e 00 7a 25 05 00
       -9.62766e-40 1.162219e-39 1.328125e-39 4.72622e-40
0003b0 e1 60 0c 00 92 73 03 80 f5 b3 10 00 56 17 0d 80
       1.13678e-39 -3.16965e-40 1.533924e-39 -1.202233e-39
0003c0 0e b1 0a 00 f4 55 0d 00 ba 62 0c 00 21 49 05 80
       9.8187e-40 1.224696e-39 1.137442e-39 -4.85411e-40
0003d0 e2 7e 09 00 bb cd 00 00 af 61 02 00 2f 38 0b 00
       8.72036e-40 7.3802e-41 2.18713e-40 1.030345e-39
0003e0 8e 98 03 80 9c 91 07 80 8c a1 08 80 6a 0d 06 80
       -3.30233e-40 -6.95083e-40 -7.92636e-40 -5.55825e-40
0003f0 d4 79 0d 00 87 a5 03 00 d4 52 01 80 56 94 06 00
       1.237565e-39 3.34887e-40 -1.21549e-40 6.04226e-40

convN1.self_map.bias f4 [32]
000000 6a bd a9 bd 72 85 be bd f6 df e5 bd c4 71 11 be
       -0.08288081 -0.093027964 -0.11224358 -0.14203554
000010 57 b4 01 be 68 6f f7 bd b4 21 20 be 2c 67 be bd
       -0.1266645 -0.12081796 -0.15637857 -0.09297022
000020 29 6d b7 bd f6 84 0d bd 3f d6 1b be 1c 83 8c bd
       -0.089563675 -0.03455063 -0.15218447 -0.06860945
000030 b2 62 8f bd 23 72 c3 bd 04 79 98 bd e2 aa b0 bd
       -0.070012465 -0.09543254 -0.07444957 -0.08626343
000040 09 cf bc bd c1 b4 b2 bd 0f 5e 54 bd 64 97 cb bd
       -0.09219176 -0.08725882 -0.051847514 -0.09940985
000050 2a 33 93 bc d5 8f 12 be c1 ed ce bd b5 0c bc bd
       -0.017968733 -0.1431268 -0.10103942 -0.09182111
000060 c3 92 a5 bc c3 24 13 bd 70 5e cf bd ba a0 ae bd
       -0.020211583 -0.03592373 -0.101254344 -0.0852675
000070 58 e2 2f bd a7 27 aa bd 5d 76 e4 bd c0 3a 58 bd
       -0.042940468 -0.08308344 -0.111553885 -0.052790403

convN1.pass_map.weight f4 [32, 13]
000000 a2 e2 4a 3d 43 48 9e be 06 fd 8f 3d a5 68 23 3c
       0.04953254 -0.30914506 0.07030682 0.00997368
000010 23 b0 11 be 71 a7 c0 bc 95 dc 04 3e b4 4b bd bd
       -0.14227347 -0.023517342 0.1297477 -0.09242955
000020 6a ef 82 be 13 2e ba bd 54 4d 41 3d 4d ae 18 bb
       -0.25573283 -0.09090819 0.047192886 -0.002329725
000030 0a 42 cd 3d 5a 32 69 3d b9 d4 9f bc 55 2b a1 bc
       0.100223616 0.056932785 -0.019510614 -0.019673983
000040 98 ed 0a bd 17 75 8c bd 4f c4 5b 3a 00 69 5e bc
       -0.033917993 -0.068582706 0.0008383439 -0.013574839
000050 e6 9b bd 38 2e a0 3d bb 8b be 30 3c fb 7a 39 ba
       9.041261e-05 -0.0028934586 0.0107876165 -0.00070755155
000060 db 83 cd 3b 7c ff d6 3b 5a 8a af bd c7 3e 07 3f
       0.006271822 0.006561218 -0.0857131 0.52830166
000070 f5 55 d3 3d 2b a0 79 be 99 b2 72 be 61 53 75 bd
       0.103191294 -0.24377505 -0.23700942 -0.05989397
000080 f3 96 93 3d 64 57 60 3b 97 2b fb 3c 07 28 c3 bc
       0.07206526 0.0034231776 0.030660434 -0.023822797
000090 9e 5a 3f bb 4a 46 f8 bc ba e0 a5 bd 49 18 03 3e
       -0.00291983 -0.030306954 -0.08099504 0.12802233
0000a0 08 67 de 3d 9f 96 3f bf 70 04 d6 bd e2 98 03 bf
       0.108594954 -0.74839205 -0.10450065 -0.51405156
0000b0 34 ef 61 be 98 28 08 bc 87 be 4c bc 7a 23 1d bd
       -0.22063905 -0.00831046 -0.012496597 -0.03836391
0000c0 5b c5 5e 3c 0e 4b ee bc 2e a3 84 3c 4e 3b 60 bc
       0.013596858 -0.029088523 0.016191091 -0.013686014
0000d0 9c 69 d0 3e ba 29 c5 bd ef 35 10 be 11 11 7b bd
       0.40705574 -0.09627099 -0.14083074 -0.061295573
0000e0 d8 6d 09 bf 14 d8 08 be 24 1e ee bd 48 cc 9d 3d
       -0.53683233 -0.13363677 -0.116268426 0.07704979
0000f0 60 29 31 3c f7 d8 ad 3d c3 d1 78 3d 7c f0 f5 bd
       0.010813087 0.084886484 0.06074692 -0.120087594
000100 f8 9d 66 be 68 b7 09 be 96 80 74 3d f5 97 bb 3e
       -0.22521198 -0.1344887 0.05969294 0.36639372
000110 22 78 3f 3e a2 be fc 3e 56 1b 93 3d 0f 6f 50 3a
       0.18698171 0.4936419 0.07182948 0.00079511193
000120 77 69 1e be 31 d4 d7 bc b0 ac 34 3d 91 d7 19 be
       -0.15469919 -0.026346298 0.04411 -0.15023638
000130 b2 1b 15 bc 7c e0 5e 3c 2f 6e 36 be 77 41 f1 be
       -0.009100841 0.013603326 -0.17815469 -0.47120258
000140 3a 62 c3 be da 4a 0d 3e 51 88 4d 3f 25 24 f3 3d
       -0.38160878 0.13798085 0.8028613 0.118721284
000150 34 d3 3a 3d 96 d6 90 bc cc c4 1f bd 8e fe 03 bd
       0.045611575 -0.017680448 -0.03900604 -0.032225184
000160 b8 3f a1 bc c9 95 a5 bb 55 02 21 bf d3 ed 5d bc
       -0.019683704 -0.005053256 -0.62894183 -0.013545471
000170 d4 a4 22 3e 0b c5 2b bd 64 e1 c7 be 91 a5 ba 3e
       0.1588319 -0.04193596 -0.39039147 0.36454442
000180 04 2c f1 3c 7b 1a 13 bd c7 57 3d be 5d a7 be 3b
       0.029439934 -0.035913926 -0.18490516 0.005818291
000190 62 f9 5c be fe f9 48 3c ad b1 3d 3c a7 88 a9 be
       -0.21579507 0.012266634 0.011578006 -0.3311207
0001a0 64 05 3f be 9a 57 06 3e 48 e3 cd 3d 66 c4 97 be
       -0.186544 0.13119355 0.10053116 -0.29642028
0001b0 38 6c 1c 3f e6 41 08 3d 54 5c 31 3d 03 49 cf bc
       0.6110263 0.03326597 0.04330094 -0.02530337
0001c0 35 26 40 bd c9 47 0e 3d b3 1a 69 3d f4 87 d0 3b
       -0.046911437 0.03473643 0.056910228 0.006363863
0001d0 44 2a ad be 21 3e a4 3d 5e b6 d6 bd 49 47 32 3c
       -0.3382131 0.08019663 -0.104840025 0.0108812535
0001e0 b5 5c b7 bd 17 0e ff 3b 62 0a c8 bb 80 ed 52 bb
       -0.08953229 0.007783662 -0.0061047534 -0.0032185018
0001f0 35 b7 98 3c 65 b0 c3 3e 60 43 b3 bd 56 1f 45 3c
       0.018642047 0.38220516 -0.08753085 0.012031397
000200 96 a7 e6 bb 3d 31 39 3e 53 4f 9d be 98 b4 b2 3e
       -0.007039021 0.18085189 -0.30724582 0.34903407
000210 9b 11 43 3e d9 ed 24 bc df 56 8b 3f 57 15 05 bc
       0.19049685 -0.010066473 1.0885886 -0.008122764
000220 e0 b0 95 3b 01 e4 0e ba 61 ba e7 3c fa da 61 3c
       0.0045682043 -0.00054508453 0.028287115 0.013785118
000230 ba 0b 0d bd d2 ae 6d 3c 9d da 05 3f 41 91 3d be
       -0.03443501 0.014507012 0.522867 -0.18512441
000240 d3 1d 4e 3e 90 a7 d0 3e 38 aa 01 3e a3 54 a4 3e
       0.20128565 0.4075284 0.1266259 0.32095823
000250 00 94 d3 3c 95 5d 81 3d 0b b5 3e 3e 4f c2 44 3d
       0.025827408 0.063166775 0.1862375 0.04803687
000260 9e ba 2f bd 91 b2 d4 3d 19 d2 13 3d f8 c5 0d 3e
       -0.04290258 0.10385621 0.036089037 0.1384505
000270 6a 4a 4a 3f 4c 9e f2 bd c6 13 45 bc d3 31 aa bd
       0.79019797 -0.11846599 -0.01202864 -0.083102845
000280 83 a0 05 3e 93 7a 85 3d 45 a1 42 bc 6e 79 7e bd
       0.13049512 0.0651752 -0.01187927 -0.062127523
000290 10 7f 2f bd da d6 42 bd e4 e1 00 3d ae a6 ad bc
       -0.042845786 -0.04756818 0.031465426 -0.021197643
0002a0 d8 7d 13 be 8a 0e de 3c 19 a9 7f bd 15 bc bf bd
       -0.14403474 0.027106542 -0.062417123 -0.09362046
0002b0 58 f5 12 be b6 2a d9 3d 10 70 05 3d 9c 81 92 3d
       -0.14351404 0.106038496 0.032577574 0.07153627
0002c0 ac bd 6a 3e 60 34 dd bb a5 a0 31 bd 02 e9 01 be
       0.22923917 -0.0067506284 -0.043366093 -0.12686542
0002d0 c0 07 49 3c 51 76 48 39 b1 92 e4 bd 28 32 0d 3b
       0.012269914 0.00019117563 -0.11160792 0.0021544788
0002e0 86 e7 8a bd fa a6 42 be 96 ce c8 3e f3 89 4b 3d
       -0.06782441 -0.19009009 0.39220113 0.049692106
0002f0 b2 f9 4b bd 9b 3e 82 3a d4 29 50 3c 25 b9 05 3d
       -0.049798675 0.0009936871 0.012705285 0.03264727
000300 ef df 13 3d f9 a3 9a bc cd 7e 7e 3e ad d6 8f bd
       0.03610223 -0.018877016 0.24853058 -0.07023368
000310 dd 4b 96 3d da c7 ab 3d b6 75 ca 3e f4 6c c0 3d
       0.073386885 0.08387728 0.3954293 0.09395781
000320 ac 4d f6 3c ca f2 9e bb 31 28 7a bd 44 e1 30 bc
       0.030066334 -0.00485072 -0.061073486 -0.010795895
000330 44 87 c6 3c ec b1 a6 ba e4 b1 20 bd 19 ab 60 3e
       0.024234422 -0.001271782 -0.03923215 0.21940269
000340 b3 f1 37 3d 91 b0 39 3e e3 40 56 3e 1f 79 94 bd
       0.044908237 0.18133761 0.2092319 -0.072496645
000350 fa fc 53 be 36 6a 5a bd 87 6a 39 be 85 e9 93 3c
       -0.20701972 -0.053323947 -0.18107043 0.018055687
000360 72 50 3a be c1 ca 1b bc e6 ef ae bc 34 4d 03 3c
       -0.1819475 -0.0095087895 -0.021354627 0.008014012
000370 7c 43 b8 bd 40 31 bc 3e 54 db f0 be 7b 5b 16 bf
       -0.089972466 0.36756325 -0.47042334 -0.5873334
000380 e7 32 1d be 83 02 0c 3f f5 b1 e7 3d 1f a6 e3 bd
       -0.15351449 0.5469133 0.113132395 -0.111156695
000390 fe 74 7f 3d 93 7a d3 3b 47 82 06 3c a6 31 49 3b
       0.06236743 0.006453821 0.0082097715 0.0030699759
0003a0 e4 33 28 3d 6f b7 9d 3d 61 fc 01 bf ec 00 21 3d
       0.04106511 0.07701003 -0.50775725 0.03930752
0003b0 54 a3 a5 3e 7b 35 8e 3e 0c 7b 01 3f 65 05 8e 3e
       0.32351172 0.27775177 0.5057838 0.2773849
0003c0 f9 60 0a bd 57 60 02 3d d6 b4 7f 3d c7 5d 04 3c
       -0.033783887 0.031830158 0.062428318 0.008078999
0003d0 6f 93 02 bd 85 69 36 3d 65 ad 98 3a 10 15 25 be
       -0.031878885 0.044534225 0.0011648355 -0.16121316
0003e0 03 81 2c 3f c6 7e b3 3e a7 dd 55 3e d5 ab b2 3e
       0.67384356 0.35057658 0.20885335 0.34896722
0003f0 43 08 4b be 83 a1 1d 3c 69 21 ca bb fd b6 48 3b
       -0.1982737 0.009621027 -0.0061685336 0.0030626648

convN1.pass_map.bias f4 [32]
000000 cc 9e a9 bd 3f f2 bd bd 4e cf e4 bd b0 e7 10 be
       -0.08282241 -0.092747204 -0.11172353 -0.14150882
000010 84 4f 01 be f5 1f f7 bd cc a5 1f be f0 f1 bd bd
       -0.12627989 -0.12066642 -0.1559059 -0.092746615
000020 6c a0 b6 bd 0a 6b 0d bd 42 90 1b be 3d ce 8b bd
       -0.08917317 -0.03452591 -0.15191749 -0.06826446
000030 88 f1 8e bd 7d 83 c2 bd 06 a7 97 bd 91 23 b0 bd
       -0.06979662 -0.09497736 -0.07404904 -0.08600534
000040 7d 7d bc bd 2d a6 b2 bd fa 46 54 bd cd 35 cb bd
       -0.092036225 -0.08723102 -0.0518255 -0.09922371
000050 82 4f 98 bc df 5b 12 be a6 d8 cd bd 08 f3 bb bd
       -0.0185926 -0.14292859 -0.10051088 -0.09177214
000060 0a fb a3 bc 65 7f 12 bd 3b b9 ce bd 58 60 ae bd
       -0.020017166 -0.035766024 -0.10093924 -0.0851447
000070 4f 07 2f bd 88 6e a9 bd 7c 20 e4 bd 66 5e 58 bd
       -0.04273158 -0.08273035 -0.111390084 -0.0528244

convE1.self_map.weight f4 [32, 13]
000000 13 ea 2f bd bc 5e ab 3e 45 22 ba 3c ab e3 db be
       -0.04294784 0.33470714 0.02272142 -0.42947134
000010 69 44 4c be 3d 21 ca bd 9e f8 47 bc 29 38 4c 3d
       -0.19947971 -0.09869621 -0.012205271 0.049858246
000020 c0 b7 80 bb b0 9f c3 bc 93 39 82 3e cc 53 1d 3c
       -0.0039281547 -0.023879856 0.2543455 0.009602498
000030 0c 45 c4 bd 54 61 a4 3d 3c 76 a3 bc 3d 9d c1 be
       -0.09583482 0.08026376 -0.01995384 -0.37815276
000040 dc ca a0 3d 12 6d 9c 3d 50 3c 5a ba 94 be 40 3c
       0.07851192 0.07637991 -0.00083250273 0.011764187
000050 7f 04 dc 3c 00 03 16 bd 7d 32 c9 bc 36 34 34 bc
       0.026857613 -0.036623955 -0.024560208 -0.010998776
000060 16 a4 41 bc a9 7d c6 3d 12 81 01 be 20 6d 7a 3e
       -0.011818906 0.096919365 -0.12646893 0.2445569
000070 fb e6 8e 3d 63 7e c4 3e 34 7a ba 3c 46 5b a9 bd
       0.0697765 0.38377675 0.02276335 -0.08269362
000080 56 6b c2 3c 93 c9 14 bd bd 66 1c bc 74 41 42 3b
       0.023732822 -0.03632505 -0.009545979 0.0029641064
000090 86 1a 55 be 15 75 8e 3d cb c2 4f 3f 4b 4a 5e 3d
       -0.20810899 0.069559254 0.81156605 0.05427007
0000a0 6d 20 85 bd 9e 06 d4 3d 4b 99 b7 3d 96 ed 17 3e
       -0.06500325 0.10352825 0.08964785 0.14836726
0000b0 5a 69 1a bd 33 2b 70 be 85 f2 35 3d 1a cf 34 3d
       -0.037698127 -0.23453979 0.044420738 0.04414282
0000c0 02 88 d4 3b 74 32 4f 3c 67 8c 34 bb 43 45 3a bd
       0.00648594 0.012646306 -0.0027549507 -0.04547621
0000d0 66 aa 9d 3f 4c 88 4f 3d cc 10 8f 3a a5 45 89 3d
       1.2317626 0.050667092 0.001091504 0.06702737
0000e0 78 c7 97 3c f9 82 0d 3d d8 77 2c 3d e2 3c 03 3c
       0.018527731 0.034548733 0.04210648 0.008010121
0000f0 9e 80 24 bd ff be 04 3c f9 b5 d3 bb c6 f4 9f 3b
       -0.04016172 0.008102178 -0.006460902 0.004881474
000100 50 42 08 bd b8 ea 41 3e d3 09 b3 3e 2a af 49 bd
       -0.033266366 0.18937194 0.34968433 -0.049239315
000110 24 af d0 3d 60 a9 29 3c 8f 5a 64 bd 34 8d 67 3d
       0.101896554 0.010355324 -0.055750426 0.056531146
000120 a0 c4 31 36 34 12 9e bb 06 78 29 bd a8 c8 3b bd
       2.6489506e-06 -0.0048239473 -0.04137423 -0.045845658
000130 1b 1c 28 3d 3e ff 4f 3e 89 6b d6 3e 7d 50 09 3e
       0.04104243 0.20312211 0.41878918 0.1340961
000140 48 1a 7e be 5a 4b a1 be 75 8b d0 be 9e 63 87 bd
       -0.24814713 -0.315028 -0.40731397 -0.06610797
000150 80 f5 52 3d a9 79 4a be 7f 11 ef 3c fe 35 63 3d
       0.05150366 -0.19772972 0.029183147 0.055471413
000160 60 a3 09 3e 63 fd 0f 3d 00 1b 22 bf bb 8f d6 3e
       0.13441229 0.035153758 -0.6332245 0.41906533
000170 93 2f 56 be f4 88 a3 be 09 c3 5c 3f e1 c9 b1 3d
       -0.20916586 -0.31940424 0.862351 0.086810835
000180 0d 10 d3 bd f3 0b 2d 3d 69 c9 1e 3c a8 7e cb bc
       -0.10305796 0.042247724 0.009691575 -0.024840668
000190 8c 8f 3e 3b c5 0f 00 be 93 3e cc 3c c8 eb 5c 3e
       0.002907726 -0.12506016 0.024932181 0.21574318
0001a0 81 c7 86 bd 9e cc 99 3d 04 f3 01 be 69 37 fd bc
       -0.06581021 0.07509731 -0.1269036 -0.03091021
0001b0 27 b9 71 3c 7f 4f 23 3d 55 75 83 bc 8d eb 66 3d
       0.014753616 0.039870735 -0.01604716 0.056376982
0001c0 bc 37 e3 3c 45 3a 90 bc b2 89 22 3b 6d 7d 21 bc
       0.027736537 -0.01760591 0.002480131 -0.009856564
0001d0 bb 17 2b bf 9e b9 70 3e 3c a6 d0 3d 3f 9b 8b 3e
       -0.66833085 0.23508307 0.10187957 0.2726688
0001e0 0b da 93 3e f4 89 91 3e ee 51 82 3d 56 12 f9 3c
       0.2887729 0.28425562 0.06363283 0.030404251
0001f0 08 bc f9 3c 4c 05 96 be 3a d4 12 bd fc 4d 20 bd
       0.030485168 -0.29300916 -0.035846926 -0.03913687
000200 e4 68 b3 3b c4 58 8c bd 81 8d 77 bf 0c b3 31 be
       0.0054751504 -0.06852868 -0.9670029 -0.17353457
000210 9b d6 82 bc 6b ba a0 3c aa 81 d3 be 50 4f 92 3d
       -0.015971472 0.019620141 -0.41309863 0.07144034
000220 82 44 59 bb a9 5c eb bb 28 f3 89 bc 72 73 60 3c
       -0.0033152406 -0.007182677 -0.016839579 0.013699399
000230 30 f6 1f 3c 29 c6 b9 bc 9f 3d 7d be 16 c9 32 bc
       0.0097632855 -0.022677498 -0.24730538 -0.0109122
000240 0c 9a 4c 3d 22 c8 00 be 93 fe 8d bd f9 e3 d6 bd
       0.049951598 -0.12576345 -0.06933322 -0.10492701
000250 04 47 b7 3d 41 2a ab 3d 87 d1 27 be 5e d2 fe 3d
       0.08949092 0.08357669 -0.16388522 0.12442468
000260 3d 01 23 3e 69 8d b3 3c e4 b4 c1 3d 35 5f a7 be
       0.15918441 0.021918016 0.0945833 -0.32689825
000270 f7 3e fd 3e e5 b5 74 be 06 4c fe 3d 25 f0 21 3e
       0.494621 -0.23897512 0.12416844 0.15814264
000280 d3 65 c7 3e a7 b7 ec be 9d f8 bf 3d 2d 26 4f 3d
       0.38944873 -0.46233866 0.09373591 0.050573517
000290 2f 00 a6 bd 31 6c 09 3d 1c 96 1e 3b a5 88 2f ba
       -0.08105504 0.033550445 0.002419836 -0.0006696082
0002a0 99 da a3 be f2 18 50 3e c0 2c 86 be 89 e9 dd 3e
       -0.32002714 0.20322016 -0.26206017 0.43342236
0002b0 cd 50 0a bf 91 c8 94 3e 06 2a b9 3d 5f a6 67 bb
       -0.5402954 0.2905927 0.090412185 -0.0035346968
0002c0 fa 01 3f 3d 8f cc a9 bb 7d 74 80 3b 5d e5 62 3d
       0.046632744 -0.005181856 0.0039201365 0.05539452
0002d0 0b 13 58 ba 60 81 f5 be 5b 48 ff 3e 91 71 99 bf
       -0.0008242584 -0.47950268 0.4985989 -1.1987783
0002e0 79 48 a2 3d 4b 9e 39 3e ba 39 af bd be 55 c5 bd
       0.07923979 0.1812679 -0.08555932 -0.09635495
0002f0 17 2e 32 bc a9 85 c4 bc 48 ad 30 3b 67 32 2a bc
       -0.0108752465 -0.023989515 0.0026958752 -0.010387993
000300 d6 d8 09 bd 67 7a 4b bb 6c 6b 1e bd 30 2c 96 3e
       -0.033654056 -0.00310483 -0.038676664 0.29330587
000310 ec f2 bf 3e 75 ea 72 bc 11 d3 d4 bd c8 74 ce 3e
       0.37490022 -0.014826407 -0.1039182 0.40323472
000320 99 5c cd bd 53 95 2e bc 2c 09 03 be 21 b0 2d bd
       -0.10027427 -0.010655719 -0.12796468 -0.042404298
000330 bd 71 49 bd 83 bf da bd af 8c f1 bd 24 b7 84 3d
       -0.049180735 -0.10681059 -0.117944114 0.06480244
000340 52 40 bb 3e cd c6 f5 be 10 49 b3 3e 37 b1 be 3d
       0.3657251 -0.48003235 0.3501668 0.09311145
000350 e2 7b b6 3e 52 72 cc 3d 79 55 3e be a8 d9 be 3c
       0.3564139 0.09982742 -0.18587293 0.023297146
000360 ac d4 55 3e 15 23 7a 3d 75 77 7c bc a9 72 12 bc
       0.20881909 0.061068613 -0.01540934 -0.00893847
000370 31 6b d4 3e 4c 68 4f be 73 0d 04 3f 15 da f2 bd
       0.4148803 -0.2025463 0.5158302 -0.11858002
000380 17 bf 71 bd a0 68 07 3e ab 56 6b bd a8 1b 7c bc
       -0.059020128 0.13223505 -0.0574557 -0.015387453
000390 73 6e 98 bc 6e 5a 49 3d d3 98 c9 3c c6 01 45 bc
       -0.018607354 0.049158506 0.024609005 -0.012024349
0003a0 58 12 97 bc 06 35 f8 bd 14 95 a3 3d b5 bb 9e 3e
       -0.018441364 -0.121194884 0.07987419 0.31002584
0003b0 83 a0 c4 be b4 f7 a6 be fb 6c 81 3e c4 64 56 3d
       -0.3840371 -0.32610857 0.25278458 0.05234219
0003c0 8f ea 2c be 6b cb b1 bd fc 9e 48 3e b7 64 7a bd
       -0.16886352 -0.08681377 0.19591898 -0.061131205
0003d0 a5 ad 9b 3c 0a 6a 14 3c 5a c4 a6 be ae ba 79 3d
       0.019003699 0.009058485 -0.3257168 0.060969047
0003e0 64 10 48 be f1 13 ea 3d a9 a6 18 bf 5d 37 01 bd
       -0.19537503 0.11429585 -0.59629303 -0.03154694
0003f0 20 5b 22 bd 59 3a 16 3b fe f6 b9 3c b6 af 90 3d
       -0.039637685 0.0022922962 0.022700783 0.07064764

convE1.self_map.bias f4 [32]
000000 51 b9 db bb 46 10 16 bc 68 aa 09 3c 11 14 16 bd
       -0.006705441 -0.009159153 0.008402444 -0.03664023
000010 4b 20 3e be e1 36 15 bc f9 7c d3 3b 3d ea 15 bc
       -0.18567006 -0.009107322 0.006454107 -0.009150085
000020 1b 2a e2 bc 45 94 81 bc fb 9c f7 ba df 86 b4 bb
       -0.027607968 -0.01581777 -0.0018891388 -0.005509242
000030 c1 11 1c 3d 13 e1 61 bb 8f 8f c1 b9 98 d1 8d 3c
       0.03810287 -0.003446643 -0.00036918788 0.017311856
000040 60 34 a1 bb 1d 96 67 bb b5 e1 04 bd 2d 98 3c bc
       -0.0049195737 -0.0035337277 -0.032441813 -0.011510891
000050 36 2e 91 bb b8 76 93 bc 6d bf 61 3d 1f 14 d5 bc
       -0.0044305576 -0.018000945 0.0551142 -0.026010571
000060 9d 01 24 bd 1d 2b 09 3d f0 14 76 bc ee 07 95 3d
       -0.0400406 0.03348838 -0.01501964 0.07276903
000070 bf a6 33 be 24 63 ca bc 82 f0 e5 bc c1 eb 00 bd
       -0.17544077 -0.024705477 -0.028068785 -0.031474832

convE1.pass_map.weight f4 [32, 64]
000000 11 79 bd bc b8 ad 86 3d 9c e7 7a 3e 6b bd d7 be
       -0.023129018 0.06576103 0.24502414 -0.42136702
000010 29 a1 be be d7 59 a9 3e bf e6 71 be 4d 88 c8 3e
       -0.3723233 0.33076355 -0.23623179 0.3916649
000020 d2 25 d3 bc e4 ed 12 bd 9d 9c 78 be b8 62 3f bf
       -0.02577487 -0.0358714 -0.24278493 -0.7476001
000030 41 3d ef 3d 43 74 04 3f af 55 83 bd 90 44 aa bd
       0.11681605 0.517399 -0.06412827 -0.083138585
000040 06 22 4b be 4c 62 8a be 6c 8e 41 3e fc 9c aa bd
       -0.19837198 -0.2702812 0.18901986 -0.08330724
000050 7c a3 d4 be 6a 22 4b 3e a4 4a c2 3d c4 27 a3 3e
       -0.4153098 0.19837347 0.09486893 0.31866276
000060 c9 d5 47 be 17 38 37 3e 1c 81 59 bd 35 a8 16 be
       -0.19515146 0.1789249 -0.053101644 -0.14712603
000070 13 75 56 bc 7b ed f2 bd d2 b8 82 bd 56 23 d1 3d
       -0.013089436 -0.11861702 -0.06382908 0.10211818
000080 10 c2 06 bf 14 40 b5 bc d3 f4 e8 bd 70 ec 3c 3e
       -0.52639866 -0.022125281 -0.113748215 0.18449569
000090 73 30 b2 be b5 37 94 be d1 3c c7 be 95 ae 83 be
       -0.3480259 -0.2894875 -0.38913587 -0.25719133
0000a0 15 b3 e1 bd 6d 55 0a 3b d2 60 15 bd 85 bc e2 be
       -0.11020485 0.0021108047 -0.03646929 -0.44284454
0000b0 36 3d 09 bf 8d 13 ad bd 10 ef a2 bd 1c 19 64 bd
       -0.53609025 -0.08450995 -0.07955754 -0.05568801
0000c0 07 0d dc be c3 c8 ef be 23 74 af bd 3e 3d bd 3e
       -0.4297869 -0.46832857 -0.08567073 0.36960787
0000d0 75 3f 0e bf f2 26 61 be d1 52 2c 3d cb 6d 8b 3d
       -0.5556558 -0.21987513 0.042071167 0.06808051
0000e0 ba 36 a8 ba 8f 7e 86 3d 58 9c ad 3c 4e 7c a3 be
       -0.0012833693 0.06567108 0.021192715 -0.31930774
0000f0 f1 b8 e5 3c 7f ed 04 bf b4 64 5f be d5 a9 8c be
       0.028042288 -0.5192489 -0.21815759 -0.27473322
000100 5b 93 1f 3e 3b bf 46 bd 79 bb fd bd af 05 bd be
       0.15583555 -0.048522215 -0.12389273 -0.369184
000110 4b 0a d2 bc b1 23 10 3c e5 9d 8f bd bd 63 d4 3d
       -0.025639674 0.008797572 -0.07012538 0.10370586
000120 4c e0 e3 3d 91 e1 19 be 7a ff 16 3e c7 68 0c 3e
       0.111267656 -0.15027453 0.14745894 0.13711844
000130 81 61 34 3e 7e 27 1f be b9 18 ac bd 40 bd bd 3d
       0.1761532 -0.15542409 -0.08403153 0.09264612
000140 7f 7b 98 bd a0 25 d4 be b2 2e 35 be 15 5f c8 ba
       -0.0744543 -0.41434956 -0.17693594 -0.0015287126
000150 ab 05 32 3e 26 8f eb 3c cc 7a 99 bc 1c b6 72 be
       0.17384975 0.028754782 -0.018735312 -0.23702282
000160 a8 2a b6 be 09 e8 0d bd 9d c9 e0 3d 66 6d 31 3e
       -0.3557942 -0.034645114 0.10975955 0.17326888
000170 ca eb b9 bd 30 90 18 be 5e 61 ac be 4b 18 c0 bd
       -0.09078176 -0.14898753 -0.33668035 -0.093796335
000180 75 69 55 be 1d cc 90 bc 70 5a a2 bd ec 09 c8 3e
       -0.2084101 -0.017675454 -0.07927406 0.3907007
000190 32 b9 1b 3c 1a 05 5c bc 64 fc 11 be cd c1 06 be
       0.009504603 -0.013428951 -0.14256436 -0.13159867
0001a0 4e 84 1c bd 65 6e 07 3e 73 51 8e be 99 8a f6 bd
       -0.038212113 0.13225706 -0.27796516 -0.12038154
0001b0 1e 2c 02 be 32 14 f4 3d 78 95 35 bb 45 b3 a5 bc
       -0.12712142 0.119179145 -0.0027707499 -0.020227084
0001c0 3a 48 ff 3c 19 ff b7 3e 76 47 1c 3e 4d 1a 9f bd
       0.03116237 0.35936812 0.15261635 -0.07768688
0001d0 82 90 42 be 38 ce ae bd 6b 53 e3 3c 1a 78 2e 3e
       -0.19000438 -0.08535427 0.027749738 0.17038003
0001e0 98 0d 94 3e 68 46 ad bd 2a 49 ec bd 23 64 f0 bd
       0.2891662 -0.084606946 -0.115373924 -0.117378496
0001f0 16 78 d0 3d 37 4f 07 3e d0 a6 e1 3d f2 34 fa 3c
       0.101791546 0.13213812 0.11018145 0.030542824
000200 da d7 1c bd 47 46 9e bc 47 6d 1e be 96 52 23 b9
       -0.03829179 -0.01932062 -0.15471373 -0.00015575657
000210 15 a1 9d bd c2 43 0c bd f1 10 38 bc 33 c4 42 3e
       -0.076967396 -0.034244306 -0.011234508 0.19020157
000220 ad 58 2c 3e de a6 17 bd de 34 32 be a3 26 48 3e
       0.16830702 -0.03702437 -0.1740298 0.19545989
000230 66 93 11 3f 35 f3 1d bf 1b 2b 99 bd 35 b0 17 3d
       0.5686554 -0.6169923 -0.07478925 0.03703328
000240 10 f1 83 be b6 68 81 be 21 98 b4 3d ca 92 c5 3d
       -0.25769854 -0.252752 0.08818079 0.096471384
000250 3c d5 45 bf bd e4 48 3d ac 72 6a bd 34 35 0e be
       -0.77278495 0.049046267 -0.057238266 -0.13887483
000260 23 b7 7f be bd 91 d8 3c 1e 2f a7 3d 45 a8 e2 bd
       -0.24972205 0.02643668 0.08163284 -0.11067251
000270 a1 06 f0 ba 76 fe b3 bb 4d d8 58 3e a1 34 d5 3d
       -0.0018312522 -0.0054929806 0.21176262 0.10410429
000280 52 23 63 be 5f 77 a4 bd ee ef 8f be 50 46 df be
       -0.22181442 -0.08030581 -0.2811274 -0.43608332
000290 05 5c b9 bd df 3a ad be 02 11 92 be 26 5d a5 bd
       -0.090507545 -0.33833978 -0.285286 -0.08074407
0002a0 d6 54 54 bd 9b 01 b4 be b5 6a 37 be bf 12 7f bd
       -0.05183872 -0.35157475 -0.17911799 -0.062273737
0002b0 93 20 08 bf 48 f0 e8 be c7 ca 73 3d 9d e8 80 bd
       -0.53174704 -0.4549582 0.059519555 -0.062943675
0002c0 02 8f af bd 1d cb 11 be 77 bb ce 3d 8c c6 bd 3d
       -0.085721985 -0.14237638 0.1009435 0.092663854
0002d0 c7 5d 09 3d 78 fe 2d be e6 72 94 bd 83 3c f0 be
       0.0335367 -0.16991603 -0.07248478 -0.46921167
0002e0 54 f9 4c be 23 4f f6 bc cc 21 35 be 80 0a 72 bc
       -0.20016986 -0.030067032 -0.17688674 -0.014773011
0002f0 84 e0 1b bf ce 65 4e bd f2 6d 39 3e fd db e4 be
       -0.6088946 -0.050390057 0.18108347 -0.44699088
000300 45 9a c2 bd b4 60 80 bb 5d 8b 27 3d a9 3a f3 3d
       -0.09502081 -0.003917778 0.04090439 0.11876423
000310 d8 66 bf 3d 70 f8 e5 3c ee fc ed bd e0 fb ab 3d
       0.09345788 0.028072566 -0.11620508 0.08397651
000320 8b 39 3c 3e 9a 49 bd bd 87 eb 2d 3e 9b aa 9f 3d
       0.18381326 -0.09242554 0.16984378 0.07796212
000330 1f 86 c1 3b e7 f9 09 be d5 8d 36 be 1d 42 bd be
       0.005905881 -0.13474236 -0.17827542 -0.36964503
000340 8d 00 e7 3d c4 a8 33 3e 43 8a 0f 3d 01 72 dd 3c
       0.11279402 0.17544848 0.035043966 0.0270319
000350 95 22 b3 bb 20 47 5a 3a 98 77 a7 bd 48 d5 1e be
       -0.005466769 0.00083266385 -0.081771076 -0.15511048
000360 77 96 17 bd 70 fc 1d bd dc ec 06 be d4 3a 71 bd
       -0.03700873 -0.03857082 -0.13176292 -0.058893993
000370 22 3d c7 be 83 17 62 3d 7b 38 85 be 87 fd 3c 3e
       -0.38913828 0.055198204 -0.26019654 0.18456088
000380 0d b9 96 3d 9c 68 eb bc b7 8e 47 be 27 31 9e bd
       0.073595144 -0.028736405 -0.19488035 -0.07724219
000390 b5 bf 34 bd 85 b4 b3 3b dc 55 c4 3c 43 a1 99 bd
       -0.04412814 0.005484166 0.023966722 -0.07501461
0003a0 00 62 5f be bd 7d 88 3d 02 87 70 be 7c ff 83 bd
       -0.21814728 0.06664608 -0.23489001 -0.06445214
0003b0 87 51 bb 3c b0 98 20 3e 96 f2 e1 3d 45 55 cd 3e
       0.022866024 0.15683246 0.11032598 0.40104118
0003c0 7f cc 11 be 55 37 3f be fc 17 87 38 88 44 3c bd
       -0.14238165 -0.18673451 6.441769e-05 -0.045963794
0003d0 70 cc cc ba 86 a7 c7 bc 2c 5c 8f 3d 8c 1e 2a 3e
       -0.0015624892 -0.024371874 0.07000002 0.16613215
0003e0 ed a6 86 3d 4a 3a 13 3c 8e 3c ea 3d c1 e2 b7 3c
       0.06574807 0.008986065 0.11437331 0.022446992
0003f0 ed 53 b3 3e 9c 89 a8 bd 7a 20 6c 3e 14 30 39 be
       0.35024968 -0.08229372 0.23059264 -0.18084747

convE1.pass_map.bias f4 [32]
000000 51 b9 db bb 46 10 16 bc 68 aa 09 3c 11 14 16 bd
       -0.006705441 -0.009159153 0.008402444 -0.03664023
000010 13 20 3e be e1 36 15 bc f9 7c d3 3b 3d ea 15 bc
       -0.18566923 -0.009107322 0.006454107 -0.009150085
000020 1b 2a e2 bc 45 94 81 bc fb 9c f7 ba df 86 b4 bb
       -0.027607968 -0.01581777 -0.0018891388 -0.005509242
000030 c1 11 1c 3d 13 e1 61 bb 8f 8f c1 b9 98 d1 8d 3c
       0.03810287 -0.003446643 -0.00036918788 0.017311856
000040 60 34 a1 bb 1d 96 67 bb b5 e1 04 bd 2d 98 3c bc
       -0.0049195737 -0.0035337277 -0.032441813 -0.011510891
000050 36 2e 91 bb b8 76 93 bc 6d bf 61 3d 1f 14 d5 bc
       -0.0044305576 -0.018000945 0.0551142 -0.026010571
000060 9d 01 24 bd 1d 2b 09 3d f0 14 76 bc ee 07 95 3d
       -0.0400406 0.03348838 -0.01501964 0.07276903
000070 78 a6 33 be 24 63 ca bc 82 f0 e5 bc c1 eb 00 bd
       -0.17543972 -0.024705477 -0.028068785 -0.031474832

convN2.self_map.weight f4 [32, 32]
000000 35 47 f6 3c 2d 50 8f 3d b2 6a ab 3d 63 df e1 3d
       0.030063251 0.06997714 0.0836996 0.11028936
000010 e0 38 80 bb 13 b7 1e be 4a 87 0e be e4 a1 4a bc
       -0.00391303 -0.15499525 -0.13918796 -0.012367699
000020 3c d1 ea 3c 0e ce 8d 3d 6d 58 a4 bc d7 7a 2b bd
       0.028664224 0.069240674 -0.020061696 -0.041865196
000030 14 eb ab be 04 cd 13 3e 1b 6b 8c 3d 26 d0 f2 bb
       -0.33577788 0.14433676 0.06856366 -0.007410067
000040 e4 c2 14 3d 04 67 2d 3d f8 6f 9c bd 45 49 01 3c
       0.036318675 0.04233457 -0.07638544 0.007891004
000050 de 06 bb 3d 1d 00 16 3d da 68 72 bd 06 7e ad 3d
       0.09132169 0.0366212 -0.059182025 0.08471303
000060 bf 48 4b 3d b3 67 17 bd 17 56 b2 3d f5 37 ee 3c
       0.049629923 -0.03696413 0.087078266 0.029079417
000070 85 e0 f6 bd ce 8e c5 3d 13 21 89 bc 3b ae 81 bd
       -0.120545425 0.096463785 -0.016739404 -0.0633206
000080 ac 29 76 3e bd d1 48 3d 74 3e a3 3c 98 24 fb bc
       0.24039334 0.049028147 0.01992724 -0.030657098
000090 55 f0 41 3e cd a7 ae 3e e1 4f 91 bd 14 d1 25 be
       0.18939336 0.34112397 -0.07095314 -0.16193038
0000a0 6f 42 95 be e3 c3 29 be 13 9c ca bd c4 70 41 3e
       -0.29152247 -0.16578631 -0.0989305 0.18890673
0000b0 b4 44 7b 3c 8d cd 58 bd cd 4e c3 bd 3c 91 ab be
       0.015336204 -0.052930404 -0.095365144 -0.33509243
0000c0 bb 8a ae bd 21 93 dc bd eb 8b f6 bd 04 82 04 3e
       -0.085225545 -0.1077025 -0.12038406 0.12940222
0000d0 63 96 2f be ff 15 fc bd 1d 7a 66 bd b9 d1 13 3d
       -0.17147212 -0.12308883 -0.0562688 0.03608868
0000e0 b9 af 81 bd d2 ea 1d be 90 33 44 3e 45 eb a4 bc
       -0.063323446 -0.15421608 0.19160295 -0.020131717
0000f0 c0 ec ce 3e 1a c3 9c be 36 38 e3 bd e9 71 47 be
       0.40415 -0.306176 -0.11094706 -0.19477047
000100 4d a7 1d be 38 06 cc bd f3 ce 8c bd 03 04 61 3e
       -0.15395851 -0.09962124 -0.0687541 0.21974187
000110 d3 bd 79 be 36 65 67 be df 64 3a be 1f f4 1c 3e
       -0.24388818 -0.22597203 -0.18202542 0.153275
000120 5d c4 2e be d5 81 b8 3e 90 dd 2c 3e 62 ec dd 3d
       -0.17067094 0.36036554 0.16881394 0.10836102
000130 a6 f8 7e 3d b6 4c 3f 3e bb 75 37 be 6b 0a d9 3c
       0.06224885 0.18681607 -0.17916004 0.026494225
000140 7d 51 12 3c 30 59 46 be 9b 33 60 be ad 8e 88 3d
       0.008930561 -0.1936996 -0.21894686 0.06667838
000150 13 46 1f 3c bd 54 a6 be 94 f5 09 be 6c 7b da bd
       0.009721297 -0.32486525 -0.13472587 -0.10668072
000160 a0 01 44 3e c8 35 04 3e ca e4 d0 3c f1 14 a2 bd
       0.19141245 0.12911141 0.02549972 -0.079141505
000170 aa 5f 10 3e 64 d3 10 3c 58 50 a7 bd 90 0d db bd
       0.14098993 0.008839462 -0.08169621 -0.10695946
000180 bc d9 83 3e 79 26 07 3e 8f e6 93 be 04 f0 06 be
       0.25752056 0.1319827 -0.2888684 -0.13177496
000190 49 e8 d1 3d 4f dc 88 3d a8 00 da bd b5 14 0a 3e
       0.10249383 0.066826455 -0.106446564 0.13484462
0001a0 86 dd 17 3d 19 76 2b 3d 60 16 94 bc 98 b7 18 be
       0.037076496 0.041860674 -0.018077075 -0.14913785
0001b0 b3 a1 60 bd e1 f6 9f be 04 a6 b3 3e 54 d9 3b be
       -0.05484171 -0.3124304 0.35087597 -0.18344623
0001c0 d5 89 91 be 68 8c 42 3c a3 d5 87 3e a7 e3 51 be
       -0.2842547 0.011874296 0.2653018 -0.20496999
0001d0 67 8c 86 be 5e 1b 32 3d 53 61 b2 bc c4 96 84 bd
       -0.26278993 0.04348313 -0.021774923 -0.06474069
0001e0 52 cb 86 be 77 1e 38 be 33 19 b0 be ac 23 75 be
       -0.26326996 -0.17980371 -0.34394225 -0.23939389
0001f0 2c 4a 23 3e 1d 22 3b 3e 9d bd e6 3c 6e 44 c6 bd
       0.15946263 0.18274732 0.028166587 -0.09681021
000200 4b f4 05 80 7b 30 04 00 1e 97 96 ac 19 24 02 00
       -5.46813e-40 3.84733e-40 -4.280034e-12 1.9662e-40
000210 0e 15 04 00 d0 22 04 80 bb e6 00 80 e3 58 8d 90
       3.74895e-40 -3.7983e-40 -8.277e-41 -5.5751645e-29
000220 dd 66 05 00 84 71 41 0b 45 ab 12 98 36 02 03 80
       4.96078e-40 3.7255848e-32 -1.8956527e-24 -2.763e-40
000230 1d b2 09 aa 05 11 00 80 85 c3 02 00 36 86 03 00
       -1.222984e-13 -6.105e-42 2.5381e-40 3.23652e-40
000240 7c 0e 04 80 23 07 04 00 1f c7 00 80 23 39 80 ae
       -3.72538e-40 3.69902e-40 -7.1431e-41 -5.8309156e-11
000250 70 29 a8 8f ff cc 02 80 91 59 80 9d 95 2b 01 17
       -1.658204e-29 -2.5721e-40 -3.3973927e-21 4.1737156e-25
000260 77 71 79 99 2b ee 00 00 94 9a 06 80 b1 64 65 9c
       -1.2895912e-23 8.5439e-41 -6.06465e-40 -7.5899885e-22
000270 6d 04 06 00 87 02 01 00 ca 4b ec ac 21 56 00 80
       5.526e-40 9.2742e-41 -6.7159377e-12 -3.0897e-41
000280 29 80 58 98 64 0f 26 9e 0a 88 8f a0 ff 1c 8a 9f
       -2.798205e-24 -8.7911495e-21 -2.4315165e-19 -5.8493243e-20
000290 c3 83 dd 9f 96 a6 72 9e 6b cd 02 89 21 bc af 9e
       -9.381512e-20 -1.28458225e-20 -1.5744768e-33 -1.8606654e-20
0002a0 26 f1 83 9e 97 b1 52 1e 0a b0 af 9f fc 9f 68 9f
       -1.3969901e-20 1.1154032e-20 -7.4406615e-20 -4.9260247e-20
0002b0 eb c7 6f a0 7b e9 cc 9f e7 cc a8 9e 6f 5d 55 9f
       -2.0310235e-19 -8.678362e-20 -1.7872438e-20 -4.518179e-20
0002c0 9b c3 82 a0 47 30 dd 9c 8f 30 57 9c da aa 87 a0
       -2.2152297e-19 -1.4637033e-21 -7.1200293e-22 -2.298295e-19
0002d0 bc 1c b9 10 82 fc 4f 9f d7 af fe 9f de 75 1c 1e
       7.3013906e-29 -4.4042825e-20 -1.0786409e-19 8.282946e-21
0002e0 5c e1 b3 9f 62 85 15 9f 60 b7 88 9f a2 bb 57 a0
       -7.6182275e-20 -3.166231e-20 -5.790161e-20 -1.8273291e-19
0002f0 3b 04 ab 98 c0 46 d7 9f dc 46 a1 a0 7c 5c 2a 19
       -4.4206736e-24 -9.117309e-20 -2.7321352e-19 8.807471e-24
000300 d6 69 3b 3e 2d 59 43 3d 84 d6 72 3d ed da f7 3d
       0.18302092 0.047692467 0.05928661 0.12102304
000310 da 29 83 3e 26 a2 20 3e e6 93 5c 3d 99 51 4f be
       0.25617868 0.15686855 0.053851984 -0.20245971
000320 97 80 a6 bd 77 13 26 bd fb f2 75 3e 2b 1c 21 3e
       -0.08129995 -0.040545907 0.24018471 0.15733401
000330 96 f8 a6 3d b5 2a 6e be a6 fd 3b bd d9 4d f8 bd
       0.08152883 -0.23258479 -0.045896195 -0.12124223
000340 c7 71 1c 3e cb 7c b1 3d f3 d6 0d 3e 46 d4 e7 bd
       0.15277778 0.086663805 0.13851528 -0.11319785
000350 59 65 56 be 6b 32 0a 3e 96 8d a3 bd 04 1d cc bd
       -0.20937099 0.13495795 -0.0798599 -0.09966472
000360 3e bd 38 3d 51 2d 99 bd 20 51 3b 3e a3 25 cd be
       0.04510235 -0.074793465 0.18292665 -0.40067777
000370 e0 95 4f be 09 86 8a be 68 00 84 be 38 41 9d be
       -0.20272017 -0.27055386 -0.2578156 -0.3071382
000380 52 93 79 bd f2 66 a8 bc 25 17 53 3d cd 65 9d 3d
       -0.06093151 -0.0205569 0.051535744 0.076854326
000390 1c 27 08 3e c0 93 2f 3e b2 92 9c 3d 60 bf 15 3e
       0.13296169 0.17146206 0.076451674 0.14623785
0003a0 b2 5f 8b bd 3a 07 80 3e f3 b5 fe 3d b6 00 51 3d
       -0.06805362 0.25005513 0.12437048 0.05102607
0003b0 ee 36 f4 3d f3 68 3b 3e 68 b2 8d 3c 2b b2 fd bb
       0.119245395 0.18301754 0.017296985 -0.0077421865
0003c0 bb e5 70 3e 9d 17 fb 3d 4f 71 0a 3c 86 a0 b8 bc
       0.23525135 0.12260363 0.008449866 -0.022537481
0003d0 56 a9 38 3d c0 16 98 3d 47 63 a0 bb 1f 2e 9f be
       0.045083366 0.07426214 -0.0048946473 -0.31089875
0003e0 35 5c bb 3d dd 00 e2 bd fd a5 8b bd 5f 42 48 3d
       0.091484465 -0.11035321 -0.06818769 0.04889142
0003f0 61 4d 25 3b 71 36 ac 3d 0d 85 af bc 0a fa c6 3d
       0.0025223123 0.084088214 -0.021425748 0.0971566

convN2.self_map.bias f4 [32]
000000 81 8f 6a 3d ec 5b c4 bc 98 6d ed 3a 16 2e 26 bd
       0.057265762 -0.023969613 0.0018114327 -0.040571295
000010 04 69 00 00 b9 4f ab 1c 04 b0 4d 3c 6b 45 8d 3d
       3.7673e-41 1.1336439e-21 0.012554172 0.06898006
000020 7a 86 76 ba 31 95 0a bc 25 c9 95 3b 42 fb 03 80
       -0.0009404194 -0.008458422 0.0045710974 -3.65641e-40
000030 d9 99 1c bc ce ac 33 3d d3 13 24 3c 14 70 e8 ac
       -0.0095581645 0.04386597 0.010014492 -6.6062798e-12
000040 9e ce bc 3c 64 75 31 bb 89 40 65 bd af 2e ee bb
       0.023047742 -0.0027078027 -0.05596975 -0.0072687487
000050 9f 90 f3 bc b2 a7 9a 3e 06 bb 0d 3d d2 11 17 3d
       -0.029732047 0.30206066 0.034602188 0.03688223
000060 03 40 04 bd f8 79 e5 bc fe b5 7c 3d 52 9d 50 a4
       -0.03228761 -0.02801226 0.061697 -4.5236066e-17
000070 a9 d6 65 bb e0 43 38 3d f1 75 42 bc 27 fd 5b 39
       -0.0035070574 0.044986606 -0.01186894 0.00020979774

convN2.pass_map.weight f4 [32, 32]
000000 5c aa 4b bd c1 7c 5d be 74 2a 99 be 32 9b dc 3a
       -0.049723014 -0.21629621 -0.29915202 0.001683092
000010 69 23 3a 3e 1f 8b 19 bc ca a2 c0 be 9d e0 fa be
       0.1817757 -0.009371548 -0.37624198 -0.4899949
000020 73 39 99 be dd 29 da be ea d7 7e 3f 1f 8e a7 3e
       -0.29926643 -0.42610064 0.9954821 0.32725617
000030 bc 95 a8 3f 13 88 87 bf 93 89 b3 bf e9 76 48 3f
       1.3170695 -1.0588402 -1.4026359 0.7830644
000040 c6 a4 1e be 07 dc c0 bb e5 51 66 be 56 d8 ed bd
       -0.15492544 -0.0058856043 -0.22492178 -0.116135284
000050 fe 5a db be b7 4c db be 69 1f 2d bf 50 7d bb be
       -0.4284286 -0.42831966 -0.67626053 -0.36619043
000060 3d 4d eb bd 9b 02 0f bf 41 61 af bd 8c 69 71 3f
       -0.114893414 -0.5586335 -0.085634716 0.94301677
000070 7e 0b 9d bd 12 f2 b4 bd cb 0f 37 3e 8e a9 ed bc
       -0.076682076 -0.08835234 0.17877118 -0.029011514
000080 2c 8b ba be 4e e7 f3 be b4 df 85 3e 84 50 1b bc
       -0.36434305 -0.4763741 0.26147234 -0.009479646
000090 6a ea 86 bc b8 be 6e be 69 4f bc bd ec 64 ae be
       -0.0164692 -0.23314941 -0.09194834 -0.34061372
0000a0 3c c9 9d be 85 80 91 be 48 77 2c 3e 2a ee e4 bd
       -0.30817592 -0.28418365 0.16842377 -0.11178239
0000b0 9f 32 36 3e ca 2b 6b be ba 05 17 be d8 7c f5 be
       0.17792748 -0.22965923 -0.14748278 -0.4794681
0000c0 e5 f5 b2 be 74 eb fa bd ea 74 3c 3d 67 08 88 bd
       -0.34953228 -0.1225194 0.046009935 -0.066422276
0000d0 d4 ca 7d 3f aa 3b f2 bd d1 92 aa bc d1 cb fc 3e
       0.99137616 -0.11827786 -0.02082196 0.4937425
0000e0 ff 28 2c 3c d7 df a5 be 67 50 50 bd 45 b8 26 3d
       0.010507821 -0.3239734 -0.050857928 0.040703077
0000f0 46 68 0e 3e 48 a4 58 3d 71 cd 13 bd f6 1c c8 3d
       0.13906965 0.052891046 -0.036084596 0.09771149
000100 41 d3 a7 bc 7e 42 24 be 47 df 7c 3e 99 57 0e 3d
       -0.020486476 -0.1604099 0.24694549 0.03475151
000110 6a 5b 19 be c7 33 a7 bd 62 47 85 3e 10 2e b3 3e
       -0.14976278 -0.081641726 0.26031023 0.3499608
000120 04 de 75 be ad 21 0f 3e b5 4c 0d 3f 36 61 df 3e
       -0.24010473 0.1397769 0.5519517 0.43628854
000130 c6 85 fd bd 0d 27 89 be 6f 44 85 be 00 e1 19 3f
       -0.12379031 -0.26787606 -0.26028773 0.6010895
000140 e1 ab c0 be 7a ce ae be 50 e8 fb 3c 9f 7d f3 be
       -0.37631133 -0.34141904 0.030750424 -0.4755678
000150 26 2b 8c be d4 c4 be be e7 e1 04 bf f2 a8 3c bd
       -0.2737667 -0.37259543 -0.519072 -0.046059556
000160 77 97 87 be 7d 57 03 3e 8f ee 14 3d 04 4f 98 3c
       -0.26482746 0.12826343 0.03636032 0.018592365
000170 d4 ee 5a be bf 80 2b 3c ef 8e b7 3e 45 29 4e bc
       -0.21380168 0.010467707 0.35851237 -0.012583082
000180 77 c7 78 be a2 a1 bd 3d d8 0f ae 3e e2 05 fc 3e
       -0.2429484 0.09259345 0.33996463 0.49223238
000190 ef 80 3c 3c f6 a8 d4 3b 3a 29 d0 3d 5a d8 6d 3e
       0.01150535 0.0064898683 0.10164113 0.23227063
0001a0 9a 87 ac be 17 d3 6f bd 90 a3 38 bd f3 f5 06 be
       -0.33697206 -0.05855092 -0.04507786 -0.1317976
0001b0 b2 87 a9 3d 3b 64 40 bc 5c 20 11 be 4a d4 8c 3e
       0.08277835 -0.011742647 -0.141725 0.27505714
0001c0 4a 2e b3 b9 a4 aa d9 3d 12 0b b8 3d 88 e3 98 be
       -0.0003417603 0.1062825 0.089864865 -0.29861093
0001d0 7a 28 16 3d 88 41 68 be d2 67 d1 be 9f 5b bf 3e
       0.036659695 -0.22681248 -0.4089952 0.3737459
0001e0 4d 10 58 bd d0 21 30 3f 5e 4c e3 3e ea 00 bf be
       -0.05274992 0.68801594 0.443942 -0.37305385
0001f0 12 e6 76 be 73 84 77 bd 12 45 40 3d 4a 85 9b 3e
       -0.24111202 -0.060429048 0.04694087 0.3037513
000200 c9 89 01 80 44 84 04 80 80 14 03 80 58 05 02 00
       -1.41263e-40 -4.1479e-40 -2.8286e-40 1.85588e-40
000210 1c 90 9b b3 71 51 97 95 b4 cc 05 80 c9 2a 01 80
       -7.243963e-08 -6.1116906e-26 -5.32611e-40 -1.07184e-40
000220 de 43 08 00 80 3c 01 80 a2 1f 03 00 fd 31 09 00
       7.5903e-40 -1.13539e-40 2.86854e-40 8.44452e-40
000230 1c 5d 05 80 bd c7 06 00 f7 78 03 80 d7 f5 07 80
       -4.92579e-40 6.22666e-40 -3.189e-40 -7.31039e-40
000240 1a 3a 03 80 95 aa 50 93 33 39 06 00 26 05 02 00
       -2.9635e-40 -2.6337394e-27 5.71532e-40 1.85518e-40
000250 79 53 06 80 7f e0 03 80 e8 42 27 8b 38 90 07 80
       -5.80957e-40 -3.5604e-40 -3.2213365e-32 -6.94584e-40
000260 95 5a 17 80 6c 9e 03 00 b2 29 b7 a2 c8 fc 07 80
       -2.144711e-39 3.32338e-40 -4.9646396e-18 -7.33529e-40
000270 6a 14 8a a2 d0 be 02 80 2e 73 00 80 9f fa 09 00
       -3.742659e-18 -2.52122e-40 -4.1319e-41 9.16425e-40
000280 08 9b 00 1c 00 34 42 9f 9d 73 19 9b 64 47 34 9f
       4.255202e-22 -4.112411e-20 -1.269322e-22 -3.8175536e-20
000290 dc f3 6a a0 72 4f 17 20 0b 41 43 96 87 87 0c 17
       -1.9901257e-19 1.2816484e-19 -1.5772498e-25 4.54075e-25
0002a0 d2 00 c5 9f 38 aa 27 99 b0 a2 d5 0d d5 7c e0 8e
       -8.34341e-20 -8.668073e-24 1.3166304e-30 -5.5340472e-30
0002b0 19 31 fd 92 bb 52 c7 99 b9 02 43 90 e0 f7 0e 9e
       -1.5978648e-27 -2.0609532e-23 -3.8459067e-29 -7.568677e-21
0002c0 a8 d5 6c 8e 28 ce 97 9f 75 3e dd 1a ef ec 24 9e
       -2.9192118e-30 -6.4292044e-20 9.150436e-23 -8.7310844e-21
0002d0 7e e5 95 9e b6 6b e4 98 df 47 78 9f e8 dd cf 9f
       -1.5870904e-20 -5.904538e-24 -5.2575493e-20 -8.803502e-20
0002e0 77 5b 7e 1e 76 e0 45 13 0d 29 5e a0 97 65 2e 93
       1.34655625e-20 2.4975564e-27 -1.8817714e-19 -2.2011975e-27
0002f0 f6 a0 f7 a9 82 d0 c2 9f b1 2a 0e 9f 15 a5 1c 18
       -1.0996926e-13 -8.250714e-20 -3.0104983e-20 2.0245873e-24
000300 ea 95 ff 3e 26 ba c9 bd e8 71 6e 3e 36 24 86 be
       0.49919063 -0.09849958 0.2328564 -0.26199502
000310 0e a9 f3 be 82 6e 77 bc 6a bb a6 bd e8 99 d6 3e
       -0.47589916 -0.015102031 -0.08141215 0.41914296
000320 4d d7 b7 be 0a b4 08 3f 74 59 1c bd 13 54 6a 3d
       -0.3590645 0.5339972 -0.038171247 0.057209086
000330 3d bc 2b 3e d4 f4 47 be 5a 41 37 be 58 91 73 3e
       0.16771026 -0.19526988 -0.17896023 0.23785913
000340 ed d1 6c bc 2b cd 67 be 21 01 76 3d f7 88 28 3e
       -0.014454347 -0.22636859 0.06005967 0.16458498
000350 7b ef ad be 74 9a 39 3e 05 02 c2 be d1 79 cb 3d
       -0.33971772 0.18125325 -0.37892166 0.09935344
000360 64 f6 7a 3e e7 b4 8a 3e fa ec a0 be 1d 9b 00 3f
       0.24508053 0.27091143 -0.314308 0.50236684
000370 e3 91 54 be 62 12 fe 3e 5f b3 7e 3e 8f 68 1c bd
       -0.20758776 0.496234 0.24873112 -0.038185652
000380 0f 5e 04 3f fb fb 19 be f6 f8 56 3f 72 f1 36 bd
       0.5170602 -0.15037529 0.83973634 -0.044663854
000390 bb 01 08 bf 4a 0e bc be 9c df 44 3f 1e ac d5 be
       -0.5312764 -0.36729652 0.769037 -0.41732877
0003a0 34 24 bf 3d 84 60 d9 3e ff f3 c1 be 66 09 14 3f
       0.09333077 0.42456448 -0.37881467 0.5782684
0003b0 2d af 1a 3f a5 bc 08 bf a7 f9 e9 3d 01 df 79 bc
       0.6042355 -0.5341285 0.114245705 -0.015250922
0003c0 c9 71 84 3f 91 db 25 3e 21 3a 88 bf 56 00 d4 be
       1.0347224 0.16197039 -1.064274 -0.41406506
0003d0 55 0b 58 3f 17 7e d8 be 8a b9 7a bf de 61 ab bd
       0.8439229 -0.422837 -0.9793936 -0.08368276
0003e0 30 52 9d 3d 3d 1e 92 bf 9b 4e 38 3b 1e e5 15 3d
       0.07681692 -1.1415478 0.0028123024 0.036595456
0003f0 26 47 b4 be ff a5 8b be 4f 76 d6 bd de 96 69 be
       -0.35210532 -0.27275082 -0.10471784 -0.22811458

convN2.pass_map.bias f4 [32]
000000 9a b3 69 3d 1f fa c4 bc 14 70 16 3b c5 fe 25 bd
       0.057056047 -0.024045048 0.0022954987 -0.04052617
000010 b7 de 00 00 49 de aa 1c ef 15 4e 3c 6b a0 8f 3d
       7.9895e-41 1.1307116e-21 0.012578472 0.07013019
000020 9c 22 72 ba a0 e6 0d bc a1 f8 9d 3b be 1e 03 00
       -0.00092367246 -0.008660942 0.0048208986 2.86535e-40
000030 d7 a6 1b bc b0 27 39 3d d8 d3 2b 3c 5b b0 67 ac
       -0.009500227 0.045203865 0.010487519 -3.2924971e-12
000040 08 a3 bd 3c 36 64 23 bb e1 d1 66 bd 25 c3 e2 bb
       0.023149028 -0.0024931557 -0.0563525 -0.0069202357
000050 6d f5 f2 bc b3 5e 9a 3e 66 4c 0d 3d 5c c0 18 3d
       -0.029658044 0.30150375 0.034496687 0.037292823
000060 0b 89 05 bd b4 68 e4 bc 5c 3e 7b 3d 73 cb d0 a3
       -0.032601397 -0.027881958 0.061338767 -2.263757e-17
000070 f0 a9 58 bb 96 c9 3a 3d 14 00 41 bc 9e 43 c2 b9
       -0.0033060275 0.045602404 -0.011779804 -0.00037052942
