train_script/weights/GCNEdgeBased_model300_Aug_24/275.pth (torch, 122213 bytes, 51 tensors)

convN1.self_map.weight f4 [32, 13]
4.22365e-40 1.337881e-39 -1.037835e-39 1.423882e-39 -3.5095e-40 -1.070721e-39 9.50372e-40 9.50393e-40
1.308013e-39 -1.590369e-39 -1.120553e-39 7.93481e-40 1.178422e-39 2.45154e-40 6.00197e-40 1.969248e-39
7.82053e-40 6.31834e-40 8.65747e-40 9.1003e-41 5.56234e-40 1.148567e-39 8.43482e-40 -1.80762e-40
-1.952013e-39 1.145892e-39 -6.07225e-40 5.70809e-40 4.00865e-40 -1.330412e-39 -1.031084e-39 9.47502e-40
4.8397e-41 -8.34301e-40 -4.39514e-40 -1.373225e-39 -7.36915e-40 4.35137e-40 4.2727e-40 -8.07043e-40
-3.82536e-40 -7.39458e-40 -1.6277e-40 -5.9621e-40 -5.91562e-40 -2.89842e-40 1.04754e-39 1.27933e-40
-1.780745e-39 -5.30009e-40 -1.545561e-39 -4.77832e-40 1.098256e-39 9.46256e-40 1.187755e-39 1.881895e-39
9.52904e-40 -2.62759e-40 9.55646e-40 5.55322e-40 9.13725e-40 -5.15667e-40 -4.35498e-40 8.12764e-40
1.28915e-40 -1.350235e-39 1.525888e-39 1.254484e-39 7.8146e-40 -2.88644e-40 -1.400138e-39 -8.6428e-40
7.30521e-40 -1.263317e-39 -1.185329e-39 1.373225e-39 1.221782e-39 3.75059e-40 -1.326754e-39 -6.40068e-40
5.90636e-40 1.294929e-39 -1.919291e-39 1.16699e-39 1.822874e-39 1.42824e-39 -1.742939e-39 -1.896547e-39
6.84482e-40 1.203713e-39 8.67128e-40 9.46412e-40 -7.56413e-40 -1.37609e-40 -1.989743e-39 1.36678e-40
-3.96698e-40 8.23682e-40 8.228e-40 -1.654059e-39 1.192393e-39 -8.23004e-40 1.208788e-39 4.30407e-40
1.072763e-39 9.8513e-40 3.55299e-40 9.53344e-40 -1.085634e-39 -1.042392e-39 -4.2449e-40 1.145926e-39
-2.13704e-40 -9.43098e-40 1.647664e-39 1.602009e-39 -1.895983e-39 3.76267e-40 2.024949e-39 2.6829e-40
-1.38527e-40 1.877827e-39 -1.224176e-39 -9.95453e-40 1.031856e-39 -1.156933e-39 2.86924e-40 -8.59775e-40
-1.405428e-39 4.64341e-40 -1.48914e-39 -1.455047e-39 -2.01089e-40 7.57051e-40 -3.14767e-40 9.35577e-40
9.35786e-40 1.003868e-39 -1.175576e-39 -1.19069e-39 1.181509e-39 -1.193867e-39 -1.992998e-39 2.55905e-40
1.108989e-39 -1.040056e-39 2.1577e-40 -1.101018e-39 2.46092e-40 1.66146e-40 -6.77835e-40 -1.320801e-39
-1.465887e-39 5.85468e-40 -9.03414e-40 8.49995e-40 7.9445e-40 1.5079e-40 1.510105e-39 -8.77354e-40
-1.458669e-39 1.75846e-40 -1.524499e-39 -6.1783e-41 1.253628e-39 1.27357e-40 1.174096e-39 5.67131e-40
1.491e-41 -1.587425e-39 1.319231e-39 9.39482e-40 -1.361762e-39 1.601276e-39 -6.8036e-40 1.719936e-39
9.9068e-41 -1.035732e-39 -3.06125e-40 1.261513e-39 -1.009329e-39 -1.16872e-40 -3.27163e-40 1.040816e-39
1.993093e-39 -4.46536e-40 1.332416e-39 -8.07093e-40 9.2993e-41 -1.526985e-39 -2.47999e-40 1.041502e-39
8.4753e-41 -1.17715e-39 -3.8802e-41 -1.33067e-40 -1.731475e-39 -1.51355e-39 1.398664e-39 -4.92346e-40
7.54915e-40 -8.68776e-40 -1.47398e-39 -1.12299e-39 1.48915e-40 -6.11941e-40 -1.171162e-39 5.37752e-40
6.2446e-41 1.72592e-39 1.353416e-39 -2.54776e-40 1.18853e-39 6.36719e-40 3.95666e-40 1.228768e-39
1.386201e-39 -4.02002e-40 -7.86427e-40 -7.9556e-40 5.86009e-40 -6.92278e-40 -3.53424e-40 -4.61428e-40
-3.91422e-40 1.745778e-39 3.09597e-40 -1.336564e-39 -1.557421e-39 -1.134197e-39 1.042821e-39 -1.570735e-39
1.139181e-39 -1.079859e-39 1.328125e-39 4.72622e-40 -9.65168e-40 9.44203e-40 -7.504e-42 -1.202233e-39
-1.260207e-39 -4.56863e-40 1.137442e-39 -4.85411e-40 4.51647e-40 1.194841e-39 -1.462845e-39 -9.0693e-41
9.30936e-40 -6.95083e-40 -7.92636e-40 -9.76215e-40 -4.43993e-40 -1.346672e-39 -1.242587e-39 3.23966e-40
00000000: 6299 0400 7891 0e00 104d 0b80 3481 0f00
00000010: 4ed2 0380 bca8 0b80 4059 0a00 4f59 0a00
00000020: 353e 0e00 4d51 1180 a533 0c80 e7a3 0800
00000030: f6d4 0c00 64ab 0200 1b89 0600 7671 1500
00000040: 0c84 0800 4ce1 0600 5a6d 0900 aefd 0000
00000050: 8e0e 0600 bd81 0c00 492f 0900 e4f7 0180
00000060: 6b41 1580 487a 0c00 b29c 0680 2f37 0600
00000070: 735d 0400 a67c 0e80 3e3a 0b80 4051 0a00
00000080: e986 0000 b115 0980 30c9 0480 fef3 0e80
00000090: 3806 0880 fcbc 0400 0ea7 0400 b5c9 0880
000000a0: 5b2a 0480 4f0d 0880 bdc5 0180 fe7d 0680
000000b0: 0971 0680 f627 0380 1e68 0b00 a064 0100
000000c0: fe63 1380 73c5 0580 65d4 1080 0034 0580
000000d0: 7ef5 0b00 c74d 0a00 faee 0c00 f57d 1400
000000e0: 4f60 0a00 77dc 0280 f467 0a00 030c 0600
000000f0: 18f3 0900 789d 0580 febd 0480 a8d9 0800
00000100: 5d67 0100 e8b3 0e80 8e9d 1000 fea8 0d00
00000110: 6482 0800 9f24 0380 043f 0f80 4369 0980
00000120: 65f4 0700 9dc1 0d80 37e8 0c80 fef3 0e00
00000130: d54d 0d00 8315 0400 7372 0e80 40f8 0680
00000140: 746e 0600 bc19 0e00 34e6 1480 18b5 0c00
00000150: 6ed9 1300 5a8d 0f00 9bfa 1280 cda6 1480
00000160: 0f74 0700 761b 0d00 3371 0900 364e 0a00
00000170: 923c 0880 997f 0180 98aa 1580 017d 0100
00000180: d551 0480 17f8 0800 a2f5 0800 d802 1280
00000190: e8fb 0c00 33f6 0880 9c29 0d00 cdaf 0400
000001a0: 6dae 0b00 24ba 0a00 6ede 0300 8961 0a00
000001b0: 4ed2 0b80 c459 0b80 4e9f 0480 607a 0c00
000001c0: b853 0280 f944 0a80 04f1 1100 c071 1100
000001d0: 3ba5 1480 e118 0400 bc0c 1600 e2eb 0200
000001e0: 2882 0180 9e72 1400 8154 0d80 ebd6 0a80
000001f0: 653c 0b00 0f99 0c80 d41f 0300 b45c 0980
00000200: c34d 0f80 650e 0500 1e37 1080 14d8 0f80
00000210: 8e30 0280 5a3e 0800 716d 0380 0230 0a00
00000220: 9730 0a00 60ee 0a00 07cd 0c80 29f7 0c80
00000230: 91dd 0c00 0400 0d80 abb3 1580 5cc9 0200
00000240: 6913 0c00 4153 0b80 7b59 0200 31fd 0b80
00000250: 01ae 0200 26cf 0100 8761 0780 db61 0e80
00000260: 4cf6 0f80 0c60 0600 5ad6 0980 7141 0900
00000270: 9aa6 0800 57a4 0100 8f71 1000 b58d 0980
00000280: 2de2 0f80 30ea 0100 af99 1080 3aac 0080
00000290: 9ba6 0d00 0563 0100 e7c8 0c00 ee2c 0600
000002a0: 9029 0000 1849 1180 7b5d 0e00 e53a 0a00
000002b0: 0ad4 0e80 b56f 1100 9168 0780 7bba 1200
000002c0: 2914 0100 3347 0b80 5a55 0380 96bc 0d00
000002d0: 99fd 0a80 cb45 0180 ff8f 0380 5f55 0b00
000002e0: efb3 1500 c3dc 0480 3c82 0e00 d9c9 0880
000002f0: 3a03 0100 9da0 1080 52b3 0280 4957 0b00
00000300: 42ec 0000 6ad1 0c80 2a6c 0080 f072 0180
00000310: a6da 1280 297b 1080 e83a 0f00 765c 0580
00000320: 6538 0800 cb75 0980 db0c 1080 703a 0c80
00000330: 1d9f 0100 d8a9 0680 b9c0 0c80 09db 0500
00000340: 13ae 0000 2acb 1200 c6bc 0e00 36c6 0280
00000350: 23f1 0c00 eaee 0600 f54e 0400 4e61 0d00
00000360: 2a18 0f00 9e60 0480 3d90 0880 b3a9 0880
00000370: 8e61 0600 ca89 0780 34d9 0380 4606 0580
00000380: 2043 0480 8502 1300 085f 0300 cc8d 0e80
00000390: 75f5 1080 ae59 0c80 f65a 0b00 921a 1180
000003a0: 9367 0c00 35c2 0b80 4676 0e00 7a25 0500
000003b0: 7f82 0a80 0e48 0a00 eb14 0080 5617 0d80
000003c0: f2b8 0d80 8cf9 0480 ba62 0c00 2149 0580
000003d0: 02eb 0400 bb02 0d00 d1ed 0f80 d1fc 0080
000003e0: 1223 0a00 9c91 0780 8ca1 0880 4aa1 0a80
000003f0: acd5 0480 f9a9 0e80 d487 0d80 1687 0300

convN1.self_map.bias f4 [32]
-0.04713463 -0.09027462 -0.09964536 -0.13257281 -0.1309535 -0.12661651 -0.17423202 -0.07871748
-0.075415164 -0.027953431 -0.15750143 -0.062720865 -0.057437867 -0.107759565 -0.0852727 -0.112960406
-0.10271714 -0.09826584 -0.07202668 -0.10449357 -0.045622066 -0.13781059 -0.095452145 -0.08932779
-0.03451005 -0.019125745 -0.10177074 -0.084350035 -0.047868993 -0.07752142 -0.11326998 -0.036178946
00000000: 3e10 41bd e6e1 b8bd de12 ccbd 2bc1 07be
00000010: ad18 06be c2a7 01be e169 32be a136 a1bd
00000020: 4473 9abd 98fe e4bc 0e48 21be cc73 80bd
00000030: f843 6bbd 0cb1 dcbd 74a3 aebd c957 e7bd
00000040: 5d5d d2bd 9a3f c9bd b982 93bd ba00 d6bd
00000050: 34de 3abd 381e 0dbe 6a7c c3bd 7df1 b6bd
00000060: 695a 0dbd 98ad 9cbc 2d6d d0bd b6bf acbd
00000070: 4712 44bd 8dc3 9ebd 17fa e7bd 6030 14bd

convN1.pass_map.weight f4 [32, 13]
0.06456394 -0.29296356 0.025644679 -0.025863744 -0.15199092 -0.036558118 0.11963056 -0.088649176
-0.2644297 -0.07954647 0.05892585 -0.0071369126 0.08218398 0.021327486 -0.0035533325 -0.024852512
-0.004756368 0.0009024419 0.002876541 0.01035345 -0.0022078475 0.0025283142 0.006372067 0.0024550115
-0.005323368 0.0051996 -0.090115555 0.50129664 0.06272884 -0.22858925 -0.22255091 -0.06802438
0.07277284 0.0030555944 0.03757196 -0.027717693 -0.017856404 -0.023343924 -0.055705976 0.14810927
0.10718708 -0.7152474 -0.07714422 -0.5160208 -0.20962352 -0.021942144 -0.008310593 -0.03837715
0.011958954 -0.023753315 0.021787662 -0.006587532 0.41393587 -0.099122 -0.11951275 -0.07088321
-0.55133134 -0.13876057 -0.11524098 0.07274532 0.011582428 0.07483222 0.059771497 -0.123641
-0.21607858 -0.14823174 0.070169926 0.340869 0.19484466 0.5162003 0.07046863 0.0068688937
-0.16041957 -0.033166643 0.056499418 -0.17469618 -0.023711136 0.028759798 -0.1651414 -0.4396234
-0.39704925 0.13858719 0.8246775 0.11999855 0.048893124 -0.009362723 -0.049879827 -0.045414027
-0.03781638 0.011209367 -0.5938797 -0.01862708 0.14943676 -0.033060588 -0.390505 0.38488862
0.026076082 -0.015447701 -0.19417772 -0.006826173 -0.22108321 -0.0031235872 0.025682544 -0.30461437
-0.1976897 0.11432043 0.10295217 -0.3233423 0.6230054 0.03359363 0.02915572 -0.033068582
-0.07546093 0.035809934 0.07186681 0.023428423 -0.33546573 0.07872059 -0.10888936 0.031978592
-0.10890244 0.019369151 -0.0095172115 -0.0030854044 0.012759852 0.39289254 -0.08100473 0.009668172
-0.005495349 0.15304334 -0.31164664 0.3429489 0.20590448 -0.014265618 1.1064893 -0.0060291924
0.010873695 0.0015286166 0.027951429 0.0163887 -0.026111888 0.03365515 0.5228909 -0.17743404
0.22974613 0.4069739 0.12233651 0.3236154 0.026969593 0.054386646 0.20079489 0.04285513
-0.022268739 0.10246655 0.041209273 0.104882985 0.7900115 -0.098509766 -0.024840625 -0.080984056
0.12874481 0.06680672 -0.013480791 -0.042510167 -0.04977391 -0.047615577 0.019707548 -0.02301564
-0.10808315 0.040663622 -0.05917259 -0.08972522 -0.1295206 0.12761153 0.034617133 0.07082696
0.24350682 -0.02018627 -0.038563058 -0.121092156 0.0003166007 0.022805192 -0.10673995 0.0031639151
-0.06483995 -0.17352305 0.44998038 0.063290864 -0.04548168 0.0077928104 0.011937291 -0.0014640715
0.053972367 -0.023524437 0.22091348 -0.07762679 0.061322164 0.07177941 0.42333564 0.06490109
0.027846854 -0.0031071675 -0.054740407 -0.013382798 0.029592002 0.00558249 -0.030215135 0.19219398
0.01547018 0.18294291 0.24998513 -0.0519013 -0.21533577 -0.050399333 -0.16338159 0.001837994
-0.1907974 -0.01888157 -0.0032036174 0.0017435297 -0.11480465 0.365256 -0.4747427 -0.61104184
-0.1696195 0.57316476 0.107874736 -0.101324745 0.05356696 0.004139001 -0.0072182138 0.022543678
0.023482658 0.11642655 -0.5152651 0.046085767 0.32836163 0.29449752 0.47356015 0.27978042
-0.020571511 0.024673622 0.06596909 -0.006251319 -0.020568449 0.0345771 0.03258786 -0.17453973
0.6984388 0.3433898 0.22799423 0.347834 -0.19514506 -0.0025910372 -0.008110757 -0.011997856
00000000: 193a 843d 52ff 95be ca14 d23c 34e0 d3bc
00000010: 82a3 1bbe f7bd 15bd de00 f53d b38d b5bd
00000020: 5463 87be 42e9 a2bd 3b5c 713d c3dc e9bb
00000030: 1350 a83d fbb6 ae3c 07df 68bb 7f97 cbbc
00000040: 4fdb 9bbb da91 6c3a 5a84 3c3b 84a1 293c
00000050: 89b1 10bb 13b2 253b c6cc d03b 42e4 203b
00000060: a66f aebb 6861 aa3b 818e b8bd fa54 003f
00000070: fa77 803d 4d13 6abe 63e4 63be 5e50 8bbd
00000080: ed09 953d 5e40 483b 0ee5 193d 3710 e3bc
00000090: 9847 92bc c23b bfbc f32b 64bd f5a9 173e
000000a0: e684 db3d 741a 37bf cafd 9dbd f019 04bf
000000b0: 8ca7 56be 03c0 b3bc 2729 08bc 5c31 1dbd
000000c0: 7def 433c 5096 c2bc 0a7c b23c 39dc d7bb
000000d0: 67ef d33e 7a00 cbbd 1ac3 f4bd 372b 91bd
000000e0: 0d24 0dbf 4017 0ebe 7703 ecbd 80fb 943d
000000f0: 39c4 3d3c a341 993d f5d2 743d 7e37 fdbd
00000100: b443 5dbe 10ca 17be 40b5 8f3d 6286 ae3e
00000110: 5c85 473e b425 043f db51 903d 7514 e13b
00000120: 0745 24be bfd9 07bd ef6b 673d 8ee3 32be
00000130: db3d c2bc ab99 eb3c d41a 29be 5116 e1be
00000140: 0a4a cbbe cde9 0d3e 111e 533f cdc1 f53d
00000150: 2844 483d 1b66 19bc ca4e 4cbd 0f04 3abd
00000160: 59e5 1abd 7ea7 373c 8008 18bf d197 98bc
00000170: f305 193e 8a6a 07bd 45f0 c7be 1f10 c53e
00000180: 829d d53c 5b18 7dbc 86d6 46be 17ae dfbb
00000190: a363 62be 19b5 4cbb 3364 d23c 6af6 9bbe
000001a0: 2b6f 4abe d420 ea3d 96d8 d23d 1f8d a5be
000001b0: 487d 1f3f 7999 093d fad7 ee3c ec72 07bd
000001c0: 438b 9abd 70ad 123d e82e 933d f7ec bf3c
000001d0: 2ac2 abbe 4338 a13d 6301 dfbd fcfb 023d
000001e0: 3e08 dfbd 0eac 9e3c 14ee 1bbc 7f34 4abb
000001f0: b30e 513c 3629 c93e cfe5 a5bd 4167 1e3c
00000200: 5412 b4bb 65b7 1c3e 2690 9fbe 0097 af3e
00000210: a0d8 523e 57ba 69bc 71a1 8d3f 8890 c5bb
00000220: 9527 323c dd5b c83a 65fa e43c 9841 863c
00000230: 99e8 d5bc fcd9 093d 2edc 053f 45b1 35be
00000240: 9242 6b3e e25e d03e 908b fa3d ebb0 a53e
00000250: 56ef dc3c 88c4 5e3d 2d9d 4d3e dc88 2f3d
00000260: ee6c b6bc fcd9 d13d 0ecb 283d e4cc d63d
00000270: 323e 4a3f 7dbf c9bd 917e cbbc f8da a5bd
00000280: aed5 033e f6d1 883d 89de 5cbc 241f 2ebd
00000290: badf 4bbd 8d08 43bd b971 a13c 4c8b bcbc
000002a0: b35a ddbd e68e 263d f55e 72bd dbc1 b7bd
000002b0: 0ca1 04be 99ac 023e b2ca 0d3d ba0d 913d
000002c0: da59 793e ad5d a5bc 4cf4 1dbd 2aff f7bd
000002d0: 6dfd a539 f4d1 ba3c 7a9a dabd b059 4f3b
000002e0: cfca 84bd 07b0 31be d463 e63e a49e 813d
000002f0: 004b 3abd d55a ff3b a194 433c 16e6 bfba
00000300: 2112 5d3d 52b6 c0bc 2537 623e cbfa 9ebd
00000310: f32c 7b3d 1501 933d 73bf d83e ddea 843d
00000320: 161f e43c 9fa1 4bbb 7a37 60bd 8643 5bbc
00000330: ed6a f23c 52ed b63b bb85 f7bc 80ce 443e
00000340: a376 7d3c 6355 3b3e 1afc 7f3e 7596 54bd
00000350: fb80 5cbe 886f 4ebd 814d 27be d8e8 f03a
00000360: 6560 43be 86ad 9abc c8f3 51bb 2687 e43a
00000370: b31e ebbd d602 bb3e 7a11 f3be 3d6d 1cbf
00000380: bcb0 2dbe edba 123f 6eed dc3d 5983 cfbd
00000390: 0769 5b3d 75a0 873b c486 ecbb 85ad b83c
000003a0: b45e c03c 0b71 ee3d 6ae8 03bf 6ec4 3c3d
000003b0: 041f a83e 61c8 963e 7a76 f23e 613f 8f3e
000003c0: 9685 a8bc 5620 ca3c cd1a 873d ddd7 ccbb
000003d0: 2a7f a8bc b8a0 0d3d d97a 053d 8bba 32be
000003e0: e3cc 323f cad0 af3e 5277 693e 4c17 b23e
000003f0: 1bd4 47be 64ce 29bb fbe2 04bc a892 44bc

convN1.pass_map.bias f4 [32]
-0.04710828 -0.08993499 -0.09915093 -0.13211687 -0.13053118 -0.12643932 -0.17369267 -0.078573555
-0.075037345 -0.027933206 -0.15732187 -0.062343277 -0.057299532 -0.107265785 -0.0848255 -0.11265894
-0.102527976 -0.09823782 -0.07191481 -0.10424538 -0.046215415 -0.13768482 -0.09490266 -0.089297965
-0.034317054 -0.01899444 -0.10142388 -0.084193505 -0.04766958 -0.07709807 -0.11311571 -0.03624967
00000000: 9df4 40bd d62f b8bd a50f cbbd a549 07be
00000010: f7a9 05be 4f79 01be 7edc 31be 2ceb a0bd
00000020: 2ead 99bd 2ed4 e4bc fc18 21be aa5b 7fbd
00000030: eab2 6abd 2aae dbbd feb8 adbd bbb9 e6bd
00000040: 30fa d1bd e930 c9bd 1248 93bd 9a7e d5bd
00000050: 604c 3dbd 40fd 0cbe 535c c2bd dae1 b6bd
00000060: 0a90 0cbd 3a9a 9bbc 53b7 cfbd a56d acbd
00000070: 2d41 43bd 98e5 9dbd 36a9 e7bd 897a 14bd

convE1.self_map.weight f4 [32, 13]
-0.02760696 0.35487726 -0.00069728843 -0.43870857 -0.12209442 -0.10076894 0.0006270544 0.053459786
0.0089873355 -0.0071286676 0.26554546 0.021833044 -0.082067594 0.071942866 -0.017867886 -0.3748773
0.07656939 0.04568812 -0.0041339938 0.0033439156 0.032075927 -0.03979935 -0.024446191 -0.010234504
-0.019839117 0.08451478 -0.114983454 0.25389138 0.08042455 0.36647427 0.03689532 -0.093913674
0.027619699 -0.029214976 -0.022407364 -0.015683645 -0.20737074 0.051248755 0.8200278 0.06859962
-0.09051206 0.13362578 0.10220196 0.136545 -0.0390093 -0.23197825 0.051297233 0.042234518
0.0047077565 0.022845278 0.0013806461 -0.058547653 1.2346919 0.05069616 0.0035087212 0.07803834
0.014739152 0.032282744 0.04126564 0.00607594 -0.039614398 0.0066770306 -0.007220278 0.0084899245
-0.021889834 0.18406488 0.36412945 -0.07718106 0.072680265 -0.008244736 -0.03419616 0.05858762
0.00017880212 -0.0003752672 -0.03632467 -0.048791345 0.052964084 0.20222415 0.40682423 0.12365376
-0.27692258 -0.30162936 -0.4047202 -0.07712082 0.061280295 -0.20415084 0.028697496 0.044641208
0.15328424 0.041965723 -0.63827467 0.40059805 -0.20624067 -0.26886144 0.91324025 0.0855433
-0.11294975 0.042686574 0.014371736 -0.025818115 -0.009654783 -0.12354583 0.007000438 0.14337413
-0.07893155 0.0944081 -0.105418235 -0.056059554 0.023458429 0.039820928 -0.011204655 0.04183465
0.032540683 -0.03136766 0.0064551295 -0.018773628 -0.65221936 0.25668812 0.11716274 0.30706275
0.26643547 0.2853426 0.05216279 0.017170405 0.026856037 -0.29463693 -0.04545346 -0.040191896
0.0063146907 -0.12860516 -0.9899859 -0.16557157 0.0047646095 0.033895385 -0.3820739 0.06194998
0.003959613 -0.006244283 -0.029977405 0.0007214695 0.010831139 -0.036043108 -0.2524778 -0.034136478
0.052378275 -0.17465895 -0.04885444 -0.17221166 0.08629003 0.08715517 -0.1673933 0.12148062
0.15694314 0.00858059 0.10185806 -0.32567656 0.52788556 -0.256972 0.12558883 0.12176928
0.43266085 -0.4684295 0.092205346 0.079378754 -0.07346424 0.027476152 0.025101636 0.01553086
-0.31527883 0.19217631 -0.24299659 0.4137146 -0.5138335 0.30854854 0.11478913 -0.008234118
0.05019854 0.019267663 0.0007992692 0.053317677 -0.01571048 -0.46147582 0.50518125 -1.223785
0.0726949 0.151091 -0.11844513 -0.099367596 0.0026596638 -0.012078145 -0.0035724952 -0.005818773
-0.022956293 -0.017624428 -0.021569734 0.292232 0.38597178 -0.007054984 -0.09937936 0.3884693
-0.12879887 -0.009310416 -0.13828564 -0.043063745 -0.06519231 -0.11439518 -0.11239342 0.058299046
0.3781434 -0.477091 0.37161106 0.05605864 0.3287633 0.10734321 -0.17731987 0.024907041
0.21804404 0.040944938 0.008252159 -0.027367134 0.43349364 -0.21645589 0.51082146 -0.11475684
-0.031581853 0.13352348 -0.052014966 -0.0035475837 -0.026782358 0.05718875 0.025348103 -0.01981398
-0.019651419 -0.10189447 0.06736459 0.29811984 -0.37727168 -0.31346962 0.22732945 0.04613629
-0.16456676 -0.09988984 0.20261976 -0.054493934 -0.0021283545 -0.009872988 -0.30251962 0.062300388
-0.17444645 0.116239876 -0.5917065 -0.006281963 -0.025256911 -0.022405343 0.027641255 0.076118566
00000000: fe27 e2bc 79b2 b53e 3cca 36ba 699e e0be
00000010: a40c fabd f25f cebd e960 243a a6f8 5a3d
00000020: 9e3f 133c 9997 e9bb 93f5 873e 36db b23c
00000030: 0e13 a8bd c856 933d ac5f 92bc ebef bfbe
00000040: 6ad0 9c3d 7723 3b3d 7476 87bb 9825 5b3b
00000050: 0c62 033d a504 23bd 6143 c8bc 9fae 27bc
00000060: a585 a2bc 1616 ad3d 727c ebbd 0dfe 813e
00000070: a0b5 a43d 84a2 bb3e 8c1f 173d d055 c0bd
00000080: b542 e23c 3f54 efbc a68f b7bc fd7a 80bc
00000090: ff58 54be 37ea 513d 58ed 513f f57d 8c3d
000000a0: 635e b9bd 32d5 083e 434f d13d 74d2 0b3e
000000b0: 37c8 1fbd b58b 6dbe 0c1d 523d 1afe 2c3d
000000c0: 8643 9a3b 0526 bb3c ccf6 b43a aacf 6fbd
000000d0: 620a 9e3f c7a6 4f3d 93f2 653b 91d2 9f3d
000000e0: 7c7c 713c e93a 043d 2906 293d ae18 c73b
000000f0: b542 22bd feca da3b 1598 ecbb 5319 0b3c
00000100: 4f52 b3bc 817b 3c3e 2d6f ba3e 1b11 9ebd
00000110: 64d9 943d ee14 07bc 4611 0cbd 92f9 6f3d
00000120: d47c 3b39 83bf c4b9 2dc9 14bd 6fd9 47bd
00000130: def0 583d d913 4f3e 444b d03e 2f3e fd3d
00000140: ccc8 8dbe 2a6f 9abe 7c37 cfbe 85f1 9dbd
00000150: 0c01 7b3d eb0c 51be 0317 eb3c b3d9 363d
00000160: 8bf6 1c3e 40e4 2b3d f865 23bf 301b cd3e
00000170: c130 53be 35a8 89be 1dca 693f 5331 af3d
00000180: 3352 e7bd 1ed8 2e3d 6e77 6b3c 8380 d3bc
00000190: 182f 1ebc 9905 fdbd ee63 e53b abd0 123e
000001a0: dda6 a1bd 0959 c13d 84e5 d7bd b49e 65bd
000001b0: e42b c03c 451b 233d bb93 37bc cf5a 2b3d
000001c0: 6149 053d 607b 00bd 8d85 d33b 27cb 99bc
000001d0: d9f7 26bf a06c 833e 05f3 ef3d 5437 9d3e
000001e0: 3b6a 883e 6d18 923e a6a8 553d f3a8 8c3c
000001f0: 3101 dc3c a7da 96be 682d 3abd 42a0 24bd
00000200: 77eb ce3b 12b1 03be b76f 7dbf 988b 29be
00000210: 7120 9c3b e3d5 0a3d 319f c3be 43bf 7d3d
00000220: a4bf 813b d89c ccbb 2d93 f5bc 0021 3d3a
00000230: 1775 313c f0a1 13bd c544 81be b1d2 0bbd
00000240: 9a8a 563d ccd9 32be 981b 48bd 4158 30be
00000250: d4b8 b03d 697e b23d 2669 2bbe d5ca f83d
00000260: b4b5 203e 9a95 0c3c f59a d03d 14bf a6be
00000270: 8223 073f d591 83be 5c9a 003e 2c62 f93d
00000280: b985 dd3e fed5 efbe 28d6 bc3d 5491 a23d
00000290: 6b74 96bd ab15 e13c f2a1 cd3c 2675 7e3c
000002a0: 3a6c a1be dec9 443e 19d4 78be 66d2 d33e
000002b0: 988a 03bf 13fa 9d3e 9016 eb3d 65e8 06bc
000002c0: fc9c 4d3d 38d7 9d3c 0c86 513a a363 5a3d
000002d0: 44b3 80bc 8f46 ecbe 8f53 013f fda4 9cbf
000002e0: 10e1 943d 99b7 1a3e 5c93 f2bd 3d81 cbbd
000002f0: c14d 2e3b 69e3 45bc 8620 6abb 68ab bebb
00000300: d60e bcbc 1b61 90bc 03b3 b0bc 6f9f 953e
00000310: 189e c53e 7f2d e7bb 6887 cbbd 73e5 c63e
00000320: dae3 03be b78a 18bc c09a 0dbe 9c63 30bd
00000330: 8c83 85bd 0548 eabd 852e e6bd fbca 6e3d
00000340: 039c c13e 4645 f4be ce43 be3e bf9d 653d
00000350: aa53 a83e c2d6 db3d 5793 35be da09 cc3c
00000360: f046 5f3e e1b5 273d 1034 073c 0a31 e0bc
00000370: e1f2 dd3e 9da6 5dbe 32c5 023f a205 ebbd
00000380: f95b 01bd 61ba 083e a50d 55bd 947e 68bb
00000390: ad66 dbbc c03e 6a3d d3a6 cf3c ee50 a2bc
000003a0: 03fc a0bc 0cae d0bd 72f6 893d 2aa3 983e
000003b0: c129 c1be 177f a0be 0dc9 683e 68f9 3c3d
000003c0: 3084 28be 0b93 ccbd 8e7b 4f3e 0835 5fbd
000003d0: dd7b 0bbb 50c2 21bc dae3 9abe b12e 7f3d
000003e0: 17a2 32be 2c0f ee3d 147a 17bf edd8 cdbb
000003f0: 95e7 cebc 698b b7bc ea6f e23c 0de4 9b3d

convE1.self_map.bias f4 [32]
-0.0021143544 -0.0045719706 0.020762969 -0.035084043 -0.18589695 -0.00777023 0.015294509 0.005078307
-0.038176935 -0.009366696 -0.0022953395 -0.009539359 0.0409624 -0.011799419 -0.0038129834 0.022259
0.0008964453 -0.0012764422 -0.03799747 -0.011036051 0.0005119712 -0.0295623 0.05642005 -0.019490918
-0.04346318 0.034875818 -0.0119630415 0.070325814 -0.17922725 -0.025710778 -0.024974758 -0.03533503
00000000: fb90 0abb 78d0 95bb 1a17 aa3c 49b4 0fbd
00000010: c55b 3ebe 6a9d febb d295 7a3c ed67 a63b
00000020: 6b5f 1cbd c576 19bc 686d 16bb f94a 1cbc
00000030: 31c8 273d 5a52 41bc 3fe3 79bb 8258 b63c
00000040: 6dff 6a3a 4b4e a7ba 3ca3 1bbd 8ed0 34bc
00000050: ce35 063a a32c f2bc b618 673d 6bab 9fbc
00000060: 7306 32bd f2d9 0e3d a200 44bc fb06 903d
00000070: 5987 37be 699f d2bc dd97 ccbc 77bb 10bd

convE1.pass_map.weight f4 [32, 64]
-0.002428013 -0.019961264 0.24384415 -0.45460716 -0.39215648 0.4043794 -0.21863438 0.4047767
-0.039543487 -0.023795268 -0.25515738 -0.7471479 0.13060708 0.47860998 -0.04764051 -0.1161161
-0.18351583 -0.25196862 0.17904535 -0.11614328 -0.37411115 0.16329962 0.08735135 0.33381978
-0.1802816 0.20150718 -0.05796527 -0.16950962 -0.024159867 -0.12909126 -0.020489233 0.07266145
-0.5404402 0.0068081515 0.0042464943 0.19750713 -0.35343635 -0.2699518 -0.35564765 -0.24774815
-0.077700906 0.037377607 -0.04829555 -0.4436462 -0.5154265 -0.075240456 -0.062694825 -0.053729694
-0.39737758 -0.44322693 -0.07471132 0.33505833 -0.58224595 -0.23410943 0.02880994 -0.0331707
-0.045680813 0.056354623 0.053914856 -0.3414649 0.0163232 -0.52480775 -0.23734732 -0.27936396
0.14317448 -0.054771908 -0.12547953 -0.36684924 -0.008009692 0.0070100017 -0.07285722 0.10268687
0.090525456 -0.11835733 0.13067067 0.15519057 0.1991021 -0.18328659 -0.106210954 0.11760711
-0.06677538 -0.44300735 -0.16555953 -0.030690925 0.1779548 0.021374756 -0.027985893 -0.18803847
-0.33915925 -0.06176002 0.12562755 0.18759912 -0.0687089 -0.13701338 -0.3336115 -0.056583587
-0.18325344 -0.058231562 -0.07448686 0.41827387 0.0041537127 0.01573533 -0.11210167 -0.112853356
-0.018710434 0.11719634 -0.24476378 -0.12197023 -0.15516455 0.14640985 0.015794473 -0.013111767
0.03932039 0.36994773 0.12042917 -0.06474303 -0.20704982 -0.09228433 0.023894524 0.13396785
0.30493462 -0.08506975 -0.14706786 -0.11051556 0.082544945 0.14543891 0.08594876 -0.0037767934
-0.009067929 0.003184442 -0.13576542 -0.022290923 -0.07259348 0.0002502093 -0.002792437 0.20265731
0.19701926 -0.02266472 -0.1569349 0.21889584 0.5753055 -0.5741519 -0.05107366 -0.009097036
-0.25410578 -0.25343764 0.09612928 0.08147046 -0.7780966 0.035527267 -0.05668834 -0.14070733
-0.25067765 0.011691742 0.1210717 -0.1409063 -0.02309857 0.030260669 0.1878305 0.097109936
-0.20277394 -0.03213026 -0.22199589 -0.43285355 -0.07828821 -0.324074 -0.27711302 -0.109627046
0.012072368 -0.34898466 -0.11937589 -0.119820975 -0.5110153 -0.38684434 0.11353598 -0.053262778
-0.08730748 -0.14549996 0.1113752 0.07559191 0.0074591953 -0.13154794 -0.112718835 -0.43694022
-0.22258593 -0.032195788 -0.14278384 -0.01743325 -0.6525746 -0.009977126 0.19661973 -0.49683788
-0.10065028 -0.02944908 0.03711396 0.104129545 0.120896064 0.023189586 -0.100308254 0.0754744
0.1891986 -0.07251512 0.14796788 0.07842443 0.019728703 -0.12834461 -0.19925709 -0.39427558
0.122467704 0.17653374 0.018094977 0.016315179 0.008364538 0.0035631452 -0.09308897 -0.16535106
-0.034495335 -0.04650819 -0.12559624 -0.05815125 -0.41769806 0.0592424 -0.25821453 0.15520123
0.10494312 0.06559914 -0.17680527 -0.04330376 -0.065220915 0.009857149 0.004551874 -0.0625391
-0.19650006 0.061182875 -0.20932263 -0.059321415 0.01826072 0.14378609 0.10778174 0.42538542
-0.14289466 -0.19858034 -0.0033236623 -0.05563732 -0.013051727 -0.036347173 0.084806986 0.15887603
0.08119496 -0.0132570295 0.11741622 0.02050837 0.37364244 -0.105471484 0.19965173 -0.16635126
00000000: 4c1f 1fbb ce85 a3bc 48b2 793e 45c2 e8be
00000010: bcc8 c8be d10a cf3e b1e1 5fbe e43e cf3e
00000020: 5af8 21bd 4bee c2bc fda3 82be 1645 3fbf
00000030: ddbd 053e 5e0c f53e b222 43bd 47ce edbd
00000040: 93eb 3bbe 0802 81be aa57 373e 87dc edbd
00000050: 7f8b bfbe 0438 273e 44e5 b23d 6dea aa3e
00000060: bd9b 38be e657 4e3e fe6c 6dbd ee93 2dbe
00000070: eaea c5bc 8030 04be 09d9 a7bc 87cf 943d
00000080: 4a5a 0abf ea16 df3b 2d26 8b3b 4f3f 4a3e
00000090: 9cf5 b4be 1f37 8abe 7317 b6be b1b1 7dbe
000000a0: a721 9fbd 4319 193d 8ed1 45bd 9825 e3be
000000b0: fef2 03bf ab17 9abd 2566 80bd ab13 5cbd
000000c0: 1375 cbbe a4ee e2be 4002 99bd c48c ab3e
000000d0: 120e 15bf 62ba 6fbe d302 ec3c 00de 07bd
000000e0: ce1b 3bbd 1bd4 663d d3d5 5c3d 7dd4 aebe
000000f0: 3bb8 853c cd59 06bf 2d0b 73be cb08 8fbe
00000100: 559c 123e 8258 60bd b57d 00be aad3 bbbe
00000110: 153b 03bc 28b4 e53b 2b36 95bd 7e4d d23d
00000120: 6965 b93d 5465 f2bd 88ce 053e 47ea 1e3e
00000130: 6ce1 4b3e 7baf 3bbe 2185 d9bd ffdb f03d
00000140: 88c1 88bd dcd1 e2be 7088 29be 896b fbbc
00000150: c839 363e 1d1a af3c ac42 e5bc 288d 40be
00000160: 48a6 adbe 13f8 7cbd 82a4 003e fc19 403e
00000170: 40b7 8cbd 3c4d 0cbe 20cf aabe 31c4 67bd
00000180: caa6 3bbe 3884 6ebd 918c 98bd fe27 d63e
00000190: de1b 883b 61e7 803c 8f95 e5bd a91f e7bd
000001a0: a046 99bc a204 f03d 5ba3 7abe 87cb f9bd
000001b0: 75e3 1ebe 77ec 153e 6963 813c bdd2 56bc
000001c0: 6b0e 213d ca69 bd3e 92a3 f63d fe97 84bd
000001d0: de04 54be 91ff bcbd 73be c33c de2e 093e
000001e0: 6420 9c3e 0d39 aebd f598 16be fb55 e2bd
000001f0: 530d a93d f0ed 143e e705 b03d 1484 77bb
00000200: a791 14bc 12b2 503b 1706 0bbe 749b b6bc
00000210: e4ab 94bd 862e 8339 5201 37bb 6685 4f3e
00000220: 6bbf 493e 5dab b9bc 8bb3 20be 3b26 603e
00000230: 3947 133f 9efb 12bf 9d32 51bd bc0b 15bc
00000240: 271a 82be 94c2 81be 6edf c43d fcd9 a63d
00000250: 5731 47bf 0a85 113d 0832 68bd 9515 10be
00000260: d258 80be b88e 3f3c 70f4 f73d be49 10be
00000270: 3639 bdbc 39e5 f73c a356 403e 93e1 c63d
00000280: f9a3 4fbe 059b 03bd e452 63be fb9e ddbe
00000290: 9255 a0bd 07ed a5be c2e1 8dbe 2584 e0bd
000002a0: 2ecb 453c 1eae b2be 597b f4bd b364 f5bd
000002b0: e6d1 02bf 7610 c6be 8d85 e83d 122a 5abd
000002c0: 44ce b2bd f1fd 14be ae18 e43d eecf 9a3d
000002d0: 446c f43b 81b4 06be 22d9 e6bd a1b6 dfbe
000002e0: 91ed 63be bbdf 03bd ed35 12be 2dd0 8ebc
000002f0: 210f 27bf 1977 23bc af56 493e 8961 febe
00000300: bc21 cebd 323f f1bc cf04 183d df41 d53d
00000310: 5b98 f73d 16f8 bd3c 6a6e cdbd 5292 9a3d
00000320: 47bd 413e cf82 94bd e484 173e fd9c a03d
00000330: 179e a13c c56c 03be 0d0a 4cbe 7dde c9be
00000340: 59d0 fa3d 43c5 343e eb3b 943c 69a7 853c
00000350: 6a0b 093c a883 693b 6ea5 bebd ca51 29be
00000360: fb4a 0dbd 5f7f 3ebd 4d9c 00be 0130 6ebd
00000370: 85dc d5be 29a8 723d b234 84be 12ed 1e3e
00000380: 6bec d63d d858 863d 710c 35be 495f 31bd
00000390: 8b92 85bd e17f 213c e327 953b 8014 80bd
000003a0: 5037 49be e59a 7a3d ac58 56be 03fb 72bd
000003b0: 8197 953c a93c 133e acbc dc3d 1ecc d93e
000003c0: fa52 12be a558 4bbe cdd1 59bb f5e3 63bd
000003d0: e9d6 55bc c6e0 14bd 49af ad3d 66b0 223e
000003e0: 8b49 a63d 0334 59bc ea77 f03d 2b01 a83c
000003f0: 104e bf3e 6f01 d8bd 8171 4c3e fc57 2abe

convE1.pass_map.bias f4 [32]
-0.0021143544 -0.0045719706 0.020762969 -0.035084043 -0.18589662 -0.00777023 0.015294509 0.005078307
-0.038176935 -0.009366696 -0.0022953395 -0.009539359 0.0409624 -0.011799419 -0.0038129834 0.022259
0.0008964453 -0.0012764422 -0.03799747 -0.011036051 0.0005119712 -0.0295623 0.05642005 -0.019490918
-0.04346318 0.034875818 -0.0119630415 0.070325814 -0.17922688 -0.025710778 -0.024974758 -0.03533503
00000000: fb90 0abb 78d0 95bb 1a17 aa3c 49b4 0fbd
00000010: af5b 3ebe 6a9d febb d295 7a3c ed67 a63b
00000020: 6b5f 1cbd c576 19bc 686d 16bb f94a 1cbc
00000030: 31c8 273d 5a52 41bc 3fe3 79bb 8258 b63c
00000040: 6dff 6a3a 4b4e a7ba 3ca3 1bbd 8ed0 34bc
00000050: ce35 063a a32c f2bc b618 673d 6bab 9fbc
00000060: 7306 32bd f2d9 0e3d a200 44bc fb06 903d
00000070: 4087 37be 699f d2bc dd97 ccbc 77bb 10bd

convN2.self_map.weight f4 [32, 32]
0.02633794 0.0046885605 0.09059968 0.108132705 -0.0047216993 -0.13566321 -0.13397971 -0.0008288979
0.03239566 0.08649853 -0.025127599 -0.058464162 -0.3308189 0.16270514 0.044524826 0.015338449
0.008983197 0.035838656 -0.06663417 0.020222113 0.10593262 0.040275067 -0.018449528 0.09940194
0.07335001 0.003244805 0.0907448 0.04917677 -0.06228183 0.09916025 -0.052827146 -0.05945046
0.23223728 -0.04571735 0.014144043 -0.061238494 0.17921606 0.36374897 -0.092239335 -0.17993163
-0.2989282 -0.1667425 -0.10848821 0.15170653 0.010953465 -0.0785958 -0.13003443 -0.2900061
-0.09346689 -0.0779998 -0.10140397 0.11684158 -0.21765885 -0.10278384 -0.08661522 0.015060924
-0.051216323 -0.2107316 0.20443346 0.014967428 0.41175032 -0.31533527 -0.08781089 -0.19747365
-0.11603325 0.0052371123 -0.030142885 0.25717297 -0.23294415 -0.2686901 -0.1844448 0.14192307
-0.15733697 0.35178813 0.20483664 0.12110925 0.10364363 0.1594198 -0.17667283 0.04088081
0.059310414 -0.15702097 -0.2211124 0.09656437 0.00048504557 -0.30996698 -0.10897161 -0.1220386
0.19025311 0.15213054 0.028048463 -0.03921055 0.17956954 0.06062334 -0.10239788 -0.11141416
0.253307 -0.03635528 -0.30052355 -0.12069386 0.110659786 0.0791357 -0.08237058 0.14591394
0.091605134 0.031641435 -0.03874445 -0.0820979 -0.082928576 -0.3326227 0.27374467 -0.20246905
-0.29740587 0.025178885 0.2432958 -0.2502666 -0.31322095 0.01819085 -0.00067341287 -0.08505425
-0.30258378 -0.21705237 -0.29080707 -0.25974613 0.14312154 0.2176791 0.012798611 -0.1297077
-0.021476489 -0.0328552 -0.10410441 -0.00457012 -0.044938333 -0.050224397 -0.0857772 -0.044283662
-0.0013351797 0.028220832 -0.006704715 -0.06260228 -0.09015222 -0.0013215131 -0.008512744 -0.060446907
-0.015117915 -0.032389786 0.022411084 -0.068079725 -0.011785864 -0.040839467 -0.06699062 -0.04434781
-0.036420617 -0.0009819922 -0.009485894 -0.11979663 0.049563758 -0.06697649 -0.0971052 -0.03902224
-3.0463135e-13 -4.79522e-40 -6.124e-40 -3.6640656e-12 -4.175648e-21 1.0766722e-28 -6.088654e-12 -8.873851e-17
-1.9819304e-24 -1.89591e-12 -1.6963523e-24 -7.8574564e-26 -2.322903e-14 -1.086689e-22 -1.58e-43 -5.3475e-40
-1.8794331e-28 -1.8141846e-17 -4.7892157e-18 -3.659284e-18 -9.118674e-08 -5.5226795e-14 -3.5755477e-23 -1.516911e-13
-1.3652494e-12 -4.256207e-30 -2.8047005e-33 -8.4449e-20 -2.7078524e-16 -5.960998e-23 4.12133e-35 -5.7260503e-15
0.20112912 -0.03654354 0.024295738 0.09540397 0.25861472 0.16736372 0.09623854 -0.1675737
-0.05214592 -0.068804085 0.22139834 0.14136145 0.08186302 -0.22805676 -0.05542729 -0.16509886
0.12859942 0.08014135 0.15349777 -0.09396975 -0.22232343 0.1574767 -0.100940324 -0.12377211
0.044475503 -0.0840358 0.13752268 -0.3856257 -0.14250459 -0.2767687 -0.2291221 -0.35044247
-0.06903527 0.013528689 0.0010793217 0.05584894 0.14430156 0.107652314 0.10906071 0.13276488
-0.085207775 0.23877446 0.08963031 0.045337323 0.14765109 0.18579519 0.03290618 -0.012939
0.24741288 0.14251107 0.022929551 -0.023417115 0.042875223 0.07904794 -0.044077173 -0.34121922
0.09582002 -0.10552364 -0.06977478 0.041349806 -0.042563632 0.09456967 -0.012105555 0.10276711
00000000: aac2 d73c 7fa2 993b 538c b93d ae74 dd3d
00000010: 7cb8 9abb 4ceb 0abe fa31 09be 654a 59ba
00000020: 50b1 043d 2426 b13d 65d8 cdbc 1e78 6fbd
00000030: 1861 a9be 2d9c 263e aa5f 363d 1e4e 7b3c
00000040: 422e 133c 8ecb 123d 7f77 88bd d8a8 a53c
00000050: 34f3 d83d 78f7 243d 7723 97bc 3f93 cb3d
00000060: 8838 963d cba6 543b 69d8 b93d 956d 493d
00000070: 3b1b 7fbd 8714 cb3d 4761 58bd 5382 73bd
00000080: 9ccf 6d3e 1e42 3bbd 6bbc 673c 37d5 7abd
00000090: 6a84 373e 4e3d ba3e fae7 bcbd ff3f 38be
000000a0: 1e0d 99be 8cbe 2abe 112f debd f558 1b3e
000000b0: 2976 333c d6f6 a0bd bf27 05be ae7b 94be
000000c0: 926b bfbd 5cbe 9fbd e2ac cfbd a34a ef3d
000000d0: f6e1 5ebe 5580 d2bd 5263 b1bd 18c2 763c
000000e0: 35c8 51bd 06ca 57be 0157 513e f139 753c
000000f0: f0d0 d23e a073 a1be 32d6 b3bd 8836 4abe
00000100: d7a2 edbd 159c ab3b 36ee f6bc 2dac 833e
00000110: e988 6ebe c091 89be 19df 3cbe 4854 113e
00000120: f11c 21be 931d b43e b2c0 513e 2008 f83d
00000130: 1d43 d43d f23e 233e b9e9 34be a372 273d
00000140: 7aef 723d 1bca 20be 4a6b 62be 8ac3 c53d
00000150: b74d fe39 feb3 9ebe 822c dfbd 60ef f9bd
00000160: b6d1 423e 1cc8 1b3e e4c5 e53c 3e9b 20bd
00000170: 14e1 373e 2e50 783d fbb5 d1bd 1b2d e4bd
00000180: 75b1 813e 46e9 14bd 39de 99be 582e f7bd
00000190: 99a1 e23d e611 a23d e8b1 a8bd 776a 153e
000001a0: 799b bb3d 739a 013d 80b2 1ebd f222 a8bd
000001b0: 75d6 a9bd 864d aabe 4328 8c3e 0c54 4fbe
000001c0: 9545 98be f343 ce3c 8922 793e f222 80be
000001d0: 7f5e a0be fa04 953c f987 30ba ec30 aebd
000001e0: 43ec 9abe fa42 5ebe aae4 94be 72fd 84be
000001f0: 748e 123e 45e7 5e3e 44b1 513c 18d2 04be
00000200: 76ef afbc 2d93 06bd b134 d5bd f2c0 95bb
00000210: 4211 38bd 19b8 4dbd f5ab afbd c962 35bd
00000220: 3201 afba 602f e73c 3ab3 dbbb a035 80bd
00000230: baa1 b8bd 9f36 adba 0979 0bbc 2d97 77bd
00000240: 22b1 77bc 27ab 04bd 7397 b73c 626d 8bbd
00000250: 7f19 41bc 4947 27bd 6132 89bd 0da6 35bd
00000260: c92d 15bd 31b6 80ba b96a 1bbc f057 f5bd
00000270: 5e03 4b3d f82a 89bd 17df c6bd c9d5 1fbd
00000280: 017e abaa b638 0580 1fab 0680 f8ea 80ac
00000290: 64c0 9d9d 037c 0811 b839 d6ac f89d cca4
000002a0: 2d58 1998 ae69 05ac b83f 0398 8c8a c295
000002b0: 7f3a d1a8 655f 039b 7100 0080 aad2 0580
000002c0: 173f 6e91 3954 a7a3 ddb0 b0a2 f600 87a2
000002d0: 71d2 c3b3 29b8 78a9 23e7 2c9a fcc9 2aaa
000002e0: 4b24 c0ab fba6 ac8e 6201 6989 4a66 c79f
000002f0: d918 9ca5 ca20 909a a320 5b06 7e4d cea7
00000300: cbf4 4d3e aeae 15bd db07 c73c 2863 c33d
00000310: 2669 843e 6561 2b3e b618 c53d 7198 2bbe
00000320: f696 55bd 28e9 8cbd 3fb6 623e 0ec1 103e
00000330: cda7 a73d b687 69be ba07 63bd ad0f 29be
00000340: 91af 033e 2621 a43d 852e 1d3e 3673 c0bd
00000350: c1a8 63be 9241 213e cdb9 cebd 3b7c fdbd
00000360: f22b 363d f61a acbd bfd2 0c3e bb70 c5be
00000370: b9ec 11be a1b4 8dbe fc9e 6abe 326d b3be
00000380: 5d62 8dbd 6fa7 5d3c 0778 8d3a dcc1 643d
00000390: cac3 133e d178 dc3d 395b df3d 84f3 073e
000003a0: 6a81 aebd 4b81 743e 1990 b73d a1b3 393d
000003b0: d931 173e 1841 3e3e a1c8 063d 19fe 53bc
000003c0: cd59 7d3e 6cee 113e c1d6 bb3c 40d5 bfbc
000003d0: ee9d 2f3d e3e3 a13d 448a 34bd 49b4 aebe
000003e0: 493d c43d c71c d8bd 14e6 8ebd 6a5e 293d
000003f0: 3457 2ebd bead c13d 6156 46bc 9077 d23d

convN2.self_map.bias f4 [32]
0.061430454 -0.027586538 0.020216353 -0.040177546 -9.682082e-07 8.43297e-40 0.01882157 0.069279656
-1.4318503e-06 -0.0026990897 0.008363257 -2.1563e-41 -0.0062454697 0.045822084 0.021217989 1.4778e-40
0.017090438 -0.0030224188 -0.055638697 -0.017043373 -0.025990471 0.2983976 0.020450352 0.03592499
-0.032114543 -0.007279438 0.05780756 -1.2748165e-08 -0.007984764 0.045385584 -0.014041902 0.02185193
00000000: 809e 7b3d 2afd e1bc c49c a53c 3691 24bd
00000010: 61f3 81b5 c52e 0900 b12f 9a3c 7ee2 8d3d
00000020: 002e c0b5 36e3 30bb 0b06 093c 1c3c 0080
00000030: cca6 ccbb f0af 3b3d 59d1 ad3c f39b 0100
00000040: 3f01 8c3c c613 46bb 67e5 63bd 8b9e 8bbc
00000050: f8e9 d4bc 92c7 983e 7f87 a73c 1526 133d
00000060: 8a8a 03bd 5a88 eebb 9fc7 6c3d 0603 5bb2
00000070: 87d2 02bc 3ce6 393d 0110 66bc d202 b33c

convN2.pass_map.weight f4 [32, 32]
-0.04815981 -0.21298742 -0.33354262 -0.015419581 0.16954207 0.024875341 -0.3802932 -0.5312591
-0.3012448 -0.46131757 1.0040066 0.2964696 1.3396866 -1.0820143 -1.3439912 0.82677984
-0.13768192 -0.012267694 -0.2605979 -0.103359185 -0.38501555 -0.45086342 -0.67683095 -0.35938442
-0.113484584 -0.5966847 -0.12633786 0.9136354 -0.0810732 -0.07782436 0.15728554 -0.05925761
-0.44299787 -0.50795645 0.22521648 -0.035282023 -0.01791751 -0.27193758 -0.05986223 -0.27317697
-0.27015048 -0.28858072 0.14476068 -0.130023 0.20090245 -0.3160588 -0.14577532 -0.5127869
-0.4289339 -0.09513946 0.012643267 -0.015278006 0.9949682 -0.0869055 -0.067837484 0.49748385
0.017986327 -0.2677884 -0.07799461 0.0791317 0.14287193 0.12941207 -0.035650253 0.15457706
-0.093422905 -0.18670483 0.20280549 0.015331289 -0.16676405 -0.09246006 0.21430326 0.38226438
-0.2154637 0.0975783 0.5146144 0.40073174 -0.12708436 -0.28582308 -0.29105613 0.6188199
-0.39588284 -0.35739133 -0.028082395 -0.40502548 -0.28598785 -0.35589442 -0.5152444 -0.021604957
-0.24095632 0.17024752 0.01777225 0.091400884 -0.20070045 0.0159445 0.4098713 -0.052870978
-0.3373529 0.11287641 0.3196505 0.47933248 0.01298412 -0.09372635 0.11116077 0.23412699
-0.3365893 0.016779073 0.016372139 -0.07010714 0.076972015 0.0065824464 -0.1358009 0.22590186
0.016918935 0.11637766 0.09063526 -0.2662395 0.0063765887 -0.22123076 -0.48855808 0.4066569
-0.038675092 0.64837545 0.43636015 -0.4094807 -0.23850349 -0.07116266 0.06172699 0.30693135
0.05056386 -0.039653976 -0.010896786 -0.022641728 -0.09885263 -0.053047586 -0.004863913 -0.083693326
-0.04062931 -0.028778605 0.01380267 0.0012601184 0.00658575 0.0333374 -0.048916724 0.014336498
-0.0060141315 -0.09414989 0.00649358 0.040179987 -0.042132046 -0.019606795 -0.049483195 -0.056025546
-0.018933069 0.05800365 -0.085397534 0.036307182 0.008745399 -0.040089965 -0.029716874 0.0071152695
3.5250842e-37 -4.2020998e-20 -4.65415e-40 -7.058348e-11 -1.5128358e-05 2.0075e-40 5.35768e-40 -1.80012e-40
-4.0477503e-22 2.75903e-40 7.05758e-40 -6.7638e-40 -9.822595e-20 -2.50455e-40 -1.615038e-12 3.49272e-40
4.10927e-40 6.86475e-40 -3.84179e-40 -3.919533e-27 -9.5685735e-24 -1.6819553e-20 -6.63012e-40 -1.9680503e-33
-1.0699737e-10 -3.50225e-40 -1.0601772e-16 -3.0121996e-30 -6.582719e-05 -3.22694e-40 -1.3108015e-13 6.73143e-40
0.5003902 -0.07702576 0.28054178 -0.23881942 -0.45905262 -0.018890873 -0.052457176 0.40872973
-0.36358926 0.5414156 -0.025829561 0.073276035 0.17363356 -0.2094188 -0.14334333 0.24229677
-0.015017052 -0.29623652 0.082304746 0.12773539 -0.30076978 0.16038114 -0.41158873 0.057768106
0.18514204 0.265137 -0.27678782 0.53459114 -0.21693829 0.45985508 0.22812714 -0.032735396
0.51106095 -0.16903397 0.8238947 -0.072206646 -0.5506585 -0.3328393 0.7680285 -0.39799643
0.093782894 0.4495106 -0.38134214 0.63494384 0.63058627 -0.562202 0.12378079 0.0055921148
1.0625225 0.12996311 -1.0487295 -0.41735482 0.85565394 -0.41051376 -0.9590903 -0.12031262
0.05120386 -1.1641839 0.009710968 0.06283143 -0.34735408 -0.23794694 -0.11168127 -0.17933565
00000000: 3943 45bd 6019 5abe 19c6 aabe 69a2 7cbc
00000010: 709c 2d3e 5fc7 cb3c cab5 c2be 9900 08bf
00000020: c23c 9abe d131 ecbe 4a83 803f ddca 973e
00000030: da7a ab3f 727f 8abf e707 acbf d8a7 533f
00000040: 7dfc 0cbe 70fe 48bc 176d 85be fbad d3bd
00000050: c220 c5be 92d7 e6be cb44 2dbf 3c01 b8be
00000060: 9b6a e8bd 54c0 18bf b65e 01be 02e4 693f
00000070: b509 a6bd 6162 9fbd 760f 213e 1cb8 72bd
00000080: 9ed0 e2be 6f09 02bf 269f 663e e283 10bd
00000090: bec7 92bc 673b 8bbe 1932 75bd dadd 8bbe
000000a0: 2a51 8abe dac0 93be 253c 143e c024 05be
000000b0: 5fb9 4d3e 76d2 a1be 2046 15be 0146 03bf
000000c0: 399d dbbe 7ad8 c2bd b525 4f3c 9a50 7abc
000000d0: 3cb6 7e3f 83fb b1bd 61ee 8abd 34b6 fe3e
000000e0: 1058 933c 901b 89be a3bb 9fbd cd0f a23d
000000f0: 054d 123e 9984 043e 0006 12bd 7349 1e3e
00000100: 8254 bfbd 8d2f 3fbe 3eac 4f3e 1630 7b3c
00000110: 32c4 2abe b35b bdbd 5072 5b3e 28b8 c33e
00000120: 84a2 5cbe 22d7 c73d c5bd 033f b62c cd3e
00000130: 6722 02be 6757 92be 4f05 95be fb6a 1e3f
00000140: 28b1 cabe fffb b6be 0d0d e6bc 805f cfbe
00000150: 006d 92be cb37 b6be 0fe7 03bf e1fc b0bc
00000160: 41bd 76be 5e55 2e3e 1c97 913c 6330 bb3d
00000170: 6b84 4dbe 0a9e 823c a7da d13e 3d8f 58bd
00000180: 85b9 acbe bf2b e73d 3ba9 a33e 116b f53e
00000190: 59bb 543c 9af3 bfbd 42a8 e33d fcbe 6f3e
000001a0: 6f55 acbe 4474 893c dd1e 863c 5594 8fbd
000001b0: 81a3 9d3d 90b1 d73b 640f 0bbe d152 673e
000001c0: 9499 8a3c 6957 ee3d fb9e b93d 8b50 88be
000001d0: b4f2 d03b 518a 62be 4924 fabe 5535 d03e
000001e0: c669 1ebd effb 253f 996a df3e 74a7 d1be
000001f0: 423a 74be bbbd 91bd 71d5 7c3d 1b26 9d3e
00000200: 0d1c 4f3d 356c 22bd 6f88 32bc 257b b9bc
00000210: 3f73 cabd 6d48 59bd 7661 9fbb 6867 abbd
00000220: eb6a 26bd 1cc1 ebbc 9824 623c 8f2a a53a
00000230: 46cd d73b cc8c 083d e75c 48bd a2e3 6a3c
00000240: 3112 c5bb a8d1 c0bd 19c8 d43b c593 243d
00000250: a792 2cbd 6e9e a0bc e4ae 4abd 0b7b 65bd
00000260: 8619 9bbc 3c95 6d3d e7e4 aebd d7b6 143d
00000270: dd48 0f3c 6035 24bd cd70 f3bc 3527 e93b
00000280: a1e7 ef02 4570 469f 6311 0580 f736 9bae
00000290: cecf 7db7 9c2f 0200 81d5 0500 cdf5 0180
000002a0: e7ab f49b 1b01 0300 5eaf 0700 795d 0780
000002b0: f2ed e79f 2bba 0280 e04b e3ab a1cd 0300
000002c0: 7f79 0400 9d79 0700 ef2e 0480 c944 9b93
000002d0: 4815 3999 2fdb 9e9e 3538 0780 cd7f 2389
000002e0: 2a4a ebae 49d0 0380 d175 f4a4 f060 748e
000002f0: b40c 8ab8 8a83 0380 4895 13aa 7354 0700
00000300: 9219 003f afbf 9dbd 2ca3 8f3e 148d 74be
00000310: f208 ebbe 08c1 9abc 56dd 56bd 0645 d13e
00000320: 5f28 babe 369a 0a3f 8498 d3bc bf11 963d
00000330: ffcc 313e e271 56be 98c8 12be a51c 783e
00000340: 150a 76bc 50ac 97be 648f a83d 11cd 023e
00000350: 7ffe 99be f43a 243e c2bb d2be 409e 6c3d
00000360: e095 3d3e 09c0 873e 22b7 8dbe f7da 083f
00000370: 1225 5ebe 2072 eb3e 299a 693e 8d15 06bd
00000380: e4d4 023f 3e17 2dbe c3ea 523f 14e1 93bd
00000390: f5f7 0cbf ea69 aabe 849d 443f 30c6 cbbe
000003a0: 3f11 c03d 4126 e63e 473f c3be ae8b 223f
000003b0: 1a6e 213f 78ec 0fbf c880 fd3d 0f3e b73b
000003c0: bd00 883f 0d15 053e c53c 86bf 88af d5be
000003d0: 230c 5b3f dc2e d2be f186 75bf 7766 f6bd
000003e0: 24bb 513d fa03 95bf c01a 1f3c c4ad 803d
000003f0: 65d8 b1be 5da8 73be 26b9 e4bd c4a3 37be

convN2.pass_map.bias f4 [32]
0.0612 -0.027646502 0.020687101 -0.040157903 -8.846083e-07 2.32716e-40 0.018853197 0.07036441
-9.546044e-07 -0.0029125637 0.00862501 9.3355e-41 -0.006247474 0.047255564 0.021612015 -8.02071e-40
0.017239455 -0.0028982922 -0.056045733 -0.016705263 -0.025954591 0.29779032 0.020285895 0.03639645
-0.032537047 -0.0071748765 0.05748088 -1.2089675e-08 -0.0077898433 0.045943737 -0.013933373 0.021295648
00000000: daac 7a3d eb7a e2bc ff77 a93c 9d7c 24bd
00000010: d275 6db5 b888 0200 0572 9a3c 371b 903d
00000020: f51f 80b5 b6e0 3ebb ea4f 0d3c 3c04 0100
00000030: 9cb7 ccbb 0d8f 413d ae0b b13c d9bb 0880
00000040: c239 8d3c 46f1 3dbb 3690 65bd 7ad9 88bc
00000050: b99e d4bc f977 983e 9b2e a63c 7214 153d
00000060: 9145 05bd 3a1b ebbb 1271 6b3d f4b2 4fb2
00000070: f141 ffbb 802f 3c3d cd48 64bc 3674 ae3c

convE2.self_map.weight f4 [32, 32]
-0.008113089 -0.06816725 -0.013643231 -0.072723895 -0.025184028 -0.04665825 -0.009504335 0.008305667
-0.03851238 -0.005334411 -0.005288182 -0.000921163 -0.035087977 -0.027433358 -0.0404 -0.0098214345
-0.0014211743 0.012841365 -0.01241822 -0.034777574 -0.010756876 -0.038037486 -0.032938432 -0.04666661
-0.070618644 -0.005410742 -0.037320368 -0.05695444 -0.039741065 -0.043602653 -0.06817702 0.039434567
-0.013152159 0.06440571 -0.11747369 -0.009816666 -0.03444766 0.009260103 0.025702106 -0.101216964
-0.067833 0.023562644 -0.012645827 0.034822933 0.01151248 -0.118605234 -0.017287657 -0.03548633
-0.051116504 -0.13982098 0.0126290545 0.032679535 -0.0020991499 -0.047825467 -0.09463843 -0.025520282
0.032825965 -0.010216659 -0.21620245 -0.1557872 0.049648903 -0.01174571 -0.022706283 -0.037266646
0.0038020303 0.026370002 -0.07818359 -0.108114414 -0.40194097 0.006296398 -0.08572485 0.035541337
-0.25319117 -0.022722928 -1.3471766e-17 0.10041934 -0.041583136 -0.04312963 -0.014987019 -0.018398067
-0.061367415 0.07738852 -0.03522467 -0.037033185 -0.060129777 -0.104868256 -0.016607605 -0.08573176
-0.17751442 -0.09398231 -0.11731125 0.018698098 -0.39946675 -0.115163915 -0.07741572 0.039237387
-0.007943071 -0.121079594 -0.016610611 -0.04622579 -0.02904946 0.15476747 -0.008346604 0.012952172
0.0008967077 -0.10292666 -0.06372569 -0.06536679 -0.015181287 -0.04201759 0.037659768 -0.0071056406
-0.0035226338 0.014002022 0.016496897 -0.0008274472 0.028241266 -0.0041549657 0.009145654 -0.019899067
-0.07927257 -0.0117620025 -0.13230358 -0.0175012 -0.05404176 0.044910274 -0.003269164 -0.17612095
-0.008562859 -0.28862453 -0.0018317155 -0.28304687 -0.3808945 -0.010273121 -0.0100669805 -0.00041613396
-0.18814622 -0.01858586 0.011717106 -0.0895863 -0.011721358 -0.0042270753 -0.057677273 0.003480522
-0.044759035 -0.017637532 -0.005393824 -0.30486795 -0.017586615 -0.27127224 0.0059333513 -0.099131845
-0.3539388 -0.0022356147 -0.18635349 -0.010061307 -0.38217288 -0.057282127 -0.33808947 -0.0360333
-0.040391196 0.06722594 0.059449565 0.03398601 0.017502088 -0.10156078 0.002493051 -0.057924535
0.0407612 0.012459877 0.08820751 -0.03584666 -0.009515691 -0.020477679 -0.058358464 -0.0034652438
-0.019282293 -0.023348927 0.0014744342 0.031140635 0.011934532 0.026427422 -0.046890866 -0.017611982
0.039753143 0.020893743 0.045271892 0.0037355833 0.020692445 0.05326988 0.028588833 -0.016464181
0.010224266 -0.01731787 -0.038332503 -0.025094235 -0.02598142 -0.003054328 -0.016844325 -0.0007753526
-0.0018777486 -0.037274256 0.20986263 -0.039326485 -0.017960938 -0.0025322726 -0.07773379 -0.008426453
0.0040720473 0.014661707 -0.015124598 -0.024102846 0.035138085 -0.04841976 0.008378079 -0.08834815
-0.03859765 -0.045826476 0.0076843896 -0.03286281 -0.17116047 -0.016863497 -0.013355328 -0.028874042
-0.051688768 -0.023632329 -0.0142757315 -0.037959855 -0.10562968 -1.3204228e-15 -0.03747129 -0.017174397
-0.058080103 0.055593666 -3.3458197e-12 -0.0017561305 -0.054681808 0.07184903 -0.004796245 -0.024826618
0.033643134 -0.0029465903 0.0057809334 -0.020937046 -0.0016625094 -0.00207822 -0.02426834 -0.059351634
-0.12164055 -0.02367292 -0.065019324 -0.054165643 -0.14519857 -0.02679571 -0.05218414 -0.015062163
00000000: c3ec 04bc 459b 8bbd dc87 5fbc 44f0 94bd
00000010: bc4e cebc b91c 3fbd 12b8 1bbc 7e14 083c
00000020: 28bf 1dbd 48cc aebb 7c48 adbb 347a 71ba
00000030: 69b8 0fbd ecbb e0bc 787a 25bd 15ea 20bc
00000040: b246 baba 9764 523c ca75 4bbc ee72 0ebd
00000050: 9c3d 30bc 32cd 1bbd 73ea 06bd 7d25 3fbd
00000060: 82a0 90bd 984c b1bb 3edd 18bd 0f49 69bd
00000070: 87c7 22bd b298 32bd 65a0 8bbd 2486 213d
00000080: 277c 57bc 24e7 833d 0c96 f0bd 15d6 20bc
00000090: fd18 0dbd b0b7 173c 398d d23c d74a cfbd
000000a0: 07ec 8abd 7206 c13c 7130 4fbc 7ea2 0e3d
000000b0: d79e 3c3c 4de7 f2bd d89e 8dbc 1d5a 11bd
000000c0: 8a5f 51bd 3b2d 0fbe 18ea 4e3c fada 053d
000000d0: e491 09bb a3e4 43bd cbd1 c1bd e90f d1bc
000000e0: 8574 063d c663 27bc 2d64 5dbe ae86 1fbe
000000f0: a65c 4b3d 1471 40bc 8702 babc e9a4 18bd
00000100: 7c2b 793b e705 d83c b81e a0bd 176b ddbd
00000110: 35cb cdbe 0452 ce3b 8390 afbd cb93 113d
00000120: 46a2 81be 6f25 babc 9e82 78a3 a8a8 cd3d
00000130: 1453 2abd b2a8 30bd 1d8c 75bc 8bb7 96bc
00000140: 665c 7bbd df7d 9e3d be47 10bd 1cb0 17bd
00000150: a44a 76bd 2bc5 d6bd ac0c 88bc 2294 afbd
00000160: 57c6 35be cc79 c0bd e140 f0bd c12c 993c
00000170: e886 ccbe 0fdb ebbd 228c 9ebd 62b7 203d
00000180: a823 02bc 94f8 f7bd fa12 88bc 4157 3dbd
00000190: 22f9 edbc 5d7b 1e3e 32c0 08bc 5935 543c
000001a0: 0911 6b3a 36cb d2bd 9d82 82bd 06df 85bd
000001b0: efba 78bc a31a 2cbd 2141 1a3d 6fd6 e8bb
000001c0: fddb 66bb bd68 653c 8024 873c 0be9 58ba
000001d0: 3a5a e73c 6126 88bb a7d7 153c 5e03 a3bc
000001e0: a859 a2bd 6ab5 40bc 977a 07be ad5e 8fbc
000001f0: e45a 5dbd d6f3 373d 783f 56bb 0d59 34be
00000200: 3c4b 0cbc 98c6 93be 2c16 f0ba 85eb 90be
00000210: 9b04 c3be 9850 28bc faef 24bc 8e2c dab9
00000220: 67a9 40be 6041 98bc 1bf9 3f3c 0679 b7bd
00000230: f00a 40bc 4783 8abb 013f 6cbd 7819 643b
00000240: 4055 37bd 967c 90bc adbe b0bb a717 9cbe
00000250: ce11 90bc 32e4 8abe 8f6c c23b a305 cbbd
00000260: 7737 b5be 6483 12bb 73d3 3ebe 2ed8 24bc
00000270: 2aac c3be aaa0 6abd 101a adbe a797 13bd
00000280: 3d71 25bd c1ad 893d 6381 733d ea34 0b3d
00000290: 8a60 8f3c 19ff cfbd 7562 233b 4742 6dbd
000002a0: 37f5 263d 8324 4c3c 24a6 b43d f3d3 12bd
000002b0: b3e7 1bbc cec0 a7bc 4909 6fbd 2519 63bb
000002c0: e6f5 9dbc 4046 bfbc cd41 c13a a51a ff3c
000002d0: 0e89 433c 527e d83c a310 40bd 0147 90bc
000002e0: 31d4 223d 5b29 ab3c 056f 393d b0d0 743b
000002f0: 3483 a93c 8531 5a3d 2133 ea3c e4df 86bc
00000300: ae83 273c 35de 8dbc 8b02 1dbd 6d92 cdbc
00000310: fdd6 d4bc 1f2b 48bb 1cfd 89bc 0841 4bba
00000320: ca1e f6ba e4ac 18bd 3be6 563e cf14 21bd
00000330: d122 93bc 7cf4 25bb e532 9fbd 1b0f 0abc
00000340: cf6e 853b a837 703c 29cd 77bc 5573 c5bc
00000350: f4ec 0f3d cc53 46bd 3644 093c e0ef b4bd
00000360: 9218 1ebd 8bb4 3bbd 55cd fb3b 279b 06bd
00000370: b144 2fbe 5125 8abc 4ed0 5abc 4189 ecbc
00000380: 9ab7 53bd 9698 c1bc c2e4 69bc cb7b 1bbd
00000390: 6054 d8bd 014b bea6 7f7b 19bd 52b1 8cbc
000003a0: 67e5 6dbd 2fb6 633d ee70 6bac f62d e6ba
000003b0: 08fa 5fbd 9625 933d d229 9dbb 3161 cbbc
000003c0: 62cd 093d 951b 41bb fc6d bd3b 2b84 abbc
000003d0: 8fe8 d9ba bf32 08bb 66ce c6bc b31a 73bd
000003e0: ae1e f9bd b6ed c1bc da28 85bd cbdc 5dbd
000003f0: efae 14be ad82 dbbc 09bf 55bd 4ac7 76bc

convE2.self_map.bias f4 [32]
-0.0010469911 0.05934803 0.11017187 -0.11310098 1.9926397 0.22790442 -0.23565328 -0.0048310366
-0.010473335 0.34913385 0.12628278 0.33106357 0.4727549 -0.33911937 -0.012290023 -0.0032293815
-0.22725569 -0.070884205 0.010030157 -0.010711145 -0.08929739 0.062379215 0.014466638 -0.0019202476
-0.04710875 -0.00028451477 -0.08303514 -0.10327548 -0.070346504 -0.022921862 0.0002390583 0.49438027
00000000: 313b 89ba eb16 733d caa1 e13d 7da1 e7bd
00000010: d10e ff3f c75f 693e 184f 71be ac4d 9ebb
00000020: 5a98 2bbc acc1 b23e 4650 013e 2a81 a93e
00000030: ee0c f23e 0ea1 adbe 185c 49bc 08a4 53bb
00000040: b7b5 68be bd2b 91bd 8755 243c cc7d 2fbc
00000050: 8de1 b6bd 5981 7f3d 7a05 6d3c d1b0 fbba
00000060: 1bf5 40bd ed2a 95b9 540e aabd 1882 d3bd
00000070: d411 90bd a1c6 bbbc b9ab 7a39 691f fd3e
