train_script/weights/GCNEdgeBased_model300_Aug_24/63.pth (torch, 120987 bytes, 51 tensors)

convN1.self_map.weight f4 [32, 13]
00000000: 5e99 0400 6e91 0e00 ea1c 0d00 2f81 0f00
00000010: 327d 0e00 2455 1100 b810 0e80 b110 0e80
00000020: ca2b 0a80 b34d 1300 5901 0000 e7a3 0800
00000030: 6c0e 0a80 403f 0700 60c6 0b80 0a48 1580
00000040: 30f0 0300 43e1 0600 566d 0900 ac32 0d00
00000050: 4d01 0300 8f61 0a80 629b 0400 e5f7 0180
00000060: 0678 1500 b6ef 0b80 2e2c 0a00 ee29 0300
00000070: 725d 0400 4aed 0900 3c3a 0b80 2092 0c80
00000080: 69a1 0600 ae15 0980 4b86 0d00 fef3 0e80
00000090: 3806 0880 8492 0d80 6da8 0d80 c835 0480
000000a0: 5b2a 0480 4d0d 0880 bcfa 0d80 75d1 0b00
000000b0: cb63 0380 f427 0380 3ed4 0600 a099 0d00
000000c0: d7ce 1500 0d55 0000 60d4 1080 fe33 0580
000000d0: 6108 1180 db6d 0380 fd7a 0b80 ec7d 1400
000000e0: b009 0e80 5870 0780 d660 0680 d19f 0a00
000000f0: 3a5f 0500 5831 0a80 7e91 0d00 a8d9 0800
00000100: 9ecd 0a80 dfb3 0e80 4d60 0c80 71a6 0480
00000110: 6482 0800 9f24 0380 043f 0f80 3d69 0980
00000120: 8260 0300 da8d 0400 37b3 0080 62ef 0780
00000130: 8b95 0980 7c15 0400 6f3d 0280 3bf8 0680
00000140: 4f02 0b00 c2e4 0100 924c 1400 c048 1080
00000150: 5cd9 1300 5a8d 0f00 9bfa 1280 a112 1600
00000160: 0c74 0700 e6c7 0980 2b71 0900 2595 0c80
00000170: b1a8 0380 4814 0300 4488 1300 017d 0100
00000180: b5e5 0880 0ff8 0800 c261 0400 ca02 1280
00000190: e3fb 0c00 23ed 0d00 c4b9 0980 b39f 0d80
000001a0: 9386 0080 d57a 0180 4472 0800 78d3 0180
000001b0: 38d2 0b80 e1c5 0680 2cb0 0d00 0369 0a80
000001c0: e067 0b00 679e 0c00 fcf0 1100 208c 0b80
000001d0: a58d 1400 9f36 0e80 c4ac 1480 22f9 0500
000001e0: 1fb7 0d80 532c 1080 e18e 0900 1d5e 0100
000001f0: 85a8 0600 0b64 0080 152d 0600 a686 0d00
00000200: b74d 0f80 640e 0500 1e37 1080 6977 0200
00000210: 8c30 0280 583e 0800 2b4e 0a00 f32f 0a00
00000220: 6139 0e80 9746 0180 7382 0500 37ec 0900
00000230: 578c 0b80 55e3 0900 d505 1500 5cc9 0200
00000240: 193c 0680 5ebf 0680 4eed 0600 4f52 0600
00000250: ffad 0200 27cf 0100 a8cd 0280 a6ed 0300
00000260: 45f6 0f80 74ef 0b80 f90c 0d00 7141 0900
00000270: b312 0400 57d9 0d00 8f71 1000 9c55 0d00
00000280: 536d 0200 2f1f 0e00 a699 1080 c688 0b00
00000290: 66c3 0a80 0963 0100 e7c8 0c00 6d12 0000
000002a0: 4f51 0900 da55 1300 8628 0200 e13a 0a00
000002b0: ffd3 0e80 b36f 1100 9068 0780 68ba 1200
000002c0: 2914 0100 cd22 0d00 8a62 0680 65ad 0a80
000002d0: 6a37 0100 35ef 0a00 df23 0880 9914 0d80
000002e0: de7e 1380 c1dc 0480 3bcd 0380 f935 0480
000002f0: bb31 0b80 88a0 1080 52b3 0280 b712 0d80
00000300: 3f21 0d00 ef11 0a00 8abb 0800 d9a7 0d80
00000310: a4da 1280 297b 1080 dc3a 0f00 58f0 0980
00000320: 5f38 0800 e0e1 0480 d90c 1080 703a 0c80
00000330: 09d4 0d00 b83d 0b80 9f22 0a00 7474 0c80
00000340: 8ac8 0600 2acb 1200 ac92 0380 69f5 0a00
00000350: 33f2 0980 76f4 0f80 f44e 0400 0a82 0980
00000360: 2a18 0f00 9d60 0480 3d90 0880 d515 0480
00000370: 4354 0300 be89 0780 4176 0e00 4606 0580
00000380: 5a0c 0e00 7f02 1300 955c 0a80 b3c1 0300
00000390: 83a9 1300 5210 0c00 ae60 0280 891a 1180
000003a0: d07b 0a80 cba7 0c00 4476 0e00 6f25 0500
000003b0: db60 0c00 9773 0380 9005 0600 4f17 0d80
000003c0: 04b1 0a00 f155 0d00 b962 0c00 1749 0580
000003d0: db7e 0900 b8cd 0000 a261 0200 2f38 0b00
000003e0: 8e98 0380 9b91 0780 81a1 0880 6a0d 0680
000003f0: d479 0d00 7ba5 0300 d152 0180 4e94 0600
4.2236e-40 1.337867e-39 1.204234e-39 1.423875e-39 1.330609e-39 1.591746e-39 -1.291695e-39 -1.291685e-39
-9.34064e-40 1.772748e-39 4.83e-43 7.93481e-40 -9.23529e-40 6.65538e-40 -1.081354e-39 -1.954388e-39
3.6167e-40 6.31822e-40 8.65742e-40 1.212039e-39 2.75973e-40 -9.53352e-40 4.23083e-40 -1.80763e-40
1.971602e-39 -1.096183e-39 9.34204e-40 2.90548e-40 4.00864e-40 9.11643e-40 -1.031081e-39 -1.154446e-39
6.08916e-40 -8.34297e-40 1.242037e-39 -1.373225e-39 -7.36915e-40 -1.246421e-39 -1.254281e-39 -3.86635e-40
-3.82536e-40 -7.39455e-40 -1.283808e-39 1.08533e-39 -3.11305e-40 -2.89839e-40 6.27151e-40 1.248972e-39
2.002746e-39 3.051e-41 -1.545554e-39 -4.77829e-40 -1.564209e-39 -3.14915e-40 -1.05431e-39 1.881882e-39
-1.289172e-39 -6.8315e-40 -5.85751e-40 9.75686e-40 4.93338e-40 -9.36056e-40 1.246054e-39 8.12764e-40
-9.92117e-40 -1.350223e-39 -1.136572e-39 -4.2705e-40 7.8146e-40 -2.88644e-40 -1.400138e-39 -8.64272e-40
3.10127e-40 4.18229e-40 -6.429e-41 -7.28723e-40 -8.80165e-40 3.75049e-40 -2.05709e-40 -6.40061e-40
1.011019e-39 1.73898e-40 1.864178e-39 -1.495466e-39 1.822848e-39 1.42824e-39 -1.742939e-39 2.027064e-39
6.84478e-40 -8.9823e-40 8.67116e-40 -1.155529e-39 -3.36022e-40 2.82782e-40 1.793757e-39 1.36678e-40
-8.17087e-40 8.2367e-40 4.02411e-40 -1.65404e-39 1.192386e-39 1.27893e-39 -8.9316e-40 -1.251151e-39
-4.8276e-41 -1.359e-40 7.75675e-40 -1.67696e-40 -1.085603e-39 -6.21999e-40 1.25706e-39 -9.56026e-40
1.047454e-39 1.15885e-39 1.647652e-39 -1.060458e-39 1.887522e-39 -1.305291e-39 -1.898687e-39 5.4855e-40
-1.259553e-39 -1.485268e-39 8.77775e-40 1.25597e-40 6.11466e-40 -3.5889e-41 5.67185e-40 1.242164e-39
-1.405411e-39 4.6434e-40 -1.48914e-39 2.26507e-40 -2.01086e-40 7.57049e-40 9.46396e-40 9.35556e-40
-1.30628e-39 -1.17158e-40 5.05974e-40 9.11257e-40 -1.060535e-39 9.08071e-40 1.930638e-39 2.55905e-40
-5.72572e-40 -6.19663e-40 6.36142e-40 5.8054e-40 2.46089e-40 1.66148e-40 -2.57447e-40 3.60759e-40
-1.465877e-39 -1.09609e-39 1.198515e-39 8.49995e-40 3.7405e-40 1.271828e-39 1.510105e-39 1.224572e-39
2.22889e-40 1.296884e-39 -1.524487e-39 1.059256e-39 -9.88451e-40 1.27363e-40 1.174096e-39 6.61e-42
8.55687e-40 1.775672e-39 1.98208e-40 9.39477e-40 -1.361747e-39 1.601274e-39 -6.80358e-40 1.719909e-39
9.9068e-41 1.206346e-39 -5.86362e-40 -9.80557e-40 1.11714e-40 1.004166e-39 -7.47552e-40 -1.20125e-39
-1.790386e-39 -4.46534e-40 -3.4913e-40 -3.86704e-40 -1.02803e-39 -1.526956e-39 -2.47999e-40 -1.200575e-39
1.205788e-39 9.24788e-40 8.0196e-40 -1.254074e-39 -1.731472e-39 -1.51355e-39 1.398647e-39 -9.12739e-40
7.54906e-40 -4.4837e-40 -1.473977e-39 -1.12299e-39 1.269925e-39 -1.032331e-39 9.30775e-40 -1.143801e-39
6.22953e-40 1.72592e-39 -3.28122e-40 1.006392e-39 -9.13404e-40 -1.465229e-39 3.95665e-40 -8.73169e-40
1.386201e-39 -4.02e-40 -7.86427e-40 -3.75174e-40 3.05734e-40 -6.92261e-40 1.328118e-39 -4.61428e-40
1.290128e-39 1.74577e-39 -9.51567e-40 3.44993e-40 1.805684e-39 1.10788e-39 -2.18353e-40 -1.570722e-39
-9.6277e-40 1.162219e-39 1.328123e-39 4.72606e-40 1.136771e-39 -3.16972e-40 5.53008e-40 -1.202223e-39
9.81856e-40 1.224691e-39 1.137441e-39 -4.85397e-40 8.72027e-40 7.3798e-41 2.18695e-40 1.030345e-39
-3.30233e-40 -6.95082e-40 -7.9262e-40 -5.55825e-40 1.237565e-39 3.3487e-40 -1.21544e-40 6.04215e-40

convN1.self_map.bias f4 [32]
00000000: 6217 16be 5b0c a7bd 48aa b5bd 2bcd d3bd
00000010: 0e7b 13be 1a2d c5bd 60d0 39be db4a f6bd
00000020: cf22 f7bd 0205 f1bd a38c 06be f287 f5bd
00000030: 3a78 46be 44ed d7bd dc8d ddbd 3f23 ebbd
00000040: 724b 11be eacb 41be 6e10 8cbd 5646 bcbd
00000050: 9fba 00be 076f 34bd 8b60 82bd e6a9 f8bd
00000060: 6bc8 f6bc bbdf b9bd 2b6e e6bd 61e0 79be
00000070: 185e 09be ae79 9abd 022d e3bd 7dc2 91bd
-0.14657357 -0.081566535 -0.08870369 -0.10341867 -0.1440241 -0.09627743 -0.18145895 -0.12025996
-0.12067186 -0.11768533 -0.13139586 -0.1198882 -0.193818 -0.10543302 -0.10818073 -0.11481332
-0.14188936 -0.18925443 -0.06839071 -0.09193103 -0.1257119 -0.044051196 -0.0636607 -0.121417806
-0.030124864 -0.09075876 -0.112514816 -0.24402 -0.134148 -0.0754274 -0.11092569 -0.07117174

convN1.pass_map.weight f4 [32, 13]
00000000: 742f 823d eea9 c8be 230a 473d e72e 84be
00000010: 0ef0 1cbe 2126 45bc 48b1 1b3e fe4d 5fbd
00000020: 1141 71be 404c 76bd cfc0 243d 8e42 f3bc
00000030: 6511 ad3e 4dbd 153e 5a5b 06be 7f78 83bd
00000040: 99ea 4ebc 5172 48be 1a11 a1bb 78b7 3dbc
00000050: 5a9b d9ba 3120 68bc 1fee 7b3a d8b2 78bc
00000060: 397e 873b 44ca 8f3d 7c7c 8fbe 8444 333f
00000070: 4a92 c33d b1d8 a7bd 2f71 9ebd 5a4e 77bc
00000080: 1c11 1c3d 448f ce3a 394c 5e3c cb09 2fbd
00000090: d1f3 14bc 14f4 adbc cd32 ba3c 910b 793e
000000a0: 482b 68bd 0cb6 0ebf 3f04 0dbc 40c5 a7be
000000b0: 34d4 18be 518d 47bd daa8 043d 1fd3 a9bd
000000c0: 17ec c03c 13b1 6dbc f252 043c 11a5 a6be
000000d0: 98b7 3d3e f724 c9bc c8bf 87bd ace6 a63c
000000e0: dfe8 4cbe 0f66 5cbd 10a4 ebbd 740f 033d
000000f0: cf00 f43c 721a 233d fb50 9d3d 1c5e 2bbe
00000100: 11da 11be 8dc1 6fbd 991d 913c 116c 793e
00000110: e77e 1e3c 6ec0 3ebc f7eb 8f3c 2275 343d
00000120: 58a7 a0bd 50fd d73c eaaa 5d3c 3817 0fbd
00000130: cac0 1f3d ceaf 5d3e b182 afbc f05b b2be
00000140: e1fb 19be e6cb d23d 4d20 923e 0df9 533d
00000150: 14e6 5f3d 98bd ccbc 6795 993a d097 f73b
00000160: ff54 3dbd 43f0 3ebc 101d c8be 566f c7bb
00000170: e6b9 203d 017b 91bd 46cd f2bd c39f bb3e
00000180: 6678 ee3c e837 bebc 4cf2 14be d0ba 0ebb
00000190: 13e9 59be d321 65bd f74f 8f3c df2e a5bd
000001a0: ec31 52be cee9 a03d aabd f4bc 261d 00be
000001b0: 67a3 2e3f 9908 b23d 2aaa 1c3d 7463 ac3c
000001c0: 8568 593b e186 163c ba89 213d fca3 89bc
000001d0: 94bb a1bd cfe5 cd3c 2c2f 3dbd 2cf1 523d
000001e0: eed5 bcbd 1059 c23d 63f6 8c3c 2e5c 8fb9
000001f0: 8698 023c 7054 933e 2dcb 78bd f0e4 d43c
00000200: 9e55 3f3b 12ff c23d 5884 53be 0b58 803e
00000210: a1f3 fc3d c947 023e 33d4 883f e827 803d
00000220: 6ef3 0e3d a597 ecbb de7e e63a 1efb 21ba
00000230: 39ba d0bc 539f 543b dbe0 df3e d79c fcbd
00000240: 49df ba3d db78 c23e 8450 e23d 40a1 493e
00000250: a8fe bf3c 3098 b43d cbda 643e 6fe6 043c
00000260: 257d 21bd cb29 cf3d e70a 5f3d 7f3c 36be
00000270: fb18 063f 1991 81bd 41a4 d0bd 3eb9 a9be
00000280: 86c9 3dbe 3e29 d53c 995a cfbc 1de6 93bd
00000290: 9b37 2ebd b69a d0bc 00c9 ab3d 8e50 643c
000002a0: b560 09b9 2b96 573d fec6 a63c c2df 26bd
000002b0: 4a47 81be 937c abbd c60a e6bc 7e2e b33d
000002c0: 5a9e 8b3d f164 3b3c da4e 0fbd 5c1b f3bd
000002d0: f13e dbbd 6f56 93bd 92bf 75bd 5603 24bc
000002e0: c81b f3bd 98aa 66be 0001 a43e 3fee 4b3d
000002f0: 0d54 6fbc 0512 a4bc 4d40 b43b e1f3 843b
00000300: f5d5 fc3c 7bac 6dbc 7b2f a33e b433 46bd
00000310: 8253 c13d f9ad d03d d160 133e 7438 df3b
00000320: b18b 3fbb 25d7 203c 26c0 17bc 31a5 1d3c
00000330: 4628 7bbc 3d4f 78bc 16c9 c93b f36a d83c
00000340: 0536 153d 63ad 343d bfa0 2b3e fb94 18bd
00000350: f164 4fbe aa20 24bd c91e 6fbe afe5 153d
00000360: 34b2 3abe 29e3 083d 3b1a 10bd 549a d33c
00000370: 7f55 03be 2ab0 003f cc47 04bf 1efa 39be
00000380: 1816 cdbd 131d 7d3e 3fb1 7abb 362a 8fbd
00000390: 6c99 b33d 654d ad3d 13a9 33bd 0fd8 34bc
000003a0: fde4 a83c 0fb0 103e e3fb 74be 7816 7abe
000003b0: 8937 ab3e 67fa a03d 26df 003f be31 893e
000003c0: 044e 46bc 98d5 743b feb8 3b3d 2be6 e53c
000003d0: 4374 033a c665 4e3c 3bff a7bd 4b95 43bd
000003e0: 2db5 b83e 0a7d 683e 49a8 923d a3d8 8c3e
000003f0: b0c4 07be 9eae d3bc fff6 06bd 5334 3cbd
0.06356707 -0.39192146 0.04859365 -0.25817034 -0.15325949 -0.012033016 0.15204346 -0.05451774
-0.23559977 -0.06013131 0.04022294 -0.029694822 0.33802333 0.14622994 -0.13120785 -0.06419467
-0.012629175 -0.19574858 -0.0049153687 -0.011579387 -0.0016602085 -0.014167831 0.0009610373 -0.015179358
0.00413492 0.07021001 -0.28024662 0.7002642 0.09549387 -0.081956275 -0.07736432 -0.015094364
0.038102254 0.0015759249 0.013567978 -0.04273395 -0.0090913335 -0.02123455 0.022729302 0.24320818
-0.0566819 -0.5574653 -0.008606969 -0.32767677 -0.14924699 -0.048718754 0.032387592 -0.08292221
0.023550076 -0.01450755 0.008076416 -0.3254781 0.18527067 -0.024553759 -0.06628376 0.020373665
-0.20010708 -0.05380827 -0.11505902 0.03199716 0.029785542 0.039820142 0.076814614 -0.16735119
-0.14243342 -0.058534194 0.017714309 0.2435763 0.009673811 -0.0116425585 0.017568571 0.04405702
-0.07844418 0.026365906 0.013529519 -0.034934253 0.039002217 0.21649095 -0.021424623 -0.34835768
-0.1503749 0.10292797 0.2854027 0.051751185 0.05466278 -0.02499275 0.0011717499 0.0075559393
-0.046223637 -0.011653963 -0.39084673 -0.0060862703 0.039239787 -0.07103539 -0.11855559 0.36645326
0.029110145 -0.023220018 -0.14545554 -0.002177883 -0.21280317 -0.05594046 0.017494185 -0.080655806
-0.20526856 0.07857095 -0.029875595 -0.12511119 0.6821808 0.08693046 0.03824822 0.021043517
0.003317387 0.009187431 0.039437987 -0.016801827 -0.07897106 0.025133995 -0.046187565 0.05149953
-0.09220491 0.094896436 0.01720733 -0.00027343765 0.007970935 0.28775358 -0.06074064 0.025988072
0.002919532 0.09521307 -0.20655954 0.2506717 0.12351156 0.12722696 1.0689758 0.062576115
0.03490012 -0.007220226 0.0017585417 -0.0006179082 -0.025479423 0.0032443597 0.4372624 -0.12334602
0.091246195 0.3798283 0.110505134 0.19690418 0.02343686 0.0881809 0.22349088 0.00811158
-0.039425988 0.10115393 0.054453757 -0.17796515 0.5238187 -0.06326503 -0.10187579 -0.3314914
-0.18533906 0.026020642 -0.025311755 -0.07221625 -0.0425335 -0.025464397 0.08387947 0.013935221
-0.00013101364 0.052633446 0.020358559 -0.040740736 -0.25249702 -0.0837337 -0.028081309 0.08749102
0.068173125 0.0114376405 -0.034987308 -0.11870453 -0.107053645 -0.0719422 -0.05999715 -0.010010561
-0.11870533 -0.22526014 0.32032013 0.049787756 -0.014607442 -0.020028124 0.0055008293 0.004057393
0.030863741 -0.014506455 0.31872162 -0.04838915 0.09439756 0.10189433 0.14392401 0.0068121497
-0.002922755 0.009816919 -0.00926212 0.009621904 -0.015329426 -0.015155611 0.0061580045 0.026418185
0.03642847 0.044110667 0.16760539 -0.037251454 -0.2025335 -0.040070213 -0.23351587 0.036595996
-0.18232042 0.03341976 -0.035181265 0.025830425 -0.12825583 0.50268805 -0.51672053 -0.18161818
-0.1001398 0.24718122 -0.003825262 -0.06990473 0.08769497 0.084620275 -0.043862414 -0.0110378405
0.020617003 0.14129661 -0.23924212 -0.24422634 0.33440807 0.078602605 0.503405 0.26795763
-0.012103561 0.0037358757 0.04583072 0.028063854 0.0005014578 0.012597507 -0.08202978 -0.0477498
0.36075726 0.22703949 0.07161004 0.2750903 -0.13258624 -0.0258401 -0.032950398 -0.045948338

convN1.pass_map.bias f4 [32]
00000000: 67fd 15be 0d5c a6bd a33c b5bd 17d4 d2bd
00000010: 716f 13be 6ab7 c4bd ffb0 39be d916 f6bd
00000020: 5539 f6bd 93e0 f0bd 6e76 06be f75b f5bd
00000030: 5824 46be 774c d8bd 2798 dcbd 0b28 eabd
00000040: 3692 11be 8092 41be 3388 8bbd d5b9 bbbd
00000050: f83e 01be d1f3 33bd 41b2 81bd 512c f8bd
00000060: d115 fabc 1e3f b9bd 2408 e6bd 86ed 79be
00000070: 31ea 08be 086e 9abd 59f8 e2bd 8ddb 91bd
-0.14647447 -0.08123026 -0.08849456 -0.10294359 -0.1439798 -0.09605296 -0.18133925 -0.120160766
-0.12022654 -0.11761584 -0.13131115 -0.119804315 -0.19349802 -0.105614595 -0.10771208 -0.11433419
-0.14215931 -0.18903542 -0.06813087 -0.09166304 -0.12621677 -0.043933693 -0.06332827 -0.12117828
-0.030527981 -0.09045242 -0.112320215 -0.24407014 -0.13370587 -0.07540518 -0.11082525 -0.07121954

convE1.self_map.weight f4 [32, 13]
00000000: 7a53 5a3d da04 873e 76f4 d53d 95d8 8bbe
00000010: 6cf6 ccbe 6dc6 94bd 7254 bebc 7195 853d
00000020: 755a 76bc 08c2 10bd ff17 603e 6d89 59bc
00000030: 28ac 31bd 1d2a 423e 09b6 bf3d a15d 04bf
00000040: 97b8 d43d e446 a3be 1479 49bc 188b bc3c
00000050: 6f95 013d 63b6 d6bd d477 7abb fff4 8c3c
00000060: eac7 383c 291f 0bbb a718 28bd ff3e 973c
00000070: 25db eb3c 8ca8 2a3f d8ce 953d 6e21 99bc
00000080: f693 003d e0b7 6cbc 9d06 0ebd 20f6 0ebd
00000090: 6aa9 8ebe 84fc 0abd 8ead df3e 2d11 833d
000000a0: 70c1 07be 15eb d3bc 5c50 d43c 033f 9bbd
000000b0: 6222 d8bc 5808 3fbe a901 063d 6f42 13bc
000000c0: e9c1 9a3b 0a2b 863b fddb af3b 3fa7 aa3e
000000d0: 119d 873f 9c6c 2f3e 9a22 893b 2865 a83d
000000e0: 663d 023e a2f7 253d b2e3 333d 5dbc 4cba
000000f0: ded2 09bd b6ce 053c d269 4dbc db0a 0d3b
00000100: dd9d 523d dedf a33e 01f8 db3e d865 8a3c
00000110: 17ef 773d d785 50be 9659 a2be 0721 033d
00000120: 049a 283d 9833 5bbc e61d 55bb 6ea3 e2bc
00000130: a580 fd3c b5f9 063c f55e d53e 584e 51bd
00000140: d5ee a7be 708f 76be 513c 57be e210 85bd
00000150: 3e52 2b3d 9ac8 5dbd 189b 48bc f9dd d03c
00000160: d73b ad3d d53a abbc bbf3 a9bd 2029 823e
00000170: cb88 6abe 121c 4d3d 9cd9 a23e ba3d db3d
00000180: a79b debd 0e79 a13c 9740 993c b197 acbb
00000190: bdfb a8bb f809 99bd 564a b83d e918 e03d
000001a0: 6983 173e b28e d9bc 5d8b 80bd 79bf a3bd
000001b0: 331c 913d 6178 0ebd b2de f9bd 0f75 893d
000001c0: 02c2 48bc 808f bdbc f959 cd3c b15e 213c
000001d0: b85a 6fbf 958f 893e 8ad7 fd3d e880 d43e
000001e0: 9c2b 633e 23dc 973e db45 c2bc 1914 40bc
000001f0: de90 ca3d 08fa 4abe 20ce 6a3c a02f a9bd
00000200: 4a4b 823d 40ec eabc 0c5d 11bf 5a00 7e3e
00000210: 6f9e 4d3c 572c 6ebd 2dce b8be a6ed 4a3d
00000220: 3b81 af3d f14c fdba f657 d8bc ab8f 993c
00000230: c313 653c 1223 53bc be90 0cbe 6426 f73d
00000240: 0b5a 1cbe ce36 923d c336 263d c1d5 6c3e
00000250: e69c 11ba d506 893c e506 85bd e159 5b3d
00000260: 78a8 813d 81b3 b6bc c0ed 393e d239 dc3d
00000270: 4067 cf3e 7356 7fbe 34ba ab3d 92cf c23e
00000280: a5f9 aabd e91f 93be 090c 313d 467c ca3c
00000290: 1f27 efbc eeb5 3c3c de65 c6bd 3e09 28be
000002a0: 4d2e 9fbd f74f b03e 0f2a 89bc d1f1 c93e
000002b0: 4f03 08bf 216c 613d 8ed8 8f3d 577c 34bc
000002c0: 2048 60bd 3ffb 71bd f8fa 823c 88bf 733d
000002d0: d473 5bbd 6ded 82be 1674 063e 0c64 3bbf
000002e0: ec9f ce3e 8c92 413f 8fb4 8a3e ee02 6cbd
000002f0: fb3e c6bb f5b8 afbc 5933 58bc 6fd6 50bb
00000300: d728 10bd eb3a a03b 1595 9bbd 3f20 ac3d
00000310: fdec 713e bad7 373c 096c bb3e 4703 973e
00000320: d1e6 14bd a5fe f13c 3709 2ebd c1a7 0ebc
00000330: f71c 0a3b fe2b e4bd 9b29 bdbd a464 07be
00000340: f9c3 663e 0365 86be 7bff ac3e 6b09 fbbb
00000350: bce3 893e 6011 8e3d 1505 a9bd 324c 7e3c
00000360: 3d7b 703e fb19 4b3a 6592 b8bc e8c6 2cbc
00000370: 167e 8f3e abcf 793d 9f38 283d c0df 2dbd
00000380: fb27 053d 64f7 553c 9ba5 ff3b 397a 8d3c
00000390: 10bb 6dbc f0f6 da3b 00aa 073b b7f8 e9bb
000003a0: 345b 00bb b215 5ebb 178b bd3d af87 073e
000003b0: f7af 0ebe 921a 4dbe 6c06 c8bd 6e1f 37bd
000003c0: 0ac1 ebbd ac6d 3fbd a3e6 1c3d acf2 d8bc
000003d0: 1345 273a 027a b13d c95e eabd 487f 3e3e
000003e0: fc47 01bf a9d6 083e 85ef 64bf 21c1 d3bd
000003f0: 3a80 2abd 2884 cebb 54ea e1bc f9bb 9e3b
0.053302266 0.2637089 0.10447018 -0.27313676 -0.40031755 -0.07264409 -0.023233626 0.06522644
-0.015036215 -0.035341293 0.21884154 -0.013277394 -0.04337707 0.18961377 0.09360892 -0.51705366
0.1038677 -0.31890023 -0.012296934 0.023015544 0.03163665 -0.10484006 -0.0038218396 0.017206667
0.011278132 -0.002122829 -0.041039135 0.018462656 0.02879102 0.6666343 0.07314843 -0.018692698
0.031391107 -0.014448136 -0.034674276 -0.03490269 -0.27863628 -0.033932224 0.436871 0.063997604
-0.13257384 -0.025868932 0.025917225 -0.07580378 -0.026383583 -0.18655527 0.032716427 -0.008988007
0.004722823 0.004094486 0.005366801 0.33330724 1.0594808 0.17131275 0.004185033 0.08222419
0.12718734 0.040519364 0.04391832 -0.0007810051 -0.033648364 0.0081669595 -0.012537437 0.0021521363
0.05142008 0.32006735 0.4296265 0.016894266 0.06053075 -0.20363556 -0.31708974 0.03201392
0.041162506 -0.013379 -0.0032519042 -0.02766582 0.030945132 0.008238246 0.4167401 -0.051100105
-0.32799402 -0.24078155 -0.21019103 -0.06497361 0.04182648 -0.054146387 -0.0122440085 0.02549647
0.08458679 -0.020902077 -0.08298441 0.25422 -0.22903745 0.050075598 0.31806648 0.10705133
-0.10869532 0.019711044 0.018707557 -0.0052671065 -0.0051569627 -0.074726045 0.089985535 0.10942251
0.14796223 -0.0265573 -0.062765814 -0.07995505 0.07085457 -0.03478277 -0.12200679 0.0671178
-0.012253286 -0.023139715 0.025067316 0.009849236 -0.934978 0.26867357 0.123946264 0.41504598
0.22184604 0.29660138 -0.02371495 -0.011723542 0.098909125 -0.19821942 0.014331371 -0.08261037
0.063620165 -0.028677106 -0.56782603 0.24804822 0.012549981 -0.058147755 -0.360948 0.049543045
0.08569571 -0.0019325298 -0.02640913 0.018745264 0.013981762 -0.012886779 -0.1372709 0.12067869
-0.15268724 0.071393594 0.04057957 0.23128416 -0.0005554691 0.01672689 -0.06495456 0.053552512
0.06330961 -0.022302391 0.181571 0.10753216 0.4050846 -0.24935322 0.08385125 0.3804899
-0.08348397 -0.28735283 0.04322437 0.024717461 -0.02919346 0.011517985 -0.096873984 -0.16409776
-0.07772503 0.34436008 -0.016743688 0.39442304 -0.5313005 0.05503476 0.070237264 -0.011015973
-0.054756284 -0.059077498 0.015988812 0.05950883 -0.05357726 -0.25571766 0.13130221 -0.73199534
0.40356386 0.7561424 0.2709088 -0.05761998 -0.0060499883 -0.0214505 -0.013195836 -0.0031866094
-0.035195198 0.004889836 -0.075967945 0.08404588 0.2362556 0.011220867 0.36605862 0.29494688
-0.036352936 0.02954037 -0.042489257 -0.008706988 0.0021074393 -0.11141203 -0.09236451 -0.13221985
0.22535695 -0.2624894 0.33788666 -0.007661035 0.2693156 0.06936908 -0.082529224 0.015521096
0.23484512 0.0007747707 -0.022530744 -0.01054547 0.28025883 0.060989063 0.041069623 -0.042449713
0.03250883 0.013059471 0.007801724 0.017270194 -0.014509931 0.0066822693 0.0020700693 -0.007140245
-0.0019585611 -0.0033887443 0.09255045 0.13235353 -0.13934313 -0.20029667 -0.0976685 -0.044707708
-0.11511429 -0.04673545 0.03830589 -0.026482902 0.00063808373 0.08665849 -0.1144386 0.18603241
-0.50500464 0.13363136 -0.8942798 -0.10339571 -0.041626193 -0.0063023753 -0.027577557 0.0048441854

convE1.self_map.bias f4 [32]
00000000: 4f8f 503b ca2e 253b 821c 8f3c 6fcf 3c3c
00000010: 46ac 62be fe7a f23b dc5e 643c 8570 023c
00000020: e818 3abc 2efe 06bb dbd4 0dbd ebda 853b
00000030: f76e 223d 26ff 0f3d 1b4d d7bc bc65 243b
00000040: 68a5 04bb d19e 03bd 2c50 49bc 7eaa 38bd
00000050: f26e 123c c2fd c5bb 452e bf3b 89b2 98bc
00000060: bad7 b8bd 2aa3 603c 0346 3bbc 8289 3f3d
00000070: f1f3 58be 4d2e cbbc ccef 3bbd bffd 9fbc
0.00318237 0.002520489 0.017469648 0.011524065 -0.2213603 0.0073999157 0.013938632 0.007961397
-0.011358477 -0.002059828 -0.034626823 0.004084935 0.039656606 0.035155438 -0.026281884 0.0025085052
-0.0020240191 -0.03213388 -0.012287181 -0.04508447 0.008937584 -0.006042213 0.005834373 -0.01863982
-0.090255216 0.013710776 -0.011430266 0.046761997 -0.21186806 -0.024802351 -0.045882985 -0.019530175

convE1.pass_map.weight f4 [32, 64]
00000000: 8f44 34be 7aac cfbd d2f6 b7bd 733c 033e
00000010: 9dbb 6cbe 4127 9b3e 93f6 83bd bc0c b03e
00000020: cf2a 243e e922 c7bd 4623 3cbd 19d6 6bbe
00000030: 130d 7d3e 341c d63e d46e 5bbc 3f66 2cbd
00000040: baa4 32bd 7dff 3cbe ad14 7a3e fbfe c43d
00000050: 14d8 f6be 16f3 c53e da68 acbd c393 043e
00000060: 0d37 8dbe c4ce 813e 9c82 273e 1649 9b3e
00000070: 2b27 c73d 6c63 86be 9417 5f3e 6101 773e
00000080: cf83 b1be 9ed7 48be fef1 60be 0ce3 14be
00000090: 8b43 3cbe b3f8 82be c426 c5be 724a 6fbe
000000a0: 5970 aabe 2941 60be f469 ccbe 622f c0be
000000b0: eb10 c4be 13ad 2abe a205 03be d912 84bc
000000c0: 14fb 0bbf 20b2 29bf 7b7a e3bd 84fa 0cbc
000000d0: 7e9e f5be 15ea a0be 5cb1 02bf 9a30 f4bd
000000e0: fc50 96be 2177 bcbd 9221 a2be 60f2 76be
000000f0: f802 38be 6ddf cfbe 43cc 853c b8cd 6fbe
00000100: 2485 e63e 6b4d ffbd 5c12 b4bd 578d 8bbe
00000110: 7cd2 4cbd 691f f93d be15 0cbe bd45 573e
00000120: 45ec 45bd 1def 82bd 50c2 9d3d f55e db3d
00000130: bd1a 3d3e 1265 123e e445 72bd 1589 d93d
00000140: 2241 9a3e 00cf 41be 99e2 33bd 2de0 523d
00000150: ef18 c2b9 7543 c73d fdf3 5f3d 7c07 5abd
00000160: 309c 22bf 9a29 3abe 818c 133e 86c5 0a3e
00000170: 04fb ef3d 2500 f93d 8757 41be 7d4a 28be
00000180: f41d eebe 50ca 7abe db13 afbd d5a9 08be
00000190: 2548 89bd 7be1 e83d 76a7 94bd e997 afbd
000001a0: ebe0 9c3d a2be 983c f0d7 aebd b962 adbe
000001b0: 4769 42be 16b0 2cbc c9f4 0abe 12aa a4bd
000001c0: b675 4fbe c2c4 df3c 6c11 933d 989a 70be
000001d0: 933a bd3a 8296 52be a415 bdbd 2819 a7bc
000001e0: d633 f63d 3013 92bd 17b3 b3be ea2d 15bd
000001f0: 9b1a 643c a310 80bd ce0f 633c d208 e2bd
00000200: 57c0 69be 9420 3d3d 6d9e 1cbe 59e7 4a3d
00000210: 3623 6c3d 0521 b5be 26d1 5bbe ea60 083c
00000220: 8f57 593a 2e29 5c3d 3169 31be 102b 5c3e
00000230: 1451 983e ffd1 4dbe a2b1 1f3c 248e 84bd
00000240: 1281 b6be 56d1 bdbd c307 5fbd 1579 d23d
00000250: b5fa 24bf 3920 c2bd 9811 41bc 77b1 99bd
00000260: 8415 05be a00b 9fbd db61 da3d 4783 ecbd
00000270: 6b41 5d3d fe75 23be f22e 853d 3746 bd3e
00000280: 48d6 b0be b511 1abe dfe5 b3bd 9adc bcbe
00000290: f0fe 06be d793 86be aba5 d8be 7846 17be
000002a0: 0fdc b7bd 5705 4bbe 8972 b6be b3a5 5abd
000002b0: 5a9d 8cbe 504b c8be f60b 35be 6864 fabd
000002c0: fb59 44be f768 c5be d21f 45be 97d7 2e3e
000002d0: 1cb4 14be e527 b4be 3b9d 69be d3ac bbbe
000002e0: 21df 70bb fa2f 62be 85dc 7fbe 6e6a a5be
000002f0: 2007 5fbe 439d a6bd 06c9 5cbb 1dab 63be
00000300: cfff 81bd b4ed a4bd ab97 13be 3f77 913e
00000310: 4740 a4bd 66b4 083e a0b6 c3bd 3db0 043e
00000320: eec7 3d3e d2bf 1cbe f66e 1c3e 9931 ab3d
00000330: 7230 a7bc f886 223d 0709 85be 8f13 b6bd
00000340: 6d9c e93d b497 a7bd f92d 763d 232c dabd
00000350: aa4b 10ba d300 ee3d 5110 b0bd 6ce8 83be
00000360: bf4f 443e db53 8fbc 3394 1dbe 743d 5bbd
00000370: ea1e 8fbe fa79 cdbc 1b27 bfbe 07a4 1e3e
00000380: 12e3 1b3d c975 c13d aee4 b53d fc13 7fbe
00000390: 84ff 023e 4bcd febd 0840 7abd fa4f aebd
000003a0: 7d6b 2cbe 52c9 283e 68a6 83be 2b93 09be
000003b0: 45e9 cabb 8423 a5bd d4e2 0c3e 94fe cd3d
000003c0: 79b8 c9bd ef62 6e3d 6212 05bd d903 d03d
000003d0: cd4c 35bc 47af 22be 29a4 e0bb 556d 543e
000003e0: aea2 27be 399a bbbc 72dd 093e e2a9 f6ba
000003f0: a6a0 9d3e 4eb5 f83d 5a68 6a3e 3cf9 19be
-0.17604278 -0.10140319 -0.08982624 0.12816028 -0.23118444 0.30303386 -0.06443515 0.34384716
0.16031955 -0.097234555 -0.045932077 -0.2303089 0.24712019 0.41818392 -0.013393123 -0.042089697
-0.043614127 -0.18456836 0.2442195 0.09618946 -0.4821173 0.38662022 -0.08418436 0.12946992
-0.27581063 0.25353062 0.16358417 0.30329198 0.097242676 -0.26247728 0.21786338 0.2412162
-0.34670874 -0.19613501 -0.21967313 -0.14539737 -0.1838514 -0.25580367 -0.38506138 -0.23368242
-0.3328884 -0.21899857 -0.39924586 -0.3753615 -0.38294157 -0.16667585 -0.12795117 -0.016122269
-0.5467999 -0.6628742 -0.11107346 -0.008604649 -0.47972482 -0.3142859 -0.5105188 -0.119233325
-0.2935866 -0.092024095 -0.31666237 -0.24115896 -0.17969882 -0.40600148 0.016332751 -0.23418319
0.45023453 -0.12465938 -0.08792564 -0.2725627 -0.05000542 0.12164194 -0.13680169 0.21022697
-0.048321027 -0.063932635 0.07703078 0.10711471 0.18467231 0.14296368 -0.059148684 0.106218494
0.30127817 -0.1892662 -0.043917272 0.051483322 -0.0003702114 0.09729663 0.054676045 -0.053229794
-0.63519573 -0.18179932 0.14409067 0.13551912 0.11717799 0.12158231 -0.18881045 -0.16434665
-0.46507227 -0.24491239 -0.08548709 -0.13346036 -0.067032136 0.11371132 -0.07258503 -0.085738964
0.07660087 0.018645588 -0.085372806 -0.33864382 -0.18985473 -0.010540029 -0.1356994 -0.08040251
-0.20259747 0.027315501 0.07181057 -0.23496473 0.0014437012 -0.20565227 -0.09232643 -0.020397738
0.12021606 -0.07132566 -0.35097572 -0.03642074 0.013922359 -0.06253173 0.013858749 -0.110368386
-0.22827278 0.046173647 -0.1529481 0.049537037 0.057650767 -0.35376754 -0.21466503 0.008323887
0.00082909403 0.05375021 -0.17325284 0.21500802 0.29749358 -0.20099638 0.009746941 -0.06472424
-0.35645348 -0.09268443 -0.05445076 0.10277001 -0.6444505 -0.09478802 -0.01178398 -0.07504552
-0.12996489 -0.07765889 0.10663196 -0.11548477 0.054017466 -0.15962979 0.06503095 0.36967632
-0.34538484 -0.15045817 -0.08784079 -0.36887056 -0.13183188 -0.26284668 -0.42313895 -0.14772975
-0.0897752 -0.19826256 -0.35634258 -0.05338068 -0.274638 -0.3911996 -0.17680344 -0.12226182
-0.1917495 -0.38556644 -0.1925042 0.17074428 -0.14521831 -0.35186687 -0.22813885 -0.36655292
-0.003675409 -0.22088614 -0.24986465 -0.32307762 -0.21780062 -0.08135464 -0.0033689155 -0.22233243
-0.0634762 -0.08053151 -0.14413325 0.2841129 -0.080200724 0.13350067 -0.09556317 0.12957855
0.18533298 -0.15307549 0.15276703 0.083590694 -0.020408843 0.039679497 -0.2598345 -0.08890449
0.11406789 -0.08183232 0.060102437 -0.1065295 -0.0005504439 0.11621251 -0.08596862 -0.2576326
0.19171046 -0.01749604 -0.15388565 -0.053525403 -0.27953273 -0.025082577 -0.37334523 0.15492259
0.038058348 0.09446294 0.08881508 -0.24909967 0.12792784 -0.124415 -0.06109622 -0.08511348
-0.16837879 0.16483048 -0.25712895 -0.13435046 -0.0061923587 -0.08063415 0.13758403 0.100583225
-0.098496385 0.05819982 -0.032488234 0.10156984 -0.011065674 -0.15887176 -0.006855507 0.20744832
-0.16370651 -0.022900688 0.13463381 -0.001881894 0.30786628 0.12143956 0.2289137 -0.15036482

convE1.pass_map.bias f4 [32]
00000000: f48d 503b 6909 253b 821c 8f3c 31d7 3c3c
00000010: 9bd9 56be fe7a f23b 0f5f 643c 8570 023c
00000020: 9c05 3abc 2efe 06bb dfd3 0dbd ebda 853b
00000030: 0972 223d 29ff 0f3d 6e71 ecbc c965 243b
00000040: 68a5 04bb d19e 03bd 2c50 49bc d412 38bd
00000050: f26e 123c b825 c6bb 452e bf3b 89b2 98bc
00000060: 818d b8bd 2aa3 603c 3d45 3bbc 6589 3f3d
00000070: 0d8b 4fbe 4d2e cbbc 26ed 3bbd bffd 9fbc
0.0031822892 0.002518261 0.017469648 0.011525915 -0.20981447 0.0073999157 0.013938679 0.007961397
-0.011353876 -0.002059828 -0.034625884 0.004084935 0.039659534 0.03515545 -0.028862681 0.0025085083
-0.0020240191 -0.03213388 -0.012287181 -0.04493983 0.008937584 -0.006046977 0.005834373 -0.01863982
-0.09011365 0.013710776 -0.011430082 0.04676189 -0.20267887 -0.024802351 -0.04588046 -0.019530175

convN2.self_map.weight f4 [32, 32]
00000000: c317 373e d455 523d f06a 88bc 2e2a b43d
00000010: e5fa d03c a9e2 043d 8161 a13b 324d f93d
00000020: eb1d 0cbe 3c19 083e 3b92 cabe 8856 353e
00000030: ebce d8be b960 a4bb f687 da3b 0104 1b3d
00000040: 8f6e 8a3d 9b31 0e3e cac0 fa3d 7e9c 4fbd
00000050: 109b 393e 15af 373b 2848 673e 9157 2f3e
00000060: 5a34 10be a42e c3bd ae86 47bd 3c9c aabe
00000070: 1f16 36be efab a73d 30e2 a4bc b99f 153d
00000080: c08b f83e 7572 113c 15da af3d 2368 773d
00000090: 3294 aa3d 2509 51be c64c adbd bc5a 4cbd
000000a0: 0b06 b23c 6b23 27be 1b5e 83be c35e 633e
000000b0: a0e8 babd e56b 9bbe 3bb9 0dbd 5285 32be
000000c0: ecc9 10be 5e41 ba3d 9f2f 233e a81c 8f3c
000000d0: d058 1fbd 5898 f6bb eeb6 9b3e 6430 3e3e
000000e0: 8f7b c7bd 8d61 92bd c3e0 41be 7ea6 a4bd
000000f0: 8152 a2bd d027 c73d 56c1 8bbd 2f57 dabd
00000100: d1e4 9abc d8df 58bc 2f9a 7c3d fdde 0ebc
00000110: 2c54 13bd fa4a 14be c995 a83d c696 373e
00000120: bf78 9d3d 48ad 323d 9f96 fbbc aaf0 6a3e
00000130: e606 33be 466a e03d f002 9e3d 944f b23d
00000140: 4263 df3c da21 ddbd 0204 82bd 843e 3b3e
00000150: 3097 a13d eec6 e13b 6e7c 75bd 3567 a83d
00000160: ca51 84bc f781 153c 54b2 6e3d 0351 e0be
00000170: 4df3 253e ebc3 b13c 97e4 963d 5ec4 d83d
00000180: 9295 433e c272 dabd 27f7 34be 0248 a4bd
00000190: 11af b4bc 83aa d4be 88a5 2d3e 5fe2 9c3c
000001a0: 2feb 3a3d b53d 8e3d 7a23 db3d 3a0c 64be
000001b0: a99c 35be c8b9 043d 2ad6 64bd 456a 153d
000001c0: 077a 33bd 4dab d63c 4f49 9c3e 716a 2e3d
000001d0: f3cb 87be 0fad c2bc d5d0 05be 56e8 32be
000001e0: 68d8 033e 1cc0 89be 431d 2ebe bb94 a1be
000001f0: 643a 03be f185 eebb 71ef 573e 263a c3be
00000200: 71e4 42af 55c3 520a fc51 0815 d7a9 60a7
00000210: 431e 1a18 2a5e 0100 6b49 c22f c05d e1a6
00000220: 2097 8104 e936 94aa 5e0b fa9c 956c c4a9
00000230: 7962 0780 14aa 8e8d 6d42 d189 be91 0680
00000240: c9a8 c7a1 1908 a79f 33b8 2588 2458 b41e
00000250: 97ac 81b2 bdaf f11b 261a d29a 13ab 0fa9
00000260: e7db 27a7 eb8e 0599 b4d8 0100 bd40 95ad
00000270: 1a69 0580 3dbb 1880 3401 7900 1aeb 462a
00000280: 0f68 12b7 2a12 f5ac 41c1 4caa 167f ccb4
00000290: 5d7d d832 2e56 52af befc 50b9 e11f afb3
000002a0: 2a9a 4932 5a69 0234 f8fa dcb5 4af1 0638
000002b0: 7af6 b3ad 37d1 14b3 b356 0030 d5da 7006
000002c0: c887 2bb0 7c4b 10b6 0903 bc33 8d51 01b7
000002d0: 5360 1db7 5f85 62b6 009a 5eb4 2357 4732
000002e0: 1a4e e031 0c37 19a8 f240 0331 f5c2 b2b6
000002f0: 4b08 8ab5 ff31 7632 cb00 2a25 c74c 76b5
00000300: 841d 8f3d 6eaa 4b3d 2d74 3c3e f489 11be
00000310: 3e99 4dbc 6c7a 77be d879 0cbe a07c 54bd
00000320: 7810 11be fd5c ecbd 013f e13d 1594 023e
00000330: 84b8 ccbd b086 eebd ee5b da3d ef6d 003b
00000340: a483 f5bd 3610 34bd a944 043e f06a 653d
00000350: a706 193d 658d b0bd 65ae 3abe 4833 83bb
00000360: d1c6 e5bd e7a2 213d 432e 043e 0bdb 25be
00000370: 57cd fe3c c41d f1bd ffe0 4e3e 0dbd 04be
00000380: 62dc a13d f757 493d 156e b1bd 28f1 283e
00000390: 42df fe3d c172 323e c3ce 0bbe 5e13 2c3d
000003a0: 5768 03bd e17e f23d 21a5 6f3e 8d64 083e
000003b0: 270d 973c a175 af3d 2cae 09bd 3d2e c0bd
000003c0: 72a6 f23c 53d9 38be 4035 853d 2c61 f33d
000003d0: 33bb 0cbf b7ad 5b3e 0931 513e 001b 9bbd
000003e0: f17b 23bd 71c0 92bd cf2b 70bd e6b7 33bd
000003f0: 6da6 193c 04b7 ec3d 2d23 87bd 3167 bf3c
0.17880158 0.051351383 -0.016652554 0.08797108 0.02551026 0.032442722 0.0049249534 0.12172927
-0.13683288 0.13290876 -0.3956469 0.1770879 -0.42345366 -0.005016413 0.00666904 0.037845615
0.06759369 0.1388611 0.12243803 -0.050686352 0.18125558 0.002802794 0.22586119 0.17123248
-0.1408247 -0.0953038 -0.048712425 -0.33322322 -0.17781876 0.081870906 -0.020127386 0.036529277
0.4854412 0.008877386 0.08586518 0.060402047 0.08329047 -0.20413645 -0.08461909 -0.04989122
0.021731397 -0.16322105 -0.25657734 0.22204117 -0.09126401 -0.30355754 -0.034600478 -0.1743367
-0.14139527 0.09094499 0.15936135 0.017469719 -0.038903058 -0.007525485 0.30413002 0.18573147
-0.09740364 -0.071475126 -0.18933396 -0.08039568 -0.079258926 0.097243905 -0.06823985 -0.1066116
-0.018907936 -0.013236962 0.06167048 -0.008720157 -0.035968944 -0.14481726 0.08231694 0.17928609
0.07689046 0.043622285 -0.03071147 0.22943369 -0.174831 0.1095777 0.07715404 0.087065846
0.02726901 -0.10797472 -0.06348421 0.18285567 0.07890165 0.0068901693 -0.05993312 0.0822281
-0.016152281 0.009125224 0.058275536 -0.43811807 0.16206093 0.021699866 0.07367819 0.10584329
0.19100025 -0.106664196 -0.17672406 -0.08021547 -0.022056134 -0.4153634 0.16957676 0.01915091
0.045634445 0.069453634 0.10700126 -0.22270289 -0.17735542 0.032403737 -0.055868305 0.0364783
-0.043817546 0.02620473 0.3052468 0.04258198 -0.26522788 -0.023764161 -0.13067944 -0.17471442
0.12875521 -0.2690438 -0.1700335 -0.31558785 -0.12815243 -0.0072791507 0.21087433 -0.381303
-1.7725356e-10 1.014787e-32 2.7529656e-26 -3.1178315e-15 1.9919312e-24 1.25615e-40 3.534056e-10 -1.5637922e-15
3.046654e-36 -2.6328183e-13 -1.6546551e-21 -8.7229845e-14 -6.78174e-40 -8.7923705e-31 -5.0377386e-33 -6.03295e-40
-1.3529442e-18 -7.074065e-20 -4.9869407e-34 1.9094695e-20 -1.5096061e-08 3.9983674e-22 -8.689621e-23 -3.1900762e-14
-2.3295115e-15 -6.904801e-24 1.69574e-40 -1.6968088e-11 -4.96881e-40 -2.27122e-39 1.1112527e-38 1.76675e-13
-8.726506e-06 -6.9653354e-12 -1.8185888e-13 -3.8090428e-07 2.5202718e-08 -1.9130006e-10 -0.0001993058 -8.154871e-08
1.1734793e-08 1.214552e-07 -1.6464319e-06 3.2172808e-05 -2.0459402e-11 -3.4649215e-08 4.6689336e-10 4.5299755e-35
-6.2402394e-10 -2.150161e-06 8.754984e-08 -7.707987e-06 -9.3803565e-06 -3.3754256e-06 -2.0731386e-07 1.1603137e-08
6.528137e-09 -8.5051425e-15 1.9099926e-09 -5.3275094e-06 -1.0284215e-06 1.4330452e-08 1.4745418e-16 -9.1753867e-07
0.069880515 0.04972308 0.18403693 -0.14212781 -0.012548743 -0.24167794 -0.13718355 -0.051876664
-0.14166439 -0.115411736 0.10998345 0.12751801 -0.09996131 -0.11646783 0.106620654 0.0019596776
-0.11987999 -0.043960772 0.12916817 0.056010187 0.03735986 -0.08620719 -0.18230589 -0.004003916
-0.11219562 0.039461996 0.12908272 -0.1619684 0.031103773 -0.117732555 0.20203017 -0.12962742
0.07903363 0.049156155 -0.086635746 0.16498244 0.12444927 0.17426588 -0.13653092 0.042010657
-0.032081928 0.118406065 0.23402835 0.13319607 0.018438889 0.08567358 -0.03361337 -0.09383819
0.029620383 -0.18051653 0.06504297 0.118837684 -0.54973143 0.21452986 0.20428862 -0.07573509
-0.03991312 -0.071656115 -0.05863553 -0.04387655 0.009378058 0.11558345 -0.06598506 0.023364635

convN2.self_map.bias f4 [32]
00000000: fedf 2e3e 74a8 a6bb 68f7 96bb f7fe d6bc
00000010: 0dbb 0a00 0fe5 1b2f fcbb 093a b931 cf3d
00000020: 7070 3d3b 49d7 a83a e471 713c 90a9 3abb
00000030: ffb4 973b 70dc a73c 852b 723d 576b 8bba
00000040: e9b4 d43c a00f d8ba d5e2 9bbc ec36 1f3e
00000050: de2d 1dbd 7aff 823e f175 c1a7 9d7a 423d
00000060: ff98 85bc 4b92 043c 0449 533d 979e 3239
00000070: ccec 46bc 9798 f03d 86aa 13bc ae11 d13e
0.17077634 -0.005085999 -0.00460713 -0.026244624 9.85456e-40 1.4178546e-10 0.0005254147 0.10116906
0.002890613 0.0012881543 0.014736626 -0.0028482415 0.0046297307 0.020490855 0.059123535 -0.0010636848
0.025965171 -0.0016484149 -0.01902906 0.15548295 -0.03837382 0.25585538 -5.3696133e-15 0.047480214
-0.016308306 0.00809152 0.051583305 0.00017034482 -0.012141418 0.11747854 -0.009012824 0.408338

convN2.pass_map.weight f4 [32, 32]
00000000: 29b5 fb3c ed30 93be ca3d 55be 8abb 2b3e
00000010: 2891 203d a73b 883e 4428 363d eee1 b03e
00000020: 93c4 00bf 447d 84bb 8e79 5d3f c043 463e
00000030: 1c7c 553f b5b8 41be 3947 afbf 5002 8c3e
00000040: f527 47be 04dd b1bc 61b0 a13e d8b8 58bf
00000050: 8343 80bf 8b33 97be 499d 1fbf 71b1 453d
00000060: 24c0 f0bd 6180 89be f314 543e 76c9 503e
00000070: 0d26 a13c 801a 4fbe 03b0 183e 6d99 4ebe
00000080: 78ae 6c3e 1ca9 a1be 35a5 9f3c b00c b0bc
00000090: 9423 5d3d 39f9 f0bd ea75 9ebd 251a 62bd
000000a0: bfa6 fabc d703 cabe 9f68 40be 2b47 253e
000000b0: eada 0bbe e0cf 90be 00e4 d8bc 55a1 023d
000000c0: c7a2 dc3d 4cf9 393d a459 0fbd f0ac 76be
000000d0: 679e 193f 3cb8 b0be f28d ac3c 98d4 9e3c
000000e0: f6d7 f2bb 6e4d 983e c522 67bd 593b 72bd
000000f0: f6ff f0bc b6c6 b1be 62bd 0abf 84b1 803e
00000100: 8b54 653e de44 5abe 6aeb af3e 38d3 81bd
00000110: e9f0 38be 2409 61be 2627 103f 85a7 643e
00000120: a8e0 c0be 4e38 963e 939d 913e ac3a c43e
00000130: 0ea6 933e 9c97 053e dca3 1dbf 3b86 eb3e
00000140: 513f 673c dc79 153b 36f3 573e eab1 1fbf
00000150: debc 32bc 4f2f debe 5c7e 89be 0ec8 bbbe
00000160: f2f3 ccbe 5083 a83c d30c 0f3e c7be bfbe
00000170: ecd7 1bbe 5b02 6cbe a1cc d03d 8525 54be
00000180: 5e1b 363e 50d8 1ebe 1f66 933d 9fcf 9c3e
00000190: 6e0b 20bd ba76 f13b 5d22 53be 2ccc 043e
000001a0: bd28 083e fa4a 82bc ddad 103e d1bf 6a3c
000001b0: 1d81 5ab9 d7f8 da3b 285f 12bc 56ab e43d
000001c0: 928e 153e ec6b 8cbc 02b0 c73e 0a74 9fbe
000001d0: 11d7 113f c62b 60bd fd96 abbd a863 023f
000001e0: ab32 65be 2335 403d c6ff 7d3e d6d6 aabe
000001f0: a23e 12be dfff 273e c2a7 1fbe 8354 813e
00000200: 04ee 3d02 4cf7 f4af 64e3 0300 cc82 3fae
00000210: 803b 04b2 a1e4 0500 dbf4 3180 d6a0 0680
00000220: 3d1f beab 57fe 0600 b4b2 0080 7545 0800
00000230: 3320 b586 bc36 508d 4d83 d2b7 ae6b 2786
00000240: 61df 0380 df6b 0100 f0d3 0580 37e1 09b4
00000250: d7cd 0180 43df 4ea9 b590 0280 20b3 9c89
00000260: 556d efb2 a0ef 0200 4960 d6ad df09 0280
00000270: fe7e e0b7 51b5 0080 d541 6daf 7d70 0600
00000280: 79be e533 d893 3cb7 c359 41af f5ee 62b7
00000290: bd60 2abb 8b7d ec2a d15e a532 288e b6ae
000002a0: 33a4 36b7 43a4 ddb5 aaf9 d2a5 b34e a2ae
000002b0: d5c9 21b0 4023 e233 d1a0 4e39 3a01 b432
000002c0: 9ed9 0680 5029 0200 8f0d 218f 0213 68ba
000002d0: cfc3 7c2a 4ea8 52b2 b350 a72b a9ac 509d
000002e0: a4b6 3cb9 a85f ebab f17c 6fb6 073c a22c
000002f0: c16d 5ebc a5ab 0180 2769 e8b7 2fd1 0500
00000300: dce2 8c3e 8982 6fbe 85c2 ff3d 43fd b73c
00000310: fca6 bcbe 3131 d13d 53ab adbc 0dd4 45bd
00000320: b2c8 81bd 4713 6b3e ab80 8f3d 7288 8c3e
00000330: 3a44 313e 2d16 d0bc 1510 9cbe 6cb9 be3d
00000340: 5704 bcbc 23d1 43bc acd4 153e 327c 92be
00000350: b2af 11be c46b 413e a3a5 063e 2c91 0f3e
00000360: ff07 02bd 1793 96bd ad12 5cbe ee79 23bc
00000370: eb9c 2abc 80c1 ca3e 6296 963d cc8b 523e
00000380: 790c 093f 0bae 273e d4dc 353f e491 f63c
00000390: 871c 8cbe bc07 c6bd 812b 023f 87a2 6bbe
000003a0: 101c d83c 32f3 fe3e dcb0 a03d 7716 01be
000003b0: bbf3 b23e 3eb0 e4bd 3063 6dbe 8333 523e
000003c0: fbd6 0e3f e9cd 50bc 43ff 0dbf f9ad 84be
000003d0: d596 063f 9db3 b7be 6246 2abf 882a 6ebd
000003e0: aeaf 153d 49f9 d4bd dcb3 cc3d 8c40 8c3e
000003f0: 8fa5 bebe bac0 9dbe b1e4 bc3d a7c3 dbbe
0.030726032 -0.28748265 -0.20824352 0.16770759 0.03920093 0.2660801 0.044471994 0.3454737
-0.5029995 -0.004043253 0.865136 0.19361782 0.833925 -0.18918116 -1.369361 0.27345514
-0.19448836 -0.021711834 0.3157988 -0.8465705 -1.0020603 -0.29531512 -0.62349373 0.048264924
-0.11755398 -0.26855758 0.20711116 0.20389351 0.019671464 -0.20224953 0.14910893 -0.20175715
0.2311343 -0.31574333 0.019487957 -0.021490425 0.053989008 -0.117662854 -0.07737334 -0.055200715
-0.030597089 -0.39456055 -0.1878991 0.1614043 -0.13657728 -0.28283596 -0.026475906 0.03189214
0.10773235 0.045403764 -0.034997597 -0.24089408 0.6000733 -0.3451556 0.021063779 0.019388482
-0.0074109985 0.29746574 -0.056429643 -0.05913863 -0.029418927 -0.34721917 -0.54195225 0.25135434
0.22395532 -0.21315333 0.34359294 -0.06339115 -0.1806065 -0.21976143 0.56309736 0.22329529
-0.376714 0.29339832 0.28440532 0.38326013 0.28837627 0.13046116 -0.61578155 0.46000847
0.014114217 0.002280823 0.21088871 -0.6238085 -0.010909287 -0.4339547 -0.26854217 -0.36676067
-0.40029866 0.020570427 0.13969736 -0.3745024 -0.15219086 -0.23047774 0.1019528 -0.20717438
0.17783877 -0.15512204 0.071972124 0.30627152 -0.0390734 0.0073688896 -0.20618577 0.1296851
0.1329679 -0.015904892 0.14128824 0.014327959 -0.00020838199 0.006682496 -0.00893382 0.11165492
0.14605168 -0.017141305 0.3900147 -0.31143218 0.5696879 -0.054729246 -0.08378408 0.50933313
-0.2238261 0.046925675 0.24804601 -0.33367032 -0.14281705 0.16406201 -0.15591338 0.2525979
1.3953834e-37 -4.4559056e-10 3.57079e-40 -4.3544543e-11 -7.69694e-09 5.41194e-40 -4.587777e-39 -6.0871e-40
-1.3508982e-12 6.42253e-40 -6.4107e-41 7.596e-40 -6.8131945e-35 -6.4160833e-31 -2.5095092e-05 -3.148832e-35
-3.5564e-40 1.30532e-40 -5.35206e-40 -1.2841052e-07 -1.65677e-40 -4.5934837e-14 -2.35582e-40 -3.7724082e-33
-2.787298e-08 2.69632e-40 -2.4371742e-11 -1.87212e-40 -2.6762016e-05 -6.5044e-41 -2.1578413e-10 5.91366e-40
1.069829e-07 -1.1240096e-05 -1.7585138e-10 -1.3526286e-05 -0.0025997602 4.2009134e-13 1.9251646e-08 -8.301654e-11
-1.0886276e-05 -1.651359e-06 -3.6598372e-16 -7.380887e-11 -5.885828e-10 1.0530357e-07 0.000197056 2.0955316e-08
-6.2908e-40 1.98491e-40 -7.940524e-30 -0.000885293 2.2450031e-13 -1.2261877e-08 1.1888462e-12 -2.7617834e-21
-0.00017997116 -1.6724304e-12 -3.56865e-06 4.6109813e-12 -0.013575972 -1.5341e-40 -2.770552e-05 5.34218e-40
0.2751683 -0.23389639 0.124882735 0.022459632 -0.3684615 0.10214461 -0.021199858 -0.04829793
-0.06337108 0.22956572 0.07006963 0.2744785 0.17311183 -0.0254012 -0.3048102 0.0931271
-0.022951288 -0.011951718 0.14631909 -0.28610379 -0.14227179 0.18888766 0.13149123 0.14020222
-0.031745907 -0.07352274 -0.21491499 -0.009977801 -0.010413389 0.39600754 0.07352902 0.20561141
0.53534657 0.16374986 0.7104008 0.030098863 -0.27365515 -0.09669444 0.5084763 -0.23011218
0.026380569 0.49794918 0.07846233 -0.12606226 0.34951577 -0.11166428 -0.23182368 0.20527463
0.55796784 -0.012744405 -0.55467623 -0.2591398 0.525739 -0.35879222 -0.66513646 -0.05814603
0.036544494 -0.1039911 0.09995243 0.27392995 -0.37235686 -0.308111 0.09223307 -0.42922708

convN2.pass_map.bias f4 [32]
00000000: 0e95 2e3e 47fa a8bb e3e8 8fbb afa5 d7bc
00000010: a8cc 0a00 2b41 9d2e 9de1 1f3a 9d67 ce3d
00000020: 51d1 393b 206f 893a 5482 713c 93f8 40bb
00000030: 1329 933b f824 ab3c 397e 7b3d 2419 8cba
00000040: 333e d53c 0ce8 9aba 1d52 9dbc c7a8 1e3e
00000050: a651 1cbd cdf7 823e 8418 6da7 4789 423d
00000060: 7c96 87bc cf1a 063c 8168 533d 42ee 4e39
00000070: 1ddc 46bc 1659 f03d 947b 14bc 0f2b d63e
0.17049047 -0.0051567885 -0.004391776 -0.026324121 9.91772e-40 7.1511096e-11 0.00060989877 0.100783564
0.0028353522 0.0010485388 0.014740545 -0.0029445037 0.0044909804 0.020891652 0.061399672 -0.0010688645
0.026030635 -0.0011818423 -0.019204194 0.15494071 -0.038163804 0.25579682 -3.2903647e-15 0.0474942
-0.016551249 0.008185103 0.051613335 0.00019734449 -0.01213744 0.11735742 -0.009062666 0.41829726

convE2.self_map.weight f4 [32, 32]
00000000: 7581 54bc 2748 0bbd 8e0f 1f3c 0503 22bd
00000010: 942b b9bd 6942 15bd 39fd a1bc 91a0 c6bc
00000020: f2f3 85bc 3e95 03bc 585b d5ba aabd 343d
00000030: 593e 2abd a10d 12bd 7271 3fbd ef9b 19bd
00000040: 0705 ebbc 53de 11bc 6753 e8bc da67 78bd
00000050: 7843 0bbd 1098 30bc a37d 27bc 4f00 88bc
00000060: bf1a 37bd 66d2 10ba 56a9 47bd 40d0 2dbd
00000070: 26e9 d5bd 1978 333d d880 44bd fd2a 293a
00000080: dd60 9e3c b2db d93a c658 a53c 1200 1cbd
00000090: 9620 a8bd 0756 c8bc 1b49 45bd 573a 93bb
000000a0: 8701 00bd a319 75bb c8dd 47af 0f0e bb3c
000000b0: 2f15 4fbc 4c4c 8dbd db4c 1abd 11ab 7cbc
000000c0: bed6 68bc 4038 86ba cced e2bc eeb1 6fbd
000000d0: 1935 80ba 1329 20bc d34b 96ba 6be8 cfbc
000000e0: 0aa2 81bd 0b45 6cbd 39dd 0ebd 5a7c d0bc
000000f0: 300f 91bd 93e1 303d b824 ddbc 341b 1bbb
00000100: 7fb3 293d 78b9 acbc 166c c33c 4138 5cbd
00000110: 1591 b5bd 51f9 0cbd 923d 72bd afed 86bc
00000120: 5ec8 743b 053b d5bc c087 67b7 467b 123d
00000130: 5d72 4dbc 6cd2 97bd 29a7 54bd 2052 00bc
00000140: c9d8 393a 137e 87b7 0c9f 69bd d9e7 a3bd
00000150: bc14 68bc 9ba5 be3c c2e0 a1bb fdf5 07bd
00000160: d809 88bd 3c70 b1bd e718 46bd a2c8 12bc
00000170: a7e9 a6bd 15a3 0d3d b0ae b2bc 9b70 603a
00000180: 0022 29bd e951 3f3d 837b b2bc 13e2 34bd
00000190: ca24 25bd 3237 593e 60e9 423c 57ea 75bd
000001a0: 87be 6e3d f064 7fbd 77e5 85bc 3fb7 b0bc
000001b0: e700 25be ba84 adbd 7449 bebb 0794 70bd
000001c0: 1026 09bb 2f9f d73d b2a4 02bc 57b2 4bbd
000001d0: 07ce c2bd f82a c03d ffc8 07bd 9af8 b73d
000001e0: 07a4 2cbd e24b febd 4df9 9fbd d5e1 0b3e
000001f0: 57e7 11be 0885 31bc 9422 3dbe 3e30 8bb9
00000200: 119d 1ebd 5cf6 fcbd 6fa7 37bd e11a 6abe
00000210: b0e5 9fbe 65b7 e3bc 713d 8e3b 39b2 883d
00000220: ce20 4abe 9173 48bd b1fb d13b 9630 a6bd
00000230: 1eec 5bbc 2a70 cfbc 7b23 dfbd 50c4 bbbd
00000240: f6a4 a6bb 62f9 2bbd f172 463c 6553 35be
00000250: 8ada c73c 0a41 22be d85c 89bc 961d 10bd
00000260: 94ba 6fbe 7700 05bd c099 19be b2ff 3abd
00000270: 17f1 97be db96 3cbd 6eb4 56be c847 293d
00000280: c3bb a3bb 5e3b d8bc d608 983c 7437 febb
00000290: 6fc0 8abd 075f eebd 0e64 bc3c e4b1 babd
000002a0: 6916 6c3b ebda 89bd e887 16be 805a b3bd
000002b0: ee9c 193d 0cbd bbbd d630 b7bd 775a aebd
000002c0: e4c1 0abd 2b1a 69b3 1c73 9c3d f608 d4bc
000002d0: 1784 4dbd 7a21 d63c 4778 72bd bbd9 643d
000002e0: cfb5 04bd 0de2 c6bd 10c8 c4bc d0f9 b8bd
000002f0: eefc 52bc 6753 083e 31c7 363b 85ca dc3c
00000300: 937b 81bc f504 1dbc 1c31 4abd 1adc 5abd
00000310: 992c c0bc 99d3 9d3d e1db 8dbc 367f a7bd
00000320: db7d d0bc 0db5 623d 39cf f53d 0de7 69bc
00000330: ea43 50bd eb2a 043d a68b 28be 0b3d bc3c
00000340: 1638 d3bc 4126 263e 47a0 82bc 629d d1bd
00000350: f71d 5e3d 0fb5 9cbd e2c0 633d 9e9a cabe
00000360: a75e c0bc b89d 94be 0032 b33b 5579 d7bd
00000370: 05fb f1bd 07de 43bd e5b3 b4bc 3ab3 163c
00000380: a062 f9bb f083 e1bc 12e0 87bd 080e a0bc
00000390: a2c0 89bd 8508 16bd 32fd 83bd a087 fdbc
000003a0: d29d 3bbd eea9 58bd c954 91bd 378c 74bd
000003b0: c037 b1bd 5a94 4dbd c494 d1bc fe36 93bd
000003c0: 90b1 8fbd 4ea4 50b4 e8b6 2ebd 9320 0fbd
000003d0: ca6b afbd 7217 cebc c1ff afbc 1d10 16bd
000003e0: 063d 1dbd f230 9bbd 5dc5 1bbd 1080 85bd
000003f0: 4604 9cbd 1d3a 26bd 5b03 a0bc bf9c 86bd
-0.012970318 -0.034004357 0.009708298 -0.03955366 -0.09041515 -0.036440287 -0.019774066 -0.024246486
-0.016351674 -0.008031188 -0.0016277833 0.04412619 -0.041563366 -0.03565753 -0.04673905 -0.037502225
-0.02868892 -0.008903104 -0.028360082 -0.060645916 -0.03399989 -0.010778442 -0.010222825 -0.01660171
-0.04470324 -0.0005524516 -0.048745476 -0.04243493 -0.1044486 0.043815706 -0.047974437 0.0006453244
0.019333297 0.001662126 0.020183932 -0.038086005 -0.0820934 -0.024455084 -0.048165422 -0.0044930386
-0.031251457 -0.0037399314 -1.8177737e-10 0.022833852 -0.012639328 -0.06899318 -0.03767095 -0.015421645
-0.014211355 -0.0010240152 -0.027701281 -0.058519296 -0.0009781449 -0.009775418 -0.0011466689 -0.02537938
-0.063297346 -0.057683032 -0.034878943 -0.02544992 -0.07082975 0.043183874 -0.026995048 -0.0023667337
0.041430946 -0.021084532 0.02385525 -0.053764585 -0.08865563 -0.034417454 -0.05914075 -0.016470758
0.0037350873 -0.02602912 -1.380028e-05 0.035762094 -0.012539473 -0.07413182 -0.05191723 -0.00783208
0.00070894934 -1.6151962e-05 -0.057036445 -0.08003206 -0.0141651 0.023272326 -0.0049401233 -0.033193577
-0.066425025 -0.08663985 -0.048363592 -0.008958967 -0.081500344 0.034579355 -0.021811813 0.00085617014
-0.04129219 0.046708975 -0.02178741 -0.044160914 -0.040318288 0.21212462 0.011896461 -0.060037937
0.05828717 -0.06235212 -0.016344769 -0.021571754 -0.16113625 -0.08472581 -0.005807096 -0.05873492
-0.0020927228 0.10528409 -0.007973837 -0.049730625 -0.09511953 0.09383196 -0.03315067 0.08982964
-0.042148616 -0.12416817 -0.07811222 0.13660367 -0.14248405 -0.01083494 -0.18470222 -0.0002654809
-0.03872401 -0.12351677 -0.04483741 -0.22861816 -0.31229925 -0.02779741 0.0043408205 0.06674618
-0.19739076 -0.048938338 0.006408178 -0.08114736 -0.013422994 -0.025322039 -0.10895439 -0.09168303
-0.005085583 -0.041985877 0.012112365 -0.17707594 0.0243962 -0.15845123 -0.016767904 -0.035184465
-0.23411018 -0.032471146 -0.15000057 -0.045654006 -0.29676124 -0.046042304 -0.20967266 0.04132822
-0.004996748 -0.026395496 0.0185589 -0.0077580754 -0.06774985 -0.11639219 0.022996929 -0.09115961
0.00360241 -0.067312084 -0.14700282 -0.08757496 0.037503175 -0.09166917 -0.089448616 -0.085133485
-0.033876315 -5.427334e-08 0.07639143 -0.02588318 -0.0501748 0.02613901 -0.059196737 0.055871706
-0.03239995 -0.097110845 -0.024021178 -0.09032023 -0.012877686 0.13313065 0.0027889723 0.026952038
-0.015805995 -0.009583701 -0.04936324 -0.05343256 -0.023458766 0.07706375 -0.01731676 -0.081785604
-0.025450638 0.055348445 0.12002415 -0.014276278 -0.050846018 0.032267492 -0.16459522 0.022978326
-0.02578358 0.1622553 -0.015945567 -0.102350965 0.054227795 -0.07651722 0.05560387 -0.3957109
-0.023482634 -0.2902658 0.005468607 -0.10521189 -0.11815456 -0.047819164 -0.022058437 0.009198004
-0.007610634 -0.027528733 -0.06634535 -0.01953794 -0.06726195 -0.03662922 -0.064447775 -0.03094846
-0.045804806 -0.052896433 -0.070962496 -0.05970403 -0.086532116 -0.050190307 -0.025583632 -0.07188223
-0.07016289 -1.9431283e-07 -0.0426549 -0.034943175 -0.08565481 -0.025157664 -0.021484258 -0.03663646
-0.038388275 -0.07577695 -0.038030017 -0.065185666 -0.076180026 -0.040582765 -0.01953285 -0.06572866

convE2.self_map.bias f4 [32]
00000000: 2782 113c fb2a 893b 2fba 1c3c 1372 a33c
00000010: e1c1 ed3f f584 2c3c 316c 19be e296 4b3d
00000020: 4ee8 e9ba 8eec 2a3f e1dc 28bb 3fd5 8d3d
00000030: 147a 463f df6a 443e f741 33bb 46b9 043c
00000040: a307 febd 6d2c ffbd 0e52 183d 380d dc3b
00000050: 2c94 19be fc81 b6ba c978 833b 9c0d 4c3b
00000060: 609f c637 0c16 a9b9 dfcf fbba 4ee2 2a3c
00000070: 1185 b5bd 326a 403b 13d4 0d3a 6b43 b33c
0.008881128 0.004186032 0.009565874 0.019951856 1.8574792 0.010529746 -0.14982678 0.04970444
-0.0017845721 0.66767204 -0.002576642 0.06925439 0.77530026 0.19181393 -0.002735255 0.008100813
-0.124038 -0.124596454 0.03718763 0.006715443 -0.1499793 -0.0013924236 0.0040122014 0.0031136042
2.3677654e-05 -0.00032250618 -0.0019211731 0.010429932 -0.08863271 0.0029360172 0.00054103247 0.021882733
