train_script/weights/GCNEdgeBased_model300_Aug_24/81.pth (torch, 120987 bytes, 51 tensors)

convN1.self_map.weight f4 [32, 13]
00000000: 6299 0400 7891 0e00 f01c 0d00 3481 0f00
00000010: 327d 0e00 9c3c 1080 c010 0e80 b110 0e80
00000020: cb2b 0a80 6dbd 0c80 5b01 0000 e7a3 0800
00000030: 6a0e 0a80 443f 0700 65c6 0b80 b614 0000
00000040: 2cf0 0300 4ce1 0600 5a6d 0900 ae32 0d00
00000050: 4e01 0300 a361 0a80 699b 0400 e4f7 0180
00000060: 551b 0000 b8ef 0b80 2e2c 0a00 ef29 0300
00000070: 735d 0400 5aed 0900 3e3a 0b80 2092 0c80
00000080: d7d5 1480 b115 0980 5086 0d00 fef3 0e80
00000090: 3806 0880 8492 0d80 72a8 0d80 d535 0480
000000a0: 5b2a 0480 4f0d 0880 bdfa 0d80 9e39 1480
000000b0: c963 0380 f627 0380 3ed4 0600 a099 0d00
000000c0: 5ea8 0580 cdb1 1500 65d4 1080 0034 0580
000000d0: 5e89 1000 d96d 0380 067b 0b80 f57d 1400
000000e0: b109 0e80 5770 0780 ec60 0680 e39f 0a00
000000f0: 385f 0500 5831 0a80 8291 0d00 a8d9 0800
00000100: a3cd 0a80 e8b3 0e80 32f4 1080 82a6 0480
00000110: 6482 0800 9f24 0380 043f 0f80 4369 0980
00000120: 8560 0300 e38d 0400 37b3 0080 62ef 0780
00000130: 8b95 0980 8315 0400 733d 0280 40f8 0680
00000140: 5402 0b00 bce4 0100 0c91 0600 f848 1100
00000150: 6ed9 1300 5a8d 0f00 9bfa 1280 f3b5 0000
00000160: 0f74 0700 eac7 0980 3371 0900 2a95 0c80
00000170: b2a8 0380 7913 0680 a8cc 0500 017d 0100
00000180: b5e5 0880 17f8 0800 c261 0400 d802 1280
00000190: e8fb 0c00 2ded 0d00 c4b9 0980 b39f 0d80
000001a0: 9386 0080 dc7a 0180 4e72 0800 77d3 0180
000001b0: 4ed2 0b80 e4c5 0680 32b0 0d00 0069 0a80
000001c0: e867 0b00 679e 0c00 04f1 1100 0020 1080
000001d0: 05d2 0600 9f36 0e80 fcaf 0000 22f9 0500
000001e0: 28b7 0d80 8298 0b80 df8e 0900 155e 0100
000001f0: 85a8 0600 0f64 0080 142d 0600 ac86 0d00
00000200: c34d 0f80 650e 0500 1e37 1080 6c77 0200
00000210: 8e30 0280 5a3e 0800 2f4e 0a00 0230 0a00
00000220: 6939 0e80 a046 0180 7982 0500 37ec 0900
00000230: 6f8c 0b80 5ce3 0900 eb56 0080 5cc9 0200
00000240: 173c 0680 61bf 0680 5bed 0600 4f52 0600
00000250: 01ae 0200 26cf 0100 a7cd 0280 a5ed 0300
00000260: 4cf6 0f80 74ef 0b80 060d 0d00 7141 0900
00000270: ba12 0400 57d9 0d00 8f71 1000 ab55 0d00
00000280: 536d 0200 301f 0e00 af99 1080 c688 0b00
00000290: 65c3 0a80 0563 0100 e7c8 0c00 524a 1580
000002a0: 5051 0900 38b5 0c80 7b28 0200 e53a 0a00
000002b0: 0ad4 0e80 b56f 1100 9168 0780 7bba 1200
000002c0: 2914 0100 cd22 0d00 9a62 0680 6aad 0a80
000002d0: 6737 0100 35ef 0a00 df23 0880 a114 0d80
000002e0: 51c3 0580 c3dc 0480 44cd 0380 f935 0480
000002f0: c631 0b80 9da0 1080 52b3 0280 b712 0d80
00000300: 4221 0d00 f611 0a00 96bb 0800 f0a7 0d80
00000310: a6da 1280 297b 1080 e83a 0f00 56f0 0980
00000320: 6538 0800 ebe1 0480 db0c 1080 703a 0c80
00000330: 1dd4 0d00 b83d 0b80 a722 0a00 7774 0c80
00000340: adae 1480 2acb 1200 ba92 0380 6af5 0a00
00000350: 3df2 0980 76f4 0f80 f54e 0400 1282 0980
00000360: 2a18 0f00 9e60 0480 3d90 0880 d315 0480
00000370: 4e54 0300 ca89 0780 4c76 0e00 4606 0580
00000380: 600c 0e00 8502 1300 985c 0a80 b4c1 0300
00000390: 9561 0c80 5210 0c00 aa60 0280 921a 1180
000003a0: cd7b 0a80 cba7 0c00 4676 0e00 7a25 0500
000003b0: e160 0c00 9273 0380 ab71 1580 5617 0d80
000003c0: 0eb1 0a00 f455 0d00 ba62 0c00 2149 0580
000003d0: e27e 0900 bbcd 0000 af61 0200 2f38 0b00
000003e0: 8e98 0380 9c91 0780 8ca1 0880 6a0d 0680
000003f0: d479 0d00 87a5 0300 d452 0180 5694 0600
4.22365e-40 1.337881e-39 1.204242e-39 1.423882e-39 1.330609e-39 -1.49111e-39 -1.291706e-39 -1.291685e-39
-9.34065e-40 -1.169979e-39 4.86e-43 7.93481e-40 -9.23526e-40 6.65544e-40 -1.081361e-39 7.43e-42
3.61664e-40 6.31834e-40 8.65747e-40 1.212042e-39 2.75975e-40 -9.5338e-40 4.23093e-40 -1.80762e-40
9.805e-42 -1.096185e-39 9.34204e-40 2.9055e-40 4.00865e-40 9.11665e-40 -1.031084e-39 -1.154446e-39
-1.913421e-39 -8.34301e-40 1.242044e-39 -1.373225e-39 -7.36915e-40 -1.246421e-39 -1.254288e-39 -3.86653e-40
-3.82536e-40 -7.39458e-40 -1.28381e-39 -1.857379e-39 -3.11303e-40 -2.89842e-40 6.27151e-40 1.248972e-39
-5.19576e-40 1.992328e-39 -1.545561e-39 -4.77832e-40 1.518646e-39 -3.14912e-40 -1.054323e-39 1.881895e-39
-1.289174e-39 -6.83148e-40 -5.85782e-40 9.75712e-40 4.93336e-40 -9.36056e-40 1.24606e-39 8.12764e-40
-9.92124e-40 -1.350235e-39 -1.556969e-39 -4.27074e-40 7.8146e-40 -2.88644e-40 -1.400138e-39 -8.6428e-40
3.10131e-40 4.18241e-40 -6.429e-41 -7.28723e-40 -8.80165e-40 3.75059e-40 -2.05715e-40 -6.40068e-40
1.011026e-39 1.7389e-40 6.03046e-40 1.58738e-39 1.822874e-39 1.42824e-39 -1.742939e-39 6.5271e-41
6.84482e-40 -8.98235e-40 8.67128e-40 -1.155536e-39 -3.36023e-40 -5.57998e-40 5.32594e-40 1.36678e-40
-8.17087e-40 8.23682e-40 4.02411e-40 -1.654059e-39 1.192393e-39 1.278944e-39 -8.9316e-40 -1.251151e-39
-4.8276e-41 -1.35909e-40 7.75689e-40 -1.67695e-40 -1.085634e-39 -6.22003e-40 1.257068e-39 -9.56022e-40
1.047465e-39 1.15885e-39 1.647664e-39 -1.480847e-39 6.26354e-40 -1.305291e-39 6.3131e-41 5.4855e-40
-1.259566e-39 -1.0649e-39 8.77772e-40 1.25586e-40 6.11466e-40 -3.5894e-41 5.67184e-40 1.242173e-39
-1.405428e-39 4.64341e-40 -1.48914e-39 2.26511e-40 -2.01089e-40 7.57051e-40 9.46402e-40 9.35577e-40
-1.306292e-39 -1.17171e-40 5.05982e-40 9.11257e-40 -1.060569e-39 9.0808e-40 -3.118e-41 2.55905e-40
-5.72569e-40 -6.19667e-40 6.3616e-40 5.8054e-40 2.46092e-40 1.66146e-40 -2.57445e-40 3.60757e-40
-1.465887e-39 -1.09609e-39 1.198533e-39 8.49995e-40 3.7406e-40 1.271828e-39 1.510105e-39 1.224593e-39
2.22889e-40 1.296885e-39 -1.524499e-39 1.059256e-39 -9.8845e-40 1.27357e-40 1.174096e-39 -1.955207e-39
8.55689e-40 -1.167035e-39 1.98193e-40 9.39482e-40 -1.361762e-39 1.601276e-39 -6.8036e-40 1.719936e-39
9.9068e-41 1.206346e-39 -5.86385e-40 -9.80564e-40 1.1171e-40 1.004166e-39 -7.47552e-40 -1.201262e-39
-5.29244e-40 -4.46536e-40 -3.49142e-40 -3.86704e-40 -1.028046e-39 -1.526985e-39 -2.47999e-40 -1.200575e-39
1.205792e-39 9.24798e-40 8.01977e-40 -1.254106e-39 -1.731475e-39 -1.51355e-39 1.398664e-39 -9.12736e-40
7.54915e-40 -4.48386e-40 -1.47398e-39 -1.12299e-39 1.269953e-39 -1.032331e-39 9.30786e-40 -1.143806e-39
-1.899372e-39 1.72592e-39 -3.28142e-40 1.006393e-39 -9.13418e-40 -1.465229e-39 3.95666e-40 -8.7318e-40
1.386201e-39 -4.02002e-40 -7.86427e-40 -3.75171e-40 3.0575e-40 -6.92278e-40 1.328134e-39 -4.61428e-40
1.290136e-39 1.745778e-39 -9.51571e-40 3.44994e-40 -1.137032e-39 1.10788e-39 -2.18348e-40 -1.570735e-39
-9.62766e-40 1.162219e-39 1.328125e-39 4.72622e-40 1.13678e-39 -3.16965e-40 -1.969322e-39 -1.202233e-39
9.8187e-40 1.224696e-39 1.137442e-39 -4.85411e-40 8.72036e-40 7.3802e-41 2.18713e-40 1.030345e-39
-3.30233e-40 -6.95083e-40 -7.92636e-40 -5.55825e-40 1.237565e-39 3.34887e-40 -1.21549e-40 6.04226e-40

convN1.self_map.bias f4 [32]
00000000: 3e6b 21be b7a5 c2bd 77a5 91bc e38f aebd
00000010: 21cd 08be 435f cdbd 5416 34be 9f21 08be
00000020: 0c7c afbd 6d50 b0bd 3c54 1bbe fd89 bfbd
00000030: f8e3 21be 43ff a5bd a50a d2bd fa73 05be
00000040: 6d3f dabd 3975 35be 2562 87bd a596 ddbd
00000050: fd88 e5bd 409d 0dbd 19cc debd a20c c4bd
00000060: 54dd c13a e39a cfbd 30f0 d7bd 2b70 42be
00000070: c49a f3bd 72c7 aabd 49a1 10be 1373 a5bd
-0.15763566 -0.09504264 -0.017779095 -0.08523538 -0.133595 -0.10027935 -0.17586643 -0.13294075
-0.08568582 -0.0860909 -0.15168852 -0.09352491 -0.1580962 -0.08105328 -0.102559365 -0.13032523
-0.10656629 -0.17720498 -0.066105165 -0.10819749 -0.11207769 -0.034573793 -0.10878772 -0.09572722
0.0014790692 -0.10136964 -0.10543859 -0.18988101 -0.118947536 -0.083388224 -0.14124025 -0.08078589

convN1.pass_map.weight f4 [32, 13]
00000000: 14ec e03d 9bbd dbbe be17 603d 6f7e 10be
00000010: 5a80 aabd 43c6 943b 6b3e 383e 33e5 6abd
00000020: 7e69 44be 5809 8fbd 0bdd 903d 0173 5dbb
00000030: 6b09 923e d368 ec3d 908a c5bd b708 ecbc
00000040: d5a1 93ba 3c48 47be e222 f8bc ca42 693b
00000050: 2e24 383b 18f6 f93b 2bb0 0fbc eb20 fcba
00000060: dc82 1cbb abd1 8c3d 19ab 52be 2950 323f
00000070: 2acf c23d ed94 c2bd 7a42 46be e480 2cbb
00000080: 51cd 383d dce0 0d3c 1b69 15bd 70d4 4abd
00000090: 9fbe 14bc 7a36 47bb e4c1 f6bb 8830 623e
000000a0: c6f5 06bd a9e9 25bf 2554 8cbb c9b6 aebe
000000b0: 17de 57be 3d31 3abd 212d 2e3c 561f babd
000000c0: 0c43 153c be44 1dbc 9dea 3a3c 045f 97be
000000d0: e767 443e 88f6 69bb c33b 5bbd 4ba5 14bc
000000e0: a12b 8cbe efe9 a6bd cee4 14be a72f 733c
000000f0: f966 943c 5417 8e3d 6a6d 853d 165a 1fbe
00000100: d6f1 64be 660c 0bbc a86d 6b3d f91d 953e
00000110: c827 fcbc 9434 b3bd 4c7a dfbb 4d08 393c
00000120: d4f2 bebd 9395 a33c f89e c3ba 9870 8dbd
00000130: ed21 193c d1bf 323e 1595 cfbc 4c64 acbe
00000140: ab27 6ebe d373 c93d 553c ab3e 84e9 923d
00000150: c163 fd3c f089 d6bc c7fd 6bbb 2263 963c
00000160: 71b7 52bd 70dd e9bc 65c3 02bf beeb 5fbc
00000170: f31d f0ba 4e87 46bd 80ba d3bd 0dd2 cc3e
00000180: 1745 c33c 7a5b 1cbd ad5e 00be 0a00 82bc
00000190: 152b 64be 4f75 4cbd 401f b53c 113d e7bd
000001a0: 6972 2bbe bdb9 b63d c559 4d3d 7a8b 2bbe
000001b0: 989b 2a3f fc38 a43d c2b1 363d 8c1d a93c
000001c0: f4a1 613b 339d 42bb 51c0 753d 3a2e ddbb
000001d0: 907e 75bc 0d2e 493c 66d7 59bd b9ae 513d
000001e0: b248 cebd 81bf 003e 5856 8d3c c494 ab3a
000001f0: 5446 b43c 8f7b 9d3e 36d2 3cbd 5703 5b3c
00000200: 585a c3bb 0970 273e 3cea 82be 468e 8d3e
00000210: e1b8 2c3e 8a2f d33d f667 8d3f 6ade 553d
00000220: 3a25 8f3c 4dd9 e83a e4d1 a53c 4b83 07bb
00000230: 10ba a3bc dfcf b2bc a4ea e13e 0687 15be
00000240: 104c af3d 74e2 b83e 4984 f73d 0c81 7f3e
00000250: 0690 e83c df26 9b3d 588e 6d3e d974 143d
00000260: de01 d3bc b903 cc3d 0788 2b3d 06d7 8fbd
00000270: e54e 0f3f 5d1b afbc 871b 1bbd 0a2e 93be
00000280: a5f5 0abe c4ab 333d 7d09 48bb 3547 a7bd
00000290: f01b 71bd c098 f7bc c9ca b43d 176a f1ba
000002a0: 6a5e 453b d7a1 703d a046 0c3d 8c86 dabc
000002b0: 83f6 b7be 2acf cbbd bed6 f8bc ab90 c43d
000002c0: aacc b93d 60c1 bb3c dc1b 67bd db07 e9bd
000002d0: 165a acbd 7644 86bd 69be 50bd a5ca 25bd
000002e0: 454f c0bd 2b30 81be f609 883e dad3 f83c
000002f0: 6ef8 10bc e221 273a e2f2 9abc f83e 043c
00000300: 3cfa 0b3d 68c0 fabb 4c06 b73e 2f6b 4bbd
00000310: 5428 f83d fe7a 8c3d 42f7 563e df8c 083d
00000320: 0d10 4dbb 1b79 093c 0be5 f63a b9f3 d83b
00000330: 083f d8bb 0103 2cbc 766c 25bb 6ed7 bc3d
00000340: 5132 973c b7d9 4f3d b68d 343e 3036 29bd
00000350: 3197 44be 1a46 ebbc 8de4 5abe 7a89 673d
00000360: 2b10 5fbe c948 313d be71 03bd 5cc5 0c3d
00000370: a4a0 03be 470f fd3e 7383 05bf 8149 71be
00000380: 1aa3 b9bd fb22 883e bfc4 d33c db1f b9bd
00000390: 95ef db3d 246a a73d b472 acbc b23f d7bb
000003a0: cc79 1c3d 4ba7 073e 7bb2 8fbe 88f6 84be
000003b0: dea2 af3e 045c a73d c49c fc3e 89e6 933e
000003c0: e4df a3bc f121 e23b ca56 743d df8a 223c
000003d0: e18f 1d3c e029 983c a954 eabd 8ea6 bebd
000003e0: 52b3 db3e d68c 8b3e 9c66 c13d c0d9 7c3e
000003f0: 2db2 28be e81c d5bc a97c 2cbc 34f0 e1bc
0.10982528 -0.42918095 0.054710142 -0.1411073 -0.08325262 0.004540236 0.1799256 -0.057347488
-0.19180867 -0.06984204 0.070734106 -0.0033790471 0.2852281 0.11543431 -0.09645569 -0.02881275
-0.001126344 -0.19461149 -0.03029007 0.0035592788 0.0028097737 0.0076282136 -0.008770029 -0.0019235885
-0.002388171 0.068759285 -0.20573081 0.69653565 0.0951217 -0.095010616 -0.19361296 -0.0026321942
0.04511768 0.008659568 -0.03647719 -0.049519002 -0.009078651 -0.003039746 -0.007530438 0.22088826
-0.03294923 -0.6480966 -0.0042824917 -0.3412383 -0.21080814 -0.045457114 0.010630877 -0.09088008
0.0091102235 -0.009598909 0.011408475 -0.2956468 0.1918026 -0.0035699923 -0.05352379 -0.009072612
-0.27377036 -0.08150088 -0.14540407 0.014842904 0.018115507 0.06938043 0.0651501 -0.15561709
-0.22357878 -0.008486843 0.057477623 0.2912443 -0.030780688 -0.08750263 -0.006819999 0.011293483
-0.093236595 0.019968783 -0.0014924696 -0.06906241 0.009346467 0.17455985 -0.025339643 -0.3367027
-0.2325732 0.09836545 0.33444467 0.07173446 0.030931355 -0.02618882 -0.0036009417 0.018357817
-0.051444475 -0.028547972 -0.510794 -0.013667045 -0.0018319472 -0.04846888 -0.103383064 0.40004006
0.023836656 -0.038173176 -0.12536116 -0.01586916 -0.2228206 -0.04991656 0.022109628 -0.11290944
-0.16742863 0.089221455 0.05013444 -0.16752425 0.6664367 0.080186814 0.044603117 0.020643972
0.0034428807 -0.0029695749 0.05999786 -0.0067498954 -0.014983788 0.012279046 -0.053183936 0.05119202
-0.10072459 0.12573053 0.017253086 0.00130906 0.022006191 0.3075833 -0.04609891 0.0133674955
-0.0059616975 0.16351332 -0.25569332 0.2764761 0.168674 0.10311802 1.1047351 0.052214064
0.017473806 0.0017764956 0.020241685 -0.0020677622 -0.019986182 -0.021827636 0.4412433 -0.14602289
0.0855943 0.3611027 0.12085778 0.24951571 0.028388988 0.075757734 0.23198831 0.036244247
-0.025757726 0.099616475 0.041877773 -0.07023434 0.5597976 -0.021375353 -0.03786805 -0.28746063
-0.13570268 0.04386498 -0.0030523234 -0.081678785 -0.058864534 -0.030224204 0.08827741 -0.0018418458
0.003011609 0.058748093 0.03424704 -0.026675485 -0.3593026 -0.09951623 -0.030375835 0.09597906
0.0907224 0.022919357 -0.056423053 -0.113784514 -0.0841562 -0.06556027 -0.05096284 -0.04047646
-0.093901195 -0.25232062 0.265701 0.030374456 -0.008848293 0.00063755934 -0.018914644 0.008071654
0.03417419 -0.007652331 0.35746992 -0.049662765 0.12117067 0.068593964 0.20992759 0.03333747
-0.0031290085 0.00839069 0.0018836571 0.006620851 -0.006599311 -0.010498763 -0.002524165 0.092207775
0.01845661 0.05074474 0.17632183 -0.041311443 -0.191983 -0.02871995 -0.21376248 0.056527592
-0.21783511 0.043282304 -0.032090895 0.034367904 -0.12854248 0.49425718 -0.521537 -0.23563196
-0.09064312 0.26589188 0.025850652 -0.09039279 0.10739056 0.081745416 -0.021050788 -0.0065688724
0.038202092 0.13247411 -0.28065857 -0.25969338 0.34303945 0.081718475 0.49338353 0.28886822
-0.02000422 0.006901019 0.05965308 0.009920805 0.009616823 0.018574655 -0.11441929 -0.093091115
0.42910248 0.27255887 0.09443399 0.2469244 -0.16474219 -0.02601476 -0.010527768 -0.027580358

convN1.pass_map.bias f4 [32]
00000000: ed2a 21be 19f7 c1bd 2048 91bc 5f0c aebd
00000010: 30d9 08be bcf1 ccbd adb1 33be 9310 08be
00000020: c009 afbd 5987 b0bd 3d2c 1bbe c368 bfbd
00000030: f893 21be 9440 a6bd aa18 d1bd e3ef 04be
00000040: 9112 dbbd e23c 35be dd11 87bd 08e6 dcbd
00000050: c032 e6bd 3f4b 0dbd 6cb2 ddbd e9d5 c3bd
00000060: a88b a33a 16a5 cebd f195 d7bd 5430 42be
00000070: b8a7 f2bd beb4 aabd cea6 10be d0ca a5bd
-0.15739031 -0.09470958 -0.017734587 -0.08498453 -0.133641 -0.10007045 -0.17548247 -0.13287573
-0.085467815 -0.086195655 -0.15153594 -0.093461536 -0.15779102 -0.08117786 -0.102097824 -0.12982135
-0.10696901 -0.17699006 -0.06595204 -0.107860625 -0.112401485 -0.03449559 -0.10825047 -0.095622845
0.0012477534 -0.100900814 -0.10526646 -0.18963748 -0.11848396 -0.08335255 -0.14126131 -0.08095324

convE1.self_map.weight f4 [32, 13]
00000000: e732 c53d 1a24 813e 1761 873d 899d 9fbe
00000010: 785b c2be de3e a2bd 5101 d6bc 62c3 c63d
00000020: 9d50 02bb 7e52 37bc d8a3 773e 42f2 193c
00000030: 7f15 90bb 556d 263e 0667 a13d a484 f8be
00000040: 4c72 943d d07b 91be 7b3a 36bb 25d2 283c
00000050: 43f5 d03c 497f a2bd 43f5 54bb c92e 0cba
00000060: 80fd 823b a19b e63d 6c96 9dbd 3608 773d
00000070: 8aa6 b5bc a1f0 1e3f 3c25 743d f1bf 40bd
00000080: e051 fa3b 8f5d a7bc 6da3 01bc eb94 c3bc
00000090: 2df1 8bbe 359c 53bb e498 0b3f 970e 813d
000000a0: b8e4 19be a49e 04bc 9ec6 a73d 83b3 25bc
000000b0: 31ea 35bd 8c51 42be 026b 3d3d b8e2 e43b
000000c0: 9bde f33b 53aa 7c3c 6243 ad3b e697 453e
000000d0: 470e 903f 4726 fc3d 543a cbbb b8e4 8f3d
000000e0: dbf8 043e 9718 363d 4591 333d a0cb 8f3b
000000f0: 2606 f9bc 6823 cd3b fc04 2bbc c8c1 933b
00000100: 69dc a93c c98d b73e 9a1b cf3e edfa c33c
00000110: 83df 21bc 8e63 5ebe a7e9 a0be 31b8 2a3d
00000120: 27e7 343d a3b6 febc 29a1 38bc 2bf1 33bd
00000130: 2a0b 5d3d 0967 a4bd 618f d43e 59db 62bd
00000140: ea71 a5be 115f 89be 5e89 61be 6fa2 75bd
00000150: 467d 743d 3929 edbd 270e 0abc e26d 073d
00000160: ead1 ba3d 5062 99bc 5232 56be ad25 ab3e
00000170: 0e96 79be 24a5 dbbc 65e6 be3e f23a 9d3d
00000180: ea3f c6bd e5e2 3cbb 3e4e a43c 1f19 bdba
00000190: 6cec 33bb c65e 9dbd 234c 203d 74bb 543c
000001a0: d9fc 0e3e 213e 703c 5577 1cbc 7cda 69bd
000001b0: caf7 8b3d 21ca 89bc 977c a9bd 0ba0 603d
000001c0: bc1f 1f3c cdff 6dbc 64ba 883c 42d6 093c
000001d0: 0f00 62bf 7055 6f3e a406 243e 2142 b83e
000001e0: 1235 763e f356 863e 32b4 863c 8fda 333d
000001f0: 94ea b33d 960c 80be 58f3 b8bc ea8c 35bd
00000200: 1312 1d3d fe66 0cbe f906 23bf a186 233e
00000210: 3405 3b3d af72 e4bc c6fa c8be 6ed7 7a3a
00000220: fdc8 073d 575f 033c a0e9 18bd 8ff5 1f3d
00000230: 2efc 153c d0f2 a6bc 041a 91be f5cb 123e
00000240: a4bc 10be 564e a53d 6a89 fa3b 1805 803e
00000250: 0c88 f33c 7e48 e13c c8a6 9fbd 1bca 893d
00000260: 0172 e03d a3cb 0a3b 1ac2 223e ab90 2e3d
00000270: 9c6c ad3e 4356 95be 4dc1 8a3d 056c bf3e
00000280: b678 ccbd c154 a8be ee1e 4b3d 88b0 6c3d
00000290: 0a8d 4fbd f310 c43c ed41 77bd 10c2 d9bd
000002a0: 672f c8bd 0869 a33e 82e0 bebd 2d93 d83e
000002b0: 01f3 09bf 725b ce3d ee0c 5e3d 0b97 91bc
000002c0: ec7e d5bc a5d8 a6bd 2187 3b3c 7618 853d
000002d0: 804f 35bc 2198 c6be 7d2c 313e fb91 46bf
000002e0: c236 ad3e 79f1 2d3f b6ed 863e 1dcb 55bd
000002f0: 3642 b7bc d22c f0bb d42b 9abc b242 61bb
00000300: 0443 68bd 615d 01ba a266 c8bc d1d1 b53d
00000310: 1ac7 1a3e e9c8 4a3d b104 763e d126 a03e
00000320: 123b bbbb 3e28 0fbb b0dd 83bd 0e7a 90bc
00000330: 94ee c2bc 150b 1dbe 9fff eebd 8c1d a0bd
00000340: ed58 813e 1241 8ebe 2df5 bc3e bb69 e03b
00000350: 7dcf a93e 4686 a13d d8ff fcbd 2dac 083d
00000360: b7d1 673e 7343 70bb 8855 2abd d742 7bbc
00000370: d033 b63e 3e12 e7ba 2cef 173c 2cf8 d03b
00000380: be4d e83b 85f5 c8bc 2a4c 5ebb 69e9 86bc
00000390: f768 c0bb 81f6 1e3c 5a4c 01bb 1645 cd3b
000003a0: b902 e93b 9da8 1e3b 3608 ed3d 466c e23d
000003b0: f75c 0cbe 5b51 86be 31bb d1bb b645 06bd
000003c0: 8ce5 14be 4cb1 a8bd f6c0 a73d e13c 19bd
000003d0: 01f5 41bc 8d62 9d3d d713 4dbe 7a8e 403e
000003e0: d69e f6be ab94 293e f6c5 52bf a715 02be
000003f0: 7879 35bd dabb 1aba bd79 26bc aa34 ec3b
0.096288495 0.25222856 0.06610315 -0.31174877 -0.3796041 -0.07922147 -0.026123675 0.09705235
-0.0019884475 -0.011189101 0.24183595 0.009396138 -0.004397094 0.16252644 0.07880978 -0.48538697
0.07248363 -0.28414774 -0.0027805853 0.010304009 0.025507575 -0.07934434 -0.003249482 -0.00053475477
0.0039975047 0.112601526 -0.07694706 0.060310565 -0.022174139 0.6208592 0.059605822 -0.04705805
0.007639155 -0.020430354 -0.007912499 -0.02387472 -0.2733244 -0.0032289152 0.5453017 0.06301611
-0.15028656 -0.0080944635 0.0819218 -0.0101136 -0.044412795 -0.1897642 0.04624463 0.006985035
0.007442308 0.015421468 0.0052875737 0.19296226 1.1254357 0.12311988 -0.0062020216 0.070260465
0.12985556 0.044457044 0.04383971 0.0043882877 -0.03039844 0.0062603243 -0.0104382 0.0045091845
0.020734983 0.3585036 0.40450746 0.023923362 -0.0098799495 -0.21717665 -0.31428263 0.041679565
0.044165757 -0.031092947 -0.011268892 -0.043931168 0.053965725 -0.08027465 0.4151564 -0.055384967
-0.32313472 -0.26830342 -0.22025058 -0.059969362 0.059689783 -0.11580128 -0.008426226 0.033063777
0.09122069 -0.018723637 -0.20917633 0.33427182 -0.24373648 -0.026812144 0.37285152 0.076772586
-0.096801594 -0.0028821763 0.02005684 -0.0014427042 -0.002745415 -0.07684092 0.03913511 0.012984145
0.13963641 0.01466325 -0.009549935 -0.05709313 0.068343714 -0.016820015 -0.08275717 0.05484013
0.009712156 -0.01452632 0.01669044 0.008412899 -0.8828134 0.23372436 0.16018158 0.35987952
0.24043682 0.26238212 0.016443346 0.043909606 0.087849766 -0.25009602 -0.022576973 -0.04432384
0.038347315 -0.13711163 -0.63682514 0.15969326 0.04565926 -0.027886717 -0.39253825 0.00095688447
0.03315066 0.008018336 -0.037332177 0.039052542 0.009154363 -0.020379454 -0.2834016 0.14335616
-0.1413446 0.08071582 0.0076457756 0.25003886 0.029727958 0.027500387 -0.07795483 0.06728002
0.109592445 0.0021178506 0.15894356 0.042618435 0.33871925 -0.29167375 0.067751504 0.373871
-0.09983961 -0.32877162 0.049590044 0.05778554 -0.050671615 0.023933863 -0.060365606 -0.106327176
-0.09774666 0.3191607 -0.09320165 0.42299786 -0.5388642 0.100760356 0.05421155 -0.017772218
-0.026061498 -0.081467904 0.011445791 0.06498806 -0.011066318 -0.3878794 0.17302127 -0.775665
0.3383084 0.67946583 0.26353234 -0.052195657 -0.022370439 -0.0073295617 -0.018819727 -0.003437203
-0.056704536 -0.0004934874 -0.024463002 0.0887791 0.15115014 0.04950801 0.24025227 0.31279615
-0.005713829 -0.0021844055 -0.06438768 -0.017636325 -0.023795404 -0.15336259 -0.116698496 -0.078181356
0.25263157 -0.2778402 0.36905804 0.0068485416 0.33166113 0.07886939 -0.12353486 0.033367325
0.22638594 -0.0036661297 -0.041585475 -0.01533576 0.35586405 -0.0017629338 0.009273332 0.0063772406
0.0070893457 -0.024531135 -0.003391991 -0.01646872 -0.005871888 0.009702326 -0.0019729347 0.006264339
0.0071109203 0.0024209388 0.11573832 0.11055808 -0.13707338 -0.26233944 -0.006400489 -0.032781325
-0.1454069 -0.08236942 0.08191101 -0.037411574 -0.011838199 0.07684813 -0.200271 0.1880435
-0.48168057 0.16560619 -0.82333314 -0.12703572 -0.044305295 -0.0005902626 -0.010160861 0.0072084265

convE1.self_map.bias f4 [32]
00000000: 365f 713b 76ef 7aba 2b21 c63b 7b4c ba3c
00000010: 3410 33be 856c 643c c09f 263c d6f4 593b
00000020: a574 38bc 2270 5fbc 0dbc 14bd 6747 e5b9
00000030: 8055 643d ff4d 283d 7b3f 32bd 7cc6 b03b
00000040: b301 0bbc 9a6f a3bc 4cde e3bc 0254 3abd
00000050: 473d 50bb b22d 81bc 51e8 963c 71e0 afbc
00000060: 3b10 a4bd 99bc c73c 913b d4bc da09 873d
00000070: 1ec3 32be e8b0 20bd 6241 cdbc fe76 c0bc
0.0036830432 -0.00095724256 0.0060464344 0.022741547 -0.1748665 0.013941889 0.010169923 0.0033257506
-0.011258279 -0.013637574 -0.03631215 -0.00043731483 0.0557456 0.041090008 -0.04351757 0.005394755
-0.008484292 -0.019950677 -0.02781596 -0.045490272 -0.0031774805 -0.01576886 0.018421324 -0.021469327
-0.08010908 0.024381923 -0.02590731 0.06593676 -0.17457244 -0.03923121 -0.025055591 -0.02349424

convE1.pass_map.weight f4 [32, 64]
00000000: 5589 1bbe b9e1 2dbd 6c28 73bc cefc 143d
00000010: 8da3 8dbe f15a 743e 2e4e bbbd e8e8 c93e
00000020: d8d2 de3d ea4f dcbd 46c7 e2bd 2826 68be
00000030: 356d 983e b5af f33e a6c3 b7bd 56d4 33bd
00000040: d09b 60bd c293 39be dc1b 813e 5ec7 cc3d
00000050: 8767 1fbf 629f b83e 6748 e8bd c7e2 123e
00000060: f895 68be 6747 1f3e 3976 cb3d 649d 273e
00000070: 250d 053e e543 11be 8b13 2b3e 67e7 813e
00000080: 353c 9fbe 5f83 4fbd e743 b6be 4258 1dbe
00000090: 4ef9 6bbe d849 9fbe 44d2 a4be 4e63 82be
000000a0: da96 90be feee 2ebe 566c 9bbe 03a6 cbbe
000000b0: 33be bdbe 1e6b dfbd 7c76 0ebe 0523 b33c
000000c0: 54de fabe 3a35 1bbf b16b 91bd 9b8b 113e
000000d0: 38c8 01bf f5c8 8cbe 5b3c d1be 8a60 dfbd
000000e0: 08cd 70be 9dc8 01be 5672 93be c9a0 84be
000000f0: d07b ffbd 2474 efbe b6b8 0a3d 66d9 9dbe
00000100: eefb b03e a7a3 c9bd 91f2 57bd 67b9 b0be
00000110: a3f1 7b3d 4906 e73d c19f c8bd 8544 1d3e
00000120: 8333 a2bd 6724 eabd 1cc0 933d 1f3e fc3b
00000130: 9ef7 1d3e 069b 1f3e a06a 7dbd afec 9a3d
00000140: ee59 5f3e a977 97be 580c a7bd fc40 b3bc
00000150: 0567 3cbd 1760 1a3e dc35 c5bd 370a bfbd
00000160: 3db1 17bf 2ccd 04be cc50 c83d ba90 583e
00000170: 5b65 703d 78ea 313d acfe eebd dd7f 2fbe
00000180: 449f e6be 143d e8bd 183a 6cbd 2419 4dbd
00000190: 581b 53bd 53bb 023b 4f9a 04be 9e53 cabd
000001a0: 1bbc cb3d b544 0c3e c8eb 1ebe ed54 52be
000001b0: b7f8 07be fcf6 d539 9a70 cebd e885 cebd
000001c0: d938 11be 0cc6 233e a5cb f73d 4349 a9be
000001d0: 415a e3bc 5238 29be c0ac 303d 1838 a43d
000001e0: e87a 823e 0c1a 7bbd f494 80be 008a 99bd
000001f0: 7941 a73d c684 b13c 8db7 8abd 091c b2bc
00000200: 4750 4fbe 5b4c f63c a7f1 36be 73aa 483d
00000210: 49e7 e33d 12c3 b3be eab4 28be 1bcc ac3d
00000220: d2ac 813d 61ce c1bb 582a afbd fa7a 5a3e
00000230: 4b47 e23e 6e72 c1be f228 28bc d58d e23c
00000240: d92c 78be abfe 5fbd 3c73 a2bc 4c86 9e3d
00000250: 054f 3dbf 5504 d5bd a8be cbbc dcd4 f7bd
00000260: 130d 30be d0ea abbd 277e b73d 1f6c 76bd
00000270: 6a11 fa3d fd55 f8bd b601 483e 7e0b 913e
00000280: 5cd9 89be 99a8 92bd 383b cabd 3bf9 e6be
00000290: 15f8 dabd 3137 8fbe e7fc ecbe a4e4 dfbd
000002a0: 022b b4bd 16d0 5abe 7898 a0be 4e97 99bc
000002b0: d004 f0be 29de 03bf b5ec 82be 1078 3fbd
000002c0: a896 cabd 98eb ccbe 34f7 4bbe 68f2 0d3e
000002d0: a391 cebd 5db9 c9be 32e6 07be 69ed d4be
000002e0: 2261 fd3c 9d85 5fbe 3c28 7abe aad7 83be
000002f0: bc4f a9be 445c d8bd a4ab 873d f122 9dbe
00000300: 309a c3bd d0dd a6bd 34be fcbd adfb 903e
00000310: a258 56bd d5c1 f13d f487 58be 9474 fe3d
00000320: 301e 413e 6baf 58be b604 483e 4efe 053e
00000330: d184 41bb 404a d83c 4749 73be a216 19be
00000340: 5bd7 bd3d 9ef8 66bc 4608 b83a 339a 6abd
00000350: 7190 c0bc ca2e 7e3d 758a 00be 1dd8 90be
00000360: bbb6 5a3e 73ec a33c 30ba 25be 749b 09bd
00000370: ff85 82be c4ad 07bd 2aaa b4be 3181 473e
00000380: e142 a43c b1a3 a8bb 56c3 4b3d fcb9 68be
00000390: be24 943d 28b8 c5bd 4d14 093d 05f6 99bd
000003a0: b604 62be fb6b 553e 4d2d 6cbe ab59 1fbe
000003b0: cc07 86bc b9d7 bbbc 831d 253d 0420 333e
000003c0: 9aac a4bd cf13 af3c f294 33bc 083e 0b3b
000003d0: 2b19 1f3c 4c49 b2bd ada5 b9bc 8e4c 8b3e
000003e0: 6c02 27be 951b abbd 969d 283e b70b 42bc
000003f0: 53b4 8a3e 4e56 eb3d aeca 8c3e 5b3f 2ebe
-0.15189107 -0.042451594 -0.01484118 0.036373906 -0.27663842 0.23862816 -0.09145771 0.39435506
0.10880059 -0.1075743 -0.11073165 -0.22670805 0.29770818 0.4759499 -0.08972864 -0.04390367
-0.054836094 -0.18122771 0.25216568 0.09998964 -0.62267345 0.360591 -0.11341935 0.14344321
-0.22713459 0.15554582 0.099346586 0.16368634 0.12993295 -0.14186056 0.16706674 0.25371858
-0.31100622 -0.050662395 -0.3559868 -0.15365699 -0.23044321 -0.31111026 -0.3219167 -0.25466388
-0.2824009 -0.17083356 -0.3035609 -0.39775094 -0.37059173 -0.10909103 -0.13912386 0.021867285
-0.48997748 -0.6062809 -0.07100619 0.14213412 -0.50696135 -0.27497068 -0.4086636 -0.10907085
-0.23515713 -0.12674184 -0.2879817 -0.2590392 -0.12474787 -0.46768296 0.03386756 -0.30829924
0.34567207 -0.09845667 -0.052721564 -0.3451645 0.06150974 0.11280496 -0.09796096 0.1535817
-0.07919981 -0.114327244 0.07214376 0.007697835 0.1542649 0.1558648 -0.061869264 0.07564675
0.21811649 -0.2958348 -0.08156651 -0.021881573 -0.045996685 0.15075718 -0.096294135 -0.0932812
-0.5925482 -0.12968892 0.09781036 0.21148959 0.05869041 0.043436497 -0.116696686 -0.1713862
-0.45043385 -0.11339775 -0.05767259 -0.050072804 -0.05153975 0.001994808 -0.12949489 -0.0987923
0.09947988 0.13698085 -0.15519631 -0.20540209 -0.13278471 0.00040810544 -0.10080071 -0.10084134
-0.14181842 0.15993518 0.12099389 -0.33063707 -0.027752997 -0.1652539 0.043133497 0.080185115
0.25484395 -0.061304137 -0.25113642 -0.074970245 0.08166785 0.021669757 -0.06773291 -0.021741884
-0.20245467 0.030065706 -0.1786562 0.048990678 0.111280985 -0.35109764 -0.16475263 0.084373675
0.06331791 -0.005914495 -0.08552998 0.21335974 0.44195017 -0.37782615 -0.010263668 0.027655521
-0.24235858 -0.05468623 -0.019830339 0.07740459 -0.739487 -0.10401217 -0.024871185 -0.121011466
-0.17192487 -0.08394396 0.089596085 -0.060161706 0.12210353 -0.12125776 0.19531903 0.2832908
-0.26923645 -0.07161064 -0.09874576 -0.45112023 -0.10691849 -0.27971795 -0.462867 -0.109322816
-0.087972656 -0.21368441 -0.31366324 -0.018748906 -0.46878672 -0.51510864 -0.25571218 -0.04674536
-0.09892017 -0.40023494 -0.1991852 0.13862002 -0.10086372 -0.39399233 -0.13271406 -0.4158738
0.030930106 -0.21828313 -0.2442941 -0.25750476 -0.33068645 -0.10564473 0.06624535 -0.3069072
-0.09550893 -0.08147776 -0.12340966 0.28317013 -0.05233062 0.11804549 -0.21145612 0.12424579
0.18859172 -0.21160667 0.19533047 0.13085291 -0.0029528628 0.026402593 -0.23758422 -0.1495004
0.092695914 -0.014097361 0.0014040552 -0.057275962 -0.023506375 0.06205634 -0.12552817 -0.2828988
0.21358769 0.020010209 -0.16184306 -0.033595517 -0.25492856 -0.0331247 -0.35286075 0.19482876
0.020051422 -0.0051464667 0.049746834 -0.22727197 0.072335705 -0.09654266 0.033466626 -0.075176276
-0.2207211 0.20841973 -0.23064156 -0.1556155 -0.01636114 -0.022930013 0.040311348 0.17492682
-0.08040734 0.02137175 -0.010960804 0.002124669 0.00971059 -0.087053865 -0.022662008 0.27206844
-0.16309518 -0.0835487 0.16466364 -0.011843613 0.270907 0.11491071 0.27498382 -0.17016356

convE1.pass_map.bias f4 [32]
00000000: 365f 713b b6ef 7aba 2b21 c63b 804c ba3c
00000010: 798a 2ebe 856c 643c c09f 263c d6f4 593b
00000020: 7374 38bc 2270 5fbc 01bc 14bd 6747 e5b9
00000030: 9655 643d ff4d 283d 59e8 33bd 7cc6 b03b
00000040: b301 0bbc 9a6f a3bc 4cde e3bc 0747 3abd
00000050: 473d 50bb bc2d 81bc 51e8 963c 71e0 afbc
00000060: 4b0b a4bd 99bc c73c 933b d4bc d609 873d
00000070: 1614 2fbe e8b0 20bd 5241 cdbc fe76 c0bc
0.0036830432 -0.0009572463 0.0060464344 0.022741556 -0.1704501 0.013941889 0.010169923 0.0033257506
-0.011258232 -0.013637574 -0.036312107 -0.00043731483 0.055745684 0.041090008 -0.043922756 0.005394755
-0.008484292 -0.019950677 -0.02781596 -0.045477893 -0.0031774805 -0.015768878 0.018421324 -0.021469327
-0.080099665 0.024381923 -0.025907313 0.06593673 -0.17097506 -0.03923121 -0.025055561 -0.02349424

convN2.self_map.weight f4 [32, 32]
00000000: f50e 2c3e 7791 b13d db94 ddbb 1317 f93d
00000010: a6ae 753c c229 f23b c336 41bd ae3c e63d
00000020: 399b acbd 97c9 093e 0142 69be a885 1e3e
00000030: 589a c3be bb55 b43d 7c52 603d 66f2 653c
00000040: 2c61 763b f8e5 4abc 10cb 933d a1d8 1ebd
00000050: 0078 273e ca0d b33c 0816 3a3e a41d e73d
00000060: 9280 28be f864 8fbd 03a1 cbbc fc15 48be
00000070: 5d49 b2bd 5c4c c23d 6b43 85bd 3c73 d23b
00000080: c81f f03e 51d6 66bd 6290 243e 3d50 a03d
00000090: 20f6 023e e803 2fbe 8574 15be 7bad a03d
000000a0: 13b4 bcbc b3f3 c6bd 446a 8cbe dca5 763e
000000b0: f997 00be ac07 91be 8529 d83d 569d 05be
000000c0: 2299 d9bc 94ed d9bc 2394 5e3e c00d c83c
000000d0: ea2b ba3c 244d 12bd 5d3a 373e e52b f1bb
000000e0: 9050 24be 1f2a 86bc 3b96 0dbe a53d b6bd
000000f0: a8de bbbd c5af d23b 5774 62bc e8b0 a0bd
00000100: c901 f0bc 460e 29bd 69d0 073e f8f2 243d
00000110: 5846 c3bd 5de6 3fbe 0576 513d 3b48 2d3e
00000120: d6c9 e43c 5b9f b13d 3f55 05be 2f54 8a3e
00000130: 3f53 17be 6857 4a3e 207c 82bd 2b56 123d
00000140: ff27 d7bc f98c d5bd a064 d7bd d0d2 013e
00000150: ae0d 9e3d cbac 5cbd 37db 06bd ac09 b23d
00000160: 9069 113d 0bd6 bfbc 8055 5e3e f139 9fbe
00000170: 0178 483e e812 bd3b 511f ca3d 40bd 5d3d
00000180: 8191 6c3e 397a 42bd 702a a7be 2b07 77be
00000190: 8983 b83d 3b12 5fbe 12fb 203e d079 1b3d
000001a0: d7d1 9fbc f09a 483d 4bc9 953d 9981 a8be
000001b0: ddf7 23be cdef bebd 2cdb 5fbd a527 f0bc
000001c0: 7753 f8bd 241a b2bc 0683 5f3e b550 793c
000001d0: 9043 83be 2734 fbbc 7be0 de3c b033 88be
000001e0: 8eeb f93c 55b0 36bd b83e 2dbe ab1c c2be
000001f0: 6e91 9abc 4a8c 033d 5a36 533e c962 babe
00000200: 7438 96ba f8ba b6b8 0500 41bb a08f 85b9
00000210: 43bb f4b8 007e 323a 1bb4 8db5 df6c 88ba
00000220: 2c7f c834 af7a 863a c445 06b8 7cad ffba
00000230: 4b4a a93b 5b97 ccba 166a a9b9 e88c b0b8
00000240: 467d 353b 2c24 04bb 0941 3cba 8456 b1b9
00000250: 4588 b4b8 cf92 15b9 f58e aab8 1c0d 4dba
00000260: c228 24ba fcc3 02b9 ef5e 96b8 5e74 11bb
00000270: 3ecf e03a 6715 30b9 cecc 5eba a68e a0b8
00000280: 50cc 6c3d ef4a af3b 01e4 4bbd 383c 95bd
00000290: f4ff 16bc 8a32 6bbd 2b4b 0ebc a0f9 78bd
000002a0: 9939 563d f146 933c 3ff5 093c ab4f 37bd
000002b0: 6eaf 5dbd d37b 39bd fa24 5b3d 387b b2bc
000002c0: d8df b9bc 6716 473c ff9e e1bc 670a 31bd
000002d0: 30ae de3b 5e82 65bc d4ec f93c 9657 59bd
000002e0: 228e 8cbd 03db fb3b 221f d1bc 3f68 31bd
000002f0: e5ee 4dbd 26ae 90bc 4cdb 5dbd 9bff 3abd
00000300: aed5 293e b0ae c43d 0d85 063e f7ca 19be
00000310: cb5a a3bc 692b e7bd f0b3 813e e2bd 5e3d
00000320: 52f8 9abd 1f8a d5bd 5a27 793e 0f3a dc3c
00000330: b1b1 9bbc 4546 28be 85af 9d3d 98d1 cabd
00000340: 36d0 e0bc 009f e03d ae9b 433e 053c 6abd
00000350: 47eb 58bd fcf3 cc3d 44ab 843d c0d5 0cbe
00000360: dffd 02bd 2cb3 763d 3b80 1e3e 812b 64be
00000370: 1284 a0be 0d2f 9ebd bb15 ab3d 1ee7 71be
00000380: 222d e73c 2592 b33d 94ed 113c a1a8 e53d
00000390: fb52 1b3e f6e5 343e 8bd8 1bbb c79f 953c
000003a0: 616c adbd ead8 0c3e 4fb1 2b3e 7737 f63d
000003b0: 2672 433d 1fda 953d b9f3 5dbd 2672 cbbd
000003c0: 7905 543d 0757 09bd 67d4 103d 02e4 eb3d
000003d0: 3702 08bf 63c8 643e 27a6 603e cb67 cebb
000003e0: d1a5 2dbd fb01 04be 7174 0fbe b588 36bd
000003f0: 98fb 973d 860b 0f3e 2bfc fabd e6f5 403d
0.1680258 0.08670323 -0.0067621297 0.12162604 0.014995253 0.007390232 -0.047171365 0.112420425
-0.08428044 0.13455807 -0.22779085 0.15480673 -0.38203692 0.08805414 0.054766163 0.014034843
0.003759454 -0.01238393 0.072164655 -0.038780812 0.1635437 0.021857161 0.18172467 0.112849504
-0.16455296 -0.0700168 -0.02485705 -0.19539636 -0.08705399 0.09487221 -0.065069996 0.0064224284
0.46899247 -0.05635673 0.16070703 0.07827804 0.12789202 -0.17091334 -0.1459523 0.07845589
-0.023035085 -0.09714451 -0.27424824 0.24086708 -0.12557973 -0.28326166 0.10554794 -0.130483
-0.026562277 -0.026602544 0.21736197 0.024420619 0.022726018 -0.0357181 0.17893358 -0.007359969
-0.16046357 -0.016377507 -0.1382684 -0.088984765 -0.09173328 0.006429645 -0.013821683 -0.07846242
-0.029297726 -0.041273378 0.13263096 0.040270776 -0.095349014 -0.1874022 0.051137943 0.16922085
0.027928274 0.08672973 -0.130208 0.27017352 -0.1477785 0.19759905 -0.06371331 0.035726707
-0.026264189 -0.10427279 -0.105172396 0.12678075 0.07717453 -0.053875726 -0.032923903 0.08693251
0.035501063 -0.023417493 0.21712303 -0.31098893 0.19577028 0.005770076 0.098692544 0.05413556
0.2310238 -0.04747984 -0.32649565 -0.24123828 0.09009463 -0.21784298 0.15720776 0.037957966
-0.01950924 0.048975885 0.07313784 -0.32911375 -0.16012521 -0.09323082 -0.054652378 -0.029315779
-0.12125295 -0.02174098 0.21827325 0.015216996 -0.25637484 -0.030664517 0.02720665 -0.26601934
0.030507829 -0.044601757 -0.16918457 -0.37912497 -0.018868174 0.032116212 0.20626202 -0.36403492
-0.0011460916 -8.713262e-05 -0.0029449475 -0.00025474746 -0.00011669707 0.00068089366 -1.0557736e-06 -0.0010408423
3.7345433e-07 0.0010259951 -3.2013064e-05 -0.0019506658 0.005166327 -0.0015609072 -0.00032313232 -8.41858e-05
0.0027693077 -0.0020163162 -0.0007181322 -0.0003382453 -8.608451e-05 -0.00014264438 -8.1328595e-05 -0.0007822083
-0.0006262177 -0.00012470776 -7.17024e-05 -0.0022194604 0.0017151607 -0.00016792641 -0.0008499146 -7.655965e-05
0.057812035 0.005349509 -0.04977799 -0.072868764 -0.009216297 -0.057421245 -0.008684914 -0.060784936
0.052301023 0.017978163 0.008420288 -0.04475371 -0.05412238 -0.045284104 0.05350206 -0.02178727
-0.022689745 0.012151337 -0.027541636 -0.04322281 0.006795667 -0.014008133 0.030508436 -0.053062044
-0.06863047 0.0076860203 -0.02552754 -0.043312307 -0.050276656 -0.017661165 -0.054164216 -0.04565392
0.16585419 0.096036315 0.13136692 -0.15018831 -0.019940754 -0.11287577 0.25332594 0.054380305
-0.075668946 -0.10426735 0.24331418 0.026883153 -0.019005628 -0.16433056 0.07699493 -0.09903258
-0.027443033 0.10967827 0.19102356 -0.057186145 -0.052958753 0.10007474 0.06477979 -0.13753414
-0.03198039 0.060229465 0.15478604 -0.2228222 -0.31350762 -0.07723818 0.08353754 -0.2362332
0.028219763 0.08768109 0.008906741 0.11213804 0.15168373 0.17665848 -0.0023780193 0.018264664
-0.08467937 0.13754621 0.16766857 0.12022298 0.047716282 0.07316994 -0.05418751 -0.099338815
0.05176303 -0.03353026 0.035358813 0.115180984 -0.5312838 0.22342066 0.21938382 -0.006298994
-0.042394463 -0.1289138 -0.14009263 -0.044563968 0.074210346 0.1396924 -0.122551285 0.047109507

convN2.self_map.bias f4 [32]
00000000: 41ab 253e 2ad2 50bb 125f 9fba cd42 e0bc
00000010: e59c 8830 a85e 8d36 8078 be3c a678 403d
00000020: 01b1 fe34 aaf6 61bc 418a 693c 6940 62bd
00000030: 9583 803c f76d a13c e51b 573d 5ce1 2f39
00000040: f3e9 f33c 1e28 af3c 56d1 c8bc 3543 763d
00000050: 270a 13bd d00a 9b3e 1da1 95ba 6d15 293d
00000060: 7893 fdbc 1fe1 5b3c aaf0 683d d3dc 4b34
00000070: 9236 93bc da78 f53d 308e f3bb bda1 983e
0.1617861 -0.0031863549 -0.001215907 -0.027375603 9.939894e-10 4.213147e-06 0.023250818 0.04699006
4.7439974e-07 -0.013791719 0.014254154 -0.055237208 0.015687743 0.019705756 0.052516837 0.00016773253
0.029774642 0.021381434 -0.024513882 0.060122687 -0.035898354 0.30281687 -0.0011415813 0.0412802
-0.030954108 0.013420372 0.05687014 1.8986184e-07 -0.017970357 0.11985941 -0.0074327216 0.29810897

convN2.pass_map.weight f4 [32, 32]
00000000: 784f f0bc 7914 acbe c770 93be b002 223e
00000010: ccb7 aa3d bc32 9a3e fb81 153d d7f6 803e
00000020: 3147 27bf 37bd 2fbe 4ac5 773f 5da1 7e3e
00000030: 4eb9 663f 3296 dabe 7647 b6bf a48d b03e
00000040: 75a3 12bd 2e68 c1bc 8979 703e d80e 3bbf
00000050: 9888 85bf b85b 9abe f070 04bf c665 d4bd
00000060: 1616 aabd d675 e5bd 2e85 0b3e 8e78 b93e
00000070: 248f d03c 3e8b a4be 8d64 043e f4de 39be
00000080: 27f1 5b3e 7a26 abbe acbd dc3d b6b5 883d
00000090: 2d5b 393d 6449 c3bd 9a5d 73be a840 6fbd
000000a0: 7997 0bbe 7f94 5cbe b914 89be 099d 9b3e
000000b0: 4b38 a9bd 8ef0 57be 6c66 a1bd 0241 ea3d
000000c0: 5551 2d3e 016c 523d 3992 c43d 78ea 82be
000000d0: 325c 063f cf41 dabe d8dd 3b3d bf12 6e3e
000000e0: 86fc 49bd 0980 9f3d 495d 19bd 61db 1dbd
000000f0: 735e 2a3b fb74 d3be 77d9 9bbe e9c6 933e
00000100: cb12 8d3e ac4b 1bbe 16fe cd3e 6d14 333d
00000110: fb61 37be 75e3 adbe ae36 263f 9ec6 413e
00000120: 25bd c0be a6d7 013e a7d3 a93e 21f5 e43e
00000130: 4698 923e 7127 803d 9a1d 0abf eb27 093f
00000140: 148d 2dbd fdbd 3f3a 4d98 753e 6830 2fbf
00000150: 35a7 2fbe 66db e7be 5b2b ddbe d794 d7be
00000160: 5a34 ddbe 59fe 00be f400 e63d 02a0 fdbe
00000170: 2473 3fbe 0dfa 66be d3ad 0f3e a556 0dbe
00000180: 3e1f 653e 09e1 33be 8353 b73d 2b0b c93e
00000190: 4b50 af3b 2f00 033b 5de6 1cbe 2dcd 463e
000001a0: b692 813d 36ea dabd 6966 873e a5ff 103e
000001b0: a94f 393e 9d29 b03d 674f cbbd a920 8b3e
000001c0: 0a27 f63d fcb4 4c3c e679 d83e 7904 b6be
000001d0: b351 063f 78ee 47bd 86f7 03be 5e29 153f
000001e0: 177f 86be 2b9b 833e a364 9c3e 1726 b1be
000001f0: d3f2 1bbe 9421 ca3d 0707 02be 3e78 733d
00000200: e572 75b9 7f8e f0b8 0570 96b6 e273 d4ba
00000210: 3e1c 61bc 19d9 8eb4 5ca3 aeb8 e1e8 3aad
00000220: d65e 78b8 d69e 8438 6f00 6db1 c5a4 c6b3
00000230: 4d02 38b2 e69e 18b7 a7d2 f3bb 5f86 35b3
00000240: 8158 b8b6 8cd1 0200 d843 69b6 c22a 0abb
00000250: 2adf c4b7 e178 6738 a6dc 5936 ec12 1ab9
00000260: e191 90ba ae58 20ac c415 b6b8 ac40 ceb5
00000270: 62e5 1dbc 7c6f ecb1 4b7a a5ba 4b97 8eb0
00000280: 05e5 17bc 7b5a c2bd 0124 52bc 3ad2 67bb
00000290: 89d6 ccbd e975 42b9 54a8 69bc bbcb dcba
000002a0: 95a7 1cbd bf1e 3abd 4f50 b9ba 7b9d 14bb
000002b0: 9fa5 08bd e74e aa3c 80ba 8ebd 951d ddb9
000002c0: bc0d 93bc 469b 0900 7200 e4bb 76b7 863d
000002d0: 22a9 d5bc 1864 05bc 3d50 12bd 2571 d4bc
000002e0: 725a a0bd a834 e83d b789 24bd fce5 adbc
000002f0: f95f 94bd 66d4 863a ac70 64bd 1142 30b8
00000300: 5b94 c03e e652 493d 75d2 233e 2f89 123d
00000310: 5e05 c7be 41cb 333d 15ae a33d 4b49 a73d
00000320: 244e 99be 5dad 1b3e 62a1 95bb 1fde 943e
00000330: 9b7b 593e 2fe0 db3d 9fb0 67be 73a2 a23d
00000340: 41bb 0c3d 6d8d 193d 59b0 ee3d 5a12 acbd
00000350: c1b5 3cbe d18b 503e b63e 9b3c 3643 403e
00000360: 10f2 22bd 124f 47bd bfe7 3ebe 406d e03d
00000370: cc54 88bd 9e53 0d3f d963 053e b299 333c
00000380: 645c 153f b7e2 803d 5361 493f 543f 86bd
00000390: 15d9 abbe 3f2c 92bd 8ace 0f3f 0055 f5be
000003a0: 63f6 953d 0c7f 0a3f 884f 23be 4c7f babd
000003b0: 2b4e 823e 81e9 95be ac38 0bbe ec79 643e
000003c0: bb5f 2c3f c40d 483c 2552 33bf adf6 85be
000003d0: 3dcc 293f 095c c2be 2028 3bbf 6694 4ebd
000003e0: e757 b83d 829e 8abe ec76 953d 5047 6d3e
000003f0: 5da0 c4be 9846 dbbe 47b5 953c b5e8 e2be
-0.029334769 -0.3360937 -0.2879698 0.15821338 0.08335838 0.30116832 0.036500912 0.25188324
-0.65343004 -0.17162023 0.96785414 0.24866243 0.901265 -0.42692715 -1.4240558 0.34483063
-0.035800416 -0.023609247 0.23483862 -0.73069525 -1.043231 -0.301481 -0.5173483 -0.10370974
-0.08304994 -0.11204116 0.13625023 0.36224788 0.02545888 -0.32137483 0.12928982 -0.18151456
0.21478711 -0.33427793 0.107783645 0.066752836 0.045252968 -0.095354825 -0.23766175 -0.05841127
-0.13632001 -0.21541022 -0.26773623 0.30393246 -0.0826269 -0.21087858 -0.078808635 0.114381805
0.16925557 0.05137253 0.09598202 -0.2556951 0.5248443 -0.42628333 0.045865864 0.23249339
-0.04931309 0.07788093 -0.03744248 -0.038539294 0.0025996238 -0.41300187 -0.3043935 0.28862694
0.275534 -0.15165585 0.40232915 0.04372065 -0.1790847 -0.33962598 0.64927185 0.18923423
-0.37644306 0.1267992 0.3316929 0.4471827 0.286318 0.06257523 -0.5395142 0.53576535
-0.04237087 0.0007314382 0.2398388 -0.6843324 -0.17153628 -0.45284575 -0.4319714 -0.42105743
-0.43204004 -0.12597026 0.112306505 -0.4953614 -0.18696266 -0.22556324 0.14031152 -0.13802584
0.22375199 -0.17566313 0.089514755 0.39266333 0.005350148 0.0019989123 -0.15322252 0.19414206
0.06326811 -0.106892034 0.2644532 0.1416002 0.18096794 0.08601687 -0.09927254 0.27173355
0.12019165 0.012494322 0.422805 -0.35550287 0.52468413 -0.048811406 -0.12887391 0.58266246
-0.26268837 0.2570432 0.3054553 -0.34599373 -0.15229349 0.09869686 -0.12697993 0.059440844
-0.00023407822 -0.00011470634 -4.483389e-06 -0.0016208852 -0.013739644 -2.660752e-07 -8.3273946e-05 -1.0624585e-11
-5.921613e-05 6.323836e-05 -3.4488286e-09 -9.250065e-08 -1.0710733e-08 -9.096902e-06 -0.007440883 -4.2264556e-08
-5.4939305e-06 2.58842e-40 -3.4759196e-06 -0.0021082615 -2.346894e-05 5.518727e-05 3.2463954e-06 -0.00014693633
-0.0011029803 -2.2786595e-12 -8.6824904e-05 -1.5367018e-06 -0.009637209 -6.8811783e-09 -0.0012624947 -1.037486e-09
-0.009270911 -0.09489914 -0.012825967 -0.0035373108 -0.10001857 -0.00018545207 -0.014261324 -0.0016845384
-0.038245756 -0.045439478 -0.0014138314 -0.0022676873 -0.033361074 0.020789577 -0.06969166 -0.00042174445
-0.017950885 8.82221e-40 -0.006958061 0.06577961 -0.026081625 -0.00814154 -0.035721052 -0.025932858
-0.07829751 0.113381684 -0.040170398 -0.02122783 -0.07244868 0.0010286688 -0.055771515 -4.20232e-05
0.37613186 0.049151324 0.15998252 0.03577536 -0.38871282 0.04389501 0.07992188 0.081682764
-0.2994243 0.15202852 -0.0045663575 0.29075715 0.21238558 0.10736119 -0.2262597 0.07941141
0.034358267 0.03748839 0.116547294 -0.08401938 -0.18428709 0.20365836 0.018950801 0.18775639
-0.03978163 -0.04865939 -0.18643092 0.10958338 -0.06656799 0.55205715 0.1302637 0.010961937
0.583441 0.062932424 0.7866413 -0.06555048 -0.33564058 -0.071373455 0.5617453 -0.47916412
0.07322385 0.5410011 -0.15948308 -0.09106311 0.25450262 -0.29279712 -0.13595837 0.22312135
0.67333573 0.012210313 -0.7004722 -0.2616476 0.6632727 -0.37960842 -0.731081 -0.050434493
0.09001141 -0.27074057 0.07298073 0.23171735 -0.38403597 -0.42827296 0.018274916 -0.44318166

convN2.pass_map.bias f4 [32]
00000000: 5ae3 253e 1bdc 59bb 0683 3dba 1ac0 e0bc
00000010: 59cc a730 96ae 9836 372d bf3c cb72 443d
00000020: 990b 6a34 4b01 67bc b13d 6b3c 68da 61bd
00000030: a575 7e3c b9a1 a73c c28d 5b3d 904e 2f39
00000040: 8281 f43c 99e3 b13c 241e cdbc 35a9 763d
00000050: b154 12bd ea2c 9b3e 3b40 92ba f14a 293d
00000060: 8484 ffbc 153b 5d3c 41ce 683d f192 c833
00000070: 20e8 92bc 4298 f53d fe59 f1bb 73d2 9a3e
0.16200009 -0.0033242765 -0.0007229302 -0.027435351 1.2208928e-09 4.5502775e-06 0.02333699 0.047961038
2.1797167e-07 -0.014099429 0.01435797 -0.05513993 0.015530978 0.020462858 0.053601988 0.00016718567
0.02984691 0.021714972 -0.025038786 0.060219962 -0.0357253 0.30307704 -0.0011158058 0.041331235
-0.031191118 0.013502856 0.056837324 9.339954e-08 -0.017932951 0.119919315 -0.0073654642 0.30238685

convE2.self_map.weight f4 [32, 32]
00000000: 988d 74bd abde 3fbd 95f1 5bbd 4b9f f5bc
00000010: 3a24 c5bd 43c3 33bd 4035 c1bc 2241 a2bc
00000020: 5383 4f3c c009 8abc 765c dcbb dadd b2bc
00000030: 5468 e2bb b1f5 18bd 2313 b8bd d9c4 83bd
00000040: 140e e1bc 383c 9537 f2d2 d9bc fe06 8abd
00000050: b0bb 5bbd 054c 9e3b 194a 62bd ad69 f43b
00000060: 6f17 eebc cfb5 953b 4670 37bd f0f4 883c
00000070: 73d7 a9bd 7e42 75bc 11e0 5cbd 6758 07bd
00000080: 2219 7fb8 0707 f3bb b444 01b9 cd08 9bbc
00000090: 803d 94bd 534a 95bc a92f 93ba a279 79ba
000000a0: 93ae 323b f140 d1ba 8f03 39b6 474e a6ba
000000b0: f2a1 62bc b1d0 d3bb 69d4 a0bc 2e0b 83ba
000000c0: bc80 a6bb 68be 7035 1b37 52ba 5162 88bc
000000d0: 23df 53bc f9dd 153c 950c bbbb ad4e f43a
000000e0: b3f7 9dbc 475d 93bb 0b11 7dbc dae8 d0bc
000000f0: c443 75bd 8b4e a93a 7817 90bc 7c49 93b8
00000100: 1166 af3c 144d 04bd c4d7 343c 793d c8bd
00000110: 7314 04be 4397 23bd c6c1 dcbc 1568 2c38
00000120: 1ecc 82bd 18f3 19bc 21f9 0600 0cb8 283d
00000130: c8e2 36bc d659 18bd 4d88 3abd 0348 99bc
00000140: 93b9 b4bb cf29 9aba 4920 94bd 892e 1b3d
00000150: 1463 88bc ea70 76bd 26d1 c33c 2178 93bd
00000160: 37a3 3ebe 42e2 e5bc ab58 99bd 9a52 37bc
00000170: 6a79 b8bd 2a08 d43c 4e61 8fbd 9a6e c4bb
00000180: 2a66 82bd 94bf da3c e576 7e3c 8e9f adbd
00000190: 63d4 6cbd 003e 563e 172f 6a3d aca5 c0bd
000001a0: ea1f 763d ce4c a7bd 6cfe 97bb b909 4bbd
000001b0: aa52 27be c53f eabd f5e1 4abe 3ef7 f739
000001c0: ff7b 063c 0afe 853d 0872 bf3d b938 13be
000001d0: 1e01 4cbd d397 603c 9c20 05bc 9d8a d43d
000001e0: 0ed6 823c 8739 06be a5e3 6fbe c41b 7fbd
000001f0: 2fb4 b9bd 4b6f 653d 6499 f5bd 87ad 21be
00000200: b85d 60bb fca9 16be af15 0bbc 05cf 76be
00000210: 6bd3 c1be 94fb 50bd dfdd 343c 710c 6abb
00000220: 0185 50be aa71 21bc 6596 41bc e036 4cbd
00000230: dc86 463c 9ae6 3538 5376 efbd e1cc 91bd
00000240: 26e9 dc3c 8291 a8bb 206b 4bbc 2f0a 3bbe
00000250: d09b 0d3c 6f0d 81be 396d a2bb 7348 26bd
00000260: b7e3 54be de1d 16bd 43f6 53be db12 dabb
00000270: 3d21 9bbe 4206 48bd b898 7fbe d6bf 673c
00000280: 7792 403c f5ef 80be 4b6a 07bd 4d70 4fbc
00000290: e83e 17be 7a47 c3bd 58cb 8c3d e184 92bd
000002a0: cd32 7abd 1822 5abc 7109 4abd 34ec 9abd
000002b0: 1950 d83b d958 bebd 7161 d1bd 7034 f4bc
000002c0: 3032 7abd 1be5 a33c b0ba cb3d 3549 97bc
000002d0: 0223 1ebd d5e6 89bd faee 22bc 3e9f 1b3d
000002e0: 0a71 d4bd 3fd3 5cbd ee83 c6bd 43c1 adbd
000002f0: 49dc 483d 5eeb 2a3e 596f 86bd abfd afbc
00000300: 44bb 6b3b e312 62ba 7239 2bbd b089 87bd
00000310: c822 f2bc 3cf4 c13d e3f4 c4bc a86f b43c
00000320: f3e8 b2bc 5986 343c 8e93 f73d 8ae7 01bd
00000330: c517 71bd 0392 0a3d 8494 41be 4518 123d
00000340: 0335 b13c 2d36 14bc 56b7 bc3c 643f 06bd
00000350: df1c 683d 677f 71bd 837d d73b 3b2f d3be
00000360: d690 dabc 7053 1bbe db45 56bb 0242 97bd
00000370: b21c cabd b16c 3d3b e73b 0bbd 4998 3cbc
00000380: 07f1 0bba 4bc2 a7bb 1e96 92bb dd0b 82bc
00000390: 94b6 54bd 71b0 1cb9 c876 a8ba 1ddf 04ad
000003a0: 191c 85bc ffb5 cbb7 57ff 31b6 e242 e5bb
000003b0: 1fd3 d6ba 52aa fdb9 5329 81bc cc15 4ab9
000003c0: 40b1 7cbb 6d2a 0c80 6352 1aba 91ab 86bc
000003d0: 6425 06bb d491 2abc 93d8 c5ba e3bb 8dba
000003e0: 373e ebbc 3563 c2b1 c96c 8ebc 69b0 d7bb
000003f0: 9886 73bd 0f0a 8dbb 5f8f 8ebc 7aa1 62b9
-0.059705347 -0.046843212 -0.053697187 -0.029983183 -0.0962605 -0.043887388 -0.023584962 -0.019806448
0.0126655875 -0.016850352 -0.0067248894 -0.021834303 -0.0069094095 -0.037343685 -0.08988025 -0.0643403
-0.027472533 1.7790226e-05 -0.026589844 -0.06739615 -0.05364579 0.0048308396 -0.055246446 0.0074588866
-0.029063908 0.0045687924 -0.044784807 0.016718358 -0.08293047 -0.014969466 -0.053924624 -0.03304329
-6.0820144e-05 -0.007416609 -0.00012327993 -0.018925095 -0.07238293 -0.018223917 -0.0011229414 -0.0009516721
0.00272647 -0.0015964789 -2.756922e-06 -0.0012688123 -0.013832556 -0.006464087 -0.019632535 -0.0009997839
-0.0050812643 8.9684045e-07 -0.00080190756 -0.016648443 -0.012931618 0.009147161 -0.005708287 0.001863917
-0.019283151 -0.0044972035 -0.015445958 -0.025501657 -0.05987908 0.0012917084 -0.017589316 -7.023194e-05
0.021410974 -0.03230007 0.011037771 -0.0977735 -0.12898426 -0.039939176 -0.026947867 4.110493e-05
-0.063865885 -0.009396337 6.40384e-40 0.041191146 -0.011162467 -0.03719505 -0.045540143 -0.018711096
-0.0055152862 -0.0011761728 -0.072327204 0.037886176 -0.016648807 -0.060166277 0.02390344 -0.07200647
-0.18616949 -0.02806199 -0.07487615 -0.011189127 -0.09007533 0.0258828 -0.07000981 -0.00599463
-0.063671425 0.02670268 0.015531276 -0.08477698 -0.057819735 0.20922089 0.057173815 -0.094065994
0.06008903 -0.08168946 -0.0046384837 -0.04956982 -0.16340128 -0.11437944 -0.19812758 0.0004729572
0.008208274 0.06542595 0.093479216 -0.14377107 -0.049805753 0.013708073 -0.00812545 0.10378001
0.01597121 -0.13107882 -0.23426683 -0.06228234 -0.090675704 0.05601434 -0.119921476 -0.15788852
-0.0034235548 -0.14713281 -0.0084890565 -0.24102409 -0.37856612 -0.051021174 0.011039226 -0.0035712982
-0.20363237 -0.00985376 -0.011815642 -0.04985702 0.012117114 4.3368527e-05 -0.116924904 -0.07119156
0.026966643 -0.005144299 -0.012415677 -0.18265603 0.008643106 -0.25205562 -0.004956868 -0.040596437
-0.20789991 -0.036649577 -0.2069941 -0.00665508 -0.30298796 -0.048834093 -0.24960601 0.014144858
0.01175367 -0.25183073 -0.033060353 -0.012661052 -0.1477009 -0.095351174 0.06874722 -0.07154251
-0.061083604 -0.013313793 -0.04932541 -0.075645834 0.0066013453 -0.0929429 -0.102236636 -0.02981016
-0.06108302 0.020006707 0.09947717 -0.018467525 -0.038607605 -0.06733481 -0.009944672 0.037993662
-0.10373123 -0.053912397 -0.09693132 -0.08484127 0.049038205 0.16691348 -0.06564207 -0.021483263
0.0035969773 -0.000862403 -0.04180283 -0.06618059 -0.0295576 0.09470412 -0.024042552 0.022025898
-0.021839594 0.011018359 0.12088691 -0.031714953 -0.05886056 0.033830654 -0.1890431 0.035667676
0.021631723 -0.00904612 0.02303664 -0.032775298 0.05666816 -0.05895939 0.0065762415 -0.4124697
-0.026680391 -0.15168548 -0.0032695446 -0.07385637 -0.098687544 0.0028903896 -0.033992674 -0.011510917
-0.0005338345 -0.005119597 -0.004473462 -0.015874797 -0.051931933 -0.00014943049 -0.0012852782 -7.552872e-12
-0.01624875 -2.4284234e-05 -2.6523683e-06 -0.0069964984 -0.0016389823 -0.0004838282 -0.015766775 -0.00019272341
-0.0038557798 -1.117245e-39 -0.00058869104 -0.016439231 -0.0020469064 -0.010410745 -0.0015094451 -0.0010813441
-0.02871619 -5.6574216e-09 -0.017385857 -0.006582309 -0.05945453 -0.0043041776 -0.017402349 -0.00021613194

convE2.self_map.bias f4 [32]
00000000: c1b8 a03c c185 98ba d694 2e3b 6073 f0bc
00000010: 31d0 f73f 6b4b c83c 3612 4bbe 10fb 7aba
00000020: 4e1b 7aba c79a 003f ac02 da3c bd33 833e
00000030: 72f9 103f 3a6d 913e 0ca8 be3c 00c4 e9ba
00000040: 9e24 73be 98f9 1dbe bc88 1bbd 2374 03bd
00000050: 177d 28be 7c7d 34bb 3600 8cba f7fd 59b9
00000060: d331 53bc 0063 30b8 e01e 60bc 0bab 23bc
00000070: fc3d e3bd 6745 2cbc 243e 373b ad8d 883d
0.019619348 -0.0011636541 0.0026639006 -0.02935189 1.936041 0.024450025 -0.19831166 -0.00095741544
-0.0009540812 0.5023617 0.026612602 0.2562541 0.56630623 0.28403646 0.02327349 -0.0017834902
-0.23744437 -0.15427244 -0.037972197 -0.03209318 -0.16453968 -0.0027540615 -0.0010681215 -0.00020789342
-0.012890297 -4.205387e-05 -0.013679236 -0.00998951 -0.11095807 -0.010514594 0.0027960623 0.066676475
