train_script/weights/GCNEdgeBased_model300_Aug_24/99.pth (torch, 120987 bytes, 51 tensors)

convN1.self_map.weight f4 [32, 13]
000000 62 99 04 00 78 91 0e 00 f0 1c 0d 00 34 81 0f 00
       4.22365e-40 1.337881e-39 1.204242e-39 1.423882e-39
000010 32 7d 0e 00 bc a8 0b 80 c0 10 0e 80 b1 10 0e 80
       1.330609e-39 -1.070721e-39 -1.291706e-39 -1.291685e-39
000020 cb 2b 0a 80 4d 51 11 80 5b 01 00 00 e7 a3 08 00
       -9.34065e-40 -1.590369e-39 4.86e-43 7.93481e-40
000030 6a 0e 0a 80 44 3f 07 00 65 c6 0b 80 76 71 15 00
       -9.23526e-40 6.65544e-40 -1.081361e-39 1.969248e-39
000040 2c f0 03 00 4c e1 06 00 5a 6d 09 00 ae 32 0d 00
       3.61664e-40 6.31834e-40 8.65747e-40 1.212042e-39
000050 4e 01 03 00 a3 61 0a 80 69 9b 04 00 e4 f7 01 80
       2.75975e-40 -9.5338e-40 4.23093e-40 -1.80762e-40
000060 6b 41 15 80 b8 ef 0b 80 2e 2c 0a 00 ef 29 03 00
       -1.952013e-39 -1.096185e-39 9.34204e-40 2.9055e-40
000070 73 5d 04 00 5a ed 09 00 3e 3a 0b 80 20 92 0c 80
       4.00865e-40 9.11665e-40 -1.031084e-39 -1.154446e-39
000080 e9 86 00 00 b1 15 09 80 50 86 0d 00 fe f3 0e 80
       4.8397e-41 -8.34301e-40 1.242044e-39 -1.373225e-39
000090 38 06 08 80 84 92 0d 80 72 a8 0d 80 d5 35 04 80
       -7.36915e-40 -1.246421e-39 -1.254288e-39 -3.86653e-40
0000a0 5b 2a 04 80 4f 0d 08 80 bd fa 0d 80 fe 7d 06 80
       -3.82536e-40 -7.39458e-40 -1.28381e-39 -5.9621e-40
0000b0 c9 63 03 80 f6 27 03 80 3e d4 06 00 a0 99 0d 00
       -3.11303e-40 -2.89842e-40 6.27151e-40 1.248972e-39
0000c0 fe 63 13 80 73 c5 05 80 65 d4 10 80 00 34 05 80
       -1.780745e-39 -5.30009e-40 -1.545561e-39 -4.77832e-40
0000d0 7e f5 0b 00 d9 6d 03 80 06 7b 0b 80 f5 7d 14 00
       1.098256e-39 -3.14912e-40 -1.054323e-39 1.881895e-39
0000e0 b1 09 0e 80 57 70 07 80 ec 60 06 80 e3 9f 0a 00
       -1.289174e-39 -6.83148e-40 -5.85782e-40 9.75712e-40
0000f0 38 5f 05 00 58 31 0a 80 82 91 0d 00 a8 d9 08 00
       4.93336e-40 -9.36056e-40 1.24606e-39 8.12764e-40
000100 a3 cd 0a 80 e8 b3 0e 80 8e 9d 10 00 82 a6 04 80
       -9.92124e-40 -1.350235e-39 1.525888e-39 -4.27074e-40
000110 64 82 08 00 9f 24 03 80 04 3f 0f 80 43 69 09 80
       7.8146e-40 -2.88644e-40 -1.400138e-39 -8.6428e-40
000120 85 60 03 00 e3 8d 04 00 37 b3 00 80 62 ef 07 80
       3.10131e-40 4.18241e-40 -6.429e-41 -7.28723e-40
000130 8b 95 09 80 83 15 04 00 73 3d 02 80 40 f8 06 80
       -8.80165e-40 3.75059e-40 -2.05715e-40 -6.40068e-40
000140 54 02 0b 00 bc e4 01 00 34 e6 14 80 18 b5 0c 00
       1.011026e-39 1.7389e-40 -1.919291e-39 1.16699e-39
000150 6e d9 13 00 5a 8d 0f 00 9b fa 12 80 cd a6 14 80
       1.822874e-39 1.42824e-39 -1.742939e-39 -1.896547e-39
000160 0f 74 07 00 ea c7 09 80 33 71 09 00 2a 95 0c 80
       6.84482e-40 -8.98235e-40 8.67128e-40 -1.155536e-39
000170 b2 a8 03 80 99 7f 01 80 98 aa 15 80 01 7d 01 00
       -3.36023e-40 -1.37609e-40 -1.989743e-39 1.36678e-40
000180 b5 e5 08 80 17 f8 08 00 c2 61 04 00 d8 02 12 80
       -8.17087e-40 8.23682e-40 4.02411e-40 -1.654059e-39
000190 e8 fb 0c 00 2d ed 0d 00 c4 b9 09 80 b3 9f 0d 80
       1.192393e-39 1.278944e-39 -8.9316e-40 -1.251151e-39
0001a0 93 86 00 80 dc 7a 01 80 4e 72 08 00 77 d3 01 80
       -4.8276e-41 -1.35909e-40 7.75689e-40 -1.67695e-40
0001b0 4e d2 0b 80 e4 c5 06 80 32 b0 0d 00 00 69 0a 80
       -1.085634e-39 -6.22003e-40 1.257068e-39 -9.56022e-40
0001c0 e8 67 0b 00 67 9e 0c 00 04 f1 11 00 c0 71 11 00
       1.047465e-39 1.15885e-39 1.647664e-39 1.602009e-39
0001d0 3b a5 14 80 9f 36 0e 80 bc 0c 16 00 22 f9 05 00
       -1.895983e-39 -1.305291e-39 2.024949e-39 5.4855e-40
0001e0 28 b7 0d 80 9e 72 14 00 df 8e 09 00 15 5e 01 00
       -1.259566e-39 1.877827e-39 8.77772e-40 1.25586e-40
0001f0 85 a8 06 00 0f 64 00 80 14 2d 06 00 ac 86 0d 00
       6.11466e-40 -3.5894e-41 5.67184e-40 1.242173e-39
000200 c3 4d 0f 80 65 0e 05 00 1e 37 10 80 6c 77 02 00
       -1.405428e-39 4.64341e-40 -1.48914e-39 2.26511e-40
000210 8e 30 02 80 5a 3e 08 00 2f 4e 0a 00 02 30 0a 00
       -2.01089e-40 7.57051e-40 9.46402e-40 9.35577e-40
000220 69 39 0e 80 a0 46 01 80 79 82 05 00 37 ec 09 00
       -1.306292e-39 -1.17171e-40 5.05982e-40 9.11257e-40
000230 6f 8c 0b 80 5c e3 09 00 ab b3 15 80 5c c9 02 00
       -1.060569e-39 9.0808e-40 -1.992998e-39 2.55905e-40
000240 17 3c 06 80 61 bf 06 80 5b ed 06 00 4f 52 06 00
       -5.72569e-40 -6.19667e-40 6.3616e-40 5.8054e-40
000250 01 ae 02 00 26 cf 01 00 a7 cd 02 80 a5 ed 03 00
       2.46092e-40 1.66146e-40 -2.57445e-40 3.60757e-40
000260 4c f6 0f 80 74 ef 0b 80 06 0d 0d 00 71 41 09 00
       -1.465887e-39 -1.09609e-39 1.198533e-39 8.49995e-40
000270 ba 12 04 00 57 d9 0d 00 8f 71 10 00 ab 55 0d 00
       3.7406e-40 1.271828e-39 1.510105e-39 1.224593e-39
000280 53 6d 02 00 30 1f 0e 00 af 99 10 80 c6 88 0b 00
       2.22889e-40 1.296885e-39 -1.524499e-39 1.059256e-39
000290 65 c3 0a 80 05 63 01 00 e7 c8 0c 00 ee 2c 06 00
       -9.8845e-40 1.27357e-40 1.174096e-39 5.67131e-40
0002a0 50 51 09 00 18 49 11 80 7b 28 02 00 e5 3a 0a 00
       8.55689e-40 -1.587425e-39 1.98193e-40 9.39482e-40
0002b0 0a d4 0e 80 b5 6f 11 00 91 68 07 80 7b ba 12 00
       -1.361762e-39 1.601276e-39 -6.8036e-40 1.719936e-39
0002c0 29 14 01 00 cd 22 0d 00 9a 62 06 80 6a ad 0a 80
       9.9068e-41 1.206346e-39 -5.86385e-40 -9.80564e-40
0002d0 67 37 01 00 35 ef 0a 00 df 23 08 80 a1 14 0d 80
       1.1171e-40 1.004166e-39 -7.47552e-40 -1.201262e-39
0002e0 ef b3 15 00 c3 dc 04 80 44 cd 03 80 f9 35 04 80
       1.993093e-39 -4.46536e-40 -3.49142e-40 -3.86704e-40
0002f0 c6 31 0b 80 9d a0 10 80 52 b3 02 80 b7 12 0d 80
       -1.028046e-39 -1.526985e-39 -2.47999e-40 -1.200575e-39
000300 42 21 0d 00 f6 11 0a 00 96 bb 08 00 f0 a7 0d 80
       1.205792e-39 9.24798e-40 8.01977e-40 -1.254106e-39
000310 a6 da 12 80 29 7b 10 80 e8 3a 0f 00 56 f0 09 80
       -1.731475e-39 -1.51355e-39 1.398664e-39 -9.12736e-40
000320 65 38 08 00 eb e1 04 80 db 0c 10 80 70 3a 0c 80
       7.54915e-40 -4.48386e-40 -1.47398e-39 -1.12299e-39
000330 1d d4 0d 00 b8 3d 0b 80 a7 22 0a 00 77 74 0c 80
       1.269953e-39 -1.032331e-39 9.30786e-40 -1.143806e-39
000340 13 ae 00 00 2a cb 12 00 ba 92 03 80 6a f5 0a 00
       6.2446e-41 1.72592e-39 -3.28142e-40 1.006393e-39
000350 3d f2 09 80 76 f4 0f 80 f5 4e 04 00 12 82 09 80
       -9.13418e-40 -1.465229e-39 3.95666e-40 -8.7318e-40
000360 2a 18 0f 00 9e 60 04 80 3d 90 08 80 d3 15 04 80
       1.386201e-39 -4.02002e-40 -7.86427e-40 -3.75171e-40
000370 4e 54 03 00 ca 89 07 80 4c 76 0e 00 46 06 05 80
       3.0575e-40 -6.92278e-40 1.328134e-39 -4.61428e-40
000380 60 0c 0e 00 85 02 13 00 98 5c 0a 80 b4 c1 03 00
       1.290136e-39 1.745778e-39 -9.51571e-40 3.44994e-40
000390 75 f5 10 80 52 10 0c 00 aa 60 02 80 92 1a 11 80
       -1.557421e-39 1.10788e-39 -2.18348e-40 -1.570735e-39
0003a0 cd 7b 0a 80 cb a7 0c 00 46 76 0e 00 7a 25 05 00
       -9.62766e-40 1.162219e-39 1.328125e-39 4.72622e-40
0003b0 e1 60 0c 00 92 73 03 80 eb 14 00 80 56 17 0d 80
       1.13678e-39 -3.16965e-40 -7.504e-42 -1.202233e-39
0003c0 0e b1 0a 00 f4 55 0d 00 ba 62 0c 00 21 49 05 80
       9.8187e-40 1.224696e-39 1.137442e-39 -4.85411e-40
0003d0 e2 7e 09 00 bb cd 00 00 af 61 02 00 2f 38 0b 00
       8.72036e-40 7.3802e-41 2.18713e-40 1.030345e-39
0003e0 8e 98 03 80 9c 91 07 80 8c a1 08 80 6a 0d 06 80
       -3.30233e-40 -6.95083e-40 -7.92636e-40 -5.55825e-40
0003f0 d4 79 0d 00 87 a5 03 00 d4 52 01 80 56 94 06 00
       1.237565e-39 3.34887e-40 -1.21549e-40 6.04226e-40

convN1.self_map.bias f4 [32]
000000 65 00 1a be 40 61 90 bd db 7c 4c bd 78 1f 9e bd
       -0.15039213 -0.07049799 -0.04992376 -0.07720846
000010 97 ed 12 be 97 42 a9 bd a9 e2 2f be 0b 7f 0b be
       -0.14348446 -0.08264654 -0.17176308 -0.13622682
000020 37 1d d2 bd 3d 2a 81 bd 06 3a ea bd fc dd 6f bd
       -0.102594785 -0.063068844 -0.11436848 -0.05856131
000030 96 d1 ef bd c8 50 b8 bd bd 3d e5 bd 8e 16 d0 bd
       -0.11709897 -0.08999783 -0.11193416 -0.10160552
000040 22 89 f7 bd 53 d3 42 be 4f 88 47 bd 9a 7a d0 bd
       -0.12086703 -0.19025926 -0.04871398 -0.101796344
000050 19 ea db bd a7 cb 6e bd 83 a6 0f be 39 ba 9f bd
       -0.1073801 -0.058299687 -0.14028363 -0.07799191
000060 c4 dc fa 3c a8 56 af bd 01 b4 d7 bd 72 4e f5 bd
       0.030622847 -0.0856145 -0.1053238 -0.11977853
000070 35 9d df bd 44 39 fe bd 0f 9d f9 bd d3 20 98 bd
       -0.10918657 -0.12413266 -0.1218816 -0.07428136

convN1.pass_map.weight f4 [32, 13]
000000 1d 68 fd 3d 2f ba e3 be f9 bb 2c 3d f1 fe 34 bd
       0.12373374 -0.44477984 0.042171452 -0.044188444
000010 e0 1b 7c bd 1e 0d 1f 3c bb 56 32 3e 73 a6 6e bd
       -0.06155002 0.009707717 0.17415898 -0.058264207
000020 89 76 59 be bb ab c1 bd bf f3 80 3d 39 f2 8c bc
       -0.21236624 -0.09456583 0.06296491 -0.017205345
000030 b6 01 28 3e c1 3f 2d 3d 49 43 e2 bc ed 7a 7a bd
       0.16406903 0.04229713 -0.027619975 -0.061152387
000040 49 44 19 bb f3 eb 08 be 98 5e 50 bb 15 29 d6 3b
       -0.0023386648 -0.13371257 -0.0031794664 0.006535659
000050 b2 9c 27 3c e8 05 7b 3c fa 01 47 3c 63 4f d4 3c
       0.01023023 0.015321232 0.012146467 0.02591676
000060 37 50 63 3c 50 95 d3 bc 63 f9 0f be 0b 5c 2c 3f
       0.013874105 -0.025828034 -0.14059977 0.67327946
000070 83 61 ef 3d f0 06 16 be 35 8b 7f be 93 fe f7 bc
       0.11688521 -0.14651084 -0.24955447 -0.030272758
000080 2e 5e 14 3d 24 48 fc bb ea 2b 54 bc 87 9b aa bc
       0.03622263 -0.0076990295 -0.012949923 -0.020826114
000090 2e 06 14 bc 38 6d 66 b8 26 10 2f bd 6b ff 3c 3e
       -0.0090346765 -5.493799e-05 -0.04274001 0.18456809
0000a0 58 52 bc bb d9 a3 39 bf 89 64 48 3b 2a 56 c3 be
       -0.005747121 -0.72515637 0.0030577502 -0.38151675
0000b0 09 c4 56 be 88 8e fd bc 8c b6 9c 3c f9 aa c4 bd
       -0.20973219 -0.030951753 0.019130014 -0.09602923
0000c0 97 03 7d 3c 12 46 af bc 69 a9 14 3d d8 b9 64 be
       0.01544275 -0.021395717 0.036294375 -0.22336519
0000d0 12 ad 6f 3e e3 20 26 3c 89 dd 64 bd f9 5b 19 3d
       0.23405865 0.010139677 -0.055875335 0.037441228
0000e0 b6 82 89 be e7 a4 e0 bd 3a e8 0f be b0 e8 e2 3c
       -0.26857537 -0.109689526 -0.14053431 0.027698845
0000f0 0e 07 3f 3c d6 58 d5 3d 5b 27 a0 3d 20 47 ee bd
       0.011659397 0.10417335 0.078200065 -0.1163466
000100 51 0c 49 be 9f 3b 80 3c c6 b6 b4 3c 17 30 a1 3e
       -0.19633605 0.01565343 0.02205981 0.31482002
000110 fd 4f c1 3c d4 73 d9 bc c4 65 94 bb 00 cd d8 3b
       0.023597712 -0.026544489 -0.004528733 0.006616235
000120 c1 ca c2 bd 6b e3 d4 3c 2e ed c1 b9 81 5d 62 bd
       -0.095113285 0.025987348 -0.0003698854 -0.055264954
000130 de 22 c0 3b 6e a0 08 3e 85 3f 55 bd cf 3b b6 be
       0.0058635315 0.13342449 -0.05206253 -0.35592505
000140 2d 3d 9e be 17 a7 bf 3d 85 6c dd 3e b1 ec 9d 3d
       -0.30906048 0.09358042 0.43246856 0.07711161
000150 47 d9 59 bc 43 ea 9d 3b f5 25 6c bc 0f b3 8f b9
       -0.013296432 0.004819186 -0.014413347 -0.00027408494
000160 d1 b1 33 bd b6 01 be bc 1e ec 0d bf 22 6d 31 bd
       -0.04387075 -0.023194175 -0.5543841 -0.043316968
000170 f2 42 ab bc 95 41 14 bc e7 05 46 be e1 95 dd 3e
       -0.020905945 -0.009048839 -0.19338189 0.4327841
000180 99 78 19 3d 47 1b 54 bd a4 74 18 be 4c 11 da bc
       0.037468527 -0.051783826 -0.14888245 -0.026619576
000190 a3 3e 63 be 5e fb 38 bd 84 7e e0 3b b8 dd 2c be
       -0.22191863 -0.045161597 0.0068510193 -0.16881454
0001a0 d3 8c 14 be b8 cc e6 3d 7a 3d e2 3c dc 52 3b be
       -0.14506845 0.11269516 0.027617205 -0.18293327
0001b0 bb 20 1a 3f 22 52 37 3d 4f 1b 56 3d 34 e8 8f ba
       0.6020619 0.044756062 0.052272137 -0.0010979236
0001c0 31 d1 89 3c 87 80 d7 ba 90 d2 40 3d 34 01 6d bc
       0.016823383 -0.0016441502 0.047075808 -0.014465619
0001d0 43 10 c4 bd d5 ff e9 3c b2 39 84 bd 29 6b 77 3c
       -0.09573414 0.028564373 -0.06456317 0.015101233
0001e0 58 b5 02 be 1b ab 34 3e 97 06 da 3c 23 af 1d bc
       -0.1276449 0.17643397 0.02661447 -0.009624275
0001f0 97 be 29 3c 84 5f a6 3e ae 03 64 bd e5 b7 a3 3c
       0.010360382 0.32494748 -0.05566757 0.019985149
000200 64 5c 9b 3b 03 f0 5b 3e 9f f0 84 be d7 f6 96 3e
       0.0047412384 0.21478276 -0.2596483 0.294852
000210 38 88 11 3e a6 d5 a4 3d 94 d4 8c 3f 56 db e8 3c
       0.1421212 0.08048563 1.1002374 0.0284249
000220 c3 b3 1f 3d 90 a3 80 ba 16 e2 36 3d b7 5d 80 bb
       0.038989794 -0.000981437 0.044649206 -0.0039174217
000230 2b 0d 11 bd 0f 4c 80 b9 40 2f ef 3e bf 2b 0e be
       -0.03541295 -0.0002447073 0.46715736 -0.13883875
000240 0c 74 df 3d ca e0 b9 3e fc 00 de 3d 95 b7 90 3e
       0.10910806 0.36304313 0.108400315 0.28265062
000250 bb 3b 4f 3c 1d 62 a9 3d 3d 6b 6b 3e b1 b2 3e 3d
       0.012648518 0.08270667 0.22990127 0.046557132
000260 56 30 36 bd fa 31 d5 3d 8c 55 45 3d c9 e3 02 bd
       -0.04447969 0.10409923 0.048177287 -0.031955514
000270 fe 06 16 3f 61 03 76 bc 5e ed 25 3d ee 7b 66 be
       0.5860442 -0.015015454 0.040509574 -0.22508213
000280 d7 4f f0 bd 7c d8 91 3d e9 36 08 bc 14 24 d8 bd
       -0.11733978 0.07121369 -0.008313873 -0.10553756
000290 ec ee 27 bd 50 07 e1 bc 23 5c a4 3d e7 fd 0f 3c
       -0.040999338 -0.027469307 0.08025386 0.008788562
0002a0 aa 73 41 bd 28 3a 96 3d f9 74 27 3d 8a f9 90 bd
       -0.047229446 0.07335311 0.04088304 -0.07078846
0002b0 69 54 cf be 73 34 4d bd a5 98 51 bd 2b 38 9d 3d
       -0.40494087 -0.050098848 -0.051170964 0.07676729
0002c0 19 00 07 3e 93 0c e5 3c 11 a2 0f bd 9e 34 15 be
       0.13183631 0.027960097 -0.035066668 -0.14570853
0002d0 d4 62 29 bd 05 85 2a bd 28 0e 14 bd 77 e8 75 bd
       -0.041354015 -0.041630764 -0.036146313 -0.06003615
0002e0 b9 7b cf bd fd 68 7f be 46 43 81 3e b4 0f f3 3c
       -0.1013102 -0.24942394 0.25246638 0.029670574
0002f0 0b fe 49 bc b3 95 91 bb 2d 64 39 3c 16 d4 07 bc
       -0.012328635 -0.0044428944 0.011315388 -0.008290311
000300 0e 5c 80 3c 9e 06 ba bc 8e 6d b3 3e d4 d4 1b bd
       0.015668895 -0.022708233 0.3504452 -0.038044766
000310 83 8d 77 3d ae f1 6f 3d 95 82 92 3e 8d e3 cc 3c
       0.06043769 0.058580093 0.2861525 0.025010848
000320 a7 ab b3 3b e1 d9 88 3c b7 e4 07 bd ce 37 4d bb
       0.005483109 0.016705455 -0.033177104 -0.003131378
000330 20 b6 13 bc d0 30 b7 3b 9e e5 08 bd a9 1d c5 3d
       -0.00901559 0.0055905357 -0.033422105 0.09624798
000340 ce 89 dc 3c d7 d1 3f 3d 94 8f 59 3e a1 e2 40 bd
       0.02692118 0.04683098 0.21246177 -0.04709113
000350 53 b4 43 be 4c 91 28 bd a2 3e 60 be a1 68 21 3d
       -0.19111757 -0.04115419 -0.21898893 0.039406423
000360 7a 5f 60 be 78 1b 2d 3d 41 df 81 bc f9 84 b2 ba
       -0.21911421 0.042262524 -0.015853526 -0.0013619951
000370 44 bb d0 bd fb 5d f6 3e 2d 68 fb be 05 93 75 be
       -0.10191968 0.48118576 -0.49102917 -0.23981865
000380 3c 90 d7 bd af 67 96 3e 25 bd 3e 3d 82 39 c8 bd
       -0.105255574 0.2937598 0.0465671 -0.09776594
000390 ea 16 f1 3d 7f fa 8b 3d 95 19 7c bb 0b ad bf bb
       0.11771949 0.06834888 -0.0038467397 -0.0058494858
0003a0 4a be 37 3d 2b 8a 82 3d f2 14 a3 be 25 1e 90 be
       0.04485921 0.0637401 -0.31851918 -0.28147998
0003b0 04 7a bb 3e fd 11 86 3d 34 69 09 3f 0c 7b 98 3e
       0.36616528 0.065464 0.5367615 0.29781377
0003c0 08 5c 2f bb 8e 48 e1 3c 72 81 a7 3d 12 67 c4 3c
       -0.0026757736 0.027500417 0.081789866 0.023974929
0003d0 04 87 4a 3c e3 7c 1f 3d 4e b0 39 be 4e 8b dc bd
       0.012361292 0.03893746 -0.18133661 -0.10768758
0003e0 ae 28 fa 3e fd 66 a9 3e 23 4a df 3d 6c fd 83 3e
       0.4885916 0.33086386 0.10902812 0.25779283
0003f0 d8 c9 48 be ae 98 83 3b ee ef 8f 39 d3 bc 8f bc
       -0.19608247 0.0040160036 0.00027453847 -0.017546093

convN1.pass_map.bias f4 [32]
000000 b1 ba 19 be 2d d1 8f bd fd ca 4a bd 89 de 9d bd
       -0.15012623 -0.07022319 -0.04950999 -0.07708461
000010 0a fc 12 be 9a 19 a9 bd cd 43 2f be d1 7c 0b be
       -0.14353958 -0.08256836 -0.17115708 -0.13621832
000020 75 80 d1 bd 92 82 81 bd 72 cd e9 bd 16 72 6f bd
       -0.10229579 -0.063237324 -0.11416139 -0.05845841
000030 7c 58 ef bd 6e 44 b8 bd 93 1e e4 bd b6 a7 cf bd
       -0.11686799 -0.08997427 -0.11138644 -0.1013941
000040 ee 0d f8 bd ba 88 42 be 2b 10 47 bd b8 ed cf bd
       -0.12112032 -0.1899747 -0.048599403 -0.10152763
000050 ef cb dc bd 45 02 6e bd ae 04 0f be 7b b0 9f bd
       -0.10781085 -0.058107633 -0.13966629 -0.07797333
000060 d4 93 f9 3c 8b 58 ae bd 01 59 d7 bd 90 f4 f4 bd
       0.030465998 -0.08512982 -0.10515023 -0.11960709
000070 0f a0 de bd 29 dc fd bd 65 cc f9 bd a4 7d 98 bd
       -0.108703725 -0.12395508 -0.12197188 -0.07445839

convE1.self_map.weight f4 [32, 13]
000000 10 bc b5 3d 65 96 71 3e 4d 3a b2 3d af 2b c7 be
       0.08873761 0.23592527 0.08702526 -0.38900515
000010 7f c4 df be 0f cd ca bd 34 70 8c bc 7e 1f 91 3d
       -0.43704602 -0.09902393 -0.017143346 0.07086085
000020 dc fb 5b 3c 63 94 ad bc 37 78 7b 3e a8 c3 bf 3c
       0.013426747 -0.02118892 0.24557577 0.023408726
000030 62 30 ed 3c ec 36 1a 3e f7 a9 27 3d 95 ed fa be
       0.028953735 0.15060014 0.040933575 -0.49009386
000040 70 74 0e 3e bb 2a 09 be e1 29 8b bc 86 5a 3a 3a
       0.13911605 -0.13395207 -0.016987743 0.0007108826
000050 df e3 e8 3c d3 f6 90 bd 95 47 e1 bb ac 29 fa bc
       0.02842897 -0.07078328 -0.0068749883 -0.030537449
000060 09 67 cc 3b d2 bd 50 3e 5a 88 db bd 38 7f c8 3d
       0.0062378687 0.2038491 -0.10719366 0.0978989
000070 42 ec 18 3c 48 9d 13 3f ef 9b 57 3d 41 16 6a bd
       0.009333672 0.5766187 0.052638944 -0.05715013
000080 ab f1 0e 3c c5 69 4f bc f3 de 32 bc 62 61 7d bb
       0.00872461 -0.012659495 -0.010917413 -0.003866278
000090 1e ce 82 be 73 61 08 3d 84 d2 29 3f 3e da 07 3d
       -0.2554788 0.03329606 0.66336846 0.033167116
0000a0 1f b6 1d be 53 96 c9 3c 77 f7 be 3d 6f 10 34 3d
       -0.15401505 0.024607813 0.09324544 0.043960985
0000b0 d4 26 46 bd 8e b4 45 be c9 56 22 3d af a4 79 3c
       -0.048376873 -0.19307157 0.039633546 0.015237018
0000c0 b5 0c 1b 3c 4f a0 83 3c 6d 33 91 3b bd eb 02 3e
       0.009463479 0.016067652 0.0044311793 0.1278524
0000d0 11 5f 95 3f e0 c2 b8 3d d8 2a 00 bc f3 ae 83 3d
       1.1669637 0.090215445 -0.007822715 0.06429853
0000e0 a6 46 be 3d 45 d8 38 3d 75 e6 36 3d 24 f6 01 3c
       0.09290819 0.045128126 0.044653375 0.00793222
0000f0 10 a0 11 bd 5f d9 60 3b 1f dd 61 bb 92 f5 b2 3a
       -0.035553038 0.003430925 -0.0034464074 0.0013653508
000100 44 cd 34 bc e9 3a c7 3e 0b f2 d6 3e 66 ad 0b bd
       -0.011035267 0.38912132 0.4198154 -0.034100913
000110 ed d5 13 3d 9a da 52 be 72 a4 92 be b8 11 42 3d
       0.036092687 -0.20591202 -0.28641087 0.04738018
000120 97 dd 30 3d 3c 7c a4 bc f7 88 55 3c 2c 0a 5a bd
       0.043180075 -0.02007877 0.013033143 -0.053232357
000130 1b 23 bc 3c 1d 9f f4 bd eb 20 e0 3e df 02 52 bd
       0.022965958 -0.11944411 0.43775114 -0.05127227
000140 1b 7b 94 be 8c cd 96 be a3 94 64 be 26 0f 80 bd
       -0.29000172 -0.29453695 -0.22322325 -0.06252889
000150 3e a0 74 3d 8a c4 1b be 82 5e e5 3b 89 53 11 3d
       0.05972313 -0.15211692 0.0069997916 0.035480056
000160 34 2f e6 3d d0 ba 20 bc 1d 2f 9f be 0c 3f c9 3e
       0.11239472 -0.009810165 -0.31090632 0.39305913
000170 5e 78 89 be ca 17 b7 bd 29 7a dc 3e 31 b1 9c 3d
       -0.26849645 -0.08940084 0.4306195 0.07650984
000180 0f 31 c5 bd d9 68 c8 3c 65 b2 2a 3d ab 5d 40 3c
       -0.09628498 0.024464058 0.041674037 0.011741082
000190 d9 21 ac 3c 5f 09 e1 bd 76 e5 3c 3d 2f 7e 5b 3c
       0.021012234 -0.109881155 0.04611727 0.013396784
0001a0 45 14 04 3e a3 bb 20 3d d2 6a 91 bc 78 f3 78 bc
       0.12898357 0.039241444 -0.017751131 -0.015194766
0001b0 9e ca 1b 3d f4 3f 4b bc f7 49 98 bd 4e 22 a7 3d
       0.038035028 -0.012405384 -0.07435983 0.0816084
0001c0 a3 48 18 3d f1 96 e5 bb 48 7b 25 3c 9a 02 81 3b
       0.037178647 -0.007006519 0.010100193 0.0039370777
0001d0 25 0e 54 bf 4a 69 58 3e 80 e9 27 3e fd aa b0 3e
       -0.8283408 0.21133915 0.16397667 0.34505454
0001e0 5f 56 8d 3e 42 22 99 3e ed c9 01 3c 39 6a 74 3d
       0.27604958 0.2990895 0.007921678 0.059671614
0001f0 f6 71 b8 3d b6 b2 79 be f2 a3 b2 bc 00 10 16 bd
       0.09006111 -0.24384579 -0.02180669 -0.036636353
000200 70 98 c6 3c c4 52 c1 bd a6 81 37 bf 54 1e c0 3c
       0.02424261 -0.094396144 -0.716822 0.023451962
000210 13 aa 9b 3b 9f a4 4c bc 2b 6d c7 be 9d 34 db bc
       0.004750499 -0.012490421 -0.38950476 -0.026758486
000220 8d b2 4e 3c 5b 41 52 3b 9b 2d 60 bd ac f7 82 3c
       0.012615812 0.0032082412 -0.054730993 0.01598724
000230 00 3c ad 3c d2 e5 a1 bc c3 1c c5 be b2 1f 00 3e
       0.021146774 -0.019762907 -0.38498506 0.12512091
000240 1e 38 db bd 72 49 c2 3d aa 36 57 bd 15 d4 77 3e
       -0.10704063 0.09486665 -0.052542366 0.24201997
000250 f6 0e 2d 3d 4e d9 6c 3d 23 97 bb bd 2f 33 bb 3d
       0.042250596 0.057824425 -0.091596864 0.09140622
000260 1c c1 e3 3d ae 78 44 bc 5a 48 1a 3e cf 14 ed bc
       0.11120817 -0.011991663 0.15066662 -0.028940586
000270 93 d1 a2 3e 1c 5f 94 be b2 10 05 3c 66 33 c0 3e
       0.31800517 -0.28978813 0.008121656 0.37539214
000280 19 72 85 bd 9b 4c ac be 64 d1 3d 3d a2 08 50 3d
       -0.06515903 -0.33652195 0.04634227 0.050789483
000290 7c f5 26 bd 15 48 85 3c 9a c1 29 bd e9 97 f4 bc
       -0.040761456 0.016269723 -0.0414444 -0.029857593
0002a0 0c 0e 26 be 0e 7e 92 3e c4 c5 17 be 93 1c d8 3e
       -0.16216296 0.28611797 -0.14821535 0.422093
0002b0 75 18 10 bf 6c 04 17 3e 27 f4 45 3d 51 5e c6 bb
       -0.5628732 0.1474778 0.048328545 -0.006053724
0002c0 03 16 b9 bb 49 8c ab bd f3 5a 02 3c cb df a4 3d
       -0.005648376 -0.08376367 0.007956254 0.080504976
0002d0 0b c0 0c bc a6 99 02 bf eb ad 5d 3e 29 93 57 bf
       -0.0085907085 -0.510157 0.21648376 -0.84208924
0002e0 77 df 88 3e 8f 69 18 3f 2d 3b 81 3e 8b f5 4d bd
       0.2673299 0.5953607 0.2524046 -0.050282996
0002f0 4b 28 d7 bc 3d 9f b9 ba 80 86 48 bc b7 b0 1b bc
       -0.02626433 -0.0014161837 -0.012239099 -0.009502581
000300 96 96 94 bd 37 0b 84 3b b1 5f a6 3c 6e 34 2c 3e
       -0.072552845 0.004029657 0.020309301 0.16816875
000310 1b 54 09 3e c2 c1 c0 3d 21 a8 22 3e ba 39 b7 3e
       0.1341099 0.09411956 0.15884449 0.3578623
000320 b0 2a d6 bc ce c7 dd bc 5b 7f ef bd e8 aa 0c bc
       -0.026143402 -0.027072813 -0.11694213 -0.008585669
000330 84 01 1e bd ed b9 05 be df 7e d0 bd d2 b6 45 bd
       -0.038575664 -0.13059206 -0.10180449 -0.048270054
000340 0a 9e 90 3e 40 76 a8 be e8 23 c1 3e ca 37 fa 3c
       0.28245574 -0.32902718 0.37722707 0.03054418
000350 58 1a d4 3e 54 09 b4 3d 9c 94 09 be de aa 06 3d
       0.4142635 0.08790842 -0.13435596 0.032877795
000360 fe 4d 5e 3e 18 58 98 3c b5 a0 75 bc 41 b0 8e bb
       0.21709439 0.018596694 -0.014991929 -0.004354507
000370 37 31 bf 3e 77 c7 d0 3c b4 9e ce bc df 10 5e bd
       0.37342235 0.025485737 -0.02522216 -0.05421531
000380 6e 7b 8e bb 84 a0 33 3d 0d 91 9d bb 01 7d 46 3c
       -0.00434821 0.04385425 -0.004808551 0.012114764
000390 c4 6c d7 bb 72 c0 3d 3c bd 23 37 bb 7f 99 c1 3b
       -0.006574245 0.011581527 -0.0027944886 0.0059081907
0003a0 c5 ce 88 3c fe 88 ed bc cd e4 c3 3d d5 67 2c 3e
       0.016700158 -0.028995987 0.09565125 0.16836484
0003b0 a9 f2 56 be 86 58 7a be 2d a8 41 3d d4 7d d3 bc
       -0.20991005 -0.24447832 0.047279526 -0.025816835
0003c0 12 9c 23 be 48 30 a5 bd 22 7f bf 3d 4c 45 2f bd
       -0.15977505 -0.080658495 0.093504205 -0.042790696
0003d0 fd 6f 15 3a b7 ab 8f 3d fe cb 76 be 93 6c 3d 3e
       0.00057005865 0.07015174 -0.24101254 0.18498449
0003e0 5b ec d7 be a6 b7 1a 3e 73 8f 3c bf 45 39 30 be
       -0.42172512 0.15109119 -0.73656386 -0.17209347
0003f0 3b 80 7f bd 41 1a 8b 3c f2 44 ae bb 2b bc e7 3c
       -0.06237815 0.016980292 -0.0053182775 0.028287968

convE1.self_map.bias f4 [32]
000000 3f 6d 5d 3b c6 70 42 ba 94 99 0b 3b 9d 0f 32 3c
       0.003378704 -0.0007417317 0.0021301256 0.01086798
000010 bc 3e 30 be 84 de b2 3c 2d 77 86 3b 9e 70 8a 3a
       -0.17211431 0.02183462 0.0041035623 0.0010562127
000020 20 0c a5 bc 99 c8 90 bc 6d b5 d4 bc 75 18 a8 bb
       -0.020147383 -0.017673777 -0.025965417 -0.0051298686
000030 d3 b2 91 3d 8d 3c 1f 3d 3b 25 50 bd 06 5a 0c 3c
       0.07114186 0.038876105 -0.050816756 0.008566385
000040 ca 81 16 bc 48 76 cc ba 05 14 01 bd 23 4f a6 bc
       -0.009186218 -0.0015599215 -0.031513233 -0.020301407
000050 40 08 12 bc 95 c7 8b bc eb 4d 44 3d 37 b7 3e bd
       -0.0089131 -0.017062942 0.04792587 -0.046561446
000060 af bd 86 bd 20 fb 07 3d a6 07 f1 bc 15 8f ac 3d
       -0.06579148 0.033198476 -0.029422592 0.08425728
000070 34 77 35 be ea b5 17 bd 9b 28 8c bc f9 1c a4 bc
       -0.17721254 -0.03703872 -0.017109206 -0.020033346

convE1.pass_map.weight f4 [32, 64]
000000 f7 8d de bd b6 87 b5 3a 39 4a 8b bd 39 20 23 bd
       -0.108669214 0.0013849649 -0.06801266 -0.03982565
000010 44 b6 93 be 1d 9b 01 3e 50 42 db bd a3 87 e2 3e
       -0.28849995 0.12656827 -0.107060075 0.44244108
000020 10 e6 a7 3d 9f da e0 bd 72 8c 1a be 34 b6 77 be
       0.08198178 -0.10979199 -0.15092638 -0.24190599
000030 3b 98 83 3e 0f c2 02 3f 3b 17 10 be 66 d2 b9 bd
       0.2570208 0.5107736 -0.14071362 -0.090733334
000040 2b 05 9e bd 77 89 23 be be 1b 69 3e d5 e1 bd 3d
       -0.077158295 -0.15970407 0.22764489 0.0927159
000050 b1 42 2f bf 11 01 ae 3e 7f 28 9a bd 25 85 1b 3e
       -0.6846114 0.3398519 -0.07527255 0.1518751
000060 98 e1 7e be 86 33 7b 3d 4d c6 17 3d 35 e0 72 3d
       -0.24890745 0.061328433 0.03705435 0.05929585
000070 b3 2b 30 3e 18 c8 98 bd cd dd 9a 3d 44 4c 74 3e
       0.1720417 -0.0746004 0.075618364 0.23857218
000080 3f 01 42 be f4 c0 5a bd 3d 4d 00 bf 2e ba 67 bd
       -0.18945788 -0.05340667 -0.50117856 -0.05657404
000090 6a 01 92 be 89 78 93 be 6a f2 94 be f4 1a 80 be
       -0.28516704 -0.288029 -0.29091197 -0.25020564
0000a0 aa 25 2a be 53 71 0a be b9 74 5b be 2b 0e be be
       -0.1661593 -0.13519792 -0.21431245 -0.37120184
0000b0 e9 ed aa be ca 3d f6 bd c8 71 6e bd cc 65 a9 3d
       -0.33384636 -0.12023504 -0.05821398 0.08271369
0000c0 46 e1 c4 be 59 30 1a bf ac 69 8d bd ec 3d 78 3e
       -0.3845312 -0.6023002 -0.06904921 0.24242371
0000d0 99 af 06 bf cd 12 4a be 8a 52 da be b3 17 f2 bd
       -0.5261169 -0.19733734 -0.42641097 -0.118209265
0000e0 02 91 11 be e9 f0 44 bd d0 f6 1b be 6d de 80 be
       -0.14215472 -0.048081312 -0.1523087 -0.25169697
0000f0 d5 41 f2 bc 89 19 04 bf f9 df 28 bd f7 77 a5 be
       -0.029572407 -0.51601464 -0.041229222 -0.32318088
000100 05 a7 7c 3e 68 a8 59 bd b9 85 b6 bd c1 2c c2 be
       0.24673088 -0.05313912 -0.08912224 -0.3792477
000110 d3 fc cc 3d 53 2c f7 3d e4 e4 d1 bd fa 6b c7 3d
       0.1000916 0.12069001 -0.102487355 0.09737392
000120 56 6f ba bd 3b 66 c5 bd f9 94 96 3d 1f 95 d9 3c
       -0.09103267 -0.096386395 0.07352633 0.026560364
000130 9b 34 12 3e 2a d2 65 3c 02 87 14 bd b7 e5 94 3d
       0.1427788 0.014027158 -0.036261566 0.07270377
000140 67 38 03 3e 06 1a a5 be 2b 3a fd bd 0c 23 c7 bd
       0.12814485 -0.32246417 -0.1236461 -0.097234815
000150 38 52 3e bb 86 88 47 3e a8 07 92 bd 91 aa 33 be
       -0.0029040705 0.19485673 -0.071303666 -0.17545535
000160 d0 9f ef be d6 7c e1 bd 48 fd e0 3d a3 78 57 3e
       -0.46801615 -0.11010139 0.109858096 0.21042113
000170 ad 76 44 3d 47 2e 49 3c 0b 40 36 be b1 e9 17 be
       0.04796474 0.0122791 -0.17797868 -0.1483524
000180 84 6e ae be 62 50 7d bd 07 f3 36 bd 01 02 20 3e
       -0.34068692 -0.061844237 -0.044665363 0.15625764
000190 8c 74 84 bc f9 6a 1d be cd 35 d5 bd 12 86 79 bd
       -0.016168855 -0.15372838 -0.10410652 -0.060918875
0001a0 72 96 f5 3c 57 cd 1d 3e 86 00 65 be e3 5e d1 bd
       0.029978964 0.15410362 -0.22363481 -0.10223176
0001b0 18 76 a5 bd b1 86 42 bd 6a 97 e5 bc c6 d2 68 be
       -0.08079165 -0.047491733 -0.028026301 -0.22736654
0001c0 11 ef dc bc 22 74 3b 3e 86 d9 e9 3d fe 92 9e be
       -0.026969464 0.1830602 0.114184424 -0.3097152
0001d0 ea 6c 81 bd a8 55 33 be 24 78 01 3d fa 9c 28 3e
       -0.06319602 -0.17513144 0.031608716 0.16466132
0001e0 7f 92 98 3e 7f 6b 09 be 74 2e 81 bd ab 83 88 bd
       0.29799268 -0.13419913 -0.06307688 -0.06665739
0001f0 3e 3a d9 3d 3f 19 19 3d e0 89 db bc ef be 0b 3d
       0.10606812 0.037377592 -0.026799142 0.034117635
000200 0b 14 0d be 36 a8 e6 3c d1 40 49 be d2 e7 59 3d
       -0.13777177 0.028156381 -0.19653632 0.053199597
000210 a6 53 ff 3d 04 7c c8 be 41 51 b6 bd 97 36 f7 3d
       0.124671265 -0.39157116 -0.08902217 0.12070959
000220 52 2c bf bc ad 60 1e bd 36 eb 0c be c1 8d 14 3e
       -0.023336563 -0.038666416 -0.13761601 0.145072
000230 f4 f8 03 3f 67 be 10 bf 17 8c 7c bd 7f 2d 03 3d
       0.5155175 -0.5654053 -0.061657038 0.03202581
000240 0a 16 2c be f7 69 1b bd a4 4b 7c bc 94 71 52 3d
       -0.16805282 -0.037942853 -0.0153988935 0.051377848
000250 ab c7 42 bf 8f 4a 0d be 82 2c 94 bc 05 9b 58 be
       -0.7608592 -0.13797973 -0.01808763 -0.21152885
000260 cc 07 46 be f3 a6 89 bd 68 f0 94 3d 98 44 99 bd
       -0.19338912 -0.06721296 0.07272416 -0.07483786
000270 c8 e7 0a 3e 6c 81 10 be 8a 9e 6f 3e 13 88 4d 3e
       0.1356498 -0.1411187 0.23400322 0.2007144
000280 63 ac 70 be 31 c2 06 bd 48 04 da bd 35 11 f4 be
       -0.2350326 -0.03290004 -0.10645348 -0.47669378
000290 4e 28 5c bd ec 45 69 be 62 72 ed be 55 fb 8f bd
       -0.053749375 -0.2278058 -0.4637633 -0.0703036
0002a0 76 05 d9 bd af d9 5d be a4 6a a8 be 15 93 11 bd
       -0.10596745 -0.21665071 -0.3289386 -0.03554066
0002b0 18 9b 27 bf 47 89 fa be 72 2e 43 be 49 5c 62 b9
       -0.6547103 -0.4893286 -0.19060686 -0.00021587418
0002c0 7f 15 a1 3b 49 fd 98 be 98 15 28 be 45 af a7 3d
       0.0049158926 -0.2988074 -0.16414487 0.08187727
0002d0 ea 02 2f bd 6a af b7 be a4 ea 83 bd ba a4 ea be
       -0.04272739 -0.35876018 -0.064412385 -0.458288
0002e0 51 c0 19 3d b8 24 2c be e4 3b 74 be c5 3b 6c be
       0.037536923 -0.16810882 -0.23850971 -0.23069675
0002f0 d6 f4 ca be eb 5d 14 be fd d5 a7 3d d2 71 88 be
       -0.3963992 -0.14488952 0.08195112 -0.26649338
000300 ea 2a fe bd c6 69 84 3b 84 22 e0 bd a0 ca 8c 3e
       -0.12410529 0.0040409295 -0.10944083 0.2749834
000310 7b 0d 38 bc db 66 04 3e 8c 9b 3d be 56 c3 10 3e
       -0.011233683 0.12929861 -0.18516368 0.14137015
000320 87 c2 4e 3e 7d 38 51 be e7 f1 4b 3e 75 9f 1b 3e
       0.20191394 -0.20431705 0.19916497 0.15197547
000330 36 21 07 3d 10 2c c7 3c 53 ab 74 be fa 26 74 be
       0.032990657 0.024313003 -0.2389348 -0.23842993
000340 4a aa 62 3d bc 7b 38 3d f3 16 d5 bb 52 c9 6a bc
       0.05533818 0.045039877 -0.00650298 -0.014330225
000350 b9 4b 2d bd c8 4c 1c bd 20 a0 01 be 17 ba 78 be
       -0.042308543 -0.03815916 -0.12658739 -0.24289738
000360 1b 0d 38 3e ca 86 c2 bc 8b d1 6d be 9f ce d7 bc
       0.1797375 -0.023745913 -0.23224466 -0.026343642
000370 34 c7 8e be f0 d1 b6 bc a4 63 ad be 2c 98 6c 3e
       -0.27886355 -0.022316903 -0.33865082 0.23104924
000380 3c 99 29 3d d0 a2 2d bc 83 f9 4b bc 63 47 61 be
       0.0414059 -0.0105979 -0.012449625 -0.21999888
000390 ae 3d c5 3c 2a 2f 97 bd 97 31 86 3d 1e ae dc bd
       0.024077263 -0.07382043 0.06552427 -0.10775398
0003a0 91 8e 74 be f2 61 3e 3e 5a ce 68 be be c9 1d be
       -0.2388251 0.1859205 -0.22734967 -0.1540899
0003b0 0b 07 2a bc 64 97 42 3c 56 1c 77 3d c6 76 79 3e
       -0.010377656 0.011876915 0.060329758 0.24361715
0003c0 19 97 6e bd f7 bb e5 ba bb f2 ed bc 17 a9 1c bd
       -0.058249567 -0.0017527331 -0.029046407 -0.038247194
0003d0 f4 94 ce 3c dd df 6d bc 68 42 fc bc 76 dc 7f 3e
       0.02521751 -0.014518705 -0.030793384 0.24986443
0003e0 0b 90 05 be f1 60 61 bd d8 1e 44 3e 5a 09 1c bc
       -0.1304323 -0.05502409 0.19152391 -0.009523714
0003f0 cd bb 85 3e 2f e9 b4 3d f7 92 8a 3e 99 68 4e be
       0.26119843 0.08833539 0.2706525 -0.20157088

convE1.pass_map.bias f4 [32]
000000 3f 6d 5d 3b c6 70 42 ba 94 99 0b 3b 9d 0f 32 3c
       0.003378704 -0.0007417317 0.0021301256 0.01086798
000010 b1 85 2e be 84 de b2 3c 2d 77 86 3b 9e 70 8a 3a
       -0.17043187 0.02183462 0.0041035623 0.0010562127
000020 20 0c a5 bc 99 c8 90 bc 6a b5 d4 bc 75 18 a8 bb
       -0.020147383 -0.017673777 -0.025965411 -0.0051298686
000030 d5 b2 91 3d 8d 3c 1f 3d 99 5f 50 bd 06 5a 0c 3c
       0.07114188 0.038876105 -0.05087242 0.008566385
000040 ca 81 16 bc 48 76 cc ba 05 14 01 bd 30 4d a6 bc
       -0.009186218 -0.0015599215 -0.031513233 -0.020300478
000050 40 08 12 bc 95 c7 8b bc eb 4d 44 3d 37 b7 3e bd
       -0.0089131 -0.017062942 0.04792587 -0.046561446
000060 7d bd 86 bd 20 fb 07 3d a6 07 f1 bc 15 8f ac 3d
       -0.06579111 0.033198476 -0.029422592 0.08425728
000070 85 f7 33 be ea b5 17 bd 9b 28 8c bc f9 1c a4 bc
       -0.1757489 -0.03703872 -0.017109206 -0.020033346

convN2.self_map.weight f4 [32, 32]
000000 25 f9 19 3e 8f fe eb 3d e3 b1 2b bd 8d 4d 14 3e
       0.15036447 0.115231626 -0.041917693 0.14482708
000010 e1 28 e1 3c 1d 63 65 3a 43 fe 7a bd 59 e6 00 3e
       0.027485313 0.0008750426 -0.06127764 0.1258787
000020 85 17 72 3d 10 50 be 3d b7 db a1 bd 4b 47 04 3e
       0.05910446 0.092926145 -0.079032354 0.12917821
000030 c5 f1 c2 be ab f9 22 3e f5 68 c4 3d 79 18 a4 3c
       -0.3807508 0.15915553 0.095903315 0.0200312
000040 1d bb bc bb 4f 43 e3 bd 54 79 39 3d 1a 72 21 bd
       -0.0057596103 -0.110968225 0.045281723 -0.039415456
000050 3b ac 00 3e f7 69 8c 3d 50 e7 f3 3d a2 e2 54 3d
       0.125657 0.06856149 0.11909354 0.051973946
000060 3c 04 20 be 77 ff f5 bd cd 46 bc 3c 55 31 c8 bd
       -0.15626615 -0.12011617 0.02298298 -0.09775034
000070 42 0f e1 bc f0 1d 59 3d 5d 09 f1 bc 76 30 72 bc
       -0.027473096 0.053007066 -0.02942341 -0.014782062
000080 11 f3 f3 3e 8b 8d 9d 3c 13 97 e0 3d 8e 97 fd 3d
       0.47646382 0.019232532 0.10966315 0.123824224
000090 7e 69 22 3e 25 71 97 bd dd 82 6b be e6 c6 28 3d
       0.15860555 -0.073946275 -0.22999139 0.04120531
0000a0 2c bc 65 bd 76 2f a4 bd 48 cc 61 be c8 28 82 3e
       -0.056087658 -0.08016865 -0.22050583 0.2542174
0000b0 41 26 0f be cf c6 12 be 54 f9 dd 3d ec 6f be bd
       -0.13979436 -0.14333652 0.10838571 -0.09298691
0000c0 b6 d7 57 bd 03 51 78 bd 4e e2 70 3e c9 cc 55 3d
       -0.052695952 -0.060624134 0.23523828 0.05219725
0000d0 f5 6c 34 3d 9a 04 69 bc e1 c6 82 3d 54 1b 44 3d
       0.044049222 -0.0142222885 0.063855894 0.047877625
0000e0 5d c0 43 be 13 70 16 bd 9d 27 cf bd 6f da 8c bd
       -0.1911635 -0.036727976 -0.101149775 -0.068776004
0000f0 82 e3 d2 bd 83 68 81 bd 52 a2 18 bb 32 57 29 bd
       -0.102973 -0.06318762 -0.002329011 -0.04134292
000100 c6 be 51 bd af 39 0d bd 4d 93 ff 3d 60 a9 b2 3d
       -0.051207326 -0.03447884 0.12479267 0.08723712
000110 bb 14 19 be c4 d6 28 be 49 df 0b 3d d5 d9 0c 3e
       -0.14949314 -0.16488177 0.03414849 0.13754971
000120 8d 09 60 bc 0a fe fa 3d 70 90 bd bd ea 4f 91 3e
       -0.013674152 0.12255485 -0.09256065 0.28381282
000130 91 e9 2a be b4 f5 80 3e b5 5a 80 bd 45 20 22 3d
       -0.16690661 0.25187457 -0.06267301 0.039581556
000140 bb 0f 93 bd 5a 63 d2 bd f7 14 05 be 89 4e 18 3e
       -0.07180735 -0.10272856 -0.12996279 0.14873709
000150 b6 b3 b0 3d 09 4f 84 bd e1 e5 12 be 51 93 1f 3d
       0.08628027 -0.06460387 -0.14345504 0.03895885
000160 aa 1b 80 3d 59 8b c9 bd 30 46 17 3e e2 bf 4d be
       0.062552765 -0.098410316 0.14772868 -0.20092729
000170 7f 4d 24 3e 65 f9 e1 bb a8 1c 31 3d a7 cc 3a bc
       0.16045187 -0.006896185 0.04324022 -0.011401332
000180 4f 75 76 3e 73 7f 11 bd 6b 3e a6 be 89 ee 9a be
       0.24068187 -0.035521936 -0.32469496 -0.30260113
000190 0a 57 8b 3c 0c 89 1e be 17 f9 17 3d 0e bb a4 3d
       0.017009277 -0.15481967 0.037102785 0.0804349
0001a0 55 e9 89 bd 91 94 32 3d 3f 74 57 3c 81 37 06 bf
       -0.06733958 0.043598715 0.013150274 -0.5242844
0001b0 fe ba 20 be 79 a2 3c be df 02 d7 bd 86 c0 04 be
       -0.15696332 -0.18421353 -0.104985945 -0.12964067
0001c0 46 0a 2e be 19 e0 88 bc 85 a0 2b 3e 17 67 cd bc
       -0.16996107 -0.01670842 0.16760452 -0.025073571
0001d0 4b d9 2e be 88 ca 60 bc 0e 3e 06 3e c7 44 8a be
       -0.17075078 -0.013720162 0.1310961 -0.27005598
0001e0 25 a3 40 bd 7c af 45 bd 52 97 35 be 05 5d 80 be
       -0.047030587 -0.048263058 -0.17733505 -0.25070968
0001f0 fa 91 eb 3d f2 39 9a 39 09 7f 4f 3e ae 60 c0 be
       0.11502452 0.00029416342 0.20263304 -0.3757376
000200 dc 2f 33 b8 e1 ca b2 91 eb 26 1a bb e2 24 22 bb
       -4.2721498e-05 -2.8208482e-28 -0.0023521732 -0.0024741222
000210 36 70 09 b9 36 f8 9e 37 52 72 68 bb 34 b7 ad b9
       -0.0001310714 1.895065e-05 -0.003546853 -0.00033133628
000220 e7 67 5b b5 a7 ba ab b8 cc 42 82 b7 ac 59 fd 36
       -8.1735055e-07 -8.188682e-05 -1.5528312e-05 7.5504267e-06
000230 41 d3 58 ba 8d c2 2b b8 6f 41 84 b2 06 49 0a b4
       -0.00082712254 -4.0950767e-05 -1.5396578e-08 -1.2878817e-07
000240 03 d4 5a b8 c8 f2 5f b7 a7 31 6c b7 f3 55 07 ba
       -5.21727e-05 -1.3348363e-05 -1.4078257e-05 -0.0005162649
000250 f3 f8 a6 bb b4 28 f1 b7 a9 e9 57 b5 08 d2 0a b9
       -0.005095595 -2.8748393e-05 -8.043376e-07 -0.00013238948
000260 2b 05 ae ba 5c f1 10 b1 3d f4 6e 38 50 cd a1 bb
       -0.0013276687 -2.1091955e-09 5.6971086e-05 -0.0049378052
000270 43 f4 67 38 74 2c b8 b7 36 23 59 ba 48 c8 cf b9
       5.530218e-05 -2.195521e-05 -0.000828314 -0.00039631338
000280 c4 99 82 3c c3 6b 5f 3b 53 6e cd bc fb a3 46 bd
       0.015942462 0.003409133 -0.02507702 -0.048496228
000290 ac ca a1 bc 41 1a 45 bc 2d 8c 23 3d 1e 5e 3e 3c
       -0.019749962 -0.012030185 0.039928604 0.011619119
0002a0 59 37 8d 3b 46 ae 73 3b 62 45 f9 bb a3 4b 27 bd
       0.0043095765 0.0037182732 -0.007607148 -0.040843617
0002b0 56 98 2d bd bc 78 c6 bb 28 a7 43 bb 7b 28 af 3b
       -0.042381607 -0.006056873 -0.0029854272 0.005345402
0002c0 bd 31 cf 3b fa 48 a9 3c 5b 04 eb bc 12 4f 35 bd
       0.006323068 0.02066468 -0.0286886 -0.04426486
0002d0 b7 ff 77 bc f8 6b ea bb 78 6f 7d 3b c2 95 06 bd
       -0.015136651 -0.007153984 0.0038671177 -0.032857664
0002e0 58 e8 a2 bc 64 3a 56 bb 72 4b 52 bc 6b b2 43 3d
       -0.01988618 -0.0032688612 -0.01283537 0.047777575
0002f0 6e 80 85 bb 3b d5 ce bb 74 17 e8 bb f1 36 93 bc
       -0.004074148 -0.00631204 -0.007082874 -0.017970534
000300 5e ec 4c 3e a1 d8 bf 3d 12 e6 6b 3d 5d 96 c8 bd
       0.20012042 0.093674906 0.05759246 -0.097943045
000310 dd 0a aa bc df db 0f bd 2a 0c 96 3d 7d e6 2c 3d
       -0.020757133 -0.035121795 0.07326539 0.042212
000320 59 e8 2f be 21 b3 a2 bd da 4b 9f 3e a7 0b 33 bd
       -0.17178477 -0.079443224 0.31112558 -0.043712284
000330 75 73 b3 bd d8 26 62 be 2f 49 15 3d a4 26 65 be
       -0.08762256 -0.2208513 0.036446746 -0.22378021
000340 e5 aa 04 3e 49 dd 08 3e 26 a9 2a 3e 4c a6 32 be
       0.12955816 0.13365664 0.16666088 -0.1744625
000350 0d ee d7 bd 2e 7e 06 3e 93 9b 32 3d b6 fc 21 be
       -0.105434515 0.13134071 0.0436054 -0.15819058
000360 e1 06 7a bd 09 ad 2e 3d b1 8d df 3d 4e 44 9e be
       -0.061041716 0.042645488 0.10915697 -0.30911487
000370 7e 75 f2 be 10 4d 15 be d0 78 49 be 22 44 65 be
       -0.47355264 -0.14580178 -0.19674993 -0.22389272
000380 84 24 18 3d ef bb 8a 3d b8 c2 94 3d db 44 87 3d
       0.0371442 0.06774127 0.07263702 0.0660493
000390 c8 12 34 3e 61 be 28 3e e0 37 a7 3d c2 a0 da 3c
       0.1758529 0.16478874 0.08164954 0.026687983
0003a0 5a 4b c8 bc 83 2d 2e 3e 99 34 06 3e 06 65 23 3e
       -0.024449993 0.17009549 0.13106002 0.15956506
0003b0 01 a1 b1 3d ab 59 b2 3d 00 4d ab bb 9c 9f e4 bd
       0.08673287 0.08708509 -0.005227685 -0.111632556
0003c0 ae c2 a2 3d 39 1e 0b 3d bd 20 88 3c ba 83 87 3d
       0.079472885 0.03396437 0.016617173 0.06616922
0003d0 57 01 d6 be 00 31 55 3e 1a cc 27 3e 09 97 5b bd
       -0.41797897 0.20819473 0.16386452 -0.053610835
0003e0 9c d3 80 bd c7 93 0c be d7 f6 59 be e4 7a 9f bc
       -0.06290361 -0.13728248 -0.21285568 -0.019467779
0003f0 4c 60 1d 3e bd 9f ea 3d 23 9e 3f be 13 76 67 3d
       0.15368766 0.11456249 -0.18712668 0.05650909

convN2.self_map.bias f4 [32]
000000 88 37 19 3e 2a d5 85 bc 7a 99 c6 3b af 65 0d bd
       0.1496259 -0.016336996 0.0060607763 -0.0345208
000010 9a 1d 06 00 b6 31 73 b0 40 4e 63 3d 07 50 5d 3d
       5.61632e-40 -8.847353e-10 0.055494547 0.0540314
000020 1e 82 dd bb 9c c4 b2 bc d8 c1 81 3c 2e 34 d8 b3
       -0.006759896 -0.021822266 0.015839502 -1.0067775e-07
000030 0f a2 eb 3a 52 a6 d7 3c cc 04 41 3c 99 84 22 b0
       0.0017977374 0.026324425 0.011780929 -5.912369e-10
000040 b0 03 d5 3c 8c ad 36 3c 99 ec 28 bd 97 43 f8 3b
       0.026002735 0.011149775 -0.041241262 0.0075764167
000050 ec 92 69 bd f8 db b2 3e 81 9d bb 3c 6b f1 f6 3c
       -0.05702488 0.34933448 0.022902252 0.030144414
000060 3b c0 44 bd a7 5e 0b 3d e3 47 5b 3d 7e 50 91 b8
       -0.048034888 0.034025814 0.053535353 -6.9291316e-05
000070 81 67 0e bc 02 d9 bd 3d f3 51 c4 bb a5 a8 38 3e
       -0.008691669 0.092699066 -0.0059912144 0.18033083

convN2.pass_map.weight f4 [32, 32]
000000 0e c5 ca bd 1d 4a 6e be ca a0 9a be f9 3b d5 3d
       -0.099008664 -0.2327046 -0.30200797 0.104118295
000010 2e 06 19 3e 4a 6b 8e 3e 05 e0 74 bc f8 02 9d bd
       0.14943764 0.2781623 -0.014945989 -0.07666582
000020 58 1c 3d bf 1c 83 9e be c7 e3 82 3f 7c 7b a6 3e
       -0.73871374 -0.30959404 1.0225762 0.32516086
000030 0a e0 74 3f 58 3e 5e bf 1c b0 bd bf 07 16 e3 3e
       0.95654356 -0.8681388 -1.4819369 0.44352743
000040 8f 8e 1a be 63 c3 bd 3c e5 75 24 3e d2 77 19 bf
       -0.15093444 0.023164457 0.16060598 -0.59948456
000050 b2 b8 78 bf 74 17 9f be 87 74 c4 be 27 c0 99 be
       -0.9715682 -0.3107258 -0.38370153 -0.30029413
000060 9b e0 d6 bd c0 2c ac bd e0 1f 80 3d d9 79 f3 3e
       -0.10492059 -0.08406973 0.0625608 0.475539
000070 88 78 5d 3c ca 6b b0 be 83 6f c9 3d e3 2c 03 be
       0.013517506 -0.34457237 0.09835722 -0.12810092
000080 06 ec 31 3e 36 2d dc be 62 39 0c 3e 57 e0 87 3d
       0.17375192 -0.43003243 0.13693765 0.06634586
000090 11 a0 3a 3c 5e 15 82 be e6 7d a4 be 96 d0 99 bd
       0.011390702 -0.25406927 -0.32127303 -0.07510488
0000a0 f5 2c 28 be 22 04 85 be 5c a2 99 be 87 e5 90 3e
       -0.164234 -0.25979716 -0.30006683 0.28300115
0000b0 3c 90 7e bd 02 1d 23 be f6 6b 22 be 6e 2e 11 3d
       -0.06214927 -0.15929034 -0.15861496 0.03544467
0000c0 8d 84 27 3e 70 0b 15 3d 60 6d 50 3e a1 8b 71 be
       0.16359158 0.03638786 0.20354223 -0.2358842
0000d0 0b dd 03 3f ae ad ba be bc 8a be bc 60 52 c3 3e
       0.5150916 -0.36460632 -0.023259513 0.38148785
0000e0 76 57 8d bd 1c 21 82 3c f7 c7 89 bc f7 52 29 bd
       -0.069014475 0.015884928 -0.016818983 -0.041338887
0000f0 4c 67 59 bd 50 ee b3 be 96 91 4a be 0a 8d 4f 3e
       -0.053077027 -0.35142756 -0.19782099 0.20268646
000100 97 d7 8b 3e 13 db 0f be b1 a2 dd 3e 25 ed e7 3d
       0.2731292 -0.14048414 0.43288186 0.113245286
000110 61 65 34 be 6c bd a9 be 86 a6 2e 3f 29 6a 4f 3e
       -0.17616798 -0.3315233 0.68222845 0.2025534
000120 dd 07 b2 be 68 be 33 3d b0 82 e7 3e b1 29 e7 3e
       -0.34771624 0.043882757 0.45216894 0.45148996
000130 3c c1 80 3e 40 2b ff bc dc 23 f1 be f3 5b 15 3f
       0.25147426 -0.031148553 -0.4709767 0.5834343
000140 a8 b6 87 3a 20 f5 53 bd 24 0c 60 3e 00 1f 29 bf
       0.0010354118 -0.05174744 0.21879631 -0.6606293
000150 f5 2b 26 be d0 c9 c4 be 5a b7 0b bf 3d 74 c3 be
       -0.16227706 -0.3843522 -0.5457665 -0.3817462
000160 ba e5 00 bf 8d a5 28 be ee e4 f3 3d f8 be ed be
       -0.50350535 -0.16469403 0.11908899 -0.4643476
000170 17 eb 5b be ad 41 16 be 0c 5e 64 3e 25 c6 14 be
       -0.21476398 -0.14673491 0.22301501 -0.14528711
000180 d8 89 3a 3e 7e d2 1d be 64 54 07 3e d2 f1 cb 3e
       0.18216646 -0.15412328 0.13215786 0.39832932
000190 5c e3 08 3d 27 9b 87 bd 18 b4 db bd 71 31 c9 3d
       0.03341995 -0.0662139 -0.107277095 0.09823883
0001a0 e2 c0 86 3b dc ee 0e be fc 4d 99 3e 41 d7 f8 3c
       0.004112349 -0.13958305 0.2994231 0.030376079
0001b0 b4 a5 67 3e fb d5 f1 3d 2e 1b 1b be 8f 0d b5 3e
       0.22621804 0.11808392 -0.15147087 0.35361907
0001c0 c7 41 a6 3d 5f c2 b3 bd cc 6f ac 3e 6c 3a b7 be
       0.08118015 -0.08777308 0.33679044 -0.3578676
0001d0 32 ea c4 3e 05 4e c2 bd 52 e8 a1 be d7 c4 f8 3e
       0.38459927 -0.09487537 -0.3162256 0.48587677
0001e0 b1 71 6f be 02 be 6f 3e a3 db b2 3e 11 4f cb be
       -0.23383214 0.23412326 0.34933195 -0.3970876
0001f0 be 47 36 be 08 cc f6 bc 5e ae d0 bd d6 b1 0a 3c
       -0.17800805 -0.030126587 -0.10189508 0.008465251
000200 22 58 9e b2 53 bd 70 b8 3e bb a8 b5 10 a9 08 b8
       -1.8433699e-08 -5.739678e-05 -1.257147e-06 -3.258238e-05
000210 0b 6c cf bb 25 85 17 b8 6f f6 dc af 7d dd a2 00
       -0.0063300184 -3.6125206e-05 -4.0192868e-10 1.4956805e-38
000220 3a 7a 1b b9 89 66 23 22 0a c4 c5 b1 14 05 55 24
       -0.00014827485 2.21449e-18 -5.7557417e-09 4.6191314e-17
000230 41 3a 45 24 ab ad c7 9e 34 fe f4 bb 1b 0e f9 08
       4.276691e-17 -2.1141772e-20 -0.0074765924 1.4989459e-33
000240 06 f9 bf 30 a0 51 10 80 8a 80 d1 a7 0e 24 af b9
       1.3967856e-09 -1.49865e-39 -5.8148515e-15 -0.00033405464
000250 78 91 8c b3 ab 1d 17 b4 9c 1d d4 36 43 99 cd b1
       -6.5457186e-08 -1.4073764e-07 6.3215393e-06 -5.983709e-09
000260 9a c3 b8 ba ba b7 00 00 80 85 ef b9 ad 0c a8 ab
       -0.001409638 6.5909e-41 -0.00045685098 -1.1940636e-12
000270 55 15 96 bc b6 c6 76 b2 6c fd 87 b9 26 0f 3a b3
       -0.018320719 -1.4364266e-08 -0.0002593802 -4.3320277e-08
000280 51 fd cc bb d1 97 15 bc a7 61 14 bc 07 25 ce bc
       -0.0062557836 -0.009130434 -0.009056485 -0.02516414
000290 1b 6b 8e bd d7 5b 2a b8 e2 39 40 bb e6 2b 5e 3b
       -0.069540225 -4.061669e-05 -0.0029331376 0.0033900677
0002a0 8d d9 64 bc de cb f0 39 2a 66 09 ba 55 c4 04 b9
       -0.013967884 0.0004592826 -0.0005241359 -0.0001266164
0002b0 64 b0 dd bb 00 18 d6 bb 6c c7 ea bc dc 01 d6 b8
       -0.006765412 -0.0065336227 -0.028659545 -0.000102046615
0002c0 f4 bb 2d bb a3 0b 05 00 83 97 a1 b9 26 a9 c0 3c
       -0.0026509734 4.63352e-40 -0.00030821198 0.023518156
0002d0 32 10 8e bc 4d 92 4c bc 7e ce 0d bc b9 31 10 ba
       -0.017341707 -0.012486053 -0.008655189 -0.00055005733
0002e0 2b 20 e6 bb 30 d1 be b7 14 4d a0 bc 04 cd 76 ba
       -0.0070228777 -2.2747176e-05 -0.019568004 -0.0009414705
0002f0 0f 75 96 bd ec 52 3e 3b 21 b8 70 bc ab db 14 b4
       -0.07346546 0.0029041125 -0.014692337 -1.3863489e-07
000300 0f e8 03 3f 4e 46 90 3d 09 44 50 3e 83 ca 91 3d
       0.5152597 0.070446596 0.20338453 0.07118704
000310 d4 f3 be be 79 90 77 3d 92 e1 2a 3e be f3 9b 3d
       -0.372954 0.060440514 0.16687611 0.076148495
000320 05 85 af be 34 80 fb 3d d2 a8 86 bc 42 ff a4 3e
       -0.34281173 0.12280312 -0.016437922 0.32225996
000330 15 ab a5 3e c8 77 3a 3e af ca 47 be 3b b4 0f 3e
       0.32357088 0.18209755 -0.19510911 0.14033596
000340 19 c4 ae 3d 5d 18 02 3c 1c 78 81 3d 37 a2 c5 3d
       0.085334964 0.007940379 0.06321737 0.09650081
000350 8d 3d 67 be 7b 6d 22 3e f2 32 d8 bd 44 9d 05 3e
       -0.22582074 0.15862076 -0.10556592 0.13048273
000360 d0 54 87 bd 05 97 81 3d d8 bd 64 be df 95 b6 3d
       -0.066079736 0.06327633 -0.22338045 0.089153044
000370 1e c8 d1 bd 5e 8d 21 3f 8a 50 32 3e ce 02 08 be
       -0.102432474 0.63106334 0.17413536 -0.1328232
000380 4e 99 16 3f 21 f5 98 bd 59 1e 4d 3f 42 94 e6 bd
       0.58827674 -0.0746863 0.8012443 -0.11258747
000390 57 dd cf be 0e ed ab bd 21 89 24 3f 5f 45 2c bf
       -0.40598556 -0.08394824 0.6427174 -0.6729335
0003a0 76 27 8b 3d e0 80 0d 3f 97 dc 02 bf 7a 0f 64 3d
       0.06794636 0.5527477 -0.51117843 0.055678822
0003b0 0a b1 41 3e e7 32 c6 be 29 63 5b bd 9c 19 83 3e
       0.18915191 -0.3871071 -0.053561363 0.25605476
0003c0 45 94 33 3f b5 db 3c bd 2f ee 51 bf fd 5b 92 be
       0.70148116 -0.046107966 -0.82004064 -0.28585806
0003d0 f3 2d 34 3f 4a 7e e3 be e3 dc 65 bf bb d4 04 bd
       0.7038261 -0.44432288 -0.8979017 -0.032429438
0003e0 45 0c 03 3e 71 c2 e2 be ce 43 7a 3d e3 09 7d 3e
       0.12797649 -0.44288972 0.06109982 0.24710803
0003f0 be 27 b1 be 01 95 b2 be c7 7f 8e bd 2c b4 b9 be
       -0.34600633 -0.34879306 -0.06957965 -0.36270273

convN2.pass_map.bias f4 [32]
000000 78 70 19 3e 1e 50 87 bc 38 12 df 3b 12 63 0d bd
       0.1498431 -0.016517695 0.0068075918 -0.03451831
000010 74 3d 08 00 ce d1 67 b0 c1 c8 63 3d f9 4f 62 3d
       7.56729e-40 -8.433546e-10 0.055611376 0.05525205
000020 6f 97 dc bb 05 5e b4 bc 63 01 83 3c c0 86 99 b3
       -0.0067319195 -0.022017488 0.015991872 -7.1491286e-08
000030 84 6d d2 3a 26 02 e1 3c fd 61 4f 3c 45 05 9a af
       0.0016054367 0.027466845 0.01265764 -2.801618e-10
000040 7b 35 d6 3c 14 f7 3d 3c 57 dd 2b bd cb a5 04 3c
       0.026148548 0.011594553 -0.041959133 0.008096169
000050 a3 ba 68 bd de 07 b3 3e e4 fc ba 3c ba f7 f7 3c
       -0.056818616 0.3496694 0.022825666 0.030269492
000060 14 4e 45 bd fe 43 0b 3d 9b a1 5a 3d 24 62 8f b8
       -0.048170164 0.03400039 0.053376775 -6.8370515e-05
000070 94 f5 0c bc b9 25 be 3d 8e 7a be bb 3e 1e 3a 3e
       -0.008603472 0.09284539 -0.0058129495 0.18175599
