train_script/weights/GANOrigEdgeBased_model300new_gaia_mom/206.pth (torch, 141609 bytes, 129 tensors)

attnN1.node_attn_maps.0.weight f4 [8, 4]
0	0x800b2a31	-1.025326e-39
1	0x000640fc	5.74325e-40
2	0x800af760	-1.007096e-39
3	0x00086db3	7.74037e-40
4	0x0002f576	2.71726e-40
5	0x000518f7	4.68133e-40
6	0x0009b0a2	8.89883e-40
7	0x0009c2d6	8.96413e-40
8	0x8001fc92	-1.8244e-40
9	0x0004a672	4.27051e-40
10	0x0007cad4	7.1561e-40
11	0x0001ba12	1.58585e-40
12	0x800634af	-5.69912e-40
13	0x00010921	9.511e-41
14	0x000aad48	9.80517e-40
15	0x8004a999	-4.28182e-40
16	0x80064891	-5.77045e-40
17	0x0008de01	8.14324e-40
18	0x0008b930	8.01117e-40
19	0x00088580	7.82575e-40
20	0x80066950	-5.88792e-40
21	0x0005696d	4.96997e-40
22	0x8008c6ca	-8.05996e-40
23	0x00068a10	6.0054e-40
24	0x000b6dea	1.04962e-39
25	0x00059d6d	5.15651e-40
26	0x0009ced2	9.00713e-40
27	0x8008b5e0	-7.99928e-40
28	0x800b6afd	-1.04857e-39
29	0x000448b8	3.93429e-40
30	0x00084b46	7.61687e-40
31	0x00067513	5.93011e-40

attnN1.node_attn_maps.0.bias f4 [8]
0	0x018e5896	5.2289676e-38
1	0x01312a0a	3.2539927e-38
2	0x01841ff2	4.853498e-38
3	0x014b8a73	3.7384544e-38
4	0x8117bb9b	-2.786892e-38
5	0x811f2883	-2.9232754e-38
6	0x01153328	2.740368e-38
7	0x014cf3bc	3.7643753e-38

attnN1.node_attn_maps.1.weight f4 [8, 4]
0	0x80096fc7	-8.66618e-40
1	0x8005de5c	-5.38945e-40
2	0x000a75c1	9.60597e-40
3	0x8005defb	-5.39168e-40
4	0x800a76df	-9.60998e-40
5	0x800a369d	-9.37947e-40
6	0x00048e4d	4.1839e-40
7	0x0004e34f	4.48885e-40
8	0x00009883	5.4711e-41
9	0x8001950a	-1.453e-40
10	0x800360fe	-3.10301e-40
11	0x0008a0f5	7.92424e-40
12	0x8003cdba	-3.49307e-40
13	0x0000a0d2	5.7691e-41
14	0x80040397	-3.6863e-40
15	0x8008d916	-8.1256e-40
16	0x000880db	7.80909e-40
17	0x800355bb	-3.06261e-40
18	0x800ab2ff	-9.82567e-40
19	0x8004a970	-4.28125e-40
20	0x800a4c92	-9.45823e-40
21	0x8007eebf	-7.28494e-40
22	0x800a2c61	-9.34275e-40
23	0x80014701	-1.17307e-40
24	0x80020b27	-1.87672e-40
25	0x80021628	-1.91619e-40
26	0x800a5e84	-9.52261e-40
27	0x8008ff04	-8.26166e-40
28	0x00009f64	5.7179e-41
29	0x80082c09	-7.50481e-40
30	0x8002dbac	-2.62474e-40
31	0x80018658	-1.40029e-40

attnN1.node_attn_maps.1.bias f4 [8]
0	0x0127257f	3.0699958e-38
1	0x01abf494	6.316643e-38
2	0x01551ecf	3.9144025e-38
3	0x018c99fc	5.1648835e-38
4	0x81b3cc3c	-6.604728e-38
5	0x8197f3ff	-5.5818757e-38
6	0x01acc134	6.3460054e-38
7	0x019f092c	5.8420537e-38

attnN1.node_attn_maps.2.weight f4 [8, 4]
0	0x800766b8	-6.79697e-40
1	0x80003bad	-2.1408e-41
2	0x800a4221	-9.42078e-40
3	0x0007edda	7.28174e-40
4	0x000a73cc	9.59895e-40
5	0x00050ff4	4.649e-40
6	0x8004be75	-4.35665e-40
7	0x8004bc3a	-4.34865e-40
8	0x0006ab05	6.12363e-40
9	0x80034de8	-3.03454e-40
10	0x80088ae0	-7.84503e-40
11	0x80076f42	-6.8276e-40
12	0x0003e70e	3.58393e-40
13	0x80070d96	-6.47722e-40
14	0x0004c301	4.37296e-40
15	0x0003f04b	3.61707e-40
16	0x00095323	8.56343e-40
17	0x8004d336	-4.4311e-40
18	0x00042b8d	3.82965e-40
19	0x000ab9ff	9.85078e-40
20	0x8007a812	-7.03141e-40
21	0x00046879	4.0482e-40
22	0x00080620	7.36881e-40
23	0x0008d57f	8.11272e-40
24	0x8008f9c8	-8.24289e-40
25	0x0004fb99	4.57598e-40
26	0x000759bb	6.75038e-40
27	0x80095f5c	-8.60728e-40
28	0x8007ac1d	-7.04591e-40
29	0x00002857	1.4471e-41
30	0x80090225	-8.27289e-40
31	0x8009378c	-8.46446e-40

attnN1.node_attn_maps.2.bias f4 [8]
0	0x81a93db5	-6.216934e-38
1	0x820f69c6	-1.0536336e-37
2	0x81d560cd	-7.8382745e-38
3	0x82130251	-1.0800519e-37
4	0x020f11cd	1.0511089e-37
5	0x0215bdbe	1.1001244e-37
6	0x82110e07	-1.0656943e-37
7	0x820e53e3	-1.0456587e-37

attnN1.node_attn_maps.3.weight f4 [8, 4]
0	0x000108be	9.4972e-41
1	0x800986aa	-8.74828e-40
2	0x000a00b0	9.18602e-40
3	0x8004a89d	-4.27829e-40
4	0x800130da	-1.0936e-40
5	0x8003c5dd	-3.46486e-40
6	0x8003e39c	-3.57157e-40
7	0x0008b7d9	8.00636e-40
8	0x8007c99d	-7.15174e-40
9	0x000a8f48	9.69755e-40
10	0x000139ea	1.12611e-40
11	0x000870c6	7.7514e-40
12	0x8009b6f9	-8.92158e-40
13	0x8005e06c	-5.39685e-40
14	0x80028900	-2.32817e-40
15	0x8008ec24	-8.19395e-40
16	0x8002dfdb	-2.63975e-40
17	0x80052343	-4.71827e-40
18	0x8001453c	-1.16672e-40
19	0x800894e0	-7.8809e-40
20	0x8009bb09	-8.93615e-40
21	0x0004d653	4.44227e-40
22	0x8006bbb0	-6.18343e-40
23	0x0007c2b1	7.1269e-40
24	0x8009fca6	-9.17153e-40
25	0x80031384	-2.82507e-40
26	0x00090505	8.2832e-40
27	0x80035fe9	-3.09913e-40
28	0x8008cecc	-8.08869e-40
29	0x00041a34	3.76742e-40
30	0x00087f78	7.80411e-40
31	0x80067083	-5.91375e-40

attnN1.node_attn_maps.3.bias f4 [8]
0	0x80249f13	-3.363143e-39
1	0x80198bc6	-2.346029e-39
2	0x8022aa83	-3.183575e-39
3	0x802884c4	-3.721047e-39
4	0x0024832a	3.35313e-39
5	0x001c9f50	2.628544e-39
6	0x8016bac9	-2.087387e-39
7	0x80178568	-2.160074e-39

attnN1.edge_attn_maps.0.weight f4 [8, 4]
0	0x3eb4e63c	0.35331905
1	0x3f06a348	0.525929
2	0x3e4f10ce	0.20221254
3	0x3db779b8	0.08958763
4	0x3cedf7e4	0.029048868
5	0xbd91ac28	-0.07112914
6	0x3e273483	0.16328625
7	0x3c80b80a	0.015712757
8	0x3e69d49a	0.22835007
9	0x3de16f55	0.11007563
10	0xbe1acd53	-0.15117387
11	0xbeed4589	-0.46342114
12	0xbd7725f3	-0.060338926
13	0x3ebfdc30	0.37472677
14	0x3e2d4054	0.1691907
15	0x3e575967	0.21030198
16	0xbe8b7ab7	-0.27242061
17	0x3eefcd85	0.46836486
18	0xbb5a10b7	-0.0033274123
19	0xbd200016	-0.039062582
20	0x3caa3b5d	0.02078026
21	0xbd1c364a	-0.03813771
22	0xbd0d8db9	-0.034558985
23	0x3d420ccc	0.047375485
24	0xbe67677a	-0.22598067
25	0x3d989d12	0.07451834
26	0x3d4d0722	0.05005563
27	0x3d5d6d27	0.054059174
28	0x3eda1b6e	0.42599052
29	0xbe434b63	-0.19071727
30	0x3dbe0960	0.09279132
31	0x3ea547a0	0.32281208

attnN1.edge_attn_maps.0.bias f4 [8]
0	0x3dc2cca4	0.09511688
1	0x3e8758b6	0.2643487
2	0xbc19b4fa	-0.009381527
3	0x3e0b2d4b	0.13591497
4	0x3b9e3c02	0.004828931
5	0xbeb6c2e4	-0.35695565
6	0xbe989c44	-0.2980672
7	0x3d9d6726	0.0768569

attnN1.edge_attn_maps.1.weight f4 [8, 4]
0	0x3ba00c33	0.0048842668
1	0x3ea0f405	0.31436172
2	0x3e94cf62	0.2906447
3	0x3dc7cfc8	0.09756428
4	0xbd67401b	-0.05645762
5	0xbdeb6fbe	-0.114959225
6	0xbdaa3c26	-0.08312254
7	0xbd75db16	-0.06002339
8	0xbe558ee8	-0.20855296
9	0x3e188484	0.148943
10	0x3d3c1899	0.045921896
11	0xbe3b0db3	-0.18266945
12	0x3ba9e618	0.0051849
13	0xbdf735d4	-0.12070814
14	0xbdba3359	-0.09091825
15	0xbd6f830e	-0.058474593
16	0x3ee16c5b	0.4402798
17	0xbd4c34f2	-0.04985518
18	0xbe8c2926	-0.27375144
19	0xbdcc3bde	-0.09972356
20	0x3eb0663e	0.34453005
21	0xbb61bb37	-0.0034443864
22	0xbed30f62	-0.41222674
23	0xbea2f83d	-0.31830016
24	0xbbafc8ea	-0.005364527
25	0xbe02411a	-0.12720147
26	0x3dd0cdfd	0.10195539
27	0xbdf2f536	-0.118631765
28	0x3e987f78	0.2978475
29	0xbe321cc9	-0.17393793
30	0x3eb689a7	0.35651895
31	0xbe10b9d5	-0.1413339

attnN1.edge_attn_maps.1.bias f4 [8]
0	0xbdf2ea72	-0.11861123
1	0xbefa5676	-0.4889409
2	0x3cc58193	0.024109637
3	0xbe37e674	-0.17959005
4	0x3d80b71d	0.06284926
5	0x3dc43f0c	0.09582338
6	0xbecca8b0	-0.39972448
7	0x3e1ca931	0.15298916

attnN1.edge_attn_maps.2.weight f4 [8, 4]
0	0xbb98a58d	-0.004658407
1	0xbe21dec1	-0.1580763
2	0xbd9c3883	-0.07627966
3	0xbec67d8d	-0.38767663
4	0x3d895530	0.06705701
5	0xbe245353	-0.1604741
6	0x3e5995d4	0.21248561
7	0x3c83740b	0.016046545
8	0x3e57fe77	0.21093164
9	0xbeee391f	-0.46527955
10	0xbe290523	-0.16505866
11	0xbe894f9d	-0.26818553
12	0x3ed78e26	0.42100638
13	0xbe054f67	-0.13018571
14	0xbefa7edb	-0.48924908
15	0x3e88243d	0.26590148
16	0xbe1c4821	-0.1526189
17	0x3e475c43	0.19468789
18	0xbe96c295	-0.2944533
19	0x3e5ef827	0.2177435
20	0x3de6e4ec	0.11274132
21	0x3e5b3896	0.21408305
22	0x3d8ec680	0.069714546
23	0x3e36b1f7	0.17841326
24	0xbe1ba46e	-0.15199444
25	0x3e3a64e9	0.18202557
26	0x3e4369d2	0.19083336
27	0xbc93c75b	-0.018039396
28	0xbe44a7c1	-0.19204618
29	0x3d6802a2	0.056643136
30	0x3e19f312	0.1503413
31	0xbdb6697c	-0.08906838

attnN1.edge_attn_maps.2.bias f4 [8]
0	0x3e129316	0.14313921
1	0x3dbdaf47	0.09261947
2	0x3db7a6c3	0.08967354
3	0xbdd00bad	-0.10158477
4	0xbe3d2629	-0.18471588
5	0xbe4f98ec	-0.20273179
6	0xbe120e2a	-0.14263216
7	0x3cd1adc3	0.025595551

attnN1.edge_attn_maps.3.weight f4 [8, 4]
0	0xbd168a6b	-0.0367531
1	0x3d84b665	0.064801015
2	0x3e8f2d90	0.2796445
3	0xbd2590fc	-0.04042147
4	0xbee69909	-0.45038632
5	0x3ef3059e	0.47465223
6	0x3e6c2cf9	0.2306403
7	0xbee9d495	-0.4567
8	0x3e1f34d8	0.15547502
9	0x3ee6fa59	0.45112875
10	0x3ed3bfef	0.4135737
11	0xbebf74f1	-0.37393907
12	0xbc000ec5	-0.007816021
13	0xbe464119	-0.1936077
14	0x3dc60f97	0.09670942
15	0xbecc1412	-0.39859062
16	0xbbf3f8e6	-0.0074454425
17	0xbe7d8353	-0.24757127
18	0xbe5a29db	-0.21305029
19	0xbeb7fdae	-0.3593573
20	0x3e62cb34	0.22147828
21	0xbd6d1a40	-0.057886362
22	0xbd99ce92	-0.07510103
23	0x3e028045	0.12744243
24	0xbd5d275c	-0.053992614
25	0x3d43dffd	0.047821034
26	0xbda105b0	-0.07862413
27	0x3dbee887	0.09321695
28	0xbda3e2e3	-0.080022596
29	0x3d56e383	0.052463066
30	0xbd92b1d4	-0.07162824
31	0x3e11c740	0.14236164

attnN1.edge_attn_maps.3.bias f4 [8]
0	0x3d8ae38b	0.067816816
1	0x3ce9e96a	0.028553683
2	0x3bda05dd	0.006653531
3	0xbb80fe0d	-0.003936535
4	0x3c50f99b	0.012754823
5	0x3d515232	0.05110378
6	0xbdb00b79	-0.08595938
7	0x3e302d5b	0.17204802

attnN1.combinator.weight f4 [1, 16]
0	0x01dbd1bd	8.0748854e-38
1	0x020e41de	1.0451415e-37
2	0x0209b19e	1.0116144e-37
3	0x01f2c0ac	8.917323e-38
4	0x820a9caa	-1.0183599e-37
5	0x82149c7a	-1.0918229e-37
6	0x021b2fdc	1.1401336e-37
7	0x01f6111f	9.0390696e-38
8	0xbe3d2c07	-0.18473826
9	0xbbcdcefc	-0.006280778
10	0xbd51863d	-0.05115341
11	0xbc8fd570	-0.01755783
12	0xbe24f554	-0.1610921
13	0x3d22298a	0.039590396
14	0x3bf0e61c	0.00735165
15	0x3e464d3f	0.19365405

convE1.self_map.weight f4 [32, 4]
0	0x3dc863a6	0.097846314
1	0xbea8de2c	-0.32982004
2	0x3da7c826	0.08192472
3	0xbdd25588	-0.1027022
4	0xbebc54e5	-0.3678352
5	0x3e2136ff	0.15743636
6	0x3d6896df	0.056784507
7	0x3c70e767	0.014703608
8	0x3e8213c3	0.25405702
9	0xbe970308	-0.294945
10	0xbd17ebb8	-0.037090033
11	0x3e10e77d	0.14150806
12	0xbea4b5bc	-0.32169902
13	0x3de18660	0.11011958
14	0x3c44896e	0.011995656
15	0x3d687174	0.056748822
16	0x3e63480d	0.22195454
17	0xbe5b2576	-0.21401009
18	0xbe5c0c0f	-0.21488975
19	0xbdba9cb6	-0.091119215
20	0x3e47607e	0.19470403
21	0xbea619f7	-0.32441685
22	0xbe64dbd3	-0.22349481
23	0x3d16efef	0.036849912
24	0xbdecfd9d	-0.115718104
25	0xbe7e8499	-0.2485527
26	0xbe16c257	-0.14722572
27	0xbdcfeb4a	-0.101523
28	0x3da7a984	0.081866294
29	0xbe93bc10	-0.28854418
30	0x3e979d79	0.2961233
31	0xbaaa5ae8	-0.0012997063
32	0xbde0c9c6	-0.10975985
33	0xbea20f86	-0.31652468
34	0xbe8b09fd	-0.27156058
35	0x3e9c1999	0.3048828
36	0xbea2a331	-0.3176513
37	0x3ec77665	0.38957515
38	0x3e0460b5	0.12927516
39	0x3db0a3ea	0.08625014
40	0x3bf3e17d	0.007442652
41	0x3ed261e8	0.41090322
42	0xbee9a4ed	-0.4563364
43	0xbd164153	-0.03668339
44	0xbd9882ac	-0.07446799
45	0x3eaa4c13	0.33261165
46	0x3e7ddac7	0.24790488
47	0x3f08b8e4	0.5340712
48	0xbd61c1d0	-0.055116475
49	0xbd339dd9	-0.043851707
50	0xbbd3f019	-0.006467831
51	0x3d5fd61d	0.054647554
52	0x3e7f6f0b	0.24944703
53	0x3df3b211	0.11899198
54	0x3e326900	0.17422867
55	0xbed45253	-0.41469058
56	0xbd80936b	-0.06278118
57	0xbc87c621	-0.016573967
58	0x3d997835	0.07493631
59	0x3d2c93b7	0.04213306
60	0x3e9652b6	0.29359978
61	0xbed92ee9	-0.42418602
62	0x3dcc6867	0.09980851
63	0xbe62bd48	-0.22142518
64	0xbc7e0fec	-0.015506726
65	0xbcbf33f7	-0.023340208
66	0xbc8537f3	-0.01626203
67	0x3dc6b0a8	0.09701663
68	0x3d2473e9	0.040149603
69	0xbe0e8af2	-0.13920191
70	0x3e71d03a	0.23614588
71	0xbd8df39c	-0.069312304
72	0xbd9bef03	-0.07613947
73	0xbd135084	-0.035965458
74	0xbe94a04f	-0.29028556
75	0x3ea4f4f4	0.32218134
76	0xbdf54b55	-0.11977259
77	0x3d2a8a04	0.04163553
78	0xbd5f5a52	-0.054529496
79	0xbda7c03a	-0.08190961
80	0xbe1fe1b6	-0.15613446
81	0x3e62c8c5	0.221469
82	0xbcf41b02	-0.029798035
83	0x3d814c8d	0.06313429
84	0xbf2770d8	-0.6540656
85	0xbd28ecf5	-0.041241605
86	0x3c5a8df9	0.013339513
87	0x3c2532ec	0.0100829415
88	0x3d343689	0.04399732
89	0xbef425ea	-0.47685176
90	0xbe00395a	-0.12521878
91	0xbd9c77ff	-0.07640075
92	0x3d954d76	0.07290165
93	0xbe27b048	-0.1637584
94	0xbda40c99	-0.08010215
95	0xbe2e2702	-0.17007068
96	0x3d85f4b9	0.06540818
97	0xbe02b26c	-0.12763375
98	0x3b0105cc	0.0019687293
99	0xbe5871db	-0.21137182
100	0xbe25231d	-0.16126676
101	0x3d8e27be	0.06941174
102	0x3e56b1af	0.20966218
103	0xbdee8bd8	-0.11647767
104	0xbb70d8c7	-0.0036750303
105	0xbdc16df6	-0.094448015
106	0x3ccd2649	0.02504267
107	0x3d8596fe	0.0652294
108	0x3f4a216a	0.78957236
109	0xbdb62348	-0.08893448
110	0xbbbdf2a9	-0.0057967496
111	0x3b50fd03	0.0031889088
112	0x3dfa049e	0.12207912
113	0x3e2da44a	0.16957203
114	0xbd591210	-0.05299574
115	0xbd47ec9c	-0.048809633
116	0xbe53e019	-0.20690955
117	0x3eac7ee2	0.33690554
118	0x3eb52d11	0.35385945
119	0x3dcb7d96	0.09936063
120	0x3d9e9fac	0.07745299
121	0xbee2c994	-0.44294417
122	0xbeaf5fdb	-0.3425282
123	0x3cd7954d	0.02631631
124	0xbeaab7ec	-0.33343446
125	0xbe8d402b	-0.2758802
126	0xbe890973	-0.26765022
127	0xbca1b314	-0.019738711

convE1.self_map.bias f4 [32]
0	0x3e36a0b9	0.17834748
1	0xbd80ca8b	-0.06288632
2	0xbcb94d5c	-0.022619896
3	0x3db696d1	0.08915485
4	0x3e872c20	0.26400852
5	0xbc59b2d3	-0.013287264
6	0xbe74fc4d	-0.2392437
7	0x3eae658a	0.34061843
8	0xbe24b161	-0.1608329
9	0x3dc42e68	0.09579164
10	0x3d2aa720	0.04166329
11	0x3d7c97ce	0.06166821
12	0x3c945a81	0.018109562
13	0x3df27b60	0.11839938
14	0x3d97cae1	0.07411743
15	0x3d136a7c	0.035990223
16	0xbeaad567	-0.33365938
17	0x3b0004f2	0.0019534198
18	0xbe099603	-0.13436131
19	0x3ea26e5f	0.3172483
20	0xbe44defd	-0.19225688
21	0x3cbcc3ec	0.023042642
22	0xbeb955b4	-0.361982
23	0x3ebdecd6	0.37094754
24	0xbe24e824	-0.1610418
25	0x3ded59a8	0.11589366
26	0x3d38dd66	0.045133017
27	0x3b7c2649	0.0038474968
28	0x3d9d1d18	0.07671565
29	0x3e1cfb3f	0.15330218
30	0xbd0cd8d8	-0.034386486
31	0x3d18ec6a	0.037334837

convE1.pass_map.weight f4 [32, 64]
0	0x3cf7beb9	0.03024231
1	0xbd3f817a	-0.046754338
2	0xbd8aca30	-0.067768455
3	0x3e13123e	0.14362428
4	0x3d147efd	0.036253918
5	0xbd210651	-0.039312664
6	0xbe158364	-0.14600903
7	0x3db04dd4	0.086085945
8	0x3bce8a1c	0.006303085
9	0xbe9fd08f	-0.31213805
10	0xbe87f23c	-0.26551998
11	0xbebc6470	-0.36795378
12	0x3d50776f	0.05089515
13	0x3d921c40	0.071342945
14	0xbf0cc05a	-0.54981005
15	0xbd904d54	-0.07045999
16	0x3d1dac48	0.03849438
17	0xbd6177a0	-0.055045724
18	0xbe063ad1	-0.13108374
19	0x3d953059	0.07284612
20	0x3d300e12	0.04298217
21	0xbdcac24d	-0.09900341
22	0xbd95eec7	-0.07320934
23	0x3e7087d5	0.23489316
24	0xbe44a31e	-0.1920285
25	0x3c608fa5	0.0137061225
26	0xbd7c27f5	-0.061561543
27	0x3bea609c	0.00715263
28	0xbc8bb215	-0.01705269
29	0x3d3dcd0c	0.046338126
30	0x3c6fac64	0.0146285035
31	0x3d681de4	0.05666913
32	0xbdd7eff1	-0.10543812
33	0xbdb85b63	-0.09001806
34	0x3e1750dd	0.1477694
35	0x3e8aab62	0.2708388
36	0x3e1268f4	0.14297849
37	0xbd996fbf	-0.07492017
38	0xbdca8896	-0.09889333
39	0x3ccca15f	0.024979291
40	0xbe015f62	-0.12634042
41	0xbe33459e	-0.17507026
42	0x3d841cf3	0.06450834
43	0x3c1f4adb	0.009722437
44	0xbda4ff40	-0.080564976
45	0xbdab2fbd	-0.08358715
46	0xbe06720a	-0.1312944
47	0xbe386c73	-0.1801012
48	0x3dc8ac02	0.09798433
49	0xbe21f341	-0.1581545
50	0x3e28565a	0.1643919
51	0x3bcd3a4a	0.006263052
52	0x3d1c361e	0.038137548
53	0x3d444a0f	0.04792219
54	0x3df23b80	0.11827755
55	0xbcbbdf59	-0.022933649
56	0xbdb57c5a	-0.08861609
57	0x3e86dc28	0.2633984
58	0xbd44af55	-0.048018772
59	0xbc162de1	-0.009166212
60	0xbd1850eb	-0.037186544
61	0x3e3718a2	0.1788049
62	0xbcbbdc6d	-0.022932256
63	0xbdc93ce7	-0.09826069
64	0x3d39a9d4	0.045327976
65	0xbd700ffc	-0.058608994
66	0x3e4c3f61	0.19946052
67	0xbcefc2f0	-0.029267758
68	0x3d0ee52d	0.034886528
69	0xbe4fecca	-0.20305172
70	0xbdf62be7	-0.120200925
71	0x3cecaf7e	0.028892275
72	0x3dc87444	0.09787801
73	0xbedf9ad7	-0.4367282
74	0xbd46658d	-0.04843669
75	0xbea7832f	-0.32717273
76	0xbdc39d15	-0.095514454
77	0xbbfe7d2a	-0.0077663856
78	0xbe8d7cec	-0.2763437
79	0xbe5440da	-0.20727864
80	0xbe99db53	-0.30050144
81	0x3e24b2f1	0.16083886
82	0xbddaa718	-0.10676402
83	0x3ca44dcf	0.020056633
84	0xbc149f60	-0.009071201
85	0x3c8e0026	0.017334055
86	0x3e63f7a6	0.22262439
87	0xbe118d9b	-0.14214174
88	0xbd06757d	-0.03282689
89	0xbdab3ed5	-0.08361594
90	0x3dfb17dd	0.12260411
91	0x3d03b9da	0.032159664
92	0x3b152b59	0.0022761433
93	0xbd0300b6	-0.0319831
94	0xbd7744ae	-0.060368232
95	0xbcf456fe	-0.029826637
96	0x3e0dd8a1	0.13852169
97	0xbe637f6c	-0.22216576
98	0x3e08b68d	0.13350888
99	0x3e45ca51	0.19315459
100	0xbe333ec1	-0.17504407
101	0xbe2af0eb	-0.16693465
102	0xbe9117af	-0.28338382
103	0xbddec6a6	-0.10877733
104	0x3e14d3b8	0.1453389
105	0x3d8f0571	0.0698346
106	0x3dba5480	0.09098148
107	0x3c106ef2	0.008815514
108	0x3d6f07fe	0.05835723
109	0x3d06764c	0.03282766
110	0xbe387d21	-0.18016483
111	0xbddeac1a	-0.108726695
112	0xbc9099b2	-0.017651413
113	0x3ceeb262	0.029137794
114	0xbde28eb6	-0.11062376
115	0x3ddf970a	0.1091748
116	0x3d439c27	0.04775634
117	0xbac14171	-0.0014744235
118	0x3d9c9d0d	0.076471426
119	0xbd050ab1	-0.0324809
120	0x3cfbf74f	0.030757574
121	0x3df2e683	0.11860373
122	0xbe13f40e	-0.14448568
123	0xbc9d012e	-0.019165602
124	0xbdc27d85	-0.09496597
125	0x3d9ddf9b	0.07708665
126	0x3dc3ec01	0.095664985
127	0xbda1951f	-0.07889771
128	0xbd87e9d6	-0.066363975
129	0xbe131d63	-0.14366679
130	0x3bdc2246	0.006717953
131	0xbe9d653d	-0.307413
132	0xbe4ff9b1	-0.20310093
133	0xbd390b67	-0.04517689
134	0xbe522646	-0.20522413
135	0x3dcbd43b	0.09952589
136	0xbe9309f3	-0.28718528
137	0x3b9d13ae	0.004793606
138	0xbe2f1a9b	-0.17099993
139	0x3d9dc5cb	0.07703742
140	0x3cef23b6	0.029191833
141	0x3c9a5daa	0.01884349
142	0x3e316110	0.17322183
143	0x3d870fd1	0.065948136
144	0xbdc67e16	-0.09692018
145	0x3c1c342d	0.009533924
146	0x3ec67c46	0.38766688
147	0xbe80ebbe	-0.25179857
148	0xbcbcda5f	-0.023053346
149	0x3ddc15fb	0.1074638
150	0xbdce4222	-0.100712076
151	0xbe15718b	-0.14594094
152	0x3e377d55	0.17918904
153	0x3e2ec761	0.17068245
154	0xbd21e88d	-0.03952842
155	0x3e739caa	0.23790231
156	0xbe58cd78	-0.2117213
157	0xbd976203	-0.07391741
158	0xbc0a58cb	-0.008444021
159	0xbe5ac00f	-0.21362327
160	0xbc3bb6ad	-0.0114571275
161	0x3d6611d9	0.056169365
162	0x3dd02fbe	0.10165356
163	0xbe1773ec	-0.14790314
164	0xbd97d1b1	-0.07413042
165	0xbd62d177	-0.055375542
166	0xbd2bcc0f	-0.041942652
167	0xbdceb9eb	-0.10094055
168	0xbd15d0af	-0.03657597
169	0x3ddc97e0	0.10771155
170	0x3cd00de3	0.025397247
171	0xbcec27ae	-0.028827514
172	0xbd1195e6	-0.035543345
173	0xbe210c7f	-0.15727423
174	0xbd941503	-0.0723057
175	0xbc842bac	-0.016134106
176	0x3e17793d	0.14792342
177	0xbe57b9b2	-0.21066931
178	0x3e0b2658	0.13588846
179	0xbe656b7c	-0.22404283
180	0xbd8b005c	-0.06787178
181	0x3e02d952	0.12778214
182	0x3b201ed5	0.002443244
183	0xbde1b02b	-0.110199295
184	0xbdc0fc50	-0.09423125
185	0x3d153b4d	0.036433507
186	0x3dbc95ef	0.09208285
187	0xbe015eeb	-0.12633865
188	0x3da1d07b	0.079010926
189	0xbe7e1b33	-0.24815063
190	0x3db91b67	0.0903843
191	0xbdca453f	-0.09876489
192	0x3dc2eb81	0.09517575
193	0xbe1ff912	-0.15622357
194	0x3db55e5e	0.0885589
195	0xbe496f0e	-0.1967127
196	0x3e0c9a9f	0.13730858
197	0xbe833808	-0.25628686
198	0x3e8e7f86	0.27831668
199	0xbd3fac14	-0.046794966
200	0x3e4898b2	0.19589499
201	0xbdd0aa53	-0.10188737
202	0x3eb0afe6	0.345092
203	0xbe4514cc	-0.19246215
204	0xbe638c15	-0.22221406
205	0xbe9abbf6	-0.30221528
206	0xbdccac0b	-0.09993752
207	0xbec93376	-0.39297074
208	0xbe21e1df	-0.15808819
209	0xbdbdaf2c	-0.09261927
210	0xbd487441	-0.048938993
211	0xbef3538e	-0.47524685
212	0x3dac2ef9	0.08407397
213	0xbe1c97a4	-0.15292221
214	0x3da62bcd	0.08113823
215	0x3e63a269	0.22229923
216	0x3e79c109	0.24390043
217	0xbb2a4efc	-0.002598702
218	0xbc847f92	-0.016174112
219	0x3ba0ff9f	0.004913285
220	0xbe33eada	-0.17570058
221	0xbd12e00c	-0.0358582
222	0x3dcbc43b	0.09949537
223	0x3d5da0ec	0.054108545
224	0xbd240ca0	-0.040051103
225	0xbe544cfa	-0.20732489
226	0x3e0df849	0.13864245
227	0x3e9c2a55	0.30501047
228	0xbe8a265b	-0.26982388
229	0xbe143d25	-0.1447645
230	0xbecc2ad5	-0.39876428
231	0xbd129208	-0.035783798
232	0x3e0f2d8d	0.1398222
233	0xbe93f6b9	-0.28899172
234	0x3d812129	0.06305153
235	0xbe375479	-0.17903318
236	0xbdd95477	-0.106118135
237	0xbca3f878	-0.02001594
238	0xbd4e991d	-0.05043899
239	0x3d3aa948	0.045571595
240	0x3d026d7f	0.031842705
241	0x3ce4cc74	0.027929522
242	0xbc9f76a6	-0.019465756
243	0xbc8b655d	-0.017016107
244	0xbdbba980	-0.09163189
245	0xbe5e54d8	-0.21712053
246	0xbd9c4f16	-0.07632272
247	0xbe129041	-0.14312841
248	0x3c3e25d6	0.0116057005
249	0xbd7c167f	-0.06154489
250	0xbb79b433	-0.0038101792
251	0x3c7ef3fc	0.0155611
252	0x3dde4e8a	0.10854824
253	0xbe642ffb	-0.22283928
254	0xbe69c665	-0.22829588
255	0xbe0698ed	-0.13144274

convE1.pass_map.bias f4 [32]
0	0x3e3a4e6e	0.18193981
1	0xbc828067	-0.015930368
2	0xb987a3a2	-0.00025871122
3	0x3dad6990	0.084674
4	0x3e95e30a	0.2927478
5	0xbd2ebdd0	-0.042661488
6	0xbe74f24d	-0.23920555
7	0x3e9b989e	0.30389875
8	0xbe19eee3	-0.15032534
9	0x3dd2ef03	0.10299494
10	0x3e06b771	0.13155915
11	0x3e19df6b	0.15026633
12	0x3d996f63	0.074919485
13	0x3dc9aca5	0.098473825
14	0x3d308f0d	0.043105174
15	0x3d136a7c	0.035990223
16	0xbe9dbf76	-0.30810136
17	0xbcb97dca	-0.022642989
18	0xbdd8d525	-0.10587529
19	0x3ecbea7c	0.39827335
20	0xbe475d36	-0.19469151
21	0x3e2392fe	0.15974042
22	0xbed3806e	-0.41308922
23	0x3eb143a5	0.3462192
24	0xbe427c12	-0.18992642
25	0x3df57df9	0.11986918
26	0x3d39778e	0.04528003
27	0xbdb13396	-0.08652417
28	0x3eae5cc5	0.34055153
29	0x3e13ca61	0.1443267
30	0xbd0dc6ec	-0.034613535
31	0x3d306587	0.043065574

attnN2.node_attn_maps.0.weight f4 [8, 32]
0	0x032e96b3	5.1307e-37
1	0x84770bc6	-2.9040117e-36
2	0x82b14888	-2.6049443e-37
3	0x033e6bd4	5.5959762e-37
4	0x840798dd	-1.5939365e-36
5	0x83d40445	-1.246122e-36
6	0x841c4638	-1.8369955e-36
7	0x84c31983	-4.586771e-36
8	0x02fa4d68	3.6778627e-37
9	0x8529bf31	-7.981458e-36
10	0x031f7fb7	4.687251e-37
11	0x8505df91	-6.2946926e-36
12	0x004564de	6.372834e-39
13	0x039d9bc6	9.2633945e-37
14	0x84118dec	-1.7109835e-36
15	0x050af7dd	6.534254e-36
16	0x0302a723	3.839543e-37
17	0x04aaa9d6	4.0122778e-36
18	0x00fb8d68	2.3101437e-38
19	0x84032326	-1.5415115e-36
20	0x858a2d14	-1.2994017e-35
21	0x84e75533	-5.4386082e-36
22	0x848e153f	-3.340355e-36
23	0x839ab8f8	-9.093773e-37
24	0x0284f0a2	1.9533773e-37
25	0x849b396f	-3.649307e-36
26	0x82f028ed	-3.528832e-37
27	0x82c0a8a4	-2.830866e-37
28	0x040f808a	1.6868591e-36
29	0x003a37b3	5.34644e-39
30	0x840f22a4	-1.6825475e-36
31	0x847d8327	-2.980023e-36
32	0x03aaea92	1.0045557e-36
33	0x04934d8c	3.463075e-36
34	0x03e6b691	1.35601e-36
35	0x83300aae	-5.173401e-37
36	0x82a66271	-2.444801e-37
37	0x0460a807	2.6408228e-36
38	0x83e1959f	-1.3258663e-36
39	0x04c85391	4.7096518e-36
40	0x8314ef9d	-4.3768354e-37
41	0x051e2b31	7.437057e-36
42	0x850f2be4	-6.731889e-36
43	0x051a3927	7.2515424e-36
44	0x019386c0	5.419263e-38
45	0x8370afc3	-7.0731426e-37
46	0x049db32a	3.707506e-36
47	0x8453ff23	-2.4920084e-36
48	0x824e7ed7	-1.5170891e-37
49	0x840249ad	-1.5315257e-36
50	0x82031e4e	-9.633057e-38
51	0x044e96d2	2.4284437e-36
52	0x0421a636	1.900178e-36
53	0x04c21925	4.5632272e-36
54	0x83f01667	-1.41110755e-36
55	0x8483ab54	-3.0955292e-36
56	0x020d6115	1.0386905e-37
57	0x83ed145b	-1.3934281e-36
58	0x83047e54	-3.893633e-37
59	0x0337f933	5.4064933e-37
60	0x0431d33d	2.0903246e-36
61	0x038bdfc3	8.221059e-37
62	0x83d1afb7	-1.2324258e-36
63	0x83d4abfc	-1.2499726e-36
64	0x83f96614	-1.4658341e-36
65	0x0496c04e	3.5441434e-36
66	0x81c3976a	-7.1848956e-38
67	0x834991a2	-5.923577e-37
68	0x03e34456	1.335755e-36
69	0x0417bc75	1.78365e-36
70	0x04197f72	1.8043584e-36
71	0x04a929ac	3.976998e-36
72	0x82a72de9	-2.4564796e-37
73	0x055b2175	1.03034756e-35
74	0x82d98d58	-3.1966412e-37
75	0x05319d07	8.3513414e-36
76	0x8285098e	-1.9548078e-37
77	0x83a3e3bc	-9.632564e-37
78	0x04b3989d	4.222285e-36
79	0x84dade74	-5.1455845e-36
80	0x82fb49f9	-3.6923593e-37
81	0x848d5284	-3.322472e-36
82	0x807b944c	-1.1348965e-38
83	0x0474e0fd	2.8785372e-36
84	0x0595f839	1.4103075e-35
85	0x0533b9a6	8.450638e-36
86	0x04b9a466	4.3644267e-36
87	0x03a41cae	9.645638e-37
88	0x8172ee55	-4.4619375e-38
89	0x04988357	3.5855645e-36
90	0x030a6361	4.0668636e-37
91	0x03123013	4.296073e-37
92	0x84365a5b	-2.1435486e-36
93	0x03ac399c	1.0122478e-36
94	0x04366445	2.1440039e-36
95	0x04a534e7	3.8839897e-36
96	0x84433f07	-2.295108e-36
97	0x0406224c	1.5767373e-36
98	0x83f8ae84	-1.4616197e-36
99	0x0240103e	1.4110593e-37
100	0x043ae2ff	2.1968426e-36
101	0x02f12a73	3.5436132e-37
102	0x052d1e91	8.140035e-36
103	0x838bb230	-8.210596e-37
104	0x83114fab	-4.2703125e-37
105	0x05571e82	1.0114855e-35
106	0x0551eb06	9.8703e-36
107	0x050820bc	6.4007016e-36
108	0x82d08565	-3.0639418e-37
109	0x82cc5b43	-3.0027488e-37
110	0x04f5c6cf	5.77818e-36
111	0x850e8387	-6.700966e-36
112	0x82b4f868	-2.65912e-37
113	0x84502860	-2.4468822e-36
114	0x80596ee1	-8.213135e-39
115	0x04275693	1.9670509e-36
116	0x05b1c9ba	1.6719103e-35
117	0x050337f6	6.169869e-36
118	0x04d93888	5.106837e-36
119	0x04780e60	2.915886e-36
120	0x0329c258	4.988773e-37
121	0x04cd226b	4.8226876e-36
122	0x0327ce93	4.9314025e-37
123	0x8031da82	-4.578325e-39
124	0x8382cdd0	-7.6879655e-37
125	0x03c19ad7	1.137907e-36
126	0x04dd4026	5.201576e-36
127	0x05261466	7.809029e-36
128	0x8495c41e	-3.5209837e-36
129	0x84a91ccf	-3.9758166e-36
130	0x8451fb10	-2.4683114e-36
131	0x835f7eb8	-6.5679276e-37
132	0x84991025	-3.5984954e-36
133	0x8408b5f9	-1.6070281e-36
134	0x8556cc2a	-1.0099731e-35
135	0x84eb7096	-5.535163e-36
136	0x02dfebcb	3.2902244e-37
137	0x857e1349	-1.1946565e-35
138	0x849baf0c	-3.660108e-36
139	0x85351ec8	-8.516233e-36
140	0x83dbadd5	-1.2911573e-36
141	0x839c47f7	-9.185378e-37
142	0x85031441	-6.1633105e-36
143	0x04b5c3c6	4.2732685e-36
144	0x01c93da0	7.3924166e-38
145	0x0495345e	3.5077823e-36
146	0x01120700	2.6820987e-38
147	0x8442f6ac	-2.2917857e-36
148	0x86069ca9	-2.5317695e-35
149	0x8572e85f	-1.1421465e-35
150	0x854fbb7f	-9.767531e-36
151	0x84db456b	-5.1550403e-36
152	0x83afb299	-1.032658e-36
153	0x8504cfd2	-6.244781e-36
154	0x831fbbb4	-4.6941373e-37
155	0x831e8de8	-4.6594927e-37
156	0x83d0736b	-1.225164e-36
157	0x80f3b23e	-2.2379967e-38
158	0x85266dd3	-7.825454e-36
159	0x8580d8f5	-1.211676e-35
160	0x838a0d55	-8.113972e-37
161	0x02e3abf4	3.3453348e-37
162	0x83c664f8	-1.1660575e-36
163	0x02bfdcc5	2.8191643e-37
164	0x83a12ac8	-9.472552e-37
165	0x826c3d65	-1.7356161e-37
166	0x04a9f600	3.9957624e-36
167	0x83ce5a06	-1.212826e-36
168	0x02dcd516	3.24484e-37
169	0x0381bced	7.625314e-37
170	0x0508641f	6.4130786e-36
171	0x8310d979	-4.2567443e-37
172	0x016d4a5f	4.3583384e-38
173	0x038b0cf0	8.172656e-37
174	0x04a1a531	3.8002622e-36
175	0x04954d8b	3.5100944e-36
176	0x81779628	-4.5474467e-38
177	0x04be187a	4.4691264e-36
178	0x021f8336	1.1719131e-37
179	0x83269b48	-4.896127e-37
180	0x84d5ed86	-5.029419e-36
181	0x846525f9	-2.6936257e-36
182	0x81c32ba0	-7.1694286e-38
183	0x03f41267	1.4345256e-36
184	0x02d585ec	3.1374404e-37
185	0x835db5f0	-6.5154917e-37
186	0x82098349	-1.0102847e-37
187	0x820925a5	-1.0075974e-37
188	0x81f2bf0f	-8.9170916e-38
189	0x03fa73f8	1.47203045e-36
190	0x03f0779a	1.4133391e-36
191	0x040e2dbc	1.671302e-36
192	0x02dfd779	3.289058e-37
193	0x84ae1169	-4.0923192e-36
194	0x8234b90d	-1.3277418e-37
195	0x0269c823	1.7175573e-37
196	0x840492c2	-1.5583913e-36
197	0x8440ae53	-2.2649537e-36
198	0x84c50588	-4.6319557e-36
199	0x84c6e145	-4.6756454e-36
200	0x030196cf	3.8082813e-37
201	0x85859316	-1.2561291e-35
202	0x83bc2311	-1.1057698e-36
203	0x8551912f	-9.853799e-36
204	0x02bc67ab	2.768362e-37
205	0x03bd8fa0	1.1141396e-36
206	0x850012b7	-6.0219685e-36
207	0x05040bfd	6.208812e-36
208	0x02ed2ded	3.485038e-37
209	0x049207d4	3.4331624e-36
210	0x01291160	3.1052864e-38
211	0x8484c515	-3.1214042e-36
212	0x85aed6e8	-1.6441825e-35
213	0x854e9cc4	-9.714867e-36
214	0x84d614d0	-5.033027e-36
215	0x83bf6341	-1.1248759e-36
216	0x82ad462c	-2.5460342e-37
217	0x84a3c290	-3.8499793e-36
218	0x83644f7e	-6.709443e-37
219	0x83276c1a	-4.9200984e-37
220	0x807f9ce9	-1.1719397e-38
221	0x8355ee46	-6.28686e-37
222	0x8497a733	-3.5653478e-36
223	0x84f48044	-5.7481918e-36
224	0x032d3ed4	5.0912254e-37
225	0x82cf8ca5	-3.0496642e-37
226	0x836374c8	-6.6843363e-37
227	0x005a0373	8.266432e-39
228	0x83b0b96a	-1.0386919e-36
229	0x038e841a	8.376339e-37
230	0x040bdc9c	1.644067e-36
231	0x84028037	-1.53403e-36
232	0x0259e718	1.6008963e-37
233	0x84f050c5	-5.6497904e-36
234	0x84f92f45	-5.858303e-36
235	0x84c0f0e2	-4.53602e-36
236	0x021de926	1.1601449e-37
237	0x83b8ea89	-1.0868395e-36
238	0x8481ac84	-3.0486185e-36
239	0x04752e87	2.8820976e-36
240	0x0114e5d4	2.73482e-38
241	0x04c9e68f	4.7466608e-36
242	0x818ccaa0	-5.171863e-38
243	0x838b9ddd	-8.205929e-37
244	0x85a7fcd8	-1.5797485e-35
245	0x8532980e	-8.397448e-36
246	0x84ddd3c6	-5.2151333e-36
247	0x83c48d9e	-1.1552358e-36
248	0x03611774	6.614848e-37
249	0x8484b16a	-3.119598e-36
250	0x8434c3ca	-2.12488e-36
251	0x033fbcee	5.6346736e-37
252	0x04b13cfe	4.1668512e-36
253	0x03404799	5.650592e-37
254	0x84be180f	-4.469088e-36
255	0x8503a261	-6.189415e-36

attnN2.node_attn_maps.0.bias f4 [8]
0	0x80b057af	-1.6194502e-38
1	0x8092318d	-1.3425758e-38
2	0x014209f6	3.563932e-38
3	0x01aa17f9	6.2482536e-38
4	0x82396e98	-1.3623392e-37
5	0x01f9dd0b	9.1785335e-38
6	0x8190a11b	-5.312842e-38
7	0x8122c135	-2.989332e-38

attnN2.node_attn_maps.1.weight f4 [8, 32]
0	0x840a264a	-1.6239404e-36
1	0x03878ccc	7.966912e-37
2	0x84240c7b	-1.9283838e-36
3	0x035a4e35	6.415422e-37
4	0x040b9e19	1.6411966e-36
5	0x0241d637	1.4240877e-37
6	0x04d2e3e1	4.9580036e-36
7	0x042fc026	2.0659381e-36
8	0x01ffde22	9.399095e-38
9	0x0408c5f5	1.607762e-36
10	0x04e854e4	5.4620898e-36
11	0x82a609da	-2.4397162e-37
12	0x82f908c0	-3.6592284e-37
13	0x840ae51a	-1.632702e-36
14	0x03420bb4	5.702491e-37
15	0x840b4562	-1.637123e-36
16	0x01ba53a8	6.844565e-38
17	0x0390f1be	8.519061e-37
18	0x01bfd611	7.046949e-38
19	0x03c2ae74	1.1442348e-36
20	0x0573083c	1.14273175e-35
21	0x043546ec	2.1309013e-36
22	0x04cb2acd	4.7764377e-36
23	0x04b55fbd	4.2640817e-36
24	0x801b94d6	-2.53295e-39
25	0x04a38118	3.843967e-36
26	0x83a3212b	-9.587894e-37
27	0x011e7327	2.9102635e-38
28	0x8293717d	-2.1664848e-37
29	0x04369ae5	2.1465121e-36
30	0x04f01587	5.64435e-36
31	0x052820a0	7.905314e-36
32	0x03ada5f1	1.0206124e-36
33	0x013c71d5	3.4611817e-38
34	0x02d5daba	3.142308e-37
35	0x034442dc	5.7675974e-37
36	0x0387f01c	7.989713e-37
37	0x034fd9e2	6.108195e-37
38	0x044b0a43	2.3867247e-36
39	0x03fe9cab	1.49647475e-36
40	0x8215c71d	-1.1003934e-37
41	0x04369fdd	2.1467403e-36
42	0x04145baf	1.7439415e-36
43	0x0409126e	1.6112735e-36
44	0x03730007	7.1411313e-37
45	0x043dc01a	2.2305052e-36
46	0x0440a5d8	2.2645643e-36
47	0x040add1f	1.6323356e-36
48	0x025da782	1.6284588e-37
49	0x029296af	2.153926e-37
50	0x013d0332	3.471611e-38
51	0x041dce55	1.8550004e-36
52	0x0509974a	6.4694965e-36
53	0x046c5ae8	2.7783409e-36
54	0x043eee8d	2.244393e-36
55	0x041dc1eb	1.8544304e-36
56	0x8218c0b7	-1.1222503e-37
57	0x03dc570e	1.2950425e-36
58	0x033b9152	5.512118e-37
59	0x800c204c	-1.113612e-39
60	0x021a7499	1.1347595e-37
61	0x04106b90	1.6976509e-36
62	0x0486fd4d	3.173587e-36
63	0x04c4aa37	4.6235696e-36
64	0x03b1fc93	1.0461113e-36
65	0x83b54770	-1.0654625e-36
66	0x0401ac6e	1.5243053e-36
67	0x839029bb	-8.47314e-37
68	0x841643dd	-1.7663577e-36
69	0x8264dc41	-1.6814004e-37
70	0x84f1e74d	-5.6871244e-36
71	0x846b7638	-2.76784e-36
72	0x8278f29b	-1.8289787e-37
73	0x841c3468	-1.8361776e-36
74	0x85005391	-6.03388e-36
75	0x025130df	1.536892e-37
76	0x0328020e	4.937312e-37
77	0x041930a5	1.80074e-36
78	0x839fdb5a	-9.395541e-37
79	0x03fc5b6f	1.4832221e-36
80	0x81bd6fd2	-6.958809e-38
81	0x838c6a7e	-8.25291e-37
82	0x8153903b	-3.885806e-38
83	0x83e91206	-1.3698647e-36
84	0x8588ed00	-1.2876439e-35
85	0x8471fd52	-2.8445733e-36
86	0x84ef887a	-5.6313964e-36
87	0x84c99ad0	-4.7397046e-36
88	0x81820d5c	-4.777363e-38
89	0x84a93e71	-3.9789052e-36
90	0x03b170bf	1.042901e-36
91	0x80e8e484	-2.1387811e-38
92	0x032939b3	4.973087e-37
93	0x8436332d	-2.1417496e-36
94	0x8507ba5e	-6.3819e-36
95	0x85409490	-9.055083e-36
96	0x84b7ea0e	-4.323804e-36
97	0x83640669	-6.7010536e-37
98	0x8429b3d1	-1.9948422e-36
99	0x839c7bfc	-9.197321e-37
100	0x830c2287	-4.1181938e-37
101	0x8258e1e5	-1.5934002e-37
102	0x83ed3e28	-1.3943878e-36
103	0x851b58c1	-7.3043665e-36
104	0x81f84d82	-9.121203e-38
105	0x0333b7d2	5.2814388e-37
106	0x845dd44d	-2.6075909e-36
107	0x03aa4bc9	1.0009101e-36
108	0x83a3f00e	-9.635393e-37
109	0x83640408	-6.7007806e-37
110	0x02d3d54d	3.1126092e-37
111	0x82b28058	-2.6228415e-37
112	0x80b145b5	-1.6279889e-38
113	0x834bf1b7	-5.9933813e-37
114	0x813ea9e5	-3.5019382e-38
115	0x83f05e9b	-1.4127653e-36
116	0x84fd5b78	-5.9564015e-36
117	0x841fb15e	-1.8771803e-36
118	0x843a64f8	-2.1910558e-36
119	0x8412c04b	-1.7250514e-36
120	0x82b1c9e6	-2.6123697e-37
121	0x839d8dd5	-9.260194e-37
122	0x02d8f80b	3.1880717e-37
123	0x0011e98c	1.644984e-39
124	0x038b6fec	8.195382e-37
125	0x843499a8	-2.1229454e-36
126	0x8462b29a	-2.6648182e-36
127	0x84a8a81c	-3.9650994e-36
128	0x03c15f72	1.1365434e-36
129	0x0307fb2c	3.9961266e-37
130	0x030f3d64	4.2094396e-37
131	0x0263f87a	1.6748635e-37
132	0x0324b6fb	4.840532e-37
133	0x832fe772	-5.1693564e-37
134	0x04082623	1.6004235e-36
135	0x03caf36c	1.192838e-36
136	0x022c08aa	1.2639051e-37
137	0x83a53f88	-9.7124145e-37
138	0x03fecf48	1.4976368e-36
139	0x83f8b42a	-1.4617494e-36
140	0x8309c46a	-4.0486154e-37
141	0x843c8af8	-2.2163105e-36
142	0x83eeddf3	-1.403934e-36
143	0x8406c58a	-1.584233e-36
144	0x81e45d35	-8.388772e-38
145	0x01a27e71	5.9690836e-38
146	0x8051727d	-7.479746e-39
147	0x83cc5fb0	-1.2012011e-36
148	0x0460833a	2.639133e-36
149	0x001cbf63	2.64005e-39
150	0x04223dec	1.9071442e-36
151	0x03e25044	1.3301514e-36
152	0x033b323b	5.5012023e-37
153	0x041c357a	1.8362267e-36
154	0x83668f1e	-6.7755216e-37
155	0x01086cbe	2.5057274e-38
156	0x8322daf3	-4.7858863e-37
157	0x83ab7006	-1.0076196e-36
158	0x036dab6e	6.984483e-37
159	0x03b8b4c8	1.0856053e-36
160	0x84239ba2	-1.9232021e-36
161	0x831a503f	-4.534865e-37
162	0x83839159	-7.732858e-37
163	0x83d4c5fa	-1.2505693e-36
164	0x83198a29	-4.512126e-37
165	0x838c112f	-8.232406e-37
166	0x8459cfef	-2.5603706e-36
167	0x848fc2fc	-3.3798203e-36
168	0x823111c1	-1.3009001e-37
169	0x843d11b3	-2.222497e-36
170	0x841fb282	-1.8772327e-36
171	0x8416d25d	-1.772901e-36
172	0x83875874	-7.954895e-37
173	0x84339af2	-2.1112496e-36
174	0x84824664	-3.0627497e-36
175	0x84867406	-3.16098e-36
176	0x81c26b0f	-7.1417967e-38
177	0x83be5105	-1.11857975e-36
178	0x80a524b9	-1.516603e-38
179	0x8440baa7	-2.2655198e-36
180	0x84e1114b	-5.2913127e-36
181	0x8486324c	-3.154944e-36
182	0x841d2258	-1.8471031e-36
183	0x83e5132c	-1.3463812e-36
184	0x81ebba28	-8.659249e-38
185	0x8239026f	-1.3592352e-37
186	0x82b2feab	-2.6300922e-37
187	0x00a744d6	1.5361222e-38
188	0x82bd6f02	-2.783477e-37
189	0x843f054f	-2.245438e-36
190	0x848b69fe	-3.277608e-36
191	0x84cc48ea	-4.802713e-36
192	0x038ec4ea	8.391219e-37
193	0x03d0cfac	1.227282e-36
194	0x83767355	-7.2425297e-37
195	0x03b36abf	1.0545182e-36
196	0x03cbe55c	1.1983926e-36
197	0x01061e9e	2.463388e-38
198	0x04b3e972	4.2297083e-36
199	0x0486e62b	3.1714624e-36
200	0x02c098fb	2.829967e-37
201	0x02cfa275	3.0509162e-37
202	0x04829083	3.0695566e-36
203	0x83976db9	-8.900173e-37
204	0x8281c0f9	-1.9065607e-37
205	0x841ae569	-1.8207953e-36
206	0x829cbfd0	-2.3032235e-37
207	0x8360b2b3	-6.603282e-37
208	0x820134b1	-9.492545e-38
209	0x03a701ef	9.815822e-37
210	0x811b1ba4	-2.8488835e-38
211	0x02fe9799	3.7408958e-37
212	0x0546484b	9.3231934e-36
213	0x0442d516	2.2902435e-36
214	0x04be778a	4.4778565e-36
215	0x048e77a6	3.349392e-36
216	0x02d1d6fb	3.0833183e-37
217	0x04709e3d	2.8284524e-36
218	0x83a301dd	-9.580707e-37
219	0x015a1bc4	4.0060197e-38
220	0x831216b3	-4.29316e-37
221	0x037592fe	7.2167768e-37
222	0x04c47ee0	4.6195895e-36
223	0x050dd476	6.668811e-36
224	0x835df642	-6.5228753e-37
225	0x82c6bffb	-2.9203677e-37
226	0x83ab4311	-1.0065874e-36
227	0x02a344f8	2.3990284e-37
228	0x04486aac	2.3558868e-36
229	0x81ef2e2c	-8.786099e-38
230	0x0506b6e5	6.334242e-36
231	0x03a25f92	9.543446e-37
232	0x00b619d8	1.6723331e-38
233	0x0389d3c6	8.100757e-37
234	0x04afd47e	4.1337446e-36
235	0x838aa953	-8.149786e-37
236	0x81170b5d	-2.7742473e-38
237	0x83a66d8b	-9.781753e-37
238	0x83dca79f	-1.2968922e-36
239	0x849ac5d6	-3.638691e-36
240	0x80ef0fcf	-2.1954355e-38
241	0x837689ec	-7.245123e-37
242	0x01892cba	5.039003e-38
243	0x03d06eb9	1.2250562e-36
244	0x059d1042	1.4770181e-35
245	0x0481ab77	3.048522e-36
246	0x04c9794b	4.7366263e-36
247	0x04a160ad	3.79397e-36
248	0x82e362e7	-3.341142e-37
249	0x04b373b1	4.2188944e-36
250	0x82bcbc5f	-2.7732237e-37
251	0x01726a0e	4.452447e-38
252	0x83994997	-9.009427e-37
253	0x03f523fa	1.4408066e-36
254	0x04e4f9d9	5.383199e-36
255	0x05266693	7.8241224e-36

attnN2.node_attn_maps.1.bias f4 [8]
0	0x020d107f	1.0363778e-37
1	0x01b226a3	6.5442314e-38
2	0x821f10ff	-1.1686353e-37
3	0x81f28a52	-8.909524e-38
4	0x804f40f7	-7.278309e-39
5	0x81d720c7	-7.902556e-38
6	0x01f55580	9.012147e-38
7	0x019b5d63	5.707201e-38

attnN2.node_attn_maps.2.weight f4 [8, 32]
0	0x830b4d6f	-4.093732e-37
1	0x0598ad93	1.4357772e-35
2	0x82871d77	-1.985338e-37
3	0x031a735a	4.538895e-37
4	0x03d60cfc	1.2580771e-36
5	0x0552e419	9.9160475e-36
6	0x05c7b3b3	1.8779881e-35
7	0x05e7f914	2.1814632e-35
8	0x03ba6000	1.0954138e-36
9	0x06208481	3.0190004e-35
10	0x058b7cb9	1.3117313e-35
11	0x06005eec	2.4143862e-35
12	0x0268b934	1.7097819e-37
13	0x046e01be	2.7977566e-36
14	0x06478c93	3.7531018e-35
15	0x06295b63	3.1852508e-35
16	0x033a802b	5.4807617e-37
17	0x05b95fc3	1.7432494e-35
18	0x01ec4dda	8.680442e-38
19	0x055a6903	1.0269598e-35
20	0x05ac1110	1.618107e-35
21	0x060b72bc	2.6227288e-35
22	0x05b22f09	1.6756318e-35
23	0x05283d9a	7.9106365e-36
24	0x04afbd27	4.131601e-36
25	0x035aab87	6.4261346e-37
26	0x047433fb	2.870593e-36
27	0x008420ae	1.2134009e-38
28	0x03c05950	1.1305251e-36
29	0x058bd034	1.3147979e-35
30	0x05c51960	1.8535112e-35
31	0x0614b493	2.796837e-35
32	0x0412a895	1.7239627e-36
33	0x8557ebb3	-1.01525425e-35
34	0x03384b6c	5.415932e-37
35	0x031eaa48	4.66275e-37
36	0x0363f663	6.6992142e-37
37	0x85040604	-6.207715e-36
38	0x8557280d	-1.01166076e-35
39	0x85618de3	-1.06055096e-35
40	0x83250423	-4.849389e-37
41	0x85c42da1	-1.8448513e-35
42	0x848e20b4	-3.3414073e-36
43	0x859fceae	-1.502821e-35
44	0x815fe0e6	-4.1119988e-38
45	0x83bbb6ed	-1.103287e-36
46	0x8605a5e6	-2.5136403e-35
47	0x85db4c09	-2.0622592e-35
48	0x8300e714	-3.7881084e-37
49	0x8577eead	-1.1657722e-35
50	0x8298ce56	-2.2452824e-37
51	0x84dc00c7	-5.1722465e-36
52	0x8546fa1e	-9.3558545e-36
53	0x85b0e4e2	-1.6635039e-35
54	0x8560db78	-1.05727394e-35
55	0x84bfe2e6	-4.5112258e-36
56	0x844bf524	-2.3975098e-36
57	0x8409e3e6	-1.6208918e-36
58	0x82a725d0	-2.4560148e-37
59	0x807e0bd3	-1.1575514e-38
60	0x85037336	-6.180751e-36
61	0x850e006e	-6.676887e-36
62	0x85a58b8d	-1.5567788e-35
63	0x85e33d04	-2.1369391e-35
64	0x8417ed56	-1.7858944e-36
65	0x859a8d12	-1.4533911e-35
66	0x83a23d28	-9.535545e-37
67	0x83cb8d23	-1.1963671e-36
68	0x83fc5dbf	-1.4832752e-36
69	0x855d8d62	-1.0417338e-35
70	0x85d57120	-2.007198e-35
71	0x86081eed	-2.5601478e-35
72	0x83aa4850	-1.0008304e-36
73	0x86218550	-3.0378677e-35
74	0x8593006a	-1.3823966e-35
75	0x86003909	-2.4116027e-35
76	0x83884624	-8.009465e-37
77	0x8487a920	-3.1893664e-36
78	0x86465195	-3.7299598e-35
79	0x86217695	-3.0367855e-35
80	0x8343cc57	-5.753992e-37
81	0x85b7004d	-1.7209348e-35
82	0x8201a1b7	-9.523833e-38
83	0x8552d829	-9.913855e-36
84	0x85bd42f8	-1.7798075e-35
85	0x860c3adb	-2.6374314e-35
86	0x85b338f9	-1.6854008e-35
87	0x852bb942	-8.074408e-36
88	0x84ab19bc	-4.022554e-36
89	0x83875157	-7.953262e-37
90	0x84946554	-3.4887688e-36
91	0x0035f213	4.954121e-39
92	0x83fac5a5	-1.4739056e-36
93	0x858df5ad	-1.3349823e-35
94	0x85cc9484	-1.9238624e-35
95	0x861ab13a	-2.9094386e-35
96	0x843698f3	-2.1464228e-36
97	0x854c0f10	-9.5948004e-36
98	0x84014642	-1.5196138e-36
99	0x8406c565	-1.5842263e-36
100	0x8445e726	-2.3263377e-36
101	0x851d600a	-7.399744e-36
102	0x85b53069	-1.7038941e-35
103	0x85c52ebb	-1.8542957e-35
104	0x83abf3bb	-1.01064345e-36
105	0x85f5b229	-2.3105135e-35
106	0x85950b70	-1.4016094e-35
107	0x85bd51bd	-1.78035e-35
108	0x83817cc2	-7.610582e-37
109	0x84922187	-3.4355225e-36
110	0x86160b03	-2.8219955e-35
111	0x85f88458	-2.3370423e-35
112	0x8301c697	-3.8137663e-37
113	0x8585d989	-1.258717e-35
114	0x0185716a	4.9019225e-38
115	0x8516ffd5	-7.099955e-36
116	0x85b873f9	-1.7345878e-35
117	0x85deeeaa	-2.0964451e-35
118	0x85a402dd	-1.5423538e-35
119	0x852d353a	-8.144197e-36
120	0x84ba1d38	-4.3755223e-36
121	0x83fec272	-1.4973421e-36
122	0x845d0c43	-2.5984055e-36
123	0x00a0dde8	1.4773284e-38
124	0x03860615	7.8772085e-37
125	0x85562d74	-1.007058e-35
126	0x859a3c5b	-1.4504261e-35
127	0x85f5b38b	-2.3105643e-35
128	0x0059d78b	8.250681e-39
129	0x05f427ad	2.2960224e-35
130	0x830d88a3	-4.1593027e-37
131	0x041dc49d	1.8545542e-36
132	0x033182c2	5.2165728e-37
133	0x05a3c600	1.540118e-35
134	0x05f0191e	2.2578718e-35
135	0x06464a9f	3.7294484e-35
136	0x03f5298d	1.4409345e-36
137	0x065ecdcb	4.1904752e-35
138	0x057035a6	1.12945994e-35
139	0x0636c107	3.437221e-35
140	0x02a50ca1	2.425182e-37
141	0x0487bdc5	3.1912623e-36
142	0x068de058	5.336795e-35
143	0x066d122c	4.4588096e-35
144	0x0378bddc	7.3098598e-37
145	0x060a393f	2.5996973e-35
146	0x029cddc1	2.304942e-37
147	0x0585c6b0	1.2580246e-35
148	0x05de55f7	2.0908358e-35
149	0x06404087	3.6158594e-35
150	0x05f6737d	2.3176153e-35
151	0x055f1f42	1.0491151e-35
152	0x04dd4884	5.2023445e-36
153	0x03ab1f15	1.0057613e-36
154	0x0484d700	3.1230497e-36
155	0x02075830	9.943542e-38
156	0x054a147b	9.501756e-36
157	0x05c475e6	1.847506e-35
158	0x06220168	3.0469847e-35
159	0x0666cf2c	4.3410398e-35
160	0x843079c0	-2.0744605e-36
161	0x049f8a87	3.7507938e-36
162	0x837dfe3d	-7.464187e-37
163	0x83cdb1a8	-1.2089605e-36
164	0x83bbf19a	-1.1046341e-36
165	0x043b6610	2.202861e-36
166	0x046865a6	2.7318144e-36
167	0x04461c0f	2.3287672e-36
168	0x031add1d	4.551036e-37
169	0x049d8a81	3.703772e-36
170	0x03fb7b76	1.4780799e-36
171	0x0472c59b	2.85377e-36
172	0x81bbe224	-6.9017447e-38
173	0x02f1cf64	3.5530804e-37
174	0x055a55de	1.0266082e-35
175	0x058f799a	1.3492325e-35
176	0x028e2fd1	2.089247e-37
177	0x05170fa8	7.1028615e-36
178	0x022066e5	1.1784473e-37
179	0x03f654c7	1.4478044e-36
180	0x04a244d4	3.8149226e-36
181	0x052cbc08	8.121937e-36
182	0x0512bc56	6.899479e-36
183	0x048877b3	3.2083373e-36
184	0x03bda19f	1.1145528e-36
185	0x040f7a3d	1.6865698e-36
186	0x817eb226	-4.6780247e-38
187	0x01c48c51	7.2200373e-38
188	0x050bbcd8	6.570434e-36
189	0x042734a9	1.9654936e-36
190	0x0557e9b1	1.0152174e-35
191	0x058bff7c	1.3165347e-35
192	0x0390b066	8.504058e-37
193	0x05d6bbc2	2.0193435e-35
194	0x0331f618	5.2298127e-37
195	0x03b68572	1.0727636e-36
196	0x040125ad	1.5181177e-36
197	0x0588c5bc	1.2862015e-35
198	0x06099892	2.5878927e-35
199	0x061e0b99	2.9725018e-35
200	0x03da3005	1.2823913e-36
201	0x06601917	4.214815e-35
202	0x05b6fd71	1.7208297e-35
203	0x063298ec	3.3590428e-35
204	0x034f324f	6.0889584e-37
205	0x049767c5	3.5595227e-36
206	0x068582d5	5.022128e-35
207	0x064bf643	3.836098e-35
208	0x03416ffb	5.684615e-37
209	0x05dbf02b	2.0682885e-35
210	0x026c28b7	1.7350226e-37
211	0x05927496	1.3772601e-35
212	0x060578f4	2.5103382e-35
213	0x0638b243	3.473752e-35
214	0x05e36290	2.1383184e-35
215	0x05534cf6	9.935308e-36
216	0x04cfe311	4.8873994e-36
217	0x0380704a	7.548944e-37
218	0x04934124	3.4619356e-36
219	0x0147c8af	3.669451e-38
220	0x04435ed4	2.2965683e-36
221	0x05b37578	1.687623e-35
222	0x060a9fe4	2.6072384e-35
223	0x064e909a	3.885053e-35
224	0x03873183	7.945954e-37
225	0x04880420	3.1977235e-36
226	0x02f18289	3.548669e-37
227	0x812c43d4	-3.1640075e-38
228	0x03c2c6ca	1.1447935e-36
229	0x04787c2e	2.920928e-36
230	0x037d244c	7.4391684e-37
231	0x05384608	8.664501e-36
232	0x03812830	7.591165e-37
233	0x04e9314e	5.4823316e-36
234	0x04a5b9f0	3.896207e-36
235	0x04d44f8f	4.9914024e-36
236	0x03450544	5.789914e-37
237	0x04127aac	1.7218546e-36
238	0x0568d636	1.0947932e-35
239	0x05d56276	2.0066593e-35
240	0x01fcf9de	9.292872e-38
241	0x051eff4d	7.476016e-36
242	0x82654ffd	-1.6847218e-37
243	0x0428f3f0	1.9860316e-36
244	0x04b72476	4.3056577e-36
245	0x05798ccc	1.1733784e-35
246	0x055022d3	9.786509e-36
247	0x04c51610	4.633474e-36
248	0x04572979	2.5292172e-36
249	0x039a2a51	9.061022e-37
250	0x0421491b	1.8959027e-36
251	0x029482f4	2.182181e-37
252	0x83cbcfe7	-1.1979e-36
253	0x04e84fab	5.46161e-36
254	0x04c00717	4.5145494e-36
255	0x051cb901	7.3690646e-36

attnN2.node_attn_maps.2.bias f4 [8]
0	0x0303177a	3.852439e-37
1	0x82a4ecc1	-2.4233524e-37
2	0x830b3e8d	-4.0920233e-37
3	0x82f7198d	-3.6308054e-37
4	0x035322f7	6.2047465e-37
5	0x02224b99	1.1923576e-37
6	0x0339de7d	5.4622018e-37
7	0x020c4048	1.0304023e-37
