train_script/weights/GANOrigEdgeBased_model300new_gaia_mom/233.pth (torch, 141609 bytes, 129 tensors)

attnN1.node_attn_maps.0.weight f4 [8, 4]
000000 cf ce 0a 00 14 1b 06 80 a0 01 0b 00 3d 82 08 80
       9.92544e-40 -5.60727e-40 1.010773e-39 -7.81405e-40
000010 ca 88 02 80 f7 18 05 00 a2 b0 09 00 0a 77 09 80
       -2.32742e-40 4.68133e-40 8.89883e-40 -8.69223e-40
000020 8e c2 00 00 4e 81 04 80 ec af 08 80 9e 64 02 80
       6.9793e-41 -4.13728e-40 -7.97793e-40 -2.19766e-40
000030 91 9c 06 00 6f 56 00 80 b8 4b 0b 80 27 7e 04 00
       6.07178e-40 -3.1007e-41 -1.037353e-39 4.12597e-40
000040 af 88 06 00 4f fc 08 80 20 21 09 80 80 85 08 00
       6.00046e-40 -8.25195e-40 -8.38402e-40 7.82575e-40
000050 c0 f2 05 00 6d 69 05 00 86 13 09 00 30 47 06 80
       5.4626e-40 4.96997e-40 8.33523e-40 -5.7655e-40
000060 16 8b 0a 80 a3 be 06 80 d2 ce 09 00 10 3a 08 00
       -9.6825e-40 -6.194e-40 9.00713e-40 7.55513e-40
000070 03 8e 0a 00 38 54 05 80 7a 2f 08 80 fd e6 05 80
       9.69299e-40 -4.8939e-40 -7.51715e-40 -5.4204e-40

attnN1.node_attn_maps.0.bias f4 [8]
000000 66 59 7b 81 c8 76 3b 01 10 d8 22 81 cc 47 3f 81
       -4.616556e-38 3.4431697e-38 -2.9909718e-38 -3.513267e-38
000010 bc 55 19 81 88 99 3d 81 40 a8 69 01 bc 03 3c 01
       -2.8163173e-38 -3.482397e-38 4.2916055e-38 3.4532826e-38

attnN1.node_attn_maps.1.weight f4 [8, 4]
000000 89 6a 08 00 b4 7d 06 00 df 98 0a 80 15 7d 06 00
       7.72902e-40 5.96107e-40 -9.73195e-40 5.95884e-40
000010 c1 97 0a 00 9d 36 0a 80 73 99 04 80 71 44 04 80
       9.72794e-40 -9.37947e-40 -4.22389e-40 -3.91894e-40
000020 0d c7 00 80 a6 89 02 00 d2 7c 03 00 f5 a0 08 00
       -7.1406e-41 2.3305e-40 3.20284e-40 7.92424e-40
000030 ba cd 03 80 be be 00 80 39 da 02 00 da 16 08 00
       -3.49307e-40 -6.8425e-41 2.61955e-40 7.42882e-40
000040 15 6f 08 80 bb 55 03 80 a1 5b 0a 00 80 f3 04 00
       -7.74533e-40 -3.06261e-40 9.51225e-40 4.54693e-40
000050 92 4c 0a 80 01 8c 08 00 3f e2 0a 00 1f 78 01 00
       -9.45823e-40 7.84908e-40 9.99517e-40 1.34927e-40
000060 b9 88 02 00 28 16 02 80 1c b0 0a 00 04 ff 08 80
       2.32718e-40 -1.91619e-40 9.81531e-40 -8.26166e-40
000070 5c 35 01 80 e7 c3 08 00 24 02 04 00 58 86 01 80
       -1.10977e-40 8.0496e-40 3.6811e-40 -1.40029e-40

attnN1.node_attn_maps.1.bias f4 [8]
000000 06 28 2f 01 81 50 6b 80 da 44 ec 00 84 93 e0 00
       3.217114e-38 -9.855277e-39 2.1697876e-38 2.062407e-38
000010 41 dd ce 00 04 67 e0 00 e9 3c 0e 81 9a 4a 20 81
       1.8997483e-38 2.0608106e-38 -2.6124982e-38 -2.9440883e-38

attnN1.node_attn_maps.2.weight f4 [8, 4]
000000 b8 66 07 80 e3 23 01 00 7f cc 0a 00 e6 8c 08 80
       -6.79697e-40 1.04709e-40 9.91714e-40 -7.85229e-40
000010 cc 73 0a 00 fc 8c 04 80 4b 69 04 00 86 6b 04 00
       9.59895e-40 -4.17918e-40 4.05114e-40 4.05914e-40
000020 9b 10 07 80 e8 8f 03 00 e0 8a 08 80 42 6f 07 80
       -6.48805e-40 3.2713e-40 -7.84503e-40 -6.8276e-40
000030 c2 f6 02 80 96 0d 07 80 bf 64 04 80 85 ed 02 80
       -2.72191e-40 -6.47722e-40 -4.03483e-40 -2.68877e-40
000040 2d 87 08 80 8a 54 04 00 93 e6 05 80 01 3f 0b 80
       -7.83176e-40 3.97669e-40 -5.41892e-40 -1.032792e-39
000050 12 a8 07 80 47 bf 04 80 d0 e9 08 80 7f d5 08 00
       -7.03141e-40 -4.3596e-40 -8.1856e-40 8.11272e-40
000060 88 e0 08 00 27 2c 04 80 75 c1 07 80 84 da 09 00
       8.1523e-40 -3.83181e-40 -7.12248e-40 9.04908e-40
000070 1d ac 07 80 b7 12 01 00 25 02 09 80 54 02 0a 00
       -7.04591e-40 9.8549e-41 -8.27289e-40 9.1919e-40

attnN1.node_attn_maps.2.bias f4 [8]
000000 0b 29 44 02 be 4d 3d 82 e3 21 61 02 de 83 5a 02
       1.4411585e-37 -1.3907838e-37 1.6540114e-37 1.6053955e-37
000010 81 a3 61 02 0d 20 5e 02 83 de 45 82 7f 92 59 82
       1.6577313e-37 1.6319182e-37 -1.4537132e-37 -1.5984684e-37

attnN1.node_attn_maps.3.weight f4 [8, 4]
000000 02 cc 00 80 36 b3 09 00 30 39 09 80 23 7f 04 00
       -7.3184e-41 8.90808e-40 -8.47034e-40 4.1295e-40
000010 b6 2e 00 00 f3 17 03 00 9c e3 03 80 17 38 08 80
       1.6757e-41 2.84098e-40 -3.57157e-40 -7.54805e-40
000020 93 51 07 00 58 7f 0a 80 d6 9a 00 80 2a 7f 08 80
       6.72112e-40 -9.64037e-40 -5.5545e-41 -7.80302e-40
000030 e7 82 09 00 6c e0 05 80 a0 df 03 00 24 ec 08 80
       8.73478e-40 -5.39685e-40 3.55728e-40 -8.19395e-40
000040 65 9e 02 00 ad 79 04 00 54 1a 00 00 10 5b 08 00
       2.40492e-40 4.10991e-40 9.445e-42 7.67351e-40
000050 09 bb 09 80 6d 51 04 80 90 15 06 00 b1 c2 07 00
       -8.93615e-40 -3.96552e-40 5.58748e-40 7.1269e-40
000060 a6 fc 09 80 4c ca 03 00 4b d5 08 80 e9 5f 03 80
       -9.17153e-40 3.48077e-40 -8.11199e-40 -3.09913e-40
000070 24 21 08 00 9c c3 02 80 78 7f 08 00 bd 60 06 00
       7.46573e-40 -2.53842e-40 7.80411e-40 5.85716e-40

attnN1.node_attn_maps.3.bias f4 [8]
000000 b0 63 37 80 6c 7f 06 00 c8 d7 18 00 e0 84 1d 00
       -5.086713e-39 5.96723e-40 2.28146e-39 2.710896e-39
000010 1c 7a 1f 00 74 b1 26 00 44 cf 4f 00 f0 8a 27 80
       2.890705e-39 3.553407e-39 7.329357e-39 -3.631426e-39

attnN1.edge_attn_maps.0.weight f4 [8, 4]
000000 ef 7d b3 3e 70 1d 09 3f be 1c 39 3e 47 c2 b8 3d
       0.35057017 0.53560543 0.1807737 0.090214305
000010 6a 44 ce 3c 97 2e 8c bd 7a b5 2a 3e 3a 88 3f 3c
       0.025179107 -0.06844824 0.1667079 0.011690194
000020 d1 da 66 3e 9d 6d f0 3d 42 1c 10 be c8 d3 f4 be
       0.2254441 0.11739657 -0.1407328 -0.47817826
000030 6e 3d 94 bd d8 f0 bc 3e 22 68 34 3e 56 d5 5f 3e
       -0.07238279 0.369025 0.17617849 0.21858725
000040 c7 f6 8b be 9d f8 f2 3e 8a b1 7f ba 1f e3 5c bd
       -0.27336714 0.47455302 -0.00097539334 -0.053927537
000050 af d6 13 3d 49 e6 15 bd f9 30 f3 bc a4 5f 7b 3d
       0.03609341 -0.03659657 -0.029686438 0.061370507
000060 47 29 5a be 06 93 91 3d e7 a6 3c 3d 53 60 03 3d
       -0.21304809 0.071081206 0.046057608 0.032074284
000070 a1 76 d8 3e 29 06 39 be 9e a0 ad 3d 68 e2 a1 3e
       0.42278007 -0.18068756 0.08477901 0.31618047

attnN1.edge_attn_maps.0.bias f4 [8]
000000 c4 9c 9f 3d 07 61 81 3e 63 fe b4 bb ef 37 06 3e
       0.077935725 0.25269338 -0.0055234893 0.13107274
000010 d2 7b d0 bb 3b d6 ae be 5e 1d 81 be 77 32 98 3d
       -0.006362417 -0.3414782 -0.25217718 0.074315004

attnN1.edge_attn_maps.1.weight f4 [8, 4]
000000 9b 7d 46 3b 62 4c 9c 3e 6a 25 94 3e dc 98 c4 3d
       0.003028727 0.30527025 0.28934795 0.09599468
000010 18 a5 4e bd 46 83 df bd 3f 56 90 bd 10 95 58 bd
       -0.050450414 -0.1091371 -0.070477 -0.052876532
000020 c4 6e 51 be 89 f7 15 3e c4 c0 38 3d 81 0b 38 be
       -0.2045241 0.14645208 0.04510571 -0.17973138
000030 8a 36 21 3c bc c7 f4 bd ff 08 b0 bd 7d 33 90 bd
       0.009839663 -0.11952159 -0.08595466 -0.070410706
000040 15 ef e1 3e 0c 22 a6 bd 7a 91 8a be 94 3e cc bd
       0.44127718 -0.08111963 -0.27064115 -0.09972873
000050 f9 a3 ad 3e 72 1c 01 bc 1a f7 d3 be a0 94 9d be
       0.33914164 -0.007880317 -0.4139946 -0.30777454
000060 8d 03 6f 3a 89 21 f0 bd a9 0c ad 3d d9 01 f0 bd
       0.00091176556 -0.11725146 0.0844968 -0.117191024
000070 77 bd 98 3e 92 09 1c be df dd af 3e 32 0b 16 be
       0.2983205 -0.15238026 0.34348962 -0.14652708

attnN1.edge_attn_maps.1.bias f4 [8]
000000 4e c3 fe bd e1 b6 f4 be ca 7b 0d bd 95 4c 32 be
       -0.12439595 -0.47795776 -0.034541883 -0.17412026
000010 3b 0a 8d 3d dd dc c2 3d d9 09 d1 be 59 cd 04 3e
       0.06886717 0.095147826 -0.40827826 0.12968959

attnN1.edge_attn_maps.2.weight f4 [8, 4]
000000 45 21 52 bc ca 2a 2c be 39 f8 93 bd d0 82 c9 be
       -0.012825315 -0.16813198 -0.07225079 -0.39357615
000010 56 5b 85 3d e5 28 1f be 11 1f 53 3e 70 f3 b0 3c
       0.065115616 -0.15542944 0.2061732 0.021600455
000020 cc 63 5e 3e 2e d6 00 bf de 0e 31 be f7 ad 83 be
       0.21717757 -0.5032681 -0.17290828 -0.25718662
000030 80 06 d2 3e 67 27 f4 bd 17 9b 01 bf 66 15 88 3e
       0.41020584 -0.11921578 -0.50627273 0.26578826
000040 28 46 11 be ba 1c 34 3e c9 a1 99 be 35 c1 58 3e
       -0.14186919 0.17589083 -0.30006245 0.21167453
000050 ef c4 ea 3d 6a 8f 56 3e d0 3e 97 3d 6c 9d 2b 3e
       0.11463343 0.20953146 0.073850274 0.1675927
000060 65 78 20 be bd 8b 39 3e 8c 76 36 3e eb ae d4 bc
       -0.15670927 0.18119712 0.1781866 -0.025962314
000070 46 7e 43 be 13 b6 6f 3d 99 fa 12 3e cf 6e c7 bd
       -0.19091138 0.05852325 0.14353408 -0.09737932

attnN1.edge_attn_maps.2.bias f4 [8]
000000 7c 6f ec 3d bc d1 c0 3d a8 12 de 3d b7 6d d4 bd
       0.115447015 0.09415004 0.10843402 -0.10372489
000010 5b 89 2a be 59 5a 3d be 3a 97 03 be 5e 72 99 3c
       -0.1665396 -0.18491496 -0.12850657 0.018731292

attnN1.edge_attn_maps.3.weight f4 [8, 4]
000000 80 c0 17 bd 31 df 8e 3d 83 f9 90 3e 8f 85 50 bd
       -0.037048817 0.06976164 0.28315362 -0.05090862
000010 88 96 e3 be 52 96 f4 3e 14 6c 6d 3e 48 31 eb be
       -0.44450784 0.47770935 0.2318576 -0.45936036
000020 2b b3 13 3e 32 f7 ec 3e c0 51 c4 3e 9e ac c2 be
       0.14423816 0.46282345 0.3834362 -0.3802232
000030 a2 33 f8 bc 48 b1 4f be 5a c5 b3 3d 13 95 cc be
       -0.030298058 -0.20282471 0.08777876 -0.39957485
000040 51 73 ba bb d6 8e 76 be 44 48 4f be 0b 99 b5 be
       -0.0056900163 -0.24077925 -0.20242411 -0.35468325
000050 ad 31 5f 3e ad ba 6f bd e9 46 a1 bd 5e 20 f8 3d
       0.21796294 -0.058527637 -0.07874853 0.121155486
000060 76 41 40 bd bf d1 2d 3d a8 87 89 bd 70 d0 a5 3d
       -0.04693743 0.042436358 -0.067153275 0.08096397
000070 63 b1 9a bd 5f ec 24 3d 39 a2 73 bd 9e ae fb 3d
       -0.07553365 0.040264484 -0.05948088 0.12289165

attnN1.edge_attn_maps.3.bias f4 [8]
000000 b3 02 2c 3d c5 c1 42 3d 59 9d 13 3c 68 1b aa 3a
       0.04199476 0.047548074 0.009009683 0.0012978138
000010 74 59 e6 3b f4 5a 81 3d 1f 0a 91 bd eb 49 10 3e
       0.0070297066 0.06316176 -0.070820086 0.14090697

attnN1.combinator.weight f4 [1, 16]
000000 3d fc cc 81 81 41 c7 01 8d 3d fa 81 32 cd cf 81
       -7.529971e-38 7.319505e-38 -9.192382e-38 -7.633423e-38
000010 3e b6 ec 81 b5 34 c9 81 49 b8 cf 01 d2 4f d8 01
       -8.6954213e-38 -7.391137e-38 7.6304227e-38 7.9460405e-38
000020 55 00 3d be 99 68 45 bc 96 15 51 bd a8 7c 96 bc
       -0.18457158 -0.012048864 -0.051045977 -0.018369988
000030 d9 7f 22 be 32 43 2d 3d d6 b3 c7 3b 62 82 43 3e
       -0.15869083 0.04230041 0.006094436 0.19092706

convE1.self_map.weight f4 [32, 4]
000000 4e 5c b8 3d 9a 51 aa be dc ca 94 3d 12 18 a4 bd
       0.09001981 -0.33265382 0.07265255 -0.080124035
000010 b2 6b ba be ec 4a 23 3e 1d 69 4e 3d dd 1c 81 3c
       -0.3641029 0.15946549 0.050393213 0.015760833
000020 cc 48 78 3e 1f 7f 95 be 7a 6c 82 bd 78 d3 0c 3e
       0.2424652 -0.29198548 -0.063683465 0.13752544
000030 4f f2 a0 be 8c 65 ce 3d 2c c3 f5 3c 18 62 62 3d
       -0.31434867 0.10077962 0.030000292 0.05526933
000040 9b 7b 62 3e e2 01 56 be eb d8 4f be 34 2a a9 bd
       0.22117464 -0.20899156 -0.20297591 -0.08260003
000050 75 1d 3e 3e 71 7f a0 be 3f 05 57 be a7 7c 2a 3d
       0.18565924 -0.3134723 -0.20998095 0.041622784
000060 3e 9f fd bd 95 62 7e be fa f0 0f be 37 6e cf bd
       -0.12383889 -0.24842294 -0.14056769 -0.10128444
000070 d7 a0 96 3d 24 b1 92 be 85 32 93 3e 8a c2 9a bb
       0.073548965 -0.28650773 0.2874948 -0.004722898
000080 35 03 d8 bd 5d f3 99 be d6 93 84 be 61 2c 98 3e
       -0.10547487 -0.30068484 -0.2589404 0.29721358
000090 87 8d a0 be 22 cd c4 3e 59 7f 0b 3e 66 55 b1 3d
       -0.31357977 0.38437754 0.13622798 0.086588666
0000a0 a4 46 73 3b dd 86 cf 3e a4 74 e4 be 31 cc 0f bd
       0.0037120963 0.4053258 -0.4462024 -0.03510684
0000b0 b8 32 90 bd 55 5b ad 3e 94 48 70 3e 84 4f 04 3f
       -0.07040924 0.33858743 0.23465186 0.5168383
0000c0 c3 5b 38 bd 56 20 51 bd ef 06 72 bb 91 6d 77 3d
       -0.045009386 -0.05105623 -0.0036930402 0.060407225
0000d0 5d 85 70 3e 6a fc ca 3d 00 92 2e 3e 29 1b ce be
       0.23488374 0.099114254 0.17047882 -0.40255097
0000e0 35 44 6a bd 28 ac ac bc 82 37 92 3d e7 93 69 3d
       -0.057193954 -0.021078184 0.071394935 0.057025816
0000f0 22 9f 95 3e 00 d9 d7 be 62 c1 93 3d 87 96 53 be
       0.2922297 -0.42157745 0.07214619 -0.2066289
000100 ee e6 f6 bb d0 c6 bb bc 7f b3 e4 bb e2 07 ae 3d
       -0.007534853 -0.02292195 -0.0069794054 0.08497597
000110 a8 9e 14 3d f1 75 02 be 02 33 68 3e 2e 0b 7f bd
       0.03628412 -0.12740304 0.22675708 -0.06226652
000120 cc d1 8e bd 04 96 53 bd bc cd 94 be d4 cb a1 3e
       -0.06973609 -0.051656738 -0.29063213 0.3160082
000130 28 0d f9 bd ce e4 65 3d 57 ad 82 bd 13 4a bd bd
       -0.121607125 0.05612641 -0.06380718 -0.09242644
000140 3d fe 1a be b7 06 64 3e 45 83 ba bc 1c 57 67 3d
       -0.15136047 0.22268187 -0.022767672 0.05647956
000150 d5 68 28 bf fa b1 01 bd c2 47 18 3c 46 6d 12 3c
       -0.6578496 -0.031663872 0.009294452 0.008937186
000160 c5 d8 23 3d 00 ba f6 be 02 c7 fa bd b6 b0 9c bd
       0.04000165 -0.48188782 -0.12244989 -0.076508924
000170 42 ea 81 3d 3b 4a 2b be d8 31 a0 bd 92 b9 25 be
       0.06343509 -0.16727535 -0.07822007 -0.1618407
000180 8a 13 69 3d 47 ed 09 be da 97 a1 3c 51 e0 4e be
       0.0569034 -0.1346942 0.019725729 -0.20202757
000190 ca ee 3a be 27 49 b3 3d e1 3a 2f 3e 06 86 c1 bd
       -0.18255153 0.08754187 0.17112304 -0.09449391
0001a0 e0 e9 14 3c fa 47 b3 bd dc 48 95 3c e2 c2 7d 3d
       0.009088963 -0.08753963 0.018223219 0.061953433
0001b0 a4 48 4d 3f 86 25 a9 bd 3a 7b 1c bb b8 2c 87 bb
       0.80188966 -0.0825911 -0.002387716 -0.004125204
0001c0 dd 80 f0 3d 83 ef 21 3e bd 40 7b bd c1 c4 36 bd
       0.11743329 0.15814023 -0.061341036 -0.044621233
0001d0 e1 7b 49 be 76 38 b9 3e 99 6e b4 3e 90 55 ba 3d
       -0.19676162 0.3617589 0.3524063 0.09098351
0001e0 8e 7d 97 3d f5 f4 da be ee c2 aa be c9 21 51 3c
       0.073969945 -0.42765012 -0.33351845 0.012764403
0001f0 60 15 a7 be 13 ad 8b be fa 92 82 be ff 56 b6 bc
       -0.32633495 -0.27280483 -0.2550276 -0.02225828

convE1.self_map.bias f4 [32]
000000 46 65 3b 3e b0 0a 0f bd ac e1 34 bc 12 74 bd 3d
       0.18300352 -0.0349223 -0.0110401325 0.09250654
000010 ed 3f 82 3e 49 64 9f bc fc 73 68 be 3a 68 b5 3e
       0.25439397 -0.019457 -0.22700495 0.3543108
000020 fa e9 11 be 8f a0 bd 3d c7 b1 60 3d 8e cb 85 3d
       -0.14249411 0.0925914 0.05485704 0.065329656
000030 26 f4 5e 3d 07 4f e5 3d f7 bd 42 3d 71 c5 11 3d
       0.054432057 0.11196714 0.047544446 0.035588685
000040 4e 9c a8 be 1b 95 d1 3b 42 cc e7 bd 68 cb a2 3e
       -0.3293175 0.0063959486 -0.11318256 0.31795812
000050 e0 fe 3e be 15 8f eb 3c 4c ea b6 be fd 88 ad 3e
       -0.18651915 0.02875475 -0.3572563 0.33893576
000060 bf aa 17 be 35 62 c6 3d e1 d0 bb 3c a7 7b 24 3c
       -0.14811228 0.096867 0.02292675 0.010039247
000070 07 a0 fa 3d cc 8b 3f 3e 8f 8a 13 bd 17 13 52 3d
       0.12237554 0.18705672 -0.03602081 0.051287737

convE1.pass_map.weight f4 [32, 64]
000000 f9 6b f0 3c 11 bc 98 bd 06 17 81 bd 41 82 ff 3d
       0.02934836 -0.07457746 -0.063032195 0.12476016
000010 38 b3 6a 3c 14 e3 1b bd 62 5e 48 be d6 5c ad 3d
       0.014324956 -0.038058355 -0.19567254 0.08464973
000020 c9 bb 1d 3d e1 ba b2 be c6 06 88 be 13 eb c9 be
       0.038509164 -0.34908202 -0.26567668 -0.3943716
000030 67 5b 26 3d 12 bd 30 3d fd 83 17 bf 2c 00 c9 bd
       0.04061451 0.04314906 -0.59185773 -0.09814486
000040 e7 b5 80 3d b9 74 bf bd 89 50 1f be ec 4f b1 3d
       0.06284695 -0.09348435 -0.15558065 0.08657822
000050 f0 85 03 3d 1b 82 ca bd 50 78 a3 bd 69 f7 90 3e
       0.032110155 -0.09888097 -0.07981932 0.2831376
000060 cc fe 74 be 9c 1d 1f 3d c1 9a 99 bd 96 9a a6 3c
       -0.23925322 0.038846597 -0.0750022 0.020337384
000070 f9 9b fd bc 3d 75 4b 3d 94 8a ae 3c 83 e5 61 3d
       -0.030958163 0.049672354 0.021306314 0.05515052
000080 c8 f9 b6 bd b8 5e cb bd f2 5f 2c 3e 4d bb 7a 3e
       -0.08934361 -0.099301755 0.16833475 0.24485512
000090 15 f7 05 3e 77 95 99 bd 9f 4d c6 bd 9d ac 66 ba
       0.13082536 -0.07499211 -0.09682774 -0.0008799525
0000a0 fe 6d 07 be c5 bc 2b be 8f 19 82 3d 9f 15 90 3c
       -0.13225552 -0.16771229 0.06352531 0.017588435
0000b0 ba 08 5b bd 59 0f 95 bd 19 71 07 be 9e ff 42 be
       -0.05347512 -0.07278318 -0.13226737 -0.19042823
0000c0 98 2a a7 3d 45 c3 19 be 5a ca 17 3e 81 2b c6 39
       0.08162421 -0.15015896 0.14823285 0.00037797916
0000d0 69 03 00 3d 99 b8 0b 3d 5f a7 de 3d 4c 75 c6 bc
       0.031253252 0.034111593 0.10871767 -0.024225853
0000e0 0a ee bf bd f7 2a 81 3e 1e 63 54 bd d2 cd 98 bc
       -0.09371574 0.25228092 -0.051852338 -0.01865283
0000f0 1f e0 12 bc d9 b7 45 3e 48 10 57 bc 43 70 bf bd
       -0.008964567 0.19308414 -0.01312644 -0.09347584
000100 1b c8 23 3d 05 4d 99 bd 5f 51 65 3e 8d 0a ff bc
       0.039985757 -0.074853934 0.22394322 -0.03113296
000110 d6 56 10 3c b5 ad 47 be 3a e5 06 be 5e bf 21 3d
       0.008809766 -0.19499858 -0.1317338 0.039489143
000120 95 f5 13 3e 98 7b e6 be 34 dd be ba 1d d2 ab be
       0.14449151 -0.4501617 -0.0014561773 -0.3355874
000130 85 0d d1 bd c9 74 73 bc 0b d8 99 be 98 28 60 be
       -0.10207657 -0.014859387 -0.3004764 -0.21890485
000140 28 bc 99 be 68 c9 27 3e eb 24 58 be a8 98 07 3d
       -0.30026364 0.16385424 -0.21107833 0.03310457
000150 0f c6 29 bc e3 88 c1 3c 8f 81 78 3e fc 2a 21 be
       -0.010362162 0.023624843 0.24268173 -0.15739053
000160 4a cc 1c bd 20 48 c9 bd 2c 0b f2 3d 55 4f e4 3c
       -0.038280763 -0.0982821 0.11818537 0.02786986
000170 3a 9e 13 3d 83 b0 08 bd f7 ec 43 bd 05 ee b8 bc
       0.03603957 -0.03337146 -0.04783341 -0.022574434
000180 f5 99 1f 3e 0f d2 5f be 68 1a f4 3d 41 5e 2b 3e
       0.15586074 -0.21857475 0.11919099 0.16735174
000190 1d 00 1a be 77 1e f2 bd 4e 88 9b be 0d f1 d3 bd
       -0.15039106 -0.11822217 -0.3037743 -0.10348711
0001a0 1a a6 05 3e 5f c8 9d 3d 35 37 b7 3d 0c 69 fd 3b
       0.13051644 0.077042334 0.08946077 0.00773347
0001b0 99 f4 7e 3d 3b d6 d8 3c e2 d6 3e be 4a 4f c6 bd
       0.062244985 0.02646934 -0.18636659 -0.09683092
0001c0 61 aa e5 3c 93 58 7d bb 67 37 73 bd ac f4 c3 3d
       0.028035345 -0.003865753 -0.059379008 0.09568152
0001d0 62 d8 f8 3c 42 81 6f bb be be aa 3d 9e 1c ec bc
       0.030376617 -0.003654555 0.083371624 -0.02882224
0001e0 a1 80 08 3b 58 02 0b 3e 59 f2 e4 bd cb d8 3c 3c
       0.0020828622 0.13575113 -0.11179037 0.011526297
0001f0 18 23 c2 bd f9 96 d8 3d 8d 4e c3 3d f7 dc b2 bd
       -0.0947935 0.10575671 0.09536467 -0.08733552
000200 fc c3 93 bd 52 1c 21 be 07 fe 20 3c b8 d4 94 be
       -0.072151154 -0.1573346 0.00982619 -0.29068542
000210 e2 c6 57 be 21 92 ac bd 88 60 3f be 3a 2c b7 3d
       -0.21071962 -0.084263094 -0.18689167 0.089439824
000220 e3 03 9c be d9 24 0a 3c 73 1e 49 be 03 65 a8 3d
       -0.30471715 0.008431637 -0.19640522 0.082223915
000230 d5 a6 21 3d db 67 e5 3c ac 55 3c 3e 02 e2 8b 3d
       0.039465744 0.028003624 0.18392056 0.06830217
000240 a3 b1 cf bd ba ff e4 3c da 8e db 3e fb 28 95 be
       -0.101413034 0.027953971 0.42882425 -0.29132828
000250 12 d9 c9 bc 1e 05 bb 3d af 93 d6 bd f3 98 19 be
       -0.02463964 0.091318354 -0.10477387 -0.14999752
000260 96 53 67 3e 79 ee 23 3e 4e 58 5c bd 18 ca 3c 3e
       0.22590479 0.16008939 -0.05379515 0.18436468
000270 3f 24 68 be 51 70 82 bd 58 bf 0b bd da 80 60 be
       -0.22670077 -0.06369079 -0.034118026 -0.21924153
000280 70 20 10 bd fd 0c 56 3d 1e 65 8b 3d 67 a5 91 bd
       -0.035187185 0.05225848 0.06806396 -0.07111626
000290 04 05 ce bd 5f 84 79 bd 49 0a 84 bc 16 9b de bd
       -0.100595504 -0.060917255 -0.016118186 -0.10869424
0002a0 72 cd ac bb 37 17 c9 3d 6f 5b 06 3c a9 ba 02 bd
       -0.0052735144 0.09818881 0.00820051 -0.031916294
0002b0 5b 3a 01 bd 12 79 0d be d9 7d 9b bd be 4a 74 bc
       -0.031549793 -0.13815716 -0.07592363 -0.014910398
0002c0 af 19 04 3e 17 a2 62 be f7 c0 ec 3d f3 14 89 be
       0.12900423 -0.22132145 0.115602426 -0.26773795
0002d0 6b d3 7b bd 21 27 00 3e a0 96 cd ba 78 f5 d8 bd
       -0.06148092 0.12514926 -0.0015685149 -0.105936944
0002e0 c7 10 a8 bd 6f 59 5c 3d 53 3d db 3d 68 82 0b be
       -0.08206325 0.053796228 0.10705056 -0.13623965
0002f0 ee 36 c5 3d f8 a1 8a be 4b f5 c7 3d 3e b6 a4 bd
       0.09629618 -0.27076697 0.09763583 -0.080425724
000300 8c f3 01 3e 63 c4 17 be 2a fd e2 3d dd 22 28 be
       0.12690562 -0.1482101 0.110834435 -0.1641955
000310 41 c5 0b 3e 39 6e 70 be 17 b8 93 3e 54 7e 3a bd
       0.13649465 -0.23479547 0.28851387 -0.045530632
000320 d1 2d 5f 3e 15 ae f5 bd 8e 8a b0 3e 7f 9b 79 be
       0.21794821 -0.11996094 0.3448071 -0.24375723
000330 59 0c 80 be 15 0e a2 be 8a 46 f6 bd 51 91 d3 be
       -0.2500942 -0.3165137 -0.12025173 -0.41321805
000340 c9 ad 1d be 4c 25 b9 bd d6 f7 d0 bc 72 80 fb be
       -0.15398325 -0.09040317 -0.025508802 -0.49121433
000350 dc 1b ac 3d 7c f7 26 be ce a9 9e 3d 48 54 68 3e
       0.08403751 -0.16305345 0.077472314 0.22688401
000360 e0 d4 80 3e 6d 72 ed 39 50 3e df bb c9 e6 91 3c
       0.2516241 0.00045289416 -0.006812848 0.017810242
000370 3f b1 3e be 60 5b 46 bd 30 42 d6 3d 79 e6 78 3d
       -0.18622302 -0.048426986 0.10461843 0.06076667
000380 5a f5 2c bc 47 c0 4d be 5a ce 2d 3e c4 3c aa 3e
       -0.010556543 -0.20092879 0.16973248 0.33249485
000390 71 40 48 be 3b d4 d1 bd 67 51 b7 be ea 1c bb bc
       -0.19555832 -0.10245558 -0.35804293 -0.022840936
0003a0 51 ff 06 3e 5d 4d a5 be 70 c3 85 3d 34 62 55 be
       0.13183333 -0.32285586 0.06531417 -0.20838243
0003b0 40 94 fd bd 1d 7f 58 3c 7d 89 40 bd b2 a6 04 3d
       -0.12381792 0.0132139 -0.04700612 0.032385536
0003c0 42 2c 5b 3c 4e 82 26 3d 5b e5 24 bd 92 de ad 3c
       0.013377251 0.040651612 -0.040257793 0.021224294
0003d0 54 87 c7 bd fa 9b 66 be 8f 53 91 bd 8b 99 f3 bd
       -0.09742609 -0.22520438 -0.07096016 -0.1189452
0003e0 e2 11 0b bb 32 79 7e bd 61 a5 65 bc 30 05 af 3c
       -0.0021220376 -0.0621273 -0.01401648 0.021364778
0003f0 dc 65 b5 3d 2a 5f 5e be 1d fc 66 be 74 33 05 be
       0.08857319 -0.2171599 -0.22557111 -0.13007909

convE1.pass_map.bias f4 [32]
000000 4a a3 3d 3e d5 e6 1a ba 01 00 bb 3b db ec b6 3d
       0.18519321 -0.00059090304 0.0057067876 0.08931895
000010 f4 b3 8d 3e 19 ac 1f bd ec 6d 68 be 56 51 a6 3e
       0.27676356 -0.038982484 -0.22698182 0.3248393
000020 8a fd 09 be 2a 86 c7 3d be b5 09 3e e7 2f 12 3e
       -0.13475624 0.09742387 0.13448235 0.14276086
000030 8e ff d5 3d 00 47 c1 3d ce f5 db 3c 71 c5 11 3d
       0.10449134 0.0943737 0.026850607 0.035588685
000040 43 60 9e be 6a ac 2e bc 7b 8a bd bd 6a 56 c5 3e
       -0.30932817 -0.010661224 -0.09254929 0.3854249
000050 1f 83 40 be b8 76 1e 3e f7 9c cd be d4 b9 a2 3e
       -0.18800019 0.15474975 -0.40158817 0.317824
000060 ed bd 2c be 3c a3 ca 3d 58 cd bc 3c f7 1b 98 bd
       -0.16869326 0.09894416 0.023047134 -0.07427209
000070 f0 72 bd 3e d4 0a 39 3e d1 f6 13 bd 17 b0 61 3d
       0.37001753 0.18070537 -0.036124054 0.055099573

attnN2.node_attn_maps.0.weight f4 [8, 32]
000000 d4 1d c3 83 61 81 50 04 0b 53 3f 03 31 47 3e 03
       -1.1467918e-36 2.450969e-36 5.6225184e-37 5.5917705e-37
000010 e0 e0 96 04 81 b1 50 03 d9 ff 13 05 c7 27 93 04
       3.5471346e-36 6.132947e-37 6.9588986e-36 3.4596064e-36
000020 70 2f 4e 82 b7 ca 4a 05 e4 c3 21 05 6e c3 10 05
       -1.5148104e-37 9.535227e-36 7.606163e-36 6.806742e-36
000030 7f 42 f7 01 e2 27 ea 03 75 a5 13 05 d3 2e f5 03
       9.082889e-38 1.37624405e-36 6.9422964e-36 1.4410556e-36
000040 12 0a cd 82 69 06 c6 83 1c f4 31 81 f6 d4 4e 04
       -3.0127823e-37 -1.1638866e-36 -3.2684906e-38 2.431297e-36
000050 0e 7d bf 05 1d 93 57 05 2e 7f 47 05 7e 70 db 04
       1.8007492e-35 1.0136272e-35 9.380294e-36 5.158996e-36
000060 1b c0 14 04 69 8d cf 04 18 a6 43 01 dc a8 2b 82
       1.7485527e-36 4.879533e-36 3.593501e-38 -1.2611556e-37
000070 73 9f 26 84 12 a2 16 04 5c 91 e2 04 ec 7a 3a 05
       -1.9586422e-36 1.7706834e-36 5.3265836e-36 8.768255e-36
000080 5d b9 bd 84 ba d5 27 84 7c 04 36 84 28 6c 90 03
       -4.4603916e-36 -1.9728894e-36 -2.1396056e-36 8.488391e-37
000090 73 1e 89 04 92 cc e8 83 4c 9d 72 04 ce c0 cc 84
       3.223651e-36 -1.36827015e-36 2.851919e-36 -4.8137233e-36
0000a0 f3 cf 39 82 32 f1 eb 03 c9 3f 0c 05 8c 18 0f 02
       -1.3651332e-37 1.3867434e-36 6.594484e-36 1.0513025e-37
0000b0 25 d6 e8 83 f4 02 bd 00 52 ca 83 83 8c be 62 84
       -1.36849e-36 1.7357968e-38 -7.7459385e-37 -2.6653667e-36
0000c0 af 76 dc 82 d2 03 88 84 d2 17 f2 81 7d 1b 68 03
       -3.2394216e-37 -3.1976955e-36 -8.893094e-38 6.8210227e-37
0000d0 ff b6 48 05 4b bd ca 04 16 10 c5 04 7f 1c 2e 04
       9.437566e-36 4.766381e-36 4.632925e-36 2.0466686e-36
0000e0 e5 4e 85 03 e1 31 85 04 ac 90 0e 03 da f8 c3 02
       7.835151e-37 3.1313956e-36 4.1896125e-37 2.8795509e-37
0000f0 b8 55 04 84 b0 19 01 03 c1 5a 40 02 50 5c 9b 03
       -1.5555886e-36 3.793918e-37 1.4131977e-37 9.131275e-37
000100 70 86 ce 84 67 46 94 84 a8 d7 25 84 23 2f 9b 03
       -4.855383e-36 -3.4859287e-36 -1.9494681e-36 9.120903e-37
000110 76 65 e7 04 2f e4 3a 84 9b 42 d7 04 8e 35 b8 84
       5.4401016e-36 -2.1968972e-36 5.0607425e-36 -4.3307374e-36
000120 16 48 9f 82 5f aa 2f 04 c7 99 80 05 e2 95 78 82
       -2.3404326e-37 2.0649382e-36 1.2093551e-35 -1.8263177e-37
000130 3a 1e 11 84 b3 cc 4c 83 2b 7b 02 84 5a 4f d2 84
       -1.7058547e-36 -6.0185195e-37 -1.5337983e-36 -4.9443636e-36
000140 98 3a 91 82 87 52 e9 84 9e 2d bd 01 37 82 61 03
       -2.1339466e-37 -5.4853826e-36 6.949309e-38 6.6271037e-37
000150 73 a0 c1 05 62 fa c0 04 19 f3 2f 05 11 14 ec 04
       1.8208573e-35 4.5368923e-36 8.2731104e-36 5.550176e-36
000160 f8 82 54 03 b7 2a 1f 05 91 96 b4 02 a5 62 55 83
       6.2451545e-37 7.4839895e-36 2.6535044e-37 -6.2708313e-37
000170 4d 99 b2 84 90 72 2c 03 13 37 31 04 88 e0 95 04
       -4.1988383e-36 5.067777e-37 2.0831539e-36 3.523593e-36
000180 59 f4 bc 03 bc 1f e1 02 7a 94 02 83 2a cd 89 02
       1.1105746e-36 3.3078993e-37 -3.837401e-37 2.02481e-37
000190 0c 83 71 84 27 7e 9b 80 e9 31 52 84 fa 18 68 84
       -2.8389588e-36 -1.4279757e-38 -2.4708299e-36 -2.7282938e-36
0001a0 f8 fa 04 03 55 fc d9 84 02 78 d1 84 e5 e3 8d 84
       3.907941e-37 -5.1248185e-36 -4.9245874e-36 -3.335823e-36
0001b0 b9 9f 1d 00 c9 6b e4 83 bb 10 ec 83 d9 43 49 04
       2.720527e-39 -1.3425382e-36 -1.38746745e-36 2.365859e-36
0001c0 f0 f4 20 03 e0 0f 8b 04 89 b8 06 01 97 98 67 84
       4.730095e-37 3.2693322e-36 2.474431e-38 -2.7223985e-36
0001d0 95 40 93 85 51 23 10 85 06 3b fa 84 c4 4f 6b 84
       -1.3847537e-35 -6.777334e-36 -5.8828922e-36 -2.7660744e-36
0001e0 93 4f bb 83 58 51 c8 84 c8 ad ed 82 af 77 2f 03
       -1.10091415e-36 -4.7094476e-36 -3.4923766e-37 5.156527e-37
0001f0 dc 56 7e 04 5f 05 22 84 ee 24 53 84 a5 75 b0 84
       2.989744e-36 -1.9045475e-36 -2.4819888e-36 -4.148544e-36
000200 5c 16 0b 84 d4 20 27 84 21 18 5d 82 7b bd 55 83
       -1.6349638e-36 -1.964583e-36 -1.624344e-37 -6.2812587e-37
000210 0f 3b 8d 04 43 72 d9 83 3b 79 4b 04 b2 a6 dd 82
       3.3203177e-36 -1.2780347e-36 2.3918202e-36 -3.256871e-37
000220 34 e3 8e 82 3b 08 63 04 ad 3c f1 04 ec 33 8d 03
       -2.0995433e-37 2.6687501e-36 5.671455e-36 8.299156e-37
000230 ad 47 40 83 f7 2f 26 03 f4 87 e0 83 8b 4d 90 84
       -5.650601e-37 4.8838076e-37 -1.319675e-36 -3.392545e-36
000240 60 19 37 83 be f4 c0 84 47 1d 28 82 1c ce 19 04
       -5.3807996e-37 -4.5363743e-36 -1.2351093e-37 1.8079704e-36
000250 a8 69 91 05 50 c1 00 05 e0 bd 0b 05 d6 62 95 04
       1.3674546e-35 6.054037e-36 6.570623e-36 3.5120498e-36
000260 07 e5 c5 03 b0 73 02 05 9d 3a 82 02 82 a9 b1 82
       1.16312015e-36 6.133819e-36 1.9135426e-37 -2.6105105e-37
000270 33 7c 88 84 ec 67 5b 03 c9 37 bd 03 ad b7 41 04
       -3.2087505e-36 6.447761e-37 1.1121229e-36 2.277138e-36
000280 3a ec 90 84 91 6a a0 03 31 91 c7 83 a9 f1 14 03
       -3.4071177e-36 9.428421e-37 -1.1729503e-36 4.3770703e-37
000290 22 45 8a 04 59 cc ef 81 81 f5 c8 04 36 a3 87 81
       3.2507133e-36 -8.808796e-38 4.7245234e-36 -4.9825364e-38
0002a0 ea ee af 82 98 47 14 05 5b 23 0a 05 60 41 c8 04
       -2.5851069e-37 6.972076e-36 6.4952226e-36 4.707981e-36
0002b0 a7 e2 bb 83 dd 4b 74 81 59 8e a7 04 71 43 ef 83
       -1.1042909e-36 -4.487015e-38 3.9392237e-36 -1.4062641e-36
0002c0 fb 27 2b 83 af a2 1f 84 95 e7 88 81 ab e6 42 04
       -5.029828e-37 -1.876506e-36 -5.0290814e-38 2.2910508e-36
0002d0 c5 1f 8e 05 54 c7 26 05 7c 92 0f 05 c7 ce 9a 04
       1.3365286e-35 7.841893e-36 6.7507326e-36 3.639512e-36
0002e0 16 c6 d3 03 5f 57 b6 04 3c af 8e 01 d0 15 ac 82
       1.2446944e-36 4.2868232e-36 5.241401e-38 -2.5285648e-37
0002f0 fd d8 60 84 10 18 1a 04 b7 05 72 04 80 6a d5 04
       -2.643071e-36 1.8113662e-36 2.8449587e-36 5.0173864e-36
000300 ac f2 62 04 7d 03 16 84 40 36 41 03 9e ab d5 82
       2.6677602e-36 -1.7634017e-36 5.677988e-37 -3.139604e-37
000310 84 c7 9b 84 13 4e d8 82 28 88 0d 85 14 11 23 84
       -3.662355e-36 -3.178316e-37 -6.654796e-36 -1.91684e-36
000320 1f 48 a6 02 95 15 42 85 af 6c 34 85 8e 55 07 85
       2.4432903e-37 -9.1258e-36 -8.483521e-36 -6.3633834e-36
000330 6a f6 53 03 8d 30 b9 83 36 62 07 85 34 1e 8c 83
       6.2290196e-37 -1.08844695e-36 -6.365708e-36 -8.235395e-37
000340 93 c8 3b 03 b1 1d cc 03 b2 74 c4 01 6a 9b 62 84
       5.518461e-37 1.1996859e-36 7.216648e-38 -2.6637535e-36
000350 12 09 b5 85 aa 7c 4c 85 d6 91 3e 85 f4 a3 d2 84
       -1.702449e-35 -9.614931e-36 -8.960543e-36 -4.952133e-36
000360 1b f5 0f 84 88 fa fc 84 09 e1 8d 82 e3 18 ea 02
       -1.6922116e-36 -5.9474992e-36 -2.0847252e-37 3.4397494e-37
000370 e5 53 3c 04 44 99 4f 84 d2 1c d1 84 fe 0d 2c 85
       2.2137816e-36 -2.440311e-36 -4.916213e-36 -8.089971e-36
000380 a6 71 92 04 f3 da a5 83 02 ec d3 03 01 f2 e1 82
       3.4428805e-36 -9.748097e-37 1.245565e-36 -3.3199682e-37
000390 dd 13 bd 84 c9 dd 1c 83 81 c7 2e 85 05 ad 7f 03
       -4.4451928e-36 -4.6098877e-37 -8.218084e-36 7.513638e-37
0003a0 5c 46 0a 03 38 c6 5a 85 d5 2a 35 85 d0 2f 11 85
       4.0635324e-37 -1.0286718e-35 -8.518446e-36 -6.826649e-36
0003b0 c8 a0 b9 03 dd 4d 62 02 4a b2 e5 84 e6 4c 8d 04
       1.0910236e-36 1.6626203e-37 -5.4001374e-36 3.321956e-36
0003c0 1b 12 03 03 5b 4d 2a 04 50 0c cd 01 7f 17 14 84
       3.8518224e-37 2.0018924e-36 7.5322774e-38 -1.7408105e-36
0003d0 4a 32 a9 85 6b d7 19 85 4c 90 22 85 ae 28 c0 84
       -1.5911157e-35 -7.2335915e-36 -7.6437065e-36 -4.517634e-36
0003e0 c0 d5 b2 83 f5 f6 02 85 34 1f 6e 82 58 ea 14 02
       -1.0510974e-36 -6.1579295e-36 -1.7494433e-37 1.0940576e-37
0003f0 a7 d8 2f 04 81 9f 95 83 70 47 9f 84 65 60 0c 85
       2.0670633e-36 -8.794053e-37 -3.7446325e-36 -6.600473e-36

attnN2.node_attn_maps.0.bias f4 [8]
000000 8e 71 3d 02 10 83 a0 00 68 6b 0a 01 19 10 9c 81
       1.3918116e-37 1.4740696e-38 2.5423657e-38 -5.732845e-38
000010 b4 f2 5c 01 8f 4a cf 01 64 02 38 82 ee 4e b2 81
       4.058175e-38 7.6146777e-38 -1.3518871e-37 -6.550013e-38

attnN2.node_attn_maps.1.weight f4 [8, 32]
000000 3d ae 14 83 57 db b2 82 fe 79 67 82 ca fd 52 83
       -4.3693307e-37 -2.6280644e-37 -1.700621e-37 -6.200479e-37
000010 d6 ee f9 83 a2 3d 09 02 86 eb e3 84 7e c9 c0 83
       -1.4689739e-36 1.0082858e-37 -5.3583738e-36 -1.1331006e-36
000020 85 03 b0 82 c6 88 9b 83 ac b8 ce 84 df 4b 9d 02
       -2.5862896e-37 -9.141483e-37 -4.859996e-36 2.3112625e-37
000030 77 8d 36 83 ea 37 a7 83 f4 cc cb 82 f6 01 cc 01
       -5.3647387e-37 -9.828215e-37 -2.9945806e-37 7.494058e-38
000040 2e a4 2c 02 60 75 52 82 79 54 8e 81 b4 45 e1 81
       1.2683682e-37 -1.5462048e-37 -5.2283774e-38 -8.2751966e-38
000050 0f ec 77 85 5c f8 72 84 51 db cd 84 d0 28 8d 84
       -1.1657241e-35 -2.8561004e-36 -4.839668e-36 -3.318642e-36
000060 6d 96 1c 83 e5 6e 76 84 79 3c f0 02 49 d3 93 81
       -4.601696e-37 -2.8968081e-36 3.529954e-37 -5.430245e-38
000070 ce 3c cf 82 ef 7b 69 02 71 60 a3 84 40 1e fc 84
       -3.0450817e-37 1.7153704e-37 -3.8409683e-36 -5.9272696e-36
000080 b7 a7 87 04 3d 74 82 83 b9 3a 24 04 a7 fa 7e 83
       3.189237e-36 -7.6674e-37 1.9305071e-36 -7.4931626e-37
000090 c6 c3 72 83 12 74 92 02 08 b2 8d 84 88 52 79 04
       -7.1342145e-37 2.1519393e-37 -3.3312437e-36 2.9307706e-36
0000a0 eb 21 bf 82 3c e5 f5 83 cc 08 8a 84 44 0b 83 83
       -2.8084396e-37 -1.4452435e-36 -3.2451723e-36 -7.7020745e-37
0000b0 a3 3d 92 03 41 6c a3 82 d8 0c 15 84 4d 2b b9 83
       8.59526e-37 -2.4012832e-37 -1.7520763e-36 -1.0883264e-36
0000c0 2c 2d 9c 01 ce 2b 84 83 9c a2 e8 80 d0 7d 55 83
       5.737017e-38 -7.76832e-37 -2.1364168e-38 -6.27395e-37
0000d0 42 eb 1b 85 04 22 9b 84 6b 0a 9a 84 4f 65 2f 84
       -7.331275e-36 -3.6471563e-36 -3.6214793e-36 -2.061767e-36
0000e0 72 88 25 83 0c 20 18 84 77 9b 70 02 cc 4f e8 80
       -4.8645774e-37 -1.788223e-36 1.7677031e-37 -2.1334461e-38
0000f0 f7 5e 16 83 44 28 47 83 1d b4 79 84 c1 08 bd 84
       -4.4190052e-37 -5.8527067e-37 -2.9352513e-36 -4.4441726e-36
000100 61 77 87 04 7f 6b 70 83 ed 6d 4a 04 24 76 b9 83
       3.184798e-36 -7.065306e-37 2.3795461e-36 -1.09004465e-36
000110 68 ea b8 83 78 d3 dc 02 7d 47 be 84 da 20 7f 04
       -1.0868365e-36 3.2447472e-37 -4.4734437e-36 2.999019e-36
000120 d4 53 f9 82 22 5e 88 83 7a a2 9e 84 61 73 80 02
       -3.6635377e-37 -8.014973e-37 -3.7294833e-36 1.8874134e-37
000130 a1 08 b9 03 e9 e1 06 03 68 bf 78 83 1e 5f cb 82
       1.0875304e-36 3.9638393e-37 -7.3100373e-37 -2.9882764e-37
000140 63 f7 e8 01 c5 e9 87 83 55 39 44 81 36 56 a1 83
       8.5578323e-38 -7.988258e-37 -3.6040648e-38 -9.482523e-37
000150 bb fa 46 85 0a 1b ab 84 70 b0 bf 84 75 cc 71 84
       -9.355967e-36 -4.022674e-36 -4.5065916e-36 -2.8423296e-36
000160 51 5f 2e 83 fc 64 60 84 5b bc 78 02 d0 2d 56 81
       -5.124342e-37 -2.6377443e-36 1.8274218e-37 -3.933846e-38
000170 cc 0f b7 82 c1 db c7 82 ca 3f 91 84 92 78 dd 84
       -2.68985e-37 -2.9366555e-37 -3.4147917e-36 -5.2067577e-36
000180 72 fc 0e 83 85 c5 72 03 3e e0 49 83 d8 3b 9d 03
       -4.2019842e-37 7.134415e-37 -5.932601e-37 9.24137e-37
000190 39 90 e2 03 0e f5 ea 80 2f 0f d7 04 f8 a6 bf 03
       1.3316198e-36 -2.1577415e-38 5.05602e-36 1.1264305e-36
0001a0 83 d8 f0 02 0c fa d3 03 08 91 c0 04 21 ee 47 01
       3.5389102e-37 1.2458873e-36 4.5272173e-36 3.6721377e-38
0001b0 39 66 10 01 a1 0a 02 03 7d 07 4f 03 90 2d 8a 02
       2.6521964e-38 3.821577e-37 6.084043e-37 2.030343e-37
0001c0 53 2a 03 82 93 a9 3f 03 81 a0 2e 01 b2 5b 2a 03
       -9.636506e-38 5.6324517e-37 3.2073909e-38 5.006377e-37
0001d0 28 8d 61 05 90 27 8f 04 fb 9e c0 04 2a 2b 77 04
       1.06053755e-35 3.365547e-36 4.5284984e-36 2.905453e-36
0001e0 81 93 38 03 8a 3d 48 04 4a 8c a3 82 06 da 0e 01
       5.4242066e-37 2.3538144e-36 -2.403122e-37 2.6237705e-38
0001f0 cf c8 7c 02 84 be 2f 02 aa 57 9a 04 b3 2d f1 04
       1.8571665e-37 1.2911645e-37 3.6285733e-36 5.6700796e-36
000200 8b a6 2f 04 5b ae 9e 82 86 67 03 04 98 a7 51 83
       2.0647624e-36 -2.3316089e-37 1.5446512e-36 -6.161197e-37
000210 e8 d4 d1 83 7e 4b 92 02 69 5a c9 84 99 99 eb 03
       -1.2332797e-36 2.1496102e-37 -4.73379e-36 1.3847323e-36
000220 7e 07 cb 82 b4 af b8 83 e0 71 b2 84 0b 50 87 01
       -2.983247e-37 -1.08548875e-36 -4.1952177e-36 4.9706024e-38
000230 44 aa 4a 03 c2 33 fd 01 29 72 be 82 c0 26 92 03
       5.955792e-37 9.301179e-38 -2.7983516e-37 8.590005e-37
000240 96 65 3a 02 0e b8 c1 82 8a 94 b1 80 ca 16 65 83
       1.3694276e-37 -2.8464443e-37 -1.6308169e-38 -6.732321e-37
000250 de 8b 59 85 19 9e 85 84 f8 81 af 84 51 78 65 84
       -1.02289805e-35 -3.141334e-36 -4.126166e-36 -2.6974067e-36
000260 97 17 23 83 d4 7c 59 84 7e 59 c8 02 fe 05 d3 81
       -4.7928475e-37 -2.5565546e-36 2.9438725e-37 -7.7517757e-38
000270 31 a3 a9 82 53 03 87 81 f9 56 8f 84 ed 5d de 84
       -2.4925985e-37 -4.959594e-38 -3.369901e-36 -5.2278206e-36
000280 ea 1e 75 04 c7 98 3a 82 b8 5c 18 04 34 5a 26 83
       2.8813807e-36 -1.3708967e-37 1.7910088e-36 -4.8886564e-37
000290 10 d0 ef 83 4e 6f be 02 84 b0 db 84 76 ba 58 04
       -1.4094926e-36 2.7981877e-37 -5.1648757e-36 2.5476297e-36
0002a0 41 36 be 82 fc 3a db 83 d3 70 b4 84 5b d2 96 81
       -2.794913e-37 -1.2885205e-36 -4.242141e-36 -5.5403143e-38
0002b0 a5 3f 86 03 a2 ba 8e 02 88 3c dd 82 4d 45 bf 03
       7.890424e-37 2.0972147e-37 -3.2507775e-37 1.1241882e-36
0002c0 e6 c7 53 02 f7 c5 aa 82 e5 d8 20 81 f5 15 5e 83
       1.55592e-37 -2.5092881e-37 -2.9542973e-38 -6.526514e-37
0002d0 29 1c 5e 85 be f2 93 84 f4 bd b6 84 ad b0 64 84
       -1.0443562e-35 -3.4782457e-36 -4.296244e-36 -2.6882397e-36
0002e0 dd e6 01 83 f2 e7 78 84 0f 00 af 02 9a 59 33 81
       -3.817471e-37 -2.9258764e-36 2.5713973e-37 -3.2941394e-38
0002f0 31 9b 91 82 7e 62 c5 82 92 7e 92 84 c7 63 e0 84
       -2.139491e-37 -2.900308e-37 -3.444067e-36 -5.2753778e-36
000300 4b 7a 46 84 63 04 76 81 ae 17 03 84 b3 82 37 03
       -2.3330942e-36 -4.5186211e-38 -1.540985e-36 5.39289e-37
000310 6b 89 df 03 4b d7 d9 82 a4 2c ce 04 1e 90 33 84
       1.3138312e-36 -3.2008856e-37 4.8471363e-36 -2.1107524e-36
000320 98 df b8 02 b7 ee a4 03 2d 0d b4 04 f0 96 4c 82
       2.7164707e-37 9.69386e-37 4.2329897e-36 -1.503087e-37
000330 af 10 76 83 88 30 9e 81 5a 34 0c 81 62 25 ec 83
       -7.2312054e-37 -5.810967e-38 -2.57515e-38 -1.3879416e-36
000340 40 1a 72 82 aa 2b 17 80 f9 43 2a 00 d8 5d 46 03
       -1.7786885e-37 -2.12788e-39 3.881475e-39 5.8294698e-37
000350 67 04 56 05 00 02 6d 04 83 ba a9 04 02 1f 67 04
       1.006304e-35 2.7860134e-36 3.9902993e-36 2.7168158e-36
000360 0f b6 9d 02 38 f8 7e 04 18 a4 86 82 de 09 50 01
       2.3173573e-37 2.9971533e-36 -1.9783716e-37 3.8210646e-38
000370 24 1e 38 02 b1 4b 86 02 da 2c 86 04 5c 16 ce 04
       1.3526835e-37 1.9732975e-37 3.154444e-36 4.84509e-36
000380 a6 b8 61 84 96 d1 10 83 6d 73 26 84 5b b3 56 03
       -2.653341e-36 -4.255839e-37 -1.9566207e-36 6.3094838e-37
000390 63 1b c5 03 c9 99 8e 83 af 33 8b 04 05 9f b5 84
       1.1584907e-36 -8.381317e-37 3.2726207e-36 -4.2698932e-36
0003a0 2f e3 fc 01 a2 9c 50 83 40 4a 2e 04 a1 37 e8 83
       9.289617e-38 -6.130551e-37 2.0487696e-36 -1.3648506e-36
0003b0 9f 59 c3 83 87 1a b9 83 67 3f 0d 84 6d c9 43 84
       -1.1481646e-36 -1.0879413e-36 -1.6603583e-36 -2.301463e-36
0003c0 3c b3 54 82 7f 2c 32 83 d5 c3 c3 00 56 fc 92 83
       -1.5626738e-37 -5.2360578e-37 1.7978173e-38 -8.639042e-37
0003d0 89 1e 08 05 3c e5 00 04 2c c4 67 04 1f 38 07 04
       6.400298e-36 1.5151587e-36 2.7243997e-36 1.5894943e-36
0003e0 a0 b3 46 03 ea 96 5b 04 d4 87 b8 82 b7 ca f6 00
       5.839317e-37 2.5812623e-36 -2.7114332e-37 2.2664252e-38
0003f0 f6 76 13 82 2e 49 09 84 af 5f c1 03 cc 97 2a 04
       -1.0833994e-37 -1.6137875e-36 1.1365488e-36 2.0053106e-36

attnN2.node_attn_maps.1.bias f4 [8]
000000 aa c2 01 82 31 54 c5 81 d9 6b ec 81 21 05 07 02
       -9.533289e-38 -7.248718e-38 -8.684746e-38 9.919706e-38
000010 51 8b dc 81 af 29 b2 81 c1 64 cd 01 ec 94 11 80
       -8.1015146e-38 -6.5446686e-38 7.544968e-38 -1.614627e-39

attnN2.node_attn_maps.2.weight f4 [8, 32]
000000 39 2a 43 84 9c 26 2d 85 24 84 86 83 15 e8 8c 83
       -2.2941528e-36 -8.141512e-36 -7.90615e-37 -8.281744e-37
000010 8e 1c 60 83 01 73 e1 84 be 63 2c 85 51 ab 82 85
       -6.5860463e-37 -5.300286e-36 -8.105721e-36 -1.2288073e-35
000020 43 2a a6 82 a6 3f ab 85 27 cf b0 84 f4 be 8e 85
       -2.4415765e-37 -1.6104143e-35 -4.156764e-36 -1.3423761e-35
000030 74 33 0b 83 b8 4c e8 02 3b a6 d1 85 8f a2 b2 85
       -4.0907494e-37 3.413337e-37 -1.9715329e-35 -1.6798754e-35
000040 4b f0 eb 82 ac 60 57 85 d9 a8 02 01 5d 8c 52 84
       -3.4668068e-37 -1.0127007e-35 2.399837e-38 -2.4749833e-36
000050 20 20 31 85 83 bf 8d 85 18 79 61 85 ca 5b eb 84
       -8.3284004e-36 -1.3329927e-35 -1.06016906e-35 -5.533253e-36
000060 34 e8 62 84 00 9e 4f 84 d0 b5 da 83 93 9a 98 81
       -2.6672795e-36 -2.4405283e-36 -1.28546305e-36 -5.6057785e-38
000070 c9 9f 49 83 a9 67 c9 84 df 79 3a 85 27 fa 90 85
       -5.9252015e-37 -4.735007e-36 -8.768062e-36 -1.3633586e-35
000080 99 ec 58 84 d0 5c 13 85 cc 09 fa 83 a2 a5 a0 84
       -2.5499318e-36 -6.928954e-36 -1.4695929e-36 -3.776793e-36
000090 2f 23 5b 84 e2 da cd 84 4c 31 98 85 1a 07 7b 85
       -2.5759482e-36 -4.839628e-36 -1.431212e-35 -1.18032676e-35
0000a0 36 32 28 82 d6 32 b1 85 1a df 87 85 71 a8 85 85
       -1.23571e-37 -1.6663674e-35 -1.2777294e-35 -1.2569135e-35
0000b0 8e f8 6f 83 9c 29 aa 83 c9 af d3 85 77 6e a1 85
       -7.0521114e-37 -1.0001255e-36 -1.9906918e-35 -1.5180946e-35
0000c0 c8 81 cd 82 8b 38 5e 85 39 73 e5 81 fc fa aa 84
       -3.0196534e-37 -1.0448775e-35 -8.428665e-38 -4.01973e-36
0000d0 ee 0e a4 85 17 f8 85 85 bf 96 5f 85 db e2 0b 85
       -1.542797e-35 -1.2598394e-35 -1.0513097e-35 -6.5774154e-36
0000e0 d2 e1 5d 84 3e df 3c 84 c8 31 42 83 30 7c 98 02
       -2.6082117e-36 -2.2201802e-36 -5.706862e-37 2.2405673e-37
0000f0 40 b7 ce 02 b4 01 ea 84 e1 a5 5e 85 9e 54 af 85
       3.037416e-37 -5.50147e-36 -1.0468857e-35 -1.6488004e-35
000100 d4 b8 06 84 21 d4 aa 85 91 3d 89 83 a0 36 c8 84
       -1.5836493e-36 -1.6064647e-35 -8.066271e-37 -4.706994e-36
000110 15 fe 82 84 d1 7a 54 85 24 9b 0a 86 68 20 d2 85
       -3.079619e-36 -9.99075e-36 -2.6068895e-35 -1.9760209e-35
000120 a0 8d 8f 83 7c 30 3c 86 83 01 cf 85 bc af 14 86
       -8.4373e-37 -3.539449e-35 -1.9466742e-35 -2.7964815e-35
000130 93 4b 8d 83 c8 e0 15 84 af 8e 53 86 89 55 0b 86
       -8.304586e-37 -1.761808e-36 -3.9789517e-35 -2.6205836e-35
000140 6e bd 8f 83 4c a9 c0 85 52 40 9a 82 fb 1d 45 85
       -8.4482755e-37 -1.8117783e-35 -2.2665184e-37 -9.268402e-36
000150 68 40 06 86 36 35 11 86 55 76 c8 85 7b ec 53 85
       -2.5249917e-35 -2.7310562e-35 -1.8851378e-35 -9.964607e-36
000160 0c 7a 95 84 3d b9 3b 84 dc 0b bb 83 95 0e ba 82
       -3.5141814e-36 -2.2066802e-36 -1.0993595e-36 -2.7338613e-37
000170 49 e1 ad 84 a0 48 79 85 03 1c eb 85 e9 5e 32 86
       -4.0878996e-36 -1.1721263e-35 -2.2109584e-35 -3.3547808e-35
000180 00 eb 05 01 77 00 62 05 0f 5e aa 82 f7 0c 6a 04
       2.4596846e-38 1.0626554e-35 -2.5033242e-37 2.7512521e-36
000190 fd 70 36 04 53 e6 12 05 35 e7 a1 05 f8 bd 90 05
       2.1445879e-36 6.907191e-36 1.52253e-35 1.3611478e-35
0001a0 1d d6 53 03 18 36 f1 05 f0 53 67 05 16 94 c2 05
       6.2253117e-37 2.2683402e-35 1.0876985e-35 1.829807e-35
0001b0 f5 76 72 01 e9 64 12 03 f4 0b 10 06 33 6b e3 05
       4.4533728e-38 4.3021383e-37 2.7092172e-35 2.1386356e-35
0001c0 9e 0c 57 03 15 9c 8d 05 99 b9 83 01 43 a5 f4 04
       6.3197305e-37 1.3316912e-35 4.838812e-38 5.7515893e-36
0001d0 66 2b b1 05 ed dd d6 05 72 13 9f 05 b8 65 29 05
       1.6660942e-35 2.0205986e-35 1.4959431e-35 7.9650246e-36
0001e0 84 bb 8c 04 91 ae 6e 04 48 cb 12 04 c2 76 01 82
       3.3086048e-36 2.8056923e-36 1.725556e-36 -9.511505e-38
0001f0 31 1f 15 04 8a a5 28 05 d3 fa 99 05 95 cf eb 05
       1.7529188e-36 7.929727e-36 1.4480189e-35 2.2175547e-35
000200 eb 05 a2 80 95 e1 65 85 7c a1 39 02 68 dc 82 84
       -1.4879473e-38 -1.0808961e-35 1.3637997e-37 -3.0765264e-36
000210 b8 4d 52 84 42 86 10 85 13 02 b2 85 61 7a 95 85
       -2.4721068e-36 -6.795507e-36 -1.6739802e-35 -1.4056848e-35
000220 60 3f 4e 83 35 f1 ec 85 95 1f 83 85 ca 3b bb 85
       -6.061071e-37 -2.2281939e-35 -1.2330782e-35 -1.7607359e-35
000230 c4 5f d4 82 5b ae 90 83 16 ec 10 86 8e 7e ed 85
       -3.1205567e-37 -8.503589e-37 -2.7256838e-35 -2.2333862e-35
000240 4e 30 58 83 51 43 97 85 2d 00 24 82 b5 d7 ee 84
       -6.3532146e-37 -1.42247e-35 -1.2048868e-37 -5.6151627e-36
000250 ec 89 a4 85 b1 23 d1 85 2b ba 9b 85 70 01 2a 85
       -1.547315e-35 -1.9667376e-35 -1.4644517e-35 -7.9936256e-36
000260 36 ad 8e 84 e5 e0 5d 84 bf a1 e6 83 4f bd 03 02
       -3.354311e-36 -2.6081692e-36 -1.355532e-36 9.678689e-38
000270 c4 cb 2f 84 d8 0e 2f 85 31 01 9d 85 3a f4 ee 85
       -2.0664716e-36 -8.231187e-36 -1.4764647e-35 -2.2471127e-35
000280 a5 2d 3f 83 2e 1a 3a 85 7e e7 99 82 80 72 6a 84
       -5.6182253e-37 -8.7504864e-36 -2.26142e-37 -2.7559144e-36
000290 54 36 40 84 70 0e fa 84 35 c6 90 85 af 7e 7d 85
       -2.2594438e-36 -5.8787976e-36 -1.3614505e-35 -1.1919271e-35
0002a0 7b b7 3c 83 8e e5 cb 85 cc a4 62 85 ee d5 a2 85
       -5.545886e-37 -1.9174353e-35 -1.0656737e-35 -1.5312992e-35
0002b0 1d 8c 20 82 34 a4 0e 83 58 8d f9 85 3f 48 cc 85
       -1.1795154e-37 -4.1918545e-37 -2.3467769e-35 -1.9210607e-35
0002c0 73 ee 12 83 fa 78 7d 85 ec a9 66 81 95 6b b4 84
       -4.317927e-37 -1.1918223e-35 -4.236624e-38 -4.2416595e-36
0002d0 69 e7 7f 85 e0 3c b3 85 33 1a 84 85 3f 48 0a 85
       -1.2032546e-35 -1.6855441e-35 -1.2422844e-35 -6.501998e-36
0002e0 10 76 84 84 be 31 32 84 94 b2 07 84 80 c5 87 01
       -3.1141474e-36 -2.094664e-36 -1.5951173e-36 4.9874567e-38
0002f0 61 ab b5 83 bc 87 0c 85 91 a5 7a 85 6e 9e c0 85
       -1.06775705e-36 -6.607699e-36 -1.1785353e-35 -1.8113791e-35
000300 05 0e 27 04 15 5a 25 05 5a ba 8b 03 d1 f9 79 04
       1.9637193e-36 7.774808e-36 8.21247e-37 2.938452e-36
000310 a0 c1 51 04 b8 56 f2 04 3e a0 81 05 28 c2 8e 05
       2.465674e-36 5.6973565e-36 1.2189965e-35 1.3424938e-35
000320 17 7a a6 02 89 32 bb 05 03 18 54 05 ff f8 95 05
       2.4461584e-37 1.7603959e-35 9.972602e-36 1.410336e-35
000330 d1 26 04 03 8b 02 79 03 51 20 e5 05 19 a0 c1 05
       3.8835873e-37 7.3177443e-37 2.1546928e-35 1.8208443e-35
000340 d9 dc 29 03 6d db 69 05 98 4c a0 00 d2 c8 99 04
       4.9918157e-37 1.09959095e-35 1.4721156e-38 3.615455e-36
000350 f0 b0 74 05 5e 22 a6 05 c5 bd 7a 05 2b 0d 04 05
       1.1505323e-35 1.562319e-35 1.1789799e-35 6.209029e-36
000360 ee 6a 62 04 13 dd 46 04 cb 29 ee 03 67 2e a2 81
       2.6615272e-36 2.33763e-36 1.3997978e-36 -5.9575986e-38
000370 8f e1 80 02 e4 d3 f3 04 b2 66 5e 05 59 42 ac 05
       1.8937374e-37 5.7323616e-36 1.0457252e-35 1.6199175e-35
000380 a8 f9 a3 03 14 50 a4 05 a6 19 05 03 87 57 a3 04
       9.637597e-37 1.5451902e-35 3.911463e-37 3.8401497e-36
000390 ad 08 67 04 54 97 42 05 a4 df f1 05 19 ff c6 05
       2.7157903e-36 9.149631e-36 2.2745684e-35 1.8713539e-35
0003a0 57 fb 98 03 1b 19 2b 06 be 7f b3 05 0b 85 09 06
       8.991462e-37 3.217997e-35 1.6880004e-35 2.586458e-35
0003b0 6d 4a 98 03 eb 9c 0b 04 5a 84 45 06 55 3a 0d 06
       8.950844e-37 1.6411425e-36 3.7148819e-35 2.6562008e-35
0003c0 a5 24 4d 03 f5 38 b3 05 1a d6 19 02 df 2c 48 05
       6.028615e-37 1.6854002e-35 1.1302109e-37 9.412196e-36
0003d0 63 ae f7 05 5a 76 11 06 f1 32 c5 05 df c5 4c 05
       2.3291828e-35 2.735842e-35 1.8544504e-35 9.628377e-36
0003e0 97 0f 98 04 40 29 65 04 9b 58 fb 03 ba 66 3d 80
       3.5749345e-36 2.6937762e-36 1.4772797e-36 -5.638817e-39
0003f0 c4 7a e9 04 b3 24 6d 05 15 e2 e5 05 74 d2 2b 06
       5.489078e-36 1.1150427e-35 2.1618106e-35 3.2316142e-35

attnN2.node_attn_maps.2.bias f4 [8]
000000 26 6a 5c 82 61 89 ad 82 96 e4 39 83 b5 1d cf 02
       -1.619351e-37 -2.5498917e-37 -5.4629018e-37 3.0432967e-37
000010 26 41 dc 82 37 14 aa 82 11 fd 86 02 df dc 2b 03
       -3.2363488e-37 -2.4990858e-37 1.9834783e-37 5.050593e-37
