train_script/weights/GANOrigEdgeBased_model300new_gaia_mom/87.pth (torch, 139951 bytes, 129 tensors)

attnN1.node_attn_maps.0.weight f4 [8, 4]
9.80215e-40 -5.57526e-40 1.00979e-39 -7.72907e-40 -2.3172e-40 4.64053e-40 8.85507e-40 -8.62272e-40
4.01325e-40 -4.13466e-40 -7.94864e-40 -2.19103e-40 6.0612e-40 -3.0432e-41 -1.024918e-39 4.10621e-40
5.9911e-40 -8.15637e-40 -8.38145e-40 7.73469e-40 5.4225e-40 4.96542e-40 8.31798e-40 -5.76533e-40
-9.6577e-40 -6.18546e-40 9.00581e-40 7.44441e-40 9.60599e-40 -4.85833e-40 -7.4429e-40 -5.42007e-40
00000000: 71ac 0a00 2812 0680 e2fe 0a00 8d6a 0880
00000010: f185 0280 970d 0500 6fa4 0900 aa63 0980
00000020: bb5e 0400 9380 0480 c2a7 0880 c562 0280
00000030: 9e99 0600 d554 0080 0e29 0b80 a578 0400
00000040: 1386 0600 aae1 0880 6820 0980 1e6c 0800
00000050: 93e7 0500 2868 0500 b70e 0900 2447 0680
00000060: 2d84 0a80 41bc 0680 74ce 0900 331b 0800
00000070: c275 0a00 4e4a 0580 c71a 0880 e5e6 0580

attnN1.node_attn_maps.0.bias f4 [8]
-1.116396e-37 -1.1187325e-37 1.1143622e-37 -1.1521656e-37 1.1247851e-37 1.137802e-37 1.0944912e-37 -1.0956201e-37
00000000: b9f4 1782 2346 1882 dbad 1702 1dd3 1c82
00000010: 0a19 1902 9dde 1a02 74f9 1402 ca20 1582

attnN1.node_attn_maps.1.weight f4 [8, 4]
7.69627e-40 5.95365e-40 -9.65455e-40 5.92103e-40 9.60804e-40 -9.33108e-40 -4.17859e-40 -3.87498e-40
-7.1033e-41 2.33014e-40 3.18968e-40 7.90358e-40 -3.47927e-40 -6.8371e-41 2.58244e-40 7.42684e-40
-7.70936e-40 -3.05199e-40 9.50826e-40 4.48864e-40 -9.44167e-40 7.83748e-40 9.8629e-40 -2.01294e-40
-1.0288e-40 -1.90979e-40 9.80979e-40 -8.24558e-40 -1.10167e-40 8.04732e-40 3.67753e-40 -1.38303e-40
00000000: 6861 0800 a37b 0600 4c83 0a80 8b72 0600
00000010: 5576 0a00 2029 0a80 d28c 0480 3038 0480
00000020: 03c6 0080 8c89 0200 2779 0300 329b 0800
00000030: e1c9 0380 97be 0080 e1cf 0200 4d16 0800
00000040: 0e65 0880 c552 0380 845a 0a00 40e3 0400
00000050: f447 0a80 c588 0800 60bd 0a00 2031 0280
00000060: ca1e 0180 5f14 0280 92ae 0a00 88fa 0880
00000070: 1a33 0180 44c3 0800 2501 0400 8881 0180

attnN1.node_attn_maps.1.bias f4 [8]
-1.7541224e-38 -1.5272029e-38 1.255754e-38 -1.2877222e-38 1.3065567e-38 1.7038336e-38 1.2969328e-38 -1.5882035e-38
00000000: cc01 bf80 344c a680 50bd 8800 7538 8c80
00000010: 7c45 8e00 f387 b900 3639 8d00 a7f0 ac80

attnN1.node_attn_maps.2.weight f4 [8, 4]
-6.78349e-40 1.04453e-40 9.91531e-40 -7.8229e-40 9.57252e-40 -4.13062e-40 3.99977e-40 4.03996e-40
-3.08848e-40 3.23975e-40 -7.80903e-40 -6.81419e-40 -2.71415e-40 -6.46104e-40 -4.01929e-40 -2.67827e-40
-7.79551e-40 3.93892e-40 -2.05164e-40 -1.03167e-39 -7.01773e-40 -4.35755e-40 -8.18409e-40 8.06498e-40
8.12498e-40 -3.80284e-40 -7.06504e-40 8.98095e-40 -7.03836e-40 -2.35331e-40 -8.15993e-40 9.18855e-40
00000000: f662 0780 2c23 0100 fccb 0a00 b584 0880
00000010: 6e6c 0a00 737f 0480 f95a 0400 2d66 0400
00000020: f15c 0380 1c87 0300 d780 0880 856b 0780
00000030: 98f4 0280 1309 0780 6a60 0480 98ea 0280
00000040: 127d 0880 034a 0400 ea3b 0280 e03b 0b80
00000050: 42a4 0780 b5be 0480 64e9 0880 30c8 0800
00000060: ead8 0800 1424 0480 72b1 0780 86c7 0900
00000070: 02aa 0780 0290 0280 a8e2 0880 6501 0a00

attnN1.node_attn_maps.2.bias f4 [8]
8.10428e-38 7.592667e-38 -8.2047034e-38 7.739078e-38 -8.1398704e-38 -8.276965e-38 -8.134156e-38 8.058875e-38
00000000: 979e dc01 2bb1 ce01 705a df81 81ad d201
00000010: 9e96 dd81 0752 e181 cb6e dd81 2962 db01

attnN1.node_attn_maps.3.weight f4 [8, 4]
-7.288e-41 8.80652e-40 -8.4686e-40 4.1212e-40 1.6551e-41 2.80484e-40 -3.54537e-40 -7.51983e-40
6.67427e-40 -9.62562e-40 -5.5248e-41 -7.7862e-40 8.66784e-40 -5.38648e-40 1.9338e-41 -8.1144e-40
2.39947e-40 4.06134e-40 9.382e-42 7.65937e-40 -8.92921e-40 -3.92117e-40 5.5143e-40 7.12536e-40
-9.07934e-40 3.45052e-40 -8.11118e-40 -3.09914e-40 7.38491e-40 8.31058e-40 7.76999e-40 5.80956e-40
00000000: 29cb 0080 e696 0900 b338 0980 d37c 0400
00000010: 232e 0000 e00d 0300 4edc 0380 3930 0880
00000020: 8444 0700 3b7b 0a80 029a 0080 7a7a 0880
00000030: 3e70 0900 88dd 0580 e835 0000 f7d5 0880
00000040: e09c 0200 236c 0400 271a 0000 1f57 0800
00000050: 1ab9 0980 1045 0480 2a01 0600 43c2 0700
00000060: f3e2 0980 ddc1 0300 11d5 0880 ea5f 0380
00000070: 9d0a 0800 a70c 0900 f575 0800 7853 0600

attnN1.node_attn_maps.3.bias f4 [8]
-1.4476309e-38 -1.4197795e-38 1.4763802e-38 -1.2660575e-38 1.4688064e-38 1.4479107e-38 1.4861582e-38 -1.3965045e-38
00000000: 0fa2 9d80 ad99 9a80 79c3 a000 88dc 8980
00000010: 59f0 9f00 dca9 9d00 0bd4 a100 dd10 9880

attnN1.edge_attn_maps.0.weight f4 [8, 4]
0.37022963 0.45461154 0.14396003 0.15893582 0.079746686 -0.15259525 0.109201774 0.0387836
0.26654398 0.07289292 -0.16051845 -0.3943725 -0.077315345 0.34755287 0.12170132 0.17397939
-0.2547963 0.41435975 0.026864484 0.045560412 0.004253359 -0.10587224 0.021665143 0.012410105
-0.21137868 0.0663564 0.07953089 0.14564508 0.4357989 -0.12931037 0.098021 0.37701243
00000000: bd8e bd3e d8c2 e83e 426a 133e 12c0 223e
00000010: 3b52 a33d ee41 1cbe 2ea5 df3d 8ddb 1e3d
00000020: 7478 883e e248 953d f35e 24be 31eb c9be
00000030: 8257 9ebd 73f2 b13e 8b3e f93d a727 323e
00000040: a974 82be f626 d43e e812 dc3c 8e9d 3a3d
00000050: c35f 8b3b 8cd3 d8bd 197b b13c c153 4b3c
00000060: a773 58be dde5 873d 17e1 a23d fc23 153e
00000070: 0921 df3e f069 04be 3cbf c83d c607 c13e

attnN1.edge_attn_maps.0.bias f4 [8]
0.12434962 0.19997136 -0.05348575 0.14740825 0.09681537 -0.3117526 -0.15094873 0.03501772
00000000: 03ab fe3d 4bc5 4c3e e013 5bbd 30f2 163e
00000010: 2347 c63d 099e 9fbe 4e92 1abe be6e 0f3d

attnN1.edge_attn_maps.1.weight f4 [8, 4]
0.014145283 0.35062626 0.27715158 0.050262358 -0.10351024 -0.25609794 -0.17302261 -0.04785171
-0.21035188 0.18334396 -0.048441865 -0.252559 -0.03017627 -0.25671202 -0.10238543 -0.03400461
0.442882 -0.02828775 -0.23260753 -0.09209893 0.4034745 0.096024364 -0.34153396 -0.2774257
-0.025603265 -0.29590183 0.13683718 -0.089633666 0.28608707 -0.27500534 0.36490002 -0.1470583
00000000: 9ec1 673c 4985 b33e d0e6 8d3e e7df 4d3d
00000010: 2dfd d3bd 451f 83be d72c 31be 2800 44bd
00000020: 7c66 57be 85be 3b3e fa6a 46bd 6a4f 81be
00000030: 3a34 f7bc c26f 83be 74af d1bd 6b48 0bbd
00000040: 6ec1 e23e b6bb e7bc ab30 6ebe 5d9e bcbd
00000050: 3694 ce3e 6ca8 c43d 8add aebe be0a 8ebe
00000060: f0bd d1bc 7280 97be 0c1f 0c3e db91 b7bd
00000070: 017a 923e 80cd 8cbe 2dd4 ba3e 7396 16be

attnN1.edge_attn_maps.1.bias f4 [8]
0.11391508 -0.23894471 0.3391189 0.007155263 0.07955327 0.129272 -0.23044503 0.10192837
00000000: 4f4c e93d ecad 74be fea0 ad3e b276 ea3b
00000010: d3ec a23d e15f 043e c8f9 6bbe d2bf d03d

attnN1.edge_attn_maps.2.weight f4 [8, 4]
0.05678795 -0.12135307 -0.063649386 -0.3269677 0.01602749 -0.24062778 0.1888214 -0.027067
0.19628981 -0.33292934 -0.093157485 -0.22302979 0.5300955 -0.25279668 -0.29776868 0.40109527
-0.20812455 0.22040813 -0.17243528 0.32538888 0.10045974 0.2459779 0.06562861 0.2835507
-0.23406622 0.25126085 0.22917645 0.055002563 -0.18687871 0.052236237 0.23881996 -0.06342682
00000000: 7b9a 683d f587 f8bd 9c5a 82bd 4f68 a7be
00000010: 154c 833c 2167 76be 665a 413e 9dbb ddbc
00000020: 3200 493e b775 aabe 5ac9 bebd ec61 64be
00000030: 57b4 073f 916e 81be 2375 98be 5c5c cd3e
00000040: 9a1e 55be abb2 613e e092 30be 5f99 a63e
00000050: d6bd cd3d a1e1 7b3e 4b68 863d 8f2d 913e
00000060: 0eaf 6fbe 43a5 803e 3bad 6a3e 5e4a 613d
00000070: 225d 3fbe aaf5 553d 388d 743e ece5 81bd

attnN1.edge_attn_maps.2.bias f4 [8]
0.053860858 0.0077840057 -0.0358001 -0.07099849 -0.27037168 -0.38922423 -0.25384676 -0.08998868
00000000: 349d 5c3d f910 ff3b 20a3 12bd a867 91bd
00000010: 286e 8abe 6648 c7be 34f8 81be fc4b b8bd

attnN1.edge_attn_maps.3.weight f4 [8, 4]
-0.03566893 0.022876272 0.25475344 -0.031188698 -0.44010794 0.44340184 0.25145137 -0.45326588
0.20380978 0.37610954 0.47649592 -0.4116309 0.009611026 -0.14885387 0.13349414 -0.35957476
-0.081276946 -0.32043383 -0.27348801 -0.3888661 0.105338834 -0.08126811 -0.043543916 0.28202406
-0.08622319 0.009579213 -0.13193421 0.20501606 -0.1681996 -0.009042086 -0.041350596 0.29061124
00000000: 9519 12bd 0567 bb3c 0b6f 823e 717f ffbc
00000010: d455 e1be 9105 e33e 3cbe 803e 7712 e8be
00000020: 83b3 503e 6e91 c03e 46f7 f33e 49c1 d2be
00000030: 9177 1d3c 266d 18be b0b2 083e 2f1a b8be
00000040: 8774 a6bd e70f a4be 9f06 8cbe 7519 c7be
00000050: e3bb d73d e56f a6bd 1b5b 32bd 7565 903e
00000060: c995 b0bd 22f2 1c3c c319 07be bbef 513e
00000070: 843c 2cbe 4225 14bc 3e5f 29bd ffca 943e

attnN1.edge_attn_maps.3.bias f4 [8]
0.0017068986 -0.033481468 0.0078085423 -0.00043180122 -0.018165883 0.15136775 -0.19347237 0.35420293
00000000: 03ba df3a dd23 09bd cdde ff3b 6163 e2b9
00000010: 9ed0 94bc 2600 1b3e 9f1d 46be 165a b53e

attnN1.combinator.weight f4 [1, 16]
-1.4053194e-37 -1.2027447e-37 1.3973171e-37 -1.2979547e-37 1.3076121e-37 1.3415256e-37 1.3497249e-37 -1.3376979e-37
-0.17992517 -0.024476046 -0.04597613 0.012048448 -0.14606619 0.039238386 0.022985647 0.19098467
00000000: 3c48 3f82 89b5 2382 6531 3e02 1fab 3082
00000010: a2fb 3102 5899 3602 0cb7 3702 f813 3682
00000020: 4e3e 38be fd81 c8bc 7751 3cbd db66 453c
00000030: 6092 15be 6eb8 203d 654c bc3c 7c91 433e

convE1.self_map.weight f4 [32, 4]
0.17557083 -0.3464673 0.120253116 -0.104684085 -0.42060333 0.20824009 0.09031114 -0.1004267
0.2537653 -0.27901927 -0.05551325 0.09455004 -0.36615565 0.14251557 0.08516699 0.040492404
0.26154914 -0.31353405 -0.217356 -0.12014549 0.27560404 -0.345006 -0.2291031 -0.047157563
-0.06048447 -0.2059067 -0.15741763 -0.08371183 0.08096207 -0.24278973 0.33727556 0.023661641
-0.17107195 -0.40301147 -0.29910076 0.31543967 -0.2952999 0.41348168 0.09111114 0.094374664
0.038594924 0.32866895 -0.43537942 -0.108203575 -0.12461597 0.3419922 0.25703037 0.5785525
-0.104595944 -0.023064163 -0.10305473 0.03750602 0.4010226 0.30577913 0.24941914 -0.45708644
-0.12311325 -0.12955387 0.108238354 0.08966957 0.37691867 -0.40195635 0.15517457 -0.23373021
-0.045859132 -0.16853778 0.14716487 0.05543931 0.014827336 -0.16022754 0.29498747 -0.101167805
-0.1755167 0.056433756 -0.29504701 0.3551777 -0.10950425 0.07064646 -0.08617596 -0.0976583
-0.18971819 0.07644891 0.0134962695 0.074213795 -0.5425718 -0.19678316 0.028573154 -0.039779406
0.045767393 -0.41154534 -0.11885776 -0.042117003 0.1335992 -0.2242311 -0.20395982 -0.20420098
0.12300856 -0.11769321 0.10109781 -0.2516696 -0.1333707 0.029418403 0.29604298 -0.15107939
-0.08406334 -0.1374484 0.12787904 -0.022690706 0.6613287 -0.22068359 0.027799359 -0.018774197
0.1655085 0.18423846 0.010090904 -0.005301226 -0.20810631 0.36857104 0.40443435 0.13743134
0.15502305 -0.4665795 -0.30584875 0.10559362 -0.36988962 -0.21958698 -0.2937768 -0.13444787
00000000: d7c8 333e 2964 b1be 4447 f63d 9c64 d6bd
00000010: 5259 d7be e43c 553e 0cf5 b83d 84ac cdbd
00000020: 87ed 813e 9ddb 8ebe dd61 63bd 74a3 c13d
00000030: c178 bbbe 9aef 113e 086c ae3d 5ddb 253d
00000040: c5e9 853e 8987 a0be 9292 5ebe d70e f6bd
00000050: f91b 8d3e a0a4 b0be 019a 6abe 4a28 41bd
00000060: 90be 77bd 35d9 52be 1632 21be 1c71 abbd
00000070: 71cf a53d df9d 78be 62af ac3e 0fd6 c13c
00000080: 7c2d 2fbe 8557 cebe bc23 99be 4f81 a13e
00000090: 8c31 97be dfb3 d33e 7a98 ba3d 8147 c13d
000000a0: b615 1e3d 4c47 a83e 0dea debe d699 ddbd
000000b0: a836 ffbd 9a19 af3e 7c99 833e 041c 143f
000000c0: 6636 d6bd 0ef1 bcbc 5c0e d3bd ea9f 193d
000000d0: d652 cd3e 158f 9c3e bb67 7f3e 3c07 eabe
000000e0: cd22 fcbd c5a9 04be 12ac dd3d aea4 b73d
000000f0: 7cfb c03e 39cd cdbe 15e6 1e3e f956 6fbe
00000100: c9d6 3bbd 2b95 2cbe 63b2 163e 5414 633d
00000110: 5bee 723c b012 24be 9908 973e 1131 cfbd
00000120: a6ba 33be 1527 673d 6710 97be dad9 b53e
00000130: c443 e0bd 17af 903d 067d b0bd 1301 c8bd
00000140: 7c45 42be 3f91 9c3d 751f 5d3c 67fd 973d
00000150: fce5 0abf 8681 49be 3f12 ea3c bbef 22bd
00000160: 9776 3b3d 12b6 d2be b36b f3bd e182 2cbd
00000170: 3bce 083e d69c 65be d8da 50be 101a 51be
00000180: e9eb fb3d 2309 f1bd 5e0c cf3d d6da 80be
00000190: 5492 08be ddfe f03c f292 973e 8eb4 1abe
000001a0: 6729 acbd 46bf 0cbe b9f2 023e dce1 b9bc
000001b0: d64c 293f e1fa 61be 7bbb e33c 58cc 99bc
000001c0: 0f7b 293e 02a9 3c3e 5254 253c e8b5 adbb
000001d0: d219 55be 58b5 bc3e 0512 cf3e cdba 0c3e
000001e0: 5dbe 1e3e 82e3 eebe 3598 9cbe 7841 d83d
000001f0: 2c62 bdbe 69db 60be ea69 96be b4ac 09be

convE1.self_map.bias f4 [32]
-0.12569761 -0.27070093 -0.16143706 0.088158876 0.1664139 0.36221838 -0.28895146 0.34065902
-0.12172103 0.1706912 0.023721524 0.08359951 -0.2703842 0.2600965 0.46685788 0.00628826
-0.3587607 0.1123402 -0.19362758 0.098238036 -0.17672698 0.087614946 -0.083298236 0.4160354
-0.1949495 0.119738095 0.13986817 0.16265975 -0.30304635 -0.03224276 0.011949312 -0.13445206
00000000: e0b6 00be 5099 8abe c24f 25be a48c b43d
00000010: 6868 2a3e b074 b93e 72f1 93be dc6a ae3e
00000020: e048 f9bd adc9 2e3e a453 c23c 3836 ab3d
00000030: cc6f 8abe 5e2b 853e ff07 ef3e c00d ce3b
00000040: 7caf b7be 9e12 e63d 4f46 46be 0631 c93d
00000050: ebf7 34be 776f b33d 4498 aabd 9802 d53e
00000060: d7a0 47be 3f39 f53d 9a39 0f3e 4790 263e
00000070: e428 9bbe fc10 04bd 0cc7 433c cdad 09be

convE1.pass_map.weight f4 [32, 64]
0.07917821 -0.042146713 -0.07243607 0.07610952 -0.04313459 -0.08551295 -0.09763145 0.0008581505
-0.12556933 -0.059786588 -0.23583454 -0.22501181 0.013302431 0.11364985 -0.19832355 -0.031123122
-0.0011403806 0.093338855 0.006577765 0.05199221 0.04170463 -0.051601674 -0.045648303 0.047948413
0.07660333 -0.06902399 -0.024948157 -0.016339209 0.020255174 -0.011548846 0.0043320274 0.037107434
-0.11423508 -0.1805708 0.021346439 0.16217455 0.057861626 -0.091339275 -0.21248356 -0.04033175
0.05526842 -0.1528362 0.11153695 0.04707214 -0.084475376 -0.18512338 -0.10693117 -0.16227835
-0.015731119 -0.1261919 0.062038377 0.03784188 0.054202862 0.049459204 0.14497773 -0.025138259
-0.033368733 0.30960968 -0.18380417 -0.06528519 0.04213002 -0.06160879 -0.0319862 -0.104263484
0.11132724 -0.08579312 -0.1757403 0.10269307 0.15786879 -0.14454922 -0.015467005 -0.017329102
0.025709778 -0.2265352 -0.113286436 -0.1155348 -0.099485494 -0.010458794 -0.12322503 -0.2092698
0.103097446 -0.058850307 0.21498495 -0.024652047 -0.009657283 -0.0057854806 0.1971309 0.0054802382
-0.09653391 -0.11202862 0.13322109 0.012483851 -0.014968948 0.009480805 -0.11481998 -0.059018582
0.10501047 -0.13448553 0.034159105 0.3330623 -0.09316358 -0.11180995 -0.10915262 -0.054341376
0.25836238 0.030233108 -0.09512302 -0.01883493 0.07788721 0.034388475 -0.1756347 -0.08549999
0.19687921 0.061268054 0.12558381 0.02708594 -0.011564966 -0.0669393 -0.01850306 -0.085452944
-0.010334634 0.03882069 -0.1046271 -0.022898044 0.12191149 0.059529617 0.08447019 -0.0906728
-0.057195682 -0.09406296 -0.060566243 -0.2830989 -0.23216459 -0.040084153 -0.08093315 0.119346514
-0.14862898 -0.028758993 -0.10679377 0.047561318 -0.06241938 -0.16657127 0.14083715 0.071084745
-0.030456284 -0.07764359 0.082419656 -0.12675057 -0.014479616 0.111838005 -0.09321238 -0.052022018
0.10596827 0.08376144 0.02778086 0.07874403 -0.111660056 -0.1128034 0.045619056 -0.16154942
-0.015831482 0.09563437 0.15320306 -0.20828864 -0.12525323 -0.12391307 -0.16176395 -0.066329956
-0.16841096 0.0900722 0.09562658 -0.053724658 -0.0890192 -0.1470037 -0.0708259 0.03815484
0.17954154 -0.05929002 0.11843499 -0.1000802 0.010554659 0.05854853 0.021579368 -0.027981522
-0.09871209 -0.08723074 -0.06528267 -0.07804105 0.01783602 -0.15219429 0.09923557 -0.07699765
-0.04128879 -0.08826502 0.008325536 -0.30966425 0.13919988 -0.089574434 0.24127752 -0.043799482
-0.28518626 -0.018007219 0.23681523 0.027753161 -0.08025939 -0.19500345 -0.051928237 -0.30179608
-0.08935095 -0.0930076 0.0042925957 -0.24992536 0.03224646 -0.091804855 0.008548013 0.10667694
0.09977479 0.10053359 0.057293005 0.01384659 -0.16679388 0.0441448 0.054277863 0.0056457734
-0.18150882 -0.06908499 -0.060608562 0.12697867 -0.3423083 -0.080536254 -0.27085748 -0.040623046
0.058690257 -0.12233571 -0.052753445 -0.09402541 -0.08848077 -0.09634046 -0.027466921 0.06998318
0.26022756 -0.03475954 0.05806366 0.079432674 -0.04856344 -0.11329799 -0.0671789 -0.20279415
-0.01581637 -0.022917913 0.0033839035 -0.014747773 0.13962139 -0.18189095 -0.20943537 -0.11969625
00000000: 2f28 a23d 08a2 2cbd 5d59 94bd 4fdf 9b3d
00000010: e5ad 30bd 6a21 afbd fff2 c7bd 81f5 603a
00000020: 3f95 00be c8e2 74bd 9c7e 71be 7f69 66be
00000030: 71f2 593c 41c1 e83d 5415 4bbe ebf5 febc
00000040: d378 95ba 7128 bf3d 4b8a d73b c9f5 543d
00000050: 79d2 2a3d 475c 53bd b7f9 3abd 8e65 443d
00000060: 35e2 9c3d 735c 8dbd 1460 ccbc ced9 85bc
00000070: 2eee a53c 5f37 3dbc aef3 8d3b f7fd 173d
00000080: 15f4 e9bd 8de7 38be bade ae3c 1611 263e
00000090: 5000 6d3d 1610 bbbd 4a95 59be e832 25bd
000000a0: 2461 623d 1881 1cbe 7c6d e43d b7ce 403d
000000b0: 6d01 adbd fc90 3dbe bbfe dabd 4c2c 26be
000000c0: 8cde 80bc 7338 01be f41b 7e3d 1600 1b3d
000000d0: d203 5e3d bc95 4a3d 0b75 143e c0ee cdbc
000000e0: a7ad 08bd 2985 9e3e 2937 3cbe 3eb4 85bd
000000f0: 8790 2c3d 8059 7cbd f603 03bd 1888 d5bd
00000100: 89ff e33d 4eb4 afbd 44f5 33be bf50 d23d
00000110: 5ba8 213e b604 14be 5269 7dbc c3f5 8dbc
00000120: 509d d23c d8f8 67be b802 e8bd 829d ecbd
00000130: 0dbf cbbd 5d5b 2bbc 685d fcbd d34a 56be
00000140: c124 d33d 050d 71bd 0425 5c3e 17f3 c9bc
00000150: 9539 1ebc 2194 bdbb afdc 493e 9293 b33b
00000160: 92b3 c5bd 436f e5bd 1c6b 083e 1189 4c3c
00000170: 5240 75bc 6155 1b3c bd26 ebbd 78bd 71bd
00000180: bb0f d73d 93b6 09be 6bea 0b3d 2487 aa3e
00000190: 8ccc bebd 9dfc e4bd 698b dfbd 1095 5ebd
000001a0: 1348 843e 6cab f73c dccf c2bd b64b 9abc
000001b0: 5483 9f3d eeda 0c3d 95d9 33be 9e1a afbd
000001c0: b49a 493e 36f4 7a3d 0b99 003e 55e3 dd3c
000001d0: fc7a 3dbc 7917 89bd bb93 97bc f401 afbd
000001e0: 9952 29bc 7202 1f3d bc46 d6bd ae94 bbbc
000001f0: bbac f93d 54d5 733d b5fe ac3d a9b2 b9bd
00000200: 0546 6abd 15a4 c0bd 4f14 78bd 57f2 90be
00000210: 8ebc 6dbe 482f 24bd 48c0 a5bd f26b f43d
00000220: 3232 18be fb97 ebbc b1b6 dabd a8cf 423d
00000230: 77ab 7fbd a991 2abe 9d37 103e e194 913d
00000240: 757f f9bc 9a03 9fbd a3cb a83d e7ca 01be
00000250: e93b 6dbc 530b e53d 22e6 bebd 0a15 55bd
00000260: e405 d93d 1e8b ab3d b094 e33c 8d44 a13d
00000270: 07ae e4bd 7805 e7bd 0cdb 3a3d 366d 25be
00000280: 06b1 81bc f4db c33d 43e1 1c3e 9e49 55be
00000290: 6242 00be 23c6 fdbd 73a5 25be 00d8 87bd
000002a0: ec73 2cbe c677 b83d ded7 c33d 630e 5cbd
000002b0: b34f b6bd 2388 16be 2b0d 91bd 4048 1c3d
000002c0: bdd9 373e 18da 72bd 0b8e f23d d9f6 ccbd
000002d0: 73ed 2c3c 95d0 6f3d 37c7 b03c 8139 e5bc
000002e0: 9029 cabd 08a6 b2bd ecb2 85bd fcd3 9fbd
000002f0: d81c 923c d2d8 1bbe 053c cb3d f2b0 9dbd
00000300: 6f1e 29bd 4ac4 b4bd d467 083c 508c 9ebe
00000310: 6a8a 0e3e cd72 b7bd 7411 773e 1667 33bd
00000320: ef03 92be e083 93bc b17f 723e 995a e33c
00000330: 095f a4bd fcae 47be b4b2 54bd 0485 9abe
00000340: a2fd b6bd c57a bebd e7a8 8c3b 6fec 7fbe
00000350: dd14 043d 2f04 bcbd f70c 0c3c 7179 da3d
00000360: ba56 cc3d 8ee4 cd3d 12ac 6a3d cfdc 623c
00000370: 04cc 2abe 2ed1 343d 7752 5e3d 2e00 b93b
00000380: 73dd 39be 6e7c 8dbd af40 78bd b206 023e
00000390: 0943 afbe 31f0 a4bd d5ad 8abe 5a64 26bd
000003a0: 3265 703d 258b fabd ff13 58bd 6590 c0bd
000003b0: 6835 b5bd 264e c5bd 4f02 e1bc 5753 8f3d
000003c0: 8c3c 853e 0560 0ebd 29d4 6d3d 99ad a23d
000003d0: 75ea 46bd c708 e8bd 1795 89bd 45a9 4fbe
000003e0: 5591 81bc 59be bbbc 7bc4 5d3b a5a0 71bc
000003f0: e9f8 0e3e 9f41 3abe 3a76 56be 4f23 f5bd

convE1.pass_map.bias f4 [32]
-0.05503054 -0.08685862 -0.049026035 0.061022338 0.25918916 0.204135 -0.28861648 0.23068845
-0.073437266 0.20041905 0.17584784 0.23880328 -0.16457944 0.22588982 0.2580308 0.0062886146
-0.24541602 -0.010063912 -0.050639406 0.30140486 -0.20394298 0.28264996 -0.1855115 0.36597046
-0.31040922 0.1658685 0.14033167 0.03982267 0.055997603 -0.106911376 0.0026451512 -0.088290304
00000000: b467 61bd efe2 b1bd 86cf 48bd 8ff2 793d
00000010: 71b4 843e c408 513e 8ac5 93be 9839 6c3e
00000020: 4766 96bd a73a 4d3e 7511 343e d988 743e
00000030: 8387 28be a94f 673e 9d1c 843e b910 ce3b
00000040: 564e 7bbe 1be3 24bc 446b 4fbd bd51 9a3e
00000050: 6ed6 50be 7fb7 903e baf6 3dbe 7b60 bb3e
00000060: f5ed 9ebe 6fd9 293e 1bb3 0f3e 191d 233d
00000070: be5d 653d 5af4 dabd 465a 2d3b 8cd1 b4bd

attnN2.node_attn_maps.0.weight f4 [8, 32]
1.6364723e-36 8.36514e-36 8.3580785e-37 3.419764e-36 1.6564555e-36 6.170572e-36 1.5034947e-35 1.4142996e-35
2.8759582e-37 1.4555164e-35 5.236194e-36 1.28154e-35 1.1888785e-36 1.3071013e-36 2.4030079e-35 1.758342e-35
2.8443115e-37 9.8690184e-36 4.540227e-37 1.293948e-35 4.560129e-36 4.8370663e-36 3.9646044e-36 6.8850564e-36
1.698711e-36 -8.905026e-37 -2.2959905e-37 9.402801e-37 3.1346705e-36 2.0104932e-35 1.7845918e-35 2.681825e-35
-1.1058628e-36 -1.0968657e-35 -1.2969535e-36 1.5876569e-36 1.2514196e-36 -9.3328935e-36 -8.96135e-36 -2.8987711e-36
-3.4177057e-37 -2.3243297e-35 -1.7003807e-36 -2.0345982e-35 -1.2217484e-36 -1.4997556e-36 -3.0205823e-35 -1.792142e-35
-5.585937e-38 -7.200859e-36 -1.441052e-37 3.6619335e-37 -7.1156295e-36 -7.606689e-36 -1.0089855e-35 -6.938309e-36
-1.8055533e-36 3.4960264e-38 -8.8170064e-38 -8.735475e-37 -1.2258324e-35 -1.0604174e-35 -1.8037034e-35 -2.3054492e-35
-1.4116805e-36 -1.04592896e-35 -6.5915102e-37 -4.02992e-36 -1.8246248e-36 -7.991177e-36 -1.6543357e-35 -1.6308941e-35
-3.2064276e-37 -1.9113221e-35 -5.8200487e-36 -1.7047769e-35 -7.4839194e-37 -8.854378e-37 -2.9513406e-35 -2.0831878e-35
-4.4162896e-37 -1.16485715e-35 -5.4345345e-37 -1.437995e-35 -1.3250103e-36 -5.176193e-36 -3.374842e-36 -7.691039e-36
-1.704786e-36 2.1601027e-36 2.0312756e-37 -8.414678e-37 -4.4858185e-36 -2.3010724e-35 -2.0110243e-35 -2.90425e-35
1.8192449e-36 9.21649e-36 7.961778e-37 3.6567937e-36 8.419775e-37 6.439961e-36 1.3578233e-35 1.6303488e-35
3.3945014e-37 1.3952983e-35 3.78418e-36 1.2884735e-35 1.0614019e-36 1.2091694e-36 2.41961e-35 1.8832537e-35
3.2520075e-37 1.0838467e-35 5.085215e-37 1.4618341e-35 -4.2190795e-36 1.6331042e-36 -1.4134035e-36 5.153195e-36
1.1695494e-36 -3.3923232e-36 -2.2958567e-37 7.45322e-37 2.9463075e-36 2.0159829e-35 1.5096543e-35 2.1742892e-35
1.0394067e-37 1.211686e-35 -9.104737e-37 4.3665533e-36 1.30473335e-36 9.5516026e-36 1.6820855e-35 1.5385881e-35
3.3669357e-37 2.3053754e-35 5.3100744e-36 2.066485e-35 -7.4712234e-37 -7.4880067e-37 3.4014286e-35 2.1915584e-35
2.2442797e-37 1.1981902e-35 4.2145054e-37 1.6273752e-35 3.8774453e-37 6.4223676e-36 1.8044305e-36 6.384958e-36
1.8502971e-36 -3.6950945e-36 -5.031235e-38 1.2240018e-36 6.111854e-36 2.4042305e-35 1.9765682e-35 2.8784645e-35
1.2904252e-36 1.1068337e-35 7.1565115e-37 3.031719e-36 1.8932322e-36 9.050481e-36 1.6845135e-35 1.388479e-35
2.6764715e-37 2.4715854e-35 7.8135685e-36 2.0978443e-35 9.701381e-37 1.1283341e-36 3.4297806e-35 2.095134e-35
4.1228896e-37 1.09107385e-35 5.3624926e-37 1.4691599e-35 7.785086e-36 6.710672e-36 6.0449166e-36 8.1319865e-36
1.6621575e-36 -7.5041084e-37 -2.4681242e-37 6.9444953e-37 3.782214e-36 2.3258644e-35 2.2369576e-35 3.1946404e-35
-3.4373623e-37 -1.815627e-36 -5.76318e-37 2.9361562e-36 -3.1260057e-36 -4.3434434e-36 -1.4168174e-35 3.581834e-36
3.9647406e-37 -2.3836071e-35 -1.1645305e-35 -1.5995478e-35 -5.2340807e-37 -5.711615e-37 -1.5078902e-35 8.842453e-36
3.2250343e-38 4.213624e-36 -4.9273387e-38 6.448883e-39 -4.49948e-35 -1.9577267e-35 -2.4997984e-35 -6.796193e-36
-4.3739184e-37 -8.5447304e-36 -2.0140912e-37 -8.459953e-37 -4.0311367e-36 -9.13267e-36 -2.2710674e-35 -3.4444e-35
2.4297533e-37 -2.031958e-36 -2.1394606e-37 1.793352e-36 6.306054e-36 1.5196473e-36 1.063622e-35 -5.7097116e-36
-1.8856482e-37 1.5559437e-35 1.06334786e-35 9.338719e-36 -2.7186892e-37 -3.715654e-37 6.784713e-36 -8.3897114e-36
-1.5762757e-37 -5.1313937e-36 -3.4669931e-37 -2.948207e-36 3.9007477e-35 1.5086212e-35 2.2645607e-35 6.857238e-36
6.2238795e-37 8.33026e-36 1.6538016e-37 -7.1389296e-37 -2.0452538e-36 4.0976155e-36 1.492719e-35 2.4287869e-35
00000000: 3637 0b04 27e8 3105 9134 8e03 ef75 9104
00000010: 68ea 0c04 ca3b 0305 05e1 9f05 e664 9605
00000020: 42ba c302 edc6 9a05 1bb9 de04 d646 8805
00000030: f646 ca03 4b64 de03 1988 ff05 9ffa ba05
00000040: e592 c102 0ce4 5105 f57e 1a03 9d98 8905
00000050: 68f7 c104 fdbe cd04 b8a2 a804 d06d 1205
00000060: a682 1004 dc82 9783 cc41 9c82 f9fa 9f03
00000070: 8a55 8504 d5ca d505 36c5 bd05 1c97 0e06
00000080: 1e27 bc83 0d47 6985 4baa dc83 1b10 0704
00000090: 03eb d403 1b7d 4685 3b96 3e85 a599 7684
000000a0: d598 e882 462a f785 03a7 1084 085b d885
000000b0: a6de cf83 922b ff83 099a 2086 bf92 be85
000000c0: 4d10 9881 3525 1985 5525 4482 e137 f902
000000d0: 2c55 1785 c1c6 2185 6596 5685 bf8f 1385
000000e0: 7899 1984 7f57 3e01 9105 f081 5ca0 9483
000000f0: 555a 8285 9d86 6185 7acd bf85 4c28 f585
00000100: 5c2f f083 ca71 5e85 274c 6083 f169 ab84
00000110: cf38 1b84 1bf4 2985 4deb af85 296d ad85
00000120: d937 da82 233f cb85 b88e f784 7148 b585
00000130: 22aa 7e83 41a6 9683 91eb 1c86 c485 dd85
00000140: 4f47 1683 dbbc 7785 79ed 3883 f3e9 9885
00000150: 5770 e183 c02b dc84 c68c 8f84 0092 2385
00000160: f406 1184 dfc2 3704 d03d 8a02 182b 8f83
00000170: 3dce be84 26b1 f485 4ad9 d585 9a6a 1a86
00000180: a5c3 1a04 5803 4405 6f76 8703 f58a 9b04
00000190: 4b41 8f03 7cf6 0805 7763 9005 515e ad05
000001a0: 8e04 e702 a25f 9405 12f6 a004 9603 8905
000001b0: 9396 b403 c1ba cd03 06a6 0006 0b43 c805
000001c0: f651 dd02 3a82 6605 780a 2d03 e972 9b05
000001d0: b575 b384 dced 0a04 687a f083 5331 db04
000001e0: 10fd c603 214b 9084 773f 9c82 b49e 7d03
000001f0: e5a4 7a04 4660 d605 b388 a005 c835 e705
00000200: 0a7a 0d02 3bd9 8005 b9e8 9a83 8ebb b904
00000210: 27fd dd03 df23 4b05 b9de b205 5a9c a305
00000220: 4b24 e502 4a26 f505 97dd e104 13bf db05
00000230: 893b 7e83 bdcd 7e83 d9d9 3406 e50b e905
00000240: debc 9802 aed3 7e05 8569 0f03 5e0d ad05
00000250: 50f1 0303 b296 0805 0481 1904 05cb 0705
00000260: e767 1d04 042c 9d84 97f6 8881 cc40 d003
00000270: 19fc 0105 61a9 ff05 4e2f d205 a10b 1906
00000280: f28d db03 c265 6b05 0286 7303 7ff4 8004
00000290: f20e 2104 817b 4005 d220 b305 fea5 9305
000002a0: b626 b602 7a69 0306 1d2d 2605 c114 df05
000002b0: 790f a503 e2f9 bf03 c15b 3606 f9ca de05
000002c0: 6f4b 0c03 b60b 6805 e679 3603 563a 9c05
000002d0: 0a92 2505 60b8 0e05 a88f 0005 bff2 2c05
000002e0: 9666 0d04 015a 7f83 caf8 a782 164f 6c03
000002f0: aae0 a004 0d54 f705 c7df ed05 31db 2906
00000300: 4cef e982 db74 1a84 611c 4483 d2c7 7904
00000310: 30f7 8484 e9bf b884 70a9 9685 b85a 9804
00000320: c3e9 0603 f577 fd85 12ab 7785 d517 aa85
00000330: 461b 3283 2f5b 4283 ad58 a085 e50e 3c05
00000340: 6b96 2f01 4d3a b304 8a22 8681 dd38 4600
00000350: c03b 6f86 642e d085 7ee9 0486 ff89 1085
00000360: 34d6 1483 f0b9 3585 6b12 8982 4bf0 8f83
00000370: 3177 ab84 fc3a 4285 5680 f185 be22 3786
00000380: 465c a502 20dc 2c84 a99a 9182 c08f 1804
00000390: 6c1d 0605 fd46 0104 1735 6205 41dd f284
000003a0: a054 8082 d174 a505 2a26 6205 d39c 4605
000003b0: 3f06 b982 d3df fc82 7e4b 1005 ef6d 3285
000003c0: 318d 5682 ee43 da84 8af3 eb82 43ce 7a84
000003d0: 3a66 4f06 936c a005 35cf f005 5bd6 1105
000003e0: a3c9 5303 402a 3105 931a 6102 d9ec 7283
000003f0: affd 2d84 154b ae04 adbb 9e05 ef22 0106

attnN2.node_attn_maps.0.bias f4 [8]
2.7150759e-37 -1.7635938e-37 -3.158063e-37 2.691773e-37 3.0961842e-37 2.9424122e-37 -1.3162252e-37 5.8373414e-38
00000000: 4bc7 b802 460c 7082 38ed d682 4d31 b702
00000010: 23b7 d202 0d40 c802 c127 3382 55e8 9e01

attnN2.node_attn_maps.1.weight f4 [8, 32]
6.596403e-37 -1.7188495e-36 5.160796e-37 -1.18934115e-36 -1.1262853e-36 -1.376402e-36 -3.3759934e-36 -1.8822985e-36
-3.490079e-38 -3.90168e-36 -2.065461e-36 -3.443955e-36 2.968548e-37 2.8654525e-37 -6.0492005e-36 -4.4387363e-36
-5.8254057e-38 -2.4009607e-36 -1.434204e-37 -2.6920046e-36 2.805016e-37 -4.6726277e-37 4.315221e-37 -9.133741e-37
-1.6997424e-37 2.2217711e-36 6.6171973e-37 7.25962e-40 -7.0981126e-37 -6.057336e-36 -4.2973696e-36 -5.7749145e-36
-2.302478e-36 2.0148005e-36 -1.6565502e-36 2.0267921e-37 3.1066895e-37 1.8352228e-36 3.381193e-36 -4.4673027e-37
2.091666e-37 4.2272733e-36 1.125607e-36 3.955523e-36 -1.8075231e-36 -1.8114363e-36 7.59374e-36 5.778742e-36
2.0621071e-38 1.5710869e-36 -4.0121602e-38 1.4351454e-36 8.936887e-36 5.9219786e-36 7.432103e-36 4.334094e-36
1.0883906e-36 5.3080737e-37 -8.2040504e-38 -1.743472e-39 8.8974964e-38 6.618484e-36 7.115952e-36 1.1113164e-35
3.438521e-37 2.3284325e-36 3.5446215e-37 8.494926e-37 8.385384e-37 1.6863044e-36 3.1577452e-36 3.0474612e-36
2.4988158e-37 4.352576e-36 1.6692217e-36 4.0169707e-36 5.204789e-37 4.8313587e-37 7.0498286e-36 6.4629754e-36
6.863173e-38 2.5680584e-36 1.3186097e-37 3.477224e-36 3.1369853e-37 1.4199831e-36 2.2895908e-37 1.3022435e-36
3.4791943e-37 -1.7597172e-36 -6.0249493e-37 2.863736e-39 9.778843e-37 6.5461784e-36 4.9224174e-36 6.7099125e-36
-3.7896523e-37 -2.7622718e-36 -5.3996187e-37 -1.0324948e-36 -9.623936e-37 -2.0149106e-36 -4.114661e-36 -3.3621664e-36
-1.6381315e-37 -5.315102e-36 -2.541013e-36 -4.8107587e-36 -7.0683445e-37 -8.819337e-37 -8.7351076e-36 -7.729008e-36
-7.848906e-38 -2.9186139e-36 -1.3438533e-37 -3.6075716e-36 -3.257957e-36 -3.2124903e-36 -2.7064314e-36 -2.5666906e-36
-5.0516487e-37 9.884205e-37 5.366504e-37 -1.591986e-39 -9.970189e-37 -7.88813e-36 -6.939308e-36 -9.922931e-36
-1.8932705e-36 -2.9808057e-36 -1.3344346e-36 -9.073749e-37 -8.756862e-37 -2.02872e-36 -3.698575e-36 -5.0179094e-36
-2.5352036e-37 -5.3673808e-36 -2.1148585e-36 -4.899066e-36 -1.5434706e-36 -1.5531377e-36 -8.4290536e-36 -8.010586e-36
-8.769448e-38 -2.6049305e-36 -1.5229872e-37 -3.7226616e-36 -3.3229885e-36 -3.154676e-36 -2.0225753e-36 -1.9139506e-36
-5.6450253e-37 1.7127087e-36 5.4114205e-37 -8.80828e-40 -1.0078096e-36 -8.184859e-36 -6.737502e-36 -9.581244e-36
2.7047614e-38 -2.3585133e-36 -1.298719e-37 -8.825419e-37 -6.7094955e-37 -1.5415218e-36 -2.9367747e-36 -2.871421e-36
-2.2068469e-37 -3.4679523e-36 -1.598505e-36 -3.2382283e-36 -1.7928031e-37 -7.8271213e-38 -6.622397e-36 -6.314233e-36
-1.9453085e-37 -2.8778497e-36 -2.3544377e-37 -2.6713593e-36 -4.2149847e-37 -1.1099482e-36 -6.3451673e-37 -1.767522e-36
-3.1532018e-37 1.8422694e-36 7.4079655e-37 -1.705403e-39 -5.4662465e-37 -6.527631e-36 -5.159191e-36 -7.084206e-36
-1.7443274e-37 -7.4749094e-37 -2.2759233e-37 -1.6397189e-37 1.1222036e-36 -5.193614e-39 2.7308655e-36 -1.2462216e-36
4.4995963e-38 2.1986609e-36 2.1972405e-36 1.0595506e-36 -1.7914102e-37 -2.8469735e-37 8.787579e-37 -2.3163048e-36
-2.0312073e-38 -1.5405083e-36 -3.275715e-38 7.594769e-37 1.3659969e-35 6.2223004e-36 6.8159846e-36 1.8142612e-36
7.86419e-37 8.7771695e-37 4.1313525e-37 -6.052296e-39 -5.287347e-37 3.7273205e-36 5.3831446e-36 9.169237e-36
-1.22095525e-36 7.420362e-37 -1.0315503e-36 3.444103e-37 3.5017307e-37 8.585994e-37 1.8969531e-36 -4.9339665e-37
8.1878206e-38 2.3232332e-36 1.2486262e-36 2.1016604e-36 -1.129346e-36 -1.093529e-36 4.3017522e-36 3.1055407e-36
6.962496e-38 1.2837415e-36 1.2443271e-37 1.9112233e-36 3.956397e-36 3.388487e-36 2.6928254e-36 1.5617216e-36
5.4306006e-37 -6.067203e-37 -1.8382503e-37 -2.87932e-40 3.975759e-37 4.85934e-36 4.2779403e-36 6.4762105e-36
00000000: c676 6003 3a39 1284 e09c 2f03 1d5b ca83
00000010: a5a0 bf83 c32e ea83 5099 8f84 d520 2084
00000020: 9a04 3e81 88f5 a584 c2b5 2f84 597d 9284
00000030: 6707 ca02 3903 c302 fba6 0085 8fcd bc84
00000040: 2795 9e81 4b40 4c84 b736 4382 ab02 6584
00000050: 45e6 be02 5400 1f83 e0d6 1203 0e67 9b83
00000060: 615b 6782 e401 3d04 eb2b 6103 b0e7 0700
00000070: 4889 7183 46d3 0085 36ca b684 40a3 f584
00000080: 88df 4384 7866 2b04 78ec 0c84 b3ef 8902
00000090: 2a6e d302 9d1f 1c04 eed1 8f04 b203 1883
000000a0: f659 8e02 eece b304 1983 bf03 d53f a804
000000b0: 5ec4 1984 9719 1a84 4180 2105 eecc f504
000000c0: 288b e000 3ea7 0504 5a71 5a81 662d f403
000000d0: 0a11 3e05 a3e4 fb04 3810 1e05 1b5a b804
000000e0: 192e b903 d89f 3403 e355 df81 17fc 1280
000000f0: 8036 f201 74c2 0c05 ee56 1705 d259 6c05
00000100: 7c03 ea02 c514 4604 043c f102 9f88 9003
00000110: 80ab 8e03 7574 0f04 cd50 8604 ea9f 8104
00000120: 830f aa02 5b23 b904 6e00 0e04 f0dc aa04
00000130: 1b1c 3103 1267 2403 ebee 1505 c973 0905
00000140: 56d5 ba01 5c77 5a04 d87a 3302 9ee7 9304
00000150: fe7d d502 fd98 f103 4cd2 9b02 b490 dd03
00000160: 1dc8 ec02 3fb3 1584 b604 4d83 ee2e 1f00
00000170: de60 a603 c938 0b05 6160 d104 3db4 0e05
00000180: 87f4 0083 f4fc 6a84 50bd 3783 7eab af83
00000190: 27be a383 de68 2b84 b104 af84 c002 8f84
000001a0: 8df8 5e82 5614 e284 5d2a 5884 86a0 cc84
000001b0: f785 7083 a10d 9683 73c6 3985 b960 2485
000001c0: e4aa d581 c849 7884 74ea 3682 fa72 9984
000001d0: 0394 8a84 eca4 8884 db3c 6684 9259 5a84
000001e0: 11e6 2b83 c92b a803 d89c 3603 cf55 1180
000001f0: 4ca2 a983 11c3 2785 3095 1385 9309 5385
00000200: c80f 2184 3394 7d84 d30a e383 c061 9a83
00000210: 83fd 9483 9c95 2c84 ea51 9d84 3270 d584
00000220: 7a89 ac82 9a4d e484 8ae9 3384 1b62 d084
00000230: d04d 0384 5820 0484 2244 3385 c75d 2a85
00000240: 22ba ee81 5d9a 5d84 5c4c 4f82 3258 9e84
00000250: 2458 8d84 612f 8684 ca0f 2c84 27d2 2284
00000260: 1b17 4083 7eb3 1104 1f24 3803 6497 0980
00000270: 4d78 ab83 9c12 2e85 734a 0f85 41c5 4b85
00000280: df42 1301 dfa3 4884 c1c5 3082 1f28 9683
00000290: f34f 6483 5f23 0384 4ad5 7984 0346 7484
000002a0: b230 9682 a882 9384 5bfc 0784 2fbd 8984
000002b0: 1206 7482 1313 d581 c2d7 0c85 f449 0685
000002c0: 0e64 8482 04d2 7484 173c a082 0e41 6384
000002d0: b26d 0f83 10d9 bc83 34ea 5783 385d 1684
000002e0: 8698 d682 13b9 1c04 7b14 7c03 f891 1280
000002f0: b901 3a83 ced3 0a85 9d72 db84 16aa 1685
00000300: f06c 6d82 a55b 7e83 2de4 9a82 dd2f 5f82
00000310: dcee be03 af8d 3880 fc50 6804 9b08 d483
00000320: 38fb 7401 980a 3b04 a9eb 3a04 f045 b403
00000330: 89d5 7382 46c1 c182 4e83 9503 a70c 4584
00000340: cc2d dd80 4d0d 0384 ce58 3281 e237 8103
00000350: f941 9105 6d55 0405 c0f5 1005 1c57 1a04
00000360: 61cd 8503 f755 9503 2895 0c03 57e7 4180
00000370: 4aeb 3383 ed8a 9e04 41f9 e404 1302 4305
00000380: 1abc cf83 7880 7c03 5a82 af83 bd64 ea02
00000390: c150 ee02 4715 9203 fb5f 2104 e9e4 2783
000003a0: c8e4 de01 8aa3 4504 5771 d403 1cca 3204
000003b0: f525 c083 e80d ba83 eff9 b604 5818 8404
000003c0: 8489 bd01 d46a da03 795e 2902 c296 2204
000003d0: 5949 a804 5b21 9004 8b14 6504 49db 0404
000003e0: 34cb 3803 cb74 4e83 ad35 7a82 a322 0380
000003f0: bf49 0703 87b1 ce04 a5f6 b504 d8bb 0905

attnN2.node_attn_maps.1.bias f4 [8]
-1.0900526e-37 9.567732e-38 1.1619226e-37 -1.6862398e-37 -1.5405163e-37 -1.579524e-37 6.3809006e-38 1.0267929e-37
00000000: ca5e 1482 ae3a 0202 1827 1e02 e284 6582
00000010: 29af 5182 61fe 5682 63b4 ad01 83c2 0b02

attnN2.node_attn_maps.2.weight f4 [8, 32]
3.8705007e-37 3.292298e-35 3.0002856e-37 1.5055592e-36 9.186673e-37 2.687963e-35 2.5989626e-35 2.1849622e-35
6.4530377e-37 6.5668194e-35 4.110432e-36 6.0029294e-35 3.737883e-38 -6.26462e-37 8.5685755e-35 5.8230277e-35
3.454334e-37 1.5903817e-35 3.332392e-37 2.706877e-35 2.5504763e-35 3.7434568e-35 2.5919226e-35 1.6953183e-35
7.2897804e-36 -9.564439e-37 2.1231999e-36 8.73563e-37 1.199423e-35 4.8559723e-35 4.5016802e-35 6.6892637e-35
5.775853e-36 -4.322207e-36 4.3337142e-36 3.098943e-36 3.3307838e-36 -3.29334e-36 1.4868691e-36 2.3214017e-36
-1.6260815e-38 -4.9776604e-36 5.796822e-36 -5.5193607e-36 4.574394e-36 5.1682883e-36 -8.044042e-36 -3.53876e-36
-3.1902995e-38 -2.6513878e-36 -1.0325348e-37 -1.6351052e-36 8.653397e-36 2.4276643e-36 2.203804e-36 -9.642049e-37
-1.6585946e-36 -6.4580703e-37 1.8165587e-37 -1.0410036e-36 -1.08175205e-35 -2.5931788e-36 -2.4697259e-36 -1.9680546e-36
-2.6826946e-36 -3.0178418e-35 -1.8217499e-36 -2.2039316e-36 -1.7510565e-36 -2.4673994e-35 -2.575321e-35 -2.2186337e-35
-5.878989e-37 -6.175475e-35 -5.1802133e-36 -5.594451e-35 -1.6522052e-36 -9.8546285e-37 -7.91034e-35 -5.2738663e-35
-2.4579757e-37 -1.3966242e-35 -1.2801494e-37 -2.6148958e-35 -2.7790692e-35 -3.3737618e-35 -2.4143032e-35 -1.5576623e-35
-6.4655e-36 4.1536733e-37 -1.5102233e-36 -9.305603e-37 -9.6850496e-36 -4.4915923e-35 -4.183632e-35 -6.3576084e-35
1.964187e-36 3.357811e-35 1.37476635e-36 2.38932e-36 1.5113029e-36 2.7223083e-35 2.7186214e-35 2.3921607e-35
7.765154e-37 6.757035e-35 6.7009434e-36 6.146617e-35 1.2446464e-36 7.650526e-37 8.829067e-35 6.0483914e-35
3.0246601e-37 1.657184e-35 3.70452e-37 2.837251e-35 2.9970325e-35 3.9651758e-35 2.8372203e-35 1.8387012e-35
7.767082e-36 -8.1485645e-37 1.9639383e-36 8.971056e-37 1.1748075e-35 5.080554e-35 4.733637e-35 7.0917614e-35
7.136632e-36 3.576707e-35 4.669893e-36 4.184475e-36 3.7281527e-36 2.908447e-35 3.4297306e-35 3.0151605e-35
9.147585e-37 7.5968056e-35 1.0321881e-35 6.742739e-35 4.966316e-36 4.3607877e-36 9.50583e-35 6.199941e-35
3.1223625e-37 1.6369956e-35 1.975223e-37 2.9495862e-35 4.0542045e-35 4.22401e-35 3.241313e-35 1.9869452e-35
7.665506e-36 -6.7699392e-37 1.9057708e-36 1.0715424e-36 1.3753947e-35 5.5120864e-35 5.420901e-35 8.1705834e-35
1.5656923e-36 2.3004081e-35 1.0183239e-36 1.579787e-36 1.2632524e-36 1.8761392e-35 1.9050958e-35 1.5452386e-35
4.0798305e-37 4.735548e-35 4.5982725e-36 4.2544957e-35 1.0244813e-36 6.1472053e-37 6.1757913e-35 4.1853806e-35
2.2779335e-37 1.09470595e-35 2.0360062e-37 1.9142607e-35 1.836283e-35 2.3163542e-35 1.6676584e-35 1.160473e-35
5.0591888e-36 -3.336375e-37 1.7666455e-36 6.8105625e-37 8.8514065e-36 3.1581573e-35 2.9340333e-35 4.4086855e-35
3.989934e-36 1.9015845e-35 2.919992e-36 2.3062399e-36 7.6328133e-38 1.408547e-35 6.6083854e-36 1.8689126e-35
1.0122494e-36 2.5980067e-35 1.7604755e-36 2.776821e-35 3.018336e-36 2.454223e-36 4.8302016e-35 5.3288626e-35
3.4384512e-37 1.4401327e-35 3.4160693e-37 1.0485982e-35 3.768043e-36 2.0589942e-35 1.788414e-35 1.5512457e-35
6.763394e-36 -2.5757066e-36 2.2089893e-36 -7.497902e-37 -3.428301e-36 2.972951e-35 2.0864887e-35 3.1253278e-35
1.94057e-36 -2.4151235e-35 1.332173e-36 2.7480282e-36 5.3700835e-36 -1.8186981e-35 -6.5049105e-36 -1.1793005e-35
-4.6327246e-37 -3.4389394e-35 7.572463e-36 -3.5234792e-35 1.2408482e-36 1.8080223e-36 -5.641177e-35 -5.027426e-35
-2.7021557e-37 -1.3462467e-35 -3.3415892e-37 -1.61686e-35 5.8190346e-36 -1.882072e-35 -8.3879715e-36 -9.30913e-36
-5.6748794e-36 3.3029867e-36 -2.0679743e-36 -9.092773e-37 -8.6136996e-36 -2.6119858e-35 -1.7894931e-35 -2.5180357e-35
00000000: d1b4 0303 700c 2f06 5930 cc02 2d14 0004
00000010: 9b4d 9c03 a8ea 0e06 3f2f 0a06 5458 e805
00000020: e395 5b03 7593 ae06 a4d6 ae04 d295 9f06
00000030: 7c82 4b01 892c 5583 b4ca e306 79cd 9a06
00000040: fc16 eb02 4f1e a905 75ca e202 1aec 0f06
00000050: 499b 0706 4b09 4706 6ccf 0906 f446 b405
00000060: 5709 1b05 02bb a283 339f 3404 09a1 9403
00000070: cd16 7f05 0918 8106 b259 6f06 c5d4 b106
00000080: 78ad f504 abd8 b784 f855 b804 80d0 8304
00000090: 06ad 8d04 4c15 8c84 48fa fc03 a77b 4504
000000a0: 8910 b180 ecb9 d384 cd91 f604 84c4 ea84
000000b0: bd92 c204 add5 db04 ee13 2b85 af85 9684
000000c0: 49b2 2d81 1d8e 6184 968a 0c82 7019 0b84
000000d0: 9309 3805 d985 4e04 9a7a 3b04 0c0d a483
000000e0: fe18 0d84 bac1 5b83 d541 7702 1a1e b183
000000f0: 2f10 6685 6f9a 5c84 de19 5284 6f6c 2784
00000100: ea37 6484 bc74 2086 33fa 1a84 617d 3b84
00000110: a2f6 1484 8030 0386 74ed 0886 f4ec eb85
00000120: 380d 4883 1b2c a486 8757 dc84 dcb9 9486
00000130: d88d 0c84 f6aa a783 fc4a d286 1334 8c86
00000140: fa47 a782 ba83 9485 b23e 2e82 1e08 0b86
00000150: bbc2 1386 4461 3386 cb5d 0086 9aa3 a585
00000160: 8881 0985 9957 0d03 c079 0084 9e53 9e83
00000170: 6dfa 4d85 63d0 6e86 a670 5e86 a403 a986
00000180: 3418 2704 2888 3206 85e7 e903 c842 4b04
00000190: 4391 0004 24be 1006 f58b 1006 cf60 fe05
000001a0: 041e 8403 ffa1 b306 6883 0e05 b567 a306
000001b0: ffc3 d303 be2a 8203 84b7 ea06 38cb a006
000001c0: 03d9 cd02 d738 b005 d71d fc02 a9da 1606
000001d0: 7e59 1f06 2dd3 5206 3eda 1606 3586 c305
000001e0: 0430 2505 01a4 8a83 ca12 2704 76a2 9803
000001f0: 9bda 7905 7510 8706 eeae 7b06 0788 bc06
00000200: 85c7 1705 9d2b 3e06 a2a2 c604 e6fc b104
00000210: fd93 9e04 bba3 1a06 135b 3606 3d50 2006
00000220: 5aa3 9b03 2ef5 c906 aa85 5b05 b440 b306
00000230: 643e d304 c67c b904 54b5 fc06 9dd2 a406
00000240: 3a7f d402 4213 ae05 3d6d 8602 b0d3 1c06
00000250: f98e 5706 3f96 6006 7756 2c06 cb49 d305
00000260: fc06 2305 7d5e 6683 0320 2204 4150 b603
00000270: ce41 9205 5189 9206 be1c 9006 1c36 d906
00000280: c231 0504 119f f405 4342 ad03 b764 0604
00000290: 67ee d603 5e81 c705 a495 ca05 6551 a405
000002a0: 56d4 0a03 f0c8 7b06 c196 c304 3235 6206
000002b0: 744e ae03 b62d 5103 422e a406 7388 5e06
000002c0: 3307 9b02 76d1 6805 3b90 8a02 228f cb05
000002d0: 6144 c305 2951 f605 fb55 b105 29ce 7605
000002e0: b031 d704 da0f e382 224a 1604 5ec0 6703
000002f0: a43f 3c05 9cea 2706 feff 1b06 eb67 6a06
00000300: 89b6 a904 0e36 ca05 cb67 7804 7531 4404
00000310: f2c8 cf01 4cc8 9505 798b 0c05 a4bc c605
00000320: ae39 ac03 3c22 0a06 c3c3 1504 21a4 1306
00000330: c562 8004 3ec8 5004 a668 8006 5caa 8d06
00000340: 4502 ea02 2424 9905 527c e802 1e03 5f05
00000350: 5b46 a004 27f3 da05 432d be05 edf4 a405
00000360: 6bd7 0f05 ec1d 5b84 87eb 3b04 f023 7f83
00000370: e4d2 9184 b611 1e06 a0df dd05 c22b 2606
00000380: df15 2504 f568 0086 51a8 e203 c1c6 6904
00000390: 086b e404 ac65 c185 1a58 0a85 3acf 7a85
000003a0: b9a4 1d83 6bd8 3686 690c 2105 1d57 3b86
000003b0: 901e d303 3dcf 1904 dcf7 9586 e3a6 8586
000003c0: 31e6 b782 5228 8f85 b26a e382 1eef ab85
000003d0: ad83 f704 e022 c885 7664 3285 bafb 4585
000003e0: f761 f184 577e 8c04 7eec 2f84 9db4 9a83
000003f0: 7131 3785 82e0 0a86 a34a be85 bae1 0586

attnN2.node_attn_maps.2.bias f4 [8]
4.269702e-37 1.4784608e-38 -4.182014e-37 4.905864e-37 5.9773935e-37 3.2883558e-37 3.1318662e-37 -2.065266e-37
00000000: 5a4a 1103 79fd a000 7b4e 0e83 1af0 2603
00000010: 7166 4b03 3dcb df02 ce24 d502 028e 8c82

attnN2.node_attn_maps.3.weight f4 [8, 32]
6.2103763e-37 3.524133e-36 7.217898e-37 -2.6600308e-36 -4.301866e-36 1.9308905e-36 -4.0207754e-36 6.70243e-37
2.1028898e-37 3.4977586e-36 -1.743828e-36 3.7201577e-36 5.382162e-37 4.8400105e-37 6.75869e-36 4.8000143e-36
1.2976286e-37 3.7073972e-36 3.005796e-37 -1.2167786e-37 -1.8770679e-35 -7.512618e-36 -8.802437e-36 -1.5429775e-36
-3.2113754e-37 -2.587125e-36 1.0053553e-37 7.336559e-38 3.6528878e-36 -2.4884162e-36 -5.131114e-36 -9.2945665e-36
-7.4620583e-37 -1.6726758e-36 -2.846418e-37 -1.418149e-36 -9.969015e-37 -1.3173891e-36 -3.506455e-36 -1.2919705e-36
-1.994836e-37 -4.0972425e-36 -1.9344979e-36 -3.3166734e-36 -2.9114137e-37 -5.5831134e-37 -5.703204e-36 -3.7014003e-36
-1.5690545e-37 -1.8920069e-36 -1.13361e-37 2.5609685e-37 -4.0640626e-36 -2.027587e-36 -3.081127e-36 -2.1561688e-36
-3.658469e-37 7.618562e-37 -1.8306212e-37 5.62637e-38 -9.531483e-37 -2.9105655e-36 -4.6636443e-36 -6.152832e-36
4.7402676e-38 -3.4768567e-36 -4.7730087e-37 2.9494286e-36 4.659516e-36 -2.0234526e-36 4.958549e-36 -7.055113e-37
1.4940225e-38 -4.395761e-36 1.6242799e-36 -4.4102903e-36 -1.9808004e-38 -5.2108724e-38 -6.8136794e-36 -3.264104e-36
-1.3112627e-37 -3.3779578e-36 -3.4664407e-37 -3.0708678e-37 2.3441524e-35 9.9904184e-36 1.2405565e-35 3.359078e-36
7.7607505e-37 3.0709e-36 -3.4431655e-38 -3.6742004e-38 -3.439404e-36 3.728561e-36 7.510983e-36 1.3529884e-35
-2.793038e-37 3.6872963e-36 3.9709763e-37 -2.7679984e-36 -4.355329e-36 2.5773139e-36 -3.3799488e-36 -1.787367e-37
7.7597244e-38 5.9437e-36 -1.0856063e-36 5.6769877e-36 8.972026e-39 9.911594e-38 8.719722e-36 4.529981e-36
1.1626933e-37 3.6436612e-36 3.0711628e-37 4.9060634e-37 -1.9437145e-35 -7.372463e-36 -9.5496626e-36 -2.22823e-36
-4.7766157e-37 -2.6568271e-36 1.0430203e-37 7.6715704e-38 3.5996286e-36 -2.2793351e-36 -4.9128238e-36 -9.3466566e-36
-1.8699063e-37 3.2593167e-36 3.9065134e-37 -2.9020358e-36 -4.7035684e-36 1.7167254e-36 -4.4664545e-36 5.4575723e-37
5.207457e-38 3.0792894e-36 -1.9607847e-36 3.416777e-36 2.251239e-39 9.883843e-38 5.9623844e-36 3.7102423e-36
9.354713e-38 3.4443455e-36 2.9255863e-37 4.580605e-37 -2.2000492e-35 -9.2365545e-36 -1.1461651e-35 -2.8871125e-36
-5.096296e-37 -2.8030353e-36 -1.2096722e-38 2.5237837e-38 3.3233286e-36 -3.4934438e-36 -6.937997e-36 -1.2227753e-35
8.567757e-38 4.0301875e-36 4.3317714e-37 -2.596792e-36 -4.234391e-36 2.7006658e-36 -3.4338723e-36 5.0824382e-37
1.3647381e-37 6.648537e-36 -9.206092e-37 6.155073e-36 1.6268699e-37 1.0542032e-37 9.2967706e-36 4.5335228e-36
1.1830851e-37 3.6051893e-36 2.3904614e-37 1.2145092e-36 -1.881164e-35 -6.582498e-36 -9.190959e-36 -2.0736889e-36
-2.3754489e-37 -2.6855494e-36 1.2382862e-37 8.601514e-38 3.86329e-36 -1.345805e-36 -4.5026122e-36 -8.539229e-36
-1.0212506e-37 -3.5038887e-36 2.8255249e-37 -6.4938095e-37 -2.8846143e-36 -4.539187e-36 -1.1119516e-35 -9.490481e-37
-3.6858632e-37 -1.655462e-35 -7.0990144e-36 -1.2200227e-35 2.689158e-37 5.5929355e-37 -1.6108942e-35 -3.8451397e-36
-2.1972057e-37 -2.1370037e-36 -2.088285e-37 -3.3365913e-36 -1.8994706e-35 -9.208611e-36 -1.2559873e-35 -6.488752e-36
-6.2947363e-37 -4.0321594e-36 5.2806537e-38 -1.8996729e-38 -3.6893795e-36 -8.674685e-36 -1.6435536e-35 -2.3255484e-35
2.7397688e-37 -3.1463842e-36 4.389475e-37 2.5142285e-37 2.4213028e-36 -2.07255e-36 1.22314155e-36 -9.80088e-37
5.462005e-39 -3.6219113e-36 1.45174655e-36 -3.6937054e-36 5.8091826e-37 6.0989957e-37 -6.106575e-36 -3.0399838e-36
-1.6049206e-37 -3.39109e-36 -3.127707e-37 -1.6090144e-36 1.5551721e-35 5.37532e-36 8.397181e-36 2.0759477e-36
4.9812004e-37 3.3856153e-36 -8.580788e-38 -6.928808e-38 -3.412192e-36 5.5582935e-38 2.7538938e-36 6.4315354e-36
00000000: 0254 5303 69e6 9504 c29c 7503 574a 6284
00000010: 2cfb b684 1243 2404 5e06 ab84 6612 6403
00000020: 821d 8f02 38c7 9404 3659 1484 ee3c 9e04
00000030: 3e25 3703 70b2 2403 cfbd 0f05 872b cc04
00000040: c29f 3002 fbb1 9d04 5a90 cc02 8c9e 2582
00000050: a69a c785 95c6 1f85 0735 3b85 1343 0384
00000060: 0d8e da82 9816 5c84 85d7 0802 5bb8 c701
00000070: 6d60 9b04 e8b0 5384 e240 da84 6fac 4585
00000080: b2eb 7d83 a74b 0e84 99b7 c182 1a49 f183
00000090: 2f9d a983 6324 e083 ea25 9584 40d1 db83
000000a0: f2c2 8782 0547 ae84 a291 2484 6013 8d84
000000b0: fb23 c682 c7fb 3d83 6496 f284 ae70 9d84
000000c0: 9291 5582 43f4 2084 8b4c 1a82 5d4a ae02
000000d0: b9dd ac84 ef7c 2c84 810e 8384 336d 3784
000000e0: 85fb f882 849f 8103 d72b 7982 142a 9901
000000f0: 772b a283 819a 7784 975e c684 34db 0285
00000100: d80a 8101 9ee3 9384 c56a 2283 dee8 7a04
00000110: a331 c604 e522 2c84 d1e9 d204 b412 7083
00000120: 45af a200 99f9 ba84 af2d 0a04 cf97 bb84
00000130: a8b0 d780 7bda 8d81 33e9 1085 f2d6 8a84
00000140: d67a 3282 b4ae 8f84 eae9 eb82 10fe d082
00000150: e645 f905 0379 5405 29eb 8305 1fe1 8e04
00000160: d60a 8403 249f 8204 b976 3b81 e10a 4881
00000170: cb4b 9284 6f98 9e04 aebd 1f05 d9df 8f05
00000180: 9615 be82 1ad7 9c04 1520 0703 ab79 6b84
00000190: 5541 b984 ed40 5b04 62c4 8f84 a648 7382
000001a0: 633d d301 29d1 fc04 d3b4 b883 ec78 f104
000001b0: 5cb2 6100 dde8 0602 af72 3905 20af c004
000001c0: f341 1e02 f5fb 9a04 3403 d102 d7f1 2603
000001d0: f1b0 ce85 82cb 1c85 4f19 4b85 8d8e 3d84
000001e0: 318a 2283 9204 6284 f4f7 0d02 0bd7 d001
000001f0: 7c1c 9904 86e7 4184 eaf7 d084 0ac8 4685
00000200: ba84 7e82 d1a2 8a04 88ee 0403 bee0 7684
00000210: 5311 c884 f80a 1204 62fb bd84 29b6 3903
00000220: aec2 8d01 7efa 8204 1cce 2684 6855 9104
00000230: 8a83 1800 2b88 0602 9e9c fd04 f6d0 9d04
00000240: d6a8 fe01 9a81 9204 e71a c702 b2de 1b03
00000250: 09f3 e985 9670 4485 2ac3 7385 be9b 7584
00000260: 006b 2d83 b474 6e84 bdb8 8380 6968 0901
00000270: d85b 8d04 3c98 9484 0c8e 1385 1c07 8285
00000280: 8d3c e901 db6c ab04 0d67 1303 1fe9 5c84
00000290: 6f1c b484 4bbf 6504 8f0f 9284 48f2 2c03
000002a0: 2fc2 3902 1466 0d05 30a2 9c83 68e7 0205
000002b0: 2470 5d02 9f7d 0f02 6fb8 4505 b1d5 c004
000002c0: 8008 2102 0959 9904 b6af a202 56a3 ce03
000002d0: 280a c885 87fe 0b85 5778 4385 f268 3084
000002e0: 28aa a182 1676 6484 fa8b 2802 ce27 ea01
000002f0: 8153 a404 13fa e483 1b85 bf84 fc9b 3585
00000300: 6401 0b82 f809 9584 964b c002 0ff9 5c83
00000310: 5665 7584 5f13 c184 677c 6c85 e078 a183
00000320: cbd8 fa82 f609 b085 b6fa 1685 2dbc 8185
00000330: bd03 b702 5751 3e03 b64c ab85 dd8d a384
00000340: b988 9582 d2cb 3584 0e1f 8e82 43ec 8d84
00000350: 82fc c985 72d8 4385 3a8f 8585 2000 0a85
00000360: e332 5683 5482 ab84 c9c0 8f01 27db ce80
00000370: c9ed 9c84 7a7d 3885 c9c5 ae85 734b f785
00000380: 8175 ba02 17d5 8584 b85d 1503 0a1c ab02
00000390: 4efb 4d04 2450 3084 541b d003 dac0 a683
000003a0: d979 3b00 1f0f 9a84 7b00 f703 e41c 9d84
000003b0: 1ead 4503 bf89 4f03 5bdf 0185 7e4e 8184
000003c0: 5273 5a82 b33d 9084 57dc d482 3be1 0884
000003d0: d05f a505 0da4 e404 9a96 3205 239a 3004
000003e0: 6080 2903 1602 9004 5d97 e981 bf9e bc81
000003f0: 7b23 9184 a74f 9701 7f46 6a04 9cc8 0805

attnN2.node_attn_maps.3.bias f4 [8]
-2.0690526e-38 -4.6732673e-38 6.547619e-38 -2.920642e-38 -3.6495983e-38 -2.2741325e-38 -1.4719774e-37 2.9281224e-38
00000000: c54c e180 d76f 7e81 3f3e b201 cf03 1f81
00000010: fab3 4681 90a1 f780 ed5a 4882 126c 1f01
