train_script/weights/GANEdgeBased_model300new/115.pth (torch, 52355 bytes, 21 tensors)

weight f4 [32, 13]
00000000: 0400 0880 5bbe 0680 215a 0400 2fef 0700
00000010: eb1f 0280 db49 0880 abbd 0000 f943 0500
00000020: 7719 0880 8dd9 0700 b749 0080 543d 0880
00000030: daaa 0000 7f67 0700 8460 0080 426e 0700
00000040: 8b4c 0700 725c 0780 35a8 0600 63f0 0180
00000050: c567 0100 02ea 0480 53d3 0700 d124 0280
00000060: e872 0180 4a79 0700 0197 0100 3182 0780
00000070: c1cc 0500 7de3 0780 d82a 0400 6cc4 0780
00000080: 86cf 0780 31ab 0300 78bd 0780 2afa 0600
00000090: 3e0c 0200 0a24 0600 0f71 0380 debf 0600
000000a0: d9eb 0600 f135 0880 c4bd 0080 b24c 0780
000000b0: 77be 0400 82b6 0400 23bf 0080 c09e 0100
000000c0: d38b 0280 0f81 0480 40cf 0780 8fdf 0200
000000d0: 2e6c 0600 4dd2 0400 30c9 0400 0a02 0500
000000e0: d5f8 0380 d1c9 0780 200a 0400 1cbb 0700
000000f0: b8d4 0100 0501 0480 3af0 0300 4260 0500
00000100: ccfc 0480 8595 0400 b917 0100 238b 0000
00000110: 3c40 0600 e499 0500 f53b 0600 3f0a 0380
00000120: 2620 0700 4af5 0600 4440 0280 4d19 0600
00000130: 3343 0580 26ee 0680 b583 0280 1253 0580
00000140: d143 0700 b923 0580 aa70 0100 190b 0480
00000150: ec48 0380 0c7b 0400 0424 0880 c42d 0300
00000160: ae27 0400 daa3 0780 19c1 0380 ffd1 0100
00000170: d2b1 0000 0988 0080 6c3a 0280 c3e6 0200
00000180: 536e 0480 07da 0700 3400 0180 4f62 0300
00000190: 2fce 0480 610f 0800 2306 0400 6cfe 0180
000001a0: ff7d 0400 3d52 0700 12b4 0580 094b 0000
000001b0: 83f4 0780 3a2b 0600 9cda 0000 4058 0700
000001c0: 1521 0000 2bc1 0600 fb28 0700 eb99 0680
000001d0: 8803 0880 238d 0300 1279 0100 15cf 0700
000001e0: 0618 0000 d93a 0480 d681 0400 0f11 0700
000001f0: d668 0680 85d0 0080 b404 0180 8bb9 0380
00000200: 9e82 0580 d1e8 0400 e070 0380 8b01 0380
00000210: ab67 0300 feb6 0300 cf6b 0500 7305 0880
00000220: 2bcb 0500 b496 0580 1e2c 0480 0790 0200
00000230: 775f 0100 c5fd 0000 902c 0100 aec5 0580
00000240: 0fe2 0700 d6f0 0780 9a15 0480 39f5 0080
00000250: dae8 0600 ccd0 0700 d945 0700 aca1 0700
00000260: 6293 0280 2af0 0080 4341 0600 619b 0300
00000270: d199 0180 7eaf 0700 5010 0300 166a 0280
00000280: 570c 0480 467b 0580 5f2f 0680 9511 0800
00000290: 0408 0400 02ac 0080 bdfc 0100 3e23 0700
000002a0: 4d36 0080 c733 0000 ef18 0780 a064 0700
000002b0: 87e3 0400 2310 0880 4356 0680 0709 0300
000002c0: dd3a 0300 5809 0800 10d9 0080 f9dc 0500
000002d0: 763d 0800 6f37 0380 9be7 0300 55b0 0680
000002e0: 366b 0580 541d 0000 5f0f 0280 4cef 0780
000002f0: 75cd 0380 a81d 0780 4283 0480 7dd0 0400
00000300: 922b 0700 2539 0680 5397 0400 c1a3 0280
00000310: bbea 0100 44e7 0080 31b2 0080 0561 0500
00000320: 0304 0580 4a8b 0580 020d 0500 472f 0880
00000330: 2b3e 0400 6a55 0700 1c1f 0600 29a4 0280
00000340: 4447 0780 a8ff 0580 30bd 0300 73e9 0480
00000350: a5b9 0000 30de 0780 8512 0200 14c5 0200
00000360: 028f 0700 246c 0380 c5ab 0100 0b08 0700
00000370: 4baf 0600 6e4f 0100 6fd4 0080 8c40 0780
00000380: 0847 0580 f451 0180 301f 0780 e4f9 0180
00000390: f493 0500 5509 0680 b7ec 0280 7f12 0880
000003a0: ce00 0180 0dea 0300 ca8e 0000 d372 0080
000003b0: 86fc 0280 4bd2 0700 e19b 0400 65c4 0000
000003c0: 7a2d 0000 db4b 0580 7b04 0800 f3e8 0780
000003d0: 0f2a 0000 baa1 0400 f1bd 0400 3917 0300
000003e0: d12d 0800 9ad3 0080 4334 0780 09d2 0100
000003f0: d3ba 0680 ce81 0580 91cd 0600 fc05 0300
-7.3469e-40 -6.193e-40 3.99674e-40 7.28651e-40 -1.95121e-40 -7.61178e-40 6.804e-41 4.83561e-40
-7.43819e-40 7.20891e-40 -2.6444e-41 -7.56684e-40 6.129e-41 6.79976e-40 -3.4623e-41 6.82402e-40
6.70307e-40 -6.76012e-40 6.11354e-40 -1.7807e-40 1.29061e-40 -4.51288e-40 7.18657e-40 -1.96878e-40
-1.33056e-40 6.86359e-40 1.46005e-40 -6.89552e-40 5.3263e-40 -7.24456e-40 3.82711e-40 -7.13311e-40
-7.17294e-40 3.36918e-40 -7.10817e-40 6.40755e-40 1.88063e-40 5.63941e-40 -3.16064e-40 6.19842e-40
6.35619e-40 -7.54034e-40 -6.8075e-41 -6.70362e-40 4.35668e-40 4.32813e-40 -6.8567e-41 1.48784e-40
-2.3383e-40 -4.1364e-40 -7.17196e-40 2.63869e-40 5.8982e-40 4.42784e-40 4.39514e-40 4.59909e-40
-3.6477e-40 -7.15247e-40 3.70974e-40 7.0997e-40 1.68145e-40 -3.67708e-40 3.61684e-40 4.93708e-40
-4.58028e-40 4.2098e-40 1.00346e-40 4.9913e-41 5.74056e-40 5.14383e-40 5.72522e-40 -2.79182e-40
6.54381e-40 6.39006e-40 -2.06725e-40 5.60089e-40 -4.83284e-40 -6.36445e-40 -2.30919e-40 -4.88977e-40
6.67176e-40 -4.71992e-40 1.32252e-40 -3.71323e-40 -3.01666e-40 4.11483e-40 -7.47604e-40 2.91924e-40
3.81576e-40 -7.01627e-40 -3.44777e-40 1.67168e-40 6.379e-41 -4.88e-41 -2.04629e-40 2.66453e-40
-4.06919e-40 7.21062e-40 -9.1908e-41 3.10773e-40 -4.41307e-40 7.40201e-40 3.69543e-40 -1.83105e-40
4.12541e-40 6.7235e-40 -5.23775e-40 2.6918e-41 -7.30563e-40 5.6652e-40 7.8422e-41 6.74507e-40
1.1868e-41 6.20309e-40 6.5755e-40 -6.06228e-40 -7.35951e-40 3.26137e-40 1.35267e-40 7.17136e-40
8.618e-42 -3.88453e-40 4.13918e-40 6.48968e-40 -5.88621e-40 -7.4803e-41 -9.3523e-41 -3.42067e-40
-5.06034e-40 4.50861e-40 -3.15998e-40 -2.7606e-40 3.12696e-40 3.41152e-40 4.97852e-40 -7.36639e-40
5.3206e-40 -5.1324e-40 -3.83168e-40 2.35338e-40 1.26082e-40 9.1035e-41 1.07822e-40 -5.30092e-40
7.23943e-40 -7.29244e-40 -3.75091e-40 -8.797e-41 6.34544e-40 7.1775e-40 6.67905e-40 7.00845e-40
-2.36542e-40 -8.6155e-41 5.74424e-40 3.31246e-40 -1.47014e-40 7.05803e-40 2.81358e-40 -2.21727e-40
-3.71769e-40 -5.034e-40 -5.68007e-40 7.40991e-40 3.70217e-40 -6.1705e-41 1.82501e-40 6.55491e-40
-1.948e-41 1.8574e-41 -6.51793e-40 6.78946e-40 4.48963e-40 -7.40473e-40 -5.81958e-40 2.78745e-40
2.96623e-40 7.38036e-40 -7.7867e-41 5.38448e-40 7.56732e-40 -2.95392e-40 3.58591e-40 -6.14269e-40
-4.97638e-40 1.0521e-41 -1.89185e-40 -7.28692e-40 -3.4921e-40 -6.53487e-40 -4.14428e-40 4.42133e-40
6.58479e-40 -5.71513e-40 4.21627e-40 -2.42415e-40 1.76041e-40 -8.2962e-41 -6.3923e-41 4.93982e-40
-4.60617e-40 -5.09145e-40 4.63844e-40 -7.51644e-40 3.89644e-40 6.73489e-40 5.62173e-40 -2.4256e-40
-6.68414e-40 -5.5089e-40 3.43374e-40 -4.51088e-40 6.6597e-41 -7.22554e-40 1.90315e-40 2.5437e-40
6.9415e-40 -3.143e-40 1.53455e-40 6.45734e-40 6.13896e-40 1.2033e-40 -7.6207e-41 -6.66004e-40
-4.84659e-40 -1.21235e-40 -6.54036e-40 -1.8148e-40 5.12253e-40 -5.5436e-40 -2.68588e-40 -7.41319e-40
-9.2124e-41 3.59468e-40 5.1223e-41 -4.1191e-41 -2.7426e-40 7.18287e-40 4.23261e-40 7.0453e-41
1.6314e-41 -4.86389e-40 7.36291e-40 -7.26415e-40 1.5088e-41 4.25359e-40 4.3548e-40 2.83837e-40
7.5112e-40 -7.5908e-41 -6.61596e-40 1.67182e-40 -6.18033e-40 -5.05743e-40 6.24756e-40 2.77653e-40

bias f4 [32]
00000000: 460d 52be 606e 43be c828 14be 96a4 053d
00000010: a722 ffbd 381c d4bd 8dd8 1dbe d585 8c3c
00000020: 03ee 87bd 59f5 05b9 fec6 b03d b3af c3bd
00000030: ca3d 4dbc 200d 913d e885 04bd fd70 5a3e
00000040: 3ae2 8a3d 4b2b 303e 71f9 39be c21c e9bd
00000050: c389 99bd 0f20 a93d 6c5a c0bc 293e 593e
00000060: f0fe 0a3d 8a0d 3b3e 711a 50be bb40 ab3d
00000070: 1444 6d3e 6cd0 a23c 319c 47bd dbaa 47be
-0.20512876 -0.19085073 -0.14468682 0.032627665 -0.12457781 -0.10356945 -0.15414639 0.01715366
-0.06637194 -0.00012775268 0.08631705 -0.09554996 -0.012526939 0.070825815 -0.032354265 0.21332164
0.067814305 0.17204015 -0.1816156 -0.11382438 -0.07496979 0.08258068 -0.023480617 0.21215118
0.033934534 0.18266883 -0.20322587 0.08361956 0.23170501 0.019874774 -0.04873294 -0.1949877

weight f4 [32, 13]
00000000: 1f8e 70bd 6150 5a3e 870d 8fbe c7b2 79be
00000010: 503c b4bd 1331 08be ff26 703e b0a1 32be
00000020: 04dc c0bd 773e 7a3e d41c 183e b22c 0c3e
00000030: f0de d7bd 421a 853e d0f0 323e e17f 1e3e
00000040: 5d6f c93d 9af8 26be 9b4b a2bd f585 773e
00000050: 75e3 79be 3070 cebd 241f cd3c 0cfc 9f3d
00000060: aa63 59bd 3231 67be d11e 4a3e 3f07 82be
00000070: 9cf9 bbbd 629a 763d 6dd0 05bd 4e16 a9bd
00000080: e44d 2cbe 15da 713d 993f 7d3e 4640 363c
00000090: 5781 3e3e c96e 65be 7240 903e 85e8 8fbc
000000a0: 1e1f 5fbc 276e 493e ca06 513e e4c9 4e3e
000000b0: 738d 153c 9c65 3a3e 2a53 0bbe 8a11 093e
000000c0: e081 26be 2d47 82bd 4e1f 343e e10d 883c
000000d0: df89 75bc 5a40 313e b3f8 33be cf22 5fbe
000000e0: b694 053e 9657 413e d7bf 403d 500a 77be
000000f0: f306 1b3e 8fc2 853c f7fd 523e d216 7e3e
00000100: a083 f1bc a5bf 743e cea8 f73c b1ac c03d
00000110: d362 72be bae5 47be 030a 333e bc07 7c3d
00000120: 5b9d 97bd 5a86 393e 9a9e c6bd b742 bc3d
00000130: 821d eaba 2c92 443e 1043 64be 5c5a 5a3d
00000140: db64 423d 8bf1 af3d c2af 833e 950b 383e
00000150: 3687 373e 0b30 32be dd7f 303e e63f 97bd
00000160: 3bd5 963d f1e0 cbbd c81d 653e d60f 59be
00000170: ff73 d83c 0150 473d 7e84 b1bd 4ee4 233e
00000180: dd28 de3b 802e 043e 68b6 7b3e ddad c73d
00000190: 0d62 98bc c60d 473e 4444 dd3d a09c 2d3d
000001a0: 7720 373d 36a1 4c3d b050 1d3e 3c84 3abe
000001b0: a96f 6fbe 3ba0 8a3d b82e c23d eee6 55be
000001c0: 4873 12be 57df 36bd cdd8 02be b02e 353d
000001d0: 5080 d23c f731 2b3e 981d 0f3d ac64 3dbe
000001e0: 41c4 74bd 1e84 e3bc f11d e3bd 4aec 04be
000001f0: 5184 513e 2b0e 40be 48e3 ff3d 5e6c 83be
00000200: bdbd 5c3e 940d 4cbd 727f 4d3e 9848 0bbe
00000210: 5c75 8abc f1f1 2b3d 2a61 88be c725 c1bd
00000220: 8d89 85bd 3c3e f73b 020b 63be b5a5 a8bd
00000230: 7a7f 3cbe 77c2 03be 1968 693d 2396 473e
00000240: ed6c 4b3e 998c 5d3e 2d18 00be 1c21 27be
00000250: 0298 003d b3f8 673e 2505 78be 5094 be3d
00000260: 5aa5 4a3e bcad 62be 8d1a 7ebe b8f7 273e
00000270: 22c5 303d 2e00 6d3e 9a2a 34be 9bc9 34be
00000280: 1498 5ebe 42d1 19be 02c5 34bd 0cb9 4dbc
00000290: 2bab 6c3e f194 71be d812 46bc 3a83 80be
000002a0: 9128 1d3d aaba 5b3c 84bc 9b3d 33c5 783e
000002b0: b1cd 64bc 7825 013d 82a1 543e 86d2 2fbe
000002c0: e3b7 533d 6d4a 48be ba54 75bd 2ca2 873e
000002d0: 8e01 853e 2083 fc3d a06c 11bc f028 a1bd
000002e0: 9aae 953d ded5 1f3e ce5c 96bc 3ec5 29bc
000002f0: 54b3 cd3d 778d 1d3e 8547 5d3c 6d72 5cbe
00000300: 04af 3b3e 41d4 843e 6e91 453e b31a 133e
00000310: f4dc 88be 0eba 21be 311e 0abd 2ba1 cfbd
00000320: aed0 45be 4c34 eebd 609b 813e aa96 91bd
00000330: 1995 8f3c c1e7 59bd d61e 77be 8f99 22be
00000340: ac03 793e e28c 9a3c 6753 39be c015 be3c
00000350: 2555 773e 72fc 11be a768 3a3e 980e 113e
00000360: 06f3 33be 2acf 453e 37fb 8e3d 6ff4 efbd
00000370: f37c c03d b0a3 353e 912b a93d df0b 83be
00000380: 6c6b 84be bdb9 27be f980 e3bd 45cd 70be
00000390: e664 963d d24e 55be 2b83 663c 1a04 933e
000003a0: d0a3 74be 3182 b43d 2d31 023e aec4 773d
000003b0: 5da5 41bd 306a 0cbd 71fa 8b3b af15 54be
000003c0: 8313 3ebe bafb 4fbc 10ec 39be bf47 24bd
000003d0: e3b7 a6bd 1cdd eabc 556a da3c cd21 3b3e
000003e0: 3f29 6cbe 0a47 583d bb13 9e3d e70a 8b3d
000003f0: db94 283e e405 0c3e 2d8e 463e 4401 04be
-0.058729287 0.21319725 -0.27940008 -0.24384604 -0.08800566 -0.1329997 0.23452376 -0.17444491
-0.09416965 0.24437891 0.14854747 0.13688925 -0.10540569 0.25996596 0.17474675 0.1547847
0.09835694 -0.16305771 -0.07924577 0.24172194 -0.24403174 -0.10079992 0.025039263 0.07811746
-0.053073563 -0.2257736 0.19738318 -0.25396153 -0.091784686 0.060205825 -0.032669473 -0.082562074
-0.16826588 0.05904587 0.24731292 0.011123722 0.18604027 -0.22405542 0.28174168 -0.017566929
-0.013618259 0.19670926 0.20412746 0.20194203 0.009127962 0.18202823 -0.13605943 0.13385597
-0.16260481 -0.06361232 0.17590067 0.01660818 -0.014986484 0.17309704 -0.1757534 -0.21790622
0.1304501 0.18881068 0.047057953 -0.24125028 0.1513937 0.016328124 0.20604692 0.24813393
-0.029481709 0.23901232 0.03023186 0.09407938 -0.23670511 -0.19521227 0.17484288 0.061530814
-0.0740306 0.18117657 -0.096982196 0.09192412 -0.0017861577 0.19196385 -0.22291207 0.05330883
0.047459465 0.085909925 0.2572003 0.17973168 0.17922673 -0.1740114 0.17236276 -0.073852345
0.07364889 -0.099550135 0.22374642 -0.21197447 0.026422499 0.048660282 -0.08667849 0.1600506
0.0067797736 0.12908363 0.24581301 0.09749959 -0.018601442 0.19438848 0.10804036 0.042385697
0.044708695 0.04995843 0.15362811 -0.18214506 -0.23382439 0.06768843 0.09481567 -0.20888874
-0.14301789 -0.044646587 -0.12778015 0.044233978 0.02569595 0.16718279 0.034940332 -0.18495435
-0.059757475 -0.02777296 -0.11089695 -0.12980762 0.20460631 -0.18755405 0.12494522 -0.25668615
0.21556754 -0.049817637 0.20068148 -0.13601911 -0.016901664 0.04197878 -0.2663663 -0.094310336
-0.06520376 0.0075452607 -0.22172168 -0.08234731 -0.18408003 -0.12867151 0.05698404 0.19490866
0.1986577 0.21635665 -0.12509222 -0.16321224 0.031394966 0.22653465 -0.24220712 0.09305632
0.19789639 -0.22136587 -0.24814816 0.16403091 0.04315675 0.231446 -0.17594376 -0.17655031
-0.217377 -0.15021232 -0.044133194 -0.012556326 0.2311217 -0.23591973 -0.012089454 -0.25100118
0.038368765 0.013411203 0.07604316 0.24293976 -0.013965056 0.031529874 0.20764735 -0.17170152
0.05168904 -0.19559641 -0.059895255 0.26490915 0.2597775 0.123296976 -0.008875996 -0.07869136
0.07308693 0.15608928 -0.0183548 -0.010361968 0.1004397 0.15385996 0.013505821 -0.21528025
0.18328482 0.25943187 0.19293758 0.14365654 -0.26731074 -0.1579363 -0.0337202 -0.10138162
-0.19317886 -0.116310686 0.25313854 -0.07108815 0.01752715 -0.053199533 -0.24132857 -0.1587889
0.24317807 0.018866006 -0.18098222 0.02320373 0.24153574 -0.14256456 0.18203984 0.14165723
-0.17573175 0.19317308 0.06981509 -0.11716544 0.09398832 0.17738223 0.08260263 -0.25594994
-0.25863206 -0.16379447 -0.11108584 -0.23515804 0.073434636 -0.20830849 0.014069359 0.28714067
-0.23890615 0.088138945 0.12714072 0.060490303 -0.047276843 -0.034280956 0.0042717983 -0.20711397
-0.1856213 -0.012694294 -0.18156457 -0.040107485 -0.08140542 -0.028669886 0.026662031 0.18274613
-0.23062609 0.052802123 0.07718607 0.06789189 0.16463034 0.13674122 0.19390173 -0.12891108

bias f4 [32]
00000000: 6d4f dbbd 0b25 84b9 7014 86bd 3b5e 96bc
00000010: 5aef 12bd 24d4 9a3d 3ef1 3abe e561 d13d
00000020: 50de ccbd 5f98 57bc ec52 1abe b2cd 36be
00000030: 5446 2dbe d02a 313e edab fa3d 035b 5fbc
00000040: a5f2 cc3d cb57 39be ee0b 253e d327 09be
00000050: f283 84bc dae5 f8bd 0fc7 fb3b 57f5 2c3e
00000060: bdbd 983b d5bb 2abe a714 3f3e f938 47be
00000070: a064 14be 1c93 10be 0085 6e3e ad18 423e
-0.10708509 -0.000252046 -0.06546867 -0.01835548 -0.035872795 0.07559994 -0.18256089 0.1022375
-0.1000334 -0.013158887 -0.15070695 -0.17851904 -0.1692136 0.17301488 0.122398235 -0.013632539
0.10007218 -0.18099897 0.16117832 -0.13394098 -0.016176198 -0.12153216 0.0076836417 0.16890465
0.0046612904 -0.16673215 0.18660222 -0.19455327 -0.1449151 -0.14118618 0.23292923 0.18954726

weight f4 [13, 13]
00000000: 7d08 0800 883e 0780 88d0 0700 33d8 0780
00000010: 450d 0000 6f8b 0380 0fea 0380 8294 0280
00000020: 7371 0780 164a 0780 60b8 0300 218e 0400
00000030: 2028 0400 3800 0800 035c 0080 8cb6 0700
00000040: 3f29 0000 d1b2 0200 f962 0380 a339 0480
00000050: 922b 0600 acfa 0300 491c 0080 35a0 0480
00000060: dfdb 0780 e93e 0700 c795 0480 d9b8 0500
00000070: 03c2 0080 06c9 0700 cf23 0880 0229 0000
00000080: 2c36 0000 2e26 0880 a719 0100 d105 0180
00000090: 31ba 0300 0153 0800 949b 0180 f374 0300
000000a0: 0b21 0480 f6a1 0700 25d5 0280 1c85 0000
000000b0: 97ee 0700 8d09 0400 8b53 0780 5796 0500
000000c0: 4989 0780 6d8e 0280 2f7f 0580 a120 0480
000000d0: ee76 0180 25a2 0100 b3fe 0700 264d 0100
000000e0: a816 0480 0af7 0600 63cd 0480 84c0 0300
000000f0: 405c 0000 e463 0800 e3bb 0180 3d37 0000
00000100: 88db 0700 37d4 0000 f21c 0180 a4c8 0480
00000110: bbbc 0200 58f1 0780 5c0d 0480 d785 0380
00000120: 5ef9 0380 ad61 0400 1e93 0280 6a46 0380
00000130: 0156 0800 dca6 0580 5a0c 0780 4d63 0580
00000140: 73fd 0600 fab2 0700 b281 0000 d6b3 0100
00000150: b445 0600 b982 0380 12db 0600 70ce 0700
00000160: 3334 0580 8df6 0100 4740 0880 2735 0280
00000170: 4f7d 0380 e186 0100 6ef6 0680 3caf 0100
00000180: ad6a 0700 7490 0780 20a3 0500 a3e7 0200
00000190: 1f3f 0700 3c30 0800 3321 0600 e89e 0180
000001a0: 9cef 0180 0f40 0500 7498 0380 9154 0200
000001b0: d4b0 0200 ab1e 0480 1d9a 0280 aded 0100
000001c0: aa1c 0800 b227 0700 2810 0500 d23a 0600
000001d0: 4cfa 0300 ac69 0580 70a6 0100 07ea 0300
000001e0: 4e14 0700 9b6b 0000 57e2 0700 a07d 0700
000001f0: 719b 0200 86e4 0180 33af 0600 ec77 0200
00000200: 31d3 0780 24e1 0300 5646 0300 26c9 0280
00000210: 0d6b 0400 8757 0080 9cac 0600 a9dd 0000
00000220: 1875 0480 92dd 0700 9d1c 0100 b879 0500
00000230: 7e75 0500 f87b 0200 62d7 0000 19fa 0280
00000240: 77dc 0400 6ec6 0280 c3b0 0480 288e 0180
00000250: 7525 0800 e7b8 0480 7e06 0580 2949 0800
00000260: 3c50 0180 faa3 0300 50df 0700 9052 0480
00000270: 03e0 0780 9404 0480 1b80 0780 a43f 0680
00000280: 2407 0200 da7c 0600 2bf3 0500 a905 0580
00000290: e98f 0180 4401 0300 e64d 0500 5e49 0180
000002a0: dc21 0680
7.37729e-40 -6.6528e-40 7.17655e-40 -7.20406e-40 4.76e-42 -3.25526e-40 -3.59471e-40 -2.36946e-40
-6.83546e-40 -6.69425e-40 3.41648e-40 4.18328e-40 3.81736e-40 7.34762e-40 -3.3008e-41 7.08334e-40
1.4796e-41 2.47818e-40 -3.11011e-40 -3.88018e-40 5.66643e-40 3.6543e-40 -1.0147e-41 -4.24813e-40
-7.21723e-40 6.65416e-40 -4.21072e-40 5.25488e-40 -6.9598e-41 7.14962e-40 -7.4753e-40 1.4711e-41
1.9433e-41 -7.4838e-40 1.01038e-40 -9.3922e-41 3.423e-40 7.6446e-40 -1.47646e-40 3.1746e-40
-3.79196e-40 7.00949e-40 -2.60133e-40 4.775e-41 7.28438e-40 3.70768e-40 -6.72818e-40 5.13109e-40
-6.92097e-40 -2.34764e-40 -5.04802e-40 -3.79047e-40 -1.345e-40 1.50002e-40 7.34217e-40 1.19511e-40
-3.7547e-40 6.39634e-40 -4.41021e-40 3.44568e-40 3.3093e-41 7.70518e-40 -1.59237e-40 1.9816e-41
7.21601e-40 7.6128e-41 -1.02219e-40 -4.39318e-40 2.51375e-40 -7.29426e-40 -3.72134e-40 -3.23519e-40
-3.64963e-40 4.02381e-40 -2.36447e-40 -3.00766e-40 7.65536e-40 -5.19035e-40 -6.4728e-40 -4.948e-40
6.41933e-40 7.07053e-40 4.6526e-41 1.56348e-40 5.76018e-40 -3.22401e-40 6.296e-40 7.16904e-40
-4.77903e-40 1.80281e-40 -7.57742e-40 -2.02738e-40 -3.20459e-40 1.40221e-40 -6.39415e-40 1.54698e-40
6.81117e-40 -6.94668e-40 5.17696e-40 2.66767e-40 6.65492e-40 7.51987e-40 5.62923e-40 -1.4884e-40
-1.77791e-40 4.82157e-40 -3.30196e-40 2.14008e-40 2.47105e-40 -3.78344e-40 -2.38956e-40 1.77098e-40
7.44967e-40 6.57088e-40 4.64973e-40 5.72114e-40 3.65296e-40 -4.97085e-40 1.51542e-40 3.5946e-40
6.50132e-40 3.8602e-41 7.24044e-40 6.87914e-40 2.39433e-40 -1.73814e-40 6.13863e-40 2.26691e-40
-7.1861e-40 3.56272e-40 3.00738e-40 -2.5583e-40 4.05745e-40 -3.1399e-41 6.12934e-40 7.9517e-41
-4.09347e-40 7.22333e-40 1.021e-40 5.02842e-40 5.01326e-40 2.28143e-40 7.7265e-41 -2.73389e-40
4.4643e-40 -2.54854e-40 -4.30752e-40 -1.42832e-40 7.48121e-40 -4.33672e-40 -4.61506e-40 7.60929e-40
-1.20618e-40 3.3433e-40 7.22958e-40 -3.9696e-40 -7.23209e-40 -3.68984e-40 -6.88804e-40 -5.73843e-40
1.86233e-40 5.95801e-40 5.4641e-40 -4.61208e-40 -1.43461e-40 2.7596e-40 4.87122e-40 -1.18155e-40
-5.6316e-40

bias f4 [13]
00000000: ddaf 6c3e f80f 41bd e1ca 1e3c 93ce aa3c
00000010: 8897 893e 373a 413e 9ae9 7dbd 4c0e 0dbe
00000020: bee3 593e 829d 53be e3af 6c3e 1b87 07be
00000030: 5535 b9bc
0.23113962 -0.04713437 0.009691925 0.020850455 0.26873422 0.18869863 -0.061990358 -0.13774985
0.21278283 -0.20665553 0.2311397 -0.13235132 -0.022608439

weight f4 [32, 13]
00000000: 3d3d 89be 611a 92be 9e37 043e f1a6 3c3e
00000010: afba 433e b19f 863e f4fa 9fbd dc94 5c3e
00000020: d3c5 283e a5f8 313e 4bb6 733e 2100 02be
00000030: 0b27 01be 2030 6ebc 45ac 143e b57b 48be
00000040: cfe4 67be 453c b83d 0dd6 2abe 679e 53be
00000050: 07ce 423d dcd2 10bd 8533 6bbe 0a60 d13c
00000060: 412b 5dbd b98e 94bc a102 94bd 5143 ca3d
00000070: cbb8 4abe b5e3 2ebe 299c 6e3e 75ef 563e
00000080: 9dcf 693e 200b c43d 4c90 033e 9819 4dbd
00000090: b26d e23d c2e5 9bbd 6248 db3d 07c0 25be
000000a0: 7452 083d 00b7 833e 8552 023e ae2a 6ebe
000000b0: 0b40 0fbe 7ada 163e a2b3 333e dd5d 11be
000000c0: 017d fe3c beb8 813d 9e25 a23d 9b82 3a3e
000000d0: 1f2f 693e 8288 1e3e aaff bb3e a711 8f3b
000000e0: 791f 90bd 29ca 8a3d d025 1bbc ce27 19be
000000f0: 6fa0 073e 687d 9cbc 50f9 0c3e 41b0 9c3c
00000100: f3bb 01be d1fc 8b3e f230 04bd 59e6 ae3e
00000110: 262d a5bd 9d95 ab3e a90f 5d3d 3459 b23d
00000120: 75fc 323e db02 50be 3d2d 46be aceb 71be
00000130: 6153 17be d401 91bb 621a 91be 60b0 103e
00000140: 6186 2e3e 33c7 9f3d 518b 203c 8866 19be
00000150: 334f 3f3e 18e5 4abe 3c07 9cbd 707e cdbd
00000160: 78a7 fd3c c4ff c53b caca 5f3e 3f50 de3d
00000170: 6136 673e 371f f0bd 920c b53d fd41 a1bd
00000180: e022 36be 03d4 75be 3236 d0bc 4185 2b3e
00000190: b78b 043e 4919 f83a e836 643d bea6 80bc
000001a0: 22ad a03e 5d30 7c3e ced9 8bbd 3eb8 58be
000001b0: 3248 073e 3e69 ec3d 2f6e 6fbc 4734 8e3b
000001c0: 4054 463e 825c 0a3c ddef 16be d759 ed3b
000001d0: 52dd 573e 90a6 b83c 7a78 01be 1cdc f9bd
000001e0: e42b 62be 0199 723e 79f6 edbd 4b01 563e
000001f0: 2f37 f23d 1eb1 31be 59e0 6bbe 8b92 f23d
00000200: e1f5 9d3d c43a 6c3d 412f 313d 70ef 553e
00000210: dd1d 9fbe 71ef 23be 9a3b 3a3e 66b3 4bbe
00000220: 40bf d43d 4640 9b3d 6b27 3dbe 2e65 06be
00000230: c7eb a03d 307b cabc db49 da3d c2d6 92be
00000240: 31a6 5b3e d146 f23c d8e0 bbbc 8a77 99be
00000250: d8ec 0bbe 4821 293e 108a e3bc f0d7 fb3d
00000260: 187d bf3d 88f2 53be 96d1 ae3d 3cee cd3d
00000270: 42e6 b33d f8c4 863e 6970 fdbd 7e0d a5bb
00000280: 8d1a 75bd 679d c2bd dc24 713e 0a04 9a3c
00000290: 6563 aa3d 39a7 103e a911 5f3e bd5e 1fbc
000002a0: c32b 6bbe edf3 6f3e 539a 24be 6eba a2be
000002b0: c5e0 48be 4dfe a6bc 0f58 133e 8421 463c
000002c0: ace3 7dbe 9405 78be 59b9 a43b 8aca 2b3d
000002d0: a42f 1a3d 5961 f63d 230f 5c3e b931 193e
000002e0: 91f2 68be a572 0dbb 7c50 243e de28 09be
000002f0: 392f cf3d 3658 6cbe 0122 843d 9487 353d
00000300: b421 563e cf87 a93c 7053 81be fcae aebd
00000310: 700a 26be 025f ad3d 1d36 ba3d db65 533d
00000320: 8c49 27be 4ad0 8d3e e559 3c3e 13bb 463d
00000330: 02aa 54be 7511 56bd 3750 083e ea55 033d
00000340: 7f49 7c3e 25de 283e a4f3 52be f2a0 373e
00000350: 04bf 643d 3d18 6fbd e2e0 2a3e c20b c0bb
00000360: 7445 0f3e 3ffe d23d c561 9fbd b732 3e3d
00000370: 0b08 2cbe eeba 9b3e eb31 123e 043b 183e
00000380: 5bd6 593c 6451 ccbd 9aba d3bd e74c 633d
00000390: 8b03 6dbe b233 64bd 7653 3a3e eb0d 4abd
000003a0: 2bf0 49be a3d1 913e 724a 9c3d d24d 7dbe
000003b0: 3472 d2bd 960d 1bbd e8ff 84be d202 4e3d
000003c0: 7c74 223e 951f 3fbe ea7a 1c3e 2ded 04be
000003d0: ee67 953d 1315 273e 886f 043e 5c67 9d3e
000003e0: 920b 0b3e b041 60bd ba16 8c3d 40ff 86bd
000003f0: 9ad2 693e 68ae 87be c0bb eeb9 b69a e23d
-0.26804534 -0.2853575 0.12911841 0.18423058 0.19114183 0.2629371 -0.078115374 0.2154116
0.16481714 0.17380007 0.23800008 -0.12695362 -0.1261255 -0.014537841 0.1451884 -0.1957844
-0.22645877 0.089958705 -0.16683216 -0.20665894 0.047559764 -0.03535734 -0.22968872 0.02555849
-0.05399633 -0.018134462 -0.07227064 0.09876121 -0.19797055 -0.17079051 0.23301758 0.20989783
0.22833104 0.095724344 0.12848014 -0.050073236 0.11056079 -0.07612182 0.10707165 -0.16186534
0.03328176 0.25725555 0.12726791 -0.23258469 -0.13989274 0.1473178 0.17548993 -0.14195962
0.031065466 0.06334065 0.07917331 0.18213885 0.22771882 0.15481761 0.36718494 0.004366118
-0.07037253 0.0677684 -0.009469464 -0.1495659 0.13244794 -0.019102767 0.1376698 0.019127013
-0.12669353 0.2734132 -0.03227324 0.34160116 -0.08065252 0.33512583 0.053970013 0.087084204
0.17479117 -0.2031359 -0.19353195 -0.23625058 -0.147779 -0.0044252668 -0.2834044 0.14129782
0.17043449 0.07801666 0.009798841 -0.14980519 0.18682556 -0.19813955 -0.07618567 -0.10033882
0.030963644 0.0060424525 0.21854702 0.108551495 0.22579338 -0.11724704 0.08840288 -0.078739144
-0.17786741 -0.24006657 -0.025416467 0.16750051 0.12943922 0.0018928434 0.055716425 -0.015704509
0.3138209 0.24627824 -0.06828652 -0.21164033 0.13211134 0.11543511 -0.014613672 0.004339728
0.19368076 0.008444907 -0.14739938 0.0072433758 0.21080521 0.02254036 -0.12643614 -0.12200186
-0.22087055 0.23691179 -0.116192766 0.2089893 0.11826932 -0.17352721 -0.230348 0.11844357
0.07712913 0.05767323 0.043257955 0.2089212 -0.3107747 -0.16009308 0.18186799 -0.19892654
0.103880405 0.075806186 -0.18472068 -0.13124534 0.07857471 -0.024716944 0.10658618 -0.28679472
0.21450116 0.029574784 -0.022934362 -0.29974014 -0.13664567 0.16516602 -0.027775794 0.12297046
0.093500316 -0.20697987 0.08536069 0.10055205 0.087841526 0.2632215 -0.12374956 -0.005037009
-0.059839774 -0.09502678 0.23549217 0.018800754 0.08319739 0.1412629 0.2178408 -0.009727177
-0.22965913 0.23432894 -0.16074495 -0.3178286 -0.19616993 -0.020384932 0.1438906 0.012092952
-0.24793881 -0.24220878 0.005026978 0.041941203 0.03764309 0.12030286 0.21490149 0.14960374
-0.22748782 -0.0021583226 0.16046327 -0.13394496 0.10116429 -0.23080525 0.06451798 0.04431875
0.20911294 0.020694641 -0.2525897 -0.08529469 -0.16214919 0.08465387 0.090923525 0.05161081
-0.1633665 0.27697974 0.18393667 0.04851825 -0.20767978 -0.052262742 0.1331185 0.032064356
0.24637412 0.16490991 -0.20600754 0.1793249 0.05584623 -0.058372725 0.16687348 -0.0058607766
0.13991338 0.103024 -0.0778232 0.046435084 -0.16799943 0.30416054 0.14276855 0.14866263
0.013295735 -0.099764615 -0.10338326 0.05549326 -0.23145883 -0.055713363 0.181959 -0.04932968
-0.19720523 0.28480253 0.07631387 -0.24736717 -0.10275689 -0.037854753 -0.2597649 0.05029566
0.15864748 -0.18664391 0.15281263 -0.129811 0.07295214 0.16316633 0.12933171 0.3074292
0.13578632 -0.054750144 0.06840272 -0.06591654 0.22834244 -0.2650025 -0.00045534782 0.11064665

bias f4 [32]
00000000: aae7 543e 7e9c 7bbe 98c3 00bd 6c33 373d
00000010: d74d 9bbd a867 89bd 2630 d0bd c327 2fbe
00000020: baa0 da3d 0005 1d3e daa5 193e 320b 4bb9
00000030: 004f 10be ffb5 173c 40a1 c53d 3122 1c3e
00000040: 0cd6 4237 6cd2 a03d 7a52 4d3e 7e5c 313e
00000050: 963a 15bd c2bc 53bc d381 5dbd 44d3 33be
00000060: 012c 2abd 73fd 213e 9721 0fbe dbc8 c0bc
00000070: 4130 fe3d a0a6 d63d 0120 3c3e 350d 5bbd
0.20791498 -0.24571416 -0.031436533 0.044726774 -0.07583206 -0.06709224 -0.101654336 -0.17105012
0.106751874 0.15333939 0.15004674 -0.00019363759 -0.14092636 0.0092597 0.096498966 0.15247418
1.1613138e-05 0.07852635 0.20050994 0.17320439 -0.036432825 -0.012923421 -0.05407889 -0.1756106
-0.04154587 0.1581934 -0.13977657 -0.023533275 0.124115475 0.10481 0.18371584 -0.053479392

weight f4 [32, 64]
00000000: cbcc 5f3c 203e c63d 2c7e 823c 05a5 b13c
00000010: 28a0 bbbd ca97 9e3c 1d6c d43d d09a 95bd
00000020: 7953 473c 32ff b03d 6e63 e5bd f7e3 ad3d
00000030: d948 bb3d 3ca3 8f3d a901 cbbc 257a abb9
00000040: 0cca 883c 23a5 c73d 743f debd e8da c3bb
00000050: 3bd2 4e3c f38c af3d a12f 36bd 75cb a9bd
00000060: 231d c03d f327 8abd 58d6 14be e300 a43d
00000070: c8a2 a03c 353a 063d e7a1 ca3c b031 bebd
00000080: e23e acbd 13a7 1abd 12cb 34bd 17f3 a0bb
00000090: 7c33 a2bd 647a 833d 0da7 0fbd 5864 02bd
000000a0: 998f 683d 59e7 8dbc 62b4 543c b30e 803d
000000b0: 37ce 16be 9bc4 c8bd f53c c03d 9396 923d
000000c0: 4e00 193d b74a 933d 00ba adbb ae8d ea3c
000000d0: 7972 813d 88af bfbd 09e2 03be 171e 833d
000000e0: df12 1cbd 3428 e93c eefe 01be b580 63bd
000000f0: 8c67 10bd 1214 ffbc 0beb 75bd 1378 f9bd
00000100: 480a a33d f122 f1bd d422 94bc b134 6dbd
00000110: fcb2 7abc d27f 8d3d 264d bb3d e2dc 2e3c
00000120: e373 aebd c197 8dbd 68df 34bd 53f6 68bd
00000130: 0f98 ccbd 9250 82bd 9f50 52bd 58f7 1a3c
00000140: abf7 9fbd 1c8b 843d 25c2 c03d 03dd 0bbc
00000150: 9dfb 933d d152 793d 2e6e 1c3b 87ce bcbd
00000160: e7df 693d 2619 783d 40e5 a63c 4092 3cbd
00000170: f4ea 30bd fa60 82bc f411 c13c b64d 72bd
00000180: 1082 b3bd 4cc6 273d 73b8 2dbd 9305 e4bb
00000190: 25ba a93d a94d 953d fb35 bfbd 8af1 9d3c
000001a0: 496f 573d 93b7 033c 720b 55bd f168 0a3d
000001b0: e2c1 cb3c 81fd c8bd 2386 b2bd 0116 373d
000001c0: e63f 21bd a81b 9eba 4ecc 92bd ba2a 5f3d
000001d0: 637a a83d 7299 8bbd 98c9 643d 0c1b ac3d
000001e0: c22a 6c3c e010 303c d2bc 65bd 7fcb 51bd
000001f0: 1691 1ebe ccb9 f1bd 765a c3bd 5b4c f3bd
00000200: 9874 ba3d f237 cbbb 9093 153d d882 0dbd
00000210: d93a 90bd d0c0 033d 8bf7 bcbd 9516 4bba
00000220: e143 b7bd f657 95bd bb34 993a f6df 183c
00000230: b7bb c2bd 06ed 2bbc 67f2 b7bd 225c e13c
00000240: 9c3a 80bd 01df 12bd 8934 1f3d a4c0 88bd
00000250: c1c0 60bd 5217 c6bd 043b 6fba a026 07bc
00000260: 6683 f5bd dc0c c73d 72e7 963d a20b 66bc
00000270: a53b a93c 4032 c1bd 2608 80bc e1da 983d
00000280: 0889 7ebd 9509 f83d 501d 52bd 22b7 3b3a
00000290: 6d5b 343d 198b 363d 2b72 463d 8ec8 3b3c
000002a0: f06b 96bd 56ec efbd 1bdc bd3c 8997 3bbd
000002b0: 11f8 083e 5c5c e3bc a6f2 48bd 9cb5 633d
000002c0: ba27 53bd dd4b 2cbd 76d2 95bd f4c1 ecbd
000002d0: cebc 33bd 5bce e13d 7c9f d63d deae 263c
000002e0: 3165 fd3b 7832 0ebd 4554 d8bd 6356 cf3d
000002f0: 9af6 eb3b 8ff7 bb3b ea81 173c b8ee 42bd
00000300: b221 d13d a17b a3bd 9304 b73c 06a3 a3bb
00000310: 80e9 483c 150b ee3c 44b2 3bbc eeee 9abd
00000320: cf6d b9bd ab12 aebd 2a17 8d3d 95a0 743d
00000330: 1f3e a03d 7c70 2b3b 9dbe e0bc d559 0abe
00000340: d365 9b3d 6cfd 323d 5c71 203d c6f4 ad3d
00000350: da1f c0bd 78ee fabd 7741 f13c 8f94 4ebc
00000360: ded8 763c 7bde bb3c fa6f 183d 39dd 003e
00000370: 72f2 0ebc 2ef8 66bc 4abc b93b cf8d be3d
00000380: 46e2 d839 2d64 1dbd 2118 453c 2086 523d
00000390: 64a1 f53c 4e9c e5bd 35f3 43bd 5f5e f73c
000003a0: 105c d7bc 5803 093c 69b4 4bbd 1e9a 4a3d
000003b0: 5ef9 e63b f6d5 213d 2727 4c3d 4601 94bd
000003c0: 54cb 233c 5c16 4cbb e908 803c ad29 2ebd
000003d0: 4728 82bd 93b7 d7bd d69c bd3d cb80 8dbd
000003e0: d20b f7bd 3fe7 153d e383 26bd 284b 9d3c
000003f0: 43c5 1f3d c228 edbd 6a4c d1bd 58c0 e33c
0.013659666 0.09679818 0.015929304 0.021685133 -0.09161407 0.019359488 0.103721835 -0.07304919
0.0121658975 0.08642425 -0.11200605 0.084907465 0.09144754 0.07013556 -0.024781065 -0.00032706666
0.016697906 0.09748294 -0.108519465 -0.0059770234 0.012623365 0.08571806 -0.044479016 -0.082907595
0.093805574 -0.06745901 -0.1453489 0.08007982 0.01960887 0.032770354 0.024735404 -0.09286821
-0.084104314 -0.03775699 -0.044138975 -0.004911791 -0.07919976 0.064198285 -0.03507142 -0.031833977
0.05677757 -0.01732223 0.01298246 0.06252804 -0.14727102 -0.098031245 0.09386627 0.07157626
0.037353806 0.07191985 -0.005301714 0.028632011 0.06320662 -0.09359652 -0.12879194 0.064022236
-0.038103934 0.028461553 -0.12694904 -0.055542666 -0.035255 -0.0311375 -0.060038608 -0.121811055
0.07960945 -0.11774243 -0.018083014 -0.05791158 -0.015301462 0.069091454 0.09145574 0.01067278
-0.085181974 -0.069137104 -0.04415837 -0.056875538 -0.099899404 -0.06363024 -0.051346418 0.009458385
-0.07810911 0.064718455 0.0941203 -0.00853658 0.07225726 0.060869996 0.0023869383 -0.092190795
0.057098296 0.06057086 0.020372987 -0.046037912 -0.04319282 -0.015915383 0.023568131 -0.059156142
-0.08765042 0.040960595 -0.042412233 -0.0069586723 0.082874574 0.07290203 -0.09336468 0.019280214
0.052596364 0.008039373 -0.05201287 0.033791486 0.024872724 -0.09813977 -0.08716991 0.04469872
-0.03936758 -0.0012062686 -0.07167874 0.054484107 0.082264684 -0.06816377 0.055856317 0.08403596
0.014414491 0.010746211 -0.056088276 -0.05121946 -0.15485033 -0.11803016 -0.095387384 -0.11879798
0.0910427 -0.0062017376 0.03651768 -0.03454861 -0.07042474 0.032166302 -0.092269026 -0.00077472004
-0.08948494 -0.07292168 0.0011688689 0.00933074 -0.0950846 -0.0104935225 -0.089817815 0.027509753
-0.06261179 -0.035857204 0.03886846 -0.06677368 -0.054871324 -0.09672417 -0.00091259205 -0.008248955
-0.11987953 0.097192496 0.073683634 -0.014040859 0.020658324 -0.094334126 -0.015628885 0.07463623
-0.062142402 0.121112026 -0.051297486 0.0007160773 0.044032503 0.044566248 0.048448723 0.01146139
-0.07344806 -0.117149994 0.023176244 -0.045798812 0.1337588 -0.027754001 -0.049059533 0.055593118
-0.051551558 -0.042064536 -0.07315533 -0.11560431 -0.04388123 0.11025687 0.10479638 0.0101735275
0.00773301 -0.0347161 -0.10562948 0.10123899 0.007201028 0.0057362984 0.0092472825 -0.04759094
0.10211505 -0.07982565 0.022341048 -0.004993799 0.012262702 0.029058019 -0.011456076 -0.075651035
-0.090541475 -0.084996544 0.06889184 0.059723455 0.07824349 0.0026159575 -0.027434641 -0.1351083
0.07587781 0.043698713 0.039170608 0.084939525 -0.09381075 -0.122525156 0.029450161 -0.012608661
0.015066354 0.022933235 0.037216164 0.1258439 -0.008724796 -0.014097257 0.0056681978 0.093043916
0.00041367317 -0.038425613 0.012029679 0.051397443 0.029984184 -0.112114534 -0.047839362 0.030196367
-0.026289016 0.008362614 -0.0497326 0.049463384 0.00704877 0.03951069 0.049842026 -0.072268054
0.009997208 -0.0031141257 0.015629249 -0.042520214 -0.063553385 -0.10533061 0.0925843 -0.06909331
-0.120628014 0.036597487 -0.04065312 0.019200876 0.039006483 -0.115800396 -0.10219653 0.027801678

bias f4 [32]
00000000: 45f4 c4bb ad00 f7bd 2bd7 67bd bae2 373d
00000010: b6c2 0bbd 57fe b63d 4351 54bd d9db 4c3d
00000020: 23d4 acbd 2546 963a a6bb 9a3d d6ab 2c3c
00000030: bf97 7a3d bdc5 b6bc 8cdf 803d 673b b23d
00000040: 1db2 3abd 4b6e 363d cac3 513d 2369 a03d
00000050: b4ff 693d 4247 cebd 8d7b 30bd f660 843b
00000060: 8452 f33b d223 0b3d ab93 36bd 33fe 0ebd
00000070: 644a 443c 3795 063a 6dc3 55bd daf9 d9bc
-0.0060105645 -0.12060676 -0.056601685 0.044893958 -0.034121238 0.0893523 -0.05183531 0.05001435
-0.08438899 0.0011464996 0.07555322 0.010539016 0.061179873 -0.022311086 0.06292638 0.08702736
-0.04558002 0.044538777 0.05121211 0.07832553 0.057128623 -0.10072185 -0.043086577 0.004039879
0.007425608 0.033969708 -0.04457442 -0.034910392 0.011980627 0.0005133929 -0.052188326 -0.026608396

weight f4 [32, 32]
00000000: 7ffd ef3b 2768 8f3d e0bf acbd a5db 023c
00000010: ed8c b73c 62ad 933d b14c d7bd 731c 47be
00000020: 0ae1 e6ba 9ced 7e3b f483 993c 7e89 99bc
00000030: 92da 693c 7c6f ca3d 995e 603d 0d2a 36be
00000040: cfb4 0b3e 35f8 62be 3f7d 88bd f695 063e
00000050: 4aaf b5bd a3f8 913d a1e2 0abe 4f62 c53d
00000060: 8b49 92bd 15a7 fcbd 6e70 c7bd 0b86 86bd
00000070: ff3d 663c 9894 fabd b015 32bc f70e 0fbe
00000080: 47e9 913d 6942 c13d 0440 86bd 0a0b 9dbd
00000090: aa57 95bd 6d03 ebbc cc79 dd3d c920 143d
000000a0: 471a ff3c d54c e3bd 4419 543d 84d4 44bc
000000b0: daed 963d e42b b6bd 0be5 ce3d 442b f0bc
000000c0: 8d0d b0bc 3bf7 60bd ea2a d9bd 93b5 86bd
000000d0: d76c b6bb 44b2 b6bd 8b56 0d3d 58e7 3c3c
000000e0: 3473 d03b 6e70 e43d 619a 3dbd 50da 453d
000000f0: 0f95 0b3e 53a5 e13d d034 9c3c 8997 50bd
00000100: e1b5 db3d 3bf7 0bbd 00f5 f13c df92 35bc
00000110: 0b79 e73b 56d6 b13c cf0e d6bd ba52 adbd
00000120: 120e 6fbd 35be 823d 2df8 e33d 81fc 82bd
00000130: cba5 6abd 5e54 023d 221f 103e 510e 48bd
00000140: 225e e33c 88b6 6ebd bc95 743d d75a 0bbe
00000150: d65e 8d3b 172c db3c e642 51bd f42b d93d
00000160: fcd2 96bd 3b30 7b3d d427 c3bd dd51 a13d
00000170: f43d 18be 4d2a 8f3d 3f5c 8e3c af4f 86bc
00000180: b8b8 8bbd 178b 803d 88e4 893d 68c8 103e
00000190: cf1f 26be bc6f e43d b944 b63d 7ffb 473d
000001a0: 895f 7abc 52ed 82be b13b 1f3d f4e0 07be
000001b0: af06 88bd 49da bfbd 1637 013c 6ca1 d6bd
000001c0: 3e71 abbd 6e29 a1bd 03f1 ce3d 536e c7bd
000001d0: f099 643d 6b3f 273e 924d 783d 3667 9f3c
000001e0: 9f8c c7bd 5f3e 4a3d b75f 283d 17ae f13d
000001f0: 3d9b 0b3e b00b e7bd b181 a2bd cafc 743d
00000200: 3ffa 253d 4862 253e fb26 bcbd a9c0 f5bd
00000210: 6d86 dbbd e6c9 9ebd 8ead 0ebe 95a0 a0bc
00000220: 2354 163d 632d 8a3d 313f 80be 0de0 0cbe
00000230: 1b36 cabd d19e 92bd eb3e abbe 000b b0bd
00000240: 6fe4 143e 1c62 2b3c 12bb 37be b09d 793d
00000250: 9216 8b3d e526 8b3d 33cd 0d3e 85cd f2bc
00000260: 1b67 98bd 5e69 adbd 63a7 b3bd 178a 34be
00000270: b2e0 22bc 5b75 01bd 2ed0 24be ce02 d1bc
00000280: eb0f ffbc 9e78 ed3d 149a dc3c 0ff0 413e
00000290: ebb1 7e3d ade6 efbd a20f f8bd 4aea 8d3d
000002a0: 3d46 99bd 57a5 41bd bb7c e2bd 7085 3c3d
000002b0: 134f a8bd 0009 e33d e0a4 a4bd 51b0 9a3d
000002c0: df16 583d a3f3 513d 62bc 96bc 6d53 a0bd
000002d0: 9196 573c ed62 493d 72da 943d c5fb 6c3d
000002e0: 0802 563d 6056 1f3c c784 d33b 71a3 14be
000002f0: 5027 94bb 8ad8 023e 7814 86bd f96e b13d
00000300: b599 0b3d d4ec eabc d1d0 323c e9e6 2ebe
00000310: 5bc7 06be 72bc 123d 22f4 e23d 8c19 dc3d
00000320: 7804 2abd 66c4 a2bd dcbd f63c e43d 273d
00000330: bb6b a6bc 699d b9bd c790 17bd 2e41 083e
00000340: 705f 1d3d 5dc9 79bd 6794 36bc 9af7 753d
00000350: c7bd de3d 0ef0 75bd ad3d c0bb 5e2b 803d
00000360: 9a7c 043e c036 3f3d 9fd3 47be f301 ea3c
00000370: e7e2 8c3d a2f0 bbbd e3e9 ecba dc88 d23d
00000380: 5686 c63c bb42 19bd 957e 023d 86ed 3abd
00000390: 52ee 23be 5c68 0cbc 9a2f 1d3d 9829 1dbe
000003a0: b7af 1c3e 3fb7 3b3d fbdf 33bd da62 a53d
000003b0: 01d0 883d 6679 0a3e 74cd e7bd ad3e 08be
000003c0: b91c 0a3d a730 5bbd 8577 e7bd be3a 1cbd
000003d0: f641 b7bd 7154 a73d 40bf 8d3d dbde 093e
000003e0: 4dc7 633d 3ca5 81bd fa9d a5bd 6e35 fd3d
000003f0: 130c 77bd 741b 89bd 161e c33d d50a 053d
0.0073239203 0.07002287 -0.08435035 0.007986938 0.022406066 0.072108045 -0.105126746 -0.19444446
-0.0017614674 0.003889895 0.018739678 -0.01874232 0.014273303 0.09884545 0.054777715 -0.17789479
0.13643192 -0.22164996 -0.06664514 0.13143143 -0.08871324 0.07127502 -0.13563015 0.096378915
-0.071429335 -0.12336556 -0.09738241 -0.065685354 0.014052867 -0.12235373 -0.0108694285 -0.13970552
0.07124572 0.09436495 -0.06555179 -0.07668121 -0.07292111 -0.028688157 0.108142465 0.03616408
0.03114046 -0.11098639 0.051781908 -0.012013558 0.07369585 -0.0889509 0.1010228 -0.029317506
-0.021490837 -0.054923277 -0.10603888 -0.06577601 -0.005567174 -0.0892072 0.034506362 0.011529766
0.0063613895 0.11154257 -0.046289805 0.048303902 0.1363108 0.11017861 0.019068152 -0.050925765
0.1072805 -0.034171324 0.02953577 -0.01108238 0.00706399 0.021708649 -0.10452043 -0.084630445
-0.058363028 0.06383935 0.1113132 -0.063958175 -0.05728702 0.03181874 0.14074376 -0.04884178
0.027754847 -0.058279544 0.05971311 -0.13608871 0.004314284 0.026754422 -0.05108919 0.106040865
-0.07364461 0.061325293 -0.09529081 0.07876942 -0.14867383 0.0699049 0.01737797 -0.016395418
-0.06822342 0.06276529 0.06733042 0.14138949 -0.16223072 0.11154124 0.088998266 0.04882383
-0.015281566 -0.25571686 0.038875286 -0.13269407 -0.066419 -0.093678065 0.007886669 -0.104800075
-0.083712086 -0.0786923 0.10104563 -0.097378395 0.05581087 0.16332786 0.06062085 0.019458394
-0.09743618 0.049375888 0.041106906 0.11800783 0.13633437 -0.11281526 -0.07934893 0.05981139
0.040521856 0.16150773 -0.091871224 -0.11999638 -0.10718999 -0.07753353 -0.13933393 -0.019607821
0.036701333 0.06746938 -0.2504821 -0.13757344 -0.09873601 -0.07159198 -0.3344644 -0.08595848
0.14540266 0.010460403 -0.17942455 0.0609414 0.06791414 0.06794528 0.13847809 -0.029639015
-0.07441541 -0.08467363 -0.08772161 -0.17630802 -0.009941267 -0.03160606 -0.16095039 -0.025514033
-0.03113552 0.115952715 0.026928939 0.18939231 0.062181395 -0.1171392 -0.12112357 0.06929453
-0.074841 -0.04727682 -0.11058947 0.046025693 -0.08218207 0.11085701 -0.0803926 0.07553161
0.052756187 0.05125774 -0.018400375 -0.07828412 0.013158456 0.04916661 0.07268228 0.057857294
0.05224803 0.009725183 0.0064550373 -0.14515473 -0.004521288 0.12777916 -0.06546873 0.086637445
0.034082133 -0.028677382 0.0109140435 -0.17080273 -0.13161986 0.035824247 0.11081721 0.1074706
-0.041508168 -0.07947616 0.030119829 0.040830508 -0.020315042 -0.09063227 -0.037003305 0.13306114
0.038421094 -0.06098305 -0.01114378 0.060050584 0.10876041 -0.060043387 -0.0058667273 0.06258272
0.12938157 0.046683073 -0.19514321 0.028565383 0.06879216 -0.091767564 -0.0018075075 0.1028001
0.024233978 -0.037417155 0.031859 -0.045636676 -0.1600888 -0.008569803 0.038375475 -0.15347898
0.15301405 0.045829054 -0.043914776 0.08075495 0.066802986 0.13522872 -0.11318484 -0.13305159
0.0337188 -0.053513195 -0.113020934 -0.03814196 -0.08948128 0.08170403 0.06921244 0.13463919
0.05560999 -0.06330344 -0.08086772 0.123637065 -0.06031425 -0.066946894 0.09527223 0.032481033

bias f4 [32]
00000000: 8743 b6bc 04fa aa3c fce2 263c b712 70bd
00000010: f9f8 6bbc 2606 b23d 43f2 a0bd 992c cc3d
00000020: 7053 8f3d 09f1 02be a2c7 143c 25a4 713c
00000030: 381f 2bbc b8d8 ee3c 0930 d13c ad39 6d3d
00000040: 569f c03b 535c 7d3b e510 423c c401 07ba
00000050: cf00 ad3c a358 65bc 69d8 283d b27d 613b
00000060: 7c7d 9a3d fd7f 3a3b 6896 30bd e263 873c
00000070: db7c 373c e8ef 8abc 3a27 113d b52c 263d
-0.022248996 0.02087117 0.010185953 -0.058611598 -0.014402621 0.08692579 -0.07858708 0.09969444
0.06998336 -0.1278726 0.009080799 0.014748608 -0.010444455 0.029156074 0.0255356 0.057916332
0.0058783693 0.0038659766 0.011844848 -0.00051501044 0.02111855 -0.013998183 0.04122201 0.0034407196
0.075434655 0.0028457635 -0.04311219 0.01652712 0.011199201 -0.0169601 0.0354378 0.04056998

weight f4 [32, 32]
00000000: 7363 61bd c9ed cebd 9ea5 ac3d 41b5 21bd
00000010: 2c93 cd3d 8234 07be 6e6a 9ebc 1298 303d
00000020: 4562 073e 8310 f93c d92a 86bd b813 c0bc
00000030: 5ab0 aebc e3bd 0bbd 61d9 67be 61df 0dbd
00000040: 6084 ee3d 57e0 5f3d 2907 54be e446 05bc
00000050: a155 36bd ebe1 343e 3647 dcbd d849 a5bd
00000060: b98d acbd 9b85 95bd 8e77 bcbd 03cb 64bc
00000070: 976e f13d 2459 73bd d0fe ce3d dc99 1e3d
00000080: ac0d 07bd 922f 153d b3b3 763d 96f0 f8bc
00000090: c1b1 513d a89f a0bc ae3c 8dbd 0cd2 433d
000000a0: 4dec 563b e1dc da3c 7609 02bc fa15 233d
000000b0: 9957 c6b9 0845 263c e6ea 123d a999 3cbc
000000c0: 6d29 f23c e3aa c43b 7400 833b ac20 38bb
000000d0: 6f6e 64bc 1692 743d 923a c6bb 70eb 5c3d
000000e0: c99d ec3c c534 14bd 0892 d5bb c37e ff3c
000000f0: 89a1 47bd 04d6 953d bc4f 3f3c f40f 0cbd
00000100: a5b9 9fbd 3091 78bd eff3 8e3d d682 9e3c
00000110: 293f 673c 5d49 c3bd a82b 94bd bbe8 ab3d
00000120: 84ce aebd 476c 1a3c 8bc3 7d3c be73 18bd
00000130: d34c 88bd 6e86 ffbd 83c5 03be 24b1 013d
00000140: e9e6 52bd 23ce 7f3d 7a81 1a3d 2d76 203e
00000150: d31b bebc edf6 343d 0c19 b2bd 6ae5 663c
00000160: 5282 af3d 0368 97bc 1e8f 01be cefc ecbc
00000170: e067 da3d 6727 67bd 8d02 7a3d 2375 d6bb
00000180: de27 00bd b12a e53d 03ee 40bd 4545 07bd
00000190: d15b 9ebd 9f59 a3bd 715e 3ebd e512 eebd
000001a0: 1073 8b3d 3a3a 113e 12cf 003d f9ec 82bd
000001b0: fff1 34bd c8d2 f4bb d0af 07be bec2 673d
000001c0: 6dda 92bd ef28 3b3e fa08 083e cabd 783b
000001d0: 6040 b8bc 82cc 9e3d a886 c23d 5bc4 01be
000001e0: 466e 61bd e630 45bd 5a71 58bd c1c1 27bd
000001f0: 99eb 4dbb 7552 82bc d369 24be 63db 46bd
00000200: ffc0 b93c a7dd 96bd eb52 db3d 83c0 43be
00000210: 53ef a1bd 4208 af3d 905c 48bd 0593 ae3d
00000220: 9c0e 9a3d 4b98 ae3d c5e0 0b3e b50b f13d
00000230: 2f5c cfbd 78f4 e23c 80d4 d53d 1c5c 73be
00000240: 1292 f53d e84c 5d3d 06d3 b43d 608b b3bc
00000250: 1c22 4bbe 5fa8 113e 68e6 763c 9d32 863d
00000260: bb53 02be e291 c3bb 0521 c6bd dd19 70bd
00000270: 505d be3d 4c26 09be 9ccf fd3c 8087 953d
00000280: 02e9 183c 6a6e a2bc a706 a53d d8bb 3839
00000290: 8a10 073e 1f36 b73d da86 10be f0f5 a4ba
000002a0: 5527 90bd 9092 213d 2a7e 86bd f257 fd3d
000002b0: e220 54bc 1a2b 3c3d 765d 5e3d 1b6f eebd
000002c0: 661b b5bb b5ec 37bd a13c c13d 1ede a73d
000002d0: 728e 3bbd 825c 4a3d f090 a5bd c443 8a3c
000002e0: 62e2 2e3d ef6d 89bd 7e7c 26bd 2807 4e3d
000002f0: d274 b5bc e09c 5b3e 6954 0ebd 9fff 433e
00000300: bd19 acbd de0a 97bb 17dc 193e 5f95 12bd
00000310: 72e2 8f3b 173f 09be 3705 063d 0999 22bd
00000320: a36a 223a bd8a 8abc e867 a9bd 76eb a43d
00000330: 5599 6ebc 90af 0c3c 62c4 ae3c 8f98 853d
00000340: 275a 70bd 886d 9f3d 5e0c efbd 4368 88bd
00000350: 1a79 9f3d 574b a5bd e5ae babc 1f12 233e
00000360: 0e4e 8ebd 92f3 5f3b 7386 e1bb 7cc3 0fbe
00000370: 902d 34b9 4f56 eb3d 3c35 bebd 7439 2a3e
00000380: 950c 0dbb 64ad 01be 0b26 b93c 7773 4abd
00000390: 6a3f 873d c8f5 b43c 7321 4c3d cf4d d33d
000003a0: cfa2 9e3d e57a 9f3d 0da6 843d a13e adbd
000003b0: f637 653d f3f5 1b3d ec08 0fbe 48e3 1ebe
000003c0: d294 3c3d 0d20 9b3d 8882 313e 48ea 153e
000003d0: 26cd 5d3d ce08 97bc da68 f73b 2fe0 91bc
000003e0: 8ea6 1abd 4340 683d 9817 893d 4769 123e
000003f0: e553 2dbe a22a 493d cee7 2bbb 88f8 b3bc
-0.055026483 -0.10103948 0.084300265 -0.039479498 0.100378364 -0.13203624 -0.019337859 0.043113776
0.1322108 0.030403381 -0.06551141 -0.023446903 -0.021324325 -0.034116637 -0.22641517 -0.03463686
0.11646342 0.054657307 -0.20705856 -0.008134577 -0.044515256 0.17664306 -0.1075577 -0.08070725
-0.08425469 -0.07300874 -0.09202491 -0.013964417 0.117886715 -0.059411183 0.101071954 0.03872095
-0.032972023 0.03642232 0.06022997 -0.030388158 0.05119491 -0.01960738 -0.06896339 0.04780774
0.0032794655 0.026716651 -0.007936826 0.03981588 -0.00037830768 0.010148294 0.035868548 -0.011511245
0.029560769 0.0060018166 0.0039978568 -0.0028095646 -0.013942345 0.05970963 -0.0060494626 0.05393547
0.028883832 -0.036183137 -0.0065176524 0.031188374 -0.048738036 0.07316211 0.011676725 -0.0341949
-0.07799081 -0.060685337 0.069801204 0.019349497 0.01411418 -0.09535477 -0.07234889 0.08393999
-0.085354835 0.009425229 0.015488516 -0.037219755 -0.06655278 -0.12476812 -0.12868313 0.031663075
-0.051489744 0.062452447 0.037721135 0.1567008 -0.023206627 0.0441808 -0.086961836 0.0140927825
0.085697785 -0.018482214 -0.12652251 -0.02892914 0.10664344 -0.05643406 0.06103759 -0.0065447255
-0.03128802 0.11189783 -0.047101986 -0.033025045 -0.07732356 -0.07976078 -0.046476785 -0.116246976
0.06809056 0.14182368 0.031447478 -0.06392855 -0.044176098 -0.007471416 -0.13250661 0.056582205
-0.07170568 0.18277334 0.13284674 0.003795492 -0.022491634 0.077538505 0.0949834 -0.1267256
-0.055036806 -0.048142336 -0.052842475 -0.040956262 -0.0031420945 -0.01590846 -0.16055994 -0.048549067
0.022675036 -0.073664956 0.10709175 -0.19116406 -0.079069756 0.08546497 -0.0489164 0.085241355
0.07522318 0.08525141 0.13659962 0.11769811 -0.101250045 0.027704462 0.10440922 -0.23765606
0.11990751 0.05402842 0.08829312 -0.021917045 -0.1983723 0.14224385 0.015069582 0.065526225
-0.12727253 -0.0059683183 -0.09674267 -0.058618415 0.09295142 -0.13393515 0.030982785 0.07301235
0.009332897 -0.01982804 0.080579095 0.00017617585 0.13189903 0.0894587 -0.14113942 -0.0012585502
-0.07038752 0.039446414 -0.06567033 0.1237029 -0.012947293 0.045939542 0.05428835 -0.116422854
-0.005526948 -0.044903476 0.09435392 0.08196662 -0.045790143 0.04940463 -0.08084285 0.016878016
0.042696364 -0.06710421 -0.04064607 0.050299793 -0.02215043 0.21446562 -0.03474847 0.1914048
-0.08403347 -0.0046094498 0.15025364 -0.035786983 0.004391008 -0.13402973 0.032719817 -0.039696727
0.00061956997 -0.016911859 -0.08271772 0.08052723 -0.014562924 0.008586779 0.021333877 0.06523239
-0.058679726 0.07784563 -0.11672281 -0.06660511 0.0778677 -0.080710106 -0.022788474 0.15924881
-0.069484815 0.0034172279 -0.0068824827 -0.14039415 -0.00017183111 0.114910714 -0.092874974 0.16623479
-0.0021522392 -0.126638 0.022601148 -0.049426522 0.06603892 0.022089854 0.049836587 0.10317575
0.07745897 0.07787112 0.06476984 -0.08459211 0.05596157 0.038076352 -0.13968247 -0.15516388
0.046040364 0.075744726 0.1733495 0.14640152 0.054150723 -0.018436816 0.007550341 -0.017807094
-0.037756495 0.05670191 0.06693953 0.14297973 -0.16926534 0.049112923 -0.0026230696 -0.021969095

bias f4 [32]
00000000: 009b afbc 9036 c13c c9e2 263c 83bc e9bc
00000010: 0fe8 3cbc 5ef7 fe3d db82 febd 1f7b 4fbd
00000020: 0fd3 ebbb e33c f0bd 8eaf b6bc e89e 4e3c
00000030: 1d15 98bb 5cfd d03c a44b d13c 3307 cd3c
00000040: df72 c03b ddd5 7d3b e510 423c 4601 07ba
00000050: 5224 aa3c 2b11 52bc 8f02 acbc f2e9 163c
00000060: 101b 1c3c ad50 383b c221 debc be6a 873c
00000070: d277 173c e74c c8ba 0c67 1dbd d229 993c
-0.021436214 0.023585588 0.010185906 -0.028532272 -0.011529936 0.12449525 -0.124273024 -0.050654527
-0.007196791 -0.11730363 -0.022300508 0.012611128 -0.004641189 0.025511436 0.025548764 0.025027847
0.0058730687 0.0038732209 0.011844848 -0.0005150031 0.020769272 -0.012821476 -0.020997314 0.00921105
0.009527937 0.0028124258 -0.027115706 0.01653039 0.009244876 -0.0015281708 -0.03842835 0.0186967
