train_script/weights/GANEdgeBased_model300new/146.pth (torch, 52355 bytes, 21 tensors)

weight f4 [32, 13]
00000000: 2800 0880 75be 0680 595a 0400 4ef0 0700
00000010: eb1f 0280 db49 0880 b3bd 0000 f943 0500
00000020: c819 0880 9dd9 0700 a149 0080 24a1 0780
00000030: 8bc9 0400 ff67 0700 e592 0500 8f6e 0700
00000040: 8b4c 0700 b12a 0300 78a8 0600 1a50 0380
00000050: bd67 0100 71cb 0080 83d3 0700 ff24 0280
00000060: 0c73 0180 6379 0700 1e97 0100 8252 0300
00000070: 27cd 0500 7de3 0780 d82a 0400 f9c4 0780
00000080: 98cf 0780 48ab 0300 90bd 0780 2afa 0600
00000090: 3a0c 0200 9824 0600 3b71 0380 e2bf 0600
000000a0: 1eec 0600 2f36 0880 c3bd 0080 cd4c 0780
000000b0: 2abf 0400 81b6 0400 a51e 0600 de9e 0100
000000c0: db8b 0280 0f81 0480 52cf 0780 a4df 0200
000000d0: af6c 0600 5dd2 0400 99c9 0400 a802 0500
000000e0: 6cf9 0380 d0ca 0780 280a 0400 92bb 0700
000000f0: b2d4 0100 4e01 0480 4aa6 0100 7660 0500
00000100: 42fd 0480 8895 0400 bd17 0100 268b 0000
00000110: e840 0600 ee99 0500 363c 0600 ef7c 0700
00000120: 36d6 0400 bef5 0600 4f40 0280 4fc4 0080
00000130: 263a 0080 06c4 0100 0c84 0280 0ca9 0500
00000140: 4b44 0700 c7d8 0500 bf70 0100 560b 0480
00000150: 1849 0380 0781 0680 4624 0880 8c59 0780
00000160: c5d4 0680 1fa4 0780 3bc1 0380 f7d1 0100
00000170: d2b1 0000 0988 0080 b93a 0280 74a0 0780
00000180: cc8d 0600 07da 0700 8200 0180 8d62 0300
00000190: a7ce 0480 610f 0800 6606 0400 8afe 0180
000001a0: 0f7e 0400 5552 0700 67b4 0580 3c4b 0000
000001b0: b1f4 0780 3c2b 0600 94da 0000 f358 0700
000001c0: 2621 0000 2bc1 0600 0829 0700 959a 0680
000001d0: 9703 0880 3848 0780 0679 0100 18cf 0700
000001e0: f717 0000 84c1 0600 de81 0400 0f11 0700
000001f0: 9793 0400 85d0 0080 c204 0180 d6b9 0380
00000200: ab82 0580 af13 0680 e070 0380 8b01 0380
00000210: d267 0300 58b7 0300 7a6c 0500 e805 0880
00000220: 67cb 0500 4197 0580 fdcf 0600 0a90 0200
00000230: 745f 0100 bbfd 0000 902c 0100 2cc6 0580
00000240: b2e2 0700 daf0 0780 e5cb 0180 4af5 0080
00000250: 6ae9 0600 1ed1 0700 2f46 0700 b4a2 0700
00000260: 8d7e 0700 8824 0480 4341 0600 619b 0300
00000270: d0e3 0380 09b0 0700 5910 0300 1b6a 0280
00000280: 840c 0480 6572 0080 fcad 0000 f311 0800
00000290: 3d08 0400 1eac 0080 20fd 0100 3e23 0700
000002a0: 4d36 0080 e633 0000 a119 0780 1165 0700
000002b0: cae3 0400 d010 0880 8956 0680 077a 0500
000002c0: 1a3b 0300 730a 0800 1ed9 0080 50dd 0500
000002d0: ea3d 0800 7937 0380 cce7 0300 6bb0 0680
000002e0: 466b 0580 521d 0000 8166 0700 d5ef 0780
000002f0: a183 0180 55de 0300 4a83 0480 7dd0 0400
00000300: 951e 0400 2d39 0680 8297 0400 c8a3 0280
00000310: ddea 0100 51e7 0080 38b2 0080 0761 0500
00000320: 3a4e 0780 9b8b 0580 020d 0500 6f2f 0880
00000330: fd09 0100 a07f 0380 711f 0600 49a4 0280
00000340: b847 0780 e5ff 0580 30bd 0300 a8e9 0480
00000350: c3b9 0000 48de 0780 9712 0200 5ec5 0200
00000360: 268f 0700 3369 0700 e3ab 0100 a108 0700
00000370: c0af 0600 724f 0100 6cd4 0080 a540 0780
00000380: fdb4 0500 1952 0180 cf1f 0780 ebf9 0180
00000390: 4e94 0500 eb09 0680 b7ec 0280 f612 0880
000003a0: ce00 0180 50ea 0300 c68e 0000 c872 0080
000003b0: 9bfc 0280 f4d2 0700 f89b 0400 4619 0680
000003c0: 8c2d 0000 e44b 0580 4305 0800 24e9 0780
000003d0: 1c2a 0000 c5a1 0400 989f 0000 3917 0300
000003e0: 992e 0800 a8d3 0080 497e 0100 09d2 0100
000003f0: e9ba 0680 f479 0500 18ce 0600 2991 0200
-7.3474e-40 -6.19336e-40 3.99753e-40 7.29054e-40 -1.95121e-40 -7.61178e-40 6.8051e-41 4.83561e-40
-7.43933e-40 7.20913e-40 -2.6413e-41 -7.00655e-40 4.39642e-40 6.80155e-40 5.11873e-40 6.8251e-40
6.70307e-40 2.90821e-40 6.11448e-40 -3.04242e-40 1.2905e-40 -7.2981e-41 7.18725e-40 -1.96943e-40
-1.33107e-40 6.86394e-40 1.46046e-40 3.05105e-40 5.32772e-40 -7.24456e-40 3.82711e-40 -7.13509e-40
-7.17319e-40 3.3695e-40 -7.1085e-40 6.40755e-40 1.88057e-40 5.6414e-40 -3.16126e-40 6.19848e-40
6.35716e-40 -7.54121e-40 -6.8074e-41 -6.704e-40 4.35919e-40 4.32812e-40 5.62006e-40 1.48826e-40
-2.33842e-40 -4.1364e-40 -7.17221e-40 2.63898e-40 5.90001e-40 4.42806e-40 4.39662e-40 4.6013e-40
-3.64982e-40 -7.15604e-40 3.70985e-40 7.10136e-40 1.68136e-40 -3.6781e-40 1.51489e-40 4.93781e-40
-4.58194e-40 4.20984e-40 1.00351e-40 4.9917e-41 5.74297e-40 5.14397e-40 5.72613e-40 6.87666e-40
4.44186e-40 6.39169e-40 -2.0674e-40 -7.0422e-41 -2.086e-41 1.62155e-40 -2.3104e-40 5.1982e-40
6.67347e-40 5.36943e-40 1.32281e-40 -3.71409e-40 -3.01728e-40 -5.97299e-40 -7.47696e-40 -6.74972e-40
-6.2734e-40 -7.01724e-40 -3.44825e-40 1.67157e-40 6.379e-41 -4.88e-41 -2.04737e-40 -7.00408e-40
6.0188e-40 7.21062e-40 -9.2018e-41 3.1086e-40 -4.41475e-40 7.40201e-40 3.69637e-40 -1.83147e-40
4.12563e-40 6.72384e-40 -5.23894e-40 2.6989e-41 -7.30627e-40 5.66523e-40 7.8411e-41 6.74757e-40
1.1891e-41 6.20309e-40 6.57568e-40 -6.06467e-40 -7.35972e-40 -6.68756e-40 1.3525e-40 7.1714e-40
8.597e-42 6.20433e-40 4.1393e-40 6.48968e-40 4.20287e-40 -7.4803e-41 -9.3542e-41 -3.42172e-40
-5.06052e-40 -5.58074e-40 -3.15998e-40 -2.7606e-40 3.1275e-40 3.41278e-40 4.98092e-40 -7.36803e-40
5.32144e-40 -5.13437e-40 6.25625e-40 2.35342e-40 1.26078e-40 9.1021e-41 1.07822e-40 -5.30268e-40
7.24171e-40 -7.2925e-40 -1.64979e-40 -8.7993e-41 6.34746e-40 7.17866e-40 6.68026e-40 7.01215e-40
6.88246e-40 -3.80447e-40 5.74424e-40 3.31246e-40 -3.5723e-40 7.05998e-40 2.81371e-40 -2.21734e-40
-3.71832e-40 -4.1037e-41 6.2414e-41 7.41123e-40 3.70297e-40 -6.1744e-41 1.8264e-40 6.55491e-40
-1.948e-41 1.8618e-41 -6.52042e-40 6.79104e-40 4.49057e-40 -7.40715e-40 -5.82056e-40 5.02953e-40
2.96708e-40 7.38432e-40 -7.7887e-41 5.3857e-40 7.56895e-40 -2.95406e-40 3.5866e-40 -6.143e-40
-4.9766e-40 1.0518e-41 6.7962e-40 -7.28884e-40 -1.39055e-40 3.55264e-40 -4.1444e-40 4.42133e-40
3.78313e-40 -5.71524e-40 4.21693e-40 -2.42425e-40 1.76089e-40 -8.298e-41 -6.3933e-41 4.93984e-40
-6.70911e-40 -5.09258e-40 4.63844e-40 -7.517e-40 9.5419e-41 -3.2129e-40 5.62292e-40 -2.42605e-40
-6.68576e-40 -5.50975e-40 3.43374e-40 -4.51162e-40 6.6639e-41 -7.22588e-40 1.9034e-40 2.54473e-40
6.942e-40 6.80587e-40 1.53497e-40 6.45944e-40 6.1406e-40 1.20335e-40 -7.6203e-41 -6.66039e-40
5.24104e-40 -1.21287e-40 -6.54259e-40 -1.81489e-40 5.12379e-40 -5.54571e-40 -2.68588e-40 -7.41486e-40
-9.2124e-41 3.59562e-40 5.1217e-41 -4.1176e-41 -2.74289e-40 7.18524e-40 4.23293e-40 -5.6008e-40
1.6339e-41 -4.86402e-40 7.36572e-40 -7.26484e-40 1.5106e-41 4.25374e-40 5.7251e-41 2.83837e-40
7.514e-40 -7.5928e-41 1.37138e-40 1.67182e-40 -6.18064e-40 5.02926e-40 6.24945e-40 2.35745e-40

bias f4 [32]
00000000: 8ded 2ebe 9753 30be fffe 0bbe 6671 1f3d
00000010: 340e f3bd 6e46 c2bd ab5a 0fbe 91c9 ed3b
00000020: a561 7abd 0632 b43c a370 963d 3e8c b0bd
00000030: 5537 88bc d7c1 843d 2c17 28bd 7050 5c3e
00000040: afb1 983d 51fe 1d3e 3986 2bbe 0475 b4bd
00000050: f639 a2bd 851a a43d 6407 4bbc 4e35 533e
00000060: 5182 e03c 8630 373e 9e50 4abe 6f55 883d
00000070: a0dd 5e3e 5327 053d 8014 29bd a09e 39be
-0.17082806 -0.17219387 -0.13671492 0.038926505 -0.118679434 -0.0948609 -0.13999431 0.0072566946
-0.061128277 0.02199651 0.073457025 -0.08620499 -0.016627947 0.064822845 -0.041037723 0.2151506
0.074557655 0.15429045 -0.1675042 -0.088113815 -0.079212114 0.08012871 -0.012391899 0.20625803
0.02740589 0.17889604 -0.19757316 0.0665692 0.2176423 0.032508206 -0.041279316 -0.18126917

weight f4 [32, 13]
00000000: e416 5abd 6a24 563e e8da 8abe 2dae 6bbe
00000010: f234 b3bd 922e 07be 458c 693e ed7a 3fbe
00000020: 352e c6bd 9aec 773e a4ed 213e e11c 053e
00000030: 98be debd d84a 803e 22d8 253e 94f2 203e
00000040: 5fe1 de3d af97 1abe f532 afbd 7e35 763e
00000050: c26a 7ebe 146f d5bd 53f3 be3c b421 a63d
00000060: c375 87bd 9be6 57be e2a9 503e 264d 84be
00000070: db02 b2bd 146d 423d 27b2 a3bc 21b9 9fbd
00000080: b7a7 29be eb21 813d c5e8 793e 8e67 873c
00000090: 32e6 293e 9d3d 61be 5643 923e ec3a 37bc
000000a0: 325c 82bb a41c 523e 5c92 5e3e 6cf4 493e
000000b0: 0a5b 7c3c 8b4f 363e a7b4 0dbe 19ac 133e
000000c0: 6455 25be 8fc8 5cbd 20a7 353e 4734 a13c
000000d0: 6628 3cbc 5c22 373e 1077 2abe a440 5dbe
000000e0: 4b86 113e 4397 3e3e 8d3f 333d b97c 69be
000000f0: 4282 193e 5361 c43c 7646 4c3e 1916 7c3e
00000100: 7df0 0fbd 1ce3 773e 4c52 9e3c d8bb ac3d
00000110: 444a 80be 2fb6 41be 3284 273e af4f 6d3d
00000120: 714f 9ebd ef01 383e 2fa9 cdbd 3b24 bd3d
00000130: 3903 26bc ce45 393e fe2b 58be 29f4 613d
00000140: 7ea9 603d 5bec 943d 42d3 883e fdab 3d3e
00000150: 6820 2e3e 2d7a 38be c300 2c3e 87f1 99bd
00000160: 751f 7f3d 6615 c8bd da75 513e 6dfd 52be
00000170: d894 fd3c 7797 5c3d 842e adbd 9255 243e
00000180: 39a9 a93c ad59 043e 26b4 823e b0ef bc3d
00000190: 3679 37bc 749f 473e 7144 d53d 0e6d df3c
000001a0: 8710 323d 5f12 3c3d b43c 213e ebf3 3cbe
000001b0: c862 69be fe0d 7c3d 41a5 c13d 619e 52be
000001c0: f6b5 1abe a98c 28bd fa51 01be df48 453d
000001d0: df0c b73c 6ab1 313e 1015 263d afea 39be
000001e0: faf4 a5bd 9765 8ebc da54 c8bd 624e 15be
000001f0: f170 513e fed5 36be e8fe 013e 1608 82be
00000200: 5ce9 5c3e 83bc 6ebd 39ca 483e f38c 10be
00000210: 9f7f 96bc 090d 363d 2b5e 87be 9182 d1bd
00000220: cd97 3bbd 3272 a43b 81eb 5ebe b4fe 9fbd
00000230: ec5d 37be 3f28 08be 7e56 8c3d 1e0d 3c3e
00000240: 1a12 423e c0fe 553e cf7b e6bd 7570 30be
00000250: cc14 d23c d077 643e a674 80be 7f05 aa3d
00000260: fae8 443e 434b 64be e18b 74be 50bd 223e
00000270: edfb 1a3d 1b56 643e 4097 34be ca84 3cbe
00000280: ad21 61be 9142 19be b653 41bd 4676 92bb
00000290: d42c 743e dfb9 64be 154c a9bc da1f 77be
000002a0: 242a 453d 78e4 693c b96e 9c3d 396c 763e
000002b0: e9b4 b0bb 6f7d 133d da53 593e ce8c 1fbe
000002c0: 7ea3 733d be90 46be ebad 69bd e04a 873e
000002d0: fecb 7a3e e852 f13d 1767 27bc 36f6 92bd
000002e0: 979c 953d 0cf5 1b3e e739 61bc 0064 9dbc
000002f0: 16ce bf3d 878a 143e d56a b43c 07b6 5fbe
00000300: 1a3b 373e 6293 883e f06b 443e f7e8 173e
00000310: f3ef 86be 03b8 2abe 8969 0ebd 892a d2bd
00000320: d7eb 35be 0ffa d9bd f8c5 803e 47e0 87bd
00000330: f1f2 b33c 11ff 77bd b128 76be 9df7 2dbe
00000340: 4e93 6e3e 2b71 1d3c 350b 3ebe 9e35 5d3c
00000350: c0e7 723e 3a7c 24be 41aa 303e 5fa3 0a3e
00000360: 88aa 2dbe 7a23 483e 33c7 663d cd4c e1bd
00000370: 6e95 c03d 3e47 293e dd3d a03d 57a7 82be
00000380: eccb 83be c249 2abe cde1 e5bd c97c 72be
00000390: cfeb 853d bf5a 55be 1ca5 813c 681f 943e
000003a0: 3555 76be f716 b63d f707 0b3e 5b02 843d
000003b0: 6366 34bd 0d10 f1bb d55d 7b3b 631f 53be
000003c0: de14 3ebe 73fc 22bc a1ac 44be bd47 10bd
000003d0: f081 75bd bf05 62bc 8769 123d f492 3c3e
000003e0: 1e2c 6cbe 5bb7 7e3d a0bd 9e3d a5b5 8f3d
000003f0: 45c1 233e 5bca 163e b81a 473e 7292 10be
-0.053244486 0.20912328 -0.27120137 -0.23015662 -0.08750333 -0.13201359 0.22807415 -0.18699236
-0.09676782 0.2421135 0.15813309 0.12999298 -0.108761966 0.250571 0.1619573 0.15717536
0.1088283 -0.15096925 -0.08554641 0.24043843 -0.24845412 -0.10421577 0.023309385 0.08111897
-0.06614258 -0.21084063 0.20377305 -0.2584011 -0.08691951 0.047467306 -0.01998241 -0.077989824
-0.16567884 0.063052975 0.24405201 0.01652887 0.16591719 -0.2199616 0.28566998 -0.011183482
-0.0039782757 0.20518738 0.21735519 0.19722146 0.015402565 0.1780378 -0.13838445 0.14421119
-0.16145855 -0.053902205 0.17739534 0.019678248 -0.011484241 0.17884201 -0.16646981 -0.2160669
0.14211385 0.1861239 0.04376178 -0.22801484 0.14991096 0.023972189 0.19948754 0.24617805
-0.035141457 0.24207729 0.019326352 0.08434266 -0.2505666 -0.18917154 0.16359022 0.05793732
-0.07729996 0.17969488 -0.10042035 0.09235426 -0.010132604 0.18093035 -0.21110532 0.05516449
0.05484914 0.07271644 0.26723677 0.1852264 0.1700455 -0.18015356 0.16797166 -0.07516771
0.06228586 -0.097697064 0.20455113 -0.20604487 0.030954763 0.053855386 -0.08456138 0.16048267
0.020710574 0.12924834 0.25528067 0.09225404 -0.0111983325 0.1949442 0.10413445 0.027273681
0.043472793 0.045915958 0.15745813 -0.18452422 -0.22791588 0.06153678 0.09455348 -0.2056823
-0.15108475 -0.04114977 -0.12628928 0.0481652 0.022345005 0.17352834 0.04054743 -0.18155931
-0.08103366 -0.017382426 -0.09781809 -0.14580682 0.2045324 -0.17855069 0.12694895 -0.25396794
0.21573395 -0.058285248 0.19608392 -0.14116268 -0.018371401 0.044446025 -0.26439032 -0.10229982
-0.045799065 0.005018496 -0.21769525 -0.07812253 -0.17906922 -0.13296603 0.068524346 0.18364379
0.18952218 0.2089796 -0.11254083 -0.17230399 0.025644682 0.2231133 -0.25088996 0.083018295
0.19229499 -0.22294335 -0.23881485 0.1589253 0.03783791 0.22298472 -0.17635822 -0.1841003
-0.21985503 -0.149668 -0.047198974 -0.0044696657 0.23845226 -0.22336529 -0.020666162 -0.24133244
0.04813589 0.014275663 0.07638306 0.24064721 -0.00539266 0.036008295 0.21223393 -0.15581056
0.05948209 -0.19391152 -0.057050627 0.26424313 0.2449188 0.11783391 -0.01021745 -0.07175867
0.07305258 0.15230197 -0.013746715 -0.019212723 0.0936548 0.14505969 0.022023598 -0.21846782
0.17893639 0.26674944 0.191818 0.14834963 -0.26354942 -0.16671757 -0.034768615 -0.10262019
-0.17765747 -0.10643398 0.25151038 -0.066345744 0.02196643 -0.060545985 -0.2403896 -0.16988988
0.2329838 0.009609501 -0.18558963 0.013501553 0.23721218 -0.16063014 0.17252447 0.13538884
-0.16959584 0.19544783 0.056342315 -0.11000977 0.094035015 0.16531083 0.078242995 -0.25518295
-0.25741518 -0.16629699 -0.11224709 -0.23680414 0.065391175 -0.20835398 0.0158258 0.2893021
-0.24055941 0.08891099 0.13577257 0.06445762 -0.044042956 -0.0073566497 0.0038355489 -0.20617442
-0.18562648 -0.009947884 -0.19206478 -0.035224665 -0.05993837 -0.013795315 0.03574517 0.18415433
-0.23063704 0.06218658 0.07751012 0.07017068 0.15991695 0.1472563 0.19443786 -0.14118364

bias f4 [32]
00000000: 0c4e a9bd 56e6 9a3b f20c 81bd 3b5d 19bc
00000010: 10da 1abd db2a 993d e102 2abe 8ed7 b13d
00000020: d2d5 bcbd 4309 473c 666f 10be 96c0 22be
00000030: e17f 25be 78ed 253e a970 da3d 2a82 cfb9
00000040: b64c d73d 3604 30be 9c5c 1c3e 4eef d5bd
00000050: b22a cfbc 7c93 d2bd 0168 853c 3930 293e
00000060: 6717 e8b8 ad99 20be 96c9 243e 1a22 3dbe
00000070: 70aa 11be f4a8 dfbd 2262 683e 5381 3c3e
-0.082668394 0.004727165 -0.06301297 -0.009360607 -0.037805617 0.07478877 -0.1660266 0.08683692
-0.092204705 0.012148204 -0.14104995 -0.15893778 -0.16162063 0.16203868 0.106660195 -0.00039579096
0.10512678 -0.17189106 0.15269703 -0.10446034 -0.025288913 -0.10282037 0.016284944 0.16522302
-0.00011066981 -0.15683623 0.16092524 -0.1847004 -0.14225173 -0.10920897 0.22693685 0.18408708

weight f4 [13, 13]
00000000: 9708 0800 e896 0300 aad0 0700 6cd8 0780
00000010: 5c0d 0000 8d8b 0380 1fea 0380 c694 0280
00000020: 8b71 0780 bd4a 0780 d5b8 0300 3f6e 0680
00000030: 12d4 0680 4d00 0800 125c 0080 a6b6 0700
00000040: 2e29 0000 4f5f 0780 0b63 0380 b239 0480
00000050: ba2b 0600 e4fa 0300 3f1c 0080 7aa0 0480
00000060: ccdc 0780 e93e 0700 e395 0480 e1b8 0500
00000070: 09c2 0080 f1c9 0700 4824 0880 0629 0000
00000080: 4136 0000 2e26 0880 9f19 0100 de05 0180
00000090: 36ba 0300 0153 0800 dd9b 0180 c015 0200
000000a0: 5121 0480 f6a1 0700 59d5 0280 0985 0000
000000b0: a5ee 0700 b809 0400 8b53 0780 6996 0500
000000c0: fb4b 0300 8183 0700 6c7f 0580 e720 0480
000000d0: f076 0180 3ca2 0100 b3fe 0700 324d 0100
000000e0: c8cc 0180 48f7 0600 e8cd 0480 d976 0100
000000f0: 425c 0000 ff63 0800 f7bb 0180 39bc 0580
00000100: c2db 0700 59d4 0000 e31c 0180 1dc9 0480
00000110: ddbc 0200 58f1 0780 7f0d 0480 eb85 0380
00000120: a4f9 0380 bc61 0400 5093 0280 f546 0380
00000130: 4456 0800 f6a6 0580 830c 0780 ab63 0580
00000140: 16fe 0600 07b3 0700 145c 0680 d5b3 0100
00000150: b445 0600 3923 0280 12db 0600 83ce 0700
00000160: 3834 0580 8df6 0100 0341 0880 1a35 0280
00000170: a47d 0380 1b87 0100 eaf6 0680 64af 0100
00000180: b56a 0700 8090 0780 2aa3 0500 a3e7 0200
00000190: 1f3f 0700 3c30 0800 4721 0600 f49e 0180
000001a0: b0ef 0180 4937 0000 be3c 0700 b054 0200
000001b0: 07b1 0200 8bf3 0580 769a 0280 c1ed 0100
000001c0: c81c 0800 de8a 0180 3b10 0500 953b 0600
000001d0: 5ffa 0300 9c60 0080 0c0c 0780 2fa0 0100
000001e0: b514 0700 a56b 0000 ede2 0700 a47d 0700
000001f0: 969b 0200 bde4 0180 48af 0600 0b78 0200
00000200: b4d3 0780 42e1 0300 8c46 0300 67c9 0280
00000210: 0d6b 0400 8557 0080 06ad 0600 1700 0680
00000220: 1d75 0480 9bdd 0700 b21c 0100 ca79 0500
00000230: 1276 0500 2796 0780 73d7 0000 4bfa 0280
00000240: 77dc 0400 68c6 0280 0e92 0080 3d8e 0180
00000250: 3c26 0800 0eb9 0480 d706 0580 f149 0800
00000260: 3b50 0180 17a4 0300 69df 0700 d91e 0180
00000270: 1be0 0780 9404 0480 bc80 0780 ab3f 0680
00000280: 6178 0400 eb7c 0600 c31e 0480 4806 0580
00000290: ed8f 0180 4501 0300 0245 0000 5f49 0180
000002a0: 93da 0400
7.37765e-40 3.29641e-40 7.17703e-40 -7.20486e-40 4.792e-42 -3.25568e-40 -3.59493e-40 -2.37041e-40
-6.8358e-40 -6.6966e-40 3.41812e-40 -5.90562e-40 -6.2709e-40 7.34792e-40 -3.3029e-41 7.0837e-40
1.4772e-41 -6.77039e-40 -3.11036e-40 -3.88039e-40 5.66699e-40 3.65509e-40 -1.0133e-41 -4.2491e-40
-7.22055e-40 6.65416e-40 -4.21111e-40 5.255e-40 -6.9607e-41 7.15291e-40 -7.47699e-40 1.4716e-41
1.9463e-41 -7.4838e-40 1.01027e-40 -9.394e-41 3.42306e-40 7.6446e-40 -1.47749e-40 1.91473e-40
-3.79294e-40 7.00949e-40 -2.60206e-40 4.7724e-41 7.28458e-40 3.70828e-40 -6.72818e-40 5.13134e-40
3.02763e-40 6.90023e-40 -5.04888e-40 -3.79145e-40 -1.34502e-40 1.50034e-40 7.34217e-40 1.19528e-40
-1.65297e-40 6.39721e-40 -4.41207e-40 1.3447e-40 3.3096e-41 7.70556e-40 -1.59265e-40 -5.26699e-40
7.21683e-40 7.6176e-41 -1.02198e-40 -4.39488e-40 2.51422e-40 -7.29426e-40 -3.72183e-40 -3.23547e-40
-3.6506e-40 4.02402e-40 -2.36517e-40 -3.00961e-40 7.6563e-40 -5.19072e-40 -6.47337e-40 -4.94932e-40
6.42162e-40 7.07071e-40 -5.84044e-40 1.56347e-40 5.76018e-40 -1.96307e-40 6.296e-40 7.16931e-40
-4.7791e-40 1.80281e-40 -7.58006e-40 -2.0272e-40 -3.20578e-40 1.40302e-40 -6.39589e-40 1.54754e-40
6.81128e-40 -6.94685e-40 5.1771e-40 2.66767e-40 6.65492e-40 7.51987e-40 5.6295e-40 -1.48857e-40
-1.77819e-40 1.9833e-41 6.64639e-40 2.14051e-40 2.47176e-40 -5.46544e-40 -2.39081e-40 1.77126e-40
7.45009e-40 -1.41652e-40 4.65e-40 5.72387e-40 3.65323e-40 -3.4657e-41 -6.4717e-40 1.49299e-40
6.50277e-40 3.8616e-41 7.24254e-40 6.8792e-40 2.39485e-40 -1.73891e-40 6.13892e-40 2.26734e-40
-7.18793e-40 3.56314e-40 3.00814e-40 -2.5592e-40 4.05745e-40 -3.1396e-41 6.13082e-40 -5.51045e-40
-4.09354e-40 7.22346e-40 1.0213e-40 5.02867e-40 5.01533e-40 -6.96713e-40 7.7289e-41 -2.73459e-40
4.4643e-40 -2.54846e-40 -5.2395e-41 -1.42861e-40 7.484e-40 -4.33727e-40 -4.61631e-40 7.61209e-40
-1.20617e-40 3.34371e-40 7.22993e-40 -1.02902e-40 -7.23242e-40 -3.68984e-40 -6.8903e-40 -5.73853e-40
4.10526e-40 5.95825e-40 -3.78377e-40 -4.61431e-40 -1.43466e-40 2.75962e-40 2.4755e-41 -1.18156e-40
4.45752e-40

bias f4 [13]
00000000: 7fae 723e aee9 1cbd c187 a93c 247c 8f3c
00000010: c732 8f3e 3469 443e 8ad3 73bd 1f61 0fbe
00000020: 770c 543e a95c 57be 9f04 683e 264d 0fbe
00000030: 9d91 52bc
0.23699377 -0.03830879 0.020694615 0.01751525 0.27968428 0.19180757 -0.05952791 -0.14001893
0.2070788 -0.21031441 0.22658013 -0.13994274 -0.0128521

weight f4 [32, 13]
00000000: 35e0 87be 9492 91be 0549 063e 6e10 393e
00000010: 567b 4b3e d25e 833e a3c2 b2bd 49d1 643e
00000020: f052 273e dfc0 323e 779f 6e3e a35d eabd
00000030: ab55 02be 7232 81bc 2083 143e 8dd7 46be
00000040: ffa8 70be 9394 a63d 392c 2dbe fef1 5abe
00000050: bbd4 783d 5cdb 11bd 9032 5cbe 8eb4 c43c
00000060: 9d71 22bd 477b 17bc f615 a3bd fb04 de3d
00000070: dfa5 58be 244e 2ebe a335 713e de60 4e3e
00000080: 2d93 623e 7a38 d73d 8b80 103e 14ea 4ebd
00000090: 42ad b83d 6a4d 8fbd 775d c03d 3077 36be
000000a0: cb6d e03c 45d4 833e b9a1 143e f4ed 8bbe
000000b0: e623 03be f3c7 053e ea72 323e c92f 16be
000000c0: 30a3 363c c561 3d3d 8b3b 573d f5db 333e
000000d0: 62b8 773e ac33 e93d 5683 d23e ad9d 0f3d
000000e0: 727e 17bd c1c9 363d d96f aabc 1f96 0abe
000000f0: 3110 e73d e3da 59bc 4d7f eb3d dce3 483c
00000100: 174d c6bd 3243 8b3e dc98 17bd ecdd b33e
00000110: 730b a4bd 9679 b63e c062 1b3d 7780 ab3d
00000120: 3e73 3e3e 8591 55be 1e14 3cbe 35c2 6ebe
00000130: e2a8 1dbe a6c4 5f3b a070 97be 504e 0d3e
00000140: 9fb0 2e3e 7a4e ac3d ad0e acbc 2376 0cbe
00000150: 1233 383e b2da 4dbe ca53 97bd 5527 cabd
00000160: e2df 223d 8e9c 0f3c 8e0d 733e 39ba dc3d
00000170: 0d94 573e 18a1 e6bd df44 973d 1a78 6ebd
00000180: 4631 38be b8a4 78be b146 0fbd 8cb0 2b3e
00000190: 5684 f53d 701d 31bc 0830 5c3d 7187 883b
000001a0: 23ac a43e 7689 793e 9dbe 8abd 6134 6ebe
000001b0: 4b38 0e3e 4ad4 dc3d c4b8 5bb8 6761 813b
000001c0: 0736 473e 2817 7d3c 04e6 06be 47e4 223c
000001d0: 90e7 5e3e f840 fb3c f649 00be 33ce dabd
000001e0: 66d4 62be 4870 7c3e 1421 ebbd 700c 563e
000001f0: babe df3d 3c73 42be 40e3 67be 8792 013e
00000200: 8171 9e3d 9164 773d cae6 213d 3043 583e
00000210: 0139 a2be 8f84 27be 2454 333e fcaa 47be
00000220: 0d79 c93d 90bf ac3d f512 44be 7e08 edbd
00000230: 721d 8a3d 19ea f9bc b466 c53d dbca 98be
00000240: 3d8d 4f3e 3870 e93c 7b4c b2bc ff79 a0be
00000250: fb63 02be fd66 2e3e de3e 42bd 7b19 023e
00000260: 2e27 ad3d 2c70 4abe 2763 b43d 855b ce3d
00000270: aaab b73d 460b 853e 20a7 00be fbc5 8cbc
00000280: 7fc0 6cbd 1c82 c1bd bd9a 703e 2dd5 873c
00000290: 8213 b93d 6b5b 163e b905 513e 5e18 2ebc
000002a0: 46a7 66be e71c 663e ba2c 22be 4695 9ebe
000002b0: 68d8 41be fd47 99bc c0b1 003e d6a7 6a3a
000002c0: 4510 6cbe 7d2d 7ebe c06d 8b3c 41b1 d43c
000002d0: e3e6 813c 2661 ca3d 7196 603e 4f62 133e
000002e0: cd49 65be 9c44 38bc 96e0 203e 9473 0bbe
000002f0: 81e2 ce3d 2112 67be b3a9 873d 7130 2e3d
00000300: 53d6 403e 692b 843c 7615 7fbe 16d6 b9bd
00000310: 9571 2ebe 5df9 a93d 2322 c63d 6d17 4c3d
00000320: 361d 2bbe 0f66 8a3e 4484 3f3e b8c7 303d
00000330: 1be0 4cbe 3889 3ebd de4f 093e a377 d63c
00000340: 3f98 7d3e 99a7 283e d177 5bbe 1c06 2f3e
00000350: 3396 503d 4510 5bbd c575 263e 84aa 36bc
00000360: e861 1a3e ceac cb3d abd5 92bd f776 623d
00000370: b548 27be 683a 9f3e c364 133e f2cd 173e
00000380: 4751 e53b bcdc d5bd 087e c2bd 88bf 4a3d
00000390: 3d53 5fbe fa97 31bd 51ce 323e 0e7a 54bd
000003a0: ca60 43be 710f 993e abad 973d bc0d 80be
000003b0: 29f9 eabd 4810 14bd 4302 7cbe a452 2b3d
000003c0: b221 223e 9135 43be 37ee 1b3e 9359 ffbd
000003d0: 7567 853d 56b5 163e 2165 ff3d e366 ae3e
000003e0: c856 403e dd56 31bd c35b bc3d b99f 48bc
000003f0: 051d 513e ae00 82be fa5d ac3c 0dfb cb3d
-0.26538244 -0.28432143 0.13113792 0.18072674 0.19871268 0.2565828 -0.0872853 0.22345461
0.16340232 0.17456387 0.23303019 -0.11443641 -0.12727992 -0.015771125 0.14503145 -0.19418164
-0.23501967 0.08133807 -0.16911401 -0.21381375 0.06074975 -0.035609588 -0.21503663 0.024011876
-0.03965913 -0.0092457 -0.07963173 0.10840794 -0.21157025 -0.17021996 0.23555617 0.2015414
0.22126456 0.10508819 0.14111535 -0.050516203 0.09017421 -0.069971874 0.09392827 -0.17818904
0.027396103 0.25747886 0.14514817 -0.2732998 -0.12806663 0.13064556 0.17426649 -0.14666666
0.011147305 0.04623582 0.05254702 0.17564376 0.2419143 0.11386809 0.41115826 0.03506248
-0.036985822 0.044626 -0.020805286 -0.13533829 0.11282385 -0.013296816 0.1149889 0.012261357
-0.096826725 0.27199703 -0.037011012 0.3513025 -0.08009996 0.35639638 0.037935972 0.08374112
0.18598649 -0.20856293 -0.18367049 -0.23316272 -0.15396455 0.0034144311 -0.29578114 0.13799405
0.17059563 0.08413406 -0.021003092 -0.1371694 0.17988232 -0.20102957 -0.07389028 -0.09870783
0.039764293 0.008765353 0.2373564 0.10777707 0.2105257 -0.11261195 0.07386183 -0.058220007
-0.17987546 -0.24281585 -0.034979526 0.16766566 0.11988132 -0.010810241 0.053756744 0.0041665365
0.3216258 0.24368843 -0.06774638 -0.23262168 0.13888662 0.107826784 -5.2385745e-05 0.003948379
0.19454204 0.015447415 -0.13173681 0.009942121 0.21768022 0.030670628 -0.12528214 -0.10683861
-0.22151336 0.24652207 -0.114809185 0.20903182 0.1092505 -0.18989271 -0.22645283 0.12653552
0.07736493 0.060398642 0.03952674 0.2111938 -0.31684116 -0.16359161 0.17512566 -0.19498819
0.09837542 0.08434975 -0.19147857 -0.115738854 0.067438975 -0.030507134 0.0963873 -0.29842266
0.20268722 0.028495893 -0.021764984 -0.31343076 -0.12733452 0.17031474 -0.047423236 0.12705033
0.084547386 -0.19769353 0.08807974 0.1007605 0.08968289 0.25985163 -0.12563753 -0.017184248
-0.057800766 -0.094486445 0.23496528 0.016581142 0.09036924 0.1468331 0.2041234 -0.010625927
-0.22524747 0.22471963 -0.15837374 -0.30973262 -0.18930209 -0.018711084 0.12567806 0.0008951401
-0.23053081 -0.2482204 0.017020106 0.025963427 0.015857166 0.09881811 0.21932389 0.1439297
-0.22391434 -0.0112468265 0.15710673 -0.13618308 0.10101796 -0.2256551 0.066241644 0.042526666
0.18831758 0.01613398 -0.2491053 -0.09074037 -0.17035516 0.082995154 0.0967448 0.049827028
-0.16710362 0.2703099 0.18702799 0.043159217 -0.20007364 -0.04651758 0.13409373 0.026180094
0.24765109 0.16470183 -0.21432425 0.17092174 0.05092449 -0.053482313 0.16255863 -0.0111490525
0.15076411 0.09945069 -0.0716966 0.055289235 -0.1633633 0.31099248 0.14393906 0.14824656
0.0069982144 -0.10442492 -0.09496695 0.049499065 -0.21809097 -0.043357827 0.17461516 -0.051874213
-0.19079891 0.29894593 0.074061714 -0.25010478 -0.11473305 -0.03614834 -0.24610238 0.04182686
0.15833166 -0.19063403 0.1522759 -0.12468257 0.065138735 0.14717612 0.12470461 0.3406287
0.18783104 -0.04329573 0.0919719 -0.012245112 0.20421226 -0.25391144 0.021040905 0.099599935

bias f4 [32]
00000000: 601e 4b3e 3226 64be 8abf e7bc 4838 1a3d
00000010: 1fa8 7cbd 07fd 6ebd 0dc3 bebd 3b89 1cbe
00000020: 2a76 c93d 2d48 0e3e abce 103e a1f9 97bb
00000030: b689 fcbd 044a 3d3a 3e37 a23d 53ed ef3d
00000040: 3c67 ba3a b986 853d 7298 333e 94be 1c3e
00000050: 6760 15bd daea b0bc 75bd 66bd b675 07be
00000060: 1fb8 d5bc cbfa 0f3e 4599 02be 74d1 6dbc
00000070: 708b eb3d 5275 cf3d 593f 233e 4a67 29bd
0.19835806 -0.22280195 -0.028289575 0.03765133 -0.06168377 -0.058346774 -0.09314547 -0.15286724
0.09836991 0.1389472 0.14141338 -0.0046379124 -0.12330954 0.0007220807 0.07920693 0.11715188
0.001422144 0.06519837 0.17538622 0.15307075 -0.03646889 -0.021596361 -0.056333024 -0.13228497
-0.026088772 0.14060514 -0.1275378 -0.01451527 0.11501205 0.10129799 0.15942134 -0.04135827

weight f4 [32, 64]
00000000: 580b 973c d426 c93d 549f 863c 48ac be3c
00000010: 44f8 bbbd bfb7 a03c 4205 e13d b30f 9fbd
00000020: 6e7b 563c 0c1d bc3d bf21 d7bd 76e4 b33d
00000030: 9e7a c33d a28f 863d 8c39 f3bc 1770 153b
00000040: 3cdf c73b f3e0 be3d 210c d1bd 2ccc 8ebc
00000050: a556 ae3c 0c71 9d3d 559e 76bd ce89 98bd
00000060: 9262 b13d 1208 85bd d1bd 11be 11a1 963d
00000070: 2e55 a23c 959e 853c 37ff 933c 5cc1 b6bd
00000080: d04a bbbd c8ae 0dbd bba4 35bd 25bf 09bc
00000090: ca24 a1bd 5b90 843d 158b 24bd 32ea 24bd
000000a0: 4b48 573d b497 a9bc 94a3 9d3c a4cc 843d
000000b0: 52ce 16be 3899 c0bd 4635 c33d bd38 a93d
000000c0: edcd 243d f8e1 9f3d 5ea6 4f38 3390 ac3c
000000d0: 516a 753d a16d bebd 6c5e 09be 445b 8c3d
000000e0: 1f2d 40bd a33b fd3c b584 f9bd dd74 62bd
000000f0: 4b4c e8bc 3727 34bd 35c8 5ebd 0e5e 01be
00000100: c849 a53d 62c1 d3bd 496b cbbc ef2d 66bd
00000110: 08a3 80bc 8e8a 983d 2a6a d03d bb84 4a3a
00000120: ad6d aebd 9e7b 8dbd a742 15bd 5a4d 4dbd
00000130: cc7d c9bd 47b7 a0bd a4d7 88bd 4667 c53b
00000140: 18c0 96bd 4755 643d 6053 a93d 36f8 89bc
00000150: f4de a33d 86ae 383d ac2f b2bb 51a1 a0bd
00000160: 06d1 383d ff03 503d 3471 e33c 91e0 4cbd
00000170: 2084 55bd e982 cabc d533 ce3b 7dd9 45bd
00000180: 226c bebd 948a 233d 3840 19bd 3523 b6bc
00000190: 431f 923d 9dca 843d c95c c3bd 31fc 4f3c
000001a0: 6dd1 013d b5e5 79b8 9e7b 4cbd 929e e93c
000001b0: a141 d33c 76cf d5bd db9d cabd 287d 5b3d
000001c0: 760a 12bd 63cd ec3b b305 9fbd d99f 3f3d
000001d0: ac07 b53d 9de2 91bd 6c90 893d c10c b83d
000001e0: 2d43 8b3b 4a5c 973a 60a4 4fbd c895 73bd
000001f0: 8863 20be aa6a f9bd 23b0 cebd a37b f2bd
00000200: 235f b53d bdf5 033b ae71 063d 84c4 f6bc
00000210: a561 93bd 7d1e 083d 0fd7 b0bd 6e12 283c
00000220: 9a78 a2bd c37a 93bd 33a7 2c3c 0aa9 523c
00000230: 05a2 cfbd f2d9 dcbb 1ba2 9cbd 891d ef3c
00000240: 1bc9 5bbd d040 0cbd 13a8 203d c1e6 8abd
00000250: dc53 3dbd 06bc d5bd 19c7 df3b 21c0 c33b
00000260: 09ec fdbd 6235 ac3d ec40 913d f25c 10bb
00000270: f864 a43c 4123 c7bd ed05 b0bc a634 a03d
00000280: 8407 6ebd b9eb f83d 81d5 57bd d7db 7cbb
00000290: 17c7 413d f0bc 3a3d 05f1 413d 00ed 1e3c
000002a0: 5c64 91bd 17b4 f3bd d57a 3e3c 31f2 4ebd
000002b0: ef6e 023e 7353 b8bc 6171 4cbd 19bd 393d
000002c0: 026d 35bd 7af1 18bd 0555 a3bd 1115 cfbd
000002d0: 04fd 2ebd e81b d83d 9e81 e03d a559 a93b
000002e0: c111 023c a4ab 30bd 779e f0bd b5c1 d53d
000002f0: c91e 1a3c 94ca 8e3c 829a 643c 13b2 3bbd
00000300: 6748 a63d 7b25 93bd e87d 983c 763c 48bb
00000310: 9a29 133c af3a 023d 4aad 0abc e865 a7bd
00000320: 1d04 a9bd ed56 82bd 6cac 843d 8232 3c3d
00000330: 6696 833d 1416 bd3b 324f c2bc 2d73 0ebe
00000340: fa84 803d 83e1 1e3d 2a6e d43c 5f83 8e3d
00000350: 8c7c c3bd 51f3 cfbd 3365 0e3c f793 8ebc
00000360: addb 523c 2dbb 583c ba08 b93c 6016 013e
00000370: f27e 76bc 4f62 76bc 9409 633b 9963 b03d
00000380: 0bcf 8bbc ca05 f1bc 4d65 883c 0fe9 413d
00000390: e821 0c3d 6aaf cabd 1202 3bbd 1ca7 823c
000003a0: 69fb 6fbc a596 88bb 10a1 eabc 6ef4 263d
000003b0: 0ca1 0b3b 26e9 3e3d 4728 213d 7252 90bd
000003c0: 2da7 183b 55a4 61bb 5b97 3e3c e242 01bd
000003d0: 74a9 6ebd 7843 cebd fee0 a03d 8a6d 50bd
000003e0: f2e4 d2bd bff3 4e3d 6235 0ebd 0362 a43c
000003f0: 28b2 293d 2f8c dfbd f114 cbbd f76c dd3c
0.018438026 0.09821859 0.016433395 0.02327551 -0.09178212 0.019618867 0.10987331 -0.07766666
0.013090951 0.09185228 -0.105044834 0.0878381 0.09544872 0.065703645 -0.029690526 0.0022802406
0.0060996097 0.093202494 -0.102073915 -0.017431341 0.02128155 0.076875776 -0.06020959 -0.07448159
0.08661379 -0.0649568 -0.14232565 0.0735494 0.019816007 0.01631097 0.018066032 -0.08923599
-0.09145129 -0.034590513 -0.044346552 -0.008407389 -0.07868345 0.06472846 -0.0401717 -0.04026241
0.05255918 -0.02070222 0.01924304 0.064843446 -0.14727142 -0.09404224 0.095316455 0.08262775
0.04023545 0.07806772 4.9507587e-05 0.021064853 0.059915844 -0.09298254 -0.13414925 0.06853345
-0.04691803 0.030912226 -0.12183515 -0.05528723 -0.028356692 -0.04398271 -0.05439015 -0.12633535
0.08070713 -0.10339619 -0.024831431 -0.05619615 -0.01570274 0.07448302 0.10176499 0.0007725467
-0.08517013 -0.06908344 -0.036440518 -0.050122596 -0.09838447 -0.078474574 -0.06681755 0.006024274
-0.07360858 0.05574539 0.08267856 -0.016841989 0.08001509 0.045088314 -0.005437812 -0.07843269
0.045121215 0.05078506 0.02776394 -0.05001885 -0.052127957 -0.024720626 0.0062928 -0.048303116
-0.092979684 0.03992708 -0.03741476 -0.022233585 0.07134869 0.06483958 -0.09539182 0.012694404
0.031693865 -5.9580158e-05 -0.049922578 0.028517995 0.02578813 -0.10439961 -0.0989339 0.053586155
-0.035654508 0.0072266324 -0.07764759 0.046783302 0.08839354 -0.07123301 0.067169994 0.089868076
0.0042499513 0.001154789 -0.05069387 -0.059469014 -0.15662968 -0.12178548 -0.10092189 -0.11839988
0.088560365 0.0020135485 0.032823257 -0.030123003 -0.071963586 0.0332322 -0.08634769 0.0102583
-0.07933159 -0.07201149 0.01053791 0.012857685 -0.10138325 -0.0067398483 -0.07648107 0.029188888
-0.053658586 -0.034241498 0.039222788 -0.06782294 -0.046222553 -0.10436253 0.006829154 0.0059738313
-0.12398536 0.084086195 0.07092461 -0.0022028056 0.020067677 -0.09723521 -0.0214872 0.07822542
-0.058112636 0.121543355 -0.052693848 -0.0038583183 0.047309007 0.04559034 0.047348995 0.00970006
-0.0709922 -0.11899584 0.011625965 -0.05052394 0.1273763 -0.02250073 -0.049912814 0.045346353
-0.04429341 -0.037339665 -0.079752006 -0.1011144 -0.042721763 0.10552198 0.109622225 0.005168157
0.007938803 -0.04313244 -0.11748975 0.10437337 0.009406754 0.017430581 0.013952853 -0.04582412
0.081192784 -0.07184883 0.018614724 -0.0030553616 0.008982087 0.031794246 -0.008464167 -0.08173734
-0.08252738 -0.06364236 0.06478199 0.045946606 0.064251706 0.005770454 -0.023719404 -0.13911124
0.06275363 0.038789283 0.025931437 0.06958651 -0.0954524 -0.10153831 0.00869112 -0.01740454
0.012869758 0.01322822 0.022587169 0.12606192 -0.015044915 -0.015038087 0.003464316 0.08612747
-0.0170665 -0.029421706 0.016649866 0.047341403 0.034212023 -0.09896739 -0.04565627 0.015948825
-0.014647343 -0.004168349 -0.028641254 0.04076045 0.0021305708 0.046609066 0.039345052 -0.07046975
0.0023293004 -0.0034430225 0.011632766 -0.031557925 -0.05826707 -0.100714624 0.07855414 -0.050885715
-0.10297574 0.050525423 -0.03471888 0.020066267 0.04142967 -0.1091541 -0.09916104 0.027029498

bias f4 [32]
00000000: 1870 9dbb c5d1 e3bd 7455 53bd 6ad3 1a3d
00000010: b595 d3bc 8db3 b03d fead 40bd 9c4d 173d
00000020: 1ee7 9cbd d7aa 57bb cacc 943d 8093 a83b
00000030: f1a3 483d b29d d2bc 3982 493d b425 743d
00000040: 7bce 24bd 058e 0d3d cc87 203d e856 8b3d
00000050: 9e12 403d bbd0 c9bd 7926 3ebd c438 ed3b
00000060: 1723 e0bb 669c e03c 7f2e 13bd 9fb8 c8bc
00000070: 85b5 863c f169 863b b3b4 35bd ec82 acbc
-0.0048046224 -0.11123995 -0.051595166 0.037799276 -0.025828222 0.086279966 -0.047040932 0.03693925
-0.076612696 -0.0032908225 0.07265623 0.0051445365 0.04898447 -0.02570996 0.049196456 0.05960627
-0.040235978 0.03455927 0.039192006 0.068036854 0.046892755 -0.09854265 -0.04642341 0.007239433
-0.0068401205 0.027418327 -0.035933014 -0.024502097 0.016443977 0.0041019847 -0.04436178 -0.021058522

weight f4 [32, 32]
00000000: 582a fd3b 9719 7a3d 5a05 abbd 1f8a 123b
00000010: 0f5b f03c 9fa4 a43d 529c d0bd c148 19be
00000020: 224e 02bc 752a c23c f983 77bc 01d0 abbc
00000030: 6ad1 e13c 7819 e83d fc03 903d ceae 4abe
00000040: da7b fe3d 8c0d 65be 6f2b d2bd 7789 0a3e
00000050: 6fb5 0dbe a0e7 383d 8535 34be c2a4 d03d
00000060: 31b8 8abd c132 f4bd 7770 a7bd 2a5c 95bd
00000070: 6cd7 ac3c 2c25 f8bd d4d0 afba 3457 11be
00000080: 4771 7f3d 3445 c93d 6baf 94bd f62c bbbd
00000090: fe1b 8fbd fd5a ddbc c8f2 c53d 4413 3e3d
000000a0: 433b 303d 960e d4bd 8fd7 133d 04de 4ebb
000000b0: 701b 843d 02b7 b9bd 72d7 d03d cfc6 27bc
000000c0: 1c8b 44bb f7cf efbc 320f dcbd 67fd c2bd
000000d0: 94f2 2ebc c048 80bd 438e 323d 0bbd a0bb
000000e0: 5c63 3a3c bea3 ac3d b18a 74bd 268b 183d
000000f0: dac0 053e 9acc ac3d fa19 043c 6ac5 6fbd
00000100: 7aa9 833d 9fed 8fbc 9ec0 243d b97f 823a
00000110: 1e2c 8b3a 1057 e63c e010 b9bd 02bc a8bd
00000120: 163e 4abb a4cb b33d 3560 f53d 04d9 86bd
00000130: 0dd8 37bd 3600 dc3c ce2c 143e 2f6c 98bc
00000140: d1df 993d e803 45bd 69a8 a73d 3121 08be
00000150: 0f84 463c 722a 5d3d 5fc6 a3bd f577 043e
00000160: 0ff5 9bbd 0b8a 273d 6923 a8bd c368 a33d
00000170: 291d 2dbe 6255 a03d f2c2 ab3c ea2f cdbb
00000180: 1abb 85bd c2fe 953d 852d 973d 80d9 123e
00000190: e1b8 26be abc7 e03d fc62 a73d 073c 1d3d
000001a0: 50bd 75bc 6d35 85be 7456 1b3d 9f2d 02be
000001b0: 1900 95bd f090 cebd 321d 203c 109d dbbd
000001c0: 6a91 83bd 165d 8dbd 4001 d93d fd6a 9cbd
000001d0: a092 523d 4e3f 343e a34e 283d b18e 903b
000001e0: 026b edbd 7315 1e3d c112 363d 4ecd 053e
000001f0: 4bf3 073e 5c1d c0bd 8915 91bd f49b 763d
00000200: 36a1 373d a09b 193e 5196 b4bd 7b5d e1bd
00000210: 9901 d0bd 2491 87bd 9028 17be e1fd cbbc
00000220: db7a e43c 7ac4 293d 99d2 88be 3e2b f1bd
00000230: 0a45 a2bd 18e2 c6bd 5259 c4be 05c6 a3bd
00000240: e76a 113e d6b2 a939 2853 1fbe 7350 4d3d
00000250: f8e6 4b3d 43e7 ac3d d849 033e a1e4 d5bc
00000260: 627b 99bd 7ebf f7bd 80d8 d3bd 696f 4bbe
00000270: 96dd b7bc 791e 83bd 9106 34be bb0e d5bc
00000280: 1656 3cbd 21d0 e03d 3b8c 0a3d d310 3f3e
00000290: bfe3 493d 5e6e f4bd c3bf 01be 6a9e 7f3d
000002a0: ee32 c2bd 8d2e 1dbd 7c29 dfbd de35 f43c
000002b0: 9c6a abbd 3426 c73d 7df9 adbd a690 743d
000002c0: 73a0 2f3d a3da 613d 18c1 3fbc 2234 77bd
000002d0: 40ee 523c 559f 043d c70c 5b3d 6351 823d
000002e0: 5509 503d cb9c 173c 4c7d 0f3d 27bf f3bd
000002f0: 5aaa 4fbc e08f fa3d e805 81bd 9931 a83d
00000300: d6cb 333c 3891 1dbd 6f73 2abb 0725 2cbe
00000310: 4a89 18be fb3a f93c 6bfb ce3d 985d b43d
00000320: e635 7dbd 781a 67bd da47 a23c 4af9 363d
00000330: 6911 e8bc 8054 a6bd e00c 07bd d3d7 e83d
00000340: 9751 a03c b17e 8dbd 78e8 7abc 86b6 a03d
00000350: 5094 cf3d ef5d 38bd 84dc 10bd d485 453d
00000360: d6c2 f93d 250a 6c3d f660 4abe d65e b03c
00000370: 2803 933d 1c6f bebd e0a3 aebc cf69 b63d
00000380: 6671 893c 5268 0cbd 2ee7 063d 40fb 3abd
00000390: 65ea 1fbe e9fb c7bb f08d 073d a9bb 23be
000003a0: cc73 123e 75da e33c c1dc 6cbd 4ee5 833d
000003b0: ad54 6f3d 00a3 ff3d f41b dbbd 0efb 11be
000003c0: b17e 9b3c 780c 59bd 04b4 f1bd 885b 5bbd
000003d0: db53 bcbd 6bd7 af3d 46b5 3e3d 69c8 e93d
000003e0: 2f24 313d 8ffa 90bd b0ee a6bd a05a 0a3e
000003f0: 5298 85bd 774a 93bd a42b c63d 4925 043d
0.007725995 0.06105956 -0.0835063 0.0022360159 0.029340295 0.080392115 -0.10186066 -0.1496916
-0.007953199 0.023701886 -0.015107148 -0.020973207 0.027565677 0.11332983 0.0703201 -0.19793245
0.124259666 -0.22368449 -0.102621906 0.13529001 -0.13838743 0.04514277 -0.17598541 0.10187675
-0.06773413 -0.11923743 -0.08175748 -0.072929695 0.021098815 -0.12116465 -0.0013413676 -0.14193422
0.06236389 0.098276526 -0.07260021 -0.09139435 -0.06987761 -0.027020926 0.096654475 0.046405092
0.043025266 -0.103543445 0.036094245 -0.0031565437 0.06450546 -0.09068109 0.10197343 -0.010240271
-0.0029990142 -0.02927397 -0.10745086 -0.09520989 -0.010677952 -0.06263876 0.043592703 -0.004905348
0.011376228 0.08429669 -0.05970258 0.037242077 0.13061848 0.08437462 0.008062834 -0.058537878
0.064288095 -0.017569361 0.040222757 0.0009956277 0.0010618006 0.028117687 -0.09036422 -0.08238985
-0.003085976 0.08779076 0.11981241 -0.06584361 -0.044883776 0.02685557 0.14470217 -0.018606273
0.07513393 -0.04809943 0.081864186 -0.13293912 0.012116446 0.053995557 -0.07996821 0.12936385
-0.076151006 0.040903132 -0.08209879 0.07978966 -0.16905655 0.078287855 0.02096698 -0.0062618153
-0.065298274 0.07323982 0.07381729 0.14340782 -0.16281463 0.10975584 0.08173177 0.038387325
-0.014998749 -0.26017323 0.037924245 -0.12712716 -0.07275409 -0.100862384 0.009772586 -0.10723317
-0.0642422 -0.0690252 0.105959415 -0.07637594 0.051409364 0.17602274 0.04109062 0.0044115414
-0.11592676 0.038594674 0.04445148 0.13066599 0.13276403 -0.093806 -0.07084186 0.060207322
0.044831477 0.15000772 -0.08817733 -0.11004158 -0.10156555 -0.0661948 -0.14761567 -0.024901332
0.027890613 0.04144714 -0.26723173 -0.11775826 -0.079233244 -0.09711093 -0.38349396 -0.079967536
0.14200936 0.00032367435 -0.15559065 0.05012555 0.049780816 0.08442547 0.12821138 -0.026109995
-0.074942365 -0.12097071 -0.103440285 -0.19866718 -0.022444528 -0.064022966 -0.1758063 -0.026008
-0.045980535 0.109771974 0.03382514 0.18658762 0.04928946 -0.11935113 -0.12670808 0.062406935
-0.0948237 -0.038374472 -0.108965844 0.029810842 -0.083699435 0.097240835 -0.08494852 0.05970826
0.042877626 0.05514015 -0.011703752 -0.060352452 0.012874186 0.032378513 0.053478982 0.063631795
0.05079015 0.009253691 0.0350316 -0.11901694 -0.012674892 0.12234473 -0.06299955 0.08212585
0.010973891 -0.03846857 -0.0026008745 -0.16811 -0.14896122 0.030423632 0.10106548 0.08806914
-0.06181898 -0.056421727 0.019809652 0.044671334 -0.028328614 -0.08121586 -0.032971263 0.1136929
0.019570155 -0.0690893 -0.015314214 0.078473136 0.1013571 -0.045011457 -0.03536655 0.04822333
0.12195365 0.057626862 -0.1976355 0.021529596 0.071783364 -0.09298536 -0.021318376 0.089069
0.016777705 -0.034279175 0.032935314 -0.045649767 -0.15616758 -0.006103028 0.033094347 -0.15989555
0.14301986 0.02781413 -0.057827715 0.06440221 0.058430362 0.12482262 -0.10698691 -0.14255926
0.01898131 -0.052990407 -0.118019134 -0.053554088 -0.09195682 0.085860096 0.046559595 0.11415178
0.043247398 -0.0707904 -0.08150995 0.13511133 -0.065231934 -0.071919374 0.096762925 0.03226212

bias f4 [32]
00000000: 1284 56bc e782 eb3a 785a ee3c 0ff4 d0bc
00000010: 424f c8bb 90b0 d33d 5575 60bd f911 d83d
00000020: c109 a23d 79fb c2bd 7de1 473c 1e72 073c
00000030: 6e32 c7bb 35e2 ea3c 5d02 d53c 6b62 973d
00000040: 2648 453c 4be3 b73b 1dd2 553c afc4 2cba
00000050: dde6 9a3c 3bba abbb 3e51 463d 8da5 f23b
00000060: ff32 893d dc20 aaba a9a9 e3bc 6e93 a93c
00000070: 0f9b c83c 260f eebb 0d64 bc3c ec05 0d3d
-0.013093011 0.0017968089 0.029095873 -0.025507001 -0.006112964 0.10336411 -0.054799397 0.10550303
0.07912017 -0.09520621 0.012199757 0.008266954 -0.0060790097 0.028672317 0.026002103 0.073918186
0.012041127 0.005611812 0.013050583 -0.00065905874 0.018908912 -0.0052407063 0.048417322 0.007404989
0.0669918 -0.0012979764 -0.027790861 0.020700183 0.024488 -0.0072649894 0.022996927 0.034429476

weight f4 [32, 32]
00000000: 9a84 3cbd 533a 97bd 6df9 893d 3120 5fbd
00000010: f193 d83d bb08 04be 68c1 80bd 4bfc 0c3b
00000020: a274 f43d 9aa4 e63c cdfe 29bd fcf7 a7bc
00000030: db1d 6fbb 7c76 82bd 0a7a 7ebe 1c3b 09bd
00000040: 5e0a df3d 34a1 5f3d 5965 61be 0265 cabc
00000050: 319d 31bd 95c1 283e ea54 d9bd 6c4f c4bd
00000060: 8936 f7bd c09b 99bd c7e9 d9bd ef55 56bb
00000070: 3478 df3d d34e ecbc 728f e03d 2b75 0c3c
00000080: 6a43 51bc a208 273d a60b 193d 2808 1bbd
00000090: bd94 573d bc6c 5fbc 2224 8dbd ae13 003d
000000a0: e362 1d39 df52 9d3c ab3a 13bb 8d3b 853c
000000b0: f23d dfbc 7a5e e73b 6847 4c3d 1d51 4ebc
000000c0: 8814 593c 3d02 5cbc aa08 853c aa02 27bc
000000d0: 0f18 c7bc 0d36 a83d 1c08 1c3c 52ff 293d
000000e0: 3f17 e53c d96b 0dbd 3b82 a8bc 44e1 a03c
000000f0: 5b27 0dbd f821 953d be45 623c 0ae2 63bd
00000100: cc08 4bbd c024 d5bc 0648 c43d 2e2f 343c
00000110: 47eb 043d 3396 98bd 97c6 8dbd edd1 923d
00000120: 8c1a a2bd 1aaa efbc 513b 2e3d 9213 31bd
00000130: 5279 5cbd a5ec d8bd 59e9 06be 3298 163d
00000140: d914 5cbd 1af1 2e3d 5c35 303d 53de 103e
00000150: 6790 01bd 0211 a63d f11b 9dbd 66eb 103d
00000160: 7bb1 3c3d 64b4 163b 357e 0cbe 01e3 f7bc
00000170: 829f 033e 5cbd 27bd fc15 9d3d 2a18 69bd
00000180: 7c2c 12bd 15c4 df3d 5cd2 16bd d6fe 9ebc
00000190: a271 bbbd 74ed 86bd 0de6 17bd 688a c8bd
000001a0: 4e0c 7f3d 62f5 013e c18e 5d3d 4303 58bd
000001b0: 1fc8 0dbd 8d3d 48bc 634d 0dbe 375c 3b3d
000001c0: 0200 7abd 4fd9 373e 8ab6 033e 19fd 203b
000001d0: cde3 d0bc 3750 723d 36e8 db3d be3f 89bd
000001e0: 59bd b4bc bace 20bd 540c 01bd f9bb 30bd
000001f0: 7118 1f3c bf21 b5bc cf62 1cbe 9077 32bd
00000200: ba88 23bd 9761 8fbd 9899 a93d b653 67be
00000210: d966 a0bd 1bd6 de3d b148 eebc cd8e 803d
00000220: 534f 983d 1690 aa3d 0e5c 0d3e a2cc f23d
00000230: 36ed c2bd d7f2 4e3d da47 fc3d 593a 83be
00000240: fa23 eb3d 6aa3 463d b61c 9b3d 5439 f8bc
00000250: a2ac 53be 68ee 0f3e 9bee 883c 13bc 5e3d
00000260: 3e5c b6bd 0a7b 6fbd 275f cabd 3873 6cbd
00000270: c819 c43d 16f7 dfbd a5a9 453d 80c7 3c3d
00000280: 89f3 993c 8bce 65bb f6fb 703d ed28 cfba
00000290: 47e9 ee3d 2ebe aa3d a877 00be 3862 4ebb
000002a0: bd09 97bd 1348 273d fc68 97bd 6524 f63d
000002b0: 30e0 91bc 059e 8c3d 465b 3d3d 60ec f9bd
000002c0: 95b4 b3bb da24 3ebd 6906 c63d e3f8 aa3d
000002d0: 0ff1 58bd 2936 143d 656c 8fbd 6d91 f83c
000002e0: e25d 7c3c 5e59 5abd 1aa8 1fbd 0b15 2f3d
000002f0: f503 14bc 52b7 6a3e 23f4 80bd a437 323e
00000300: a5bd a6bd 8dfc c5bc 8205 223e 5c1b bbbc
00000310: af74 643b 0d30 efbd 653c 093d a8f8 50bd
00000320: 56ef 1abc 8f6d a0bc 83e3 ffbd 0479 a73d
00000330: f4c7 03bd 4d57 b8bc b65c 3d3c b91f 873d
00000340: 9f9d 93bd 07e9 8e3d 084d 06be bf8b a8bd
00000350: 456e 993d 6fcb aebd f42e c7bc e779 263e
00000360: 2f14 34bd fba5 133c bdbf 02bd c27c 0fbe
00000370: bfc3 85bb 0711 8a3d 257f b6bd 2a10 4a3e
00000380: 5844 85bc 631e 11be c84a 763c 6be1 44bd
00000390: 35a2 5e3d e33e 393c 4236 4b3d 16a4 b33d
000003a0: 99b4 823d e421 7f3d f344 6e3d 5dad b9bd
000003b0: a4c4 473d b363 143c 276d 0bbe 0a27 25be
000003c0: b437 523d 2300 8f3d 4ff7 303e e216 0d3e
000003d0: a3ac 113d de46 5dbc 5471 8c3b 6078 84bc
000003e0: 73c6 2bbd e4d1 3d3d f01e 803d 4f31 083e
000003f0: a66d 22be 6faa 2f3d 5fa8 edbc 2401 3abd
-0.046024896 -0.07384171 0.06737027 -0.05447406 0.105750926 -0.12893955 -0.06286889 0.0021512683
0.119363084 0.02815466 -0.041502763 -0.02050399 -0.00364863 -0.06370255 -0.24851242 -0.033503637
0.10890649 0.054597095 -0.22011317 -0.024706367 -0.0433628 0.16480096 -0.10611899 -0.09585461
-0.12070949 -0.0750041 -0.106402926 -0.003270503 0.10911599 -0.02884618 0.1096486 0.008572857
-0.01277242 0.040779717 0.037364624 -0.037849575 0.052632082 -0.013636764 -0.068916574 0.031268768
0.00015009525 0.019204555 -0.0022465389 0.016263748 -0.027251218 0.007060823 0.049872786 -0.012592581
0.013249524 -0.013428268 0.016239483 -0.010193506 -0.024303464 0.08213434 0.009523418 0.041503258
0.027965186 -0.03452668 -0.020569911 0.019638665 -0.03446136 0.0728187 0.013810573 -0.05563549
-0.049568936 -0.0260185 0.0958405 0.010997577 0.03245094 -0.07450523 -0.06922644 0.071689464
-0.0791522 -0.029255915 0.042537037 -0.043231554 -0.053826638 -0.10592011 -0.13174953 0.03676624
-0.05373082 0.0427104 0.043019637 0.1414731 -0.031631853 0.08108713 -0.07671345 0.035380743
0.046067696 0.0022995705 -0.13720019 -0.030259611 0.12853816 -0.04095207 0.07670209 -0.05690781
-0.035686955 0.109260716 -0.036821708 -0.019408625 -0.09152533 -0.06588259 -0.037084628 -0.09792024
0.062267594 0.12691262 0.05409122 -0.052737486 -0.03461468 -0.012221706 -0.13799052 0.04574224
-0.061035164 0.1795399 0.12862602 0.002456492 -0.025499249 0.05915853 0.1073765 -0.06701611
-0.022062944 -0.03925965 -0.031505898 -0.043148015 0.009710417 -0.022110818 -0.15272067 -0.043571055
-0.039925314 -0.07001036 0.08281249 -0.22590527 -0.07832117 0.10880681 -0.029087396 0.06277237
0.07437005 0.083282635 0.13804647 0.11855437 -0.09517901 0.05052456 0.12318392 -0.25630453
0.11481471 0.048495688 0.075738356 -0.030300774 -0.20671323 0.14055789 0.016715338 0.05437858
-0.089043126 -0.05846695 -0.0988143 -0.05772707 0.0957523 -0.109358 0.04825749 0.046088696
0.018792884 -0.0035065736 0.05883404 -0.0015805044 0.11665588 0.08337055 -0.12545645 -0.0031491648
-0.07374904 0.04084022 -0.07393071 0.120186605 -0.017807096 0.06866077 0.046229623 -0.12203288
-0.0054841735 -0.046421863 0.096691914 0.083482526 -0.052964266 0.036184464 -0.070030965 0.030342782
0.015403243 -0.053307883 -0.038978674 0.042744678 -0.009034147 0.22921494 -0.062965654 0.17404038
-0.081416406 -0.024168277 0.15822414 -0.022840194 0.0034859588 -0.11679087 0.033504862 -0.051018387
-0.009456476 -0.019583492 -0.12494566 0.08177379 -0.032173112 -0.022502566 0.011557749 0.065978475
-0.07207798 0.0697804 -0.13115323 -0.082297795 0.07491735 -0.08534896 -0.024314381 0.1625744
-0.04396456 0.009011741 -0.031921137 -0.14012435 -0.0040821726 0.06741529 -0.0891097 0.19732729
-0.01626794 -0.14171748 0.015032478 -0.048066538 0.05435391 0.011306497 0.04961229 0.08771531
0.063821025 0.06228818 0.058171224 -0.090662695 0.048771515 0.009056973 -0.13615857 -0.16128173
0.051322654 0.06982448 0.1728184 0.1377826 0.03556503 -0.013505666 0.0042859707 -0.01617068
-0.041937303 0.046342745 0.06255901 0.1330006 -0.1586214 0.042887148 -0.02901095 -0.045411244

bias f4 [32]
00000000: ac2b 51bc ff23 6d3b 675a ee3c d38c cd3a
00000010: 0c4d b5bb de5e 0c3e 16e3 b5bd ef65 10bd
00000020: c8f3 233c e28c b0bd ea87 45bc 3f84 fd3b
00000030: 6a75 56bb 6f8e d53c ec12 d53c 614a 303d
00000040: a845 453c 4ee4 b73b 1dd2 553c afc4 2cba
00000050: 3332 9a3c a7b2 a2bb f375 6b3c 5c65 323c
00000060: d5b4 593c 7bde abba f4d1 95bc 7e97 a93c
00000070: 37db c03c 2d2f 923b 2861 22bd 635c bf3c
-0.01276676 0.0036184785 0.029095842 0.0015682228 -0.0055328663 0.13708064 -0.08881204 -0.03525346
0.010006852 -0.08620621 -0.01205633 0.007736712 -0.0032723793 0.026068894 0.02601 0.043039683
0.012040533 0.005611933 0.013050583 -0.00065905874 0.018822765 -0.0049651447 0.014371383 0.010888424
0.013287743 -0.0013112569 -0.01828859 0.02070212 0.02354203 0.00446119 -0.039643437 0.023359483
