train_script/weights/GANEdgeBased_model300new/195.pth (torch, 52355 bytes, 21 tensors)

weight f4 [32, 13]
00000000: a8bf 0300 b507 0080 9985 0200 82cf 0380
00000010: eb1f 0280 8564 0200 8d31 0780 f943 0500
00000020: 9894 0200 9dd9 0700 a149 0080 24a1 0780
00000030: f532 0680 01cd 0480 9b69 0580 b180 0080
00000040: 75e8 0480 81b5 0200 480e 0080 5685 0700
00000050: bd67 0100 5f12 0600 83d3 0700 ff24 0280
00000060: 0c73 0180 dd75 0080 1e97 0100 f2f2 0100
00000070: 27cd 0500 7de3 0780 1856 0200 f748 0400
00000080: 98cf 0780 080f 0300 90bd 0780 2afa 0600
00000090: 3a0c 0200 6810 0680 3b71 0380 2209 0000
000000a0: 1eec 0600 3178 0200 033c 0680 73a2 0000
000000b0: eab1 0100 81b6 0400 dbdd 0480 de9e 0100
000000c0: 9b60 0480 0f81 0480 52cf 0780 a4df 0200
000000d0: af6c 0600 1dc5 0100 59bc 0100 68f5 0100
000000e0: 6cf9 0380 d0ca 0780 280a 0400 1e45 0180
000000f0: f2e1 0400 4e01 0480 460c 0780 b61a 0100
00000100: be37 0700 8895 0400 7d5d 0500 6609 0600
00000110: 18f4 0580 129b 0680 caf8 0580 3195 0280
00000120: 36d6 0400 bef5 0600 4f40 0280 ffe2 0480
00000130: 4ab9 0500 f60d 0400 542a 0800 644a 0080
00000140: b5f0 0480 a91a 0080 bf70 0100 560b 0480
00000150: 1849 0380 2947 0100 cac6 0100 94b8 0200
00000160: 6bf3 0000 1fa4 0780 fb24 0380 37df 0400
00000170: 6e3d 0780 3767 0700 b93a 0280 ac71 0200
00000180: 643a 0180 e933 0480 8200 0180 8d62 0300
00000190: 67c1 0180 afdb 0180 6606 0400 8afe 0180
000001a0: 0f7e 0400 eb9c 0080 67b4 0580 3c4b 0000
000001b0: 5ff6 0100 fcac 0000 94da 0000 f358 0700
000001c0: e6d7 0600 6b0a 0000 0829 0700 6b9a 0500
000001d0: 9703 0880 a82d 0200 0679 0100 18cf 0700
000001e0: b7ce 0600 ac06 0180 de81 0400 0f11 0700
000001f0: 475f 0100 85d0 0080 c204 0180 961d 0380
00000200: eb3c 0180 21ca 0000 e070 0380 1549 0800
00000210: d267 0300 7808 0880 ba26 0100 28e5 0100
00000220: 67cb 0500 bf9d 0600 33f8 0080 561e 0880
00000230: 3ca1 0780 bbfd 0000 20d4 0780 2cc6 0580
00000240: b2e2 0700 daf0 0780 abe6 0600 4af5 0080
00000250: 6ae9 0600 1ed1 0700 d1ee 0480 3c6b 0480
00000260: c308 0380 f8d7 0600 bdf3 0580 21ff 0200
00000270: b018 0700 a750 0180 473a 0880 db3e 0480
00000280: 840c 0480 0b81 0500 accc 0400 ddad 0380
00000290: 3d08 0400 5e2a 0680 20fd 0100 3e23 0700
000002a0: 4d36 0080 e633 0000 a119 0780 1165 0700
000002b0: 3651 0780 d010 0880 8956 0680 077a 0500
000002c0: 1a3b 0300 730a 0800 1ed9 0080 50dd 0500
000002d0: 7670 0280 7937 0380 cce7 0300 5506 0000
000002e0: bac9 0600 12d4 0600 ef6e 0380 3bfb 0100
000002f0: ef2e 0700 6594 0100 4a83 0480 8364 0780
00000300: 951e 0400 d3fb 0500 8297 0400 c8a3 0280
00000310: 3300 0880 51e7 0080 083d 0700 f9d3 0680
00000320: 3a4e 0780 65a9 0600 020d 0500 a1bb 0100
00000330: 33be 0680 1020 0280 8f15 0680 49a4 0280
00000340: 88a7 0000 a581 0080 a002 0880 584b 0700
00000350: 7d35 0780 6822 0100 9712 0200 5ec5 0200
00000360: 268f 0700 ad0c 0280 e3ab 0100 a108 0700
00000370: 4085 0580 3eb1 0780 6cd4 0080 5bf4 0400
00000380: 733e 0080 d997 0580 cf1f 0780 2b07 0580
00000390: 8e4e 0100 ab8b 0080 f788 0380 daac 0300
000003a0: ce00 0180 50ea 0300 7a60 0780 c872 0080
000003b0: 054e 0800 f4d2 0700 f89b 0400 3ae3 0400
000003c0: 8c2d 0000 e44b 0580 8dba 0380 24e9 0780
000003d0: 1c2a 0000 c5a1 0400 383e 0680 6733 0880
000003e0: 77bc 0180 a8d3 0080 39c8 0300 49df 0400
000003f0: 2904 0080 e470 0000 e866 0580 f780 0780
3.4426e-40 -2.765e-42 2.31597e-40 -3.49946e-40 -1.95121e-40 2.1973e-40 -6.60624e-40 4.83561e-40
2.36976e-40 7.20913e-40 -2.6413e-41 -7.00655e-40 -5.69293e-40 -4.40884e-40 -4.97062e-40 -4.6166e-41
-4.50732e-40 2.48782e-40 -5.123e-42 6.9068e-40 1.2905e-40 5.57603e-40 7.18725e-40 -1.96943e-40
-1.33107e-40 -4.2281e-41 1.46046e-40 1.78988e-40 5.32772e-40 -7.24456e-40 2.14556e-40 3.93517e-40
-7.17319e-40 2.80899e-40 -7.1085e-40 6.40755e-40 1.88057e-40 -5.56898e-40 -3.16126e-40 3.276e-42
6.35716e-40 2.26788e-40 -5.72541e-40 5.8276e-41 1.55659e-40 4.32812e-40 -4.46929e-40 1.48826e-40
-4.01997e-40 -4.1364e-40 -7.17221e-40 2.63898e-40 5.90001e-40 1.62546e-40 1.59402e-40 1.7987e-40
-3.64982e-40 -7.15604e-40 3.70985e-40 -1.1663e-40 4.48396e-40 -3.6781e-40 -6.47251e-40 1.01418e-40
6.62845e-40 4.20984e-40 4.92715e-40 5.54385e-40 -5.46742e-40 -6.06642e-40 -5.48426e-40 -2.37191e-40
4.44186e-40 6.39169e-40 -2.0674e-40 -4.48773e-40 5.25647e-40 3.7235e-40 7.49868e-40 -2.6686e-41
-4.53691e-40 -9.564e-42 1.32281e-40 -3.71409e-40 -3.01728e-40 1.17363e-40 1.63148e-40 2.49885e-40
8.7322e-41 -7.01724e-40 -2.88773e-40 4.47416e-40 -6.64885e-40 6.79875e-40 -2.04737e-40 2.24449e-40
-1.12782e-40 -3.85964e-40 -9.2018e-41 3.1086e-40 -1.61215e-40 -1.70643e-40 3.69637e-40 -1.83147e-40
4.12563e-40 -5.6292e-41 -5.23894e-40 2.6989e-41 1.80217e-40 6.2055e-41 7.8411e-41 6.74757e-40
6.28463e-40 3.737e-42 6.57568e-40 5.14572e-40 -7.35972e-40 2.0005e-40 1.3525e-40 7.1714e-40
6.25168e-40 -9.4229e-41 4.1393e-40 6.48968e-40 1.26015e-40 -7.4803e-41 -9.3542e-41 -2.8612e-40
-1.13689e-40 7.251e-41 -3.15998e-40 7.60901e-40 3.1275e-40 -7.37722e-40 1.05728e-40 1.74041e-40
5.32144e-40 6.07602e-40 -8.9037e-41 -7.45566e-40 -7.00688e-40 9.1021e-41 -7.18945e-40 -5.30268e-40
7.24171e-40 -7.2925e-40 6.33761e-40 -8.7993e-41 6.34746e-40 7.17866e-40 -4.53013e-40 -4.0581e-40
-2.7865e-40 6.28488e-40 -5.46614e-40 2.75194e-40 6.51705e-40 -1.20768e-40 -7.5559e-40 -3.8989e-40
-3.71832e-40 5.0547e-40 4.40764e-40 -3.37877e-40 3.70297e-40 -5.66211e-40 1.8264e-40 6.55491e-40
-1.948e-41 1.8618e-41 -6.52042e-40 6.79104e-40 -6.71981e-40 -7.40715e-40 -5.82056e-40 5.02953e-40
2.96708e-40 7.38432e-40 -7.7887e-41 5.3857e-40 -2.24014e-40 -2.95406e-40 3.5866e-40 2.272e-42
6.23379e-40 6.2709e-40 -3.15302e-40 1.8196e-40 6.59685e-40 1.4507e-40 -4.1444e-40 -6.78905e-40
3.78313e-40 5.49515e-40 4.21693e-40 -2.42425e-40 -7.34755e-40 -8.298e-41 6.64742e-40 -6.27054e-40
-6.70911e-40 6.1178e-40 4.63844e-40 1.59144e-40 -6.19244e-40 -1.95173e-40 -5.58747e-40 -2.42605e-40
6.0099e-41 -4.6508e-41 -7.35626e-40 6.69877e-40 -6.62036e-40 1.04178e-40 1.9034e-40 2.54473e-40
6.942e-40 -1.88218e-40 1.53497e-40 6.45944e-40 -5.06979e-40 -7.06431e-40 -7.6203e-41 4.55e-40
-2.2403e-41 -5.1365e-40 -6.54259e-40 -4.61749e-40 1.20016e-40 -5.0103e-41 -3.2464e-40 3.37514e-40
-9.2124e-41 3.59562e-40 -6.77458e-40 -4.1176e-41 7.62672e-40 7.18524e-40 4.23293e-40 4.48856e-40
1.6339e-41 -4.86402e-40 -3.42428e-40 -7.26484e-40 1.5106e-41 4.25374e-40 -5.73333e-40 -7.53124e-40
-1.59444e-40 -7.5928e-41 3.47333e-40 4.47442e-40 -1.492e-42 4.0498e-41 -4.96093e-40 -6.89112e-40

bias f4 [32]
00000000: 2b66 14be c11b 0cbe 2d13 ebbd a9e4 d83c
00000010: c788 cfbd 3887 b8bd 55d8 fabd a863 20bc
00000020: 1c96 2fbd 3bf9 2e3d 1f6f 6e3d a21a 61bd
00000030: c7a7 f8bb adba 683d 7859 26bd a73a 583e
00000040: eb57 9b3d 5d19 fa3d eef4 06be 6433 a4bd
00000050: a40a 8cbd af41 973d ab35 b3bb 62ad 4e3e
00000060: 04f8 c43c ffa6 323e 3242 22be 036a 2e3d
00000070: d58a 503e fe63 fd3c 57aa 0cbd 68e3 2dbe
-0.14492099 -0.13682462 -0.11478267 0.026476221 -0.1013351 -0.09010166 -0.12248293 -0.009789385
-0.042867765 0.042718153 0.058211442 -0.05495704 -0.00758836 0.056818653 -0.040612668 0.21116124
0.075851284 0.12211869 -0.13179371 -0.080176145 -0.06837967 0.07385575 -0.005469044 0.20183328
0.024044044 0.17446516 -0.15845564 0.04258157 0.2036546 0.030931469 -0.034342136 -0.1698128

weight f4 [32, 13]
00000000: d4df 40bd 532b 563e e7c3 83be b8d2 64be
00000010: e414 d2bd 0bdf eebd abcb 743e 2c1f 3abe
00000020: f6fb dfbd 49e6 713e b1c9 1e3e 3c58 063e
00000030: fdd7 f3bd b62a 873e c5a4 273e 109d 1d3e
00000040: 9c90 e73d cc95 15be d120 95bd ee12 633e
00000050: 774b 7cbe 5c94 c9bd 24a0 083d 8cae ac3d
00000060: 0f2f 8abd 7fd4 4ebe 1c7a 533e c08d 85be
00000070: afed b3bd 8e2a 2d3d 01b2 3dbc c5d5 92bd
00000080: 99da 1fbe 364e 6e3d 2e6e 6a3e c094 1d3c
00000090: d998 223e 87d7 5abe a95d 933e 4fd4 143b
000000a0: 2a8e d8bc b048 743e 1ca7 653e 7b2f 5c3e
000000b0: 4fbc 843c 6d12 243e ff8c 0cbe 9a2b 163e
000000c0: 8cc7 1fbe fe55 68bd b05a 373e 5fc8 633c
000000d0: 5736 7abb f262 4a3e 9131 2cbe ba4f 4bbe
000000e0: a2b5 1f3e e591 453e 83cf 683d be2e 61be
000000f0: f430 113e 7c97 de3c 6190 493e 9719 6f3e
00000100: 9e4a 61bd a93a 6b3e 7376 f83b a1e5 963d
00000110: 74b6 73be 3bcd 50be 6854 223e 2a93 8e3d
00000120: 28e8 87bd 8847 323e 69b9 debd bd9f c23d
00000130: e165 c9ba 93ef 3c3e b427 51be c03e 943d
00000140: e991 233d 5ab2 6c3d 856d 8b3e 1a1e 3e3e
00000150: 965f 283e a0cd 2fbe 29f2 293e ad1e 9ebd
00000160: 3e03 863d 9214 cdbd ede1 4f3e b0de 55be
00000170: d9f0 0f3d 7ac5 203d da47 9dbd f0ee 0d3e
00000180: 4100 013d 9435 f13d 77ea 823e 5e0c ac3d
00000190: f846 1dbc 1b1d 423e ea50 cf3d 6600 963c
000001a0: ae52 593d 270e 6a3d 1573 243e eab1 4fbe
000001b0: 33ae 73be 573f 9b3d edbe a13d 0394 4fbe
000001c0: e8ea 2ebe 0500 2bbd f6db 02be 8049 5c3d
000001d0: a100 cb3c ff52 2a3e d24d 253d 4483 37be
000001e0: 8098 b9bd 49b9 28bc 0c8e bdbd 0f56 0ebe
000001f0: f5c1 5e3e 0e3e 45be 4910 ef3d 0231 81be
00000200: 9adc 653e 2238 a2bd e198 573e 019e 01be
00000210: acdc c0bc c50a 363d 2bc3 82be c52c b8bd
00000220: 31a3 04bd edda 033d 74b0 57be 92f4 abbd
00000230: d71e 3cbe 415a 06be d3df 973d e516 413e
00000240: ff41 3c3e 0c17 533e 24d9 ffbd 610d 32be
00000250: 7d27 dc3c 3fb3 663e 0ea0 87be c8df b03d
00000260: 2b98 373e 7241 57be 83f0 81be 9c2a 083e
00000270: fc93 3e3d bf1b 713e 8ae2 2dbe 3251 46be
00000280: 5d50 5bbe 1ea6 11be ca4a 17bd 1d2c 28bc
00000290: c1bc 803e 201d 67be 6f88 93bc 39a2 72be
000002a0: b642 2a3d 65c3 dd3c 5e8c b93d a1f3 7e3e
000002b0: b2be 10bb 1400 573d 17e7 633e 63bf 04be
000002c0: 2ec0 803d 36ea 40be ad5f 98bd fd7c 893e
000002d0: e842 733e 1dce d03d 9586 d3bb 41ee 7cbd
000002e0: 9707 ae3d f765 303e 0921 77bc c1f9 3ebc
000002f0: 18f0 bf3d cebe 143e e254 ff3c aab8 60be
00000300: 4568 393e 8bd2 7e3e 5a2c 343e 5d6b 133e
00000310: 3877 85be 3913 2dbe df89 36bd af81 e2bd
00000320: e232 36be b475 c1bd 0c03 813e 2de1 93bd
00000330: 3803 cd3c 806e 7cbd d37c 6cbe 821f 1fbe
00000340: dd6b 723e 7990 803c 883f 41be 465b c73c
00000350: dfce 793e 5c41 30be 153e 313e 7979 f63d
00000360: d726 19be 8e55 3e3e a439 7b3d 8ad7 e1bd
00000370: 9e7a ba3d 3f52 153e 346a 743d ad5e 7abe
00000380: 57be 90be f645 2fbe 7e33 f9bd 4fb3 72be
00000390: 6eda 853d f6f5 56be b24f b43c 90ca 8d3e
000003a0: 1122 76be 8f75 913d 4ea9 073e 6f07 553d
000003b0: c56c 2fbd 4814 c43b 5dc8 4bbb 6274 51be
000003c0: f997 3bbe ef4c 9fbc 8f18 4cbe 68b3 a6bc
000003d0: 4a7a 62bd c6fe dbbb c15d 283d 9973 293e
000003e0: ae7d 75be 35ce 3c3d aa59 a53d 500c 913d
000003f0: 9c5a 0c3e 9619 173e 7bf5 483e b8f6 1cbe
-0.04708846 0.20914964 -0.257354 -0.22346008 -0.10257891 -0.11663636 0.23905818 -0.18175954
-0.109367296 0.23623003 0.15506627 0.13119596 -0.11906431 0.26399773 0.16371448 0.15391946
0.11306879 -0.14607924 -0.0728165 0.2217519 -0.24638163 -0.098427504 0.033355847 0.0843173
-0.06747257 -0.20198248 0.2065205 -0.2608471 -0.08785569 0.04227691 -0.011578084 -0.071696796
-0.15610732 0.058180057 0.22893593 0.009617984 0.15878619 -0.2137128 0.28782395 0.0022709554
-0.026434977 0.23855853 0.22427028 0.21502487 0.016203074 0.16022654 -0.1372566 0.1466507
-0.15603465 -0.056722634 0.17905688 0.013902753 -0.0038179362 0.19764307 -0.16815783 -0.19854632
0.15596631 0.19293936 0.056838524 -0.21990487 0.1417883 0.027171843 0.19683982 0.23349606
-0.0550028 0.22971596 0.0075824796 0.07368017 -0.23800069 -0.20390789 0.15852511 0.06961663
-0.06636077 0.174101 -0.10875208 0.09503124 -0.0015365445 0.18450765 -0.20425302 0.07238531
0.039934073 0.057787277 0.27231994 0.1856617 0.16442713 -0.17168283 0.16596283 -0.07720695
0.06543587 -0.10013689 0.20301028 -0.2088573 0.0351418 0.03925083 -0.0767972 0.13860679
0.031494383 0.11777797 0.25569507 0.08400796 -0.00959944 0.18956415 0.10122855 0.018310737
0.053057365 0.057142403 0.16059525 -0.20282713 -0.2379692 0.075804405 0.07897744 -0.20271306
-0.17081797 -0.041748066 -0.12779221 0.053781033 0.024780573 0.16633223 0.04035742 -0.17921168
-0.0906229 -0.010298082 -0.09255609 -0.13900016 0.21753676 -0.19261953 0.11673028 -0.25232702
0.22447434 -0.07920863 0.21054412 -0.1265793 -0.023542725 0.044443864 -0.25539526 -0.08992914
-0.032382194 0.032191206 -0.21063405 -0.083962575 -0.1837114 -0.13120367 0.07415738 0.1885639
0.1838455 0.2061426 -0.12492588 -0.17387916 0.026874298 0.22529314 -0.264893 0.08636433
0.17929141 -0.21021059 -0.25378808 0.13297504 0.046527848 0.2354574 -0.16980949 -0.19366911
-0.21417375 -0.14223525 -0.03693656 -0.010264424 0.25144008 -0.22569704 -0.018009393 -0.23694696
0.041567527 0.02707071 0.09059976 0.24897625 -0.002208632 0.05249031 0.22256123 -0.12963633
0.06286655 -0.18839344 -0.07440124 0.2685317 0.23755991 0.10195563 -0.0064552524 -0.061750654
0.084975414 0.17226397 -0.01508356 -0.011656226 0.09371966 0.14525911 0.031168405 -0.21945444
0.18106182 0.24885003 0.17595044 0.14396425 -0.2606752 -0.16901864 -0.044565078 -0.110598914
-0.17792848 -0.09446278 0.25197637 -0.07220683 0.025025949 -0.06162882 -0.23094492 -0.15539363
0.23673959 0.01569389 -0.18871891 0.024335515 0.24395321 -0.17212433 0.17308839 0.12034888
-0.14956222 0.18587324 0.061334267 -0.11027439 0.091054186 0.14582156 0.059671596 -0.24450178
-0.28270218 -0.17116532 -0.121680245 -0.23701213 0.06535803 -0.20992264 0.022010658 0.27693605
-0.24036433 0.07102501 0.13248178 0.052009042 -0.04282834 0.005983863 -0.0031094768 -0.20454553
-0.18319692 -0.019445864 -0.19931243 -0.02034922 -0.055292405 -0.006713721 0.041105036 0.16548003
-0.23973724 0.04609509 0.08073743 0.070824265 0.1370644 0.14755854 0.19624893 -0.1532849

bias f4 [32]
00000000: 7034 95bd 0ab5 163c a1d6 52bd 82f7 88bc
00000010: 060e 0abd 1d29 863d 3b98 14be ea6c 813d
00000020: 6f2f 8abd 5dd9 0c3d 16fa dfbd 073d e6bd
00000030: d336 0abe 2029 153e a9b9 c53d e6b5 6d3c
00000040: d537 d43d 65be 22be dc92 143e ddcf bcbd
00000050: 0e2d bbbc 0570 b5bd 97a9 9f3c c567 283e
00000060: 267b dd38 5d1a 0ebe 232c 1e3e 983d 2dbe
00000070: 8469 08be b5f9 aabd efe5 593e 4d21 233e
-0.07285392 0.0091984365 -0.051474217 -0.016719583 -0.03370478 0.065508105 -0.14511196 0.06319602
-0.067473285 0.03438698 -0.10936372 -0.11242109 -0.13497476 0.14566469 0.096545525 0.0145087
0.103622116 -0.15892942 0.14509147 -0.09219334 -0.022848632 -0.08859257 0.019490046 0.16445835
0.000105610394 -0.13877244 0.15446524 -0.16918027 -0.13321501 -0.08348409 0.21279119 0.15930672

weight f4 [13, 13]
00000000: 79e2 0180 5837 0200 463d 0480 4428 0100
00000010: 1cc4 0600 4def 0280 1fea 0380 9a19 0800
00000020: b57d 0000 43ea 0400 951c 0300 f159 0100
00000030: 1ef4 0000 4d00 0800 125c 0080 0a4a 0180
00000040: 2e29 0000 0128 0300 0b63 0380 f264 0280
00000050: 4609 0680 e4fa 0300 819a 0600 7aa0 0480
00000060: ccdc 0780 17f6 0480 e395 0480 e1b8 0500
00000070: 4940 0680 f1c9 0700 5826 0300 0629 0000
00000080: 4136 0000 7224 0300 11e7 0780 de05 0180
00000090: f61d 0300 5f5b 0280 dd9b 0180 2060 0780
000000a0: 914c 0280 f6a1 0700 59d5 0280 376a 0780
000000b0: 4b1f 0480 b809 0400 b59b 0000 979e 0680
000000c0: 6bec 0100 cf03 0380 ac39 0180 09ed 0700
000000d0: f076 0180 3ca2 0100 b3fe 0700 7eb3 0780
000000e0: c8e5 0600 48f7 0600 1867 0700 b73b 0780
000000f0: 425c 0000 614a 0280 37c9 0480 4740 0500
00000100: c2db 0700 59d4 0000 cde3 0700 e36b 0700
00000110: ddbc 0200 b8f9 0100 7f0d 0480 abe9 0280
00000120: a4f9 0380 34ac 0780 101b 0800 f546 0380
00000130: 5cf4 0280 f6a6 0580 830c 0780 eb1d 0180
00000140: 16fe 0600 07b3 0700 6ca0 0400 15c1 0400
00000150: b445 0600 a752 0700 5224 0000 83ce 0700
00000160: 3834 0580 83f4 0780 9d09 0300 1a35 0280
00000170: a47d 0380 1b87 0100 eaf6 0680 a4bc 0400
00000180: 4bca 0480 8090 0780 6a5d 0100 e383 0300
00000190: 21b0 0080 641a 0380 07a3 0000 f49e 0180
000001a0: 60fb 0700 27bc 0580 2239 0280 7029 0400
000001b0: 07b1 0200 45ea 0000 769a 0280 4ffd 0780
000001c0: 48ce 0180 ced4 0380 3b10 0500 6bf9 0580
000001d0: 5ffa 0300 d492 0500 74f0 0300 6112 0780
000001e0: b514 0700 a56b 0000 ede2 0700 a47d 0700
000001f0: 969b 0200 fdf1 0480 b885 0580 cb4c 0400
00000200: b4d3 0780 42e1 0300 8c46 0300 67c9 0280
00000210: 4d96 0200 8557 0080 ba09 0080 69fc 0400
00000220: 1d75 0480 9bdd 0700 7262 0500 36bb 0680
00000230: eebe 0680 29f1 0200 73d7 0000 8b96 0380
00000240: 37cf 0100 68c6 0280 c24b 0600 3d8e 0180
00000250: 9499 0380 0eb9 0480 292e 0700 6f64 0280
00000260: fb95 0580 d707 0300 872e 0480 57a9 0600
00000270: 1be0 0780 9404 0480 bc80 0780 55f5 0500
00000280: 6178 0400 eb7c 0600 c31e 0480 08f9 0180
00000290: ed8f 0180 5b49 0880 6eae 0580 51b7 0700
000002a0: e3bb 0000
-1.73079e-40 2.03525e-40 -3.89323e-40 1.0628e-40 6.21364e-40 -2.69516e-40 -3.59493e-40 7.43868e-40
4.5095e-41 4.51379e-40 2.8576e-40 1.241e-40 8.7573e-41 7.34792e-40 -3.3029e-41 -1.18396e-40
1.4772e-41 2.89857e-40 -3.11036e-40 -2.19883e-40 -5.5434e-40 3.65509e-40 6.06439e-40 -4.2491e-40
-7.22055e-40 -4.55622e-40 -4.21111e-40 5.255e-40 -5.74074e-40 7.15291e-40 2.89262e-40 1.4716e-41
1.9463e-41 2.8858e-40 -7.2574e-40 -9.394e-41 2.86254e-40 -2.16449e-40 -1.47749e-40 -6.77332e-40
-2.11138e-40 7.00949e-40 -2.60206e-40 -6.80951e-40 -3.78568e-40 3.70828e-40 5.5857e-41 -6.07904e-40
1.76646e-40 -2.76873e-40 -1.12524e-40 7.2788e-40 -1.34502e-40 1.50034e-40 7.34217e-40 -7.07238e-40
6.33443e-40 6.39721e-40 6.79832e-40 -6.6427e-40 3.3096e-41 -2.10353e-40 -4.39524e-40 4.82236e-40
7.21683e-40 7.6176e-41 7.24568e-40 6.81551e-40 2.51422e-40 1.81418e-40 -3.72183e-40 -2.67495e-40
-3.6506e-40 -7.04623e-40 7.44392e-40 -3.00961e-40 -2.7133e-40 -5.19072e-40 -6.47337e-40 -1.02568e-40
6.42162e-40 7.07071e-40 4.2489e-40 4.36607e-40 5.76018e-40 6.72499e-40 1.3029e-41 7.16931e-40
-4.7791e-40 -7.30563e-40 2.78955e-40 -2.0272e-40 -3.20578e-40 1.40302e-40 -6.39589e-40 4.35013e-40
-4.39911e-40 -6.94685e-40 1.25346e-40 3.22819e-40 -6.3183e-41 -2.84974e-40 5.8483e-41 -1.48857e-40
7.33025e-40 -5.26674e-40 -2.04166e-40 3.82207e-40 2.47176e-40 8.404e-41 -2.39081e-40 -7.33718e-40
-1.65835e-40 -3.51846e-40 4.65e-40 -5.48652e-40 3.65323e-40 5.1185e-40 3.61765e-40 -6.49442e-40
6.50277e-40 3.8616e-41 7.24254e-40 6.8792e-40 2.39485e-40 -4.54151e-40 -5.07147e-40 3.9489e-40
-7.18793e-40 3.56314e-40 3.00814e-40 -2.5592e-40 2.37589e-40 -3.1396e-41 -3.489e-42 4.5789e-40
-4.09354e-40 7.22346e-40 4.94493e-40 -6.18172e-40 -6.19506e-40 2.70183e-40 7.7289e-41 -3.29511e-40
1.6617e-40 -2.54846e-40 5.7819e-40 -1.42861e-40 -3.306e-40 -4.33727e-40 6.59408e-40 -2.197e-40
-5.1298e-40 2.78319e-40 -3.84033e-40 6.1176e-40 -7.23242e-40 -3.68984e-40 -6.8903e-40 5.47186e-40
4.10526e-40 5.95825e-40 -3.78377e-40 -1.81171e-40 -1.43466e-40 -7.60999e-40 -5.21751e-40 7.0861e-40
6.7401e-41

bias f4 [13]
00000000: c575 6f3e 91ec 11bd 24e8 f53b 68a3 a23c
00000010: 2546 8c3e 9fc3 493e 39c2 82bd 81e4 0bbe
00000020: 39b9 503e 3cb0 57be e337 6f3e ce51 10be
00000030: c896 a8bc
0.2338477 -0.035625998 0.00750448 0.019853309 0.27397266 0.1970353 -0.06384701 -0.13661386
0.20383157 -0.21063322 0.23361163 -0.14093706 -0.02057971

weight f4 [32, 13]
00000000: 1332 86be a75b 8dbe 6c42 033e 8d53 483e
00000010: d9cd 5a3e b106 803e 0dc7 a5bd 203c 5f3e
00000020: 4a0b 2c3e db09 373e 07ab 673e 95af fdbd
00000030: 557a f0bd 31c8 8bbc 18be 173e 91a3 52be
00000040: 5b89 66be 7d33 a43d fa5f 2ebe 9837 48be
00000050: 1066 533d 2979 d5bc 418f 4ebe dd22 e13c
00000060: 3617 7bbd 3891 e0bb 9835 b2bd 465b 023e
00000070: 36e0 54be 2343 2bbe 90f8 693e daf1 4a3e
00000080: 6b91 593e adcb cd3d 6e3f 173e c600 14bd
00000090: 6025 913d c04a 91bd f2fa db3d c445 4dbe
000000a0: 9574 363c 50f7 8a3e 8339 1e3e f927 98be
000000b0: e415 e5bd 4a9c ec3d b7ae 233e 4975 16be
000000c0: c882 273b d944 0f3d 6928 de3c e989 3c3e
000000d0: 8c57 873e f91d 333d 07d3 ef3e bdbb 823d
000000e0: 9d5a 543c 5755 883c 01b5 c5bc b4a4 f1bd
000000f0: 2060 ac3d 7c84 b53b fa6a 793d e978 82bb
00000100: 139f 123d 164e 893e f020 44bd 3d80 bc3e
00000110: 8f98 a8bd d187 b53e 6983 f53c 4e66 a73d
00000120: 22bf 473e f9c8 4ebe 2ac9 2fbe ed18 65be
00000130: 5c1c 13be 6e39 273c 36c3 95be 85d1 153e
00000140: 036d 3a3e a8d9 a93d 1e95 1fbd 2472 debd
00000150: c24e 373e 7dd3 4bbe 3105 8dbd 0c01 c4bd
00000160: b878 223d 8686 b23c 5ee0 673e fba0 023e
00000170: 7edd 643e b7f3 00be 090b a63d f2bd 85bd
00000180: 7717 20be 6fb4 75be 3dac b4bc 4481 1e3e
00000190: 39dd c73d 2b79 593b b2ca 3b3d 653b 643c
000001a0: 6f85 ad3e 0f78 773e f811 91bd 1292 78be
000001b0: 6a14 263e 5849 c73d dcbd 623c 902e 493a
000001c0: 8144 453e d5e8 1f3c 89c0 e7bd 20c8 3c3c
000001d0: 3469 803e f6b7 9a3c 6cf3 09be c69e d7bd
000001e0: c9fb 66be 516e 833e 15de 0bbe 9283 563e
000001f0: 8a52 eb3d 3342 36be 956b 50be 1f87 d53d
00000200: 532a 823d ae5f 8a3d 8859 d93c 0712 593e
00000210: 02bd a6be 7131 29be b9c3 263e adf4 4ebe
00000220: 14e9 ba3d 3723 bc3d 4d3c 3bbe 34dc dcbd
00000230: 0336 5c3d 6804 d8bc 3dfc cf3d eb55 94be
00000240: ad8e 593e fd9c 123d 10cf 13bd 269d a2be
00000250: 262a e0bd a5f7 2e3e 0851 31bd f0a6 083e
00000260: 5c8c 8f3d 0fb1 49be 740f bb3d 740d bd3d
00000270: 8024 a63d 5d84 7a3e 0252 0ebe 4c3b 8ebc
00000280: df02 74bd 23d4 d6bd bdee 673e 5b4e 143c
00000290: 0c38 cf3d 9c82 103e 7f3a 403e 4bf1 8dbc
000002a0: 0d1c 69be 4367 633e 8540 17be 60d4 8fbe
000002b0: d540 44be 223e c43c da45 cb3d ded3 ae3b
000002c0: 4a2a 5fbe 0a78 75be 1845 893c efdc 0a3c
000002d0: b84e 273c 4cdc 373d 9b3d 613e 2cb5 003e
000002e0: 4443 65be 2312 00bd 7daf 293e ca1a 10be
000002f0: e92c cc3d 4b87 65be e739 8b3d 93a9 143d
00000300: 2f62 2e3e dca7 803c baf6 86be 8459 dbbd
00000310: 20cd 43be 72ee 903d 423b e43d 21fd 013d
00000320: cfdc 35be e672 823e 8a69 383e e698 313d
00000330: b775 2bbe 5951 3cbd a18b 0b3e ee44 883c
00000340: fa93 893e fc8a 333e 110d 4fbe 1601 303e
00000350: 64f4 803d 3a4c 21bd f81c 0d3e a885 6abc
00000360: bb4a 143e 76ff b93d 3c10 8abd 9df7 3a3d
00000370: b7cb 19be c515 9f3e 0e51 173e 0213 0f3e
00000380: be80 873a 0891 e3bd faf4 c5bd 5ee8 283d
00000390: 2783 49be 6282 46bd 89f1 293e f983 63bd
000003a0: 1005 32be f0ae a63e ae4c 9b3d c68a 81be
000003b0: 8258 07be 3302 5bbd 2c5d 71be d602 f63c
000003c0: 1473 163e 00f4 40be ecc6 253e 3f2f d2bd
000003d0: 69f6 363d 9cf0 f03d c533 173e da29 de3e
000003e0: 22fc 8d3e 5737 90bb ac94 c83d dae5 df3d
000003f0: 9f5f ed3d 99e4 3ebe 8524 633d a02b 503d
-0.2621008 -0.27608988 0.12818307 0.19563122 0.21367587 0.25005105 -0.080946065 0.2180028
0.16801181 0.17874853 0.22623836 -0.12387005 -0.11742083 -0.017063232 0.14818609 -0.20570208
-0.22513334 0.08017633 -0.170288 -0.19552457 0.051611006 -0.02605875 -0.20171835 0.027482444
-0.061301433 -0.006853249 -0.087016284 0.1273013 -0.20788655 -0.1672483 0.22848725 0.19818822
0.21246879 0.10048614 0.1477029 -0.03613355 0.07087207 -0.070943356 0.107412234 -0.20046145
0.011136194 0.2714181 0.15451626 -0.29717997 -0.11185816 0.11553247 0.15984617 -0.14693178
0.002556013 0.034977768 0.027118878 0.18411984 0.2643398 0.043729756 0.4684069 0.063834645
0.012961057 0.016642256 -0.024134161 -0.11798993 0.08416772 0.005539475 0.060893036 -0.003981699
0.035796236 0.26817387 -0.047882974 0.36816588 -0.08232223 0.35455182 0.029969888 0.0817381
0.19506505 -0.20193852 -0.17166582 -0.2237279 -0.14366287 0.010206563 -0.29250497 0.14630707
0.18205647 0.08293468 -0.03896057 -0.10861614 0.17901137 -0.19904895 -0.06885756 -0.09570512
0.039665908 0.021792661 0.22644183 0.12756722 0.22350118 -0.1259297 0.081075735 -0.0653037
-0.15633951 -0.23994611 -0.022054786 0.15478998 0.09758992 0.0033183794 0.045847602 0.013930176
0.33890864 0.24166892 -0.070835054 -0.24274471 0.16218725 0.09730786 0.013839211 0.000767448
0.19264413 0.009760101 -0.1131602 0.011522323 0.25080264 0.018886548 -0.13471764 -0.105283305
-0.22556986 0.25670102 -0.13658936 0.20948628 0.114903525 -0.1779869 -0.2035354 0.10426163
0.06355729 0.06756531 0.02653195 0.21198283 -0.32566077 -0.16522767 0.162856 -0.20210524
0.091264874 0.09186404 -0.18284722 -0.10784188 0.053762447 -0.026369289 0.101555325 -0.289718
0.21245833 0.035794247 -0.036086142 -0.3176052 -0.10945539 0.17086656 -0.043290168 0.13344932
0.07009193 -0.19696449 0.09133807 0.092310816 0.081124306 0.24464555 -0.13898471 -0.01736226
-0.05957305 -0.104896806 0.22649665 0.0090518845 0.10118112 0.14112324 0.18772314 -0.017326972
-0.22764607 0.2220736 -0.14770706 -0.28091717 -0.19165356 0.023955408 0.099254325 0.005335315
-0.21793476 -0.23971573 0.01675658 0.008475526 0.010211639 0.044887826 0.21996157 0.12569112
-0.22388941 -0.031267297 0.1657085 -0.14072719 0.099695034 -0.22414891 0.06798153 0.03629453
0.17029642 0.015705042 -0.26360112 -0.10710433 -0.19121218 0.0707673 0.11144115 0.031735543
-0.17760013 0.25478286 0.1800901 0.043358706 -0.16744123 -0.045976017 0.13627483 0.01663443
0.2687071 0.17533487 -0.20219828 0.17187914 0.06296614 -0.039379336 0.13780582 -0.014314093
0.14481632 0.090819284 -0.06741378 0.0456463 -0.15019117 0.31071296 0.14777014 0.13972095
0.0010338051 -0.11111647 -0.09665866 0.041237228 -0.19678937 -0.048464186 0.16596045 -0.05554578
-0.17384744 0.32555342 0.07582985 -0.25301188 -0.13217357 -0.053468894 -0.23570698 0.03003065
0.14692336 -0.18843079 0.16189164 -0.10262918 0.04466859 0.117646426 0.14765842 0.43391305
0.27731425 -0.0044011283 0.09793982 0.109325126 0.11590504 -0.1864189 0.05545475 0.050822854

bias f4 [32]
00000000: 11b4 313e a312 34be cd97 d1bc 802b d63c
00000010: 0535 4abd eb5e 6abd b096 a4bd 57aa 00be
00000020: 97b2 ad3d 4403 f43d baf3 073e 08ed 44bc
00000030: 3dc8 d2bd 0970 e5bb 1e60 723d 04f9 ae3d
00000040: 31c9 9cb8 67f6 433d d1af 0c3e bb0e fc3d
00000050: 452d 05bd 26b1 18bd 55f3 48bd 8f43 c3bd
00000060: 49a2 93bc de02 bb3d 5e88 edbd b8be 3abc
00000070: 4bb4 e33d 84dc a73d f41a fc3d 8e58 e9bc
0.17353846 -0.17585234 -0.02558508 0.02614379 -0.04936697 -0.057219427 -0.08036554 -0.1256498
0.08481329 0.11914685 0.13276568 -0.012019403 -0.10292099 -0.007001881 0.059173696 0.0854359
-7.4761345e-05 0.04784241 0.13738944 0.12307497 -0.032513876 -0.037278317 -0.049060185 -0.0953437
-0.01802172 0.09131406 -0.115982756 -0.01139801 0.111183725 0.08196357 0.123098284 -0.028484609

weight f4 [32, 64]
00000000: 78d4 c33c e1db c13d 8650 9b3c dc60 443c
00000010: 1685 bebd ba30 903c 3671 de3d be87 a3bd
00000020: 00ef 383c a02e b43d d32c ddbd e37b a53d
00000030: 60c8 d03d f52c 723d d722 0fbd 9c95 a93b
00000040: e958 a13b df05 c13d cd14 d5bd 0a6c bcbc
00000050: 274d b63c 27c1 943d 4546 7cbd 999f a3bd
00000060: 3c1d 9a3d d2a6 89bd 0a25 14be 7074 863d
00000070: 6959 983c a80d ab3b c064 913c ab53 b4bd
00000080: 6b04 bdbd 1807 32bd a219 31bd 9cc2 01bc
00000090: aeac bbbd 00b8 653d f303 3abd fb70 41bd
000000a0: 5067 083d 30a9 f4bc 4307 ae3c 1870 4e3d
000000b0: f4a4 10be ee03 d2bd 0367 bd3d c32e a93d
000000c0: a8e2 ad3c 6097 a03d 01e7 4a3c 0cb4 6b3c
000000d0: b56f 6d3d e0f6 bbbd 60aa 16be 9929 963d
000000e0: 4cd4 83bd 3172 ce3c 0471 f2bd d84d 8dbd
000000f0: 9950 97bc c2ca 76bd c677 54bd 38a7 07be
00000100: fe8b 913d 263a cebd 8a85 43bd f6f5 87bd
00000110: 68c3 f9bc 7799 8e3d b229 9a3d 41aa e0bb
00000120: bb5d a6bd 6bbe 2bbd 93af 04bd 45dc 41bd
00000130: 8745 febd 932c 8abd 51af 93bd bfa6 8dba
00000140: be4b 90bd e879 443d c33a a93d 57b3 29bc
00000150: 2c1f 6d3d 7592 0e3d e9b4 8bbc 7485 94bd
00000160: f86b 793d 198c 533d 4f78 003d 766a 17bd
00000170: 6841 6fbd eb76 e3bc e972 34bc 930a 9abd
00000180: 9575 c1bd a27e 233d 072a 5bbd 0eea 0bbd
00000190: dd50 893d 146c 463d 9ad4 d3bd 6a08 013c
000001a0: b0b5 0f3d c45d 64bc 73dc 4cbd d0f1 0c3d
000001b0: 8e8d 743c 4b2b dfbd d3ad d3bd 114f 313d
000001c0: 8536 23bd 652d 2c3b 9bce a7bd f986 203d
000001d0: a83e a53d b841 94bd 0ba4 6a3d f308 ab3d
000001e0: 637e 58bc bbbd 75bc 79bb 77bd 2af8 81bd
000001f0: 9007 25be 0f61 07be 3f70 edbd 8372 00be
00000200: 0030 b43d c8d1 24bb 6748 343d 1339 8abc
00000210: c22c 9dbd 7a37 1f3d 349e aabd 04ee b93c
00000220: 0488 a5bd aea0 84bd ea5e 223c 0e38 cb3b
00000230: 6df1 a8bd ee7c 47ba 0f7c 52bd ab4c eb3c
00000240: 1261 88bd d5a7 07bd 9e2f 1c3d 36f0 7bbd
00000250: 7ad8 4bbd 2482 dcbd 6c3f 8b3a 81f2 253c
00000260: ac90 fcbd 065c 983d d0ba 7c3d 82d9 9aba
00000270: 25e4 ae3c 2351 9bbd e580 1ebc 7080 a03d
00000280: c2e0 85bd de05 da3d 7b7e 56bd b81c 4dbc
00000290: 165a 343d 3219 2b3d cac0 273d 84e0 153c
000002a0: bf28 6ebd 9118 eabd aeeb f03b 8630 5abd
000002b0: ba5f 053e ba6a dcbc 2c7b 3fbd d001 ee3c
000002c0: df87 72bd 5954 0cbd 8801 a2bd 9297 b5bd
000002d0: bf0e 33bd deee e23d 4435 d23d b412 eebb
000002e0: cad0 383c 930b 20bd 5e79 febd 5abf ba3d
000002f0: 0a3a 983c 8bda da3c bfd5 4e3c de97 53bd
00000300: 83e8 8a3d 792d 6bbd 62ed 543c edc5 04bb
00000310: 1e82 c2bb ce95 c53c 603a 8cbc d06c a5bd
00000320: 8eee 8fbd 1689 d2bc bff7 943d d73e 2f3d
00000330: 879f 6a3d 4b5d 623b d8f8 d4bc dfdb 02be
00000340: 219b 623d 92c7 0a3d b967 043d 52bb 8b3d
00000350: ba5f cebd 3652 b0bd 85f0 c5ba 825b b6bb
00000360: 03c0 6b3c dba0 273c 5f40 d23c 5533 e83d
00000370: 4551 90bc 6f1b e2bb 904b d93b 1632 9c3d
00000380: 7abe 8abc 140d f7bc ee24 bd3c 9bb5 d23c
00000390: 52ac f23c 2ad9 d4bd 54ab 69bd f86b 9a3c
000003a0: d340 a2bc a475 aabc 63ed b63b fb28 e53c
000003b0: a0e4 afbc d76d 583d 560d c03c e0f2 87bd
000003c0: 9de9 e0bb e5d9 893b c0d3 4b3c 4f83 b0bc
000003d0: ca68 72bd 8ace 8fbd 3739 923d ccb9 08bd
000003e0: d6b8 a9bd 70fb 563d bd43 f9bc 24d0 853c
000003f0: 529d 1c3d 8b10 e0bd 9bf5 b8bd 964d ac3c
0.023905024 0.09465767 0.018959295 0.011985984 -0.09302728 0.01760136 0.10861437 -0.07984875
0.011287451 0.087979555 -0.10799565 0.0808027 0.101944685 0.059124906 -0.034945335 0.0051753055
0.004923929 0.09424948 -0.10404358 -0.023000736 0.022253586 0.072634034 -0.06159045 -0.07989425
0.07525107 -0.067212716 -0.14467254 0.065651774 0.018597322 0.005220134 0.017748237 -0.08805021
-0.09229358 -0.043463796 -0.043237336 -0.007919934 -0.091637954 0.05608368 -0.045413923 -0.047226887
0.03330165 -0.029865831 0.021243697 0.05039987 -0.14125425 -0.10254656 0.092481636 0.08260872
0.021226242 0.078413725 0.012384177 0.014386188 0.05796786 -0.09177947 -0.1471343 0.07332153
-0.06436977 0.025200935 -0.11837962 -0.06899613 -0.01847105 -0.06025196 -0.051872037 -0.13247383
0.071067795 -0.10069685 -0.047734775 -0.0663871 -0.030488685 0.06962865 0.07527484 -0.0068562333
-0.081233464 -0.041929644 -0.032394003 -0.047329206 -0.12415605 -0.06746783 -0.07211173 -0.001080714
-0.07045697 0.04796782 0.08263161 -0.010357699 0.057891056 0.03480764 -0.017054038 -0.07252017
0.060893983 0.05164728 0.031364735 -0.036966763 -0.058411986 -0.027766665 -0.011013725 -0.07521548
-0.09446255 0.03991569 -0.053506877 -0.03415876 0.067048766 0.048442915 -0.10343285 0.007875541
0.03508538 -0.013938371 -0.050014924 0.034410298 0.014926327 -0.10896929 -0.10335889 0.043288294
-0.039846916 0.0026272174 -0.08193704 0.03919122 0.08068591 -0.07239097 0.05728535 0.08351316
-0.013213727 -0.014998849 -0.060481522 -0.06346162 -0.16116166 -0.13220619 -0.11593675 -0.12543683
0.08798218 -0.0025149453 0.04401436 -0.016872918 -0.076745525 0.038871266 -0.08330956 0.022696503
-0.080825835 -0.0647596 0.009910325 0.0062017506 -0.08249173 -0.00076098635 -0.051387843 0.028723082
-0.0665914 -0.03311904 0.03813135 -0.06150838 -0.049766995 -0.1076701 0.001062376 0.010128618
-0.123322815 0.07439427 0.061701596 -0.001181409 0.021349022 -0.07583835 -0.009674286 0.078369975
-0.0653701 0.1064565 -0.052366715 -0.012519054 0.044031225 0.041772075 0.040955342 0.009147767
-0.058144327 -0.11430467 0.007352314 -0.05326893 0.13024798 -0.02690636 -0.046748325 0.029053599
-0.059211608 -0.034260128 -0.07910448 -0.088668 -0.043715235 0.110807166 0.10264066 -0.007265413
0.011280248 -0.039073538 -0.12425493 0.09118529 0.018582363 0.026715538 0.012624203 -0.051658504
0.06782629 -0.057416413 0.01299605 -0.0020259575 -0.0059359213 0.024119284 -0.01711768 -0.08077395
-0.070279226 -0.025700133 0.07273816 0.042784538 0.057281043 0.003454047 -0.025997564 -0.12779187
0.055323724 0.03388173 0.03232548 0.06822838 -0.10076852 -0.086094305 -0.0015101588 -0.005565108
0.014389041 0.010231222 0.02566546 0.11337916 -0.017616877 -0.006900243 0.006631322 0.07626741
-0.01693653 -0.030157603 0.023088899 0.025721362 0.029623184 -0.10392983 -0.057048157 0.018850312
-0.019806301 -0.020808049 0.005582498 0.027973643 -0.021471322 0.052839126 0.02344386 -0.066381216
-0.0068637864 0.0042068833 0.012440622 -0.021546988 -0.059181966 -0.07021816 0.07139819 -0.033380315
-0.08287208 0.052485883 -0.030427808 0.0163346 0.03823597 -0.10940655 -0.090312205 0.02103309

bias f4 [32]
00000000: a117 c4bb b648 bfbd 927a 3cbd 5537 d73c
00000010: 53a9 a6bc 2e56 883d 186a 2cbd c770 cd3a
00000020: f20b 8cbd 6740 0c3a 4879 913d 8ea6 59bb
00000030: b890 ef3c b052 ddbc db6e 0a3d 45a9 1d3d
00000040: 7337 14bd 0e6f ba3c 3ccc d43c 95f1 5e3d
00000050: 9bfc 173d 6db2 c5bd 604a 29bd ba60 273b
00000060: ac40 57bc bc28 b93a ebc7 fcbc d6a5 9fbc
00000070: 88f0 073d d13f 483a 6b4e 23bd 7732 80bc
-0.005984262 -0.093400404 -0.04601533 0.026271502 -0.020344412 0.066570625 -0.042093366 0.0015673869
-0.06838216 0.0005350173 0.07103211 -0.0033210847 0.029243812 -0.027016968 0.033797126 0.038491506
-0.036185693 0.022758033 0.025976293 0.05442961 0.037106138 -0.09653173 -0.041330695 0.0025539831
-0.013137978 0.001412652 -0.030857047 -0.019488256 0.033188373 0.0007638904 -0.039869707 -0.015649064

weight f4 [32, 32]
00000000: 11be 343d 66d9 833d 55da b2bd 660b dcbc
00000010: 6413 b03c 03f7 943d 5c54 d8bd bdc7 f5bd
00000020: b2b1 0ebc 28c0 103d 4d9a 38bd 1044 2bbc
00000030: b1f0 d23a 307c fc3d 0be4 2f3d b675 5bbe
00000040: dbd2 dc3d beb7 62be ed58 47be 97fb fe3d
00000050: cd25 45be 0b54 543d c246 2fbe 1fb2 ba3d
00000060: 285f 91bd 925a febd 76d7 98bd 3f70 c3bd
00000070: 72ce 3cbb b86f 0ebe 3927 a1bc aa72 0dbe
00000080: faa7 5e3d af31 c63d 16a5 a4bd ce27 b5bd
00000090: 6dc6 83bd a1e2 0dbd 7b05 ac3d 0e18 153d
000000a0: c165 513d 982f 9dbd f392 263c e003 723a
000000b0: 6255 7f3d 8767 c4bd 85ae bf3d 20eb b33b
000000c0: 15a2 0dbd a59b f6bc ef25 edbd fae6 c0bd
000000d0: 04a9 94bc 0a9b 26bd 03c4 c93c 77b5 f1bc
000000e0: 6822 d93c cb30 693d 43e9 b8bd e16d 033c
000000f0: 5f82 f63d 7326 6e3d b8a9 073c 95d3 85bd
00000100: deb4 bebb 1751 43bc 4ea0 1b3d ee8e 053b
00000110: 4749 37bc 6cf5 e33c a3d4 b9bd ae03 b7bd
00000120: ad8b 333d 3c8d c13d 38c6 d93d f01b 44bd
00000130: 81c0 2ebd 4695 623c e9b7 0f3e 4307 7ebc
00000140: f9a7 f33d 010c 85bc 1f32 ca3d eb9e 09be
00000150: a516 4e3b 214b 703d 5c19 b6bd 876f 073e
00000160: c49a 84bd fbbb 033d d518 82bd 2078 803d
00000170: fbda 34be 3ef9 933d 91c2 9d3c 4d21 9dbb
00000180: b6f8 93bd c056 933d 20bc a03d cef4 143e
00000190: d710 2abe ca47 d23d e9c6 813d 09bf a83c
000001a0: 0e33 d9bb 6b5e 72be 491b 213d 3017 ebbd
000001b0: ceb5 a3bd a679 dabd 86e1 063c 6d3f d9bd
000001c0: df8e 66bd 1c33 87bd b737 d33d 39f1 5abd
000001d0: bb97 1a3d a416 373e d61f 1f3c 3f49 82bc
000001e0: 82d9 08be c39a f63c e44d 473d 6d6d 0d3e
000001f0: 7504 fa3d 61a1 6ebd b6d1 86bd 5c23 5b3d
00000200: 75eb 8e3d d5a3 0e3e 1a08 9fbd 4f1e bcbd
00000210: 0b3e afbd cc8f 83bd 98c0 21be aa8f 8abc
00000220: 056e af3c 5a44 96bd 2b6b 8abe c24b b9bd
00000230: 0b82 c1bc 4491 e4bd cd48 d4be b79a c3bd
00000240: 85e0 193e 91c1 2cbb a5db ecbd e11d b93d
00000250: 33f2 e13c c2b1 db3d c59d 033e e574 043d
00000260: 7853 a0bd 0f0f 26be 13a2 03be 8b6f 4fbe
00000270: 5b64 1abd d858 d4bd 2ec6 35be 71c6 8bbc
00000280: cac6 81bd 01b3 d03d 385d 463d b42d 3d3e
00000290: efe9 383d d6f2 eebd daed 07be c7f2 823d
000002a0: 03ef c6bd f39e 49bd 1928 f3bd 75e5 9f3c
000002b0: fedd a3bd 3d7c b33d 62df b3bd 7fe1 143d
000002c0: 5678 613c be3b 633d dfbf cebc 5654 6abd
000002d0: 2749 4f3c 3bc0 a33c 47be f93c 7786 583d
000002e0: 05d9 5f3d df8c 2c3c fdf1 683d 4647 aebd
000002f0: 2f94 f3bc 996c d93d 91df 70bd 5ba7 ac3d
00000300: d988 d7bc d5d6 2dbd 10a4 69bc 6845 38be
00000310: 5313 3bbe 4c51 4e3c 3e2e af3d 0808 553d
00000320: 108b 9dbd 57e7 2abd bac8 903c 9193 2c3d
00000330: a624 26bd 35b7 e1bd 97e1 3fbb 7a14 c73d
00000340: 8984 073c 334d 67bd 129d 9bbb b2d1 f43d
00000350: ced7 ca3d a83e 61bc ecc3 4bbd a8e6 e93c
00000360: 8b42 de3d 1d6d 883d 28ab 44be 8793 d8b9
00000370: e297 b63d 57d6 05be 3737 20bd 91eb 993d
00000380: c7b5 1c3c 9e6d 07bd 01c7 153d 03bb 4abd
00000390: af76 1bbe 1b01 2bbb 3c5b d23c 0f03 37be
000003a0: 04d3 123e bdc8 943b 198e 5dbd 094d 633d
000003b0: 0409 673d a7ad e63d d3e7 e6bd 8945 0fbe
000003c0: dfbd 29bc 38c7 2abd e77e f0bd 3dde 92bd
000003d0: 4bf7 bcbd beba b73d 0b45 be3c 76a4 c93d
000003e0: 6a26 fd3c 55a0 a5bd eac0 8fbd 505c 0c3e
000003f0: 701f 85bd 11bb a8bd 1c7a c03d d847 043d
0.044126574 0.0643795 -0.0873305 -0.026860904 0.021493621 0.07273676 -0.10562965 -0.12000988
-0.008709358 0.035339504 -0.045069028 -0.010453239 0.001609346 0.123283744 0.042942088 -0.21431622
0.10782405 -0.22140405 -0.19467516 0.12450331 -0.19252701 0.051837962 -0.17116836 0.09116005
-0.07098228 -0.12419619 -0.07462971 -0.095428936 -0.0028809574 -0.13909805 -0.019672023 -0.13813272
0.054359414 0.09677445 -0.080393 -0.08845483 -0.06434331 -0.03463996 0.08399483 0.036399893
0.05112243 -0.076750934 0.010166871 0.0009232145 0.062337287 -0.09590059 0.09359459 0.0054906756
-0.0345784 -0.030103514 -0.11579501 -0.09419055 -0.018147 -0.0406752 0.024629598 -0.029505474
0.026505664 0.0569313 -0.09028866 0.008021803 0.12036585 0.058142137 0.00828021 -0.06534497
-0.005819901 -0.011921189 0.037994675 0.0020379382 -0.011186904 0.027826987 -0.0907376 -0.08936249
0.043834377 0.094507664 0.1063351 -0.047878206 -0.042664055 0.013829535 0.14035 -0.015504661
0.118972726 -0.016241075 0.09872841 -0.13439529 0.0031446603 0.0586654 -0.08891556 0.13226138
-0.06474832 0.032161694 -0.063523926 0.06272912 -0.1766166 0.072252735 0.019257816 -0.0047952295
-0.07225172 0.071942806 0.07848382 0.1454651 -0.16607986 0.10267599 0.06336767 0.020598905
-0.0066284006 -0.2366883 0.03933266 -0.11479032 -0.07993661 -0.10667734 0.00823248 -0.10607801
-0.056288596 -0.06601545 0.10313361 -0.053452704 0.037742358 0.1787973 0.00971218 -0.015904067
-0.13364223 0.030103093 0.048658267 0.13811274 0.12207881 -0.05825937 -0.06582968 0.05350052
0.069785036 0.13929684 -0.07765217 -0.091854684 -0.08556756 -0.064239115 -0.15796125 -0.016914207
0.021414766 -0.07337256 -0.27034888 -0.09047653 -0.02362158 -0.1116052 -0.41461793 -0.09550994
0.15027054 -0.0026360492 -0.11565331 0.09038902 0.02758131 0.10727264 0.12853153 0.03233804
-0.078284204 -0.16216682 -0.12854795 -0.20257394 -0.037693363 -0.10368508 -0.17751381 -0.017062398
-0.06336744 0.10190392 0.048428744 0.18474466 0.04514497 -0.11667411 -0.13274327 0.06393962
-0.097135566 -0.04922385 -0.118728824 0.019518593 -0.08001326 0.08763931 -0.08782841 0.036347862
0.0137616005 0.055476896 -0.025237976 -0.057209335 0.012651718 0.019989124 0.03048624 0.05286261
0.054650325 0.010531633 0.056871403 -0.08509688 -0.029733745 0.106164165 -0.05880696 0.08430358
-0.026310371 -0.042441208 -0.014260307 -0.17995226 -0.1826909 0.012592625 0.08553742 0.052009612
-0.0769254 -0.04172453 0.017673839 0.042132918 -0.040562294 -0.11021272 -0.002927875 0.097207025
0.008271345 -0.056470107 -0.004748949 0.11954059 0.09904443 -0.013747849 -0.049747393 0.028552368
0.10852536 0.06661437 -0.19205916 -0.00041308647 0.08915688 -0.13070045 -0.039115157 0.07515634
0.0095648235 -0.033063523 0.036566738 -0.049494755 -0.15181993 -0.0026093188 0.02567827 -0.1787226
0.14338309 0.0045405314 -0.054090593 0.05549339 0.056405082 0.1126359 -0.11274686 -0.1399137
-0.01036021 -0.041693896 -0.11742955 -0.07171295 -0.09226855 0.08971165 0.023226282 0.098458216
0.030902106 -0.080872215 -0.07019217 0.1370709 -0.06500137 -0.08238805 0.093982905 0.032295078

bias f4 [32]
00000000: c5ae 78bc cb25 973b 47ce 493d b5a2 433c
00000010: cd40 be3b 3240 f93d d802 b6bc 203e e73d
00000020: 9124 a33d 02d9 4ebd 59af 883c 3407 303c
00000030: 3d47 66bb 666d 9e3c 6bb5 8e3c 30ff bd3d
00000040: ab19 ce3c e841 e23b 3c87 823c 3f38 d5bb
00000050: 250b 8f3c 39f5 d23a 2fd1 523d d12a 7c3c
00000060: 9ff1 203d baff 15bc 0561 15bc 62b8 983c
00000070: 9b95 013d bdc0 933b ba8b 363c 7759 ee3c
-0.015178387 0.0046126596 0.049268987 0.011940648 0.0058060647 0.121704474 -0.022218153 0.11291146
0.07965959 -0.050499924 0.016685175 0.010743905 -0.0035137676 0.019339275 0.017420491 0.09277189
0.025158724 0.0069048293 0.015933625 -0.006506949 0.017461369 0.001609481 0.051469024 0.015391068
0.039292928 -0.009155208 -0.00911737 0.018642608 0.031636816 0.00450906 0.011141712 0.029095395

weight f4 [32, 32]
00000000: 6a98 b339 f0e9 0ebd 4a43 093d 326d a5bd
00000010: 0f4b fd3d 2c39 12be e1c0 ffbd 851d 03bd
00000020: dee0 d23d ae9f d03c b333 bd3c c828 efbc
00000030: f350 8c3c 3807 93bd 48c2 83be 1392 70bc
00000040: ea37 ae3d 5e42 813d 9506 6bbe 904f 06bd
00000050: 67ac 65bd 3e5d 413e 1886 f0bd 6f75 9fbd
00000060: b67d ebbd 4dae 7bbd dcbc 06be f0cd b6bc
00000070: 3978 db3d 9d52 07bd d44e b63d cad0 8cbd
00000080: e2cf 62bc a996 843d c97d fb3c 28fb ddbc
00000090: 12c7 093d 94a1 84bc 4ff4 4dbd 680d 173d
000000a0: 2d6b 343b 51ff b03c 5c38 2ebb b7c7 b23c
000000b0: 39d3 d6bc 8ce4 083b 0f17 873d 0fb3 38bc
000000c0: 1de5 e43c 7fa2 b9bc 8345 fc3c 55e5 7d3a
000000d0: cfb1 b2bc cf40 0f3d 4d10 c23c d963 3e3d
000000e0: deb5 20bc defc 91bc 3e7a a9bc a8c2 713c
000000f0: d5bb c7bc 7c85 0c3d 1c34 4f3c a804 53bd
00000100: 3e5a 33bd 18c5 33bd 2f7c b03d 92f9 203d
00000110: fd2c f53c 9488 7fbd 86c9 fdbc 6534 503d
00000120: af19 aabd 9e05 61bd 9264 8f3d e7de 0abd
00000130: d850 b8bc c41a 8fbd eaf1 00be e7c6 0a3d
00000140: 1d99 68bd 9375 2a3d 6e0a 263d bd21 fd3d
00000150: 4423 1dbd 3604 4f3c 47a3 a7bd 2110 7c3d
00000160: c2fd b13c f6da 35bc 6515 f5bd 99f3 c4bc
00000170: 8b2a 133e 8895 6cbc b991 0f3e 235d ecbd
00000180: 9426 3ebd 65e4 9e3d e58c 41bd 6749 1bbc
00000190: 64e2 dcbd 0649 84bd f9ea e3bc 5fa5 92bd
000001a0: 48b1 7b3d f85a db3d cbac 8b3d 3d54 2ebd
000001b0: 9e80 d4bc 9794 71bb 4f54 15be 90c0 183d
000001c0: 9808 74bd 3cd5 383e 2619 fa3d 481d b73c
000001d0: 6d27 d0bc 5e1d 783d 2b8f 083e f4a5 b6bc
000001e0: fe4a cb3c 834f f9bc 991c 85bb 1d45 4fbd
000001f0: d7f4 8f3c 4f98 a9bb e5cb e0bd c699 b7bc
00000200: bd1f 99bd 669e a0bd b903 6d3d 8855 95be
00000210: 97b0 f6bd 1bdb e03d 37a2 eab9 e5f2 743d
00000220: 4b5f 423d 6cb6 c83d cd52 0f3e 80a4 123e
00000230: ba07 bcbd 7030 5a3d 9ccf 053e c5ed 7bbe
00000240: e613 de3d c918 c93c 991e 933d f673 69bd
00000250: 6143 4abe 9002 eb3d c1b9 d13c f7e4 a13d
00000260: a41a 85bc c48e 32be b65d 6ebd 5abc 33bd
00000270: d2c9 d13d 90ee e1bd b6a8 973d a643 253d
00000280: c7f7 0d3d a691 92bc d603 113d c177 033c
00000290: 3d78 c63d cda4 ab3d ac04 e5bd 317e 28bc
000002a0: 3cb5 93bd 35cd 5d3d 064f 98bd a993 f83d
000002b0: cdb6 99bc db7e b43d 4105 fa3c 4f1a f0bd
000002c0: 7266 5bbc a144 46bd cc65 c23d 74b3 b83d
000002d0: bdd6 6abd 27be 8f3d 8470 47bd ef1f 343d
000002e0: 6413 09bc 7715 26bd 0412 59bd d81d 213d
000002f0: 6bf0 e2b9 e9e6 503e 5719 a2bd 744a 013e
00000300: 3031 53bd 1a9b c0bd 51dc 1b3e 9ab1 683b
00000310: b718 45bd 6328 92bd 8885 5d3d c89b 57bd
00000320: be24 9bbc e9e1 b53c 7509 1ebe 4161 c93d
00000330: 7ca6 82bd af6c 87bd 624d 81bc 16a6 833d
00000340: b8b9 b6bd 4ddb 653d 5003 17be 00bc c6bd
00000350: 6c9b 963d d491 0abe 690a 4fbd b6f6 323e
00000360: d910 e7bc 53d5 3a3c c7c4 2bbd 94cd fabd
00000370: d52e 083b 5679 05bc d05c b4bd 399e 4c3e
00000380: d39f bcbc 886f 0fbe 6968 c63a a5da 49bd
00000390: 8eeb 353d c047 29bc bc06 493d 72e1 ab3d
000003a0: 26d2 623d a5e1 3c3d e275 8d3d 4a44 c3bd
000003b0: e4fd 3d3d 59f6 e0bc 1880 08be a6a3 2dbe
000003c0: 40d5 513d da73 8a3d 0006 2b3e 43e0 0f3e
000003d0: 84ed c43c eb15 3c3c 9584 7f3c 2e08 89bc
000003e0: ebf8 09bd 69cc 3d3d 7e49 423d e9f3 f33d
000003f0: eaa2 0cbe 31b4 f73c caec e8bc b503 c9bd
0.00034255098 -0.03489107 0.033511437 -0.08077468 0.12367832 -0.14279622 -0.124879606 -0.032010574
0.10296796 0.025466766 0.023095941 -0.02919425 0.017128443 -0.07179111 -0.25734162 -0.014683264
0.085067585 0.06311487 -0.2295173 -0.03279072 -0.05607262 0.18883225 -0.11744326 -0.077860706
-0.11498587 -0.061445523 -0.13157982 -0.022314996 0.1071629 -0.03303777 0.08901754 -0.06875761
-0.013843508 0.06474049 0.030699627 -0.0270973 0.033637114 -0.016190328 -0.05028182 0.03687802
0.0027529702 0.02160612 -0.0026583886 0.021823747 -0.026223766 0.0020888178 0.06596195 -0.01127316
0.027941281 -0.022660492 0.030794865 0.0009685357 -0.021813301 0.034973916 0.023689413 0.04648194
-0.0098089855 -0.017820772 -0.020688172 0.014755882 -0.024381557 0.034306988 0.012646701 -0.051518112
-0.043787234 -0.043889135 0.08617436 0.03930051 0.029928679 -0.06238611 -0.030979883 0.050831217
-0.0830568 -0.054936998 0.07001604 -0.033903982 -0.022499487 -0.06987527 -0.12592283 0.033881094
-0.056786645 0.041616034 0.04053729 0.12359951 -0.03836371 0.012635281 -0.081854396 0.06153882
0.021727446 -0.011099568 -0.11966971 -0.024041938 0.14371698 -0.014439948 0.14020433 -0.11541202
-0.04642351 0.077584065 -0.047253508 -0.00947795 -0.10785368 -0.064592406 -0.027822005 -0.07160448
0.061448365 0.1071071 0.06820067 -0.042560805 -0.025940236 -0.0036862248 -0.14582942 0.037293017
-0.05957851 0.18050092 0.12211828 0.02235283 -0.025409425 0.06057488 0.13335864 -0.02229593
0.024816032 -0.030433422 -0.004062247 -0.05060302 0.017572803 -0.0051756273 -0.1097639 -0.022412192
-0.07476757 -0.07842712 0.05786488 -0.29166818 -0.120454006 0.10979291 -0.00044752817 0.059801955
0.04745416 0.09800419 0.1399643 0.14320564 -0.09181161 0.05326885 0.13067478 -0.2460242
0.10843639 0.024547951 0.071835704 -0.056995355 -0.19752266 0.11475098 0.02560127 0.07905
-0.016248055 -0.17437273 -0.05819484 -0.043880798 0.10243572 -0.1103183 0.07405226 0.040347718
0.034660127 -0.017891716 0.03540405 0.008024157 0.096909024 0.08381043 -0.11182532 -0.010283993
-0.07212302 0.05415078 -0.074369475 0.12137539 -0.018763924 0.08813258 0.030520083 -0.11723768
-0.013391124 -0.048405293 0.094920725 0.09018603 -0.057333697 0.070186906 -0.048691288 0.043975767
-0.0083664395 -0.040547814 -0.052995697 0.0393351 -0.00043285204 0.20400585 -0.079149894 0.12626058
-0.05156058 -0.09404583 0.15220763 0.003550625 -0.048119273 -0.071366094 0.054082423 -0.0526388
-0.018938418 0.022202449 -0.15433295 0.09833003 -0.063794106 -0.066125266 -0.01578397 0.06428163
-0.08922142 0.056117345 -0.14747357 -0.09703827 0.07353863 -0.13532192 -0.050547037 0.17476925
-0.028206276 0.0114033995 -0.04193571 -0.12246242 0.0020779867 -0.0081466045 -0.08806765 0.19982232
-0.023025429 -0.1400739 0.0015137318 -0.04928078 0.044414096 -0.010332048 0.049078688 0.0839261
0.055376194 0.04611363 0.0690725 -0.095345095 0.046384707 -0.027461218 -0.13330114 -0.16956958
0.05122876 0.06760378 0.16701508 0.14050393 0.024039038 0.011479835 0.015595575 -0.016727533
-0.033684652 0.04633752 0.04743337 0.119117565 -0.13734022 0.03023729 -0.028433222 -0.0981516

bias f4 [32]
00000000: 438d 77bc d8cf b83b 45ce 493d 8cc0 0e3d
00000010: 36b1 bf3b 5acb 1a3e d6d5 24bd e9f3 42bc
00000020: 1d35 c23c 7dd1 32bd 6cf0 903a 45f7 2d3c
00000030: 3934 2ebb 2ab7 913c 9aba 8e3c a6fd 833d
00000040: 8219 ce3c e841 e23b 3c87 823c 3f38 d5bb
00000050: 74f3 8e3c b861 d73a 474e 143d f78f 883c
00000060: 258c 8d3b d512 16bc a936 a8bb 6fba 983c
00000070: 461b 003d a2bf 3e3c 84f5 09bd 8f82 cc3c
-0.015109363 0.0056400113 0.04926898 0.034851596 0.0058499826 0.15116635 -0.040242992 -0.011898973
0.023706967 -0.043656815 0.001105798 0.010618036 -0.002658142 0.017787535 0.017422963 0.06444864
0.025158647 0.0069048293 0.015933625 -0.006506949 0.017450072 0.0016432321 0.036207464 0.01667021
0.004319685 -0.009159763 -0.005133469 0.018643586 0.03127601 0.0116423685 -0.033681408 0.024964599
