train_script/weights/GANEdgeBased_model300new/199.pth (torch, 52355 bytes, 21 tensors)

weight f4 [32, 13]
0	0x80064744	-5.76578e-40
1	0x0005fa3b	5.48943e-40
2	0x00063c89	5.72729e-40
3	0x80054daf	-4.87045e-40
4	0x8008a6e5	-7.94554e-40
5	0x8005b40b	-5.23765e-40
6	0x000418fd	3.76306e-40
7	0x000a4956	9.44663e-40
8	0x000a0dcb	9.23303e-40
9	0x80061741	-5.59355e-40
10	0x8003ee5d	-3.61015e-40
11	0x80032426	-2.88474e-40
12	0x80024c28	-2.10991e-40
13	0x00090473	8.28116e-40
14	0x800abab8	-9.85337e-40
15	0x800949fe	-8.53063e-40
16	0x0009a3e6	8.85315e-40
17	0x000035d8	1.9315e-41
18	0x000b319b	1.027986e-39
19	0x0008f483	8.22398e-40
20	0x000752cd	6.72552e-40
21	0x00081c23	7.44778e-40
22	0x8002b456	-2.48363e-40
23	0x00054a17	4.85756e-40
24	0x000543a3	4.83441e-40
25	0x00089a1e	7.89971e-40
26	0x800acf24	-9.92663e-40
27	0x000aa2fa	9.7682e-40
28	0x000273d4	2.25222e-40
29	0x8008f202	-8.215e-40
30	0x0008fd15	8.25473e-40
31	0x00027070	2.24006e-40
32	0x800211be	-1.90036e-40
33	0x80070ba7	-6.47029e-40
34	0x00084ec7	7.62944e-40
35	0x80080e4e	-7.39816e-40
36	0x80080876	-7.37719e-40
37	0x80098a9d	-8.76245e-40
38	0x0001ec1b	1.76534e-40
39	0x000928ef	8.41204e-40
40	0x000af1eb	1.005139e-39
41	0x8007e749	-7.25818e-40
42	0x000820d4	7.4646e-40
43	0x000994dd	8.79922e-40
44	0x0009ed68	9.11685e-40
45	0x8006ccaf	-6.2444e-40
46	0x00058d01	5.0976e-40
47	0x00084308	7.5873e-40
48	0x0000405f	2.3092e-41
49	0x000161a6	1.26865e-40
50	0x0008a13b	7.92523e-40
51	0x80013b7a	-1.13172e-40
52	0x8003fe6a	-3.66773e-40
53	0x800aacd7	-9.80358e-40
54	0x0004f26b	4.54305e-40
55	0x0009495d	8.52837e-40
56	0x80051c7e	-4.69399e-40
57	0x000759ed	6.75108e-40
58	0x8008816c	-7.81112e-40
59	0x800722b6	-6.553e-40
60	0x8008a55c	-7.94004e-40
61	0x00000746	2.609e-42
62	0x800227d4	-1.97959e-40
63	0x00084872	7.60672e-40
64	0x800956e4	-8.5769e-40
65	0x8006c64f	-6.22153e-40
66	0x0001ce26	1.65788e-40
67	0x800acae1	-9.91134e-40
68	0x800776e7	-6.85503e-40
69	0x800b36ab	-1.029802e-39
70	0x00035269	3.0507e-40
71	0x000a13b1	9.25419e-40
72	0x00023445	2.02422e-40
73	0x000a671e	9.55346e-40
74	0x8007d984	-7.20878e-40
75	0x800a9b94	-9.74166e-40
76	0x000339bd	2.96219e-40
77	0x800935e6	-8.45855e-40
78	0x0003cd9e	3.49268e-40
79	0x000375f5	3.17821e-40
80	0x0007dec6	7.22765e-40
81	0x800987ca	-8.75231e-40
82	0x800a4abc	-9.45165e-40
83	0x80093606	-8.459e-40
84	0x80081d18	-7.45121e-40
85	0x000848e7	7.60836e-40
86	0x8008b649	-8.00076e-40
87	0x0007fbda	7.33196e-40
88	0x80027d15	-2.28542e-40
89	0x80069deb	-6.07663e-40
90	0x8005621c	-4.94372e-40
91	0x0004d518	4.43786e-40
92	0x0009d4ec	9.02901e-40
93	0x00057960	5.02719e-40
94	0x8008c5e0	-8.05668e-40
95	0x8008990a	-7.89584e-40
96	0x80034c34	-3.02843e-40
97	0x0002af2a	2.46508e-40
98	0x0005bd22	5.27026e-40
99	0x8008c189	-8.04111e-40
100	0x8005722b	-5.00133e-40
101	0x8003bab7	-3.42487e-40
102	0x00017b76	1.36125e-40
103	0x8003d6c7	-3.52554e-40
104	0x8005ad07	-5.21248e-40
105	0x80086a9e	-7.72931e-40
106	0x8006b376	-6.15391e-40
107	0x8005dbf3	-5.3808e-40
108	0x0008e3b0	8.16363e-40
109	0x8006810a	-5.97303e-40
110	0x80077630	-6.85246e-40
111	0x00015e27	1.25611e-40
112	0x00005933	3.1999e-41
113	0x00070147	6.43307e-40
114	0x8002cad7	-2.56436e-40
115	0x0003a828	3.3583e-40
116	0x800a8aab	-9.681e-40
117	0x0001d34d	1.67636e-40
118	0x00071645	6.50837e-40
119	0x00055d0a	4.92554e-40
120	0x80032608	-2.8915e-40
121	0x80053d55	-4.81179e-40
122	0x800651c0	-5.8034e-40
123	0x80085737	-7.65971e-40
124	0x8008503d	-7.63468e-40
125	0x8002376d	-2.03554e-40
126	0x0003343e	2.94247e-40
127	0x000162bc	1.27255e-40
128	0x800998c9	-8.81328e-40
129	0x800491bd	-4.19623e-40
130	0x0009f423	9.14099e-40
131	0x8000ec98	-8.4874e-41
132	0x0009b578	8.91618e-40
133	0x0006a839	6.1136e-40
134	0x0002ca1e	2.56177e-40
135	0x00055a4b	4.91568e-40
136	0x00094de2	8.54459e-40
137	0x00002482	1.3097e-41
138	0x800280ed	-2.29921e-40
139	0x80059198	-5.11407e-40
140	0x80082727	-7.48729e-40
141	0x8004e3ad	-4.49017e-40
142	0x000417c5	3.75869e-40
143	0x8009c10a	-8.95769e-40
144	0x0001c936	1.64016e-40
145	0x8009b613	-8.91835e-40
146	0x000635ea	5.70354e-40
147	0x80095873	-8.58249e-40
148	0x000a2142	9.30286e-40
149	0x800a1bb8	-9.28299e-40
150	0x8005d80b	-5.36679e-40
151	0x00052968	4.74031e-40
152	0x00029a88	2.39106e-40
153	0x8003231a	-2.88099e-40
154	0x00095131	8.55645e-40
155	0x00028a60	2.3331e-40
156	0x800885b3	-7.82646e-40
157	0x000312e2	2.8228e-40
158	0x80069f2e	-6.08116e-40
159	0x00002f6e	1.7015e-41
160	0x8007e66c	-7.25508e-40
161	0x0003873e	3.24022e-40
162	0x8008e8bf	-8.18178e-40
163	0x00083faf	7.5753e-40
164	0x00080eb6	7.39961e-40
165	0x000452ef	3.97093e-40
166	0x00000c85	4.491e-42
167	0x0009669d	8.6333e-40
168	0x8005c9b5	-5.31536e-40
169	0x0006996d	6.06052e-40
170	0x8002724d	-2.24674e-40
171	0x000864bf	7.70825e-40
172	0x8007158f	-6.50582e-40
173	0x000987f8	8.75296e-40
174	0x000042db	2.3983e-41
175	0x8009ed25	-9.11591e-40
176	0x8001f4ce	-1.79655e-40
177	0x0000f6cc	8.8534e-41
178	0x800099ea	-5.5214e-41
179	0x8003584a	-3.07179e-40
180	0x0005183f	4.67875e-40
181	0x800151a7	-1.21127e-40
182	0x800747d2	-6.68613e-40
183	0x80057dba	-5.0428e-40
184	0x00087168	7.75366e-40
185	0x80096ad7	-8.64846e-40
186	0x8006968f	-6.05023e-40
187	0x800ad1d2	-9.93624e-40
188	0x0008729b	7.75797e-40
189	0x8003a1fa	-3.33613e-40
190	0x000a8dc4	9.69211e-40
191	0x00064ce5	5.78598e-40
192	0x0005fc91	5.49781e-40
193	0x00088d15	7.85295e-40
194	0x8003ce64	-3.49545e-40
195	0x0008499e	7.61093e-40
196	0x00056402	4.95054e-40
197	0x000ae391	9.9999e-40
198	0x0006688c	5.88517e-40
199	0x800842f4	-7.58702e-40
200	0x00080d51	7.39461e-40
201	0x8001a73b	-1.51826e-40
202	0x000922d5	8.39015e-40
203	0x8002944a	-2.36867e-40
204	0x8008da79	-8.13057e-40
205	0x00042adf	3.82721e-40
206	0x0001b1aa	1.5557e-40
207	0x0003ec53	3.60284e-40
208	0x000978ba	8.69828e-40
209	0x800a1a7a	-9.27853e-40
210	0x800159b2	-1.24012e-40
211	0x80024b39	-2.10656e-40
212	0x8006cb4a	-6.2394e-40
213	0x80060f58	-5.56517e-40
214	0x8000f5b2	-8.8139e-41
215	0x8000d8db	-7.7793e-41
216	0x0009da5c	9.04852e-40
217	0x80022a64	-1.98878e-40
218	0x0003697b	3.13346e-40
219	0x800842be	-7.58627e-40
220	0x00092d76	8.42828e-40
221	0x00068310	5.9803e-40
222	0x80031ac2	-2.85105e-40
223	0x8003360d	-2.94896e-40
224	0x00012c40	1.0771e-40
225	0x000a8e38	9.69373e-40
226	0x80013c47	-1.13459e-40
227	0x00014d56	1.19578e-40
228	0x00057e93	5.04584e-40
229	0x0007bdb5	7.10903e-40
230	0x000966f2	8.63449e-40
231	0x0008107b	7.40596e-40
232	0x00098423	8.73921e-40
233	0x80056701	-4.96128e-40
234	0x8002fc2e	-2.74136e-40
235	0x0001bfb6	1.60608e-40
236	0x800505d4	-4.61268e-40
237	0x8009a0dc	-8.84225e-40
238	0x0005ac8a	5.21073e-40
239	0x0001688c	1.2934e-40
240	0x0003cd00	3.49047e-40
241	0x800400b5	-3.67596e-40
242	0x0007e562	7.25136e-40
243	0x000b00b9	1.01045e-39
244	0x800876c5	-7.7729e-40
245	0x00052e4b	4.75784e-40
246	0x80092e29	-8.43079e-40
247	0x8003447a	-3.00071e-40
248	0x8000164f	-8.003e-42
249	0x8005e6fd	-5.4204e-40
250	0x800ad44d	-9.94514e-40
251	0x80075ab6	-6.7539e-40
252	0x00014141	1.15244e-40
253	0x000601f3	5.51712e-40
254	0x00086381	7.70379e-40
255	0x800a95e0	-9.7212e-40

bias f4 [32]
0	0xbc7e4b92	-0.015520947
1	0xbd3ad7db	-0.045616012
2	0x3b2bc3f6	0.002620933
3	0x3da9913e	0.08279656
4	0xbbbf1020	-0.0058307797
5	0x3cbb00d1	0.022827538
6	0x3cfdbd8e	0.030974176
7	0xbce31590	-0.027720243
8	0x3cdfc767	0.027316762
9	0xbd8a00ab	-0.06738409
10	0xbd26fd26	-0.040768765
11	0xbd060134	-0.03271599
12	0x3cdc21ed	0.026871646
13	0x3c66f667	0.014096833
14	0xbd50bf42	-0.050963648
15	0x3c182bf8	0.009287827
16	0x3d4fbce2	0.050717242
17	0x3d0af33c	0.033923373
18	0xbc544964	-0.012956951
19	0x3cca2b34	0.024678804
20	0xbca3216a	-0.019913394
21	0xbd46b802	-0.048515327
22	0xba296c10	-0.0006462941
23	0xbae921d4	-0.0017786571
24	0xbd511bad	-0.051051784
25	0xbc7fd2b5	-0.015614201
26	0x3d9684ca	0.07349546
27	0xbced4a9f	-0.028966246
28	0xbce47229	-0.027886467
29	0xbcf198d1	-0.029491814
30	0x3d516168	0.051118284
31	0xbd3f62c1	-0.04672504

weight f4 [32, 13]
0	0x3e78ee00	0.2430954
1	0xbea67c18	-0.3251655
2	0xbe0c895d	-0.13724275
3	0x3e939cce	0.2883057
4	0x3e804fc5	0.2506086
5	0x3d30670b	0.04306702
6	0x3e314e62	0.17315057
7	0x3deee7bd	0.11665294
8	0x3e02e473	0.12782459
9	0xbd0efa2c	-0.03490655
10	0x3df321e2	0.11871697
11	0xbe88268c	-0.2659191
12	0xbbef3633	-0.007300162
13	0xba8eb646	-0.0010888062
14	0xbe23b18c	-0.15985698
15	0xbe632ac8	-0.22184289
16	0xbe8f698a	-0.28010207
17	0xbdc2cce5	-0.09511737
18	0x3dfa7422	0.12229182
19	0xbda44e22	-0.08022715
20	0x3b0e3796	0.0021700612
21	0xbd981c20	-0.074272394
22	0x3d93069a	0.071789935
23	0x3c630f46	0.013858622
24	0x3ddf7a91	0.109120496
25	0x3e06e144	0.1317187
26	0x3e17b251	0.14814116
27	0x3e29904f	0.16558956
28	0xbe085664	-0.13314205
29	0xbdff9e6a	-0.12481387
30	0xbd52108c	-0.05128531
31	0x3e19f144	0.15033442
32	0x3e07952a	0.13240495
33	0xbe4d1555	-0.20027669
34	0x3e5dceae	0.21660873
35	0x3ddae9a9	0.106890984
36	0x3e81046e	0.25198692
37	0x3e79d9b3	0.24399452
38	0xbe0b5381	-0.13606073
39	0x3c093fb6	0.008377006
40	0x3ecdd1fb	0.40199265
41	0xbdeef12a	-0.11667092
42	0x3d7b63e9	0.06137458
43	0xbeb8ce42	-0.36094862
44	0xbd700484	-0.058598056
45	0xbde80699	-0.113293834
46	0x3d9a5dd3	0.07537427
47	0x3dc2ca24	0.095112115
48	0x3defa5ff	0.11701583
49	0xbd68b494	-0.056812838
50	0xbd25319b	-0.04033051
51	0xbc555484	-0.013020638
52	0x3ab9c07e	0.0014171747
53	0x3e61c622	0.22048238
54	0xbda6f737	-0.08152621
55	0x3e61cb54	0.2205022
56	0x3d047a3a	0.032343127
57	0xbdb7e52f	-0.0897926
58	0xbdc53c3c	-0.096306294
59	0xbe8744f2	-0.2641979
60	0xbe1623ea	-0.14662138
61	0xbc005d4c	-0.007834744
62	0x3e09940c	0.13435382
63	0xbce5bd93	-0.028044498
64	0x3e04ed7a	0.12981215
65	0x3e505e6f	0.20348524
66	0xbb2aee1b	-0.0026081863
67	0x3e6f038d	0.23341198
68	0x3e8b35ab	0.27189383
69	0xbdccd97f	-0.100024216
70	0xbe3e9d7a	-0.1861476
71	0xbdf30ee0	-0.118680716
72	0x3da1d35d	0.079016425
73	0x3d9b68c4	0.07588342
74	0x3df14d14	0.117822796
75	0x3d61354f	0.05498248
76	0xbde035da	-0.10947771
77	0xbe554720	-0.20827913
78	0xbe01e4b2	-0.12684897
79	0x3e58d80e	0.21176168
80	0xbe1a5a14	-0.15073425
81	0x3eb2efbd	0.3494853
82	0xbe71ff63	-0.23632579
83	0x3e191ccd	0.14952393
84	0x3de66230	0.112491965
85	0x3e1ffbac	0.15623349
86	0xbdde68b5	-0.10859815
87	0x3e02b4a9	0.12764229
88	0xbe0d7659	-0.13814677
89	0xbe094633	-0.13405685
90	0x3d06d363	0.032916438
91	0x3dff6ff4	0.12472525
92	0xbdf645bb	-0.12025019
93	0xbd97d7ae	-0.074141845
94	0xbe3331e6	-0.17499503
95	0x3e5ca71c	0.21548122
96	0x3e4411e0	0.19147444
97	0x3e4f58cb	0.20248716
98	0x3d76f65e	0.060293548
99	0x3e1bf541	0.15230276
100	0xbe05617a	-0.13025466
101	0xbc058335	-0.008148958
102	0x3e777045	0.24163921
103	0x3ec8aa4d	0.3919243
104	0x3e9b7a42	0.30366713
105	0xbc5a2cb7	-0.013316325
106	0x3de78f6d	0.11306653
107	0xbe7fa04a	-0.24963489
108	0xbe54be57	-0.20775734
109	0x3e6762d1	0.22596289
110	0x3d345e27	0.044035103
111	0x3e7ac631	0.24489667
112	0x3e4695d9	0.193931
113	0xbdfc4673	-0.123181246
114	0x3db54024	0.088501245
115	0xbe5c00d6	-0.21484694
116	0xbe4c4ca7	-0.19951116
117	0x3e0411d9	0.12897433
118	0xbe5218fb	-0.20517342
119	0xba92dcfd	-0.0011204776
120	0x39c72e0d	0.00037990548
121	0x3e11bb6d	0.14231654
122	0xbe696cd9	-0.22795428
123	0x3d60b0e9	0.054856215
124	0xbe54f9f0	-0.20798469
125	0xbddfdaa6	-0.10930376
126	0xbd2ddef9	-0.04244897
127	0xbd548a2c	-0.051889583
128	0x3e01cfed	0.12676974
129	0xbe00afdd	-0.12567087
130	0xbd31fd52	-0.043454476
131	0xbde7d977	-0.11320775
132	0xbe240f84	-0.16021544
133	0xbbf5ef39	-0.007505324
134	0xbe41d2cb	-0.18928067
135	0xbe2d85c4	-0.16945559
136	0xbddb1843	-0.10697987
137	0xbb999b33	-0.0046876906
138	0x3d6366a0	0.055517793
139	0x3cbbdecf	0.022933392
140	0x3d989f3d	0.07452247
141	0xbe63b66c	-0.22237557
142	0x3d9eef11	0.07760442
143	0x3e610a6b	0.2197663
144	0x3e926fa0	0.28600788
145	0xbc993b95	-0.018705169
146	0xbe5d5a53	-0.21616487
147	0xbe6379b5	-0.22214396
148	0x3d430d5c	0.047620162
149	0xbda5ace1	-0.08089615
150	0x3e2d4fbc	0.16924948
151	0x3e6deaec	0.23234147
152	0x3e22f4e7	0.15913735
153	0xbe44c120	-0.19214296
154	0xbe4ec656	-0.20192847
155	0x3e407639	0.18795098
156	0xbe62806a	-0.22119299
157	0xbc9d7075	-0.019218663
158	0xbd49e2f6	-0.049288712
159	0x3e1a7181	0.15082361
160	0x3de2758c	0.110575765
161	0x3eb5756a	0.35441142
162	0xbd1f0373	-0.03882165
163	0xbdd1b023	-0.102386735
164	0x3d924ce0	0.07143569
165	0xbd9f1c37	-0.077690534
166	0xbdd8ba80	-0.10582447
167	0xbccc5f44	-0.02494777
168	0x3e3ee1d2	0.18640831
169	0x3e826c34	0.25473177
170	0xbe93c4c9	-0.28861073
171	0x3e5f3629	0.21798004
172	0x3e52842a	0.20558229
173	0x3e24f8fb	0.16110604
174	0x3dcb9c62	0.09941937
175	0x3e1b646d	0.15175028
176	0xbe227e52	-0.158685
177	0x3e19f30e	0.15034124
178	0x3da50087	0.08056741
179	0xbe372c62	-0.17888024
180	0xbbaea9d8	-0.0053303055
181	0xbe54e0f1	-0.20788933
182	0xbc4c73f2	-0.012478815
183	0xba0a596f	-0.0005277609
184	0x3e8ccd9a	0.27500612
185	0xbe1f40b0	-0.1555202
186	0xbe363172	-0.177923
187	0x3d354d7e	0.044263355
188	0xbe48a890	-0.19595551
189	0x3dcaa4f0	0.098947406
190	0x3d8f0275	0.069828905
191	0xbd640095	-0.055664618
192	0x3e4a3684	0.19747359
193	0xbd9a2b90	-0.0752784
194	0xbe827cc4	-0.25485814
195	0x3d75d0fd	0.06001376
196	0xbc75b79e	-0.014997391
197	0x3e5d73f4	0.21626264
198	0x3dbe47f1	0.092910655
199	0xbe15bac3	-0.14622025
200	0x3e00ce7e	0.1257877
201	0xbe86307a	-0.2620886
202	0xbe3005c6	-0.17189702
203	0x3c464a15	0.0121026235
204	0x3e1242ec	0.14283341
205	0x3d67801c	0.05651866
206	0xbd18a504	-0.037266746
207	0xbe2d9d9b	-0.16954653
208	0x3d181d23	0.037137162
209	0xbe00417e	-0.12524983
210	0x3dbca6d1	0.09211505
211	0xbd8f8aea	-0.07008918
212	0xbe924cc6	-0.28574198
213	0x3e4d319f	0.2003846
214	0xbe17e844	-0.14834696
215	0xbcf28711	-0.02960542
216	0xbe0fda48	-0.14048111
217	0xbe352b9d	-0.17692418
218	0xbe044fc1	-0.12921049
219	0x3e43cfe2	0.1912227
220	0xbe625beb	-0.22105376
221	0x3dd792e7	0.10526066
222	0xbe45f8ac	-0.19333142
223	0x3e2bc17d	0.16773029
224	0x3e1e9491	0.15486361
225	0x3e3557a2	0.1770921
226	0x3dc0e909	0.09419448
227	0x3d5e473e	0.05426716
228	0xbd6fbe28	-0.058530957
229	0xbe2a4aa3	-0.16630034
230	0x3d89f2e7	0.06735783
231	0xbca1b087	-0.019737495
232	0x3d70bffa	0.058776833
233	0xbea9f46f	-0.331943
234	0x3e67aa5f	0.22623585
235	0xbcd2c685	-0.025729427
236	0x3dfee380	0.12445736
237	0x3dc5d29f	0.096593134
238	0xbe1c0113	-0.15234785
239	0x3e40de9d	0.1883492
240	0x3e11f8b0	0.14255023
241	0xbe4a6dee	-0.19768497
242	0x3dfa580a	0.12223823
243	0xbd5a4592	-0.053289004
244	0xbdeac4e4	-0.11463335
245	0x3e75ec10	0.24015832
246	0xbe50b087	-0.2037984
247	0xbe08f1fe	-0.13373563
248	0x3daf84bd	0.0857024
249	0xbd6997d3	-0.057029556
250	0x3e7f8ec1	0.249568
251	0x3dc85135	0.09781114
252	0xbdd7ef22	-0.10543658
253	0x3b26b387	0.0025436596
254	0xbe2a1b7a	-0.16612044
255	0x3e183567	0.14864121

bias f4 [32]
0	0xbcbe1447	-0.023203028
1	0x3c8f638f	0.017503528
2	0x3ba4bf35	0.0050276765
3	0x3d839709	0.06425292
4	0xbc93bf37	-0.018035514
5	0x3c607bf8	0.013701431
6	0x3c28cfd8	0.01030346
7	0xbd933da9	-0.07189495
8	0x3cd4229f	0.025895415
9	0x3cf3a20c	0.029740356
10	0xbd1e17e0	-0.038596988
11	0xbcacf5ea	-0.021113355
12	0x3d1a032b	0.037600677
13	0x3c092e6d	0.008372885
14	0xbd38ed5c	-0.04514824
15	0x3b9426ea	0.0045212405
16	0xbc9aaf48	-0.018882409
17	0x3b963517	0.0045839655
18	0xbc5cfed4	-0.01348849
19	0x3d2ba94b	0.041909497
20	0xbd1c6000	-0.03817749
21	0xbd55c8bc	-0.05219339
22	0xbbb7bc1a	-0.0056071403
23	0xba883b1c	-0.0010393593
24	0xbc7cff4f	-0.01544173
25	0xbc8d685f	-0.017261682
26	0x3abd0f71	0.0014424158
27	0x3d34572a	0.04402844
28	0xbd167101	-0.036728863
29	0xbb1cf3f0	-0.002394911
30	0x3d27b7a5	0.04094662
31	0xbcbf6476	-0.023363333

weight f4 [13, 13]
0	0x8000b89a	-6.6223e-41
1	0x00059daa	5.15737e-40
2	0x80000e3e	-5.109e-42
3	0x80060c61	-5.55454e-40
4	0x8002ee9b	-2.69267e-40
5	0x0007a07c	7.0042e-40
6	0x0003cedb	3.49712e-40
7	0x00072d6a	6.5914e-40
8	0x8002f8c4	-2.72911e-40
9	0x80026db4	-2.23025e-40
10	0x8007dd3c	-7.22212e-40
11	0x0007fdd0	7.33899e-40
12	0x000a7475	9.60132e-40
13	0x8001edb6	-1.7711e-40
14	0x00007c02	4.4486e-41
15	0x00073a1b	6.63693e-40
16	0x8002e982	-2.67438e-40
17	0x800896d3	-7.8879e-40
18	0x000714cd	6.5031e-40
19	0x000a8218	9.65024e-40
20	0x800421de	-3.79491e-40
21	0x8006cb51	-6.23949e-40
22	0x8008ee14	-8.2009e-40
23	0x800948eb	-8.52678e-40
24	0x80070465	-6.44425e-40
25	0x80099200	-8.78894e-40
26	0x8002a48d	-2.427e-40
27	0x0008ae72	7.97263e-40
28	0x800646a9	-5.76361e-40
29	0x800130f8	-1.09402e-40
30	0x0001b481	1.56588e-40
31	0x800acc7a	-9.91707e-40
32	0x0005dc43	5.38192e-40
33	0x8001e9ba	-1.75681e-40
34	0x0006bca0	6.18679e-40
35	0x000225d0	1.97236e-40
36	0x8006cdef	-6.24888e-40
37	0x800a1522	-9.25936e-40
38	0x800a6883	-9.55847e-40
39	0x0008ed64	8.19844e-40
40	0x000797e6	6.9734e-40
41	0x8003e5f8	-3.58004e-40
42	0x8005a7c3	-5.19359e-40
43	0x800a55ae	-9.49091e-40
44	0x8004c0b4	-4.36471e-40
45	0x800796f7	-6.97004e-40
46	0x800ab11c	-9.8189e-40
47	0x8009fe7a	-9.17808e-40
48	0x8003d9d1	-3.53644e-40
49	0x80082b6f	-7.50265e-40
50	0x8003d022	-3.5017e-40
51	0x80083983	-7.55315e-40
52	0x0002664a	2.20365e-40
53	0x80045d0c	-4.00721e-40
54	0x0001d148	1.66911e-40
55	0x0009c8f9	8.98615e-40
56	0x0000a2ba	5.8375e-41
57	0x000af48a	1.006079e-39
58	0x80057c92	-5.03865e-40
59	0x0007d155	7.17943e-40
60	0x0006060c	5.53182e-40
61	0x8002b323	-2.47933e-40
62	0x00070f57	6.48351e-40
63	0x80023058	-2.01013e-40
64	0x000537ec	4.79238e-40
65	0x0002457b	2.08596e-40
66	0x8003c037	-3.4446e-40
67	0x000a9684	9.7235e-40
68	0x800287b2	-2.32349e-40
69	0x00047663	4.09811e-40
70	0x8003fd72	-3.66426e-40
71	0x8005d120	-5.34197e-40
72	0x0001f3d2	1.79302e-40
73	0x800173d7	-1.33391e-40
74	0x000afb9f	1.00862e-39
75	0x80096771	-8.63627e-40
76	0x000a32a5	9.36523e-40
77	0x800885cf	-7.82685e-40
78	0x8005107f	-4.65095e-40
79	0x80054a91	-4.85927e-40
80	0x8009c487	-8.9702e-40
81	0x800ac54a	-9.89129e-40
82	0x00020797	1.86394e-40
83	0x00020932	1.8697e-40
84	0x80086da5	-7.74017e-40
85	0x8006ade7	-6.13397e-40
86	0x80088675	-7.82918e-40
87	0x0008ce39	8.08663e-40
88	0x00089c1d	7.90687e-40
89	0x800a0d29	-9.23076e-40
90	0x0007ff8b	7.3452e-40
91	0x00037897	3.18766e-40
92	0x8008da11	-8.12911e-40
93	0x80095408	-8.56664e-40
94	0x00017c7d	1.36493e-40
95	0x00083dd4	7.56864e-40
96	0x00086807	7.72002e-40
97	0x800a5eff	-9.52433e-40
98	0x00068e07	6.01963e-40
99	0x0009baed	8.93576e-40
100	0x8006885c	-5.9993e-40
101	0x800af4fc	-1.006239e-39
102	0x80093ba3	-8.47913e-40
103	0x0007d9d8	7.20996e-40
104	0x0008513f	7.6383e-40
105	0x000465cb	4.03858e-40
106	0x00072b42	6.58366e-40
107	0x8009827a	-8.73326e-40
108	0x00021e2c	1.94495e-40
109	0x80080e01	-7.39708e-40
110	0x8002912f	-2.35753e-40
111	0x8009a273	-8.84795e-40
112	0x800ace18	-9.92287e-40
113	0x8009e0c7	-9.07154e-40
114	0x0003ea04	3.59455e-40
115	0x00067296	5.92119e-40
116	0x800755b2	-6.7359e-40
117	0x0009e9b9	9.10363e-40
118	0x800a9642	-9.72257e-40
119	0x80080822	-7.37601e-40
120	0x8009a468	-8.85497e-40
121	0x0008d2dc	8.10326e-40
122	0x8000d5f2	-7.6749e-41
123	0x80061bb9	-5.60958e-40
124	0x800239ee	-2.04452e-40
125	0x80074243	-6.66619e-40
126	0x8003f51e	-3.63438e-40
127	0x00099aec	8.82095e-40
128	0x00051043	4.65011e-40
129	0x0009dbeb	9.05411e-40
130	0x8003bc5a	-3.43074e-40
131	0x0009bb64	8.93743e-40
132	0x00079b2f	6.98518e-40
133	0x8008239c	-7.47458e-40
134	0x80011379	-9.8821e-41
135	0x0003f08f	3.61803e-40
136	0x000402ee	3.68393e-40
137	0x00063de9	5.73222e-40
138	0x000ac911	9.90484e-40
139	0x000495e2	4.2111e-40
140	0x80005cbd	-3.3268e-41
141	0x80002e6d	-1.6654e-41
142	0x000aaa51	9.79453e-40
143	0x80029db8	-2.4025e-40
144	0x00092db1	8.4291e-40
145	0x800ae46b	-1.000296e-39
146	0x00085a37	7.67047e-40
147	0x00004464	2.4534e-41
148	0x800528a9	-4.73764e-40
149	0x8004bc39	-4.34864e-40
150	0x8006888c	-5.99997e-40
151	0x00042847	3.81791e-40
152	0x8005fa2d	-5.48924e-40
153	0x000add00	9.97635e-40
154	0x00028bfe	2.33891e-40
155	0x80044a60	-3.94023e-40
156	0x00010de0	9.6813e-41
157	0x000746a9	6.68197e-40
158	0x0001526a	1.214e-40
159	0x0009737f	8.67952e-40
160	0x8009e6d7	-9.09329e-40
161	0x80084eaa	-7.62903e-40
162	0x8005f6c7	-5.47705e-40
163	0x800335cf	-2.9481e-40
164	0x0002d654	2.60557e-40
165	0x00002530	1.334e-41
166	0x0001b359	1.56173e-40
167	0x0004ffd4	4.59116e-40
168	0x800006ad	-2.395e-42

bias f4 [13]
0	0xbe1b4c74	-0.15165883
1	0x3e1b137a	0.15144148
2	0x3d5c1373	0.053729486
3	0x3e156ac2	0.14591506
4	0xbd4f4681	-0.050604347
5	0x3e03845a	0.12843457
6	0xbc0e9a06	-0.008703714
7	0x3e1ff167	0.15619431
8	0xbe689862	-0.2271438
9	0x3c93edbe	0.0180577
10	0xbe36e614	-0.17861205
11	0x3e8bb504	0.2728654
12	0x3c53af57	0.012920222

weight f4 [32, 13]
0	0xbda3e6f9	-0.08003039
1	0x3d2f4041	0.042785887
2	0xbe99242b	-0.29910406
3	0xbd813425	-0.06308774
4	0xbd903d2a	-0.07042916
5	0x3df9a39a	0.12189408
6	0x3dc4c348	0.096075594
7	0x3e44fe3a	0.19237605
8	0x3c23b07d	0.009990809
9	0xbe6df809	-0.23239149
10	0x3ea2e441	0.3181477
11	0xbd74bdae	-0.059751205
12	0x3e09a8b9	0.13443269
13	0x3e9dc551	0.30814603
14	0xbea2dcf3	-0.31809196
15	0x3f2dee28	0.6794152
16	0x3e4dd051	0.20098998
17	0x3e0333c9	0.12812723
18	0x3d92f667	0.07175904
19	0x3e927f0d	0.28612557
20	0x3d7a9cc9	0.06118468
21	0x3e719989	0.23593725
22	0x3d8ad0a8	0.06778079
23	0xbcefd340	-0.029275537
24	0xbcf3afcc	-0.029746912
25	0x3ed13eda	0.40868264
26	0x3bc2981d	0.0059385435
27	0x3e5500c2	0.2080107
28	0xbe0bd5a5	-0.13655718
29	0xbdbbbd5e	-0.09166978
30	0x3db690b0	0.08914316
31	0x3e5482a5	0.20752962
32	0xbc22b1f1	-0.00993012
33	0xbe7f3575	-0.24922736
34	0xbe376d36	-0.17912754
35	0x3dd5e77e	0.10444544
36	0x3e577b7f	0.21043204
37	0x3bd1c18b	0.006401246
38	0xbe044d41	-0.12920095
39	0x3e04194c	0.12900275
40	0xbea5c45b	-0.3237637
41	0x3d91bb28	0.07115775
42	0x3e1f2ed2	0.15545204
43	0x3efdb564	0.49552453
44	0x3ea9381a	0.33050615
45	0x3d9d479b	0.07679673
46	0x3c5bf6e3	0.013425562
47	0xbceb769e	-0.028743085
48	0x3d6171e1	0.055040244
49	0x3da4a299	0.080388255
50	0x3d601689	0.05470899
51	0x3d0ed277	0.034868684
52	0xbe3e7cf8	-0.1860236
53	0x3e7a2c25	0.24430902
54	0x3d38b899	0.04509792
55	0xbe4fba3e	-0.2028589
56	0xbd552e27	-0.052045967
57	0xbdd2bd2d	-0.10289989
58	0x3e7f0002	0.24902347
59	0x3e52e684	0.20595747
60	0x3e1f63da	0.15565434
61	0xbd8e9dc4	-0.06963685
62	0xbe599f1e	-0.21252105
63	0xbccc13b4	-0.024911739
64	0xbe55fbd1	-0.20896842
65	0x3ebc263e	0.36747926
66	0x3ea4905c	0.32141387
67	0x3e397691	0.18111636
68	0xbbf9dd6a	-0.0076252716
69	0x3ebedcb7	0.37277767
70	0x3d0a6dd4	0.033796147
71	0xbc8c86b3	-0.017154073
72	0x3c566714	0.013086099
73	0xbde37354	-0.111059815
74	0x3decafb0	0.11556947
75	0x3dea29dd	0.11433766
76	0x3e03b823	0.12863211
77	0xbe80321b	-0.25038227
78	0x3bd57482	0.006514133
79	0xbec0541c	-0.3756417
80	0x3e06c5c2	0.13161376
81	0x3b373067	0.0027952434
82	0xbe566a66	-0.20939025
83	0xbe6576b3	-0.22408561
84	0xbe8e6fa8	-0.27819562
85	0x3e1dada8	0.15398276
86	0xbd8bec47	-0.06832176
87	0x3d7f053e	0.06226086
88	0x3e2a7721	0.16647007
89	0xbd6b2a7d	-0.057413567
90	0xbec0b120	-0.37635136
91	0xbe925a8d	-0.2858471
92	0x3f138387	0.5762257
93	0xbe86c6ab	-0.26323447
94	0xbe277faf	-0.16357301
95	0xbeda82b2	-0.42677838
96	0xbd9de4d4	-0.07709661
97	0x3def9793	0.11698832
98	0xbcbdfeae	-0.02319273
99	0xbded8d54	-0.11599222
100	0x3d10f88b	0.03539328
101	0x3c0aa3c2	0.0084618945
102	0xbd72f764	-0.05931796
103	0xbe5a9d9d	-0.21349187
104	0xbe25b827	-0.1618353
105	0x3e028a13	0.12747984
106	0xbd2910ac	-0.041275665
107	0xbe200509	-0.15626921
108	0xbcf0dfdd	-0.029403621
109	0x3d93c507	0.07215314
110	0x3e1bc587	0.1521207
111	0xbd8087b1	-0.06275881
112	0x3c528b81	0.012850643
113	0x3e076cf2	0.13225153
114	0x3e464bac	0.19364804
115	0x3e393b38	0.18088996
116	0x3dd1393a	0.10215993
117	0x3e55d96d	0.20883723
118	0xbcf99555	-0.030466715
119	0xbe9032b4	-0.28163683
120	0xbd9b83b2	-0.07593478
121	0x3e392e35	0.18084033
122	0x3e87bf10	0.26512957
123	0xbe0a8b33	-0.13529663
124	0x3dbc354b	0.09189852
125	0xbdbe85e0	-0.093028784
126	0xbe82fee4	-0.2558509
127	0x3d4e9839	0.05043814
128	0x3dd71651	0.105023034
129	0xbe172975	-0.14761908
130	0xbe4e3235	-0.2013634
131	0x3d6b7a70	0.057489812
132	0xbd649efe	-0.05581569
133	0xbe6389bd	-0.22220512
134	0xbe46c239	-0.19410028
135	0xbd94f458	-0.07273167
136	0xbe0267a7	-0.12734853
137	0xbe301def	-0.17198919
138	0x3a21cd01	0.00061722106
139	0x3e3fc6ff	0.18728255
140	0x3e34865f	0.17629384
141	0xbd95e639	-0.07319302
142	0x3de5c6cd	0.11219559
143	0x3ebce7cd	0.368956
144	0x3e86c95e	0.26325506
145	0x3e5a6fce	0.21331713
146	0xbe2d6382	-0.1693249
147	0x3d17fc98	0.037106127
148	0x3e4f0fb9	0.20220841
149	0x3e0addfe	0.13561246
150	0xbe7652ac	-0.24054974
151	0xbe3e6d9f	-0.18596505
152	0xbe370661	-0.17873527
153	0x3dc08f04	0.09402278
154	0x3de35626	0.11100416
155	0xbe82ee0c	-0.2557224
156	0x3c1721ec	0.009224396
157	0xbd77cd2c	-0.0604984
158	0x3e0ddbad	0.13853331
159	0xbe8e0204	-0.27735913
160	0x3ec7f4a4	0.39053833
161	0x3e15651b	0.1458935
162	0x3dffad57	0.12484234
163	0x3c452c3f	0.012034475
164	0x3d93b92d	0.07213054
165	0xbe820c75	-0.2540013
166	0x3d566ec9	0.052351747
167	0x3dee2058	0.11627263
168	0x3e859a4e	0.26094288
169	0x3e4053ac	0.18781918
170	0xbc5fd688	-0.013661988
171	0xbe29cb5e	-0.16581485
172	0x3d90975d	0.0706012
173	0x3e8c241d	0.27371302
174	0xbe22e182	-0.15906337
175	0x3ea5ece8	0.32407308
176	0x3dbfc13a	0.09363027
177	0x3e26af23	0.16277747
178	0x3c078bdd	0.008273092
179	0xbd9c53a8	-0.07633144
180	0xbcd10f38	-0.025519952
181	0xbe096025	-0.13415582
182	0xbe87abcc	-0.26498258
183	0xbe9b96b4	-0.30388415
184	0x3e32e4ef	0.17470144
185	0xbd552027	-0.052032616
186	0x3e685a18	0.22690618
187	0x3d32aab4	0.043619826
188	0xbde0f660	-0.10984492
189	0x3ca4947d	0.020090336
190	0x3e1507ba	0.14553729
191	0xbe523951	-0.20529677
192	0x3e68f223	0.22748618
193	0x3e4aba86	0.19797716
194	0x3e366f53	0.17815904
195	0xbeb5f1ff	-0.3553619
196	0xbe6ec2d5	-0.2331651
197	0x3e6ca4e5	0.23109777
198	0xbea0d6b2	-0.314138
199	0xbe08dee1	-0.13366272
200	0xbdd0a890	-0.10188401
201	0x3e2760f2	0.16345575
202	0x3e035a4d	0.12827416
203	0x3e465e9b	0.19372027
204	0xbcb127d2	-0.021625433
205	0xbcaefe78	-0.021361575
206	0xbb919da2	-0.00444384
207	0x3f0c6757	0.54845184
208	0x3e9c027a	0.3047064
209	0x3e91709a	0.2840622
210	0x3e051d46	0.12999448
211	0x3e65d596	0.22444758
212	0x3df89b2c	0.12138972
213	0xbc28d692	-0.010305064
214	0xbe21e945	-0.15811642
215	0x3d561a91	0.05227143
216	0xbe369dd8	-0.1783365
217	0xbd65084f	-0.055916127
218	0xbe51aa36	-0.20475087
219	0xbd0ce551	-0.03439838
220	0x3d3366cc	0.043799207
221	0x3c251f20	0.010078222
222	0x3e6cd8d7	0.23129593
223	0x3e9bc908	0.30426812
224	0x3da44d14	0.08022514
225	0x3e61d50f	0.22053932
226	0xbd70ceb0	-0.058790863
227	0x3e86ab01	0.2630234
228	0xbd078e6d	-0.033094812
229	0xbd234975	-0.039864976
230	0x3e4aa96a	0.19791189
231	0xbe7ff08a	-0.24994102
232	0x3e3b5b9d	0.18296666
233	0x3e6b21a3	0.2296205
234	0x3f648295	0.8926175
235	0x3e453c76	0.19261345
236	0xbccb8edf	-0.0248484
237	0x3d100b83	0.03516723
238	0x3e63a502	0.22230914
239	0x3da9792d	0.082750656
240	0x3c0edf42	0.008720221
241	0x3d6b775d	0.05748688
242	0xbd4e86fe	-0.050421707
243	0xbb744510	-0.003727261
244	0xbc1f6848	-0.009729452
245	0xbbe89ac4	-0.0070985276
246	0x3c94c171	0.018158646
247	0x3e440990	0.19144273
248	0x3eba8e2c	0.36436594
249	0xbef44410	-0.47708178
250	0xbed478d4	-0.41498435
251	0xbe2b72e9	-0.16743053
252	0xbcc26faf	-0.023734896
253	0xbe15049d	-0.14552541
254	0xbe78bbcc	-0.24290389
255	0x3e7a22a7	0.24427281

bias f4 [32]
0	0xbbf0cd66	-0.007348704
1	0xbc6eefb4	-0.014583517
2	0xbb722b20	-0.0036951974
3	0x3cd887d3	0.026431954
4	0x3bd2014f	0.0064088474
5	0xbd24f6da	-0.04027448
6	0x3bc76038	0.006084468
7	0x3a996c6c	0.0011705286
8	0x3b063ee7	0.002048427
9	0xbcc887d3	-0.024478829
10	0x3d24c17e	0.04022359
11	0xbdd407fd	-0.10353086
12	0x3c5cea7b	0.013483639
13	0x3c8d4790	0.017246038
14	0x3d2bf6ff	0.0419836
15	0xbc266304	-0.010155443
16	0xbd191e7d	-0.03738259
17	0xbd500ef8	-0.050795525
18	0xbdc41bd7	-0.095756225
19	0xbd01b183	-0.03166343
20	0xbd2e3102	-0.042527206
21	0xbad26f2e	-0.0016054863
22	0xbc75a4c0	-0.014992893
23	0xbcb45c11	-0.022016557
24	0x3d02a192	0.031892367
25	0x3c7ea0a8	0.015541233
26	0xbc003c5e	-0.007826893
27	0xbc107f6d	-0.008819443
28	0xbc2b8a19	-0.010469937
29	0xbd2f4cab	-0.042797726
30	0x3c2daf70	0.01060091
31	0xbda5a6c9	-0.08088452

weight f4 [32, 64]
0	0xbcf0b6d6	-0.029384058
1	0xbe027c4e	-0.12742731
2	0x3d7b3262	0.061327346
3	0x3dd32f02	0.103117004
4	0x3bf12a4e	0.0073597794
5	0x3daadd74	0.0834302
6	0xbb9042ac	-0.004402479
7	0xbbc82d8a	-0.0061089443
8	0xbdf99bbb	-0.12187906
9	0x3ae2f338	0.0017314916
10	0x3dae96ae	0.085248336
11	0x3cfcb8a1	0.030849757
12	0xbdaabdcb	-0.083369814
13	0xbcaa575a	-0.020793606
14	0x3c8780bf	0.016540883
15	0xbbe147f9	-0.006875035
16	0xbdc0a6e8	-0.09406835
17	0x3d0408e3	0.032235038
18	0xbda1a72f	-0.07893216
19	0xbe2819a8	-0.16416037
20	0xbdf09f7b	-0.117491685
21	0x3d2184ed	0.03943341
22	0xbd99730b	-0.07492646
23	0x3d770c64	0.06031455
24	0xbd9a0bc2	-0.07521774
25	0x3e008eea	0.12554517
26	0xbcef35ee	-0.02920052
27	0xbdd942a9	-0.106084175
28	0xbde029de	-0.109454855
29	0x3d1c0ae1	0.038096312
30	0xbd6f0dfd	-0.05836295
31	0x3cc6ee1e	0.024283465
32	0xbc141f86	-0.009040719
33	0xbd942f52	-0.07235588
34	0x3ddb46ae	0.107068405
35	0x3cec6ed0	0.028861433
36	0xbcf72974	-0.030171134
37	0x3d0247b3	0.03180666
38	0x3db8565c	0.09000847
39	0x3cf21cca	0.029554743
40	0xbdaf5784	-0.08561614
41	0xbd346665	-0.044042964
42	0x3d2b6c44	0.041851297
43	0xbd84b81b	-0.06480428
44	0xbe1da522	-0.15395024
45	0xbe1c6c61	-0.15275718
46	0xbc7d2b50	-0.015452221
47	0xbcd32cd6	-0.025778215
48	0x3b801be2	0.003909574
49	0xbe1c3869	-0.15255894
50	0xbd7602bd	-0.060061205
51	0x3d62aa30	0.055338085
52	0xbd73adcb	-0.059491914
53	0x3d992971	0.074786074
54	0x3d3985bf	0.045293566
55	0xbc7f7ea9	-0.015594163
56	0xbd65537b	-0.055987816
57	0xbcf423be	-0.0298022
58	0xbdfa4d0b	-0.12221726
59	0x3d97eb1a	0.07417889
60	0xbcfe1aba	-0.031018604
61	0xbd912df8	-0.07088846
62	0xbcdaad05	-0.02669383
63	0xbd7f9574	-0.06239839
64	0xbdce9eb1	-0.10088862
65	0x3d1e72c6	0.038683675
66	0x3cca8988	0.024723783
67	0xbd7080c2	-0.058716543
68	0xbc58b00d	-0.0132255675
69	0xbdbb59c1	-0.091479786
70	0xbbe39de9	-0.0069463146
71	0x3d5e0c9c	0.054211244
72	0xbd13288d	-0.035927344
73	0x3c33410e	0.010940803
74	0x3d2904af	0.041264232
75	0xbd8e6078	-0.06951994
76	0x3d9ffffe	0.078124985
77	0x3d4a594b	0.049401563
78	0x3cea9916	0.02863745
79	0x3d84cb1f	0.06484055
80	0xbd1b9861	-0.037987117
81	0xbc88157c	-0.016611807
82	0xbbd6f26e	-0.0065596616
83	0xbc79bffa	-0.015243525
84	0xbdc1f99c	-0.09471437
85	0x3d59475f	0.05304658
86	0xbc5d73ec	-0.013516407
87	0x3d23734b	0.039904874
88	0x3e0c697d	0.13712116
89	0xbca53a65	-0.020169446
90	0x3c7843a0	0.015152842
91	0xbd8f0e8c	-0.069851965
92	0x3d97a3c7	0.07404285
93	0x3ceb13d4	0.028695978
94	0x3d07c803	0.03314973
95	0x3d2de453	0.042454075
96	0x3d80d6cc	0.06290969
97	0xbce9ca10	-0.028538734
98	0xbceebdb8	-0.0291432
99	0x3d14b24a	0.036302842
100	0x3d26ca61	0.040720347
101	0x3dd8299f	0.105548136
102	0xbcc3f89c	-0.023922257
103	0xbd3c7db1	-0.046018306
104	0xbc2dc4b9	-0.010605984
105	0xbc5202e8	-0.012818076
106	0xbd60adac	-0.054853126
107	0x3cfde194	0.030991353
108	0xbb8bf571	-0.0042712023
109	0xbe495b62	-0.19663766
110	0xbd339752	-0.043845482
111	0xbdc91f4a	-0.09820421
112	0x3d766809	0.06015781
113	0xbd64cfd5	-0.055862267
114	0x3d629fde	0.055328242
115	0x3ca7c8d7	0.02048151
116	0x3d3bf38a	0.045886554
117	0xbd28f57b	-0.041249733
118	0x3c391adf	0.0112979105
119	0x3ada6978	0.0016663512
120	0xbd39262c	-0.04520242
121	0xbd1f1e2e	-0.03884714
122	0x3ca91036	0.020637613
123	0xbba09cb3	-0.0049014925
124	0xbd35da36	-0.044397555
125	0xbd14b16e	-0.036302023
126	0x3d939cb8	0.07207626
127	0xbca9a2d7	-0.02070753
128	0x3d082b83	0.03324462
129	0x3c68a3fc	0.014199253
130	0x3d1d1cd1	0.03835756
131	0xbdcb62f8	-0.09930986
132	0x3dd18d15	0.102319874
133	0x3d2c7450	0.04210311
134	0xbd935cbc	-0.07195422
135	0x3d663055	0.056198437
136	0xbd8e578f	-0.06950294
137	0xbd03c850	-0.032173455
138	0x3d640e19	0.055677507
139	0x3d63c7eb	0.05561058
140	0xbe1fe26b	-0.15613715
141	0xbd5a4205	-0.053285617
142	0x3c93925e	0.01801413
143	0xbdf819bd	-0.12114284
144	0xbe15cfd2	-0.14630058
145	0xbcd1a668	-0.025592044
146	0xbd94bbf8	-0.07262415
147	0xbd3e10d1	-0.046402756
148	0x3c269d1c	0.010169294
149	0xbba4988a	-0.005023067
150	0x3d3cab85	0.04606201
151	0xbdbbda66	-0.091725156
152	0x3da6eb09	0.08150298
153	0xbc7b0a03	-0.015322211
154	0x3d99ebef	0.07515704
155	0xbc5f9d19	-0.013648295
156	0x3d63eeb0	0.055647552
157	0xbc9605b7	-0.018313272
158	0xbd003626	-0.03130164
159	0x3d237ee0	0.03991592
160	0xbdad94c5	-0.08475641
161	0x3ce845c1	0.028353574
162	0xbdd588bf	-0.10426473
163	0xbdbaf5bd	-0.09128902
164	0x3cfba065	0.03071613
165	0x3d5254db	0.051350456
166	0xbc94b98e	-0.018154886
167	0x3c57afd7	0.013164482
168	0xbde2bcec	-0.1107119
169	0xbe2b02ee	-0.16700336
170	0xbd8c7b43	-0.06859448
171	0xbb62f6c8	-0.0034631956
172	0xbddcd564	-0.107828885
173	0x3dcd181e	0.100143656
174	0xbda23a4a	-0.07921274
175	0xbd8cb1ab	-0.06869825
176	0xbdfe0fd1	-0.124053605
177	0xbd38866d	-0.045050073
178	0xbce0144f	-0.027353434
179	0xbcbbb1ee	-0.022911992
180	0xbdb88ad1	-0.09010852
181	0xbd894f0e	-0.067045316
182	0xb9b74454	-0.00034955388
183	0x3e03e9f8	0.12882221
184	0xbe0fbec8	-0.14037621
185	0xbe470e01	-0.19438936
186	0xbd52fd51	-0.051511113
187	0xbe0f8e1a	-0.14019051
188	0xbde7a358	-0.11310452
189	0xbd3280b0	-0.043579757
190	0xbda32bb1	-0.07967318
191	0xbcf308f5	-0.029667357
192	0xbdc2607b	-0.094910584
193	0x3d411f06	0.047148727
194	0xbd3c84aa	-0.046024956
195	0x3d4c72e7	0.049914267
196	0xbdaa55f6	-0.08317177
197	0xbd0cf78d	-0.03441577
198	0x3c1c4add	0.009539333
199	0xbb20b896	-0.0024524084
200	0xbdd02c31	-0.10164679
201	0xbe25ccbb	-0.1619138
202	0xbdbb4a43	-0.09145024
203	0xbd9046a9	-0.07044727
204	0x3d847616	0.064678356
205	0xbdead12b	-0.11465677
206	0x3dd11bb4	0.10210362
207	0xbd0e7f15	-0.034789164
208	0xbcca4a8a	-0.024693746
209	0xbd88e0e8	-0.066835225
210	0xbd77b8b3	-0.060478877
211	0x3c7f5c0c	0.0155859105
212	0xbe3f1a60	-0.18662405
213	0xbcac6046	-0.021042
214	0xbd53e3b0	-0.05173081
215	0xbd109711	-0.03530032
216	0xbe22619f	-0.15857552
217	0x3c777f15	0.015105982
218	0xbd9d56f2	-0.07682599
219	0x3e136c7a	0.1439685
220	0xbe18b20b	-0.14911668
221	0x3ce3719e	0.027764138
222	0xbdc35dd9	-0.095393844
223	0xbd63d793	-0.05562551
224	0xbd8e3cec	-0.06945214
225	0xbd9f0a43	-0.07765629
226	0x3d2f18db	0.042748313
227	0x3c7f4188	0.015579589
228	0xbc1e7a55	-0.009672721
229	0xbdacbcb7	-0.08434432
230	0xbc223471	-0.009900198
231	0xbe03ad86	-0.12859163
232	0xbd4a7bbc	-0.04943441
233	0x3dc7abb9	0.0974955
234	0x3dbce423	0.09223201
235	0xbd9e2ee9	-0.07723791
236	0x3e4dd7b3	0.20101814
237	0xbde17e47	-0.110104136
238	0x3d028d60	0.031873107
239	0x3c83e427	0.016100002
240	0xbdb04bb9	-0.08608193
241	0xbdda52a9	-0.106602974
242	0x3d163e88	0.03668073
243	0xbde39232	-0.11111869
244	0xbd4baacc	-0.04972343
245	0xbc152bdc	-0.009104695
246	0x3d121cbd	0.03567194
247	0x3d1fb911	0.038994852
248	0xbcb7f5b7	-0.022456033
249	0xbe08b0d2	-0.13348702
250	0xbd8ebd4a	-0.06969698
251	0x3e0b0e10	0.13579583
252	0x3c358fba	0.01108163
253	0xbdce1ac7	-0.10063701
254	0xbe105da8	-0.14098227
255	0x3d6a24fe	0.057164185

bias f4 [32]
0	0xbcfc223d	-0.030778045
1	0x3c0fa7d4	0.008768041
2	0x3b689861	0.0035491216
3	0x3cda9358	0.026681587
4	0xbb75af0a	-0.0037488365
5	0xbcb91077	-0.022590859
6	0xba62aaeb	-0.00086466846
7	0x3b4bb5a8	0.0031083617
8	0x3ca88bb9	0.020574437
9	0xbcb7de2d	-0.022444809
10	0x3d23d84e	0.040001206
11	0xbd7fa08f	-0.06240898
12	0x3c586ffd	0.013210294
13	0x3c4ea82b	0.012613337
14	0xbc00e1f1	-0.007866369
15	0xbc054da9	-0.008136191
16	0xbd19afde	-0.037521236
17	0xbd2049e2	-0.03913296
18	0xbd96a6d9	-0.073560424
19	0xbbf81793	-0.0075711696
20	0xbc32e5d5	-0.010919054
21	0x3b84cec7	0.00405297
22	0xbc4c8420	-0.012482673
23	0xba8327ac	-0.001000633
24	0x3d1ff7b1	0.039054576
25	0x3c646b06	0.013941532
26	0xbd78bf63	-0.060729396
27	0xbc181672	-0.009282695
28	0xbd02dc35	-0.031948287
29	0xbd20ecba	-0.03928826
30	0x3c24bbd3	0.010054546
31	0xbd46a01b	-0.048492532

weight f4 [32, 32]
0	0xbe9cf54f	-0.30655906
1	0x3de40c0c	0.1113511
2	0x3d873673	0.06602182
3	0xbc9c7238	-0.019097432
4	0xbe76f784	-0.24117857
5	0xbe80e464	-0.25174248
6	0x3d954643	0.07288792
7	0x3e50601c	0.20349163
8	0xbe52a262	-0.20569757
9	0xbccd6606	-0.025073063
10	0xbe1690e5	-0.1470371
11	0x3bb97a7c	0.005660353
12	0xbe934bd0	-0.28768778
13	0xbe5c8acd	-0.21537323
14	0xbd46e768	-0.04856053
15	0x3d68fbd9	0.056880806
16	0xbd228330	-0.03967589
17	0x3de0c397	0.10974806
18	0xbde38b36	-0.11110537
19	0x3d0a1b8e	0.033717684
20	0x3dc382f8	0.09546465
21	0xbdb60b54	-0.088888794
22	0x3e0e4dc8	0.13896859
23	0xba435341	-0.00074510655
24	0x3e229c6c	0.15879983
25	0xbdb94306	-0.09045987
26	0x3de0af3a	0.10970922
27	0x3dbbea57	0.09175556
28	0xbe6ed308	-0.2332269
29	0xbdbe2868	-0.09285051
30	0xbd7d7070	-0.061874807
31	0x3c9aad21	0.018881382
32	0x3ce6a236	0.02815352
33	0xbcfb2cbc	-0.03066098
34	0x3d0d8919	0.034554575
35	0x3bfcc4c6	0.007713887
36	0xbdbc8e24	-0.09206799
37	0xbdebdc88	-0.115166724
38	0xbe9e75e9	-0.30949333
39	0x3dacaa98	0.08430976
40	0xbdec48e1	-0.11537338
41	0x3dbc1c73	0.09185114
42	0x3c2c8a37	0.010531
43	0x3c8cca8a	0.017186422
44	0xbdd601c2	-0.10449554
45	0x3d56afc8	0.05241373
46	0xbe38e4c0	-0.18056011
47	0x3c92fc2a	0.017942507
48	0xbe1c6eac	-0.15276593
49	0xbdba1def	-0.09087741
50	0x3df1ef53	0.118132256
51	0xbdc859ec	-0.09782776
52	0xbe206bf3	-0.1566618
53	0xba7099ce	-0.0009178192
54	0xbdb4558b	-0.088053785
55	0x3cfc8971	0.030827256
56	0x3e186d44	0.14885432
57	0xbcce94f2	-0.025217507
58	0xbdcc53ad	-0.099768974
59	0x3e0e393f	0.13889025
60	0xbdc7d038	-0.097565114
61	0xbe2e63b5	-0.17030223
62	0xbe3c4e39	-0.18389215
63	0xbde7934b	-0.11307391
64	0x3e087cb9	0.13328828
65	0x3ddf44d2	0.10901798
66	0xbdfa45cb	-0.12220343
67	0xbdc191c3	-0.0945163
68	0x3dc031fe	0.09384535
69	0xbe590217	-0.21192203
70	0xbd2c3bdf	-0.042049285
71	0x3c3e7f37	0.01162701
72	0x3e0e947f	0.13923834
73	0xbe127f71	-0.14306428
74	0x3cbb3037	0.022850139
75	0xbda0cb97	-0.07851332
76	0xbde2d6cb	-0.11076125
77	0x3c1710e7	0.009220338
78	0x3d8dafb4	0.06918278
79	0xbe1f7d80	-0.15575218
80	0x3c8c8f9f	0.017158328
81	0xbe2b2a7e	-0.16715428
82	0xbdd45139	-0.103670545
83	0x3e8c318d	0.27381554
84	0x3cf3299a	0.029682923
85	0x3bbc1724	0.0057400633
86	0x3df921a7	0.12164622
87	0x3da19b61	0.07890964
88	0x3e06ea3d	0.13175292
89	0x3e2243f6	0.15846238
90	0xbe1674d2	-0.14693001
91	0xbe0b48a4	-0.13601929
92	0xbe23d628	-0.15999663
93	0x3e0aed10	0.13566995
94	0xbd70918b	-0.05873255
95	0xbe4d281b	-0.2003483
96	0xbe2818e6	-0.16415748
97	0xbecf1076	-0.40442246
98	0x3dbd6ef4	0.09249678
99	0x3e552a71	0.20816971
100	0xbd8171ec	-0.06320557
101	0x3e028308	0.12745297
102	0x3d6141d3	0.054994415
103	0xbdbaabba	-0.091147855
104	0xba75c042	-0.0009374657
105	0x3d7653f5	0.06013866
106	0x3e17b6f6	0.14815888
107	0x3c59c44e	0.013291432
108	0x3e8008a6	0.25006598
109	0xbe6633ec	-0.22480744
110	0xbd8a60c3	-0.06756737
111	0xbe261a00	-0.16220856
112	0x3d5e1580	0.054219723
113	0xbe733f83	-0.23754697
114	0xbcbe0253	-0.023194468
115	0xbd0a8b2a	-0.033824123
116	0x3e16f2a5	0.14740999
117	0x3e13ea2f	0.14444803
118	0xbd550ce9	-0.052014265
119	0x3d423093	0.047409605
120	0xbe70212a	-0.23450151
121	0xbe2c096a	-0.16800466
122	0xbdaff6cf	-0.08591997
123	0x3bc105c3	0.0058905794
124	0x3e7d29c3	0.24722962
125	0xbd9eb224	-0.077488214
126	0xbe397bec	-0.18113679
127	0x3e1d9b45	0.15391262
128	0xbbcfb39d	-0.0063385502
129	0x3dd81337	0.1055054
130	0x3d2d92c7	0.042376306
131	0x3e24df74	0.16100866
132	0x3e1e7ddd	0.154777
133	0x3db6b0a9	0.08920414
134	0x3d1e258c	0.038610026
135	0xbdb5b947	-0.088732295
136	0xbc5a226d	-0.013313872
137	0xbd77901b	-0.060440164
138	0xbec70a75	-0.38875166
139	0xbce1dbf7	-0.027570708
140	0xbd171a70	-0.036890447
141	0xbe1d23d7	-0.15345703
142	0x3c7867fa	0.015161509
143	0xbe1e2443	-0.1544352
144	0xbc445356	-0.011982759
145	0xbdf511b3	-0.119662665
146	0xbccccbe8	-0.024999574
147	0x3d8a243a	0.06745191
148	0x3d416f83	0.047225486
149	0x3df4c25a	0.11951132
150	0xbd55ee0f	-0.052228983
151	0xbe2740ed	-0.16333361
152	0x3e109179	0.14117993
153	0xbea8fbaf	-0.3300452
154	0xbe86df23	-0.26342115
155	0x3baa8f8f	0.005205102
156	0xbe16bc56	-0.14720282
157	0x3c069b33	0.008215713
158	0xbe531544	-0.20613581
159	0xbedb90b7	-0.42883846
160	0x3d03b006	0.03215029
161	0xbd89cb68	-0.0672825
162	0xbcd7043c	-0.026247136
163	0xbc61d7a4	-0.013784323
164	0x3dc7c6ae	0.09754692
165	0xbde398e2	-0.111131445
166	0xbd51b99a	-0.051202394
167	0xbda742ec	-0.08167061
168	0xbdbe7341	-0.09299327
169	0x3d81830f	0.063238256
170	0x3d505d73	0.05087037
171	0xbe782ce1	-0.2423587
172	0xbe3d13c4	-0.18464571
173	0xbe571cb9	-0.2100705
174	0x3dcd00d7	0.10009926
175	0xbe151038	-0.14556968
176	0xbde842b4	-0.113408476
177	0xbdd3c9c7	-0.1034122
178	0xbe7a8147	-0.24463378
179	0xbea397f2	-0.31951863
180	0x3de2ebc2	0.110801235
181	0x3d5310b0	0.051529586
182	0x3d8b058f	0.067881696
183	0xbd2b9ead	-0.041899372
184	0xbdd3b33e	-0.10336922
185	0xbc2a099f	-0.01037827
186	0xbd8a0cdb	-0.06740733
187	0x3dc50293	0.096196316
188	0x3c6db902	0.014509441
189	0xbe87d2f9	-0.26528147
190	0xbd717ced	-0.05895703
191	0x3de9db05	0.11418728
192	0xbc153b1e	-0.009108333
193	0xbd5e39fb	-0.054254513
194	0xbbccd0ed	-0.006250492
195	0xbc80ba3a	-0.0157138
196	0x3ce09ba6	0.027417969
197	0xbcd308c7	-0.025761021
198	0xbdaf7ce8	-0.08568746
199	0x3d39d29e	0.045366876
200	0x3d938ebb	0.07204958
201	0xbd37ac85	-0.04484226
202	0xbd9f6e13	-0.07784667
203	0x3d1ddb9e	0.03853952
204	0xbe1eada3	-0.15495925
205	0xbdb71e44	-0.089413196
206	0x3db8bd30	0.0902046
207	0x3d103692	0.035208292
208	0x3daaf4a4	0.08347443
209	0x3e2b1206	0.16706094
210	0x3d413a50	0.04717475
211	0xbe238f35	-0.15972598
212	0xbd26bd3d	-0.040707815
213	0x3cb0d643	0.021586543
214	0xbd325c6b	-0.043545168
215	0x3da8c463	0.08240583
216	0x3da4cc72	0.08046807
217	0x3dc82076	0.097718164
218	0x3e58c1db	0.211677
219	0xbce1ebce	-0.02757826
220	0x3e0a0af7	0.13480745
221	0x3d376896	0.044777475
222	0x3e294ee5	0.16534002
223	0x3cdf3946	0.02724899
224	0xbd3dd7a5	-0.046348233
225	0x3c075530	0.008260056
226	0xbe630fec	-0.22174042
227	0x3de98537	0.11402362
228	0x3d85fd3d	0.06542442
229	0xbd6365d5	-0.055517036
230	0x3da6c2c8	0.0814262
231	0x3da99d55	0.08281962
232	0x3de97a73	0.114003085
233	0xbd5b1522	-0.05348695
234	0xbe166cba	-0.14689913
235	0xbe0dd04a	-0.13848987
236	0xbcfea6fb	-0.031085482
237	0xbe6bd3b6	-0.2302998
238	0x3d45d483	0.04829837
239	0xbe125565	-0.14290388
240	0x3e6eecc6	0.2333251
241	0xbdfc48d3	-0.123185776
242	0x3dd7204e	0.105042085
243	0x3e6116d3	0.21981363
244	0x3d5d938a	0.054095782
245	0xbe1d6473	-0.1537035
246	0x3d9d3c01	0.076774605
247	0xbe7eb338	-0.24873054
248	0x3e4e7b36	0.20164189
249	0xbef081b0	-0.46973944
250	0xbe9245b9	-0.2856882
251	0xbd2775d9	-0.040883873
252	0xbedcb93e	-0.4311008
253	0x3e1a0e98	0.1504463
254	0xbed39e28	-0.413316
255	0xbeeee754	-0.46660864

bias f4 [32]
0	0x3c09979d	0.008397964
1	0x3b8ee373	0.00436061
2	0xbc93eea5	-0.01805813
3	0x3d05961b	0.032613855
4	0x3d0f2464	0.034946814
5	0xbd0b3ffe	-0.033996575
6	0xbc0ef40f	-0.00872518
7	0x3ce32fd7	0.027732773
8	0x3b241d7f	0.0025041995
9	0x3da2678e	0.07929908
10	0xbcc3ccdf	-0.023901401
11	0x3c466222	0.012108358
12	0xbac3bf8a	-0.0014934402
13	0x3c9a15f8	0.018809304
14	0x3b3f6e7c	0.002921014
15	0x3ba36111	0.0049859365
16	0x3c9cd64e	0.019145157
17	0x3bd32c8c	0.0064445194
18	0x3c1e65c6	0.009667819
19	0x3cd8fb19	0.02648692
20	0x3cdd87f3	0.027042365
21	0xbce17bf8	-0.027524933
22	0xba7ca828	-0.00096380943
23	0x3d331936	0.043725215
24	0xbd1e2d7d	-0.0386176
25	0x3dd36111	0.10321248
26	0xbbdcdefd	-0.0067404495
27	0x3cf69c9e	0.030103978
28	0x3da7b24b	0.081883036
29	0x3c2ba354	0.010475952
30	0xbce9f1fb	-0.028557768
31	0x3d589571	0.052876893

weight f4 [32, 32]
0	0xbe05b4c5	-0.1305724
1	0xbe220f75	-0.15826209
2	0x3e236f76	0.15960488
3	0xbdedb945	-0.11607603
4	0x3d88c925	0.0667899
5	0x3c52ddc8	0.01287026
6	0xbd7f7be8	-0.062374026
7	0xbed7e8ff	-0.4216995
8	0xbedc5125	-0.43030658
9	0xbe13bac4	-0.14426714
10	0x3df50f55	0.11965815
11	0x3c6cd8e8	0.014456011
12	0x3b0830b9	0.0020780994
13	0xbdddecb9	-0.10836167
14	0xbcad19ba	-0.021130431
15	0x3d956969	0.07295496
16	0xbe24a332	-0.16077879
17	0xbdee625a	-0.11639853
18	0x3cb258f6	0.021770936
19	0xbc58009d	-0.01318374
20	0xbdb33780	-0.0875082
21	0x3ccd2679	0.02504276
22	0x3e4170d5	0.18890698
23	0xbe31ad3b	-0.17351238
24	0xbe1e0f17	-0.15435444
25	0x3d622f24	0.055220738
26	0x3b5cfbb8	0.0033719372
27	0xbe1d0cc7	-0.15336905
28	0x3c85cbe9	0.016332584
29	0xbd610964	-0.054940596
30	0x3cc2a343	0.02375949
31	0xbe2f1947	-0.17099486
32	0x3d8c1874	0.068406016
33	0xbe4c1400	-0.19929504
34	0x3dc9fc4a	0.098625734
35	0xbd96026b	-0.0732468
36	0xbe451e68	-0.1924988
37	0x3d11dcd3	0.035610985
38	0x3e1041dc	0.14087623
39	0x3eaae223	0.33375654
40	0xbe2cc38c	-0.1687147
41	0x3de392ad	0.111119606
42	0xbd8beac5	-0.06831888
43	0x3e3f79bb	0.1869878
44	0x3dd558b4	0.104173094
45	0x3d1ce295	0.038302023
46	0xbce4ddeb	-0.02793785
47	0xbe79b4ee	-0.24385425
48	0x3db5363b	0.08848234
49	0xbcfa1a5e	-0.030530151
50	0xbe6980f1	-0.22803093
51	0x3aaccc21	0.0013183394
52	0xbe2ac44a	-0.16676441
53	0x39952ce8	0.00028452952
54	0xbd374cd6	-0.04475101
55	0xbdee5184	-0.116366416
56	0x3e8a00bc	0.26953685
57	0xbb80dd74	-0.0039326493
58	0x3c3bece8	0.011470057
59	0xbc90788c	-0.017635606
60	0xbd556510	-0.052098334
61	0xbcd5b422	-0.02608687
62	0xbdb27ce3	-0.087152265
63	0x3dd954bb	0.10611864
64	0xbc666c2f	-0.014063879
65	0xbd6e5697	-0.058188047
66	0x3c9cb860	0.019130886
67	0xbc66a592	-0.014077561
68	0xbd4edc63	-0.050503146
69	0x3d963812	0.07334913
70	0xbe25a3a6	-0.16175708
71	0x3dad5bd6	0.08464782
72	0x3d0e2c03	0.03470994
73	0xbd0d9aa7	-0.034571316
74	0xbd3b6ad4	-0.045756176
75	0xbe0eca22	-0.13944295
76	0xbe514c9a	-0.20439377
77	0xbca814b0	-0.020517677
78	0xbbcf1b5d	-0.0063204006
79	0xbd13f965	-0.036126513
80	0xbda6a068	-0.08136064
81	0xbdc85f7e	-0.09783839
82	0x3c2bb57d	0.010480282
83	0xbd694939	-0.056954596
84	0x3e03762e	0.1283805
85	0x3de8ce0e	0.11367427
86	0x3dcc89ce	0.09987222
87	0xbdccdcf5	-0.10003082
88	0x3e11fb89	0.1425611
89	0xbe11be03	-0.1423264
90	0xbde004db	-0.10938426
91	0xbe5c2ba1	-0.21501018
92	0xbcb688b7	-0.022281988
93	0xbe90c793	-0.28277263
94	0xbe587659	-0.21138896
95	0x3cbd4717	0.023105187
96	0x3e24c8b0	0.16092181
97	0xbda3e6cb	-0.08003005
98	0xbe719e8a	-0.23595634
99	0xbddf925a	-0.10916586
100	0x3d8ac84e	0.06776486
101	0xbdf8990c	-0.121385664
102	0xbe8b2827	-0.2717907
103	0x3e667071	0.2250383
104	0xbd2edba1	-0.042689923
105	0xba577b61	-0.0008219984
106	0x3e2a3f9d	0.16625829
107	0xbde6a4dc	-0.11261913
108	0x3dcb9117	0.09939783
109	0xbe3dc20d	-0.18531056
110	0xbd8e21d9	-0.0694005
111	0x3d7c040c	0.061527297
112	0x3c339686	0.010961181
113	0xbe089265	-0.13337095
114	0xbe4a2eae	-0.1974437
115	0xbdfa148c	-0.1221095
116	0xbdb9a6aa	-0.09064992
117	0xbc94211b	-0.018082192
118	0xbdc6eb48	-0.09712845
119	0xbdbc05bd	-0.09180782
120	0x3c5376f3	0.012906778
121	0x3da8ff85	0.082518615
122	0x3dc56411	0.09638227
123	0xbdde46bb	-0.108533345
124	0xbccb8d21	-0.024847569
125	0x3dba5730	0.09098661
126	0x3d7531e6	0.05986204
127	0xbbfd5eb1	-0.0077322354
128	0x3e2dd3c2	0.1697531
129	0xbddb497d	-0.10707376
130	0xbe638a8d	-0.22220822
131	0xbda00d98	-0.07815093
132	0x3da69c62	0.081352964
133	0xbe356f1c	-0.17718166
134	0x3cb5dc79	0.022199856
135	0x3e6e5463	0.23274378
136	0x3d46b3a5	0.048511166
137	0xbe411fff	-0.18859862
138	0x3c6f4045	0.014602725
139	0xbeb607df	-0.3555288
140	0xbe620a05	-0.22074135
141	0x3de3e048	0.11126763
142	0xbe10efbd	-0.14153953
143	0xbe1ab791	-0.15109088
144	0xbc849aec	-0.016187154
145	0xbe089316	-0.13337359
146	0x3d4da982	0.050210483
147	0x3d4b943d	0.049701918
148	0x3c584f1b	0.013202454
149	0x3dde40a8	0.10852176
150	0x3d3ac1e8	0.04559508
151	0xbdde0e79	-0.10842604
152	0x3e9c3a69	0.30513313
153	0x3d85de4c	0.065365404
154	0xbde265d1	-0.11054576
155	0xbe335aef	-0.17515157
156	0x3d1469e8	0.036233813
157	0xbd40d69a	-0.04707966
158	0x3aff52b4	0.0019479604
159	0xbe5f01da	-0.2177805
160	0x3d508f51	0.050917927
161	0x3dbeb912	0.09312643
162	0x3e050092	0.12988499
163	0xbc761fdd	-0.015022245
164	0x3de4238b	0.11139592
165	0xbd805719	-0.062666126
166	0x3e044847	0.12918197
167	0xbd713c93	-0.05889566
168	0xbe31d9e9	-0.17368282
169	0x3db8712e	0.09005962
170	0x3e431c29	0.19053711
171	0x3db4b5d5	0.08823744
172	0xbd1dd5d0	-0.038533986
173	0xbe1a1eb7	-0.1505078
174	0x3d87fd69	0.06640131
175	0x3d47b834	0.048759654
176	0x3ca2ee1c	0.01988893
177	0xbd5b87da	-0.053596355
178	0x3bc5e330	0.0060390458
179	0xbdae32b1	-0.08505762
180	0xbd82e829	-0.06391937
181	0xbe629506	-0.2212716
182	0xbdca9a94	-0.09892765
183	0x3e42eace	0.19034883
184	0xbe418361	-0.18897773
185	0x3caa3ff8	0.020782456
186	0xbe4602a1	-0.1933694
187	0xbb80d477	-0.003931578
188	0x3dbdd1e6	0.092685506
189	0x3d7ada04	0.061243072
190	0x3d654da5	0.05598225
191	0xbe5ec441	-0.21754552
192	0xbd50dda9	-0.05099264
193	0x3e159f59	0.14611568
194	0x3d9ba67a	0.07600112
195	0xbdc88461	-0.09790874
196	0x3c041037	0.008060507
197	0x3dd91564	0.10599783
198	0x3cac4631	0.021029564
199	0xbe1c2e65	-0.15252073
200	0xbd6f1016	-0.05836495
201	0x3d5ffa6f	0.05468219
202	0xbe5508d7	-0.20804153
203	0x3e14b740	0.1452303
204	0xbbd9add6	-0.0066430373
205	0x3cad4c4a	0.021154542
206	0xbd3ccf1d	-0.046095956
207	0x3d24c78e	0.040229373
208	0x3dd2b4a0	0.10288358
209	0x3d6bc9ea	0.057565607
210	0x3cf7a998	0.030232236
211	0x3de2fb0f	0.11083042
212	0x3dc488ba	0.09596391
213	0x3c953d03	0.01821757
214	0x3e26a5b0	0.16274142
215	0xbc73dbf1	-0.014883981
216	0xbd184a28	-0.037180096
217	0x3e2e7f13	0.17040662
218	0xbda496cd	-0.080365755
219	0xbd8d4015	-0.06896988
220	0x3d8cbb7e	0.06871699
221	0x3d464347	0.048404004
222	0x3e2cd9f3	0.16880016
223	0x3ddd066a	0.10792239
224	0x3d1e1c14	0.038600996
225	0xbe9704f8	-0.29495978
226	0xbd6a060e	-0.05713468
227	0xbe31f60f	-0.1737902
228	0x3dfec497	0.1243984
229	0xbd3d0584	-0.04614784
230	0xbc24145d	-0.010014621
231	0x3e9e8121	0.30957893
232	0x3dc7327c	0.09726426
233	0x3d33736d	0.04381125
234	0x3d2e4732	0.042548366
235	0xbd830045	-0.06396536
236	0xbe67aeab	-0.22625224
237	0xb6d47da7	-6.33272e-06
238	0xbca7cade	-0.020482477
239	0xbde38caf	-0.11110818
240	0xbe874988	-0.26423287
241	0x3935679a	0.000173001
242	0xbe598d7f	-0.21245383
243	0x3c91b6a5	0.017787287
244	0x3de2de1f	0.110775225
245	0x3df3791c	0.11888334
246	0x3db6cdcc	0.089259714
247	0xbe0c4a2d	-0.13700171
248	0x3e5e0405	0.21681221
249	0x3d82f20d	0.06393824
250	0xbd9a6566	-0.075388715
251	0x3ca390b3	0.019966459
252	0x3d67e07f	0.05661058
253	0x3ca79316	0.020455878
254	0xbd493a8f	-0.04912811
255	0xbe2aff82	-0.16699031
