train_script/weights/GANEdgeBased_model300new/39.pth (torch, 52331 bytes, 21 tensors)

weight f4 [32, 13]
000000 8c d2 05 80 e6 c9 02 00 58 2b 01 00 4c db 06 80
       -5.34707e-40 2.56099e-40 1.07384e-40 -6.29682e-40
000010 57 dc 05 80 a0 0e 07 00 23 9b 01 80 fa 8f 01 80
       -5.3822e-40 6.48095e-40 -1.47488e-40 -1.43485e-40
000020 c7 5e 07 00 a6 45 04 80 d6 78 03 80 c6 5e 06 00
       6.76848e-40 -3.92327e-40 -3.18854e-40 5.85011e-40
000030 35 9a 03 00 cb 8c 05 00 6d c3 00 00 9d b0 00 80
       3.30826e-40 5.09684e-40 7.0106e-41 -6.3357e-41
000040 b8 8d 09 00 55 e8 01 80 c9 39 07 80 89 78 01 80
       8.77359e-40 -1.7518e-40 -6.63578e-40 -1.35075e-40
000050 bb 9a 07 00 e0 80 06 00 56 77 02 80 a4 4e 05 80
       6.98355e-40 5.97245e-40 -2.2648e-40 -4.87388e-40
000060 ab f7 02 00 40 8e 01 00 4c 66 05 80 06 d5 09 00
       2.72518e-40 1.42865e-40 -4.95875e-40 9.02938e-40
000070 8f 2e 02 00 be 3d 08 00 b2 c7 07 80 7f 59 02 00
       2.00373e-40 7.56833e-40 -7.14486e-40 2.15776e-40
000080 d0 7c 02 00 42 5d 03 80 c8 b4 07 00 fd 9e 02 00
       2.28445e-40 -3.08961e-40 7.077e-40 2.40705e-40
000090 1b e7 05 80 9b 68 09 80 32 67 06 00 0f 2d 03 00
       -5.42083e-40 -8.64045e-40 5.88032e-40 2.9167e-40
0000a0 a7 1d 05 00 d9 54 07 80 38 cd 04 80 85 47 01 00
       4.69815e-40 -6.73286e-40 -4.4096e-40 1.17492e-40
0000b0 75 89 09 00 d7 54 01 00 3b b0 00 80 3e 75 07 00
       8.7583e-40 1.2227e-40 -6.322e-41 6.84907e-40
0000c0 7d f4 05 80 fe 40 03 80 be 79 03 80 b2 54 00 00
       -5.46883e-40 -2.98821e-40 -3.1918e-40 3.0383e-41
0000d0 a5 f9 03 80 6d 13 01 80 4d a3 04 00 17 35 09 00
       -3.65062e-40 -9.8804e-41 4.25923e-40 8.45565e-40
0000e0 b0 2a 03 80 9f 55 07 00 d0 41 08 80 e4 3d 00 80
       -2.9082e-40 6.73564e-40 -7.58293e-40 -2.2202e-41
0000f0 11 10 04 80 5f 89 01 80 3b 15 0b 00 29 7e 04 80
       -3.73106e-40 -1.41115e-40 1.017807e-39 -4.126e-40
000100 6e b4 04 00 08 77 07 80 5a 02 02 00 94 ad 04 00
       4.32068e-40 -6.85549e-40 1.84515e-40 4.2961e-40
000110 49 f3 08 80 78 30 05 00 e8 7e 09 00 e3 09 09 80
       -8.21958e-40 4.76565e-40 8.72045e-40 -8.30066e-40
000120 9e 6b 00 80 ee b3 09 80 ff 58 03 00 ec d7 08 80
       -3.8606e-41 -8.91066e-40 3.07432e-40 -8.12142e-40
000130 e5 a0 00 00 13 22 0a 80 ad 8a 06 80 04 8f 01 80
       5.7718e-41 -9.30578e-40 -6.0076e-40 -1.4314e-40
000140 1c aa 02 80 ad 26 02 00 a5 ce 01 80 17 30 09 80
       -2.44695e-40 1.97545e-40 -1.65966e-40 -8.43771e-40
000150 d9 d5 01 00 86 e7 07 00 eb 5c 02 00 a3 a6 09 80
       1.6855e-40 7.25903e-40 2.17004e-40 -8.86297e-40
000160 da c0 07 80 df 74 00 80 d6 4b 08 00 d3 f0 06 00
       -7.1203e-40 -4.1925e-41 7.61889e-40 6.37404e-40
000170 5e 6f 01 00 cd 32 06 80 65 06 03 80 37 c2 08 80
       1.31787e-40 -5.69237e-40 -2.778e-40 -8.04355e-40
000180 c2 46 03 80 cc 0e 00 80 89 d1 07 80 42 53 03 80
       -3.0089e-40 -5.308e-42 -7.18016e-40 -3.05374e-40
000190 da 67 04 80 78 61 03 00 76 d2 08 80 17 7b 02 00
       -4.04597e-40 3.10472e-40 -8.10183e-40 2.27827e-40
0001a0 49 aa 06 80 41 5b 08 80 cb ee 03 80 3f a1 00 00
       -6.121e-40 -7.6742e-40 -3.61169e-40 5.7844e-41
0001b0 ee 23 00 00 a0 72 02 80 88 ef 06 80 fc 12 08 00
       1.2889e-41 -2.2479e-40 -6.3694e-40 7.41494e-40
0001c0 1f 66 04 80 6c f0 01 80 71 ce 03 80 f7 c0 03 80
       -4.03976e-40 -1.78083e-40 -3.49564e-40 -3.44729e-40
0001d0 dd 46 0a 80 9e aa 02 00 e1 12 07 00 6c 4c 05 80
       -9.43776e-40 2.44877e-40 6.49621e-40 -4.86592e-40
0001e0 8a 21 03 80 8b 99 07 00 82 67 07 00 a9 12 00 80
       -2.87538e-40 6.9793e-40 6.7998e-40 -6.694e-42
0001f0 33 66 03 80 dc b8 04 00 53 42 05 00 2d 6d 04 80
       -3.12169e-40 4.33657e-40 4.8297e-40 -4.06507e-40
000200 25 1d 09 80 b6 45 01 80 6f d8 05 00 bf cb 00 80
       -8.36975e-40 -1.16843e-40 5.36819e-40 -7.309e-41
000210 53 63 06 00 5f b5 03 80 75 94 02 00 f7 a6 02 00
       5.86644e-40 -3.4057e-40 2.36927e-40 2.43567e-40
000220 79 c4 08 80 d6 30 08 00 1e ff 08 80 46 7e 02 00
       -8.05165e-40 7.52203e-40 -8.26203e-40 2.2897e-40
000230 97 04 00 00 6c 5f 01 80 bf 17 08 00 1e 48 04 00
       1.647e-42 -1.26066e-40 7.43202e-40 3.93213e-40
000240 41 76 08 80 b8 20 02 80 eb e8 00 00 da 2a 08 80
       -7.77105e-40 -1.95408e-40 8.3555e-41 -7.50056e-40
000250 95 19 08 80 de 13 0a 80 44 d7 05 80 dc 98 02 80
       -7.43861e-40 -9.25482e-40 -5.364e-40 -2.38507e-40
000260 ea 8d 02 00 47 57 03 80 a6 69 00 00 65 c3 08 80
       2.3458e-40 -3.06816e-40 3.79e-41 -8.04778e-40
000270 72 a9 04 00 85 29 07 00 a1 ca 04 00 c2 65 04 80
       4.28128e-40 6.57743e-40 4.40032e-40 -4.03846e-40
000280 08 99 00 00 60 4b 06 80 44 44 06 00 ff b7 09 80
       5.4897e-41 -5.78052e-40 5.75502e-40 -8.92525e-40
000290 8a 6c 07 80 ed 38 04 00 cc 25 08 00 4c 29 00 80
       -6.81785e-40 3.87763e-40 7.48243e-40 -1.4815e-41
0002a0 fa 44 00 80 06 95 06 00 54 1c 03 00 77 41 03 80
       -2.4744e-41 6.04473e-40 2.85669e-40 -2.98991e-40
0002b0 76 4d 08 00 89 31 01 00 cf fe 06 00 c1 8a 05 80
       7.62472e-40 1.09605e-40 6.42421e-40 -5.08953e-40
0002c0 5b 54 03 80 6d d1 00 00 b9 94 06 80 a3 57 03 80
       -3.05768e-40 7.5128e-41 -6.04365e-40 -3.06945e-40
0002d0 51 db 05 00 58 e0 04 80 05 f0 07 80 c9 65 05 80
       5.37853e-40 -4.47821e-40 -7.28951e-40 -4.95691e-40
0002e0 2c 4b 07 00 9c b0 07 00 a8 f6 04 00 1a 99 05 80
       6.69815e-40 7.06204e-40 4.55826e-40 -5.141e-40
0002f0 35 01 05 00 d3 04 05 80 ae d6 04 80 c4 a4 08 80
       4.5961e-40 -4.60908e-40 -4.44355e-40 -7.93791e-40
000300 f1 ca 08 80 4c 16 07 00 39 ce 01 80 0c 02 06 80
       -8.07486e-40 6.50847e-40 -1.65814e-40 -5.51747e-40
000310 f9 c1 04 80 3e df 0a 00 c3 43 04 00 2b ec 02 80
       -4.36926e-40 9.98439e-40 3.9165e-40 -2.68392e-40
000320 d1 c5 02 00 a7 2f 03 00 5c bd 07 80 b5 96 06 00
       2.54634e-40 2.92601e-40 -7.10778e-40 6.05076e-40
000330 ad e9 04 80 34 40 06 00 bf 71 05 80 f8 2c 08 00
       -4.51169e-40 5.74045e-40 -4.99982e-40 7.50816e-40
000340 b4 fe 06 80 eb 37 03 00 91 16 09 00 47 70 07 80
       -6.42383e-40 2.95566e-40 8.34615e-40 -6.83126e-40
000350 bd f5 06 80 77 a9 04 80 41 85 08 00 a5 d2 06 00
       -6.39167e-40 -4.28135e-40 7.82486e-40 6.26578e-40
000360 5b e1 01 80 b6 f4 02 00 f7 fe 02 00 53 3f 08 80
       -1.72678e-40 2.71457e-40 2.75135e-40 -7.574e-40
000370 f3 7d 07 00 71 3d 06 00 39 3b 06 80 80 c0 00 80
       6.8803e-40 5.73054e-40 -5.72258e-40 -6.9056e-41
000380 2c a4 01 80 e0 40 02 00 a3 35 01 80 b2 44 01 00
       -1.50729e-40 2.06944e-40 -1.11077e-40 1.16479e-40
000390 b0 95 08 80 72 e9 05 00 2c 90 02 80 44 7d 07 00
       -7.88382e-40 5.42922e-40 -2.3539e-40 6.87785e-40
0003a0 33 dc 02 80 5d 5c 08 00 ee f8 02 80 12 9d 02 00
       -2.62664e-40 7.67818e-40 -2.7297e-40 2.40017e-40
0003b0 a4 4e 08 00 eb 43 07 00 7c a6 06 00 5b 07 09 00
       7.62895e-40 6.67213e-40 6.10736e-40 8.29158e-40
0003c0 38 8d 00 00 91 fd 03 80 da 6b 07 80 a4 20 08 80
       5.066e-41 -3.66469e-40 -6.81538e-40 -7.46393e-40
0003d0 65 3d 08 80 16 26 07 80 e9 bb 05 00 71 15 03 80
       -7.56708e-40 -6.56511e-40 5.26587e-40 -2.83198e-40
0003e0 a9 ff 03 80 28 34 03 00 34 48 06 00 1f 52 04 80
       -3.6722e-40 2.94217e-40 5.76915e-40 -3.96801e-40
0003f0 02 b6 08 80 bb 68 00 00 a2 f7 05 80 ca fe 08 80
       -7.99976e-40 3.757e-41 -5.48011e-40 -8.26085e-40

bias f4 [32]
000000 df 08 c5 3d 55 af 2c be c6 6f 23 bd 8f 24 4f 3e
       0.09620833 -0.16863759 -0.039901517 0.2022879
000010 ba c2 13 3e 86 03 1b 3e 6a 94 1a 3e b6 17 78 3d
       0.14429751 0.15138063 0.15095678 0.060569488
000020 ac 7c 8a 3d 97 81 dd bd 8b e1 8f 3c 6c 23 32 be
       0.067620605 -0.10815733 0.017563602 -0.17396325
000030 ab 4e 48 bd ab cd 80 3d 3e 90 1e be 61 e5 a4 3d
       -0.04890315 0.06289228 -0.15484712 0.08051563
000040 14 d8 51 3e c5 3b bd 3d 47 46 9b bd b0 31 29 3d
       0.20492584 0.09239916 -0.07581764 0.04130715
000050 5f c8 51 bd 70 61 11 be 18 c7 61 3d 33 42 ab bd
       -0.05121648 -0.14197326 0.05512151 -0.08362236
000060 bb be 4e be 90 4a 88 3d 65 f3 7a 3e 2d d3 4c be
       -0.20189945 0.06654847 0.2450691 -0.20002432
000070 2b b2 a3 bd ec 67 a8 bd 8b cf 68 3d 8d 92 87 bd
       -0.07992967 -0.082229465 0.056838553 -0.06619749

weight f4 [32, 13]
000000 29 4a 6f 3e f8 03 a1 be 78 33 12 bd 92 0e 70 3e
       0.23368134 -0.3144834 -0.035693616 0.23443058
000010 3f 4d a5 3e bb 45 47 3d dc 82 83 3e 61 49 db 3c
       0.32285497 0.048650485 0.25685775 0.026768388
000020 36 2d ec 3d 0b f4 67 bd 24 59 ae 3d 03 79 61 be
       0.11532061 -0.056629222 0.08513096 -0.22018819
000030 66 4b ee bd 48 84 5a 3d 86 de b9 bd a9 95 81 be
       -0.11635475 0.05334881 -0.09075646 -0.25309494
000040 d2 ab 82 be 6b a1 a0 bd b4 75 1a 3e 28 b2 10 be
       -0.25521713 -0.07843288 0.15083963 -0.14130461
000050 43 d9 23 bd 8b 36 e7 bd 28 76 1b 3e d9 22 40 3d
       -0.04000212 -0.112897 0.15181792 0.046908233
000060 ab 50 c2 3d 52 d1 82 3e 43 95 1b 3e cb a2 60 3e
       0.094880424 0.25550324 0.15193658 0.219371
000070 6b 24 87 bd 36 8c 2c be aa 90 a6 bd 45 f3 52 3e
       -0.06598743 -0.16850361 -0.08133061 0.20600612
000080 39 af 84 3d c0 09 8d be 77 03 31 3e 28 51 54 3e
       0.064787336 -0.275465 0.17286478 0.20734084
000090 87 62 87 3e 67 9a 66 3e ce 8b 4c be 88 fb f9 bb
       0.26442358 0.22519837 -0.19975206 -0.007628862
0000a0 05 b2 65 3e a0 3d 4e be d2 54 2d bd cb 50 93 be
       0.2243119 -0.20140696 -0.04231722 -0.28772578
0000b0 9d eb 70 bd 58 44 0c be 75 7d 2e 3d ec e9 77 3d
       -0.05881845 -0.13697946 0.042600114 0.06052582
0000c0 95 05 83 3e d8 a6 7d bd 51 08 fd bd 9c 24 e2 bc
       0.25590196 -0.061926693 -0.12355102 -0.027605347
0000d0 85 47 a7 bd f5 fc d6 3d aa d3 77 bd 35 c5 80 3e
       -0.08167938 0.104974665 -0.060504593 0.25150457
0000e0 5b 31 02 3d 7f a1 14 be af bf 27 be 15 f1 7d be
       0.03178535 -0.14514731 -0.16381715 -0.24798997
0000f0 96 4a 68 be c9 23 00 bc de 64 91 3d 0e 7c f4 ba
       -0.22684702 -0.007821032 0.07099317 -0.0018652694
000100 5f f0 39 3d 29 2e 03 3e e1 2f c5 3c b0 d0 49 3e
       0.04539525 0.12810577 0.024070682 0.19708514
000110 2e f0 4b 3e 40 97 2f be 94 72 3c be c3 65 4f be
       0.1991584 -0.17147541 -0.18403083 -0.20253663
000120 af ad eb 3d df db 86 3d 65 28 16 3e f1 c7 92 3d
       0.11507737 0.06584906 0.14663847 0.07167042
000130 38 a9 c9 bd bb 57 5a be 54 49 85 bd 7f f2 9b bb
       -0.09846729 -0.21322529 -0.06508127 -0.0047591324
000140 a0 81 70 be 36 d0 92 3e ed cd 7b be 82 a2 0c 3e
       -0.23486948 0.28674477 -0.24590273 0.13733867
000150 0f 31 e2 3d 0e ee 6e 3e 7c 6d 21 be 9a b5 56 3e
       0.110445134 0.23332998 -0.15764421 0.20967713
000160 7c 1b 4e be 5d c8 08 be b1 1f bb 3c e6 9b 04 3e
       -0.20127672 -0.13357683 0.02284226 0.12950096
000170 b0 48 5d bc 2f b3 e2 bd 30 38 3b be f3 f1 f2 3d
       -0.0135061 -0.11069333 -0.18283153 0.118625544
000180 ad 11 63 3e f1 b2 66 3e 0a 47 91 3d 1e d2 4f 3e
       0.22174712 0.22529198 0.07093628 0.20294997
000190 c5 29 18 be 6b 7b 06 be e6 fd 84 3e 8e b9 7e 3e
       -0.14859684 -0.13133018 0.2597496 0.24875471
0001a0 13 20 97 3e 90 15 a6 b8 d2 00 ed 3d 5c dc 05 be
       0.29516658 -7.919513e-05 0.11572422 -0.13072342
0001b0 ab 99 74 be 36 85 7c 3e ce 48 2c 3e e9 e1 46 3e
       -0.23886745 0.24660191 0.16824648 0.19422115
0001c0 63 d8 4f 3e 56 f8 8f bd 8b 78 18 3e ec 11 83 be
       0.20297389 -0.07029788 0.14889733 -0.2559961
0001d0 e8 af 75 be df cc 71 3d b7 2e 7a be 82 f4 e9 3b
       -0.23992884 0.05903327 -0.24431883 0.0071397433
0001e0 70 78 7e bc 25 7a b7 3d 22 cf 7f be 21 4a e1 3d
       -0.015531644 0.08958844 -0.24981359 0.11000467
0001f0 11 fa 4f be 4f 38 27 be c6 f8 de 3b 31 22 93 bd
       -0.20310237 -0.16330074 0.0068045584 -0.07184256
000200 2b 41 26 3e ce 64 0b be 19 9f 42 bd 43 c4 37 be
       0.16235797 -0.13612673 -0.04751501 -0.17945962
000210 f2 2c ed bd 09 bd 01 bd a9 71 a9 bd 77 fd 55 be
       -0.11580838 -0.03167442 -0.08273632 -0.2089747
000220 7f de 57 be 28 e9 3a 3c d9 df af 3d 39 94 86 3d
       -0.2108097 0.011408128 0.085876174 0.0657124
000230 ef 35 b1 bc 26 d1 23 be 78 b1 16 3d 55 bc 3b 3e
       -0.021632163 -0.15997753 0.03679034 0.18333562
000240 e3 2f 7a 3e 79 f0 0e bd 3d ea 68 be ee 15 61 be
       0.2443233 -0.0348973 -0.22745605 -0.21981022
000250 16 e6 88 3c 10 1e a8 bd d7 8c 59 3e 6c 5a 4a 3e
       0.016711276 -0.08208859 0.21245132 0.19761056
000260 7e 9e 3b 3e 1a f3 5b be b0 f2 23 be 8e bd 90 3e
       0.18322179 -0.21479455 -0.16010547 0.2826962
000270 30 4c de bc e1 2d 0f 3e f4 b0 ee bd b3 b6 7d 3e
       -0.027135938 0.13982345 -0.11654845 0.24776725
000280 42 1e 6a 3e d2 06 8d 3e c4 d3 8c bd e9 c5 04 be
       0.22863105 0.27544266 -0.068763286 -0.12966122
000290 29 19 c6 3d cc fc d5 bd 1c b3 22 3b 26 8e a5 bd
       0.09672768 -0.10448608 0.0024825996 -0.08083753
0002a0 31 53 92 3e 89 59 6f 3e 28 b2 90 be 35 f1 52 3e
       0.28579095 0.23373999 -0.28260922 0.20599826
0002b0 72 7d 79 3e 25 66 40 3d 4f e6 3c 3e 34 ec 09 3e
       0.2436426 0.046972413 0.18447231 0.1346901
0002c0 f7 19 6d be 9c 6a ea 3d 1b ec df 3d 89 ac 05 be
       -0.23154436 0.114461154 0.109337054 -0.13054098
0002d0 6d 33 c1 bd 15 d2 60 be 92 41 00 3d 6c b1 88 3d
       -0.09433637 -0.2195514 0.031312533 0.066744655
0002e0 34 99 72 3e 00 9c 06 be 0f 9d 57 be cf 31 04 3e
       0.23691255 -0.13145447 -0.21056007 0.12909625
0002f0 ac 0b 39 be c1 53 ca 3d 62 b5 83 3d 8f 17 0d be
       -0.18070859 0.09879256 0.064310804 -0.13778518
000300 42 6c 8d 3e 9c 70 18 bd 42 66 6a be 32 29 1a 3d
       0.27621657 -0.037216768 -0.22890571 0.037636943
000310 30 4b fa bc 89 91 66 3e 39 75 bd 3c 43 c0 42 be
       -0.03055343 0.22516455 0.023127185 -0.19018655
000320 9e 9d f9 3d 36 6e 8e be 1e 0d 5e be 2a 65 b2 bc
       0.12188266 -0.2781846 -0.21684691 -0.021776754
000330 82 c7 28 3e 5f cd a2 3d 70 9c a3 bc 0b 79 4c be
       0.16482356 0.07949328 -0.019972056 -0.19968049
000340 79 ed bd 3d 6f 77 10 be d4 36 bd 3d af 34 09 be
       0.0927381 -0.1410806 0.09238973 -0.13399003
000350 2e d7 8a be d4 02 20 3e 98 5e 65 be c2 5f 6b bd
       -0.27117294 0.15626079 -0.22399366 -0.05746437
000360 18 ff 12 be 12 63 58 be 58 df 4c be 54 b5 4f 3e
       -0.14355123 -0.21131542 -0.20007074 0.20284015
000370 e2 c3 66 be d3 27 bd 3d 3f c6 8a bd fa db 34 3e
       -0.22535661 0.092361115 -0.06776094 0.1766204
000380 84 6c 0f 3e 3a fb 4d 3e 71 a4 df 3d e5 47 6f 3d
       0.14006239 0.20115367 0.109200366 0.058418173
000390 a6 1c f1 bd 6b fa d1 bd de c6 ca bc ed 1a 51 bd
       -0.117730424 -0.102528416 -0.02475303 -0.05105107
0003a0 bd 5b a4 3d 0e 20 74 be 55 16 73 3e 8c bf f5 bc
       0.0802531 -0.23840353 0.23738988 -0.029998563
0003b0 80 4b 26 3e 14 3f bc 3d 04 c4 1f be 31 98 55 3e
       0.16239738 0.09191719 -0.15602118 0.20858838
0003c0 4e 16 30 3e 54 fe 46 be bd 85 18 3e 20 10 38 bd
       0.17196009 -0.19432956 0.14894767 -0.044937253
0003d0 0d 38 45 be a7 61 8b 3e 5e c3 7a be 90 3a 2b bd
       -0.19259663 0.2722294 -0.24488589 -0.041803896
0003e0 2f c5 b0 bd 8f 4d bf bb ab 56 2c 3e 26 06 42 3e
       -0.0863136 -0.005838103 0.16829936 0.18947658
0003f0 af b3 db bd 87 5c 8d bc b7 85 55 be d6 2f 3d 3e
       -0.10727631 -0.017256035 -0.2085179 0.18475279

bias f4 [32]
000000 4b a6 26 bd 4a 3f 05 3e 71 d5 ae 3c dc d9 09 3e
       -0.040685933 0.13012424 0.021342011 0.13462013
000010 6a b4 d4 bc 85 b1 99 3d 7f 9a a2 3d 6b 59 36 be
       -0.025964934 0.07504562 0.07939624 -0.17807548
000020 ad 1b 13 be b8 61 53 3e 44 23 2a 3d 90 47 d3 bd
       -0.14366026 0.20642745 0.04153754 -0.10316384
000030 fb 37 17 3e 31 63 4e bd ce 65 85 bd fc 07 97 bd
       0.14767449 -0.050387565 -0.06513558 -0.0737457
000040 25 3a 72 bd 20 a7 33 bd 45 04 ae bd f8 c9 34 3e
       -0.059137482 -0.043860555 -0.08496908 0.1765517
000050 8c 1d 2b be 5d 14 21 be ae ea 7e 3c 7c 05 64 3d
       -0.1671049 -0.15730424 0.015558882 0.055669293
000060 6f e3 20 bd 1d 7b 18 be 92 b6 7e bc fd f7 07 3e
       -0.039279398 -0.14890714 -0.015546458 0.13278194
000070 93 40 01 be 98 56 43 3d 27 87 07 be e6 9e 08 3e
       -0.1262229 0.047690004 -0.1323515 0.13341865

weight f4 [13, 13]
000000 0d 3a 04 00 26 9b 05 00 93 7c 07 80 a3 fa 08 80
       3.88167e-40 5.14834e-40 -6.87537e-40 -8.24595e-40
000010 14 aa 02 80 90 8b 07 00 71 f8 05 00 e9 a1 08 00
       -2.44684e-40 6.92914e-40 5.48301e-40 7.92766e-40
000020 d7 de 08 00 1c c8 01 00 79 13 00 80 b9 67 08 00
       8.14624e-40 1.63621e-40 -6.985e-42 7.71893e-40
000030 83 a5 07 80 db bb 06 80 de e5 01 80 d8 a5 00 80
       -7.02223e-40 -6.18403e-40 -1.74296e-40 -5.9494e-41
000040 91 e8 02 80 5d 5e 02 00 ff 4e 08 00 b9 80 05 80
       -2.671e-40 2.17522e-40 7.63022e-40 -5.05354e-40
000050 67 02 00 80 ce 3c 00 00 bc 24 04 80 2e 0c 06 80
       -8.62e-43 2.1813e-41 -3.8052e-40 -5.55382e-40
000060 0a 9e 08 80 af e2 07 80 a1 9c 01 80 31 14 01 00
       -7.91378e-40 -7.24167e-40 -1.48023e-40 9.9079e-41
000070 da ff 05 80 e1 dd 02 00 b9 e8 07 00 e8 7a 00 80
       -5.5096e-40 2.63266e-40 7.26334e-40 -4.409e-41
000080 d0 47 05 00 b6 80 03 00 ff 15 04 00 16 0b 00 80
       4.84939e-40 3.21679e-40 3.75233e-40 -3.977e-42
000090 28 32 06 80 06 0e 09 80 69 da 09 80 a2 24 05 80
       -5.69006e-40 -8.3155e-40 -9.0487e-40 -4.72319e-40
0000a0 9d f9 07 00 ea 23 00 00 ce 5c 02 00 fc a1 06 80
       7.32393e-40 1.2884e-41 2.16963e-40 -6.09122e-40
0000b0 0c 7c 08 00 65 dd 00 00 aa 9d 01 80 14 c3 02 00
       7.79184e-40 7.9421e-41 -1.48395e-40 2.53652e-40
0000c0 36 a9 04 80 bf 0d 06 80 b1 d2 00 00 c1 a2 00 00
       -4.28043e-40 -5.55944e-40 7.5582e-41 5.8385e-41
0000d0 3d d0 05 00 81 5b 08 00 7a 3e 03 80 ee 56 09 00
       5.3388e-40 7.6751e-40 -2.97919e-40 8.57704e-40
0000e0 1d 00 02 00 a4 be 06 80 06 01 06 80 90 91 01 00
       1.83712e-40 -6.19402e-40 -5.5138e-40 1.44053e-40
0000f0 a2 60 01 80 5a 70 0a 00 c2 e0 07 00 ef 0b 06 00
       -1.26501e-40 9.58659e-40 7.23476e-40 5.55294e-40
000100 0b f7 04 00 b9 bc 02 00 31 f7 07 00 d4 ac 01 80
       4.55964e-40 2.51372e-40 7.31524e-40 -1.53835e-40
000110 4e 84 02 80 ec 94 00 00 f4 cb 07 00 c5 0b 08 80
       -2.31133e-40 5.3423e-41 7.16013e-40 -7.38906e-40
000120 fc c3 03 80 84 ba 09 00 f7 3e 0a 00 7d c6 05 80
       -3.45812e-40 8.93429e-40 9.40942e-40 -5.30382e-40
000130 c4 8a 04 80 62 8f 09 00 74 aa 07 00 c8 fd 01 00
       -4.17122e-40 8.77956e-40 7.03996e-40 1.82875e-40
000140 15 31 05 00 c1 3b 05 80 c2 59 01 00 38 da 06 80
       4.76785e-40 -4.80613e-40 1.24035e-40 -6.29295e-40
000150 f2 57 02 00 25 5f 00 00 57 ca 04 80 2c 4c 08 00
       2.1522e-40 3.4131e-41 -4.39928e-40 7.62009e-40
000160 d8 c3 02 00 ed 83 09 80 78 c9 05 80 8d 93 08 00
       2.53926e-40 -8.73846e-40 -5.31451e-40 7.87615e-40
000170 69 67 06 80 33 cf 00 00 fd 7b 01 00 c4 52 05 00
       -5.8811e-40 7.4329e-41 1.36314e-40 4.88868e-40
000180 9d a0 05 00 48 74 06 80 46 61 05 00 3e 8d 03 80
       5.16795e-40 -5.92727e-40 4.94073e-40 -3.26175e-40
000190 89 9f 07 80 a3 32 04 80 fc 7e 09 80 c4 fb 05 80
       -7.00079e-40 -3.85507e-40 -8.72073e-40 -5.49494e-40
0001a0 ed 62 07 00 fb b9 03 80 ab 44 09 80 f4 bd 01 80
       6.78336e-40 -3.42224e-40 -8.51153e-40 -1.59978e-40
0001b0 63 30 00 00 5d a7 08 00 d9 fe 07 00 55 96 07 00
       1.7358e-41 7.94723e-40 7.3427e-40 6.96777e-40
0001c0 d5 f3 00 00 c5 9f 08 00 5b 9e 00 00 42 67 05 00
       8.747e-41 7.91998e-40 5.6807e-41 4.9622e-40
0001d0 5d 97 08 80 f7 01 02 80 bd b5 06 00 bc 07 08 80
       -7.88983e-40 -1.84376e-40 6.16208e-40 -7.37459e-40
0001e0 f7 f7 08 00 db 7c 04 80 ff 30 09 80 99 da 05 80
       8.23637e-40 -4.12132e-40 -8.44096e-40 -5.37596e-40
0001f0 c6 a2 07 80 05 cd 04 00 0f 95 06 00 2e 96 01 80
       -7.0124e-40 4.40889e-40 6.04485e-40 -1.4571e-40
000200 d2 b3 00 00 ca b9 09 00 5f 90 03 80 fb bc 08 00
       6.4507e-41 8.93168e-40 -3.27297e-40 8.02477e-40
000210 a9 62 01 80 68 36 06 00 24 be 00 80 9a 3b 01 00
       -1.27228e-40 5.7053e-40 -6.821e-41 1.13217e-40
000220 51 07 02 80 a3 f9 04 00 d4 71 06 80 39 df 00 00
       -1.86296e-40 4.56895e-40 -5.91847e-40 8.0077e-41
000230 bc 76 06 80 0c 37 04 80 4e 0f 0a 00 95 5f 09 00
       -5.93607e-40 -3.87089e-40 9.23845e-40 8.60808e-40
000240 25 bc 04 00 7f e3 04 80 57 48 01 00 e0 92 03 00
       4.34836e-40 -4.48952e-40 1.17786e-40 3.28195e-40
000250 53 ff 06 00 e7 31 09 00 27 9c 04 80 fc cb 02 80
       6.42606e-40 8.44421e-40 -4.23359e-40 -2.56847e-40
000260 aa 5c 00 80 a6 38 09 00 a9 72 02 00 88 19 09 00
       -3.3242e-41 8.46841e-40 2.24803e-40 8.35678e-40
000270 d3 3f 01 80 9f 45 07 00 71 51 01 00 fe 42 09 00
       -1.14731e-40 6.67824e-40 1.21051e-40 8.50552e-40
000280 00 21 01 80 a1 4c 08 80 f5 d7 06 80 ca 58 00 00
       -1.03674e-40 -7.62173e-40 -6.28484e-40 3.1852e-41
000290 3d 86 06 80 bb 39 05 00 f5 47 01 00 6d a2 04 00
       -5.99169e-40 4.79887e-40 1.17649e-40 4.2561e-40
0002a0 62 b5 07 80
       -7.07916e-40

bias f4 [13]
000000 97 bc 4f be 07 94 87 3d 02 b4 f6 3c 85 d0 f0 3d
       -0.20286785 0.06620031 0.030115131 0.11758522
000010 c6 fb 2c bd 26 f4 58 3d aa ae ef bc d7 e1 25 3e
       -0.042232297 0.052967213 -0.029258091 0.16199432
000020 d7 6c 61 be bc dd cb 3c 89 3e 2c be 78 80 7b 3e
       -0.22014175 0.024886005 -0.1682073 0.24560726
000030 fb d6 6f bc
       -0.014638658

weight f4 [32, 13]
000000 89 d8 de bc 8e 15 92 bb 60 07 8c be b2 31 c4 bd
       -0.027202861 -0.004458136 -0.27349377 -0.09579791
000010 16 2d b8 bc 58 e4 0d 3e 08 59 9d 3d 6b 63 5b 3e
       -0.022482436 0.13856637 0.07682997 0.21424644
000020 4f da 46 3d b7 02 2f be 23 4a 82 3e 1b 23 02 be
       0.04854804 -0.1709088 0.25447187 -0.12708704
000030 89 15 76 3e 7a 77 47 3e 07 bb 0e be 97 1e cd 3e
       0.24031653 0.1947917 -0.13938533 0.400624
000040 6a 2c 24 3e 77 5e f2 bc 83 c4 11 3e 65 b5 8c 3e
       0.16032568 -0.02958606 0.1423512 0.27482143
000050 41 e8 38 3e 47 45 5a 3e 19 82 56 3d c9 8b ba 3d
       0.18057348 0.2131549 0.052370165 0.09108693
000060 bb c4 39 bd ed d9 36 3e 52 8a 84 bd f5 f6 bd 3d
       -0.045353632 0.1785657 -0.06471695 0.09275619
000070 36 23 69 be 8e 84 05 be 67 5b 06 3e d6 0b d1 3d
       -0.22767338 -0.13038847 0.13120805 0.10207336
000080 f5 48 1e 3d 8b 8e 48 be d4 bd 63 be c6 6f 1c 3e
       0.038643796 -0.19585626 -0.22240382 0.15277013
000090 88 65 73 3e ea 90 e6 bc f0 05 0f be 47 f6 5c bb
       0.237692 -0.028145272 -0.13967109 -0.0033716129
0000a0 2c e8 3f be f7 a3 74 3d a2 bb d6 3d 96 e4 1d 3e
       -0.1874091 0.05972668 0.10485007 0.1541923
0000b0 94 cf a6 3e ae a0 05 3e 05 52 02 3e af 70 af b9
       0.32580245 0.13049576 0.127266 -0.00033462557
0000c0 ad 7d ab 3d 3f 6a 88 3d 6f 3f ee 3d 2b 63 85 3d
       0.0837358 0.0666089 0.11633193 0.065130554
0000d0 f4 fa 38 be 54 2f 8a 3e fb d6 ec bc 0b 24 5d be
       -0.18064481 0.26989233 -0.028911104 -0.2159578
0000e0 77 5d 87 bd 46 e3 9e bd 04 50 7f 3e 4e 96 55 3e
       -0.06609624 -0.07758193 0.24932867 0.20858118
0000f0 01 21 2b 3e 3f 51 b6 bd 28 6f 5d be d3 89 16 3d
       0.16711809 -0.08902215 -0.21624434 0.036752533
000100 53 26 76 be cd 75 6d 3e d6 22 7b 3e 69 49 47 3e
       -0.24038057 0.23189469 0.24525008 0.19461598
000110 c7 f4 80 3b b4 00 e1 3e d8 6b f2 bc 3f 43 83 bd
       0.0039354297 0.4394585 -0.02959244 -0.064093105
000120 6e 2a 05 3d be f1 7a be 3c 22 21 3e c5 bd 47 3e
       0.032511167 -0.2450628 0.15735716 0.19505985
000130 06 8d dc 3d ba cd 16 be e5 dd d0 3c 8c aa 71 be
       0.107690856 -0.14726916 0.025496433 -0.23600215
000140 57 6c 82 3d 7b 21 b5 bd f4 aa 61 be 68 f8 3a be
       0.063683204 -0.088442765 -0.2203787 -0.18258822
000150 51 c7 86 be 5f f6 17 3e 06 98 66 bd c2 43 92 3d
       -0.2632394 0.14840077 -0.056297325 0.0714183
000160 46 24 5f 3e 4c fd c4 bd a8 3b 16 be b1 bc 8b be
       0.21791181 -0.09618625 -0.14671195 -0.27292398
000170 34 e8 92 3e 22 54 96 be 00 dc 0a be 2b 66 82 be
       0.28692782 -0.29361063 -0.13560486 -0.25468573
000180 0a ae 55 be e8 d5 0d 3e b1 9a 23 bd 5a 5e e2 bd
       -0.20867172 0.1385113 -0.039942447 -0.110531524
000190 c3 2c ea 3d cb e5 90 3c 74 82 4b 3d 22 e0 2d be
       0.11434319 0.017687699 0.049684957 -0.16980031
0001a0 e5 74 75 be 8b 26 42 3d 02 d5 ad bd 08 e7 12 be
       -0.23970373 0.04740004 -0.08487894 -0.14345944
0001b0 65 23 25 be fc a9 ab 3d c7 e0 58 3e fd 04 59 bb
       -0.16126783 0.08382031 0.21179496 -0.0033114546
0001c0 9e 42 1b 3d 36 f9 8f 3d f4 98 3a 3e 3e 9f c0 3d
       0.037905328 0.07029955 0.1822241 0.09405373
0001d0 af 16 60 3e 6f a4 84 3e f5 83 96 3c 76 0f 66 be
       0.21883653 0.25906703 0.018373469 -0.22466835
0001e0 3f 37 3b bd 20 45 71 3e 39 f4 8d 3e af 3f 22 be
       -0.045706984 0.23561525 0.2772539 -0.15844606
0001f0 48 88 30 3e 23 d7 9f bd 01 91 8e be 14 e2 eb 3d
       0.17239487 -0.07804706 -0.27845004 0.1151773
000200 8b 8f 31 3e c4 5e d2 bd 10 b1 4c be d7 b2 e2 3d
       0.17339914 -0.10271981 -0.19989419 0.11069267
000210 f0 76 65 bd 60 ab 8d be f9 22 4b be 63 de d0 bd
       -0.05602163 -0.2766981 -0.1983756 -0.10198667
000220 fb 6a 04 be 85 e6 17 be 46 a4 89 3d d7 29 72 3e
       -0.12931435 -0.1483403 0.06720786 0.23648773
000230 8a 57 50 3e 23 0a 01 be 74 a4 1b 3e 41 68 90 3e
       0.20345894 -0.12601523 0.15199453 0.2820454
000240 ed 06 7c 3e b2 bd 37 3e e2 c4 1e be 93 d1 03 bc
       0.24612017 0.17943457 -0.15504792 -0.008045572
000250 00 39 2d 3e 6a f8 aa 3d 21 8f 6c be 80 f9 50 be
       0.16916275 0.083481625 -0.23101474 -0.20407677
000260 b2 02 65 be 8a 32 f1 3d 5f 50 80 3d a7 66 15 be
       -0.2236431 0.11777218 0.062653296 -0.1458994
000270 d8 2f a9 bc f8 d6 c2 bc 4c b8 93 3d ec ec 78 be
       -0.020652696 -0.023784146 0.07212886 -0.24309129
000280 05 fc 6d 3e 6c bf 43 3e 4a e5 a0 3d 0b dd ba 3d
       0.23240669 0.1911599 0.078562334 0.09124192
000290 e7 9a 0d 3e 03 81 52 be ac fc 33 3d d2 c2 01 3e
       0.13828622 -0.20557027 0.04394214 0.12671974
0002a0 56 29 65 3e af 24 04 3e 0f 67 8a 3d dd 94 ed bd
       0.2237905 0.12904619 0.06757938 -0.11600659
0002b0 b1 f7 42 3d e2 92 75 3e 71 ea 3d be 5b 5c 8d 3e
       0.0475995 0.23981813 -0.18546464 0.27609524
0002c0 36 31 d5 3d a8 d7 12 3e 76 c4 7b 3d df cf a8 bd
       0.10409777 0.14340079 0.061466657 -0.08242773
0002d0 c1 92 95 3c b9 a6 f5 bd 71 d5 8c be 7f 08 86 be
       0.018258454 -0.119946904 -0.27506593 -0.26178357
0002e0 21 4b 0e 3e bd 74 42 3d ee c7 59 3e bf f3 74 bc
       0.13895847 0.04747461 0.21267673 -0.014950692
0002f0 14 27 e8 bd b4 94 cc bc b1 5d 54 3e f4 44 6a be
       -0.113355786 -0.02497325 0.20738865 -0.22877866
000300 b2 63 50 3e f4 3c 50 3e 78 7e 0a 3e b8 5d 98 be
       0.2035053 0.20335752 0.13524806 -0.29759002
000310 8a 0e c9 bd 59 f9 f5 3d 3a 07 97 3d 3e 2b c0 bd
       -0.09817226 0.1201045 0.07374425 -0.09383248
000320 79 16 53 be a6 ac 57 3e 21 eb 26 3e b1 f7 5b 3e
       -0.20614041 0.21061954 0.16300632 0.21481206
000330 76 3a 89 bd e4 34 30 be 72 1d a8 bd 20 f3 75 3d
       -0.06700604 -0.17207676 -0.08208741 0.060046315
000340 d6 7f 8b 3e d7 71 51 3e f0 3c 51 3e ad bc 5a 3e
       0.2724597 0.20453583 0.20433402 0.21361037
000350 f7 49 fd 3d 86 42 42 bd 48 8e 2b be cb 02 02 3e
       0.12367623 -0.047426723 -0.16753495 0.12696378
000360 3c 53 2c be cc 80 f2 bd b7 8b 7a be 62 b6 9f bd
       -0.16828626 -0.11840972 -0.2446736 -0.07798459
000370 e4 2a 1a 3e 1f c3 41 bd 11 34 1b 3e e7 83 8f 3e
       0.15055424 -0.047305223 0.1515658 0.2803032
000380 ba 47 1f 3d 9e 0f 76 3e 46 5a 1f be 0d 9a 77 3e
       0.038886763 0.24029395 -0.1556178 0.2417986
000390 18 ef 96 bd cb f7 07 be 7b 40 56 3e be c6 39 be
       -0.07369822 -0.1327812 0.20923035 -0.1814222
0003a0 bf 27 62 3e 93 6b 75 3e a1 87 9a 3e 68 aa ab 3e
       0.22085474 0.23966818 0.30181602 0.33528447
0003b0 6b 72 52 3d cc 9c 33 3c c2 ce 91 3e 39 e3 38 3e
       0.05137865 0.010962676 0.28478056 0.18055429
0003c0 63 5f 12 be a0 3c 74 3e d5 6b 4a bd fa 68 aa bd
       -0.142942 0.23851252 -0.049419243 -0.08320804
0003d0 41 f6 60 be fd 7c 54 bc 34 48 82 3e bd f2 5b 3e
       -0.21968938 -0.012969253 0.25445712 0.21479316
0003e0 64 d3 86 3e ea 33 af be 31 ad 2c be 0a 56 dc 3d
       0.26333153 -0.34219295 -0.16862942 0.10758598
0003f0 d3 1b 09 be 49 84 48 be 64 88 80 be f1 34 70 3e
       -0.1338952 -0.19581713 -0.25104058 0.23457696

bias f4 [32]
000000 da 47 49 bc 92 50 13 be 90 99 27 be e0 08 7f bb
       -0.012285197 -0.14386204 -0.16367173 -0.0038915202
000010 c3 51 a5 3d 9e ee df bd ab 12 ad 3d 81 3e 5c 3d
       0.080722354 -0.109341845 0.08450826 0.053770546
000020 f5 42 3d be 2a d6 85 3c e7 f1 de bc c0 27 b3 bd
       -0.18482573 0.016337473 -0.027214957 -0.08747816
000030 dd b1 ee 3c 6c c5 98 3d 66 0c 3f 3e d5 4b e4 bc
       0.029137546 0.0745953 0.18657073 -0.02786819
000040 52 95 e5 bc 7f f0 47 be 41 70 65 bd f6 4f d7 bd
       -0.028025303 -0.19525336 -0.056015257 -0.10513298
000050 d7 3c 50 be dd b0 6e bd 2d fd aa bd e1 a5 1b be
       -0.20335709 -0.05827414 -0.08349071 -0.15199997
000060 0c 41 1d be 94 f1 76 bd 06 de 4f 3e c7 7f ee 3d
       -0.15356845 -0.06028898 0.20299539 0.11645465
000070 ab 21 03 3d 65 79 f2 bd e9 9f 83 3d 44 a8 2a be
       0.03201453 -0.118395604 0.06426985 -0.1666575

weight f4 [32, 64]
000000 f4 85 c1 bb cf 2a 05 be 81 b0 a7 3d 22 4b 93 3d
       -0.005905861 -0.13004611 0.08187962 0.07192065
000010 57 29 1c 3d b7 0c b0 3d 39 a4 31 bd d9 cc 47 3d
       0.038125362 0.08596175 -0.043369506 0.048779342
000020 78 69 a9 bd 3c a3 27 3d 6c aa ce 3c 52 a8 1e 3d
       -0.0827207 0.040927157 0.025227748 0.03873474
000030 9c 8d 8f bd 6d 05 27 3b 3a 09 86 3d 2b 52 3e bc
       -0.07009432 0.0025485412 0.065447286 -0.01161627
000040 e7 e7 bf bd 0c d4 b6 3d 00 dc 4e bd 3b 90 01 be
       -0.09370404 0.089271635 -0.050502777 -0.12652676
000050 b9 b6 a3 bd 30 25 4e 3d b4 7e aa bd e7 49 56 3d
       -0.07993836 0.050328434 -0.08324948 0.052316573
000060 d0 77 de bd 3d 2a 15 3e 1b 9b a3 bd c9 4f 20 be
       -0.10862696 0.14566894 -0.079885684 -0.15655436
000070 51 77 c7 bd 4e 80 a2 3c bb b4 4b bd ae 7a 61 bc
       -0.09739555 0.019836571 -0.049732905 -0.013762159
000080 e5 32 92 3b 61 0e fd 3c 85 e2 0d 3e f9 fd 33 3d
       0.0044616335 0.030890645 0.13855942 0.04394338
000090 6d 69 53 3d 09 cf b4 bc 1d 97 c9 3d aa be 44 3d
       0.051614214 -0.022071378 0.09843276 0.048033394
0000a0 2f 1d 67 bd e7 55 87 3d 1e 5f 57 3d 25 43 9e bd
       -0.056424316 0.066081814 0.052580945 -0.077276506
0000b0 41 3d 0c be 1d 50 1d be 43 c8 36 bb 76 de 46 3d
       -0.13695242 -0.15362592 -0.0027890361 0.048552
0000c0 94 e7 3a 3d b1 ab 0b be a5 0e 31 bd 62 8e 9b 3d
       0.045631006 -0.13639714 -0.043226857 0.07595517
0000d0 93 74 d6 bd 29 8a 87 3d 84 7b 7d 3d c1 11 88 bc
       -0.104714535 0.06618149 0.06188537 -0.016610028
0000e0 f0 c0 d5 bc 24 4c 4a bd fa c2 b5 bd c2 18 28 3d
       -0.026092976 -0.04938902 -0.088750795 0.041039236
0000f0 42 03 26 bd 2a 99 74 bc 15 c8 37 3d 11 84 9d bd
       -0.04053045 -0.014929095 0.044868547 -0.07691205
000100 d9 a4 c0 bd 40 bb 40 bd a3 cb b2 bb 6d bc a6 bd
       -0.09406442 -0.047053576 -0.0054564043 -0.08141408
000110 a7 a5 80 bb 2e b5 3d bc 98 11 1c bc 12 8e c2 3d
       -0.0039259973 -0.011578841 -0.009525679 0.09499754
000120 f4 26 05 bd a1 53 ca bc c1 c3 b0 3d f8 37 68 bd
       -0.03250785 -0.02469808 0.08631087 -0.056694
000130 86 cf 86 bd f0 6f 54 bc 4c 2e ca bd d7 a7 ee 3d
       -0.06582551 -0.012966141 -0.09872112 0.11653107
000140 2d bd 89 bd bf 4c 39 bd cf a9 75 bd d9 76 a1 bc
       -0.067255355 -0.045239206 -0.059976395 -0.019709991
000150 ff c4 54 bd 25 dc 9d 3d da 06 7e bd 7f da 9d bd
       -0.051945683 0.07708005 -0.062018253 -0.077076904
000160 93 62 d9 3d 2b 26 3e 3d f1 94 c6 3c 56 d0 ca bc
       0.10614505 0.04642312 0.024240943 -0.024757545
000170 fd 66 63 3d 8d 0f be 3b ba 34 92 3d 69 b7 c3 3d
       0.05551814 0.0058001936 0.07138963 0.09556467
000180 62 7c 01 3e 6e d2 99 3c 25 54 9a bd 5f 74 c2 3c
       0.12645105 0.018777099 -0.075355805 0.02373713
000190 a4 7e 17 bb aa 95 aa 3d b0 5d 44 bc cf 98 19 bd
       -0.0023116255 0.083293274 -0.011985227 -0.037499245
0001a0 f0 00 91 3d cb 0b 1e 3c f0 16 38 bd 30 61 8b 3c
       0.07080257 0.009646366 -0.04494375 0.017014116
0001b0 97 bb b4 3d 14 72 11 bd 20 24 11 3d cf b8 9e bd
       0.088248424 -0.035509184 0.035434842 -0.07750093
0001c0 91 5a 0f bc b5 9e 45 bd 8f c0 c2 3d 35 d4 d5 3b
       -0.00874962 -0.048247058 0.09509384 0.006525541
0001d0 93 b9 25 3d 9c 8e 06 bd 90 26 4f bd d1 8e c8 bc
       0.04046018 -0.032850847 -0.050573885 -0.024482163
0001e0 eb 37 a5 bd d0 3c a3 bc 69 46 36 3d 43 f0 07 bd
       -0.08067306 -0.019926459 0.044500742 -0.033188116
0001f0 79 a0 ae bc 62 b0 bc bd fe d7 53 3d f2 c7 8b bd
       -0.021316754 -0.0921333 0.051719658 -0.06825246
000200 29 2d d9 3d 05 af 48 3d 1b 46 ea 3d 26 d2 b4 bd
       0.10604317 0.048995037 0.11439153 -0.08829145
000210 15 e7 b0 3d e9 4b d4 3d aa 77 f4 bd 2e 54 83 3d
       0.086378254 0.10366041 -0.119368866 0.064125404
000220 12 08 b1 3c a7 a0 ad bd f9 2d cc 3d 14 eb 9b 3d
       0.021610294 -0.08477908 0.09969706 0.07613197
000230 e5 60 e8 bd 5d b6 b1 bd b6 53 c0 3d c0 85 d8 bd
       -0.11346606 -0.08677361 0.093909666 -0.10572386
000240 66 93 e5 bd e0 ac 91 3d ab 40 41 3b ad 85 c5 bd
       -0.11209755 0.071130514 0.0029488008 -0.09644637
000250 ca b6 07 bd 8a 0d 36 3d 7f 15 8c 3d 59 f7 3e 3d
       -0.033133306 0.044446506 0.068400376 0.046622608
000260 48 78 98 3d 3e f9 9d bc d6 25 b1 3d 6a 11 34 3c
       0.07444817 -0.019283887 0.08649795 0.01099048
000270 4d 0c 2e bd e1 1c 55 3c 01 5b fb bb 3c c3 ac 3c
       -0.0424922 0.013007374 -0.0076707606 0.021089189
000280 7b b4 f4 bd 9e 13 cd 3d 84 ae 17 be 17 08 b6 bd
       -0.119484864 0.10013507 -0.14812666 -0.08888262
000290 15 97 7a 3d 58 e9 8d 3d 17 62 3b 3d 5e d5 e6 bc
       0.06117924 0.069292724 0.045747843 -0.028177913
0002a0 0a a7 12 be 55 dd 0d be d6 4c 32 bd 7e 48 0b bd
       -0.14321533 -0.13853963 -0.043530308 -0.03400468
0002b0 a2 ff 37 bd a2 52 42 3d 7b 12 ea bd 69 07 87 bd
       -0.044921525 0.047442086 -0.11429306 -0.0659321
0002c0 21 29 fd bd 5a 7b 08 3c 0f b3 84 bd 37 0e c4 bd
       -0.1236136 0.008330191 -0.06479465 -0.09573024
0002d0 7b ce d4 bd 23 e1 a2 bd d7 c8 07 3d f9 3c dc 3d
       -0.103909455 -0.07953098 0.03315052 0.10753817
0002e0 cb ae 03 be 36 ab a6 bd 44 59 e9 bc 0c c2 d4 bd
       -0.12859647 -0.08138125 -0.028484948 -0.10388574
0002f0 2a 03 7b bd 64 42 54 bd 8a 7b 0f 3d 0b f2 ca 3c
       -0.061282314 -0.051821128 0.035029925 0.024773618
000300 e4 2b 02 be 3a aa 3b 3d ea 0c 88 bd e6 3b da bc
       -0.12712055 0.045816638 -0.06643088 -0.02663989
000310 ab 92 56 bd b5 b0 49 3d 56 3a 23 3b ac b9 77 bc
       -0.052385967 0.049240787 0.0024906597 -0.015119951
000320 70 3d 58 bd 9a af 2b bd 47 3b e4 bd da 25 4a bd
       -0.052792966 -0.041915514 -0.11144119 -0.049352504
000330 00 6f 82 bb 07 f2 bf bc ed f1 67 3d 42 f4 18 bd
       -0.0039805174 -0.023430837 0.056627203 -0.037342317
000340 ad cd 1f bc 4e d5 86 bd 1d 50 b1 bd 9a 04 20 3d
       -0.009753627 -0.065836534 -0.086578585 0.03906689
000350 fe 66 ae bd aa 8d db 3c c6 f7 f9 bc 14 96 2c bd
       -0.08515738 0.02680095 -0.030513655 -0.042135313
000360 e2 9d 70 bd 0a 87 a5 3d 0d 18 f9 3c d2 e7 e4 3d
       -0.05874432 0.08082397 0.030406976 0.11177029
000370 4b 43 0b be fa e6 19 bc 3d 47 83 bd ba f4 9a 3d
       -0.13599889 -0.009393448 -0.06410072 0.07566209
000380 ad 04 98 bd 95 06 c6 bd 0a 4c a3 bc 95 3d 11 3b
       -0.07422767 -0.09669224 -0.01993372 0.002216195
000390 e5 ff 94 3a b7 76 b1 bd 04 20 6f bd 15 6b 35 be
       0.0011367766 -0.08665221 -0.05838014 -0.1771663
0003a0 af 0e 0d be da 1c 28 3d 19 c4 83 3d 6c 0a 71 bd
       -0.13775133 0.04104314 0.06433887 -0.05884783
0003b0 bb 81 93 3c 5f 26 79 bd 6c 98 79 bd 67 0f bc bb
       0.018006196 -0.06082761 -0.060936376 -0.005739141
0003c0 0f 41 f9 bd 3c a7 7b bc a3 16 5c 3d d2 10 40 bd
       -0.12170612 -0.015359696 0.053732526 -0.04689104
0003d0 1d 89 4a bd c6 a2 77 bc b2 56 61 3d c0 0d 2b bd
       -0.049447168 -0.015114492 0.05501432 -0.04176116
0003e0 0b b5 ca 3b 41 f3 bb bd 12 0f be bd a9 4b 7b 3d
       0.006186133 -0.091772564 -0.09280218 0.061351452
0003f0 87 45 ac bc d2 29 a9 bd 76 ed e3 bb 0f d6 5e bc
       -0.021029247 -0.0825993 -0.006955798 -0.01360084

bias f4 [32]
000000 d2 af 05 be 73 2c 28 bc e5 0d 3d bd b1 6b b8 3b
       -0.13055351 -0.010264504 -0.04615583 0.005628072
000010 52 f9 24 bc dd de 60 3b 42 5a 14 3d af d6 bd 3d
       -0.010069208 0.0034312524 0.03621889 0.09269463
000020 37 ec f0 3c 34 5a 41 3d 0c bc 10 bd 50 f4 e9 3b
       0.029409511 0.047205165 -0.035335585 0.00713972
000030 b3 ed 55 3c a0 4d d5 3c 2d fa 11 bd a3 b9 ff bb
       0.01305716 0.026037991 -0.035638977 -0.007804112
000040 e3 e1 05 bd 1a 48 d9 bd b4 f0 53 3d de e2 a9 3d
       -0.032686125 -0.106094554 0.051743224 0.082952246
000050 f8 e1 c8 3d ce 59 77 3c 51 c9 84 bc 0c 66 09 bc
       0.09808725 0.015097095 -0.016209276 -0.008386146
000060 72 39 d8 3c 4d 0d 9b bd 50 d4 fd bc 3b 77 59 3d
       0.02639458 -0.07570896 -0.030985028 0.053092223
000070 25 e5 65 bd 3b 53 8d bd 08 23 4e 3d 46 d8 54 3d
       -0.056126732 -0.069006406 0.050326377 0.051964067

weight f4 [32, 32]
000000 cc e1 17 bd ff c2 f8 3d b5 f7 0a 3e 40 87 0d be
       -0.03708057 0.121465676 0.13571055 -0.13821125
000010 e4 2d f9 bd be 89 26 be 4f b0 2a 3d b2 de bb 3d
       -0.12166956 -0.16263482 0.041672047 0.09173335
000020 e9 4a de 3d 27 c2 c2 3c c9 56 10 bc 47 61 90 bc
       0.10854132 0.02377422 -0.008809754 -0.01762451
000030 42 eb a6 3c f9 9a be 3b 03 d6 6c bd 1b e2 bd bc
       0.020375852 0.005816814 -0.057821285 -0.023179105
000040 8a ed 76 3c 3a 16 45 bd 96 20 12 bd 06 1d 28 3d
       0.015071282 -0.0481169 -0.035675608 0.041043304
000050 94 ba 09 3c 77 4e 82 3d 0d a5 04 3e f0 f6 b5 3d
       0.0084063 0.06362622 0.12953587 0.0888499
000060 c1 19 23 3e 7a 90 2d bd 77 4d 16 3e f6 c1 91 3d
       0.15927793 -0.04237411 0.14677988 0.07117073
000070 a4 57 23 3d c0 e2 c6 bd 98 a7 a0 bd 7e 53 a7 bd
       0.039878502 -0.09711218 -0.07844466 -0.08170222
000080 22 28 eb bd 74 5c 5c bd 40 5f e0 3c 29 cf 44 be
       -0.11482264 -0.053799108 0.027389169 -0.1921965
000090 43 33 4a be 62 d0 7f 3d 75 87 22 be 1e 48 1a 3e
       -0.19746117 0.06245459 -0.15871985 0.15066573
0000a0 d2 36 10 bd 00 77 e8 3d fa fc 56 3d 60 30 67 3c
       -0.03520853 0.113508224 0.05248735 0.014110655
0000b0 a6 ac 0d be 8a 5c 10 be 36 33 a0 bd 87 ca 8c bd
       -0.13835391 -0.14097801 -0.07822268 -0.068745665
0000c0 a7 57 3b be a4 3f d6 3d df 9d fb 3d eb ed 3c bc
       -0.18295155 0.10461357 0.12285971 -0.011531333
0000d0 57 87 0d be af 94 08 bd 5b 63 75 bd 64 1e df bc
       -0.1382116 -0.03334492 -0.059909206 -0.027236171
0000e0 c1 de 25 3e e8 4c 75 3d 55 1a 33 bc 92 49 b2 bc
       0.16198255 0.059887797 -0.010931571 -0.021763597
0000f0 97 01 73 3d e3 74 96 bd 41 a9 ed bd 69 c4 0e 3c
       0.059327688 -0.07346513 -0.11604548 0.00871382
000100 2a 83 19 be b4 e7 7f 3d 2c 43 36 3d 64 0b 8d bd
       -0.14991441 0.06247683 0.044497654 -0.06886938
000110 41 a8 96 bd 10 4e 2b be fc ca 50 3b 30 ef a2 bd
       -0.07356311 -0.16728997 0.003185927 -0.07955778
000120 a6 16 c4 bd 2b 1a f3 bd 78 6d d9 3d b7 3f a1 bd
       -0.09574632 -0.118702255 0.10616583 -0.07873481
000130 fa 83 8a 3d ab 8e 88 bd 2a ea 2b 3c 21 6f bc 3d
       0.06763454 -0.06667837 0.010492841 0.09200884
000140 e9 aa 57 3d de 37 a4 bd 46 da 72 bc 7e 82 4f 3e
       0.052653227 -0.08018468 -0.014822548 0.20264623
000150 e4 45 18 bd 26 bf c1 bd 24 58 50 3d ad 13 3c 3e
       -0.037176028 -0.09460287 0.050865307 0.1836688
000160 79 0a a0 3d c2 58 36 bd 2a c4 44 bc 09 38 45 bc
       0.078144975 -0.04451824 -0.01200966 -0.012037286
000170 6b 24 31 3c e0 97 7b 3d cf f9 05 bd 58 d8 5b bd
       0.010811905 0.061424136 -0.03270894 -0.05367312
000180 0a c2 23 be b1 93 e3 bd 36 d7 d2 3d e1 96 09 be
       -0.15991989 -0.11112154 0.102949545 -0.13436462
000190 45 72 35 be 06 dd 83 3d 1b 79 3a be a7 fa e6 bd
       -0.17719372 0.06438641 -0.1821026 -0.11278277
0001a0 69 95 a6 3d 92 ba 30 bc 1e 67 d5 bc 13 02 47 3c
       0.081339665 -0.010786669 -0.026050147 0.012146491
0001b0 bf 4e 1f bd bf 41 13 be 96 54 2e 3e 55 3d 14 bd
       -0.038893458 -0.14380549 0.17024454 -0.036191303
0001c0 91 d5 1d bc c2 7d 5d 3d 78 36 3c 3d 31 99 39 bd
       -0.009633438 0.05407501 0.045950383 -0.04531211
0001d0 35 38 ce 3d f2 f3 94 3d 57 17 97 bd c1 97 bd 3d
       0.100693144 0.072730914 -0.073774986 0.092574604
0001e0 d4 22 ab bd eb c6 f8 bc 7f b3 2e be ca 88 17 be
       -0.08356252 -0.030368289 -0.1706066 -0.14798275
0001f0 a8 9d 0f 3e b9 28 07 bd bd 4f 3c bd f0 30 7e 3d
       0.14024985 -0.03299782 -0.04597448 0.06205839
000200 e9 d3 cf bd 70 8c b3 3d 7a b3 f4 bd bf 7a 42 3d
       -0.101478405 0.08767021 -0.11948295 0.04748034
000210 02 20 8c bc c7 f0 0b be d1 e6 86 bd bc f0 02 be
       -0.017105106 -0.13666068 -0.065869935 -0.12787145
000220 52 8c 6a be 17 60 52 be 49 6d cf bd 4d 08 83 bd
       -0.2290509 -0.20544468 -0.10128266 -0.063980676
000230 d3 a6 9e bb 10 79 fe bd f1 6f 20 3e 9f 54 37 bc
       -0.0048416643 -0.124254346 0.15667702 -0.011189609
000240 f5 63 91 bc 63 35 74 be 50 14 a3 bd 88 fa fd bd
       -0.017747859 -0.2384849 -0.07962859 -0.12401301
000250 be 9f ce bd 01 90 b1 3d d4 eb 41 be 0c 44 88 be
       -0.10089062 0.08670045 -0.18937618 -0.26614416
000260 37 96 62 3c b8 a8 96 be 18 a1 f6 bd 94 b2 0e 3d
       0.013829759 -0.29425597 -0.12042445 0.034838274
000270 c8 96 10 bf e0 4f 13 bc 81 4a 51 be 08 ba 6a be
       -0.56480074 -0.008991212 -0.20438577 -0.22922528
000280 4c ee b1 bd f2 c2 61 3c 8a 5d 3c bd e7 05 2e be
       -0.0868803 0.013779389 -0.045987643 -0.16994439
000290 14 71 82 bd 38 f8 09 be c5 61 e9 3c a9 64 15 bd
       -0.06369224 -0.13473594 0.028489003 -0.03647295
0002a0 c7 19 2d bd cd ec a2 bc 35 0a b0 3c 51 af 36 be
       -0.04226091 -0.019888306 0.021489242 -0.17840315
0002b0 40 3c f4 bb ed c4 1f bd b0 c0 94 bd ce 7d 43 3d
       -0.0074534714 -0.039006162 -0.07263315 0.0477274
0002c0 e8 ef 1e be e8 44 c7 bd 9a 57 ff bd 1d bd cf 3b
       -0.15521204 -0.0972994 -0.124678805 0.0063396827
0002d0 83 85 f3 3c ea 6a d5 3d cc c5 ab 3d de 38 2d bc
       0.02972675 0.10420783 0.08387336 -0.01057264
0002e0 e4 f0 0b be b4 e7 8d 3d 6d 4d f3 bd 8e 3b 92 3d
       -0.13666111 0.069289595 -0.11880002 0.071402654
0002f0 2a 19 09 3e e9 c4 d4 3b 44 95 01 be 03 b6 92 3d
       0.13388506 0.0064932 -0.12654597 0.07163622
000300 85 01 36 3d 8d b6 dc bd 48 aa 84 bd 22 87 f1 3c
       0.044435043 -0.10777006 -0.06477791 0.029483382
000310 09 d3 fb bb 7c 6b 55 3d 47 4f 3d bd c8 ba 83 bd
       -0.0076850695 0.05210446 -0.046218183 -0.0643211
000320 a5 ff da bd 82 1d 01 3d b0 12 a0 bd f1 a5 c6 bc
       -0.106932916 0.03152228 -0.07816064 -0.024249049
000330 46 ad 2d be e1 55 d7 bd f8 3e 9e 3d 68 3f d2 ba
       -0.1696063 -0.10514427 0.07726854 -0.0016040625
000340 98 3a 8e 3d e5 7d 2e 3e 7a 9d 61 3d 3f 3f e9 bd
       0.069447696 0.17040212 0.055081822 -0.11389016
000350 20 5b 80 bd 9e 5c c4 3c d3 72 19 be 2c a2 23 3e
       -0.06267381 0.023969945 -0.14985208 0.15979832
000360 7d 39 ce bc 39 66 ab bc 3b 3d 5c 3e f2 be 72 bd
       -0.025173897 -0.020922767 0.21507733 -0.05926413
000370 e2 5e 2c 3e bb 7a ac 3d d1 52 31 3e 12 86 99 bd
       0.1683307 0.084218465 0.17316748 -0.07496275
000380 6a 0f 92 be aa d9 99 bd e1 c4 1f be 8e e0 1b 3d
       -0.28527385 -0.07512219 -0.15602447 0.03805595
000390 53 fe 2b bc 9a fb 3b be 1e b7 05 3d 43 8c 53 3d
       -0.010497647 -0.18357697 0.032645337 0.051647436
0003a0 fc e1 f7 bc 20 2c 72 bd 28 b5 de bb 42 80 2a be
       -0.030259125 -0.059124112 -0.006796498 -0.16650489
0003b0 6f 1d ee 3b 0e f5 34 3d a6 69 1d 3d af ae 24 be
       0.0072666924 0.044179015 0.038430832 -0.16082262
0003c0 20 41 2f 3e 81 bc aa 3d e2 80 71 3d a6 8f 79 3d
       0.17114687 0.083367355 0.058960803 0.06092801
0003d0 f5 f7 ed 3c f1 44 60 be cb 00 a4 bc df 9c cc 3d
       0.0290489 -0.21901299 -0.02001991 0.09990858
0003e0 4a 85 03 3e eb 97 8c be 75 ba 46 be 54 06 53 bd
       0.12843814 -0.27459654 -0.19407065 -0.051519707
0003f0 ee 0c 3e bd ab 74 1a 3e ed d3 86 be e3 9d 84 be
       -0.04639905 0.15083568 -0.26333562 -0.25901708

bias f4 [32]
000000 9d 78 fd bc f3 98 33 3d d8 90 6d 3d 7f d5 16 bc
       -0.030941302 0.043847036 0.057999462 -0.009206175
000010 76 63 94 3d db 01 5b bb 1c 34 16 bd e5 9c 05 3c
       0.07245533 -0.0033417854 -0.03667079 0.008155082
000020 84 21 86 bd d5 87 6d 3b de ee 92 3d bc 89 69 bd
       -0.06549361 0.0036244292 0.071744666 -0.05701612
000030 1f 82 02 3d ee 06 5b 3d 94 91 ea bc bb c6 37 bc
       0.031862374 0.053473406 -0.02863387 -0.011216815
000040 da 45 74 bd bb 29 dd 3b 7b 56 36 bd 9d 4e 93 bb
       -0.05963693 0.0067493594 -0.044516068 -0.0044954554
000050 25 e0 fc 3b 80 7a fa bc e0 db 9b bb f0 22 8c 3d
       0.00771715 -0.03057599 -0.0047564358 0.06842601
000060 bd b5 4d bc ff ad b7 3b cb 9c 92 3a e9 ac 91 bc
       -0.012555537 0.0056054587 0.0011185644 -0.017782645
000070 e7 79 53 3c 64 14 47 3c 47 75 58 bd 26 14 80 3d
       0.012907482 0.012150858 -0.05284622 0.06253843
