train_script/weights/GANEdgeBased_model300new/4.pth (torch, 52307 bytes, 21 tensors)

weight f4 [32, 13]
3.9664679e-22 3.1697175e-10 0.004231725 0.0009367555 0.0042989347 -0.00058415567 -0.03725402 0.007493595
-2.1378896e-26 1.6319382e-17 -4.622158e-13 -0.0045439987 1.4224069e-06 4.889761e-05 0.0005646118 -0.0004581014
1.14397615e-30 0.004539745 -0.014589926 5.912337e-20 -0.016420916 -4.2891326e-17 2.2072546e-20 0.0037762905
-0.025883371 -0.020941058 -0.0003991607 3.77625e-21 -1.1201402e-16 0.03267709 9.870289e-07 -4.620173e-28
6.245909e-05 0.013881819 -1.0162538e-21 0.0047655497 -0.0021294525 -7.767168e-06 0.00019316855 -0.0012269854
0.0025892556 -7.949591e-23 -3.4134413e-05 8.978094e-05 0.00091752334 2.0753364e-21 -9.20056e-07 -1.1151238e-16
-0.0003989925 0.0051587573 2.1549853e-08 -0.005594498 -1.2173925e-30 -0.017893804 -8.5290196e-23 -4.368044e-30
-0.0014248069 -1.5631498e-31 -5.545428e-29 8.54289e-15 0.0002153686 0.0036244795 -6.1920524e-27 0.034117285
1.5021911e-07 -0.010489835 0.0009691848 0.00012485226 -0.0072872816 0.019435126 0.00010683083 0.0064469324
-5.188602e-06 -8.661018e-26 -0.00038699264 0.000475657 -0.018526005 -2.278934e-09 0.031709053 -8.792015e-06
0.0021689816 0.025059031 0.025754318 1.1232575e-30 1.1265255e-05 -1.820591e-26 0.022061458 8.452392e-06
-0.01585629 0.02656662 -0.0020619219 0.004866348 -0.011765731 -0.00031772806 5.666884e-22 0.015137155
1.5311163e-30 5.285626e-19 0.033663686 0.0005771309 -0.012742645 0.0002888479 5.536568e-29 -9.760361e-05
-0.002097004 -1.1829858e-30 -4.079384e-07 0.0008908605 -8.959758e-06 3.0124808e-10 -1.2959431e-22 0.011683562
0.00031945112 0.012253048 -0.0025778338 1.220867e-07 1.6008755e-30 2.7375766e-08 0.011449933 -0.020998249
1.13141e-30 -0.023171274 4.8529066e-05 -2.0282381e-07 0.0038320015 -0.01554237 -7.006631e-05 0.030669594
-1.1335683e-25 0.01500117 0.030667985 -7.6551976e-10 -0.00019616612 -0.015961483 7.060253e-21 -1.9110601e-05
-0.001900621 -0.03594663 5.7213026e-07 0.0049058814 -0.027463 0.033259623 0.025218923 -0.014121567
-6.062663e-21 2.5049158e-05 -0.019923195 1.518476e-19 5.250295e-06 -1.3865534e-30 3.238106e-31 -5.9890524e-09
1.4384935e-29 0.0003704817 0.03062168 1.6788174e-05 -1.0955825e-05 -0.01889387 0.037925202 -0.035168096
0.012210225 9.4832205e-05 -0.001765311 -4.1937996e-28 -0.014548497 0.0020964907 -2.9519825e-13 3.919375e-18
-1.4238995e-26 -1.3718637e-31 0.00089756504 -0.00043383575 -0.0014749137 -0.020438338 0.039542507 0.03336568
0.00069710036 5.3308473e-09 -1.7617524e-12 2.152568e-31 0.014775133 -0.0021527023 0.0019808023 2.0181765e-06
-3.4411649e-10 -8.4271264e-08 -0.006961795 0.028038053 8.093623e-27 -2.3337736e-20 1.24507515e-05 2.0073565e-05
-0.00045062308 -0.009623508 -5.8544718e-21 0.024598377 -0.0035944965 2.5680379e-31 1.3739096e-22 4.8921503e-14
0.0010443202 0.004131076 -0.0040477603 0.033146862 -0.02515547 -2.362267e-16 4.9000588e-05 0.020780114
1.6011887e-05 -0.0024101974 8.798865e-06 -0.020820666 -3.9347604e-18 6.067098e-06 -2.085112e-05 -0.00073625374
-1.2631429e-05 1.5382521e-13 -0.0034649395 -5.280779e-31 0.028868444 -1.5010459e-26 5.961431e-05 -0.0051956666
-0.0042025857 -0.0055897576 1.0698967e-28 4.8730144e-28 1.837877e-07 0.0057495073 0.0004979506 0.011996454
-0.001560798 -1.8867753e-06 -1.6843265e-30 0.012305205 0.013526055 -3.11819e-24 -4.3193822e-25 -6.277677e-30
0.006053308 -5.52964e-32 -0.00058224273 0.013149966 0.017573666 0.033817142 2.0115774e-28 2.7690504e-25
5.326898e-27 7.497224e-30 -0.0076319766 -2.5608788e-06 2.305473e-06 1.9750804e-10 0.03597073 5.308958e-05
00000000: 1ec2 ef1b cf41 ae2f 48aa 8a3b 9990 753a
00000010: 14de 8c3b 0622 19ba ac97 18bd d58c f53b
00000020: f1b9 d394 0d85 9623 291a 02ab d3e5 94bb
00000030: 87e9 be35 6917 4d38 7502 143a 542d f0b9
00000040: e99e b90d 24c2 943b 960a 6fbc e299 8b1f
00000050: 2885 86bc 24cd 45a4 2478 d01e a47b 773b
00000060: 5d09 d4bc 958c abbc 7146 d1b9 a6a9 8e1d
00000070: b424 01a5 6ad8 053d 0e7a 8435 4c6b 1292
00000080: 78fc 8238 9270 633c 6a92 999c 5428 9c3b
00000090: 498e 0bbb bc4f 02b7 4a8d 4a39 ccd2 a0ba
000000a0: 80b0 293b 9635 c09a 8c2b 0fb8 c648 bc38
000000b0: f385 703a d8ce 1c1d c4f9 76b5 a590 00a5
000000c0: de2f d1b9 cb0a a93b a11c b932 0d52 b7bb
000000d0: 8288 c58d 0796 92bc 1338 ce9a 5d30 b18e
000000e0: 96c0 baba 90e8 4a8c e397 8c90 20e5 1928
000000f0: 91d4 6139 ad88 6d3b df4a f593 91be 0b3d
00000100: ea4b 2134 8fdd 2bbc e410 7e3a c6ea 0239
00000110: 26ca eebb 6a36 9f3c 5d0a e038 ca40 d33b
00000120: c019 aeb6 b96f d695 46e5 cab9 9a61 f939
00000130: d9c3 97bc 6e9b 1cb1 5ae1 013d 6b81 13b7
00000140: 7925 0e3b 9948 cd3c b8fa d23c 4b42 b60d
00000150: e7ff 3c37 774d b494 3bba b43c bfce 0d37
00000160: 0de5 81bc 3ea2 d93c 4f21 07bb e375 9f3b
00000170: 0dc5 40bc bd94 a6b9 6445 2b1c d401 783c
00000180: 1570 f80d 1001 1c21 efe2 093d 994a 173a
00000190: 87c6 50bc 8270 9739 615e 8c10 8ab0 ccb8
000001a0: e46d 09bb 4ff3 bf8d a002 dbb4 a388 693a
000001b0: de51 16b7 e69c a52f 7fab 1c9b 696c 3f3c
000001c0: 017c a739 02c1 483c e0f0 28bb f016 0334
000001d0: e2e0 010e f227 eb32 8098 3b3c 8504 acbc
000001e0: ef94 b70d afd1 bdbc b08b 4b38 c9c7 59b4
000001f0: 5122 7b3b 6da5 7ebc 90f0 92b8 cd3e fb3c
00000200: 3754 0c96 78c7 753c 6d3b fb3c aa6c 52b0
00000210: f1b1 4db9 a8c1 82bc 4a5d 051e b44f a0b7
00000220: 421e f9ba c63c 13bd 7e94 1935 84c1 a03b
00000230: 16fa e0bc 3e3b 083d ea97 ce3c 255e 67bc
00000240: 7b0a e59d a820 d237 f835 a3bc 1f45 3320
00000250: b12b b036 2dfb e08d 442a d20c 43c8 cdb1
00000260: 6de1 910f 363d c239 51da fa3c 54d4 8c37
00000270: e9ce 37b7 51c7 9abc 7557 1b3d 6c0c 10bd
00000280: 650d 483c a7e0 c638 0262 e7ba 25e8 0492
00000290: d25c 6ebc 4765 093b 8d2e a6aa 7399 9022
000002a0: 2404 8d94 fe13 328c 924a 6b3a 7374 e3b9
000002b0: e451 c1ba 4d6e a7bc 53f7 213d 74aa 083d
000002c0: 9dbd 363a a12a b731 d2f1 f7ab acb5 8b0c
000002d0: 6613 723c 5a14 0dbb 59d0 013b 0270 0736
000002e0: 172e bdaf 9ef8 b4b3 c51f e4bb 0fb0 e53c
000002f0: 8b4f 2014 2f6b dc9e 92e3 5037 a763 a837
00000300: 9b41 ecb9 ebab 1dbc fa2c dd9d 8982 c93c
00000310: a591 6bbb d9ac a60c 7118 261b a752 5c29
00000320: 92e1 883a fa5d 873b 13a3 84bb 01c5 073d
00000330: d812 cebc e82c 88a5 fb85 4d38 0f3b aa3c
00000340: 4451 8637 67f4 1dbb d69e 1337 1a90 aabc
00000350: c32a 91a2 fa93 cb36 70e9 aeb7 2701 41ba
00000360: 93eb 53b7 1931 2d2a 0a14 63bb ff5e 2b8d
00000370: 847d ec3c 09a8 9494 610a 7a38 6940 aabb
00000380: d8b5 89bb 492a b7bb 22a0 0711 976e 1a12
00000390: 2e57 4534 5d66 bc3b e688 023a c68c 443c
000003a0: b193 ccba 1b3d fdb5 18a6 088e c59b 493c
000003b0: 639c 5d3c 1e42 7198 acad 0597 20a7 fe8e
000003c0: d45a c63b c38e 8f8b a6a1 18ba f472 573c
000003d0: a6f6 8f3c d883 0a3d 6bff 7e11 5b65 ab16
000003e0: 2a05 d313 d00f 180f a915 fabb 90db 2bb6
000003f0: b9b7 1a36 9229 592f 0b56 133d 81ac 5e38

bias f4 [32]
0.14512597 -0.20273547 -0.10198508 0.17574844 0.24446927 0.21189888 0.172654 0.09150846
0.22320975 -0.14938673 0.001957713 -0.21670662 -0.09962077 0.14828123 -0.18457504 0.13085264
0.2067862 0.14387342 -0.109732494 -0.011765947 -0.05649296 -0.1632044 0.0729181 -0.09199816
-0.23537734 0.093062334 0.28314707 -0.2660881 -0.12517324 -0.10869354 0.09036636 -0.07210737
00000000: e79b 143e e399 4fbe 8edd d0bd 66f7 333e
00000010: 2756 7a3e 05fc 583e 36cc 303e ca68 bb3d
00000020: 1991 643e d6f8 18be f94c 003b 57e8 5dbe
00000030: f905 ccbd 09d7 173e 3d01 3dbe 3cfe 053e
00000040: c3bf 533e 8e53 133e 6ebb e0bd f5c5 40bc
00000050: 2965 67bd 0e1f 27be 1656 953d 8869 bcbd
00000060: c206 71be 7797 be3d a7f8 903e b33c 88be
00000070: 6a2d 00be b89a debd 0012 b93d 07ad 93bd

weight f4 [32, 13]
0.24954718 -0.23706041 -0.028752742 0.12298837 0.26679504 0.096699804 0.24849463 -0.026644906
0.1408996 -0.1147423 0.073794454 -0.2640214 -0.12177629 0.047021583 -0.08032097 -0.25419387
-0.24690579 -0.09376338 0.1451491 -0.16181107 -0.011993891 -0.09485693 0.20206216 0.04368555
0.09615385 0.2625617 0.14265384 0.24840826 -0.043455936 -0.18070413 -0.09964097 0.25000286
0.020682527 -0.25145894 0.21741337 0.19819373 0.27513215 0.22439519 -0.1891815 -0.00057165546
0.18652543 -0.19790995 -0.023278015 -0.2584615 -0.05331442 -0.11812265 0.036027256 0.082088105
0.2532196 -0.047642 -0.18549441 -0.018774016 -0.10778013 0.026297983 -0.087484546 0.26514715
0.06706816 -0.18338369 -0.18301515 -0.2300826 -0.26042455 0.0025890358 0.09315966 -0.016730819
0.09400012 0.11601696 0.059667226 0.19155659 0.17512709 -0.21739702 -0.1863839 -0.2143772
0.1251498 0.0399948 0.14542325 0.072540596 -0.1071182 -0.24423261 -0.075334266 -0.05702428
-0.22819111 0.26682952 -0.23773119 0.13296674 0.14958717 0.24419685 -0.15304613 0.22913915
-0.18807736 -0.16231701 -0.0011918889 0.12056927 -0.019681266 -0.10931621 -0.19974352 0.1288183
0.21667744 0.27321976 0.10192322 0.18485785 -0.17069902 -0.13510853 0.25912243 0.19161695
0.2441769 -0.021321913 0.10754786 -0.1384111 -0.25496164 0.23147237 0.20128141 0.23858376
0.1786377 -0.087141365 0.13201326 -0.25436303 -0.24978094 0.025688859 -0.25822583 0.0043621026
-0.042000145 0.037644695 -0.25278592 0.12971887 -0.21832895 -0.16449106 -0.022990504 -0.07903362
0.1727617 -0.13358086 -0.047742933 -0.1973411 -0.12401528 -0.025700618 -0.056152094 -0.23471472
-0.23275927 0.023495855 0.080791265 0.050989557 -0.02724603 -0.1603192 0.017729735 0.16758859
0.24093272 -0.010175484 -0.21952409 -0.22501983 0.020407151 -0.100814775 0.22924842 0.1825983
0.20994091 -0.20921086 -0.1573366 0.27583936 -0.037792034 0.117874645 -0.09759169 0.26938102
0.20871861 0.2724609 -0.04602216 -0.14308704 0.10446604 -0.10353888 0.015555265 -0.08611023
0.2790798 0.24876812 -0.26357913 0.17400032 0.24213223 0.048683796 0.19469509 0.1720379
-0.24686307 0.11943886 0.09797728 -0.12759767 -0.08889724 -0.22048515 0.05959565 0.11232265
0.24696182 -0.103231825 -0.20137353 0.14778438 -0.18195938 0.09670412 0.053688463 -0.14935304
0.27859938 -0.013358994 -0.25088283 0.024607077 -0.04793459 0.21276432 0.07453447 -0.20223257
0.117644124 -0.25414962 -0.2279238 0.011012832 0.16180786 0.107326254 -0.038277283 -0.20326753
0.12318991 -0.123069026 0.09344121 -0.15646131 -0.273866 0.18736878 -0.21781377 -0.07822387
-0.12286295 -0.23471126 -0.2081825 0.21191888 -0.19014092 0.070727624 -0.041107338 0.13733864
0.107515134 0.17125534 0.102458276 0.05897552 -0.09587988 -0.12838945 -0.050157655 -0.080281675
0.11117837 -0.23712295 0.22588176 -0.005262525 0.15249312 0.086464435 -0.19061929 0.23164038
0.13708386 -0.21071729 0.12538597 0.023266045 -0.20248754 0.27038607 -0.23824681 -0.026076518
-0.08260677 0.01375865 0.19806102 0.24104738 -0.12950812 -0.023066571 -0.18114123 0.18254378
00000000: 4c89 7f3e f7bf 72be df8a ebbc 54e1 fb3d
00000010: 5c99 883e 8c0a c63d 6075 7e3e 6b46 dabc
00000020: fc47 103e 03fe eabd 8c21 973d d02d 87be
00000030: d965 f9bd b499 403d 527f a4bd b325 82be
00000040: dfd4 7cbe 0407 c0bd f7a1 143e cdb1 25be
00000050: 0682 44bc 5a44 c2bd 62e9 4e3e 9fef 323d
00000060: 4fec c43d 7d6e 863e d913 123e bc5e 7e3e
00000070: dafe 31bd 810a 39be 9110 ccbd 6000 803e
00000080: 676e a93c 3abf 80be 9ca1 5e3e 4cf3 4a3e
00000090: 1fde 8c3e dac7 653e ccb8 41be 26db 15ba
000000a0: 8600 3f3e e8a8 4abe 89b1 bebc 1155 84be
000000b0: 3960 5abd 4aea f1bd 5191 133d cf1d a83d
000000c0: 00a6 813e 4224 43bd 3ff2 3dbe f7cb 99bc
000000d0: d4bb dcbd de6e d73c 192b b3bd 5ec1 873e
000000e0: 085b 893d efc8 3bbe 5368 3bbe c69a 6bbe
000000f0: 5e56 85be d0ac 293b 7eca be3d 120f 89bc
00000100: 2383 c03d 4d9a ed3d 9f65 743d 6927 443e
00000110: 8454 333e 539d 5ebe 6cdb 3ebe b285 5bbe
00000120: 4527 003e 96d1 233d d5e9 143e 2a90 943d
00000130: c960 dbbd 1d18 7abe da48 9abd 4b92 69bd
00000140: eeaa 69be e19d 883e ce6f 73be 6f28 083e
00000150: 612d 193e bd0e 7a3e 20b8 1cbe 74a3 6a3e
00000160: 5a97 40be 6e36 26be 2839 9cba 05ed f63d
00000170: 9b3a a1bc 2de1 dfbd 9189 4cbe f2e8 033e
00000180: b1e0 5d3e 76e3 8b3e 1fbd d03d 604b 3d3e
00000190: b9cb 2ebe e459 0abe b2ab 843e 3c37 443e
000001a0: 8209 7a3e 4bab aebc 0d42 dc3d a4bb 0dbe
000001b0: 558a 82be 1807 6d3e b71c 4e3e 4d4f 743e
000001c0: cdec 363e 2c77 b2bd 7c2e 073e df3b 82be
000001d0: 93c6 7fbe 7171 d23c 2d36 84be f8ef 8e3b
000001e0: 5808 2cbd 5331 1a3d 286d 81be 06d5 043e
000001f0: a091 5fbe 5870 28be 9556 bcbc 61dc a1bd
00000200: 71e8 303e 6cc9 08be 188e 43bd c913 4abe
00000210: b9fb fdbd 1a8a d2bc bdff 65bd 0e59 70be
00000220: 7258 6ebe 617a c03c e475 a53d 6dda 503d
00000230: 1133 dfbc b72a 24be f33d 913c 589c 2b3e
00000240: 11b7 763e 13b7 26bc ecca 60be 996b 66be
00000250: e62c a73c fa77 cebd 19c0 6a3e 0cfb 3a3e
00000260: c0fa 563e 5f3b 56be d81c 21be d13a 8d3e
00000270: d2cb 1abd 4368 f13d 27de c7bd 4fec 893e
00000280: 55ba 553e ff7f 8b3e bc81 3cbd 6985 12be
00000290: 4bf2 d53d 310c d4bd 83db 7e3c 8f5a b0bd
000002a0: 8ce3 8e3e 12bd 7e3e d8f3 86be 242d 323e
000002b0: 83f1 773e a968 473d 265e 473e b42a 303e
000002c0: acc9 7cbe 5c9c f43d 50a8 c83d f7a8 02be
000002d0: c20f b6bd dcc6 61be 911a 743d 6b09 e63d
000002e0: 8fe3 7c3e 356b d3bd dd34 4ebe ca54 173e
000002f0: 8f53 3abe cf0c c63d 6fe8 5b3d 01f0 18be
00000300: 94a4 8e3e afdf 5abc b773 80be c894 c93c
00000310: 1057 44bd e4de 593e 87a5 983d 0e16 4fbe
00000320: 67ef f03d e61f 82be db64 69be 2a6f 343c
00000330: f6b0 253e decd db3d a4c8 1cbd 5d25 50be
00000340: fe4a fc3d 9d0b fcbd 1b5e bf3d 6537 20be
00000350: 2a38 8cbe 9add 3f3e 930a 5fbe d633 a0bd
00000360: 929f fbbd 2658 70be cb2d 55be 4301 593e
00000370: 4db4 42be a5d9 903d 2b60 28bd 80a2 0c3e
00000380: e530 dc3d 8f5d 2f3e a5d5 d13d 5190 713d
00000390: ac5c c4bd 8678 03be 1d72 4dbd b86a a4bd
000003a0: 7cb1 e33d 5cd0 72be 8c4d 673e 4271 acbb
000003b0: 2827 1c3e 4414 b13d b431 43be 2333 6d3e
000003c0: b65f 0c3e 46c6 57be 2e65 003e 6f98 be3c
000003d0: e558 4fbe 0b70 8a3e f9f6 73be 6c9e d5bc
000003e0: bd2d a9bd f66b 613c 82d0 4a3e 20d5 763e
000003f0: c79d 04be 1bf6 bcbc 167d 39be c2ec 3a3e

bias f4 [32]
-0.049960542 0.17393702 0.04399416 0.08880306 0.035342526 0.10886857 0.08447463 -0.2402765
-0.2443114 0.21950412 0.031947672 -0.121343456 0.18285604 -0.0059870947 -0.06879262 -0.07822065
-0.10649069 -0.018348783 -0.123791225 0.16115059 -0.20721567 -0.18161209 0.021538822 0.09211461
-0.022922976 -0.2622981 -0.031674944 0.1554042 -0.18678883 0.0554304 -0.21233697 0.16933689
00000000: 6da3 4cbd 8c1c 323e 3833 343d 61de b53d
00000010: 53c3 103d 7cf6 de3d 0901 ad3d 0b0b 76be
00000020: c52c 7abe b0c5 603e 90db 023d eb82 f8bd
00000030: 9d3e 3b3e 642f c4bb 25e3 8cbd 2632 a0bd
00000040: ca17 dabd 3050 96bc 4186 fdbd a904 253e
00000050: 5830 54be 85f8 39be 2f72 b03c 96a6 bc3d
00000060: f7c8 bbbc f04b 86be 96bd 01bd 4722 1f3e
00000070: 9245 3fbe fd0a 633d dd6e 59be a666 2d3e

weight f4 [13, 13]
-0.0277182 1.2457165e-31 -9.2496454e-17 0.0024415534 6.048254e-17 -3.2321564e-31 2.066906e-18 8.478281e-06
0.019571075 -0.000214147 7.410783e-15 -1.5780572e-07 0.014022419 3.870302e-18 -8.38667e-09 0.0010362171
7.957666e-31 0.0011634941 -0.00050166814 0.020316478 5.103194e-22 -0.008807941 0.00039196026 -9.318123e-06
-1.2069424e-12 -1.3867921e-10 0.0017105629 0.0025594423 -4.3571785e-27 -0.00044118112 -0.010565148 -0.028308082
-4.9045182e-05 6.4301654e-11 0.013400535 -0.019195354 -1.1225011e-17 4.311419e-10 -2.8792802e-25 -0.0017587956
0.00058693415 -0.0007004554 -0.019961515 7.0174146e-08 0.00069928315 0.0043175905 0.00055647496 -0.010449497
-0.0027669698 -0.008586296 0.010753688 -0.0002157584 0.0053052637 -0.012029783 0.009741713 0.00035984092
-1.920465e-07 0.003883636 1.0240108e-07 -0.037135158 0.0014348248 -2.5667538e-07 -0.0038732507 0.00023817427
-1.0851295e-25 1.7039429e-05 -0.029581115 0.03996656 -2.1977985e-30 -0.019107064 -7.050534e-07 0.00096515054
-0.020681137 1.2941128e-06 -7.773921e-23 0.0015170368 0.0010946081 -1.5801954e-15 -4.6504503e-31 -0.00848871
2.973395e-08 0.02282911 0.00046906812 -2.043081e-17 -1.3349275e-19 0.0023470735 -6.8897994e-06 3.2013054e-06
-0.038462438 5.315488e-06 0.006101311 0.004419976 0.003258272 -0.038777843 3.0720784e-32 -0.009557812
0.0049098553 -0.003353386 0.00080212136 -1.9739118e-16 -0.0035707548 -0.00051085453 8.608647e-10 -1.6417081e-11
5.194515e-05 -0.006657838 -0.0033532917 0.00047065434 -0.00020634095 -0.00383407 7.4470275e-26 0.039016463
-4.0420916e-09 -2.6320002e-05 0.0075789993 1.426782e-08 0.0012031511 -8.5285386e-08 -0.036022294 -1.0219539e-32
0.01152903 -2.1507192e-08 -0.0010473399 3.28435e-27 0.0030834281 -0.0075131557 -2.4143214e-06 -1.2388385e-10
0.012800023 -1.1467164e-29 3.5381167e-26 -0.0024158056 -0.029983938 -0.008048923 -0.00022780396 0.0026036294
0.012691355 0.0014465722 0.0005390082 -0.016005492 -8.757981e-09 -0.0041304827 8.0728544e-25 3.0630738e-07
3.5696634e-05 -7.5343734e-05 6.4924344e-10 -1.062688e-19 0.020996379 0.00057712384 0.00047605034 0.029977577
-7.4508093e-06 2.0111237e-09 4.180719e-28 3.880378e-07 -4.595214e-05 -2.426855e-31 3.8178204e-31 2.0319274e-29
-0.005614242 7.289013e-32 -4.898671e-24 -1.178421e-07 -0.039145842 -1.0022308e-21 -2.7641952e-05 1.6999771e-21
-1.1147841e-08
00000000: 4711 e3bc 08b4 210c 4548 d5a4 7802 203b
00000010: 9776 8b24 69c7 d18c c082 1822 f13d 0e37
00000020: 8553 a03c a68c 60b9 3480 0528 4e71 29b4
00000030: 4abe 653c f8c9 8e22 f714 10b2 add1 873a
00000040: da1e 810d 6280 983a 6182 03ba be6e a63c
00000050: 0d3c 1a1c 2f4f 10bc 0480 cd39 0955 1cb7
00000060: afdc a9ab ba7a 18af f734 e03a 51bc 273b
00000070: 0a9b ac93 544e e7b9 7119 2dbc 5ae6 e7bc
00000080: ddb5 4db8 9d66 8d2e eb8d 5b3c 933f 9dbc
00000090: 9e10 4fa3 d405 ed2f 0438 b296 6387 e6ba
000000a0: 7cdc 193a c49e 37ba 5586 a3bc a5b2 9633
000000b0: 1950 373a 937a 8d3b 67e0 113a 5e34 2bbc
000000c0: 0d56 35bb 89ad 0cbc 3d30 303c 343d 62b9
000000d0: c7d7 ad3b 9118 45bc b59b 1f3c 08a9 bc39
000000e0: 5735 4eb4 9a84 7e3b 97e7 db33 091b 18bd
000000f0: bb10 bc3a 32cd 89b4 5dd6 7dbb 6bbe 7939
00000100: 2055 0696 e5ef 8e37 1854 f2bc fab3 233d
00000110: 7d4e 328e 6b86 9cbc e742 3db5 2802 7d3a
00000120: 7d6b a9bc 61b1 ad35 3ef6 bb9a 4fd7 c63a
00000130: f478 8f3a ecba e3a6 6eea 168d 3b14 0bbc
00000140: a669 ff32 1d04 bb3c 42ed f539 e370 bca3
00000150: b599 1da0 5cd1 193b ed2e e7b6 02d6 5636
00000160: ca8a 1dbd b25b b236 82ed c73b 72d5 903b
00000170: bc88 553b 84d5 1ebd ed82 1f0b 5e98 1cbc
00000180: dae2 a03b 7bc4 5bbb 7445 523a 9893 63a5
00000190: 5303 6abb deea 05ba f8a1 6c30 fb67 90ad
000001a0: aedf 5938 fe29 dabb e6c2 5bbb 28c2 f639
000001b0: 3a5d 58b9 0545 7bbb 2561 b815 bacf 1f3d
000001c0: 9de2 8ab1 c6c9 dcb7 4159 f83b 891e 7532
000001d0: 0db3 9d3a 2326 b7b3 1d8c 13bd 6440 548a
000001e0: 42e4 3c3c d1be b8b2 e546 89ba 441b 8213
000001f0: 5713 4a3b eb30 f6bb ba05 22b6 3436 08af
00000200: 30b7 513c eb94 688f f532 2f15 7e52 1ebb
00000210: e0a0 f5bc a1df 03bc a9de 6eb9 a7a1 2a3b
00000220: 67ef 4f3c e99a bd3a 3a4c 0d3a f31d 83bc
00000230: 0276 16b2 0059 87bb bed7 7917 9172 a434
00000240: f8b8 1538 dc01 9eb8 7276 3230 8ceb fa9f
00000250: 9900 ac3c 204a 173a 6596 f939 8993 f53c
00000260: f701 fab6 1034 0a31 067e 0412 8253 d034
00000270: bcbc 40b8 0c83 9d8c 6cca f70c da0f ce0f
00000280: adf7 b7bb cd3b bd0b 1682 bd98 6110 fdb3
00000290: 6457 20bd ed73 979c a4e0 e7b7 5772 001d
000002a0: b984 3fb2

bias f4 [13]
-0.20729007 0.052670408 0.025457917 0.11355044 -0.04805959 0.0485521 -0.036726728 0.18811674
-0.2167354 0.0370392 -0.16312408 0.23880613 -0.009527246
00000000: d943 54be edbc 573d 1f8d d03c 228d e83d
00000010: 22da 44bd 91de 463d c46e 16bd ada1 403e
00000020: e2ef 5dbe 6bb6 173d 000a 27be 9889 743e
00000030: 2a18 1cbc

weight f4 [32, 13]
0.045523442 0.018301176 -0.21196343 -0.10417325 0.05469835 0.168426 0.11782467 0.1965306
0.05146954 -0.21075109 0.22226132 -0.101195164 0.23460646 0.12330111 -0.15212518 0.2805932
0.060757916 -0.16383845 0.15533341 0.2599126 0.19018207 0.21404515 0.08409288 0.15125549
-0.028842067 0.17021333 -0.08815959 0.07854557 -0.24068677 -0.114704706 0.11108798 0.08498593
0.047997396 -0.20554791 -0.22527711 0.14348178 0.25965667 -0.01703518 -0.14072487 -0.037688203
-0.12432881 -0.061535023 0.1422819 0.037965413 0.30048537 0.13819349 0.14149708 0.008031995
0.08968004 0.043677535 0.16981138 0.04268979 -0.17769071 0.24203996 -0.033235632 -0.20369554
-0.059269894 -0.07781674 0.25984195 0.23111054 0.15056925 -0.07500087 -0.1985094 0.017038843
-0.25545347 0.10603547 0.1715207 0.19983618 -0.0018933021 0.22551742 -0.019998116 -0.07664368
0.033266477 -0.2599809 0.19153805 0.22392584 0.13617574 -0.11818361 0.072624095 -0.17554393
0.07999606 -0.10450508 -0.23512699 -0.15746924 -0.19534646 0.13232632 -0.030336885 0.06472357
0.22769558 -0.09718325 -0.05302575 -0.17712353 0.2194875 -0.28379643 -0.102599025 -0.06083407
-0.21072315 0.1564418 -0.023444666 -0.13856453 0.13165037 0.023072314 0.037372146 -0.106471576
-0.24324936 0.027448025 -0.09631953 -0.14964607 -0.12641747 0.06583677 0.2300916 -0.017821262
0.040462844 0.07611559 0.19636013 0.09223645 0.23479716 0.22876231 -0.0005917053 -0.23662359
-0.051447663 0.25058448 0.26098186 -0.18549605 0.21171369 -0.06307293 -0.26038805 0.1258051
0.18149441 -0.070202075 -0.18896559 0.13457489 -0.076243155 -0.2530909 -0.14733514 -0.088585615
-0.12880394 -0.1443895 0.079885244 0.26044863 0.21509066 -0.13072518 0.11779825 0.18087953
0.16868164 0.14649113 -0.16322319 -0.093462005 0.14021188 0.06189122 -0.23838265 -0.21014203
-0.24237587 0.1378981 0.035021815 -0.09925372 -0.021603437 -0.0438518 0.07910669 -0.21850125
0.24322473 0.19667554 0.09466037 0.089896716 0.12769076 -0.20312694 0.07110028 0.116675995
0.23415348 0.06382819 0.040932357 -0.095104314 0.043927915 0.1788074 -0.22756729 0.23061149
0.12680057 0.15607265 0.09323959 -0.08379275 0.06362523 -0.15600972 -0.24956079 -0.20659609
0.09653018 0.061070345 0.26821676 -0.0638368 -0.074775666 0.00031409235 0.19619025 -0.25939074
0.1934925 0.24817564 0.14124164 -0.21698889 -0.04583056 0.097631104 0.11835652 0.005441654
-0.25546238 0.2504494 0.16751024 0.20420346 -0.055416875 -0.14670454 -0.13522944 0.026067223
0.2648062 0.16377655 0.22360745 0.18453641 0.14567138 -0.08143121 -0.15013385 0.16104877
-0.16059095 -0.12632962 -0.26417372 -0.089639075 0.16866079 -0.077944085 0.13131668 0.23470612
0.052993517 0.19762167 -0.16164498 0.22239147 -0.05344074 -0.14306664 0.22466394 -0.19312805
0.23956075 0.2310704 0.12472175 0.14525388 0.08698822 0.07943912 0.1401274 0.15845641
-0.1863349 0.20938909 -0.04479224 -0.15354599 -0.27201042 -0.08666898 0.2637272 0.15586054
0.14036047 -0.24677388 -0.05668457 0.15242362 -0.18967241 -0.19136338 -0.25592563 0.16635278
00000000: ca76 3a3d 59ec 953c f10c 59be c958 d5bd
00000010: 610b 603d de77 2c3e 104e f13d 513f 493e
00000020: b9d1 523d 22cf 57be 7998 633e 693f cfbd
00000030: ad3c 703e 4b85 fc3d b4c6 1bbe e9a9 8f3e
00000040: 4bdd 783d 44c5 27be b90f 1f3e 4413 853e
00000050: 17bf 423e a72e 5b3e e338 ac3d b8e2 1a3e
00000060: 3346 ecbc 674c 2e3e 048d b4bd 80dc a03d
00000070: 9876 76be 4dea eabd 1882 e33d 1a0d ae3d
00000080: eb98 443d 277b 52be 0baf 66be e3ec 123e
00000090: b8f1 843e 5d8d 8bbc 2e1a 10be f25e 1abd
000000a0: 1aa0 febd 260c 7cbd 59b2 113e 9f81 1b3d
000000b0: 38d9 993e 9882 0d3e 9ce4 103e a198 033c
000000c0: 2baa b73d 37e7 323d 09e3 2d3e 7ddb 2e3d
000000d0: 8ef4 35be 53d9 773e 1622 08bd 9095 50be
000000e0: fdc4 72bd 625e 9fbd 010a 853e 3ea8 6c3e
000000f0: d32e 1a3e 0e9a 99bd 0c46 4bbe 0b95 8b3c
00000100: ccca 82be 2029 d93d 1fa3 2f3e dba1 4c3e
00000110: ad28 f8ba 0aee 663e 17d3 a3bc 5df7 9cbd
00000120: 6e42 083d 371c 85be 8d22 443e d14c 653e
00000130: a771 0b3e 400a f2bd f1bb 943d cac1 33be
00000140: f9d4 a33d c206 d6bd 21c5 70be 9e3f 21be
00000150: e708 48be 8d80 073e 0f85 f8bc cb8d 843d
00000160: 0829 693e 0308 c7bd 8731 59bd df5f 35be
00000170: 55c1 603e c44d 91be 701f d2bd 252d 79bd
00000180: cfc7 57be 4732 203e 070f c0bc dce3 0dbe
00000190: 5bcf 063e 2602 bd3c 8913 193d c50d dabd
000001a0: 5c16 79be aeda e03c 2c43 c5bd d23c 19be
000001b0: 9573 01be 6ed5 863d 229d 6b3e e5fd 91bc
000001c0: 5ebc 253d 7ee2 9b3d a112 493e 77e6 bc3d
000001d0: ab6e 703e ab40 6a3e ac1c 1bba 744d 72be
000001e0: c9ba 52bd 9c4c 803e 6a9f 853e adf2 3dbe
000001f0: 79cb 583e 612c 81bd 9551 85be 0dd3 003e
00000200: acd9 393e 1bc6 8fbd 3280 41be 00ce 093e
00000210: 5f25 9cbd 2195 81be 06df 16be 606c b5bd
00000220: 2ee5 03be d7da 13be e09a a33d 8659 853e
00000230: ba40 5c3e d2dc 05be 3540 f13d 7c38 393e
00000240: e1ba 2c3e c501 163e fb23 27be 0269 bfbd
00000250: b493 0f3e a681 7d3d 951a 74be 792f 57be
00000260: 6131 78be 2935 0d3e 0973 0f3d 8945 cbbd
00000270: b1f9 b0bc f29d 33bd b002 a23d cbbe 5fbe
00000280: e70f 793e 5065 493e 4cdd c13d c51b b83d
00000290: 5ec1 023e 8200 50be 069d 913d d3f3 ee3d
000002a0: eec5 6f3e 5bb8 823d b0a8 273d 0dc6 c2bd
000002b0: c2ed 333d 4919 373e 6607 69be 6b25 6c3e
000002c0: 02d8 013e 82d1 1f3e 66f4 be3d 899b abbd
000002d0: f24d 823d 03c1 1fbe dd8c 7fbe ed8d 53be
000002e0: 9db1 c53d e624 7a3d b553 893e debc 82bd
000002f0: fc23 99bd c3ac a439 19e6 483e ddce 84be
00000300: e622 463e c121 7e3e a6a1 103e 5632 5ebe
00000310: d3b8 3bbd d1f2 c73d e764 f23d e74f b23b
00000320: f7cb 82be e73a 803e ce87 2b3e b61a 513e
00000330: cefc 62bd b739 16be 9679 0abe ee8a d53c
00000340: ae94 873e 0ab5 273e 5af9 643e 1df7 3c3e
00000350: e12a 153e 68c5 a6bd b0bc 19be f8e9 243e
00000360: f471 24be 8d5c 01be c741 87be b194 b7bd
00000370: 6ab5 2c3e 26a1 9fbd e177 063e cd56 703e
00000380: bb0f 593d 565d 4a3e 4386 25be 97ba 633e
00000390: ade4 5abd 1080 12be 4e0e 663e 5cc3 45be
000003a0: 6a4f 753e b89d 6c3e 1e6e ff3d 6fbd 143e
000003b0: e126 b23d fab0 a23d 8f7d 0f3e 6642 223e
000003c0: 93ce 3ebe 186a 563e 1178 37bd 293b 1dbe
000003d0: f344 8bbe 827f b1bd 4007 873e e899 1f3e
000003e0: a8ba 0f3e 4bb2 7cbe 142e 68bd f014 1c3e
000003f0: 7c39 42be c3f4 43be af08 83be 6258 2a3e

bias f4 [32]
0.022820929 -0.2571735 -0.20597875 0.033817895 0.11866365 -0.26447666 0.16717519 0.008086995
-0.25670946 -0.030399123 -0.05149371 -0.12679806 0.110813186 0.11314226 0.22382914 -0.044426385
-0.10305313 -0.25076264 -0.08607455 -0.2953893 -0.26343504 -0.1154048 -0.14937289 -0.22433451
-0.23263524 -0.07363397 0.21801198 0.21625444 0.015553835 -0.20577344 0.100071885 -0.26343122
00000000: f5f2 ba3c 3fac 83be 18ec 52be a284 0a3d
00000010: ed05 f33d 7c69 87be f92f 2b3e 517f 043c
00000020: 6c6f 83be 9507 f9bc 12eb 52bd 5ad7 01be
00000030: 06f2 e23d 21b7 e73d 7733 653e 71f8 35bd
00000040: 850d d3bd f663 80be db47 b0bd 443d 97be
00000050: f5e0 86be 5a59 ecbd 35f5 18be f2b7 65be
00000060: ef37 6ebe 68cd 96bd 883e 5f3e ce71 5d3e
00000070: 83d5 7e3c 46b6 52be 7df2 cc3d 75e0 86be

weight f4 [32, 64]
0.038340587 -0.11447738 0.067406826 0.088583186 0.07012115 0.11362442 -0.01996502 0.06445657
-0.08571799 0.04919818 0.05965726 0.07796203 -0.103946574 0.015644146 0.06903944 -0.007570927
-0.06963188 0.10479305 -0.04979293 -0.11591355 -0.054472923 0.078863375 -0.06044122 0.052818093
-0.08450013 0.12582381 -0.057825044 -0.12055274 -0.068502024 0.040577684 -0.04937506 0.017392429
0.10621424 0.024736958 0.12027791 0.053928684 0.065212585 -0.010681876 0.108532526 0.07495497
-0.034396272 0.09324757 0.07049025 -0.05422521 -0.12933174 -0.11573382 0.019947486 0.09705715
0.089854255 -0.10043242 -0.042420536 0.07642292 -0.07281107 0.093398266 0.053787682 -0.01573682
-0.022421997 -0.017207788 -0.08330617 0.07144605 -0.0015121449 -0.02443315 0.075022615 -0.05736944
-0.12878269 -0.105110526 -0.028661802 -0.058427848 -0.016780738 0.06358354 0.0014735003 0.10358673
-0.031508636 -0.11791469 0.10502685 -0.02811884 -0.06459354 0.028807243 -0.094332196 0.08744782
-0.10690814 -0.11953464 -0.10179694 -0.04959285 -0.06372216 0.10178724 -0.08929496 -0.061624058
0.10862028 0.019858763 0.009460109 -0.0020064185 0.03120426 0.017129425 0.09714382 0.11167286
0.0719825 0.011203336 -0.056878418 0.058774278 -0.06430613 0.06475862 0.023121728 -0.008098404
0.09859143 0.013427567 -0.100389555 0.059131395 0.0075188405 0.010916306 0.08645011 -0.12539151
-0.049105246 -0.07719561 0.07981517 -0.00012828871 0.06632446 -0.04824026 -0.12566398 -0.045723654
-0.09574944 -0.06925181 0.0097616855 -0.0447349 -0.037316415 -0.12349608 0.04755366 -0.07789095
0.09645717 0.062262546 0.10732993 -0.08668632 0.11444104 0.08837395 -0.09651077 0.08459105
0.04070588 -0.056623023 0.106716156 0.07016574 -0.040734157 -0.1049076 0.11494768 -0.11655562
-0.087157205 0.05931277 -0.004042844 -0.106812485 -0.01601796 0.049781002 0.09088287 0.06568867
0.09314258 -0.02697835 0.11872764 0.015296719 -0.023767363 0.013657456 -0.004895375 0.046095714
-0.11687866 0.11885566 -0.11050681 -0.029153697 0.104413174 0.09889366 0.09784748 -0.017931992
-0.10334316 -0.073357955 -0.011313625 -0.008292955 -0.0872048 0.066062525 -0.083883755 -0.058994804
-0.098433785 0.060839143 -0.045745194 -0.060264178 -0.056140427 -0.08166856 0.087093435 0.11198361
-0.09697731 -0.058553427 0.017084867 -0.06299339 -0.06078067 0.0068453886 0.085703574 0.065515645
-0.09213944 0.054276884 -0.06750718 -0.07340921 -0.079261854 0.040943395 -0.024253188 0.014985021
-0.050097506 -0.025759542 -0.095819846 -0.031263664 -0.019115712 0.0015554259 0.09453259 -0.06747077
0.008822073 -0.056809478 -0.08675804 0.03227918 -0.07717601 0.08872837 -0.05266881 -0.012719496
-0.07925566 0.08419036 0.021867115 0.11138041 -0.13642028 -0.007893883 -0.05990703 0.07126568
0.08080636 -0.10542572 -0.0017781736 -0.06639751 -0.03334863 -0.11157494 -0.08031346 -0.13751318
-0.1167285 0.011477416 0.04370751 -0.07838676 0.037437584 -0.04191141 -0.052602842 -0.027369464
-0.12769781 -0.00595592 0.07093221 -0.04880797 -0.08270313 0.0033436343 0.070231296 0.06307994
-0.013934427 -0.036663037 -0.12631579 -0.015850812 -0.056115612 -0.04915137 0.059114248 -0.0664772
00000000: 050b 1d3d 1e73 eabd 970c 8a3d 1a6b b53d
00000010: ad9b 8f3d ebb3 e83d ae8d a3bc ce01 843d
00000020: ea8c afbd 0884 493d 2c5b 743d 8faa 9f3d
00000030: f1e1 d4bd 2728 803c 8d64 8d3d 8a15 f8bb
00000040: 299b 8ebd bd9d d63d acf3 4bbd 1564 edbd
00000050: 001f 5fbd 1f83 a13d 3691 77bd c957 583d
00000060: 670e adbd f5d7 003e f4d9 6cbd 5be4 f6bd
00000070: ca4a 8cbd c934 263d 813d 4abd 917a 8e3c
00000080: da86 d93d 29a5 ca3c 4454 f63d 53e4 5c3d
00000090: 2d8e 853d 0903 2fbc 4d46 de3d fe81 993d
000000a0: 1be3 0cbd 95f8 be3d 315d 903d 411b 5ebd
000000b0: 8a6f 04be da05 edbd e968 a33c e6c5 c63d
000000c0: 8205 b83d 83af cdbd 28c1 2dbd 9f83 9c3d
000000d0: f81d 95bd 9747 bf3d 7950 5c3d 81ea 80bc
000000e0: 56ae b7bc 59f7 8cbc 6d9c aabd 4f52 923d
000000f0: 2a33 c6ba 0828 c8bc 75a5 993d 38fc 6abd
00000100: 9cdf 03be 3044 d7bd 28cc eabc 0a52 6fbd
00000110: c277 89bc 1638 823d 7722 c13a 4825 d43d
00000120: 330f 01bd 427d f1bd 5118 d73d 7b59 e6bc
00000130: 9e49 84bd 2bfd eb3c 3d31 c1bd d817 b33d
00000140: a8f2 dabd 94ce f4bd ea7a d0bd df21 4bbd
00000150: c480 82bd d475 d03d 47e0 b6bd 8269 7cbd
00000160: 4f74 de3d d8ae a23c 93fe 1a3c 1e7e 03bb
00000170: 14a0 ff3c 0253 8c3c 57f3 c63d beb4 e43d
00000180: 906b 933d 328e 373c 58f9 68bd 4cbd 703d
00000190: efb2 83bd 2ba0 843d c769 bd3c 2baf 04bc
000001a0: 4eea c93d 4cff 5b3c 0a99 cdbd c333 723d
000001b0: 9b60 f63b 4eda 323c c10c b13d a266 00be
000001c0: 9522 49bd bb18 9ebd 2376 a33d 3d85 06b9
000001d0: 1ed5 873d 9497 45bd 0fae 00be ba48 3bbd
000001e0: 4818 c4bd e5d3 8dbd 7aef 1f3c f13b 37bd
000001f0: 19d9 18bd 83eb fcbd a0c7 423d 4a85 9fbd
00000200: 568b c53d 0307 7f3d cbcf db3d 9988 b1bd
00000210: 1060 ea3d 67fd b43d 70a7 c5bd 133e ad3d
00000220: 35bb 263d 8bed 67bd 008e da3d 0eb3 8f3d
00000230: dcd8 26bd ccd9 d6bd b069 eb3d b7b4 eebd
00000240: 7a7f b2bd f2f1 723d d579 84bb 81c0 dabd
00000250: 1938 83bc 2ae7 4b3d cc20 ba3d c887 863d
00000260: 89c1 be3d b301 ddbc 7a27 f33d 179f 7a3c
00000270: c6b3 c2bc 86c3 5f3c 6269 a0bb dcce 3c3d
00000280: 145e efbd 996a f33d 6551 e2bd bcd3 eebc
00000290: 93d6 d53d c288 ca3d 4264 c83d 1de6 92bc
000002a0: 94a5 d3bd b23c 96bd c85c 39bc 2ddf 07bc
000002b0: 6e98 b2bd ca4b 873d 3fcb abbd 89a4 71bd
000002c0: a797 c9bd 7732 793d 505f 3bbd 92d7 76bd
000002d0: 81f3 65bd d941 a7bd 0b5e b23d aa57 e53d
000002e0: 0a9c c6bd b8d5 6fbd 90f5 8b3c ae02 81bd
000002f0: 27f5 78bd 484f e03b 5b85 af3d 112d 863d
00000300: 9ab3 bcbd 7051 5e3d 3441 8abd 9157 96bd
00000310: 0a54 a2bd 43b4 273d 9fae c6bc bc83 753c
00000320: 0b33 4dbd ad05 d3bc 323d c4bd 540e 00bd
00000330: 8e98 9cbc 6fdf cb3a 4d9a c13d 1d2e 8abd
00000340: 758a 103c 0eb1 68bd 33ae b1bd 2c37 043d
00000350: 750e 9ebd 38b7 b53d 40bb 57bd 6f65 50bc
00000360: cb50 a2bd ff6b ac3d aa22 b33c 6a1b e43d
00000370: c2b1 0bbe 5855 01bc 1361 75bd bef3 913d
00000380: ce7d a53d 71e9 d7bd 9b11 e9ba 6bfb 87bd
00000390: 9398 08bd 6781 e4bd 627b a4bd 41d0 0cbe
000003a0: 5a0f efbd c60b 3c3c a506 333d 3d89 a0bd
000003b0: 2758 193d 4cab 2bbd 1476 57bd ed35 e0bc
000003c0: 37c3 02be e129 c3bb e844 913d deea 47bd
000003d0: 4260 a9bd e020 5b3b 6dd5 8f3d 0e30 813d
000003e0: 394d 64bc fb2b 16bd ed58 01be 90d9 81bc
000003f0: 7cd9 65bd f252 49bd c821 723d 3325 88bd

bias f4 [32]
-0.12967098 -0.06835448 -0.031522643 0.07372553 -0.03290598 -0.0561271 0.08478918 0.06730634
0.04204701 0.04048614 -0.065808505 -0.005984106 0.060651682 0.019931035 -0.10006153 -0.01537698
-0.1268863 -0.13313538 0.05811961 0.041560404 0.10130009 -0.019271798 -0.028024688 -0.033139285
0.090898864 -0.096791215 -0.09092731 0.099227145 -0.111189574 -0.12723385 0.07950934 0.056573953
00000000: 78c8 04be 6ffd 8bbd e31d 01bd 69fd 963d
00000010: 6cc8 06bd 88e5 65bd f3a5 ad3d e8d7 893d
00000020: 7c39 2c3d cbd4 253d 9cc6 86bd 5216 c4bb
00000030: e66d 783d 6946 a33c 0fed ccbd bbef 7bbc
00000040: 7bee 01be a454 08be d40e 6e3d 3e3b 2a3d
00000050: 6c76 cf3d e4df 9dbc 0894 e5bc 0fbd 07bd
00000060: 2f29 ba3d 793a c6bd 1938 babd 9a37 cb3d
00000070: 5cb7 e3bd 9749 02be cbd5 a23d 17ba 673d

weight f4 [32, 32]
-0.020946369 0.093840204 0.12158226 -0.11538617 -0.07067491 -0.13111073 0.08148491 0.105021715
0.13803898 0.075257994 0.026646398 -0.0039864033 -0.009407645 0.04793188 -0.061843343 -0.020110704
0.07105289 0.05075411 -0.035444196 0.08472343 0.062063802 0.07960449 0.19982436 0.11368277
0.18657136 0.13301124 0.18305548 0.114960276 0.060233213 -0.024648642 -0.04821958 -0.052785683
-0.12422298 -0.12585478 0.0072365873 -0.15493467 -0.18657328 0.0804358 -0.14651972 0.17051259
-0.02119842 0.11533478 0.0484218 0.050741278 0.13922973 0.00022208462 -0.15248513 -0.07386558
-0.17081629 0.11910809 0.1446961 0.0048966263 -0.14915626 -0.062999845 -0.055886418 -0.13482839
0.14085081 0.044662956 -0.028887117 -0.0060973363 0.08928711 -0.04773669 -0.08104129 -0.015804918
-0.10292498 0.07246552 -0.04490837 -0.040434938 -0.053062182 -0.15083043 0.038017053 -0.078798264
-0.12543407 -0.07390306 0.16090527 0.026503524 0.02625366 -0.019678757 -0.03891775 0.11301771
0.09749917 -0.008157227 0.006624138 0.1791491 -0.03530679 -0.056634516 0.10932219 0.15230113
0.10768253 -0.05364408 0.010481684 0.049088158 0.05693815 0.10977218 0.025768282 -0.017922567
-0.017935399 -0.13523085 0.106275596 -0.16662239 -0.12413306 0.09630526 -0.09562136 -0.14359808
0.08595022 -0.010187749 -0.033132743 0.011981538 -0.019636054 -0.14256327 0.14268182 -0.14973244
-0.0688696 0.084593825 0.029282149 -0.03976038 0.12528564 0.050144073 -0.095576614 0.055020627
-0.028786555 0.02318562 -0.09541375 -0.15523218 0.08945082 0.05109995 -0.08221417 0.048010364
0.13675426 0.10738941 -0.12496449 0.097236514 0.035117578 -0.1493331 -0.15311226 -0.10215644
-0.13202745 -0.19400294 -0.0132041145 -0.04471302 0.08498353 -0.06924324 0.05373475 -0.005892961
-0.042715732 -0.10327033 -0.01979967 -0.18814644 -0.08248482 0.123970605 -0.18018694 -0.1483117
0.06488776 0.04158542 -0.09965102 0.009702817 -0.12782311 -0.14989313 -0.08667352 -0.0870613
-0.1679838 0.033988707 -0.15090613 -0.14886767 -0.07064017 -0.10651229 0.05175927 -0.025647065
-0.0583184 -0.02376665 0.029285626 -0.15920785 -0.06642948 -0.14324321 -0.061206687 0.065454654
-0.13602595 -0.08923022 -0.1045168 0.015327193 0.041957896 0.112563476 0.094131485 -0.010782984
-0.12957546 0.099175476 -0.12585926 0.09532135 0.1219418 0.015971614 -0.09797175 0.079865746
-0.03320237 -0.15009609 -0.058499347 0.12014254 -0.02215941 0.052990455 -0.03409052 -0.08119957
-0.12578285 0.028232103 -0.12343056 -0.016275289 -0.106910996 -0.11246631 0.13145265 0.007588938
0.06870205 0.18251616 0.077524796 -0.071516156 -0.05690883 -0.03527571 -0.13327397 0.18557571
-0.038764477 0.021710163 0.19281913 -0.057236433 0.1474086 0.14225166 0.1419907 -0.10536224
-0.114038765 -0.02804841 -0.15791655 -0.047708254 0.02357556 -0.14105633 0.051020678 0.08716994
0.061942723 -0.02378115 0.038914993 -0.15772414 -0.057355803 0.15662509 -0.01562733 -0.15773016
0.14877628 0.15970248 0.050112363 0.0048653134 0.08947304 -0.17487282 0.08366543 0.12576133
0.18378556 -0.16457003 -0.14528148 -0.12869401 0.11352067 0.12737736 -0.14727299 -0.16806282
00000000: b897 abbc 4b2f c03d 1f00 f93d 964f ecbd
00000010: 02be 90bd e441 06be 8fe1 a63d a015 d73d
00000020: 175a 0d3e dd20 9a3d 8c49 da3c 60a0 82bb
00000030: 8622 1abc 3854 443d 724f 7dbd 34bf a4bc
00000040: 2d84 913d 8be3 4f3d ef2d 11bd 7a83 ad3d
00000050: 9d36 7e3d ae07 a33d c29e 4c3e 83d2 e83d
00000060: 900c 3f3e 1934 083e e572 3b3e 4b70 eb3d
00000070: 1ab7 763d f3eb c9bc e581 45bd cd35 58bd
00000080: 9e68 febd 13e0 00be e520 ed3b 32a7 1ebe
00000090: 110d 3fbe 86bb a43d 4409 16be da9a 2e3e
000000a0: 4fa8 adbc a434 ec3d f055 463d 16d6 4f3d
000000b0: 3d92 0e3e 63df 6839 1025 1cbe d646 97bd
000000c0: 77ea 2ebe f1ee f33d 372b 143e e173 a03b
000000d0: 6bbc 18be 1006 81bd 28e9 64bd 7410 0abe
000000e0: 323b 103e 81f0 363d ada4 ecbc 2acc c7bb
000000f0: 29dc b63d 8c87 43bd faf8 a5bd 5179 81bc
00000100: 55ca d2bd cd68 943d d7f1 37bd 1b9f 25bd
00000110: bb57 59bd 4b73 1abe c5b7 1b3d fc60 a1bd
00000120: ca71 00be 7d5a 97bd 5ac4 243e eb1d d93c
00000130: ea11 d73c 5835 a1bc 3868 1fbd d475 e73d
00000140: a5ad c73d e4a5 05bc 4c0f d93b dd72 373e
00000150: da9d 10bd 98f9 67bd 50e4 df3d d4f4 1b3e
00000160: a988 dc3d e5b9 5bbd 5ebb 2b3c aa10 493d
00000170: fa37 693d 3dd0 e03d 0118 d33c 59d2 92bc
00000180: 42ed 92bc f579 0abe 05a7 d93d 0f9f 2abe
00000190: 7939 febd b13b c53d 22d5 c3bd 600b 13be
000001a0: ab06 b03d 84ea 26bc 33b6 07bd 364e 443c
000001b0: cadb a0bc 1bfc 11be 2f1b 123e 7653 19be
000001c0: 810b 8dbd 873f ad3d 1ee1 ef3c c8db 22bd
000001d0: e14a 003e df63 4d3d acbd c3bd 4f5d 613d
000001e0: c8d1 ebbc c5ef bd3c 4968 c3bd 2ff5 1ebe
000001f0: fe31 b73d 2e4e 513d e75f a8bd 84a6 443d
00000200: 4f09 0c3e fbee db3d 62ed ffbd f023 c73d
00000210: 73d7 0f3d c7ea 18be 76c9 1cbe 6537 d1bd
00000220: 3432 07be b5a8 46be 1256 58bc 0025 37bd
00000230: d80b ae3d 66cf 8dbd f818 5c3d bd19 c1bb
00000240: b1f6 2ebd 657f d3bd eb32 a2bc 76a9 40be
00000250: cded a8bd 4de4 fd3d ed82 38be 06df 17be
00000260: e0e3 843d 7955 2a3d d515 ccbd 90f8 1e3c
00000270: 10e4 02be 967d 19be e381 b1bd 324d b2bd
00000280: f203 2cbe be37 0b3d 2387 1abe c470 18be
00000290: cbab 90bd 1e23 dabd 8701 543d cb19 d2bc
000002a0: 46df 6ebd 47b2 c2bc 69e8 ef3c 6207 23be
000002b0: 2e0c 88bd 59ae 12be ddb3 7abd 170d 863d
000002c0: 634a 0bbe 55be b6bd e70c d6bd e81e 7b3c
000002d0: 0bdc 2b3d ae87 e63d 02c8 c03d 1dab 30bc
000002e0: 6eaf 04be 831c cb3d 40e1 00be d737 c33d
000002f0: 9fbc f93d e7d6 823c 6aa5 c8bd a790 a33d
00000300: 35ff 07bd cab2 19be 039d 6fbd 4b0d f63d
00000310: a787 b5bc 850c 593d 80a2 0bbd f64b a6bd
00000320: 38cd 00be 0347 e73c 29c9 fcbd c153 85bc
00000330: 27f4 dabd bd54 e6bd 869b 063e a0ac f83b
00000340: a9b3 8c3d 84e5 3a3e 52c5 9e3d 1077 92bd
00000350: 3c19 69bd 437d 10bd f978 08be 8f07 3e3e
00000360: 80c7 1ebd 83d9 b13c 6172 453e c070 6abd
00000370: 48f2 163e 6baa 113e 0366 113e 28c8 d7bd
00000380: 288d e9bd c7c5 e5bc e0b4 21be bb69 43bd
00000390: 8821 c13c 1271 10be 0ffb 503d 2786 b23d
000003a0: a7b7 7d3d b0d0 c2bc 5465 1f3d 7082 21be
000003b0: ebed 6abd 5462 203e e304 80bc 0484 21be
000003c0: cf58 183e 0c89 233e 9f42 4d3d 356d 9f3b
000003d0: a43d b73d dc11 33be c858 ab3d 94c7 003e
000003e0: 4832 3c3e 0c85 28be abc4 14be 5dc8 03be
000003f0: 867d e83d 366f 023e bbce 16be a918 2cbe

bias f4 [32]
-0.10028922 -0.035534665 0.2212873 0.08857106 0.13541085 -0.17405851 -0.1192184 -0.06215839
-0.066131726 -0.19519943 0.17457284 -0.14497387 0.06859634 0.13975996 -0.13222916 -0.050424553
-0.08689837 0.058383744 -0.08754921 -0.037043925 -0.0098340595 -0.015075428 -0.11598397 0.09065928
-0.16885607 -0.18307193 0.10444772 0.07452165 0.15091275 -0.15360522 -0.16223754 0.028502302
00000000: 6f64 cdbd cc8c 11bd 2399 623e be64 b53d
00000010: 24a9 0a3e 653c 32be c728 f4bd cc99 7ebd
00000020: 1270 87bd 5ce2 47be 39c3 323e 0874 14be
00000030: 3d7c 8c3d 3c1d 0f3e 1567 07be fa89 4ebd
00000040: c6f7 b1bd cb23 6f3d 004d b3bd 5fbb 17bd
00000050: 091f 21bc eefe 76bc 0189 edbd 93ab b93d
00000060: 9be8 2cbe 3577 3bbe b0e8 d53d cf9e 983d
00000070: df88 1a3e b04a 1dbe 9921 26be a97d e93c

weight f4 [32, 32]
-0.07699659 0.017099682 0.19154093 -0.10810599 0.14083247 0.100915045 -0.04337577 -0.120757654
-0.06558618 0.053691395 0.16154909 0.14587286 0.014705041 -0.046747204 0.023924075 0.10080299
0.06253141 -0.11521368 0.012458157 0.10075658 0.089488216 -0.039480235 0.063572414 0.12203763
-0.029920172 0.052796546 0.16667159 0.118082315 0.104599684 0.08581736 0.06118524 0.009014026
0.079566866 -0.033094227 0.09732324 0.0612312 -0.09426298 -0.055810317 -0.14855395 0.12219283
-0.16020882 0.15986982 -0.08694585 0.07476652 0.11973545 0.028277926 0.0030931658 0.050838266
-0.12707601 0.025584456 -0.17303471 0.00029656754 -0.15564373 -0.09275709 0.122840755 -0.10805075
0.08121574 0.14752042 -0.09002249 -0.11186982 -0.12928002 -0.13652433 -0.13566637 0.02674699
-0.09391792 0.14934708 0.15483807 0.10469364 -0.021293184 -0.10325651 -0.021345995 0.15245973
0.031864032 -0.07403401 -0.11903671 -0.06491441 0.10457448 0.026667496 0.07174447 0.115267165
0.09528274 0.09705221 -0.12829152 0.14855884 -0.121087715 0.015844872 0.14007682 0.05545777
0.058394648 -0.05893823 0.06741462 -0.0369677 0.08303838 0.0019136098 0.13668767 0.106928244
-0.088115916 0.10623572 -0.17709751 0.06757235 0.075463004 -0.06935548 -0.1391306 0.1163671
-0.14391948 0.03980151 -0.10885072 -0.16986026 0.10500124 -0.14342928 -0.03592326 0.07132706
-0.058774374 -0.15787557 -0.016768547 -0.0788336 0.051104628 0.0669703 -0.059279475 0.13151246
-0.15661323 -0.043744497 0.056347795 -0.11314261 -0.17720093 -0.032195404 -0.16890533 -0.06657068
0.07466611 0.06817078 -0.17951557 0.11491576 0.12851216 -0.08388456 0.11716286 -0.04304866
-0.036489736 -0.17724288 -0.007939167 -0.1407411 0.05208674 -0.0172687 -0.05507338 -0.109873705
-0.14579593 0.03581606 0.035140615 0.07289278 -0.12354041 0.13979913 -0.12815581 0.102343194
0.091710165 -0.12364296 -0.032436375 -0.16589332 0.117123894 0.006570982 -0.18430252 -0.025958696
0.1174425 0.12741801 -0.18766212 0.15218553 -0.0019761627 -0.000706784 -0.02051581 -0.02630581
-0.056612253 -0.07811119 -0.06472351 0.06083195 0.118823454 -0.14692582 -0.03837883 -0.19242916
-0.00938566 0.14968377 0.07011223 0.0382681 -0.15760271 -0.0016947929 -0.15416382 0.11581986
-0.17630662 -0.07875803 -0.110331126 -0.17652519 0.12434507 -0.08515159 0.059020624 -0.11796816
-0.007213482 0.18731818 -0.018368192 -0.06538667 0.079082586 0.15127568 -0.0018013339 -0.08332315
-0.020990105 -0.056399666 -0.07457685 0.025360942 0.14876026 0.18982951 -0.050395116 0.052461505
0.07328755 0.031000374 -0.06268486 -0.029105568 0.025563443 -0.0001482983 -0.01981328 0.10166326
0.15629528 0.1282708 -0.12998098 0.1200123 0.10507191 -0.034248933 0.10826728 0.08976417
0.13189468 -0.16400772 -0.007821154 -0.04138594 0.121702276 0.031177111 0.08793232 0.13048811
-0.029753704 0.17178869 -0.1272169 -0.059518132 -0.10238087 -0.06941953 0.04076646 -0.073754184
-0.1345837 -0.073599085 0.08937778 0.095239535 0.12698103 0.11030578 0.07203979 -0.038504634
0.08145749 -0.037407476 -0.058997616 0.09170552 0.055820633 0.153338 0.06766457 -0.08759355
00000000: 63b0 9dbd a214 8c3c 4e23 443e ac66 ddbd
00000010: 6336 103e 8cac ce3d cbaa 31bd ca4f f7bd
00000020: 0c52 86bd 82eb 5b3d 206d 253e b25f 153e
00000030: 6aed 703c ff79 3fbd 6cfc c33c cc71 ce3d
00000040: 7810 803d 26f5 ebbd 4c1d 4c3c 7759 ce3d
00000050: 9945 b73d 07b6 21bd 4132 823d ddee f93d
00000060: 261b f5bc 3141 583d f5ab 2a3e 24d5 f13d
00000070: 5c38 d63d 03c1 af3d 609d 7a3d 91af 133c
00000080: f4f3 a23d d08d 07bd 6851 c73d 91cd 7a3d
00000090: f30c c1bd 5c99 64bd 871e 18be 3c40 fa3d
000000a0: c80d 24be eab4 233e aa10 b2bd 301f 993d
000000b0: dc37 f53d 1ca7 e73c b6b6 4a3b c93b 503d
000000c0: 3720 02be 7e96 d13c 0330 31be 9f7c 9b39
000000d0: 1261 1fbe 6ef7 bdbd ef93 fb3d b649 ddbd
000000e0: 7054 a63d 980f 173e b65d b8bd 011c e5bd
000000f0: fb61 04be 09cd 0bbe 20ec 0abe 811c db3c
00000100: 0a58 c0bd 71ee 183e df8d 1e3e 9e69 d63d
00000110: 0b6f aebc 2678 d3bd ccdd aebc 671e 1c3e
00000120: dc83 023d 259f 97bd 85c9 f3bd d9f1 84bd
00000130: 252b d63d cb75 da3c c4ee 923d 3111 ec3d
00000140: 9923 c33d 4fc3 c63d da5e 03be cf1f 183e
00000150: d6fc f7bd 1bcd 813c 4c70 0f3e b027 633d
00000160: 3a2f 6f3d 3769 71bd ad10 8a3d 716b 17bd
00000170: 0710 aa3d 17d2 fa3a daf7 0b3e 32fd da3d
00000180: 1e76 b4bd 1d92 d93d 0d59 35be 5f63 8a3d
00000190: 598c 9a3d 3f0a 8ebd 4178 0ebe e051 ee3d
000001a0: a15f 13be e806 233d 20ed debd d9ef 2dbe
000001b0: e40a d73d 20df 12be 4524 13bd ec13 923d
000001c0: 66bd 70bd 22aa 21be 315e 89bc 8373 a1bd
000001d0: 1653 513d ba27 893d 09cf 72bd 34ab 063e
000001e0: 385f 20be 6e2d 33bd f2cc 663d 50b7 e7bd
000001f0: 2974 35be 54df 03bd 85f5 2cbe 3556 88bd
00000200: 8cea 983d 1f9d 8b3d eed2 37be f458 eb3d
00000210: b198 033e abcb abbd 15f3 ef3d cb53 30bd
00000220: 4376 15bd 287f 35be 4813 02bc 6f1e 10be
00000230: e858 553d 1777 8dbc a094 61bd 7705 e1bd
00000240: 874b 15be dcb3 123d 9bef 0f3d cf48 953d
00000250: c102 fdbd 8127 0f3e 473b 03be 4f99 d13d
00000260: 8ad2 bb3d 8538 fdbd 01dc 04bd f0df 29be
00000270: a7de ef3d 6451 d73b cdb9 3cbe 55a7 d4bc
00000280: b285 f03d de79 023e 802a 40be 86d6 1b3e
00000290: 8282 01bb 7947 39ba c610 a8bc 487f d7bc
000002a0: 40e2 67bd c2f8 9fbd c28d 84bd ec2a 793d
000002b0: b659 f33d b973 16be 1f33 1dbd 260c 45be
000002c0: 50c6 19bc b446 193e 0097 8f3d 03bf 1c3d
000002d0: 9b62 21be d023 deba 1fdd 1dbe f632 ed3d
000002e0: b989 34be e44b a1bd 49f5 e1bd 05c3 34be
000002f0: a1a8 fe3d f563 aebd 9cbf 713d 4a99 f1bd
00000300: 135f ecbb 56d0 3f3e e478 96bc 72e9 85bd
00000310: 0df6 a13d 03e8 1a3e bc1a ecba 54a5 aabd
00000320: 71f3 abbc 5603 67bd bfbb 98bd c0c1 cf3c
00000330: 9c54 183e ab62 423e 1c6b 4ebd e0e1 563d
00000340: c817 963d 7ff4 fd3c eb60 80bd cd6e eebc
00000350: 6d6a d13c 8680 1bb9 764f a2bc d434 d03d
00000360: df0b 203e 6c59 033e bc19 05be 02c9 f53d
00000370: f12f d73d 9c48 0cbd 3cbb dd3d 47d6 b73d
00000380: 660f 073e a4f1 27be 4c24 00bc 4e84 29bd
00000390: 0b3f f93d 2467 ff3c dc15 b43d ad9e 053e
000003a0: 0abe f3bc 60e9 2f3e 2645 02be 49c9 73bd
000003b0: 10ad d1bd d42b 8ebd bbfa 263d 6f0c 97bd
000003c0: 4fd0 09be 1ebb 96bd b30b b73d f20c c33d
000003d0: 5107 023e ffe7 e13d 9989 933d 09b7 1dbd
000003e0: 2fd3 a63d 9538 19bd 7ca7 71bd 1bd0 bb3d
000003f0: 2da4 643d a304 1d3e b993 8a3d 3f64 b3bd

bias f4 [32]
-0.105825655 0.020457823 0.15113692 0.100935854 -0.12362347 0.11872895 0.12345091 -0.15211815
0.034250185 -0.15985604 -0.072339244 -0.012284022 0.06201688 -0.0017437948 -0.013916278 -0.11494461
-0.097073644 0.07232943 -0.18695128 -0.15704654 -0.1575291 0.0980693 -0.047695268 0.06304227
0.059810255 -0.11535766 -0.17603794 -0.0736266 -0.14703284 -0.0137496665 0.029872265 0.15231271
00000000: 1fbb d8bd 2a97 a73c a3c3 1a3e 75b7 ce3d
00000010: 4d2e fdbd 2a28 f33d d5d3 fc3d dcc4 1bbe
00000020: ec49 0c3d 4db1 23be 9926 94bd ec42 49bc
00000030: 6905 7e3d 0b90 e4ba 1a01 64bc 1468 ebbd
00000040: 8cce c6bd 7421 943d 2870 3fbe cfd0 20be
00000050: 4f4f 21be 8fd8 c83d 1d5c 43bd 4e1c 813d
00000060: 99fb 743d a340 ecbd 4a43 34be 8bc9 96bd
00000070: c78f 16be 4846 61bc aeb6 f43c ddf7 1b3e
