train_script/weights/GANEdgeBased_model300new/86.pth (torch, 52331 bytes, 21 tensors)

weight f4 [32, 13]
00000000: 8e4d 0100 b576 0280 2ef0 0400 7b59 0180
00000010: c51f 0280 8a0c 0080 3902 0880 7243 0500
00000020: 5523 0000 07d8 0700 3a49 0080 69c3 0080
00000030: 5ac1 0400 4056 0280 3f8d 0500 76ed 0100
00000040: 4677 0280 5029 0300 ca60 0200 7948 0380
00000050: 6567 0100 d3ca 0080 6dc9 0700 4420 0280
00000060: f171 0180 17fa 0100 4295 0100 8547 0300
00000070: 4dbe 0500 22e3 0780 14c7 0400 12d3 0100
00000080: 5fca 0780 bb7c 0500 c3bb 0780 e3f9 0600
00000090: 2c0b 0200 4096 0380 496c 0380 cf79 0200
000000a0: 8ae5 0600 2107 0000 e426 0880 84cd 0180
000000b0: 7b12 0400 abb5 0400 c10b 0600 6b69 0180
000000c0: cdc8 0680 c580 0480 77cc 0780 d9de 0200
000000d0: 4d5c 0600 7a34 0400 5b23 0400 a956 0400
000000e0: 82ea 0380 4776 0600 6e09 0400 0d2a 0100
000000f0: c350 0700 b7f7 0380 3fa6 0100 6c85 0300
00000100: 20b6 0400 ca93 0400 09a4 0700 39eb 0700
00000110: a576 0380 9f29 0480 cb81 0380 a671 0700
00000120: 02aa 0600 fbe5 0600 c23f 0280 f9c3 0080
00000130: 1a3a 0080 2bc0 0100 8725 0700 af9b 0500
00000140: 407a 0280 2cd8 0500 456e 0100 8f04 0480
00000150: ac45 0380 b16b 0680 a9a9 0080 2c59 0780
00000160: e3d2 0680 b4b0 0400 7c8c 0580 e74d 0700
00000170: b327 0880 3451 0800 749f 0500 9c99 0780
00000180: 667d 0600 e9c2 0180 9038 0300 7657 0300
00000190: e327 0480 4095 0000 0901 0400 63d1 0700
000001a0: 927d 0400 07d3 0100 6fac 0580 0f4a 0000
000001b0: 367a 0080 691d 0300 97d9 0000 84a7 0480
000001c0: d550 0800 5e7b 0200 fe29 0080 8220 0300
000001d0: f400 0880 1a47 0780 ab77 0100 aecd 0700
000001e0: 2d3d 0800 87bc 0600 f57e 0400 9310 0700
000001f0: 137b 0500 98d0 0080 8404 0180 5a86 0580
00000200: 6ead 0380 f912 0680 b370 0380 fdc1 0600
00000210: 3e64 0300 31fd 0580 7c89 0300 1a8b 0080
00000220: cfc5 0500 2821 0400 68da 0000 4d32 0780
00000230: 3aeb 0780 c5fc 0000 1f22 0880 8ab5 0580
00000240: c431 0880 e9ef 0780 c7ef 0500 16f3 0080
00000250: 377f 0780 87c6 0700 2a7b 0280 24f3 0180
00000260: 5f6a 0700 994d 0280 7882 0380 1370 0500
00000270: a1e0 0380 1c1d 0100 a9af 0680 8ea5 0680
00000280: 9e08 0480 ffbd 0780 0fac 0000 823b 0180
00000290: 1901 0400 f407 0880 dcce 0780 6421 0700
000002a0: 5536 0080 bf33 0000 3d07 0780 de56 0700
000002b0: f7d9 0480 a131 0300 3a50 0680 d9a4 0300
000002c0: f8ac 0480 cecf 0200 59d7 0080 f9d4 0500
000002d0: e100 0000 3316 0400 0ce4 0300 d069 0280
000002e0: 6756 0400 f63a 0800 6766 0700 6c74 0080
000002f0: 9082 0180 3ed5 0300 9981 0480 75f3 0480
00000300: c493 0280 a489 0300 ee90 0400 4ea0 0280
00000310: 08ac 0780 5ee7 0080 581d 0800 a361 0480
00000320: 845f 0100 ec30 0400 020d 0500 bab4 0080
00000330: 5d09 0100 817a 0380 5e9e 0380 f102 0280
00000340: dfc6 0180 dbef 0280 4c06 0680 8cd6 0400
00000350: 1f0b 0880 5e4e 0180 f311 0200 8dbd 0200
00000360: fb8b 0700 6565 0700 b689 0600 3af7 0600
00000370: 800c 0380 56f1 0780 fbd3 0080 9982 0200
00000380: 4ba3 0500 b0c4 0780 9868 0380 4d77 0780
00000390: 7ab6 0300 c1f2 0280 f6f9 0580 e039 0100
000003a0: ce00 0180 d0e1 0300 9833 0880 e95d 0100
000003b0: 59bf 0600 c583 0780 de98 0400 3d0b 0680
000003c0: 8e2d 0000 114b 0580 c445 0180 23e2 0780
000003d0: aaa7 0480 08a0 0400 fc9d 0000 bdac 0680
000003e0: 7bb2 0000 48d3 0080 e87d 0100 b94f 0700
000003f0: f473 0280 522c 0380 1aed 0280 f786 0200
1.19657e-40 -2.26255e-40 4.53502e-40 -1.23935e-40 -1.95068e-40 -4.498e-42 -7.35481e-40 4.83372e-40
1.2675e-41 7.20344e-40 -2.6269e-41 -7.01e-41 4.36703e-40 -2.14612e-40 5.09847e-40 1.7702e-40
-2.26458e-40 2.90327e-40 2.18392e-40 -3.01505e-40 1.28926e-40 -7.276e-41 7.15106e-40 -1.95246e-40
-1.3271e-40 1.81551e-40 1.45379e-40 3.01163e-40 5.27445e-40 -7.24328e-40 4.38758e-40 1.67553e-40
-7.15446e-40 5.03922e-40 -7.10205e-40 6.40655e-40 1.87679e-40 -3.29406e-40 -3.14352e-40 2.27368e-40
6.33356e-40 2.557e-42 -7.48635e-40 -1.6556e-40 3.73972e-40 4.32512e-40 5.5523e-40 -1.29652e-40
-6.23047e-40 -4.13536e-40 -7.16197e-40 2.63614e-40 5.84124e-40 3.86167e-40 3.80025e-40 3.9843e-40
-3.59632e-40 5.93443e-40 3.70725e-40 1.0692e-40 6.7182e-40 -3.6437e-40 1.51473e-40 3.23369e-40
4.32676e-40 4.20359e-40 7.01693e-40 7.2723e-40 -3.18068e-40 -3.82273e-40 -3.22067e-40 6.83618e-40
6.12e-40 6.33514e-40 -2.06543e-40 -7.0302e-41 -2.0843e-41 1.60772e-40 6.56311e-40 5.15026e-40
-2.27526e-40 5.36725e-40 1.31393e-40 -3.68977e-40 -3.005e-40 -5.89645e-40 -6.0863e-41 -6.74837e-40
-6.26665e-40 4.30731e-40 -5.09574e-40 6.70795e-40 -7.48925e-40 7.63814e-40 5.16378e-40 -6.97953e-40
5.95997e-40 -1.61756e-40 2.95797e-40 3.06882e-40 -3.8165e-40 5.3541e-41 3.67713e-40 7.17962e-40
4.12388e-40 1.67538e-40 -5.21035e-40 2.6567e-41 -4.3841e-41 2.86057e-40 7.8057e-41 -4.27435e-40
7.63681e-40 2.27927e-40 -1.5064e-41 2.87168e-40 -7.35026e-40 -6.68355e-40 1.34764e-40 7.16632e-40
7.5663e-40 6.18644e-40 4.12886e-40 6.48794e-40 5.03328e-40 -7.483e-41 -9.3455e-41 -5.07374e-40
-3.37721e-40 -5.57819e-40 -3.15935e-40 6.20603e-40 3.11467e-40 -5.50005e-40 3.24827e-40 -4.99e-41
5.30138e-40 3.79236e-40 7.835e-41 -6.60893e-40 -7.27232e-40 9.0677e-41 -7.46924e-40 -5.24301e-40
-7.52537e-40 -7.28912e-40 5.45193e-40 -8.7203e-41 -6.88485e-40 7.14067e-40 -2.27854e-40 -1.79058e-40
6.81007e-40 -2.11508e-40 -3.2231e-40 4.99382e-40 -3.56088e-40 1.02278e-40 -6.14028e-40 -6.10403e-40
-3.70433e-40 -7.11006e-40 6.1723e-41 -1.13183e-40 3.67736e-40 -7.37537e-40 -7.17056e-40 6.54827e-40
-1.949e-41 1.8563e-41 -6.45445e-40 6.7401e-40 -4.45533e-40 2.9331e-40 -5.79793e-40 3.34643e-40
-4.29391e-40 2.58217e-40 -7.7252e-41 5.35578e-40 3.15e-43 3.75306e-40 3.57314e-40 -2.2163e-40
3.98337e-40 7.55835e-40 6.79584e-40 -4.1764e-41 -1.38672e-40 3.52003e-40 -4.13833e-40 -4.54678e-40
-2.3668e-40 3.24883e-40 4.19333e-40 -2.41177e-40 -7.04562e-40 -8.2999e-41 7.4521e-40 -4.02367e-40
1.261e-40 3.84892e-40 4.63844e-40 -6.4832e-41 9.5194e-41 -3.19453e-40 -3.32318e-40 -1.84726e-40
-1.63177e-40 -2.69715e-40 -5.53272e-40 4.44307e-40 -7.38673e-40 -1.19948e-40 1.9011e-40 2.51669e-40
6.93064e-40 6.79222e-40 6.00414e-40 6.39701e-40 -2.7999e-40 -7.29423e-40 -7.6044e-41 2.3052e-40
5.17756e-40 -7.13407e-40 -3.13028e-40 -6.85646e-40 3.40967e-40 -2.70755e-40 -5.48847e-40 1.12597e-40
-9.2124e-41 3.56513e-40 -7.53192e-40 1.25524e-40 6.19656e-40 -6.90118e-40 4.2218e-40 -5.55045e-40
1.6342e-41 -4.86106e-40 -1.16863e-40 -7.23971e-40 -4.27489e-40 4.2475e-40 5.6674e-41 -6.1298e-40
6.4027e-41 -7.5793e-41 1.37002e-40 6.71448e-40 -2.25267e-40 -2.91406e-40 -2.68727e-40 2.32087e-40

bias f4 [32]
00000000: 5c63 70be 5c01 5bbe 7ee5 24be 4bba 173d
00000010: 74a1 01be a9c2 d1bd a3d5 26be 8e60 053d
00000020: 042b 84bd 0f8a c0bb 5dcb c43d 4892 b3bd
00000030: 7d38 83bc 693a 873d de70 c8bc 4ce0 573e
00000040: c972 883d a5ec 303e f5a1 47be f5dd 06be
00000050: bef0 90bd 3d9d b63d 9278 b5bc 7cc4 663e
00000060: f608 3f3d d9bb 3f3e 8ef4 5dbe f2cd b83d
00000070: 782a 6f3e eb57 a03c ef5f 70bd b462 4dbe
-0.23475403 -0.21387237 -0.1610317 0.037042897 -0.12659246 -0.102422066 -0.16292433 0.032562785
-0.06453517 -0.005875833 0.09609101 -0.08768135 -0.016018147 0.06602938 -0.024467882 0.21081656
0.066625185 0.17277773 -0.19495375 -0.13170607 -0.07077168 0.089167096 -0.022152219 0.2253589
0.046639405 0.18724002 -0.21675321 0.09023656 0.23356044 0.019573173 -0.05868524 -0.20057184

weight f4 [32, 13]
00000000: 5b41 99bd 22e1 453e 5a96 8cbe 7525 7fbe
00000010: 51ab a3bd cc83 1fbe f39c 6a3e b8dc 2dbe
00000020: 2e1e 9dbd 0a51 803e 1e03 183e fb6c 093e
00000030: 2ed9 dfbd 09fd 8b3e 3adc 433e 5f73 173e
00000040: ae11 b93d 490b 2bbe a4cb 9abd fd77 773e
00000050: 6a4d 6dbe 47a6 d7bd 7135 cf3c 3904 983d
00000060: 013b 5abd 4ed8 5cbe 26a9 3f3e 0886 7fbe
00000070: b55f efbd d240 7b3d 8026 4ebd 02ee b6bd
00000080: 1745 3dbe caf9 813d cad5 813e 444e 3e3c
00000090: eb69 4b3e d1a6 5fbe 669b 8d3e 5b33 26bc
000000a0: 9cfc fcbb ceef 4a3e fd97 4a3e 2b54 4e3e
000000b0: 0a6a 2b3c 0617 483e 54f1 05be efa1 073e
000000c0: d728 26be 8be8 81bd 49c2 343e 3df5 893c
000000d0: 0663 75bc 3d19 2e3e e801 36be 36b7 5ebe
000000e0: 0163 063e 59bf 3d3e 70ad 323d cdcb 81be
000000f0: faf8 1f3e 29fd 713c 9356 5d3e 5f53 7f3e
00000100: c51c e2bc 91de 733e dde8 193d 7080 c43d
00000110: faa6 60be a744 5abe 1e55 363e abdd 463d
00000120: f73d 9cbd a096 3b3e 5f3b dfbd 64bb db3d
00000130: 5d24 86bb 4107 463e a078 72be b1d7 033d
00000140: 6ad0 233d ed28 ce3d 559e 823e f8e5 353e
00000150: d5b9 303e 2e33 3fbe a008 353e b522 8dbd
00000160: 7221 aa3d acc1 ccbd 2f31 673e 987b 4ebe
00000170: d247 d63c 1d0a 573d eb60 b4bd 328f 263e
00000180: 3392 353c 36fe 043e bc18 7d3e f4c7 cf3d
00000190: 2968 b9bc 2068 523e c664 e43d dd02 453d
000001a0: f2ab 303d 9208 523d 8005 103e 83ea 2dbe
000001b0: 2330 6abe 8ca3 943d f9ef d63d 4ca7 61be
000001c0: 1bba 0abe 1bd2 4fbd 5e82 fdbd 1046 2d3d
000001d0: 932e cf3c 3fe2 253e 0eac e43c 600e 3dbe
000001e0: b95f 48bd de37 2bbd 68f1 febd 741a f3bd
000001f0: b7a9 503e 7a35 48be b17e 073e 1bb5 84be
00000200: 96b4 5e3e c306 25bd 3fd9 4b3e d236 07be
00000210: 8959 87bc 0385 193d 2900 8ebe 4b47 babd
00000220: 62ff 7ebd e163 5a3c e148 5dbe 67d1 a2bd
00000230: 9b4c 3ebe bb2f 07be f397 373d b74c 553e
00000240: dc92 513e f4ce 663e d504 07be fe15 1abe
00000250: e2ec 323d bf78 743e 50ec 7dbe 47f3 da3d
00000260: 5c3d 453e 8e6e 63be a47f 81be f907 293e
00000270: 3f31 153d de40 683e a398 3abe 04ee 37be
00000280: 1fbd 63be f56a 17be 5cb1 2ebd 180b 8fbc
00000290: fbdc 6d3e 3e23 73be 4961 b0bc 1257 7fbe
000002a0: bcb7 f33c 0770 8e3c 2a2b a03d 9e29 733e
000002b0: f0e5 d0bb 3f0f f33c 752b 5a3e fe44 33be
000002c0: 5124 2c3d 08ec 3ebe 4829 83bd ba46 883e
000002d0: ccd2 833e 7835 0f3e d3a2 24bc b380 b3bd
000002e0: bae9 b03d 3dd0 1e3e 2410 5fbc 27bc 65bc
000002f0: 4e4a e83d a5f8 1b3e 059c c33b 44dc 5ebe
00000300: d39b 393e acae 853e 4eda 493e 444e 0b3e
00000310: cde3 8abe 1b7d 20be 583c f5bc 43dd d3bd
00000320: cf38 46be ec8e ecbd 522f 843e dcc2 8dbd
00000330: 9ef3 503c 3b62 70bd 27e5 77be 47d6 23be
00000340: c91d 723e b10d bb3c f352 3fbe 2c1d 013d
00000350: 3bcd 643e e81e 12be e407 383e 9690 153e
00000360: 57cb 3ebe 1f15 4b3e c7d6 a13d bd94 f2bd
00000370: 412e b83d f8db 303e c9c5 933d 0d59 80be
00000380: cd34 8abe 51ac 2dbe 971c e0bd 2b5c 6cbe
00000390: 20e2 a73d 9553 6abe 6844 003d 749b 8a3e
000003a0: e06e 7bbe b14f ca3d 30a3 df3d 7808 2d3d
000003b0: ad4d 50bd 1977 26bd ef45 a83c 4f1b 6cbe
000003c0: 564f 43be cd51 e7bc 5892 3bbe 673c 3cbd
000003d0: 75c2 9bbd 38b9 e7bc 3c80 bf3c 421b 3b3e
000003e0: 59ca 73be f5ad 6a3d 7c0c b73d b552 a23d
000003f0: 594b 243e c7ab 0b3e 786b 3e3e 80c0 ffbd
-0.07483169 0.19324163 -0.2745846 -0.24916632 -0.079916604 -0.1557762 0.22911434 -0.16978729
-0.07671772 0.25061828 0.14844939 0.13420479 -0.109300956 0.27341488 0.19126979 0.14790104
0.09036575 -0.16703524 -0.075583726 0.24166866 -0.23174062 -0.10529762 0.025294038 0.074226804
-0.053278927 -0.21566889 0.18716869 -0.24953473 -0.116881765 0.061341114 -0.050329685 -0.08932115
-0.18483387 0.063464716 0.2535842 0.01161534 0.19864623 -0.21840979 0.27657622 -0.01014408
-0.007720543 0.1981804 0.19784541 0.20149295 0.010462293 0.19540033 -0.1308034 0.13245367
-0.16226517 -0.06343182 0.17652239 0.016840572 -0.014977222 0.17001815 -0.17774165 -0.21749577
0.13123704 0.18530025 0.043622434 -0.253508 0.15622321 0.014769831 0.21615057 0.24934147
-0.027601609 0.23815371 0.03757559 0.0959481 -0.21938697 -0.21315251 0.17805907 0.048551243
-0.07629006 0.18319178 -0.10899996 0.10729101 -0.0040936903 0.19338705 -0.23678827 0.03218812
0.03999368 0.100664 0.25511423 0.17763507 0.1725839 -0.18671867 0.17679071 -0.068913855
0.083071604 -0.099978775 0.22577356 -0.20164335 0.026157293 0.05249988 -0.08807548 0.16265562
0.01108222 0.12987599 0.24716467 0.1014556 -0.022632675 0.20547533 0.111520335 0.048098434
0.04313273 0.051277705 0.14064598 -0.1698399 -0.22869925 0.072577566 0.1049499 -0.22036475
-0.13547556 -0.05073748 -0.12378381 0.042303145 0.025290763 0.16199587 0.027914073 -0.18462515
-0.048919413 -0.041801326 -0.12448388 -0.1187028 0.20377241 -0.1955165 0.13231923 -0.25919423
0.21748576 -0.04028965 0.19907092 -0.13204506 -0.016522186 0.037480365 -0.27734497 -0.09095629
-0.06225527 0.013329477 -0.21609832 -0.079500966 -0.1858391 -0.13201801 0.044822644 0.20830046
0.20466179 0.22539884 -0.13185437 -0.15047452 0.04368294 0.23874186 -0.24797177 0.10690933
0.19261688 -0.22210142 -0.25292695 0.16506948 0.036423918 0.22680995 -0.18222289 -0.1796189
-0.22240113 -0.14786895 -0.04264961 -0.017461345 0.23228829 -0.23743913 -0.021530764 -0.24935558
0.029750697 0.017387403 0.07820733 0.23746344 -0.006375067 0.029670356 0.2130564 -0.17506787
0.04202682 -0.18644726 -0.06404358 0.2661646 0.25746763 0.1398524 -0.010048586 -0.08764782
0.0863833 0.15509124 -0.013614688 -0.01402191 0.113422975 0.15231569 0.0059695267 -0.21763712
0.18125848 0.26109827 0.19712183 0.13604075 -0.27126923 -0.15672724 -0.029936 -0.10344937
-0.19357608 -0.11550698 0.25817353 -0.06921932 0.012753395 -0.05868743 -0.24208508 -0.15999709
0.23644175 0.022833677 -0.18683986 0.03152196 0.22343914 -0.14269602 0.1797176 0.14605936
-0.18632255 0.19832276 0.07902294 -0.11844776 0.08993197 0.17271411 0.07215459 -0.2506794
-0.2699341 -0.16960265 -0.10942953 -0.23082034 0.08197427 -0.22883447 0.031315237 0.27071726
-0.24554014 0.09878481 0.109197974 0.042244405 -0.050855327 -0.040640924 0.02054116 -0.23057292
-0.19073233 -0.028237248 -0.18317544 -0.04595604 -0.07605449 -0.028286561 0.023376577 0.18272117
-0.23807658 0.057294805 0.08937928 0.07925931 0.16044368 0.13639747 0.18595684 -0.12487888

bias f4 [32]
00000000: 31eb ffbd e824 35bc 1d4c 9bbd 750c 84bc
00000010: 614b 03bd d169 b43d d6e1 45be 2ff2 f93d
00000020: c9e4 cdbd e673 c2bc 2160 2dbe 5d7f 35be
00000030: c343 3abe dad2 303e 7446 0b3e 267c dbbc
00000040: 6b7f cd3d e90f 56be 5196 313e e4ba 1ebe
00000050: 9024 e1bb 8423 0ebe fd3e 3d3c 0c47 383e
00000060: 39fa 7d3c d77d 37be 9914 553e 2754 64be
00000070: 9c7e 22be cb46 2cbe 144a 703e d2f2 513e
-0.12496031 -0.011056162 -0.07582877 -0.016119221 -0.03205431 0.088092454 -0.19324431 0.12204396
-0.10053403 -0.023736905 -0.16931202 -0.17724366 -0.18189912 0.17267933 0.13601094 -0.026792597
0.10034069 -0.20904507 0.17342497 -0.1550098 -0.0068708137 -0.13880736 0.011550662 0.17995852
0.015501552 -0.17919098 0.20808639 -0.22297727 -0.1586861 -0.1682388 0.23465759 0.20502785

weight f4 [13, 13]
00000000: 068e 0000 cd96 0300 71ca 0180 fa46 0180
00000010: 7644 0800 6057 0580 4ae9 0380 c417 0700
00000020: d9f2 0180 0a73 0200 717a 0500 5863 0180
00000030: 34c8 0180 ebfc 0700 9f5b 0080 a426 0100
00000040: 3c71 0080 3f5f 0780 b95e 0380 d8d4 0480
00000050: a292 0380 f3f4 0300 4a01 0800 1b9b 0480
00000060: 20a7 0580 eb84 0280 1b91 0480 a3b6 0500
00000070: 6735 0880 51c4 0300 4eb4 0000 455f 0100
00000080: 0999 0180 5bb3 0000 832e 0880 f405 0180
00000090: c489 0500 a915 0000 565a 0800 b40e 0200
000000a0: 92b2 0480 8da1 0700 2dfd 0080 7848 0880
000000b0: dead 0180 6103 0400 48d5 0180 c229 0480
000000c0: 1e4a 0300 b36e 0700 76a7 0380 f693 0500
000000d0: 6c75 0180 2f2f 0880 8bfe 0700 41ef 0780
000000e0: 70cc 0180 5ced 0600 26e7 0400 0473 0100
000000f0: d65b 0000 be26 0000 d829 0780 29ba 0580
00000100: 76d6 0700 d671 0400 842a 0800 02ed 0400
00000110: 91b2 0200 4177 0080 6609 0480 1a57 0580
00000120: 45ef 0380 5a60 0580 db29 0700 bba0 0280
00000130: 3482 0080 251b 0400 f603 0780 2f89 0380
00000140: 5fe7 0600 f8af 0700 f653 0680 f02f 0700
00000150: 9745 0600 d122 0280 3e95 0200 63cc 0700
00000160: 4c32 0580 30a6 0780 d696 0000 1533 0280
00000170: 9be0 0700 7682 0100 77e7 0680 4f20 0700
00000180: d558 0280 b98d 0780 d9cd 0300 d0f4 0500
00000190: bcc0 0100 64a9 0080 8311 0300 a79d 0180
000001a0: 1c99 0700 1a37 0000 1f2f 0700 4187 0600
000001b0: 31ad 0200 1748 0280 8bf7 0180 cda0 0780
000001c0: 74a2 0000 a88a 0180 b40d 0500 967a 0380
000001d0: d5f5 0300 a560 0080 b5f9 0680 f89f 0100
000001e0: 6408 0700 9e6b 0000 a4d1 0700 0b7c 0700
000001f0: 950c 0180 464c 0780 b713 0380 ccad 0600
00000200: fb31 0080 bcdd 0300 ae3f 0300 0ec2 0280
00000210: 4d07 0500 5457 0080 a761 0200 20ff 0580
00000220: ec72 0480 dddc 0700 f490 0700 b645 0480
00000230: 3541 0480 6e92 0780 5bd5 0000 b701 0680
00000240: 2940 0400 f8c5 0280 1292 0080 db8a 0180
00000250: bf24 0180 1fe9 0780 9daf 0400 e70c 0000
00000260: 35d3 0780 d272 0500 44bd 0180 211a 0180
00000270: 3adf 0780 8604 0480 c16b 0780 0584 0300
00000280: ec1d 0380 237c 0600 a737 0680 b05a 0480
00000290: fc89 0180 9bbd 0680 6e44 0000 8000 0800
000002a0: 16d8 0400
5.0948e-41 3.29604e-40 -1.64458e-40 -1.17297e-40 7.59243e-40 -4.90522e-40 -3.59195e-40 6.51374e-40
-1.78953e-40 2.24939e-40 5.03101e-40 -1.27473e-40 -1.63655e-40 7.33578e-40 -3.2867e-41 1.05697e-40
-4.0621e-41 -6.77016e-40 -3.09487e-40 -4.43696e-40 -3.28108e-40 3.63378e-40 7.35146e-40 -4.22983e-40
-5.1913e-40 -2.31353e-40 -4.19396e-40 5.24695e-40 -7.53841e-40 3.45932e-40 6.4681e-41 1.26012e-40
-1.46734e-40 6.434e-41 -7.51369e-40 -9.3971e-41 5.08598e-40 7.77e-42 7.6709e-40 1.88945e-40
-4.31401e-40 7.00802e-40 -9.0822e-41 -7.60681e-40 -1.54207e-40 3.68554e-40 -1.68346e-40 -3.82322e-40
3.02095e-40 6.8256e-40 -3.3558e-40 5.12256e-40 -1.33959e-40 -7.5161e-40 7.34161e-40 -7.28677e-40
-1.65174e-40 6.36161e-40 4.50262e-40 1.33095e-40 3.2945e-41 1.3898e-41 -6.57859e-40 -5.25959e-40
7.19783e-40 4.08179e-40 7.49936e-40 4.52364e-40 2.47729e-40 -4.278e-41 -3.70714e-40 -4.90424e-40
-3.6134e-40 -4.93742e-40 6.57863e-40 -2.4133e-40 -4.6708e-41 3.7708e-40 -6.4427e-40 -3.24719e-40
6.34013e-40 7.05974e-40 -5.81132e-40 6.60045e-40 5.75977e-40 -1.96161e-40 2.37209e-40 7.16169e-40
-4.7722e-40 -7.02465e-40 5.411e-41 -2.01996e-40 7.23422e-40 1.38636e-40 -6.34047e-40 6.54439e-40
-2.15538e-40 -6.93689e-40 3.49351e-40 5.47e-40 1.60976e-40 -6.0766e-41 2.81789e-40 -1.4839e-40
6.97774e-40 1.9767e-41 6.59752e-40 5.99533e-40 2.458e-40 -2.09532e-40 -1.80637e-40 -7.00533e-40
5.8277e-41 -1.41576e-40 4.64093e-40 -3.19482e-40 3.63694e-40 -3.467e-41 -6.40591e-40 1.49221e-40
6.45858e-40 3.8606e-41 7.18053e-40 6.87347e-40 -9.6349e-41 -6.7021e-40 -2.82579e-40 6.1336e-40
-1.793e-41 3.5505e-40 2.9835e-40 -2.53285e-40 4.61797e-40 -3.1327e-41 2.18702e-40 -5.50699e-40
-4.08568e-40 7.22079e-40 6.94848e-40 -3.9235e-40 -3.90734e-40 -6.95378e-40 7.6538e-41 -5.51628e-40
3.90358e-40 -2.54689e-40 -5.24e-41 -1.41647e-40 -1.05018e-40 -7.26477e-40 4.3034e-40 4.628e-42
-7.18615e-40 5.00367e-40 -1.59731e-40 -1.01209e-40 -7.22927e-40 -3.68965e-40 -6.81503e-40 3.22866e-40
-2.8624e-40 5.95545e-40 -5.70977e-40 -3.99875e-40 -1.41335e-40 -6.1903e-40 2.4548e-41 7.34863e-40
4.44859e-40

bias f4 [13]
00000000: fcd8 6d3e 369d 49bd 81fc a53b c2d6 8c3c
00000010: 155a 8d3e fc18 413e c59d 79bd a69f 0cbe
00000020: b675 5c3e 7d4a 4abe 8e5a 6b3e 6bb5 12be
00000030: c17c cfbc
0.23227304 -0.049222194 0.005065501 0.017192248 0.2760779 0.18857187 -0.060941476 -0.13732776
0.21529278 -0.19754978 0.22983763 -0.14327018 -0.025328042

weight f4 [32, 13]
00000000: 5dc8 88be c0d2 8dbe e190 043e 49c2 343e
00000010: 6117 473e dfba 843e ae32 92bd e2ca 663e
00000020: d81c 323e 5580 333e f11a 773e 8f56 0cbe
00000030: cec6 dcbd 0175 90bc e919 153e 8931 47be
00000040: bcc7 6bbe 6d84 ab3d a66f 2ebe f351 50be
00000050: 7648 273d fe4c 1fbd bdf7 74be 12bb d73c
00000060: 7d4e 54bd 2487 9dbc b6b1 64bd a8a4 d13d
00000070: 0048 3ebe 7f3b 2dbe 6d9c 753e 4282 623e
00000080: 66ce 5d3e dcbb c93d bef6 f13d 4daa 80bd
00000090: a6e0 f23d 75e5 afbd 4065 e93d a32c 16be
000000a0: 3195 253d 7b8b 7b3e ace6 f93d 6f86 57be
000000b0: 6866 0fbe e10a 213e 5e94 313e 9365 10be
000000c0: 542d 123d 3bd9 963d 3738 d93d c712 493e
000000d0: c3d9 513e 7a88 373e 61c2 9f3e 4a78 58bc
000000e0: f22e 04be 1c40 be3d e4d1 90b9 83df 16be
000000f0: 326c 053e 3ae4 14bd 5e2f 353e 9315 a03c
00000100: 3197 25be 2cf9 833e 3c6f ffbc 10b4 a33e
00000110: 2a0b acbd f282 9a3e 1fcf 5c3d f127 b83d
00000120: c0f5 353e e2f5 53be 1cdf 52be 74fd 74be
00000130: e9dd 1dbe 1319 ec3b 58f3 8bbe b027 183e
00000140: e032 2d3e 3125 8c3d 0f4b 0d3d 171a 1cbe
00000150: eb6f 433e 4bf2 47be 777d 94bd 964e dbbd
00000160: 279a 003d 7308 a9bb 1a34 6d3e 50ce d63d
00000170: 979f 6f3e b920 dfbd ea30 c33d 4df8 c4bd
00000180: a226 3abe 2fd4 80be 2d3a dcbc 0e30 2b3e
00000190: 13db 1a3e 3e6f 9bba 2654 873d d0d8 e8bc
000001a0: a3b1 9c3e 99cd 793e a28e 80bd 37a4 4dbe
000001b0: f816 ea3d 767d f33d ead7 1dbc 54bd 2ebc
000001c0: a891 503e 4394 923b 4fba 27be 00b4 053c
000001d0: df13 473e 5217 d93c 2930 fabd be1d d8bd
000001e0: 6103 61be db1f 6f3e 084d e3bd f9e0 573e
000001f0: 691f fa3d 7501 31be d7f4 70be 703c 023e
00000200: fe87 ad3d 92fb 4e3d 690b 1c3d 55bb 4e3e
00000210: 9caa 98be be08 31be 9da9 3d3e 13f7 54be
00000220: eee1 e93d 6f51 993d c8f7 39be eeda 0fbe
00000230: 6db1 8d3d b009 dcbc 73c3 e93d 0cfd 8bbe
00000240: 8c38 5c3e 5b52 053d bcb9 bcbc f072 94be
00000250: 8faa 01be 42c2 253e cdc4 f0bc c3a3 fe3d
00000260: fbdb c03d 301e 5bbe bd3c b63d 0bdf db3d
00000270: 4aac ad3d e3c3 853e 8f2d 08be 43e0 3dbb
00000280: 145d 7ebd 77e5 c4bd 5a1a 7c3e c736 8f3c
00000290: b386 b73d 2a77 123e 7b10 643e cfd9 02bb
000002a0: 7ab1 69be 04ac 713e 223e 2dbe 6e76 a2be
000002b0: d548 4dbe e217 ffbc 6d7b 243e 74a8 e63c
000002c0: dd23 82be d51f 72be 68c6 a3bc f96b 863d
000002d0: 8c03 513d 4ce7 273e 0584 633e 14b7 233e
000002e0: 5064 60be 1bb4 a4bc d09b 263e 637f 03be
000002f0: 7ba6 ef3d 0823 6abe 16cd 793d 6028 2f3d
00000300: d9b3 573e 97dc a83c e11e 74be b130 9fbd
00000310: 116b 16be 3cf2 9c3d 394b a73d 9a6f 663d
00000320: 0159 1fbe 9688 8d3e b31a 483e f39f 373d
00000330: 14d7 61be 0f9f 51bd 4b86 0e3e 18af e03c
00000340: edfe 783e 1190 2e3e 02a4 52be a5a1 483e
00000350: cfc8 323d 533e 6ebd f93d 303e d850 15bd
00000360: dd33 113e ce49 bd3d 6201 9ebd c4d9 4a3d
00000370: 91a6 3abe c7a3 973e 387d 143e fafa 103e
00000380: bf8b f23b a82b fbbd f3a4 d2bd 3d27 603d
00000390: 9db9 81be 5598 1ebd 95e5 2d3e f4da 47bd
000003a0: ddf3 42be e16f 873e a632 a43d 2c9e 66be
000003b0: de44 d4bd eb20 d6bc e852 8ebe 7de4 833d
000003c0: 1526 263e 62a4 3cbe 22f2 143e e35c 10be
000003d0: 6e51 b23d 9162 333e 5b6f 053e b0dd 963e
000003e0: f061 f73d 3700 68bd 24cf 893d a1da febd
000003f0: 8489 7b3e 64cf 83be 0afa 80bc 74bf d63d
-0.26715365 -0.27699852 0.12945892 0.17652239 0.19442512 0.2592382 -0.07138573 0.22538331
0.17393816 0.17529424 0.24131371 -0.13704894 -0.107801065 -0.017633917 0.14560665 -0.1945249
-0.23025411 0.083748676 -0.17034778 -0.20343761 0.04084059 -0.038891785 -0.2392263 0.02633432
-0.051832665 -0.01922948 -0.05583354 0.10236484 -0.18582153 -0.16917227 0.23985453 0.22120002
0.21660766 0.098502845 0.118146405 -0.06282482 0.118592545 -0.08588687 0.11396265 -0.14665465
0.040425483 0.24564926 0.122022 -0.21047376 -0.14003909 0.15726806 0.17341754 -0.14101247
0.03568776 0.07365652 0.10606425 0.19636069 0.20493226 0.17923155 0.31202987 -0.013212273
-0.12908533 0.09289572 -0.000276222 -0.147337 0.13029554 -0.036350466 0.1769385 0.019541537
-0.16170956 0.2577604 -0.03118097 0.31973314 -0.08400567 0.30178028 0.053908464 0.08991993
0.17769527 -0.20699266 -0.20592922 -0.2392481 -0.15416683 0.0072051375 -0.27334094 0.1485889
0.16913939 0.06843031 0.03449541 -0.15244327 0.19085662 -0.19526021 -0.07250493 -0.107083485
0.03139701 -0.005158478 0.23164406 0.1048857 0.23400722 -0.10894913 0.09530814 -0.09617672
-0.181788 -0.25161883 -0.02688321 0.1671755 0.15122633 -0.0011858714 0.06607847 -0.028423697
0.30604276 0.24394836 -0.06277205 -0.20082174 0.11430162 0.11889164 -0.009633997 -0.0106652565
0.20368063 0.0044732406 -0.16379665 0.008160591 0.19441174 0.026500378 -0.12216217 -0.10552548
-0.21973945 0.23351996 -0.11098677 0.21081914 0.12213022 -0.17285712 -0.23530899 0.12718368
0.08473204 0.050532885 0.03809682 0.20188649 -0.29817665 -0.17288491 0.18521734 -0.20797376
0.11420046 0.07486235 -0.18160927 -0.14048359 0.06918607 -0.026860088 0.11414232 -0.27341497
0.21505946 0.032549243 -0.023037784 -0.2899394 -0.12662719 0.16187385 -0.029390717 0.12433579
0.09416958 -0.21398234 0.08898304 0.107359014 0.08480127 0.26126012 -0.13298629 -0.0028972782
-0.062100485 -0.096140794 0.24619427 0.017482175 0.08961239 0.1430327 0.22271912 -0.001996625
-0.22821608 0.23600775 -0.16918233 -0.3173098 -0.20047314 -0.031139318 0.16062708 0.028156497
-0.25417987 -0.23644955 -0.019992068 0.06563563 0.051028773 0.16396827 0.2221833 0.15987808
-0.21913266 -0.020105412 0.16270375 -0.12841563 0.117016755 -0.22864926 0.0609866 0.042763114
0.210647 0.020612998 -0.23839904 -0.07772959 -0.1468928 0.0766339 0.081686445 0.056258775
-0.15561296 0.2764327 0.19541435 0.044830274 -0.22054702 -0.05117708 0.13918416 0.027427241
0.24315996 0.17047144 -0.20570377 0.19592912 0.043648537 -0.058164906 0.1721114 -0.03645405
0.1417994 0.09242593 -0.077151075 0.049524084 -0.18227603 0.2961714 0.14500892 0.1415824
0.007401913 -0.12264186 -0.10285368 0.05472492 -0.25336924 -0.038719494 0.1698211 -0.048792794
-0.19038339 0.26452544 0.08017473 -0.22521275 -0.10364698 -0.026138743 -0.27797627 0.06440065
0.16225465 -0.18422082 0.14545491 -0.14097933 0.08706938 0.17518069 0.1303076 0.2946601
0.12079227 -0.05664083 0.06728962 -0.12444044 0.24564177 -0.25744164 -0.015744228 0.104857355

bias f4 [32]
00000000: 9c74 653e 1ed5 82be 9a95 29bd 8dc8 4f3d
00000010: 9d78 d3bd b127 99bd d387 e4bd b483 4cbe
00000020: 696b 023e 2d5d 263e 8cf4 253e 7d52 8d3b
00000030: 0ef6 17be 1b40 603c 5022 de3d 8bc6 263e
00000040: 900f 2a3c 8d90 b73d 8566 603e dbe1 3e3e
00000050: a4a7 35bd 2a2d cebb a432 70bd 6aa2 53be
00000060: f251 73bd 85aa 443e d4d6 0ebe 2549 9fbc
00000070: f1a5 0f3e 7339 f23d ba80 533e 9dfc 7ebd
0.22407764 -0.2555322 -0.041402437 0.05072837 -0.103257395 -0.07478274 -0.11158719 -0.19972116
0.12736286 0.16246481 0.16206568 0.004312812 -0.14839956 0.013687159 0.10846388 0.16286676
0.010379687 0.08963118 0.21914108 0.18640845 -0.044349328 -0.006292005 -0.058642045 -0.20667425
-0.05940432 0.19205673 -0.13949138 -0.019444058 0.14028145 0.11827364 0.20654574 -0.06225263

weight f4 [32, 64]
00000000: 3ab2 0f3c 4d5b c43d 0eef f33c 0652 c03c
00000010: 01f3 babd 9875 c43c e9f8 d93d 2ef6 91bd
00000020: 2b9f 3e3c 3b13 a33d 2934 e3bd e1a8 a33d
00000030: 5129 c13d 95bf 993d 9dbd a4bc 0e1c bfbb
00000040: 0f0a 7b3c cc7d ca3d 6073 e6bd b158 5b3b
00000050: 6135 813c e7cd c13d 76c5 2fbd e0be 9cbd
00000060: 2658 d33d 6b9b 7cbd 03cf 0fbe f0b4 ad3d
00000070: ef54 ba3c 39d5 173d d750 fe3c 42e5 bcbd
00000080: ed29 b6bd e583 2cbd e5f5 ffbc bf40 abbb
00000090: 5d7a b2bd 729c 8b3d 6880 fabc ce84 9fbc
000000a0: df05 5f3d 6113 a8bc 0416 b63c 561c 893d
000000b0: aa9c 09be d69f d1bd ba42 cc3d 58e7 a83d
000000c0: 0762 1e3d af06 a23d cb39 28bb 91ca ec3c
000000d0: 4c57 893d 3bab cbbd ee99 ffbd c0e9 9b3d
000000e0: 5e55 38bd f6c7 c33c 4cb9 edbd fd05 85bd
000000f0: 0845 09bd 2aa1 c7bc c23f 67bd bac7 f7bd
00000100: 4aa4 b03d 6074 ebbd c29e d7bb 60c1 58bd
00000110: a0c1 4cbc 698e 993d c24c cc3d 5ca2 4a3c
00000120: 0d83 a5bd f1ab 69bd d749 27bd 3691 7fbd
00000130: 3c76 adbd 7438 7bbd e034 3fbd 84a5 a73c
00000140: 4f54 9dbd 9d5a 983d b51a dc3d 6a53 ffbb
00000150: fc9d 9e3d d8aa 983d 12ee b13b ce74 b0bd
00000160: e758 713d 60f1 a23d 5d32 d03c dca0 3ebd
00000170: bc2d ebbc 9ce2 87bc 4fed 183d 38d2 58bd
00000180: a314 b6bd cb15 343d 20f6 2abd 3c78 2ebb
00000190: 7894 ca3d 376a aa3d eeee bfbd 4246 883c
000001a0: bd57 913d 8c0f 043d 188a 54bd e3db 0f3d
000001b0: 9572 e23c 6284 adbd bf22 abbd 68bc 313d
000001c0: fc22 04bd e176 833b 75c8 8abd f1a1 833d
000001d0: 492f aa3d 4978 7abd 830d 703d 0830 ad3d
000001e0: 3fdf e93c 4e19 2a3d 2575 5cbd 26a7 2abd
000001f0: c529 0abe bb18 fdbd 805e b1bd c5c7 f7bd
00000200: 537b d13d aaaf 3ebc 6dd5 2b3d cd10 04bd
00000210: dc99 8abd bedc fd3c 8f39 a0bd 910d d43b
00000220: 0087 c0bd f850 73bd 7b9e a7bb 7b5c 923c
00000230: 25f6 d6bd 11c8 79bc 8525 c9bd d6db 033d
00000240: 6e5c 7bbd 6178 2bbd 1c15 b73c 0f22 6abd
00000250: 9049 56bd a707 c8bd ae18 093c c63b b5bc
00000260: bba5 ebbd c29c c73d eb3a 8a3d e730 8abc
00000270: 8951 f63b 1347 99bd 7980 bebc a224 b93d
00000280: 2f70 8dbd 7161 e83d 8001 3fbd f6c9 073b
00000290: 6bb7 143d 03f5 493d a42b 393d d406 8a3c
000002a0: 089e b1bd e581 e6bd c8a8 e73c dd0e 27bd
000002b0: 6867 083e 14d2 05bd 12b3 3fbd 2276 813d
000002c0: d3f6 75bd 4402 67bd 1408 b1bd ba5e ebbd
000002d0: 7572 5bbd 7b9f dd3d d80d d53d ce1e 623c
000002e0: de7e ac3b 95e1 f9bc 76e9 d1bd 1b57 cf3d
000002f0: 0557 36bc dc73 873b 9196 5ab9 ede3 5abd
00000300: 77e7 de3d 3519 c9bd ad7d 153d 7475 b5bb
00000310: ef8c fe3b a97d a33c 84bf 28bc 3db3 8cbd
00000320: cf36 d5bd 9391 cabd 9006 883d e5aa 873d
00000330: b62e b93d f56e 6ebb 00fe ecbc a352 f3bd
00000340: 60da b73d c9bd 4a3d c022 5f3d d249 b13d
00000350: cd95 b8bd 837a fcbd 9abc 533d 3f97 cbbc
00000360: 7ee9 503c 1a86 f23c a1c2 103d 525d f13d
00000370: 73de 5bbc f8f8 88bc 93d8 323c c423 c63d
00000380: 085e 803c 53f2 3bbd 6d22 493c d60e 823d
00000390: e03a f53c f0e3 f1bd 987d 26bd d961 243d
000003a0: 1558 04bd 09b0 e63b 3b5f 98bd 4b1f 823d
000003b0: 9dc2 363c ee40 9f3c b951 4d3d ee18 97bd
000003c0: c9f2 b23c 2ad5 70bc 4af0 abb9 25c7 3dbd
000003d0: e412 83bd 3a08 dbbd 3d7e c93d e5f6 acbd
000003e0: 5a2d 0cbe ddbd e23c e0ce 4cbd 9a70 933c
000003f0: 48ef 5c3c 5683 e1bd 32f5 e2bd 075f 0f3d
0.00877052 0.09587727 0.029777076 0.023476612 -0.091283806 0.023981854 0.10643179 -0.07127033
0.011634628 0.07962652 -0.11093933 0.079911955 0.094317086 0.075072445 -0.020109946 -0.005832202
0.015322222 0.09887275 -0.11252475 0.0033469612 0.015772523 0.09463101 -0.042912923 -0.07653594
0.10319547 -0.061671656 -0.14043812 0.08481777 0.022745578 0.03706858 0.031044407 -0.09223415
-0.088947155 -0.042117972 -0.031245181 -0.005226224 -0.08714745 0.06816949 -0.030578807 -0.019472506
0.05444896 -0.020517053 0.022227295 0.06694858 -0.13438669 -0.102355644 0.099736646 0.0824725
0.038667705 0.07911431 -0.0025669213 0.028905185 0.06706104 -0.09944769 -0.12480532 0.07612944
-0.045003287 0.02389906 -0.11607608 -0.06495283 -0.0335131 -0.024368841 -0.05645729 -0.12098642
0.08625086 -0.11496806 -0.0065802047 -0.05291879 -0.012497336 0.07497866 0.09975578 0.012367811
-0.080816366 -0.05704874 -0.040841904 -0.062394343 -0.08469817 -0.061333135 -0.046681285 0.020464666
-0.07682096 0.07439158 0.107472815 -0.007791926 0.07744977 0.07454461 0.0054299915 -0.08616029
0.058922675 0.07956195 0.02541464 -0.046540126 -0.028708331 -0.016587548 0.03733569 -0.052934855
-0.08890655 0.043966096 -0.04173863 -0.0026621958 0.098915994 0.0832104 -0.09371744 0.016635064
0.07096813 0.03224139 -0.05188951 0.03512181 0.027642528 -0.08472516 -0.08356237 0.04339257
-0.032259926 0.004011974 -0.067765154 0.06427372 0.083098 -0.06114987 0.058606636 0.08456427
0.028548835 0.04152804 -0.053822655 -0.04166331 -0.13492496 -0.123582326 -0.086606026 -0.1209865
0.102286 -0.011638561 0.041951586 -0.032242585 -0.067676276 0.030989047 -0.078234784 0.006471344
-0.09400749 -0.05940339 -0.005115328 0.017866364 -0.10496167 -0.015245453 -0.098216094 0.032192074
-0.061367445 -0.04186285 0.022348933 -0.057161387 -0.05231625 -0.097670846 0.0083677005 -0.022123229
-0.1150622 0.09746696 0.06749519 -0.016869022 0.007517044 -0.074842595 -0.02325462 0.0904019
-0.06906163 0.113467105 -0.04663229 0.0020719743 0.036307734 0.049305927 0.045207635 0.016848959
-0.0867272 -0.11255244 0.028278723 -0.04078566 0.13320696 -0.03267105 -0.046801634 0.0632136
-0.060049843 -0.056398645 -0.08644119 -0.11492677 -0.05357595 0.10821434 0.10403031 0.01380129
0.005264147 -0.030503074 -0.10249607 0.10124036 -0.0111291455 0.0041336846 -0.0002084619 -0.053440023
0.10883992 -0.09819261 0.036496807 -0.005537683 0.0077682654 0.01995738 -0.010299567 -0.068701245
-0.104108445 -0.09891047 0.06641877 0.066243924 0.090421125 -0.0036382054 -0.02892971 -0.11880996
0.089771986 0.0494974 0.0544765 0.08656658 -0.09012947 -0.12328055 0.051693536 -0.024852393
0.012750981 0.02960496 0.035341863 0.117853776 -0.013419735 -0.01672028 0.010915893 0.096747905
0.015669838 -0.045885395 0.012276274 0.06350486 0.0299353 -0.11811054 -0.04064712 0.040132377
-0.032310564 0.007040028 -0.07440039 0.06353625 0.011154798 0.01944014 0.050126765 -0.07377802
0.021844285 -0.01469926 -0.0003279469 -0.046332497 -0.064000875 -0.106949285 0.09838531 -0.08445529
-0.13689175 0.027678424 -0.05000198 0.017998029 0.0134847835 -0.110113785 -0.110819235 0.035002735

bias f4 [32]
00000000: af6f ad3a f103 f7bd bac2 8bbd dc89 503d
00000010: d869 60bd 55bd bf3d 0dcc 70bd 5571 7e3d
00000020: 40bd adbd 4d65 4c3a 6f2d a93d a004 813c
00000030: 4a63 993d 1295 c0bc 92d2 943d 7447 bd3d
00000040: 2af1 24bd 85b6 553d a033 5c3d 88e7 ab3d
00000050: 4734 733d a3af d3bd 65bb 3ebd 6894 cd3b
00000060: 7b4d c03c 06b6 5e3d fe8b 2bbd d552 02bd
00000070: 8bf9 943c ea2a c63b 645e 74bd 603b eebc
0.0013232137 -0.12061299 -0.068242505 0.050912723 -0.05478844 0.09362284 -0.058788348 0.0621198
-0.08483362 0.00077970774 0.08260619 0.015749276 0.07489641 -0.023508582 0.072667256 0.09242144
-0.040269054 0.052176017 0.05376017 0.083937705 0.059376027 -0.103362344 -0.046565432 0.006273795
0.023474446 0.05437281 -0.041881554 -0.031817276 0.018185398 0.006047596 -0.05966033 -0.029081047

weight f4 [32, 32]
00000000: eff2 26bd 9f37 833d 498c 6abd 858d 413c
00000010: 3030 a33c ba5d 963d 5add f4bd b5c6 53be
00000020: e6af 00bc 31cb 8aba a98c 443d 7297 cdbc
00000030: 8cdc 403c b338 b63d b2c1 4e3d 57c0 0bbe
00000040: 4280 123e bdb0 40be 1a27 89bc caa4 093e
00000050: 1e1c 89bd c6ef 9a3d 0aae d7bd ec89 c43d
00000060: 9123 84bd 5a53 f8bd bc8e cfbd 6ee6 52bd
00000070: 4152 ff3b 6c62 e1bd 3b69 efba 7335 12be
00000080: 2b00 803d 6068 b43d 7af5 5abd 52d3 7fbd
00000090: 527e acbd 20c1 0abd 9087 f83d 79bc 163d
000000a0: 4198 7b3c db6e c6bd d3c4 4e3d cc69 a1bc
000000b0: 7cdf b83d 2241 b1bd 1f5a dd3d f85c 42bd
000000c0: f5e0 16bd 8927 aabd b508 f9bd b4b8 f5bc
000000d0: face 0e3c cc6c fdbd 331e 1d3d 26bb ab3c
000000e0: 8c62 903c 00c3 163e e87c f6bc 9b54 853d
000000f0: ce86 0f3e e01e 0a3e fc9c 063d 8107 3abd
00000100: 9aa6 f13d b1e2 53bd aa48 883c ec47 e7bc
00000110: ad7a 0d3c 2193 bb3c c755 e8bd 36d3 f0bd
00000120: 9f3d 9bbd a019 933d 01be bf3d dc20 55bd
00000130: e0ec 8cbd 6ef0 873c ca12 fa3d c874 96bd
00000140: 4ff8 5cbc a279 7abd db1a cdbb 41d5 0fbe
00000150: 2ea7 f03c a42a 0f3c 9c7b 5cbd c8c9 a83d
00000160: eca4 93bd d829 9c3d 7c4c c8bd 01fb 913d
00000170: 2892 18be fc8d 5c3d 7422 0fbc ffc8 b1bc
00000180: 4623 80bd 5c21 7c3d 74a9 893d 11fe 153e
00000190: 4197 1bbe 9893 fe3d 7ffa cb3d dd5e 893d
000001a0: 5e05 82bc acb8 83be 34f2 123d 7445 01be
000001b0: 1f7f 72bd 29dd afbd 72e9 033c 7125 d9bd
000001c0: e798 b0bd f922 a8bd 1c00 c03d 3b5e ebbd
000001d0: 6327 793d 1a27 203e 2d09 af3d b1a6 f23c
000001e0: be90 98bd 00ef 923d 5a7b 243d 763e e13d
000001f0: bca2 103e 4b3f efbd d2d3 a9bd 79f5 893d
00000200: a5ab 123d 7a95 2b3e 6b71 d1bd a03e 0dbe
00000210: 49db ebbd b6c3 c3bd 814e 01be 6c1f 1fbc
00000220: eb3a f93c 6c61 dd3d 1d2d 60be c022 19be
00000230: ef25 febd 2b80 8ebd 5f8f 92be ff6a c3bd
00000240: 0ea0 123e 5cc5 bb3b b759 4bbe 6a54 8e3d
00000250: d434 ba3d 90d5 603d a782 143e 2d92 26bd
00000260: c61f 76bd 9f49 10bd f717 aabd f4e1 17be
00000270: 3f89 99bc f7df 82bb 0160 2dbe 0e7c d1bc
00000280: 08a4 80bc efa7 023e 66ca dd3c bb43 433e
00000290: 5184 bd3d 9d6d c9bd 3616 ecbd bf61 a73d
000002a0: 6151 87bd 9a67 39bd b222 ebbd 987a 713d
000002b0: 0557 a6bd c96b fa3d bb15 96bd 34fe bb3d
000002c0: 4e7e 6d3d 2db2 643d f61f adbc b139 b7bd
000002d0: 2dde 493c 8452 ab3d 97d1 b73d bd0f 5d3d
000002e0: 1596 6c3d e1b2 a63c 0147 9fbc 8879 24be
000002f0: 9392 033c 8630 0a3e 7c07 79bd f6b5 c63d
00000300: 4b18 5d3d 27c1 5bbc cec7 cc3c 5979 2bbe
00000310: 07ab eabd 8ead 4f3d a83a fa3d f229 e83d
00000320: 11bb 80bc 0491 ebbc 3a37 1e3d 3032 613d
00000330: abfa fdbb bb17 cebd d9b9 06bd c39c 113e
00000340: 8c9e 2b3d 02fa 55bd 354c 7bbb 9a65 af3d
00000350: da41 fe3d 0421 3bbd 42be c73a cfbc 9a3d
00000360: 07c0 1a3e a840 863d cc3e 3abe 44aa 0d3d
00000370: 4ae5 a53d d3d6 abbd b632 3b3c 07bf f33d
00000380: 337d 0a3d 1ce9 23bd 3880 183d 193f 50bd
00000390: 8b72 24be 2494 0bbc 4d25 313d b89b 13be
000003a0: 4095 203e 13a8 683d c51b 18bd e9c2 b93d
000003b0: 9a21 9c3d 459e 113e 8cad fbbd 1422 f7bd
000003c0: 2a11 5a3d f0af 34bd 9837 ddbd 1aba a3bc
000003d0: 9a80 b2bd 4f7f b53d e046 c93d e8eb 1a3e
000003e0: 4f5e 823d 7f83 6cbd 4d65 a5bd 518c dc3d
000003f0: b231 57bd 7288 88bd 8196 c83d 7878 103d
-0.040759023 0.06407093 -0.057262693 0.011813526 0.019920439 0.07342096 -0.11956282 -0.2068127
-0.007854437 -0.001058912 0.047985706 -0.025096629 0.0117713325 0.08897533 0.05047769 -0.1364759
0.14306739 -0.1881742 -0.016742278 0.13441768 -0.06694816 0.075652644 -0.10531242 0.09596619
-0.06452096 -0.12125273 -0.10134646 -0.051489286 0.007791788 -0.110051006 -0.0018265614 -0.14278202
0.06250032 0.088089705 -0.05345676 -0.06245739 -0.08422531 -0.033875585 0.121352315 0.036800835
0.015356124 -0.09689113 0.050480675 -0.019703768 0.09027001 -0.08655001 0.10808205 -0.047451943
-0.03683563 -0.08308322 -0.12159864 -0.0299953 0.008716339 -0.12374267 0.03835888 0.020963263
0.017625116 0.14722824 -0.030088857 0.06510278 0.14016268 0.1348834 0.032864556 -0.045417313
0.11799355 -0.05172986 0.016636211 -0.028232537 0.008635205 0.022897305 -0.11344486 -0.11759035
-0.07580113 0.07182622 0.09362412 -0.05203329 -0.06881118 0.016594138 0.12210615 -0.07346493
-0.013486936 -0.061151154 -0.006259305 -0.14046194 0.029376592 0.008738194 -0.05382882 0.08241612
-0.07209191 0.076251686 -0.09780213 0.07127953 -0.14899504 0.053846344 -0.008736242 -0.021702288
-0.06256728 0.06155525 0.06721774 0.146477 -0.15194418 0.12430495 0.09959888 0.06707547
-0.0158717 -0.2572683 0.035875514 -0.1262415 -0.059203263 -0.08587105 0.008051263 -0.106028445
-0.08622914 -0.082097955 0.09375021 -0.114925824 0.060828578 0.15639916 0.08546672 0.0296205
-0.074494824 0.07174492 0.0401567 0.109982416 0.14124578 -0.11681994 -0.08292355 0.06736273
0.035808224 0.1675624 -0.10226711 -0.13793421 -0.11516435 -0.09558813 -0.12627603 -0.009712081
0.030423602 0.108095974 -0.2189221 -0.14954662 -0.12409579 -0.0695804 -0.28625008 -0.09541892
0.14318869 0.005730314 -0.19858442 0.069496945 0.090921074 0.05489117 0.14502965 -0.040666748
-0.060088895 -0.03522646 -0.08305352 -0.14832288 -0.018742202 -0.003993984 -0.16931154 -0.02557185
-0.015703216 0.12759374 0.02707405 0.19068806 0.09253753 -0.0983536 -0.11527674 0.081729405
-0.06607319 -0.045264818 -0.11481227 0.058954805 -0.081220664 0.1222759 -0.073283635 0.09179345
0.05798178 0.055833984 -0.021133404 -0.08946551 0.012321037 0.08365348 0.08975523 0.053970087
0.057760317 0.020348968 -0.019443037 -0.16061985 0.0080305515 0.13495073 -0.060798153 0.09702675
0.053978246 -0.01341275 0.024997618 -0.16745509 -0.11458402 0.050702624 0.12218219 0.113361254
-0.0157142 -0.028755672 0.038626887 0.054979503 -0.007750829 -0.1006312 -0.032892082 0.14219956
0.04189925 -0.05224038 -0.0038344983 0.08564301 0.12414904 -0.045685783 0.0015239196 0.07555544
0.15112315 0.06555301 -0.18188018 0.034586206 0.08100374 -0.08390584 0.011425665 0.1190167
0.033810806 -0.040017232 0.037231654 -0.050841425 -0.1605932 -0.008519206 0.043248463 -0.1441487
0.15681934 0.056800913 -0.037135858 0.09070379 0.076235965 0.14220531 -0.12288961 -0.12067047
0.053239025 -0.0441131 -0.10801619 -0.019986201 -0.08715935 0.08862173 0.098279715 0.15129054
0.06365644 -0.057742592 -0.08075962 0.10768951 -0.052537628 -0.0666665 0.09794331 0.035271138

bias f4 [32]
00000000: e409 9abc 734c 4a3d 59c7 5639 7919 9cbd
00000010: 162c e4bc 5dc3 a93d 2a74 a5bd 8e44 ce3d
00000020: 1a18 673d bdf5 13be d5d2 063c 4771 053d
00000030: 45ec 77bc babb f83c 6dce 423c 9f5d 383d
00000040: 5fbf 593b fe7a 1739 5d5c 9c3b 6ad7 dbba
00000050: 1f95 5d3c 74fa 8fbc 6c9f 313d 3fe2 abbb
00000060: c617 a03d 2f13 d13b 5fd0 8cbd 18b1 f73b
00000070: e386 b0bb 9689 91bc 28ff 5c3d 4d56 533d
-0.018803544 0.049389314 0.00020482893 -0.07622046 -0.027853053 0.08289216 -0.08078797 0.100716695
0.05641947 -0.1444921 0.008228977 0.032578733 -0.015132015 0.030362953 0.011890036 0.04501116
0.0033225638 0.000144463 0.0047717527 -0.0016772572 0.013524323 -0.01757548 0.043364927 -0.0052454765
0.078170344 0.0063804607 -0.06875681 0.007558953 -0.0053871735 -0.017765801 0.053954273 0.051595975

weight f4 [32, 32]
00000000: 1c4d 89bd a6f3 f0bd 0930 6e3d 6416 01bd
00000010: 4c52 cf3d 7ce3 00be d1ee a4bb b488 ac3d
00000020: 3b1c 123e c996 623d a0d0 eabd ddbb 31bd
00000030: 5015 6bbd 59e1 c6bb 9dfd 58be e30e 60bd
00000040: 9289 f93d a35d 883d 48f9 55be e783 0f3c
00000050: 9cd2 efbc 6de5 193e 0fbb cfbd bb85 48bd
00000060: acb8 d8bc c97f a2bd 5ec0 69bd 5a21 27bc
00000070: 1c3f ef3d 8b5f 66bd a52f b43d 8a27 793d
00000080: f9c9 02bd d6f7 233d eaf8 ac3d 7afe 02bd
00000090: 8ca4 183d c7e1 d7bc 1f29 92bd 8fce 963d
000000a0: dd4e eaba 3e0f 813c 218f c9bb 6b19 863d
000000b0: 8218 1c3d 348f 383c a75c c33c fef2 23bc
000000c0: 6166 533d 6459 e83b 4123 103b 30f4 e63b
000000d0: 68a5 153c 25d2 463d 22e5 fbbb d0b4 a23d
000000e0: d2c4 3a3c 4ecb 54bd b728 fa3a 25b1 213d
000000f0: 0cdb 8cbd bf5c 8b3d d38e e03c b8af f3bb
00000100: f523 ddbd 5bd9 c5bd be4c 003d b00e 78bb
00000110: daa9 473c b3ec e8bd bb8e 04be 1953 c53d
00000120: 606b c9bd 23e7 b039 200a 7c39 9d15 8cbd
00000130: 34d5 f1bd ef31 cebd 3521 e7bd b4f6 64bc
00000140: cbfe 6cbd 0d26 b13d 1643 ed3c fceb 223e
00000150: 1294 f5bc 702c 093d 4636 e4bd 2ca7 8e3c
00000160: d513 ed3d a7a8 98bd 696e 08be bb76 86bd
00000170: 4c3c c23d 74fc 57bd 17d7 993d 1a72 643c
00000180: e995 0dbd f943 df3d 0b1d 42bd 1618 41bd
00000190: 336d 97bd 311c b1bd ca06 3cbd e936 09be
000001a0: c610 ac3d 931e 183e aa8f 5a3c 9fb3 85bd
000001b0: be5e 2cbd 5665 cc3a 1e48 02be 4a76 8b3d
000001c0: bf99 91bd 4131 3e3e 19d3 0e3e 56b2 5a3c
000001d0: 468a babc 1a74 a33d b1b5 b13d 74d0 19be
000001e0: c6b7 dbbd 0c90 60bd 7eee 83bd 164a 19bd
000001f0: 5925 fbba 8d85 6cbc 8d93 1dbe fedb 54bd
00000200: d421 a43d 4267 b3bd f512 c13d 00f1 35be
00000210: 757c 05bd f920 8a3d aaa4 8fbd 4fe5 b03d
00000220: 103f 953d f75e a13d 9cfc d93d 7f5b d13d
00000230: 84ef d3bd 9b82 8cbc 31b1 d53d d720 6bbe
00000240: 04cf e83d 5f37 4a3d 61c3 bf3d 913f 8b3a
00000250: 989e 44be 5e84 f93d 00c1 9d3c 5170 d43d
00000260: 47ce 17be 3165 023d 3f78 c5bd c7c5 8fbd
00000270: 0303 b13d e3ff 02be 79a0 0f3d 86fc a83d
00000280: ca55 cdbb 7f1d 40bd 3934 c63d 317f 103c
00000290: 1b13 153e 3eaf cf3d 18f8 24be 6b82 cb3b
000002a0: 11b6 51bd a70e 4d3d 7b6e 7cbd 76fb 013e
000002b0: 2d57 2bbc 6539 103d 7542 673d d2fd f0bd
000002c0: 1578 89bb 47ce 3ebd b394 ad3d f46d d93d
000002d0: 298a 3ebd dd91 1f3d 4cdc b0bd fe58 253c
000002e0: 9757 823d 1b0f 8ebd bde8 3cbd 6413 6f3d
000002f0: 4b6e 6dbc f6f4 553e 88c3 713c a593 2f3e
00000300: bcc0 adbd fb51 1e3c 986e 333e 1db3 41bd
00000310: 6c73 063d 15c3 09be 73aa 1d3d cb96 23bd
00000320: c981 ad3c 55b9 6ebb fdd1 7cbd aa6c b43d
00000330: f526 33b7 45c2 db3c f4d4 3a3d 00d7 8d3d
00000340: 4c82 40bd e77b b43d c4a8 cbbd efcd 0abd
00000350: 4a8c b43d 445a 4dbd 8709 cebc b771 253e
00000360: 3d06 71bd e025 09bb 3005 1e3c 9bf5 06be
00000370: a70c 983c cf54 0b3e 51d4 a5bd 7e45 123e
00000380: 7d19 b0ba 08ed fbbd a69f d43c f369 4ebd
00000390: ad89 803d c310 e33c 73fa 753d 5325 f53d
000003a0: beca b83d fbd1 ad3d 7129 a93d c6ed 96bd
000003b0: dabf 863d b444 913d aec9 13be c4a9 1abe
000003c0: 442a 4b3d 04e5 af3d 68f9 313e febd 1c3e
000003d0: 6fb2 8e3d 7f18 0fbd d105 893c 6792 213a
000003e0: 3706 f7bc 76b7 8f3d d510 993d be6e 193e
000003f0: 6da2 2bbe 7e86 7f3d f541 c23c 4b9b 49bc
-0.067041606 -0.11765222 0.05815128 -0.031515494 0.10123119 -0.12586778 -0.005033352 0.084245116
0.14268582 0.05531958 -0.11465573 -0.04339205 -0.057393372 -0.006069344 -0.21190496 -0.054701697
0.121844426 0.06658485 -0.20895875 0.008759475 -0.029275231 0.15028925 -0.101431005 -0.04895566
-0.026455246 -0.07934529 -0.05706822 -0.010200823 0.11681959 -0.05624346 0.0879815 0.060828723
-0.031930897 0.040031277 0.08445914 -0.03198097 0.0372663 -0.026352776 -0.071367495 0.07363617
-0.0017876286 0.015754338 -0.0061510955 0.06547817 0.03810931 0.011264611 0.023847891 -0.010006664
0.051611308 0.0070907343 0.002199367 0.0070481524 0.009133674 0.048540253 -0.007687227 0.079446435
0.011399465 -0.0519517 0.001908562 0.03947558 -0.068777174 0.06804799 0.027411854 -0.007436719
-0.10797874 -0.09660598 0.031323187 -0.0037850551 0.012186492 -0.11373272 -0.12945072 0.0963499
-0.09834933 0.00033741546 0.00024036365 -0.0684006 -0.118082434 -0.10068118 -0.112856306 -0.013974834
-0.057860177 0.08649836 0.028962653 0.15910333 -0.029977832 0.033489645 -0.11143164 0.017413698
0.11576048 -0.07454043 -0.13323368 -0.06565615 0.09484157 -0.052730992 0.07511728 0.01394322
-0.034566794 0.10901637 -0.04739098 -0.04714211 -0.07393875 -0.08647955 -0.045904912 -0.13399853
0.08401637 0.14855413 0.013339916 -0.06528401 -0.04208254 0.0015594165 -0.12722823 0.06809671
-0.07109403 0.18573476 0.13947715 0.013348183 -0.022771012 0.07981129 0.08677233 -0.15020925
-0.107284114 -0.054824874 -0.06441973 -0.03742417 -0.0019160911 -0.014436138 -0.15388317 -0.051967613
0.08014265 -0.08759929 0.09427444 -0.17767715 -0.032589395 0.0674457 -0.07013829 0.08637487
0.07287419 0.07879441 0.106438845 0.102225296 -0.10348418 -0.017152121 0.10434187 -0.22961746
0.1136761 0.049369212 0.093634374 0.0010623803 -0.19201124 0.1218345 0.019257069 0.10372985
-0.14824782 0.031834785 -0.09642076 -0.07020145 0.086431526 -0.12792926 0.035065148 0.0825129
-0.0062663304 -0.04690313 0.096779294 0.008819387 0.1455807 0.10140847 -0.16110265 0.0062106154
-0.051199023 0.0500628 -0.0616288 0.12693581 -0.010457796 0.035210986 0.056459863 -0.117671624
-0.004195223 -0.04658344 0.08475628 0.10616675 -0.04651848 0.038957465 -0.08635768 0.010092018
0.06364363 -0.06936475 -0.046120394 0.0583681 -0.014491628 0.20894226 0.014756091 0.17146166
-0.08484027 0.0096631 0.17522657 -0.047289956 0.03282492 -0.13453324 0.03849263 -0.03993873
0.02118005 -0.0036426384 -0.061723698 0.088097885 -1.0678302e-05 0.026826033 0.045613244 0.069257736
-0.04699926 0.08812695 -0.09944299 -0.0338878 0.088158205 -0.050134912 -0.025151027 0.1615666
-0.05884384 -0.0020927116 0.0096447915 -0.13179629 0.01856072 0.1360657 -0.08097137 0.14284322
-0.001343533 -0.123010695 0.025955033 -0.05039401 0.062762596 0.027717954 0.0600533 0.1197001
0.09023045 0.08487316 0.082598574 -0.073695704 0.065795615 0.07093182 -0.14432403 -0.15103823
0.049600855 0.08588603 0.17380297 0.15306851 0.06967627 -0.03493547 0.016726406 0.0006163478
-0.03015433 0.07017414 0.074739136 0.14983651 -0.1676118 0.06238412 0.023713091 -0.012305091

bias f4 [32]
00000000: ee88 8abc 2992 593d 1850 4739 f0cf 31bd
00000010: 06ea 97bc 6dd2 003e 4f1b 07be 1bb8 6fbd
00000020: 07c6 e4bc d4fc 07be 884f 06bd 5c8f db3c
00000030: d094 a8bb 93a4 d33c c62e 433c 35dc 173c
00000040: 9f76 513b 639f 203a 665c 9c3b 3d83 8fba
00000050: 18f0 463c 38d2 59bc f038 88bd 7a3a 4f3b
00000060: 175c 3837 508d ce3b 28ac 2fbd 52f7 f73b
00000070: 9aee 16bc 21ff 483b 0c06 15bd fc8f af3b
-0.016910996 0.053117905 0.00019007956 -0.043411195 -0.018544208 0.12580271 -0.13194011 -0.058525186
-0.027926458 -0.1328004 -0.03279069 0.026801758 -0.005144693 0.025835311 0.011913007 0.00926881
0.0031961573 0.0006127266 0.004771757 -0.0010949146 0.012142204 -0.013294749 -0.06651485 0.0031620548
1.0988696e-05 0.006303467 -0.04288879 0.0075673247 -0.0092121605 0.0030669647 -0.03638272 0.0053577404
