train_script/weights/GCNEdgeBased_model300/76.pth (torch, 46347 bytes, 17 tensors)

weight f4 [32, 13]
000000 99 ec 09 80 9a f2 07 80 6d b5 15 00 09 d5 08 00
       -9.11395e-40 -7.29878e-40 1.993629e-39 8.11107e-40
000010 b6 6c 00 80 58 31 08 80 17 fd 10 80 6b dd 10 00
       -3.8998e-41 -7.52385e-40 -1.56016e-39 1.548798e-39
000020 bf 26 10 80 78 d1 0d 00 54 1f 09 00 ea 92 0a 00
       -1.483267e-39 1.269005e-39 8.37758e-40 9.71058e-40
000030 e7 3b 15 80 53 0c 01 00 51 e1 0f 80 d4 e4 08 80
       -1.950034e-39 9.6257e-41 -1.458361e-39 -8.16772e-40
000040 f1 61 03 80 3c 53 0f 80 da 49 02 00 5f 36 08 00
       -3.10641e-40 -1.407391e-39 2.10164e-40 7.54189e-40
000050 60 d3 0c 80 4d fe 0b 00 b9 ef 05 00 03 3e 05 00
       -1.177853e-39 1.101416e-39 5.45174e-40 4.81423e-40
000060 61 3f 05 00 8f b0 05 00 82 c1 03 00 f4 2d 02 80
       4.81914e-40 5.22515e-40 3.44924e-40 -2.00156e-40
000070 e4 a7 0f 80 16 3c 10 80 22 d8 02 00 1d ea 0c 80
       -1.43776e-39 -1.490923e-39 2.61205e-40 -1.18601e-39
000080 27 52 0b 80 02 bd 00 80 b7 18 0b 80 3a ac 04 80
       -1.039661e-39 -6.7803e-41 -1.019056e-39 -4.29125e-40
000090 46 be 02 80 5d e3 10 80 49 43 0f 00 34 13 0b 00
       -2.51928e-40 -1.55093e-39 1.40167e-39 1.017079e-39
0000a0 e6 3f 09 80 33 1e 0a 00 4a 4a 03 00 e7 23 0a 00
       -8.49442e-40 9.29188e-40 3.02156e-40 9.31234e-40
0000b0 f3 e5 0d 80 2d 98 0b 00 dd 60 13 00 73 31 06 80
       -1.276352e-39 1.064781e-39 1.779622e-39 -5.68752e-40
0000c0 69 d8 06 80 1a 6b 0c 00 af 7d 02 00 76 00 04 80
       -6.28646e-40 1.140447e-39 2.28758e-40 -3.67507e-40
0000d0 e1 ea 0c 80 d7 03 0e 80 17 09 00 00 63 75 09 00
       -1.186285e-39 -1.287074e-39 3.261e-42 8.6863e-40
0000e0 ac b4 12 80 bd c1 0b 00 45 d0 05 80 94 83 0c 00
       -1.717852e-39 1.07969e-39 -5.3389e-40 1.149227e-39
0000f0 81 61 0e 80 5d 20 0d 80 f8 a2 08 80 cf bc 01 00
       -1.320675e-39 -1.205471e-39 -7.93146e-40 1.59567e-40
000100 cc 06 00 80 77 85 04 00 7b b5 0d 00 34 25 0f 00
       -2.438e-42 4.1522e-40 1.258964e-39 1.390878e-39
000110 53 d8 09 80 d6 98 00 80 76 c0 07 80 00 12 0a 80
       -9.04122e-40 -5.4827e-41 -7.1189e-40 -9.24812e-40
000120 a5 30 11 80 17 a6 12 80 cb 2d 0e 80 59 30 00 00
       -1.578654e-39 -1.712621e-39 -1.302124e-39 1.7344e-41
000130 fc de 0b 00 0f c6 01 80 e6 fd 0d 80 6f 24 15 00
       1.090182e-39 -1.62886e-40 -1.284943e-39 1.941615e-39
000140 15 aa 0e 80 6e c2 06 00 7e 15 0c 00 93 fd 00 00
       -1.346711e-39 6.20761e-40 1.109736e-39 9.0965e-41
000150 c9 64 0e 80 ae c9 0a 00 ec 1a 0b 80 b7 5a 05 80
       -1.321852e-39 9.90704e-40 -1.019848e-39 -4.9172e-40
000160 a2 78 15 00 db 87 09 00 99 cd 15 80 d1 f9 11 00
       1.97182e-39 8.75255e-40 -2.0023e-39 1.65082e-39
000170 ef b4 02 00 8d 62 05 00 f6 83 01 00 ea db 0d 80
       2.48578e-40 4.94531e-40 1.39174e-40 -1.272752e-39
000180 4b 46 00 80 c9 fe 13 80 2e 42 01 00 70 bb 00 80
       -2.5216e-41 -1.836274e-39 1.15576e-40 -6.724e-41
000190 b1 a1 01 80 a6 6b 12 00 7f c7 0d 00 ef d5 15 80
       -1.4984e-40 1.691656e-39 1.265427e-39 -2.00529e-39
0001a0 51 3d 0a 00 a5 06 09 00 f6 5a 0d 80 93 e3 05 00
       9.40351e-40 8.28903e-40 -1.226492e-39 5.40816e-40
0001b0 e4 e7 01 80 3a 1e 04 80 7f f2 0b 00 a9 05 0f 00
       -1.75022e-40 -3.78185e-40 1.097182e-39 1.379563e-39
0001c0 55 e9 00 80 e7 44 13 00 d5 47 0e 00 37 c9 03 80
       -8.3704e-41 1.769592e-39 1.311465e-39 -3.47689e-40
0001d0 2c c2 04 00 b0 e9 0a 00 b2 9a 0c 00 f3 df 01 80
       4.36998e-40 1.002186e-39 1.15752e-39 -1.72173e-40
0001e0 22 53 07 80 87 42 0a 00 71 c1 04 00 6e 54 0b 00
       -6.72671e-40 9.4222e-40 4.36736e-40 1.040478e-39
0001f0 c0 11 13 00 76 14 0b 00 50 b1 09 80 ba 73 09 80
       1.751242e-39 1.01753e-39 -8.90127e-40 -8.68034e-40
000200 bb 8c 0b 00 ce ba 0e 80 95 52 01 80 0f 82 0d 80
       1.060675e-39 -1.35271e-39 -1.2146e-40 -1.240518e-39
000210 86 55 07 80 64 2b 10 00 95 71 03 00 14 4d 08 80
       -6.73529e-40 1.484934e-39 3.16252e-40 -7.62334e-40
000220 4b 05 06 00 93 c6 0a 80 12 6d 10 80 4a fb 0f 80
       5.52912e-40 -9.8959e-40 -1.508495e-39 -1.467678e-39
000230 af 29 07 80 eb 46 15 80 40 e0 01 80 57 ca 12 00
       -6.57802e-40 -1.953986e-39 -1.72281e-40 1.725625e-39
000240 a1 09 01 00 bb 62 0c 00 fe 05 12 00 4d f7 08 00
       9.529e-41 1.137444e-39 1.655189e-39 8.23399e-40
000250 08 27 06 80 a7 58 0e 00 a0 77 0e 00 47 db 0b 80
       -5.65015e-40 1.3175e-39 1.32861e-39 -1.088852e-39
000260 cf 42 00 00 2c 2d 0b 00 19 3d 11 00 c6 70 02 00
       2.3966e-41 1.026395e-39 1.583121e-39 2.24126e-40
000270 fc b2 08 80 db 31 10 80 27 ca 0f 80 2a 09 0d 80
       -7.98891e-40 -1.487253e-39 -1.450051e-39 -1.197149e-39
000280 da 02 03 00 6b b9 05 00 73 5f 05 80 a5 80 01 00
       2.7653e-40 5.25693e-40 -4.93418e-40 1.37984e-40
000290 14 cc 02 00 09 12 0b 80 cb 38 03 00 89 87 03 00
       2.5688e-40 -1.01666e-39 2.9588e-40 3.24127e-40
0002a0 bd 5c 01 00 a8 ef 10 80 d4 8a 0c 00 a6 6d 01 80
       1.25104e-40 -1.55534e-39 1.151828e-39 -1.3117e-40
0002b0 4c 00 06 00 2b 67 02 00 8d d3 0a 80 af 16 09 80
       5.5112e-40 2.2068e-40 -9.94245e-40 -8.34657e-40
0002c0 9e fb 08 80 89 93 06 80 51 8a 0b 80 d2 eb 0a 00
       -8.24947e-40 -6.03939e-40 -1.059809e-39 1.002951e-39
0002d0 83 5b 02 00 13 ee 0b 00 88 ea 0b 80 b6 9d 08 00
       2.16499e-40 1.095595e-39 -1.094324e-39 7.9126e-40
0002e0 12 c0 12 80 b6 10 0d 00 8a 50 02 80 a6 c4 0c 00
       -1.721941e-39 1.199856e-39 -2.12563e-40 1.17257e-39
0002f0 9b 0a 0c 80 45 42 0e 00 d0 43 11 80 a3 48 04 00
       -1.10583e-39 1.30947e-39 -1.58553e-39 3.93399e-40
000300 fd 0f 0b 00 c4 a6 05 80 e2 98 06 00 53 90 0b 80
       1.015926e-39 -5.19002e-40 6.05857e-40 -1.061964e-39
000310 45 e5 05 00 83 63 0e 80 74 4c 00 80 e7 2b 00 80
       5.41424e-40 -1.321395e-39 -2.7426e-41 -1.5749e-41
000320 c4 35 15 80 84 51 13 80 91 97 08 80 85 99 10 00
       -1.947833e-39 -1.774117e-39 -7.89056e-40 1.52444e-39
000330 53 d2 0b 80 87 6d 11 80 d1 6c 05 00 50 e1 00 80
       -1.08564e-39 -1.600494e-39 4.98213e-40 -8.0827e-41
000340 22 f1 0a 00 30 90 04 00 8f ef 08 80 42 ed 09 80
       1.004857e-39 4.19067e-40 -8.20621e-40 -9.11632e-40
000350 3f 3f 0a 80 94 f4 06 80 40 92 0a 00 16 bc 0b 80
       -9.41043e-40 -6.38751e-40 9.7082e-40 -1.077663e-39
000360 6b 41 0d 00 5e f4 0a 00 7f 66 13 00 80 5f 02 00
       1.217329e-39 1.006017e-39 1.781643e-39 2.1793e-40
000370 ee 93 05 80 2f 2b 0d 00 92 f4 08 80 9d 13 03 00
       -5.12245e-40 1.209353e-39 -8.22419e-40 2.82542e-40
000380 37 7a 0b 80 0f f2 08 80 33 f5 0b 00 7e 82 0e 00
       -1.054033e-39 -8.21518e-40 1.098151e-39 1.332509e-39
000390 8d 94 05 80 6a 28 12 00 7d 63 0e 80 b9 00 0b 80
       -5.12467e-40 1.667537e-39 -1.321387e-39 -1.01045e-39
0003a0 ce 84 04 00 42 4b 10 00 5d f7 13 80 36 d0 11 80
       4.14983e-40 1.496365e-39 -1.833612e-39 -1.635895e-39
0003b0 d5 47 08 00 14 88 04 00 e1 05 02 80 72 c0 0c 00
       7.60452e-40 4.16158e-40 -1.8578e-40 1.171062e-39
0003c0 d1 56 0f 80 67 71 13 80 de 8a 02 80 5d 1c 07 80
       -1.408676e-39 -1.785556e-39 -2.33487e-40 -6.53023e-40
0003d0 94 6f 00 00 26 76 07 00 e3 12 0c 00 60 bc 0a 80
       4.0027e-41 6.85232e-40 1.108801e-39 -9.85931e-40
0003e0 ed 44 05 80 a4 14 0c 00 b1 ab 05 80 dd 5a 12 80
       -4.83903e-40 1.10943e-39 -5.20769e-40 -1.685635e-39
0003f0 d2 83 05 80 68 47 0c 00 c6 e4 15 80 74 f3 0e 00
       -5.06466e-40 1.127642e-39 -2.010614e-39 1.373031e-39

bias f4 [32]
000000 03 a9 5d be fe f9 5c be 99 59 06 be f1 c6 09 3e
       -0.21646504 -0.2157974 -0.13120116 0.13454796
000010 93 d0 67 be 38 18 e9 bd 48 d3 5a bd ae bb 83 bd
       -0.22638159 -0.113815725 -0.05342415 -0.064322814
000020 e3 15 75 be 6e 1f 73 be d5 47 ae be f7 92 69 be
       -0.2393413 -0.23742458 -0.34039178 -0.22809969
000030 18 b7 b0 bd 5f 78 39 be e9 9e 10 be a8 ad d7 bd
       -0.08628672 -0.18112324 -0.1412312 -0.10531169
000040 a1 cb 58 bd 15 4d 55 be 23 a4 d8 3c ad ef 9e be
       -0.05292857 -0.20830186 0.026445454 -0.31042233
000050 07 fa 81 be 65 1f 54 3d 14 e2 84 3d df 8e 1f 3d
       -0.25386068 0.051787753 0.064884335 0.038954612
000060 07 b7 d5 bd 40 a4 b3 bd 44 92 d8 bd 99 93 60 be
       -0.104353 -0.087715626 -0.10574773 -0.21931304
000070 12 ef 00 bd 8c 75 d1 bd 2d 7c 15 be 4d cd 21 be
       -0.031477995 -0.102274984 -0.1459815 -0.15800972

weight f4 [32, 13]
000000 07 11 c1 3e d2 c7 62 3f 21 bd fe 3e e0 7d 35 3f
       0.37708303 0.8858615 0.4975367 0.70895195
000010 da f5 0c 3e 8f a5 ba bd b2 b0 3e 3e 38 37 55 bd
       0.1376566 -0.09113609 0.18622091 -0.052054614
000020 2e a9 71 3d 46 b9 85 bd 52 c6 6f 3d f1 30 60 3d
       0.058999233 -0.06529479 0.058538742 0.054734174
000030 77 55 b6 bd 91 56 89 bc 34 c0 24 bf b0 96 4f 3e
       -0.0890302 -0.01676491 -0.6435578 0.20272326
000040 2a 02 8b be 99 56 e8 3e 4c da de be 4e cd 08 be
       -0.2715009 0.4537857 -0.43525922 -0.13359568
000050 78 66 e1 3e b7 08 15 3f f9 f9 70 3e 71 0e 92 be
       0.4402349 0.5821642 0.23532857 -0.28526643
000060 02 59 3a 3e 4f 4b f1 3d 99 1b 3e bf 5a b7 72 3f
       0.18198016 0.11781942 -0.7426086 0.9481102
000070 ef d2 a8 be 4b 88 91 3e 4c 46 8b 3e db 79 7a 3e
       -0.3297343 0.28424296 0.2720207 0.24460547
000080 30 bd aa 3d 71 9b 85 3e 77 fa 6f bd af 35 f7 bc
       0.08336866 0.26095155 -0.05858847 -0.030176966
000090 fd bb 86 bd 1f fe 24 3d b4 86 a4 bd 2e ab 9d 3f
       -0.06578825 0.04028141 -0.08033505 1.2317865
0000a0 6a 28 1c 3d be 83 26 bd bf 20 b7 3e 75 08 c2 be
       0.03812448 -0.040652983 0.3576717 -0.37897077
0000b0 8e f3 e2 3e f3 ff 66 bd 35 2c dd 3d ab 12 ef 3d
       0.44326442 -0.056396436 0.107994474 0.116734825
0000c0 72 75 72 3d aa 75 fc bd 9d a8 5a bd 92 15 7c bd
       0.059194036 -0.1232713 -0.05338346 -0.06154401
0000d0 f8 00 08 bf 4e a9 8b be 56 af b2 3e a6 0c 2c bc
       -0.5312648 -0.27277607 0.34899396 -0.0105010625
0000e0 0d 5b d9 bc 91 2f e0 3e e9 58 6c be a6 96 cd b9
       -0.026532674 0.4378629 -0.23080792 -0.0003921289
0000f0 3f 78 18 be b7 47 b3 3e 91 d1 0f bd 56 a8 3f 3d
       -0.1488962 0.35015652 -0.035111967 0.046791397
000100 9f ac a4 be 34 82 87 3f cf 8e 46 bf ae c6 12 bd
       -0.3216295 1.058661 -0.7756166 -0.035834007
000110 a7 a6 d6 be 8c a9 25 be c6 a6 c8 bd 32 75 ed 3b
       -0.4192402 -0.16177958 -0.097974345 0.007246637
000120 71 65 2a bc 0b 90 5f 3d 28 d3 24 bc dc f6 04 3d
       -0.010400162 0.05458073 -0.010060109 0.032461986
000130 bc 1e 95 3d 3c 70 0c be bc 2d 40 bf 17 a7 69 3f
       0.07281253 -0.13714689 -0.75069785 0.91270584
000140 ab 60 09 be 08 9c 01 be 5a da cd bd 1f ce d7 bd
       -0.13415782 -0.12657177 -0.10051413 -0.10537361
000150 c0 08 fd 3d 97 dc 8d bd 70 7b 12 be 3b fa 4f 3e
       0.123551846 -0.0692684 -0.143049 0.20310299
000160 a8 34 5b be ef 5c ce be fa 7a c9 be 9b 6b e1 3e
       -0.21406806 -0.40305278 -0.39351636 0.4402741
000170 51 1d 06 bf bd 74 47 bf 60 4f 74 be 5a d3 95 3e
       -0.52388483 -0.77912503 -0.23858404 0.2926281
000180 9a 48 6c be cd 4b 9e be d2 e1 2a bf c1 2b 20 be
       -0.2307457 -0.30917206 -0.66750824 -0.15641691
000190 ae 65 b3 3c 81 9d bd bd a7 df 02 3d 82 d6 4e 3f
       0.02189907 -0.09258557 0.031951573 0.8079606
0001a0 9c 8e 2a bf cc 7a 09 3e bd 93 ff bd 0c 18 e3 3d
       -0.66623855 0.1342575 -0.12479351 0.11088571
0001b0 31 4e 0a bf 3d 83 8d 3d 9d b4 d5 bd b0 7f 1f be
       -0.5402556 0.06909797 -0.1043484 -0.15576053
0001c0 90 12 c1 bc 83 9e 5a be ac fe a0 be ab 6b 86 3e
       -0.023568422 -0.2134953 -0.314443 0.2625402
0001d0 4d d4 2e be 75 51 9b 3d 92 a0 db 3e 92 c3 b2 3e
       -0.17073174 0.07583896 0.42895943 0.34914833
0001e0 aa a4 7c bf 93 51 90 3f 53 31 88 bd 51 90 54 3d
       -0.9868876 1.1274894 -0.06650033 0.051895443
0001f0 ad 99 db bc 7c 99 b7 bd 05 89 87 3d 46 33 0d be
       -0.026806677 -0.08964822 0.06617931 -0.1378909
000200 84 b4 cf 3b 51 2e b0 3e 9e e1 1e 3f 65 f2 d8 bd
       0.006338658 0.34410337 0.62063015 -0.10593108
000210 0d 08 a2 3e f1 9a 84 3d 4b 36 b1 3e e4 3b 23 bf
       0.31646767 0.06474865 0.34611735 -0.6376326
000220 72 b7 d2 be 30 13 44 3e c7 8c 88 3e 6e 59 1f be
       -0.41155583 0.19147944 0.26669905 -0.15561458
000230 e4 dd 1d be d4 59 73 3d c9 6f 12 be 5d e9 1e 3f
       -0.15416676 0.05941184 -0.14300455 0.62074834
000240 38 e2 73 be 8e c0 7f bd a8 1b a7 3d 43 37 31 be
       -0.23816764 -0.062439494 0.08159572 -0.17306237
000250 da d0 bb be 5e 8c 90 bd bf 46 0d 3f 00 58 f1 3d
       -0.3668278 -0.07058023 0.55186075 0.11784363
000260 1a db 63 3d 0b db 9e 3c a6 16 82 3c 88 3b 53 3d
       0.055628873 0.019391557 0.01587994 0.051570445
000270 d8 25 e8 3d ab c8 76 be 10 0d 99 bd c7 a6 1c be
       0.11335343 -0.24099986 -0.074731946 -0.15297996
000280 4f 9f cd 3d 48 2a 9d be d1 59 b8 3e 50 5f 00 bc
       0.10040151 -0.3069632 0.36006024 -0.007835224
000290 ae 9a 0f 3f ab 4a a8 3d ff 70 0c be cb 2c 33 be
       0.560954 0.08217367 -0.1371498 -0.17497556
0002a0 8c 8f 43 be 09 38 54 bf 1c b3 df be fc 7a 4c be
       -0.19097728 -0.82898 -0.43691337 -0.1996879
0002b0 d3 a8 f3 be 86 11 3e bf ee a9 e1 3e 35 80 94 3d
       -0.4758974 -0.7424549 0.4407496 0.07251016
0002c0 36 ab ae 3d 45 43 24 3c f5 0e 04 3b 2b 4c 86 3e
       0.0852875 0.010025804 0.0020150517 0.26229987
0002d0 45 32 cf 3d a7 a7 b3 be b7 8d 25 bd 6e 8d 33 be
       0.1011701 -0.35088846 -0.040418353 -0.1753442
0002e0 d5 63 28 3e 01 1b 0b 3b 74 c7 13 3e 4c 9c ee bc
       0.16444333 0.0021225812 0.14431554 -0.029127263
0002f0 b5 84 06 3c 37 c7 a5 be cc 9b 4f 3e 8e 67 06 3e
       0.008210351 -0.3237855 0.20274276 0.1312544
000300 52 18 b7 39 0e 7e 94 3e 7e d3 39 3f 8e 08 35 bf
       0.000349226 0.29002422 0.72588336 -0.7071618
000310 25 17 1e bf c0 dd 13 3f cb 29 9d 3e 93 62 42 3f
       -0.61754066 0.5776024 0.30695948 0.7593166
000320 c3 3f df 3d 7b 30 85 3d e0 75 22 3e e5 05 fb 3d
       0.109008335 0.065033875 0.15865278 0.12256984
000330 dd 6b 9c bc bd 77 50 bd b9 9d 3b bd 90 bf 9a 3d
       -0.019094402 -0.05089544 -0.045804713 0.07556069
000340 ea 59 04 be bb 83 90 bf 05 64 25 3e 74 2c d3 3e
       -0.12924924 -1.1290201 0.16151436 0.41244853
000350 a2 61 8d be db 0a 87 bd db ba b9 bc e4 ea e2 bc
       -0.2761355 -0.065938674 -0.022672107 -0.027699895
000360 96 ad 27 3d ef 5d 03 3d 44 99 69 bd b2 32 1f 3d
       0.04093703 0.032072004 -0.05703093 0.038866706
000370 c8 99 d4 bd 90 7f 35 3e d6 06 a7 bc 7d b8 06 bf
       -0.10380894 0.17724442 -0.020389002 -0.52625257
000380 7e 80 ab be e2 ca 3a bf c8 33 d6 bd 81 49 f7 bc
       -0.3349647 -0.72965825 -0.10459095 -0.030186417
000390 1b 21 51 3d ec 7e 2e b8 97 95 d4 bc 89 07 a7 3b
       0.051056962 -4.1603038e-05 -0.025950236 0.005097334
0003a0 52 3c d8 3c ba aa 04 40 0e ea b1 be 5b 11 87 bc
       0.02639595 2.0729203 -0.34748882 -0.016487768
0003b0 4b 13 01 3e 13 3f 4a 3e ac fe cc 3d 65 2b 12 3f
       0.12605016 0.19750623 0.10009512 0.57097465
0003c0 e8 74 28 3d d4 ed 39 be 4c 13 64 3e fa ac 5c bd
       0.041127115 -0.1815713 0.22272986 -0.0538759
0003d0 1d 77 cc bd 9d 70 03 3a b4 a7 20 3f e6 12 b4 3d
       -0.099836566 0.0005014034 0.62755895 0.08792667
0003e0 82 84 cc be 89 16 1b bc 01 63 23 3f bf 2f b5 3e
       -0.39944845 -0.009465822 0.6382294 0.3538799
0003f0 a3 8e 1a be f4 b2 b1 3d 70 08 ee 3d ac f3 e2 3d
       -0.15093474 0.08676711 0.11622703 0.11081633

bias f4 [32]
000000 5a 73 23 be cc 39 9f be 75 c9 2b 3d 8d 49 16 bd
       -0.15961972 -0.31098783 0.04194017 -0.036691237
000010 21 8b b9 bd 17 1c 18 3e 68 f7 5d be 8e e3 12 be
       -0.0905974 0.14854465 -0.21676409 -0.14344618
000020 d2 da 7f be 36 63 12 3c 01 3d f0 bd 87 6e 99 bd
       -0.24985817 0.008934787 -0.117303856 -0.074917845
000030 3b 0e 0d be 11 c9 51 be df fb 47 be 86 c9 51 be
       -0.1377496 -0.20486857 -0.19529675 -0.20487031
000040 1a 91 1b bd 6f 1b de 3d e4 61 89 bd 6b 0d c3 3d
       -0.037980177 0.10845076 -0.06708124 0.09524044
000050 e9 38 9d bd 05 c3 68 bd 44 c8 5e be f0 5e c5 be
       -0.076768704 -0.05682661 -0.21756083 -0.38548994
000060 f5 69 51 be e5 76 d6 bd 11 fb 7e be e7 33 a5 3d
       -0.20450576 -0.10471896 -0.24900462 0.0806654
000070 09 b1 9d be 0f 57 c3 bd 1b ba 1b be 9c ca 28 bc
       -0.3079913 -0.095380895 -0.15207712 -0.010302212

weight f4 [32, 13]
000000 91 d9 be 3e 0a 7f 0c bd 7f 8e 48 3b 5c 7d 9b bf
       0.37275365 -0.03430084 0.0030602512 -1.2147632
000010 d7 2c 81 be a7 0c e4 3d 08 65 04 3f ae a7 9c be
       -0.25229523 0.11135226 0.5171666 -0.3059668
000020 da d7 0a 3f 7d 14 69 3b a3 cc 1d be d1 52 cf 3c
       0.54235613 0.003556519 -0.15410094 0.025308045
000030 19 3a b0 3f 55 15 26 3f 87 10 8f bf 2c f5 0f 3f
       1.376773 0.648763 -1.1176919 0.5623348
000040 2d e1 76 3c b3 cb b9 3d b3 6d c4 bd 8c c8 6d 3c
       0.0150683345 0.09072056 -0.09591236 0.014513146
000050 8e a3 d7 be 61 de 9b bc 2d 5f 7c 3c 39 01 ac bd
       -0.4211697 -0.019026937 0.015403551 -0.08398671
000060 af e1 43 bd 99 59 5b bf a5 f7 04 bf d5 73 88 3f
       -0.04782265 -0.8568359 -0.51940376 1.0660349
000070 c8 b1 90 be e1 a6 ce 3e 0e b9 dc bd 2e 8c a6 3d
       -0.28260636 0.40361694 -0.10777484 0.08132206
000080 10 93 66 3d d5 9c 1a 3d e4 cc 44 3d f0 24 7a 3d
       0.056292593 0.037747223 0.04804696 0.061070383
000090 f1 2b 02 3d 30 e5 a2 b8 20 17 ee 3e 95 d7 d6 3e
       0.031780187 -7.7674515e-05 0.46502018 0.4196135
0000a0 72 32 b7 3e 41 f6 84 3e ef cc e2 be aa 40 1c be
       0.35780674 0.25969127 -0.44296977 -0.15259042
0000b0 e8 f9 1d 3d 5f 8b 96 3b 85 b4 02 3e e5 ff 06 bf
       0.038568407 0.004594251 0.12764175 -0.52734214
0000c0 b1 76 30 3c 58 ed d8 3c d6 b1 39 bc cc 3e 9a bb
       0.010770486 0.026480362 -0.011333903 -0.004707193
0000d0 8d ee 13 3e b5 74 b8 3c eb 52 c1 bb 13 36 0f 3f
       0.14446469 0.022516588 -0.005899777 0.55941886
0000e0 03 37 1f bd e2 c8 46 3d 8f bc 5c be 7f 8b 1e 3e
       -0.038870823 0.04853142 -0.21556304 0.15482901
0000f0 c3 c6 a1 3c ed 9a d4 3d d5 bd f4 bd 13 46 15 3d
       0.019748097 0.10381112 -0.1195027 0.03644378
000100 c0 0e 86 3f 21 a1 c0 3d 45 d8 d1 bc 62 29 1e be
       1.0473251 0.09405733 -0.02561582 -0.15445474
000110 9d 70 19 3e 95 11 b8 bd ca c5 19 3d c3 b4 9b bd
       0.14984365 -0.089877285 0.037542142 -0.07602837
000120 c9 a4 25 3c 66 c7 ed 3b a6 e5 7c 3e 7a 4a 7b 3c
       0.010110089 0.007256436 0.24696979 0.015337581
000130 0f 36 96 bd 43 05 5d bc 79 c0 89 3e 75 5e 7a 3f
       -0.073345296 -0.013490024 0.26904657 0.9780038
000140 44 2f 93 bf b8 46 bf bf 1b 31 f8 3d 59 15 09 3e
       -1.1498799 -1.4943457 0.12118741 0.1338705
000150 43 ee b1 bd f4 1e c3 3c 01 dc 23 3d c9 10 d1 3b
       -0.08688023 0.02381847 0.040004734 0.006380175
000160 bb 45 44 bd 79 23 93 3c 6f 7c 0c 3f 47 5f fd 3d
       -0.047918063 0.01796125 0.5487737 0.12371688
000170 c9 6b 02 bd 0b f1 53 3e 4e da 16 3f cf d2 56 be
       -0.031841073 0.2069742 0.58926857 -0.20978855
000180 bc f0 86 3d 9d 37 e4 be 43 50 2b be fb 76 ff 3e
       0.06588885 -0.4457368 -0.16729836 0.49895462
000190 c1 bd 96 3c 02 6c 05 3c 24 b1 30 bd dc 44 2a 3e
       0.018401029 0.008143427 -0.043137684 0.1662783
0001a0 2b 6a cc 3e 87 f9 e3 3e bc df bd bd 73 d5 7e bb
       0.3992475 0.44526312 -0.092711896 -0.003888455
0001b0 7f 7e 8e be 51 e2 62 3e c9 f5 d0 3d ea fc 3d be
       -0.27830884 0.22156645 0.1020313 -0.1855351
0001c0 7f 58 0e bf 8e 2c b1 bc f4 5b 0c bd dc 8d 10 bd
       -0.55603784 -0.02162769 -0.03426738 -0.035291538
0001d0 3d 8b 5f be 51 ff 2e 3f 88 a5 86 bf 55 b1 0f 3e
       -0.21830459 0.6835833 -1.0519266 0.1403249
0001e0 e3 16 b9 3e 07 53 06 3e dd 09 80 be a1 73 36 be
       0.36150274 0.1311761 -0.25007525 -0.17817546
0001f0 89 a7 a1 3e a9 dd a4 3e 25 3c a1 bd 54 9a ee bb
       0.31573132 0.32200363 -0.078728 -0.007281581
000200 31 a6 1e bd 21 6e a9 3e 71 a1 40 3e 9c 36 d3 bf
       -0.03873271 0.33091834 0.18811585 -1.650104
000210 e2 a7 46 3e aa 99 b6 be 1c d7 f5 3d 10 a0 c0 3c
       0.1939998 -0.3566411 0.120039195 0.023513824
000220 82 4a 42 3c 4d 3c 00 3a 06 14 d3 bd 66 99 9d bc
       0.011858584 0.0004891798 -0.103065535 -0.019238185
000230 15 bf 9f 3a fb 1e 00 bd 96 d5 f3 3e a1 bf 0c 3f
       0.0012187684 -0.031279545 0.4762389 0.549799
000240 ac d1 90 bd ce e5 0c 3f 24 2d 0a bf 0f d9 3e be
       -0.07071242 0.55038154 -0.5397513 -0.18637489
000250 2b 13 87 3d b0 37 aa 3d 0d bb 85 3e 24 11 97 3e
       0.06595453 0.08311403 0.2611927 0.29505265
000260 54 61 a6 3c fc 01 cc bd 4a c1 bb bb c7 d3 1f 3d
       0.020310082 -0.09961316 -0.005729829 0.039020326
000270 94 41 ef 3e 35 c6 9c 3d f5 18 9a bd cd 1c 8a 3d
       0.4672972 0.076549925 -0.075242914 0.067437746
000280 58 25 a9 3e ed d7 5e 3c fb 81 2a 3d d9 fb 83 bd
       0.33036304 0.013601285 0.041627865 -0.064445205
000290 5c 98 b8 3c 30 fe 50 3c 52 3b d4 bc 59 e2 ef 3c
       0.022533588 0.0127559155 -0.025907192 0.029282736
0002a0 3f 8e c7 bf 1c 05 f9 3e c6 6b 83 be 20 5b 48 3f
       -1.5590285 0.4863671 -0.25668162 0.78264046
0002b0 e0 be 01 3f 4b ed 1f be 1c fc 0f bd 58 2b da 3d
       0.5068188 -0.15617864 -0.03515254 0.106527984
0002c0 a4 73 f5 3e 4f e6 14 bf 5f ca ca 3c 4a 50 c0 3d
       0.4793979 -0.58163923 0.024754701 0.09390314
0002d0 c6 93 ee 3c 6b b2 b2 3f 65 59 02 c0 86 d7 fd be
       0.029123198 1.3960699 -2.0367062 -0.49578494
0002e0 8e 7b f0 bd 65 40 40 be 3b cb fc be f8 68 80 be
       -0.11742316 -0.18774565 -0.49373803 -0.25080085
0002f0 aa 5c 26 bd 14 df d2 bc 40 d3 bc 3c 2c 06 8d 3b
       -0.040615715 -0.025741138 0.02304995 0.0043037143
000300 8c 9a 42 3d bf e0 61 3c 3f 8e 11 be 21 b6 29 3f
       0.04751067 0.013786494 -0.14214419 0.6629353
000310 01 5d f1 3e d5 93 6d bd f7 9e 25 bf d2 e5 a5 bd
       0.4714127 -0.05800231 -0.64695686 -0.08100475
000320 7f 7d 2d 3e 43 2d 9b be a9 08 4e 3e dc a9 61 3c
       0.16942404 -0.3030797 0.20120491 0.013773408
000330 6e 70 81 bd 71 13 1e bd 9e 33 d9 bc 24 65 d7 bf
       -0.063202724 -0.03859276 -0.02651387 -1.6827741
000340 5a 8c b8 3e 45 cd 93 be 33 41 ce 3e 4d 09 d4 be
       0.3604458 -0.28867546 0.40284118 -0.41413346
000350 d4 22 80 be df 00 5b bd fc bc cf be ab 4d 1a 3e
       -0.25026572 -0.053467628 -0.4057387 0.1506869
000360 29 ad a5 3e 6a cb 54 3e 56 a0 f8 bb 51 c9 74 bc
       0.32358673 0.20780721 -0.007587473 -0.014940576
000370 32 be be be 54 20 27 3e c5 d8 4a bf 7e bc 41 3f
       -0.37254483 0.16320926 -0.79237014 0.7567824
000380 d8 9e 2e 3f db f6 b6 bc b4 9e 12 bd 84 1f 81 be
       0.68211126 -0.022334507 -0.035795882 -0.25219357
000390 bf f2 c1 3c 9e 71 c2 be 7c 7f d8 bd 2b 94 96 3d
       0.02367532 -0.37977308 -0.10571191 0.073524795
0003a0 49 bc 90 bc e6 84 cc bf ab e6 11 be ce e7 42 bf
       -0.017667906 -1.5978057 -0.14248149 -0.76134956
0003b0 be 5d 83 bb 4f 4f ca be 1b 45 09 3f e6 9d d3 3d
       -0.0040089777 -0.39513633 0.5362107 0.10332851
0003c0 2a 5a c3 be a0 d8 85 3b 92 fd 41 bb 9b 1b 13 bc
       -0.38154727 0.0040846616 -0.0029600603 -0.00897875
0003d0 9c 9b b0 bb c6 1b b3 bc 65 48 05 3e 43 19 ae be
       -0.005389644 -0.02186383 0.13015898 -0.34003648
0003e0 7e d8 88 be 0b 97 49 3e d8 cf cb 3d c3 48 10 3e
       -0.2672767 0.19686525 0.099517524 0.14090256
0003f0 8f ea 8e bd 7f a2 09 3f e0 9e 6b be 56 46 bf 3e
       -0.06978332 0.53763574 -0.23009825 0.3735835

bias f4 [32]
000000 f8 78 c0 bd 3a 1c 30 be ce 6b fe 3d f2 cc 0e be
       -0.09398073 -0.17198268 0.12422906 -0.13945368
000010 f0 9f cd bb 11 b4 8f bc 3b 5a b6 3d 4d 4a 96 be
       -0.0062751696 -0.017541917 0.08903929 -0.29353562
000020 90 1a 72 be f3 8b 73 3d 65 99 3e 3e 57 8b a6 bd
       -0.23642945 0.059459638 0.18613203 -0.08132046
000030 62 59 81 3d b0 cf 66 be fa bb b4 3d af 61 0b be
       0.063158765 -0.22540164 0.08824916 -0.13611482
000040 30 6c 1b bc 12 6b 12 3e 44 06 6f be d7 ea 97 be
       -0.009486243 0.14298657 -0.23342234 -0.29671356
000050 60 d3 89 3e 19 2b 20 bd cd ba 01 be 53 8c a1 be
       0.2691908 -0.0391036 -0.12668915 -0.3155237
000060 fa a7 85 3d 5f 22 c6 bd 1d 2f d6 bd 06 d2 e1 bd
       0.065261796 -0.096745245 -0.10458205 -0.11026387
000070 ea 80 56 be 56 2b 05 bd db e1 2a be 81 f7 54 3e
       -0.20947614 -0.03251203 -0.1668772 0.2079754

weight f4 [32, 64]
000000 e5 b7 78 be 9e 9e 4f be 47 6c b3 be e2 51 9a 3e
       -0.242889 -0.20275351 -0.35043547 0.30140597
000010 26 49 91 bd db ca 27 be 61 32 e0 be 31 55 6d be
       -0.0709403 -0.16385977 -0.43788436 -0.23177029
000020 24 7a 41 be 41 91 45 be f1 06 e6 bd 8d 54 c5 bd
       -0.18894249 -0.19293691 -0.11231793 -0.096352674
000030 d4 ba ce bd f1 cf 3c bf 0d b6 2a 3d 90 30 37 be
       -0.100942284 -0.73754793 0.041677523 -0.17889619
000040 3b 97 1a be a0 c2 ea 3d 8e 0c 54 3e 1b de 70 bc
       -0.15096752 0.11462903 0.20707914 -0.014701392
000050 11 63 00 be 49 b5 32 bd a2 75 a9 3e ec b8 60 be
       -0.12537791 -0.04362992 0.3309756 -0.21945542
000060 3b 43 c9 be cf 55 aa 3e 9d 44 b6 bd fa 59 0c 3e
       -0.39309105 0.33268592 -0.08899806 0.13706198
000070 bb 11 84 be b5 0b eb bd 13 59 bc bd ac 06 c3 3d
       -0.25794777 -0.11476842 -0.09196677 0.09522757
000080 b0 ba b2 bd ab 60 4c be 4f e0 c3 be 45 65 31 be
       -0.08727014 -0.19958751 -0.3825707 -0.17323788
000090 1f 93 6c be d5 a4 1b be 90 d3 a3 bc 21 1b 26 3e
       -0.23102997 -0.15199597 -0.019998342 0.16221286
0000a0 ef ed 9e be 02 a8 84 3d ef 06 17 3d 5a aa cc 3d
       -0.31040904 0.064773574 0.036871847 0.099934295
0000b0 6b df 9b be fb de 69 3e 71 91 3c 3e f8 63 85 bd
       -0.30443892 0.22838967 0.18414856 -0.06513208
0000c0 7c a1 29 be 9a 30 83 3e d6 5c ff be 91 f8 d6 bd
       -0.16565508 0.25623018 -0.49875516 -0.10496629
0000d0 ba 66 ad 3e c2 81 98 bd 9e 13 44 3c 40 99 b0 3d
       0.33867437 -0.07446624 0.011967568 0.0862298
0000e0 dd 43 4c 3e 8c 28 1e be 00 6f 5f 3d e1 6c e3 bd
       0.19947763 -0.15445155 0.054549217 -0.111047514
0000f0 db 55 80 bd 91 6c 1b 3d 9c de d3 3b d4 3b ea bd
       -0.06266376 0.037945334 0.006465746 -0.114371926
000100 5b d7 49 be 8e f4 5a be 83 31 12 3d 6c 7b 4d 3d
       -0.19711058 -0.21382353 0.03569175 0.050166532
000110 c0 39 01 3e bb 6b 23 3d 97 a0 ed 3d 5f 9f e3 3c
       0.12619686 0.03989766 0.11602896 0.027785955
000120 c4 2e 95 3e d6 c0 1c be 85 0f 10 3d 32 50 08 3e
       0.29137242 -0.15307936 0.03517105 0.13311842
000130 42 c3 2c be 6a d0 c2 bd de cf 94 3d 73 ef 59 bd
       -0.1687136 -0.09512408 0.0726621 -0.053206872
000140 f2 06 a7 be ac 9f 58 bb b8 03 7d 3e f9 9d 78 bd
       -0.32622486 -0.0033054156 0.2470845 -0.06069753
000150 8a a1 81 bc 14 19 b1 be b8 a9 ae bd c1 17 e3 3d
       -0.015824098 -0.34589446 -0.08528465 0.11088515
000160 cf be 92 be 79 27 0c 3d b1 12 0a 3e ab d7 22 3d
       -0.286612 0.03421733 0.13483693 0.03975646
000170 18 18 5b be 9d e4 3f bd 84 39 44 3d 20 a9 2b 3e
       -0.2139591 -0.046848882 0.047906414 0.16763735
000180 fe 6d 2b be 99 f8 8b 3d a1 14 27 3e 45 f8 22 3d
       -0.16741177 0.068345256 0.16316463 0.03978755
000190 ba ae 1d be c2 b0 a7 3d be 1b ac be cf 45 24 3e
       -0.15398684 0.08188011 -0.33614916 0.16042255
0001a0 c2 d1 87 be 26 01 36 be de e1 cf 3d 29 41 af bd
       -0.2652722 -0.17773876 0.101505026 -0.0855735
0001b0 c4 09 4d 3e d6 9e f7 3d c1 24 da bb a5 90 3f bd
       0.20023257 0.120908424 -0.0066572134 -0.046768803
0001c0 09 61 05 3e 2a b7 e3 3d 18 08 2a be c4 46 e7 3d
       0.13025297 0.1111892 -0.1660465 0.11292794
0001d0 71 53 56 3d 79 18 af 3e ed 5c b2 3e 36 8e 02 3e
       0.05232567 0.3419836 0.34836522 0.12749562
0001e0 a4 21 f0 be 40 1e fa 3b 0f dc aa bd a4 e8 28 be
       -0.46900666 0.0076330006 -0.08342754 -0.16494995
0001f0 0a 92 18 be ba 72 d7 bd a5 62 3c 3d e4 e4 0b be
       -0.1489946 -0.10519929 0.045992512 -0.13661534
000200 6a 4d 5a be b9 b9 c0 3e b4 51 dd 3d 10 10 1a 3d
       -0.21318594 0.37641695 0.10806599 0.037612975
000210 66 a4 77 3d fd a9 50 3e ab ac 39 3b cd c8 f5 3d
       0.060459517 0.20377345 0.0028331678 0.1200119
000220 b9 1d 3f be 46 35 5d be 98 cc 2b 3d 20 fb 92 3e
       -0.18663682 -0.21602353 0.041943163 0.28707218
000230 85 12 05 3f 8f 0a 17 3e ee 28 d7 bc c3 75 cb 3d
       0.51981384 0.14750122 -0.026264634 0.09934571
000240 4d 8e b2 bd 22 a3 2e be a4 16 be be 79 01 1e 3b
       -0.08718548 -0.17054418 -0.37126648 0.0024109764
000250 ca 7f b2 bd 5d 02 56 3e 7b 64 32 3e f0 00 af 3e
       -0.0871578 0.20899339 0.17421143 0.34180403
000260 7f 8b 42 bc a5 fb 9f bc 5f f4 d0 3d c0 89 0e bd
       -0.011874079 -0.019529173 0.1020286 -0.034799337
000270 76 6e 19 3d 7f 65 bf 3d 54 38 ac 3d 90 86 39 be
       0.03745886 0.09345531 0.08409181 -0.18117738
000280 c1 b4 93 be 28 48 8b be 05 f0 93 be 92 21 b3 be
       -0.28848842 -0.27203488 -0.28894058 -0.3498655
000290 16 4b 98 3d 2e 5c 30 be f2 f4 45 be 96 02 ce 3d
       0.074361965 -0.17222664 -0.1933172 0.10059087
0002a0 a3 a9 73 3e d1 e7 16 be 23 ab fb 3c 54 24 13 be
       0.2379518 -0.14736868 0.030721253 -0.14369327
0002b0 bb af 19 be e6 02 30 be 02 e9 66 be a9 69 02 be
       -0.15008442 -0.17188606 -0.22549823 -0.12735619
0002c0 30 60 c3 be 62 a9 d9 bd 48 da 92 3e 9e 21 b9 be
       -0.38159323 -0.1062801 0.2868216 -0.3615846
0002d0 a7 8c 7a be 6e 2d 07 bf 13 59 6a be d0 98 ac 3c
       -0.24467717 -0.52803695 -0.22885542 0.02106896
0002e0 2f ba 4e be 4a c1 00 bd 15 ed 77 3e 2d 27 9a 3c
       -0.20188211 -0.031434335 0.24211533 0.018817509
0002f0 01 7c bb bd a6 d7 dd 3d 64 80 62 3e c9 0e 47 3e
       -0.09154511 0.10832147 0.2211929 0.19439234
000300 6f a4 e0 3c 42 31 4b 3d 12 ff a6 be d9 0c c4 3e
       0.027422158 0.049607523 -0.32616478 0.38291052
000310 79 56 42 be dc 0e 48 be 48 f9 22 be 2f 71 35 3e
       -0.18978299 -0.19536918 -0.15915406 0.17718957
000320 a9 62 96 bd da e5 1b be 97 61 be bd fd 91 c3 bc
       -0.07343037 -0.152244 -0.092959575 -0.023873324
000330 aa 2e d5 3d 50 0f 8b be 57 db 6c 3d ac be 0f be
       0.10409291 -0.2716012 0.057826366 -0.1403758
000340 ae d2 3b be f5 59 2d 3e cd 62 e0 bd 89 1d 4b be
       -0.18342087 0.16928847 -0.10956345 -0.19835486
000350 41 67 90 bd cd 9c 4a be 75 e8 c6 3e 6c 5e 5a be
       -0.07050944 -0.19786377 0.38849226 -0.21325082
000360 0b 74 39 bd 86 b0 e2 3c d4 a2 c8 bd 72 43 0c bc
       -0.045276683 0.027672064 -0.09796682 -0.008561002
000370 19 51 e3 3c 00 17 20 be 73 52 0b 3c 60 27 21 be
       0.027748631 -0.15633774 0.008503544 -0.15737677
000380 bb d7 b9 be 9e 94 9e bd ed 58 ea be 12 2f 06 bf
       -0.36297402 -0.0774319 -0.4577097 -0.52415574
000390 1c e3 20 be 60 b3 95 be 99 0a ea bd f3 d1 e9 be
       -0.15711635 -0.29238415 -0.114278026 -0.4566799
0003a0 bb 73 44 3c 67 83 a9 be fb 16 8c bd df eb 0b be
       0.011990483 -0.33108065 -0.06840321 -0.13664196
0003b0 e4 af 38 be 18 3a ae bd 37 9b 62 bc 46 00 d9 bd
       -0.18035847 -0.08507174 -0.013830951 -0.10595755
0003c0 d2 aa 3d be 81 76 d1 bd ec e8 73 be 26 8a d4 bd
       -0.18522194 -0.10227681 -0.23819321 -0.10377912
0003d0 0a 17 98 be 7b 3c dd be af f2 30 be 56 0e e0 be
       -0.29705077 -0.43210205 -0.17280076 -0.43760937
0003e0 47 96 a5 3e 9e 08 96 be f8 53 e6 bd c8 05 da bd
       0.32341215 -0.2930345 -0.112464845 -0.10645634
0003f0 00 26 2f 3e 0c 4a 74 be 31 6a 25 3d a3 29 76 bc
       0.1710434 -0.23856372 0.040384475 -0.015024575

bias f4 [32]
000000 40 b0 6f 3c a7 69 a7 bd 29 a0 05 be 4e 33 9a be
       0.014629424 -0.081744485 -0.13049378 -0.30117267
000010 1b d8 be bd 2b ec 96 bd a9 e3 0b be 65 26 52 be
       -0.093185626 -0.07369264 -0.13661064 -0.20522459
000020 ee 32 01 be 29 02 0e be 11 ed 83 bd 95 30 ff bd
       -0.12617084 -0.13868012 -0.06441701 -0.12460438
000030 bc e1 b6 bd 0b 5a 48 3d e8 0f ed bd 22 c5 eb 3c
       -0.08929774 0.048913997 -0.115752995 0.028780524
000040 cc b1 64 bd 8a d8 2e be c7 0b 85 bd ea 66 52 3d
       -0.055833623 -0.1707479 -0.06496387 0.051367678
000050 8f de 41 3d 20 3b fb bd a3 29 1b 3c a5 f2 38 3d
       0.04733139 -0.122671366 0.009470376 0.04515328
000060 98 6a f7 bd f4 86 69 be 29 7a 82 3d 93 21 b6 3d
       -0.12080878 -0.22805387 0.063709565 0.088931225
000070 f2 cb 83 bc 29 bc c4 bd 0f 6b 94 3d 00 bb 92 bc
       -0.01608846 -0.09606201 0.07246982 -0.017911434

weight f4 [32, 32]
000000 b5 ba 00 00 b2 cd 03 80 f8 c9 05 80 6c cd 06 80
       6.6978e-41 -3.49296e-40 -5.3163e-40 -6.24704e-40
000010 c3 f8 04 80 b9 93 59 8a 73 79 4e 02 b4 78 04 80
       -4.56581e-40 -1.04759535e-32 1.5169344e-37 -4.10642e-40
000020 6f a6 04 00 ad 84 03 00 c8 61 08 80 4f 5f 05 80
       4.27047e-40 3.23102e-40 -7.69761e-40 -4.93368e-40
000030 82 85 00 80 5e 53 03 80 cd 10 04 00 85 b9 02 00
       -4.7894e-41 -3.05413e-40 3.73369e-40 2.50223e-40
000040 ff f7 06 00 bd 4b 00 00 ab 9b 01 80 56 2c 06 80
       6.39977e-40 2.717e-41 -1.47679e-40 -5.66918e-40
000050 ec 9b 03 00 87 eb 00 80 1b af 02 00 58 4b 02 00
       3.31441e-40 -8.4491e-41 2.46487e-40 2.10699e-40
000060 b4 67 9a 06 61 21 02 00 48 71 07 80 2e 08 02 80
       5.808074e-35 1.95645e-40 -6.83486e-40 -1.86605e-40
000070 20 39 07 80 e9 09 03 80 c5 c9 05 00 d3 b9 05 80
       -6.63341e-40 -2.79062e-40 5.31559e-40 -5.25839e-40
000080 c8 e6 dc 3c 9b b8 5d bd 99 81 ea bd e7 f4 a0 3d
       0.026965514 -0.05413113 -0.114505 0.078592114
000090 86 07 2a 3d e1 fe c8 3d b4 5b 11 3d a8 42 13 be
       0.04151108 0.09814239 0.035487846 -0.14380896
0000a0 22 d7 03 be 48 7b 4b 3d df 14 b3 bd a3 c0 7c bd
       -0.12875035 0.049678117 -0.08744215 -0.06170715
0000b0 32 1a 22 be c1 dc 64 3c 6f 5a a1 bd 7b 43 4f be
       -0.15830305 0.013968647 -0.07878577 -0.20240586
0000c0 5a 1c 13 be 6d 94 a2 be bb dc 1b 3c 9f 71 b2 bd
       -0.14366284 -0.31753865 0.009513075 -0.08713078
0000d0 fe f7 07 be a5 55 7d bd ac de 66 be ed a2 12 3c
       -0.13278195 -0.061849255 -0.2254588 0.008949977
0000e0 f3 8d f7 bd ef 50 cc bd e6 a1 2b be 54 4b df bc
       -0.120876215 -0.09976374 -0.16760978 -0.027257599
0000f0 48 6b 13 bd e0 9b 99 bd af 32 65 bd de d8 ff bb
       -0.035990983 -0.07500434 -0.05595654 -0.007807835
000100 fb a6 05 80 c5 0b 07 00 4c aa 4c 8e 1b 88 8c 09
       -5.19079e-40 6.4707e-40 -2.5226936e-30 3.3831767e-33
000110 4e 87 07 00 8b 01 67 a8 b5 99 04 80 be 36 05 00
       6.91387e-40 -1.28234105e-14 -4.22482e-40 4.78815e-40
000120 8f 2d 02 80 4c 91 01 80 9b 31 08 80 b8 20 00 00
       -2.00014e-40 -1.43958e-40 -7.52479e-40 1.1737e-41
000130 80 c4 a4 09 bf 47 07 00 a8 59 03 80 53 07 03 00
       3.966635e-33 6.68586e-40 -3.07669e-40 2.78134e-40
000140 eb 2b b7 af 08 dd 96 94 6f 54 04 00 c3 5e 07 80
       -3.3318712e-10 -1.5233311e-26 3.97631e-40 -6.76843e-40
000150 05 57 01 80 0d 2e 21 af a9 91 05 00 4d eb b5 96
       -1.23052e-40 -1.4659225e-10 5.1143e-40 -2.9390623e-25
000160 55 74 1a 13 a3 e7 04 00 4d 8d 00 80 9d 2b 08 00
       1.9494889e-27 4.50438e-40 -5.0689e-41 7.5033e-40
000170 d9 97 07 80 29 83 03 00 43 41 03 00 a0 d9 07 00
       -6.97321e-40 3.22558e-40 2.98918e-40 7.20918e-40
000180 77 10 97 a0 ea 4f 83 b9 39 dd 80 b8 e2 72 0a bb
       -2.559129e-19 -0.00025045808 -6.1447216e-05 -0.0021125604
000190 11 b4 10 3a 83 bd 59 ba 81 7a b9 b9 78 bb e1 b9
       0.0005519996 -0.00083061325 -0.00035377222 -0.0004305502
0001a0 bd a5 b8 ad ab af 1f b8 12 ee e8 94 b3 a9 d5 b5
       -2.099198e-11 -3.8072158e-05 -2.3519916e-26 -1.5919126e-06
0001b0 bb c8 32 b7 ea 0e 98 b8 cd 7d f0 b9 ba 8e b9 b3
       -1.0656363e-05 -7.250703e-05 -0.00045870096 -8.6406956e-08
0001c0 16 a3 f3 b9 c4 fc 25 b8 33 ed 20 bb ba 0f 8b b4
       -0.0004647008 -3.9574472e-05 -0.0024555444 -2.590221e-07
0001d0 b8 2b d2 b8 89 d8 84 b9 ec 27 bd 39 57 0f bc 34
       -0.000100217236 -0.00025338333 0.00036078633 3.502889e-07
0001e0 94 3a 86 b8 f6 59 83 b1 f3 c2 5f 2f ad 8f 0d 38
       -6.400529e-05 -3.822829e-09 2.0350992e-10 3.3750828e-05
0001f0 0e c4 d4 34 c1 1c b0 38 2b 79 17 02 d0 af 8b 38
       3.9630726e-07 8.39769e-05 1.1128501e-37 6.660784e-05
000200 d9 ec 6f b7 77 0e 1d 38 8e 38 8c bb fc e7 bc bb
       -1.43006555e-05 3.744519e-05 -0.004279203 -0.0057649594
000210 7b b9 51 b0 0a 15 40 bc ad 78 12 37 6d ce c1 35
       -7.629734e-10 -0.011723766 8.730375e-06 1.4439698e-06
000220 7b fa 87 2e 70 47 6b 34 00 ea 94 b3 45 fb 28 b0
       6.1835835e-11 2.191207e-07 -6.9343514e-08 -6.147512e-10
000230 b4 fe 1c 3b 59 b9 a7 b7 95 5a a3 2e fe f2 1c 37
       0.0023955526 -1.999426e-05 7.4284724e-11 9.354901e-06
000240 d5 47 67 bb 77 f1 7d b9 f6 f2 55 38 7f 92 6c b6
       -0.0035290618 -0.00024217913 5.1009432e-05 -3.5252012e-06
000250 71 0d ea b5 e2 3f fe bb ba a8 03 ba 62 2f 21 38
       -1.743827e-06 -0.0077590803 -0.00050223956 3.842952e-05
000260 2b 0f a5 39 83 3a 88 38 9c f0 31 24 99 b8 15 2d
       0.00031482553 6.495884e-05 3.858456e-17 8.510658e-12
000270 7b 50 b0 35 2a ce 4b b5 7f 3a 25 2b 35 ac 69 b5
       1.3136445e-06 -7.59234e-07 5.8700955e-13 -8.704986e-07
000280 37 ac 76 bd 27 8e de bd 2c a0 30 ba 73 0d 8a bd
       -0.06022283 -0.10866957 -0.00067377347 -0.067408465
000290 6a 78 38 3e 1c 28 14 b4 41 1c a6 3d 2b 91 37 bd
       0.18014684 -1.3798166e-07 0.08110858 -0.044816177
0002a0 0b 1f 5f 3e 8f 46 f4 bc 41 a3 fa bc 97 84 b8 ba
       0.21789186 -0.029818801 -0.030595424 -0.0014077601
0002b0 5e f2 39 bd 05 c2 70 3e 9d db fa 3b 6c 8b de 3d
       -0.045397155 0.23511513 0.0076555745 0.10866436
0002c0 06 8c 8d 3e 8b 82 e8 bd 5a cb 77 3d 4d fb 5a 3c
       0.27645892 -0.11353024 0.060496666 0.013365579
0002d0 63 04 24 bd 21 a7 62 bd 80 97 59 bd aa 95 a2 3c
       -0.040043246 -0.055335168 -0.053122997 0.019846756
0002e0 92 9f 9a 3e 01 b6 26 be 8d f1 5a bd c4 29 49 bd
       0.30199867 -0.16280366 -0.053453017 -0.049112096
0002f0 03 a8 4a 3e f0 7f 6e bd 06 ac 59 bd 54 01 60 bc
       0.19790654 -0.05822748 -0.05314257 -0.013672192
000300 bf 5a 69 3e 5b f0 cf 3a 61 86 4d 3d 0d 85 1d 3d
       0.22788523 0.0015864478 0.05017698 0.038456965
000310 4f 17 7a 3c 1c 65 50 bd c5 ff ce ba 0a a8 71 bd
       0.015264346 -0.050877675 -0.0015792778 -0.058998145
000320 bb 77 0d bc 0f 07 4f 3d 88 f8 91 ba 65 53 50 3b
       -0.008634503 0.05054384 -0.001113669 0.0031787988
000330 99 c7 aa bb 8f 24 24 bb 1d 7b 5b ba 04 7d e7 3c
       -0.005211782 -0.0025046205 -0.00083725323 0.028257854
000340 ab d3 e5 3a f0 11 55 bd 00 2f 8a bd 8d 35 74 bc
       0.0017534395 -0.05201906 -0.06747246 -0.014905346
000350 a9 30 c0 3c 41 17 a9 bb e2 bf 8d bd 40 21 10 bb
       0.023460703 -0.005160243 -0.06921364 -0.0021992475
000360 5b 30 bd ba 47 00 b4 bd 0d 89 a7 bb 79 ef 24 3a
       -0.0014433967 -0.087891154 -0.0051127733 0.0006291788
000370 33 70 29 3c 47 5e 8b 3c 4f 46 d3 3c 74 f2 5b bd
       0.010341692 0.017012728 0.025790362 -0.05369802
000380 38 4f e5 3d 0c 46 73 be c2 6e 0c bf 73 85 e8 3b
       0.111967504 -0.2375719 -0.54856503 0.0070959865
000390 36 f4 b8 be 21 6a f5 3d 7d c5 28 3e 31 ee c8 be
       -0.36123818 0.11983133 0.16481586 -0.39244226
0003a0 be 56 17 be 09 eb 53 3e f5 34 ea be 0f a8 88 be
       -0.14779183 0.20695128 -0.45743528 -0.2669072
0003b0 5e 9b 2f be 9e 2f ca be f6 64 3e be de 33 30 bf
       -0.17149112 -0.39489454 -0.18593201 -0.68829143
0003c0 ab 9d db 3c e7 86 b2 be d1 75 bb be 79 ca 8c be
       0.02680858 -0.34868547 -0.36613324 -0.27498224
0003d0 c9 39 ca bd 59 4f be bb 50 19 eb be 82 e2 aa be
       -0.09874303 -0.005807799 -0.4591775 -0.33375937
0003e0 4e 14 a2 3e bc d3 8b be c8 cf 7c be ce bb b8 bd
       0.31656116 -0.27309978 -0.24688637 -0.09020196
0003f0 1f c6 1b 3b 57 06 c7 be bf e9 86 be a8 a8 1b be
       0.0023769212 -0.38872024 -0.2635021 -0.15201056

bias f4 [32]
000000 05 ac 1b ba be 46 88 3e 97 76 e6 bb 05 e8 41 bc
       -0.00059384137 0.26616472 -0.00703318 -0.011835103
000010 90 f2 52 bd 2b 38 c8 be 59 c2 11 be 77 6f 8e 3e
       -0.051500857 -0.39105353 -0.14234294 0.27819416
000020 49 4a 90 b6 9c fb ca 3e a9 3c 5c 3e 05 dd 43 3e
       -4.3001824e-06 0.39645088 0.21507515 0.19127281
000030 7e 40 e6 3e 83 7a 54 3e 8e ab 47 3e 5f 85 3e 34
       0.4497108 0.2074986 0.19499037 1.7743649e-07
000040 3a f6 60 3c 78 7a 95 bd 63 6e 4a bd a6 ac 8c 94
       0.01373058 -0.0729875 -0.04942168 -1.4204485e-26
000050 07 3f 9b 3e 2c ba 8f 3e bd 24 35 3e 6b ec 70 9e
       0.30321524 0.28071725 0.17689796 -1.2754384e-20
000060 91 2e 38 bd 70 91 9a 3e 6f 6f df bc f3 58 5d 3e
       -0.044966284 0.30189085 -0.027274815 0.21615963
000070 0f b2 3b bc 05 e9 c5 bb ac 47 ba 3e b7 7e 5f bb
       -0.011456027 -0.006039741 0.36382806 -0.0034102628

weight f4 [32, 32]
000000 ea 54 4a 26 04 ec 93 9d fb 51 61 24 b1 a0 04 00
       7.019791e-16 -3.915461e-21 4.8858538e-17 4.24987e-40
000010 4e 9f 03 00 30 0d 02 80 1f 44 da a6 18 bb 03 00
       3.32654e-40 -1.88402e-40 -1.5145253e-15 3.42623e-40
000020 94 cc 36 9d 15 fe 17 90 a3 ee 07 00 1c 62 f4 1b
       -2.4193264e-21 -2.9975237e-29 7.28455e-40 4.0429816e-22
000030 81 98 04 80 5d 87 b8 a5 33 92 dc b7 38 c7 ea ae
       -4.2205e-40 -3.2010638e-16 -2.6294123e-05 -1.06764764e-10
000040 78 4e d2 21 13 6f 20 a8 f9 85 7e 2b 4e e2 14 30
       1.4250924e-18 -8.90587e-15 9.042485e-13 5.4163685e-10
000050 2b ad 03 00 3f f6 92 22 55 54 27 9b ec 87 1f a4
       3.37627e-40 3.9834102e-18 -1.3841165e-22 -3.459276e-17
000060 d7 69 07 00 58 ea 66 ab bf 15 f2 b0 30 8c 03 a2
       6.80817e-40 -8.203763e-13 -1.7613998e-09 -1.7828025e-18
000070 cb 9f 8f ac e3 97 60 9e 89 7a 3e 26 ef ff 1e 1b
       -4.082045e-12 -1.1889871e-20 6.608556e-16 1.315215e-22
000080 57 ec 07 bf a0 3b 5f 3d 20 78 19 bd f3 18 16 be
       -0.53095 0.054500222 -0.037468076 -0.14657955
000090 62 35 a6 bd e9 4a 0a bb d3 39 52 be 3c 12 96 bd
       -0.08115651 -0.002110178 -0.2052987 -0.07327697
0000a0 79 3b e8 bd 19 ca 83 be 26 c2 c9 be 52 6b a0 3d
       -0.113394685 -0.25740126 -0.39405936 0.0783297
0000b0 eb e1 8a be 90 03 e9 be 49 2f 32 be 27 01 a7 be
       -0.27125487 -0.4551053 -0.1740085 -0.32618067
0000c0 05 65 3b be 37 84 1f bf 71 6c 3a bd 1f 08 a5 be
       -0.18300255 -0.6231112 -0.045513574 -0.32232758
0000d0 69 b6 fc be 34 46 8e 3e 23 04 c4 be 25 0c 99 be
       -0.49357918 0.27787936 -0.38284406 -0.29892078
0000e0 78 00 40 be d1 65 37 bd b1 5f 67 bd 29 d5 10 bf
       -0.18750179 -0.044774834 -0.056487743 -0.56575257
0000f0 07 de 21 be 96 cb 56 3d bd ef 9e be 07 44 ce 3e
       -0.15807353 0.05244025 -0.3104228 0.40286276
000100 e7 06 b6 b6 d1 11 41 b5 18 8f a2 ad f2 85 02 ae
       -5.424826e-06 -7.192403e-07 -1.8480814e-11 -2.9677545e-11
000110 11 be e1 92 35 18 07 00 6e d2 f9 b1 26 36 9c 9c
       -1.4246351e-27 6.51532e-40 -7.270777e-09 -1.0337211e-21
000120 77 03 a9 b1 4b 86 4f b6 24 75 4c b6 43 85 c8 a2
       -4.9189413e-09 -3.0923572e-06 -3.0466554e-06 -5.4351205e-18
000130 f3 5c e5 84 80 50 8b b9 19 2c d8 ba d5 82 8e b4
       -5.3923e-36 -0.00026572123 -0.0016492634 -2.6544754e-07
000140 f8 71 95 af 2e 7f 0c b9 dd d6 68 b6 78 8c a6 b6
       -2.7183922e-10 -0.00013398819 -3.469576e-06 -4.9635382e-06
000150 8c 73 e5 b5 4c c2 8c a7 61 7a b0 b0 f7 ae 09 b9
       -1.7095458e-06 -3.9068463e-15 -1.2840468e-09 -0.00013130518
000160 be 87 01 00 3d dd 75 b6 80 2a 9c b7 7c b3 b4 b2
       1.4053e-40 -3.6636623e-06 -1.861644e-05 -2.1036378e-08
000170 a2 66 95 b7 af 94 86 b0 58 46 e7 a9 4d 07 cf a5
       -1.7809976e-05 -9.792042e-10 -1.02706634e-13 -3.5913723e-16
000180 80 c4 3d bc f9 e0 d1 ba f5 12 15 bb a6 9c b9 b8
       -0.011582494 -0.0016012482 -0.0022746895 -8.8506655e-05
000190 44 e3 1e b9 9a 00 4b 38 ef 3b ee bb 34 44 3a ba
       -0.00015152717 4.839953e-05 -0.0072703282 -0.00071055
0001a0 1b 0f e9 ba 4d fd 09 bb 11 13 67 ba 6b c3 c6 ba
       -0.0017780991 -0.002105552 -0.0008814792 -0.001516444
0001b0 0e af 21 bb 33 8c 1a bb 94 9d 5a bd 14 ca 3b bc
       -0.002467099 -0.00235821 -0.053372934 -0.011461753
0001c0 d5 d7 f4 ba b1 bf 2b bb f5 c0 09 bb 0d af 09 bc
       -0.0018680046 -0.0026206786 -0.0021019552 -0.008403552
0001d0 67 b0 eb bb 28 15 14 bb f9 30 72 bb c3 b1 42 bc
       -0.0071926597 -0.0022595618 -0.003695546 -0.011883202
0001e0 48 ca b3 ba a1 37 88 bb 60 97 39 bd 47 1b 3d bc
       -0.0013716901 -0.004157022 -0.045310378 -0.011542148
0001f0 22 c5 03 bb 0f 48 58 bb d1 dd 06 37 42 43 f1 bb
       -0.0020106514 -0.0033001935 8.038668e-06 -0.007362754
000200 a0 31 22 3c f8 ac d7 bc cc 24 f1 bb 9a 64 65 bc
       0.009899527 -0.026327595 -0.007359123 -0.014001036
000210 39 b6 5c bb 85 36 eb b9 8f 96 ad bc cc 45 99 bb
       -0.003367795 -0.00044863313 -0.021189956 -0.00467751
000220 0e a9 8c bc 2f d0 a1 bc e9 1d a9 bc 28 81 d8 ba
       -0.017170455 -0.01975259 -0.020644145 -0.0016517984
000230 16 8c e5 b9 9e 21 94 bd 3c 9a b2 bc fe 0d 48 bd
       -0.00043782656 -0.072329745 -0.02180206 -0.04884147
000240 8a 5d 0c bd 4d 47 3e bd 28 dd a5 bc 97 94 c8 3a
       -0.034268893 -0.046454716 -0.020247057 0.0015303072
000250 aa 37 d1 bc cd a8 ab bb fb a9 47 bb f2 64 dc bc
       -0.025539238 -0.0052386285 -0.0030466306 -0.026903603
000260 69 53 73 b7 21 da 97 bc 11 b9 20 bd 01 cb 97 bc
       -1.4503349e-05 -0.01853663 -0.039238993 -0.018529417
000270 f9 5a 88 bc 26 bf 3e bc c0 57 4e bb b9 26 af bb
       -0.016644942 -0.011642253 -0.0031485409 -0.0053451923
000280 ec f7 5d be f7 ce 63 bd c2 8e bf bd a0 44 87 bc
       -0.21676606 -0.0556173 -0.09353401 -0.016512215
000290 f9 19 6b bc e1 36 2f bc 92 44 70 be 92 a8 2e bc
       -0.014349454 -0.0106942365 -0.23463657 -0.0106603075
0002a0 2d 45 b8 bd 17 ac bf bd c9 ef 5f bc d5 96 9f bc
       -0.08997569 -0.093589954 -0.013668009 -0.019481102
0002b0 a4 dc 59 bd ac ed 6f be 75 e7 0a 3e 0e 5f 0d be
       -0.053188935 -0.23430508 0.13564856 -0.13805792
0002c0 2f 24 95 bd 89 0c 19 bd 6a 7f 70 3c fc d0 5b 3d
       -0.07282292 -0.03736547 0.014678815 0.0536661
0002d0 49 fb 22 bd 71 5c 30 3e 13 00 f7 bd b0 13 2a bc
       -0.039790425 0.17222764 -0.12060561 -0.01038067
0002e0 bd 24 b5 3c 76 ec 42 3d c4 e0 22 3e 78 cf 99 bd
       0.022112245 0.047588788 0.15906054 -0.07510275
0002f0 67 f2 77 3c 45 1c a7 bd 38 df 9c bc 6d ea 3f bd
       0.015133477 -0.08159689 -0.019149408 -0.046854425
000300 19 1d 63 bd 1f 97 0d bd df c7 11 bd 62 b5 1a 3c
       -0.05544767 -0.03456795 -0.035591003 0.009442659
000310 f0 37 b2 bb c9 ce 79 bb 1a 0b 33 bd a7 e6 34 bc
       -0.005438797 -0.0038117638 -0.04371176 -0.01104132
000320 50 49 28 bb 6b 94 f1 bc bc 1d 24 bc 13 26 95 3c
       -0.0025678463 -0.029489717 -0.010016855 0.018206632
000330 e7 68 d0 bc a3 05 2c 3c a7 6f e5 bd e9 20 32 3c
       -0.025440646 0.010499391 -0.112029366 0.010872104
000340 9e df 92 bc d2 54 1b bd 0b 0f 65 bc 4e eb 42 bd
       -0.017928895 -0.037922688 -0.013980637 -0.047587685
000350 d1 e4 d0 bb c8 65 95 bc 41 be 4e 3a e6 d3 0b bd
       -0.0063749333 -0.01823701 0.00078866264 -0.03413763
000360 a7 26 4c bc d2 5e 2a bd b4 f4 84 3c 64 d0 10 be
       -0.012460387 -0.041594334 0.016229965 -0.14141995
000370 0a 64 a4 bd 92 14 f8 bd e8 b2 95 bb 7f a5 2a bd
       -0.080268934 -0.121132985 -0.0045684464 -0.041661736
000380 e5 b2 80 3e 30 7c b7 bd f7 f1 f2 bd a7 3d cc 3e
       0.25136486 -0.08959234 -0.118625574 0.39890787
000390 91 ec a6 3d bc 34 8d 3d 5b ff 0d 3e 9c 09 47 3d
       0.0815059 0.06894824 0.13866942 0.04859315
0003a0 23 80 ba 3d d5 17 02 3e 0f 39 15 3e f8 9a 89 3e
       0.091064714 0.12704404 0.14572547 0.26876044
0003b0 5a e6 ff bc f5 8e 06 3e 26 54 f5 be 17 c0 01 3e
       -0.03123777 0.13140471 -0.47915763 0.12670933
0003c0 83 23 ab 3e dc 4a 63 3e c4 a3 0c 3e 4c a4 1e be
       0.3342553 0.22196525 0.13734347 -0.15492362
0003d0 62 b7 83 3e 8e 48 38 bf 84 1e 5f 3c da a5 6d 3d
       0.25725847 -0.7198571 0.013618115 0.058019497
0003e0 66 5c c0 bd 75 5a 56 be cf 03 0a bf 1b e0 cd 3d
       -0.093926236 -0.20932944 -0.5391206 0.1005251
0003f0 51 23 f0 bd 54 f6 86 be ed 39 55 3d 00 17 50 bc
       -0.11725486 -0.26359808 0.052057195 -0.012700796

bias f4 [32]
000000 ba b6 ed 39 8c c9 98 3e 2a fc dd bb e8 56 39 3d
       0.00045340304 0.29841268 -0.006774445 0.045248896
000010 d2 e2 52 bd d5 72 5e be 88 b5 11 be a0 e1 0b 3e
       -0.051485844 -0.21723492 -0.14229405 0.13660288
000020 0c 35 8d b6 4a 1d 70 3e 44 42 4a 3e c0 ae 5f 3e
       -4.208303e-06 0.23448673 0.19751841 0.21844006
000030 d4 e9 87 3e 36 77 da 3e f4 fa 71 3e 9d 8f 46 b5
       0.26545584 0.42669076 0.23630887 -7.396973e-07
000040 97 db 93 3c ed 7a 13 be 59 0c 4a bd 14 c8 52 13
       0.018049045 -0.14402361 -0.049328182 2.6604373e-27
000050 80 27 2d 3e 60 ae 90 3e eb db a1 3e bb c1 cb 1c
       0.169096 0.28258038 0.31613097 1.3483491e-21
000060 1b 27 38 bd ef 18 7b 3e f2 20 df bc 26 84 d6 3e
       -0.04495917 0.2452123 -0.02723739 0.41897696
000070 fe 5e 3b bc 3b aa ec 3b b5 ea 86 3e 8a 41 c1 ba
       -0.011436222 0.0072224415 0.26350942 -0.0014744264
