train_script/weights/GANOrigEdgeBased_model300new/297.pth (torch, 152745 bytes, 129 tensors)

attnN1.node_attn_maps.0.weight f4 [8, 13]
0	0x800360fe	-3.10301e-40
1	0x0001649f	1.27932e-40
2	0x0000d6df	7.7081e-41
3	0x8002dc78	-2.6276e-40
4	0x8009e5f8	-9.09017e-40
5	0x000102a6	9.2786e-41
6	0x0004be36	4.35577e-40
7	0x8004b634	-4.32704e-40
8	0x800ab2cd	-9.82497e-40
9	0x8007d8f3	-7.20675e-40
10	0x000159e9	1.24089e-40
11	0x80025d4e	-2.17142e-40
12	0x80079c12	-6.98836e-40
13	0x0007ebde	7.27462e-40
14	0x00097256	8.67535e-40
15	0x00087273	7.7574e-40
16	0x800511e2	-4.65593e-40
17	0x8001ff00	-1.83312e-40
18	0x000a0ce8	9.22985e-40
19	0x800472a1	-4.08463e-40
20	0x00097085	8.66884e-40
21	0x0004f3e5	4.54835e-40
22	0x8005543b	-4.89394e-40
23	0x80049b95	-4.23154e-40
24	0x8008d949	-8.12631e-40
25	0x800a14ca	-9.25813e-40
26	0x8009326b	-8.44606e-40
27	0x8005f4f6	-5.47053e-40
28	0x8004d297	-4.42887e-40
29	0x8009105e	-8.32391e-40
30	0x8007c082	-7.11907e-40
31	0x000af042	1.004543e-39
32	0x80070e54	-6.47988e-40
33	0x000273c1	2.25196e-40
34	0x00047785	4.10218e-40
35	0x000a9189	9.70563e-40
36	0x80095050	-8.5533e-40
37	0x00012ab8	1.0716e-40
38	0x000894f3	7.88117e-40
39	0x80010bd1	-9.6074e-41
40	0x80027e8f	-2.29072e-40
41	0x80014cec	-1.1943e-40
42	0x0008cbc7	8.07786e-40
43	0x00058d0e	5.09778e-40
44	0x00002226	1.225e-41
45	0x00082923	7.49441e-40
46	0x800a6793	-9.5551e-40
47	0x80008e02	-5.0943e-41
48	0x0005e408	5.4098e-40
49	0x8006b7a0	-6.16885e-40
50	0x8009e48c	-9.08507e-40
51	0x0001d7cc	1.69249e-40
52	0x80095230	-8.56003e-40
53	0x00011c85	1.02066e-40
54	0x80085406	-7.64826e-40
55	0x00071a71	6.52334e-40
56	0x0008bc86	8.02313e-40
57	0x00070ef4	6.48213e-40
58	0x8002e3b1	-2.65351e-40
59	0x80063246	-5.69048e-40
60	0x800a7eee	-9.63889e-40
61	0x000224f6	1.9693e-40
62	0x80006bc2	-3.8656e-41
63	0x000a4633	9.43538e-40
64	0x000a0ecd	9.23664e-40
65	0x00065652	5.81979e-40
66	0x8003d3b0	-3.51446e-40
67	0x0006d445	6.27161e-40
68	0x80084984	-7.61056e-40
69	0x000432be	3.85545e-40
70	0x0009c7fb	8.98259e-40
71	0x0001685f	1.29277e-40
72	0x8005d327	-5.34925e-40
73	0x0001e6b0	1.7459e-40
74	0x80089e7b	-7.91536e-40
75	0x80082a19	-7.49786e-40
76	0x8003f703	-3.64118e-40
77	0x0008a078	7.9225e-40
78	0x000a9675	9.72329e-40
79	0x800ad5d3	-9.9506e-40
80	0x8007c971	-7.15112e-40
81	0x800b01fa	-1.0109e-39
82	0x000a1540	9.25978e-40
83	0x800165e3	-1.28386e-40
84	0x8002494f	-2.09969e-40
85	0x80083d0c	-7.56583e-40
86	0x0006fbf8	6.41402e-40
87	0x0000c4e0	7.0625e-41
88	0x800ad681	-9.95304e-40
89	0x800748d4	-6.68974e-40
90	0x80087df2	-7.79865e-40
91	0x000a0cca	9.22943e-40
92	0x8002068b	-1.86018e-40
93	0x8009ca73	-8.99145e-40
94	0x00072f0a	6.59723e-40
95	0x800a7133	-9.58963e-40
96	0x0000ac42	6.1794e-41
97	0x00064714	5.76511e-40
98	0x8005cf39	-5.33515e-40
99	0x800a5550	-9.4896e-40
100	0x80035df3	-3.09209e-40
101	0x0001b06d	1.55125e-40
102	0x80029e63	-2.4049e-40
103	0x0008e9eb	8.18598e-40

attnN1.node_attn_maps.0.bias f4 [8]
0	0x00092da6	8.42895e-40
1	0x800a3ff3	-9.41296e-40
2	0x0004762b	4.09733e-40
3	0x8006d1f2	-6.26327e-40
4	0x80043a4b	-3.88254e-40
5	0x80048be5	-4.17527e-40
6	0x000c6cd2	1.141063e-39
7	0x000443a2	3.91604e-40

attnN1.node_attn_maps.1.weight f4 [8, 13]
0	0x0002dc66	2.62735e-40
1	0x8006b257	-6.14989e-40
2	0x8006ef99	-6.36964e-40
3	0x8006e045	-6.31466e-40
4	0x800871c3	-7.75494e-40
5	0x0000a7ab	6.0148e-41
6	0x00014d96	1.19668e-40
7	0x000120e2	1.03632e-40
8	0x000300f2	2.75846e-40
9	0x000a1850	9.27077e-40
10	0x8002d468	-2.59868e-40
11	0x80017ef9	-1.37385e-40
12	0x00006204	3.5161e-41
13	0x00039ea9	3.32423e-40
14	0x0009b188	8.90206e-40
15	0x00034e72	3.03647e-40
16	0x0004885a	4.16256e-40
17	0x8009894f	-8.75777e-40
18	0x8000ddfb	-7.9632e-41
19	0x80080663	-7.36975e-40
20	0x000539ac	4.79866e-40
21	0x0002751b	2.2568e-40
22	0x8009cc3f	-8.99789e-40
23	0x8004733c	-4.0868e-40
24	0x0009d04a	9.0124e-40
25	0x00068f83	6.02495e-40
26	0x0001f1b2	1.7854e-40
27	0x80074948	-6.69137e-40
28	0x0006e680	6.33701e-40
29	0x000a76c1	9.60956e-40
30	0x0000e1e0	8.1029e-41
31	0x00027115	2.24237e-40
32	0x80082995	-7.49601e-40
33	0x00022615	1.97332e-40
34	0x00077bf4	6.87314e-40
35	0x80075f4a	-6.77032e-40
36	0x8009f1ee	-9.13307e-40
37	0x000416af	3.7548e-40
38	0x8009fd6c	-9.1743e-40
39	0x000217cf	1.92212e-40
40	0x800221ff	-1.95866e-40
41	0x00008522	4.7759e-41
42	0x8001ae5e	-1.54387e-40
43	0x80052bf5	-4.74946e-40
44	0x0000b9d1	6.6658e-41
45	0x80055875	-4.9091e-40
46	0x000090cc	5.1943e-41
47	0x80068695	-5.99292e-40
48	0x800b111c	-1.016328e-39
49	0x0008627a	7.70011e-40
50	0x80083274	-7.52783e-40
51	0x80052f88	-4.76228e-40
52	0x0000b8cf	6.6297e-41
53	0x8000d321	-7.5739e-41
54	0x000970bf	8.66965e-40
55	0x00000af3	3.928e-42
56	0x8003e28c	-3.56776e-40
57	0x8006c8e9	-6.23086e-40
58	0x0000462b	2.5172e-41
59	0x00014914	1.18051e-40
60	0x00009ddf	5.6633e-41
61	0x00037b91	3.19834e-40
62	0x8002cbf5	-2.56837e-40
63	0x800b3dfe	-1.032429e-39
64	0x00042208	3.7955e-40
65	0x8003938e	-3.28439e-40
66	0x0003e693	3.58221e-40
67	0x8000764a	-4.2434e-41
68	0x0003859b	3.23435e-40
69	0x0007f3d4	7.30318e-40
70	0x80066f4c	-5.90939e-40
71	0x00025dd2	2.17327e-40
72	0x80023ff0	-2.06607e-40
73	0x0008b2a3	7.98767e-40
74	0x80024aa7	-2.10451e-40
75	0x0008a344	7.93253e-40
76	0x0005512a	4.88294e-40
77	0x00011c9e	1.02101e-40
78	0x0002d32d	2.59427e-40
79	0x00021580	1.91384e-40
80	0x0003596c	3.07585e-40
81	0x0006e89b	6.34456e-40
82	0x80048fdc	-4.18949e-40
83	0x000ab359	9.82693e-40
84	0x800a5d4d	-9.51825e-40
85	0x000a5121	9.47459e-40
86	0x8006b286	-6.15055e-40
87	0x0003dc25	3.5448e-40
88	0x8003a9f8	-3.3648e-40
89	0x80072b30	-6.58341e-40
90	0x8005caa0	-5.31866e-40
91	0x00052881	4.73708e-40
92	0x80059690	-5.13189e-40
93	0x8007ba35	-7.09647e-40
94	0x0000b122	6.3543e-41
95	0x80085371	-7.64617e-40
96	0x80010fc3	-9.749e-41
97	0x0004c016	4.3625e-40
98	0x80079bc4	-6.98727e-40
99	0x800855d7	-7.65478e-40
100	0x800a03b9	-9.1969e-40
101	0x80061eb2	-5.62024e-40
102	0x8009e27d	-9.07768e-40
103	0x80082c1e	-7.5051e-40

attnN1.node_attn_maps.1.bias f4 [8]
0	0x8005a683	-5.1891e-40
1	0x000ac525	9.89077e-40
2	0x800b34bd	-1.02911e-39
3	0x80044ac6	-3.94166e-40
4	0x00023b0e	2.04856e-40
5	0x800aef51	-1.004206e-39
6	0x80085121	-7.63788e-40
7	0x8001362e	-1.11272e-40

attnN1.node_attn_maps.2.weight f4 [8, 13]
0	0x00045015	3.9607e-40
1	0x8004ae21	-4.29808e-40
2	0x00013dca	1.14001e-40
3	0x8002c0ec	-2.52878e-40
4	0x80071652	-6.50855e-40
5	0x000891c4	7.86975e-40
6	0x800258d5	-2.15538e-40
7	0x8005036c	-4.60405e-40
8	0x80074762	-6.68456e-40
9	0x0002027b	1.84561e-40
10	0x800603e2	-5.52406e-40
11	0x8005d4fc	-5.35582e-40
12	0x0004c6da	4.38676e-40
13	0x0006a2a1	6.09353e-40
14	0x80038aae	-3.25255e-40
15	0x8005420a	-4.82868e-40
16	0x00057f88	5.04927e-40
17	0x800b4280	-1.034046e-39
18	0x80083468	-7.53484e-40
19	0x80008ead	-5.1182e-41
20	0x00002f4a	1.6964e-41
21	0x0005fd8e	5.50136e-40
22	0x800a9d3d	-9.74761e-40
23	0x80007f0c	-4.5576e-41
24	0x00027131	2.24276e-40
25	0x000867bb	7.71895e-40
26	0x00064b38	5.77996e-40
27	0x8000da40	-7.8293e-41
28	0x000386ee	3.2391e-40
29	0x00087b31	7.78877e-40
30	0x0008b22d	7.98601e-40
31	0x800abb92	-9.85643e-40
32	0x80003db3	-2.2134e-41
33	0x0009494e	8.52816e-40
34	0x0007eb90	7.27352e-40
35	0x8003e35f	-3.57072e-40
36	0x00077aff	6.86971e-40
37	0x800490b0	-4.19246e-40
38	0x80081839	-7.43373e-40
39	0x0006a21d	6.09168e-40
40	0x00026b75	2.2222e-40
41	0x8002dc3c	-2.62676e-40
42	0x8001025d	-9.2683e-41
43	0x800046d1	-2.5404e-41
44	0x000873de	7.76249e-40
45	0x800648c1	-5.77112e-40
46	0x800b0901	-1.01342e-39
47	0x000568a3	4.96714e-40
48	0x0000ba54	6.6842e-41
49	0x800862a8	-7.70075e-40
50	0x80051d00	-4.69581e-40
51	0x0009ea84	9.10648e-40
52	0x0000528b	2.9611e-41
53	0x0002f664	2.72059e-40
54	0x8002e999	-2.6747e-40
55	0x800a41f9	-9.42021e-40
56	0x8009bfad	-8.9528e-40
57	0x0008f28f	8.21698e-40
58	0x00084e21	7.62711e-40
59	0x000851b2	7.63991e-40
60	0x0006f2c4	6.38101e-40
61	0x80048bb3	-4.17457e-40
62	0x800ab437	-9.83004e-40
63	0x8007a433	-7.01752e-40
64	0x80009701	-5.417e-41
65	0x0007e460	7.24774e-40
66	0x80032032	-2.87056e-40
67	0x000a173b	9.26688e-40
68	0x8000e04a	-8.046e-41
69	0x800329bc	-2.90478e-40
70	0x80015129	-1.2095e-40
71	0x8005a203	-5.17296e-40
72	0x00082f78	7.51713e-40
73	0x8006b94f	-6.17489e-40
74	0x000a3199	9.36147e-40
75	0x8007b5dd	-7.08089e-40
76	0x80030c74	-2.79974e-40
77	0x800a55bc	-9.4911e-40
78	0x00095c71	8.59681e-40
79	0x80019138	-1.4393e-40
80	0x00042edc	3.84152e-40
81	0x0000094f	3.339e-42
82	0x0009d369	9.02359e-40
83	0x00005504	3.0498e-41
84	0x0002cb8d	2.56691e-40
85	0x00023a6e	2.04632e-40
86	0x80055387	-4.89141e-40
87	0x8005a18b	-5.17128e-40
88	0x800384de	-3.2317e-40
89	0x0001967f	1.45823e-40
90	0x800066c6	-3.6868e-41
91	0x8004b66c	-4.32783e-40
92	0x8001c875	-1.63746e-40
93	0x000500bf	4.59445e-40
94	0x000644d9	5.75711e-40
95	0x8007af28	-7.05683e-40
96	0x0005f1c1	5.45902e-40
97	0x80071872	-6.51618e-40
98	0x0005cd9b	5.32935e-40
99	0x80076602	-6.79442e-40
100	0x0001a110	1.49614e-40
101	0x80025b38	-2.16394e-40
102	0x00022b8a	1.9929e-40
103	0x800ac76a	-9.89891e-40

attnN1.node_attn_maps.2.bias f4 [8]
0	0x8003a641	-3.35147e-40
1	0x000196df	1.45958e-40
2	0x00024bdd	2.10886e-40
3	0x00005fe1	3.4395e-41
4	0x8008c644	-8.05808e-40
5	0x00051e48	4.7004e-40
6	0x00082d97	7.51039e-40
7	0x800ba5c8	-1.069662e-39

attnN1.node_attn_maps.3.weight f4 [8, 13]
0	0x0006ca19	6.23512e-40
1	0x000af315	1.005556e-39
2	0x000a24ad	9.31512e-40
3	0x800363c5	-3.11297e-40
4	0x8002b1ea	-2.47495e-40
5	0x80038952	-3.24768e-40
6	0x800b2083	-1.021853e-39
7	0x80096a26	-8.64598e-40
8	0x00084146	7.581e-40
9	0x800836aa	-7.54294e-40
10	0x00085a20	7.67015e-40
11	0x00091c04	8.3657e-40
12	0x00047319	4.08631e-40
13	0x8003f766	-3.64256e-40
14	0x000695b6	6.04719e-40
15	0x00040f2f	3.72789e-40
16	0x00046bc8	4.06007e-40
17	0x8000b636	-6.5365e-41
18	0x80070336	-6.44e-40
19	0x0000b585	6.5117e-41
20	0x0007a480	7.0186e-40
21	0x0006f8f5	6.40322e-40
22	0x8003619d	-3.10524e-40
23	0x0002bb4d	2.50862e-40
24	0x80046e97	-4.07014e-40
25	0x8005dd3a	-5.38539e-40
26	0x800443fc	-3.9173e-40
27	0x00031e9a	2.86484e-40
28	0x80085884	-7.66437e-40
29	0x8005b865	-5.25326e-40
30	0x8009131f	-8.33379e-40
31	0x000329fe	2.9057e-40
32	0x0004db9a	4.4612e-40
33	0x8006c580	-6.21863e-40
34	0x8000124f	-6.568e-42
35	0x8008bbca	-8.0205e-40
36	0x8007f426	-7.30432e-40
37	0x800404f3	-3.69117e-40
38	0x00031bc0	2.85461e-40
39	0x80095e45	-8.60337e-40
40	0x8000b6e5	-6.561e-41
41	0x000283db	2.30972e-40
42	0x000a8af5	9.68203e-40
43	0x80093ef0	-8.49097e-40
44	0x0002b99e	2.50258e-40
45	0x0006344e	5.69776e-40
46	0x80096222	-8.61723e-40
47	0x000265ac	2.20144e-40
48	0x8009e8ff	-9.10103e-40
49	0x8005efd0	-5.45206e-40
50	0x00085eff	7.68762e-40
51	0x8000d0f4	-7.4958e-41
52	0x00080e73	7.39867e-40
53	0x000a787a	9.61574e-40
54	0x80085cbc	-7.67951e-40
55	0x800b5b97	-1.043047e-39
56	0x800a78f2	-9.61742e-40
57	0x00063851	5.71215e-40
58	0x800ac253	-9.88065e-40
59	0x000a69bc	9.56285e-40
60	0x00001381	6.997e-42
61	0x80095e77	-8.60407e-40
62	0x8006a525	-6.10256e-40
63	0x0009fce2	9.17237e-40
64	0x8006265a	-5.64771e-40
65	0x800011a2	-6.325e-42
66	0x80042104	-3.79186e-40
67	0x800477b1	-4.10279e-40
68	0x80094d94	-8.54349e-40
69	0x80096790	-8.6367e-40
70	0x8009d05b	-9.01263e-40
71	0x0001871b	1.40302e-40
72	0x80085dd0	-7.68338e-40
73	0x800a1543	-9.25982e-40
74	0x8002ce91	-2.57773e-40
75	0x000aba1d	9.8512e-40
76	0x000760f2	6.77626e-40
77	0x800794e8	-6.96266e-40
78	0x000938c7	8.46887e-40
79	0x800aae20	-9.80819e-40
80	0x800853d2	-7.64753e-40
81	0x00069f1f	6.08095e-40
82	0x00021e24	1.94483e-40
83	0x80040a63	-3.71068e-40
84	0x8000f04b	-8.6201e-41
85	0x80074f24	-6.71239e-40
86	0x80075f3b	-6.77011e-40
87	0x0006fe9e	6.42352e-40
88	0x80082560	-7.48092e-40
89	0x8008922d	-7.87122e-40
90	0x8008e6a7	-8.17426e-40
91	0x00072c6d	6.58785e-40
92	0x8003a67a	-3.35227e-40
93	0x8008d2c7	-8.10297e-40
94	0x00002343	1.265e-41
95	0x80007a45	-4.3862e-41
96	0x8009a5d7	-8.86012e-40
97	0x0005c030	5.28121e-40
98	0x80045f91	-4.01625e-40
99	0x0004b20e	4.31216e-40
100	0x80063100	-5.68591e-40
101	0x00083c07	7.56218e-40
102	0x0007ff74	7.34488e-40
103	0x8006c3e0	-6.2128e-40

attnN1.node_attn_maps.3.bias f4 [8]
0	0x000483c7	4.14615e-40
1	0x800066de	-3.6902e-41
2	0x800700d8	-6.43151e-40
3	0x00079343	6.95676e-40
4	0x0007c0ac	7.11966e-40
5	0x000d8adc	1.243675e-39
6	0x8002cae9	-2.56461e-40
7	0x8000d3e3	-7.601e-41

attnN1.edge_attn_maps.0.weight f4 [8, 13]
0	0x3c937ad7	0.01800291
1	0x3c690870	0.014223203
2	0x3ac66d67	0.0015138806
3	0x3d754c91	0.059887473
4	0x3e3c59d3	0.1839364
5	0x3d47d53a	0.048787333
6	0x3c8f046e	0.017458167
7	0xbbe73678	-0.0070560537
8	0xbc6d989a	-0.014501715
9	0x3cabfe14	0.020995177
10	0x3d817e09	0.063228674
11	0xbc41351f	-0.01179245
12	0x3e89fd42	0.26951033
13	0x3b896f98	0.004194211
14	0x3f27e45c	0.65582824
15	0x3e50db33	0.20396118
16	0x3c9471ad	0.018120611
17	0xbd97123b	-0.07376524
18	0xbddc3ee2	-0.107541814
19	0xbd4b409c	-0.049622163
20	0xbaeec6b2	-0.0018217175
21	0x3d0e543b	0.034748297
22	0xbd53c9fa	-0.05170629
23	0xbdbf11a9	-0.0932954
24	0x3d22c391	0.039737288
25	0x3d379885	0.04482319
26	0xbde9553a	-0.11393209
27	0x3da62a77	0.08113568
28	0xbcaa731b	-0.02080684
29	0x3da0b20c	0.0784646
30	0xbb8c381d	-0.00427915
31	0xbd65af44	-0.05607535
32	0xbd74969f	-0.059713956
33	0x3cbf9432	0.023386095
34	0x3e444d56	0.19170126
35	0x3bfd2f6b	0.0077266
36	0xbdc9b7c1	-0.098495014
37	0x3b044766	0.0020184158
38	0x3e160f8f	0.14654373
39	0x3e08966f	0.13338636
40	0xbef77279	-0.48329523
41	0xbdc0ad88	-0.094080985
42	0x3e98aea3	0.29820737
43	0xbdb91a91	-0.0903827
44	0x3cc7beb8	0.024382934
45	0x3cc0a26f	0.023514954
46	0x3bc0dab6	0.0058854474
47	0xbb828a85	-0.003983798
48	0xbc80bf90	-0.015716344
49	0xbc28c9dc	-0.010302033
50	0x3c7053bd	0.014668402
51	0x3d777298	0.06041202
52	0x3d8fe096	0.07025258
53	0xbdb03129	-0.086031266
54	0x3ce9c5e8	0.028536752
55	0xbdaec89d	-0.08534358
56	0x3dbec0a6	0.093140885
57	0xbd0734dc	-0.033009395
58	0x3cb6cfad	0.022315824
59	0x3dd28ca1	0.10280729
60	0xbd6c1f2a	-0.057646908
61	0xbd6116d0	-0.054953396
62	0xbdd72325	-0.1050475
63	0x3e1e69f9	0.15470113
64	0x3e14b821	0.14523365
65	0x3e2181dd	0.15772195
66	0xbe885d40	-0.26633644
67	0xbce1762e	-0.027522173
68	0xbe814d78	-0.25254416
69	0xbea9b1af	-0.33143374
70	0x3eaedbe1	0.3415213
71	0xbd816c62	-0.063195005
72	0xbb44c2ba	-0.0030023293
73	0x3e8b60ee	0.2722239
74	0xbc56996a	-0.0130981
75	0xbe33402e	-0.17504951
76	0xbcb6d8db	-0.022320202
77	0xbe05bcaa	-0.13060251
78	0xbe30034c	-0.17188758
79	0xbeadc541	-0.33939555
80	0xbe913757	-0.28362533
81	0xbecb652d	-0.39725628
82	0xbe94b00f	-0.29040572
83	0xbd6b8480	-0.05749941
84	0xbe656c69	-0.22404636
85	0x3de101bf	0.10986661
86	0xbcfd53bc	-0.030923717
87	0xbe3ae43b	-0.18251126
88	0xbe6e3ff4	-0.23266584
89	0x3e36eb85	0.17863281
90	0xbe92b7dd	-0.28655902
91	0x3d582b5a	0.05277572
92	0xbd90840c	-0.07056436
93	0x3e94d0de	0.29065603
94	0x3d703495	0.058643896
95	0xbe8ef273	-0.2791935
96	0x3e2cc936	0.16873631
97	0xbd46fda2	-0.048581727
98	0x3d159e13	0.036527704
99	0xbe23b10d	-0.15985508
100	0xbd957111	-0.07296956
101	0xbe4b3779	-0.1984538
102	0xbc826119	-0.01591544
103	0x3e71449a	0.23561326

attnN1.edge_attn_maps.0.bias f4 [8]
0	0x3c90bbf2	0.017667744
1	0xbda11a3d	-0.07866333
2	0x3c1e949a	0.009678984
3	0x3c9b9237	0.01899062
4	0x3a52fcdc	0.0008048543
5	0x3c6e65a9	0.014550605
6	0xbbbc66b0	-0.005749546
7	0x3c418e3a	0.011813695

attnN1.edge_attn_maps.1.weight f4 [8, 13]
0	0xbdcc44d6	-0.09974067
1	0xbdb12464	-0.08649519
2	0x3eb65ff6	0.35620087
3	0x3dc191f4	0.094516665
4	0x3f0b7907	0.5448155
5	0x3db5651b	0.08857175
6	0x3df7cdcc	0.120997995
7	0x3cdd7a8f	0.02703598
8	0xbcc83c0d	-0.024442697
9	0xbba3e435	-0.0050015696
10	0xbd3da48d	-0.046299506
11	0x3dd2ffed	0.1030272
12	0x3ef68088	0.48144937
13	0x3dac9323	0.084265016
14	0xbdd0830e	-0.10181247
15	0xbe132537	-0.14369665
16	0xbde95d01	-0.11394692
17	0xbe0c6fea	-0.13714567
18	0x3dad526c	0.08462986
19	0xbd2e774c	-0.04259424
20	0xbcec84d9	-0.02887194
21	0x3dc3737b	0.095435105
22	0xbd3891e4	-0.045061007
23	0xbd0f712c	-0.03502004
24	0x3c9cbdc9	0.019133465
25	0x3e3826f5	0.17983611
26	0xbe3c8c05	-0.18412788
27	0xbcfaa06d	-0.030594075
28	0x3c4b13e7	0.012394882
29	0x3e27cd0e	0.16386816
30	0x3e930fe1	0.28723052
31	0x3df3db99	0.11907119
32	0xbdc24423	-0.09485652
33	0xbc261af9	-0.010138267
34	0x3bd214eb	0.006411185
35	0x3d48d875	0.049034555
36	0xbc6376f3	-0.01388334
37	0xbd6c356c	-0.057668135
38	0x3e8a0268	0.2695496
39	0x3c52ea11	0.012873189
40	0xbe57540e	-0.21028158
41	0xbe80d2ec	-0.2516092
42	0xbf029898	-0.5101409
43	0xbe17afa1	-0.14813091
44	0x3d22a622	0.039709218
45	0x3d147449	0.03624371
46	0xbdce705f	-0.10080027
47	0xbe1542bb	-0.14576237
48	0x3e1cb7ce	0.15304491
49	0x3e6c0cf1	0.23051812
50	0x3e1a1871	0.15048386
51	0x3e601935	0.21884616
52	0x3cb49547	0.022043837
53	0x3cd215af	0.025645105
54	0x3e2f8a34	0.17142564
55	0x3ca1e768	0.019763663
56	0x3d4d8715	0.050177652
57	0x3c8e3c66	0.017362785
58	0x3a285332	0.00064210885
59	0xbcb65311	-0.022256406
60	0x3cb1cd42	0.02170432
61	0x39634847	0.00021675332
62	0xbc3a582d	-0.011373562
63	0xbc8892cf	-0.016671566
64	0xbe5e8f60	-0.2173438
65	0xbeae5476	-0.34048814
66	0x3e4b0af6	0.198284
67	0xbd60a9f2	-0.054849572
68	0x3da93467	0.08261948
69	0xbe713e6a	-0.23558965
70	0x3d6bc159	0.057557438
71	0x3d7b9ad0	0.061426938
72	0x3dfe7797	0.12425154
73	0xbd4255f9	-0.04744527
74	0xbd13e910	-0.036110938
75	0xbd989634	-0.07450524
76	0xbdb4bdc8	-0.088252604
77	0xbe966b2a	-0.29378635
78	0xbdf14dac	-0.11782393
79	0x3e191ab2	0.1495159
80	0xbdf426f2	-0.11921491
81	0x3df40cca	0.11916502
82	0xbedb4869	-0.42828682
83	0xbe24dcc0	-0.16099834
84	0x3cf3bc10	0.029752761
85	0x3d4fc597	0.050725546
86	0x3c9ada10	0.018902808
87	0xbd48f65c	-0.04906307
88	0xbc133da1	-0.008986861
89	0x3bdf5e50	0.006816663
90	0xbe82d703	-0.25554666
91	0xbe9be1f5	-0.3044583
92	0x3e64c039	0.22338952
93	0xbc5298f4	-0.01285385
94	0xbdee4b61	-0.11635471
95	0xbd60ad9f	-0.054853078
96	0x3d7373f9	0.059436772
97	0x3d9cbd87	0.07653337
98	0xbdd1b299	-0.10239143
99	0xbe0afeb1	-0.1357372
100	0x3d54d415	0.05196007
101	0xb9ccebf4	-0.0003908571
102	0x3d6c7991	0.057733122
103	0x3cc24c14	0.023717918

attnN1.edge_attn_maps.1.bias f4 [8]
0	0xbc758173	-0.014984476
1	0xbd367519	-0.044545267
2	0xbd4b71c8	-0.049669057
3	0x3cbe9aab	0.02326711
4	0xbcf463f1	-0.029832812
5	0x3c7d7433	0.015469599
6	0x3d3af32d	0.045642067
7	0xbb8daf07	-0.0043238434

attnN1.edge_attn_maps.2.weight f4 [8, 13]
0	0xbe197b4e	-0.14988443
1	0xbd7d1f77	-0.061797585
2	0xbde94c98	-0.11391562
3	0xbd43cc61	-0.047802333
4	0x3d9fca5e	0.0780227
5	0x3d30ef00	0.04319668
6	0xbd37a5d2	-0.044835873
7	0xbd80adde	-0.062831625
8	0x3dc2e2d2	0.09515919
9	0xbda1a6b8	-0.07893127
10	0x3dbbc9ea	0.091693714
11	0x3da3b408	0.079933226
12	0xbdb41bd3	-0.087943695
13	0x3d72e699	0.059301946
14	0x3e665ad4	0.22495586
15	0xbdb2398a	-0.08702381
16	0x3e3bc778	0.1833781
17	0x3e3d218a	0.18469825
18	0x3d3ca1aa	0.046052612
19	0x3d37c5e0	0.044866443
20	0xbb4edf6f	-0.0031566282
21	0x3d0f0635	0.03491803
22	0x3c90b776	0.017665606
23	0xbcdda0d1	-0.027054222
24	0xbc064f03	-0.008197549
25	0x3d636dca	0.055524625
26	0xbe15225b	-0.14563887
27	0xba023c79	-0.00049681176
28	0x3d68f2a0	0.05687201
29	0xbee2e805	-0.44317642
30	0x3f06ce0c	0.5265815
31	0x3dd646d3	0.104627274
32	0xbd82e948	-0.06392151
33	0x3d1f0ca7	0.038830426
34	0x3bbd0967	0.005768943
35	0x3a01a821	0.00049460126
36	0x3cbfcc36	0.023412805
37	0x3c8d9815	0.017284432
38	0xbd716eef	-0.058943685
39	0x3dda4f16	0.10659616
40	0xbd91b100	-0.07113838
41	0x3d94f080	0.07272434
42	0x3c65f625	0.014035736
43	0xbe5d4e69	-0.21611942
44	0x3da132ab	0.07870992
45	0xbd5bb8ea	-0.053643145
46	0x3e6efb1f	0.23337983
47	0x3e83e9aa	0.2576421
48	0xbc9a2348	-0.018815652
49	0x3d08960c	0.03334622
50	0xbe079ddf	-0.13243817
51	0x3d746a76	0.05967184
52	0xbd2e66e4	-0.042578593
53	0x3e80064d	0.25004807
54	0xbd04b79e	-0.032401673
55	0x3d5c974b	0.05385522
56	0x3f0da915	0.55336124
57	0xbde4ccb8	-0.111718595
58	0xbe2d3a82	-0.1691685
59	0x3d3fabeb	0.046794813
60	0x3d64351e	0.05571472
61	0xbd5b860c	-0.053594634
62	0x3d9476a6	0.07249193
63	0xbd6071a4	-0.054795876
64	0xbdcc1737	-0.099653654
65	0xbc6120f4	-0.013740767
66	0xbe0dc3e3	-0.13844256
67	0x3d5dcb71	0.054149095
68	0xbdf074e5	-0.11741046
69	0xbaa75a64	-0.0012768027
70	0xbca50988	-0.020146146
71	0xbe56bb91	-0.20969988
72	0xbddd3ece	-0.10802995
73	0x3e562ca3	0.20915465
74	0xbe130d04	-0.14360434
75	0xbc867b68	-0.016416267
76	0x3ca4b72b	0.020106873
77	0xbe1130ae	-0.14178726
78	0xbe7e74b8	-0.24849212
79	0xbecce6a7	-0.40019724
80	0x3d32b0f1	0.043625776
81	0x3e89c93b	0.2691134
82	0xbd238105	-0.039917964
83	0xbdae72d2	-0.08517994
84	0xbdeda005	-0.11602787
85	0xbc7f7a30	-0.015593097
86	0x3e505dd4	0.20348293
87	0x3e9eb794	0.30999434
88	0x3d22d688	0.039755374
89	0xbdd72464	-0.10504988
90	0x3e466d19	0.19377555
91	0xbdffd7df	-0.12492346
92	0x3e80a8d7	0.25128815
93	0x3d2719c5	0.04079606
94	0x3ea8dc90	0.32980776
95	0x3dc535ad	0.096293785
96	0x3d403fa6	0.0469357
97	0xbe19c2cb	-0.15015714
98	0x3dbedfd4	0.093200356
99	0x3da93c7e	0.08263491
100	0xbc8964a9	-0.016771631
101	0x3d499f8e	0.04922443
102	0xbcaa7aa7	-0.020810438
103	0xbe394ce0	-0.18095732

attnN1.edge_attn_maps.2.bias f4 [8]
0	0xbaedf775	-0.0018155413
1	0xbcef6411	-0.02922252
2	0xbc0f5284	-0.008747701
3	0x3c1830ff	0.009289025
4	0x3cfd0bd7	0.030889435
5	0x3bdd6684	0.0067566056
6	0x3ae005ed	0.001709161
7	0xbc251376	-0.010075441

attnN1.edge_attn_maps.3.weight f4 [8, 13]
0	0x3e20966c	0.15682381
1	0x3d915e12	0.070980206
2	0xbddd727a	-0.1081285
3	0x3c578fb3	0.013156819
4	0x3e9a5599	0.3014343
5	0xbd451472	-0.0481152
6	0x3d2b78a7	0.04186311
7	0x3d844427	0.064583115
8	0xbd28745f	-0.041126605
9	0xbc56934f	-0.013096645
10	0xbd80162e	-0.062542304
11	0x3d46e2da	0.048556186
12	0x3e16f89c	0.14743274
13	0x3d5d575e	0.054038398
14	0x3d01f4a1	0.031727437
15	0xbd970340	-0.07373667
16	0xbeaedb2e	-0.34151596
17	0xbeb2658b	-0.34843096
18	0x3ca4880d	0.020084405
19	0x3d6a716b	0.05723707
20	0x3a1f46ff	0.0006075948
21	0x3c5a734f	0.013333156
22	0x3cadca1d	0.02121454
23	0x3d20cf4f	0.039260205
24	0xbc1859d1	-0.009298758
25	0xbf102d95	-0.5631955
26	0x3ea852f2	0.32875782
27	0xbe7edcfc	-0.24888986
28	0x3de0bad8	0.109731376
29	0x3d67a9ee	0.056558542
30	0xbf3b738a	-0.73223174
31	0xbd9b672f	-0.0758804
32	0xbd04fb3c	-0.03246616
33	0x3d899653	0.06718125
34	0x3c3f9653	0.011693555
35	0x3ab20843	0.0013582784
36	0xbc9b9048	-0.018989697
37	0x3d18e0a9	0.037323628
38	0xbecd2706	-0.40068835
39	0xbe57939d	-0.21052404
40	0xbeaa9cec	-0.33322847
41	0xbcde8895	-0.027164737
42	0x3ee3bc28	0.4447949
43	0x3e444b9c	0.19169468
44	0xbe5a9836	-0.21347126
45	0x3c1256d8	0.008931838
46	0x3d8db311	0.0691892
47	0x3e7cb1e1	0.2467723
48	0x3d890426	0.066902444
49	0x3b83a157	0.004017036
50	0x3d96afe7	0.073577695
51	0x3e861432	0.26187283
52	0x3d9fe114	0.07806602
53	0xbdffd7f4	-0.12492362
54	0xbe5a55b4	-0.21321756
55	0xbd1cab18	-0.038249105
56	0xbd65150c	-0.055928275
57	0xbd5523d8	-0.052036136
58	0x3da74422	0.08167292
59	0x3dba7a15	0.091053165
60	0x3e4e2e17	0.2013477
61	0x3e484fe6	0.19561729
62	0xbc9aa8d2	-0.018879328
63	0xbc1f3782	-0.009717824
64	0xbe68cee9	-0.2273518
65	0xbe5ddb85	-0.21665771
66	0xbd22a89e	-0.039711587
67	0x3de20d6e	0.11037718
68	0xbe1ecdd3	-0.15508203
69	0x3e418d2e	0.18901512
70	0xbe12b2d2	-0.14326027
71	0xbe5d6c91	-0.21623446
72	0xbcd6343b	-0.026147952
73	0x3d7c5e7d	0.06161355
74	0x3e538bad	0.20658751
75	0xbe7329f7	-0.23746477
76	0xbc992db1	-0.018698545
77	0x3eea91e2	0.45814425
78	0x3d40a904	0.047036186
79	0xbe8bd9f6	-0.27314728
80	0xbdd749f3	-0.105121516
81	0x3e855da3	0.26048002
82	0x3e590c71	0.21196152
83	0x3dc5bd59	0.09655256
84	0xbcdc0e24	-0.026862212
85	0x3cec2a85	0.028828869
86	0x3e467066	0.19378814
87	0x3e102ad8	0.14078844
88	0x3e016b29	0.12638535
89	0xbcad021e	-0.021119174
90	0x3e7a8f5e	0.24468753
91	0x3dae4c17	0.08510607
92	0xbde76d5c	-0.113001555
93	0xbd20a79e	-0.039222352
94	0xbe0ea1cb	-0.13928907
95	0xbec4c69b	-0.38432774
96	0x3d3c8dae	0.046033554
97	0xbc5cc629	-0.013474979
98	0xbd339c3b	-0.043850165
99	0xbdf03874	-0.117295176
100	0xbd03216a	-0.032014288
101	0x3d75dbc2	0.06002403
102	0xbd77ef59	-0.060530994
103	0xbf34afab	-0.7058055

attnN1.edge_attn_maps.3.bias f4 [8]
0	0xbcc0ac0d	-0.02351954
1	0xbd59ad0a	-0.05314354
2	0xbc79299f	-0.015207677
3	0x3d525112	0.051346846
4	0x3be52915	0.0069934228
5	0x3c4397f0	0.01193808
6	0x3af4e276	0.0018683213
7	0x3c8e6058	0.017379925

attnN1.combinator.weight f4 [1, 16]
0	0x0001d61a	1.6864e-40
1	0x80036c8a	-3.14443e-40
2	0x00031f3a	2.86708e-40
3	0x00038c71	3.25887e-40
4	0x80020250	-1.845e-40
5	0x000a5b72	9.5116e-40
6	0x80052908	-4.73897e-40
7	0x00049d47	4.23762e-40
8	0x3e1e3516	0.15449938
9	0x3e89fd73	0.2695118
10	0x3e5fc4eb	0.21852462
11	0xbe4c23c4	-0.19935519
12	0x3cdc5218	0.026894614
13	0xbe46cefd	-0.19414897
14	0xbe2cfc34	-0.16893083
15	0x3cc97d1d	0.024595791

convE1.self_map.weight f4 [32, 13]
0	0xbeda9a05	-0.42695633
1	0x3f16f620	0.58969307
2	0x3e0bfc67	0.13670503
3	0xbc3194ca	-0.010838697
4	0xbea76b3f	-0.3269901
5	0xbd848637	-0.06470912
6	0x3cc877bc	0.024471156
7	0xba6038f3	-0.0008553408
8	0xbb2d8eee	-0.0026482898
9	0xba0e4655	-0.00054273504
10	0x39d297fa	0.00040167553
11	0xbc1a7ed5	-0.009429653
12	0xbe12bbe1	-0.14329483
13	0x3e61eaa4	0.22062165
14	0xbde48f3d	-0.11160133
15	0x3e31259a	0.172995
16	0xbd07325f	-0.033007022
17	0xbe0763ed	-0.13221712
18	0xbe0bb152	-0.13641861
19	0xbb63ebd6	-0.003477802
20	0xbd122cab	-0.03568713
21	0xbc1b3e9f	-0.009475379
22	0xbbca6403	-0.006176473
23	0xbc968461	-0.01837367
24	0x3b029707	0.0019926445
25	0xbd8bf1ba	-0.06833215
26	0x3dc6485c	0.0968177
27	0x3e883d28	0.2660916
28	0x3da7c493	0.081917904
29	0x3e92a3f1	0.28640702
30	0x3ed4b3cb	0.4154342
31	0xbc11fe41	-0.0089107165
32	0xbc98ee75	-0.018668393
33	0xbb84648e	-0.0040403074
34	0xbc4e8770	-0.012605533
35	0x3c39ea32	0.01134734
36	0xbd3a0647	-0.045416143
37	0xbb2ade1e	-0.0026072334
38	0x3dff09e9	0.12453062
39	0x3d4e6fc8	0.05039957
40	0xbdd54aff	-0.10414695
41	0xbe459687	-0.19295703
42	0xbcab366f	-0.02089998
43	0xbd39da2e	-0.045374088
44	0x3b370407	0.0027925984
45	0x3d2b015f	0.041749354
46	0x3d709d80	0.058743954
47	0x3d93fac7	0.07225566
48	0x3d0b28bf	0.033974405
49	0xbc324b3d	-0.010882196
50	0x3c5df736	0.013547709
51	0xbd9232fa	-0.07138629
52	0xbd30a8e3	-0.043129813
53	0x3e96669f	0.2937517
54	0xbdb4bb12	-0.08824743
55	0xbd9664f7	-0.07343476
56	0x3eb127a7	0.34600565
57	0x3cb483c9	0.022035496
58	0xbdebd6e9	-0.115156
59	0xbd9d2274	-0.07672587
60	0xbd6f3c4d	-0.058407117
61	0xbc8e8503	-0.01739741
62	0x3cc09cfb	0.023512354
63	0xbd17f3cc	-0.037097737
64	0x3d873485	0.06601814
65	0xbe61f672	-0.22066668
66	0x3df100de	0.117677435
67	0xbc2f5f25	-0.010703837
68	0x3e9fd6b4	0.31218493
69	0x3dc3c115	0.09558312
70	0x3d27e885	0.040993232
71	0x3dff2967	0.12459069
72	0x3adab9a3	0.0016687404
73	0xbd664bd7	-0.05622467
74	0xbad7c38b	-0.0016461475
75	0xb9ab2e13	-0.0003264999
76	0xba60a589	-0.00085695885
77	0x3d92a9ef	0.071613185
78	0x3ce6836b	0.028138837
79	0x3e1a2ffb	0.15057366
80	0xbe0b5821	-0.13607837
81	0xbeb97374	-0.36220896
82	0xbe82aeb3	-0.2552391
83	0xbd69e19f	-0.057099935
84	0x3d03e0fd	0.032196987
85	0x3b570a13	0.0032812401
86	0x3cde48d4	0.027134337
87	0x3b511eed	0.0031909302
88	0x3e0460dd	0.12927575
89	0x3d07b680	0.03313303
90	0xbe6fdb63	-0.23423533
91	0x3d4a924e	0.049455933
92	0xba438e5b	-0.0007459872
93	0x3db5aca8	0.08870822
94	0x3caf06d7	0.021365566
95	0x3a440af0	0.00074784365
96	0xbdced055	-0.1009833
97	0xbd098b37	-0.03358003
98	0x3d8543b5	0.06507055
99	0xbc2456bb	-0.010030444
100	0xbd305555	-0.04305013
101	0xbd87cdc0	-0.066310406
102	0xbcb16ea3	-0.021659201
103	0xbe7a5d60	-0.24449682
104	0x3e4a7309	0.19770445
105	0x3e29c472	0.16578844
106	0xbe7bc3d3	-0.2458642
107	0xbe478f8a	-0.1948835
108	0x3e1a1bd7	0.15049683
109	0x3d0c3a39	0.034235213
110	0x3b51b706	0.003199996
111	0xbc7b6c2b	-0.0153456135
112	0x3d292bcb	0.04130153
113	0xbcdc560b	-0.026896497
114	0xbb8c663c	-0.004284648
115	0xbc816778	-0.015796408
116	0x3d8f332d	0.06992183
117	0xbe5f981d	-0.2183537
118	0x3f13b089	0.57691246
119	0xbe3d0038	-0.18457115
120	0xbe313c79	-0.17308225
121	0xbe03eb68	-0.12882769
122	0x3d04c89d	0.032417882
123	0xbcb7e924	-0.022450037
124	0x3d4647ce	0.048408322
125	0xbb4c0be8	-0.0031135026
126	0xbc246402	-0.010033609
127	0xb8c0fa11	-9.201852e-05
128	0x3a6136df	0.0008591245
129	0xbd4c9c9e	-0.04995405
130	0x3db0c225	0.0863078
131	0x3c18e9aa	0.009333054
132	0xbda42412	-0.08014692
133	0xbd8c7b96	-0.0685951
134	0x3d9953da	0.074866965
135	0x3c82d23f	0.015969394
136	0xbcde9df1	-0.027174922
137	0x3d17917c	0.03700398
138	0xbcd3fa50	-0.025876194
139	0xbc588961	-0.013216347
140	0x3c83aded	0.016074145
141	0xbd38d43c	-0.045124277
142	0xbdde850c	-0.108652204
143	0xbdef9e8f	-0.117001645
144	0x3e35bdb7	0.17748152
145	0xbd2dea39	-0.0424597
146	0xbdf00f84	-0.11721709
147	0x3e97e156	0.29664105
148	0x3d0653aa	0.032794632
149	0x3c335b93	0.010947126
150	0xbd84bba3	-0.06481101
151	0xbd070854	-0.032966927
152	0xbdd82c4b	-0.10555323
153	0x3a511a4e	0.0007976637
154	0x3d7d9855	0.061912853
155	0x3b966107	0.0045892033
156	0x3d6ac07e	0.05731248
157	0x3e3e49a6	0.18582782
158	0x3da2f24a	0.07956369
159	0x3e3fc356	0.18726858
160	0x3e08c004	0.13354498
161	0x3d8288b6	0.06373732
162	0x3d07f7a4	0.033195153
163	0x3dcba52f	0.09943616
164	0x3d505bbc	0.050868735
165	0x3b6e7529	0.003638575
166	0xbc5a7092	-0.013332503
167	0xbd162848	-0.03665951
168	0x3e0d3ad5	0.13791974
169	0xbd16f555	-0.03685506
170	0xbe3f1270	-0.18659377
171	0x3dbc6c35	0.09200326
172	0x3b6d10b5	0.0036173288
173	0x3e00e6df	0.1258807
174	0x3d964bee	0.07338701
175	0x3c6a8479	0.0143138105
176	0x3d9d232d	0.07672725
177	0x3ce747c9	0.028232472
178	0x3d3d7544	0.04625441
179	0xbb231edd	-0.0024890222
180	0xbdc21484	-0.09476569
181	0xbd5e9aac	-0.054346725
182	0xbe97fa0e	-0.29682964
183	0xbe80854b	-0.25101694
184	0xbde02189	-0.10943896
185	0xbd80731f	-0.062719576
186	0xbe8fadbc	-0.28062236
187	0x3e2f9476	0.17146477
188	0x3c5de67f	0.013543724
189	0xbd3fe4bb	-0.046848994
190	0xbc1f9418	-0.009739898
191	0xbd28f684	-0.04125072
192	0x3d20089c	0.03907071
193	0xbc1f27e1	-0.009714098
194	0x3cce6bb3	0.02519784
195	0x3e8aa149	0.27076176
196	0xbebbbf62	-0.3666945
197	0xbd3d9001	-0.04627991
198	0x3e39a8dd	0.18130822
199	0xbcb7c1b1	-0.022431226
200	0xbdfdcc64	-0.123925
201	0x3ce8750c	0.028376125
202	0x3c815548	0.015787736
203	0xba5594e8	-0.0008147494
204	0xbc9727d9	-0.018451618
205	0xbc14da68	-0.009085275
206	0x39d34c42	0.00040301873
207	0xbc25a1ce	-0.010109378
208	0x3f23758a	0.63851225
209	0x3cc2206c	0.0236971
210	0x3c488719	0.012239241
211	0x3c2915d3	0.010320145
212	0x3cfbad6e	0.030722346
213	0x3bc16607	0.005902055
214	0x3b1de7bd	0.0024094426
215	0xbb170f88	-0.0023050029
216	0xbbc0b1a9	-0.0058805537
217	0x3b5017ea	0.0031752535
218	0x3b263af1	0.0025364722
219	0x399d6241	0.00030018578
220	0x3c51571f	0.012777119
221	0x3d32df5c	0.043670043
222	0x3e471e11	0.19445063
223	0x3d0cd5ae	0.03438347
224	0xbdeca4d8	-0.11554879
225	0x3f112c68	0.56708384
226	0x3da37f8a	0.079833105
227	0xbd11f81b	-0.035637002
228	0x3bdbf98d	0.0067130984
229	0x3d41cd85	0.04731514
230	0xbcf76ff9	-0.03020476
231	0x3c21d636	0.009877732
232	0x3c901192	0.017586503
233	0xbd5d6913	-0.054055285
234	0x3d00be99	0.031431768
235	0xbeea4577	-0.45756122
236	0x3ddd6f23	0.10812213
237	0xbe8c5104	-0.2740556
238	0x3e187508	0.14888394
239	0x3bce9636	0.0063045276
240	0x3d69e7d0	0.05710584
241	0x3d8800b7	0.06640761
242	0x3cc57e14	0.02410797
243	0x3ac1055d	0.001472633
244	0x38f8c043	0.00011861373
245	0x3a94e75c	0.0011360454
246	0x3ebb2669	0.36552742
247	0xbda100d2	-0.078614846
248	0x3d76468c	0.060125872
249	0x3cd5104d	0.02600875
250	0x3c892331	0.016740413
251	0xbdeb3325	-0.114843644
252	0xbc0a3618	-0.0084357485
253	0x3cc22937	0.023701293
254	0xbe0f1c03	-0.1397553
255	0x3e25a123	0.1617475

convE1.self_map.bias f4 [32]
0	0x3be1cd00	0.006890893
1	0x3c469aaa	0.012121836
2	0xbc0eeae4	-0.0087229945
3	0x3d38c463	0.045109164
4	0x3ca50d22	0.020147864
5	0x3dca0f2b	0.09866174
6	0xbc7df9ed	-0.0155014815
7	0x3cea2c91	0.028585704
8	0xbc50e3c0	-0.012749612
9	0x3d6fc5f7	0.058538403
10	0x3d3c93b9	0.046039317
11	0x3cd64b7b	0.026159039
12	0x3cb0d496	0.021585744
13	0x3cb7fc84	0.022459276
14	0xba10fadc	-0.0005530545
15	0x3cfbb7cc	0.03072729
16	0x3f0b0431	0.5430327
17	0xbce34d2a	-0.027746756
18	0x3d618f15	0.055068094
19	0x3dd477b1	0.10374392
20	0xbbad10e3	-0.005281554
21	0x3d0aba51	0.03386909
22	0xbc4bdea4	-0.012443218
23	0x3d14d318	0.036334127
24	0x3ec8c4de	0.39212698
25	0x3dca7dd6	0.098872826
26	0x3b8fad2f	0.0043846588
27	0x3d272c91	0.040813986
28	0x3adbfce9	0.0016783747
29	0xbba82037	-0.0051307934
30	0x3cc6f138	0.024284944
31	0x3aaa8c7a	0.0013011836

convE1.pass_map.weight f4 [32, 64]
0	0xbe3720b4	-0.17883569
1	0x3d89a25b	0.0672042
2	0xbe4cad29	-0.1998793
3	0xbe52c2b2	-0.20582083
4	0xbcdc500c	-0.026893638
5	0xb92dba49	-0.00016567962
6	0x3d177904	0.036980644
7	0xbda9a354	-0.082831055
8	0xbd888b23	-0.06667163
9	0xbe3c556e	-0.18391964
10	0xbeb0a4c1	-0.34500697
11	0xbd1083c5	-0.035281915
12	0xbd857e22	-0.065181985
13	0x3db83386	0.08994202
14	0xbd68d97b	-0.05684803
15	0x3c6c7291	0.014431612
16	0xbe0ae1da	-0.13562718
17	0xbe80dc07	-0.25167868
18	0xbe96ce0f	-0.29454085
19	0x3e8c392f	0.27387378
20	0x3da43d7f	0.08019542
21	0x3c652335	0.013985445
22	0xbd761ebb	-0.0600879
23	0xbdcdabd2	-0.10042538
24	0x3e5b2b01	0.21403123
25	0xbe1217ba	-0.14266863
26	0x3c402bbd	0.011729178
27	0xbdefebdf	-0.11714911
28	0xbc818077	-0.015808327
29	0x3e559374	0.2085703
30	0x3ba5a26a	0.0050547617
31	0xbb8473e5	-0.004042136
32	0xbdbef50c	-0.09324083
33	0x3c913a8b	0.01772811
34	0xbcc27974	-0.023739554
35	0xbedcf059	-0.4315212
36	0xbca6a489	-0.020342128
37	0xbdc3057d	-0.09522531
38	0xbdbbbfb1	-0.091674216
39	0x3a45553c	0.00075276545
40	0xbd3cb324	-0.04606928
41	0xbd8f9018	-0.070099056
42	0xbdbe667e	-0.092968926
43	0xbe31103d	-0.1729135
44	0xbd9eb899	-0.07750053
45	0xbd0ba0f7	-0.034089055
46	0xbe314b8f	-0.1731398
47	0x3d4b659a	0.04965744
48	0x3d04c4b1	0.032414142
49	0x3d4b9d1d	0.04971038
50	0x3cf37834	0.029720403
51	0xbe940453	-0.2890955
52	0x3d266cb8	0.040631026
53	0xbddb3ddb	-0.10705157
54	0x3dcbcfb0	0.099517226
55	0xbe8c77f8	-0.2743528
56	0x3e0f9145	0.1402026
57	0xbe12e073	-0.14343433
58	0xbe522041	-0.20520116
59	0x3d6f271f	0.05838692
60	0xbd146321	-0.03622735
61	0xbe3b2d32	-0.1827896
62	0xbda5ebb0	-0.081015944
63	0xbc8f375a	-0.017482448
64	0xbcb6c154	-0.022308983
65	0xbe8f95b5	-0.28043905
66	0xbe36a8c9	-0.17837824
67	0xbe56d1b4	-0.20978433
68	0xbdaa86d6	-0.08326499
69	0x3d2a9a00	0.041650772
70	0xbcdceb2e	-0.026967611
71	0xbc5c7028	-0.0134544745
72	0x3d4a5b2b	0.04940335
73	0xbd71ed4d	-0.0590642
74	0xbd9a63c7	-0.07538562
75	0x3c1224b7	0.008919886
76	0xbcb2e938	-0.021839723
77	0x3dbd4a15	0.09242646
78	0xbe9adf8c	-0.30248678
79	0x3e66f2da	0.22553578
80	0x3daba18d	0.08380423
81	0xbde9725b	-0.11398765
82	0x3ecb6730	0.39727163
83	0xbe0aba16	-0.13547549
84	0xbe89d831	-0.26922753
85	0x3ea243bf	0.3169231
86	0x3bf0b57c	0.0073458534
87	0xbd358e56	-0.044325195
88	0xbdd4ee38	-0.10396999
89	0xbd291227	-0.041277077
90	0xbe48725e	-0.19574878
91	0x3d436ffa	0.04771421
92	0x3d3db201	0.046312336
93	0x3e4879b8	0.19577682
94	0xbc98fc89	-0.018675106
95	0x3dfccdba	0.12343927
96	0xbd88d36c	-0.066809505
97	0xbd345905	-0.04403021
98	0xbd42b6b4	-0.04753752
99	0xbe202d9d	-0.156424
100	0x3d55f318	0.052233785
101	0xbc9a49f4	-0.018834092
102	0xbdc1d596	-0.094645664
103	0xbd851c65	-0.064995565
104	0xbdd3c4cf	-0.10340273
105	0xbe20c02f	-0.15698312
106	0xbde7d16a	-0.113192394
107	0x3d510919	0.051034067
108	0xbe3d70bd	-0.18500037
109	0x3d996973	0.07490816
110	0xbea0f217	-0.314347
111	0x3e4b90c5	0.19879444
112	0x3c5dd3f5	0.013539304
113	0x3e16c7fb	0.14724724
114	0xbcf8a225	-0.030350754
115	0xbe11d340	-0.14240742
116	0x3d96fb48	0.07372147
117	0xbc35d729	-0.011098661
118	0xbd76f2af	-0.060290035
119	0x3c95f6d7	0.018306179
120	0xbd2d1526	-0.042256497
121	0xbdd35808	-0.10319525
122	0xbe2af7fc	-0.16696161
123	0x3cc2ac05	0.023763666
124	0x3e4e6a66	0.20157775
125	0xbcbd1811	-0.023082765
126	0xbd238412	-0.039920874
127	0xbdc05cff	-0.093927376
128	0xbdfc7e3c	-0.12328765
129	0x3d3cb320	0.046069264
130	0x3db7d478	0.08976072
131	0xbe1f1fd5	-0.15539487
132	0x3e8299a6	0.2550785
133	0xbe597abf	-0.2123823
134	0x3dec3f15	0.115354694
135	0xbe37ab85	-0.17936523
136	0xbed592d2	-0.41713578
137	0xbce8cc5b	-0.028417757
138	0x3dc3b65a	0.09556265
139	0xbe66bdc5	-0.22533329
140	0xbcfb84ab	-0.03070291
141	0x3e71e382	0.23621944
142	0x3e144a3b	0.14481442
143	0x3df7ecdf	0.121057265
144	0x3d85d75b	0.065352164
145	0xbec31e72	-0.38109165
146	0xbeb4a7e3	-0.35284337
147	0xbd1437f5	-0.036186177
148	0x3db27a71	0.0871476
149	0x3dce9780	0.1008749
150	0x3d0151bc	0.03157209
151	0xbdc01352	-0.09378685
152	0x3e95c49c	0.29251564
153	0xbea94aaf	-0.33064792
154	0xbee4521d	-0.44593897
155	0x3d66baa9	0.056330357
156	0x3da803c8	0.08203846
157	0x3e1af31c	0.15131801
158	0xbef7191b	-0.4826134
159	0xbf2812de	-0.6565379
160	0xbcc75c2e	-0.024335947
161	0x3ce7a877	0.028278572
162	0x3dc0e5ed	0.09418855
163	0x3d27caf0	0.04096502
164	0xbc5254ad	-0.012837571
165	0xbe792cc8	-0.24333489
166	0xbd9f9d15	-0.07793633
167	0xbe7c2510	-0.24623513
168	0x3d61211e	0.054963224
169	0x3d2103d0	0.039310277
170	0xbd459191	-0.048234526
171	0xbd596071	-0.05307049
172	0x3d194f60	0.037429214
173	0x3d450b30	0.048106372
174	0x3dcb158c	0.09916219
175	0x3e82b443	0.25528154
176	0xbcd98715	-0.02655367
177	0xbcf64bf7	-0.03006552
178	0xbda8f299	-0.08249397
179	0x3ba9f9ec	0.0051872637
180	0xbd5e43be	-0.054263823
181	0x3d2f9a4e	0.042871766
182	0xbcbd66d0	-0.023120314
183	0xbe005b29	-0.12534775
184	0xbe10a046	-0.1412364
185	0xbc20ffed	-0.009826642
186	0x3ce06e41	0.027396323
187	0xbabd108d	-0.0014424488
188	0xbdc802a1	-0.097661264
189	0xbd1acc59	-0.037792537
190	0x3d98e372	0.07465257
191	0x3d75b90b	0.059990924
192	0x3d18ca9c	0.0373026
193	0xbb3b1c05	-0.0028550636
194	0x3ec79bec	0.38986146
195	0xbe7387a3	-0.2378221
196	0xbe056fb4	-0.13030893
197	0xbed88b7f	-0.42293927
198	0x3ea80130	0.32813406
199	0xbd9c64f2	-0.07636441
200	0xbe2e33b3	-0.17011909
201	0xbc536353	-0.012902099
202	0xbdcad353	-0.09903588
203	0x3e05692b	0.130284
204	0x3d90558a	0.07047565
205	0xbe2e5639	-0.17025079
206	0x3eee624b	0.46559367
207	0x3dfeb6aa	0.12437184
208	0xbdc4fbc0	-0.0961833
209	0xbe5d6fae	-0.21624634
210	0xbdb08b7a	-0.08620353
211	0xbdcc0b0c	-0.099630445
212	0xbe9885b7	-0.29789516
213	0x3e82bb3b	0.2553347
214	0x3d4b262f	0.04959696
215	0x3e01e997	0.12686764
216	0xbd64c89e	-0.055855386
217	0xbe8ae56e	-0.27128166
218	0xbe83de74	-0.25755656
219	0x3cc2bcc1	0.023771646
220	0x3dbab22f	0.09116017
221	0xbe462151	-0.19348647
222	0x3cbb82de	0.02288955
223	0x3d89ab02	0.0672207
224	0xbd02aaab	-0.031901043
225	0xbe87b0fd	-0.2650222
226	0xbda07a78	-0.07835859
227	0xbe237564	-0.1596275
228	0x3c347ae7	0.01101563
229	0x3d0d40c5	0.034485597
230	0x3d83793b	0.06419607
231	0x3c86bf28	0.016448572
232	0x3d7a2911	0.06107432
233	0xbd7c9949	-0.06166962
234	0x3d14c265	0.0363182
235	0xbd8f2806	-0.06990056
236	0x3c4b5c09	0.01241208
237	0xbe44b76d	-0.19210596
238	0xbd7423ec	-0.05960457
239	0x3e049940	0.12949085
240	0x3d8cdb11	0.06877721
241	0x3c48a816	0.012247106
242	0xbda0bb12	-0.07848181
243	0x3d0de7c5	0.03464486
244	0xbc9bf300	-0.01903677
245	0x3ca1b05d	0.019737417
246	0xbb4fa8b8	-0.0031686258
247	0xbe8a9dff	-0.27073666
248	0xbc59891e	-0.01327732
249	0xbb84ef8f	-0.004056878
250	0xbdd8cdab	-0.10586103
251	0xbd8f8135	-0.07007066
252	0xbdcf9837	-0.101364546
253	0x3c851434	0.016244985
254	0x3da97ead	0.082761146
255	0xbb0a9243	-0.0021144308

convE1.pass_map.bias f4 [32]
0	0x3c06a5ea	0.008218268
1	0x3c469aaa	0.012121836
2	0xbc0eeae4	-0.0087229945
3	0x3d38c463	0.045109164
4	0x3ca50d22	0.020147864
5	0x3dcea28f	0.10089599
6	0xbc7df9ed	-0.0155014815
7	0x3cea2c8f	0.0285857
8	0xbc50e3c0	-0.012749612
9	0x3d78e2c4	0.060763136
10	0x3d3c93b9	0.046039317
11	0x3cd64b7b	0.026159039
12	0x3cb0d496	0.021585744
13	0x3cb7fc84	0.022459276
14	0xba0fbefc	-0.0005483476
15	0x3cfbb7d4	0.030727305
16	0x3f09e628	0.53866816
17	0xbce34d2a	-0.027746756
18	0x3d5f221a	0.05447588
19	0x3dd40d6d	0.10354123
20	0xbbad10e3	-0.005281554
21	0x3d0aba51	0.03386909
22	0xbc4bdea4	-0.012443218
23	0x3d202933	0.03910179
24	0x3ed528a3	0.41632566
25	0x3dca7dd6	0.098872826
26	0x3b8fad2f	0.0043846588
27	0x3d272c91	0.040813986
28	0x3adbfc3b	0.0016783545
29	0xbba82037	-0.0051307934
30	0x3cc7b934	0.024380304
31	0x3aaa8c7a	0.0013011836

attnN2.node_attn_maps.0.weight f4 [8, 32]
0	0x04dee46b	5.2401718e-36
1	0x03981d48	8.94048e-37
2	0x8396a500	-8.85409e-37
3	0x040d3032	1.65966e-36
4	0x036570ed	6.7426684e-37
5	0x039a5dba	9.072825e-37
6	0x01808217	4.7206444e-38
7	0x03f08eda	1.4138729e-36
8	0x047f9349	3.0042736e-36
9	0x050863e7	6.4130384e-36
10	0x0394a5f4	8.736759e-37
11	0x033f59b7	5.6232843e-37
12	0x045da48e	2.6053985e-36
13	0x837d3762	-7.4413594e-37
14	0x83895b9c	-8.073169e-37
15	0x02464232	1.456574e-37
16	0x047f5737	3.0015153e-36
17	0x04011599	1.5173794e-36
18	0x03aa5f9f	1.00136555e-36
19	0x02b16b5b	2.6069432e-37
20	0x0347ac33	5.867852e-37
21	0x03b151d3	1.0421911e-36
22	0x0426b00d	1.9594045e-36
23	0x0333f4f7	5.288458e-37
24	0x03898d74	8.084612e-37
25	0x04d17226	4.9240493e-36
26	0x04e6df09	5.4277566e-36
27	0x8246a0da	-1.4592905e-37
28	0x049016cf	3.3875184e-36
29	0x0439e046	2.1849627e-36
30	0x04ff606f	6.0038772e-36
31	0x04dfe265	5.263496e-36
32	0x04efc45a	5.636895e-36
33	0x83f2a7e9	-1.4262032e-36
34	0x04c39972	4.5985197e-36
35	0x04c61104	4.6565203e-36
36	0x026c3ae2	1.735544e-37
37	0x03977292	8.901286e-37
38	0x82e5b797	-3.3753901e-37
39	0x837c1555	-7.408063e-37
40	0x049b91d4	3.6574247e-36
41	0x0584424f	1.2437578e-35
42	0x05641fdf	1.0726362e-35
43	0x04760064	2.891734e-36
44	0x035648bc	6.2972443e-37
45	0x04018ec6	1.5229435e-36
46	0x045c0187	2.5861577e-36
47	0x041520c8	1.7529918e-36
48	0x0498bdd2	3.590935e-36
49	0x832ed757	-5.1381202e-37
50	0x04838c07	3.0926547e-36
51	0x8352681f	-6.183298e-37
52	0x03afeac1	1.0339472e-36
53	0x0250bb86	1.5335243e-37
54	0x83dda003	-1.30259495e-36
55	0x8338d4e1	-5.4317113e-37
56	0x04e62cfb	5.4114048e-36
57	0x05660d8d	1.0817037e-35
58	0x0437fc10	2.1627288e-36
59	0x0309491e	4.0344616e-37
60	0x03b214af	1.0466648e-36
61	0x0333c95d	5.2834526e-37
62	0x84c1dcbf	-4.5576805e-36
63	0x05b44d86	1.6955596e-35
64	0x0457e8b1	2.5379975e-36
65	0x837540d2	-7.207344e-37
66	0x841fec7f	-1.8798954e-36
67	0x8436d105	-2.1489974e-36
68	0x03af5960	1.0306095e-36
69	0x02a39bd5	2.404014e-37
70	0x03020190	3.820536e-37
71	0x03b29403	1.04958815e-36
72	0x02074975	9.939315e-38
73	0x05139b3a	6.9404174e-36
74	0x83b9e731	-1.0926402e-36
75	0x02e65ba1	3.3848055e-37
76	0x03a5440a	9.713449e-37
77	0x832a0132	-4.995988e-37
78	0x82c6c7b6	-2.9208114e-37
79	0x01cf87cf	7.6234667e-38
80	0x042d70b2	2.03878e-36
81	0x83a829f4	-9.8837845e-37
82	0x838d84f3	-8.317759e-37
83	0x0290406a	2.119587e-37
84	0x83b635d3	-1.0709356e-36
85	0x03335b48	5.270816e-37
86	0x03ea762d	1.3780416e-36
87	0x82f627f7	-3.616939e-37
88	0x041c2535	1.8354797e-36
89	0x03eff563	1.41034955e-36
90	0x0496f249	3.5487334e-36
91	0x01b694c9	6.706974e-38
92	0x047eef75	2.996751e-36
93	0x03e46a67	1.3425064e-36
94	0x04c3840f	4.5965556e-36
95	0x03911ee3	8.529425e-37
96	0x84989c37	-3.587849e-36
97	0x82cbc6ed	-2.9942347e-37
98	0x02f68ec0	3.6228386e-37
99	0x02abacf3	2.522546e-37
100	0x83b59cbe	-1.067421e-36
101	0x02d168c1	3.0769916e-37
102	0x839d6334	-9.250407e-37
103	0x83e25a36	-1.3303798e-36
104	0x8387f26a	-7.990242e-37
105	0x854e21a3	-9.6922515e-36
106	0x81d236bc	-7.7220357e-38
107	0x02a044d0	2.3549383e-37
108	0x845d3e40	-2.6007009e-36
109	0x02d98855	3.1963535e-37
110	0x033f8af9	5.628939e-37
111	0x830493ca	-3.8960967e-37
112	0x8485f9b3	-3.1497462e-36
113	0x02c1fade	2.8502792e-37
114	0x02c462b0	2.8856255e-37
115	0x82e43629	-3.3532675e-37
116	0x83254fab	-4.8580596e-37
117	0x82c9c018	-2.9644552e-37
118	0x840c69e9	-1.6505552e-36
119	0x83a8c961	-9.920387e-37
120	0x84b3d17e	-4.2275086e-36
121	0x84bd15bb	-4.4453643e-36
122	0x851191e2	-6.844662e-36
123	0x820c3f1d	-1.0303688e-37
124	0x849265a8	-3.441779e-36
125	0x83e8c31c	-1.3680529e-36
126	0x84fa72fb	-5.888031e-36
127	0x853475cd	-8.485196e-36
128	0x848f826f	-3.3738923e-36
129	0x03f7b9fc	1.4560055e-36
130	0x84119a8f	-1.7115638e-36
131	0x84d65f64	-5.039876e-36
132	0x8377b3b0	-7.2793047e-37
133	0x83690234	-6.8475075e-37
134	0x032fc2d9	5.165155e-37
135	0x0275be75	1.8054416e-37
136	0x847cbcf7	-2.9709226e-36
137	0x8499694d	-3.606683e-36
138	0x84fed300	-5.9908886e-36
139	0x830be59f	-4.111202e-37
140	0x82849514	-1.9481223e-37
141	0x0281e151	1.9084172e-37
142	0x8415ec91	-1.7623492e-36
143	0x83df6386	-1.31296115e-36
144	0x843090fb	-2.0755272e-36
145	0x83a96e15	-9.958201e-37
146	0x844a42b3	-2.3775613e-36
147	0x038acee4	8.158411e-37
148	0x83b41646	-1.0584563e-36
149	0x0325dd28	4.8743017e-37
150	0x0360e30e	6.608833e-37
151	0x030eb57e	4.1938392e-37
152	0x03077db1	3.981722e-37
153	0x851c6ff1	-7.355645e-36
154	0x0307575d	3.9773222e-37
155	0x838290c6	-7.673952e-37
156	0x823d588f	-1.3910942e-37
157	0x8447baf6	-2.3478186e-36
158	0x0489d6b4	3.240572e-36
159	0x853b8c1e	-8.818433e-36
160	0x84f24c4d	-5.6963998e-36
161	0x82f523b6	-3.6020012e-37
162	0x84b1e18c	-4.1819632e-36
163	0x84f775b7	-5.8177525e-36
164	0x81095cb2	-2.5229432e-38
165	0x83ef2cec	-1.4057471e-36
166	0x031b4236	4.5626413e-37
167	0x8326c08c	-4.900405e-37
168	0x84d634a6	-5.0359508e-36
169	0x854938d3	-9.4614115e-36
170	0x855f3b6f	-1.0496326e-35
171	0x84391b03	-2.1759049e-36
172	0x83c339a5	-1.14743045e-36
173	0x83b310fb	-1.0524573e-36
174	0x842448b3	-1.931149e-36
175	0x83ea62a9	-1.3775935e-36
176	0x84832159	-3.0828577e-36
177	0x840e88b1	-1.6754785e-36
178	0x84a196b2	-3.798931e-36
179	0x02836014	1.9303866e-37
180	0x83ddf5be	-1.3045632e-36
181	0x83c0920f	-1.1318279e-36
182	0x028ffe75	2.1158013e-37
183	0x81aeedd9	-6.42588e-38
184	0x84c4259b	-4.6113914e-36
185	0x8547ecd6	-9.400435e-36
186	0x838fc172	-8.4491975e-37
187	0x8271479a	-1.7726432e-37
188	0x8380f85c	-7.580184e-37
189	0x8412b0a4	-1.7243327e-36
190	0x04afee8a	4.1361366e-36
191	0x8576dbe0	-1.1607249e-35
192	0x04db5cda	5.1571923e-36
193	0x0391ad84	8.562171e-37
194	0x8415bbfd	-1.7601186e-36
195	0x82ce48f2	-3.0310848e-37
196	0x03df767a	1.3133963e-36
197	0x00e8e8ad	2.1389303e-38
198	0x02914580	2.1345726e-37
199	0x03f69a77	1.4494044e-36
200	0x04158754	1.7577005e-36
201	0x059af748	1.4572927e-35
202	0x03808a9e	7.554989e-37
203	0x82d50fd4	-3.1306622e-37
204	0x04bbd15c	4.4155755e-36
205	0x8386e29d	-7.92784e-37
206	0x824030f4	-1.4119981e-37
207	0x83873446	-7.946588e-37
208	0x043de294	2.2320883e-36
209	0x040a0fd3	1.6229088e-36
210	0x83b1c73e	-1.0448869e-36
211	0x0326cdde	4.901934e-37
212	0x034b8df1	5.981928e-37
213	0x03a6ec00	9.810786e-37
214	0x041a45e9	1.8134714e-36
215	0x0404ef0c	1.562629e-36
216	0x052b0784	8.041762e-36
217	0x04c947b0	4.7320707e-36
218	0x0558d734	1.0195798e-35
219	0x032bd105	5.0492326e-37
220	0x04e921df	5.4809142e-36
221	0x038ba494	8.207471e-37
222	0x0547a047	9.386373e-36
223	0x0526ea28	7.84829e-36
224	0x043ff40c	2.2564003e-36
225	0x831f25da	-4.676935e-37
226	0x046d8642	2.7920864e-36
227	0x049cd03f	3.6866668e-36
228	0x03038332	3.8648045e-37
229	0x8375aabf	-7.2195036e-37
230	0x83138cf7	-4.3361237e-37
231	0x8380dc95	-7.573807e-37
232	0x04457562	2.3211138e-36
233	0x04a7829f	3.9381468e-36
234	0x051fc081	7.5115015e-36
235	0x04256d66	1.944589e-36
236	0x831489bf	-4.3651416e-37
237	0x03b43797	1.0592212e-36
238	0x03d63674	1.2590291e-36
239	0x03ca9d67	1.1908631e-36
240	0x02559ccf	1.569377e-37
241	0x02b869d5	2.7097115e-37
242	0x043a79a8	2.1920057e-36
243	0x832ad502	-5.020303e-37
244	0x0374d117	7.194518e-37
245	0x836dc44d	-6.9873383e-37
246	0x83ec5061	-1.3889287e-36
247	0x83927066	-8.606914e-37
248	0x0472738e	2.8500023e-36
249	0x04988ae5	3.5862583e-36
250	0x84077c8b	-1.5926361e-36
251	0x0375b8a0	7.221097e-37
252	0x83a72074	-9.822829e-37
253	0x832c4520	-5.062561e-37
254	0x84b09227	-4.151162e-36
255	0x0540faf5	9.07389e-36

attnN2.node_attn_maps.0.bias f4 [8]
0	0x00ffc4d7	2.3488664e-38
1	0x022ae6de	1.2555883e-37
2	0x00142193	1.848754e-39
3	0x8155333a	-3.9158675e-38
4	0x8198aede	-5.6086904e-38
5	0x8208b1f5	-1.0042773e-37
6	0x0194dab6	5.468045e-38
7	0x01d27d6e	7.73218e-38
