train_script/weights/GANOrigEdgeBased_model300new/58.pth (torch, 151087 bytes, 129 tensors)

attnN1.node_attn_maps.0.weight f4 [8, 13]
0	0x80035d01	-3.0887e-40
1	0x0006d6df	6.28094e-40
2	0x8000f6e0	-8.8562e-41
3	0x80050283	-4.60079e-40
4	0x80019473	-1.45089e-40
5	0x8000d191	-7.5178e-41
6	0x800451ba	-3.9666e-40
7	0x00045cae	4.00589e-40
8	0x0009e3e1	9.08267e-40
9	0x00073086	6.60255e-40
10	0x0004682b	4.0471e-40
11	0x00030e56	2.80649e-40
12	0x000732b7	6.61042e-40
13	0x80050830	-4.62115e-40
14	0x8009ba22	-8.93291e-40
15	0x8007dfd1	-7.23139e-40
16	0x8007c21c	-7.12482e-40
17	0x8001f95a	-1.81286e-40
18	0x8008e1f0	-8.15735e-40
19	0x00050b07	4.63133e-40
20	0x00096e65	8.66122e-40
21	0x8003edfb	-3.60878e-40
22	0x000159bd	1.24028e-40
23	0x00045e05	4.0107e-40
24	0x0008ddc7	8.14243e-40
25	0x800a13c3	-9.25444e-40
26	0x000982d6	8.73455e-40
27	0x0006d48e	6.27263e-40
28	0x00046044	4.01876e-40
29	0x0000158a	7.727e-42
30	0x000ae9f6	1.002284e-39
31	0x800a4ea0	-9.4656e-40
32	0x00023f4d	2.06379e-40
33	0x0007b3f0	7.07398e-40
34	0x80043264	-3.85419e-40
35	0x80090e1e	-8.31584e-40
36	0x00050980	4.62585e-40
37	0x80008e0a	-5.0954e-41
38	0x8007149d	-6.50243e-40
39	0x0000aaf7	6.133e-41
40	0x0002dfb4	2.6392e-40
41	0x00007ba6	4.4357e-41
42	0x8009db48	-9.05183e-40
43	0x800ae63a	-1.000945e-39
44	0x80062b1d	-5.66479e-40
45	0x8007f690	-7.31298e-40
46	0x800a2f73	-9.35377e-40
47	0x0001398a	1.12477e-40
48	0x0005dc04	5.38104e-40
49	0x00016b3d	1.30305e-40
50	0x0008dac3	8.13161e-40
51	0x000698d3	6.05836e-40
52	0x0009e539	9.08749e-40
53	0x8000a92c	-6.0687e-41
54	0x0008a494	7.93723e-40
55	0x8007e81d	-7.26115e-40
56	0x8007d94f	-7.20804e-40
57	0x00061f4f	5.62244e-40
58	0x8001e403	-1.7363e-40
59	0x00064196	5.74541e-40
60	0x00031438	2.8276e-40
61	0x8000974f	-5.4279e-41
62	0x00041ccc	3.77672e-40
63	0x80098f4b	-8.77923e-40
64	0x800879e9	-7.78417e-40
65	0x80065cc9	-5.84298e-40
66	0x00030114	2.75893e-40
67	0x8005f813	-5.4817e-40
68	0x00088f7a	7.86154e-40
69	0x00066bd8	5.897e-40
70	0x80094f52	-8.54974e-40
71	0x800802dd	-7.35711e-40
72	0x800a387f	-9.38622e-40
73	0x0001d016	1.66483e-40
74	0x00092568	8.39938e-40
75	0x8006659e	-5.87466e-40
76	0x8003e9d0	-3.59383e-40
77	0x00085fda	7.69069e-40
78	0x800993fd	-8.79608e-40
79	0x000a70a0	9.58757e-40
80	0x000878a8	7.77967e-40
81	0x0009f1cb	9.13258e-40
82	0x800ae311	-9.99811e-40
83	0x0003a862	3.35911e-40
84	0x000437d5	3.87371e-40
85	0x00081451	7.41972e-40
86	0x0006d752	6.28255e-40
87	0x800098ce	-5.4816e-41
88	0x00090eeb	8.31871e-40
89	0x80071f97	-6.54181e-40
90	0x0007fb2b	7.3295e-40
91	0x000a08c0	9.21494e-40
92	0x8007d31c	-7.1858e-40
93	0x800509c5	-4.62682e-40
94	0x80010301	-9.2913e-41
95	0x000a91d5	9.7067e-40
96	0x8000ae6c	-6.2571e-41
97	0x8005a716	-5.19117e-40
98	0x0007b781	7.08677e-40
99	0x0004e101	4.48058e-40
100	0x80042213	-3.79566e-40
101	0x0008fc4b	8.2519e-40
102	0x0002cb45	2.5659e-40
103	0x80055229	-4.88651e-40

attnN1.node_attn_maps.0.bias f4 [8]
0	0x0002106d	1.89563e-40
1	0x8005eafb	-5.43473e-40
2	0x00056e0d	4.98656e-40
3	0x800292e4	-2.36365e-40
4	0x8007f6c8	-7.31377e-40
5	0x00015258	1.21375e-40
6	0x00041b51	3.77141e-40
7	0x8009af28	-8.89354e-40

attnN1.node_attn_maps.1.weight f4 [8, 13]
0	0x000381b9	3.22042e-40
1	0x00054bae	4.86326e-40
2	0x000921d8	8.3866e-40
3	0x0000644f	3.5984e-41
4	0x80084cb3	-7.62198e-40
5	0x00009414	5.312e-41
6	0x80007d56	-4.4962e-41
7	0x8000ad18	-6.2094e-41
8	0x800abafc	-9.85432e-40
9	0x8009d527	-9.02984e-40
10	0x00025956	2.15719e-40
11	0x80017d5f	-1.3681e-40
12	0x00039687	3.29506e-40
13	0x80032394	-2.8827e-40
14	0x0003053f	2.77388e-40
15	0x0006b9ca	6.17662e-40
16	0x80045077	-3.96207e-40
17	0x80098807	-8.75317e-40
18	0x0000f24a	8.6917e-41
19	0x00070462	6.44421e-40
20	0x00080fc0	7.40334e-40
21	0x8001a115	-1.49621e-40
22	0x00093c96	8.48254e-40
23	0x00040a5a	3.71055e-40
24	0x8008c87d	-8.06606e-40
25	0x8005a72c	-5.19147e-40
26	0x80019eb5	-1.48769e-40
27	0x80073ce7	-6.64696e-40
28	0x0006e600	6.33521e-40
29	0x800b0f22	-1.015619e-39
30	0x80007cf5	-4.4826e-41
31	0x8002c412	-2.54008e-40
32	0x0002ab61	2.4515e-40
33	0x800543d6	-4.83512e-40
34	0x8005b800	-5.25184e-40
35	0x80075c3c	-6.75936e-40
36	0x80017c20	-1.36363e-40
37	0x8004daf3	-4.45886e-40
38	0x000845ec	7.59767e-40
39	0x8008ebf0	-8.19322e-40
40	0x000a2141	9.30284e-40
41	0x00065ab6	5.83554e-40
42	0x000a1164	9.24594e-40
43	0x800642b2	-5.74939e-40
44	0x8000fbba	-9.0302e-41
45	0x00051e39	4.7002e-40
46	0x8000cbf8	-7.317e-41
47	0x0005ad69	5.21385e-40
48	0x000959f0	8.58783e-40
49	0x80080564	-7.36618e-40
50	0x00098457	8.73994e-40
51	0x000a3a51	9.39275e-40
52	0x8000a05f	-5.753e-41
53	0x0000f350	8.7284e-41
54	0x800981e5	-8.73117e-40
55	0x00000abe	3.854e-42
56	0x00064727	5.76538e-40
57	0x0008685e	7.72124e-40
58	0x80080165	-7.35184e-40
59	0x80008b6b	-5.0014e-41
60	0x8000be58	-6.8282e-41
61	0x00037532	3.17548e-40
62	0x0003e628	3.58071e-40
63	0x000aaa7f	9.79517e-40
64	0x800294ba	-2.37024e-40
65	0x0002ee0f	2.6907e-40
66	0x0007ab4a	7.04295e-40
67	0x0001515e	1.21025e-40
68	0x8006d425	-6.27116e-40
69	0x800852b7	-7.64356e-40
70	0x0006332e	5.69373e-40
71	0x8001b624	-1.57175e-40
72	0x00068036	5.97006e-40
73	0x80019a75	-1.47244e-40
74	0x00032b1f	2.90975e-40
75	0x80080bf1	-7.38968e-40
76	0x00055030	4.87943e-40
77	0x80003c62	-2.1661e-41
78	0x8002a023	-2.41117e-40
79	0x80020681	-1.86004e-40
80	0x800443e8	-3.91702e-40
81	0x80085065	-7.63524e-40
82	0x000503da	4.60559e-40
83	0x800a4982	-9.44725e-40
84	0x0009e445	9.08407e-40
85	0x000a4e47	9.46436e-40
86	0x0009949f	8.79835e-40
87	0x800178aa	-1.35122e-40
88	0x000854cb	7.65102e-40
89	0x0007bff6	7.11711e-40
90	0x000656c2	5.82136e-40
91	0x80047439	-4.09035e-40
92	0x00031336	2.82398e-40
93	0x00073f4f	6.6556e-40
94	0x80012392	-1.04596e-40
95	0x00073808	6.62949e-40
96	0x000962b8	8.61933e-40
97	0x8003f346	-3.62777e-40
98	0x80003d72	-2.2042e-41
99	0x0008854e	7.82505e-40
100	0x00016102	1.26635e-40
101	0x80098f30	-8.77885e-40
102	0x8009d6ca	-9.03571e-40
103	0x000805ef	7.36813e-40

attnN1.node_attn_maps.1.bias f4 [8]
0	0x80029a88	-2.39106e-40
1	0x00010f56	9.7337e-41
2	0x0000b1af	6.3741e-41
3	0x000a3e68	9.40742e-40
4	0x8007be4f	-7.11118e-40
5	0x000355bc	3.06262e-40
6	0x0006d005	6.25636e-40
7	0x8002f99e	-2.73217e-40

attnN1.node_attn_maps.2.weight f4 [8, 13]
0	0x800880b3	-7.80853e-40
1	0x000467e0	4.04605e-40
2	0x800082da	-4.694e-41
3	0x80085fd4	-7.6906e-40
4	0x8006dee5	-6.30972e-40
5	0x8008fc65	-8.25226e-40
6	0x00031b5a	2.85318e-40
7	0x00042334	3.7997e-40
8	0x000770e7	6.8335e-40
9	0x800211dc	-1.90078e-40
10	0x0006098e	5.5444e-40
11	0x8005d438	-5.35307e-40
12	0x0002f62f	2.71985e-40
13	0x80061cef	-5.61392e-40
14	0x0008e6d4	8.1749e-40
15	0x000796f8	6.97006e-40
16	0x000573ab	5.00671e-40
17	0x000a9ae3	9.73918e-40
18	0x00085630	7.65602e-40
19	0x00013bc4	1.13275e-40
20	0x8001303f	-1.09143e-40
21	0x800614ac	-5.58429e-40
22	0x000a4644	9.43562e-40
23	0x0007ab31	7.0426e-40
24	0x800828cc	-7.49319e-40
25	0x8008692a	-7.7241e-40
26	0x8005f98f	-5.48702e-40
27	0x000084fc	4.7706e-41
28	0x0003860a	3.2359e-40
29	0x80081b66	-7.44513e-40
30	0x80091d74	-8.37085e-40
31	0x000a099c	9.21802e-40
32	0x000ac114	9.87618e-40
33	0x8009e61e	-9.0907e-40
34	0x0006c065	6.20031e-40
35	0x8003deb6	-3.554e-40
36	0x00035f74	3.09749e-40
37	0x8002ef29	-2.69465e-40
38	0x80053c2b	-4.80762e-40
39	0x80062a11	-5.66104e-40
40	0x8002c141	-2.52997e-40
41	0x80001aa7	-9.561e-42
42	0x0000cfdd	7.4567e-41
43	0x8000417c	-2.3491e-41
44	0x80080545	-7.36574e-40
45	0x0005d1f7	5.34499e-40
46	0x000a5ce7	9.51682e-40
47	0x000955b1	8.5726e-40
48	0x80009f0e	-5.7058e-41
49	0x0007e4a6	7.24872e-40
50	0x8006867e	-5.9926e-40
51	0x0009d53c	9.03014e-40
52	0x00004baf	2.715e-41
53	0x80025f63	-2.1789e-40
54	0x0007c4df	7.13473e-40
55	0x000a6043	9.52887e-40
56	0x8006ab64	-6.12496e-40
57	0x800869cf	-7.72641e-40
58	0x8007b628	-7.08194e-40
59	0x800985ab	-8.7447e-40
60	0x000012eb	6.786e-42
61	0x0004131e	3.742e-40
62	0x000b292b	1.024959e-39
63	0x8007a387	-7.01511e-40
64	0x0000c3c3	7.0226e-41
65	0x8008f17c	-8.21312e-40
66	0x0007c450	7.13272e-40
67	0x800a602f	-9.52859e-40
68	0x0000efab	8.5977e-41
69	0x00038541	3.23309e-40
70	0x00008196	4.6487e-41
71	0x80035281	-3.05103e-40
72	0x8002c145	-2.53003e-40
73	0x000561ac	4.94216e-40
74	0x800a6580	-9.54766e-40
75	0x8007825f	-6.89617e-40
76	0x0003c5d4	3.46474e-40
77	0x000a79c8	9.62042e-40
78	0x0004ab51	4.28799e-40
79	0x00028526	2.31436e-40
80	0x80066a0c	-5.89055e-40
81	0x800155b4	-1.2258e-40
82	0x00096c26	8.65316e-40
83	0x00005537	3.057e-41
84	0x80026dfc	-2.23126e-40
85	0x00023877	2.03927e-40
86	0x000681c8	5.9757e-40
87	0x0008ff3b	8.26243e-40
88	0x0008234b	7.47345e-40
89	0x80027d3d	-2.28598e-40
90	0x0000f35e	8.7304e-41
91	0x00046f31	4.0723e-40
92	0x00024d16	2.11324e-40
93	0x80041b9c	-3.77246e-40
94	0x800674f0	-5.92962e-40
95	0x000725a7	6.56356e-40
96	0x800923b0	-8.39322e-40
97	0x0007ebaa	7.27389e-40
98	0x8008382a	-7.54832e-40
99	0x80073873	-6.63099e-40
100	0x00019f36	1.4895e-40
101	0x000300fe	2.75862e-40
102	0x80093dff	-8.4876e-40
103	0x000ac59f	9.89248e-40

attnN1.node_attn_maps.2.bias f4 [8]
0	0x0000df79	8.0167e-41
1	0x00051fa0	4.70522e-40
2	0x80007150	-4.0649e-41
3	0x8007359a	-6.62077e-40
4	0x0002be1d	2.51871e-40
5	0x0002b415	2.48272e-40
6	0x800abf8c	-9.87069e-40
7	0x00018b4d	1.41807e-40

attnN1.node_attn_maps.3.weight f4 [8, 13]
0	0x800583d8	-5.06474e-40
1	0x0008bba3	8.01995e-40
2	0x8009b2c3	-8.90647e-40
3	0x80036344	-3.11116e-40
4	0x0002888a	2.32652e-40
5	0x00032922	2.90262e-40
6	0x0009f6de	9.15079e-40
7	0x8008f610	-8.22955e-40
8	0x000a07b7	9.21123e-40
9	0x00084410	7.591e-40
10	0x00042267	3.79683e-40
11	0x800821c0	-7.46791e-40
12	0x8004f71b	-4.55987e-40
13	0x80010c6c	-9.6292e-41
14	0x8006132a	-5.57888e-40
15	0x80000edd	-5.332e-42
16	0x00081703	7.42939e-40
17	0x0000a810	6.029e-41
18	0x8006fd1b	-6.4181e-40
19	0x80011915	-1.00833e-40
20	0x8008a47c	-7.9369e-40
21	0x0006f4a2	6.3877e-40
22	0x80034da7	-3.03363e-40
23	0x80041a20	-3.76714e-40
24	0x8008e4a7	-8.16709e-40
25	0x0002e4eb	2.65791e-40
26	0x0005c9cb	5.31567e-40
27	0x800226ed	-1.97635e-40
28	0x8008091e	-7.37955e-40
29	0x80003581	-1.9194e-41
30	0x0002b44a	2.48347e-40
31	0x800390b9	-3.27423e-40
32	0x80060e20	-5.5608e-40
33	0x0005fca3	5.49806e-40
34	0x8000128b	-6.652e-42
35	0x0004f8a8	4.56543e-40
36	0x0009c013	8.95423e-40
37	0x80004659	-2.5236e-41
38	0x80023cc0	-2.05464e-40
39	0x80095dc3	-8.60155e-40
40	0x000a681d	9.55704e-40
41	0x8002b746	-2.49417e-40
42	0x80097714	-8.69237e-40
43	0x8002da23	-2.61924e-40
44	0x80027ee5	-2.29192e-40
45	0x800605cb	-5.53091e-40
46	0x0009526a	8.56084e-40
47	0x800406be	-3.6976e-40
48	0x00072389	6.55596e-40
49	0x00059d09	5.15511e-40
50	0x80081578	-7.42386e-40
51	0x8001e488	-1.73817e-40
52	0x0005136f	4.66149e-40
53	0x000a6a95	9.5659e-40
54	0x00080f9d	7.40285e-40
55	0x00096cd8	8.65565e-40
56	0x8003918e	-3.27722e-40
57	0x8005d2bc	-5.34775e-40
58	0x000a064e	9.20617e-40
59	0x8009873e	-8.75035e-40
60	0x8003b3fe	-3.40076e-40
61	0x0008f722	8.23339e-40
62	0x800997e0	-8.81002e-40
63	0x80087dcf	-7.79816e-40
64	0x0001d3a1	1.67754e-40
65	0x80000f62	-5.518e-42
66	0x00026189	2.1866e-40
67	0x0005ea70	5.43278e-40
68	0x80094c97	-8.53995e-40
69	0x0001ee4e	1.77323e-40
70	0x000a8fe2	9.6997e-40
71	0x00008b24	4.9914e-41
72	0x00070abf	6.46703e-40
73	0x000a53b1	9.48378e-40
74	0x00028f15	2.34999e-40
75	0x800a18cb	-9.27249e-40
76	0x80005bce	-3.2933e-41
77	0x8003a2fe	-3.33977e-40
78	0x8001e07c	-1.72365e-40
79	0x00098b76	8.76549e-40
80	0x000869f6	7.72696e-40
81	0x00049a4b	4.22692e-40
82	0x00021a2b	1.93058e-40
83	0x8005b810	-5.25207e-40
84	0x0000e131	8.0783e-41
85	0x000a655f	9.5472e-40
86	0x0008461e	7.59837e-40
87	0x8001e684	-1.74529e-40
88	0x0008b15c	7.98309e-40
89	0x00081a3e	7.44098e-40
90	0x8008daea	-8.13216e-40
91	0x0004a6f4	4.27233e-40
92	0x8003a508	-3.34709e-40
93	0x0008ee34	8.20135e-40
94	0x0004ecbc	4.52266e-40
95	0x0000db91	7.8766e-41
96	0x000847f1	7.60492e-40
97	0x8003be6e	-3.4382e-40
98	0x0004c0ae	4.36462e-40
99	0x8003cf91	-3.49967e-40
100	0x0005a496	5.1822e-40
101	0x00089e16	7.91395e-40
102	0x8008c6d0	-8.06004e-40
103	0x0005fda7	5.50171e-40

attnN1.node_attn_maps.3.bias f4 [8]
0	0x800aa94a	-9.79084e-40
1	0x80005a69	-3.2433e-41
2	0x000c0366	1.103245e-39
3	0x80059057	-5.10957e-40
4	0x8006b407	-6.15595e-40
5	0x8000302a	-1.7278e-41
6	0x800008c3	-3.143e-42
7	0x800191b7	-1.44108e-40

attnN1.edge_attn_maps.0.weight f4 [8, 13]
0	0xbdc5e248	-0.096623
1	0x3d751e2b	0.059843224
2	0x3df46d0b	0.11934861
3	0x3e05434e	0.13013956
4	0xbe958d5e	-0.29209417
5	0xbd6695b0	-0.056295097
6	0x3d7e62ae	0.062105827
7	0xbd7ad56f	-0.061238702
8	0x3d7c1fb6	0.06155368
9	0x3e0c046a	0.13673559
10	0x3d484613	0.048894953
11	0xbdda0e6f	-0.10647284
12	0xbd7de635	-0.06198712
13	0xbd578c6e	-0.05262416
14	0x3eb8675d	0.3601636
15	0x3cc9c260	0.024628818
16	0x3ded1cd2	0.11577763
17	0x3deea85d	0.116532065
18	0xbe5edbe4	-0.21763569
19	0xbd24c4cb	-0.04022674
20	0xbc8b1b9e	-0.016980942
21	0xbdacb2bf	-0.084325306
22	0xbc813ba5	-0.015775511
23	0xbe032994	-0.1280883
24	0x3dbf7630	0.09348714
25	0xbcc47e25	-0.023985932
26	0xbdd1c963	-0.102434896
27	0x3c882759	0.016620325
28	0xbd76239a	-0.060092546
29	0x3d9e90fc	0.07742497
30	0xbda922d2	-0.082585946
31	0x3d5b94b7	0.053608622
32	0xbe01ceb9	-0.12676515
33	0x3d8f1e5e	0.06988214
34	0x3e749a70	0.23887038
35	0x3e071f55	0.13195546
36	0xbc77892c	-0.015108388
37	0xbda47544	-0.08030179
38	0x3e6a1499	0.2285942
39	0x3dab933f	0.08377694
40	0xbd8fa5d6	-0.070140526
41	0xbd857fc1	-0.06518508
42	0x3e8fe2cc	0.2810272
43	0x3d83cbe8	0.064353764
44	0xbd20edd4	-0.03928931
45	0x3cd067e5	0.025440166
46	0x3b929c73	0.0044742166
47	0xbcef9bb5	-0.029249052
48	0x3e11d640	0.14241886
49	0xbdf45594	-0.11930385
50	0x3d3efbf6	0.046627007
51	0xbe2b216d	-0.1671197
52	0x3d9dbb0d	0.07701693
53	0xbc57e1bc	-0.013176378
54	0x3c8d5157	0.0172507
55	0xbd93d524	-0.07218388
56	0x3e21959e	0.1577973
57	0x3c4d838d	0.012543571
58	0x3d6d152f	0.05788153
59	0x3e50d72e	0.20394585
60	0xbe1384cc	-0.14406127
61	0x3cb70478	0.022340998
62	0xbdd49b83	-0.10381224
63	0x3e2b1ecf	0.16710971
64	0x3e2f9a05	0.17148598
65	0x3e6ab260	0.22919607
66	0xbe69348a	-0.22773948
67	0x3c6065d3	0.013696152
68	0xbe6d283a	-0.23159876
69	0x3d31d6ed	0.04341786
70	0x3e4c931c	0.19977993
71	0xbdf283b8	-0.118415296
72	0xbc43590e	-0.011923088
73	0x3e7e2c4c	0.24821585
74	0xbd78494b	-0.060616773
75	0xbe6739c8	-0.22580636
76	0xbe01c09d	-0.12671132
77	0x3db1cdda	0.08681841
78	0xbe22fb85	-0.1591626
79	0xbe6ff005	-0.23431404
80	0xbe56bfeb	-0.20971648
81	0xbe3af11e	-0.18256041
82	0xbe2bbfbd	-0.16772361
83	0xbda6de94	-0.08147922
84	0xbe948dcf	-0.2901444
85	0x3d56b3bb	0.052417498
86	0xbda96de6	-0.082729146
87	0xbe681341	-0.22663595
88	0xbe2e4678	-0.17019069
89	0x3e1b9d37	0.15196691
90	0xbd7619db	-0.06008325
91	0x3e84faee	0.25972694
92	0xbe534589	-0.20631994
93	0x3e3b4be9	0.18290676
94	0xbdccf767	-0.10008126
95	0xbe607110	-0.2191813
96	0x3e52bd9c	0.20580143
97	0x3de162b7	0.110051565
98	0xbc707392	-0.014675992
99	0xbe55f8f9	-0.20895757
100	0x3e04a478	0.12953365
101	0xbe37e683	-0.17959027
102	0x3e325d92	0.17418507
103	0x3e180fbf	0.14849757

attnN1.edge_attn_maps.0.bias f4 [8]
0	0xbc6e707e	-0.014553187
1	0xbd35b9d6	-0.04436668
2	0x3bf2d583	0.0074107065
3	0xbc7fffca	-0.01562495
4	0xbcbf10ef	-0.023323504
5	0x3bcc634d	0.0062374235
6	0xbc3b8a71	-0.011446581
7	0xbb9f3ae7	-0.0048593166

attnN1.edge_attn_maps.1.weight f4 [8, 13]
0	0xbdc9d3e2	-0.098548666
1	0xbceda7f1	-0.029010745
2	0x3e7c6e71	0.24651505
3	0xbd0a0fea	-0.033706583
4	0x3eccb777	0.39983723
5	0x3e335f47	0.17516814
6	0x3d97351f	0.07383179
7	0x3d20b84e	0.039238267
8	0x3d935c4d	0.07195339
9	0xbda70c4b	-0.081566416
10	0xbde6cc90	-0.11269486
11	0x3de4bc29	0.11168701
12	0x3e37abee	0.1793668
13	0x3dfb9956	0.12285106
14	0xbe077b87	-0.13230716
15	0xbbb6531d	-0.005564107
16	0x3cfd96ec	0.030955754
17	0x3d9bf63d	0.076153256
18	0x3d4f8b77	0.050670113
19	0xbe38f0d6	-0.18060622
20	0xbe07ec7e	-0.13273808
21	0x3e9992ea	0.299949
22	0xbe28ff98	-0.16503751
23	0xbac630c8	-0.0015120739
24	0x3d2456ba	0.04012177
25	0xbde0c0a1	-0.10974241
26	0xbddc4cf2	-0.10756864
27	0xbe02384e	-0.12716791
28	0x3e34827d	0.17627902
29	0x3e343592	0.1759856
30	0x3e17a69b	0.14809649
31	0x3e778ba1	0.24174358
32	0xbe526077	-0.20544611
33	0xbc82aed6	-0.015952509
34	0x3e0b4d64	0.13603741
35	0x3d118778	0.035529584
36	0x3da8ec9d	0.082482554
37	0xbdae323f	-0.085056774
38	0x3d8c99e7	0.06865292
39	0x3e3546ac	0.1770274
40	0xbe60e7b3	-0.21963386
41	0xbe46f280	-0.19428444
42	0xbe0e638b	-0.1390516
43	0xbd29cf1b	-0.041457277
44	0x3e3202d8	0.17383897
45	0x3ca4d829	0.020122604
46	0xbd268c0b	-0.0406609
47	0xbd141b72	-0.036158986
48	0x3e24c316	0.16090044
49	0x3e2f78eb	0.1713597
50	0x3e2f0fd1	0.17095877
51	0x3e45e4a5	0.19325502
52	0x3d779b73	0.060450982
53	0xbda0fd42	-0.07860805
54	0x3e45672f	0.19277643
55	0xbd152ed2	-0.036421604
56	0x3d95f5e0	0.073222876
57	0x3cccccbd	0.02499997
58	0xbd57ea4c	-0.052713677
59	0xbd9c57dd	-0.07633946
60	0x3e437342	0.19086936
61	0xbde53dfc	-0.11193463
62	0xbd12a564	-0.03580226
63	0x3d4dd9d2	0.050256558
64	0xbd814a92	-0.06313051
65	0xbe1c8691	-0.15285708
66	0x3e50198c	0.20322245
67	0x3cec20b6	0.028824192
68	0x3e0d6758	0.13808954
69	0x3dd16131	0.10223616
70	0x3e3a8e57	0.18218361
71	0x3e0976e2	0.13424256
72	0x3dc3feb5	0.09570066
73	0xbdc68c68	-0.09694749
74	0xba30096d	-0.0006715272
75	0xbd85f52d	-0.06540904
76	0xbe1432f8	-0.14472568
77	0xbde01b80	-0.10942745
78	0xbd67f669	-0.05663148
79	0x3d1a4b73	0.03766961
80	0xbe43acf3	-0.19108944
81	0x3df4adc7	0.11947208
82	0xbe367581	-0.17818262
83	0xbe00d61a	-0.12581673
84	0xbdb25fc2	-0.087096706
85	0x3c7d7797	0.015470407
86	0x3dd92011	0.10601819
87	0xbc4220fb	-0.0118486835
88	0xbbac5173	-0.005258733
89	0x3c016df3	0.007899749
90	0xbd5dc2f4	-0.054141
91	0xbdfbfd02	-0.12304117
92	0x3dd45c6e	0.10369192
93	0xbd7c4600	-0.061590195
94	0xbc4d5d77	-0.012534491
95	0xbd9ff955	-0.07811228
96	0x3e3ccbb3	0.1843708
97	0x3d36acb0	0.04459828
98	0xbd9ad7ad	-0.07560668
99	0xbe150c9f	-0.14555596
100	0x3e2ecd95	0.17070611
101	0xbcf360ba	-0.029709209
102	0x3e21e67f	0.15810584
103	0x3e28f3ef	0.16499303

attnN1.edge_attn_maps.1.bias f4 [8]
0	0x3d19744f	0.037464436
1	0xbaf32b0a	-0.0018552255
2	0x3ccc058a	0.024904985
3	0x3c2261c4	0.009911004
4	0xbc4de4c8	-0.012566753
5	0x3bdf34e5	0.0068117254
6	0xbd143ff0	-0.036193788
7	0xbb7a76f2	-0.003821787

attnN1.edge_attn_maps.2.weight f4 [8, 13]
0	0xbe21f0e0	-0.15814543
1	0xbbff2d30	-0.007787369
2	0xbd89009d	-0.0668957
3	0x3e3a96e1	0.18221618
4	0xbe497808	-0.19674695
5	0x3daca5c7	0.08430057
6	0x3da823e8	0.082099736
7	0xbe07fc80	-0.13279915
8	0x3d851b3c	0.06499335
9	0xbe3df674	-0.18551046
10	0x3d272b04	0.040812507
11	0x3dd0673c	0.101759404
12	0x3cd26539	0.025683032
13	0x3e831fbb	0.25610146
14	0x3ea532f5	0.3226544
15	0x3cb831ce	0.022484686
16	0x3db40751	0.08790458
17	0x3e0631ba	0.13104907
18	0x3dac0987	0.08400255
19	0x3dbf232a	0.09332879
20	0x3de2390f	0.11046039
21	0xbd0c1982	-0.034204014
22	0x3c6ee4af	0.01458089
23	0x3e2b0ecc	0.16704863
24	0x3dd4eafd	0.10396383
25	0x3de9e28b	0.11420163
26	0xbde9428b	-0.11389645
27	0x3e1bb5a2	0.15206006
28	0x3ddf20b8	0.108949125
29	0xbe7411c2	-0.23834899
30	0x3e7109f7	0.23538958
31	0x3e577be6	0.21043357
32	0x3d95e259	0.07318563
33	0x3dbb4c1c	0.09145376
34	0xbd4eff3c	-0.05053638
35	0xbe2ae67a	-0.16689482
36	0x3d88a1f8	0.06671518
37	0x3d2f3f48	0.04278496
38	0xbe5146fa	-0.20437232
39	0x3da19a7b	0.07890793
40	0x3d41b29e	0.047289483
41	0x3dc5cbcf	0.09658014
42	0x3de66c30	0.11251104
43	0xbda8ba22	-0.08238627
44	0x3d69f0a7	0.05711427
45	0x3cee9f49	0.029128687
46	0x3de67cd3	0.11254277
47	0x3e2230f4	0.15838987
48	0xbd960cdc	-0.073266715
49	0x3de2179f	0.110396616
50	0xbdee6d29	-0.116419144
51	0x3d29be07	0.04144099
52	0xbe53e538	-0.20692909
53	0x3e383119	0.1798748
54	0xbe044cc6	-0.12919912
55	0xbc60fd66	-0.01373229
56	0x3eaaa8ed	0.33332005
57	0xbdff81a3	-0.12475898
58	0xbe07733b	-0.1322755
59	0x3e2d6485	0.16932876
60	0x3d8fb1c3	0.07016327
61	0x3cfd7627	0.030940128
62	0x3e0357e4	0.12826496
63	0xbd14abbb	-0.036296587
64	0xbd389fd6	-0.045074306
65	0x3d90afa7	0.07064753
66	0xbe0a22d3	-0.13489847
67	0x3e0243c6	0.12721166
68	0x3dc69cab	0.09697851
69	0x3e284097	0.16430889
70	0xbc9381d0	-0.018006235
71	0xbe4383b5	-0.19093211
72	0xbe1c57ac	-0.15267819
73	0x3e5d67bd	0.21621604
74	0xbdee61e3	-0.11639764
75	0x3d84dd54	0.064875275
76	0x3dd14c5d	0.10219643
77	0xbd99fc62	-0.07518841
78	0xbe782a80	-0.24234962
79	0xbe9e894f	-0.30964133
80	0x3e2683fd	0.16261287
81	0x3e115330	0.1419189
82	0x3dbdc560	0.09266162
83	0xbc0e1476	-0.00867187
84	0xbe3574ea	-0.1772038
85	0xbc4516e0	-0.01202938
86	0x3e2a2829	0.16616882
87	0x3e87287d	0.26398078
88	0x3dfadf21	0.1224959
89	0xbd01ecbd	-0.03171991
90	0x3e374f70	0.17901397
91	0xbd9af488	-0.07566172
92	0x3e24d08b	0.16095178
93	0x3e0d25b2	0.13783911
94	0x3d189e4c	0.03726034
95	0x3d33ce52	0.043897934
96	0x3dea8af7	0.11452287
97	0x3d801e52	0.06255783
98	0x3dd1de0d	0.10247431
99	0x3e304812	0.17214993
100	0xbd96ee96	-0.073697254
101	0x3d9e8bfc	0.07741544
102	0xbdb7b6c5	-0.089704074
103	0x3dbd493a	0.092424825

attnN1.edge_attn_maps.2.bias f4 [8]
0	0xbd1fea68	-0.039041907
1	0xbc01a8ae	-0.0079137515
2	0xbc81dd40	-0.01585257
3	0x395c0b60	0.00020985072
4	0x3cc0d285	0.023537884
5	0xbbebd176	-0.0071966005
6	0x3a86f6ee	0.001029698
7	0xbd241706	-0.04006102

attnN1.edge_attn_maps.3.weight f4 [8, 13]
0	0x3e1337da	0.14376774
1	0x3e7984df	0.24367093
2	0xbe32cbba	-0.17460528
3	0x3d9bc401	0.07605744
4	0x3e972d6f	0.2952685
5	0x3d6ae0b7	0.05734321
6	0x3dcdf999	0.100573726
7	0x3e5be637	0.21474539
8	0xbd754236	-0.059877597
9	0xbe214e70	-0.15752578
10	0x3dcf07de	0.101089224
11	0x3e0d3a24	0.1379171
12	0xbe835b9a	-0.25655824
13	0x3d96948c	0.07352552
14	0xbd94e1a1	-0.07269598
15	0xbca34bdd	-0.019933635
16	0xbd848fe7	-0.0647276
17	0xbe9e603a	-0.3093279
18	0x3e856f32	0.26061398
19	0x3dc0f320	0.094213724
20	0xbddc7402	-0.10764314
21	0xbd8a4e5c	-0.06753227
22	0x3dc4d860	0.09611583
23	0x3daecdcf	0.085353486
24	0xbd8d8668	-0.069104016
25	0xbe25c8fe	-0.16189954
26	0x3e92f0d0	0.2869935
27	0xbe3fd7da	-0.18734685
28	0x3e16f2a4	0.14740998
29	0x3e83319c	0.25623786
30	0xbe99239e	-0.29909986
31	0xbdc249b8	-0.09486717
32	0x3dcff1b8	0.10153526
33	0x3e0fceca	0.14043728
34	0xbdbde7d3	-0.092727326
35	0xbdac3fb2	-0.084105864
36	0xbdc8266c	-0.097729534
37	0x3db9cf22	0.090727106
38	0xbebed2b8	-0.3727014
39	0xbe166a98	-0.146891
40	0xbe571567	-0.21004258
41	0x3d254a61	0.040354136
42	0x3e8e72cc	0.27821958
43	0x3da6134b	0.081091486
44	0xbe507c9a	-0.20360032
45	0x3df4cb4f	0.119528405
46	0x3de586df	0.11207365
47	0x3e31a9cf	0.17349933
48	0x3d749237	0.059709754
49	0x3d0a45b6	0.033757888
50	0x3c6f100f	0.014591231
51	0x3dabb2dc	0.08383724
52	0x3d415b96	0.047206484
53	0xbdc48582	-0.09595777
54	0xbde28dc2	-0.110621944
55	0x3e1dd2a3	0.15412383
56	0xbe86a463	-0.26297292
57	0x3dcb92ef	0.09940135
58	0x3d7642bd	0.06012224
59	0xbd5e1a79	-0.054224465
60	0x3e49f932	0.19723967
61	0x3e748278	0.23877895
62	0xbda6dab6	-0.081471846
63	0xbdf4ca5f	-0.11952662
64	0xbc46b6aa	-0.012128511
65	0xbdefd185	-0.117098846
66	0x3da5f695	0.081036724
67	0x3d6fa791	0.058509413
68	0xbe56df5f	-0.20983647
69	0x3da16ff4	0.078826815
70	0xbe1c6b73	-0.15275364
71	0xbe3e1c70	-0.18565536
72	0xbe25c9a7	-0.16190206
73	0x3e0ea3d4	0.13929683
74	0x3e2df5ca	0.16988292
75	0xbe0e9935	-0.13925631
76	0xbc1a989a	-0.009435797
77	0x3bd6eb43	0.006558807
78	0x3e725aa2	0.23667386
79	0xbda9bd26	-0.0828803
80	0xbe2d69fb	-0.1693496
81	0x3e3107bd	0.17288108
82	0x3e12167a	0.14266387
83	0x3e36e3ae	0.1786029
84	0xbd0479a9	-0.032342587
85	0xbdbecf56	-0.0931689
86	0x3d9257a5	0.07145623
87	0x3e399da7	0.18126546
88	0x3e359631	0.17733075
89	0xbc83376b	-0.016017636
90	0xbde13470	-0.1099633
91	0x3e671c64	0.22569424
92	0xbe85aeef	-0.26110026
93	0xbdb83f18	-0.08996409
94	0xbe50ec3d	-0.20402618
95	0xbd00c8bc	-0.031441435
96	0x3e6715ba	0.22566882
97	0x3d675906	0.056481384
98	0xbd8400e8	-0.06445485
99	0xbe0ec3c0	-0.1394186
100	0xbc99ece0	-0.018789709
101	0x3deb4be0	0.114890814
102	0xbe0f41b2	-0.13989905
103	0xbeba3fb8	-0.3637674

attnN1.edge_attn_maps.3.bias f4 [8]
0	0xbd0bf7ee	-0.03417199
1	0x3bd8e097	0.00661857
2	0x3ce082f3	0.027406191
3	0x3d264808	0.040596038
4	0x3b3e4c98	0.0029037353
5	0x3c644aa6	0.013933813
6	0x3c6be5a1	0.0143980095
7	0xbb1f1d84	-0.0024279067

attnN1.combinator.weight f4 [1, 16]
0	0x00062e75	5.67679e-40
1	0x00003469	1.8801e-41
2	0x80085b21	-7.67375e-40
3	0x000c6210	1.137204e-39
4	0x00028a5f	2.33309e-40
5	0x80016cba	-1.30839e-40
6	0x800020d1	-1.1772e-41
7	0x8002b019	-2.46843e-40
8	0x3e0c51f0	0.13703132
9	0x3e74e4e5	0.23915441
10	0x3e143614	0.14473754
11	0xbe630ceb	-0.22172897
12	0x3dafd9b3	0.08586445
13	0xbe69c5a8	-0.22829306
14	0xbe3ab261	-0.18232109
15	0x3d889e7d	0.06670854

convE1.self_map.weight f4 [32, 13]
0	0xbea5126d	-0.3224062
1	0x3e8252a2	0.2545367
2	0x3cd912e0	0.026498258
3	0x3d82341c	0.06357595
4	0xbeb19698	-0.34685206
5	0xbd91463d	-0.07093475
6	0x3c610612	0.013734357
7	0x3c8fae0f	0.017539052
8	0xbc833f8f	-0.016021518
9	0x3c2c2290	0.010506287
10	0xbda0067d	-0.078137375
11	0x3b0c3afa	0.0021397457
12	0xbe73543e	-0.23762605
13	0x3e0d3962	0.13791421
14	0xbe2bde20	-0.16783953
15	0x3dbbc456	0.091683075
16	0x3b995ad0	0.004680015
17	0xbd39327c	-0.04521416
18	0xbe0bdea1	-0.13659145
19	0x3d76f9f6	0.060296975
20	0xbe21702f	-0.15765451
21	0xbd23439a	-0.03985939
22	0x3d5ba975	0.053628404
23	0xbd1bd07a	-0.038040616
24	0xbd5875be	-0.052846663
25	0x3d2f92a7	0.042864468
26	0x3df85086	0.121247336
27	0x3e8694fa	0.26285535
28	0x3de4e49e	0.11176418
29	0x3e3ce3cc	0.18446273
30	0x3e1e379f	0.15450905
31	0x3cb6077e	0.02222037
32	0x3d282fc1	0.041061167
33	0xbda1eee2	-0.079068914
34	0xbd96d96c	-0.07365689
35	0x3caf96c2	0.021434192
36	0xbc0b5c59	-0.008505904
37	0xbd910733	-0.07081451
38	0x3dbbf4e5	0.09177569
39	0x3ddd5287	0.108067565
40	0xbe415445	-0.18879803
41	0xbe61c13d	-0.22046371
42	0x3d8e4e3f	0.06948518
43	0xbd757cab	-0.059933346
44	0x3e2b50fc	0.16730112
45	0xbddf23b3	-0.10895481
46	0x3e345880	0.17611885
47	0x3d7de2fd	0.06198405
48	0x3e1dbf9b	0.15405123
49	0xbda93cec	-0.08263573
50	0xbd78745e	-0.06065785
51	0xbdebe76a	-0.11518748
52	0xbd7b0776	-0.061286412
53	0x3db3548b	0.0875636
54	0xbb8d217b	-0.0043069697
55	0xbd709358	-0.058734268
56	0x3d204f1c	0.039137945
57	0x3c9f393a	0.019436467
58	0xbe1e1791	-0.15438677
59	0xbde68d24	-0.11257389
60	0xbd9814f7	-0.07425874
61	0xbc4c5e86	-0.012473708
62	0xbb78d926	-0.0037971227
63	0xbc79f0bc	-0.015255149
64	0xbe33d634	-0.17562181
65	0xbe6fd616	-0.23421511
66	0x3c1d6133	0.009605694
67	0xbc547a6d	-0.012968642
68	0x3ecb2eb1	0.3968406
69	0x3e8498ad	0.25897732
70	0x3d802b47	0.062582545
71	0x3e07faa2	0.13279203
72	0xbcace55d	-0.021105463
73	0xbd9b1398	-0.075720966
74	0xb9dd6d7c	-0.00042233977
75	0xbbb5ce60	-0.0055482835
76	0x3b6b8438	0.0035936963
77	0x3e149a1e	0.14511916
78	0x3e467519	0.19380607
79	0x3dbcf2d3	0.092260025
80	0x3dc1668e	0.09443389
81	0x3d6957c1	0.056968454
82	0xbde087c8	-0.10963398
83	0xbbdf7695	-0.006819556
84	0xbdbe5580	-0.092936516
85	0xbdb0de73	-0.08636179
86	0x3d62f6db	0.0554112
87	0x3d90db3d	0.070730664
88	0x3dfb76ab	0.122784935
89	0x3bba811e	0.0056916615
90	0x3e0a738f	0.13520645
91	0x3af3fcc8	0.0018614763
92	0x3e3350e1	0.17511322
93	0x3e1a9158	0.15094507
94	0x3e168e71	0.14702775
95	0xbd7784e1	-0.060429458
96	0xbdca803b	-0.09887739
97	0xbc10bed4	-0.0088345595
98	0x3e06b76b	0.13155906
99	0x3d0e16fe	0.034689896
100	0xbdfc2212	-0.12311186
101	0xbe4c4257	-0.19947182
102	0xbdde9bf7	-0.10869592
103	0xbe7215b7	-0.23641096
104	0x3de08bf0	0.10964191
105	0x3e847835	0.2587296
106	0xbe37e1f3	-0.17957287
107	0xbe40a9e4	-0.18814808
108	0x3b079235	0.0020686511
109	0xbdc23622	-0.09482981
110	0x3e00cec9	0.12578882
111	0xbc1e3430	-0.009655997
112	0x3db55b87	0.08855348
113	0x3def1ab6	0.116750166
114	0xbdb21f79	-0.08697409
115	0x3caa2ed6	0.020774286
116	0x3b7bd619	0.0038427173
117	0xbd8226c6	-0.06355052
118	0x3ec730b5	0.38904348
119	0xbe0a9868	-0.13534701
120	0xbe9bfba4	-0.30465424
121	0xbd9accfd	-0.0755863
122	0x3da6f538	0.081522405
123	0xbd508b3b	-0.05091403
124	0x3e0ef504	0.13960654
125	0x3d0e8b6e	0.03480094
126	0x3c584894	0.013200898
127	0xbc83de04	-0.016097076
128	0x3c09e3bd	0.008416113
129	0xbd403e09	-0.04693416
130	0x3dac9cd4	0.0842835
131	0x3d5e15f7	0.054220166
132	0x3d06573f	0.032798048
133	0xbd46849d	-0.048466314
134	0x3d63c222	0.05560506
135	0xba040800	-0.00050365925
136	0xbdf603fb	-0.12012478
137	0x3df64627	0.12025099
138	0xbdc1f3d6	-0.09470336
139	0x3d6bc48d	0.057560492
140	0x3dbe0002	0.09277345
141	0xbdb9e6fb	-0.09077259
142	0xbdc1fe1a	-0.09472294
143	0x3cd3aa17	0.025837941
144	0x3e84da8e	0.25947994
145	0xbd8c5bba	-0.06853433
146	0x3e7cdf12	0.2469447
147	0x3e7bf0d6	0.2460359
148	0x3e136003	0.14392094
149	0xbd1fbfd4	-0.0390013
150	0xbdef168c	-0.11674222
151	0xb9554aeb	-0.00020341172
152	0xbe5eb6d4	-0.21749431
153	0xbdb9fd8d	-0.09081564
154	0x3ddd1055	0.10794131
155	0xbd8d5e64	-0.06902769
156	0x3d6450bd	0.05574106
157	0xbd9bbe99	-0.07604713
158	0x3e6a2414	0.22865325
159	0x3e46d01c	0.19415325
160	0x3e2d6b50	0.16935468
161	0x3d903d53	0.07042947
162	0x3b03b3d5	0.0020096202
163	0x3d809bfe	0.06279753
164	0x3dff857c	0.12476632
165	0xbdf2e0b6	-0.118592665
166	0x3de2789c	0.11058161
167	0xbd95ec56	-0.07320468
168	0x3ce2a76b	0.027667722
169	0xbe16a819	-0.14712562
170	0xbccc162d	-0.024912918
171	0x3d8d3225	0.0689433
172	0x3e077a08	0.13230145
173	0x3e04b9ad	0.12961455
174	0x3da2301e	0.07919334
175	0xbdbb6246	-0.091496035
176	0xbd892989	-0.06697375
177	0x3d0b17e8	0.033958346
178	0x3e01eefd	0.12688823
179	0xbbac9dc0	-0.0052678287
180	0xbdf2d403	-0.11856844
181	0x3d187ed4	0.037230328
182	0xbea2b8eb	-0.31781706
183	0x3b8c10f9	0.0042744842
184	0x3dc1a690	0.094555974
185	0xbe20c3ed	-0.1569974
186	0xbe8d9497	-0.27652428
187	0x3e3b1ebd	0.18273444
188	0x3c97dffb	0.01853942
189	0xbc5a4ff9	-0.013324731
190	0xbb90ab58	-0.004414957
191	0xbae3b83c	-0.0017373632
192	0x3e117863	0.1420608
193	0xbda88649	-0.08228738
194	0xbe0892a8	-0.13337195
195	0x3e25f7a9	0.16207756
196	0xbe7444b7	-0.23854338
197	0xbc736880	-0.014856458
198	0x3e8ba4f2	0.2727428
199	0x3e029d2f	0.12755273
200	0xbb0cc065	-0.002147698
201	0xbdc2dc52	-0.09514679
202	0xbdcdc9a8	-0.100482285
203	0x3e022da2	0.1271272
204	0xbdfeba28	-0.1243785
205	0xbd88966f	-0.06669318
206	0xbdb1f762	-0.08689763
207	0x3d03fd44	0.032223955
208	0x3ecbe230	0.39821005
209	0x3e0a898b	0.13529031
210	0xbd2cecc6	-0.042217992
211	0x3d193b74	0.037410215
212	0x3e8428df	0.25812432
213	0x3d5c2b33	0.053752135
214	0xbc3b16d9	-0.0114190215
215	0xbc8d4773	-0.017245984
216	0xbcd30032	-0.02575693
217	0x3c1ab0c3	0.009441557
218	0xbc543c16	-0.012953779
219	0xbb7fdf2e	-0.0039042938
220	0x3d53f448	0.051746637
221	0x3da0b560	0.078470945
222	0x3e03a773	0.12856846
223	0x3e7e094c	0.24808234
224	0xbe443301	-0.19160081
225	0x3e5d6534	0.21620637
226	0x3d9f74a0	0.07785916
227	0xbe13d0a6	-0.14435062
228	0xbd9c2b29	-0.0762542
229	0xbd14ea04	-0.036355987
230	0xbdda64e3	-0.10663774
231	0x3d871971	0.065966494
232	0x3cccb35f	0.024987875
233	0xbc694b21	-0.0142391035
234	0xbd1abee9	-0.037779722
235	0xbe65fc68	-0.22459567
236	0x3d4deb48	0.05027321
237	0xbe04a170	-0.12952209
238	0x3f13fa6c	0.5780399
239	0x3dedf6f2	0.11619367
240	0x3da5844c	0.08081874
241	0x3df51aec	0.119680256
242	0xbd452fb7	-0.048141208
243	0xbb071a1c	-0.0020614928
244	0x3c90944b	0.017648837
245	0xba1c4619	-0.0005961373
246	0x3de24213	0.11047759
247	0x3db0bda1	0.08629919
248	0x3d8111bd	0.063022114
249	0xbe4537bb	-0.1925954
250	0x3e186e8d	0.14885922
251	0xbe06916d	-0.13141413
252	0xbd858cd3	-0.06521001
253	0xbd3d58f6	-0.046227418
254	0xbe0228f2	-0.12710932
255	0x3e651365	0.2237068

convE1.self_map.bias f4 [32]
0	0xbdb208b1	-0.08693064
1	0x3b197c2b	0.0023419957
2	0xbc618d60	-0.013766617
3	0xbbf18962	-0.0073711136
4	0xba572594	-0.00082071987
5	0xbd0184e9	-0.031620894
6	0xb980bc98	-0.00024554576
7	0xbc107a0c	-0.008818161
8	0xbc04136f	-0.008061274
9	0xbd399c4f	-0.045315083
10	0xba5186e2	-0.00079928164
11	0xbc4403d3	-0.011963802
12	0xbc2bac03	-0.0104780225
13	0xbbe40613	-0.006958732
14	0xbcb2b3b7	-0.02181421
15	0x3cd7d518	0.026346728
16	0x3e6ae3d0	0.22938466
17	0xbc38ff0c	-0.011291277
18	0x3d282e71	0.041059915
19	0xbd038cf1	-0.032116834
20	0xbb9ca093	-0.004779884
21	0x3b1cf448	0.0023949314
22	0xbbb2ed7e	-0.00546044
23	0xbd1d3a83	-0.03838588
24	0x3d621aeb	0.055201452
25	0x3ab648d8	0.0013907207
26	0xbbb6ee22	-0.005582587
27	0xbb06adf5	-0.0020550464
28	0xbc72863c	-0.014802512
29	0xbbc3debf	-0.005977481
30	0xbc097930	-0.00839071
31	0xbb5e80b4	-0.0033951225

convE1.pass_map.weight f4 [32, 64]
0	0xbd874a8e	-0.06606017
1	0x3cb00d94	0.02149085
2	0xbe135656	-0.14388403
3	0x3d19f300	0.03758526
4	0x3cd8616d	0.026413644
5	0xbc538519	-0.012910151
6	0xbe06000e	-0.13085958
7	0xbdd2865a	-0.10279532
8	0xbdc6a423	-0.09699275
9	0xbdcdb02f	-0.1004337
10	0xbdfe3e91	-0.12414277
11	0xbd4f1064	-0.05055274
12	0xbe2f1b9d	-0.17100377
13	0x3c3d613b	0.011558826
14	0x3c2ae5f3	0.010430801
15	0xbda23b04	-0.079214126
16	0xbcf8b17f	-0.030358074
17	0xbde32203	-0.110904716
18	0xbd66bbc1	-0.0563314
19	0xbc9eacf1	-0.019369574
20	0xbd8293d8	-0.06375855
21	0xbe1ae682	-0.15126994
22	0xbd8d23f3	-0.068916224
23	0x3bbc99d6	0.0057556434
24	0x3e0473fa	0.12934867
25	0xbe16a54b	-0.14711492
26	0x3d3c3fe0	0.045959353
27	0xbe11dd2c	-0.14244527
28	0xbd8a9553	-0.067667626
29	0xbe03959c	-0.1285004
30	0x3d94da81	0.07268239
31	0xbdcfef21	-0.10153032
32	0x3d5120ae	0.051056556
33	0xbd23eaa4	-0.040018693
34	0x3cb89e96	0.022536557
35	0xbdf2c492	-0.11853899
36	0xbd09b091	-0.033615652
37	0xbd34384c	-0.043999
38	0xbb3bc2fd	-0.0028650158
39	0x3dd5daff	0.10442161
40	0x3d8b4f94	0.06802288
41	0x3bacbe84	0.0052717347
42	0xbd0f8010	-0.03503424
43	0xbc41fa93	-0.011839527
44	0xbe12b943	-0.14328484
45	0x3d2a8de9	0.041639242
46	0xbe284106	-0.16431054
47	0x3e0d5d79	0.13805188
48	0x3d160979	0.036630128
49	0x3d9e8d9e	0.07741855
50	0xbc8fa867	-0.017536355
51	0x3d2da1a3	0.042390477
52	0xbd638821	-0.055549745
53	0x3e249b35	0.16074832
54	0x3d576e0f	0.052595194
55	0x3c0332af	0.008007689
56	0x3dd1e335	0.102484144
57	0xbdea39a2	-0.11436774
58	0xbe0306ea	-0.12795606
59	0xbc94018a	-0.01806714
60	0xbe75e3d0	-0.24012685
61	0xbd847288	-0.064671576
62	0xbd2b7a04	-0.04186441
63	0xbe301056	-0.17193732
64	0xbd91d6c2	-0.0712104
65	0x3d2dd5ed	0.042440344
66	0xbc421a09	-0.011847028
67	0x3d6aadd7	0.057294693
68	0xbe0e7250	-0.13910794
69	0xbbc7a2cb	-0.0060924045
70	0xbd2f94e3	-0.0428666
71	0x3c985720	0.018596232
72	0xbcfd623f	-0.030930636
73	0xba56c4d1	-0.000819278
74	0xbd96b575	-0.07358829
75	0x3cf6bb12	0.030118499
76	0xbbf2998e	-0.007403559
77	0x3d94c245	0.072636165
78	0xbdb8ebc3	-0.09029343
79	0x3aa40508	0.0012513706
80	0xbdd99a8d	-0.10625181
81	0xbe4ab335	-0.19794925
82	0xbdebad3a	-0.1150765
83	0xbdf85908	-0.12126356
84	0xbe2ca459	-0.16859569
85	0xbe125d2f	-0.14293359
86	0xbb98ede5	-0.004667031
87	0x3cccfb14	0.025022067
88	0xbde0be8d	-0.10973845
89	0x3d5100d8	0.051026195
90	0xbc14f859	-0.009092414
91	0x39c93476	0.00038376794
92	0x3d2b9312	0.041888304
93	0x3bf43570	0.0074526593
94	0xbe1706a3	-0.14748625
95	0xbd1e491d	-0.038643945
96	0xbde802c6	-0.11328654
97	0x3ca71fc9	0.020400899
98	0x3d2e7bfc	0.04259871
99	0xbd8979c2	-0.067126766
100	0xbe10445c	-0.14088577
101	0x3a37585a	0.00069940614
102	0xbd85a3eb	-0.065254055
103	0x3beb294b	0.0071765534
104	0xbda97962	-0.08275105
105	0xbd895278	-0.06705183
106	0xbdd5c7f8	-0.10438532
107	0x3d6b3aea	0.05742923
108	0xbe3b4378	-0.18287456
109	0xbd86d84e	-0.065842256
110	0xbe22b34d	-0.1588871
111	0xbc3d8d28	-0.011569299
112	0xbd510428	-0.051029354
113	0xbdc86baf	-0.09786164
114	0xbe197d4a	-0.149892
115	0xbde3ccbe	-0.11123036
116	0xbe1e5b58	-0.15464532
117	0xbd864e51	-0.065579064
118	0x3cd49542	0.025950078
119	0x3c9153c0	0.01774013
120	0xbdbfe334	-0.093695074
121	0xbdc81a7c	-0.097706765
122	0xbe449b16	-0.19199786
123	0xbd8d8e98	-0.06911963
124	0xbd881c37	-0.066460066
125	0x3cb678f6	0.022274476
126	0xbe00d2fd	-0.12580486
127	0xbd64ad24	-0.055829182
128	0xbde015d6	-0.10941665
129	0xbd554da1	-0.052075986
130	0x3c1a7189	0.009426483
131	0xbe8a5b72	-0.27022892
132	0xbdbec7dd	-0.09315465
133	0xbc70402f	-0.01466374
134	0xbd614ff7	-0.0550079
135	0xbe4f5799	-0.2024826
136	0xbe04c214	-0.1296466
137	0xbdd69cbd	-0.10479114
138	0x3ce21346	0.02759708
139	0xbde91345	-0.113806285
140	0xbdfc4308	-0.12317473
141	0xbd913ae2	-0.07091309
142	0xbe082fa7	-0.13299428
143	0xbd4a31ca	-0.04936389
144	0x3d7a9ed1	0.061186615
145	0xbd8610e8	-0.06546193
146	0xbda889ce	-0.08229409
147	0xbbc8ad9e	-0.0061242124
148	0x3d70cc78	0.058788747
149	0xbb0d77b7	-0.0021586248
150	0xbcfbcec1	-0.030738236
151	0xbd880a1a	-0.06642552
152	0x3dc30310	0.095220685
153	0xbe1d00ac	-0.15332288
154	0xbde964d0	-0.113961816
155	0x3e00bbb4	0.12571603
156	0xbd8005c8	-0.06251103
157	0xbddf77ff	-0.10911559
158	0xbe8524b5	-0.26004568
159	0xbe581d4e	-0.21104929
160	0xbd7ccdee	-0.061719827
161	0x3cd65955	0.026165644
162	0xbca9027c	-0.020631067
163	0xbe3c584b	-0.18393056
164	0xbe20268a	-0.15639701
165	0xbd67d269	-0.056597147
166	0xbd90556f	-0.07047545
167	0xbe62cf54	-0.22149402
168	0xbd9b34d2	-0.07578434
169	0x3b3812e4	0.0028087432
170	0xbe2704c1	-0.16310407
171	0xbd573e51	-0.052549664
172	0x3d4f0030	0.05053729
173	0x3c4a56ce	0.012349797
174	0x3cd9be50	0.026580006
175	0xbe0b34d8	-0.13594377
176	0xbd5ca6ba	-0.05386994
177	0xbd02455d	-0.03180443
178	0xbd80b75c	-0.06284973
179	0x3d1006a6	0.03516259
180	0x3e07ceef	0.13262533
181	0x3d53ddb6	0.051725112
182	0xbd888883	-0.066666625
183	0xbdad46f4	-0.08460799
184	0xbda080a5	-0.07837037
185	0xbdf4e62a	-0.11957963
186	0x3d4e664c	0.050390527
187	0xbcd76e42	-0.026297692
188	0xbd4eca97	-0.050486173
189	0xbde4b258	-0.11166829
190	0xbd021258	-0.031755775
191	0xbbd20760	-0.0064095706
192	0xbe13163f	-0.14363955
193	0xbe3468b1	-0.17618062
194	0x3d45a65d	0.04825436
195	0xbe1dd04e	-0.15411493
196	0xbdeb4bb7	-0.11489051
197	0xbae4fb70	-0.0017469954
198	0xbdd5c68a	-0.10438259
199	0xbdb4d160	-0.088289976
200	0xbe06733c	-0.13129896
201	0xbe1528e1	-0.14566375
202	0xbde3040b	-0.110847555
203	0x3dd56d89	0.10421283
204	0xbd9fe710	-0.078077435
205	0xbd596933	-0.05307884
206	0xbd98d299	-0.07462043
207	0xbc414aeb	-0.011797647
208	0x3c344ee6	0.011005139
209	0xbe72fbb5	-0.23728831
210	0xbe370a50	-0.17875028
211	0xba6e757b	-0.00090964854
212	0xbd61e5c1	-0.05515075
213	0x3d231f01	0.03982449
214	0xbd36941f	-0.044574853
215	0xbd7a6a10	-0.061136305
216	0xbd8d6bbb	-0.069053136
217	0xbdb640fa	-0.08899112
218	0xbde4d34c	-0.11173114
219	0x3d5184eb	0.05115215
220	0x3d842fc9	0.06454427
221	0x3dca9bda	0.098930076
222	0xbcb319ed	-0.021862948
223	0x3d25d517	0.04048642
224	0xbdf16e5a	-0.11788626
225	0xbe0e0926	-0.13870677
226	0xbe4b88df	-0.19876431
227	0xbc8e4c7d	-0.017370457
228	0xbe24baab	-0.16086833
229	0xbcbeb7f6	-0.023281079
230	0xbdf2f9e6	-0.118640706
231	0xbe026e35	-0.12737353
232	0x3be0e71f	0.0068634893
233	0xbdc2f108	-0.09518629
234	0xbd0b4863	-0.03400458
235	0x3c69b9bc	0.014265474
236	0x3bdfcd03	0.006829859
237	0x3bcf4a2a	0.0063259797
238	0xbdb5a21d	-0.08868811
239	0xbcf253c1	-0.029580953
240	0xbc8d58b9	-0.01725422
241	0x3dcec54a	0.10096224
242	0xbdb76e0d	-0.089565374
243	0x3c948b3e	0.018132802
244	0x3d40c170	0.047059476
245	0x3e0f7b0e	0.14011785
246	0xbda74fc8	-0.08169514
247	0x3d00ffc1	0.031493906
248	0xbd12533c	-0.03572391
249	0x3c37cda9	0.011218467
250	0xbda43101	-0.08017159
251	0x3c46ded8	0.012138091
252	0xbd2290ec	-0.03968899
253	0x3cbf40be	0.023346301
254	0xbddeb1a9	-0.1087373
255	0xbd888c4f	-0.06667387

convE1.pass_map.bias f4 [32]
0	0x3bff7101	0.0077954535
1	0x3b197e3d	0.002342119
2	0xbc618be5	-0.013766264
3	0xbbf16055	-0.00736622
4	0xba572124	-0.00082065375
5	0x3c3d4e9a	0.011554385
6	0xb980fca7	-0.00024602303
7	0xbc151f44	-0.009101693
8	0xbc03b261	-0.008038134
9	0xbb64488a	-0.0034833276
10	0xba51824f	-0.0007992135
11	0xbc686349	-0.014183828
12	0xbc2cdd58	-0.010550819
13	0xbbe405f7	-0.006958719
14	0xbca7d26c	-0.02048608
15	0x3cda38b6	0.02663837
16	0x3e5c9f85	0.21545227
17	0xbc3907a8	-0.011293329
18	0x3c8ef8c0	0.017452598
19	0xbd1feaf5	-0.03904243
20	0xbb9ca065	-0.0047798627
21	0x3b1c4d37	0.0023849735
22	0xbbaabd2e	-0.0052105403
23	0x3d1c50bb	0.038162928
24	0x3e04d358	0.12971246
25	0x3ab669dd	0.0013917048
26	0xbbc9f530	-0.006163262
27	0xbb06b007	-0.0020551698
28	0xbc842652	-0.016131554
29	0xbbcc541e	-0.0062356135
30	0xbbb02e24	-0.005376594
31	0xbb5e7e14	-0.003394966

attnN2.node_attn_maps.0.weight f4 [8, 32]
0	0x856744d7	-1.0874212e-35
1	0x84a2f19e	-3.8307907e-36
2	0x8438c16b	-2.171791e-36
3	0x85495769	-9.467029e-36
4	0x85824abf	-1.2252599e-35
5	0x813b8422	-3.4441276e-38
6	0x034dbd5a	6.046145e-37
7	0x8550a001	-9.809501e-36
8	0x85117d87	-6.840923e-36
9	0x860dac66	-2.664581e-35
10	0x8560973b	-1.0560206e-35
11	0x81ed13ff	-8.7088743e-38
12	0x85cd62ca	-1.9314397e-35
13	0x01e6607e	8.4627116e-38
14	0x858bb68b	-1.3138553e-35
15	0x82273546	-1.2284511e-37
16	0x821fcefe	-1.1740879e-37
17	0x859909e6	-1.4391687e-35
18	0x84fbb61a	-5.917705e-36
19	0x839e2126	-9.294016e-37
20	0x84343e33	-2.1187459e-36
21	0x8388dc90	-8.044e-37
22	0x025dfe25	1.6309452e-37
23	0x83e559df	-1.3480044e-36
24	0x85237d3d	-7.687226e-36
25	0x85872bb6	-1.2711396e-35
26	0x853e2618	-8.940754e-36
27	0x820e0e1a	-1.0436559e-37
28	0x84f27961	-5.7005396e-36
29	0x833bfe93	-5.52466e-37
30	0x8525da95	-7.79841e-36
31	0x858931b4	-1.2901676e-35
32	0x06b500a4	6.8085574e-35
33	0x05936585	1.3861106e-35
34	0x05632017	1.0679383e-35
35	0x063e310e	3.5771068e-35
36	0x065306be	3.9689643e-35
37	0x01075e10	2.486307e-38
38	0x02ec3ab0	3.4710768e-37
39	0x068411fc	4.9679307e-35
40	0x067b3fbf	4.7254686e-35
41	0x077c913b	1.9001052e-34
42	0x06b4588f	6.78386e-35
43	0x051016d6	6.775042e-36
44	0x0724e9c4	1.2406686e-34
45	0x03dd1142	1.2993175e-36
46	0x069a60dc	5.8070684e-35
47	0x04341128	2.1166776e-36
48	0x06858bc9	5.0234435e-35
49	0x06fd0fa8	9.519103e-35
50	0x06ffef1e	9.627169e-35
51	0x060dc343	2.6662608e-35
52	0x05000189	6.018813e-36
53	0x058c2633	1.3179569e-35
54	0x029a01e3	2.262935e-37
55	0x06116de3	2.73522e-35
56	0x071bcaad	1.1720465e-34
57	0x06f07d86	9.0462406e-35
58	0x06d9d6cc	8.1941943e-35
59	0x04d98241	5.1136074e-36
60	0x05b8f244	1.7392271e-35
61	0x027c4cdc	1.8536094e-37
62	0x06a2a077	6.117341e-35
63	0x071ca25f	1.1783852e-34
64	0x069655ea	5.654997e-35
65	0x055f27ce	1.04927206e-35
66	0x05503e38	9.791541e-36
67	0x06027add	2.4540548e-35
68	0x060b51ed	2.6203184e-35
69	0x017f4ee0	4.6892693e-38
70	0x02fced33	3.7164218e-37
71	0x062c2fa1	3.2384597e-35
72	0x062d8fa6	3.264322e-35
73	0x074b562e	1.5297349e-34
74	0x06882e33	5.12254e-35
75	0x05008bcb	6.044207e-36
76	0x06f606eb	9.254508e-35
77	0x03d61845	1.2583362e-36
78	0x0679cf7a	4.6984125e-35
79	0x040d4fd1	1.661112e-36
80	0x0674034f	4.589373e-35
81	0x06b3f75b	6.769577e-35
82	0x06d0caca	7.8538876e-35
83	0x05eefdbe	2.2474623e-35
84	0x05020982	6.114317e-36
85	0x0571ae96	1.1363832e-35
86	0x02f36002	3.5760747e-37
87	0x05fec695	2.3958993e-35
88	0x07008e42	9.671456e-35
89	0x06b8d8ce	6.9531673e-35
90	0x06ad0413	6.5081354e-35
91	0x050fa771	6.754582e-36
92	0x05a9c31a	1.5964353e-35
93	0x0307685d	3.9792738e-37
94	0x066ddf3d	4.4738755e-35
95	0x06f9a664	9.390788e-35
96	0x0515db4b	7.046224e-36
97	0x8414ca3b	-1.7490176e-36
98	0x0342ae28	5.7211398e-37
99	0x84952ea2	-3.5072557e-36
100	0x85126f8e	-6.8853764e-36
101	0x0103c68f	2.420336e-38
102	0x03421b72	5.704298e-37
103	0x847df2f5	-2.9851567e-36
104	0x03a97d08	9.961633e-37
105	0x05e4a7c2	2.1502641e-35
106	0x059152e6	1.3666187e-35
107	0x03c27660	1.1429473e-36
108	0x05543af2	9.9790186e-36
109	0x0357b7df	6.3393895e-37
110	0x04280e79	1.975495e-36
111	0x02c9f174	2.9672883e-37
112	0x057460bd	1.1490593e-35
113	0x051932b9	7.203342e-36
114	0x0583899c	1.236973e-35
115	0x0521fa53	7.616161e-36
116	0x82e4cc36	-3.36188e-37
117	0x038a07bc	8.112687e-37
118	0x020052c1	9.427704e-38
119	0x0509f953	6.487503e-36
120	0x05d92e13	2.0423507e-35
121	0x0528eb8b	7.9425844e-36
122	0x05872ca2	1.2711734e-35
123	0x045f4ca5	2.6248717e-36
124	0x03c0d4ff	1.1333647e-36
125	0x0380664f	7.546653e-37
126	0x055dd5ed	1.0430662e-35
127	0x0509bba8	6.476176e-36
128	0x86a7c753	-6.31113e-35
129	0x8585eb62	-1.2593726e-35
130	0x856aebdf	-1.104595e-35
131	0x861c4804	-2.9393248e-35
132	0x863224be	-3.3505073e-35
133	0x81f6e67e	-9.069687e-38
134	0x8351e169	-6.167834e-37
135	0x8668185f	-4.3652255e-35
136	0x86606421	-4.220328e-35
137	0x87604588	-1.687232e-34
138	0x86ac85a0	-6.4895553e-35
139	0x850bb233	-6.5684786e-36
140	0x8714f2be	-1.1205618e-34
141	0x83f5ed4c	-1.44542865e-36
142	0x868961ad	-5.1677194e-35
143	0x8453a399	-2.4878051e-36
144	0x8680b440	-4.84131e-35
145	0x86de6b91	-8.3665173e-35
146	0x86f53c80	-9.2247654e-35
147	0x86073884	-2.54322e-35
148	0x85029fac	-6.141898e-36
149	0x8577fca4	-1.1660287e-35
150	0x82bfa7b5	-2.8161187e-37
151	0x8607cb62	-2.55401e-35
152	0x871741df	-1.1379335e-34
153	0x86de6947	-8.366181e-35
154	0x86d11b34	-7.8657034e-35
155	0x8514c500	-6.99511e-36
156	0x85c5251d	-1.8539424e-35
157	0x83859e39	-7.853364e-37
158	0x869284c8	-5.51142e-35
159	0x8710ac42	-1.0883978e-34
160	0x860c0a3d	-2.6338595e-35
161	0x84825cfd	-3.064825e-36
162	0x84b76c7e	-4.3122728e-36
163	0x855f2dc0	-1.04938126e-35
164	0x85585710	-1.0172262e-35
165	0x802e862b	-4.272563e-39
166	0x830108d1	-3.7919814e-37
167	0x85a152e1	-1.5170812e-35
168	0x8593ad88	-1.3887559e-35
169	0x86c75c6a	-7.499127e-35
170	0x863c8c4e	-3.546195e-35
171	0x8485313c	-3.1313364e-36
172	0x865b6887	-4.1266117e-35
173	0x83d01eb9	-1.2232195e-36
174	0x85d9137b	-2.0413738e-35
175	0x83926246	-8.603671e-37
176	0x860bacbc	-2.62699e-35
177	0x862a5ab8	-3.2040096e-35
178	0x8655fff9	-4.0248906e-35
179	0x85988184	-1.4341588e-35
180	0x84c0cc5d	-4.532666e-36
181	0x850b8597	-6.560285e-36
182	0x832a59e4	-5.00617e-37
183	0x858fb4dc	-1.3514093e-35
184	0x868f119e	-5.381651e-35
185	0x862c60b5	-3.2420654e-35
186	0x86355892	-3.4107388e-35
187	0x84acd069	-4.06284e-36
188	0x851d139d	-7.385707e-36
189	0x83818b00	-7.613851e-37
190	0x86140007	-2.7835726e-35
191	0x86813a8e	-4.8610445e-35
192	0x068dfdd8	5.3411295e-35
193	0x05293e6b	7.957806e-36
194	0x0549da79	9.491102e-36
195	0x05d5aebb	2.009461e-35
196	0x05e86e28	2.185764e-35
197	0x01e8b8ea	8.548868e-38
198	0x033a54b0	5.4757704e-37
199	0x0602cf6a	2.4602666e-35
200	0x0612701f	2.7541922e-35
201	0x0736204c	1.3701649e-34
202	0x067b13b5	4.7222332e-35
203	0x04ce40a4	4.848973e-36
204	0x06cfccdd	7.8165765e-35
205	0x03b48d71	1.06119225e-36
206	0x06617f80	4.241147e-35
207	0x03d91bff	1.2760541e-36
208	0x064fc727	3.9078687e-35
209	0x069701b7	5.6802407e-35
210	0x06b7d3a0	6.9147904e-35
211	0x05e070ea	2.1106337e-35
212	0x0511ab5c	6.849341e-36
213	0x056f3d40	1.1248976e-35
214	0x02cc6067	3.0030438e-37
215	0x05ddd068	2.0859296e-35
216	0x06e6f972	8.688291e-35
217	0x06a6ab1c	6.269368e-35
218	0x0691b271	5.4805134e-35
219	0x05116d87	6.837984e-36
220	0x058e76b7	1.3397225e-35
221	0x0385f7ff	7.8739745e-37
222	0x066a19ed	4.4029556e-35
223	0x06d85690	8.137736e-35
224	0x06908988	5.4368864e-35
225	0x050e7759	6.6987286e-36
226	0x053f38c4	8.991203e-36
227	0x05f0b03c	2.263423e-35
228	0x060b2477	2.6169784e-35
229	0x022e3838	1.2799635e-37
230	0x030abcb4	4.0771176e-37
231	0x0631702b	3.3372408e-35
232	0x063c0534	3.5362693e-35
233	0x0745ab72	1.4871016e-34
234	0x0690c518	5.4456383e-35
235	0x04e711ef	5.432431e-36
236	0x06f575d4	9.233189e-35
237	0x03bc8d58	1.1082098e-36
238	0x065d879e	4.1665116e-35
239	0x0409af08	1.6184643e-36
240	0x0657cc30	4.058702e-35
241	0x06c054e5	7.2347114e-35
242	0x06c5ac7c	7.4356607e-35
243	0x05f82cf9	2.3338328e-35
244	0x04fbcf95	5.920045e-36
245	0x0561b451	1.0612568e-35
246	0x02e697ab	3.3882516e-37
247	0x05ef0704	2.2478029e-35
248	0x06f09e3e	9.051048e-35
249	0x06c14b5c	7.270926e-35
250	0x06add8cc	6.539392e-35
251	0x051bc745	7.324665e-36
252	0x05ab269a	1.6094943e-35
253	0x03ac6470	1.0132311e-36
254	0x06851677	5.006205e-35
255	0x06fffa2e	9.6287945e-35

attnN2.node_attn_maps.0.bias f4 [8]
0	0x81915714	-5.338954e-38
1	0x02f718f1	3.6307704e-37
2	0x02bebe8e	2.8027364e-37
3	0x0113589b	2.7063207e-38
4	0x82e870dc	-3.4154114e-37
5	0x82310c9d	-1.3007526e-37
6	0x02abd330	2.5247407e-37
7	0x02c1c237	2.8470275e-37
