train_script/weights/GANOrigEdgeBased_model300new/72.pth (torch, 151087 bytes, 129 tensors)

attnN1.node_attn_maps.0.weight f4 [8, 13]
-3.10095e-40 -2.50164e-40 -9.0633e-41 2.37079e-40 -9.00558e-40 -7.5313e-41 -4.0362e-40 4.06608e-40
1.009004e-39 6.6546e-40 -4.1825e-41 2.86095e-40 6.83224e-40 -6.40008e-40 -8.97229e-40 -7.6851e-40
4.07321e-40 -1.82892e-40 -8.37513e-40 4.72239e-40 8.66727e-40 -3.81016e-40 -6.00068e-40 4.14388e-40
8.24462e-40 -9.25736e-40 9.11765e-40 6.29479e-40 4.32338e-40 7.14543e-40 -7.10677e-40 -1.000208e-39
7.22423e-40 5.5755e-41 -4.21331e-40 -9.35651e-40 7.61411e-40 -5.8985e-41 -7.1007e-40 6.9891e-41
2.73228e-40 4.7922e-41 7.99308e-40 5.01619e-40 1.2361e-41 -7.57615e-40 -9.51801e-40 1.16288e-40
5.40369e-40 5.10685e-40 8.48605e-40 1.097e-42 9.09446e-40 -6.5047e-41 -7.5779e-40 -7.33269e-40
-7.46929e-40 7.51704e-40 -4.29756e-40 6.01486e-40 2.94156e-40 3.64352e-40 -2.06582e-40 -9.67105e-40
-8.2936e-40 -5.93067e-40 2.78483e-40 -5.49561e-40 7.92883e-40 -1.17601e-40 -8.65002e-40 -2.48191e-40
-5.33121e-40 1.7294e-40 8.46439e-40 -7.41838e-40 -3.63284e-40 7.87865e-40 -9.45103e-40 1.010244e-39
7.94431e-40 9.881e-40 -1.006299e-39 3.68228e-40 1.65426e-40 7.53967e-40 6.3888e-40 -5.534e-41
9.16668e-40 -6.66128e-40 7.33463e-40 9.22665e-40 1.87562e-40 -8.79535e-40 6.95553e-40 9.74015e-40
-6.3955e-41 -5.83499e-40 -6.90947e-40 -9.35859e-40 3.1305e-40 -2.21467e-40 2.62577e-40 -7.25943e-40
00000000: 6b60 0380 5bb9 0280 a6fc 0080 e194 0200
00000010: 64ce 0980 f1d1 0080 2165 0480 756d 0400
00000020: b1fc 0a00 083f 0700 9774 0080 841d 0300
00000030: 8d70 0700 15f8 0680 1cc5 0980 4b5e 0880
00000040: 726f 0400 d4fd 0180 a51e 0980 6924 0500
00000050: 1570 0900 1e26 0480 bf88 0680 2583 0400
00000060: 44fa 0800 9314 0a80 a1ed 0900 bbda 0600
00000070: 2fb5 0400 dbc7 0700 14bd 0780 2ce4 0a80
00000080: d2dd 0700 6c9b 0000 8096 0480 3730 0a80
00000090: 814a 0800 6da4 0080 63bb 0780 d4c2 0000
000000a0: a6f9 0200 9685 0000 25b4 0800 4f76 0500
000000b0: 7522 0000 ec3f 0880 3c5d 0a80 2a44 0100
000000c0: 54e2 0500 958f 0500 913d 0900 0f03 0000
000000d0: 2ae7 0900 53b5 0080 6940 0880 0efc 0780
000000e0: 2222 0880 722f 0800 fcad 0480 b38c 0600
000000f0: fd33 0300 aaf7 0300 de3f 0280 e587 0a80
00000100: eb07 0980 3b75 0680 4c08 0300 f4fb 0580
00000110: 3ca2 0800 d347 0180 466b 0980 dbb3 0280
00000120: 20ce 0580 16e2 0100 8737 0900 f113 0880
00000130: b0f4 0380 3f94 0800 904a 0a80 2600 0b00
00000140: 8da6 0800 6cc2 0a00 27f5 0a80 7802 0400
00000150: 24cd 0100 c135 0800 f0f4 0600 449a 0080
00000160: 4cfb 0900 e540 0780 99fc 0700 040c 0a00
00000170: d90a 0200 c993 0980 eb92 0700 289b 0a00
00000180: 48b2 0080 8f5a 0680 1486 0780 cb30 0a80
00000190: a868 0300 5c69 0280 f5db 0200 a2e7 0780

attnN1.node_attn_maps.0.bias f4 [8]
6.59682e-40 -2.66846e-40 -6.741e-40 4.319e-42 -9.17034e-40 -6.20785e-40 8.01806e-40 1.017494e-39
00000000: ed2e 0700 dce7 0280 1e57 0780 0a0c 0000
00000010: 51fc 0980 7fc2 0680 1cbb 0800 5c14 0b00

attnN1.node_attn_maps.1.weight f4 [8, 13]
4.25053e-40 5.46296e-40 9.03116e-40 4.0181e-41 -7.72927e-40 -6.4293e-41 -4.7797e-41 -6.4101e-41
-2.211e-40 -9.8558e-40 2.38633e-40 -1.37324e-40 3.6357e-40 -2.96219e-40 2.95988e-40 3.01303e-40
-4.18922e-40 -8.75685e-40 8.8254e-41 6.49154e-40 4.7005e-40 -1.52053e-40 8.62551e-40 4.19166e-40
-8.53067e-40 -5.6344e-40 1.7655e-40 -6.68377e-40 6.33666e-40 9.53913e-40 -4.508e-41 -2.7493e-40
8.80067e-40 -1.7569e-40 -6.88196e-40 -6.76816e-40 -8.87404e-40 -4.61179e-40 8.30276e-40 -1.82748e-40
-1.90728e-40 6.25545e-40 -1.49722e-40 4.03948e-40 -9.9197e-41 -4.81859e-40 -7.3938e-41 5.33027e-40
9.71453e-40 -7.42114e-40 9.17593e-40 -1.35874e-40 -5.937e-41 9.1433e-41 -8.93787e-40 3.872e-42
-3.48478e-40 5.0721e-40 2.5275e-41 -5.0126e-41 -6.9272e-41 3.19464e-40 -3.79351e-40 9.84363e-40
-8.72126e-40 2.94921e-40 1.85032e-40 1.24807e-40 -3.01842e-40 -8.88523e-40 5.829e-40 -1.60304e-40
6.26456e-40 7.78459e-40 2.93478e-40 -7.57751e-40 4.88238e-40 -2.242e-41 -2.44258e-40 -1.86755e-40
3.80949e-40 -8.22693e-40 4.63279e-40 -9.49865e-40 9.67372e-40 9.47286e-40 5.4502e-40 1.8285e-40
2.8523e-40 7.25676e-40 5.99131e-40 -4.09087e-40 -4.98389e-40 -6.65415e-40 -1.04625e-40 7.3116e-40
2.6811e-41 -3.96074e-40 -6.88906e-40 7.88596e-40 1.29816e-40 5.97693e-40 -9.07024e-40 7.57937e-40
00000000: e0a0 0400 daf2 0500 85d5 0900 0270 0000
00000010: 9b6a 0880 39b3 0080 3d85 0080 b0b2 0080
00000020: 5668 0280 65bb 0a80 3699 0200 ce7e 0180
00000030: 7cf5 0300 bd39 0380 1839 0300 e947 0300
00000040: c98f 0480 0e89 0980 04f6 0000 9411 0700
00000050: 4f1e 0500 dda7 0180 7164 0900 7790 0400
00000060: 014a 0980 a422 0680 26ec 0100 2a47 0780
00000070: 67e6 0600 1f63 0a00 aa7d 0080 65fe 0280
00000080: 4595 0900 c1e9 0180 697e 0780 b05e 0780
00000090: b9a9 0980 9405 0580 790a 0900 6dfd 0180
000000a0: ac13 0280 c4cf 0600 5da1 0180 0b66 0400
000000b0: 8514 0180 3a3f 0580 1cce 0080 ddcd 0500
000000c0: 0494 0a00 b614 0880 e0fd 0900 c37a 0180
000000d0: 80a5 0080 e1fe 0000 84bb 0980 cb0a 0000
000000e0: 6acb 0380 e585 0500 7546 0000 bb8b 0080
000000f0: 1ac1 0080 897a 0300 7a21 0480 01b8 0a00
00000100: 227f 0980 1f36 0300 cb03 0200 e95b 0100
00000110: 6a49 0380 d7ac 0980 e358 0600 ddbe 0180
00000120: 4ed2 0600 077a 0800 1932 0300 4d40 0880
00000130: 0251 0500 7f3e 0080 e4a8 0280 9908 0280
00000140: ee25 0400 55f5 0880 6f0b 0500 d657 0a80
00000150: a488 0a00 a650 0a00 4bef 0500 b6fd 0100
00000160: 1b1b 0300 e4e6 0700 2286 0600 5e74 0480
00000170: 4e6d 0580 e83e 0780 a723 0180 2df6 0700
00000180: bd4a 0000 1850 0480 6480 0780 4996 0800
00000190: e069 0100 2082 0600 6ae0 0980 d240 0800

attnN1.node_attn_maps.1.bias f4 [8]
6.44446e-40 8.08311e-40 1.89924e-40 -4.35469e-40 7.32892e-40 2.92559e-40 -8.9983e-41 -3.62006e-40
00000000: 7404 0700 3ecd 0800 6e11 0200 e9bd 0480
00000010: 01fb 0700 892f 0300 d6fa 0080 20f1 0380

attnN1.node_attn_maps.2.weight f4 [8, 13]
-4.32174e-40 4.09772e-40 -5.2673e-41 -4.96459e-40 -6.47114e-40 -8.47294e-40 2.88265e-40 3.80305e-40
7.11925e-40 -1.93092e-40 5.77192e-40 -5.35523e-40 -4.32369e-40 -5.6652e-40 2.97016e-40 3.9044e-40
5.04057e-40 9.81916e-40 7.94964e-40 1.16232e-40 -1.09161e-40 -6.12875e-40 9.56075e-40 1.20561e-40
-1.52471e-40 -7.81428e-40 -5.55518e-40 4.7774e-41 3.23846e-40 -7.62477e-40 -8.40189e-40 9.4317e-40
-2.2082e-41 -9.12095e-40 -7.63116e-40 -3.56716e-40 6.71464e-40 4.565e-40 7.96498e-40 -5.67543e-40
-2.76225e-40 3.66923e-40 7.5299e-41 -2.5474e-41 -7.62929e-40 5.53455e-40 9.9419e-40 -3.84292e-40
-5.8876e-41 7.39849e-40 -6.29491e-40 9.09272e-40 -9.519e-41 -2.29513e-40 1.08802e-40 9.84322e-40
-8.86537e-40 -8.08972e-40 -6.18117e-40 -8.75325e-40 -7.43905e-40 4.13233e-40 1.033013e-39 -7.01706e-40
7.1637e-41 -8.28952e-40 -1.1863e-40 -9.9656e-40 8.7332e-41 3.36844e-40 4.708e-41 -5.04386e-40
-6.33601e-40 5.4621e-40 -9.89331e-40 -7.0479e-40 3.49802e-40 9.80361e-40 -7.61739e-40 2.3381e-40
-7.42959e-40 -1.22729e-40 8.88132e-40 3.0531e-41 -2.42733e-40 2.0456e-40 -3.20421e-40 -5.02846e-40
-3.1799e-40 -2.31824e-40 8.8907e-41 4.0791e-40 2.13939e-40 -3.80555e-40 -5.99759e-40 6.76711e-40
-9.08015e-40 7.1978e-40 -5.88683e-40 -6.76383e-40 1.49453e-40 2.85683e-40 -1.7547e-40 1.020573e-39
00000000: bab4 0480 4776 0400 d592 0080 ed67 0580
00000010: e40b 0780 e939 0980 9123 0300 2324 0400
00000020: 8fc0 0700 431a 0280 fa48 0600 d2d4 0580
00000030: 45b5 0480 3a2b 0680 f63b 0300 6340 0400
00000040: 1b7d 0500 2fb1 0a00 09a8 0800 0244 0100
00000050: 4c30 0180 72ac 0680 2669 0a00 1350 0100
00000060: 07a9 0180 4e82 0880 8f0c 0680 2d85 0000
00000070: c086 0300 7a4d 0880 1b26 0980 2d45 0a00
00000080: 8e3d 0080 8dee 0980 424f 0880 61e2 0380
00000090: c54f 0700 89f8 0400 50ac 0800 142e 0680
000000a0: 0102 0380 d5fe 0300 e7d1 0000 0347 0080
000000b0: bc4e 0880 cf06 0600 66d3 0a00 402f 0480
000000c0: 1fa4 0080 660e 0800 c4da 0680 aee6 0900
000000d0: 5a09 0180 ca7f 0280 4c2f 0100 e4b7 0a00
000000e0: 4ea7 0980 16cf 0880 0fbb 0680 0d88 0980
000000f0: b419 0880 ed7f 0400 9f3f 0b00 12a4 0780
00000100: b2c7 0000 c806 0980 b14a 0180 01da 0a80
00000110: 72f3 0000 fcaa 0300 3d83 0000 067e 0580
00000120: 39e6 0680 9cf2 0500 dac5 0a80 abac 0780
00000130: 1bcf 0300 d9ac 0a00 6b4b 0880 c48b 0200
00000140: 1117 0880 1e56 0180 c0ab 0900 1c55 0000
00000150: a4a4 0280 3b3a 0200 347d 0380 bb79 0580
00000160: 6d76 0380 3b86 0280 d6f7 0000 1671 0400
00000170: 6054 0200 d524 0480 e287 0680 655e 0700
00000180: 2de3 0980 74d6 0700 0269 0680 7b5d 0780
00000190: 9da0 0100 5e1c 0300 24e9 0180 f11c 0b00

attnN1.node_attn_maps.2.bias f4 [8]
4.2539e-41 3.48385e-40 -5.85519e-40 -5.93116e-40 -3.75849e-40 5.07744e-40 -4.17068e-40 6.4774e-40
00000000: 9576 0000 28cb 0300 3060 0680 5e75 0680
00000010: b717 0480 6287 0500 9e8a 0480 a30d 0700

attnN1.node_attn_maps.3.weight f4 [8, 13]
-5.1056e-40 -9.01283e-40 -9.79356e-40 -3.1125e-40 2.52081e-40 3.0283e-40 9.7992e-40 -8.39725e-40
9.92266e-40 7.59109e-40 -8.69209e-40 -7.1624e-40 -4.70689e-40 6.25338e-40 -5.69639e-40 7.34912e-40
5.68151e-40 6.0693e-41 -6.43532e-40 -1.02575e-40 6.99032e-40 6.40015e-40 -3.09198e-40 -1.27189e-40
4.70685e-40 -6.89313e-40 -2.23377e-40 -2.13947e-40 -7.93268e-40 5.95968e-40 7.15803e-40 -3.37592e-40
-3.00982e-40 5.54188e-40 -6.611e-42 -7.87614e-40 6.37135e-40 -6.85808e-40 -2.16415e-40 -8.60309e-40
5.9059e-41 -2.68646e-40 -9.46032e-40 -1.31052e-40 -2.49182e-40 -5.62928e-40 7.69515e-40 -1.54426e-40
-9.01758e-40 5.41483e-40 -7.44238e-40 4.9275e-41 -6.41213e-40 9.60719e-40 7.44482e-40 9.5249e-40
9.0925e-40 -5.58221e-40 1.007489e-39 -9.56675e-40 3.7829e-40 8.8871e-40 1.8476e-41 -8.34755e-40
5.5534e-40 -7.40532e-40 -4.91364e-40 4.64282e-40 -8.54278e-40 -8.55141e-40 -8.90719e-40 6.29699e-40
-7.56135e-40 9.96208e-40 2.44413e-40 -9.4457e-40 -3.6491e-41 -6.87341e-40 1.026133e-39 9.37819e-40
1.1703e-40 7.28686e-40 1.94212e-40 -3.69507e-40 8.1704e-41 6.97737e-40 -6.64464e-40 -8.12487e-40
7.9803e-40 7.63663e-40 -8.16705e-40 6.40396e-40 -3.35122e-40 8.27478e-40 1.2546e-41 8.1561e-41
8.54739e-40 -6.03228e-40 4.38682e-40 -3.96995e-40 5.568e-40 3.69992e-40 -8.18099e-40 5.54785e-40
00000000: 3c8f 0580 69d0 0980 0caa 0a80 a363 0380
00000010: b3be 0200 2b4c 0300 9eab 0a00 d024 0980
00000020: 09ce 0a00 1644 0800 0077 0980 96cc 0780
00000030: 1720 0580 30cf 0600 ec33 0680 a300 0800
00000040: c62f 0600 30a9 0000 e801 0780 f01d 0180
00000050: 9e9c 0700 1af8 0600 eb5d 0380 8d62 0180
00000060: 1420 0500 8681 0780 af6e 0280 6654 0280
00000070: 4fa3 0880 517d 0600 5ecb 0700 12ad 0380
00000080: 0447 0380 da08 0600 6e12 0080 8c93 0880
00000090: 13f0 0600 c177 0780 475b 0280 315e 0980
000000a0: a2a4 0000 e0ec 0280 274d 0a80 526d 0180
000000b0: 9eb6 0280 3721 0680 1861 0800 7aae 0180
000000c0: bcd1 0980 6fe5 0500 a21a 0880 5c89 0000
000000d0: 71fb 0680 1876 0a00 501b 0800 285f 0a00
000000e0: 9ee6 0900 1814 0680 78f8 0a00 d26a 0a80
000000f0: 851e 0400 5dad 0900 8133 0000 f516 0980
00000100: 100c 0600 4d10 0880 b959 0580 3b0e 0500
00000110: 614d 0980 c94f 0980 f6b2 0980 58db 0600
00000120: cc3b 0880 06d9 0a00 53a9 0200 1449 0a80
00000130: b965 0080 077c 0780 712c 0b00 4236 0a00
00000140: 3b46 0100 48ef 0700 621d 0200 0906 0480
00000150: c2e3 0000 0299 0700 413c 0780 e2d8 0880
00000160: 95b0 0800 c850 0800 a4e4 0880 2af9 0600
00000170: 2fa6 0380 ac02 0900 f922 0000 5ce3 0000
00000180: aa4e 0900 8e91 0680 dec6 0400 a952 0480
00000190: 2210 0600 6307 0400 87e8 0880 840a 0600

attnN1.node_attn_maps.3.bias f4 [8]
-9.24261e-40 -9.75298e-40 7.83668e-40 1.90236e-40 1.098241e-39 3.60051e-40 1.60856e-40 -4.43306e-40
00000000: 7710 0a80 bc9e 0a80 8c88 0800 4d12 0200
00000010: 73f5 0b00 adeb 0300 67c0 0100 c2d3 0480

attnN1.edge_attn_maps.0.weight f4 [8, 13]
-0.06973163 0.07064202 0.10411097 0.110002205 -0.20596921 -0.040452622 0.032984424 -0.042209942
0.044834834 0.0942478 0.0333149 -0.08541318 -0.04709251 -0.041862965 0.39025807 0.03705642
0.12467311 0.11569558 -0.1850943 -0.048668496 -0.030824313 -0.06297481 -0.056269627 -0.14499843
0.040822916 -0.03781633 -0.10646869 0.023578104 -0.06268249 0.08669549 -0.06696342 0.045211386
-0.1382755 0.045317248 0.22716951 0.10244624 -0.016610306 -0.092027284 0.20959184 0.08774579
-0.09911249 -0.05498276 0.29212102 0.008208408 -0.029961823 0.0052051656 0.01798519 -0.02104391
0.11368786 -0.11626651 0.043093156 -0.118453056 0.061558902 -0.030396318 -0.00061124493 -0.07942601
0.15249869 0.024303641 0.03712537 0.15393725 -0.11441491 -0.004045879 -0.10344356 0.16424668
0.13559291 0.23242232 -0.23356213 0.014194359 -0.23179866 0.018733324 0.21107708 -0.10663662
0.0015267631 0.25193998 -0.0380909 -0.22526442 -0.111258626 0.09927298 -0.14759636 -0.24136329
-0.21693182 -0.20167655 -0.17249936 -0.073481806 -0.27860352 0.06724645 -0.06870328 -0.21806286
-0.19471759 0.15177943 -0.054149453 0.26622254 -0.18729202 0.19776568 -0.11928741 -0.2044289
0.20714654 0.06944007 -0.029412603 -0.19738355 0.08846203 -0.19039525 0.15036008 0.17156482
00000000: 75cf 8ebd c3ac 903d 2238 d53d d648 e13d
00000010: 98e9 52be a6b1 25bd ad1a 073d 55e4 2cbd
00000020: bba4 373d fe04 c13d 3475 083d 1bed aebd
00000030: 13e4 40bd 8078 2bbd e8cf c73e 79c8 173d
00000040: 9e54 ff3d cef1 ec3d 5c89 3dbe 9e58 47bd
00000050: 4583 fcbc f0f8 80bd fb7a 66bd 787a 14be
00000060: ee35 273d 4ce5 1abd 420c dabd de26 c13c
00000070: ad5f 80bd 688d b13d 1e24 89bd 932f 393d
00000080: 1898 0dbe 949e 393d 209f 683e 56cf d13d
00000090: 5612 88bc cd78 bcbd 3e9f 563e 11b4 b33d
000000a0: 7dfb cabd 9a35 61bd e390 953e 8f7c 063c
000000b0: 7f72 f5bc 1890 aa3b ad55 933c 4764 acbc
000000c0: 2ed5 e83d 231d eebd 7382 303d 8497 f2bd
000000d0: 3025 7c3d b301 f9bc f43b 20ba 1baa a2bd
000000e0: 9e28 1c3e 6e18 c73c c610 183d baa1 1d3e
000000f0: 5d52 eabd 4b93 84bb 38da d3bd 4830 283e
00000100: ded8 0a3e 1e00 6e3e e92a 6fbe 758f 683c
00000110: a15c 6dbe a176 993c 9724 583e 4d64 dabd
00000120: ab1d c83a 47fe 803e 3405 1cbd b7ab 66be
00000130: 90db e3bd a24f cb3d 8023 17be f027 77be
00000140: 6023 5ebe 4c84 4ebe aca3 30be a17d 96bd
00000150: 1fa5 8ebe 82b8 893d 4eb4 8cbd df4b 5fbe
00000160: 0c64 47be 116c 1b3e d1cb 5dbd 524e 883e
00000170: 7bc9 3fbe 1683 4a3e f54c f4bd cf55 51be
00000180: 391e 543e 9836 8e3d b3f2 f0bc ea1e 4abe
00000190: 952b b53d f9f6 42be fef7 193e b0ae 2f3e

attnN1.edge_attn_maps.0.bias f4 [8]
-0.033042192 -0.044040956 0.00875182 -0.015045978 -0.019794527 0.006240601 -0.015756836 -0.0040566847
00000000: 4057 07bd 4a64 34bd cb63 0f3c 6883 76bc
00000010: 2228 a2bc f57d cc3b 7b14 81bc f0ed 84bb

attnN1.edge_attn_maps.1.weight f4 [8, 13]
-0.10531313 -0.043907512 0.26076323 -0.06324409 0.50258535 0.1532421 0.06659874 0.035164293
0.06702967 -0.041992 -0.1143541 0.08302804 0.2643986 0.12454794 -0.13168569 0.031863403
0.0029485563 -0.008740368 0.09611677 -0.12203005 -0.096867934 0.26074892 -0.109133884 0.0009125522
0.041434318 -0.045411386 -0.11155064 -0.13555478 0.18415488 0.15480879 0.23761159 0.2357635
-0.18384604 -0.024675079 0.115253024 0.046961393 0.069448575 -0.10159224 0.1417033 0.16036817
-0.22144927 -0.18854558 -0.13441254 -0.019538743 0.14074086 0.025855444 -0.037110925 -0.05402485
0.15031397 0.18676397 0.17119423 0.1995011 0.05318062 -0.08759556 0.1721812 -0.0681949
0.12945655 0.066585146 -0.040549867 -0.05589241 0.1587976 -0.062357586 -0.020475479 0.030608395
0.0057057594 -0.16196819 0.21527173 0.041736767 0.12601662 0.12124399 0.15562223 0.1322246
0.08755989 -0.094097815 -0.02425586 -0.06254928 -0.13024002 -0.120203875 -0.0560418 0.06509257
-0.1811118 0.15002242 -0.18105116 -0.09102163 -0.034994505 0.02004193 0.067456804 -0.010829083
0.015249414 -0.0126124965 -0.110647485 -0.13965851 0.09707992 -0.102513984 -0.040442195 -0.1100569
0.21134189 0.06462999 -0.09713125 -0.16623029 0.15409864 -0.020057485 0.12116033 0.14757879
00000000: 69ae d7bd 5dd8 33bd c282 853e 1e86 81bd
00000010: 6fa9 003f 7feb 1c3e ec64 883d 6f08 103d
00000020: da46 893d ceff 2bbd 7b32 eabd 9b0a aa3d
00000030: 415f 873e fe12 ff3d 9dd8 06be 3383 023d
00000040: 913c 413b c333 0fbc ded8 c43d e4ea f9bd
00000050: b262 c6bd e280 853e 9681 dfbd 5738 6f3a
00000060: 08b7 293d 4a01 3abd a974 e4bd dfce 0abe
00000070: 1993 3c3e 3286 1e3e 7450 733e fd6b 713e
00000080: 2342 3cbe 6423 cabc c709 ec3d 975a 403d
00000090: 0e3b 8e3d 980f d0bd ab1a 113e 8e37 243e
000000a0: 99c3 62be 1812 41be 71a3 09be b70f a0bc
000000b0: 5f1e 103e ccce d33c a001 18bd 2949 5dbd
000000c0: e8eb 193e 0e3f 3f3e 8a4d 2f3e 044a 4c3e
000000d0: ecd3 593d 4d65 b3bd 4550 303e c5a9 8bbd
000000e0: 4290 043e cb5d 883d 9e17 26bd 71ef 64bd
000000f0: d79b 223e ab6a 7fbd 31bc a7bc 75be fa3c
00000100: 61f7 ba3b fdda 25be 3170 5c3e 2cf4 2a3d
00000110: 800a 013e c54e f83d 6f5b 1f3e e365 073e
00000120: 9952 b33d 5bb6 c0bd 3ab4 c6bc d619 80bd
00000130: a45d 05be 732d f6bd 168c 65bd 414f 853d
00000140: 5f75 39be 7a9f 193e 7a65 39be 8c69 babd
00000150: 6656 0fbd f92e a43c cb26 8a3d 776c 31bc
00000160: aed8 793c a5a4 4ebc 269b e2bd a402 0fbe
00000170: d6d1 c63d daf2 d1bd b7a6 25bd 8365 e1bd
00000180: 026a 583e ba5c 843d c0ec c6bd 4638 2abe
00000190: 09cc 1d3e 984f a4bc e822 f83d e51e 173e

attnN1.edge_attn_maps.1.bias f4 [8]
0.04996314 -0.013671309 0.03713935 -0.00075718644 -0.01318737 -0.0037907318 -0.0532073 0.0030775703
00000000: 26a6 4c3d a0fd 5fbc 6e1f 183d ec7d 46ba
00000010: d70f 58bc ed6d 78bb e6ef 59bd 10b1 493b

attnN1.edge_attn_maps.2.weight f4 [8, 13]
-0.1762104 -0.020571709 -0.023683554 0.19932887 -0.1692671 0.06472061 0.046683572 -0.12041202
0.05990612 -0.16526015 0.034902338 0.076504305 -0.0017315367 0.24462996 0.31541145 0.031269662
0.09549516 0.13725682 0.067539856 0.040953767 0.08441927 -0.022649383 0.024709243 0.14677513
0.06616267 0.06976216 -0.12667222 0.092034966 0.116785176 -0.26419032 0.27401155 0.1871996
0.023009045 0.08415527 -0.04206732 -0.10963676 0.05970946 0.021270396 -0.21400018 0.065680236
0.03937907 0.07681769 0.13737242 -0.1233705 0.046842583 0.0033891634 0.101944245 0.16702636
-0.046560608 0.09588603 -0.1483721 0.051058535 -0.1481819 0.163842 -0.1099206 0.020296661
0.38999677 -0.11250652 -0.15212084 0.15657108 0.0758435 0.029179553 0.12639512 -0.022123866
-0.11869157 0.04894975 -0.14884423 0.11018665 0.049469646 0.13112275 -0.017198851 -0.21695307
-0.15492637 0.20900324 -0.12894173 0.04580506 0.069731526 -0.07921726 -0.24625832 -0.31941283
0.14369403 0.12518945 0.061906353 0.0038154356 -0.17748447 -0.017668476 0.1749648 0.258505
0.10778441 -0.051947735 0.19057783 -0.09222151 0.19564277 0.13377285 0.04557413 0.032670934
0.12349521 0.032671746 0.08038117 0.18394089 -0.034211934 0.071337186 -0.061267447 0.07162246
00000000: 8070 34be 0086 a8bc 0304 c2bc de1c 4c3e
00000010: 5b54 2dbe 3d8c 843d 4637 3f3d 949a f6bd
00000020: 1f60 753d f539 29be c1f5 0e3d 4aae 9c3d
00000030: bbf4 e2ba 4780 7a3e 9c7d a13e 9e14 003d
00000040: f792 c33d 0d8d 0c3e 5652 8a3d 23bf 273d
00000050: 03e4 ac3d 338b b9bc 0a6b ca3c 384c 163e
00000060: 4b80 873d 77df 8e3d 5db6 01be d47c bc3d
00000070: 112d ef3d f443 87be 3e4b 8c3e 40b1 3f3e
00000080: 777d bc3c 9959 ac3d c84e 2cbd 3d89 e0bd
00000090: e891 743d 413f ae3c dd22 5bbe 5c83 863d
000000a0: f34b 213d 9852 9d3d 5bab 0c3e aca9 fcbd
000000b0: 02de 3f3d ba1c 5e3b 25c8 d03d f508 2b3e
000000c0: 56b6 3ebd e55f c43d dbee 17be c122 513d
000000d0: ffbc 17be 32c6 273e 0d1e e1bd 2f45 a63c
000000e0: a8ad c73e d169 e6bd 91c5 1bbe 2b54 203e
000000f0: d653 9b3d f509 ef3c b96d 013e 1c3d b5bc
00000100: 9114 f3bd 887f 483d 9f6a 18be 8aa9 e13d
00000110: afa0 4a3d 0b45 063e 9be4 8cbc f228 5ebe
00000120: 05a5 1ebe f204 563e 4d09 04be 169e 3b3d
00000130: 67cf 8e3d a93c a2bd 242b 7cbe 148a a3be
00000140: 8724 133e aa31 003e 8491 7d3d 630c 7a3b
00000150: 7dbe 35be 7bbd 90bc f929 333e c45a 843e
00000160: 13be dc3d 26c7 54bd d626 433e a2de bcbd
00000170: 9456 483e c0fb 083e f0ab 3a3d f5d1 053d
00000180: 0feb fc3d cfd2 053d e29e a43d 005b 3c3e
00000190: d021 0cbd 3b19 923d 93f3 7abd ccae 923d

attnN1.edge_attn_maps.2.bias f4 [8]
-0.0425339 -0.020033672 -0.031462524 0.0043633254 0.026781686 -0.0056225844 0.01105896 -0.033789232
00000000: 0738 2ebd a81d a4bc d9de 00bd 3afa 8e3b
00000010: 4465 db3c a83d b8bb a430 353c 9466 0abd

attnN1.edge_attn_maps.3.weight f4 [8, 13]
0.14599606 0.23826173 -0.12581961 0.056867566 0.29048112 0.017325614 0.084939785 0.17385738
-0.047438912 -0.13712725 0.082417674 0.117176175 -0.20196438 0.06790304 -0.06331241 0.009443706
-0.09229852 -0.3309609 0.24299285 0.07259684 -0.08295022 -0.056117967 0.086772546 0.08039299
-0.061262846 -0.20801936 0.29401532 -0.21422979 0.103973284 0.18770711 -0.39071912 -0.088130884
0.065978244 0.13611503 -0.07341678 -0.06948919 -0.075158164 0.09118513 -0.3883946 -0.16276383
-0.25183675 0.016529234 0.31143177 0.11010483 -0.1960597 0.09490528 0.1111619 0.17335689
0.0517542 0.044129767 0.025666773 0.1119862 0.013353219 -0.10000271 -0.14112826 0.11180934
-0.28754434 0.07433579 0.062224343 -0.034288973 0.18444452 0.24043654 -0.076690905 -0.098175235
-0.053563356 -0.14673331 0.033648726 0.021784857 -0.18882808 0.10791288 -0.15125702 -0.19599184
-0.15586849 0.124754615 0.17563213 -0.14590923 -0.009468545 0.02723629 0.20535384 -0.12865269
-0.20242015 0.17301118 0.15575264 0.17753123 -0.05393585 -0.08540519 0.06412405 0.17338963
0.16040288 -0.018565817 -0.101559795 0.20108655 -0.27910784 -0.113608964 -0.22757578 -0.12026479
0.19061252 0.023183785 -0.044473737 -0.12642297 -0.014224224 0.10617197 -0.11660603 -0.4469726
00000000: fe7f 153e e2fa 733e dbd6 00be f7ed 683d
00000010: f1b9 943e 72ee 8d3c e9f4 ad3d ab07 323e
00000020: 4e4f 42bd 166b 0cbe 99ca a83d 10fa ef3d
00000030: c0cf 4ebe c010 8b3d f0a9 81bd c6b9 1a3c
00000040: 0207 bdbd b573 a9be 1ed3 783e a7ad 943d
00000050: cee1 a9bd f4db 65bd ceb5 b13d 14a5 a43d
00000060: c0ee 7abd 0703 55be 2d89 963e 0e5f 5bbe
00000070: f2ef d43d 4b36 403e 560c c8be f77d b4bd
00000080: 9a1f 873d bd61 0b3e 895b 96bd 5950 8ebd
00000090: 86ec 99bd 45bf ba3d a8db c6be 90ab 26be
000000a0: bff0 80be 5168 873c fc73 9f3e a47e e13d
000000b0: e0c3 48be b35d c23d daa8 e33d 7884 313e
000000c0: 36fc 533d 6ac1 343d 2043 d23c 0559 e53d
000000d0: 76c7 5a3c 39ce ccbd ed83 10be 4cfc e43d
000000e0: 0339 93be 5d3d 983d f4de 7e3d 9872 0cbd
000000f0: 06df 3c3e ff34 763e 1f10 9dbd 1910 c9bd
00000100: 4065 5bbd 4241 16be 3fd3 093d 2876 b23c
00000110: 265c 41be 6e01 dd3d 1fe3 1abe 16b2 48be
00000120: fd9b 1fbe 597f ff3d e9d8 333e 3b69 15be
00000130: f521 1bbc a41e df3c 4748 523e 88bd 03be
00000140: 3a47 4fbe d829 313e 9f7d 1f3e bfca 353e
00000150: d6eb 5cbd ebe8 aebd 7853 833d 0d8d 313e
00000160: a740 243e 5717 98bc 95fe cfbd a2e9 4d3e
00000170: 39e7 8ebe d1ab e8bd a009 69be 634d f6bd
00000180: ee2f 433e eceb bd3c 182a 36bd 0675 01be
00000190: b80c 69bc b170 d93d 24cf eebd 98d9 e4be

attnN1.edge_attn_maps.3.bias f4 [8]
-0.059560608 0.005628279 0.038328946 0.039640576 -0.0006276186 0.00029085067 0.011867885 0.0172261
00000000: d3f5 73bd 6d6d b83b d0fe 1c3d 285e 223d
00000010: c586 24ba 517d 9839 8471 423c c01d 8d3c

attnN1.combinator.weight f4 [1, 16]
-1.66574e-40 8.42406e-40 -5.84709e-40 7.37627e-40 -6.87394e-40 9.7706e-40 8.67301e-40 -8.0542e-41
0.14155866 0.24231711 0.1549704 -0.21970288 0.07661978 -0.22008008 -0.18353921 0.06029028
00000000: 57d0 0180 492c 0900 ee5d 0680 3408 0800
00000010: 2d7c 0780 a5a3 0a00 af71 0900 85e0 0080
00000020: c1f4 103e fa21 783e 8fb0 1e3e cbf9 60be
00000030: d5ea 9c3d ac5c 61be b4f1 3bbe f1f2 763d

convE1.self_map.weight f4 [32, 13]
-0.3258405 0.31510627 0.039048985 0.0571148 -0.32100815 -0.070419006 -0.0075077075 0.0018229925
-0.017569672 0.014093988 -0.057569508 -0.008228251 -0.16417685 0.13957971 -0.16288134 0.09040665
0.017388847 -0.03560432 -0.13567844 0.071053945 -0.15470503 -0.025708124 0.012709499 -0.031704806
0.014695294 0.016117606 0.1236246 0.26442963 0.0966214 0.18686515 0.1816183 0.030387271
0.012861901 -0.066725835 -0.059932742 0.015787909 -0.022502523 -0.042776983 0.06490516 0.08909199
-0.20151013 -0.19371472 0.057215344 -0.013065195 0.1378244 -0.06781102 0.16618624 0.06563186
0.17143525 -0.058713295 -0.049851827 -0.12385589 -0.04400446 0.117958985 -0.018886872 -0.082183436
0.075008295 -0.012405852 -0.1417118 -0.097637355 -0.07018118 0.017125407 0.005663184 -0.03862707
-0.110281415 -0.22905982 0.054819215 -0.029311044 0.38733336 0.18125685 0.05009294 0.11069952
-0.03556953 -0.07422169 -0.0044163824 -0.004681706 0.0010026762 0.13063176 0.14474893 0.08116393
0.04236174 -0.049222976 -0.09148032 -0.036609158 -0.03696266 -0.0745892 0.050154407 0.107763894
0.1488295 0.031997632 -0.0032905766 0.013326012 0.15272374 0.12920962 0.16892987 -0.034573637
-0.09670553 -0.0030097796 0.1384329 0.0260176 -0.116124034 -0.18531251 -0.09330765 -0.23232229
0.11168862 0.2662664 -0.17485505 -0.21319401 -0.0066335155 -0.08397072 0.113794416 0.00019049681
0.0918382 0.076245315 -0.06994617 0.019171033 -0.014930938 -0.07845651 0.4301647 -0.1860529
-0.2960765 -0.07207637 0.06951324 -0.045158923 0.11144235 0.029797684 0.008582875 0.0006908527
0.010257862 -0.12007151 0.07964369 0.05407165 0.03193252 -0.046342738 0.041508712 0.0016464333
-0.10991864 0.111466624 -0.055611897 0.027207635 0.078641035 -0.093005426 -0.11337571 0.0037116623
0.23417352 -0.0766613 0.23611817 0.26365855 0.10559446 -0.046763863 -0.09924027 -0.027545866
-0.21505137 -0.08725409 0.09125677 -0.07474232 0.050861333 -0.07839136 0.22570874 0.19734894
0.14583041 0.076359846 0.005662728 0.062167116 0.11970465 -0.101435475 0.09711661 -0.07765551
0.025340978 -0.12607346 0.017453797 0.06262593 0.07375892 0.16218431 0.07949421 -0.09470907
-0.06988377 0.034647815 0.12061968 0.00057334517 -0.1286995 0.0678795 -0.3232368 0.01597492
0.06952142 -0.16779125 -0.25638887 0.17356002 0.036273763 -0.020930175 -0.0001797852 -0.008279
0.11348439 -0.04097635 -0.07853568 0.17600171 -0.21277583 0.052187715 0.25432616 0.14649159
-0.02011337 -0.08790698 -0.078702785 0.10811178 -0.10632244 -0.055565264 -0.06853349 0.067160316
0.43000835 0.124626 -0.028414821 0.029622352 0.19794086 0.04138512 -0.00554598 -0.013588026
-0.01862644 0.010957026 -0.011443985 -0.0017089191 0.029010482 0.076993585 0.11875571 0.24653274
-0.22375831 0.23297386 0.07948061 -0.108174205 -0.07566076 0.001673209 -0.103656106 0.046495304
0.035814773 0.014973457 -0.047823437 -0.2454644 0.06478057 -0.1802746 0.593983 0.097490124
0.073049426 0.09225222 0.00093203195 -0.0058525815 0.00049616874 0.014318469 0.13141446 0.08414695
0.07270265 -0.12657432 0.12589754 -0.14513299 -0.03984715 -0.036913775 -0.12564394 0.20497887
00000000: 91d4 a6be 9c55 a13e d4f1 1f3d 35f1 693d
00000010: 2e5b a4be d737 90bd 3703 f6bb 7af1 ee3a
00000020: 46ee 8fbc 78ea 663c 01ce 6bbd c9cf 06bc
00000030: fa1d 28be fced 0e3e 5eca 26be 1f27 b93d
00000040: 0e73 8e3c d6d5 11bd 4aef 0abe bb84 913d
00000050: ff6a 1ebe d899 d2bc 813b 503c e6dc 01bd
00000060: 88c4 703c 1209 843c e52e fd3d 5263 873e
00000070: 71e1 c53d 9459 3f3e 26fa 393e baee f83c
00000080: b9ba 523c 8ea7 88bd 097c 75bd a555 813c
00000090: 3657 b8bc eb36 2fbd ffec 843d dc75 b63d
000000a0: ac58 4ebe 275d 46be a35a 6a3d 660f 56bc
000000b0: d721 0d3e 81e0 8abd ba2c 2a3e ff69 863d
000000c0: b98c 2f3e 5a7d 70bd 6e31 4cbd 28a8 fdbd
000000d0: 053e 34bd 7b94 f13d a4b8 9abc ca4f a8bd
000000e0: f39d 993d ea41 4bbc e61c 11be 18f6 c7bd
000000f0: 27bb 8fbd 954a 8c3c 3b92 b93b 6b37 1ebd
00000100: 39db e1bd a88e 6abe 1d8a 603d b71d f0bc
00000110: 8f50 c63e 659b 393e 412e 4d3d 6eb6 e23d
00000120: 5bb1 11bd 8b01 98bd 4db7 90bb ff68 99bb
00000130: 3b6c 833a 55c4 053e 1039 143e 4639 a63d
00000140: 8183 2d3d 089e 49bd 095a bbbd 7cf3 15bd
00000150: 2866 17bd 39c2 98bd b56e 4d3d 51b3 dc3d
00000160: c366 183e f30f 033d b7a6 57bb 5855 5a3c
00000170: 9d63 1c3e 874f 043e f4fb 2c3e 169d 0dbd
00000180: 8d0d c6bd b93f 45bb 5bc1 0d3e dd22 d53c
00000190: 70d2 edbd 90c2 3dbe 1518 bfbd e5e5 6dbe
000001a0: 01bd e43d 1254 883e 340d 33be 884f 5abe
000001b0: f65d d9bb d7f8 abbd 0c0d e93d 19c0 4739
000001c0: ab15 bc3d 8126 9c3d f03f 8fbd 920c 9d3c
000001d0: e5a0 74bc cfad a0bd 8c3e dc3e a784 3ebe
000001e0: 5797 97be c79c 93bd f55c 8e3d 90f8 38bd
000001f0: e33b e43d 461a f43c 309f 0c3c 571a 353a
00000200: 9710 283c 0de8 f5bd 3b1c a33d 3c7a 5d3d
00000210: adcb 023d e2d1 3dbd 0a05 2a3d 22cd d73a
00000220: 061d e1bd 9d48 e43d 4dc9 63bd 8ce2 de3c
00000230: 8d0e a13d a179 bebd 8631 e8bd 5c3f 733b
00000240: 2fcb 6f3e 9a00 9dbd f6c8 713e 41fe 863e
00000250: e941 d83d 778b 3fbd 7c3e cbbd dea7 e1bc
00000260: 6d36 5cbe 46b2 b2bd d4e4 ba3d 8012 99bd
00000270: f953 503d a68b a0bd 3120 673e d715 4a3e
00000280: 9154 153e 8d62 9c3d 688e b93b f2a2 7e3d
00000290: b627 f53d 67bd cfbd 13e5 c63d da09 9fbd
000002a0: e297 cf3c 6719 01be 44fb 8e3c 0642 803d
000002b0: eb0e 973d a513 263e dccd a23d d4f6 c1bd
000002c0: 391f 8fbd deea 0d3d 7307 f73d 8b4c 163a
000002d0: cdc9 03be 6804 8b3d 4b7f a5be d6dd 823c
000002e0: 3f61 8e3d 78d1 2bbe 6745 83be b8b9 313e
000002f0: cc93 143d c275 abbc b984 3cb9 a5a4 07bc
00000300: 816a e83d d1d6 27bd 51d7 a0bd cb39 343e
00000310: e8e1 59be c9c2 553d 0a37 823e e401 163e
00000320: cbc4 a4bc 9308 b4bd ed2e a1bd b569 dd3d
00000330: 94bf d9bd 6798 63bd 495b 8cbd 598b 893d
00000340: 0e2a dc3e eb3b ff3d 33c6 e8bc 93aa f23c
00000350: 02b1 4a3e 7283 293d 0dbb b5bb 50a0 5ebc
00000360: 7a96 98bc 1985 333c 8d7f 3bbc cffd dfba
00000370: 64a7 ed3c d0ae 9d3d 3236 f33d 1473 7c3e
00000380: e620 65be b390 6e3e bbc6 a23d 708a ddbd
00000390: 07f4 9abd 944f db3a a749 d4bd dc71 3e3d
000003a0: 83b2 123d 3b53 753c 82e2 43bd 055b 7bbe
000003b0: adab 843d e899 38be 450f 183f e7a8 c73d
000003c0: f09a 953d bbee bc3d 9b53 743a 03c7 bfbb
000003d0: 5211 023a 0398 6a3c 8391 063e 3c55 ac3d
000003e0: 21e5 943d b39c 01be 49eb 003e be9d 14be
000003f0: c436 23bd e632 17bd cea8 00be fbe5 513e

convE1.self_map.bias f4 [32]
-0.07505633 0.006354522 -0.02505592 -0.012466939 -0.007826502 -0.014366643 -0.0013577879 -0.015804194
-0.0043585207 -0.023950394 -0.0016343455 -0.004092355 -0.0005507004 -0.00786907 -0.024133066 0.03990299
0.2761477 -0.008153546 0.038695425 -0.031836163 -0.0056535285 0.00072863296 -0.0023846705 -0.007595121
0.074435584 0.01573177 -0.0038068537 -0.0033262086 -0.0057597 -0.0044035558 0.006673602 -0.0067055374
00000000: 22b7 99bd 9839 d03b 1342 cdbc 2242 4cbc
00000010: bb3a 00bc 1162 6bbc cdf7 b1ba cc77 81bc
00000020: ecd1 8ebb 9e33 c4bc 8937 d6ba 2919 86bb
00000030: e15c 10ba 46ed 00bc b5b2 c5bc 5171 233d
00000040: 3b63 8d3e 7396 05bc 187f 1e3d a366 02bd
00000050: 3c41 b9bb bb01 3f3a 2248 1cbb 7ee0 f8bb
00000060: af71 983d eadf 803c 687c 79bb 85fc 59bb
00000070: debb bcbb b44b 90bb 3bae da3b 20ba dbbb

convE1.pass_map.weight f4 [32, 64]
-0.043806206 0.03611567 -0.17976323 0.04865113 0.034939233 -0.009678724 -0.09002292 -0.10203092
-0.17052993 -0.09639097 -0.19297837 -0.04255008 -0.16789185 0.04274217 0.046882056 -0.09375652
-0.030446006 -0.12474377 -0.08757741 -0.028467538 -0.060428273 -0.16161083 -0.021287678 -0.00494003
0.12485073 -0.15426214 0.06312456 -0.15324375 -0.05803126 -0.11252835 0.078833394 -0.08635596
0.044111196 -0.030803433 -0.007902056 -0.12082359 -0.032483052 -0.047397688 -0.054744728 0.102878325
0.001337983 0.0037674527 -0.07096749 -0.019448258 -0.1477711 -0.017624062 -0.1617091 0.068029605
0.03143155 0.06587471 -0.006546858 0.031529356 -0.03949781 0.15536155 0.027119491 0.020590931
0.09600862 -0.12774457 -0.13719787 -0.027293347 -0.20737424 -0.030139096 -0.061130937 -0.18278088
-0.042184003 0.005068427 -0.004943595 0.059249952 -0.15401305 -0.015722588 -0.047432814 0.0065372884
-0.052406095 -0.0084173465 -0.06646278 0.00041682672 -0.016097832 0.07050087 -0.08751847 -0.03488987
-0.049210493 -0.1987291 -0.11548261 -0.09074564 -0.14585313 -0.04468832 0.040941387 0.0014981034
-0.115812756 0.04202989 -0.017950397 0.0076531195 0.030361595 -0.011717252 -0.12013343 -0.015019954
-0.11143062 0.006507398 0.04409583 -0.049006145 -0.12645113 -0.00013125871 -0.002094441 -0.02676636
-0.051434413 -0.06393354 -0.08646985 0.05829962 -0.17276654 -0.020815084 -0.15874472 -0.0003605749
-0.035124056 -0.080526575 -0.10459815 -0.084866926 -0.133877 -0.02750464 0.009909713 0.010038778
-0.082279496 -0.081747 -0.17522965 -0.019634735 -0.059555102 0.028008748 -0.10767382 -0.048291642
-0.10613752 -0.056852233 0.009367916 -0.27232173 -0.086694665 -0.032852285 -0.02311352 -0.19567125
-0.1665429 -0.100095876 0.03134527 -0.14235064 -0.123308375 -0.07865172 -0.11238386 -0.06511714
0.089907356 -0.06980881 -0.065075435 -0.01960631 0.08095235 0.016086362 -0.06835598 -0.080388784
0.10283465 -0.20660743 -0.11137005 0.19712025 -0.075847365 -0.06845273 -0.31873852 -0.29991102
-0.036781903 0.0026329036 -0.020144084 -0.15049694 -0.13843863 -0.070343934 -0.055257365 -0.22333205
-0.06981952 0.009077946 -0.15796205 -0.06721032 0.05523594 0.0026228086 0.046338756 -0.10187286
-0.015226366 -0.047591615 -0.05753739 0.010944464 0.16564482 0.052535094 -0.066359356 -0.09861259
-0.07713745 -0.12168461 0.042121228 -0.008107547 -0.039913777 -0.058499284 -0.021751333 -0.012912618
-0.1811216 -0.2077307 0.010995544 -0.20012288 -0.11078708 -0.0044072694 -0.086513974 -0.14659545
-0.12263666 -0.14566322 -0.11979429 0.11949405 -0.0819833 -0.06486263 -0.06750294 -0.008730841
0.013860342 -0.25553015 -0.21042192 -0.0078786835 -0.04408581 0.018992923 -0.030055363 -0.07516905
-0.1277162 -0.11481998 -0.14229815 0.03428896 0.05221895 0.07817257 -0.051256917 0.00970347
-0.12154631 -0.16723673 -0.25079334 -0.059923995 -0.18141931 -0.058878586 -0.1704504 -0.15858014
-0.001894093 -0.10272021 -0.023628388 0.0370347 -0.009064718 -0.012134228 -0.08184071 0.022261523
0.015857434 0.10399685 -0.08640459 -0.023215368 0.04105163 0.19610459 -0.056531914 -0.0048595704
-0.041049384 0.01184072 -0.11266292 0.016447794 -0.016839216 -0.0008534474 -0.10118941 -0.08818714
00000000: 236e 33bd 06ee 133d da13 38be 6846 473d
00000010: 711c 0f3d 8393 1ebc f05d b8bd 96f5 d0bd
00000020: 669f 2ebe a168 c5bd 1f9c 45be fe48 2ebd
00000030: d7eb 2bbe 6a12 2f3d 6607 403d 6b03 c0bd
00000040: e769 f9bc a979 ffbd c95b b3bd c134 e9bc
00000050: a383 77bd 4f7d 25be 7f63 aebc fadf a1bb
00000060: bdb1 ff3d e5f6 1dbe 7347 813d eeeb 1cbe
00000070: 30b2 6dbd 4375 e6bd 6773 a13d 65db b0bd
00000080: f1ad 343d 7b57 fcbc a077 01bc 5c72 f7bd
00000090: f30c 05bd 1424 42bd 023c 60bd dfb1 d23d
000000a0: 425f af3a 5ee7 763b 6757 91bd f451 9fbc
000000b0: 4f51 17be 5660 90bc 1297 25be 1b53 8b3d
000000c0: 5ebe 003d 52e9 863d 0787 d6bb ed24 013d
000000d0: 75c8 21bd 1917 1f3e b229 de3c 50ae a83c
000000e0: 2ba0 c43d 79cf 02be 997d 0cbe 4c96 dfbc
000000f0: ea59 54be 44e6 f6bc 6f64 7abd e92a 3bbe
00000100: 22c9 2cbd 0c15 a63b e1fd a1bb 14b0 723d
00000110: 99b5 1dbe a8cc 80bc e948 42bd c036 d63b
00000120: c6a7 56bd e9e8 09bc a31d 88bd 8989 da39
00000130: 9adf 83bc c362 903d e23c b3bd aee8 0ebd
00000140: f190 49bd a47f 4bbe 2682 ecbd dad8 b9bd
00000150: 865a 15be 1a0b 37bd 28b2 273d 025c c43a
00000160: 3d2f edbd 8927 2c3d b60c 93bc 05c7 fa3b
00000170: e1b8 f83c b8f9 3fbc 8408 f6bd 4116 76bc
00000180: bd35 e4bd 033c d53b d49d 343d abba 48bd
00000190: 687c 01be 7ea2 09b9 e442 09bb 2045 dbbc
000001a0: e4ac 52bd 96ef 82bd 1b17 b1bd 95cb 6e3d
000001b0: b6e9 30be 6584 aabc fa8d 22be 8b0b bdb9
000001c0: 3ede 0fbd 1eeb a4bd 8e37 d6bd b6ce adbd
000001d0: 0d17 09be 6951 e1bc 595c 223c b079 243c
000001e0: 2782 a8bd f96a a7bd 676f 33be 06d9 a0bc
000001f0: 0df0 73bd 9a72 e53c 1784 dcbd 75cd 45bd
00000200: a15e d9bd e3dd 68bd e37b 193c c16d 8bbe
00000210: f98c b1bd 1e90 06bd 9158 bdbc 0b5e 48be
00000220: 398a 2abe 11ff ccbd e663 003d 5ec4 11be
00000230: 1a89 fcbd 2714 a1bd 8229 e6bd 235c 85bd
00000240: 5921 b83d ecf7 8ebd 4546 85bd 6a9d a0bc
00000250: 58ca a53d 8cc7 833c 38fe 8bbd e0a2 a4bd
00000260: f99a d23d e690 53be fb15 e4bd e4d9 493e
00000270: dd55 9bbd f230 8cbd b231 a3be f08d 99be
00000280: 9fa8 16bd cb8c 2c3b 3505 a5bc df1b 1abe
00000290: dbc2 0dbe 7b10 90bd 8c55 62bd 28b1 64be
000002a0: 89fd 8ebd aabb 143c cec0 21be 90a5 89bd
000002b0: 153f 623d 6de3 2b3b b5cd 3d3d b8a2 d0bd
000002c0: 0278 79bc 6def 42bd 54ac 6bbd 6950 333c
000002d0: cc9e 293e 0a2f 573d 6ae7 87bd 66f5 c9bd
000002e0: 3dfa 9dbd c835 f9bd 4f87 2c3d 84d5 04bc
000002f0: a17c 23bd f29c 6fbd da2f b2bc 728f 53bc
00000300: f177 39be 5bb7 54be a726 343c 03ed 4cbe
00000310: 56e4 e2bd db6a 90bb 3d2e b1bd 1e1d 16be
00000320: ee28 fbbd bd28 15be b556 f5bd 4cb9 f43d
00000330: dce6 a7bd b3d6 84bd fb3e 8abd cd0b 0fbc
00000340: 7d16 633c d9d4 82be d878 57be 9815 01bc
00000350: 5393 34bd 0c97 9b3c aa36 f6bc 3bf2 99bd
00000360: 09c8 02be bd26 ebbd 9bb6 11be 9572 0c3d
00000370: 8ae3 553d f118 a03d c6f2 51bd 4efb 1e3c
00000380: 46ed f8bd 1b40 2bbe fc67 80be dd72 75bd
00000390: fcc5 39be ac2a 71bd 8d8a 2ebe d562 22be
000003a0: 3743 f8ba f95e d2bd 5290 c1bc b3b1 173d
000003b0: 2f84 14bc a4ce 46bc 1a9c a7bd cc5d b63c
000003c0: 73e7 813c 4dfc d43d e4f4 b0bd 282e bebc
000003d0: c125 283d a4cf 483e 028e 67bd 083d 9fbb
000003e0: 6623 28bd 94ff 413c d1bb e6bd 86bd 863c
000003f0: 65f2 89bc e3b9 5fba 653c cfbd 769b b4bd

convE1.pass_map.bias f4 [32]
-0.010065389 0.006354521 -0.025055801 -0.012466512 -0.007826506 0.022643197 -0.0013577922 -0.01590751
-0.0043582832 0.0087547805 -0.001634345 -0.0043201875 -0.00055106054 -0.0078690685 -0.023778087 0.039999805
0.26324564 -0.008153682 0.02314941 -0.03733229 -0.0056535206 0.0007280145 -0.0023645416 0.059268035
0.14090976 0.015731812 -0.0038173017 -0.0033262074 -0.006103727 -0.0044150464 0.0092242 -0.0067055086
00000000: 4de9 24bc 9639 d03b d341 cdbc 5740 4cbc
00000010: bf3a 00bc 3a7e b93c f2f7 b1ba 7750 82bc
00000020: eecf 8ebb 3670 0f3c 8537 d6ba 5c90 8dbb
00000030: 0c75 10ba 44ed 00bc 43ca c2bc d6d6 233d
00000040: 22c8 863e 0597 05bc d5a3 bd3c bee9 18bd
00000050: 2b41 b9bb 3ad8 3e3a 6df6 1abb 0ac3 723d
00000060: a64a 103e 00e0 803c b22b 7abb 80fc 59bb
00000070: c601 c8bb 18ac 90bb 1921 173c e2b9 dbbb

attnN2.node_attn_maps.0.weight f4 [8, 32]
-4.3687907e-36 1.3450627e-37 -1.19444215e-36 -6.1049985e-36 -3.1266876e-36 -1.0355893e-37 -2.1147535e-37 -1.4703275e-36
-7.139417e-36 -9.941873e-36 -2.886351e-36 -1.2174767e-36 -8.775806e-36 -5.7795445e-38 -3.106848e-36 4.836696e-37
1.3436708e-36 -1.3031928e-35 -5.659708e-36 -2.3442131e-36 -1.3986204e-36 -1.1391382e-36 -1.4024411e-38 -2.5616364e-36
-1.0488762e-35 -7.309764e-36 -7.9373204e-36 1.0977812e-36 -2.2057704e-36 -1.305058e-37 -3.708055e-36 -7.3705426e-36
-8.6468336e-36 -1.36538585e-36 -2.1864315e-36 -7.2242766e-36 -4.425514e-36 -1.904797e-37 -5.1314406e-37 -4.1856976e-36
-9.734915e-36 -2.4087567e-35 -8.208785e-36 -1.1835526e-36 -1.740962e-35 -2.2158686e-37 -5.41141e-36 1.8448221e-37
-2.0458317e-36 -1.6943484e-35 -1.01579716e-35 -3.6826113e-36 -2.263794e-36 -2.2463224e-36 -1.7115576e-37 -3.353784e-36
-1.4690673e-35 -1.590411e-35 -1.03456884e-35 1.5659305e-36 -3.6972067e-36 -1.1755467e-37 -8.332394e-36 -1.7024469e-35
2.744704e-36 2.482152e-36 -7.240449e-37 -3.1205163e-36 1.3234994e-36 -9.493392e-39 5.045404e-37 5.6521977e-37
1.2934192e-36 1.7703896e-35 8.513947e-36 2.5406649e-37 7.885487e-36 1.930698e-37 3.536608e-36 1.1532333e-37
1.117722e-35 -6.163458e-36 4.608435e-36 -1.8646685e-37 1.0098588e-36 3.5172895e-36 -9.722499e-38 -3.1031479e-37
1.07618675e-35 1.1035473e-36 7.803794e-36 3.3330373e-36 -2.5464041e-37 -1.5926005e-37 1.5144387e-36 6.299518e-36
1.3652322e-35 2.3738627e-36 2.1153763e-36 1.0153341e-35 5.3257643e-36 -1.1000937e-37 3.7074306e-37 6.110121e-36
1.393668e-35 3.2276064e-35 1.2929758e-35 1.5083761e-36 2.2800134e-35 4.7164285e-37 7.8827665e-36 8.954985e-38
5.984016e-36 2.2385925e-35 1.5927149e-35 4.232858e-36 2.9657816e-36 3.2901283e-36 1.623298e-37 4.2066526e-36
2.368339e-35 2.076093e-35 1.7521738e-35 -3.7539167e-37 3.9340967e-36 4.025304e-37 1.0154157e-35 2.5060994e-35
-4.5866762e-35 -5.3798923e-36 -6.7485264e-36 -1.864353e-35 -1.213849e-35 5.2812523e-38 -4.4847856e-37 -1.7204062e-35
-3.3088725e-35 -1.2273331e-34 -5.4361167e-35 -3.857262e-36 -7.604603e-35 -5.6809873e-37 -2.799546e-35 -2.254643e-36
-2.3496069e-35 -5.3364895e-35 -4.4931596e-35 -1.1288125e-35 -1.0807823e-35 -7.51731e-36 -3.4957735e-37 -1.0908429e-35
-7.420198e-35 -6.072697e-35 -5.594629e-35 -7.980575e-36 -1.0721662e-35 -1.171166e-36 -3.6089576e-35 -7.482039e-35
-3.1550062e-35 -4.323931e-36 -3.709274e-36 -1.01997976e-35 -7.331998e-36 7.628326e-38 -1.977815e-37 -9.782489e-36
-2.1551148e-35 -8.7564715e-35 -3.8601088e-35 -2.441207e-36 -5.290847e-35 -7.3809412e-37 -2.0796541e-35 -1.4540145e-36
-1.7750131e-35 -3.2526738e-35 -3.035086e-35 -7.221625e-36 -8.8161926e-36 -6.9658185e-36 -4.8272907e-37 -6.666029e-36
-5.460007e-35 -4.0277533e-35 -4.1876782e-35 -6.813786e-36 -6.634522e-36 -5.9827525e-37 -2.5464215e-35 -5.244167e-35
3.2030712e-35 3.7211786e-36 4.842219e-36 1.3853814e-35 8.618777e-36 -1.2314778e-37 1.5670262e-37 1.0858538e-35
2.4060079e-35 7.8823055e-35 3.6046428e-35 3.0196716e-36 5.0540994e-35 9.148342e-37 1.8959252e-35 1.7894078e-36
1.5446303e-35 3.8718623e-35 3.268507e-35 7.792292e-36 6.256688e-36 5.033056e-36 3.3908878e-37 7.683471e-36
5.3862804e-35 4.5864874e-35 3.8408162e-35 3.127613e-36 8.849473e-36 9.303206e-37 2.6865674e-35 5.326754e-35
2.4724185e-35 3.8091244e-36 1.4132631e-36 4.943428e-36 7.223641e-36 -5.114333e-39 3.4697504e-37 9.6668576e-36
1.6530287e-35 8.022803e-35 3.6300416e-35 3.0090385e-36 4.611836e-35 6.311609e-37 1.902379e-35 9.813383e-37
1.9813267e-35 2.68538e-35 2.8991508e-35 7.634891e-36 7.031885e-36 7.363902e-36 -9.492864e-38 7.005752e-36
4.5821063e-35 3.7316088e-35 3.317891e-35 5.2899685e-36 5.923739e-36 4.514879e-37 2.2821554e-35 5.1777536e-35
00000000: ebd3 b984 9814 3702 4b39 cb83 c6d6 0185
00000010: 9dfe 8484 05f5 0c82 34ec 8f82 cb29 fa83
00000020: afd6 1785 b570 5385 298b 7584 9724 cf83
00000030: 08a4 3a85 8c55 9d81 9426 8484 9195 2403
00000040: 1e9d e403 4894 8a85 c3bc f084 716c 4784
00000050: 83f6 ed83 77d0 c183 5ab6 9880 80eb 5984
00000060: 4112 5f85 2476 1b85 e2ce 2885 1dc7 ba03
00000070: 6da5 3b84 a2a2 3182 25b9 9d84 0dc1 1c85
00000080: d7e5 3785 f14e e883 4300 3a84 b4a4 1985
00000090: 953d bc84 3fa2 8182 279d 2e83 360a b284
000000a0: eb09 4f85 4c12 0086 e094 2e85 fc5e c983
000000b0: 7e21 b985 e0cd 9682 092d e684 ab1a 7b02
000000c0: 450a 2e84 8d2c b485 4209 5885 16a4 9c84
000000d0: 1195 4084 9218 3f84 14f7 6882 79a7 8e84
000000e0: d137 9c85 1b1f a985 4907 5c85 f236 0504
000000f0: 0443 9d84 d301 2082 de35 3185 0309 b585
00000100: 5c7e 6904 7c28 5304 3561 7683 6abb 8484
00000110: 872e e103 b75f 6780 abaf 2b03 9655 4003
00000120: 5a10 dc03 9742 bc05 5612 3505 a0e8 ac02
00000130: adb4 2705 8165 8302 406e 9604 51f8 1c02
00000140: 93b6 6d05 0f15 0385 6a05 c404 37ce 7d82
00000150: 8ed1 ab03 e49b 9504 f755 0482 7630 d382
00000160: 2ee1 6405 44c2 bb03 e5f7 2505 90c5 8d04
00000170: 9e4c ad82 07c6 5882 8ed5 0004 d7f9 0505
00000180: 282d 9105 27f2 4904 d1f4 3304 0cf0 5705
00000190: 7088 e204 acbc 1582 8d50 fc02 aaf2 0105
000001a0: 4033 9405 e79b 2b06 267e 8905 8651 0004
000001b0: de73 f205 e37d 2003 dda5 2705 23c7 f301
000001c0: 2a88 fe04 490c ee05 d35d a905 be0b b404
000001d0: 014d 7c04 53f2 8b04 aef3 5c02 64ee b204
000001e0: 52d8 fb05 a1c4 dc05 b552 ba05 747a ff82
000001f0: 8556 a704 58f9 0803 7df4 5705 423f 0506
00000200: 9ade 7386 d7d5 e484 7986 0f85 8440 c685
00000210: 1d14 8185 f5c4 8f01 fe9b 1883 e9f1 b685
00000220: 0aee 2f86 fb23 2387 4b84 9086 dd11 a484
00000230: 3f2a ca86 6150 4183 72d9 1486 c7cd 3f84
00000240: 62da f985 44de 8d86 b8e5 6e86 6612 7085
00000250: 63db 6585 21e0 1f85 f7e8 ed82 23ff 6785
00000260: 4043 c586 a270 a186 12bb 9486 62ba 2985
00000270: 4806 6485 7943 c783 96e2 3f86 1ee8 c686
00000280: b8bf 2786 70eb b784 6bc6 9d84 fbec 5885
00000290: 32ef 1b85 aca9 cf01 669a 8682 f00c 5085
000002a0: ce2b e585 75c9 e886 143d 4d86 c8ac 4f84
000002b0: a4a7 8c86 1129 7b83 9225 dd85 4363 f783
000002c0: 74c0 bc85 1af1 2c86 735f 2186 4496 1985
000002d0: eb7f 3b85 8625 1485 a243 2483 50c5 0d85
000002e0: e226 9186 f026 5686 b9a7 5e86 c8e9 1085
000002f0: c619 0d85 2095 4b83 1864 0786 f469 8b86
00000300: f24d 2a06 0c48 9e04 19f7 cd04 ab51 9305
00000310: 164d 3705 bd9e 2782 e54a 5502 81ef 6605
00000320: c4d9 ff05 318c d106 dba7 3f06 5071 8004
00000330: 6b5c 8606 a6a6 9b03 fe9b c905 da39 1804
00000340: d640 a405 0fdd 4d06 9dc8 2d06 46b9 2505
00000350: a610 0505 2015 d604 99c5 e602 cc68 2305
00000360: 2031 8f06 08dc 7306 7b36 4c06 b108 8504
00000370: 1d35 3c05 2d49 9e03 a9d7 0e06 029c 8d06
00000380: d174 0306 b105 a204 4a74 f003 2a45 d204
00000390: 3ea1 1905 aeb0 3780 9423 ec02 6197 4d05
000003a0: b9c7 af05 5e48 d506 9101 4106 0efb 7f04
000003b0: 0f35 7506 dec5 5603 af4b ca05 50f7 a603
000003c0: d8b0 d205 80c7 0e06 3225 1a06 4d60 2205
000003d0: 398d 1505 e59c 1c05 ce35 0182 f1fe 1405
000003e0: 66a0 7306 0768 4606 cb68 3006 a802 e104
000003f0: cef7 fb04 25a2 1903 2eae f205 f7a5 8906

attnN2.node_attn_maps.0.bias f4 [8]
-2.9596116e-38 -5.977207e-38 3.3636567e-38 9.967575e-38 -3.1752206e-37 -2.1272805e-37 2.253809e-37 1.8425121e-37
00000000: f722 2181 0eb7 a281 8822 3701 eeab 0702
00000010: 2518 d882 74c6 9082 e462 9902 2dca 7a02
