train_script/weights/GCNEdgeBased_model100new/91.pth (torch, 46347 bytes, 17 tensors)

weight f4 [32, 13]
3.95518e-40 2.17816e-40 9.53121e-40 -2.38481e-40 -1.603933e-39 -1.11926e-39 -1.036413e-39 -1.96735e-40
-6.5963e-41 1.377387e-39 -5.38586e-40 1.40259e-40 4.83269e-40 1.784488e-39 -3.44293e-40 9.13271e-40
-9.50509e-40 -1.535467e-39 -4.70776e-40 -1.1886e-40 1.09858e-40 1.39379e-40 -1.376093e-39 3.92843e-40
-1.011463e-39 9.05907e-40 -1.44135e-39 -5.88429e-40 9.92754e-40 -1.83288e-40 -1.157924e-39 1.00377e-39
-9.49792e-40 2.75949e-40 -9.72218e-40 1.061729e-39 1.92045e-40 -3.97058e-40 -7.00694e-40 1.07942e-39
1.365097e-39 5.87594e-40 1.296009e-39 -3.23465e-40 -1.595395e-39 2.47005e-40 -3.31508e-40 -9.28006e-40
-7.71797e-40 -1.4179e-39 -9.51725e-40 1.54741e-39 1.13178e-39 -3.0548e-41 1.292496e-39 -1.43514e-40
-1.472682e-39 1.462607e-39 -6.75183e-40 -3.14317e-40 -1.660532e-39 1.861793e-39 -1.78413e-40 -5.9737e-41
1.263792e-39 6.26668e-40 -1.725286e-39 -1.702789e-39 2.44876e-40 1.309683e-39 -1.030128e-39 -8.90878e-40
-9.4519e-41 -1.046833e-39 -1.274257e-39 -8.55116e-40 1.81238e-40 6.01608e-40 -5.80722e-40 -1.330957e-39
-9.26345e-40 -1.576429e-39 1.98278e-40 2.07503e-40 -1.203025e-39 -1.875819e-39 5.12898e-40 2.93831e-40
-4.1062e-40 -6.97502e-40 -8.45071e-40 1.04096e-39 1.11053e-39 1.713895e-39 -2.84793e-40 1.895022e-39
-1.707157e-39 8.11694e-40 1.450759e-39 -4.21647e-40 1.72428e-40 7.92602e-40 1.60087e-39 3.65052e-40
-9.69847e-40 -2.52087e-40 8.28519e-40 1.46638e-39 -1.09934e-39 -5.4195e-41 1.57862e-39 1.541518e-39
1.073903e-39 -7.467e-41 1.332161e-39 -7.83298e-40 -1.09083e-40 -1.886436e-39 -1.201e-40 1.028528e-39
-1.61183e-40 -1.195614e-39 -1.114111e-39 -1.03535e-40 3.1937e-40 9.29128e-40 -1.02293e-40 -1.299084e-39
-1.26484e-39 4.29167e-40 9.15924e-40 2.82136e-40 8.98671e-40 6.68236e-40 1.030219e-39 -1.416903e-39
1.889083e-39 -1.14222e-39 -1.318136e-39 6.88698e-40 9.13832e-40 7.3579e-40 1.135563e-39 1.469323e-39
4.12594e-40 -8.44905e-40 1.112387e-39 5.65694e-40 5.3584e-41 1.916276e-39 1.293518e-39 2.03523e-40
3.18867e-40 9.21345e-40 1.240762e-39 7.19006e-40 2.037e-40 1.741195e-39 -1.105975e-39 -4.8933e-41
1.504989e-39 5.39332e-40 1.819981e-39 9.6359e-41 9.23983e-40 -3.81271e-40 1.457063e-39 -1.263205e-39
-1.571619e-39 -1.246269e-39 -6.18226e-40 -8.9441e-40 1.240082e-39 -2.64351e-40 -1.121986e-39 6.16486e-40
7.09695e-40 -4.92139e-40 1.049385e-39 1.99665e-39 -9.54974e-40 -1.820703e-39 -4.351e-42 -8.93502e-40
-1.919452e-39 8.11264e-40 1.082657e-39 -9.11023e-40 -4.05506e-40 -4.0562e-41 4.28052e-40 -2.2835e-40
1.231413e-39 1.839888e-39 -9.9325e-40 -5.09352e-40 -1.013193e-39 -1.073643e-39 -1.106799e-39 -3.22697e-40
8.4907e-40 -1.13327e-40 1.92693e-40 -1.184617e-39 -1.571095e-39 -1.22302e-39 -2.11244e-40 1.132434e-39
9.67794e-40 1.198518e-39 1.193623e-39 -1.308027e-39 -6.23822e-40 -1.21183e-40 -1.064447e-39 1.160166e-39
1.703134e-39 8.996e-41 -5.89641e-40 -9.62288e-40 -3.6613e-41 -2.527e-42 5.63258e-40 -9.37102e-40
-1.121512e-39 -1.6802e-41 1.820158e-39 -1.167028e-39 -1.684261e-39 -3.49616e-40 8.57903e-40 -1.605199e-39
-9.24612e-40 1.886123e-39 1.353694e-39 5.0431e-40 -1.154081e-39 3.27168e-40 -5.11548e-40 1.075062e-39
-1.059225e-39 -1.767487e-39 -1.315829e-39 1.450683e-39 -1.08393e-39 -8.22261e-40 1.135399e-39 3.2239e-40
1.222702e-39 2.63167e-40 -3.31715e-40 1.675426e-39 -1.794005e-39 -1.870197e-39 -1.380649e-39 -9.59451e-40
00000000: 8b4e 0400 2f5f 0200 ea60 0a00 ca98 0280
00000010: 1d77 1180 0b30 0c80 1949 0b80 6b24 0280
00000020: e1b7 0080 98ff 0e00 5cdd 0580 fc86 0100
00000030: 2843 0500 6d6e 1300 c0bf 0380 d4f1 0900
00000040: a259 0a80 42b8 1080 5520 0580 554b 0180
00000050: 3d32 0100 8884 0100 fdfb 0e80 1647 0400
00000060: 8c03 0b80 4ddd 0900 e6b1 0f80 4d68 0680
00000070: 65cf 0a00 effe 0180 d29b 0c80 1aee 0a00
00000080: a257 0a80 3c01 0300 2696 0a80 ab8f 0b00
00000090: 5817 0200 d652 0480 40a1 0780 fcc0 0b00
000000a0: 56dd 0e00 f965 0600 bf1c 0e00 b085 0380
000000b0: 505f 1180 8db0 0200 1c9c 0380 e71a 0a80
000000c0: 7567 0880 8770 0f80 065d 0a80 8dd9 1000
000000d0: f152 0c00 2855 0080 f412 0e00 0f90 0180
000000e0: 3d09 1080 27ed 0f00 235a 0780 306c 0380
000000f0: e314 1280 ec45 1400 58f1 0180 86a6 0080
00000100: f0c2 0d00 e5d2 0600 65c9 1280 af8a 1280
00000110: 9daa 0200 dd42 0e00 9437 0b80 68b3 0980
00000120: 7b07 0180 2566 0b80 1ce0 0d80 b74f 0980
00000130: 38f9 0100 0a8d 0600 d152 0680 2b7e 0e80
00000140: 4616 0a80 712a 1180 b828 0200 6f42 0200
00000150: 8b19 0d80 056d 1480 c095 0500 1533 0300
00000160: a478 0480 5a98 0780 b733 0980 c655 0b00
00000170: b517 0c00 a4a9 1200 e319 0380 8da2 1400
00000180: dc96 1280 acd6 0800 20cc 0f00 6197 0480
00000190: a9e0 0100 74a1 0800 936e 1100 9ef9 0300
000001a0: 8a8f 0a80 b7be 0280 9305 0900 acf7 0f00
000001b0: 83f8 0b80 1397 0080 8d30 1100 20c9 1000
000001c0: 9bb1 0b00 26d0 0080 8681 0e00 8487 0880
000001d0: 1430 0180 9e8a 1480 ca4e 0180 1e33 0b00
000001e0: 50c1 0180 e304 0d80 b021 0c80 9d20 0180
000001f0: 467a 0300 081e 0a00 271d 0180 5125 0e80
00000200: dcc5 0d80 58ac 0400 39f9 0900 7b12 0300
00000210: 21c9 0900 c546 0700 d537 0b00 c06d 0f80
00000220: ff91 1400 0b70 0c80 6d5a 0e80 cf7f 0700
00000230: 64f3 0900 1503 0800 7d5d 0c00 e0ff 0f00
00000240: 257e 0400 4033 0980 e21c 0c00 ed28 0600
00000250: 5f95 0000 ccdd 1400 cd15 0e00 5737 0200
00000260: df78 0300 5608 0a00 bd82 0d00 4cd4 0700
00000270: d537 0200 bef5 1200 020b 0c80 6888 0080
00000280: 4c63 1000 70df 0500 5ed1 1300 9c0c 0100
00000290: b00f 0a00 d426 0480 b3dd 0f00 4dc1 0d80
000002a0: 091d 1180 1792 0d80 5dbb 0680 40bd 0980
000002b0: d880 0d00 e7e0 0280 a437 0c80 83b6 0600
000002c0: 57ba 0700 e25b 0580 426d 0b00 d9bd 1500
000002d0: 1466 0a80 61d3 1380 210c 0080 b8ba 0980
000002e0: a7e6 1480 79d5 0800 02ca 0b00 90eb 0980
000002f0: 636a 0480 1271 0080 3ca9 0400 8c7c 0280
00000300: ae68 0d00 dc08 1400 c7d0 0a80 de8b 0580
00000310: 5f08 0b80 e1b0 0b80 4e0d 0c80 8c83 0380
00000320: dd3e 0900 e93b 0180 2619 0200 3be6 0c80
00000330: 931b 1180 4851 0d80 dd4c 0280 c454 0c00
00000340: d189 0a00 fb0c 0d00 56ff 0c00 3f3e 0e80
00000350: f6ca 0680 cf51 0180 3f97 0b80 12a2 0c00
00000360: a58b 1200 c6fa 0000 ae6b 0680 787a 0a80
00000370: 1066 0080 0b07 0080 2222 0600 4234 0a80
00000380: 5236 0c80 d62e 0080 dcd1 1300 33b5 0c80
00000390: 0957 1280 96ce 0380 7c57 0900 a47a 1180
000003a0: 7111 0a80 be89 1400 8cbd 0e00 d07d 0500
000003b0: 1c91 0c80 0390 0300 fd91 0580 d6b4 0b00
000003c0: b088 0b80 093f 1380 ff53 0e80 eacb 0f00
000003d0: 8ecd 0b80 21f4 0880 085d 0c00 b182 0300
000003e0: 6550 0d00 9add 0200 b09c 0380 683e 1200
000003f0: f588 1380 595d 1480 b008 0f80 8f72 0a80

bias f4 [32]
-0.6754162 -0.861531 -0.87568885 -0.6678835 -0.70412105 -0.7025494 -0.62382966 -0.12112272
-0.59786916 -0.05480816 -0.68428475 -0.5511388 -0.16467904 -0.079358734 -0.6900391 0.21504092
-0.69683844 -0.8325442 0.16492602 -0.9697972 -0.8202739 -0.8742562 0.008522967 0.30967084
-0.4624804 0.15883182 -0.27745137 -0.64911306 -0.187881 -0.7383653 -0.037126206 -0.8020032
00000000: 13e8 2cbf 4c8d 5cbf 252d 60bf 6afa 2abf
00000010: 4741 34bf 47da 33bf 4db3 1fbf 300f f8bd
00000020: f40d 19bf 857e 60bd 492d 2fbf 6f17 0dbf
00000030: 9fa1 28be d586 a2bd 67a6 30bf b033 5c3e
00000040: 0164 32bf 9e21 55bf 5ee2 283e a144 78bf
00000050: 78fd 51bf 41cf 5fbf eaa3 0b3c 2d8d 9e3e
00000060: 3bca ecbe cfa4 223e 1b0e 8ebe 462c 26bf
00000070: e063 40be 8205 3dbf a611 18bd 1550 4dbf

weight f4 [32, 13]
-0.019638516 0.050655007 -0.12107272 0.015834652 0.097221576 -0.062355727 0.14858417 -0.037239756
0.12276725 0.030079255 -0.02099621 0.109493546 -0.09512627 0.053880777 0.18617517 -0.092663035
-0.14852719 0.19952309 0.064100094 0.034206185 0.026360169 0.06173473 0.028564218 -0.017876314
-0.15517484 0.0869989 -0.05072235 -0.38010243 -0.07050573 0.021999927 0.074126795 -0.0643805
-0.021375697 -0.080115296 0.08587836 -0.017695727 0.1080649 -0.042012647 -0.14249767 -0.08837155
0.119412184 0.015758337 -0.043836467 0.3078955 0.0021894623 -0.20188051 0.0024295184 0.09259899
0.03862116 0.023778673 0.009802444 0.14725845 0.14182608 -0.11245449 -0.17923363 -0.08006056
-0.30628577 -0.018548308 0.019846145 -0.016534874 0.0006440938 0.034357388 -0.0026375062 -0.020428421
0.82723033 -0.11917867 0.2813352 0.16378982 -0.070225224 0.32720354 0.080339454 -0.025315754
0.026722219 0.14910357 0.005504906 0.10154375 0.07370296 0.009209918 -0.013098935 -0.049654577
0.15528007 -0.18490459 0.054464173 0.045601003 -0.15620948 0.07817813 -0.1283283 -0.07492464
0.058941193 0.124693744 -0.12935878 -0.16632791 -0.12720945 -0.09607187 0.24388018 -0.026458781
0.2519002 -0.04704759 -0.010069109 0.10277499 0.019704605 -0.055599183 -0.0064366646 0.10275921
-0.13498269 0.6841583 0.107601285 0.067672014 -0.030804832 -0.048025716 -0.044963248 -0.00564258
0.0025216497 -0.012886616 -0.011874878 0.006491589 0.022793679 -0.0052329227 0.06395708 -0.0017761139
-0.083165556 -0.074764155 -0.04689296 -0.07041422 -0.00032121612 -0.024202626 0.09173182 -0.16700508
-0.0038351254 -0.05366123 0.07679641 -0.0032180664 -0.34064382 0.111528456 -0.31743768 -0.029570842
-0.042988237 0.08158962 0.0070451144 0.008470076 0.029891362 0.026794849 -0.9705019 -0.0565368
-0.017282836 -0.055816587 -0.022927625 0.06963526 -0.033008754 0.113922395 0.15625167 0.04540476
-0.0997251 0.0022798646 0.006342208 0.34010133 0.5576263 -0.1790029 0.06681968 -0.060698967
-0.3290532 0.0031747895 -0.008746555 -0.03988557 -0.01483475 -0.026953125 0.03581281 0.034715872
-0.016406214 -0.1687768 -0.068158 -0.13359153 0.0016320631 0.3972087 0.22195578 0.03844712
0.00822468 -0.039558318 -0.059273664 -0.050763637 0.026031714 -0.1636324 -0.067651704 0.24127343
0.16671629 0.3285228 -0.28862658 -0.12749688 0.028371306 -0.023455678 0.007929584 0.04110694
0.08089321 -0.057081256 -0.026037296 -0.10958965 -0.041282654 -0.029848985 -0.35569966 0.50143886
-0.12832779 0.02335999 0.036529843 -0.051224127 -0.017644407 0.0447698 -0.014177838 0.16995198
-0.13839065 0.042759173 0.101828925 0.6363397 0.44723713 0.0023158584 0.03556389 0.015382004
0.0042998996 -0.015167024 -0.111377664 0.06028753 0.112154014 -0.14682494 0.16210502 0.15658407
0.08257966 0.239605 -0.13153958 -0.09431256 0.040404215 0.021927398 0.016482472 -0.014531993
0.019322151 0.17488353 -0.101500705 0.062060144 0.14549276 -0.032933284 0.08888083 -0.15951778
0.06640091 0.046150386 0.11514161 0.20505066 -0.029966446 -0.10056594 -0.42345643 -0.03680439
-0.034298275 -0.09510969 -0.032363668 -0.3203626 0.004564258 0.0326102 -0.0727969 -0.037721656
00000000: f4e0 a0bc a07b 4f3d f9f4 f7bd acb7 813c
00000010: 1b1c c73d b868 7fbd 7326 183e b788 18bd
00000020: 656d fb3d c568 f63c 3e00 acbc 273e e03d
00000030: 90d1 c2bd 17b2 5c3d b4a4 3e3e 1ec6 bdbd
00000040: 8317 18be c84f 4c3e e946 833d c91b 0c3d
00000050: 48f1 d73c 8edd 7c3d 82ff e93c 5971 92bc
00000060: 27e6 1ebe 7b2c b23d 3dc2 4fbd c99c c2be
00000070: 4f65 90bd 3139 b43c cacf 973d ecd9 83bd
00000080: 161c afbc 7d13 a4bd fee0 af3d a1f6 90bc
00000090: 2151 dd3d 7415 2cbd e9ea 11be 25fc b4bd
000000a0: 608e f43d a117 813c de8d 33bd 7ba4 9d3e
000000b0: 157d 0f3b c4b9 4ebe 8e38 1f3b 8aa4 bd3d
000000c0: 3931 1e3d 7ecb c23c 6e9a 203c ebca 163e
000000d0: db3a 113e 8a4e e6bd 0589 37be caf6 a3bd
000000e0: 7dd1 9cbe 9ff2 97bc 6294 a23c 2574 87bc
000000f0: 67d8 283a 55ba 0c3d 03da 2cbb 8159 a7bc
00000100: 5ec5 533f f213 f4bd 2b0b 903e 85b8 273e
00000110: 3ed2 8fbd 3987 a73e 0389 a43d fc62 cfbc
00000120: 8ee8 da3c 9bae 183e 8062 b43b 2bf6 cf3d
00000130: 94f1 963d 32e5 163c ea9c 56bc 9962 4bbd
00000140: bd01 1f3e a157 3dbe d315 5f3d 1ec8 3a3d
00000150: 61f5 1fbe db1b a03d 7e68 03be 1772 99bd
00000160: 526c 713d 6f5f ff3d a176 04be dd51 2abe
00000170: 3243 02be 54c1 c4bd babb 793e 16c0 d8bc
00000180: 10f9 803e f9b4 40bd e7f8 24bc b27b d23d
00000190: 8d6b a13c f8bb 63bd a8ea d2bb 6c73 d23d
000001a0: e738 0abe 0025 2f3f 105e dc3d a097 8a3d
000001b0: 6a5a fcbc 9db6 44bd 622b 38bd 64e5 b8bb
000001c0: 4342 253b 6322 53bc d98e 42bc 65b7 d43b
000001d0: cfb9 ba3c f078 abbb eefb 823d 7ecc e8ba
000001e0: b452 aabd f31d 99bd d512 40bd 5535 90bd
000001f0: e668 a8b9 9644 c6bc e4dd bb3d 6103 2bbe
00000200: ba56 7bbb e1cb 5bbd 7047 9d3d 32e6 52bb
00000210: de68 aebe 0869 e43d 3187 a2be 8d3e f2bc
00000220: 6f14 30bd 7518 a73d b4da e63b 13c6 0a3c
00000230: bbde f43c df80 db3c d072 78bf 2293 67bd
00000240: bc94 8dbc ef9f 64bd b7d2 bbbc ee9c 8e3d
00000250: 3034 07bd 2550 e93d 7000 203e 57fa 393d
00000260: ac3c ccbd c869 153b 4cd2 cf3b c321 ae3e
00000270: 99c0 0e3f 894c 37be c2d8 883d 7b9f 78bd
00000280: a979 a8be 2110 503b b64d 0fbc 0d5f 23bd
00000290: 740d 73bc cdcc dcbc 74b0 123d 3b32 0e3d
000002a0: 5366 86bc d3d3 2cbe 6c96 8bbd 38cc 08be
000002b0: f3ea d53a f05e cb3e 6048 633e ba7a 1d3d
000002c0: cfc0 063c e707 22bd f1c8 72bd 88ed 4fbd
000002d0: 7640 d53c 408f 27be fa8c 8abd 6210 773e
000002e0: adb7 2a3e 2434 a83e ddc6 93be 8b8e 02be
000002f0: f16a e83c 1f26 c0bc 16eb 013c c05f 283d
00000300: 57ab a53d 09ce 69bd 2b4c d5bc 8a70 e0bd
00000310: 0018 29bd dc85 f4bc 441e b6be 4c5e 003f
00000320: 5c68 03be 735d bf3c 51a0 153d 64d0 51bd
00000330: 018b 90bc 8a60 373d 2a4a 68bc e407 2e3e
00000340: 47b6 0dbe 3e24 2f3d af8b d03d 29e7 223f
00000350: 44fc e43e a8c5 173b 71ab 113d cd04 7c3c
00000360: 2ce6 8c3b 1c7f 78bc f919 e4bd 0ff0 763d
00000370: 01b1 e53d 4759 16be dcfe 253e 9357 203e
00000380: 861f a93d 035b 753e 50b2 06be f226 c1bd
00000390: e47e 253d 16a1 b33c 4006 873c 9917 6ebc
000003a0: 7d49 9e3c ab14 333e 9adf cfbd c732 7e3d
000003b0: 0efc 143e 0de5 06bd 2707 b63d a158 23be
000003c0: 33fd 873d 3008 3d3d 5dcf eb3d cdf8 513e
000003d0: 317c f5bc 84f5 cdbd 48cf d8be 33c0 16bd
000003e0: 597c 0cbd dfc8 c2bd c48f 04bd 9106 a4be
000003f0: c58f 953b 4692 053d 8b16 95bd 0682 1abd

bias f4 [32]
-0.68817735 -0.92914575 -0.8855795 -0.59582 -0.7507976 -0.63338727 -0.6907204 -0.15736406
-0.68748367 -0.039673597 -0.6607613 -0.55581695 -0.13352975 -0.086951375 -0.7022885 0.2055367
-0.7257327 -0.8208016 0.10412418 -0.9742099 -0.8102735 -0.87228394 0.010145082 0.2842847
-0.46529838 0.20842534 -0.26750728 -0.64830357 -0.20917824 -0.7872744 -0.029693954 -0.7965661
00000000: 642c 30bf 7fdc 6dbf 57b5 62bf a987 18bf
00000010: 4634 40bf ab25 22bf 0dd3 30bf 0b24 21be
00000020: eefe 2fbf c880 22bd a727 29bf 054a 0ebf
00000030: 06bc 08be 9013 b2bd 2ec9 33bf 3678 523e
00000040: 9ec9 39bf 0e20 52bf 0f3f d53d d265 79bf
00000050: 166e 4fbf 004e 5fbf 8f37 263c c48d 913e
00000060: 973b eebe 746d 553e b7f6 88be 39f7 25bf
00000070: d232 56be d18a 49bf bc40 f3bc c2eb 4bbf

weight f4 [32, 13]
0.07790747 -0.049563248 0.060184754 0.15695965 0.122346364 0.010610584 -0.1876475 -0.012505064
-0.15826505 -0.0016458912 0.0107087465 0.009474574 -0.7487955 -0.03421971 0.06962164 0.13540263
-0.032790896 0.26075378 0.01750076 -0.018784683 -0.023664102 0.04765664 -0.2222742 0.023590218
-0.13097055 0.18375748 0.20215073 -0.09128762 0.014926754 0.14346115 -0.23471144 -0.14619532
0.020543383 -0.24299316 -0.078541815 -0.010467438 -0.0009861813 -0.022337588 0.030094061 0.19594534
-0.10132959 -0.18932064 0.097477406 -0.020096086 0.15967856 0.029144151 0.00016967866 0.20178242
-0.0066861454 -0.049961355 -0.07198304 -0.08959154 0.00858721 0.027194334 -0.011524104 -0.0021121595
-0.029718228 -0.033409074 0.0033551557 0.018897776 0.006641104 0.0036550409 -0.0013447914 -0.28262186
0.01354433 0.20287338 -0.254986 0.28677502 0.53190106 0.014233646 -8.054085e-05 -0.016181383
0.042339858 -0.18423897 -0.03933619 -0.034619536 0.022604855 -0.09348178 -0.5196927 -0.04336571
-0.05304544 -0.020154158 -0.99724436 -0.07876936 0.0038478384 0.0055495175 -0.006011994 0.012141317
0.011048903 -0.02628351 0.019094592 0.14614289 0.4511238 -0.23036991 -0.030907469 0.4259567
-0.0021000567 -0.009212604 -0.018449426 0.009667628 0.08585758 0.21762758 0.04140594 -0.008704279
-0.05084249 0.1619029 -0.33126235 0.01198986 -0.106169514 0.014745033 0.0013222559 0.0329992
-0.011128356 0.032431897 0.019571979 -0.0006418914 -0.029170373 -0.010097318 -0.008117723 -0.0073362854
0.24969223 0.16552897 0.052413266 0.053755194 -0.047466673 0.17503272 0.004795448 -0.013117723
0.004412012 0.105640106 0.19647864 0.10568529 -0.15311842 -0.08222295 0.34432694 -0.006805001
0.0110988235 0.003887102 -0.04585442 0.010831705 -0.28625643 -0.1292711 -0.122259766 -0.054416385
-0.051378217 -0.07348253 0.114683986 0.13015226 0.02807368 0.093044475 -0.008008591 -0.028729297
0.009449261 -0.0109872045 0.010979073 -0.04000362 -0.9162442 -0.08201336 -0.0024900844 0.022656325
-0.19272918 -0.06449582 -0.002357887 -9.135557e-05 0.0031105592 -0.004436519 -0.0057905097 -0.008730185
0.030233745 0.10721179 0.095498145 0.010733067 0.089299485 0.094358705 -0.049610294 -0.054774173
0.077861086 -0.31675023 0.00066103647 0.051361375 0.0200936 0.169196 0.4715812 0.023204532
0.03222802 -0.023932654 -0.5154238 0.012517162 0.005449108 -0.19474848 0.10329104 -0.0022505405
-0.049255606 0.0053962874 -0.5069637 0.29036123 -0.072299056 0.05832392 -0.4094889 -0.049252447
0.074242264 0.053741504 0.19054465 0.09810095 0.007959059 0.10020243 -0.020724712 0.22837318
0.10336405 -0.3293411 0.11115285 0.02591956 0.71219516 -0.21858132 -0.006502359 -0.010034677
-0.0052417717 0.014004897 0.0029740052 0.0021953676 0.21348852 0.32755962 -0.29923296 -0.010049747
-0.001371342 0.02796543 -0.11055612 0.0041759703 0.010777181 -0.0056312303 -0.0051292195 -0.00741387
-0.020946993 -0.15273196 0.23229164 -0.07282471 0.15338588 0.07464505 0.36115453 0.01577621
-0.0852589 -0.002820112 -0.0782847 0.19274488 -0.004972901 -0.101007946 -0.4008242 0.012839715
-0.57000095 0.36403176 -0.3923568 -0.022653678 0.0011685061 0.085688904 -0.029187456 0.014473901
00000000: f48d 9f3d d502 4bbd 4a84 763d 08ba 203e
00000010: bb90 fa3d 04d8 2d3c ab26 40be 0ae2 4cbc
00000020: 3c10 22be f2ba d7ba bd73 2f3c 3e3b 1b3c
00000030: 10b1 3fbf f729 0cbd ca95 8e3d fda6 0a3e
00000040: bf4f 06bd 8581 853e c15d 8f3c 56e2 99bc
00000050: 38db c1bc 9c33 433d d99b 63be 4640 c13c
00000060: 251d 06be ec2a 3c3e 9a00 4f3e 01f5 babd
00000070: 588f 743c 7be7 123e 3258 70be 3ab4 15be
00000080: 994a a83c 33d3 78be 88da a0bd 9e7f 2bbc
00000090: c142 81ba 51fd b6bc d287 f63c e5a5 483e
000000a0: e385 cfbd 45dd 41be 3ca2 c73d 8ca0 a4bc
000000b0: c782 233e b7bf ee3c c5eb 3139 0da0 4e3e
000000c0: 7417 dbbb 47a4 4cbd d86b 93bd c57b b7bd
000000d0: 5fb1 0c3c a7c6 de3c 98cf 3cbc 286c 0abb
000000e0: a473 f3bc f4d7 08bd 2ce2 5b3b 82cf 9a3c
000000f0: 9e9d d93b 6989 6f3b b643 b0ba d0b3 90be
00000100: 0ae9 5d3c 0abe 4f3e 868d 82be 2dd4 923e
00000110: ab2a 083f 3d34 693c 0ae8 a8b8 d28e 84bc
00000120: 8f6c 2d3d 24a9 3cbe fc1e 21bd 37cd 0dbd
00000130: d12d b93c 6073 bfbd 950a 05bf 3ea0 31bd
00000140: 2d46 59bd 551a a5bc 684b 7fbf d551 a1bd
00000150: 042c 7c3b bad8 b53b 4300 c5bb 60ec 463c
00000160: 7506 353c 8450 d7bc 436c 9c3c 7ba6 153e
00000170: b3f9 e63e 17e6 6bbe a931 fdbc ff16 da3e
00000180: 1ba1 09bb 76f0 16bc 4023 97bc f964 1e3c
00000190: 19d6 af3d c4d9 5e3e 4699 293d 649c 0ebc
000001a0: 3740 50bd e0c9 253e 389b a9be 1e71 443c
000001b0: 676f d9bd 2795 713c 8c4f ad3a 2b2a 073d
000001c0: b553 36bc 4fd7 043d 6a55 a03c 9a44 28ba
000001d0: b5f6 eebc 396f 25bc 3300 05bc 3965 f0bb
000001e0: 52af 7f3e 6d80 293e 4baf 563d 682e 5c3d
000001f0: 6a6c 42bd c73b 333e 2223 9d3b b8eb 56bc
00000200: a492 903b d759 d83d b231 493e 8871 d83d
00000210: 13cb 1cbe 8264 a8bd 9f4b b03e 7cfc debb
00000220: d7d7 353c c0be 7e3b d8d1 3bbd 7777 313c
00000230: 3490 92be a55f 04be 5463 fabd b7e3 5ebd
00000240: f771 52bd 027e 96bd 70df ea3d a246 053e
00000250: c6fa e53c 1a8e be3d 7736 03bc b459 ebbc
00000260: 13d1 1a3c ad03 34bc 92e1 333c d6da 23bd
00000270: fb8e 6abf 9ff6 a7bd af30 23bb c299 b93c
00000280: cc5a 45be 6216 84bd c886 1abb 2696 bfb8
00000290: 86da 4b3b 3860 91bb 51be bdbb 0d09 0fbc
000002a0: c2ac f73c db91 db3d 8894 c33d bfd9 2f3c
000002b0: a6e2 b63d 233f c13d 2a34 4bbd e25a 60bd
000002c0: a275 9f3d 162d a2be 6849 2d3a 4e60 523d
000002d0: 559b a43c b741 2d3e 1773 f13e 6e17 be3c
000002e0: 8701 043d 6a0e c4bc d0f2 03bf c814 4d3c
000002f0: 6e8e b23b 256c 47be 418a d33d ce7d 13bb
00000300: 3fc0 49bd 57d3 b03b 5fc8 01bf 3aaa 943e
00000310: 8711 94bd 10e5 6e3d 87a8 d1be efbc 49bd
00000320: 540c 983d 0d20 5c3d 231e 433e 27e9 c83d
00000330: b766 023c ee36 cd3d dfc6 a9bc a9da 693e
00000340: 88b0 d33d 669f a8be 1ba4 e33d 4255 d43c
00000350: 6c52 363f c8d3 5fbe be11 d5bb 7c68 24bc
00000360: 2bc3 abbb cc74 653c 87e7 423b 28e0 0f3b
00000370: bc9c 5a3e e5b5 a73e 1035 99be b2a7 24bc
00000380: 9abe b3ba c217 e53c 3f6b e2bd 94d6 883b
00000390: c692 303c 2f86 b8bb 0313 a8bb 0df0 f2bb
000003a0: 0799 abbc c465 1cbe dcdd 6d3e 1f25 95bd
000003b0: 3011 1d3e 81df 983d 3fe9 b83e 1c3d 813c
000003c0: 389c aebd a1d1 38bb bb53 a0bd ea5e 453e
000003d0: b8f3 a2bb 41dd cebd d438 cdbe ab5d 523c
000003e0: 95eb 11bf 5f62 ba3e fee2 c8be 3594 b9bc
000003f0: 8f28 993a aa7d af3d 881a efbc f123 6d3c

bias f4 [32]
-0.60524356 0.4992909 -0.12295253 -0.5087376 0.26470146 0.010830476 0.056013938 0.38479134
1.341505 -0.040642593 0.1989908 0.03644203 -0.92684287 -0.49703145 0.62471795 0.17578654
-0.062701136 0.28775787 -0.10614937 -0.38188723 -0.81200606 0.4530877 -0.38684863 0.24429132
-0.4760268 0.059944376 -0.98253673 0.28376442 0.24550925 -0.73403394 -0.26596364 0.40079087
00000000: 3ef1 1abf 0fa3 ff3e 89ce fbbd a13c 02bf
00000010: f386 873e 4f72 313c df6e 653d 5f03 c53e
00000020: 70b6 ab3f d978 26bd 3fc4 4b3e 3d44 153d
00000030: 9345 6dbf e87a febe 84ed 1f3f 6301 343e
00000040: 7469 80bd 0055 933e d764 d9bd b986 c3be
00000050: a1df 4fbf 1cfb e73e 0611 c6be 8127 7a3e
00000060: c9b9 f3be 3c88 753d 8787 7bbf 9249 913e
00000070: c766 7b3e a6e9 3bbf 632c 88be 7634 cd3e

weight f4 [32, 64]
-0.18094985 -0.02160635 -0.35428056 0.10083243 0.5159283 -0.11919272 0.1738749 -0.09767363
-0.065171264 0.07859009 0.049740244 0.02483362 0.15594116 0.024988882 0.095167935 -0.0063108923
0.05295911 0.2883023 -0.35565162 -0.103518866 -0.12686259 -0.105070785 0.008152728 -0.1584894
0.2902193 0.1281365 0.073045015 -0.054228816 -0.021423165 0.17068759 0.01729149 0.25628927
0.22186457 0.20660274 0.11886727 0.007892879 -0.6107373 -0.1003754 -0.2192568 0.048747327
0.033074085 -0.0788305 -0.06114465 -0.13031772 -0.27938965 0.10510542 -0.12573974 -0.12583743
-0.029028421 -0.08174692 0.21217743 0.034764614 0.028295636 0.2048646 -0.06388233 -0.069594756
-0.4052378 -0.38958028 -0.13233584 -0.3090485 -0.07175848 -0.30022103 0.021453172 -0.08179619
-0.099846154 -0.16039248 -0.46031573 -0.33169743 -0.13307945 -0.1798982 -0.33576822 0.02089106
-0.07528099 0.23145579 -0.08271236 -0.42833224 -0.12579077 -0.13848193 0.04629575 0.06676969
-0.26108792 -0.14101014 0.38325056 -0.20587847 -0.6253235 -0.39104897 0.14082333 0.019679472
-0.095947295 -0.09255633 -0.20719467 0.028162867 -0.6136315 0.0037464444 -0.88907313 -0.3612306
0.050070833 -0.22776613 -0.10802254 0.059093785 0.023852563 0.029568145 -0.148483 -0.13890177
0.062399242 0.11174732 0.36265966 -0.30721608 -0.042740613 -0.31351805 -0.21421368 -0.003484556
-0.23019747 -0.18797423 -0.18019769 -0.16639757 -0.33248672 0.074337274 -0.042689405 -0.24361597
-0.172671 -0.24579331 0.1343021 -0.4368008 -0.31886262 -0.20989324 0.0046821707 0.15093729
0.14735845 0.10498005 -0.3157545 -0.1660628 -0.44907886 -0.028328197 -0.24238968 -0.075796805
0.04380049 -0.065743834 -0.7246732 -0.24624857 -0.16364306 0.018805077 -0.39630365 -0.28872582
-0.3272113 -0.46451554 -0.054754384 -0.3055565 -0.2604473 -0.23360872 -0.26573297 0.10742935
0.086615235 -0.022656206 -0.25215867 0.070661694 0.34958962 -0.15391496 -0.077290036 -0.18252824
-0.060555294 -0.029003374 -0.0011006432 0.398127 -0.21786053 0.03469139 0.15446043 -0.06487917
-0.38520566 0.06721111 -0.013530221 -0.28333494 0.1266296 0.16996656 0.24132986 -0.5443723
0.09240612 -0.3944654 -0.097108 -0.00040226043 -0.14401066 0.21653432 0.15418962 0.022144508
0.12426111 -0.096714176 0.1064879 -0.048006818 0.0008734666 -0.08332181 0.041132286 0.24905778
-0.18361697 0.2799027 -0.14761834 -0.21310647 0.28703937 0.034268405 -0.5608131 0.24498719
-0.26983696 -0.52719504 0.19983259 -0.051790494 0.20340708 0.09710829 -0.5495445 -0.29006028
-0.21944967 -0.11938957 -0.33052084 -0.32248023 0.3849663 -0.4143031 -0.60943156 -0.06784163
-0.4062881 -0.08655386 -0.72231174 -0.1792269 -0.2551742 -0.14771357 -0.66650295 -0.20949098
-0.033812933 -0.08096146 0.016377635 -0.13363151 -0.09114011 -0.3097991 0.3182416 -0.34218922
0.12248962 0.20401645 -0.12109054 0.04558533 -0.41845438 -0.17470375 0.55139166 0.25230718
-0.04227653 0.5507751 0.10562089 0.3420722 -0.1526079 0.32531735 -0.08471316 -0.059275392
0.46088356 0.17264454 0.4619836 0.15599008 0.025695017 0.3163466 0.3146001 0.16511711
00000000: eb4a 39be cdff b0bc 4364 b5be 3c81 ce3d
00000010: e113 043f 501b f4bd 430c 323e 1d09 c8bd
00000020: 8378 85bd d7f3 a03d 6dbc 4b3d e06f cb3c
00000030: 0aaf 1f3e 7cb5 cc3c 68e7 c23d 9acb cebb
00000040: a7eb 583d 5c9c 933e f817 b6be b301 d4bd
00000050: 44e8 01be 5a2f d7bd 0593 053c 0c4b 22be
00000060: a097 943e 3736 033e a098 953d 091f 5ebd
00000070: a27f afbc bac8 2e3e e2a6 8d3c 5938 833e
00000080: 7730 633e ab8f 533e af70 f33d 2251 013c
00000090: 4859 1cbf 9e91 cdbd db84 60be 47ab 473d
000000a0: b178 073d e371 a1bd d072 7abd 0272 05be
000000b0: 290c 8fbe 8341 d73d ebc1 00be 87db 00be
000000c0: 03cd edbc ee6a a7bd 0a45 593e 5765 0e3d
000000d0: 40cc e73c 07c8 513e bdd4 82bd b287 8ebd
000000e0: 547b cfbe 1177 c7be 0c83 07be 9b3b 9ebe
000000f0: 1cf6 92bd 92b6 99be 90be af3c c384 a7bd
00000100: 247c ccbd ed3d 24be 81ae ebbe 3fd4 a9be
00000110: fb45 08be 3c37 38be d0e9 abbe ba23 ab3c
00000120: eb2c 9abd bf02 6d3e 1965 a9bd 5d4e dbbe
00000130: 4ccf 00be 35ce 0dbe 9da0 3d3d 8cbe 883d
00000140: 51ad 85be f664 10be 6b39 c43e ced1 52be
00000150: 3315 20bf 9237 c8be fe33 103e d836 a13c
00000160: 0480 c4bd 2c8e bdbd d72a 54be d0b5 e63c
00000170: f416 1dbf e886 753b 4c9a 63bf 38f3 b8be
00000180: 1317 4d3d 863b 69be ec3a ddbd 530c 723d
00000190: 7366 c33c e538 f23c ed0b 18be 443c 0ebe
000001a0: 5996 7f3d c7db e43d 87ae b93e 6d4b 9dbe
000001b0: c810 2fbd 7085 a0be d55a 5bbe 265d 64bb
000001c0: e3b8 6bbe 517c 40be be85 38be 2064 2abe
000001d0: b33b aabe 243e 983d 16db 2ebd 7776 79be
000001e0: abd0 30be 3eb1 7bbe 7d86 093e 5ba4 dfbe
000001f0: f641 a3be 41ee 56be e56c 993b 4e8f 1a3e
00000200: 22e5 163e c8ff d63d 93aa a1be 5e0c 2abe
00000210: aaed e5be 8910 e8bc 0035 78be 5b3b 9bbd
00000220: 2568 333d b4a4 86bd 2f84 39bf 9628 7cbe
00000230: 0c92 27be 1b0d 9a3c 50e8 cabe dfd3 93be
00000240: 3d88 a7be fbd4 edbe 2246 60bd e771 9cbe
00000250: 5959 85be 2037 6fbe 270e 88be eb03 dc3d
00000260: 5463 b13d 8299 b9bc f11a 81be 14b7 903d
00000270: 69fd b23e e29b 1dbe 3d4a 9ebd afe8 3abe
00000280: d408 78bd 7c98 edbc 7543 90ba 4dd7 cb3e
00000290: d516 5fbe 8f18 0e3d e02a 1e3e 5fdf 84bd
000002a0: ad39 c5be faa5 893d dcad 5dbc 4711 91be
000002b0: 31ab 013e b70b 2e3e 2d1f 773e fc5b 0bbf
000002c0: 6b3f bd3d 5ef7 c9be 8fe0 c6bd 7be6 d2b9
000002d0: 8877 13be 2cbb 5d3e e2e3 1d3e 6668 b53c
000002e0: 9c7c fe3d 1512 c6bd 5416 da3d cca2 44bd
000002f0: 5af9 643a a0a4 aabd 547a 283d 0109 7f3e
00000300: 1606 3cbe 684f 8f3e 4329 17be 9538 5abe
00000310: d3f6 923e 075d 0c3d 7391 0fbf ecdd 7a3e
00000320: 1228 8abe 41f6 06bf eaa0 4c3e 4522 54bd
00000330: f249 503e b6e0 c63d f3ae 0cbf c882 94be
00000340: 6ab7 60be 8582 f4bd 073a a9be 211c a5be
00000350: 4e1a c53e 891f d4be b503 1cbf 8df0 8abd
00000360: fe04 d0be 2643 b1bd 6ce9 38bf 4287 37be
00000370: 31a6 82be 3a42 17be f09f 2abf ce84 56be
00000380: 6e7f 0abd 1fcf a5bd 642a 863c b3d6 08be
00000390: aaa7 babd fd9d 9ebe 90f0 a23e 6d33 afbe
000003a0: d6db fa3d b0e9 503e 51fe f7bd afb7 3a3d
000003b0: a73f d6be 8ae5 32be 0128 0d3f 682e 813e
000003c0: 282a 2dbd 99ff 0c3f c44f d83d 1624 af3e
000003d0: 3f45 1cbe ff8f a63e 187e adbd c1ca 72bd
000003e0: eef8 eb3e bbc9 303e 1d89 ec3e ddbb 1f3e
000003f0: 5b7e d23c 2ef8 a13e 4413 a13e 7614 293e

bias f4 [32]
-0.66533697 0.45577866 -0.12192545 -0.51550716 0.27382797 0.00026906386 0.02980571 0.38104528
1.293661 -0.06404132 0.19357692 0.041313298 -0.90458906 -0.48936194 0.62812495 0.17116192
-0.046369538 0.2824458 -0.12209275 -0.3805568 -0.7941475 0.4136362 -0.36547723 0.22300066
-0.5110757 0.025495155 -0.8920846 0.27372196 0.22566447 -0.72490835 -0.3474141 0.3789519
00000000: 8653 2abf d25b e93e 0db4 f9bd 47f8 03bf
00000010: 2e33 8c3e 2411 8d39 1b2b f43c 5e18 c33e
00000020: af96 a53f 1828 83bd 0739 463e 2238 293d
00000030: 2693 67bf a68d fabe cccc 203f 1245 2f3e
00000040: fced 3dbd bc9c 903e c40b fabd 57d8 c2be
00000050: 404d 4bbf 20c8 d33e d51f bbbe 495a 643e
00000060: dbd5 02bf 37db d03c a85f 64bf 4925 8c3e
00000070: 9614 673e 9893 39bf 43e0 b1be fc05 c23e

weight f4 [32, 32]
0.20880812 0.007838276 -0.083219975 -0.031938877 -0.4592834 0.03305789 0.0061483444 0.07506346
-0.04298815 0.042683356 0.27121168 -0.11593528 -0.03704185 0.16093346 -0.05498986 0.14324126
-0.14997452 -0.13735904 0.10182493 -0.11970724 0.041577555 -0.1273606 -0.1253868 0.21094576
-0.26325145 0.09183245 0.06840738 0.2560864 0.08657067 0.029459387 0.07589644 -0.114066824
0.11839682 -0.06554884 0.13818999 0.023908185 -0.043478437 0.08837046 -0.032212365 0.050683733
-0.38047415 -0.044485927 0.04715108 0.16797937 -0.01839326 0.012093305 -0.17347379 -0.022764277
0.10993659 0.0037414092 0.12116895 0.009152719 0.09735701 -0.07227814 0.09428891 0.12589003
-0.010775716 -0.086176 0.07399724 0.09717963 0.09591255 0.074701495 0.0077530565 0.011857827
0.010692517 -0.18306188 0.02866635 -0.14972791 0.016283605 -0.078841545 -0.0391458 -0.20555641
0.23502925 -0.12043944 -0.11530171 -0.09060872 -0.040191524 0.16842978 0.17354777 0.15098067
-0.43149614 -0.23804028 -0.008476022 -0.10461686 -0.31228584 -0.20813556 -0.08003408 0.24768966
-0.32407033 0.16230613 -0.38390002 0.22717252 0.07797858 0.022824401 0.083650365 -0.28030717
0.19263005 -0.0026936354 -0.06579555 -0.1580013 -0.08862735 0.023813395 -0.122202866 -0.2861268
-0.3345261 -0.19639382 0.27352065 0.17855744 -0.39960557 0.048175205 -0.20067248 0.047200408
-0.010881998 -0.1072426 0.17186745 -0.33477154 0.15616979 0.31840658 0.030836333 0.27744725
0.28423288 -0.2821546 0.0034276447 -0.0020270105 -0.020594805 0.05069042 0.07632041 -0.21383117
2.497399e-36 -9.347395e-27 -1.8640934e-34 -5.28929e-40 -4.59246e-40 -2.8411977e-20 3.780007e-39 1.69386e-39
-7.374529e-14 -6.60417e-40 1.383354e-35 6.44669e-40 -9.507942e-12 -2.3163e-40 -2.62469e-40 3.02716e-33
-9.3391e-41 -5.3633e-40 2.3539292e-35 5.71567e-40 5.87546e-40 3.87287e-40 -6.5150466e-34 -2.6456655e-20
-3.18183e-40 -1.20664e-40 -3.6596567e-27 -2.215e-41 -6.06736e-40 3.57878e-40 1.86751e-40 -4.5157886e-21
-0.05044295 -0.05689465 0.2033098 0.016797371 -0.006053258 -0.0008376729 -0.2959378 -0.0433714
0.21278009 0.039956912 -0.26363963 0.1310591 -0.23561627 -0.46554697 0.18378004 -0.026923342
0.11126645 0.088257216 -0.15285076 -0.16064496 -0.16459097 0.07448788 -0.28646648 0.06225911
0.02766488 0.28495237 -0.017259272 0.14381549 0.18902348 -0.016351923 0.0033716813 -0.16120239
0.03114568 0.003936208 0.18962699 0.07200079 -0.117648534 0.14377873 0.059341006 0.2348991
0.21330225 -0.0017883688 0.14318833 -0.10770864 0.064869165 0.085137196 0.11679273 0.28293225
-0.08097533 0.2026396 -0.11058265 -0.1691334 -0.17396788 -0.016995456 0.20712873 -0.14333254
0.068696536 -0.28396383 -0.046748146 -0.06981882 -0.013722741 0.07014848 0.19728447 0.0025053078
0.15359014 -0.031754848 -0.23998854 0.20353614 -0.30092314 0.099027015 0.13013482 0.14156039
-0.20376563 0.1859911 -0.34977055 -0.020815 -0.11989938 0.22703852 -0.08202406 -0.3309316
-0.5630022 0.32063305 0.09029035 0.13064158 0.041256614 0.16405238 0.27198502 0.15745091
-0.15121502 0.23608914 0.058121517 0.20006174 0.07742695 0.40630546 0.1646953 0.029177863
00000000: ccd1 553e 1d6c 003c 3c6f aabd 57d2 02bd
00000010: 3227 ebbe b667 073d 0d78 c93b dfba 993d
00000020: 5814 30bd bed4 2e3d 42dc 8a3e 7a6f edbd
00000030: 32b9 17bd becb 243e 0c3d 61bd d6ad 123e
00000040: ec92 19be d9a7 0cbe 9789 d03d 1229 f5bd
00000050: 3a4d 2a3d d16a 02be 6665 00be 2a02 583e
00000060: e5c8 86be a712 bc3d 2b19 8c3d c21d 833e
00000070: f74b b13d d054 f13c 986f 9b3d de9b e9bd
00000080: 087a f23d 783e 86bd ad81 0d3e 19db c33c
00000090: 7216 32bd 92fb b43d 1df1 03bd bf99 4f3d
000000a0: 82cd c2be e036 36bd 7e21 413d c902 2c3e
000000b0: 76ad 96bc ff22 463c 1da3 31be 267c babc
000000c0: 6f26 e13d 6e32 753b 6d27 f83d 49f5 153c
000000d0: 1d63 c73d 9006 94bd 8b1a c13d 51e9 003e
000000e0: a18c 30bc 0b7d b0bd dd8b 973d 1d06 c73d
000000f0: cd6d c43d 19fd 983d 5a0d fe3b 5547 423c
00000100: ab2f 2f3c 9374 3bbe b1d5 ea3c 4652 19be
00000110: 3265 853c ad77 a1bd 5957 20bd 617d 52be
00000120: 82ab 703e f4a8 f6bd 4e23 ecbd 1191 b9bd
00000130: de9f 24bd db78 2c3e 82b6 313e ad9a 1a3e
00000140: 10ed dcbe d5c0 73be 03df 0abc 5d41 d6bd
00000150: eee3 9fbe 7d21 55be e8e8 a3bd 5ca2 7d3e
00000160: 8cec a5be 9433 263e 8b8e c4be ea9f 683e
00000170: 3cb3 9f3d 3dfa ba3c e250 ab3d 6c84 8fbe
00000180: d040 453e b487 30bb d1bf 86bd 18cb 21be
00000190: 4282 b5bd 4f14 c33c 7f45 fabd 367f 92be
000001a0: 0147 abbe 761b 49be e60a 8c3e c3d7 363e
000001b0: 1a99 ccbe 5d53 453d 167d 4dbe 3755 413d
000001c0: 684a 32bc 02a2 dbbd 05fe 2f3e 2d67 abbe
000001d0: f9ea 1f3e 3006 a33e 7a9c fc3c 910d 8e3e
000001e0: f986 913e 9176 90be 56a2 603b 98d7 04bb
000001f0: 70b6 a8bc c2a0 4f3d e04d 9c3d 8ff6 5abe
00000200: 8974 5404 ec24 3994 d0c7 7787 70c2 0580
00000210: 3100 0580 f92b 069f 1f29 2900 cb71 1200
00000220: 440f a6a9 f930 0780 7a1a 9305 1305 0700
00000230: f743 27ad b185 0280 a8db 0280 937c 7b09
00000240: 5604 0180 12d7 0580 0c50 fa05 4c39 0600
00000250: d765 0600 9937 0400 e37f 5888 44e0 f99e
00000260: f776 0380 5d50 0180 54f9 9093 bf3d 0080
00000270: 559b 0680 9ee5 0300 9608 0200 079a aa9d
00000280: 449d 4ebd 5d0a 69bd 7230 503e a49a 893c
00000290: 695a c6bb 4797 5bba 2985 97be 36a6 31bd
000002a0: 06e3 593e dca9 233d c6fb 86be 5b34 063e
000002b0: 6445 71be 2c5c eebe d630 3c3e 578e dcbc
000002c0: aadf e33d 33c0 b43d e984 1cbe 1d80 24be
000002d0: 898a 28be 1a8d 983d bcab 92be 6903 7f3d
000002e0: 75a1 e23c 47e5 913e 5163 8dbc 5e44 133e
000002f0: 5f8f 413e 78f4 85bc 6df7 5c3b 3d12 25be
00000300: 3a25 ff3c 4efb 803b 942d 423e 2675 933d
00000310: b7f1 f0bd bb3a 133e 8e0f 733d 6489 703e
00000320: e86b 5a3e b367 eaba f69f 123e 5996 dcbd
00000330: 20da 843d 695c ae3d 0731 ef3d 7fdc 903e
00000340: 65d6 a5bd c180 4f3e 2879 e2bd 4e31 2dbe
00000350: a324 32be 0e3a 8bbc 8e19 543e c4c5 12be
00000360: c5b0 8c3d b563 91be fc7a 3fbd 2bfd 8ebd
00000370: 59d5 60bc 02aa 8f3d f104 4a3e 1730 243b
00000380: bc46 1d3e 5f11 02bd 8ebf 75be c76b 503e
00000390: 9912 9abe adce ca3d 1042 053e 35f5 103e
000003a0: f0a7 50be 7374 3e3e 2015 b3be 3884 aabc
000003b0: ce8d f5bd c97c 683e 3bfc a7bd de6f a9be
000003c0: ea20 10bf 042a a43e 26ea b83d e8c6 053e
000003d0: b2fc 283d 59fd 273e 9f41 8b3e d03a 213e
000003e0: 1cd8 1abe 5ac1 713e d410 6e3d fcdc 4c3e
000003f0: 0592 9e3d 4507 d03e e2a5 283e 6a06 ef3c

bias f4 [32]
0.21380226 0.57303166 0.62886554 0.08790586 -6.18784e-40 -0.091433115 0.018625062 -0.049171258
-0.00805968 0.8569991 0.2343785 1.0790069 -0.08769458 0.27397832 1.5750346 -0.06649891
0.58767015 0.42866763 -0.003070702 1.3954527 0.14023899 0.18165094 -0.061769314 0.77007973
0.07238848 0.09717713 0.046129413 0.5088324 0.1310359 -0.08667419 0.20462614 0.089222334
00000000: fbee 5a3e 34b2 123f 55fd 203f fd07 b43d
00000010: ebbc 0680 4941 bbbd 9693 983c cd67 49bd
00000020: c00c 04bc 4b64 5b3f eb00 703e e61c 8a3f
00000030: 3799 b3bd e346 8c3e bc9a c93f 9530 88bd
00000040: 8d71 163f 537a db3e d53d 49bb 329e b23f
00000050: cf9a 0f3e b402 3a3e d201 7dbd f223 453f
00000060: 6940 943d ce04 c73d 32f2 3c3d d742 023f
00000070: 462e 063e 3d82 b1bd 8489 513e 33ba b63d

weight f4 [32, 32]
0.20699573 0.04173991 -0.021528063 -0.08408245 0.11028797 -0.47866073 -0.8939743 -0.41618395
-0.05148609 -0.0054270397 0.18391457 -0.12896186 -0.10740433 0.35874626 0.24178714 0.113786064
-0.7258382 0.16848576 -0.2065319 -0.38437366 0.05050192 -0.17684728 -0.089580484 0.23550092
0.14923331 -0.7222006 -0.14592944 -0.18083912 0.1332583 -0.07910933 0.49951637 0.3881469
0.240245 -0.07767217 0.021981498 0.50077283 0.15936136 0.10963482 -0.54290915 -0.20433468
0.30877393 -0.019211201 -0.2083044 0.08832016 0.1470912 0.48926502 0.69346046 0.29216674
-0.46035162 -0.24809119 0.045081686 0.1249643 0.14975196 -0.6931003 -0.06821301 -0.33224705
0.07834475 0.27784285 0.23001373 0.109086774 0.20649953 0.21620029 0.36651132 -0.518327
0.109390505 0.038152285 -0.36948147 -0.058344424 -0.4937065 0.027942484 0.11102101 0.0051269904
0.43021363 -0.02417291 0.116402 0.05185305 -0.39091238 -0.5024508 0.097197175 0.42594805
0.16971597 0.06429309 0.34799725 0.18330538 -0.32662988 -0.15931898 -0.505458 -0.08513738
-0.46849847 0.23533009 -0.094686635 0.008403402 0.15079081 0.09142921 0.13032997 0.23577537
-0.11602225 -0.27006865 0.13375227 -0.021945484 0.06643086 -0.26583415 -0.40374357 0.100669466
-0.4264622 0.04376313 0.16836816 -0.29073262 -0.11721445 -0.20514262 -0.11327042 -0.1916299
-0.09878428 0.09045275 -0.13211468 -0.031797662 0.030782165 -0.046062518 -0.05164177 0.1313176
-0.15531707 0.18497519 -0.022260848 -0.05875104 0.042242933 -0.14117227 0.07110112 0.107423574
-4.2785794e-20 -3.22533e-40 7.45761e-40 -1.821669e-28 3.7387e-40 6.94348e-40 -2.7701e-40 -1.7898826e-33
-9.255618e-15 -7.613248e-27 4.1198e-40 4.7836972e-35 -2.735868e-13 -1.3871298e-26 -3.8436114e-31 3.87928e-40
3.2313e-41 -7.0358e-41 4.66187e-40 -4.1892472e-20 -6.118686e-07 6.52866e-40 -6.747332e-32 -3.62579e-40
-3.5855696e-24 -2.6510136e-22 -9.838152e-06 4.59753e-40 -6.6204794e-16 -4.3880397e-10 -3.7270843e-18 4.69892e-40
-0.17362687 0.44272214 0.18909638 -0.2686633 0.10585969 0.3136104 -0.12662403 -0.09593102
-0.44269896 0.1031742 -0.043829255 0.23341496 -0.21484482 -0.18611944 0.17619072 0.20028864
0.088523775 -0.013973834 0.16598435 -0.65093523 0.048641436 0.340663 0.17703629 0.06941389
-0.05044294 0.11163522 -0.057625476 0.0032833626 0.13838683 -0.037273403 -0.09874329 0.4157555
-0.1644691 0.28379983 0.111913115 0.12583157 0.020928806 -0.09303836 -0.6594393 -0.019201595
-0.16570146 -0.22123294 -0.062628046 -0.1432994 -0.20084615 0.10476308 0.05961509 0.10207461
-0.309637 0.12223784 -0.03295592 0.1710155 -0.12693195 -0.30181244 0.091621906 0.15437543
0.038631964 -0.1345085 -0.1454574 0.20478806 -0.15953428 -0.4594446 -0.12920034 -0.112263486
-0.37845865 0.18682235 0.03655112 -0.19184493 0.13823904 -0.17153023 -0.090215325 0.24689484
-0.21901232 -0.15088579 0.003638274 -0.23279163 0.13619962 -0.1903039 -0.35265 0.11337494
0.10338779 -0.08454831 0.019961966 -0.737445 -0.16628218 0.31063527 0.15344939 0.064398125
0.19354315 -0.0020015845 -0.3365269 0.048833307 -0.041464236 -0.6175329 -0.60870624 0.21086095
00000000: b0f6 533e 78f7 2a3d 9f5b b0bc 6b33 acbd
00000010: a9de e13d 0513 f5be 80db 64bf 1016 d5be
00000020: 14e3 52bd 4fd5 b1bb 1a54 3c3e 940e 04be
00000030: cdf6 dbbd 97ad b73e 0c97 773e ab08 e93d
00000040: 88d0 39bf 8887 2c3e 197d 53be a0cc c4be
00000050: 1adb 4e3d 7417 35be f975 b7bd 2727 713e
00000060: 9ed0 183e 23e2 38bf 876e 15be e42d 39be
00000070: dd74 083e 1304 a2bd 9cc0 ff3e 31bb c63e
00000080: c902 763e 9612 9fbd 8b12 b43c a632 003f
00000090: a02f 233e 3888 e03d 18fc 0abf 1c3d 51be
000000a0: 9e17 9e3e cf60 9dbc c04d 55be 33e1 b43d
000000b0: 139f 163e f280 fa3e a086 313f e196 953e
000000c0: 35b3 ebbe 9e0b 7ebe 93a7 383d 48ed ff3d
000000d0: 9458 193e 056f 31bf 43b3 8bbd 491c aabe
000000e0: 3673 a03d 6b41 8e3e b888 6b3e e368 df3d
000000f0: 9d74 533e 9c63 5d3e 5fa7 bb3e 14b1 04bf
00000100: 2108 e03d 9245 1c3d ad2c bdbe 90fa 6ebd
00000110: 19c7 fcbe a3e7 e43c fc5e e33d 5000 a83b
00000120: f644 dc3e 4406 c6bc 2c64 ee3d dd63 543d
00000130: ab25 c8be 9ea0 00bf 500f c73d dd15 da3e
00000140: 06ca 2d3e 18ac 833d b22c b23e 68b4 3b3e
00000150: 083c a7be 8424 23be b265 01bf 825c aebd
00000160: 08df efbe 5ffa 703e 11eb c1bd 6cae 093c
00000170: e868 1a3e 3d3f bb3d 3875 053e 196f 713e
00000180: 139d edbd 7046 8abe 5bf6 083e 04c7 b3bc
00000190: e70c 883d 6a1b 88be 7ab7 cebe cb2b ce3d
000001a0: 4159 dabe f840 333d b468 2c3e e8da 94be
000001b0: 210e f0bd e810 52be 52fa e7bd a13a 44be
000001c0: 6a4f cabd 4b3f b93d 1249 07be 443e 02bd
000001d0: e12a fc3c 0dac 3cbd 5286 53bd 1f78 063e
000001e0: 700b 1fbe 236a 3d3e 625c b6bc eea4 70bd
000001f0: ed06 2d3d 778f 10be 779d 913d e400 dc3d
00000200: da0c 4a9f 1783 0380 e11e 0800 8aec 6691
00000210: 3312 0400 8f8f 0700 3104 0380 98b2 1489
00000220: 01bc 26a8 c1cb 1694 6f7c 0400 5058 7e06
00000230: 0304 9aaa eb5f 8994 f376 f98c 6339 0400
00000240: 135a 0000 21c4 0080 8a13 0500 e4d4 459f
00000250: 4a3f 24b5 ed1b 0700 b72b af8b b9f2 0380
00000260: c3b5 8a98 733e a09b 8b0e 25b7 9b01 0500
00000270: 84d2 3ea6 2b3c f1af 5181 89a2 de1d 0500
00000280: 3ecb 31be 7aac e23e 7ba2 413e 3c8e 89be
00000290: f7cc d83d 8b91 a03e bba9 01be 7c77 c4bd
000002a0: 70a9 e2be ff4c d33d 4e86 33bd 5504 6f3e
000002b0: 4800 5cbe 1896 3ebe 576b 343e 7718 4d3e
000002c0: f44b b53d 82f2 64bc cdf7 293e b1a3 26bf
000002d0: 3e3c 473d 616b ae3e 0049 353e df28 8e3d
000002e0: 429d 4ebd 02a1 e43d b108 6cbd af2d 573b
000002f0: 47b5 0d3e ffab 18bd ec39 cabd e8dd d43e
00000300: 966a 28be 364e 913e b432 e53d fed9 003e
00000310: e372 ab3c e58a bebd 04d1 28bf aa4c 9dbc
00000320: a5ad 29be e38a 62be 2243 80bd 14bd 12be
00000330: 9daa 4dbe 078e d63d f42e 743d 7e0c d13d
00000340: be88 9ebe d557 fa3d c9fc 06bd b01e 2f3e
00000350: 73fa 01be 2987 9abe 44a4 bb3d 9814 1e3e
00000360: 8d3c 1e3d 99bc 09be c9f2 14be f6b3 513e
00000370: f45c 23be 533c ebbe 184d 04be 66ea e5bd
00000380: 55c5 c1be 5c4e 3f3e a1b6 153d ff72 44be
00000390: 898e 0d3e 9fa5 2fbe d0c2 b8bd 00d2 7c3e
000003a0: c444 60be ce81 1abe 1c70 6e3b ee60 6ebe
000003b0: ea77 0b3e 07df 42be 8a8e b4be 1f31 e83d
000003c0: fabc d33d aa27 adbd 4787 a33c 32c9 3cbf
000003d0: e045 2abe 960b 9f3e d621 1d3e 2ae3 833d
000003e0: 2d30 463e 042d 03bb 414d acbe 6f05 483d
000003f0: 67d6 29bd a316 1ebf 2cd4 1bbf efeb 573e

bias f4 [32]
0.1886332 0.5253508 0.66435814 0.08374304 8.54372e-40 -0.09058488 0.012280863 -0.016506398
-0.005726146 0.8784524 0.22922556 1.2417617 -0.09037728 0.28065193 1.5250638 -0.06684698
0.5957229 0.4316864 -0.0016801095 1.3909916 0.14305863 0.18539697 -0.06122812 0.7940641
0.069100276 0.1004126 0.06864153 0.49019322 0.13607703 -0.08877812 0.20820883 0.16158739
00000000: 1029 413e 647d 063f 6013 2a3f 7981 ab3d
00000010: a44d 0900 9184 b9bd ac35 493c 6d38 87bc
00000020: 65a2 bbbb 42e2 603f 1bba 6a3e 0cf2 9e3f
00000030: b917 b9bd 9cb1 8f3e 4a35 c33f 12e7 88bd
00000040: 4c81 183f 0006 dd3e 1f37 dcba 030c b23f
00000050: f67d 123e b4d8 3d3e 56ca 7abd c947 4b3f
00000060: 7284 8d3d 1fa5 cd3d ee93 8c3d 9bfa fa3e
00000070: c757 0b3e 4ed1 b5bd b234 553e 2a77 253e

weight f4 [32, 32]
-0.18058738 -0.060210228 0.034521803 -0.037411157 -0.023952838 0.08537005 -0.010754178 -0.049918894
0.0114112245 0.008344542 0.00099439 0.054744642 -0.09684406 -0.040951706 -0.021886762 -0.013988765
-0.022123283 -0.08312194 0.13017195 0.06655808 -0.06864382 -0.11456024 -0.055297717 -0.05552238
-0.045237932 0.0056292666 -0.08259127 0.11511689 -0.014992927 -0.060658216 -0.055713654 -0.06569492
-0.08441875 0.04919493 -0.0011817024 -0.029223256 0.020009536 -0.06483897 0.09955477 0.017095229
-0.16666135 -0.08069366 -0.04526879 -0.03340877 -0.367753 -0.063896984 0.022737786 -0.018455494
-0.11349954 -0.06378398 -0.0010846942 -0.051744185 -0.15515935 0.045797747 0.045725495 0.10691596
-0.044818133 0.08156747 -0.044094596 0.057899877 -0.23255992 0.054050542 -0.025540553 0.11458173
-0.1799592 -0.070753686 -0.066987544 -0.05169526 0.050574973 -0.06700044 0.11575856 0.12335069
0.18540134 -0.199297 -0.035198543 -0.13883804 -0.04516871 -0.08633312 0.07848971 -0.024979092
-0.051145133 -0.13997963 -0.15461786 -0.07755041 0.00031811997 0.08146541 -0.03186531 -0.14125681
-0.17743893 -0.005300714 -0.04141758 -0.028977942 -0.20811343 -0.07384247 -0.18458486 -0.024489336
-0.029245334 -0.027674438 -0.07864583 0.021174544 -0.07670089 -0.047348153 -0.01013297 -0.0017793542
-0.112417966 0.023075927 -0.045160364 0.009314345 -0.07535918 0.048187032 -0.005679964 0.021553082
-0.081181474 -0.0702384 -0.012073605 -0.065833144 -0.07069796 -0.0064630834 0.012731265 -0.031165598
0.010883481 -0.04996533 -0.070516646 0.00062606443 -0.027210189 -0.054769345 -0.07032445 -0.07210192
0.018229146 -0.019868681 0.011938067 -0.05490899 0.010074922 -0.043966282 -0.0074087237 -0.009719172
0.04177227 0.009984252 -0.013470946 0.09021158 -0.081402324 -0.09178648 -0.006396074 -0.0022416187
-0.040108565 0.07272374 0.011593528 -0.035816167 0.057393998 -0.010653167 0.007194006 -0.033381
0.005518488 -0.012377305 -0.006256543 0.03469218 0.012706395 0.010148918 0.01140814 -0.044187393
-0.012707128 -0.015866458 -0.0015390083 -0.043899912 -0.0023186204 0.06380147 0.0012959607 0.01889589
-0.016896913 -0.024107331 -0.045977335 -0.13712907 0.0526287 -0.049884047 0.009128518 -0.008635115
-0.06690189 0.2630896 0.0051448215 -0.01836654 0.0005357491 -0.018349202 0.007722469 -0.10671351
-0.027750064 0.039799377 -0.06689834 0.042330764 0.0035717404 0.0019456934 0.030529981 -0.02934266
0.027305277 0.08952205 -0.089641675 -0.24438882 -0.2840787 -0.049397644 0.06346053 -0.080125846
0.059671074 0.04861261 -0.03665808 -0.08959203 -0.0845762 -0.015825393 -0.020601569 -0.038933974
0.10410567 -0.06909804 0.072611906 0.023592608 -0.047565855 -0.16241093 -0.00011482322 -0.13989095
0.060826376 0.13761222 -0.025460627 -0.13570338 -0.1778209 0.013122361 -0.08772203 -0.1510345
-0.013196251 0.0029317949 -0.012710974 -0.08339715 0.11611822 -0.0062588276 -0.017099865 -0.04669925
-0.10880603 -0.11618707 -0.02535181 -0.018852966 -0.015589303 -0.15702423 0.031968653 -0.05899064
0.022020387 -0.01410029 0.0011484518 -0.10037513 -0.06333219 -0.044573814 -0.07056683 0.0037877988
-0.043595802 -0.019149669 -0.14170028 0.023381181 -0.032137208 0.005511711 0.11233575 -0.031881034
00000000: e6eb 38be 009f 76bd bc66 0d3d 713c 19bd
00000010: be38 c4bc 7ed6 ae3d 4b32 30bc c177 4cbd
00000020: 25f6 3a3c 8cb7 083c 3156 823a eb3b 603d
00000030: 2e56 c6bd fabc 27bd de4b b3bc 2231 65bc
00000040: e33b b5bc d63b aabd cc4b 053e 9a4f 883d
00000050: 2295 8cbd 8f9e eabd dc7f 62bd 6f6b 63bd
00000060: 694b 39bd b675 b83b 9d25 a9bd 67c2 eb3d
00000070: e5a4 75bc c074 78bd 0034 64bd 0f8b 86bd
00000080: bde3 acbd 9f80 493d 5ae3 9aba 9c65 efbc
00000090: 0aeb a33c 4bca 84bd 5fe3 cb3d 4b0b 8c3c
000000a0: 46a9 2abe b842 a5bd c46b 39bd a2d7 08bd
000000b0: 1f4a bcbe 6cdc 82bd 9844 ba3c fa2f 97bc
000000c0: 7272 e8bd 2da1 82bd 4c2c 8eba b6f1 53bd
000000d0: 18e2 1ebe 6b96 3b3d a84a 3b3d c1f6 da3d
000000e0: 3893 37bd d90c a73d 899c 34bd 6c28 6d3d
000000f0: 3024 6ebe 1a64 5d3d 6c3a d1bc d3a9 ea3d
00000100: 3947 38be 4fe7 90bd c430 89bd 69be 53bd
00000110: b427 4f3d 8737 89bd d312 ed3d 499f fc3d
00000120: d9d9 3d3e 8314 4cbe 592c 10bd 8f2b 0ebe
00000130: d302 39bd 6bcf b0bd 37bf a03d f4a0 ccbc
00000140: 8f7d 51bd d256 0fbe 2554 1ebe c0d2 9ebd
00000150: 57c9 a639 56d7 a63d 3385 02bd a0a5 10be
00000160: 8db2 35be 9db1 adbb 7ba5 29bd 2663 edbc
00000170: b01b 55be b93a 97bd d003 3dbe dc9d c8bc
00000180: e993 efbc 81b5 e2bc 1111 a1bd 3d76 ad3c
00000190: 5b15 9dbd 23f0 41bd c204 26bc 3839 e9ba
000001a0: 643b e6bd ba09 bd3c 13fa 38bd 329b 183c
000001b0: ea55 9abd c45f 453d fe1e babb 1790 b03c
000001c0: 7942 a6bd 26d9 8fbd 5fd0 45bc 87d3 86bd
000001d0: 18ca 90bd 46c8 d3bb cc96 503c ff4e ffbc
000001e0: a150 323c 72a8 4cbd 086b 90bd 791e 243a
000001f0: e7e7 debc d255 60bd 4406 90bd 2caa 93bd
00000200: 4a55 953c a5c3 a2bc e297 433c 40e8 60bd
00000210: 4911 253c fd15 34bd e1c4 f2bb 293d 1fbc
00000220: 6619 2b3d fd94 233c 3eb5 5cbc d9c0 b83d
00000230: 43b6 a6bd 8dfa bbbd 2896 d1bb 1fe8 12bb
00000240: e148 24bd 2ff0 943d c8f2 3d3c f9b3 12bd
00000250: f815 6b3d 9f8a 2ebc b2bb eb3b 84ba 08bd
00000260: 6fd4 b43b 2eca 4abc b003 cdbb 6319 0e3d
00000270: 7c2e 503c a647 263c 35e9 3a3c d7fd 34bd
00000280: 8f31 50bc 60fa 81bc 8db8 c9ba 65d0 33bd
00000290: fff3 17bb 58aa 823d 3add a93a 8ecb 9a3c
000002a0: 656b 8abc bd7c c5bc bb52 3cbd 906b 0cbe
000002b0: 3191 573d 3753 4cbd c88f 153c 4c7a 0dbc
000002c0: dc03 89bd aeb3 863e e495 a83b 6d75 96bc
000002d0: 8371 0c3a 1151 96bc c40c fd3b 9d8c dabd
000002e0: 1a54 e3bc ac04 233d ff01 89bd 0663 2d3d
000002f0: dc13 6a3b a306 ff3a 031a fa3c 0560 f0bc
00000300: 51af df3c 5657 b73d 0e96 b7bd 1041 7abe
00000310: c372 91be 2f55 4abd 98f7 813d 0519 a4bd
00000320: a869 743d 041e 473d c826 16bd 077c b7bd
00000330: 4936 adbd 41a4 81bc 9fc4 a8bc 3b79 1fbd
00000340: 5a35 d53d 4683 8dbd 8db5 943d 4945 c13c
00000350: 6ad4 42bd 0d4f 26be 3fcd f0b8 933f 0fbe
00000360: 1425 793d 38ea 0c3e ce92 d0bc d4f5 0abe
00000370: af16 36be 2cff 563c 9ca7 b3bd caa8 1abe
00000380: 1735 58bc 5b23 403b b041 50bc 20cc aabd
00000390: 64cf ed3d da16 cdbb 0415 8cbc b647 3fbd
000003a0: b2d5 debd 7df3 edbd 99ae cfbc 8971 9abc
000003b0: 476a 7fbc f6ca 20be 90f1 023d 2ba0 71bd
000003c0: 1964 b43c e704 67bc a687 963a 7a91 cdbd
000003d0: 4fb4 81bd 0893 36bd 5885 90bd b83c 783b
000003e0: 8391 32bd c4df 9cbc e119 11be e489 bf3c
000003f0: 4ea2 03bd 959b b43b 4910 e63d b095 02bd

bias f4 [32]
-0.018818216 -0.0411136 -0.02306352 0.02168664 -0.29423204 -0.39620617 0.20301464 -0.0043835538
-0.008535471 0.07696072 -0.02662508 -0.031709276 -1.9203005e-06 -0.13743582 0.032187317 0.9982846
-0.00023927863 1.8490338 -0.0005114407 1.4385512 0.3408362 -0.0061719925 -0.006450767 0.0402936
8.222272e-07 1.6822176 -0.26189804 -0.05821197 0.0010972786 -0.0030603046 -0.15113808 -0.1312765
00000000: a928 9abc bc66 28bd b5ef bcbc 2ea8 b13c
00000010: 95a5 96be 89db cabe 12e3 4f3e eaa3 8fbb
00000020: 5cd8 0bbc 959d 9d3d d71c dabc 96e1 01bd
00000030: 83de 00b6 fabb 0cbe d9d6 033d 948f 7f3f
00000040: dee6 7ab9 24ad ec3f 3412 06ba 7222 b83f
00000050: 1582 ae3e 6d3e cabb f560 d3bb e70a 253d
00000060: 06b7 5c35 e852 d73f 8017 86be ad6f 6ebd
00000070: 8fd2 8f3a 648f 48bb f1c3 1abe 596d 06be
