train_script/weights/GCNEdgeBased_model300new/211.pth (torch, 46367 bytes, 17 tensors)

weight f4 [32, 13]
0	0x00058777	5.07773e-40
1	0x00008542	4.7804e-41
2	0x0001ab9f	1.53402e-40
3	0x8012d883	-1.730709e-39
4	0x000493a8	4.20311e-40
5	0x800d13d6	-1.200977e-39
6	0x80027e68	-2.29017e-40
7	0x001058e3	1.501254e-39
8	0x000f0a51	1.381233e-39
9	0x8000c9c5	-7.2381e-41
10	0x800f3b20	-1.398742e-39
11	0x0008ace5	7.96707e-40
12	0x000bdd05	1.089477e-39
13	0x8000e548	-8.225e-41
14	0x0004ac39	4.29124e-40
15	0x8004cb71	-4.40323e-40
16	0x000b14a4	1.017595e-39
17	0x0004eda1	4.52587e-40
18	0x000bf31a	1.097399e-39
19	0x00073ee7	6.65414e-40
20	0x00130b50	1.748933e-39
21	0x000fca29	1.450054e-39
22	0x000da6d9	1.253715e-39
23	0x80038a16	-3.25042e-40
24	0x0002983b	2.38281e-40
25	0x8007cef8	-7.17095e-40
26	0x0003071d	2.78058e-40
27	0x0008e437	8.16552e-40
28	0x0013c195	1.814319e-39
29	0x00150be2	1.932808e-39
30	0x800c8c80	-1.152428e-39
31	0x000a58a4	9.50153e-40
32	0x00022e61	2.00309e-40
33	0x80103709	-1.489111e-39
34	0x00003865	2.023e-41
35	0x800b9757	-1.064481e-39
36	0x0002ed84	2.68876e-40
37	0x8009f9e9	-9.1617e-40
38	0x000831ea	7.5259e-40
39	0x80037e05	-3.20714e-40
40	0x800c2d8c	-1.118365e-39
41	0x00147baa	1.881072e-39
42	0x800d1119	-1.199995e-39
43	0x00122e30	1.669608e-39
44	0x800e9728	-1.339922e-39
45	0x800e9380	-1.33861e-39
46	0x000a28d1	9.32997e-40
47	0x8000271a	-1.4027e-41
48	0x0006ae73	6.13594e-40
49	0x00077a86	6.86802e-40
50	0x8004c966	-4.3959e-40
51	0x800ad5c9	-9.95047e-40
52	0x00048d6b	4.18073e-40
53	0x800e4c50	-1.313073e-39
54	0x000f6a07	1.415568e-39
55	0x80031608	-2.8341e-40
56	0x8005327d	-4.77289e-40
57	0x800281f7	-2.30294e-40
58	0x800e3e1c	-1.307978e-39
59	0x80145693	-1.867767e-39
60	0x000f132d	1.384411e-39
61	0x80061873	-5.59784e-40
62	0x0007ec67	7.27654e-40
63	0x800de5cb	-1.276296e-39
64	0x8006fb68	-6.412e-40
65	0x0008a9ae	7.95554e-40
66	0x8003f36e	-3.62833e-40
67	0x0004a014	4.24767e-40
68	0x000032f2	1.8276e-41
69	0x000df591	1.281954e-39
70	0x800889cb	-7.84115e-40
71	0x80048115	-4.13648e-40
72	0x0004f286	4.54343e-40
73	0x800a8677	-9.66592e-40
74	0x00105745	1.500674e-39
75	0x000a2007	9.29844e-40
76	0x00066e41	5.90565e-40
77	0x80024101	-2.0699e-40
78	0x80055fc7	-4.93536e-40
79	0x000c7175	1.142727e-39
80	0x800ad7c9	-9.95764e-40
81	0x0007cf54	7.17224e-40
82	0x8003153f	-2.83128e-40
83	0x80015813	-1.2343e-40
84	0x80099dc8	-8.83121e-40
85	0x80128509	-1.700763e-39
86	0x80008217	-4.6667e-41
87	0x80146585	-1.873128e-39
88	0x801123af	-1.574004e-39
89	0x800a72d4	-9.59548e-40
90	0x80008997	-4.9358e-41
91	0x8008d181	-8.0984e-40
92	0x00044a6e	3.94042e-40
93	0x000b56b8	1.041299e-39
94	0x8004fc19	-4.57778e-40
95	0x8002106e	-1.89565e-40
96	0x000e5930	1.317691e-39
97	0x00049b96	4.23156e-40
98	0x80058db5	-5.10012e-40
99	0x000f436a	1.401716e-39
100	0x8009c896	-8.98476e-40
101	0x0006ee64	6.36531e-40
102	0x000bf329	1.09742e-39
103	0x00062d62	5.67293e-40
104	0x000994f9	8.79961e-40
105	0x800ceb31	-1.186397e-39
106	0x8000680d	-3.7326e-41
107	0x8003ceee	-3.49739e-40
108	0x0010e43f	1.551247e-39
109	0x800c30fa	-1.119595e-39
110	0x0000b413	6.4598e-41
111	0x800c4b54	-1.129049e-39
112	0x0001de37	1.71551e-40
113	0x00014aab	1.18621e-40
114	0x0014598c	1.868833e-39
115	0x000cb40b	1.166613e-39
116	0x000b5d2a	1.043611e-39
117	0x0010bf7d	1.538061e-39
118	0x000f03c0	1.378878e-39
119	0x000dd435	1.269987e-39
120	0x000d7736	1.236626e-39
121	0x8010ceaa	-1.543505e-39
122	0x800c22b7	-1.114479e-39
123	0x000b6701	1.047141e-39
124	0x80100f1a	-1.474785e-39
125	0x00145e74	1.870593e-39
126	0x000d484c	1.219797e-39
127	0x80069897	-6.05752e-40
128	0x0009dc31	9.05509e-40
129	0x800248f6	-2.09844e-40
130	0x000a71a7	9.59126e-40
131	0x0013f24e	1.831797e-39
132	0x80149391	-1.889647e-39
133	0x80006869	-3.7455e-41
134	0x800211a6	-1.90002e-40
135	0x00064005	5.73979e-40
136	0x000be647	1.092798e-39
137	0x80038d42	-3.2618e-40
138	0x000b849b	1.05776e-39
139	0x0009f063	9.12754e-40
140	0x0002eb2a	2.68032e-40
141	0x0003dde7	3.5511e-40
142	0x8008fe57	-8.25924e-40
143	0x800e331a	-1.304029e-39
144	0x0002e2db	2.65051e-40
145	0x800cf0df	-1.188434e-39
146	0x80063ec9	-5.73536e-40
147	0x00057da0	5.04243e-40
148	0x80148a54	-1.886333e-39
149	0x80064986	-5.77388e-40
150	0x000c3d15	1.123938e-39
151	0x000bf26c	1.097155e-39
152	0x8002818d	-2.30145e-40
153	0x000e977d	1.340041e-39
154	0x000c17ec	1.110608e-39
155	0x00025d37	2.1711e-40
156	0x80069cb7	-6.07232e-40
157	0x80115bfd	-1.594203e-39
158	0x800cad6e	-1.164241e-39
159	0x0002a203	2.4179e-40
160	0x000311c6	2.81882e-40
161	0x000a0290	9.19274e-40
162	0x800ed386	-1.361577e-39
163	0x000af975	1.007843e-39
164	0x800ae05c	-9.9884e-40
165	0x0005af89	5.22148e-40
166	0x0000f256	8.6934e-41
167	0x800d86fe	-1.242288e-39
168	0x80142f60	-1.853705e-39
169	0x000a7df3	9.63537e-40
170	0x8003634a	-3.11125e-40
171	0x000c2c92	1.118015e-39
172	0x00074c98	6.70325e-40
173	0x801324c9	-1.75807e-39
174	0x80052aa6	-4.74477e-40
175	0x000a8adc	9.68168e-40
176	0x0006d21b	6.26385e-40
177	0x80054b39	-4.86162e-40
178	0x0010f429	1.556956e-39
179	0x8000bc07	-6.7452e-41
180	0x80068bbb	-6.01139e-40
181	0x800a19e3	-9.27641e-40
182	0x800cb25d	-1.16601e-39
183	0x000cbac7	1.169029e-39
184	0x00095fc3	8.60872e-40
185	0x800e7f34	-1.331329e-39
186	0x800a14d4	-9.25827e-40
187	0x0008d05d	8.0943e-40
188	0x000c0fef	1.107742e-39
189	0x8008f0f2	-8.21119e-40
190	0x00057395	5.0064e-40
191	0x0000bcaf	6.7687e-41
192	0x000e0303	1.286777e-39
193	0x8008da8f	-8.13088e-40
194	0x00086929	7.72408e-40
195	0x000914e3	8.34012e-40
196	0x00063e59	5.73379e-40
197	0x8003fc14	-3.65935e-40
198	0x800d84ef	-1.241549e-39
199	0x000ff9dc	1.467165e-39
200	0x8003ddba	-3.55047e-40
201	0x00155824	1.960164e-39
202	0x8001f25a	-1.78775e-40
203	0x800d1e89	-1.204815e-39
204	0x8013bdf3	-1.813015e-39
205	0x000d4da8	1.221719e-39
206	0x0008009c	7.34903e-40
207	0x00056978	4.97013e-40
208	0x8007fc41	-7.3334e-40
209	0x0014f7b8	1.925575e-39
210	0x8001e41c	-1.73666e-40
211	0x8013dbe8	-1.823762e-39
212	0x0007eee7	7.2855e-40
213	0x800c1a05	-1.11136e-39
214	0x80105359	-1.499267e-39
215	0x8003020d	-2.76242e-40
216	0x8000dc38	-7.9e-41
217	0x80053f57	-4.819e-40
218	0x00035a68	3.07938e-40
219	0x8006ba81	-6.17918e-40
220	0x800abcbb	-9.86059e-40
221	0x0005a40e	5.18029e-40
222	0x0000f81f	8.9009e-41
223	0x80016322	-1.27398e-40
224	0x8012e73e	-1.735993e-39
225	0x000b2cb8	1.026233e-39
226	0x80029740	-2.37929e-40
227	0x00010fff	9.7574e-41
228	0x80069235	-6.03462e-40
229	0x800a577a	-9.49736e-40
230	0x000c61bf	1.13709e-39
231	0x800ea026	-1.343147e-39
232	0x8000973c	-5.4253e-41
233	0x000da8b9	1.254388e-39
234	0x800ac0ef	-9.87566e-40
235	0x80055380	-4.89132e-40
236	0x800fe5c3	-1.459955e-39
237	0x000d9100	1.245878e-39
238	0x800c0bbf	-1.10624e-39
239	0x8008198c	-7.43848e-40
240	0x000dd0fb	1.26883e-39
241	0x80068724	-5.99492e-40
242	0x00145731	1.867988e-39
243	0x8006164b	-5.5901e-40
244	0x0006cf9f	6.25493e-40
245	0x0009aadf	8.87816e-40
246	0x0002387d	2.03935e-40
247	0x0002ffb2	2.75397e-40
248	0x000a6a4b	9.56486e-40
249	0x000a97b5	9.72777e-40
250	0x0010831a	1.516398e-39
251	0x8004e259	-4.4854e-40
252	0x800b2b80	-1.025795e-39
253	0x000617ac	5.59505e-40
254	0x800ed1e3	-1.36099e-39
255	0x800276d2	-2.26296e-40

bias f4 [32]
0	0xbd871bc6	-0.06597094
1	0xbe525b43	-0.20542626
2	0xbe5ff5f9	-0.21871175
3	0xbdc141b7	-0.09436362
4	0xbddc5a35	-0.10759393
5	0xbe0ba45d	-0.13636918
6	0xbdeeaacf	-0.11653673
7	0xbe39037a	-0.18067732
8	0xbe118280	-0.14209938
9	0xbe19d93c	-0.15024275
10	0xbe1e5cab	-0.15465038
11	0xbe2a0639	-0.16603936
12	0xbdee34f1	-0.116311915
13	0xbd18bd79	-0.03729007
14	0xbe192f80	-0.14959526
15	0xbe5d2c48	-0.21598923
16	0xbdef4667	-0.1168335
17	0xbd9822a1	-0.0742848
18	0xbdeaa625	-0.11457471
19	0xbd2f3a8a	-0.042780437
20	0xbdf91cb9	-0.121636815
21	0xbe28d85a	-0.16488782
22	0xbddf63ca	-0.10907705
23	0xbe4dc030	-0.20092845
24	0xbe24a731	-0.16079403
25	0xbe0d4852	-0.1379712
26	0xbe16fb56	-0.14744315
27	0xbe189d5f	-0.14903782
28	0xbdb7b20b	-0.08969506
29	0xbe41cacc	-0.18925017
30	0xbe834200	-0.25636292
31	0xbe05a582	-0.13051417

weight f4 [32, 13]
0	0x3e74bed2	0.23900917
1	0xbf1b2ef5	-0.60618526
2	0xbd286f68	-0.04112187
3	0xbc34791d	-0.011015204
4	0x3e7559c2	0.23960021
5	0xbba71443	-0.005098851
6	0x3c965cd1	0.018354805
7	0x3b85efde	0.0040874323
8	0x3cda6e54	0.026663937
9	0x3d302720	0.043006063
10	0xbc9e57c4	-0.01932896
11	0xbbb0f4f4	-0.0054002944
12	0x3d56c0ea	0.05243007
13	0xbbdcdbc2	-0.0067400644
14	0x3dc94a3c	0.09828612
15	0x3cc5e80c	0.0241585
16	0x3c74f1f9	0.014950269
17	0x3eae257a	0.34012967
18	0xbc1fe073	-0.009758103
19	0xbe1a7e7d	-0.15087314
20	0x3ce4b2fe	0.027917381
21	0xbc167e5a	-0.009185398
22	0x3bbe0fa5	0.005800205
23	0x3d398a3e	0.045297854
24	0xbe0805d4	-0.13283473
25	0xbd715ea3	-0.058928143
26	0x3d70ef3f	0.058821913
27	0xbe811396	-0.25210255
28	0x3d079070	0.03309673
29	0xbf40c93e	-0.7530707
30	0x3ea68928	0.32526517
31	0x3d9619cf	0.07329141
32	0xbc2498ec	-0.010046225
33	0x3c26d4bf	0.010182559
34	0xbc834c31	-0.016027542
35	0xbd0b9f1c	-0.034087285
36	0x3deec613	0.116588734
37	0x3cc8a1a4	0.024491139
38	0x3d3538ca	0.04424361
39	0x3e68fec4	0.22753435
40	0xbd837be9	-0.06420118
41	0xbda991d8	-0.082797706
42	0xbd7fd88e	-0.062462382
43	0xbeca43a2	-0.39504725
44	0xbc9f1c1d	-0.019422585
45	0x3b9ad329	0.0047248793
46	0x3dce149f	0.10062527
47	0xbe14f17a	-0.14545241
48	0xbe35046b	-0.17677467
49	0x3cd5071e	0.02600437
50	0xbc09960f	-0.008397593
51	0x3dbc80c2	0.09204246
52	0x3f2796af	0.654643
53	0x3cd79e93	0.026320731
54	0x3da18d56	0.07888286
55	0xbd2fae53	-0.042890858
56	0x3dae2b01	0.08504296
57	0xbafa71cb	-0.0019107399
58	0xbd1ad020	-0.03779614
59	0x3b211c31	0.0024583454
60	0x3d856797	0.06513899
61	0x3c05343a	0.008130128
62	0xbb2c6e1e	-0.0026310752
63	0x3d03532a	0.032061733
64	0xbb52464f	-0.0032085364
65	0xbd7f850a	-0.062382735
66	0xbc716bf2	-0.014735209
67	0x3e82c44b	0.25540385
68	0xbcc2e867	-0.023792459
69	0x3e0526eb	0.13003127
70	0x3de3977e	0.11112879
71	0xbd16b37d	-0.036792267
72	0x3de4d6a4	0.11173752
73	0x3cf2efd1	0.029655369
74	0xb9c54e1f	-0.00037632973
75	0x3d0ec9cd	0.03486042
76	0x3d8064b5	0.06269208
77	0xbdb292a0	-0.08719373
78	0x3e44cddd	0.19219156
79	0xbcad348f	-0.021143226
80	0xbe74e481	-0.23915292
81	0xbdb60886	-0.088883445
82	0xbd2583e5	-0.040408988
83	0xbc178cb4	-0.009249855
84	0x3d7e38bb	0.06206582
85	0xbd989ff0	-0.07452381
86	0x3e3f431a	0.18677941
87	0x3d642945	0.05570342
88	0x3cd38ae6	0.025823068
89	0xbc960bce	-0.018316176
90	0x3dbdf3f4	0.09275046
91	0xbe337174	-0.17523748
92	0x3e8e8902	0.27838904
93	0x3e78f744	0.24313074
94	0xbd9f7b4b	-0.07787188
95	0x3e864eb8	0.26231933
96	0xbb997f23	-0.0046843453
97	0x3d58dda4	0.052945748
98	0x3df6aff5	0.1204528
99	0x3e732b72	0.23747042
100	0x3ca1b110	0.01973775
101	0xbcb3570e	-0.021892097
102	0x3bfd0d65	0.007722544
103	0xbe559516	-0.20857653
104	0xbd93756b	-0.0720013
105	0xbdfe5abe	-0.124196514
106	0x3e18883f	0.14895724
107	0x3e0444cd	0.1291687
108	0xbd7ece1a	-0.062208273
109	0xbd4a9e79	-0.049467538
110	0x3cba64e6	0.02275319
111	0x3d5e7387	0.054309394
112	0xbe190c42	-0.14946082
113	0xbc9a6ee2	-0.018851701
114	0xbd5632c5	-0.05229451
115	0xbcc7494b	-0.024326941
116	0x3d8a69f7	0.067584924
117	0x3dbf2ad0	0.09334338
118	0xbd4284a4	-0.047489777
119	0xbdde007f	-0.10839938
120	0xbe1a81ac	-0.15088528
121	0x3de5a619	0.11213321
122	0x3c1afe51	0.009460048
123	0xbd27af23	-0.040938508
124	0xbe2bc42c	-0.16774052
125	0x3d9ab907	0.075548224
126	0xbe1c92be	-0.15290353
127	0xbd060f3e	-0.03272938
128	0x3c1ad2be	0.009449659
129	0xbe0e016b	-0.13867728
130	0x3e48e997	0.19620357
131	0xbd393b0d	-0.04522233
132	0xbf4154bc	-0.7551992
133	0xbd62476a	-0.055243887
134	0xbdbff8b9	-0.09373612
135	0x3d90bdee	0.07067476
136	0xbda1b7a8	-0.07896358
137	0x3cbfcf6f	0.023414342
138	0xbd5eae12	-0.054365225
139	0x3d37d6a8	0.044882447
140	0xbc08886f	-0.00833331
141	0xbd31c5ff	-0.043401714
142	0xbf33cbb2	-0.7023269
143	0xbe66e38e	-0.22547743
144	0x3e102b04	0.14078909
145	0x3d922457	0.071358375
146	0x3df5a063	0.11993482
147	0x3f3568f5	0.70863277
148	0x3d3fc6cc	0.046820447
149	0xbb67bda7	-0.0035360844
150	0xbbad37cb	-0.005286192
151	0xbba6de35	-0.005092407
152	0x3c01d874	0.007925142
153	0xbd320d3c	-0.043469653
154	0x3cb212fc	0.021737568
155	0x3da159ec	0.07878479
156	0x3e721f48	0.23644745
157	0xbe983b61	-0.29732803
158	0xbd1066d2	-0.035254307
159	0x3d4b3cb4	0.049618438
160	0xbf6035ff	-0.8758239
161	0xbd750454	-0.05981858
162	0xbd310bc1	-0.0432241
163	0x3d1d55eb	0.038412016
164	0xbcc05114	-0.023476161
165	0x3c7939d1	0.015211538
166	0x3cf4c62f	0.029879658
167	0x3d24e78e	0.04025989
168	0xbe2b7872	-0.16745165
169	0x3ec5a468	0.38601995
170	0xbd85234f	-0.06500875
171	0x3ca490da	0.020088602
172	0xbd958128	-0.07300025
173	0xbf1adc5e	-0.60492504
174	0xbe80e3ac	-0.251737
175	0xbc150027	-0.009094275
176	0x3ce12cc5	0.027487168
177	0x3d668b3e	0.056285135
178	0xbda8a58d	-0.08234701
179	0x3cc4f714	0.024043597
180	0x3ca774eb	0.020441493
181	0x3e25ed0e	0.1620371
182	0x3e8d68d6	0.27619046
183	0xbe0f5c7c	-0.14000124
184	0xbe3d3416	-0.184769
185	0x3ccd8dac	0.025091968
186	0xbf00fa8c	-0.50382304
187	0xbdffe0e3	-0.124940656
188	0xbdaaff1e	-0.08349441
189	0x3df370cd	0.118867494
190	0x3cf05638	0.029337987
191	0x3d42dab3	0.04757185
192	0xbbbe2c29	-0.005803604
193	0xbc3452b9	-0.011006051
194	0xbc763ac9	-0.015028664
195	0xbee9265a	-0.45537072
196	0x3f4fe36b	0.8120639
197	0x3e2822e9	0.16419567
198	0xbe254754	-0.16140491
199	0xbd94b8ee	-0.07261835
200	0xbc1701c9	-0.009216734
201	0x3baf8cfb	0.0053573824
202	0xbd0bf844	-0.03417231
203	0xbc9dc1ba	-0.019257415
204	0xbbd5c0b8	-0.006523218
205	0xbbba4fb2	-0.00568577
206	0xbc2587c4	-0.01010317
207	0x3d875798	0.06608504
208	0x3eee0010	0.46484423
209	0xbe0b1df9	-0.13585652
210	0x3bc2ac9c	0.005940987
211	0xbd32a5ff	-0.043615337
212	0xbf92a81f	-1.1457556
213	0xbd5d43c8	-0.05401972
214	0x3d9df373	0.0771245
215	0x3d22157d	0.039571274
216	0x3d07bbbf	0.033138033
217	0xbc89d6e7	-0.016826106
218	0x3c1793f8	0.009251587
219	0xbc9a34e4	-0.018824048
220	0x3e819d19	0.25315168
221	0xbb89e62e	-0.0042083478
222	0x3c8adc7b	0.016950836
223	0x3cf5de1c	0.030013137
224	0xbdaaed16	-0.08346002
225	0x3d8d6e15	0.06905762
226	0x3b2913ac	0.002579908
227	0x3a6bd1e0	0.00089958124
228	0xbc722366	-0.014778947
229	0xbb627d2c	-0.0034559472
230	0x3d5a4a29	0.05329338
231	0x3c9b480c	0.018955253
232	0x3e076150	0.13220716
233	0x3d03d1f2	0.03218264
234	0xbe53253c	-0.20619673
235	0x3d532958	0.0515531
236	0xbe3563c4	-0.17713839
237	0x3d409252	0.047014542
238	0xbe3e4917	-0.18582569
239	0x3e1602ca	0.14649501
240	0x3cbab086	0.022789251
241	0x3cca0292	0.024659429
242	0xbcbc13ef	-0.022958724
243	0x3cb8c605	0.02255536
244	0xbb605fd6	-0.003423681
245	0x3cb5184f	0.022106318
246	0xbe8e7418	-0.27822948
247	0x3e9466d1	0.28984693
248	0xbc8b1005	-0.016975412
249	0xbdb56fdd	-0.08859227
250	0xbe02883f	-0.12747286
251	0xbed6648c	-0.41873586
252	0xbe0ec0cf	-0.13940738
253	0x3db9d03e	0.09072922
254	0xbcef5685	-0.02921606
255	0xbe235b27	-0.1595274

bias f4 [32]
0	0xbd8693a3	-0.06571128
1	0xbe520156	-0.20508322
2	0xbe5f4a33	-0.21805649
3	0xbdc0ea64	-0.094197065
4	0xbddb521a	-0.10709019
5	0xbe0b858f	-0.13625167
6	0xbdedf376	-0.11618702
7	0xbe38d213	-0.18048887
8	0xbe11c63f	-0.14235781
9	0xbe197ab6	-0.14988217
10	0xbe1e8aad	-0.15482588
11	0xbe299ceb	-0.16563766
12	0xbded6c84	-0.11592963
13	0xbd17fc21	-0.037105683
14	0xbe18e9d9	-0.14932956
15	0xbe5ca9bf	-0.21549128
16	0xbdee8024	-0.11645535
17	0xbd986b51	-0.07442344
18	0xbde979c6	-0.114001796
19	0xbd2e8a8a	-0.04261259
20	0xbdf8d25f	-0.121495
21	0xbe28eaba	-0.16495791
22	0xbdde7467	-0.10862046
23	0xbe4d5e8b	-0.20055597
24	0xbe2494cf	-0.16072391
25	0xbe0d2216	-0.13782534
26	0xbe16d255	-0.14728673
27	0xbe183c4e	-0.14866754
28	0xbdb66ffb	-0.08908077
29	0xbe424336	-0.18970951
30	0xbe82fb74	-0.25582469
31	0xbe057230	-0.1303184

weight f4 [32, 13]
0	0x3e159c06	0.146103
1	0xbdf3b443	-0.118996166
2	0x3a87890a	0.0010340523
3	0x3eb380b5	0.35059133
4	0x3c755ff1	0.0149764875
5	0xbe54650f	-0.20741676
6	0xbdb82682	-0.0899172
7	0x3b39ef7e	0.0028371508
8	0x3d533ee0	0.051573634
9	0xbd21506c	-0.039383337
10	0xbd4fd0a3	-0.05073608
11	0x3cd57f22	0.026061598
12	0x3c27250e	0.010201706
13	0x3e867a6e	0.2626528
14	0x3dece4e4	0.11567095
15	0x3e845e83	0.25853357
16	0x3e2a1342	0.16608909
17	0x3e8533e4	0.26016152
18	0xbe5140b1	-0.20434834
19	0x3c8283e8	0.015932038
20	0xbda635cc	-0.0811573
21	0x3c02ff9c	0.007995512
22	0xbda01ab3	-0.078175925
23	0xbe83e7fb	-0.25762925
24	0xbe47fc21	-0.19529773
25	0xbe4fb924	-0.2028547
26	0x3d1dda34	0.038538173
27	0x3dd70deb	0.105007015
28	0xbe29b9e3	-0.16574816
29	0x3ea781f1	0.32716325
30	0xbe5f87ba	-0.2182912
31	0xbceb9e71	-0.028762074
32	0xbd7cd1c0	-0.06172347
33	0xbced887e	-0.028995749
34	0xbd8b7378	-0.06809133
35	0x3c47a564	0.012185428
36	0x3c25f017	0.010128043
37	0x3c973102	0.018455986
38	0x3db140d8	0.08654946
39	0x3ec111b3	0.37708816
40	0xbd076183	-0.03305198
41	0xbbdd7e0d	-0.006759411
42	0xbd90fa77	-0.070790224
43	0x3dcb09f6	0.09914009
44	0xbe1dd92a	-0.15414873
45	0xbdc1d349	-0.094641276
46	0xbd16a3f7	-0.036777463
47	0xbcd8781c	-0.02642446
48	0xbd345201	-0.044023518
49	0x3cce7870	0.025203913
50	0x3e2c226b	0.16810004
51	0x3cf94982	0.03043056
52	0x3e003ba5	0.12522753
53	0xbe431abd	-0.19053169
54	0xbc6c4bb6	-0.014422348
55	0xbc903813	-0.017604863
56	0x3cff0c33	0.031133747
57	0x3c89ba5f	0.016812501
58	0xbd071707	-0.032980945
59	0x3c6bcdd3	0.014392334
60	0xbc619b62	-0.013769956
61	0x3d2b2dea	0.041791834
62	0x3c352ad0	0.011057571
63	0xbd52f8f4	-0.05150695
64	0x3f9b22f2	1.212004
65	0x3e65c8e5	0.22439916
66	0xbfa6508b	-1.299333
67	0x3d135ba2	0.03597606
68	0xbd47aa0b	-0.04874615
69	0x3e53750f	0.20650123
70	0xbb5c91aa	-0.0033656158
71	0x3c504ef5	0.012714137
72	0xbc42f0da	-0.011898244
73	0x3be8bc8a	0.0071025537
74	0x3a4f6776	0.000791184
75	0x3bf3b7b5	0.007437671
76	0xbc2d14a3	-0.010564002
77	0x3c0755dc	0.008260217
78	0xbe95e9f4	-0.29280055
79	0xbef889d6	-0.4854266
80	0x3dbac936	0.09120409
81	0x3dacda01	0.084400184
82	0xbf0110a3	-0.5041601
83	0xbe08dbef	-0.13365148
84	0xbcf58389	-0.029969947
85	0x3d258084	0.040405765
86	0xbdaf8927	-0.085710816
87	0x3bfa91ff	0.0076467986
88	0xbd258d2d	-0.04041784
89	0xbcdb0eae	-0.026740398
90	0xbdafc4b6	-0.085824415
91	0xbd3f778c	-0.04674487
92	0xbef1f997	-0.47260734
93	0x3ee14929	0.4400113
94	0xbd929ac0	-0.071584225
95	0xbe955cc4	-0.29172337
96	0x3e2b79f1	0.16745736
97	0xbc623d16	-0.013808509
98	0x3c272d31	0.010203646
99	0x3d3aa767	0.045569804
100	0xbd039115	-0.032120783
101	0x3d4c07e3	0.04981221
102	0xbc619a10	-0.0137696415
103	0xbda2f33e	-0.07956551
104	0xbf26fa17	-0.65225357
105	0x3ee8d559	0.4547527
106	0xbe42a7fb	-0.19009392
107	0xbe028af6	-0.12748322
108	0xbf7a9b45	-0.9789317
109	0x3dbd1c44	0.09233907
110	0xbbfa034b	-0.007629787
111	0x3c222e5c	0.009898748
112	0xbbefc900	-0.0073176622
113	0x3c771c44	0.015082423
114	0x3d3987f2	0.045295663
115	0xbc55e905	-0.0130560445
116	0xbdd906d2	-0.10597004
117	0x3f6cfa9a	0.9256989
118	0x3e06c195	0.13159783
119	0x3cda4423	0.026643818
120	0x3cd56de4	0.026053376
121	0x3df92af9	0.121663995
122	0x3d89439d	0.06702349
123	0x3baea6db	0.0053299493
124	0x3b46bf1f	0.003032632
125	0xbbf26594	-0.007397363
126	0x3b718cc7	0.0036857591
127	0xbb9c80b0	-0.004776083
128	0xbbf8a551	-0.0075880666
129	0xbddaad78	-0.10677618
130	0x3d34ed9c	0.044171914
131	0xbd61ad21	-0.05509675
132	0x3ecaf734	0.39641726
133	0xbea76649	-0.32695225
134	0x3e42296d	0.18961115
135	0xbd0f0ad9	-0.034922455
136	0xbdc24004	-0.09484866
137	0xbca6fb0a	-0.020383377
138	0x3da3123c	0.07962462
139	0xbbbb8e97	-0.005723785
140	0x3d0ca367	0.03433552
141	0xbd5b0933	-0.05347557
142	0x3eb36f37	0.35045788
143	0x3e3dcea6	0.18535861
144	0xbd6a9341	-0.05726934
145	0xbc75dcd3	-0.015006262
146	0xbe3125fe	-0.17299649
147	0xbe6513d1	-0.2237084
148	0xbd42e8ea	-0.047585405
149	0x3daf7875	0.08567897
150	0x3e2ca6e1	0.16860534
151	0xbaafbc1a	-0.0013407499
152	0xbd2b5f78	-0.041839093
153	0x3d9ad03f	0.07559251
154	0x3be2e39a	0.006924105
155	0x3bc0e794	0.0058869813
156	0x3e0b7380	0.13618279
157	0xbc2ae7c4	-0.010431234
158	0xbe866bd8	-0.26254153
159	0xbf0a88a4	-0.5411475
160	0x3d4c9a89	0.049952064
161	0x3cca5761	0.024699869
162	0xbd149a3a	-0.036279894
163	0x3cb4a446	0.022050988
164	0xbb922c74	-0.0044608656
165	0x3bd35fda	0.0064506354
166	0x3bdb39b8	0.00669023
167	0x3b0a7fb2	0.0021133241
168	0x3d80fd42	0.06298305
169	0x3f434083	0.7627031
170	0x3d880e0d	0.06643305
171	0x3d79c217	0.060976114
172	0xbddbc2aa	-0.107304886
173	0xbf5fa6dd	-0.8736399
174	0x3dce0fb3	0.10061588
175	0x3c2f697f	0.010706305
176	0xbd727090	-0.05918938
177	0xbd59d190	-0.05317837
178	0xba37788f	-0.00069988606
179	0x3cf904a0	0.030397713
180	0xbc9a56d4	-0.018840231
181	0xbda8067f	-0.08204364
182	0xbf1e2603	-0.6177675
183	0x3da24d69	0.07924921
184	0x3cea8838	0.028629407
185	0x3d106112	0.035248823
186	0x3eb98da5	0.3624088
187	0x3dbdba1a	0.09264012
188	0xbb33c185	-0.002742858
189	0x3d0e86d4	0.03479655
190	0xbc942ad8	-0.018086836
191	0xbbf24069	-0.007392932
192	0xbc7f5bfd	-0.015585897
193	0xbbd19bfe	-0.0063967695
194	0x3af57f67	0.0018729985
195	0xbe4557fd	-0.19271846
196	0x3e62630e	0.22108099
197	0x3cb98fa1	0.022651495
198	0x3dc823b0	0.09772432
199	0x3d400ccc	0.046887204
200	0x3d297532	0.04137153
201	0x3e2220bf	0.15832804
202	0xbd7a8df6	-0.06117054
203	0xbcf6105d	-0.0300371
204	0x3a49b9de	0.0007695238
205	0x3afa5b56	0.0019100707
206	0xbc21893c	-0.009859379
207	0x3e95ab75	0.29232374
208	0xbeaa030b	-0.33205447
209	0xbef84a9e	-0.48494428
210	0x3e68f999	0.22751464
211	0xbe5360ec	-0.20642442
212	0x3ea75e3a	0.32689077
213	0xbd19fe49	-0.03759602
214	0x3e12c770	0.14333892
215	0xbc861c79	-0.016370999
216	0xbd06461b	-0.0327817
217	0x3c422098	0.011848591
218	0x3cadca73	0.0212147
219	0x3aeda5d7	0.0018131089
220	0xbe743222	-0.23847249
221	0xbf46f4b3	-0.7771713
222	0xbdb66137	-0.08905261
223	0xbc1ceceb	-0.00957797
224	0xbc93bba5	-0.018033812
225	0xbd92b521	-0.07163454
226	0x3b5a8d6c	0.0033348454
227	0xbc98c64b	-0.018649241
228	0xbc1e6496	-0.009667536
229	0x3c145006	0.009052282
230	0xbb8a1304	-0.0042136926
231	0x3ab44a9c	0.0013755145
232	0xbb72d6ab	-0.0037054222
233	0x3c60cfe8	0.013721444
234	0x3e2d3fa6	0.16918811
235	0xbecfcf0b	-0.4058765
236	0x3ef0faa6	0.4706623
237	0x3e7a06e7	0.24416696
238	0x3f420024	0.75781465
239	0x3e16292d	0.14664145
240	0xbdf4df79	-0.119566865
241	0x3dc29b18	0.09502238
242	0x3e60f3db	0.21968023
243	0xbc3fa14d	-0.011696172
244	0xbcf30607	-0.02966596
245	0x3dac8c48	0.08425194
246	0x3ed8dd72	0.4235645
247	0x3ee84fd7	0.45373413
248	0x3eb13d44	0.34617054
249	0xbe5eaa63	-0.21744685
250	0xbeea29ef	-0.45735118
251	0x3ec75bb2	0.38937145
252	0x3e0043e6	0.12525901
253	0xbdc511ae	-0.09622513
254	0x3da859ed	0.08220277
255	0x3e3bdf3f	0.1834688

bias f4 [32]
0	0x3c83ce3d	0.016089553
1	0x3bac0f96	0.0052508814
2	0xbd68a334	-0.056796268
3	0x3a925006	0.0011162765
4	0x3c0b7613	0.008512038
5	0xbd500d62	-0.050794013
6	0xbcb1c991	-0.02170256
7	0x3dc20102	0.094728485
8	0xbd0ea308	-0.034823447
9	0xbed658a4	-0.41864502
10	0xbc14d50d	-0.009083998
11	0x3bfe2338	0.0077556632
12	0xbd734597	-0.059392538
13	0x3d021ed5	0.031767685
14	0xbdb68b08	-0.08913237
15	0xbd75b445	-0.05998637
16	0xbb1b531e	-0.0023700665
17	0xbe8af358	-0.27138782
18	0x3d1d162a	0.038351215
19	0xbc0993f8	-0.008397095
20	0xb9e6e709	-0.00044041153
21	0xbd65e07b	-0.056122284
22	0x3c81d3d7	0.015848083
23	0x3c85bd9a	0.01632576
24	0x3d2b0012	0.041748114
25	0xbacf0740	-0.0015795007
26	0xbc0d76b7	-0.008634261
27	0xbd110331	-0.035403434
28	0x3cb8b20f	0.022545842
29	0xbd2dda25	-0.042444367
30	0xbd4b39e9	-0.049615774
31	0x3d968431	0.07349432

weight f4 [32, 64]
0	0x3d63785b	0.0555347
1	0x3e2fa372	0.17152193
2	0xbdc8af00	-0.097990036
3	0xbe277d28	-0.16356337
4	0xbea43fe7	-0.32080004
5	0x3d807ee3	0.06274202
6	0xbede749c	-0.4344834
7	0xbe6d777f	-0.23190115
8	0x3e41ba45	0.18918712
9	0xbe18a3e7	-0.14906274
10	0xbe3a416e	-0.18189022
11	0x3e0ab0c2	0.1354399
12	0x3e0a205e	0.1348891
13	0x3e7486ec	0.23879594
14	0xbd405628	-0.046957165
15	0x3db1aa0e	0.086750135
16	0xbe655f28	-0.2239958
17	0xbbfe340d	-0.00775767
18	0xbe65a986	-0.2242795
19	0xbefa6b34	-0.48909914
20	0xbe0d4a6d	-0.13797922
21	0x3dc87603	0.09788134
22	0x3d9755a5	0.07389382
23	0xbec49728	-0.38396573
24	0x3dc8c0e0	0.09802413
25	0xbe8e864b	-0.27836832
26	0xbeadb0b8	-0.33923888
27	0xbea470df	-0.32117364
28	0xbe6761e2	-0.22595933
29	0x3ec1d5da	0.37858468
30	0xbe840758	-0.25786853
31	0x3e9cc933	0.30622253
32	0xbe1e1d01	-0.15440752
33	0x3d361d94	0.0444618
34	0x3dafecb9	0.08590073
35	0xbe07fcaa	-0.13279977
36	0xbc455469	-0.012044051
37	0x3e84b351	0.25918058
38	0xbe081dcf	-0.13292621
39	0x3da9d458	0.082924545
40	0xbe7c33be	-0.24629113
41	0xbdd76405	-0.10517124
42	0x3dc66b32	0.09688415
43	0xbea17908	-0.31537652
44	0xbe1f42f3	-0.15552883
45	0xbe453744	-0.19259363
46	0xbe38b3fd	-0.1803741
47	0xbe38c3e4	-0.18043476
48	0x3cfb9878	0.030712351
49	0xbdef3f93	-0.11682048
50	0xbca340c9	-0.019928353
51	0xbeb7fb93	-0.35934123
52	0xbdf9893a	-0.12184377
53	0xbe1c68d8	-0.1527437
54	0x3e0e8a0e	0.13919851
55	0xbe6982fe	-0.22803876
56	0x3e0edba5	0.13950975
57	0xbedabcf1	-0.42722276
58	0x3cdec5fa	0.027194012
59	0xbe16e41b	-0.14735453
60	0x3d2679d4	0.040643528
61	0xbeafcb4b	-0.34334788
62	0xbe89920a	-0.2686923
63	0xbee1eaa4	-0.4412433
64	0xbda975c8	-0.08274418
65	0xbe9c0b68	-0.30477452
66	0xbe1ebe24	-0.1550222
67	0xbe8f224b	-0.2795585
68	0xbeb54b2d	-0.35408917
69	0x3ed16e29	0.40904358
70	0xbecbcbe3	-0.3980399
71	0x3e9a2230	0.30104208
72	0xbe81334b	-0.25234446
73	0xbe592177	-0.21204172
74	0xbf0b81bc	-0.54494834
75	0xbe25e021	-0.1619878
76	0xbd64e061	-0.055878047
77	0xbe695310	-0.22785592
78	0xbe89d2f2	-0.2691875
79	0x3eab3a56	0.33442944
80	0xbea5b5f4	-0.32365382
81	0x3e6b3869	0.22970738
82	0x3e8aef07	0.27135488
83	0xbf094588	-0.5362172
84	0xbf292fc8	-0.66088533
85	0xbf1d3d26	-0.6142143
86	0x3e420acf	0.18949436
87	0xbe025c18	-0.12730443
88	0xbedc4953	-0.43024692
89	0xbdda9131	-0.10672224
90	0xbdc8f83f	-0.09812974
91	0xbe235f68	-0.15954363
92	0xbe93e1c4	-0.28883183
93	0xbe5d3681	-0.21602823
94	0xbeef4ee1	-0.46739867
95	0xbc1623aa	-0.009163776
96	0xbe55aa9c	-0.20865864
97	0xbebaa0d1	-0.36450818
98	0xbda50cef	-0.080591075
99	0x3e1bb9e5	0.15207632
100	0xbddc3e9b	-0.107541285
101	0xbe3312dd	-0.17487665
102	0xbdac372d	-0.084089614
103	0xbeb128c3	-0.3460141
104	0xbe96bab2	-0.29439312
105	0xbd8120c1	-0.063050754
106	0xbe4848a8	-0.19558966
107	0xbe975a7f	-0.2956123
108	0xbc7ef011	-0.015560166
109	0xbecfa877	-0.40558216
110	0xbeb53243	-0.3538991
111	0xbe2a538b	-0.16633432
112	0xbe8050d4	-0.25061667
113	0xbd1a977d	-0.037742127
114	0x3cdd3374	0.027002074
115	0xbe3d6b13	-0.18497877
116	0xbe8ad317	-0.27114174
117	0xbe88ecd5	-0.26743189
118	0x3d0e432f	0.03473204
119	0xbe3f0abb	-0.18656437
120	0xbe84e329	-0.2595456
121	0xbc973f7a	-0.018462885
122	0xbe3016a9	-0.17196144
123	0xbda4df1c	-0.08050367
124	0x3d73407b	0.059387665
125	0xbf0739f5	-0.5282281
126	0xbef5fa4f	-0.48042533
127	0xbe91ee41	-0.28502086
128	0x3e47e660	0.19521475
129	0xbdf8aa6a	-0.12141879
130	0x3dc9c311	0.09851659
131	0xbe80c116	-0.25147313
132	0xbdc1034e	-0.094244584
133	0x3e49c590	0.1970427
134	0x3d80a5d0	0.06281626
135	0xbe4cc951	-0.19998671
136	0x3d13a594	0.03604658
137	0x3d1873f6	0.037219964
138	0xbe18478b	-0.14871041
139	0xbe6c9d2f	-0.23106836
140	0x3dc09eb7	0.094052725
141	0x3e14a268	0.14515078
142	0x3d88bafe	0.06676291
143	0x3c75714b	0.014980624
144	0x3e3a7cae	0.18211624
145	0x3d92eb74	0.07173815
146	0xbd91cae1	-0.07118774
147	0xbe82a75e	-0.25518316
148	0xbd5cef37	-0.05393907
149	0x3c7b7493	0.015347618
150	0xbe19a15a	-0.15002957
151	0xbd9b9d3c	-0.075983495
152	0xbc3371a3	-0.010952386
153	0xbc787852	-0.015165405
154	0x3e1bcb1b	0.15214197
155	0x3d67f756	0.056632362
156	0xbe90e7e7	-0.28301927
157	0xbe09f9e3	-0.1347423
158	0xbdc32421	-0.095283754
159	0xbd91f0ff	-0.071260445
160	0xbdffa72d	-0.12483058
161	0x3e20fddf	0.15721844
162	0xbe22ae12	-0.15886715
163	0x3e9083f5	0.28225675
164	0x3ded309a	0.11581536
165	0xbda3d883	-0.08000281
166	0xbdce8021	-0.100830324
167	0x3d42ab15	0.047526438
168	0xbce7d0bb	-0.028297773
169	0xbd621b83	-0.05520202
170	0x3e1f99de	0.1558604
171	0x3c5224dc	0.012826171
172	0xbde45bb8	-0.111503065
173	0xbd914e1c	-0.07094976
174	0xbd8ee6c9	-0.069776125
175	0xbdd70221	-0.10498453
176	0xbe8be400	-0.27322388
177	0xbda11b5f	-0.07866549
178	0x3e0bca26	0.13651332
179	0x3e994c63	0.2994109
180	0x3b15ac30	0.0022838227
181	0xbd98eb24	-0.074667245
182	0x3e21cc83	0.15800671
183	0x3d91891c	0.0710623
184	0xbd221f6e	-0.039580755
185	0x3aafe75c	0.0013420391
186	0xbe189e3f	-0.14904116
187	0xbdac7c85	-0.08422188
188	0x3e139826	0.14413509
189	0x3e171a97	0.14756237
190	0x3d15f5a4	0.036611214
191	0xbd55bb22	-0.052180417
192	0xbebdf539	-0.37101153
193	0x3c21148a	0.009831557
194	0xbec81140	-0.3907566
195	0xbdfdb848	-0.123886645
196	0xbe52cadd	-0.20585199
197	0x3de12b94	0.1099464
198	0xbd9e321b	-0.077244006
199	0x3d0300ff	0.03198337
200	0xbe36bcf7	-0.17845522
201	0x3dfc1acb	0.12309798
202	0xbea45bf6	-0.3210141
203	0xbd60496a	-0.054757513
204	0xbf03f07b	-0.5153882
205	0xbe044580	-0.12917137
206	0xbe7de194	-0.24793082
207	0x3ed0ad61	0.40757278
208	0xbec48b7d	-0.3838767
209	0xbc344b11	-0.011004225
210	0x3dcd1c8d	0.10015211
211	0xbdf59d4a	-0.11992891
212	0xbebb07ae	-0.36529297
213	0xbe58ab70	-0.21159148
214	0x3de01b26	0.10942678
215	0xbe340676	-0.1758059
216	0xbe80e651	-0.25175717
217	0x3e7c0ecf	0.24615024
218	0xbeeb40a0	-0.45947742
219	0xbe84cc28	-0.2593701
220	0xbe5a8cfe	-0.21342847
221	0xbe9917e6	-0.29901046
222	0xbf2fc8cd	-0.6866577
223	0xbe2a40c3	-0.16626267
224	0xbd959dc3	-0.07305481
225	0xbd5806c4	-0.052740827
226	0xbe8ba51c	-0.27274406
227	0xbaf43623	-0.0018631857
228	0x3d7225bc	0.059118018
229	0xbe598a56	-0.21244177
230	0xbcd5fc39	-0.026121246
231	0xbd08414e	-0.033265404
232	0xbeefd5c1	-0.4684277
233	0xbbb2f47f	-0.005461275
234	0xbe9a3dbb	-0.30125222
235	0xbed88701	-0.422905
236	0xbd646395	-0.05575903
237	0xbe8385b2	-0.2568794
238	0xbdc86dfa	-0.09786601
239	0x3e2f8efa	0.17144385
240	0xbc8f71c3	-0.0175103
241	0xbe14950a	-0.14509979
242	0xbe664bfa	-0.2248992
243	0x3e358544	0.17726618
244	0xbe9051fc	-0.2818755
245	0xbed9729f	-0.4247026
246	0xbd8ecfd7	-0.06973236
247	0x3cc8ad60	0.024496734
248	0xbe20c468	-0.15699923
249	0xbe2fcc31	-0.17167737
250	0x3c964d61	0.018347444
251	0xbec49bcd	-0.38400117
252	0x3ea1d7b4	0.3160988
253	0xbf0288cf	-0.50990003
254	0xbe97c12f	-0.29639575
255	0xbef7ace4	-0.48374093

bias f4 [32]
0	0x3c83ce3d	0.016089553
1	0x3bac0f96	0.0052508814
2	0xbd68a38a	-0.056796588
3	0x3a925006	0.0011162765
4	0x3c0b7700	0.0085122585
5	0xbd4feff5	-0.05076595
6	0xbcb1c991	-0.02170256
7	0x3dc20102	0.094728485
8	0xbd0ea308	-0.034823447
9	0xbed5b823	-0.41742048
10	0xbc14d50d	-0.009083998
11	0x3bfe2338	0.0077556632
12	0xbd734599	-0.059392545
13	0x3d021ed4	0.03176768
14	0xbdb68a7e	-0.08913134
15	0xbd75b016	-0.05998238
16	0xbb1b531e	-0.0023700665
17	0xbe8af115	-0.27137056
18	0x3d1d162a	0.038351215
19	0xbc0993f8	-0.008397095
20	0xb9e6e709	-0.00044041153
21	0xbd65e026	-0.056121968
22	0x3c81d3d7	0.015848083
23	0x3c85bd98	0.016325757
24	0x3d2b0012	0.041748114
25	0xbacf0720	-0.001579497
26	0xbc0d76b7	-0.008634261
27	0xbd110331	-0.035403434
28	0x3cb8b1f7	0.022545798
29	0xbd2dda25	-0.042444367
30	0xbd4b39e8	-0.04961577
31	0x3d968431	0.07349432

weight f4 [32, 32]
0	0x3dcf73f1	0.10129536
1	0xbe401e55	-0.18761571
2	0xbdc393fe	-0.09549712
3	0xbd95cdb9	-0.07314629
4	0x3d3a0461	0.045414332
5	0x3ab787f2	0.0014002307
6	0xbe69b746	-0.2282382
7	0xbc3ca6d8	-0.011514388
8	0x3d2615dd	0.040548194
9	0xbda87209	-0.082248755
10	0xbe5a5de5	-0.2132488
11	0xbcd3b1f2	-0.025841687
12	0xbe35e18b	-0.17761819
13	0x3d8ca8b5	0.06868116
14	0xbe5b4dff	-0.21416472
15	0x3e4d1de6	0.20030937
16	0xbe0f5691	-0.13997866
17	0xbc4c5a91	-0.012472765
18	0xbeaaea8e	-0.33382076
19	0xbe2dfcc8	-0.1699096
20	0x3d972f3e	0.073820576
21	0xbd8f12a7	-0.069859795
22	0xbe83fa88	-0.25777078
23	0xbcbeca6b	-0.02328988
24	0x3e2ec461	0.170671
25	0xbe1ba566	-0.15199813
26	0x3e0711c3	0.1319037
27	0x3bd2cb9a	0.0064329626
28	0xbe590e66	-0.21196899
29	0xbd496479	-0.049168084
30	0x3e10aa14	0.1412738
31	0x3de4b589	0.111674376
32	0xbe0b4a45	-0.1360255
33	0x3d21aa1e	0.039468877
34	0xbd0146e2	-0.03156174
35	0x3c478caf	0.012179538
36	0xbed0bb1d	-0.40767756
37	0x3e01857c	0.12648576
38	0xbd96a75a	-0.073561385
39	0x3de519e5	0.111865796
40	0x3dff81ce	0.1247593
41	0x3e04c0b8	0.12964141
42	0x3c99211e	0.01869255
43	0x3d0881f3	0.033327054
44	0xbe182e1e	-0.14861342
45	0x3e891e37	0.26780865
46	0x3e76b9b4	0.24094278
47	0xbdcd74d5	-0.100320496
48	0x3c690b71	0.014223919
49	0x3e068768	0.13137591
50	0xbe498eb9	-0.1968335
51	0x3e5b5564	0.21419293
52	0xbd3cd38d	-0.046100188
53	0xbda7d58d	-0.081950285
54	0x3c7b105c	0.015323725
55	0x3d397d17	0.04528531
56	0xbceed1e5	-0.02915282
57	0x3e2f527f	0.17121314
58	0xbdfbfb04	-0.12303737
59	0xbd9da9a9	-0.07698376
60	0xbeefcf43	-0.46837816
61	0xbcd399ae	-0.025830116
62	0x3e29cabe	0.16581246
63	0xbe56ced6	-0.20977339
64	0x3e0d65c8	0.13808358
65	0x3e57254b	0.2101032
66	0x3e1df603	0.15425877
67	0x3e638bcd	0.22221299
68	0xbebf62e7	-0.37380144
69	0x3e341f38	0.17590034
70	0xbe4e109b	-0.20123522
71	0x3ce93277	0.028466446
72	0x3e235602	0.15950778
73	0x3e29b8da	0.16574422
74	0xbde605cf	-0.11231577
75	0x3d0c9469	0.034321222
76	0xbd448f4c	-0.04798822
77	0x3c2929d7	0.010324917
78	0x3e2cb7c9	0.16866983
79	0xbe8068dc	-0.2508
80	0xbebf12c8	-0.37319016
81	0x3df8cf86	0.12148957
82	0xbd95372c	-0.07285914
83	0x3eab6b4a	0.33480293
84	0xbdd47fd9	-0.103759475
85	0xbc82fcd5	-0.0159897
86	0xbe943582	-0.28947073
87	0xbdde41c5	-0.10852388
88	0x3c6e7f10	0.014556661
89	0xbcb221d8	-0.021744654
90	0xbddc0c20	-0.107445
91	0x3d91708c	0.07101545
92	0x3cd68280	0.026185274
93	0xbdd484b5	-0.10376874
94	0xbd92d7de	-0.0717008
95	0xbd8b5f5a	-0.06805296
96	0xbd133be8	-0.035945803
97	0x3e0fc3f4	0.14039594
98	0x3e1d7093	0.15374975
99	0x3e0508ab	0.12991588
100	0xbe5edadd	-0.21763177
101	0x3c85325f	0.01625937
102	0xbe23dcfa	-0.16002265
103	0x3e154661	0.14577629
104	0x3d9969b4	0.074908644
105	0xbe37cf4d	-0.17950173
106	0x3d703512	0.05864436
107	0x3d84d10e	0.064851865
108	0x3e0beac4	0.13663775
109	0x3e52900f	0.20562766
110	0x3d1196e4	0.03554429
111	0xbef49c15	-0.4777533
112	0x3e215d40	0.15758228
113	0x3cd282cd	0.025697136
114	0x3d94cded	0.0726584
115	0x3e88a8e1	0.26691344
116	0x3b983b6f	0.004645757
117	0x3caed51c	0.021341853
118	0xbd0f4ac2	-0.034983404
119	0xbc89c78b	-0.016818782
120	0xbd9874b2	-0.07444133
121	0x3e2600b9	0.16211213
122	0x3e415ec1	0.18883802
123	0xbd1c4733	-0.03815384
124	0x3d2af6de	0.041739337
125	0x3ca5db9d	0.020246321
126	0x3cc4c24f	0.024018435
127	0xbeca1a1b	-0.39473042
128	0xbeb4d9ba	-0.35322362
129	0xbe2d5c47	-0.16929732
130	0xbe0517d5	-0.12997372
131	0x3d5c2756	0.05374845
132	0xbe86c5a9	-0.26322678
133	0x3e04796c	0.12936944
134	0x3eab59e2	0.33467013
135	0xbd83219e	-0.06402896
136	0x3e034d22	0.12822393
137	0x3e9c16a1	0.30486014
138	0xbe9c05cf	-0.30473182
139	0x3e1e8f2d	0.15484305
140	0x3dbc66f8	0.09199327
141	0x3e848e50	0.25889826
142	0x3d2f5b52	0.0428117
143	0x3d3ae6d7	0.045630302
144	0x3e5acdcb	0.21367566
145	0x3d4906fb	0.049078923
146	0x3d96a90e	0.073564634
147	0xbecb1bb8	-0.39669585
148	0xbb17bea2	-0.0023154397
149	0x3e137106	0.14398584
150	0xbb66470e	-0.0035137567
151	0xbd18118a	-0.0371261
152	0xbd842f9c	-0.06454393
153	0x3e1c6dc8	0.15276253
154	0xbe424a4a	-0.18973652
155	0xbe143ee9	-0.14477123
156	0x3eb623e9	0.35574272
157	0x3e899233	0.26869354
158	0x3d8521eb	0.0650061
159	0x3e27e73b	0.16396801
160	0x3e5cc353	0.21558885
161	0x3e5fb139	0.21844949
162	0xbe9682ac	-0.2939657
163	0xbdd26ad4	-0.10274282
164	0x3e54206e	0.20715496
165	0x3e740cdf	0.23833035
166	0x3d9b4d32	0.07583083
167	0x3d075bac	0.03304641
168	0x3cf405b8	0.029787883
169	0x3e49b0df	0.19696377
170	0x3d4acb6e	0.049510412
171	0xbd2fe74b	-0.042945188
172	0x3e3ca45d	0.18422075
173	0xbdffb7ac	-0.124862045
174	0x3e296f3f	0.16546343
175	0xbe055f16	-0.13024554
176	0xbe2f1f50	-0.17101789
177	0x3e44e0a1	0.19226314
178	0x3d7c3480	0.061573505
179	0xbdf8a95c	-0.12141678
180	0x3ce742ca	0.02823009
181	0x3de56bc9	0.11202199
182	0x3dd86de6	0.105678365
183	0x3d3200ed	0.043457914
184	0x3e2e9438	0.17048728
185	0xbe8efa6e	-0.27925438
186	0xbdd02e84	-0.10165122
187	0x3e506a1a	0.20352975
188	0x3d1fc41e	0.03900539
189	0x3e631955	0.22177632
190	0xbd702c78	-0.05863616
191	0xbe29391e	-0.16525695
192	0x3db7a856	0.089676544
193	0x3d8c5337	0.068518095
194	0xbdc3f429	-0.09568054
195	0x3e8a605c	0.2702664
196	0x3ef23ddb	0.47312817
197	0xbe9c2889	-0.30499676
198	0x3e4ed7da	0.20199528
199	0x3d469781	0.04848433
200	0xbd699b4c	-0.05703287
201	0x3e29647d	0.1654224
202	0xbd98642a	-0.0744098
203	0x3c52dfd8	0.012870751
204	0x3d847173	0.06466951
205	0xbac534c7	-0.0015045636
206	0x3e1660da	0.14685383
207	0xbea045a3	-0.3130313
208	0xbe3dfaa3	-0.18552642
209	0x3dff43cc	0.12464103
210	0xbe538eb2	-0.20659903
211	0x3e733961	0.23752357
212	0x3d7cc86c	0.061714575
213	0x3e11eb24	0.14249855
214	0xbcfd3945	-0.030911097
215	0xbd182007	-0.03713992
216	0xbda4d860	-0.08049083
217	0x3cee304a	0.02907576
218	0xbd4e2767	-0.050330546
219	0x3d88d87a	0.06681915
220	0x3e9087dc	0.28228652
221	0x3e2922f8	0.16517246
222	0x3e1b3542	0.15157035
223	0x3d84a8be	0.064774975
224	0x3dd84caa	0.105614975
225	0xbe3a3b42	-0.18186668
226	0xba6c181e	-0.0009006279
227	0x3e0afd1b	0.13573115
228	0x3e7d4c4e	0.24736139
229	0xbddbd9f9	-0.10734934
230	0x3e0ef02b	0.13958804
231	0xbd817278	-0.06320661
232	0x3e73057b	0.2373256
233	0x3ab2e9cf	0.0013650003
234	0x3e90d9ef	0.2829127
235	0x3ccfbadd	0.025357658
236	0x3e1cbf38	0.15307319
237	0xbe82ca9e	-0.2554521
238	0x3e025913	0.12729292
239	0x3ca8be90	0.02059868
240	0x3dcb92f5	0.09940139
241	0x3da60ee7	0.08108311
242	0xbe324f75	-0.17413123
243	0x3e0d51e0	0.13800764
244	0xbcb30618	-0.021853492
245	0x3dd30116	0.103029415
246	0xbe46f486	-0.19429216
247	0x3d2b5503	0.04182912
248	0xbda87d75	-0.08227054
249	0x3c003045	0.007824008
250	0x3e28dd3b	0.16490643
251	0x3de5f3fd	0.11228178
252	0xbcc1ae0b	-0.02364256
253	0x3ec2a7da	0.38018686
254	0x3e39b4d5	0.18135388
255	0x3de52f00	0.11190605

bias f4 [32]
0	0x3d373ee7	0.044737723
1	0xbd3d3031	-0.046188537
2	0xbd4d2a4c	-0.050089166
3	0x3cd1addb	0.025595596
4	0xbce6b66c	-0.028163157
5	0x3c812688	0.015765443
6	0x3edf8310	0.4365468
7	0x3d695820	0.05696881
8	0x3e465da5	0.1937166
9	0x000b649e	1.046285e-39
10	0x3d80eb7f	0.06294917
11	0x3c85b265	0.016320417
12	0xbb87f6b0	-0.0041492805
13	0x3d0b5e24	0.034025326
14	0xbc396dd2	-0.011317687
15	0x3db4a226	0.0881999
16	0xba83307b	-0.0010008955
17	0x3d33bc9e	0.04388105
18	0x3c864502	0.016390327
19	0xbcd0616b	-0.025437078
20	0x800269f8	-2.21685e-40
21	0x3c92d434	0.017923452
22	0x9c851874	-8.807523e-22
23	0x3bb99458	0.005663436
24	0xbbb7358f	-0.0055911015
25	0x3e2afb81	0.16697504
26	0xbc747738	-0.014921002
27	0x3cd85540	0.026407838
28	0x3d7e3984	0.06206657
29	0x3d8710d6	0.06595008
30	0xbba227e3	-0.0049486025
31	0x3b78bd56	0.003795465

weight f4 [32, 32]
0	0xbe2df837	-0.16989218
1	0xbce1df87	-0.027572406
2	0xbf0eb584	-0.5574572
3	0xbe991c70	-0.2990451
4	0x3d593258	0.053026527
5	0x3e392df3	0.18083934
6	0xbd89e264	-0.06732634
7	0xbe29691f	-0.16544007
8	0xbdc10ad9	-0.09425897
9	0x3da804ae	0.082040176
10	0x3eb6db13	0.35714015
11	0xbd27776d	-0.040885378
12	0xbeff6422	-0.49881083
13	0x3ef387d2	0.4756456
14	0x3e0cd9f3	0.13755016
15	0xbe7aab46	-0.24479398
16	0xbd372c2b	-0.044719856
17	0xbe0c01a0	-0.13672495
18	0x3f5ee60a	0.8706976
19	0x3ebfd7d6	0.37469357
20	0xbde3b00b	-0.11117562
21	0xbe365afa	-0.17808142
22	0x3d90ee33	0.07076683
23	0xbda20054	-0.07910219
24	0xbed5c4f8	-0.41751838
25	0xbe9fd79c	-0.31219184
26	0xbe85c449	-0.26126316
27	0xbed13eae	-0.40868133
28	0xbe163760	-0.14669561
29	0xbd6f64f3	-0.058445882
30	0xbdef0b60	-0.116720915
31	0xbe491efb	-0.19640724
32	0x3e690a2d	0.22757788
33	0x3cc98cd9	0.024603294
34	0xbd16672f	-0.036719497
35	0x3e56a531	0.20961453
36	0x3f220013	0.63281363
37	0xbe6cdc86	-0.23130998
38	0xbe335a97	-0.17515026
39	0xbee248a8	-0.44196057
40	0xbf976498	-1.1827574
41	0x3c355c59	0.011069381
42	0x3e94dbf9	0.29074076
43	0x3d6b9efc	0.057524666
44	0xbeaeee15	-0.34166017
45	0x3e037ba7	0.12840138
46	0x3e3b46fd	0.18288799
47	0xbdf57992	-0.11986078
48	0xbe81652f	-0.2527251
49	0x3e2f0d2e	0.17094871
50	0xbeb85852	-0.36004883
51	0xbd918641	-0.07105685
52	0xbd51c579	-0.051213715
53	0x3d1c8606	0.038213752
54	0x3e3f4caf	0.18681596
55	0xbe486d3e	-0.19572923
56	0x3ead87bf	0.3389263
57	0xbddca8fd	-0.107744195
58	0x3e176b8f	0.14787124
59	0xbe97e6ce	-0.29668278
60	0x3f1c1f23	0.6098501
61	0xbd72aea9	-0.0592486
62	0x3c0ecd2d	0.00871591
63	0xbe37757c	-0.1791591
64	0x3e8dc788	0.27691293
65	0xbe8460d2	-0.25855118
66	0xbe1de419	-0.15419044
67	0xbc573ec2	-0.013137521
68	0xbf03a163	-0.5141813
69	0x3e2defd9	0.16986026
70	0x3ea0bc16	0.31393498
71	0xbd1fcfee	-0.039016657
72	0x3e57dc1f	0.21080063
73	0x3e10497f	0.14090537
74	0x3d93f06d	0.07223592
75	0xbf34121b	-0.70340127
76	0xbe2efa78	-0.17087734
77	0x3e119914	0.14218551
78	0xbd878574	-0.06617251
79	0x3d32f5dc	0.0436915
80	0xbcb4785a	-0.022030044
81	0x3dafd283	0.08585074
82	0xbd100a3a	-0.035166003
83	0xbe2bb03c	-0.16766447
84	0x3d87edbc	0.06637141
85	0x3d5d3f00	0.05401516
86	0xbd430944	-0.04761626
87	0xbe923b40	-0.2856083
88	0xbed2f26a	-0.41200572
89	0xbe87cde9	-0.26524284
90	0xbf5a8465	-0.8535827
91	0x3e55d416	0.20881686
92	0xbf4d738c	-0.80254436
93	0xbe603012	-0.21893337
94	0x3d3657ea	0.044517435
95	0xbe12f170	-0.14349914
96	0xbe5253cb	-0.20539777
97	0x3d605f25	0.054778237
98	0xbd895f87	-0.067076735
99	0x3e379d4b	0.17931096
100	0x3dc22fe3	0.0948179
101	0xbec65a06	-0.38740557
102	0x3e57d8a6	0.21078739
103	0xbd5108b5	-0.051033694
104	0xbe185268	-0.14875185
105	0xbe8c5ec2	-0.27416044
106	0xbe575a2a	-0.21030489
107	0xbc22283a	-0.009897286
108	0xbc87bd6e	-0.01656982
109	0x3f088629	0.5332971
110	0xba204700	-0.00061140954
111	0xbdcf5696	-0.10123937
112	0x3c68dd4b	0.014212917
113	0xbe97075e	-0.29497808
114	0x3d050386	0.032474063
115	0x3ee03001	0.43786624
116	0x3e9a0e7e	0.30089182
117	0x3ccdc0eb	0.025116405
118	0xbb1009c7	-0.0021978484
119	0xbe62551f	-0.22102784
120	0xbe18e55f	-0.14931248
121	0xbe6ce916	-0.2313579
122	0xbdeb83e3	-0.11499765
123	0x3d04244f	0.03226119
124	0x3dabb137	0.083834104
125	0x3cc7be06	0.024382602
126	0xbd9f1374	-0.07767382
127	0x3db07459	0.086159416
128	0x3d55db9b	0.052211385
129	0x3f0d9bb4	0.5531571
130	0xbe1d00b1	-0.15332295
131	0x3e5173b0	0.20454288
132	0xbf15669d	-0.583597
133	0xbf361863	-0.7113096
134	0x3e0153d5	0.12629636
135	0x3e7593ee	0.23982212
136	0x3ef03339	0.4691408
137	0xbecdd9e7	-0.4020531
138	0x3e709877	0.2349566
139	0xbd4fb18f	-0.050706442
140	0xbdaeaede	-0.08529447
141	0xbf1dac51	-0.6159106
142	0xbe093ea7	-0.13402806
143	0xbdc5b15b	-0.096529685
144	0x3dd42df2	0.10360326
145	0xbea5a463	-0.3235198
146	0x3ee2828e	0.4424023
147	0xbe980e25	-0.2969829
148	0xbd840756	-0.06446712
149	0x3d21f13a	0.039536692
150	0xbc8f8407	-0.01751901
151	0x3d541c1f	0.05178463
152	0x3ec59559	0.38590506
153	0x3df860d3	0.12127843
154	0xbe6ac0f7	-0.22925173
155	0x3f088ea7	0.5334267
156	0xbf82e93a	-1.0227425
157	0x3e57ce75	0.21074851
158	0xbdd3f728	-0.10349876
159	0xbb0b8d32	-0.0021293876
160	0xbdb81914	-0.08989158
161	0xbe116f26	-0.14202556
162	0xbe44666e	-0.19179699
163	0xbcef251e	-0.029192504
164	0x3e894e0f	0.26817366
165	0xbdcd2d67	-0.100184254
166	0xbe63ace9	-0.22233929
167	0xbe08f419	-0.13374366
168	0xbe6ea0e2	-0.2330356
169	0xbe5b97fc	-0.21444696
170	0xbdf3f28f	-0.11911499
171	0xbdaca170	-0.08429229
172	0xbe1a2bc2	-0.15055755
173	0x3da45ad7	0.08025139
174	0xbe2a3469	-0.16621555
175	0xbe8b8f2b	-0.27257666
176	0xbe22f1df	-0.15912579
177	0xbddd65e5	-0.108104505
178	0x3e5ee86c	0.2176835
179	0xbd18760b	-0.03722195
180	0xbda6b270	-0.08139503
181	0x3d4a4ae1	0.049387816
182	0xbd8ed3dc	-0.06974003
183	0xbe2da655	-0.16957982
184	0xbe1518ab	-0.14560191
185	0xbe44853c	-0.1919145
186	0xbd1ec57d	-0.03876256
187	0x3e9106c1	0.28325465
188	0xbdce9103	-0.100862525
189	0x3e7b2d8a	0.2452909
190	0xbe569eca	-0.2095901
191	0xbc99ff35	-0.01879845
192	0x3eaf3e1a	0.34227067
193	0x3eb13b66	0.3461563
194	0x3ce8e2b2	0.02842841
195	0x3eec5ad7	0.46163055
196	0xbe9bef2e	-0.30455917
197	0x3d910b6c	0.07082257
198	0xbe969611	-0.29411367
199	0x3f3977c4	0.7244837
200	0x3ebd03b9	0.36916903
201	0xbfa7b907	-1.3103341
202	0x3dcd2cbd	0.10018299
203	0x3e5a964b	0.21346395
204	0xbe536553	-0.20644121
205	0x3e81b61c	0.2533425
206	0xbe05cd52	-0.13066605
207	0x3dce0814	0.100601345
208	0x3e68de8f	0.2274115
209	0xbe7c029a	-0.24610367
210	0x3f2f3bdc	0.68450713
211	0xbed06d92	-0.40708596
212	0xbeadd57b	-0.33951935
213	0x3da28c1c	0.0793688
214	0x3e844e6d	0.25841084
215	0x3eb04bf7	0.34432957
216	0x3e8f2cb9	0.27963808
217	0x3dd81dce	0.1055256
218	0xbd217681	-0.039419655
219	0x3f005764	0.5013335
220	0xbec8d7ea	-0.3922723
221	0x3c866132	0.016403768
222	0x3dac3806	0.08409123
223	0x3ea45a26	0.32100028
224	0x3f23610d	0.6381996
225	0xbe9785d3	-0.29594287
226	0xbe5367ce	-0.20645067
227	0x3e06380d	0.13107319
228	0x3f390765	0.7227691
229	0xbf1c3d1a	-0.61030734
230	0xbdcbae09	-0.09945304
231	0xbdab2e5d	-0.083584525
232	0xbf414dad	-0.7550915
233	0xbe3c4949	-0.18387331
234	0xbe1775c4	-0.14791018
235	0xbeef6fc4	-0.46764958
236	0xbdc96851	-0.0983435
237	0xbcb07105	-0.021538267
238	0xbeacd68e	-0.33757442
239	0xbe23dc2d	-0.16001959
240	0x3ed095c3	0.4073926
241	0xbdee465f	-0.11634516
242	0x3e2584ba	0.16163912
243	0xbea9feaa	-0.33202106
244	0xbed061c5	-0.40699592
245	0x3e00c359	0.12574519
246	0xbd17267a	-0.03690193
247	0xbe6d2d5a	-0.23161831
248	0x3ed1dc79	0.4098852
249	0x3e0742be	0.13209054
250	0x3e477d6e	0.19481441
251	0x3da7d2d7	0.081945114
252	0x3f037e96	0.5136503
253	0xbe963c0c	-0.29342687
254	0xbe0973fb	-0.1342315
255	0x3d26bf21	0.04070962

bias f4 [32]
0	0x3d33bc22	0.04388059
1	0xbd3fcd7d	-0.04682683
2	0xbd4daee3	-0.050215613
3	0x3cc38fb9	0.023872243
4	0xbce36bdc	-0.027761392
5	0x3c80a885	0.015705356
6	0x3edf0f63	0.43566427
7	0x3d626a01	0.055276874
8	0x3e43c299	0.19117202
9	0x80093da7	-8.48636e-40
10	0x3d791d06	0.060818695
11	0x3c8caac4	0.017171271
12	0xbb89b6b1	-0.0042026867
13	0x3d0f22f3	0.03494544
14	0xbc3b76ed	-0.011441928
15	0x3db39457	0.08768528
16	0xbac892df	-0.001530256
17	0x3d32a50d	0.043614436
18	0x3c885cd6	0.01664583
19	0xbcd5d4b2	-0.026102398
20	0x00028eff	2.34968e-40
21	0x3c932b9a	0.017965127
22	0x1bc3659d	3.232571e-22
23	0x3bbabd4d	0.005698836
24	0xbbba2a0a	-0.005681281
25	0x3e2aad5c	0.16667694
26	0xbc7490a6	-0.014927065
27	0x3cd3dde8	0.02586265
28	0x3d7b66a1	0.06137717
29	0x3d851287	0.064976744
30	0xbba0cd5c	-0.0049072932
31	0x3bba2cf6	0.0056816293
