train_script/weights/GCNEdgeBased_model300new/51.pth (torch, 46347 bytes, 17 tensors)

weight f4 [32, 13]
0	0x800b3983	-1.030822e-39
1	0x000c900e	1.153703e-39
2	0x800a71d5	-9.5919e-40
3	0x8012a5c3	-1.712503e-39
4	0x00045503	3.97838e-40
5	0x0009ef48	9.12357e-40
6	0x0001e767	1.74847e-40
7	0x000f7892	1.420785e-39
8	0x8003086e	-2.7853e-40
9	0x000aa3d2	9.77123e-40
10	0x800df38b	-1.281228e-39
11	0x0003c492	3.46023e-40
12	0x80005786	-3.1397e-41
13	0x8003d129	-3.50539e-40
14	0x800c8483	-1.149562e-39
15	0x8008a167	-7.92584e-40
16	0x80012058	-1.03438e-40
17	0x0004db21	4.4595e-40
18	0x800eb4d5	-1.350567e-39
19	0x000ad9fb	9.96552e-40
20	0x0012d69b	1.730025e-39
21	0x800a365d	-9.37857e-40
22	0x80043ac8	-3.88429e-40
23	0x800672a5	-5.9214e-40
24	0x000223bc	1.9649e-40
25	0x800710c8	-6.48868e-40
26	0x000305ff	2.77657e-40
27	0x00080abb	7.38533e-40
28	0x800f3575	-1.396709e-39
29	0x8013fda9	-1.83587e-39
30	0x800a8096	-9.64483e-40
31	0x8001b019	-1.55007e-40
32	0x800dad44	-1.256017e-39
33	0x000b6c02	1.048936e-39
34	0x000ab185	9.82037e-40
35	0x001162d8	1.596662e-39
36	0x000728ba	6.57458e-40
37	0x000b8b15	1.060084e-39
38	0x800e9661	-1.339643e-39
39	0x800773f9	-6.84452e-40
40	0x80029c10	-2.39656e-40
41	0x8014a638	-1.896338e-39
42	0x8000dc2f	-7.8987e-41
43	0x00110a78	1.564959e-39
44	0x00039250	3.27994e-40
45	0x001077ba	1.512318e-39
46	0x800dfef5	-1.285323e-39
47	0x8005d27a	-5.34682e-40
48	0x000380c4	3.21699e-40
49	0x0002b597	2.48813e-40
50	0x800d5f13	-1.227968e-39
51	0x000934e0	8.45487e-40
52	0x00048c02	4.17567e-40
53	0x000b0664	1.012483e-39
54	0x8002c407	-2.53992e-40
55	0x000e4125	1.309066e-39
56	0x8008056e	-7.36632e-40
57	0x0009b45c	8.9122e-40
58	0x800dc3e6	-1.264137e-39
59	0x000f3b16	1.398728e-39
60	0x800323ab	-2.88302e-40
61	0x800a0382	-9.19613e-40
62	0x0007b5e2	7.08096e-40
63	0x8001b10e	-1.55351e-40
64	0x8003a832	-3.35844e-40
65	0x800c68df	-1.139647e-39
66	0x8003ea0e	-3.5947e-40
67	0x800d7bb2	-1.238235e-39
68	0x000b485c	1.036148e-39
69	0x000c1254	1.108601e-39
70	0x000d95b1	1.24756e-39
71	0x80086495	-7.70766e-40
72	0x8003e26b	-3.5673e-40
73	0x800bf0ac	-1.096527e-39
74	0x80120f0e	-1.65844e-39
75	0x80032ca8	-2.91526e-40
76	0x00097299	8.6763e-40
77	0x800738f1	-6.63275e-40
78	0x000c6b1c	1.14045e-39
79	0x800a1827	-9.27019e-40
80	0x000d48ca	1.219973e-39
81	0x0007205b	6.54455e-40
82	0x000f2e0f	1.394055e-39
83	0x80014453	-1.16346e-40
84	0x000c0e73	1.10721e-39
85	0x00012344	1.04486e-40
86	0x000a823a	9.65071e-40
87	0x8004b7d4	-4.33287e-40
88	0x8011239d	-1.573979e-39
89	0x000610a4	5.56983e-40
90	0x0005714c	4.99821e-40
91	0x000cdc45	1.181044e-39
92	0x000ae6ed	1.001196e-39
93	0x80054a93	-4.8593e-40
94	0x000ceb2e	1.186393e-39
95	0x000a0aa3	9.2217e-40
96	0x000e0b3a	1.289724e-39
97	0x00045d78	4.00872e-40
98	0x800937ca	-8.46533e-40
99	0x8002eb02	-2.67976e-40
100	0x00069af8	6.06605e-40
101	0x800f0e7c	-1.382728e-39
102	0x000b9e9c	1.067089e-39
103	0x00001361	6.952e-42
104	0x800d32dc	-1.212106e-39
105	0x8000b6a7	-6.5523e-41
106	0x000acbfd	9.91532e-40
107	0x000c6386	1.137728e-39
108	0x800b6f8b	-1.050205e-39
109	0x000a884f	9.67253e-40
110	0x0006af8c	6.13987e-40
111	0x000f1135	1.383705e-39
112	0x00043b34	3.8858e-40
113	0x00012f24	1.08746e-40
114	0x80129b7f	-1.70882e-39
115	0x80104756	-1.494958e-39
116	0x800a6385	-9.54056e-40
117	0x8012f138	-1.739572e-39
118	0x80032971	-2.90373e-40
119	0x8009eb45	-9.10918e-40
120	0x8012c692	-1.724273e-39
121	0x800f753e	-1.419591e-39
122	0x00017c07	1.36328e-40
123	0x8006b1c4	-6.14783e-40
124	0x000ad818	9.95875e-40
125	0x00145d66	1.870215e-39
126	0x8009becb	-8.94963e-40
127	0x80007ea4	-4.543e-41
128	0x0000b48c	6.4768e-41
129	0x800fce32	-1.451501e-39
130	0x000d1f30	1.20505e-39
131	0x00101753	1.477735e-39
132	0x0014857c	1.884595e-39
133	0x000b77e9	1.053206e-39
134	0x000a1f7c	9.2965e-40
135	0x0000261f	1.3675e-41
136	0x800aec32	-1.003086e-39
137	0x000b4bb0	1.037342e-39
138	0x800c5351	-1.131914e-39
139	0x0009db08	9.05093e-40
140	0x800dee82	-1.279422e-39
141	0x0003b60a	3.4081e-40
142	0x8008f6b9	-8.23191e-40
143	0x8001f1c7	-1.78569e-40
144	0x0002d45e	2.59854e-40
145	0x8000bbee	-6.7416e-41
146	0x000c0463	1.1036e-39
147	0x800bec6c	-1.095003e-39
148	0x00136717	1.781856e-39
149	0x000c057e	1.103996e-39
150	0x000007fa	2.861e-42
151	0x800041ad	-2.356e-41
152	0x000ac936	9.90536e-40
153	0x000e8bc7	1.33584e-39
154	0x80062542	-5.64379e-40
155	0x800fd83f	-1.455107e-39
156	0x800082fc	-4.6988e-41
157	0x00128879	1.701996e-39
158	0x800bbe04	-1.078355e-39
159	0x800a1dcd	-9.29045e-40
160	0x00078685	6.91105e-40
161	0x8003ae0e	-3.37946e-40
162	0x00077992	6.8646e-40
163	0x800ce9fb	-1.185962e-39
164	0x80019646	-1.45743e-40
165	0x800bbc28	-1.077688e-39
166	0x000c59f0	1.13429e-39
167	0x0004a9c3	4.28241e-40
168	0x000f2ffb	1.394745e-39
169	0x800b0a5f	-1.013911e-39
170	0x8003104a	-2.8135e-40
171	0x800a7f7d	-9.64089e-40
172	0x000f3202	1.395472e-39
173	0x0012b42f	1.717677e-39
174	0x800770e6	-6.83349e-40
175	0x000d4d82	1.221666e-39
176	0x000b6024	1.044679e-39
177	0x000c7d1b	1.146905e-39
178	0x00101853	1.478094e-39
179	0x800c3bed	-1.123523e-39
180	0x000f9d30	1.43392e-39
181	0x0005d551	5.35701e-40
182	0x80007dac	-4.5083e-41
183	0x800914ff	-8.34051e-40
184	0x000be095	1.090755e-39
185	0x00033a5e	2.96445e-40
186	0x800529ad	-4.74128e-40
187	0x800cd3ea	-1.178046e-39
188	0x8005eaf2	-5.4346e-40
189	0x8008eba1	-8.19212e-40
190	0x8000a619	-5.9585e-41
191	0x8004bc25	-4.34836e-40
192	0x0005b9d9	5.25847e-40
193	0x80083061	-7.52039e-40
194	0x00036519	3.11773e-40
195	0x0003f49d	3.63257e-40
196	0x00002448	1.3015e-41
197	0x80075347	-6.72723e-40
198	0x00094c38	8.53862e-40
199	0x000d00c6	1.194139e-39
200	0x8003c3a1	-3.45685e-40
201	0x80123995	-1.673695e-39
202	0x8005a813	-5.19471e-40
203	0x0004b57e	4.32449e-40
204	0x0013e869	1.828247e-39
205	0x80083e4d	-7.57033e-40
206	0x800d47ad	-1.219574e-39
207	0x800a5ba6	-9.51232e-40
208	0x8001c681	-1.63045e-40
209	0x8013a90f	-1.805521e-39
210	0x0009dddc	9.06108e-40
211	0x8013cd07	-1.818424e-39
212	0x0007a138	7.00683e-40
213	0x0010dd0f	1.548669e-39
214	0x00114eda	1.58949e-39
215	0x8002e6a4	-2.66409e-40
216	0x800be179	-1.091075e-39
217	0x8008c653	-8.05829e-40
218	0x0002fc8a	2.74265e-40
219	0x000c76ed	1.144688e-39
220	0x0001783d	1.34969e-40
221	0x80007626	-4.2384e-41
222	0x8009cf91	-9.0098e-40
223	0x80015a69	-1.24269e-40
224	0x800f91b6	-1.429804e-39
225	0x800cb7ee	-1.168007e-39
226	0x000f9a80	1.432957e-39
227	0x800a75fb	-9.60678e-40
228	0x000a0aa1	9.22168e-40
229	0x00034cc9	3.03052e-40
230	0x0006902e	6.02735e-40
231	0x0007d36d	7.18694e-40
232	0x0009ffe4	9.18316e-40
233	0x80041e8c	-3.783e-40
234	0x0005459e	4.84151e-40
235	0x8001d11b	-1.66848e-40
236	0x800fe0a4	-1.458118e-39
237	0x8004317f	-3.85098e-40
238	0x0005cfe9	5.33762e-40
239	0x8002db5f	-2.62367e-40
240	0x8008ab8d	-7.96225e-40
241	0x800e1fd0	-1.297109e-39
242	0x80140a18	-1.840331e-39
243	0x00000428	1.491e-42
244	0x00039fc9	3.32827e-40
245	0x0004d54f	4.43863e-40
246	0x00023757	2.03523e-40
247	0x800a6f6b	-9.58324e-40
248	0x80032d22	-2.91697e-40
249	0x80019d20	-1.48201e-40
250	0x8013f2c2	-1.83196e-39
251	0x8008047e	-7.36295e-40
252	0x000bc588	1.081051e-39
253	0x80000284	-9.02e-43
254	0x00072237	6.55122e-40
255	0x000fcdcf	1.451363e-39

bias f4 [32]
0	0xbdab5b22	-0.083669916
1	0xbdc10f15	-0.09426705
2	0x3bdd706d	0.006757787
3	0xbdf229bb	-0.11824366
4	0xbda703a4	-0.08154991
5	0xbd285c33	-0.041103553
6	0xbd8373af	-0.06418549
7	0xbdd1d829	-0.102463074
8	0xbdd34189	-0.10315234
9	0xbdb0253d	-0.08600853
10	0xbc986b99	-0.018605994
11	0xbda9c7cd	-0.08290062
12	0xbdc153fe	-0.09439848
13	0xbdf3e132	-0.11908187
14	0xbdae5e07	-0.08514028
15	0xbde7d766	-0.11320381
16	0xbbbf3ef6	-0.005836363
17	0xbdc8f3e2	-0.09812142
18	0xbcc61449	-0.024179595
19	0xbc37bc4f	-0.01121433
20	0x3d070ab4	0.03296919
21	0xbcf04e9b	-0.029334357
22	0xbcf0a802	-0.029376987
23	0xbe160486	-0.14650163
24	0x3e006d3d	0.12541671
25	0xbcdab02c	-0.026695333
26	0x3daddf13	0.08489814
27	0xbcf71578	-0.030161604
28	0xbdf1f036	-0.11813395
29	0xbd8c927a	-0.06863876
30	0xbdc01d6c	-0.09380612
31	0xbdf26139	-0.1183495

weight f4 [32, 13]
0	0x3eafb8ce	0.34320682
1	0xbe9b5366	-0.30337065
2	0xbbb7823c	-0.005600242
3	0x3df2cc05	0.1185532
4	0x3e980caf	0.29697177
5	0x3b67245b	0.0035269472
6	0x3caccd43	0.02109397
7	0x3ce183cf	0.027528672
8	0x3d3ba8d1	0.045815293
9	0x3d2e4bbc	0.042552695
10	0xbdad9762	-0.084761396
11	0xbcb793b5	-0.0224093
12	0xbd38fceb	-0.045163076
13	0xbc8b635a	-0.017015148
14	0x3d37545a	0.04475818
15	0x3d2c3f7e	0.04205274
16	0x3db384f1	0.08765591
17	0x3ed1fd36	0.41013497
18	0xbd1ab2e8	-0.037768275
19	0xbe615036	-0.22003254
20	0xbc84790f	-0.016171006
21	0x3c94bc3a	0.01815616
22	0x3d3fbd23	0.046811234
23	0x3d6f352a	0.05840031
24	0xbe435488	-0.19075215
25	0xbe28863c	-0.16457456
26	0xbd0466d3	-0.032324623
27	0xbd91e518	-0.07123774
28	0xbc93c8f8	-0.018040165
29	0xbef8e4d1	-0.48612073
30	0x3eb450b4	0.35217822
31	0x3d4d8988	0.05017999
32	0xbcb05e66	-0.021529388
33	0x3c995c9a	0.018720914
34	0xbd53208b	-0.051544707
35	0x3ca8bcf2	0.020597909
36	0x3db9d0a2	0.09072997
37	0xb9d9c24a	-0.00041534222
38	0xbd682e3c	-0.056684718
39	0x3e9c0bac	0.30477655
40	0xbe61e948	-0.22061646
41	0xbe31e782	-0.1737347
42	0xbd00e7f4	-0.031471208
43	0xbf116f6e	-0.56810653
44	0x3d17aa0e	0.03702741
45	0xbbae47c0	-0.005318612
46	0x3dc406b8	0.09571594
47	0xbe2bb65f	-0.16768788
48	0xbe1e4b39	-0.15458383
49	0x3b4db285	0.0031386924
50	0xbcdb3c75	-0.026762227
51	0xbe9dee1b	-0.30845723
52	0x3edcd9e4	0.43134987
53	0xbc82ea9a	-0.015981007
54	0x3daafc54	0.08348909
55	0xbe2140b2	-0.15747336
56	0x3e2f89d1	0.17142417
57	0x3da697d0	0.08134425
58	0xbd86b3e3	-0.065772794
59	0xbd1d20eb	-0.03836147
60	0xbbb52776	-0.0055283858
61	0x3b8d3f63	0.004310535
62	0x3d23aa5a	0.03995738
63	0x3d289416	0.04115685
64	0xbde6ef4a	-0.112761095
65	0xbdc3dc3a	-0.09563489
66	0x3e63d749	0.22250094
67	0x3e852eb3	0.2601219
68	0xbe09496e	-0.13406917
69	0xbd5b5424	-0.05354704
70	0x3d4323a4	0.04764141
71	0xbd80548d	-0.06266127
72	0x3dda265f	0.1065185
73	0x3d559726	0.0521461
74	0x3c42e47d	0.011895296
75	0x3dfbbbfb	0.12291714
76	0x3e53cec5	0.20684345
77	0x3d059fb5	0.03262301
78	0x3e64214c	0.22278327
79	0xbcd2e23a	-0.025742639
80	0xbe679758	-0.22616327
81	0xbe13f7b2	-0.14449957
82	0xbe36e046	-0.17858991
83	0xbd2b83dd	-0.0418738
84	0xbd4d8dad	-0.05018394
85	0xbd4bf564	-0.04979457
86	0x3e28fe10	0.16503167
87	0x3de5d38c	0.1122199
88	0x3d6b6e8a	0.057478465
89	0xbc0f688e	-0.008752955
90	0x3dac8e3a	0.08425565
91	0xbd129529	-0.03578678
92	0x3d8725b0	0.06598985
93	0x3e5828f9	0.2110938
94	0xbd6b09b2	-0.057382293
95	0x3dc28470	0.09497917
96	0xbd61b665	-0.055105586
97	0x3de213d7	0.110389404
98	0x3e310a34	0.17289048
99	0x3e42ceb8	0.1902417
100	0x3dc351ea	0.09537108
101	0xbd31bf68	-0.04339543
102	0xbd37c158	-0.04486212
103	0xbec4c700	-0.38433075
104	0xbd834223	-0.06409099
105	0x3c448a31	0.011995838
106	0x3e5dce07	0.21660624
107	0xbdaf665f	-0.085644476
108	0xbdb061a2	-0.08612372
109	0xbd6bfb8d	-0.057612944
110	0xbcca8615	-0.024722138
111	0x3d459361	0.048236255
112	0xbe5e266b	-0.21694343
113	0x3c1d843b	0.009614046
114	0x3c107887	0.008817798
115	0x3d10bcf0	0.035336435
116	0x3d7a5cc3	0.06112362
117	0x3e2df976	0.16989693
118	0xbda3ac72	-0.07991876
119	0xbdf634d3	-0.12021794
120	0xbde69318	-0.11258525
121	0x3d95e1ef	0.07318484
122	0x3c6e3187	0.014538175
123	0xbe23902d	-0.15972967
124	0xbe5534b8	-0.20820892
125	0x3d930573	0.07178774
126	0xbe48dbc9	-0.19615091
127	0xbd39e334	-0.045382693
128	0x3c6cead6	0.014460286
129	0xbde5915f	-0.11209368
130	0x3e10f62c	0.14156407
131	0x3e0762f8	0.13221347
132	0xbf25a142	-0.64699185
133	0x3c5a9bcd	0.01334281
134	0xbe005981	-0.12534143
135	0x3c217438	0.009854369
136	0xbd4c0c98	-0.049816698
137	0x3d1b7632	0.037954517
138	0xbb416e19	-0.0029515086
139	0xbb2cce08	-0.0026367921
140	0xbcb76f9e	-0.02239209
141	0x3b9d4bd5	0.0048002996
142	0xbf353dd3	-0.7079746
143	0xbc126bf5	-0.008936872
144	0xbd1724cd	-0.03690033
145	0x3c5efa46	0.0136094745
146	0x3d4aa572	0.049474187
147	0x3dc153b5	0.09439794
148	0xbd12584f	-0.03572875
149	0xbdf96d94	-0.121791035
150	0x3d97bd79	0.07409186
151	0xbc6759c1	-0.01412052
152	0x3bebd7fd	0.0071973787
153	0x3c0280ea	0.007965306
154	0x3d1d5eb3	0.03842039
155	0xbc50e951	-0.0127509395
156	0x3db641ba	0.08899255
157	0xbe54aea5	-0.20769747
158	0xbc3d1f30	-0.01154308
159	0x3a1d473a	0.00059996883
160	0xbe56be56	-0.20971045
161	0xbcb6d7ea	-0.022319753
162	0xbc29486f	-0.010332211
163	0x3d89067a	0.066906884
164	0xbdeafd97	-0.1147415
165	0x39714915	0.00023010776
166	0x3b81afc4	0.0039577205
167	0x3cf11989	0.029431121
168	0xbd450e74	-0.048109487
169	0x3e166682	0.14687541
170	0x3d44a8f2	0.04801268
171	0xbc146f17	-0.009059689
172	0xbdba8bd6	-0.09108703
173	0xbe5e8bf9	-0.21733083
174	0xbe05cb07	-0.1306573
175	0x3c24f6f1	0.010068641
176	0x3ddba69b	0.10725137
177	0x3cb9e97f	0.022694347
178	0xbd040fdd	-0.03224169
179	0x3d19c39d	0.037540067
180	0x3ce744a4	0.028230973
181	0x3bc72654	0.006077567
182	0x3e73f8b2	0.23825338
183	0x3c36ce48	0.01115758
184	0xbd59ef91	-0.053206984
185	0x3e653b88	0.2238599
186	0x3e0a12ae	0.13483688
187	0xbe19ab3e	-0.1500673
188	0xbdf9b1f0	-0.12192142
189	0x3e025bf2	0.12730387
190	0xbd789133	-0.060685348
191	0x3d7cc9a0	0.061715722
192	0xbd1eb843	-0.038749944
193	0xbd902180	-0.070376396
194	0xbcc3fd8c	-0.023924612
195	0xbe94e60f	-0.2908177
196	0x3f1edfee	0.6206044
197	0x3df558bb	0.119798146
198	0xbd1db6f1	-0.038504545
199	0xbddb8638	-0.107189596
200	0x3d8c8d44	0.06862882
201	0x3cb869fd	0.022511477
202	0xbc53bf60	-0.012924045
203	0xbcab6971	-0.020924302
204	0x3cd75091	0.026283534
205	0xbcc65cdb	-0.024214199
206	0xbd209d00	-0.039212227
207	0x3d664ee6	0.056227587
208	0x3e9e658f	0.30936858
209	0xbe41f965	-0.18942793
210	0x3e303fb4	0.17211801
211	0x3dcbb842	0.09947254
212	0xbf3cbece	-0.73728645
213	0xbcc0ec68	-0.023550227
214	0xbb176010	-0.002309803
215	0xbcd6d08c	-0.02622249
216	0xbc4b5d57	-0.012412391
217	0xbd0d817c	-0.034547314
218	0xbcfe4097	-0.031036658
219	0xbd262bff	-0.0405693
220	0x3ee3eaa7	0.44514963
221	0x3d8ebcbc	0.06969592
222	0x3d5dd35e	0.054156654
223	0x3d7402bd	0.059572924
224	0xba1f60da	-0.00060798007
225	0x3cf68c73	0.030096268
226	0xbd0109a5	-0.03150334
227	0xbc242590	-0.010018721
228	0xbd4c2013	-0.049835276
229	0xbd090786	-0.03345444
230	0xbbead298	-0.007166218
231	0xbbf16823	-0.0073671504
232	0x3e5c1919	0.21493949
233	0x3da41d39	0.08013386
234	0xbdea4cd0	-0.11440432
235	0x3dba4b0b	0.090963446
236	0xbe7c1103	-0.24615864
237	0x3dc488cf	0.09596407
238	0x3de2ca8d	0.1107379
239	0x3e7e343e	0.24824616
240	0xbcf63a77	-0.030057175
241	0x3d00bd1c	0.03143035
242	0xbd65f2fe	-0.05613994
243	0xbd0214cc	-0.031758115
244	0xbce5f2b3	-0.02806983
245	0x3c8e0160	0.01733464
246	0xba3f3875	-0.00072944845
247	0x3dadf725	0.08494405
248	0x3d44033c	0.047854647
249	0x3d68bdb0	0.056821525
250	0xbd411c9f	-0.047146436
251	0x3e29a020	0.16564989
252	0xbd16dd12	-0.036831923
253	0x3d758d2e	0.059949093
254	0xbde2ea33	-0.11079826
255	0xbe3aed4e	-0.18254587

bias f4 [32]
0	0xbdab4b4b	-0.0836397
1	0xbdbc0500	-0.09180641
2	0x3be53fe0	0.00699614
3	0xbdea853e	-0.11451195
4	0xbda843da	-0.08216067
5	0xbd60c83a	-0.05487845
6	0xbd634bae	-0.055492096
7	0xbdb26d88	-0.08712298
8	0xbdc8025c	-0.09766075
9	0xbdae445f	-0.085091345
10	0xbca29ae5	-0.01984925
11	0xbdabdce2	-0.083917394
12	0xbdc0dc39	-0.09417004
13	0xbdf27da6	-0.11840372
14	0xbdb752b2	-0.0895132
15	0xbdf14423	-0.11780574
16	0xbbaf1102	-0.0053426037
17	0xbdc5ec3f	-0.09664201
18	0xbcc2286d	-0.023700917
19	0xbc7a7fa5	-0.015289222
20	0x3cd1c9ea	0.025608975
21	0xbc8f1758	-0.017467186
22	0xbcde4b93	-0.027135646
23	0xbe10f54b	-0.14156072
24	0x3e01ec8a	0.12687889
25	0xbcdde6f8	-0.027087674
26	0x3dac4200	0.08411026
27	0xbcec7194	-0.028862752
28	0xbdf217ef	-0.11820971
29	0xbd8e85d4	-0.069591194
30	0xbdc40c18	-0.09572619
31	0xbdf26e31	-0.118374236

weight f4 [32, 13]
0	0xbe06ce9b	-0.13164751
1	0xbe315cb7	-0.17320524
2	0xbd49d9c6	-0.04927995
3	0xbddb0457	-0.10694187
4	0xbe37edc5	-0.17961796
5	0xbe2e438a	-0.17017952
6	0xbe4ef4e8	-0.20210612
7	0xbc96ac84	-0.018392809
8	0x3e30fc9e	0.17283866
9	0xbc6f51eb	-0.014606933
10	0x3cf7618c	0.030197881
11	0x3d082a09	0.033243213
12	0xbe78b7a4	-0.24288803
13	0x3e44ca85	0.1921788
14	0x3ea8b777	0.32952473
15	0x3e5bd47f	0.2146778
16	0x3d6ed0f4	0.058304742
17	0x3c0e53fa	0.008687014
18	0xbe055509	-0.1302072
19	0x3cd884b2	0.026430462
20	0xbc911314	-0.017709292
21	0xbc21b150	-0.009868935
22	0x3cbd2abd	0.023091668
23	0xbd932029	-0.071838684
24	0xbe894728	-0.268121
25	0xbe8308ee	-0.2559275
26	0x3df7bcf1	0.120965846
27	0x3e060adc	0.1309008
28	0x3d37bfee	0.044860773
29	0x3ef42dd5	0.47691217
30	0xbe0fb59b	-0.1403412
31	0xbc8aa2a7	-0.016923262
32	0xbd0e5ce5	-0.03475656
33	0xbe15b5b0	-0.1462009
34	0xbe4726d5	-0.19448407
35	0xbd01f090	-0.03172356
36	0xbb60f158	-0.003432354
37	0xb92f269c	-0.00016703684
38	0x3e411644	0.1885615
39	0x3e04cd8f	0.1296904
40	0x3e96e07d	0.29468146
41	0x3e248563	0.16066508
42	0xbe2f36d0	-0.17110753
43	0xbce47b8e	-0.027890947
44	0xbdaeb976	-0.085314676
45	0xbd1cd6d4	-0.038290814
46	0xbcc656e3	-0.024211353
47	0x3a1bac80	0.0005938485
48	0xbce01825	-0.027355263
49	0x3d5e732f	0.054309066
50	0x3e2e3567	0.17012559
51	0x3d37cf37	0.04487535
52	0x3d487dcf	0.048948105
53	0x3d4c721c	0.04991351
54	0xbef898c8	-0.48554063
55	0xbd55a85d	-0.052162517
56	0x3e1b2faa	0.15154901
57	0xbcada082	-0.0211947
58	0xb9c901d8	-0.0003833908
59	0x3be372ca	0.006941174
60	0x3d62cf6a	0.055373587
61	0xbc04f0f7	-0.008114091
62	0x3cac7ac0	0.021054626
63	0xbb3264f4	-0.0027220817
64	0x3f8cb804	1.0993657
65	0xbd101ad4	-0.035181835
66	0xbf72f8b1	-0.9491072
67	0x3eb11e12	0.34593254
68	0x3e04fb7a	0.12986556
69	0x3ecbc432	0.39798123
70	0xbc7e636c	-0.015526634
71	0x3c0617e8	0.008184411
72	0x3b914d6c	0.0044342782
73	0xbd4090db	-0.047013145
74	0x3ce4f2a6	0.027947735
75	0x3c092eed	0.008373004
76	0xbb898a3f	-0.0041973884
77	0xbd8f358d	-0.06992636
78	0xbe64fc46	-0.2236186
79	0xbea1a6ce	-0.31572574
80	0x3e3ed9a9	0.18637718
81	0x3e0ba129	0.13635696
82	0xbf060c1a	-0.52362216
83	0xbe4352ef	-0.19074605
84	0xbd6ef2a5	-0.058336873
85	0x3c545299	0.012959146
86	0xbdf00bac	-0.11720976
87	0x3c742f69	0.014903882
88	0xbcb8ef7f	-0.022575138
89	0xbc05d193	-0.008167642
90	0xbe22548e	-0.15852568
91	0xbcbb1958	-0.022839233
92	0xbdd63dce	-0.10461007
93	0xbd89eaea	-0.067342594
94	0x3da2671b	0.07929822
95	0xbe826910	-0.2547078
96	0xbda49384	-0.08035949
97	0xbd07217a	-0.03299091
98	0x3c850972	0.016239855
99	0x3e446a84	0.19181257
100	0x3c680485	0.014161234
101	0xbbc6d448	-0.0060677864
102	0x3b36e9b9	0.0027910306
103	0x3d6fd4be	0.058552496
104	0xbec2d29e	-0.38051313
105	0xbdf1ed49	-0.11812837
106	0xbe80d540	-0.25162697
107	0xbdee3b20	-0.11632371
108	0xbebeb419	-0.3724678
109	0x3d0c019d	0.034181226
110	0x3da0fb5d	0.07860444
111	0x3bbff5bd	0.0058581517
112	0x3e0d3deb	0.13793151
113	0xbb86ae41	-0.004110128
114	0x3b63b118	0.0034743007
115	0xbcae9142	-0.021309499
116	0x3e275870	0.1634233
117	0x3ed31258	0.41224933
118	0x3e883fb3	0.266111
119	0x3d80a745	0.06281904
120	0x3d3706c3	0.044684183
121	0xbbb91ee4	-0.0056494344
122	0x3d65f2bf	0.056139704
123	0x39791bee	0.00023756895
124	0x3cb0a3c7	0.02156247
125	0x3b47fdd5	0.0030516286
126	0x3b191bf1	0.0023362602
127	0xbc15c4bf	-0.009141146
128	0xbbad393a	-0.005286363
129	0xbe579bff	-0.21055602
130	0x3d2823de	0.04104983
131	0xbd708b4e	-0.0587266
132	0x3dd55f3f	0.104185574
133	0xbe8a6106	-0.27027148
134	0xbd755210	-0.059892714
135	0x3d03ca8c	0.032175586
136	0x3c8d258c	0.017229818
137	0x3c2eea5c	0.010675993
138	0xbd9c0d1f	-0.0761969
139	0x3bbd3acf	0.005774833
140	0x3cdb3123	0.026756829
141	0x3b1af7f6	0.0023646331
142	0x3e99ed4e	0.30063862
143	0xbda4c990	-0.080462575
144	0xbd9bf6b4	-0.07615414
145	0x3e3fceaf	0.18731187
146	0xbc554f61	-0.013019414
147	0x3c67070e	0.014100803
148	0xbdbbe59c	-0.09174654
149	0x3e277777	0.16354166
150	0x3e2c3796	0.1681808
151	0x3d79814e	0.06091433
152	0xbc8f42b4	-0.017487861
153	0x3cc695ef	0.024241416
154	0xbb89dced	-0.0042072446
155	0xbdec5a12	-0.11540617
156	0x3e4d4921	0.20047428
157	0xbe43d044	-0.19122416
158	0x3c73d0b7	0.014881304
159	0xbf17fdee	-0.5937184
160	0xbdc120b2	-0.09430064
161	0x3ab569d5	0.0013840745
162	0xbd600122	-0.05468858
163	0x3cb4ec70	0.022085398
164	0xbe16cf19	-0.14727439
165	0xbcaf194d	-0.021374369
166	0xbc98ecca	-0.018667597
167	0x3b691471	0.0035565163
168	0xbda70e78	-0.081570566
169	0x3ea61af5	0.32442442
170	0x3d49d2d3	0.049273323
171	0x3db7001f	0.0893557
172	0xbd7cd1b8	-0.06172344
173	0x3d86b0c8	0.06576687
174	0x3d571512	0.05251033
175	0xbd46f565	-0.04857387
176	0x3cad6f4f	0.02117124
177	0xbe4776f4	-0.19478971
178	0xbc5df026	-0.013546025
179	0xbb3cd225	-0.002881178
180	0xbd111be1	-0.035426978
181	0xbe5dcc12	-0.21659878
182	0xbf4ed784	-0.807976
183	0xbde79bce	-0.11309014
184	0xbd274900	-0.040841103
185	0xbd702282	-0.05862666
186	0xbdd9d8d9	-0.106370635
187	0xbc98c3fd	-0.018648142
188	0xbc6d3492	-0.014477866
189	0xbc39befc	-0.011337038
190	0x3c097291	0.008389131
191	0xbb9e9f78	-0.0048407875
192	0x3c3140ba	0.010818655
193	0x3ac35033	0.001490122
194	0x3ba3524c	0.004984176
195	0xbec869e1	-0.3914328
196	0x3e7c56ea	0.2464253
197	0xbd9455fe	-0.07242964
198	0xbd5641ce	-0.05230885
199	0x3dcc7e0b	0.09984978
200	0x3e0ab9db	0.1354746
201	0x3e312aa4	0.17301422
202	0xbd6d9b51	-0.05800945
203	0xbde2c86b	-0.11073383
204	0x3c73feb2	0.014892267
205	0x3bad2fb4	0.0052852277
206	0xba9b5c7e	-0.0011853126
207	0x3dac1e1d	0.08404181
208	0xbe2d0430	-0.16896129
209	0xbe8c6d03	-0.2742692
210	0xbdb7eafb	-0.08980366
211	0x3df93a76	0.12169354
212	0x3d6111bf	0.054948565
213	0x3d8f55c8	0.06998783
214	0x3e2e63e1	0.17030288
215	0xbc5cdd07	-0.013480431
216	0xbe5ce077	-0.21570002
217	0xbc6f75b6	-0.014615467
218	0x3c820139	0.015869724
219	0x3c1e032a	0.009644309
220	0x3d737090	0.05943352
221	0xbf15e4f7	-0.585525
222	0xbdb34c00	-0.0875473
223	0x3d4c84b1	0.049931232
224	0x3d2e2413	0.04251487
225	0x3d9003e9	0.07031996
226	0xbcddf663	-0.027095025
227	0x3b6d9fb1	0.0036258514
228	0xbbbc1e8d	-0.0057409466
229	0x3c249d4a	0.010047266
230	0xbb0e1e48	-0.002168553
231	0xbc053c80	-0.0081321
232	0xbb531118	-0.0032206234
233	0xbb22df01	-0.002485216
234	0x3d061a31	0.03273982
235	0x3e126897	0.1429771
236	0x3ea562b2	0.3230186
237	0xbe46f3c1	-0.19428922
238	0x3e8bdef8	0.2731855
239	0x3d23e880	0.04001665
240	0xbce142da	-0.027497698
241	0x3d2cf74b	0.042228024
242	0x3d938ef4	0.072050005
243	0xbd65ce4d	-0.056104947
244	0x3d8303bb	0.06397196
245	0x3d16e4c0	0.036839247
246	0x3d937d3b	0.0720162
247	0x3e71b660	0.23604727
248	0x3e51d09b	0.20489733
249	0x3b88ccb5	0.0041747936
250	0xbe97680c	-0.2957157
251	0x3e344a03	0.17606358
252	0x3dcbaad7	0.099446945
253	0x3bb29a95	0.0054505565
254	0x3bfeb40e	0.007772929
255	0x3e424f90	0.18975663

bias f4 [32]
0	0xbdbc9510	-0.09208119
1	0xbb58f277	-0.0033103505
2	0xbcf0a018	-0.029373214
3	0xbb2b1b63	-0.0026108853
4	0xbd72cce7	-0.05927744
5	0xbe19c483	-0.1501637
6	0xbe1ea4eb	-0.15492599
7	0xbd555f70	-0.05209297
8	0xbe353b4f	-0.17698406
9	0xbe0545cd	-0.13014908
10	0x3c76da44	0.015066687
11	0xbd178360	-0.036990523
12	0xbcbc23c7	-0.022966279
13	0xbad27eaa	-0.0016059477
14	0x3f073d06	0.5282749
15	0xbd6c7de2	-0.05773724
16	0xbde98ea5	-0.114041604
17	0x3e8a3508	0.26993585
18	0x3d11c266	0.035585783
19	0xbbb933d3	-0.00565193
20	0xbd425e2d	-0.047453094
21	0xbd547b53	-0.051875424
22	0xbcbc6670	-0.022998065
23	0xbcbfe009	-0.023422258
24	0x3ba1b8c9	0.004935358
25	0xbc14bfa2	-0.009078892
26	0xbd835df4	-0.064144045
27	0x3ceaf43d	0.028680915
28	0x3d68bf5a	0.056823112
29	0x3d50f0ce	0.0510109
30	0xbcb953f8	-0.022623047
31	0xbd1f2da8	-0.0388619

weight f4 [32, 64]
0	0x3d67aa49	0.05655888
1	0xbddac8ab	-0.10682806
2	0xbd3097f8	-0.04311368
3	0xbe7334b2	-0.2375057
4	0xbd98ab5b	-0.074545585
5	0xbe4478f5	-0.19186766
6	0xbe9068cc	-0.28204954
7	0xbe6d535c	-0.2317633
8	0xbdd2b308	-0.10288054
9	0xbe7438df	-0.2384982
10	0xbd2737b0	-0.040824592
11	0xbde2683b	-0.11055037
12	0xbdc7d93f	-0.09758233
13	0x3be51845	0.0069914185
14	0xbe365d4f	-0.17809032
15	0xbda81bac	-0.08208403
16	0xbd681054	-0.056656197
17	0xbe90cc76	-0.2828099
18	0xbe841966	-0.25800627
19	0xbe523ca4	-0.20530945
20	0xbde3f58f	-0.11130821
21	0xbdb89431	-0.0901264
22	0xbdff17db	-0.12455722
23	0xbe453e0d	-0.19261952
24	0xbe2ae167	-0.16687547
25	0xbd6ff018	-0.05857858
26	0xbdc70b69	-0.09718973
27	0xbd9dd82b	-0.077072464
28	0x3c26cb79	0.010180348
29	0xbe13b1fb	-0.14423363
30	0xbdaf3560	-0.08555102
31	0xbd6cd4ab	-0.057820003
32	0xbe25835f	-0.16163395
33	0xbd0c1eb9	-0.034208987
34	0xbe4000b2	-0.18750265
35	0xbd9ae2fb	-0.07562824
36	0xbeb0b93c	-0.34516323
37	0xbd2821a6	-0.041047715
38	0xbe2b98d1	-0.16757514
39	0xbd0d4a43	-0.03449465
40	0xbe243cfc	-0.16038889
41	0xbea7bb8e	-0.3276028
42	0xbda57984	-0.08079818
43	0xbe1f633e	-0.15565202
44	0xbe54d6ec	-0.20785111
45	0x3d169d73	0.03677125
46	0xbe55de88	-0.2088567
47	0x3de886e7	0.113538556
48	0xbe6b42bb	-0.22974674
49	0xbe816ba4	-0.25277436
50	0xbcb0c9d7	-0.02158062
51	0xbe16e042	-0.14733985
52	0x3d3aabe5	0.045574088
53	0xbe29bf5c	-0.16576904
54	0xbd8c747e	-0.068581566
55	0xbe9ff037	-0.31237957
56	0x3d51850f	0.051152285
57	0xbebb90fa	-0.36634046
58	0xbdc36be4	-0.09542063
59	0xbe2f55e4	-0.17122608
60	0xbed81110	-0.42200518
61	0xbb606bb5	-0.0034243886
62	0xbdb89204	-0.09012225
63	0x3cfa7865	0.030574987
64	0xbe4c5a4d	-0.19956322
65	0xbec6b061	-0.3880644
66	0xbc2cba53	-0.01054247
67	0xbcd04d47	-0.025427474
68	0xbe6937c0	-0.22775173
69	0x3ea22f59	0.31676748
70	0xbe117057	-0.1420301
71	0x3e0f4b1c	0.13993496
72	0xbdaf5a16	-0.085621044
73	0x3e278322	0.16358617
74	0xbe81b92f	-0.25336596
75	0xbd88951d	-0.06669066
76	0xbd827535	-0.06370012
77	0xbe1bf787	-0.15231143
78	0xbe4a5420	-0.19758654
79	0xbcd64426	-0.026155543
80	0xbec034cb	-0.37540278
81	0x3e931929	0.28730133
82	0x3dce5736	0.10075228
83	0xbed465fb	-0.41484055
84	0xbedd8bde	-0.43270773
85	0xbf10b7bc	-0.56530356
86	0x3d9617b7	0.07328742
87	0xbdecc1e3	-0.115604185
88	0x3bbb4bbf	0.0057158167
89	0xbdbff3fc	-0.09372708
90	0xbdc19cb9	-0.094537206
91	0xbe91514a	-0.2838233
92	0xbdc3fe21	-0.095699556
93	0xbecd81a5	-0.40137973
94	0xbe5825c9	-0.21108164
95	0xbd9c1706	-0.07621579
96	0xbef88373	-0.48537788
97	0xbea895a5	-0.3292667
98	0xbe2e831a	-0.17042199
99	0xbdca0f45	-0.09866194
100	0xbe932f20	-0.2874689
101	0x3d8560e3	0.0651262
102	0xbe094d98	-0.13408506
103	0xbe2256c5	-0.15853412
104	0x3d62efb3	0.055404376
105	0xbda2af00	-0.07943535
106	0xbeb1f53d	-0.34757414
107	0xbd597625	-0.053091187
108	0xbd386b95	-0.045024473
109	0x3cb8a532	0.022539709
110	0xbe8efab7	-0.27925655
111	0xbe54d375	-0.2078379
112	0xbef4ca26	-0.47810477
113	0x3d475e0c	0.048673674
114	0x3de5b21e	0.11215614
115	0xbe677d30	-0.22606349
116	0xbe8e4713	-0.277886
117	0xbed4f9c1	-0.41596797
118	0xbe402932	-0.18765715
119	0xbe064e27	-0.1311575
120	0xbdc7e033	-0.097595595
121	0xbc2db80a	-0.01060296
122	0xbeb19912	-0.34687096
123	0xbd632309	-0.055453334
124	0xbe3df185	-0.18549164
125	0xbe2ecb07	-0.17069636
126	0xbe465697	-0.19368969
127	0xbe4e0003	-0.20117192
128	0x3d8fe572	0.07026185
129	0xbde91515	-0.11380974
130	0x3bd762d0	0.0065730587
131	0xbd693ddc	-0.05694376
132	0x3d0d9d9c	0.034574136
133	0xbb93fa13	-0.004515895
134	0x3c96b20a	0.018395443
135	0xbe1aa162	-0.15100625
136	0x3e4a9b00	0.1978569
137	0x3cfc6f80	0.030814886
138	0xbdb4b67e	-0.0882387
139	0xbdd30403	-0.103034995
140	0x3c3bdf1d	0.011466769
141	0x3d382478	0.044956654
142	0x3c91aab6	0.017781597
143	0x3d006256	0.03134378
144	0xbd1843af	-0.037173923
145	0x3d5e7510	0.05431086
146	0xbb88a775	-0.004170353
147	0x3c313272	0.01081525
148	0x3de4fb3b	0.11180731
149	0x3da8a014	0.082336575
150	0x3cc715f9	0.02430247
151	0xbdd6e2ec	-0.10492501
152	0xbd9a9956	-0.07548778
153	0xbcb66a40	-0.02226746
154	0x3cafa699	0.021441745
155	0x3d7838f3	0.060601186
156	0x3d913069	0.07089312
157	0xbe00eb4e	-0.12589762
158	0x3dd6acc7	0.104821734
159	0x3de2a4e8	0.110666096
160	0xbe5af0e8	-0.21380961
161	0x3e1bfce2	0.15233186
162	0xbd753fdc	-0.059875354
163	0x3e003a7f	0.12522314
164	0xbda36480	-0.07978153
165	0xbc56728c	-0.013088834
166	0x3cae5fba	0.02128588
167	0x3e60a28a	0.21937004
168	0xbe1155ba	-0.14192858
169	0x3d3f9a62	0.04677809
170	0x3cfadd19	0.030623006
171	0x3d87cad0	0.0663048
172	0xbca9b54d	-0.020716334
173	0xbdbaef7b	-0.091277085
174	0x3b6ce55e	0.0036147456
175	0xbe4afd3f	-0.19823168
176	0xbd866bbb	-0.06563517
177	0x3c946cc3	0.018118268
178	0xbd10095f	-0.035165187
179	0xbd15c9e3	-0.036569487
180	0xbdb393db	-0.087684356
181	0xbd857621	-0.06516672
182	0xbd52a261	-0.051424388
183	0x3d6469b1	0.055764858
184	0xbcb0f77c	-0.021602385
185	0x3cbe1f15	0.02320818
186	0xbdc82ab8	-0.09773773
187	0xbd3f3451	-0.046680752
188	0xbd89203a	-0.066956
189	0x3bc3786c	0.005965283
190	0xbd36cbf0	-0.044628084
191	0xbdacd80e	-0.08439647
192	0xbe206f67	-0.15667497
193	0xbd050175	-0.032472093
194	0xbd7d7fbb	-0.06188939
195	0x3e0f7a47	0.14011489
196	0xbdad9781	-0.08476163
197	0x3babe8fa	0.005246279
198	0xbd9e1495	-0.077187695
199	0xbdf5f693	-0.12009921
200	0xbd8109e3	-0.06300714
201	0xbe0ef726	-0.13961467
202	0xbdc15739	-0.094404645
203	0xbe2748ed	-0.16336413
204	0xbd822287	-0.06354242
205	0xbcbcfc31	-0.023069473
206	0xbd646217	-0.05575761
207	0xbca2f743	-0.019893294
208	0xbdb37066	-0.08761673
209	0xbe087f03	-0.13329701
210	0x3d21e554	0.039525345
211	0x3d562641	0.052282576
212	0xbc930425	-0.017946312
213	0xbe518b1a	-0.2046322
214	0xbca3a5aa	-0.019976456
215	0xbe38407a	-0.17993346
216	0xbd7bdf7c	-0.06149243
217	0x3e3b2eba	0.18279544
218	0xbdfc1ff6	-0.123107836
219	0xbd672e3f	-0.056440588
220	0x3d75089f	0.059822675
221	0xbe8a3287	-0.26991674
222	0xbe0a1e2d	-0.13488074
223	0xbe375270	-0.17902541
224	0xbe6f132a	-0.23347154
225	0xbecc5474	-0.39908183
226	0xbe413715	-0.18868668
227	0xbe3be7a0	-0.18350077
228	0xbe2ccd85	-0.16875274
229	0xbe429951	-0.19003798
230	0xbe6ed757	-0.23324333
231	0xbd0e9ef3	-0.034819555
232	0xbe36b461	-0.17842247
233	0xbdd1bb13	-0.1024076
234	0xbe8f7699	-0.2802017
235	0xbd6e6fcf	-0.058212098
236	0xbd8c4119	-0.06848354
237	0x3c1220df	0.00891897
238	0xbe4ccae6	-0.19999275
239	0xbe1be8cc	-0.15225524
240	0xbe108d98	-0.14116514
241	0xbdfec91d	-0.12440703
242	0xbde1b632	-0.11021079
243	0xbe1cc45b	-0.15309279
244	0xbe9c7ee6	-0.30565566
245	0xbee8761c	-0.4540261
246	0x3c56a97e	0.0131019335
247	0xbd9a2def	-0.075282924
248	0xbe4a6945	-0.1976672
249	0xbd90a140	-0.07062006
250	0xbe7f42e5	-0.24927862
251	0xbe3ed4cd	-0.18635865
252	0xbd6f2165	-0.058381457
253	0xbe8584dd	-0.2607793
254	0xbe80e320	-0.25173283
255	0xbe416ba9	-0.18888725

bias f4 [32]
0	0xbdbcb599	-0.092143245
1	0xbb0d7452	-0.0021584225
2	0xbd3ab834	-0.045585826
3	0xbb25fc5a	-0.0025327415
4	0xbc8f79f5	-0.017514208
5	0xbd87615f	-0.06610369
6	0xbe32d15f	-0.17462681
7	0xbd5506a8	-0.0520083
8	0xbe34afe7	-0.17645226
9	0xbd874095	-0.06604115
10	0x3c77e032	0.015129136
11	0xbd17b709	-0.03703979
12	0xbd83ba48	-0.06432015
13	0xbad4fa15	-0.0016248847
14	0x3f07ee2f	0.53097814
15	0xbc954781	-0.018222572
16	0xbded47e9	-0.115859814
17	0x3e8fe066	0.2810089
18	0x3d11c371	0.035586778
19	0xbbaaaf05	-0.0052088522
20	0xbd441687	-0.047873046
21	0x3b817cd9	0.0039516506
22	0xbcbc6aa6	-0.023000073
23	0xbccdd07e	-0.02512383
24	0x3b6f31b9	0.0036498143
25	0x3c0d9cf2	0.008643376
26	0xbd503f40	-0.05084157
27	0x3ce92b0e	0.028462913
28	0x3d6481cd	0.05578785
29	0x3d2b98ba	0.0418937
30	0xbc8bf601	-0.017085077
31	0xbd1ef26c	-0.03880541

weight f4 [32, 32]
0	0x3cf3aab6	0.029744487
1	0xbe046809	-0.12930311
2	0x3d6984fc	0.05701159
3	0xbe0ffde5	-0.14061697
4	0x3bd61ba3	0.0065340563
5	0xbe0a082d	-0.13479681
6	0xbcdc6bc9	-0.026906865
7	0xbd616b43	-0.055033933
8	0xbe4f9823	-0.2027288
9	0xbdc0560c	-0.09391412
10	0xbe030681	-0.1279545
11	0x3d5c7c9b	0.05382977
12	0xbc992755	-0.018695513
13	0xbe0c0bfa	-0.13676444
14	0xbdaf27cc	-0.085525125
15	0xbe0fc8d1	-0.14041449
16	0x3c6d4a8a	0.0144831035
17	0xbd6e0359	-0.05810866
18	0xbe1265ed	-0.14296694
19	0xbdabccc7	-0.083886676
20	0xbe001dfa	-0.12511435
21	0xbd127f09	-0.03576568
22	0xbe2bc252	-0.16773346
23	0xbd898407	-0.06714635
24	0xbe0e28a1	-0.13882686
25	0xbdbd4471	-0.0924157
26	0xbc4c51cd	-0.012470675
27	0x3c7f114d	0.01556809
28	0x3d94d8fb	0.07267948
29	0x3d05e47c	0.032688603
30	0xbdc0144f	-0.093788736
31	0xbdc3ae7b	-0.09554764
32	0xbe23eeab	-0.16009013
33	0x3dad28a0	0.08455014
34	0xbd3aa429	-0.04556671
35	0xbd24a769	-0.040198717
36	0xbe700609	-0.23439802
37	0x3e12e95e	0.14346835
38	0xbe71b095	-0.23602517
39	0x3dedb666	0.11607055
40	0x3df05603	0.117351554
41	0x3cabdd63	0.020979589
42	0x3e1d4cc6	0.15361318
43	0x3e6655f4	0.22493726
44	0xbdd11f88	-0.10211092
45	0x3d78bba3	0.06072582
46	0x3e7b2fba	0.24529925
47	0xbd4ae750	-0.049537003
48	0xbd807561	-0.06272388
49	0xbb87fd7b	-0.0041500903
50	0xbe0f6122	-0.14001897
51	0x3e53e2f7	0.20692049
52	0x3e89420f	0.2680821
53	0xbe664968	-0.2248894
54	0x3e3febfb	0.18742363
55	0x3da2425b	0.079228126
56	0xbd05566d	-0.032553125
57	0xbe6a1aac	-0.22861737
58	0x3df52902	0.11970712
59	0xbe6aac1e	-0.2291722
60	0xbe92522e	-0.28578323
61	0x3cbd2a52	0.023091469
62	0xbda23b0e	-0.0792142
63	0x3d4bae32	0.049726672
64	0xbd282b73	-0.04105706
65	0x3d73c3bf	0.05951285
66	0x3e3acce4	0.18242222
67	0x3e99d53f	0.30045506
68	0xbe03e427	-0.12880002
69	0xbd223d39	-0.039609168
70	0xbdd58bf1	-0.10427082
71	0xbcbde342	-0.023179654
72	0x3e4ec61e	0.20192763
73	0xbe41fcf2	-0.18944147
74	0x3a7cd993	0.0009645458
75	0x3d534558	0.051579803
76	0x3e430fbb	0.1904897
77	0x3dde034d	0.10840473
78	0xbd1b8514	-0.03796871
79	0x3cd2fc5d	0.025755102
80	0x3dffb709	0.12486083
81	0x3dc37018	0.095428646
82	0xbe1cefd3	-0.1532586
83	0x3e5a06e2	0.21291688
84	0x3dc880b2	0.09790172
85	0xbd6536ec	-0.05596058
86	0x3d2a537a	0.041583516
87	0x3de19519	0.11014766
88	0xbe01e5b8	-0.12685287
89	0x3e002a48	0.12516129
90	0xbddf632c	-0.109075874
91	0x3ccde54a	0.025133748
92	0xbc0444be	-0.00807303
93	0xbd997ab0	-0.07494104
94	0x3e734319	0.23756064
95	0x3d8ae41e	0.06781791
96	0x3c0fa90f	0.008768334
97	0x3dda921f	0.10672402
98	0xbdd5ab25	-0.10433034
99	0x3c9e4872	0.019321654
100	0xbcef2615	-0.029192964
101	0x3e49d478	0.19709957
102	0x3cc637cf	0.024196533
103	0xbe03a744	-0.12856776
104	0x3e2fcea6	0.17168674
105	0x3e538f91	0.20660235
106	0x3d26f21e	0.040758245
107	0x3e2a533f	0.16633318
108	0x3cdc1452	0.026865158
109	0xbde6e6c3	-0.11274483
110	0xbdaa5c50	-0.083183885
111	0x3dd81bc2	0.105521694
112	0xbd6548a5	-0.055977482
113	0x3dfe5236	0.12418024
114	0xbc929199	-0.017891692
115	0x3e8a6e5c	0.27037323
116	0xbd61bbef	-0.055110868
117	0xba47b056	-0.00076175237
118	0x3d58d347	0.052935865
119	0xbe573a37	-0.21018301
120	0xbe09d968	-0.1346184
121	0x3e09b6f5	0.13448699
122	0x3d9cecd1	0.07662357
123	0x3e86a3b5	0.26296774
124	0xbe64cecf	-0.22344516
125	0xbd2da941	-0.04239774
126	0x3d258fe8	0.040420443
127	0xbcd11525	-0.025522778
128	0xbea527d3	-0.32256946
129	0xbed9fba8	-0.4257481
130	0x3d512001	0.051055912
131	0x3c38a9b6	0.011270931
132	0xbeb4a226	-0.3527996
133	0x3e4fdedc	0.20299858
134	0x3e348a08	0.1763078
135	0x3af432ec	0.0018630899
136	0x3cb39c9d	0.021925265
137	0x3e8cdb7c	0.27511203
138	0xbedb17f4	-0.42791712
139	0xbdc2dac8	-0.095143855
140	0x3dbc7cb9	0.092034765
141	0xbc7a7dc5	-0.015288775
142	0xbe5626f1	-0.20913292
143	0xbe4912ce	-0.1963608
144	0x3dd7130b	0.10501679
145	0xbe2f54e7	-0.17122231
146	0x3ddea63e	0.10871552
147	0xbe82f870	-0.25580168
148	0xbe99b9fb	-0.30024704
149	0x3da72cff	0.08162879
150	0x3e0b3879	0.13595761
151	0x3ddf12e7	0.10892277
152	0x3e47fe73	0.19530658
153	0x3c9e5dfe	0.019331928
154	0x3e8ffd83	0.28123102
155	0xbcf4026b	-0.02978631
156	0x3e140627	0.14455472
157	0xbdb47ab9	-0.0881247
158	0xbec65041	-0.38733104
159	0xbdc1d65c	-0.09464714
160	0x3dff8d78	0.12478155
161	0xbc086505	-0.008324866
162	0x3cdeddaa	0.027205307
163	0xbd8856bf	-0.066571705
164	0x3dbc3ba0	0.0919106
165	0xbd2cf29f	-0.04222357
166	0xbd1f751f	-0.038930055
167	0x3d3b219a	0.04568634
168	0x3e27be89	0.16381277
169	0x3dfd3781	0.12364102
170	0x3d1d2bd3	0.038371872
171	0x3e258218	0.16162908
172	0x3c99d082	0.018776182
173	0xbd21ff34	-0.03955002
174	0x3e6a9eaa	0.22912088
175	0xbd8d253e	-0.06891869
176	0xbd0b2ef9	-0.033980343
177	0xbdea489c	-0.114396304
178	0x3ea0d49f	0.31412217
179	0xbcc25fb4	-0.023727275
180	0xbe46a670	-0.19399428
181	0x3e936762	0.28789812
182	0x3d0687bd	0.032844294
183	0x3c97d1e2	0.018532697
184	0x3d9e18ba	0.0771956
185	0x3a630965	0.00086607627
186	0x3e6efb0e	0.23337957
187	0x3d51dc48	0.051235467
188	0xbd5d3afd	-0.054011334
189	0xbcfa52ff	-0.030557154
190	0xbd645b84	-0.05575134
191	0x3c2bec9b	0.010493423
192	0xbd34cb71	-0.04413933
193	0xbb744269	-0.003727103
194	0xbd3819ba	-0.04494641
195	0xbc95b7fa	-0.018276203
196	0x3ddb5a17	0.10710543
197	0xbdb118d5	-0.086473145
198	0xbd4474b2	-0.04796285
199	0x3c1d9dc1	0.009620131
200	0xbe08a779	-0.13345136
201	0x3d59754d	0.053090382
202	0xbe570e41	-0.21001531
203	0x3e1b4043	0.15161233
204	0xbe375b1b	-0.17905848
205	0xbcd08fff	-0.025459288
206	0x3d7d5124	0.06184496
207	0xbe09acee	-0.13444874
208	0xbe11a72b	-0.14223926
209	0xbc89a8f9	-0.016804205
210	0xbd64d640	-0.055868387
211	0xbc29b9fc	-0.010359284
212	0x3d84cc01	0.06484223
213	0xbd86ee4c	-0.0658842
214	0xbd2d5ff7	-0.042327847
215	0xbd10e898	-0.03537807
216	0x3dacafe2	0.084319845
217	0xbdf5007d	-0.11962984
218	0xbe27955d	-0.16365571
219	0x3ba68a1e	0.005082383
220	0xbd6b4ce4	-0.057446375
221	0x3d57ab2d	0.05265348
222	0xbd8389c2	-0.064227596
223	0x3d06275b	0.032752376
224	0x3e563da3	0.2092195
225	0xbd8443da	-0.06458254
226	0x3bc504d1	0.006012537
227	0x3de9f403	0.11423495
228	0x3e79ad8e	0.24382612
229	0xbe9d6a2c	-0.30745065
230	0x3c4e7ba2	0.012602719
231	0xbcca972e	-0.024730291
232	0x3c809ec1	0.0157007
233	0x3cb422ea	0.021989305
234	0x3e98601a	0.2976082
235	0x3d63bdfc	0.055601105
236	0x3e0a06f9	0.13479222
237	0x3db28a79	0.08717818
238	0x3e19a3c6	0.15003881
239	0xbdcebc53	-0.10094514
240	0x3c313ecf	0.010818197
241	0xbd7c86e0	-0.061652064
242	0xbc9e5d8b	-0.019331714
243	0x3d17efe6	0.03709402
244	0x3e2e3635	0.17012866
245	0xbdece030	-0.11566198
246	0xbe181ab0	-0.1485393
247	0xbe44a37b	-0.19202988
248	0xbda47e2a	-0.080318764
249	0x3da2aa1d	0.07942603
250	0x3cc552d1	0.024087342
251	0x3d99feca	0.075193
252	0x3d4f1788	0.05055955
253	0x3d3241fb	0.043519955
254	0x3e25f567	0.16206895
255	0x3d9870b7	0.07443374

bias f4 [32]
0	0x3cffa89c	0.031208329
1	0x3e19f62e	0.15035316
2	0x3c942098	0.018081948
3	0x3ce26ce2	0.02763981
4	0x3dfa07ff	0.122085564
5	0x3ca2abac	0.01985725
6	0x3b57a248	0.0032903124
7	0x3de819a8	0.113330185
8	0x3d3dd77f	0.04634809
9	0xbc1f8d1e	-0.009738235
10	0x3e6e1f69	0.2325417
11	0xbcae8712	-0.02130464
12	0x3dbf801e	0.09350608
13	0x3cb8a3d2	0.022539053
14	0x3c89665b	0.01677244
15	0x3d32ec2e	0.04368227
16	0x3dbdd9e4	0.09270075
17	0x3c74509f	0.0149118
18	0xbb3f1306	-0.0029155626
19	0x3df4ae2c	0.11947283
20	0xb907a27d	-0.00012935135
21	0x3c09e9fe	0.0084176045
22	0xb9316233	-0.00016916617
23	0x3dbf05ee	0.09327303
24	0x3e22d5b0	0.15901828
25	0xb9de598f	-0.00042409866
26	0xbd6ae4ed	-0.057347227
27	0xba3022d3	-0.00067190564
28	0x3d0c9fb2	0.034331985
29	0x38cae4be	9.674717e-05
30	0x3ca510ba	0.020149577
31	0x3d12292d	0.0356838

weight f4 [32, 32]
0	0xbe3f1eb4	-0.18664056
1	0x3e41c0f4	0.18921262
2	0xbd9d8e44	-0.07693151
3	0x3e5ee4b0	0.21766925
4	0xbd731fab	-0.059356373
5	0x3e0014b3	0.12507896
6	0x3e00e29d	0.12586446
7	0xbdae7248	-0.08517891
8	0xbd855fcb	-0.06512412
9	0x3e6f9c2c	0.23399419
10	0x3dabd85d	0.083908774
11	0xbd063035	-0.032760818
12	0xbcc23297	-0.023705764
13	0x3e575cf4	0.21031553
14	0x3dac3126	0.08407812
15	0xbe41b461	-0.18916465
16	0x3da6caa4	0.081441194
17	0xbd9e4813	-0.07728591
18	0x3e5e0c68	0.2168442
19	0x3e2dbe18	0.16967046
20	0x3ce58804	0.028018959
21	0xbe46eeb3	-0.19426994
22	0xbd02dc72	-0.031948514
23	0xbe0f5337	-0.13996588
24	0x3884739f	6.3157866e-05
25	0xbdabc1be	-0.08386563
26	0xbdc9ced6	-0.09853904
27	0x3b924411	0.0044636806
28	0xba6d9d0c	-0.00090642343
29	0xbcf60632	-0.030032251
30	0xbe652456	-0.22377142
31	0xbdbd5af3	-0.09245863
32	0xbbf915b2	-0.0076014632
33	0x3e1d62f4	0.15369779
34	0xbe775d8f	-0.24156784
35	0xbcc46d22	-0.02397782
36	0x3ea5ee29	0.32408264
37	0xbd7310a4	-0.05934204
38	0xbd5fb21a	-0.05461321
39	0xbe24f8e8	-0.16110575
40	0xbeaa23e3	-0.33230504
41	0x3d9efa40	0.07762575
42	0xbc9bf017	-0.019035382
43	0xbc77331e	-0.015087871
44	0xbe524703	-0.20534901
45	0x3c976d94	0.018484868
46	0x3e135e9b	0.14391558
47	0xbeb0962a	-0.34489566
48	0xbdc0a81c	-0.09407064
49	0x3d2735b8	0.040822715
50	0x3bb8a270	0.0056345984
51	0xbde5aadb	-0.11214229
52	0x3c9e4c25	0.019323418
53	0xbc99ebd9	-0.018789219
54	0x3d35e3a2	0.04440654
55	0xbda17fda	-0.07885714
56	0xbe42c34d	-0.19019814
57	0xbe76ee4a	-0.24114338
58	0x3dcc4a65	0.09975127
59	0xbe70e13c	-0.2352342
60	0x3ea7b56f	0.3275561
61	0xbe2435ab	-0.16036098
62	0x3df46848	0.119339526
63	0xbdf55e85	-0.11980919
64	0xbbd1bc44	-0.006400617
65	0xbe199f18	-0.15002096
66	0xbe0a9e63	-0.13536982
67	0xbc41339e	-0.011792092
68	0xbe11f372	-0.14253023
69	0x3dddfc4e	0.10839139
70	0x3ce937fb	0.028469076
71	0xbdcd6942	-0.10029842
72	0xbd9e3ebd	-0.0772681
73	0xbe546b32	-0.20744017
74	0x3e8ea7e3	0.27862462
75	0xbe11b0a4	-0.1422754
76	0x3d6bfc66	0.057613753
77	0xbd66db50	-0.056361496
78	0xbdd258e2	-0.10270859
79	0x3da684ed	0.08130822
80	0xbe1de0b0	-0.15417743
81	0x3e00a9c0	0.12564754
82	0xbcf47200	-0.029839516
83	0xbe8e45a8	-0.27787519
84	0xbe478682	-0.19484904
85	0xbe7a7a62	-0.24460748
86	0x3d2bc232	0.041933246
87	0xbe78c3bc	-0.24293417
88	0xbdc2cf38	-0.0951218
89	0xbe817188	-0.2528193
90	0xbdd78631	-0.10523642
91	0x3d808791	0.06275857
92	0xbd0cda82	-0.034388073
93	0x3cba6a80	0.022755861
94	0x3cbfff72	0.023437236
95	0xbbc7443f	-0.0060811336
96	0xbe0ecbdd	-0.13944955
97	0xbde51720	-0.11186051
98	0xbdfc5c2b	-0.12322267
99	0xbdb4f0aa	-0.088349655
100	0xbbf04f1d	-0.00733365
101	0xbd8d0ee4	-0.06887606
102	0xbe88e78c	-0.26739156
103	0xbafd32f8	-0.0019317558
104	0xbee400ab	-0.4453176
105	0xbe28d906	-0.16489038
106	0x3e10cd72	0.14140871
107	0xbd5fc019	-0.054626558
108	0x3d45578d	0.048179198
109	0xbd4692f1	-0.048479978
110	0x3dee72aa	0.11642964
111	0xbe27d0c8	-0.16388237
112	0xbde2fa65	-0.11082915
113	0xbe6a76c9	-0.22896875
114	0xbca38bac	-0.019964062
115	0xbe027047	-0.12738143
116	0xbd067550	-0.03282672
117	0x3d12d481	0.03584719
118	0x3cafe99f	0.021473704
119	0xbddd7bb8	-0.10814613
120	0xbe1af33f	-0.15131854
121	0xbab52d66	-0.0013822734
122	0xbe153752	-0.14571884
123	0x3d489a81	0.04897547
124	0xbbf0f81e	-0.0073537966
125	0xbdcec7c3	-0.10096695
126	0x3d84bda6	0.06481485
127	0xbdc8932b	-0.09793695
128	0xbe38a95f	-0.1803336
129	0x3efeca54	0.4976374
130	0xbc3f9469	-0.011693099
131	0x3e9420b4	0.289312
132	0x3d020e4b	0.031751912
133	0xbf76eabf	-0.96451944
134	0x3dfbbc23	0.122917436
135	0xbe4acf93	-0.19805746
136	0x3e883f73	0.26610908
137	0xbe2b308a	-0.16717735
138	0x3da7c842	0.08192493
139	0x3e2b3a63	0.16721492
140	0xbec5dd62	-0.38645464
141	0xbee6a4c2	-0.45047575
142	0xbc4015d9	-0.011723959
143	0x3e260440	0.16212559
144	0xbe5f54e5	-0.21809728
145	0xbe38fb8b	-0.18064706
146	0x3e4e1830	0.20126414
147	0xbece89e5	-0.4033958
148	0xbd86352c	-0.065531105
149	0x3d750752	0.059821434
150	0xbe2d9a07	-0.16953288
151	0xbd503f00	-0.05084133
152	0x3ee9274e	0.455378
153	0xbd0414fa	-0.032246567
154	0xbe3eb9e2	-0.18625596
155	0x3e6ee7e4	0.23330647
156	0xbe3c1505	-0.18367393
157	0x3e53e0b5	0.20691188
158	0xbc9dc76a	-0.019260127
159	0x3e7f7aea	0.24949232
160	0x3e0b4b64	0.13602978
161	0xbe0ea93d	-0.13931747
162	0xbd1ec2bb	-0.03875993
163	0xbe16cfe4	-0.14727741
164	0xbe03ad4e	-0.12859079
165	0xbe8d205c	-0.2756375
166	0xbc9227a6	-0.017841171
167	0x3e7cc379	0.24683942
168	0x3e028f74	0.12750036
169	0xbddc7871	-0.1076516
170	0xbdc12d03	-0.094324134
171	0xbd22e1ce	-0.039766125
172	0xbe62eb52	-0.2216008
173	0x3d502602	0.050817497
174	0xbe341584	-0.17586333
175	0x3d0c1826	0.034202717
176	0x3caaf760	0.02086991
177	0xbea31417	-0.31851265
178	0x3cb39e31	0.021926017
179	0xbe7246e6	-0.23659858
180	0xbd0b4859	-0.034004543
181	0x3d9a54e9	0.075357266
182	0xbd2ceb00	-0.0422163
183	0x3e25d14d	0.16193123
184	0x3d749641	0.059713606
185	0xbdc697f9	-0.09696955
186	0xbdf62ddd	-0.120204665
187	0x3c235e3c	0.009971198
188	0x3b61c5a0	0.003445007
189	0x3e57410d	0.21020909
190	0x3c14630a	0.009056816
191	0x3e326d65	0.17424543
192	0x3d97ed4d	0.074183084
193	0x3cefead5	0.029286781
194	0xbdc3f012	-0.09567274
195	0x3dcb0b41	0.09914256
196	0xbdce3194	-0.1006805
197	0x3e34abb5	0.17643626
198	0xbe10bd86	-0.14134797
199	0x3e1f0ba1	0.1553178
200	0xbc87c7eb	-0.01657482
201	0xbe830b78	-0.25594687
202	0xbe2bb901	-0.16769792
203	0xbdbc93f1	-0.09207905
204	0x3db768e5	0.08955554
205	0xbdffce77	-0.12490552
206	0xbcbc1191	-0.022957595
207	0xbda58fc6	-0.08084063
208	0x3d385e62	0.045011885
209	0xbe464d1f	-0.19365357
210	0x3ceb01c1	0.02868736
211	0xbd7533a8	-0.059863716
212	0xbd8e0dad	-0.06936202
213	0x3d85fa48	0.06541878
214	0x3ab7d56e	0.0014025399
215	0x3d27f685	0.041006584
216	0xbbdd27d6	-0.0067491336
217	0x3dd931c4	0.10605195
218	0xbe4d3f4f	-0.20043682
219	0xbd8b3c5f	-0.06798624
220	0xbe5af864	-0.21383816
221	0xbe1c4b5c	-0.15263122
222	0xbda06421	-0.07831598
223	0x3d748957	0.05970129
224	0xbd0e74a2	-0.0347792
225	0xbda4cc81	-0.080468185
226	0xbcc966c7	-0.02458514
227	0x3d3e2764	0.046424285
228	0x3eb59a0a	0.35469085
229	0xbe9f4e8f	-0.31114623
230	0xbe6a48fd	-0.22879405
231	0xbd35832e	-0.044314556
232	0xbe5c7b5c	-0.21531433
233	0xbe487c1a	-0.19578591
234	0xbe4ae772	-0.19814852
235	0xbe44a493	-0.19203405
236	0xbd938e92	-0.072049275
237	0x3df6a60d	0.120433904
238	0xbe27f8dc	-0.16403526
239	0xbcb6ff10	-0.02233842
240	0xbe5e0eca	-0.21685329
241	0xbe028098	-0.12744367
242	0xbba82785	-0.005131664
243	0xbe2229a2	-0.15836194
244	0xbd4f29a8	-0.050576836
245	0x3c93acd7	0.018026752
246	0xbd3a5054	-0.045486763
247	0xbe39282f	-0.18081735
248	0x3db4b466	0.08823471
249	0x3dc388cb	0.095475756
250	0x3c192eb5	0.009349515
251	0xbe58d930	-0.211766
252	0x3e15fc68	0.14647067
253	0xbe247377	-0.16059671
254	0x3c8cc9df	0.017186103
255	0x3db6efdc	0.08932468

bias f4 [32]
0	0x3cff1c0c	0.031141303
1	0x3e21c146	0.15796384
2	0x3c91428f	0.017731933
3	0x3cdda7dc	0.02705758
4	0x3dfc851f	0.12330078
5	0x3ca09701	0.019603254
6	0x3b719bca	0.003686654
7	0x3de5a595	0.11213223
8	0x3d33a6da	0.043860294
9	0xbc1ef131	-0.009701059
10	0x3e6c933d	0.23103042
11	0xbcdc8e07	-0.026923193
12	0x3db9db2f	0.09075009
13	0x3c81fd4f	0.015867857
14	0x3c85163a	0.01624595
15	0x3d31aaa0	0.04337561
16	0x3d8a5326	0.067541406
17	0x3d286099	0.041107748
18	0xbb3f81cc	-0.0029221652
19	0x3defa7e5	0.11701945
20	0xb9098023	-0.00013113073
21	0x3c0aa88d	0.008463037
22	0xb92d325d	-0.00016517327
23	0x3dbedfc4	0.09320024
24	0x3e214466	0.15748748
25	0xba19045d	-0.0005837137
26	0xbd697a28	-0.057001263
27	0xba8185d4	-0.0009881803
28	0x3d372c23	0.044719826
29	0x38d22e86	0.00010022246
30	0x3ca3f070	0.02001211
31	0x3d0ef299	0.034899328
